#dram = #ttnn.buffer_type<dram>
#l1 = #ttnn.buffer_type<l1>
#loc = loc(unknown)
#loc1 = loc("p0.1")
#loc2 = loc("p1.5")
#loc3 = loc("p2.9")
#loc4 = loc("p3.14")
#loc5 = loc("p4.23")
#loc6 = loc("p5.29")
#loc7 = loc("p6.77")
#loc8 = loc("p7.82")
#loc9 = loc("p8.86")
#loc10 = loc("p9.132")
#loc11 = loc("p10.141")
#loc12 = loc("p11.196")
#loc13 = loc("p12.201")
#loc14 = loc("p13.237")
#loc15 = loc("p14.289")
#system_desc = #ttcore.system_desc<[{role = host, target_triple = "x86_64-pc-linux"}], [{arch = <blackhole>, grid = 10x11, coord_translation_offsets = 2x1, l1_size = 1572864, num_dram_channels = 8, dram_channel_size = 4278190080, noc_l1_address_align_bytes = 16, pcie_address_align_bytes = 64, noc_dram_address_align_bytes = 64, l1_unreserved_base = 111360, erisc_l1_unreserved_base = 87872, dram_unreserved_base = 5848704, dram_unreserved_end = 4276464000, supported_data_types = [<f32>, <f16>, <bf16>, <bfp_f8>, <bfp_bf8>, <bfp_f4>, <bfp_bf4>, <bfp_f2>, <bfp_bf2>, <u32>, <u16>, <u8>, <si32>], supported_tile_sizes = [ 4x16,  16x16,  32x16,  4x32,  16x32,  32x32], dst_physical_size_tiles = 16, num_cbs = 64, num_compute_threads = 1, num_datamovement_threads = 2, dram_grid = 1x8, dram_bank_to_logical_worker_noc0 = [(9, 0), (0, 0), (7, 0), (3, 0), (9, 6), (1, 6), (6, 6), (4, 6)], dram_bank_to_logical_worker_noc1 = [(0, 0), (8, 0), (2, 0), (5, 0), (0, 6), (8, 6), (2, 6), (5, 6)]}], [0], [1 : i32], [ 0x0x0x0]>
#system_memory = #ttnn.buffer_type<system_memory>
#ttnn_layout = #ttnn.ttnn_layout<(d0, d1) -> (d0, d1), <1x1>, memref<131072x3072xbf16, #system_memory>>
#ttnn_layout1 = #ttnn.ttnn_layout<(d0, d1) -> (d0, d1), <1x1>, memref<131072x3072xbf16, #dram>, <interleaved>>
#ttnn_layout2 = #ttnn.ttnn_layout<(d0) -> (0, d0), <1x1>, memref<1x128xf32, #system_memory>>
#ttnn_layout3 = #ttnn.ttnn_layout<(d0, d1, d2, d3) -> (d0 * 32 + d1 * 32 + d2, d3), <1x1>, memref<1x4x!ttcore.tile<32x32, f32>, #dram>, <interleaved>>
#ttnn_layout4 = #ttnn.ttnn_layout<(d0, d1, d2, d3) -> (d0 + d1 + d2, d3), <1x1>, memref<1x128xf32, #system_memory>>
#ttnn_layout5 = #ttnn.ttnn_layout<(d0, d1, d2, d3) -> (d0 * 32 + d1 * 32 + d2, d3), <1x1>, memref<1x4x!ttcore.tile<32x32, f32>, #system_memory>>
#ttnn_layout6 = #ttnn.ttnn_layout<(d0, d1) -> (d0, d1), <1x1>, memref<32x1024xsi32, #dram>, <interleaved>>
#ttnn_layout7 = #ttnn.ttnn_layout<(d0) -> (0, d0), <1x1>, memref<1x32xsi32, #dram>, <interleaved>>
#ttnn_layout8 = #ttnn.ttnn_layout<(d0, d1) -> (d0, d1), <1x1>, memref<160x96x!ttcore.tile<32x32, bf16>, #dram>, <interleaved>>
#ttnn_layout9 = #ttnn.ttnn_layout<(d0) -> (0, d0), <1x1>, memref<1x96x!ttcore.tile<32x32, bf16>, #dram>, <interleaved>>
#ttnn_layout10 = #ttnn.ttnn_layout<(d0, d1) -> (d0, d1), <1x1>, memref<32x1xsi32, #dram>, <interleaved>>
#ttnn_layout11 = #ttnn.ttnn_layout<(d0, d1, d2, d3) -> (d0 * 128 + d1 * 32 + d2, d3), <1x1>, memref<208896x8x!ttcore.tile<32x32, bf16>, #dram>, <interleaved>>
#ttnn_layout12 = #ttnn.ttnn_layout<(d0, d1) -> (d0, d1), <1x1>, memref<96x96x!ttcore.tile<32x32, bf16>, #dram>, <interleaved>>
#ttnn_layout13 = #ttnn.ttnn_layout<(d0, d1) -> (d0, d1), <1x1>, memref<96x720x!ttcore.tile<32x32, bf16>, #dram>, <interleaved>>
#ttnn_layout14 = #ttnn.ttnn_layout<(d0, d1) -> (d0, d1), <1x1>, memref<1440x96x!ttcore.tile<32x32, bf16>, #dram>, <interleaved>>
#ttnn_layout15 = #ttnn.ttnn_layout<(d0, d1, d2) -> (d0 * 32 + d1, d2), <1x1>, memref<32x96x!ttcore.tile<32x32, bf16>, #dram>, <interleaved>>
#ttnn_layout16 = #ttnn.ttnn_layout<(d0, d1) -> (d0, d1), <1x1>, memref<32x1xui32, #dram>, <interleaved>>
#ttnn_layout17 = #ttnn.ttnn_layout<(d0) -> (0, d0), <1x1>, memref<1x32xui32, #dram>, <interleaved>>
#ttnn_layout18 = #ttnn.ttnn_layout<(d0, d1) -> (d0, d1), <1x1>, memref<1x96x!ttcore.tile<32x32, bf16>, #dram>, <interleaved>>
#ttnn_layout19 = #ttnn.ttnn_layout<(d0, d1) -> (d0, d1), <1x1>, memref<1x160x!ttcore.tile<32x32, bf16>, #dram>, <interleaved>>
#ttnn_layout20 = #ttnn.ttnn_layout<(d0, d1) -> (d0, d1), <1x1>, memref<1x32x!ttcore.tile<32x32, bf16>, #dram>, <interleaved>>
#ttnn_layout21 = #ttnn.ttnn_layout<(d0, d1, d2, d3) -> (d0 * 1024 + d1 * 32 + d2, d3), <1x1>, memref<32x8x!ttcore.tile<32x32, bf16>, #dram>, <interleaved>>
#ttnn_layout22 = #ttnn.ttnn_layout<(d0, d1, d2, d3) -> (d0 * 1024 + d1 * 32 + d2, d3), <32x1>, memref<1x8x!ttcore.tile<32x32, bf16>, #l1>, <height_sharded>, core_ranges = <[#ttnn.core_range<(0,0), (10,1)>, #ttnn.core_range<(0,2), (9,2)>]>>
#ttnn_layout23 = #ttnn.ttnn_layout<(d0, d1, d2, d3) -> (d0 * 1024 + d1 * 32 + d2, d3), <1x1>, memref<32x4x!ttcore.tile<32x32, bf16>, #dram>, <interleaved>>
#ttnn_layout24 = #ttnn.ttnn_layout<(d0, d1) -> (d0, d1), <1x1>, memref<32x1xf32, #dram>, <interleaved>>
#ttnn_layout25 = #ttnn.ttnn_layout<(d0, d1, d2, d3) -> (d0 * 32 + d1 + d2, d3), <1x1>, memref<32x1xf32, #dram>, <interleaved>>
#ttnn_layout26 = #ttnn.ttnn_layout<(d0, d1, d2, d3) -> (d0 * 1024 + d1 * 32 + d2, d3), <1x1>, memref<32x4x!ttcore.tile<32x32, f32>, #dram>, <interleaved>>
#ttnn_layout27 = #ttnn.ttnn_layout<(d0, d1, d2, d3) -> (d0 * 32 + d1 * 32 + d2, d3), <1x12>, memref<1x8x!ttcore.tile<32x32, bf16>, #l1>, <width_sharded>, core_ranges = <[#ttnn.core_range<(0,0), (10,0)>, #ttnn.core_range<(0,1), (0,1)>]>>
#ttnn_layout28 = #ttnn.ttnn_layout<(d0, d1, d2, d3) -> (d0 * 32 + d1 * 32 + d2, d3), <10x11>, memref<1x1x!ttcore.tile<32x32, bf16>, #l1>, <interleaved>>
#ttnn_layout29 = #ttnn.ttnn_layout<(d0, d1) -> (d0, d1), <10x11>, memref<1x1x!ttcore.tile<32x32, bf16>, #l1>, <interleaved>>
#ttnn_layout30 = #ttnn.ttnn_layout<(d0, d1) -> (d0, d1), <1x1>, memref<1x96x!ttcore.tile<32x32, f32>, #dram>, <interleaved>>
#ttnn_layout31 = #ttnn.ttnn_layout<(d0, d1) -> (d0, d1), <1x1>, memref<1x1440x!ttcore.tile<32x32, bf16>, #dram>, <interleaved>>
#ttnn_layout32 = #ttnn.ttnn_layout<(d0, d1) -> (d0, d1), <1x1>, memref<1x720x!ttcore.tile<32x32, bf16>, #dram>, <interleaved>>
module @SyncTensorsGraph.296 attributes {mhlo.cross_program_prefetches = [], mhlo.input_output_alias = [], mhlo.is_dynamic = false, mhlo.use_auto_spmd_partitioning = false, ttcore.meshes = #ttcore.meshes<[<"mesh" = 1x1>]>} {
  ttcore.device_module {
    builtin.module @SyncTensorsGraph.296 attributes {mhlo.cross_program_prefetches = [], mhlo.input_output_alias = [], mhlo.is_dynamic = false, mhlo.use_auto_spmd_partitioning = false, ttcore.meshes = #ttcore.meshes<[<"mesh" = 1x1>]>, ttcore.system_desc = #system_desc, ttnn.l1_const_eval_usage = 1024 : ui64} {
      ttcore.device @default_device = <workerGrid = #ttcore.grid<10x11, virt_to_physical_map = (d0, d1) -> (0, d0, d1), physical_to_virt_map = (d0, d1, d2) -> (d1, d2)>, dramGrid = #ttcore.grid<1x8>, l1Map = (d0, d1, d2)[s0] -> (0, d0, d1, d2 + s0), dramMap = (d0, d1, d2)[s0, s1, s2, s3, s4, s5, s6] -> (0, 0, (((d0 * s1) * (s2 * (s3 * s6)) + d1 * (s2 * (s3 * s6)) + d2) floordiv s4) mod 8, ((((d0 * s1) * (s2 * (s3 * s6)) + d1 * (s2 * (s3 * s6)) + d2) floordiv s4) floordiv 8) * s4 + ((d0 * s1) * (s2 * (s3 * s6)) + d1 * (s2 * (s3 * s6)) + d2) mod s4 + s5), meshShape = 1x1, chipIds = [0]> loc(#loc)
      func.func private @main_const_eval_0(%arg0: tensor<131072x3072xbf16, #ttnn_layout> loc(unknown)) -> tensor<131072x3072xbf16, #ttnn_layout1> attributes {tt.function_type = "const_eval"} {
        %0 = "ttnn.get_device"() <{mesh_offset = #ttnn<mesh_offset 0x0>, mesh_shape = #ttnn<mesh_shape 1x1>}> : () -> !ttnn.device loc(#loc)
        %1 = "ttnn.to_device"(%arg0, %0) : (tensor<131072x3072xbf16, #ttnn_layout>, !ttnn.device) -> tensor<131072x3072xbf16, #ttnn_layout1> loc(#loc)
        return %1 : tensor<131072x3072xbf16, #ttnn_layout1> loc(#loc)
      } loc(#loc)
      func.func private @main_const_eval_1(%arg0: tensor<128xf32, #ttnn_layout2> loc(unknown)) -> tensor<1x1x1x128xf32, #ttnn_layout3> attributes {tt.function_type = "const_eval"} {
        %0 = "ttnn.get_device"() <{mesh_offset = #ttnn<mesh_offset 0x0>, mesh_shape = #ttnn<mesh_shape 1x1>}> : () -> !ttnn.device loc(#loc)
        %1 = call @cpu_hoisted_const_eval_29211e86(%arg0) {ttir.cpu_hoist_call} : (tensor<128xf32, #ttnn_layout2>) -> tensor<1x1x1x128xf32, #ttnn_layout4> loc(#loc)
        %2 = "ttnn.to_layout"(%1) : (tensor<1x1x1x128xf32, #ttnn_layout4>) -> tensor<1x1x1x128xf32, #ttnn_layout5> loc(#loc)
        "ttnn.deallocate"(%1) <{force = false}> : (tensor<1x1x1x128xf32, #ttnn_layout4>) -> () loc(#loc)
        %3 = "ttnn.to_device"(%2, %0) : (tensor<1x1x1x128xf32, #ttnn_layout5>, !ttnn.device) -> tensor<1x1x1x128xf32, #ttnn_layout3> loc(#loc)
        "ttnn.deallocate"(%2) <{force = false}> : (tensor<1x1x1x128xf32, #ttnn_layout5>) -> () loc(#loc)
        return %3 : tensor<1x1x1x128xf32, #ttnn_layout3> loc(#loc)
      } loc(#loc)
      func.func @main(%arg0: tensor<32x1024xsi32, #ttnn_layout6> {ttcore.argument_type = #ttcore.argument_type<input>, ttcore.local_shape = #ttcore<local_shape local_shape = tensor<32x1024xi32>>, ttcore.shard_status = #ttcore.shard_status<unsharded>, ttir.name = "arg14_1"} loc("p0.1"), %arg1: tensor<32xsi32, #ttnn_layout7> {ttcore.argument_type = #ttcore.argument_type<input>, ttcore.local_shape = #ttcore<local_shape local_shape = tensor<32xi32>>, ttcore.shard_status = #ttcore.shard_status<unsharded>, ttir.name = "arg13_1"} loc("p1.5"), %arg2: tensor<5120x3072xbf16, #ttnn_layout8> {ttcore.argument_type = #ttcore.argument_type<parameter>, ttcore.local_shape = #ttcore<local_shape local_shape = tensor<5120x3072xbf16>>, ttcore.shard_status = #ttcore.shard_status<unsharded>, ttir.name = "L__self___model_model_layers_0_self_attn_qkv_proj_weight"} loc("p2.9"), %arg3: tensor<3072xbf16, #ttnn_layout9> {ttcore.argument_type = #ttcore.argument_type<parameter>, ttcore.local_shape = #ttcore<local_shape local_shape = tensor<3072xbf16>>, ttcore.shard_status = #ttcore.shard_status<unsharded>, ttir.name = "L__self___model_model_layers_0_input_layernorm_weight"} loc("p3.14"), %arg4: tensor<32x1xsi32, #ttnn_layout10> {ttcore.argument_type = #ttcore.argument_type<input>, ttcore.local_shape = #ttcore<local_shape local_shape = tensor<32x1xi32>>, ttcore.shard_status = #ttcore.shard_status<unsharded>, ttir.name = "arg11_1"} loc("p4.23"), %arg5: tensor<131072x3072xbf16, #ttnn_layout> {ttcore.argument_type = #ttcore.argument_type<parameter>, ttcore.local_shape = #ttcore<local_shape local_shape = tensor<131072x3072xbf16>>, ttcore.shard_status = #ttcore.shard_status<unsharded>, ttir.name = "L__self___model_model_embed_tokens_weight"} loc("p5.29"), %arg6: tensor<52224x4x32x256xbf16, #ttnn_layout11> {ttcore.argument_type = #ttcore.argument_type<input>, ttcore.kv_cache, ttcore.local_shape = #ttcore<local_shape local_shape = tensor<52224x4x32x256xbf16>>, ttcore.shard_status = #ttcore.shard_status<unsharded>, ttir.name = "sub__import_vllm_dot_forward_context____forward_context_no_compile_layers__model_layers_0_self_attn_attn___kv_cache_1"} loc("p6.77"), %arg7: tensor<128xf32, #ttnn_layout2> {ttcore.argument_type = #ttcore.argument_type<constant>, ttcore.local_shape = #ttcore<local_shape local_shape = tensor<128xf32>>, ttcore.shard_status = #ttcore.shard_status<unsharded>, ttir.name = "L__self___model_model_layers_0_self_attn_rotary_emb_inv_freq"} loc("p7.82"), %arg8: tensor<32x1xsi32, #ttnn_layout10> {ttcore.argument_type = #ttcore.argument_type<input>, ttcore.local_shape = #ttcore<local_shape local_shape = tensor<32x1xi32>>, ttcore.shard_status = #ttcore.shard_status<unsharded>, ttir.name = "arg12_1"} loc("p8.86"), %arg9: tensor<52224x4x32x256xbf16, #ttnn_layout11> {ttcore.argument_type = #ttcore.argument_type<input>, ttcore.kv_cache, ttcore.local_shape = #ttcore<local_shape local_shape = tensor<52224x4x32x256xbf16>>, ttcore.shard_status = #ttcore.shard_status<unsharded>, ttir.name = "sub__import_vllm_dot_forward_context____forward_context_no_compile_layers__model_layers_0_self_attn_attn___kv_cache_0"} loc("p9.132"), %arg10: tensor<3072x3072xbf16, #ttnn_layout12> {ttcore.argument_type = #ttcore.argument_type<parameter>, ttcore.local_shape = #ttcore<local_shape local_shape = tensor<3072x3072xbf16>>, ttcore.shard_status = #ttcore.shard_status<unsharded>, ttir.name = "L__self___model_model_layers_0_self_attn_o_proj_weight"} loc("p10.141"), %arg11: tensor<3072x23040xbf16, #ttnn_layout13> {ttcore.argument_type = #ttcore.argument_type<parameter>, ttcore.local_shape = #ttcore<local_shape local_shape = tensor<3072x23040xbf16>>, ttcore.shard_status = #ttcore.shard_status<unsharded>, ttir.name = "L__self___model_model_layers_0_mlp_down_proj_weight"} loc("p11.196"), %arg12: tensor<46080x3072xbf16, #ttnn_layout14> {ttcore.argument_type = #ttcore.argument_type<parameter>, ttcore.local_shape = #ttcore<local_shape local_shape = tensor<46080x3072xbf16>>, ttcore.shard_status = #ttcore.shard_status<unsharded>, ttir.name = "L__self___model_model_layers_0_mlp_gate_up_proj_weight"} loc("p12.201"), %arg13: tensor<3072xbf16, #ttnn_layout9> {ttcore.argument_type = #ttcore.argument_type<parameter>, ttcore.local_shape = #ttcore<local_shape local_shape = tensor<3072xbf16>>, ttcore.shard_status = #ttcore.shard_status<unsharded>, ttir.name = "L__self___model_model_layers_0_post_attention_layernorm_weight"} loc("p13.237"), %arg14: tensor<3072xbf16, #ttnn_layout9> {ttcore.argument_type = #ttcore.argument_type<parameter>, ttcore.local_shape = #ttcore<local_shape local_shape = tensor<3072xbf16>>, ttcore.shard_status = #ttcore.shard_status<unsharded>, ttir.name = "L__self___model_model_norm_weight"} loc("p14.289")) -> (tensor<52224x4x32x256xbf16, #ttnn_layout11> {ttcore.local_shape = #ttcore<local_shape local_shape = tensor<52224x4x32x256xbf16>>, ttcore.shard_status = #ttcore.shard_status<presharded>}, tensor<52224x4x32x256xbf16, #ttnn_layout11> {ttcore.local_shape = #ttcore<local_shape local_shape = tensor<52224x4x32x256xbf16>>, ttcore.shard_status = #ttcore.shard_status<presharded>}, tensor<32x1x3072xbf16, #ttnn_layout15> {ttcore.local_shape = #ttcore<local_shape local_shape = tensor<32x1x3072xbf16>>, ttcore.shard_status = #ttcore.shard_status<presharded>}) attributes {tt.function_type = "forward_device"} {
        %0 = ttcore.load_cached(@main_const_eval_0, [%arg5]) : (tensor<131072x3072xbf16, #ttnn_layout>) -> tensor<131072x3072xbf16, #ttnn_layout1> loc(#loc)
        "ttnn.deallocate"(%arg5) <{force = false}> : (tensor<131072x3072xbf16, #ttnn_layout>) -> () loc(#loc)
        %1 = ttcore.load_cached(@main_const_eval_1, [%arg7]) : (tensor<128xf32, #ttnn_layout2>) -> tensor<1x1x1x128xf32, #ttnn_layout3> loc(#loc)
        "ttnn.deallocate"(%arg7) <{force = false}> : (tensor<128xf32, #ttnn_layout2>) -> () loc(#loc)
        %2 = "ttnn.typecast"(%arg4) : (tensor<32x1xsi32, #ttnn_layout10>) -> tensor<32x1xui32, #ttnn_layout16> loc(#loc16)
        "ttnn.deallocate"(%arg4) <{force = false}> : (tensor<32x1xsi32, #ttnn_layout10>) -> () loc(#loc16)
        %3 = "ttnn.reshape"(%2) <{shape = [32 : i32]}> : (tensor<32x1xui32, #ttnn_layout16>) -> tensor<32xui32, #ttnn_layout17> loc(#loc16)
        "ttnn.deallocate"(%2) <{force = false}> : (tensor<32x1xui32, #ttnn_layout16>) -> () loc(#loc16)
        %4 = "ttnn.embedding"(%3, %0) : (tensor<32xui32, #ttnn_layout17>, tensor<131072x3072xbf16, #ttnn_layout1>) -> tensor<32x3072xbf16, #ttnn_layout18> loc(#loc17)
        "ttnn.deallocate"(%3) <{force = false}> : (tensor<32xui32, #ttnn_layout17>) -> () loc(#loc17)
        "ttnn.deallocate"(%0) <{force = false}> : (tensor<131072x3072xbf16, #ttnn_layout1>) -> () loc(#loc17)
        %5 = "ttnn.rms_norm"(%4, %arg3) <{compute_config = #ttnn.device_compute_kernel_config<math_fidelity = hifi4, math_approx_mode = false, fp32_dest_acc_en = true, packer_l1_acc = true>, epsilon = 9.99999997E-7 : f32, operandSegmentSizes = array<i32: 1, 1, 0>}> : (tensor<32x3072xbf16, #ttnn_layout18>, tensor<3072xbf16, #ttnn_layout9>) -> tensor<32x3072xbf16, #ttnn_layout18> loc(#loc18)
        "ttnn.deallocate"(%arg3) <{force = false}> : (tensor<3072xbf16, #ttnn_layout9>) -> () loc(#loc18)
        %6 = "ttnn.matmul"(%5, %arg2) <{transpose_a = false, transpose_b = true}> : (tensor<32x3072xbf16, #ttnn_layout18>, tensor<5120x3072xbf16, #ttnn_layout8>) -> tensor<32x5120xbf16, #ttnn_layout19> loc(#loc19)
        "ttnn.deallocate"(%5) <{force = false}> : (tensor<32x3072xbf16, #ttnn_layout18>) -> () loc(#loc19)
        "ttnn.deallocate"(%arg2) <{force = false}> : (tensor<5120x3072xbf16, #ttnn_layout8>) -> () loc(#loc19)
        %7 = "ttnn.slice_static"(%6) <{begins = [0 : i32, 4096 : i32], ends = [32 : i32, 5120 : i32], step = [1 : i32, 1 : i32]}> : (tensor<32x5120xbf16, #ttnn_layout19>) -> tensor<32x1024xbf16, #ttnn_layout20> loc(#loc20)
        %8 = "ttnn.reshape"(%7) <{shape = [1 : i32, 32 : i32, 4 : i32, 256 : i32]}> : (tensor<32x1024xbf16, #ttnn_layout20>) -> tensor<1x32x4x256xbf16, #ttnn_layout21> loc(#loc21)
        "ttnn.deallocate"(%7) <{force = false}> : (tensor<32x1024xbf16, #ttnn_layout20>) -> () loc(#loc21)
        %9 = "ttnn.to_memory_config"(%8) : (tensor<1x32x4x256xbf16, #ttnn_layout21>) -> tensor<1x32x4x256xbf16, #ttnn_layout22> loc(#loc21)
        "ttnn.deallocate"(%8) <{force = false}> : (tensor<1x32x4x256xbf16, #ttnn_layout21>) -> () loc(#loc21)
        "ttnn.paged_update_cache"(%arg6, %9, %arg1, %arg0) <{share_cache = false}> : (tensor<52224x4x32x256xbf16, #ttnn_layout11>, tensor<1x32x4x256xbf16, #ttnn_layout22>, tensor<32xsi32, #ttnn_layout7>, tensor<32x1024xsi32, #ttnn_layout6>) -> () loc(#loc22)
        "ttnn.deallocate"(%9) <{force = false}> : (tensor<1x32x4x256xbf16, #ttnn_layout22>) -> () loc(#loc22)
        %10 = "ttnn.slice_static"(%6) <{begins = [0 : i32, 3072 : i32], ends = [32 : i32, 4096 : i32], step = [1 : i32, 1 : i32]}> : (tensor<32x5120xbf16, #ttnn_layout19>) -> tensor<32x1024xbf16, #ttnn_layout20> loc(#loc23)
        %11 = "ttnn.reshape"(%10) <{shape = [1 : i32, 32 : i32, 4 : i32, 256 : i32]}> : (tensor<32x1024xbf16, #ttnn_layout20>) -> tensor<1x32x4x256xbf16, #ttnn_layout21> loc(#loc69)
        "ttnn.deallocate"(%10) <{force = false}> : (tensor<32x1024xbf16, #ttnn_layout20>) -> () loc(#loc69)
        %12 = "ttnn.slice_static"(%11) <{begins = [0 : i32, 0 : i32, 0 : i32, 0 : i32], ends = [1 : i32, 32 : i32, 4 : i32, 128 : i32], step = [1 : i32, 1 : i32, 1 : i32, 1 : i32]}> : (tensor<1x32x4x256xbf16, #ttnn_layout21>) -> tensor<1x32x4x128xbf16, #ttnn_layout23> loc(#loc25)
        %13 = "ttnn.typecast"(%arg8) : (tensor<32x1xsi32, #ttnn_layout10>) -> tensor<32x1xf32, #ttnn_layout24> loc(#loc26)
        "ttnn.deallocate"(%arg8) <{force = false}> : (tensor<32x1xsi32, #ttnn_layout10>) -> () loc(#loc26)
        %14 = "ttnn.reshape"(%13) <{shape = [1 : i32, 32 : i32, 1 : i32, 1 : i32]}> : (tensor<32x1xf32, #ttnn_layout24>) -> tensor<1x32x1x1xf32, #ttnn_layout25> loc(#loc26)
        "ttnn.deallocate"(%13) <{force = false}> : (tensor<32x1xf32, #ttnn_layout24>) -> () loc(#loc26)
        %15 = "ttnn.multiply"(%14, %1) : (tensor<1x32x1x1xf32, #ttnn_layout25>, tensor<1x1x1x128xf32, #ttnn_layout3>) -> tensor<1x32x1x128xf32, #ttnn_layout26> loc(#loc27)
        "ttnn.deallocate"(%14) <{force = false}> : (tensor<1x32x1x1xf32, #ttnn_layout25>) -> () loc(#loc27)
        "ttnn.deallocate"(%1) <{force = false}> : (tensor<1x1x1x128xf32, #ttnn_layout3>) -> () loc(#loc27)
        %16 = "ttnn.cos"(%15) : (tensor<1x32x1x128xf32, #ttnn_layout26>) -> tensor<1x32x1x128xf32, #ttnn_layout26> loc(#loc28)
        %17 = "ttnn.typecast"(%16) : (tensor<1x32x1x128xf32, #ttnn_layout26>) -> tensor<1x32x1x128xbf16, #ttnn_layout23> loc(#loc29)
        "ttnn.deallocate"(%16) <{force = false}> : (tensor<1x32x1x128xf32, #ttnn_layout26>) -> () loc(#loc29)
        %18 = "ttnn.multiply"(%12, %17) : (tensor<1x32x4x128xbf16, #ttnn_layout23>, tensor<1x32x1x128xbf16, #ttnn_layout23>) -> tensor<1x32x4x128xbf16, #ttnn_layout23> loc(#loc30)
        %19 = "ttnn.slice_static"(%11) <{begins = [0 : i32, 0 : i32, 0 : i32, 128 : i32], ends = [1 : i32, 32 : i32, 4 : i32, 256 : i32], step = [1 : i32, 1 : i32, 1 : i32, 1 : i32]}> : (tensor<1x32x4x256xbf16, #ttnn_layout21>) -> tensor<1x32x4x128xbf16, #ttnn_layout23> loc(#loc31)
        "ttnn.deallocate"(%11) <{force = false}> : (tensor<1x32x4x256xbf16, #ttnn_layout21>) -> () loc(#loc31)
        %20 = "ttnn.sin"(%15) : (tensor<1x32x1x128xf32, #ttnn_layout26>) -> tensor<1x32x1x128xf32, #ttnn_layout26> loc(#loc32)
        "ttnn.deallocate"(%15) <{force = false}> : (tensor<1x32x1x128xf32, #ttnn_layout26>) -> () loc(#loc32)
        %21 = "ttnn.typecast"(%20) : (tensor<1x32x1x128xf32, #ttnn_layout26>) -> tensor<1x32x1x128xbf16, #ttnn_layout23> loc(#loc33)
        "ttnn.deallocate"(%20) <{force = false}> : (tensor<1x32x1x128xf32, #ttnn_layout26>) -> () loc(#loc33)
        %22 = "ttnn.multiply"(%19, %21) : (tensor<1x32x4x128xbf16, #ttnn_layout23>, tensor<1x32x1x128xbf16, #ttnn_layout23>) -> tensor<1x32x4x128xbf16, #ttnn_layout23> loc(#loc34)
        %23 = "ttnn.subtract"(%18, %22) : (tensor<1x32x4x128xbf16, #ttnn_layout23>, tensor<1x32x4x128xbf16, #ttnn_layout23>) -> tensor<1x32x4x128xbf16, #ttnn_layout23> loc(#loc35)
        "ttnn.deallocate"(%22) <{force = false}> : (tensor<1x32x4x128xbf16, #ttnn_layout23>) -> () loc(#loc35)
        "ttnn.deallocate"(%18) <{force = false}> : (tensor<1x32x4x128xbf16, #ttnn_layout23>) -> () loc(#loc35)
        %24 = "ttnn.multiply"(%19, %17) : (tensor<1x32x4x128xbf16, #ttnn_layout23>, tensor<1x32x1x128xbf16, #ttnn_layout23>) -> tensor<1x32x4x128xbf16, #ttnn_layout23> loc(#loc36)
        "ttnn.deallocate"(%19) <{force = false}> : (tensor<1x32x4x128xbf16, #ttnn_layout23>) -> () loc(#loc36)
        %25 = "ttnn.multiply"(%12, %21) : (tensor<1x32x4x128xbf16, #ttnn_layout23>, tensor<1x32x1x128xbf16, #ttnn_layout23>) -> tensor<1x32x4x128xbf16, #ttnn_layout23> loc(#loc37)
        "ttnn.deallocate"(%12) <{force = false}> : (tensor<1x32x4x128xbf16, #ttnn_layout23>) -> () loc(#loc37)
        %26 = "ttnn.add"(%24, %25) : (tensor<1x32x4x128xbf16, #ttnn_layout23>, tensor<1x32x4x128xbf16, #ttnn_layout23>) -> tensor<1x32x4x128xbf16, #ttnn_layout23> loc(#loc38)
        "ttnn.deallocate"(%25) <{force = false}> : (tensor<1x32x4x128xbf16, #ttnn_layout23>) -> () loc(#loc38)
        "ttnn.deallocate"(%24) <{force = false}> : (tensor<1x32x4x128xbf16, #ttnn_layout23>) -> () loc(#loc38)
        %27 = "ttnn.concat"(%23, %26) <{dim = 3 : si32}> : (tensor<1x32x4x128xbf16, #ttnn_layout23>, tensor<1x32x4x128xbf16, #ttnn_layout23>) -> tensor<1x32x4x256xbf16, #ttnn_layout21> loc(#loc24)
        "ttnn.deallocate"(%26) <{force = false}> : (tensor<1x32x4x128xbf16, #ttnn_layout23>) -> () loc(#loc24)
        "ttnn.deallocate"(%23) <{force = false}> : (tensor<1x32x4x128xbf16, #ttnn_layout23>) -> () loc(#loc24)
        %28 = "ttnn.to_memory_config"(%27) : (tensor<1x32x4x256xbf16, #ttnn_layout21>) -> tensor<1x32x4x256xbf16, #ttnn_layout22> loc(#loc24)
        "ttnn.deallocate"(%27) <{force = false}> : (tensor<1x32x4x256xbf16, #ttnn_layout21>) -> () loc(#loc24)
        "ttnn.paged_update_cache"(%arg9, %28, %arg1, %arg0) <{share_cache = false}> : (tensor<52224x4x32x256xbf16, #ttnn_layout11>, tensor<1x32x4x256xbf16, #ttnn_layout22>, tensor<32xsi32, #ttnn_layout7>, tensor<32x1024xsi32, #ttnn_layout6>) -> () loc(#loc39)
        "ttnn.deallocate"(%28) <{force = false}> : (tensor<1x32x4x256xbf16, #ttnn_layout22>) -> () loc(#loc39)
        %29 = "ttnn.slice_static"(%6) <{begins = [0 : i32, 0 : i32], ends = [32 : i32, 3072 : i32], step = [1 : i32, 1 : i32]}> : (tensor<32x5120xbf16, #ttnn_layout19>) -> tensor<32x3072xbf16, #ttnn_layout18> loc(#loc40)
        "ttnn.deallocate"(%6) <{force = false}> : (tensor<32x5120xbf16, #ttnn_layout19>) -> () loc(#loc40)
        %30 = "ttnn.reshape"(%29) <{shape = [1 : i32, 32 : i32, 12 : i32, 256 : i32]}> : (tensor<32x3072xbf16, #ttnn_layout18>) -> tensor<1x32x12x256xbf16, #ttnn_layout21> loc(#loc70)
        "ttnn.deallocate"(%29) <{force = false}> : (tensor<32x3072xbf16, #ttnn_layout18>) -> () loc(#loc70)
        %31 = "ttnn.slice_static"(%30) <{begins = [0 : i32, 0 : i32, 0 : i32, 0 : i32], ends = [1 : i32, 32 : i32, 12 : i32, 128 : i32], step = [1 : i32, 1 : i32, 1 : i32, 1 : i32]}> : (tensor<1x32x12x256xbf16, #ttnn_layout21>) -> tensor<1x32x12x128xbf16, #ttnn_layout23> loc(#loc42)
        %32 = "ttnn.multiply"(%31, %17) : (tensor<1x32x12x128xbf16, #ttnn_layout23>, tensor<1x32x1x128xbf16, #ttnn_layout23>) -> tensor<1x32x12x128xbf16, #ttnn_layout23> loc(#loc43)
        %33 = "ttnn.slice_static"(%30) <{begins = [0 : i32, 0 : i32, 0 : i32, 128 : i32], ends = [1 : i32, 32 : i32, 12 : i32, 256 : i32], step = [1 : i32, 1 : i32, 1 : i32, 1 : i32]}> : (tensor<1x32x12x256xbf16, #ttnn_layout21>) -> tensor<1x32x12x128xbf16, #ttnn_layout23> loc(#loc44)
        "ttnn.deallocate"(%30) <{force = false}> : (tensor<1x32x12x256xbf16, #ttnn_layout21>) -> () loc(#loc44)
        %34 = "ttnn.multiply"(%33, %21) : (tensor<1x32x12x128xbf16, #ttnn_layout23>, tensor<1x32x1x128xbf16, #ttnn_layout23>) -> tensor<1x32x12x128xbf16, #ttnn_layout23> loc(#loc45)
        %35 = "ttnn.subtract"(%32, %34) : (tensor<1x32x12x128xbf16, #ttnn_layout23>, tensor<1x32x12x128xbf16, #ttnn_layout23>) -> tensor<1x32x12x128xbf16, #ttnn_layout23> loc(#loc46)
        "ttnn.deallocate"(%34) <{force = false}> : (tensor<1x32x12x128xbf16, #ttnn_layout23>) -> () loc(#loc46)
        "ttnn.deallocate"(%32) <{force = false}> : (tensor<1x32x12x128xbf16, #ttnn_layout23>) -> () loc(#loc46)
        %36 = "ttnn.multiply"(%33, %17) : (tensor<1x32x12x128xbf16, #ttnn_layout23>, tensor<1x32x1x128xbf16, #ttnn_layout23>) -> tensor<1x32x12x128xbf16, #ttnn_layout23> loc(#loc47)
        "ttnn.deallocate"(%33) <{force = false}> : (tensor<1x32x12x128xbf16, #ttnn_layout23>) -> () loc(#loc47)
        "ttnn.deallocate"(%17) <{force = false}> : (tensor<1x32x1x128xbf16, #ttnn_layout23>) -> () loc(#loc47)
        %37 = "ttnn.multiply"(%31, %21) : (tensor<1x32x12x128xbf16, #ttnn_layout23>, tensor<1x32x1x128xbf16, #ttnn_layout23>) -> tensor<1x32x12x128xbf16, #ttnn_layout23> loc(#loc48)
        "ttnn.deallocate"(%31) <{force = false}> : (tensor<1x32x12x128xbf16, #ttnn_layout23>) -> () loc(#loc48)
        "ttnn.deallocate"(%21) <{force = false}> : (tensor<1x32x1x128xbf16, #ttnn_layout23>) -> () loc(#loc48)
        %38 = "ttnn.add"(%36, %37) : (tensor<1x32x12x128xbf16, #ttnn_layout23>, tensor<1x32x12x128xbf16, #ttnn_layout23>) -> tensor<1x32x12x128xbf16, #ttnn_layout23> loc(#loc49)
        "ttnn.deallocate"(%37) <{force = false}> : (tensor<1x32x12x128xbf16, #ttnn_layout23>) -> () loc(#loc49)
        "ttnn.deallocate"(%36) <{force = false}> : (tensor<1x32x12x128xbf16, #ttnn_layout23>) -> () loc(#loc49)
        %39 = "ttnn.concat"(%35, %38) <{dim = 3 : si32}> : (tensor<1x32x12x128xbf16, #ttnn_layout23>, tensor<1x32x12x128xbf16, #ttnn_layout23>) -> tensor<1x32x12x256xbf16, #ttnn_layout21> loc(#loc41)
        "ttnn.deallocate"(%38) <{force = false}> : (tensor<1x32x12x128xbf16, #ttnn_layout23>) -> () loc(#loc41)
        "ttnn.deallocate"(%35) <{force = false}> : (tensor<1x32x12x128xbf16, #ttnn_layout23>) -> () loc(#loc41)
        %40 = "ttnn.paged_scaled_dot_product_attention_decode"(%39, %arg9, %arg6, %arg0, %arg1) <{is_causal = true, operandSegmentSizes = array<i32: 1, 1, 1, 1, 0, 1, 0>, program_config = #ttnn.sdpa_program_config<compute_with_storage_grid_size = <11, 10>, q_chunk_size = 32, k_chunk_size = 32, exp_approx_mode = false, max_cores_per_head_batch = 1>, scale = 6.250000e-02 : f32}> : (tensor<1x32x12x256xbf16, #ttnn_layout21>, tensor<52224x4x32x256xbf16, #ttnn_layout11>, tensor<52224x4x32x256xbf16, #ttnn_layout11>, tensor<32x1024xsi32, #ttnn_layout6>, tensor<32xsi32, #ttnn_layout7>) -> tensor<1x32x12x256xbf16, #ttnn_layout21> loc(#loc50)
        "ttnn.deallocate"(%39) <{force = false}> : (tensor<1x32x12x256xbf16, #ttnn_layout21>) -> () loc(#loc50)
        "ttnn.deallocate"(%arg1) <{force = false}> : (tensor<32xsi32, #ttnn_layout7>) -> () loc(#loc50)
        "ttnn.deallocate"(%arg0) <{force = false}> : (tensor<32x1024xsi32, #ttnn_layout6>) -> () loc(#loc50)
        %41 = "ttnn.to_memory_config"(%40) : (tensor<1x32x12x256xbf16, #ttnn_layout21>) -> tensor<1x32x12x256xbf16, #ttnn_layout22> loc(#loc50)
        "ttnn.deallocate"(%40) <{force = false}> : (tensor<1x32x12x256xbf16, #ttnn_layout21>) -> () loc(#loc50)
        %42 = "ttnn.nlp_concat_heads_decode"(%41) <{num_heads = 12 : ui32}> : (tensor<1x32x12x256xbf16, #ttnn_layout22>) -> tensor<1x1x32x3072xbf16, #ttnn_layout27> loc(#loc51)
        "ttnn.deallocate"(%41) <{force = false}> : (tensor<1x32x12x256xbf16, #ttnn_layout22>) -> () loc(#loc51)
        %43 = "ttnn.to_memory_config"(%42) : (tensor<1x1x32x3072xbf16, #ttnn_layout27>) -> tensor<1x1x32x3072xbf16, #ttnn_layout28> loc(#loc68)
        "ttnn.deallocate"(%42) <{force = false}> : (tensor<1x1x32x3072xbf16, #ttnn_layout27>) -> () loc(#loc68)
        %44 = "ttnn.reshape"(%43) <{shape = [32 : i32, 3072 : i32]}> : (tensor<1x1x32x3072xbf16, #ttnn_layout28>) -> tensor<32x3072xbf16, #ttnn_layout29> loc(#loc51)
        "ttnn.deallocate"(%43) <{force = false}> : (tensor<1x1x32x3072xbf16, #ttnn_layout28>) -> () loc(#loc51)
        %45 = "ttnn.matmul"(%44, %arg10) <{transpose_a = false, transpose_b = true}> : (tensor<32x3072xbf16, #ttnn_layout29>, tensor<3072x3072xbf16, #ttnn_layout12>) -> tensor<32x3072xbf16, #ttnn_layout18> loc(#loc52)
        "ttnn.deallocate"(%44) <{force = false}> : (tensor<32x3072xbf16, #ttnn_layout29>) -> () loc(#loc52)
        "ttnn.deallocate"(%arg10) <{force = false}> : (tensor<3072x3072xbf16, #ttnn_layout12>) -> () loc(#loc52)
        %46 = "ttnn.typecast"(%45) : (tensor<32x3072xbf16, #ttnn_layout18>) -> tensor<32x3072xf32, #ttnn_layout30> loc(#loc53)
        "ttnn.deallocate"(%45) <{force = false}> : (tensor<32x3072xbf16, #ttnn_layout18>) -> () loc(#loc53)
        %47 = "ttnn.typecast"(%4) : (tensor<32x3072xbf16, #ttnn_layout18>) -> tensor<32x3072xf32, #ttnn_layout30> loc(#loc54)
        "ttnn.deallocate"(%4) <{force = false}> : (tensor<32x3072xbf16, #ttnn_layout18>) -> () loc(#loc54)
        %48 = "ttnn.add"(%46, %47) : (tensor<32x3072xf32, #ttnn_layout30>, tensor<32x3072xf32, #ttnn_layout30>) -> tensor<32x3072xf32, #ttnn_layout30> loc(#loc55)
        "ttnn.deallocate"(%47) <{force = false}> : (tensor<32x3072xf32, #ttnn_layout30>) -> () loc(#loc55)
        "ttnn.deallocate"(%46) <{force = false}> : (tensor<32x3072xf32, #ttnn_layout30>) -> () loc(#loc55)
        %49 = "ttnn.typecast"(%48) : (tensor<32x3072xf32, #ttnn_layout30>) -> tensor<32x3072xbf16, #ttnn_layout18> loc(#loc55)
        %50 = "ttnn.rms_norm"(%49, %arg13) <{compute_config = #ttnn.device_compute_kernel_config<math_fidelity = hifi4, math_approx_mode = false, fp32_dest_acc_en = true, packer_l1_acc = true>, epsilon = 9.99999997E-7 : f32, operandSegmentSizes = array<i32: 1, 1, 0>}> : (tensor<32x3072xbf16, #ttnn_layout18>, tensor<3072xbf16, #ttnn_layout9>) -> tensor<32x3072xbf16, #ttnn_layout18> loc(#loc56)
        "ttnn.deallocate"(%49) <{force = false}> : (tensor<32x3072xbf16, #ttnn_layout18>) -> () loc(#loc56)
        "ttnn.deallocate"(%arg13) <{force = false}> : (tensor<3072xbf16, #ttnn_layout9>) -> () loc(#loc56)
        %51 = "ttnn.matmul"(%50, %arg12) <{transpose_a = false, transpose_b = true}> : (tensor<32x3072xbf16, #ttnn_layout18>, tensor<46080x3072xbf16, #ttnn_layout14>) -> tensor<32x46080xbf16, #ttnn_layout31> loc(#loc57)
        "ttnn.deallocate"(%50) <{force = false}> : (tensor<32x3072xbf16, #ttnn_layout18>) -> () loc(#loc57)
        "ttnn.deallocate"(%arg12) <{force = false}> : (tensor<46080x3072xbf16, #ttnn_layout14>) -> () loc(#loc57)
        %52 = "ttnn.slice_static"(%51) <{begins = [0 : i32, 0 : i32], ends = [32 : i32, 23040 : i32], step = [1 : i32, 1 : i32]}> : (tensor<32x46080xbf16, #ttnn_layout31>) -> tensor<32x23040xbf16, #ttnn_layout32> loc(#loc58)
        %53 = "ttnn.silu"(%52) : (tensor<32x23040xbf16, #ttnn_layout32>) -> tensor<32x23040xbf16, #ttnn_layout32> loc(#loc59)
        "ttnn.deallocate"(%52) <{force = false}> : (tensor<32x23040xbf16, #ttnn_layout32>) -> () loc(#loc59)
        %54 = "ttnn.slice_static"(%51) <{begins = [0 : i32, 23040 : i32], ends = [32 : i32, 46080 : i32], step = [1 : i32, 1 : i32]}> : (tensor<32x46080xbf16, #ttnn_layout31>) -> tensor<32x23040xbf16, #ttnn_layout32> loc(#loc60)
        "ttnn.deallocate"(%51) <{force = false}> : (tensor<32x46080xbf16, #ttnn_layout31>) -> () loc(#loc60)
        %55 = "ttnn.multiply"(%53, %54) : (tensor<32x23040xbf16, #ttnn_layout32>, tensor<32x23040xbf16, #ttnn_layout32>) -> tensor<32x23040xbf16, #ttnn_layout32> loc(#loc61)
        "ttnn.deallocate"(%54) <{force = false}> : (tensor<32x23040xbf16, #ttnn_layout32>) -> () loc(#loc61)
        "ttnn.deallocate"(%53) <{force = false}> : (tensor<32x23040xbf16, #ttnn_layout32>) -> () loc(#loc61)
        %56 = "ttnn.matmul"(%55, %arg11) <{transpose_a = false, transpose_b = true}> : (tensor<32x23040xbf16, #ttnn_layout32>, tensor<3072x23040xbf16, #ttnn_layout13>) -> tensor<32x3072xbf16, #ttnn_layout18> loc(#loc62)
        "ttnn.deallocate"(%55) <{force = false}> : (tensor<32x23040xbf16, #ttnn_layout32>) -> () loc(#loc62)
        "ttnn.deallocate"(%arg11) <{force = false}> : (tensor<3072x23040xbf16, #ttnn_layout13>) -> () loc(#loc62)
        %57 = "ttnn.typecast"(%56) : (tensor<32x3072xbf16, #ttnn_layout18>) -> tensor<32x3072xf32, #ttnn_layout30> loc(#loc63)
        "ttnn.deallocate"(%56) <{force = false}> : (tensor<32x3072xbf16, #ttnn_layout18>) -> () loc(#loc63)
        %58 = "ttnn.add"(%57, %48) : (tensor<32x3072xf32, #ttnn_layout30>, tensor<32x3072xf32, #ttnn_layout30>) -> tensor<32x3072xf32, #ttnn_layout30> loc(#loc64)
        "ttnn.deallocate"(%57) <{force = false}> : (tensor<32x3072xf32, #ttnn_layout30>) -> () loc(#loc64)
        "ttnn.deallocate"(%48) <{force = false}> : (tensor<32x3072xf32, #ttnn_layout30>) -> () loc(#loc64)
        %59 = "ttnn.typecast"(%58) : (tensor<32x3072xf32, #ttnn_layout30>) -> tensor<32x3072xbf16, #ttnn_layout18> loc(#loc64)
        "ttnn.deallocate"(%58) <{force = false}> : (tensor<32x3072xf32, #ttnn_layout30>) -> () loc(#loc64)
        %60 = "ttnn.reshape"(%59) <{shape = [32 : i32, 1 : i32, 3072 : i32]}> : (tensor<32x3072xbf16, #ttnn_layout18>) -> tensor<32x1x3072xbf16, #ttnn_layout15> loc(#loc64)
        "ttnn.deallocate"(%59) <{force = false}> : (tensor<32x3072xbf16, #ttnn_layout18>) -> () loc(#loc64)
        %61 = "ttnn.rms_norm"(%60, %arg14) <{compute_config = #ttnn.device_compute_kernel_config<math_fidelity = hifi4, math_approx_mode = false, fp32_dest_acc_en = true, packer_l1_acc = true>, epsilon = 9.99999997E-7 : f32, operandSegmentSizes = array<i32: 1, 1, 0>}> : (tensor<32x1x3072xbf16, #ttnn_layout15>, tensor<3072xbf16, #ttnn_layout9>) -> tensor<32x1x3072xbf16, #ttnn_layout15> loc(#loc65)
        "ttnn.deallocate"(%60) <{force = false}> : (tensor<32x1x3072xbf16, #ttnn_layout15>) -> () loc(#loc65)
        "ttnn.deallocate"(%arg14) <{force = false}> : (tensor<3072xbf16, #ttnn_layout9>) -> () loc(#loc65)
        return %arg6, %arg9, %61 : tensor<52224x4x32x256xbf16, #ttnn_layout11>, tensor<52224x4x32x256xbf16, #ttnn_layout11>, tensor<32x1x3072xbf16, #ttnn_layout15> loc(#loc)
      } loc(#loc)
      func.func private @cpu_hoisted_const_eval_29211e86(tensor<128xf32, #ttnn_layout2>) -> tensor<1x1x1x128xf32, #ttnn_layout4> attributes {func_hash = "29211e868eb3e16062d4e633c2fa3a9af542fd9cbf6e43a67d543f3ea38fe556", tt.function_type = "forward_cpu_declaration"} loc(#loc)
    } loc(#loc)
  } loc(#loc)
  ttcore.cpu_module {
    builtin.module {
      func.func @cpu_hoisted_const_eval_29211e86(%arg0: tensor<128xf32> {bufferization.access = "read"} loc(unknown)) -> tensor<1x1x1x128xf32> attributes {arg_ranks = [1], func_hash = "29211e868eb3e16062d4e633c2fa3a9af542fd9cbf6e43a67d543f3ea38fe556", result_ranks = [4], tt.function_type = "forward_cpu"} {
        %0 = "ttir.reshape"(%arg0) <{shape = [1 : i32, 1 : i32, 1 : i32, 128 : i32]}> : (tensor<128xf32>) -> tensor<1x1x1x128xf32> loc(#loc74)
        return %0 : tensor<1x1x1x128xf32> loc(#loc)
      } loc(#loc)
    } loc(#loc)
  } loc(#loc)
} loc(#loc)
#loc16 = loc("convert.33")
#loc17 = loc("gather.34")
#loc18 = loc("custom-call.68")
#loc19 = loc("dot.70")
#loc20 = loc("slice.72")
#loc21 = loc("transpose.76")
#loc22 = loc("custom-call.79")
#loc23 = loc("slice.100")
#loc24 = loc("concatenate.126")
#loc25 = loc("slice.102")
#loc26 = loc("convert.91")
#loc27 = loc("multiply.96")
#loc28 = loc("cosine.106")
#loc29 = loc("convert.107")
#loc30 = loc("multiply.122")
#loc31 = loc("slice.109")
#loc32 = loc("sine.97")
#loc33 = loc("convert.98")
#loc34 = loc("multiply.119")
#loc35 = loc("subtract.125")
#loc36 = loc("multiply.112")
#loc37 = loc("multiply.105")
#loc38 = loc("add.115")
#loc39 = loc("custom-call.134")
#loc40 = loc("slice.148")
#loc41 = loc("concatenate.172")
#loc42 = loc("slice.150")
#loc43 = loc("multiply.168")
#loc44 = loc("slice.155")
#loc45 = loc("multiply.165")
#loc46 = loc("subtract.171")
#loc47 = loc("multiply.158")
#loc48 = loc("multiply.153")
#loc49 = loc("add.161")
#loc50 = loc("custom-call.178")
#loc51 = loc("reshape.180")
#loc52 = loc("dot.188")
#loc53 = loc("convert.190")
#loc54 = loc("convert.191")
#loc55 = loc("add.194")
#loc56 = loc("multiply.242")
#loc57 = loc("dot.244")
#loc58 = loc("slice.247")
#loc59 = loc("multiply.250")
#loc60 = loc("slice.246")
#loc61 = loc("multiply.252")
#loc62 = loc("dot.254")
#loc63 = loc("convert.256")
#loc64 = loc("add.260")
#loc65 = loc("multiply.294")
#loc66 = loc("concatenate.126_tm0"(#loc24))
#loc67 = loc("concatenate.172_tm0"(#loc41))
#loc68 = loc("reshape.180_mem_reconfig"(#loc51))
#loc69 = loc("concatenate.126_tm0_tm0"(#loc66))
#loc70 = loc("concatenate.172_tm0_tm0"(#loc67))
#loc71 = loc("concatenate.126_tm0_tm1"(#loc66))
#loc72 = loc("concatenate.126_tm0_tm1_tm0"(#loc71))
#loc73 = loc("concatenate.126_tm0_tm1_tm0_tm0"(#loc72))
#loc74 = loc("concatenate.126_tm0_tm1_tm0_tm0_tm1"(#loc73))
