#system_desc = #ttcore.system_desc<[{role = host, target_triple = "x86_64-pc-linux"}], [{arch = <wormhole_b0>, grid = 7x8, coord_translation_offsets = 18x18, l1_size = 1499136, num_dram_channels = 12, dram_channel_size = 1073741824, noc_l1_address_align_bytes = 16, pcie_address_align_bytes = 32, noc_dram_address_align_bytes = 32, l1_unreserved_base = 103712, erisc_l1_unreserved_base = 98304, dram_unreserved_base = 1920032, dram_unreserved_end = 1073136832, supported_data_types = [<f32>, <f16>, <bf16>, <bfp_f8>, <bfp_bf8>, <bfp_f4>, <bfp_bf4>, <bfp_f2>, <bfp_bf2>, <u32>, <u16>, <u8>, <si32>], supported_tile_sizes = [ 4x16,  16x16,  32x16,  4x32,  16x32,  32x32], dst_physical_size_tiles = 16, num_cbs = 64, num_compute_threads = 1, num_datamovement_threads = 2}, {arch = <wormhole_b0>, grid = 7x8, coord_translation_offsets = 18x18, l1_size = 1499136, num_dram_channels = 12, dram_channel_size = 1073741824, noc_l1_address_align_bytes = 16, pcie_address_align_bytes = 32, noc_dram_address_align_bytes = 32, l1_unreserved_base = 103712, erisc_l1_unreserved_base = 98304, dram_unreserved_base = 1920032, dram_unreserved_end = 1073154112, supported_data_types = [<f32>, <f16>, <bf16>, <bfp_f8>, <bfp_bf8>, <bfp_f4>, <bfp_bf4>, <bfp_f2>, <bfp_bf2>, <u32>, <u16>, <u8>, <si32>], supported_tile_sizes = [ 4x16,  16x16,  32x16,  4x32,  16x32,  32x32], dst_physical_size_tiles = 16, num_cbs = 64, num_compute_threads = 1, num_datamovement_threads = 2}], [0, 1], [1 : i32, 0 : i32], [ 0x0x0x0], [<[0, 8, 0], [1, 0, 0]>]>
module @SyncTensorsGraph.1433 attributes {mhlo.cross_program_prefetches = [], mhlo.input_output_alias = [], mhlo.is_dynamic = false, mhlo.use_auto_spmd_partitioning = false, ttcore.meshes = #ttcore.meshes<[<"mesh" = 1x1>]>, ttcore.system_desc = #system_desc} {
  ttcore.device_module {
    builtin.module @SyncTensorsGraph.1433 attributes {mhlo.cross_program_prefetches = [], mhlo.input_output_alias = [], mhlo.is_dynamic = false, mhlo.use_auto_spmd_partitioning = false, ttcore.meshes = #ttcore.meshes<[<"mesh" = 1x1>]>} {
      func.func @main(%arg0: tensor<1000xbf16> {ttcore.argument_type = #ttcore.argument_type<parameter>, ttcore.local_shape = #ttcore<local_shape local_shape = tensor<1000xbf16>>, ttcore.shard_status = #ttcore.shard_status<unsharded>, ttir.name = "head.fc.bias"} loc("p0.3"), %arg1: tensor<1000x1024xbf16> {ttcore.argument_type = #ttcore.argument_type<parameter>, ttcore.local_shape = #ttcore<local_shape local_shape = tensor<1000x1024xbf16>>, ttcore.shard_status = #ttcore.shard_status<unsharded>, ttir.name = "head.fc.weight"} loc("p1.11"), %arg2: tensor<1024xbf16> {ttcore.argument_type = #ttcore.argument_type<parameter>, ttcore.local_shape = #ttcore<local_shape local_shape = tensor<1024xbf16>>, ttcore.shard_status = #ttcore.shard_status<unsharded>, ttir.name = "stages.3.blocks.0.attn.fc.bias"} loc("p2.24"), %arg3: tensor<1024x1024x1x1xbf16> {ttcore.argument_type = #ttcore.argument_type<parameter>, ttcore.local_shape = #ttcore<local_shape local_shape = tensor<1024x1024x1x1xbf16>>, ttcore.shard_status = #ttcore.shard_status<unsharded>, ttir.name = "stages.3.blocks.0.attn.fc.weight"} loc("p3.28"), %arg4: tensor<1024xbf16> {ttcore.argument_type = #ttcore.argument_type<constant>, ttcore.local_shape = #ttcore<local_shape local_shape = tensor<1024xbf16>>, ttcore.shard_status = #ttcore.shard_status<unsharded>, ttir.name = "stages.3.blocks.0.conv_concat.bn.running_var"} loc("p4.30"), %arg5: tensor<1024xbf16> {ttcore.argument_type = #ttcore.argument_type<constant>, ttcore.local_shape = #ttcore<local_shape local_shape = tensor<1024xbf16>>, ttcore.shard_status = #ttcore.shard_status<unsharded>, ttir.name = "stages.3.blocks.0.conv_concat.bn.running_mean"} loc("p5.34"), %arg6: tensor<1024xbf16> {ttcore.argument_type = #ttcore.argument_type<parameter>, ttcore.local_shape = #ttcore<local_shape local_shape = tensor<1024xbf16>>, ttcore.shard_status = #ttcore.shard_status<unsharded>, ttir.name = "stages.3.blocks.0.conv_concat.bn.bias"} loc("p6.38"), %arg7: tensor<1024xbf16> {ttcore.argument_type = #ttcore.argument_type<parameter>, ttcore.local_shape = #ttcore<local_shape local_shape = tensor<1024xbf16>>, ttcore.shard_status = #ttcore.shard_status<unsharded>, ttir.name = "stages.3.blocks.0.conv_concat.bn.weight"} loc("p7.42"), %arg8: tensor<1024x1440x1x1xbf16> {ttcore.argument_type = #ttcore.argument_type<parameter>, ttcore.local_shape = #ttcore<local_shape local_shape = tensor<1024x1440x1x1xbf16>>, ttcore.shard_status = #ttcore.shard_status<unsharded>, ttir.name = "stages.3.blocks.0.conv_concat.conv.weight"} loc("p8.46"), %arg9: tensor<224xbf16> {ttcore.argument_type = #ttcore.argument_type<constant>, ttcore.local_shape = #ttcore<local_shape local_shape = tensor<224xbf16>>, ttcore.shard_status = #ttcore.shard_status<unsharded>, ttir.name = "stages.3.blocks.0.conv_mid.2.bn.running_var"} loc("p9.48"), %arg10: tensor<224xbf16> {ttcore.argument_type = #ttcore.argument_type<constant>, ttcore.local_shape = #ttcore<local_shape local_shape = tensor<224xbf16>>, ttcore.shard_status = #ttcore.shard_status<unsharded>, ttir.name = "stages.3.blocks.0.conv_mid.2.bn.running_mean"} loc("p10.52"), %arg11: tensor<224xbf16> {ttcore.argument_type = #ttcore.argument_type<parameter>, ttcore.local_shape = #ttcore<local_shape local_shape = tensor<224xbf16>>, ttcore.shard_status = #ttcore.shard_status<unsharded>, ttir.name = "stages.3.blocks.0.conv_mid.2.bn.bias"} loc("p11.56"), %arg12: tensor<224xbf16> {ttcore.argument_type = #ttcore.argument_type<parameter>, ttcore.local_shape = #ttcore<local_shape local_shape = tensor<224xbf16>>, ttcore.shard_status = #ttcore.shard_status<unsharded>, ttir.name = "stages.3.blocks.0.conv_mid.2.bn.weight"} loc("p12.60"), %arg13: tensor<224x224x1x1xbf16> {ttcore.argument_type = #ttcore.argument_type<parameter>, ttcore.local_shape = #ttcore<local_shape local_shape = tensor<224x224x1x1xbf16>>, ttcore.shard_status = #ttcore.shard_status<unsharded>, ttir.name = "stages.3.blocks.0.conv_mid.2.conv_pw.weight"} loc("p13.64"), %arg14: tensor<224x1x3x3xbf16> {ttcore.argument_type = #ttcore.argument_type<parameter>, ttcore.local_shape = #ttcore<local_shape local_shape = tensor<224x1x3x3xbf16>>, ttcore.shard_status = #ttcore.shard_status<unsharded>, ttir.name = "stages.3.blocks.0.conv_mid.2.conv_dw.weight"} loc("p14.66"), %arg15: tensor<224xbf16> {ttcore.argument_type = #ttcore.argument_type<constant>, ttcore.local_shape = #ttcore<local_shape local_shape = tensor<224xbf16>>, ttcore.shard_status = #ttcore.shard_status<unsharded>, ttir.name = "stages.3.blocks.0.conv_mid.1.bn.running_var"} loc("p15.68"), %arg16: tensor<224xbf16> {ttcore.argument_type = #ttcore.argument_type<constant>, ttcore.local_shape = #ttcore<local_shape local_shape = tensor<224xbf16>>, ttcore.shard_status = #ttcore.shard_status<unsharded>, ttir.name = "stages.3.blocks.0.conv_mid.1.bn.running_mean"} loc("p16.72"), %arg17: tensor<224xbf16> {ttcore.argument_type = #ttcore.argument_type<parameter>, ttcore.local_shape = #ttcore<local_shape local_shape = tensor<224xbf16>>, ttcore.shard_status = #ttcore.shard_status<unsharded>, ttir.name = "stages.3.blocks.0.conv_mid.1.bn.bias"} loc("p17.76"), %arg18: tensor<224xbf16> {ttcore.argument_type = #ttcore.argument_type<parameter>, ttcore.local_shape = #ttcore<local_shape local_shape = tensor<224xbf16>>, ttcore.shard_status = #ttcore.shard_status<unsharded>, ttir.name = "stages.3.blocks.0.conv_mid.1.bn.weight"} loc("p18.80"), %arg19: tensor<224x224x1x1xbf16> {ttcore.argument_type = #ttcore.argument_type<parameter>, ttcore.local_shape = #ttcore<local_shape local_shape = tensor<224x224x1x1xbf16>>, ttcore.shard_status = #ttcore.shard_status<unsharded>, ttir.name = "stages.3.blocks.0.conv_mid.1.conv_pw.weight"} loc("p19.84"), %arg20: tensor<224x1x3x3xbf16> {ttcore.argument_type = #ttcore.argument_type<parameter>, ttcore.local_shape = #ttcore<local_shape local_shape = tensor<224x1x3x3xbf16>>, ttcore.shard_status = #ttcore.shard_status<unsharded>, ttir.name = "stages.3.blocks.0.conv_mid.1.conv_dw.weight"} loc("p20.86"), %arg21: tensor<224xbf16> {ttcore.argument_type = #ttcore.argument_type<constant>, ttcore.local_shape = #ttcore<local_shape local_shape = tensor<224xbf16>>, ttcore.shard_status = #ttcore.shard_status<unsharded>, ttir.name = "stages.3.blocks.0.conv_mid.0.bn.running_var"} loc("p21.88"), %arg22: tensor<224xbf16> {ttcore.argument_type = #ttcore.argument_type<constant>, ttcore.local_shape = #ttcore<local_shape local_shape = tensor<224xbf16>>, ttcore.shard_status = #ttcore.shard_status<unsharded>, ttir.name = "stages.3.blocks.0.conv_mid.0.bn.running_mean"} loc("p22.92"), %arg23: tensor<224xbf16> {ttcore.argument_type = #ttcore.argument_type<parameter>, ttcore.local_shape = #ttcore<local_shape local_shape = tensor<224xbf16>>, ttcore.shard_status = #ttcore.shard_status<unsharded>, ttir.name = "stages.3.blocks.0.conv_mid.0.bn.bias"} loc("p23.96"), %arg24: tensor<224xbf16> {ttcore.argument_type = #ttcore.argument_type<parameter>, ttcore.local_shape = #ttcore<local_shape local_shape = tensor<224xbf16>>, ttcore.shard_status = #ttcore.shard_status<unsharded>, ttir.name = "stages.3.blocks.0.conv_mid.0.bn.weight"} loc("p24.100"), %arg25: tensor<224x224x1x1xbf16> {ttcore.argument_type = #ttcore.argument_type<parameter>, ttcore.local_shape = #ttcore<local_shape local_shape = tensor<224x224x1x1xbf16>>, ttcore.shard_status = #ttcore.shard_status<unsharded>, ttir.name = "stages.3.blocks.0.conv_mid.0.conv_pw.weight"} loc("p25.104"), %arg26: tensor<224x1x3x3xbf16> {ttcore.argument_type = #ttcore.argument_type<parameter>, ttcore.local_shape = #ttcore<local_shape local_shape = tensor<224x1x3x3xbf16>>, ttcore.shard_status = #ttcore.shard_status<unsharded>, ttir.name = "stages.3.blocks.0.conv_mid.0.conv_dw.weight"} loc("p26.106"), %arg27: tensor<224xbf16> {ttcore.argument_type = #ttcore.argument_type<constant>, ttcore.local_shape = #ttcore<local_shape local_shape = tensor<224xbf16>>, ttcore.shard_status = #ttcore.shard_status<unsharded>, ttir.name = "stages.3.blocks.0.conv_reduction.bn.running_var"} loc("p27.108"), %arg28: tensor<224xbf16> {ttcore.argument_type = #ttcore.argument_type<constant>, ttcore.local_shape = #ttcore<local_shape local_shape = tensor<224xbf16>>, ttcore.shard_status = #ttcore.shard_status<unsharded>, ttir.name = "stages.3.blocks.0.conv_reduction.bn.running_mean"} loc("p28.112"), %arg29: tensor<224xbf16> {ttcore.argument_type = #ttcore.argument_type<parameter>, ttcore.local_shape = #ttcore<local_shape local_shape = tensor<224xbf16>>, ttcore.shard_status = #ttcore.shard_status<unsharded>, ttir.name = "stages.3.blocks.0.conv_reduction.bn.bias"} loc("p29.116"), %arg30: tensor<224xbf16> {ttcore.argument_type = #ttcore.argument_type<parameter>, ttcore.local_shape = #ttcore<local_shape local_shape = tensor<224xbf16>>, ttcore.shard_status = #ttcore.shard_status<unsharded>, ttir.name = "stages.3.blocks.0.conv_reduction.bn.weight"} loc("p30.120"), %arg31: tensor<224x768x1x1xbf16> {ttcore.argument_type = #ttcore.argument_type<parameter>, ttcore.local_shape = #ttcore<local_shape local_shape = tensor<224x768x1x1xbf16>>, ttcore.shard_status = #ttcore.shard_status<unsharded>, ttir.name = "stages.3.blocks.0.conv_reduction.conv.weight"} loc("p31.124"), %arg32: tensor<768xbf16> {ttcore.argument_type = #ttcore.argument_type<parameter>, ttcore.local_shape = #ttcore<local_shape local_shape = tensor<768xbf16>>, ttcore.shard_status = #ttcore.shard_status<unsharded>, ttir.name = "stages.2.blocks.0.attn.fc.bias"} loc("p32.133"), %arg33: tensor<768x768x1x1xbf16> {ttcore.argument_type = #ttcore.argument_type<parameter>, ttcore.local_shape = #ttcore<local_shape local_shape = tensor<768x768x1x1xbf16>>, ttcore.shard_status = #ttcore.shard_status<unsharded>, ttir.name = "stages.2.blocks.0.attn.fc.weight"} loc("p33.137"), %arg34: tensor<768xbf16> {ttcore.argument_type = #ttcore.argument_type<constant>, ttcore.local_shape = #ttcore<local_shape local_shape = tensor<768xbf16>>, ttcore.shard_status = #ttcore.shard_status<unsharded>, ttir.name = "stages.2.blocks.0.conv_concat.bn.running_var"} loc("p34.139"), %arg35: tensor<768xbf16> {ttcore.argument_type = #ttcore.argument_type<constant>, ttcore.local_shape = #ttcore<local_shape local_shape = tensor<768xbf16>>, ttcore.shard_status = #ttcore.shard_status<unsharded>, ttir.name = "stages.2.blocks.0.conv_concat.bn.running_mean"} loc("p35.143"), %arg36: tensor<768xbf16> {ttcore.argument_type = #ttcore.argument_type<parameter>, ttcore.local_shape = #ttcore<local_shape local_shape = tensor<768xbf16>>, ttcore.shard_status = #ttcore.shard_status<unsharded>, ttir.name = "stages.2.blocks.0.conv_concat.bn.bias"} loc("p36.147"), %arg37: tensor<768xbf16> {ttcore.argument_type = #ttcore.argument_type<parameter>, ttcore.local_shape = #ttcore<local_shape local_shape = tensor<768xbf16>>, ttcore.shard_status = #ttcore.shard_status<unsharded>, ttir.name = "stages.2.blocks.0.conv_concat.bn.weight"} loc("p37.151"), %arg38: tensor<768x1088x1x1xbf16> {ttcore.argument_type = #ttcore.argument_type<parameter>, ttcore.local_shape = #ttcore<local_shape local_shape = tensor<768x1088x1x1xbf16>>, ttcore.shard_status = #ttcore.shard_status<unsharded>, ttir.name = "stages.2.blocks.0.conv_concat.conv.weight"} loc("p38.155"), %arg39: tensor<192xbf16> {ttcore.argument_type = #ttcore.argument_type<constant>, ttcore.local_shape = #ttcore<local_shape local_shape = tensor<192xbf16>>, ttcore.shard_status = #ttcore.shard_status<unsharded>, ttir.name = "stages.2.blocks.0.conv_mid.2.bn.running_var"} loc("p39.157"), %arg40: tensor<192xbf16> {ttcore.argument_type = #ttcore.argument_type<constant>, ttcore.local_shape = #ttcore<local_shape local_shape = tensor<192xbf16>>, ttcore.shard_status = #ttcore.shard_status<unsharded>, ttir.name = "stages.2.blocks.0.conv_mid.2.bn.running_mean"} loc("p40.161"), %arg41: tensor<192xbf16> {ttcore.argument_type = #ttcore.argument_type<parameter>, ttcore.local_shape = #ttcore<local_shape local_shape = tensor<192xbf16>>, ttcore.shard_status = #ttcore.shard_status<unsharded>, ttir.name = "stages.2.blocks.0.conv_mid.2.bn.bias"} loc("p41.165"), %arg42: tensor<192xbf16> {ttcore.argument_type = #ttcore.argument_type<parameter>, ttcore.local_shape = #ttcore<local_shape local_shape = tensor<192xbf16>>, ttcore.shard_status = #ttcore.shard_status<unsharded>, ttir.name = "stages.2.blocks.0.conv_mid.2.bn.weight"} loc("p42.169"), %arg43: tensor<192x192x1x1xbf16> {ttcore.argument_type = #ttcore.argument_type<parameter>, ttcore.local_shape = #ttcore<local_shape local_shape = tensor<192x192x1x1xbf16>>, ttcore.shard_status = #ttcore.shard_status<unsharded>, ttir.name = "stages.2.blocks.0.conv_mid.2.conv_pw.weight"} loc("p43.173"), %arg44: tensor<192x1x3x3xbf16> {ttcore.argument_type = #ttcore.argument_type<parameter>, ttcore.local_shape = #ttcore<local_shape local_shape = tensor<192x1x3x3xbf16>>, ttcore.shard_status = #ttcore.shard_status<unsharded>, ttir.name = "stages.2.blocks.0.conv_mid.2.conv_dw.weight"} loc("p44.175"), %arg45: tensor<192xbf16> {ttcore.argument_type = #ttcore.argument_type<constant>, ttcore.local_shape = #ttcore<local_shape local_shape = tensor<192xbf16>>, ttcore.shard_status = #ttcore.shard_status<unsharded>, ttir.name = "stages.2.blocks.0.conv_mid.1.bn.running_var"} loc("p45.177"), %arg46: tensor<192xbf16> {ttcore.argument_type = #ttcore.argument_type<constant>, ttcore.local_shape = #ttcore<local_shape local_shape = tensor<192xbf16>>, ttcore.shard_status = #ttcore.shard_status<unsharded>, ttir.name = "stages.2.blocks.0.conv_mid.1.bn.running_mean"} loc("p46.181"), %arg47: tensor<192xbf16> {ttcore.argument_type = #ttcore.argument_type<parameter>, ttcore.local_shape = #ttcore<local_shape local_shape = tensor<192xbf16>>, ttcore.shard_status = #ttcore.shard_status<unsharded>, ttir.name = "stages.2.blocks.0.conv_mid.1.bn.bias"} loc("p47.185"), %arg48: tensor<192xbf16> {ttcore.argument_type = #ttcore.argument_type<parameter>, ttcore.local_shape = #ttcore<local_shape local_shape = tensor<192xbf16>>, ttcore.shard_status = #ttcore.shard_status<unsharded>, ttir.name = "stages.2.blocks.0.conv_mid.1.bn.weight"} loc("p48.189"), %arg49: tensor<192x192x1x1xbf16> {ttcore.argument_type = #ttcore.argument_type<parameter>, ttcore.local_shape = #ttcore<local_shape local_shape = tensor<192x192x1x1xbf16>>, ttcore.shard_status = #ttcore.shard_status<unsharded>, ttir.name = "stages.2.blocks.0.conv_mid.1.conv_pw.weight"} loc("p49.193"), %arg50: tensor<192x1x3x3xbf16> {ttcore.argument_type = #ttcore.argument_type<parameter>, ttcore.local_shape = #ttcore<local_shape local_shape = tensor<192x1x3x3xbf16>>, ttcore.shard_status = #ttcore.shard_status<unsharded>, ttir.name = "stages.2.blocks.0.conv_mid.1.conv_dw.weight"} loc("p50.195"), %arg51: tensor<192xbf16> {ttcore.argument_type = #ttcore.argument_type<constant>, ttcore.local_shape = #ttcore<local_shape local_shape = tensor<192xbf16>>, ttcore.shard_status = #ttcore.shard_status<unsharded>, ttir.name = "stages.2.blocks.0.conv_mid.0.bn.running_var"} loc("p51.197"), %arg52: tensor<192xbf16> {ttcore.argument_type = #ttcore.argument_type<constant>, ttcore.local_shape = #ttcore<local_shape local_shape = tensor<192xbf16>>, ttcore.shard_status = #ttcore.shard_status<unsharded>, ttir.name = "stages.2.blocks.0.conv_mid.0.bn.running_mean"} loc("p52.201"), %arg53: tensor<192xbf16> {ttcore.argument_type = #ttcore.argument_type<parameter>, ttcore.local_shape = #ttcore<local_shape local_shape = tensor<192xbf16>>, ttcore.shard_status = #ttcore.shard_status<unsharded>, ttir.name = "stages.2.blocks.0.conv_mid.0.bn.bias"} loc("p53.205"), %arg54: tensor<192xbf16> {ttcore.argument_type = #ttcore.argument_type<parameter>, ttcore.local_shape = #ttcore<local_shape local_shape = tensor<192xbf16>>, ttcore.shard_status = #ttcore.shard_status<unsharded>, ttir.name = "stages.2.blocks.0.conv_mid.0.bn.weight"} loc("p54.209"), %arg55: tensor<192x192x1x1xbf16> {ttcore.argument_type = #ttcore.argument_type<parameter>, ttcore.local_shape = #ttcore<local_shape local_shape = tensor<192x192x1x1xbf16>>, ttcore.shard_status = #ttcore.shard_status<unsharded>, ttir.name = "stages.2.blocks.0.conv_mid.0.conv_pw.weight"} loc("p55.213"), %arg56: tensor<192x1x3x3xbf16> {ttcore.argument_type = #ttcore.argument_type<parameter>, ttcore.local_shape = #ttcore<local_shape local_shape = tensor<192x1x3x3xbf16>>, ttcore.shard_status = #ttcore.shard_status<unsharded>, ttir.name = "stages.2.blocks.0.conv_mid.0.conv_dw.weight"} loc("p56.215"), %arg57: tensor<192xbf16> {ttcore.argument_type = #ttcore.argument_type<constant>, ttcore.local_shape = #ttcore<local_shape local_shape = tensor<192xbf16>>, ttcore.shard_status = #ttcore.shard_status<unsharded>, ttir.name = "stages.2.blocks.0.conv_reduction.bn.running_var"} loc("p57.217"), %arg58: tensor<192xbf16> {ttcore.argument_type = #ttcore.argument_type<constant>, ttcore.local_shape = #ttcore<local_shape local_shape = tensor<192xbf16>>, ttcore.shard_status = #ttcore.shard_status<unsharded>, ttir.name = "stages.2.blocks.0.conv_reduction.bn.running_mean"} loc("p58.221"), %arg59: tensor<192xbf16> {ttcore.argument_type = #ttcore.argument_type<parameter>, ttcore.local_shape = #ttcore<local_shape local_shape = tensor<192xbf16>>, ttcore.shard_status = #ttcore.shard_status<unsharded>, ttir.name = "stages.2.blocks.0.conv_reduction.bn.bias"} loc("p59.225"), %arg60: tensor<192xbf16> {ttcore.argument_type = #ttcore.argument_type<parameter>, ttcore.local_shape = #ttcore<local_shape local_shape = tensor<192xbf16>>, ttcore.shard_status = #ttcore.shard_status<unsharded>, ttir.name = "stages.2.blocks.0.conv_reduction.bn.weight"} loc("p60.229"), %arg61: tensor<192x512x1x1xbf16> {ttcore.argument_type = #ttcore.argument_type<parameter>, ttcore.local_shape = #ttcore<local_shape local_shape = tensor<192x512x1x1xbf16>>, ttcore.shard_status = #ttcore.shard_status<unsharded>, ttir.name = "stages.2.blocks.0.conv_reduction.conv.weight"} loc("p61.233"), %arg62: tensor<512xbf16> {ttcore.argument_type = #ttcore.argument_type<parameter>, ttcore.local_shape = #ttcore<local_shape local_shape = tensor<512xbf16>>, ttcore.shard_status = #ttcore.shard_status<unsharded>, ttir.name = "stages.1.blocks.0.attn.fc.bias"} loc("p62.242"), %arg63: tensor<512x512x1x1xbf16> {ttcore.argument_type = #ttcore.argument_type<parameter>, ttcore.local_shape = #ttcore<local_shape local_shape = tensor<512x512x1x1xbf16>>, ttcore.shard_status = #ttcore.shard_status<unsharded>, ttir.name = "stages.1.blocks.0.attn.fc.weight"} loc("p63.246"), %arg64: tensor<512xbf16> {ttcore.argument_type = #ttcore.argument_type<constant>, ttcore.local_shape = #ttcore<local_shape local_shape = tensor<512xbf16>>, ttcore.shard_status = #ttcore.shard_status<unsharded>, ttir.name = "stages.1.blocks.0.conv_concat.bn.running_var"} loc("p64.248"), %arg65: tensor<512xbf16> {ttcore.argument_type = #ttcore.argument_type<constant>, ttcore.local_shape = #ttcore<local_shape local_shape = tensor<512xbf16>>, ttcore.shard_status = #ttcore.shard_status<unsharded>, ttir.name = "stages.1.blocks.0.conv_concat.bn.running_mean"} loc("p65.252"), %arg66: tensor<512xbf16> {ttcore.argument_type = #ttcore.argument_type<parameter>, ttcore.local_shape = #ttcore<local_shape local_shape = tensor<512xbf16>>, ttcore.shard_status = #ttcore.shard_status<unsharded>, ttir.name = "stages.1.blocks.0.conv_concat.bn.bias"} loc("p66.256"), %arg67: tensor<512xbf16> {ttcore.argument_type = #ttcore.argument_type<parameter>, ttcore.local_shape = #ttcore<local_shape local_shape = tensor<512xbf16>>, ttcore.shard_status = #ttcore.shard_status<unsharded>, ttir.name = "stages.1.blocks.0.conv_concat.bn.weight"} loc("p67.260"), %arg68: tensor<512x736x1x1xbf16> {ttcore.argument_type = #ttcore.argument_type<parameter>, ttcore.local_shape = #ttcore<local_shape local_shape = tensor<512x736x1x1xbf16>>, ttcore.shard_status = #ttcore.shard_status<unsharded>, ttir.name = "stages.1.blocks.0.conv_concat.conv.weight"} loc("p68.264"), %arg69: tensor<160xbf16> {ttcore.argument_type = #ttcore.argument_type<constant>, ttcore.local_shape = #ttcore<local_shape local_shape = tensor<160xbf16>>, ttcore.shard_status = #ttcore.shard_status<unsharded>, ttir.name = "stages.1.blocks.0.conv_mid.2.bn.running_var"} loc("p69.266"), %arg70: tensor<160xbf16> {ttcore.argument_type = #ttcore.argument_type<constant>, ttcore.local_shape = #ttcore<local_shape local_shape = tensor<160xbf16>>, ttcore.shard_status = #ttcore.shard_status<unsharded>, ttir.name = "stages.1.blocks.0.conv_mid.2.bn.running_mean"} loc("p70.270"), %arg71: tensor<160xbf16> {ttcore.argument_type = #ttcore.argument_type<parameter>, ttcore.local_shape = #ttcore<local_shape local_shape = tensor<160xbf16>>, ttcore.shard_status = #ttcore.shard_status<unsharded>, ttir.name = "stages.1.blocks.0.conv_mid.2.bn.bias"} loc("p71.274"), %arg72: tensor<160xbf16> {ttcore.argument_type = #ttcore.argument_type<parameter>, ttcore.local_shape = #ttcore<local_shape local_shape = tensor<160xbf16>>, ttcore.shard_status = #ttcore.shard_status<unsharded>, ttir.name = "stages.1.blocks.0.conv_mid.2.bn.weight"} loc("p72.278"), %arg73: tensor<160x160x1x1xbf16> {ttcore.argument_type = #ttcore.argument_type<parameter>, ttcore.local_shape = #ttcore<local_shape local_shape = tensor<160x160x1x1xbf16>>, ttcore.shard_status = #ttcore.shard_status<unsharded>, ttir.name = "stages.1.blocks.0.conv_mid.2.conv_pw.weight"} loc("p73.282"), %arg74: tensor<160x1x3x3xbf16> {ttcore.argument_type = #ttcore.argument_type<parameter>, ttcore.local_shape = #ttcore<local_shape local_shape = tensor<160x1x3x3xbf16>>, ttcore.shard_status = #ttcore.shard_status<unsharded>, ttir.name = "stages.1.blocks.0.conv_mid.2.conv_dw.weight"} loc("p74.284"), %arg75: tensor<160xbf16> {ttcore.argument_type = #ttcore.argument_type<constant>, ttcore.local_shape = #ttcore<local_shape local_shape = tensor<160xbf16>>, ttcore.shard_status = #ttcore.shard_status<unsharded>, ttir.name = "stages.1.blocks.0.conv_mid.1.bn.running_var"} loc("p75.286"), %arg76: tensor<160xbf16> {ttcore.argument_type = #ttcore.argument_type<constant>, ttcore.local_shape = #ttcore<local_shape local_shape = tensor<160xbf16>>, ttcore.shard_status = #ttcore.shard_status<unsharded>, ttir.name = "stages.1.blocks.0.conv_mid.1.bn.running_mean"} loc("p76.290"), %arg77: tensor<160xbf16> {ttcore.argument_type = #ttcore.argument_type<parameter>, ttcore.local_shape = #ttcore<local_shape local_shape = tensor<160xbf16>>, ttcore.shard_status = #ttcore.shard_status<unsharded>, ttir.name = "stages.1.blocks.0.conv_mid.1.bn.bias"} loc("p77.294"), %arg78: tensor<160xbf16> {ttcore.argument_type = #ttcore.argument_type<parameter>, ttcore.local_shape = #ttcore<local_shape local_shape = tensor<160xbf16>>, ttcore.shard_status = #ttcore.shard_status<unsharded>, ttir.name = "stages.1.blocks.0.conv_mid.1.bn.weight"} loc("p78.298"), %arg79: tensor<160x160x1x1xbf16> {ttcore.argument_type = #ttcore.argument_type<parameter>, ttcore.local_shape = #ttcore<local_shape local_shape = tensor<160x160x1x1xbf16>>, ttcore.shard_status = #ttcore.shard_status<unsharded>, ttir.name = "stages.1.blocks.0.conv_mid.1.conv_pw.weight"} loc("p79.302"), %arg80: tensor<160x1x3x3xbf16> {ttcore.argument_type = #ttcore.argument_type<parameter>, ttcore.local_shape = #ttcore<local_shape local_shape = tensor<160x1x3x3xbf16>>, ttcore.shard_status = #ttcore.shard_status<unsharded>, ttir.name = "stages.1.blocks.0.conv_mid.1.conv_dw.weight"} loc("p80.304"), %arg81: tensor<160xbf16> {ttcore.argument_type = #ttcore.argument_type<constant>, ttcore.local_shape = #ttcore<local_shape local_shape = tensor<160xbf16>>, ttcore.shard_status = #ttcore.shard_status<unsharded>, ttir.name = "stages.1.blocks.0.conv_mid.0.bn.running_var"} loc("p81.306"), %arg82: tensor<160xbf16> {ttcore.argument_type = #ttcore.argument_type<constant>, ttcore.local_shape = #ttcore<local_shape local_shape = tensor<160xbf16>>, ttcore.shard_status = #ttcore.shard_status<unsharded>, ttir.name = "stages.1.blocks.0.conv_mid.0.bn.running_mean"} loc("p82.310"), %arg83: tensor<160xbf16> {ttcore.argument_type = #ttcore.argument_type<parameter>, ttcore.local_shape = #ttcore<local_shape local_shape = tensor<160xbf16>>, ttcore.shard_status = #ttcore.shard_status<unsharded>, ttir.name = "stages.1.blocks.0.conv_mid.0.bn.bias"} loc("p83.314"), %arg84: tensor<160xbf16> {ttcore.argument_type = #ttcore.argument_type<parameter>, ttcore.local_shape = #ttcore<local_shape local_shape = tensor<160xbf16>>, ttcore.shard_status = #ttcore.shard_status<unsharded>, ttir.name = "stages.1.blocks.0.conv_mid.0.bn.weight"} loc("p84.318"), %arg85: tensor<160x160x1x1xbf16> {ttcore.argument_type = #ttcore.argument_type<parameter>, ttcore.local_shape = #ttcore<local_shape local_shape = tensor<160x160x1x1xbf16>>, ttcore.shard_status = #ttcore.shard_status<unsharded>, ttir.name = "stages.1.blocks.0.conv_mid.0.conv_pw.weight"} loc("p85.322"), %arg86: tensor<160x1x3x3xbf16> {ttcore.argument_type = #ttcore.argument_type<parameter>, ttcore.local_shape = #ttcore<local_shape local_shape = tensor<160x1x3x3xbf16>>, ttcore.shard_status = #ttcore.shard_status<unsharded>, ttir.name = "stages.1.blocks.0.conv_mid.0.conv_dw.weight"} loc("p86.324"), %arg87: tensor<160xbf16> {ttcore.argument_type = #ttcore.argument_type<constant>, ttcore.local_shape = #ttcore<local_shape local_shape = tensor<160xbf16>>, ttcore.shard_status = #ttcore.shard_status<unsharded>, ttir.name = "stages.1.blocks.0.conv_reduction.bn.running_var"} loc("p87.326"), %arg88: tensor<160xbf16> {ttcore.argument_type = #ttcore.argument_type<constant>, ttcore.local_shape = #ttcore<local_shape local_shape = tensor<160xbf16>>, ttcore.shard_status = #ttcore.shard_status<unsharded>, ttir.name = "stages.1.blocks.0.conv_reduction.bn.running_mean"} loc("p88.330"), %arg89: tensor<160xbf16> {ttcore.argument_type = #ttcore.argument_type<parameter>, ttcore.local_shape = #ttcore<local_shape local_shape = tensor<160xbf16>>, ttcore.shard_status = #ttcore.shard_status<unsharded>, ttir.name = "stages.1.blocks.0.conv_reduction.bn.bias"} loc("p89.334"), %arg90: tensor<160xbf16> {ttcore.argument_type = #ttcore.argument_type<parameter>, ttcore.local_shape = #ttcore<local_shape local_shape = tensor<160xbf16>>, ttcore.shard_status = #ttcore.shard_status<unsharded>, ttir.name = "stages.1.blocks.0.conv_reduction.bn.weight"} loc("p90.338"), %arg91: tensor<160x256x1x1xbf16> {ttcore.argument_type = #ttcore.argument_type<parameter>, ttcore.local_shape = #ttcore<local_shape local_shape = tensor<160x256x1x1xbf16>>, ttcore.shard_status = #ttcore.shard_status<unsharded>, ttir.name = "stages.1.blocks.0.conv_reduction.conv.weight"} loc("p91.342"), %arg92: tensor<256xbf16> {ttcore.argument_type = #ttcore.argument_type<parameter>, ttcore.local_shape = #ttcore<local_shape local_shape = tensor<256xbf16>>, ttcore.shard_status = #ttcore.shard_status<unsharded>, ttir.name = "stages.0.blocks.0.attn.fc.bias"} loc("p92.351"), %arg93: tensor<256x256x1x1xbf16> {ttcore.argument_type = #ttcore.argument_type<parameter>, ttcore.local_shape = #ttcore<local_shape local_shape = tensor<256x256x1x1xbf16>>, ttcore.shard_status = #ttcore.shard_status<unsharded>, ttir.name = "stages.0.blocks.0.attn.fc.weight"} loc("p93.355"), %arg94: tensor<256xbf16> {ttcore.argument_type = #ttcore.argument_type<constant>, ttcore.local_shape = #ttcore<local_shape local_shape = tensor<256xbf16>>, ttcore.shard_status = #ttcore.shard_status<unsharded>, ttir.name = "stages.0.blocks.0.conv_concat.bn.running_var"} loc("p94.357"), %arg95: tensor<256xbf16> {ttcore.argument_type = #ttcore.argument_type<constant>, ttcore.local_shape = #ttcore<local_shape local_shape = tensor<256xbf16>>, ttcore.shard_status = #ttcore.shard_status<unsharded>, ttir.name = "stages.0.blocks.0.conv_concat.bn.running_mean"} loc("p95.361"), %arg96: tensor<256xbf16> {ttcore.argument_type = #ttcore.argument_type<parameter>, ttcore.local_shape = #ttcore<local_shape local_shape = tensor<256xbf16>>, ttcore.shard_status = #ttcore.shard_status<unsharded>, ttir.name = "stages.0.blocks.0.conv_concat.bn.bias"} loc("p96.365"), %arg97: tensor<256xbf16> {ttcore.argument_type = #ttcore.argument_type<parameter>, ttcore.local_shape = #ttcore<local_shape local_shape = tensor<256xbf16>>, ttcore.shard_status = #ttcore.shard_status<unsharded>, ttir.name = "stages.0.blocks.0.conv_concat.bn.weight"} loc("p97.369"), %arg98: tensor<256x448x1x1xbf16> {ttcore.argument_type = #ttcore.argument_type<parameter>, ttcore.local_shape = #ttcore<local_shape local_shape = tensor<256x448x1x1xbf16>>, ttcore.shard_status = #ttcore.shard_status<unsharded>, ttir.name = "stages.0.blocks.0.conv_concat.conv.weight"} loc("p98.373"), %arg99: tensor<128xbf16> {ttcore.argument_type = #ttcore.argument_type<constant>, ttcore.local_shape = #ttcore<local_shape local_shape = tensor<128xbf16>>, ttcore.shard_status = #ttcore.shard_status<unsharded>, ttir.name = "stages.0.blocks.0.conv_mid.2.bn.running_var"} loc("p99.375"), %arg100: tensor<128xbf16> {ttcore.argument_type = #ttcore.argument_type<constant>, ttcore.local_shape = #ttcore<local_shape local_shape = tensor<128xbf16>>, ttcore.shard_status = #ttcore.shard_status<unsharded>, ttir.name = "stages.0.blocks.0.conv_mid.2.bn.running_mean"} loc("p100.379"), %arg101: tensor<128xbf16> {ttcore.argument_type = #ttcore.argument_type<parameter>, ttcore.local_shape = #ttcore<local_shape local_shape = tensor<128xbf16>>, ttcore.shard_status = #ttcore.shard_status<unsharded>, ttir.name = "stages.0.blocks.0.conv_mid.2.bn.bias"} loc("p101.383"), %arg102: tensor<128xbf16> {ttcore.argument_type = #ttcore.argument_type<parameter>, ttcore.local_shape = #ttcore<local_shape local_shape = tensor<128xbf16>>, ttcore.shard_status = #ttcore.shard_status<unsharded>, ttir.name = "stages.0.blocks.0.conv_mid.2.bn.weight"} loc("p102.387"), %arg103: tensor<128x128x1x1xbf16> {ttcore.argument_type = #ttcore.argument_type<parameter>, ttcore.local_shape = #ttcore<local_shape local_shape = tensor<128x128x1x1xbf16>>, ttcore.shard_status = #ttcore.shard_status<unsharded>, ttir.name = "stages.0.blocks.0.conv_mid.2.conv_pw.weight"} loc("p103.391"), %arg104: tensor<128x1x3x3xbf16> {ttcore.argument_type = #ttcore.argument_type<parameter>, ttcore.local_shape = #ttcore<local_shape local_shape = tensor<128x1x3x3xbf16>>, ttcore.shard_status = #ttcore.shard_status<unsharded>, ttir.name = "stages.0.blocks.0.conv_mid.2.conv_dw.weight"} loc("p104.393"), %arg105: tensor<128xbf16> {ttcore.argument_type = #ttcore.argument_type<constant>, ttcore.local_shape = #ttcore<local_shape local_shape = tensor<128xbf16>>, ttcore.shard_status = #ttcore.shard_status<unsharded>, ttir.name = "stages.0.blocks.0.conv_mid.1.bn.running_var"} loc("p105.395"), %arg106: tensor<128xbf16> {ttcore.argument_type = #ttcore.argument_type<constant>, ttcore.local_shape = #ttcore<local_shape local_shape = tensor<128xbf16>>, ttcore.shard_status = #ttcore.shard_status<unsharded>, ttir.name = "stages.0.blocks.0.conv_mid.1.bn.running_mean"} loc("p106.399"), %arg107: tensor<128xbf16> {ttcore.argument_type = #ttcore.argument_type<parameter>, ttcore.local_shape = #ttcore<local_shape local_shape = tensor<128xbf16>>, ttcore.shard_status = #ttcore.shard_status<unsharded>, ttir.name = "stages.0.blocks.0.conv_mid.1.bn.bias"} loc("p107.403"), %arg108: tensor<128xbf16> {ttcore.argument_type = #ttcore.argument_type<parameter>, ttcore.local_shape = #ttcore<local_shape local_shape = tensor<128xbf16>>, ttcore.shard_status = #ttcore.shard_status<unsharded>, ttir.name = "stages.0.blocks.0.conv_mid.1.bn.weight"} loc("p108.407"), %arg109: tensor<128x128x1x1xbf16> {ttcore.argument_type = #ttcore.argument_type<parameter>, ttcore.local_shape = #ttcore<local_shape local_shape = tensor<128x128x1x1xbf16>>, ttcore.shard_status = #ttcore.shard_status<unsharded>, ttir.name = "stages.0.blocks.0.conv_mid.1.conv_pw.weight"} loc("p109.411"), %arg110: tensor<128x1x3x3xbf16> {ttcore.argument_type = #ttcore.argument_type<parameter>, ttcore.local_shape = #ttcore<local_shape local_shape = tensor<128x1x3x3xbf16>>, ttcore.shard_status = #ttcore.shard_status<unsharded>, ttir.name = "stages.0.blocks.0.conv_mid.1.conv_dw.weight"} loc("p110.413"), %arg111: tensor<128xbf16> {ttcore.argument_type = #ttcore.argument_type<constant>, ttcore.local_shape = #ttcore<local_shape local_shape = tensor<128xbf16>>, ttcore.shard_status = #ttcore.shard_status<unsharded>, ttir.name = "stages.0.blocks.0.conv_mid.0.bn.running_var"} loc("p111.415"), %arg112: tensor<128xbf16> {ttcore.argument_type = #ttcore.argument_type<constant>, ttcore.local_shape = #ttcore<local_shape local_shape = tensor<128xbf16>>, ttcore.shard_status = #ttcore.shard_status<unsharded>, ttir.name = "stages.0.blocks.0.conv_mid.0.bn.running_mean"} loc("p112.419"), %arg113: tensor<128xbf16> {ttcore.argument_type = #ttcore.argument_type<parameter>, ttcore.local_shape = #ttcore<local_shape local_shape = tensor<128xbf16>>, ttcore.shard_status = #ttcore.shard_status<unsharded>, ttir.name = "stages.0.blocks.0.conv_mid.0.bn.bias"} loc("p113.423"), %arg114: tensor<128xbf16> {ttcore.argument_type = #ttcore.argument_type<parameter>, ttcore.local_shape = #ttcore<local_shape local_shape = tensor<128xbf16>>, ttcore.shard_status = #ttcore.shard_status<unsharded>, ttir.name = "stages.0.blocks.0.conv_mid.0.bn.weight"} loc("p114.427"), %arg115: tensor<128x128x1x1xbf16> {ttcore.argument_type = #ttcore.argument_type<parameter>, ttcore.local_shape = #ttcore<local_shape local_shape = tensor<128x128x1x1xbf16>>, ttcore.shard_status = #ttcore.shard_status<unsharded>, ttir.name = "stages.0.blocks.0.conv_mid.0.conv_pw.weight"} loc("p115.431"), %arg116: tensor<128x1x3x3xbf16> {ttcore.argument_type = #ttcore.argument_type<parameter>, ttcore.local_shape = #ttcore<local_shape local_shape = tensor<128x1x3x3xbf16>>, ttcore.shard_status = #ttcore.shard_status<unsharded>, ttir.name = "stages.0.blocks.0.conv_mid.0.conv_dw.weight"} loc("p116.433"), %arg117: tensor<128xbf16> {ttcore.argument_type = #ttcore.argument_type<constant>, ttcore.local_shape = #ttcore<local_shape local_shape = tensor<128xbf16>>, ttcore.shard_status = #ttcore.shard_status<unsharded>, ttir.name = "stages.0.blocks.0.conv_reduction.bn.running_var"} loc("p117.435"), %arg118: tensor<128xbf16> {ttcore.argument_type = #ttcore.argument_type<constant>, ttcore.local_shape = #ttcore<local_shape local_shape = tensor<128xbf16>>, ttcore.shard_status = #ttcore.shard_status<unsharded>, ttir.name = "stages.0.blocks.0.conv_reduction.bn.running_mean"} loc("p118.439"), %arg119: tensor<128xbf16> {ttcore.argument_type = #ttcore.argument_type<parameter>, ttcore.local_shape = #ttcore<local_shape local_shape = tensor<128xbf16>>, ttcore.shard_status = #ttcore.shard_status<unsharded>, ttir.name = "stages.0.blocks.0.conv_reduction.bn.bias"} loc("p119.443"), %arg120: tensor<128xbf16> {ttcore.argument_type = #ttcore.argument_type<parameter>, ttcore.local_shape = #ttcore<local_shape local_shape = tensor<128xbf16>>, ttcore.shard_status = #ttcore.shard_status<unsharded>, ttir.name = "stages.0.blocks.0.conv_reduction.bn.weight"} loc("p120.447"), %arg121: tensor<128x64x1x1xbf16> {ttcore.argument_type = #ttcore.argument_type<parameter>, ttcore.local_shape = #ttcore<local_shape local_shape = tensor<128x64x1x1xbf16>>, ttcore.shard_status = #ttcore.shard_status<unsharded>, ttir.name = "stages.0.blocks.0.conv_reduction.conv.weight"} loc("p121.451"), %arg122: tensor<64xbf16> {ttcore.argument_type = #ttcore.argument_type<constant>, ttcore.local_shape = #ttcore<local_shape local_shape = tensor<64xbf16>>, ttcore.shard_status = #ttcore.shard_status<unsharded>, ttir.name = "stem.2.bn.running_var"} loc("p122.453"), %arg123: tensor<64xbf16> {ttcore.argument_type = #ttcore.argument_type<constant>, ttcore.local_shape = #ttcore<local_shape local_shape = tensor<64xbf16>>, ttcore.shard_status = #ttcore.shard_status<unsharded>, ttir.name = "stem.2.bn.running_mean"} loc("p123.457"), %arg124: tensor<64xbf16> {ttcore.argument_type = #ttcore.argument_type<parameter>, ttcore.local_shape = #ttcore<local_shape local_shape = tensor<64xbf16>>, ttcore.shard_status = #ttcore.shard_status<unsharded>, ttir.name = "stem.2.bn.bias"} loc("p124.461"), %arg125: tensor<64xbf16> {ttcore.argument_type = #ttcore.argument_type<parameter>, ttcore.local_shape = #ttcore<local_shape local_shape = tensor<64xbf16>>, ttcore.shard_status = #ttcore.shard_status<unsharded>, ttir.name = "stem.2.bn.weight"} loc("p125.465"), %arg126: tensor<64x64x1x1xbf16> {ttcore.argument_type = #ttcore.argument_type<parameter>, ttcore.local_shape = #ttcore<local_shape local_shape = tensor<64x64x1x1xbf16>>, ttcore.shard_status = #ttcore.shard_status<unsharded>, ttir.name = "stem.2.conv_pw.weight"} loc("p126.469"), %arg127: tensor<64x1x3x3xbf16> {ttcore.argument_type = #ttcore.argument_type<parameter>, ttcore.local_shape = #ttcore<local_shape local_shape = tensor<64x1x3x3xbf16>>, ttcore.shard_status = #ttcore.shard_status<unsharded>, ttir.name = "stem.2.conv_dw.weight"} loc("p127.471"), %arg128: tensor<64xbf16> {ttcore.argument_type = #ttcore.argument_type<constant>, ttcore.local_shape = #ttcore<local_shape local_shape = tensor<64xbf16>>, ttcore.shard_status = #ttcore.shard_status<unsharded>, ttir.name = "stem.1.bn.running_var"} loc("p128.473"), %arg129: tensor<64xbf16> {ttcore.argument_type = #ttcore.argument_type<constant>, ttcore.local_shape = #ttcore<local_shape local_shape = tensor<64xbf16>>, ttcore.shard_status = #ttcore.shard_status<unsharded>, ttir.name = "stem.1.bn.running_mean"} loc("p129.477"), %arg130: tensor<64xbf16> {ttcore.argument_type = #ttcore.argument_type<parameter>, ttcore.local_shape = #ttcore<local_shape local_shape = tensor<64xbf16>>, ttcore.shard_status = #ttcore.shard_status<unsharded>, ttir.name = "stem.1.bn.bias"} loc("p130.481"), %arg131: tensor<64xbf16> {ttcore.argument_type = #ttcore.argument_type<parameter>, ttcore.local_shape = #ttcore<local_shape local_shape = tensor<64xbf16>>, ttcore.shard_status = #ttcore.shard_status<unsharded>, ttir.name = "stem.1.bn.weight"} loc("p131.485"), %arg132: tensor<64x64x1x1xbf16> {ttcore.argument_type = #ttcore.argument_type<parameter>, ttcore.local_shape = #ttcore<local_shape local_shape = tensor<64x64x1x1xbf16>>, ttcore.shard_status = #ttcore.shard_status<unsharded>, ttir.name = "stem.1.conv_pw.weight"} loc("p132.489"), %arg133: tensor<64x1x3x3xbf16> {ttcore.argument_type = #ttcore.argument_type<parameter>, ttcore.local_shape = #ttcore<local_shape local_shape = tensor<64x1x3x3xbf16>>, ttcore.shard_status = #ttcore.shard_status<unsharded>, ttir.name = "stem.1.conv_dw.weight"} loc("p133.491"), %arg134: tensor<64xbf16> {ttcore.argument_type = #ttcore.argument_type<constant>, ttcore.local_shape = #ttcore<local_shape local_shape = tensor<64xbf16>>, ttcore.shard_status = #ttcore.shard_status<unsharded>, ttir.name = "stem.0.bn.running_var"} loc("p134.493"), %arg135: tensor<64xbf16> {ttcore.argument_type = #ttcore.argument_type<constant>, ttcore.local_shape = #ttcore<local_shape local_shape = tensor<64xbf16>>, ttcore.shard_status = #ttcore.shard_status<unsharded>, ttir.name = "stem.0.bn.running_mean"} loc("p135.497"), %arg136: tensor<64xbf16> {ttcore.argument_type = #ttcore.argument_type<parameter>, ttcore.local_shape = #ttcore<local_shape local_shape = tensor<64xbf16>>, ttcore.shard_status = #ttcore.shard_status<unsharded>, ttir.name = "stem.0.bn.bias"} loc("p136.501"), %arg137: tensor<64xbf16> {ttcore.argument_type = #ttcore.argument_type<parameter>, ttcore.local_shape = #ttcore<local_shape local_shape = tensor<64xbf16>>, ttcore.shard_status = #ttcore.shard_status<unsharded>, ttir.name = "stem.0.bn.weight"} loc("p137.505"), %arg138: tensor<64x3x3x3xbf16> {ttcore.argument_type = #ttcore.argument_type<parameter>, ttcore.local_shape = #ttcore<local_shape local_shape = tensor<64x3x3x3xbf16>>, ttcore.shard_status = #ttcore.shard_status<unsharded>, ttir.name = "stem.0.conv.weight"} loc("p138.509"), %arg139: tensor<1x3x224x224xbf16> {ttcore.argument_type = #ttcore.argument_type<input>, ttcore.local_shape = #ttcore<local_shape local_shape = tensor<1x3x224x224xbf16>>, ttcore.shard_status = #ttcore.shard_status<unsharded>, ttir.name = "args_0"} loc("p139.511")) -> (tensor<1x1000xbf16> {ttcore.local_shape = #ttcore<local_shape local_shape = tensor<1x1000xbf16>>, ttcore.shard_status = #ttcore.shard_status<presharded>}) {
        %0 = "ttir.constant"() <{value = dense<0.0204081628> : tensor<1x1024xf32>}> : () -> tensor<1x1024xf32> loc(#loc)
        %1 = "ttir.constant"() <{value = dense<6.000000e+00> : tensor<1x1024x1x1xf32>}> : () -> tensor<1x1024x1x1xf32> loc(#loc)
        %2 = "ttir.constant"() <{value = dense<3.40282347E+38> : tensor<1x1024x1x1xf32>}> : () -> tensor<1x1024x1x1xf32> loc(#loc)
        %3 = "ttir.constant"() <{value = dense<3.000000e+00> : tensor<1x1024x1x1xf32>}> : () -> tensor<1x1024x1x1xf32> loc(#loc)
        %4 = "ttir.constant"() <{value = dense<2.038570e-02> : tensor<1x1024xbf16>}> : () -> tensor<1x1024xbf16> loc(#loc)
        %5 = "ttir.constant"() <{value = dense<0.000000e+00> : tensor<1x1024x1x1xf32>}> : () -> tensor<1x1024x1x1xf32> loc(#loc)
        %6 = "ttir.constant"() <{value = dense<-3.40282347E+38> : tensor<1x1024x1x1xf32>}> : () -> tensor<1x1024x1x1xf32> loc(#loc)
        %7 = "ttir.constant"() <{value = dense<0.000000e+00> : tensor<1x1024x7x7xbf16>}> : () -> tensor<1x1024x7x7xbf16> loc(#loc)
        %8 = "ttir.constant"() <{value = dense<0.000000e+00> : tensor<1x224x7x7xbf16>}> : () -> tensor<1x224x7x7xbf16> loc(#loc)
        %9 = "ttir.constant"() <{value = dense<6.000000e+00> : tensor<1x768x1x1xf32>}> : () -> tensor<1x768x1x1xf32> loc(#loc)
        %10 = "ttir.constant"() <{value = dense<3.40282347E+38> : tensor<1x768x1x1xf32>}> : () -> tensor<1x768x1x1xf32> loc(#loc)
        %11 = "ttir.constant"() <{value = dense<3.000000e+00> : tensor<1x768x1x1xf32>}> : () -> tensor<1x768x1x1xf32> loc(#loc)
        %12 = "ttir.constant"() <{value = dense<5.096440e-03> : tensor<1x768xbf16>}> : () -> tensor<1x768xbf16> loc(#loc)
        %13 = "ttir.constant"() <{value = dense<0.000000e+00> : tensor<1x768x1x1xf32>}> : () -> tensor<1x768x1x1xf32> loc(#loc)
        %14 = "ttir.constant"() <{value = dense<-3.40282347E+38> : tensor<1x768x1x1xf32>}> : () -> tensor<1x768x1x1xf32> loc(#loc)
        %15 = "ttir.constant"() <{value = dense<0.000000e+00> : tensor<1x768x14x14xbf16>}> : () -> tensor<1x768x14x14xbf16> loc(#loc)
        %16 = "ttir.constant"() <{value = dense<0.000000e+00> : tensor<1x192x14x14xbf16>}> : () -> tensor<1x192x14x14xbf16> loc(#loc)
        %17 = "ttir.constant"() <{value = dense<6.000000e+00> : tensor<1x512x1x1xf32>}> : () -> tensor<1x512x1x1xf32> loc(#loc)
        %18 = "ttir.constant"() <{value = dense<3.40282347E+38> : tensor<1x512x1x1xf32>}> : () -> tensor<1x512x1x1xf32> loc(#loc)
        %19 = "ttir.constant"() <{value = dense<3.000000e+00> : tensor<1x512x1x1xf32>}> : () -> tensor<1x512x1x1xf32> loc(#loc)
        %20 = "ttir.constant"() <{value = dense<1.274110e-03> : tensor<1x512xbf16>}> : () -> tensor<1x512xbf16> loc(#loc)
        %21 = "ttir.constant"() <{value = dense<0.000000e+00> : tensor<1x512x1x1xf32>}> : () -> tensor<1x512x1x1xf32> loc(#loc)
        %22 = "ttir.constant"() <{value = dense<-3.40282347E+38> : tensor<1x512x1x1xf32>}> : () -> tensor<1x512x1x1xf32> loc(#loc)
        %23 = "ttir.constant"() <{value = dense<0.000000e+00> : tensor<1x512x28x28xbf16>}> : () -> tensor<1x512x28x28xbf16> loc(#loc)
        %24 = "ttir.constant"() <{value = dense<0.000000e+00> : tensor<1x160x28x28xbf16>}> : () -> tensor<1x160x28x28xbf16> loc(#loc)
        %25 = "ttir.constant"() <{value = dense<6.000000e+00> : tensor<1x256x1x1xf32>}> : () -> tensor<1x256x1x1xf32> loc(#loc)
        %26 = "ttir.constant"() <{value = dense<3.40282347E+38> : tensor<1x256x1x1xf32>}> : () -> tensor<1x256x1x1xf32> loc(#loc)
        %27 = "ttir.constant"() <{value = dense<3.000000e+00> : tensor<1x256x1x1xf32>}> : () -> tensor<1x256x1x1xf32> loc(#loc)
        %28 = "ttir.constant"() <{value = dense<3.185270e-04> : tensor<1x256xbf16>}> : () -> tensor<1x256xbf16> loc(#loc)
        %29 = "ttir.constant"() <{value = dense<0.000000e+00> : tensor<1x256x1x1xf32>}> : () -> tensor<1x256x1x1xf32> loc(#loc)
        %30 = "ttir.constant"() <{value = dense<-3.40282347E+38> : tensor<1x256x1x1xf32>}> : () -> tensor<1x256x1x1xf32> loc(#loc)
        %31 = "ttir.constant"() <{value = dense<0.000000e+00> : tensor<1x256x56x56xbf16>}> : () -> tensor<1x256x56x56xbf16> loc(#loc)
        %32 = "ttir.constant"() <{value = dense<0.000000e+00> : tensor<1x128x56x56xbf16>}> : () -> tensor<1x128x56x56xbf16> loc(#loc)
        %33 = "ttir.constant"() <{value = dense<0.000000e+00> : tensor<1x64x56x56xbf16>}> : () -> tensor<1x64x56x56xbf16> loc(#loc)
        %34 = "ttir.constant"() <{value = dense<0.000000e+00> : tensor<1x64x112x112xbf16>}> : () -> tensor<1x64x112x112xbf16> loc(#loc)
        %35 = "ttir.permute"(%arg138) <{permutation = array<i64: 0, 1, 2, 3>}> : (tensor<64x3x3x3xbf16>) -> tensor<64x3x3x3xbf16> loc(#loc309)
        %36 = "ttir.conv2d"(%arg139, %35) <{batch_dim = 0 : i64, channel_dim = 1 : i64, dilation = array<i32: 1, 1>, groups = 1 : i32, height_dim = 2 : i64, padding = array<i32: 1, 1, 1, 1>, stride = array<i32: 2, 2>, width_dim = 3 : i64}> : (tensor<1x3x224x224xbf16>, tensor<64x3x3x3xbf16>) -> tensor<1x64x112x112xbf16> loc(#loc141)
        %37 = "ttir.batch_norm_inference"(%36, %arg137, %arg136, %arg135, %arg134) <{dimension = 1 : i32, epsilon = 9.99999974E-6 : f32}> : (tensor<1x64x112x112xbf16>, tensor<64xbf16>, tensor<64xbf16>, tensor<64xbf16>, tensor<64xbf16>) -> tensor<1x64x112x112xbf16> loc(#loc142)
        %38 = "ttir.maximum"(%37, %34) : (tensor<1x64x112x112xbf16>, tensor<1x64x112x112xbf16>) -> tensor<1x64x112x112xbf16> loc(#loc143)
        %39 = "ttir.permute"(%arg133) <{permutation = array<i64: 0, 1, 2, 3>}> : (tensor<64x1x3x3xbf16>) -> tensor<64x1x3x3xbf16> loc(#loc310)
        %40 = "ttir.conv2d"(%38, %39) <{batch_dim = 0 : i64, channel_dim = 1 : i64, dilation = array<i32: 1, 1>, groups = 64 : i32, height_dim = 2 : i64, padding = array<i32: 1, 1, 1, 1>, stride = array<i32: 1, 1>, width_dim = 3 : i64}> : (tensor<1x64x112x112xbf16>, tensor<64x1x3x3xbf16>) -> tensor<1x64x112x112xbf16> loc(#loc144)
        %41 = "ttir.permute"(%arg132) <{permutation = array<i64: 0, 1, 2, 3>}> : (tensor<64x64x1x1xbf16>) -> tensor<64x64x1x1xbf16> loc(#loc311)
        %42 = "ttir.conv2d"(%40, %41) <{batch_dim = 0 : i64, channel_dim = 1 : i64, dilation = array<i32: 1, 1>, groups = 1 : i32, height_dim = 2 : i64, padding = array<i32: 0, 0, 0, 0>, stride = array<i32: 1, 1>, width_dim = 3 : i64}> : (tensor<1x64x112x112xbf16>, tensor<64x64x1x1xbf16>) -> tensor<1x64x112x112xbf16> loc(#loc145)
        %43 = "ttir.batch_norm_inference"(%42, %arg131, %arg130, %arg129, %arg128) <{dimension = 1 : i32, epsilon = 9.99999974E-6 : f32}> : (tensor<1x64x112x112xbf16>, tensor<64xbf16>, tensor<64xbf16>, tensor<64xbf16>, tensor<64xbf16>) -> tensor<1x64x112x112xbf16> loc(#loc146)
        %44 = "ttir.maximum"(%43, %34) : (tensor<1x64x112x112xbf16>, tensor<1x64x112x112xbf16>) -> tensor<1x64x112x112xbf16> loc(#loc147)
        %45 = "ttir.permute"(%arg127) <{permutation = array<i64: 0, 1, 2, 3>}> : (tensor<64x1x3x3xbf16>) -> tensor<64x1x3x3xbf16> loc(#loc312)
        %46 = "ttir.conv2d"(%44, %45) <{batch_dim = 0 : i64, channel_dim = 1 : i64, dilation = array<i32: 1, 1>, groups = 64 : i32, height_dim = 2 : i64, padding = array<i32: 1, 1, 1, 1>, stride = array<i32: 2, 2>, width_dim = 3 : i64}> : (tensor<1x64x112x112xbf16>, tensor<64x1x3x3xbf16>) -> tensor<1x64x56x56xbf16> loc(#loc148)
        %47 = "ttir.permute"(%arg126) <{permutation = array<i64: 0, 1, 2, 3>}> : (tensor<64x64x1x1xbf16>) -> tensor<64x64x1x1xbf16> loc(#loc313)
        %48 = "ttir.conv2d"(%46, %47) <{batch_dim = 0 : i64, channel_dim = 1 : i64, dilation = array<i32: 1, 1>, groups = 1 : i32, height_dim = 2 : i64, padding = array<i32: 0, 0, 0, 0>, stride = array<i32: 1, 1>, width_dim = 3 : i64}> : (tensor<1x64x56x56xbf16>, tensor<64x64x1x1xbf16>) -> tensor<1x64x56x56xbf16> loc(#loc149)
        %49 = "ttir.batch_norm_inference"(%48, %arg125, %arg124, %arg123, %arg122) <{dimension = 1 : i32, epsilon = 9.99999974E-6 : f32}> : (tensor<1x64x56x56xbf16>, tensor<64xbf16>, tensor<64xbf16>, tensor<64xbf16>, tensor<64xbf16>) -> tensor<1x64x56x56xbf16> loc(#loc150)
        %50 = "ttir.maximum"(%49, %33) : (tensor<1x64x56x56xbf16>, tensor<1x64x56x56xbf16>) -> tensor<1x64x56x56xbf16> loc(#loc151)
        %51 = "ttir.permute"(%arg121) <{permutation = array<i64: 0, 1, 2, 3>}> : (tensor<128x64x1x1xbf16>) -> tensor<128x64x1x1xbf16> loc(#loc314)
        %52 = "ttir.conv2d"(%50, %51) <{batch_dim = 0 : i64, channel_dim = 1 : i64, dilation = array<i32: 1, 1>, groups = 1 : i32, height_dim = 2 : i64, padding = array<i32: 0, 0, 0, 0>, stride = array<i32: 1, 1>, width_dim = 3 : i64}> : (tensor<1x64x56x56xbf16>, tensor<128x64x1x1xbf16>) -> tensor<1x128x56x56xbf16> loc(#loc152)
        %53 = "ttir.batch_norm_inference"(%52, %arg120, %arg119, %arg118, %arg117) <{dimension = 1 : i32, epsilon = 9.99999974E-6 : f32}> : (tensor<1x128x56x56xbf16>, tensor<128xbf16>, tensor<128xbf16>, tensor<128xbf16>, tensor<128xbf16>) -> tensor<1x128x56x56xbf16> loc(#loc153)
        %54 = "ttir.maximum"(%53, %32) : (tensor<1x128x56x56xbf16>, tensor<1x128x56x56xbf16>) -> tensor<1x128x56x56xbf16> loc(#loc154)
        %55 = "ttir.permute"(%arg116) <{permutation = array<i64: 0, 1, 2, 3>}> : (tensor<128x1x3x3xbf16>) -> tensor<128x1x3x3xbf16> loc(#loc315)
        %56 = "ttir.conv2d"(%54, %55) <{batch_dim = 0 : i64, channel_dim = 1 : i64, dilation = array<i32: 1, 1>, groups = 128 : i32, height_dim = 2 : i64, padding = array<i32: 1, 1, 1, 1>, stride = array<i32: 1, 1>, width_dim = 3 : i64}> : (tensor<1x128x56x56xbf16>, tensor<128x1x3x3xbf16>) -> tensor<1x128x56x56xbf16> loc(#loc155)
        %57 = "ttir.permute"(%arg115) <{permutation = array<i64: 0, 1, 2, 3>}> : (tensor<128x128x1x1xbf16>) -> tensor<128x128x1x1xbf16> loc(#loc316)
        %58 = "ttir.conv2d"(%56, %57) <{batch_dim = 0 : i64, channel_dim = 1 : i64, dilation = array<i32: 1, 1>, groups = 1 : i32, height_dim = 2 : i64, padding = array<i32: 0, 0, 0, 0>, stride = array<i32: 1, 1>, width_dim = 3 : i64}> : (tensor<1x128x56x56xbf16>, tensor<128x128x1x1xbf16>) -> tensor<1x128x56x56xbf16> loc(#loc156)
        %59 = "ttir.batch_norm_inference"(%58, %arg114, %arg113, %arg112, %arg111) <{dimension = 1 : i32, epsilon = 9.99999974E-6 : f32}> : (tensor<1x128x56x56xbf16>, tensor<128xbf16>, tensor<128xbf16>, tensor<128xbf16>, tensor<128xbf16>) -> tensor<1x128x56x56xbf16> loc(#loc157)
        %60 = "ttir.maximum"(%59, %32) : (tensor<1x128x56x56xbf16>, tensor<1x128x56x56xbf16>) -> tensor<1x128x56x56xbf16> loc(#loc158)
        %61 = "ttir.permute"(%arg110) <{permutation = array<i64: 0, 1, 2, 3>}> : (tensor<128x1x3x3xbf16>) -> tensor<128x1x3x3xbf16> loc(#loc317)
        %62 = "ttir.conv2d"(%60, %61) <{batch_dim = 0 : i64, channel_dim = 1 : i64, dilation = array<i32: 1, 1>, groups = 128 : i32, height_dim = 2 : i64, padding = array<i32: 1, 1, 1, 1>, stride = array<i32: 1, 1>, width_dim = 3 : i64}> : (tensor<1x128x56x56xbf16>, tensor<128x1x3x3xbf16>) -> tensor<1x128x56x56xbf16> loc(#loc159)
        %63 = "ttir.permute"(%arg109) <{permutation = array<i64: 0, 1, 2, 3>}> : (tensor<128x128x1x1xbf16>) -> tensor<128x128x1x1xbf16> loc(#loc318)
        %64 = "ttir.conv2d"(%62, %63) <{batch_dim = 0 : i64, channel_dim = 1 : i64, dilation = array<i32: 1, 1>, groups = 1 : i32, height_dim = 2 : i64, padding = array<i32: 0, 0, 0, 0>, stride = array<i32: 1, 1>, width_dim = 3 : i64}> : (tensor<1x128x56x56xbf16>, tensor<128x128x1x1xbf16>) -> tensor<1x128x56x56xbf16> loc(#loc160)
        %65 = "ttir.batch_norm_inference"(%64, %arg108, %arg107, %arg106, %arg105) <{dimension = 1 : i32, epsilon = 9.99999974E-6 : f32}> : (tensor<1x128x56x56xbf16>, tensor<128xbf16>, tensor<128xbf16>, tensor<128xbf16>, tensor<128xbf16>) -> tensor<1x128x56x56xbf16> loc(#loc161)
        %66 = "ttir.maximum"(%65, %32) : (tensor<1x128x56x56xbf16>, tensor<1x128x56x56xbf16>) -> tensor<1x128x56x56xbf16> loc(#loc162)
        %67 = "ttir.permute"(%arg104) <{permutation = array<i64: 0, 1, 2, 3>}> : (tensor<128x1x3x3xbf16>) -> tensor<128x1x3x3xbf16> loc(#loc319)
        %68 = "ttir.conv2d"(%66, %67) <{batch_dim = 0 : i64, channel_dim = 1 : i64, dilation = array<i32: 1, 1>, groups = 128 : i32, height_dim = 2 : i64, padding = array<i32: 1, 1, 1, 1>, stride = array<i32: 1, 1>, width_dim = 3 : i64}> : (tensor<1x128x56x56xbf16>, tensor<128x1x3x3xbf16>) -> tensor<1x128x56x56xbf16> loc(#loc163)
        %69 = "ttir.permute"(%arg103) <{permutation = array<i64: 0, 1, 2, 3>}> : (tensor<128x128x1x1xbf16>) -> tensor<128x128x1x1xbf16> loc(#loc320)
        %70 = "ttir.conv2d"(%68, %69) <{batch_dim = 0 : i64, channel_dim = 1 : i64, dilation = array<i32: 1, 1>, groups = 1 : i32, height_dim = 2 : i64, padding = array<i32: 0, 0, 0, 0>, stride = array<i32: 1, 1>, width_dim = 3 : i64}> : (tensor<1x128x56x56xbf16>, tensor<128x128x1x1xbf16>) -> tensor<1x128x56x56xbf16> loc(#loc164)
        %71 = "ttir.batch_norm_inference"(%70, %arg102, %arg101, %arg100, %arg99) <{dimension = 1 : i32, epsilon = 9.99999974E-6 : f32}> : (tensor<1x128x56x56xbf16>, tensor<128xbf16>, tensor<128xbf16>, tensor<128xbf16>, tensor<128xbf16>) -> tensor<1x128x56x56xbf16> loc(#loc165)
        %72 = "ttir.maximum"(%71, %32) : (tensor<1x128x56x56xbf16>, tensor<1x128x56x56xbf16>) -> tensor<1x128x56x56xbf16> loc(#loc166)
        %73 = "ttir.concat"(%50, %60, %66, %72) <{dim = 1 : si32}> : (tensor<1x64x56x56xbf16>, tensor<1x128x56x56xbf16>, tensor<1x128x56x56xbf16>, tensor<1x128x56x56xbf16>) -> tensor<1x448x56x56xbf16> loc(#loc167)
        %74 = "ttir.permute"(%arg98) <{permutation = array<i64: 0, 1, 2, 3>}> : (tensor<256x448x1x1xbf16>) -> tensor<256x448x1x1xbf16> loc(#loc321)
        %75 = "ttir.conv2d"(%73, %74) <{batch_dim = 0 : i64, channel_dim = 1 : i64, dilation = array<i32: 1, 1>, groups = 1 : i32, height_dim = 2 : i64, padding = array<i32: 0, 0, 0, 0>, stride = array<i32: 1, 1>, width_dim = 3 : i64}> : (tensor<1x448x56x56xbf16>, tensor<256x448x1x1xbf16>) -> tensor<1x256x56x56xbf16> loc(#loc168)
        %76 = "ttir.batch_norm_inference"(%75, %arg97, %arg96, %arg95, %arg94) <{dimension = 1 : i32, epsilon = 9.99999974E-6 : f32}> : (tensor<1x256x56x56xbf16>, tensor<256xbf16>, tensor<256xbf16>, tensor<256xbf16>, tensor<256xbf16>) -> tensor<1x256x56x56xbf16> loc(#loc169)
        %77 = "ttir.maximum"(%76, %31) : (tensor<1x256x56x56xbf16>, tensor<1x256x56x56xbf16>) -> tensor<1x256x56x56xbf16> loc(#loc170)
        %78 = "ttir.sum"(%77) <{dim_arg = [2 : i32, 3 : i32], keep_dim = false}> : (tensor<1x256x56x56xbf16>) -> tensor<1x256xbf16> loc(#loc171)
        %79 = "ttir.multiply"(%78, %28) : (tensor<1x256xbf16>, tensor<1x256xbf16>) -> tensor<1x256xbf16> loc(#loc172)
        %80 = "ttir.reshape"(%79) <{shape = [1 : i32, 256 : i32, 1 : i32, 1 : i32]}> : (tensor<1x256xbf16>) -> tensor<1x256x1x1xbf16> loc(#loc173)
        %81 = "ttir.permute"(%arg93) <{permutation = array<i64: 0, 1, 2, 3>}> : (tensor<256x256x1x1xbf16>) -> tensor<256x256x1x1xbf16> loc(#loc322)
        %82 = "ttir.conv2d"(%80, %81) <{batch_dim = 0 : i64, channel_dim = 1 : i64, dilation = array<i32: 1, 1>, groups = 1 : i32, height_dim = 2 : i64, padding = array<i32: 0, 0, 0, 0>, stride = array<i32: 1, 1>, width_dim = 3 : i64}> : (tensor<1x256x1x1xbf16>, tensor<256x256x1x1xbf16>) -> tensor<1x256x1x1xbf16> loc(#loc174)
        %83 = "ttir.reshape"(%arg92) <{shape = [1 : i32, 256 : i32, 1 : i32, 1 : i32]}> : (tensor<256xbf16>) -> tensor<1x256x1x1xbf16> loc(#loc323)
        %84 = "ttir.add"(%82, %83) : (tensor<1x256x1x1xbf16>, tensor<1x256x1x1xbf16>) -> tensor<1x256x1x1xbf16> loc(#loc177)
        %85 = "ttir.typecast"(%84) <{conservative_folding = false}> : (tensor<1x256x1x1xbf16>) -> tensor<1x256x1x1xf32> loc(#loc178)
        %86 = "ttir.add"(%85, %27) : (tensor<1x256x1x1xf32>, tensor<1x256x1x1xf32>) -> tensor<1x256x1x1xf32> loc(#loc179)
        %87 = "ttir.clamp_tensor"(%86, %29, %26) : (tensor<1x256x1x1xf32>, tensor<1x256x1x1xf32>, tensor<1x256x1x1xf32>) -> tensor<1x256x1x1xf32> loc(#loc180)
        %88 = "ttir.clamp_tensor"(%87, %30, %25) : (tensor<1x256x1x1xf32>, tensor<1x256x1x1xf32>, tensor<1x256x1x1xf32>) -> tensor<1x256x1x1xf32> loc(#loc181)
        %89 = "ttir.div"(%88, %25) : (tensor<1x256x1x1xf32>, tensor<1x256x1x1xf32>) -> tensor<1x256x1x1xf32> loc(#loc182)
        %90 = "ttir.typecast"(%89) <{conservative_folding = false}> : (tensor<1x256x1x1xf32>) -> tensor<1x256x1x1xbf16> loc(#loc183)
        %91 = "ttir.reshape"(%90) <{shape = [1 : i32, 256 : i32]}> : (tensor<1x256x1x1xbf16>) -> tensor<1x256xbf16> loc(#loc184)
        %92 = "ttir.reshape"(%91) <{shape = [1 : i32, 256 : i32, 1 : i32, 1 : i32]}> : (tensor<1x256xbf16>) -> tensor<1x256x1x1xbf16> loc(#loc185)
        %93 = "ttir.broadcast"(%92) <{broadcast_dimensions = array<i64: 1, 1, 56, 56>}> : (tensor<1x256x1x1xbf16>) -> tensor<1x256x56x56xbf16> loc(#loc185)
        %94 = "ttir.multiply"(%77, %93) : (tensor<1x256x56x56xbf16>, tensor<1x256x56x56xbf16>) -> tensor<1x256x56x56xbf16> loc(#loc186)
        %95 = "ttir.permute"(%94) <{permutation = array<i64: 0, 2, 3, 1>}> : (tensor<1x256x56x56xbf16>) -> tensor<1x56x56x256xbf16> loc(#loc187)
        %96 = "ttir.max_pool2d"(%95) <{ceil_mode = false, dilation = array<i32: 1, 1>, kernel = array<i32: 3, 3>, padding = array<i32: 0, 0, 1, 1>, stride = array<i32: 2, 2>}> : (tensor<1x56x56x256xbf16>) -> tensor<1x28x28x256xbf16> loc(#loc187)
        %97 = "ttir.permute"(%96) <{permutation = array<i64: 0, 3, 1, 2>}> : (tensor<1x28x28x256xbf16>) -> tensor<1x256x28x28xbf16> loc(#loc187)
        %98 = "ttir.permute"(%arg91) <{permutation = array<i64: 0, 1, 2, 3>}> : (tensor<160x256x1x1xbf16>) -> tensor<160x256x1x1xbf16> loc(#loc324)
        %99 = "ttir.conv2d"(%97, %98) <{batch_dim = 0 : i64, channel_dim = 1 : i64, dilation = array<i32: 1, 1>, groups = 1 : i32, height_dim = 2 : i64, padding = array<i32: 0, 0, 0, 0>, stride = array<i32: 1, 1>, width_dim = 3 : i64}> : (tensor<1x256x28x28xbf16>, tensor<160x256x1x1xbf16>) -> tensor<1x160x28x28xbf16> loc(#loc188)
        %100 = "ttir.batch_norm_inference"(%99, %arg90, %arg89, %arg88, %arg87) <{dimension = 1 : i32, epsilon = 9.99999974E-6 : f32}> : (tensor<1x160x28x28xbf16>, tensor<160xbf16>, tensor<160xbf16>, tensor<160xbf16>, tensor<160xbf16>) -> tensor<1x160x28x28xbf16> loc(#loc189)
        %101 = "ttir.maximum"(%100, %24) : (tensor<1x160x28x28xbf16>, tensor<1x160x28x28xbf16>) -> tensor<1x160x28x28xbf16> loc(#loc190)
        %102 = "ttir.permute"(%arg86) <{permutation = array<i64: 0, 1, 2, 3>}> : (tensor<160x1x3x3xbf16>) -> tensor<160x1x3x3xbf16> loc(#loc325)
        %103 = "ttir.conv2d"(%101, %102) <{batch_dim = 0 : i64, channel_dim = 1 : i64, dilation = array<i32: 1, 1>, groups = 160 : i32, height_dim = 2 : i64, padding = array<i32: 1, 1, 1, 1>, stride = array<i32: 1, 1>, width_dim = 3 : i64}> : (tensor<1x160x28x28xbf16>, tensor<160x1x3x3xbf16>) -> tensor<1x160x28x28xbf16> loc(#loc191)
        %104 = "ttir.permute"(%arg85) <{permutation = array<i64: 0, 1, 2, 3>}> : (tensor<160x160x1x1xbf16>) -> tensor<160x160x1x1xbf16> loc(#loc326)
        %105 = "ttir.conv2d"(%103, %104) <{batch_dim = 0 : i64, channel_dim = 1 : i64, dilation = array<i32: 1, 1>, groups = 1 : i32, height_dim = 2 : i64, padding = array<i32: 0, 0, 0, 0>, stride = array<i32: 1, 1>, width_dim = 3 : i64}> : (tensor<1x160x28x28xbf16>, tensor<160x160x1x1xbf16>) -> tensor<1x160x28x28xbf16> loc(#loc192)
        %106 = "ttir.batch_norm_inference"(%105, %arg84, %arg83, %arg82, %arg81) <{dimension = 1 : i32, epsilon = 9.99999974E-6 : f32}> : (tensor<1x160x28x28xbf16>, tensor<160xbf16>, tensor<160xbf16>, tensor<160xbf16>, tensor<160xbf16>) -> tensor<1x160x28x28xbf16> loc(#loc193)
        %107 = "ttir.maximum"(%106, %24) : (tensor<1x160x28x28xbf16>, tensor<1x160x28x28xbf16>) -> tensor<1x160x28x28xbf16> loc(#loc194)
        %108 = "ttir.permute"(%arg80) <{permutation = array<i64: 0, 1, 2, 3>}> : (tensor<160x1x3x3xbf16>) -> tensor<160x1x3x3xbf16> loc(#loc327)
        %109 = "ttir.conv2d"(%107, %108) <{batch_dim = 0 : i64, channel_dim = 1 : i64, dilation = array<i32: 1, 1>, groups = 160 : i32, height_dim = 2 : i64, padding = array<i32: 1, 1, 1, 1>, stride = array<i32: 1, 1>, width_dim = 3 : i64}> : (tensor<1x160x28x28xbf16>, tensor<160x1x3x3xbf16>) -> tensor<1x160x28x28xbf16> loc(#loc195)
        %110 = "ttir.permute"(%arg79) <{permutation = array<i64: 0, 1, 2, 3>}> : (tensor<160x160x1x1xbf16>) -> tensor<160x160x1x1xbf16> loc(#loc328)
        %111 = "ttir.conv2d"(%109, %110) <{batch_dim = 0 : i64, channel_dim = 1 : i64, dilation = array<i32: 1, 1>, groups = 1 : i32, height_dim = 2 : i64, padding = array<i32: 0, 0, 0, 0>, stride = array<i32: 1, 1>, width_dim = 3 : i64}> : (tensor<1x160x28x28xbf16>, tensor<160x160x1x1xbf16>) -> tensor<1x160x28x28xbf16> loc(#loc196)
        %112 = "ttir.batch_norm_inference"(%111, %arg78, %arg77, %arg76, %arg75) <{dimension = 1 : i32, epsilon = 9.99999974E-6 : f32}> : (tensor<1x160x28x28xbf16>, tensor<160xbf16>, tensor<160xbf16>, tensor<160xbf16>, tensor<160xbf16>) -> tensor<1x160x28x28xbf16> loc(#loc197)
        %113 = "ttir.maximum"(%112, %24) : (tensor<1x160x28x28xbf16>, tensor<1x160x28x28xbf16>) -> tensor<1x160x28x28xbf16> loc(#loc198)
        %114 = "ttir.permute"(%arg74) <{permutation = array<i64: 0, 1, 2, 3>}> : (tensor<160x1x3x3xbf16>) -> tensor<160x1x3x3xbf16> loc(#loc329)
        %115 = "ttir.conv2d"(%113, %114) <{batch_dim = 0 : i64, channel_dim = 1 : i64, dilation = array<i32: 1, 1>, groups = 160 : i32, height_dim = 2 : i64, padding = array<i32: 1, 1, 1, 1>, stride = array<i32: 1, 1>, width_dim = 3 : i64}> : (tensor<1x160x28x28xbf16>, tensor<160x1x3x3xbf16>) -> tensor<1x160x28x28xbf16> loc(#loc199)
        %116 = "ttir.permute"(%arg73) <{permutation = array<i64: 0, 1, 2, 3>}> : (tensor<160x160x1x1xbf16>) -> tensor<160x160x1x1xbf16> loc(#loc330)
        %117 = "ttir.conv2d"(%115, %116) <{batch_dim = 0 : i64, channel_dim = 1 : i64, dilation = array<i32: 1, 1>, groups = 1 : i32, height_dim = 2 : i64, padding = array<i32: 0, 0, 0, 0>, stride = array<i32: 1, 1>, width_dim = 3 : i64}> : (tensor<1x160x28x28xbf16>, tensor<160x160x1x1xbf16>) -> tensor<1x160x28x28xbf16> loc(#loc200)
        %118 = "ttir.batch_norm_inference"(%117, %arg72, %arg71, %arg70, %arg69) <{dimension = 1 : i32, epsilon = 9.99999974E-6 : f32}> : (tensor<1x160x28x28xbf16>, tensor<160xbf16>, tensor<160xbf16>, tensor<160xbf16>, tensor<160xbf16>) -> tensor<1x160x28x28xbf16> loc(#loc201)
        %119 = "ttir.maximum"(%118, %24) : (tensor<1x160x28x28xbf16>, tensor<1x160x28x28xbf16>) -> tensor<1x160x28x28xbf16> loc(#loc202)
        %120 = "ttir.concat"(%97, %107, %113, %119) <{dim = 1 : si32}> : (tensor<1x256x28x28xbf16>, tensor<1x160x28x28xbf16>, tensor<1x160x28x28xbf16>, tensor<1x160x28x28xbf16>) -> tensor<1x736x28x28xbf16> loc(#loc203)
        %121 = "ttir.permute"(%arg68) <{permutation = array<i64: 0, 1, 2, 3>}> : (tensor<512x736x1x1xbf16>) -> tensor<512x736x1x1xbf16> loc(#loc331)
        %122 = "ttir.conv2d"(%120, %121) <{batch_dim = 0 : i64, channel_dim = 1 : i64, dilation = array<i32: 1, 1>, groups = 1 : i32, height_dim = 2 : i64, padding = array<i32: 0, 0, 0, 0>, stride = array<i32: 1, 1>, width_dim = 3 : i64}> : (tensor<1x736x28x28xbf16>, tensor<512x736x1x1xbf16>) -> tensor<1x512x28x28xbf16> loc(#loc204)
        %123 = "ttir.batch_norm_inference"(%122, %arg67, %arg66, %arg65, %arg64) <{dimension = 1 : i32, epsilon = 9.99999974E-6 : f32}> : (tensor<1x512x28x28xbf16>, tensor<512xbf16>, tensor<512xbf16>, tensor<512xbf16>, tensor<512xbf16>) -> tensor<1x512x28x28xbf16> loc(#loc205)
        %124 = "ttir.maximum"(%123, %23) : (tensor<1x512x28x28xbf16>, tensor<1x512x28x28xbf16>) -> tensor<1x512x28x28xbf16> loc(#loc206)
        %125 = "ttir.sum"(%124) <{dim_arg = [2 : i32, 3 : i32], keep_dim = false}> : (tensor<1x512x28x28xbf16>) -> tensor<1x512xbf16> loc(#loc207)
        %126 = "ttir.multiply"(%125, %20) : (tensor<1x512xbf16>, tensor<1x512xbf16>) -> tensor<1x512xbf16> loc(#loc208)
        %127 = "ttir.reshape"(%126) <{shape = [1 : i32, 512 : i32, 1 : i32, 1 : i32]}> : (tensor<1x512xbf16>) -> tensor<1x512x1x1xbf16> loc(#loc209)
        %128 = "ttir.permute"(%arg63) <{permutation = array<i64: 0, 1, 2, 3>}> : (tensor<512x512x1x1xbf16>) -> tensor<512x512x1x1xbf16> loc(#loc332)
        %129 = "ttir.conv2d"(%127, %128) <{batch_dim = 0 : i64, channel_dim = 1 : i64, dilation = array<i32: 1, 1>, groups = 1 : i32, height_dim = 2 : i64, padding = array<i32: 0, 0, 0, 0>, stride = array<i32: 1, 1>, width_dim = 3 : i64}> : (tensor<1x512x1x1xbf16>, tensor<512x512x1x1xbf16>) -> tensor<1x512x1x1xbf16> loc(#loc210)
        %130 = "ttir.reshape"(%arg62) <{shape = [1 : i32, 512 : i32, 1 : i32, 1 : i32]}> : (tensor<512xbf16>) -> tensor<1x512x1x1xbf16> loc(#loc333)
        %131 = "ttir.add"(%129, %130) : (tensor<1x512x1x1xbf16>, tensor<1x512x1x1xbf16>) -> tensor<1x512x1x1xbf16> loc(#loc213)
        %132 = "ttir.typecast"(%131) <{conservative_folding = false}> : (tensor<1x512x1x1xbf16>) -> tensor<1x512x1x1xf32> loc(#loc214)
        %133 = "ttir.add"(%132, %19) : (tensor<1x512x1x1xf32>, tensor<1x512x1x1xf32>) -> tensor<1x512x1x1xf32> loc(#loc215)
        %134 = "ttir.clamp_tensor"(%133, %21, %18) : (tensor<1x512x1x1xf32>, tensor<1x512x1x1xf32>, tensor<1x512x1x1xf32>) -> tensor<1x512x1x1xf32> loc(#loc216)
        %135 = "ttir.clamp_tensor"(%134, %22, %17) : (tensor<1x512x1x1xf32>, tensor<1x512x1x1xf32>, tensor<1x512x1x1xf32>) -> tensor<1x512x1x1xf32> loc(#loc217)
        %136 = "ttir.div"(%135, %17) : (tensor<1x512x1x1xf32>, tensor<1x512x1x1xf32>) -> tensor<1x512x1x1xf32> loc(#loc218)
        %137 = "ttir.typecast"(%136) <{conservative_folding = false}> : (tensor<1x512x1x1xf32>) -> tensor<1x512x1x1xbf16> loc(#loc219)
        %138 = "ttir.reshape"(%137) <{shape = [1 : i32, 512 : i32]}> : (tensor<1x512x1x1xbf16>) -> tensor<1x512xbf16> loc(#loc220)
        %139 = "ttir.reshape"(%138) <{shape = [1 : i32, 512 : i32, 1 : i32, 1 : i32]}> : (tensor<1x512xbf16>) -> tensor<1x512x1x1xbf16> loc(#loc221)
        %140 = "ttir.broadcast"(%139) <{broadcast_dimensions = array<i64: 1, 1, 28, 28>}> : (tensor<1x512x1x1xbf16>) -> tensor<1x512x28x28xbf16> loc(#loc221)
        %141 = "ttir.multiply"(%124, %140) : (tensor<1x512x28x28xbf16>, tensor<1x512x28x28xbf16>) -> tensor<1x512x28x28xbf16> loc(#loc222)
        %142 = "ttir.permute"(%141) <{permutation = array<i64: 0, 2, 3, 1>}> : (tensor<1x512x28x28xbf16>) -> tensor<1x28x28x512xbf16> loc(#loc223)
        %143 = "ttir.max_pool2d"(%142) <{ceil_mode = false, dilation = array<i32: 1, 1>, kernel = array<i32: 3, 3>, padding = array<i32: 0, 0, 1, 1>, stride = array<i32: 2, 2>}> : (tensor<1x28x28x512xbf16>) -> tensor<1x14x14x512xbf16> loc(#loc223)
        %144 = "ttir.permute"(%143) <{permutation = array<i64: 0, 3, 1, 2>}> : (tensor<1x14x14x512xbf16>) -> tensor<1x512x14x14xbf16> loc(#loc223)
        %145 = "ttir.permute"(%arg61) <{permutation = array<i64: 0, 1, 2, 3>}> : (tensor<192x512x1x1xbf16>) -> tensor<192x512x1x1xbf16> loc(#loc334)
        %146 = "ttir.conv2d"(%144, %145) <{batch_dim = 0 : i64, channel_dim = 1 : i64, dilation = array<i32: 1, 1>, groups = 1 : i32, height_dim = 2 : i64, padding = array<i32: 0, 0, 0, 0>, stride = array<i32: 1, 1>, width_dim = 3 : i64}> : (tensor<1x512x14x14xbf16>, tensor<192x512x1x1xbf16>) -> tensor<1x192x14x14xbf16> loc(#loc224)
        %147 = "ttir.batch_norm_inference"(%146, %arg60, %arg59, %arg58, %arg57) <{dimension = 1 : i32, epsilon = 9.99999974E-6 : f32}> : (tensor<1x192x14x14xbf16>, tensor<192xbf16>, tensor<192xbf16>, tensor<192xbf16>, tensor<192xbf16>) -> tensor<1x192x14x14xbf16> loc(#loc225)
        %148 = "ttir.maximum"(%147, %16) : (tensor<1x192x14x14xbf16>, tensor<1x192x14x14xbf16>) -> tensor<1x192x14x14xbf16> loc(#loc226)
        %149 = "ttir.permute"(%arg56) <{permutation = array<i64: 0, 1, 2, 3>}> : (tensor<192x1x3x3xbf16>) -> tensor<192x1x3x3xbf16> loc(#loc335)
        %150 = "ttir.conv2d"(%148, %149) <{batch_dim = 0 : i64, channel_dim = 1 : i64, dilation = array<i32: 1, 1>, groups = 192 : i32, height_dim = 2 : i64, padding = array<i32: 1, 1, 1, 1>, stride = array<i32: 1, 1>, width_dim = 3 : i64}> : (tensor<1x192x14x14xbf16>, tensor<192x1x3x3xbf16>) -> tensor<1x192x14x14xbf16> loc(#loc227)
        %151 = "ttir.permute"(%arg55) <{permutation = array<i64: 0, 1, 2, 3>}> : (tensor<192x192x1x1xbf16>) -> tensor<192x192x1x1xbf16> loc(#loc336)
        %152 = "ttir.conv2d"(%150, %151) <{batch_dim = 0 : i64, channel_dim = 1 : i64, dilation = array<i32: 1, 1>, groups = 1 : i32, height_dim = 2 : i64, padding = array<i32: 0, 0, 0, 0>, stride = array<i32: 1, 1>, width_dim = 3 : i64}> : (tensor<1x192x14x14xbf16>, tensor<192x192x1x1xbf16>) -> tensor<1x192x14x14xbf16> loc(#loc228)
        %153 = "ttir.batch_norm_inference"(%152, %arg54, %arg53, %arg52, %arg51) <{dimension = 1 : i32, epsilon = 9.99999974E-6 : f32}> : (tensor<1x192x14x14xbf16>, tensor<192xbf16>, tensor<192xbf16>, tensor<192xbf16>, tensor<192xbf16>) -> tensor<1x192x14x14xbf16> loc(#loc229)
        %154 = "ttir.maximum"(%153, %16) : (tensor<1x192x14x14xbf16>, tensor<1x192x14x14xbf16>) -> tensor<1x192x14x14xbf16> loc(#loc230)
        %155 = "ttir.permute"(%arg50) <{permutation = array<i64: 0, 1, 2, 3>}> : (tensor<192x1x3x3xbf16>) -> tensor<192x1x3x3xbf16> loc(#loc337)
        %156 = "ttir.conv2d"(%154, %155) <{batch_dim = 0 : i64, channel_dim = 1 : i64, dilation = array<i32: 1, 1>, groups = 192 : i32, height_dim = 2 : i64, padding = array<i32: 1, 1, 1, 1>, stride = array<i32: 1, 1>, width_dim = 3 : i64}> : (tensor<1x192x14x14xbf16>, tensor<192x1x3x3xbf16>) -> tensor<1x192x14x14xbf16> loc(#loc231)
        %157 = "ttir.permute"(%arg49) <{permutation = array<i64: 0, 1, 2, 3>}> : (tensor<192x192x1x1xbf16>) -> tensor<192x192x1x1xbf16> loc(#loc338)
        %158 = "ttir.conv2d"(%156, %157) <{batch_dim = 0 : i64, channel_dim = 1 : i64, dilation = array<i32: 1, 1>, groups = 1 : i32, height_dim = 2 : i64, padding = array<i32: 0, 0, 0, 0>, stride = array<i32: 1, 1>, width_dim = 3 : i64}> : (tensor<1x192x14x14xbf16>, tensor<192x192x1x1xbf16>) -> tensor<1x192x14x14xbf16> loc(#loc232)
        %159 = "ttir.batch_norm_inference"(%158, %arg48, %arg47, %arg46, %arg45) <{dimension = 1 : i32, epsilon = 9.99999974E-6 : f32}> : (tensor<1x192x14x14xbf16>, tensor<192xbf16>, tensor<192xbf16>, tensor<192xbf16>, tensor<192xbf16>) -> tensor<1x192x14x14xbf16> loc(#loc233)
        %160 = "ttir.maximum"(%159, %16) : (tensor<1x192x14x14xbf16>, tensor<1x192x14x14xbf16>) -> tensor<1x192x14x14xbf16> loc(#loc234)
        %161 = "ttir.permute"(%arg44) <{permutation = array<i64: 0, 1, 2, 3>}> : (tensor<192x1x3x3xbf16>) -> tensor<192x1x3x3xbf16> loc(#loc339)
        %162 = "ttir.conv2d"(%160, %161) <{batch_dim = 0 : i64, channel_dim = 1 : i64, dilation = array<i32: 1, 1>, groups = 192 : i32, height_dim = 2 : i64, padding = array<i32: 1, 1, 1, 1>, stride = array<i32: 1, 1>, width_dim = 3 : i64}> : (tensor<1x192x14x14xbf16>, tensor<192x1x3x3xbf16>) -> tensor<1x192x14x14xbf16> loc(#loc235)
        %163 = "ttir.permute"(%arg43) <{permutation = array<i64: 0, 1, 2, 3>}> : (tensor<192x192x1x1xbf16>) -> tensor<192x192x1x1xbf16> loc(#loc340)
        %164 = "ttir.conv2d"(%162, %163) <{batch_dim = 0 : i64, channel_dim = 1 : i64, dilation = array<i32: 1, 1>, groups = 1 : i32, height_dim = 2 : i64, padding = array<i32: 0, 0, 0, 0>, stride = array<i32: 1, 1>, width_dim = 3 : i64}> : (tensor<1x192x14x14xbf16>, tensor<192x192x1x1xbf16>) -> tensor<1x192x14x14xbf16> loc(#loc236)
        %165 = "ttir.batch_norm_inference"(%164, %arg42, %arg41, %arg40, %arg39) <{dimension = 1 : i32, epsilon = 9.99999974E-6 : f32}> : (tensor<1x192x14x14xbf16>, tensor<192xbf16>, tensor<192xbf16>, tensor<192xbf16>, tensor<192xbf16>) -> tensor<1x192x14x14xbf16> loc(#loc237)
        %166 = "ttir.maximum"(%165, %16) : (tensor<1x192x14x14xbf16>, tensor<1x192x14x14xbf16>) -> tensor<1x192x14x14xbf16> loc(#loc238)
        %167 = "ttir.concat"(%144, %154, %160, %166) <{dim = 1 : si32}> : (tensor<1x512x14x14xbf16>, tensor<1x192x14x14xbf16>, tensor<1x192x14x14xbf16>, tensor<1x192x14x14xbf16>) -> tensor<1x1088x14x14xbf16> loc(#loc239)
        %168 = "ttir.permute"(%arg38) <{permutation = array<i64: 0, 1, 2, 3>}> : (tensor<768x1088x1x1xbf16>) -> tensor<768x1088x1x1xbf16> loc(#loc341)
        %169 = "ttir.conv2d"(%167, %168) <{batch_dim = 0 : i64, channel_dim = 1 : i64, dilation = array<i32: 1, 1>, groups = 1 : i32, height_dim = 2 : i64, padding = array<i32: 0, 0, 0, 0>, stride = array<i32: 1, 1>, width_dim = 3 : i64}> : (tensor<1x1088x14x14xbf16>, tensor<768x1088x1x1xbf16>) -> tensor<1x768x14x14xbf16> loc(#loc240)
        %170 = "ttir.batch_norm_inference"(%169, %arg37, %arg36, %arg35, %arg34) <{dimension = 1 : i32, epsilon = 9.99999974E-6 : f32}> : (tensor<1x768x14x14xbf16>, tensor<768xbf16>, tensor<768xbf16>, tensor<768xbf16>, tensor<768xbf16>) -> tensor<1x768x14x14xbf16> loc(#loc241)
        %171 = "ttir.maximum"(%170, %15) : (tensor<1x768x14x14xbf16>, tensor<1x768x14x14xbf16>) -> tensor<1x768x14x14xbf16> loc(#loc242)
        %172 = "ttir.sum"(%171) <{dim_arg = [2 : i32, 3 : i32], keep_dim = false}> : (tensor<1x768x14x14xbf16>) -> tensor<1x768xbf16> loc(#loc243)
        %173 = "ttir.multiply"(%172, %12) : (tensor<1x768xbf16>, tensor<1x768xbf16>) -> tensor<1x768xbf16> loc(#loc244)
        %174 = "ttir.reshape"(%173) <{shape = [1 : i32, 768 : i32, 1 : i32, 1 : i32]}> : (tensor<1x768xbf16>) -> tensor<1x768x1x1xbf16> loc(#loc245)
        %175 = "ttir.permute"(%arg33) <{permutation = array<i64: 0, 1, 2, 3>}> : (tensor<768x768x1x1xbf16>) -> tensor<768x768x1x1xbf16> loc(#loc342)
        %176 = "ttir.conv2d"(%174, %175) <{batch_dim = 0 : i64, channel_dim = 1 : i64, dilation = array<i32: 1, 1>, groups = 1 : i32, height_dim = 2 : i64, padding = array<i32: 0, 0, 0, 0>, stride = array<i32: 1, 1>, width_dim = 3 : i64}> : (tensor<1x768x1x1xbf16>, tensor<768x768x1x1xbf16>) -> tensor<1x768x1x1xbf16> loc(#loc246)
        %177 = "ttir.reshape"(%arg32) <{shape = [1 : i32, 768 : i32, 1 : i32, 1 : i32]}> : (tensor<768xbf16>) -> tensor<1x768x1x1xbf16> loc(#loc343)
        %178 = "ttir.add"(%176, %177) : (tensor<1x768x1x1xbf16>, tensor<1x768x1x1xbf16>) -> tensor<1x768x1x1xbf16> loc(#loc249)
        %179 = "ttir.typecast"(%178) <{conservative_folding = false}> : (tensor<1x768x1x1xbf16>) -> tensor<1x768x1x1xf32> loc(#loc250)
        %180 = "ttir.add"(%179, %11) : (tensor<1x768x1x1xf32>, tensor<1x768x1x1xf32>) -> tensor<1x768x1x1xf32> loc(#loc251)
        %181 = "ttir.clamp_tensor"(%180, %13, %10) : (tensor<1x768x1x1xf32>, tensor<1x768x1x1xf32>, tensor<1x768x1x1xf32>) -> tensor<1x768x1x1xf32> loc(#loc252)
        %182 = "ttir.clamp_tensor"(%181, %14, %9) : (tensor<1x768x1x1xf32>, tensor<1x768x1x1xf32>, tensor<1x768x1x1xf32>) -> tensor<1x768x1x1xf32> loc(#loc253)
        %183 = "ttir.div"(%182, %9) : (tensor<1x768x1x1xf32>, tensor<1x768x1x1xf32>) -> tensor<1x768x1x1xf32> loc(#loc254)
        %184 = "ttir.typecast"(%183) <{conservative_folding = false}> : (tensor<1x768x1x1xf32>) -> tensor<1x768x1x1xbf16> loc(#loc255)
        %185 = "ttir.reshape"(%184) <{shape = [1 : i32, 768 : i32]}> : (tensor<1x768x1x1xbf16>) -> tensor<1x768xbf16> loc(#loc256)
        %186 = "ttir.reshape"(%185) <{shape = [1 : i32, 768 : i32, 1 : i32, 1 : i32]}> : (tensor<1x768xbf16>) -> tensor<1x768x1x1xbf16> loc(#loc257)
        %187 = "ttir.broadcast"(%186) <{broadcast_dimensions = array<i64: 1, 1, 14, 14>}> : (tensor<1x768x1x1xbf16>) -> tensor<1x768x14x14xbf16> loc(#loc257)
        %188 = "ttir.multiply"(%171, %187) : (tensor<1x768x14x14xbf16>, tensor<1x768x14x14xbf16>) -> tensor<1x768x14x14xbf16> loc(#loc258)
        %189 = "ttir.permute"(%188) <{permutation = array<i64: 0, 2, 3, 1>}> : (tensor<1x768x14x14xbf16>) -> tensor<1x14x14x768xbf16> loc(#loc259)
        %190 = "ttir.max_pool2d"(%189) <{ceil_mode = false, dilation = array<i32: 1, 1>, kernel = array<i32: 3, 3>, padding = array<i32: 0, 0, 1, 1>, stride = array<i32: 2, 2>}> : (tensor<1x14x14x768xbf16>) -> tensor<1x7x7x768xbf16> loc(#loc259)
        %191 = "ttir.permute"(%190) <{permutation = array<i64: 0, 3, 1, 2>}> : (tensor<1x7x7x768xbf16>) -> tensor<1x768x7x7xbf16> loc(#loc259)
        %192 = "ttir.permute"(%arg31) <{permutation = array<i64: 0, 1, 2, 3>}> : (tensor<224x768x1x1xbf16>) -> tensor<224x768x1x1xbf16> loc(#loc344)
        %193 = "ttir.conv2d"(%191, %192) <{batch_dim = 0 : i64, channel_dim = 1 : i64, dilation = array<i32: 1, 1>, groups = 1 : i32, height_dim = 2 : i64, padding = array<i32: 0, 0, 0, 0>, stride = array<i32: 1, 1>, width_dim = 3 : i64}> : (tensor<1x768x7x7xbf16>, tensor<224x768x1x1xbf16>) -> tensor<1x224x7x7xbf16> loc(#loc260)
        %194 = "ttir.batch_norm_inference"(%193, %arg30, %arg29, %arg28, %arg27) <{dimension = 1 : i32, epsilon = 9.99999974E-6 : f32}> : (tensor<1x224x7x7xbf16>, tensor<224xbf16>, tensor<224xbf16>, tensor<224xbf16>, tensor<224xbf16>) -> tensor<1x224x7x7xbf16> loc(#loc261)
        %195 = "ttir.maximum"(%194, %8) : (tensor<1x224x7x7xbf16>, tensor<1x224x7x7xbf16>) -> tensor<1x224x7x7xbf16> loc(#loc262)
        %196 = "ttir.permute"(%arg26) <{permutation = array<i64: 0, 1, 2, 3>}> : (tensor<224x1x3x3xbf16>) -> tensor<224x1x3x3xbf16> loc(#loc345)
        %197 = "ttir.conv2d"(%195, %196) <{batch_dim = 0 : i64, channel_dim = 1 : i64, dilation = array<i32: 1, 1>, groups = 224 : i32, height_dim = 2 : i64, padding = array<i32: 1, 1, 1, 1>, stride = array<i32: 1, 1>, width_dim = 3 : i64}> : (tensor<1x224x7x7xbf16>, tensor<224x1x3x3xbf16>) -> tensor<1x224x7x7xbf16> loc(#loc263)
        %198 = "ttir.permute"(%arg25) <{permutation = array<i64: 0, 1, 2, 3>}> : (tensor<224x224x1x1xbf16>) -> tensor<224x224x1x1xbf16> loc(#loc346)
        %199 = "ttir.conv2d"(%197, %198) <{batch_dim = 0 : i64, channel_dim = 1 : i64, dilation = array<i32: 1, 1>, groups = 1 : i32, height_dim = 2 : i64, padding = array<i32: 0, 0, 0, 0>, stride = array<i32: 1, 1>, width_dim = 3 : i64}> : (tensor<1x224x7x7xbf16>, tensor<224x224x1x1xbf16>) -> tensor<1x224x7x7xbf16> loc(#loc264)
        %200 = "ttir.batch_norm_inference"(%199, %arg24, %arg23, %arg22, %arg21) <{dimension = 1 : i32, epsilon = 9.99999974E-6 : f32}> : (tensor<1x224x7x7xbf16>, tensor<224xbf16>, tensor<224xbf16>, tensor<224xbf16>, tensor<224xbf16>) -> tensor<1x224x7x7xbf16> loc(#loc265)
        %201 = "ttir.maximum"(%200, %8) : (tensor<1x224x7x7xbf16>, tensor<1x224x7x7xbf16>) -> tensor<1x224x7x7xbf16> loc(#loc266)
        %202 = "ttir.permute"(%arg20) <{permutation = array<i64: 0, 1, 2, 3>}> : (tensor<224x1x3x3xbf16>) -> tensor<224x1x3x3xbf16> loc(#loc347)
        %203 = "ttir.conv2d"(%201, %202) <{batch_dim = 0 : i64, channel_dim = 1 : i64, dilation = array<i32: 1, 1>, groups = 224 : i32, height_dim = 2 : i64, padding = array<i32: 1, 1, 1, 1>, stride = array<i32: 1, 1>, width_dim = 3 : i64}> : (tensor<1x224x7x7xbf16>, tensor<224x1x3x3xbf16>) -> tensor<1x224x7x7xbf16> loc(#loc267)
        %204 = "ttir.permute"(%arg19) <{permutation = array<i64: 0, 1, 2, 3>}> : (tensor<224x224x1x1xbf16>) -> tensor<224x224x1x1xbf16> loc(#loc348)
        %205 = "ttir.conv2d"(%203, %204) <{batch_dim = 0 : i64, channel_dim = 1 : i64, dilation = array<i32: 1, 1>, groups = 1 : i32, height_dim = 2 : i64, padding = array<i32: 0, 0, 0, 0>, stride = array<i32: 1, 1>, width_dim = 3 : i64}> : (tensor<1x224x7x7xbf16>, tensor<224x224x1x1xbf16>) -> tensor<1x224x7x7xbf16> loc(#loc268)
        %206 = "ttir.batch_norm_inference"(%205, %arg18, %arg17, %arg16, %arg15) <{dimension = 1 : i32, epsilon = 9.99999974E-6 : f32}> : (tensor<1x224x7x7xbf16>, tensor<224xbf16>, tensor<224xbf16>, tensor<224xbf16>, tensor<224xbf16>) -> tensor<1x224x7x7xbf16> loc(#loc269)
        %207 = "ttir.maximum"(%206, %8) : (tensor<1x224x7x7xbf16>, tensor<1x224x7x7xbf16>) -> tensor<1x224x7x7xbf16> loc(#loc270)
        %208 = "ttir.permute"(%arg14) <{permutation = array<i64: 0, 1, 2, 3>}> : (tensor<224x1x3x3xbf16>) -> tensor<224x1x3x3xbf16> loc(#loc349)
        %209 = "ttir.conv2d"(%207, %208) <{batch_dim = 0 : i64, channel_dim = 1 : i64, dilation = array<i32: 1, 1>, groups = 224 : i32, height_dim = 2 : i64, padding = array<i32: 1, 1, 1, 1>, stride = array<i32: 1, 1>, width_dim = 3 : i64}> : (tensor<1x224x7x7xbf16>, tensor<224x1x3x3xbf16>) -> tensor<1x224x7x7xbf16> loc(#loc271)
        %210 = "ttir.permute"(%arg13) <{permutation = array<i64: 0, 1, 2, 3>}> : (tensor<224x224x1x1xbf16>) -> tensor<224x224x1x1xbf16> loc(#loc350)
        %211 = "ttir.conv2d"(%209, %210) <{batch_dim = 0 : i64, channel_dim = 1 : i64, dilation = array<i32: 1, 1>, groups = 1 : i32, height_dim = 2 : i64, padding = array<i32: 0, 0, 0, 0>, stride = array<i32: 1, 1>, width_dim = 3 : i64}> : (tensor<1x224x7x7xbf16>, tensor<224x224x1x1xbf16>) -> tensor<1x224x7x7xbf16> loc(#loc272)
        %212 = "ttir.batch_norm_inference"(%211, %arg12, %arg11, %arg10, %arg9) <{dimension = 1 : i32, epsilon = 9.99999974E-6 : f32}> : (tensor<1x224x7x7xbf16>, tensor<224xbf16>, tensor<224xbf16>, tensor<224xbf16>, tensor<224xbf16>) -> tensor<1x224x7x7xbf16> loc(#loc273)
        %213 = "ttir.maximum"(%212, %8) : (tensor<1x224x7x7xbf16>, tensor<1x224x7x7xbf16>) -> tensor<1x224x7x7xbf16> loc(#loc274)
        %214 = "ttir.concat"(%191, %201, %207, %213) <{dim = 1 : si32}> : (tensor<1x768x7x7xbf16>, tensor<1x224x7x7xbf16>, tensor<1x224x7x7xbf16>, tensor<1x224x7x7xbf16>) -> tensor<1x1440x7x7xbf16> loc(#loc275)
        %215 = "ttir.permute"(%arg8) <{permutation = array<i64: 0, 1, 2, 3>}> : (tensor<1024x1440x1x1xbf16>) -> tensor<1024x1440x1x1xbf16> loc(#loc351)
        %216 = "ttir.conv2d"(%214, %215) <{batch_dim = 0 : i64, channel_dim = 1 : i64, dilation = array<i32: 1, 1>, groups = 1 : i32, height_dim = 2 : i64, padding = array<i32: 0, 0, 0, 0>, stride = array<i32: 1, 1>, width_dim = 3 : i64}> : (tensor<1x1440x7x7xbf16>, tensor<1024x1440x1x1xbf16>) -> tensor<1x1024x7x7xbf16> loc(#loc276)
        %217 = "ttir.batch_norm_inference"(%216, %arg7, %arg6, %arg5, %arg4) <{dimension = 1 : i32, epsilon = 9.99999974E-6 : f32}> : (tensor<1x1024x7x7xbf16>, tensor<1024xbf16>, tensor<1024xbf16>, tensor<1024xbf16>, tensor<1024xbf16>) -> tensor<1x1024x7x7xbf16> loc(#loc277)
        %218 = "ttir.maximum"(%217, %7) : (tensor<1x1024x7x7xbf16>, tensor<1x1024x7x7xbf16>) -> tensor<1x1024x7x7xbf16> loc(#loc278)
        %219 = "ttir.sum"(%218) <{dim_arg = [2 : i32, 3 : i32], keep_dim = false}> : (tensor<1x1024x7x7xbf16>) -> tensor<1x1024xbf16> loc(#loc279)
        %220 = "ttir.multiply"(%219, %4) : (tensor<1x1024xbf16>, tensor<1x1024xbf16>) -> tensor<1x1024xbf16> loc(#loc280)
        %221 = "ttir.reshape"(%220) <{shape = [1 : i32, 1024 : i32, 1 : i32, 1 : i32]}> : (tensor<1x1024xbf16>) -> tensor<1x1024x1x1xbf16> loc(#loc281)
        %222 = "ttir.permute"(%arg3) <{permutation = array<i64: 0, 1, 2, 3>}> : (tensor<1024x1024x1x1xbf16>) -> tensor<1024x1024x1x1xbf16> loc(#loc352)
        %223 = "ttir.conv2d"(%221, %222) <{batch_dim = 0 : i64, channel_dim = 1 : i64, dilation = array<i32: 1, 1>, groups = 1 : i32, height_dim = 2 : i64, padding = array<i32: 0, 0, 0, 0>, stride = array<i32: 1, 1>, width_dim = 3 : i64}> : (tensor<1x1024x1x1xbf16>, tensor<1024x1024x1x1xbf16>) -> tensor<1x1024x1x1xbf16> loc(#loc282)
        %224 = "ttir.reshape"(%arg2) <{shape = [1 : i32, 1024 : i32, 1 : i32, 1 : i32]}> : (tensor<1024xbf16>) -> tensor<1x1024x1x1xbf16> loc(#loc353)
        %225 = "ttir.add"(%223, %224) : (tensor<1x1024x1x1xbf16>, tensor<1x1024x1x1xbf16>) -> tensor<1x1024x1x1xbf16> loc(#loc285)
        %226 = "ttir.typecast"(%225) <{conservative_folding = false}> : (tensor<1x1024x1x1xbf16>) -> tensor<1x1024x1x1xf32> loc(#loc286)
        %227 = "ttir.add"(%226, %3) : (tensor<1x1024x1x1xf32>, tensor<1x1024x1x1xf32>) -> tensor<1x1024x1x1xf32> loc(#loc287)
        %228 = "ttir.clamp_tensor"(%227, %5, %2) : (tensor<1x1024x1x1xf32>, tensor<1x1024x1x1xf32>, tensor<1x1024x1x1xf32>) -> tensor<1x1024x1x1xf32> loc(#loc288)
        %229 = "ttir.clamp_tensor"(%228, %6, %1) : (tensor<1x1024x1x1xf32>, tensor<1x1024x1x1xf32>, tensor<1x1024x1x1xf32>) -> tensor<1x1024x1x1xf32> loc(#loc289)
        %230 = "ttir.div"(%229, %1) : (tensor<1x1024x1x1xf32>, tensor<1x1024x1x1xf32>) -> tensor<1x1024x1x1xf32> loc(#loc290)
        %231 = "ttir.typecast"(%230) <{conservative_folding = false}> : (tensor<1x1024x1x1xf32>) -> tensor<1x1024x1x1xbf16> loc(#loc291)
        %232 = "ttir.reshape"(%231) <{shape = [1 : i32, 1024 : i32]}> : (tensor<1x1024x1x1xbf16>) -> tensor<1x1024xbf16> loc(#loc292)
        %233 = "ttir.reshape"(%232) <{shape = [1 : i32, 1024 : i32, 1 : i32, 1 : i32]}> : (tensor<1x1024xbf16>) -> tensor<1x1024x1x1xbf16> loc(#loc293)
        %234 = "ttir.broadcast"(%233) <{broadcast_dimensions = array<i64: 1, 1, 7, 7>}> : (tensor<1x1024x1x1xbf16>) -> tensor<1x1024x7x7xbf16> loc(#loc293)
        %235 = "ttir.multiply"(%218, %234) : (tensor<1x1024x7x7xbf16>, tensor<1x1024x7x7xbf16>) -> tensor<1x1024x7x7xbf16> loc(#loc294)
        %236 = "ttir.typecast"(%235) <{conservative_folding = false}> : (tensor<1x1024x7x7xbf16>) -> tensor<1x1024x7x7xf32> loc(#loc295)
        %237 = "ttir.sum"(%236) <{dim_arg = [2 : i32, 3 : i32], keep_dim = false}> : (tensor<1x1024x7x7xf32>) -> tensor<1x1024xf32> loc(#loc296)
        %238 = "ttir.multiply"(%237, %0) : (tensor<1x1024xf32>, tensor<1x1024xf32>) -> tensor<1x1024xf32> loc(#loc297)
        %239 = "ttir.reshape"(%238) <{shape = [1 : i32, 1024 : i32, 1 : i32, 1 : i32]}> : (tensor<1x1024xf32>) -> tensor<1x1024x1x1xf32> loc(#loc298)
        %240 = "ttir.typecast"(%239) <{conservative_folding = false}> : (tensor<1x1024x1x1xf32>) -> tensor<1x1024x1x1xbf16> loc(#loc299)
        %241 = "ttir.reshape"(%240) <{shape = [1 : i32, 1024 : i32]}> : (tensor<1x1024x1x1xbf16>) -> tensor<1x1024xbf16> loc(#loc300)
        %242 = "ttir.typecast"(%241) <{conservative_folding = false}> : (tensor<1x1024xbf16>) -> tensor<1x1024xf32> loc(#loc301)
        %243 = "ttir.permute"(%arg1) <{permutation = array<i64: 1, 0>}> : (tensor<1000x1024xbf16>) -> tensor<1024x1000xbf16> loc(#loc302)
        %244 = "ttir.typecast"(%243) <{conservative_folding = false}> : (tensor<1024x1000xbf16>) -> tensor<1024x1000xf32> loc(#loc303)
        %245 = "ttir.dot_general"(%242, %244) <{batch_dims_lhs = array<i64>, batch_dims_rhs = array<i64>, contract_dims_lhs = array<i64: 1>, contract_dims_rhs = array<i64: 0>}> : (tensor<1x1024xf32>, tensor<1024x1000xf32>) -> tensor<1x1000xf32> loc(#loc304)
        %246 = "ttir.typecast"(%arg0) <{conservative_folding = false}> : (tensor<1000xbf16>) -> tensor<1000xf32> loc(#loc305)
        %247 = "ttir.reshape"(%246) <{shape = [1 : i32, 1000 : i32]}> : (tensor<1000xf32>) -> tensor<1x1000xf32> loc(#loc306)
        %248 = "ttir.add"(%245, %247) : (tensor<1x1000xf32>, tensor<1x1000xf32>) -> tensor<1x1000xf32> loc(#loc307)
        %249 = "ttir.typecast"(%248) <{conservative_folding = false}> : (tensor<1x1000xf32>) -> tensor<1x1000xbf16> loc(#loc308)
        return %249 : tensor<1x1000xbf16> loc(#loc)
      } loc(#loc)
    } loc(#loc)
  } loc(#loc)
} loc(#loc)
#loc = loc(unknown)
#loc141 = loc("convolution.513")
#loc142 = loc("batch-norm-inference.514")
#loc143 = loc("maximum.521")
#loc144 = loc("convolution.522")
#loc145 = loc("convolution.523")
#loc146 = loc("batch-norm-inference.524")
#loc147 = loc("maximum.531")
#loc148 = loc("convolution.532")
#loc149 = loc("convolution.533")
#loc150 = loc("batch-norm-inference.534")
#loc151 = loc("maximum.541")
#loc152 = loc("convolution.542")
#loc153 = loc("batch-norm-inference.543")
#loc154 = loc("maximum.550")
#loc155 = loc("convolution.551")
#loc156 = loc("convolution.552")
#loc157 = loc("batch-norm-inference.553")
#loc158 = loc("maximum.560")
#loc159 = loc("convolution.561")
#loc160 = loc("convolution.562")
#loc161 = loc("batch-norm-inference.563")
#loc162 = loc("maximum.570")
#loc163 = loc("convolution.571")
#loc164 = loc("convolution.572")
#loc165 = loc("batch-norm-inference.573")
#loc166 = loc("maximum.580")
#loc167 = loc("concatenate.581")
#loc168 = loc("convolution.582")
#loc169 = loc("batch-norm-inference.583")
#loc170 = loc("maximum.590")
#loc171 = loc("reduce.597")
#loc172 = loc("multiply.606")
#loc173 = loc("reshape.607")
#loc174 = loc("convolution.608")
#loc175 = loc("transpose.610")
#loc176 = loc("reshape.352")
#loc177 = loc("add.611")
#loc178 = loc("convert.612")
#loc179 = loc("add.615")
#loc180 = loc("clamp.618")
#loc181 = loc("clamp.621")
#loc182 = loc("divide.623")
#loc183 = loc("convert.624")
#loc184 = loc("reshape.625")
#loc185 = loc("broadcast.626")
#loc186 = loc("multiply.627")
#loc187 = loc("reduce-window.639")
#loc188 = loc("convolution.800")
#loc189 = loc("batch-norm-inference.801")
#loc190 = loc("maximum.808")
#loc191 = loc("convolution.809")
#loc192 = loc("convolution.810")
#loc193 = loc("batch-norm-inference.811")
#loc194 = loc("maximum.818")
#loc195 = loc("convolution.819")
#loc196 = loc("convolution.820")
#loc197 = loc("batch-norm-inference.821")
#loc198 = loc("maximum.828")
#loc199 = loc("convolution.829")
#loc200 = loc("convolution.830")
#loc201 = loc("batch-norm-inference.831")
#loc202 = loc("maximum.838")
#loc203 = loc("concatenate.839")
#loc204 = loc("convolution.840")
#loc205 = loc("batch-norm-inference.841")
#loc206 = loc("maximum.848")
#loc207 = loc("reduce.855")
#loc208 = loc("multiply.864")
#loc209 = loc("reshape.865")
#loc210 = loc("convolution.866")
#loc211 = loc("transpose.868")
#loc212 = loc("reshape.243")
#loc213 = loc("add.869")
#loc214 = loc("convert.870")
#loc215 = loc("add.873")
#loc216 = loc("clamp.876")
#loc217 = loc("clamp.879")
#loc218 = loc("divide.881")
#loc219 = loc("convert.882")
#loc220 = loc("reshape.883")
#loc221 = loc("broadcast.884")
#loc222 = loc("multiply.885")
#loc223 = loc("reduce-window.897")
#loc224 = loc("convolution.1058")
#loc225 = loc("batch-norm-inference.1059")
#loc226 = loc("maximum.1066")
#loc227 = loc("convolution.1067")
#loc228 = loc("convolution.1068")
#loc229 = loc("batch-norm-inference.1069")
#loc230 = loc("maximum.1076")
#loc231 = loc("convolution.1077")
#loc232 = loc("convolution.1078")
#loc233 = loc("batch-norm-inference.1079")
#loc234 = loc("maximum.1086")
#loc235 = loc("convolution.1087")
#loc236 = loc("convolution.1088")
#loc237 = loc("batch-norm-inference.1089")
#loc238 = loc("maximum.1096")
#loc239 = loc("concatenate.1097")
#loc240 = loc("convolution.1098")
#loc241 = loc("batch-norm-inference.1099")
#loc242 = loc("maximum.1106")
#loc243 = loc("reduce.1113")
#loc244 = loc("multiply.1122")
#loc245 = loc("reshape.1123")
#loc246 = loc("convolution.1124")
#loc247 = loc("transpose.1126")
#loc248 = loc("reshape.134")
#loc249 = loc("add.1127")
#loc250 = loc("convert.1128")
#loc251 = loc("add.1131")
#loc252 = loc("clamp.1134")
#loc253 = loc("clamp.1137")
#loc254 = loc("divide.1139")
#loc255 = loc("convert.1140")
#loc256 = loc("reshape.1141")
#loc257 = loc("broadcast.1142")
#loc258 = loc("multiply.1143")
#loc259 = loc("reduce-window.1155")
#loc260 = loc("convolution.1316")
#loc261 = loc("batch-norm-inference.1317")
#loc262 = loc("maximum.1324")
#loc263 = loc("convolution.1325")
#loc264 = loc("convolution.1326")
#loc265 = loc("batch-norm-inference.1327")
#loc266 = loc("maximum.1334")
#loc267 = loc("convolution.1335")
#loc268 = loc("convolution.1336")
#loc269 = loc("batch-norm-inference.1337")
#loc270 = loc("maximum.1344")
#loc271 = loc("convolution.1345")
#loc272 = loc("convolution.1346")
#loc273 = loc("batch-norm-inference.1347")
#loc274 = loc("maximum.1354")
#loc275 = loc("concatenate.1355")
#loc276 = loc("convolution.1356")
#loc277 = loc("batch-norm-inference.1357")
#loc278 = loc("maximum.1364")
#loc279 = loc("reduce.1371")
#loc280 = loc("multiply.1380")
#loc281 = loc("reshape.1381")
#loc282 = loc("convolution.1382")
#loc283 = loc("transpose.1384")
#loc284 = loc("reshape.25")
#loc285 = loc("add.1385")
#loc286 = loc("convert.1386")
#loc287 = loc("add.1389")
#loc288 = loc("clamp.1392")
#loc289 = loc("clamp.1395")
#loc290 = loc("divide.1397")
#loc291 = loc("convert.1398")
#loc292 = loc("reshape.1399")
#loc293 = loc("broadcast.1400")
#loc294 = loc("multiply.1401")
#loc295 = loc("convert.1402")
#loc296 = loc("reduce.1409")
#loc297 = loc("multiply.1418")
#loc298 = loc("reshape.1419")
#loc299 = loc("convert.1421")
#loc300 = loc("reshape.1422")
#loc301 = loc("convert.1423")
#loc302 = loc("transpose.15")
#loc303 = loc("convert.16")
#loc304 = loc("dot.1424")
#loc305 = loc("convert.7")
#loc306 = loc("broadcast.1429")
#loc307 = loc("add.1430")
#loc308 = loc("convert.1431")
#loc309 = loc("convolution.513_weight"(#loc141))
#loc310 = loc("convolution.522_weight"(#loc144))
#loc311 = loc("convolution.523_weight"(#loc145))
#loc312 = loc("convolution.532_weight"(#loc148))
#loc313 = loc("convolution.533_weight"(#loc149))
#loc314 = loc("convolution.542_weight"(#loc152))
#loc315 = loc("convolution.551_weight"(#loc155))
#loc316 = loc("convolution.552_weight"(#loc156))
#loc317 = loc("convolution.561_weight"(#loc159))
#loc318 = loc("convolution.562_weight"(#loc160))
#loc319 = loc("convolution.571_weight"(#loc163))
#loc320 = loc("convolution.572_weight"(#loc164))
#loc321 = loc("convolution.582_weight"(#loc168))
#loc322 = loc("convolution.608_weight"(#loc174))
#loc323 = loc(fused[#loc175, #loc176])
#loc324 = loc("convolution.800_weight"(#loc188))
#loc325 = loc("convolution.809_weight"(#loc191))
#loc326 = loc("convolution.810_weight"(#loc192))
#loc327 = loc("convolution.819_weight"(#loc195))
#loc328 = loc("convolution.820_weight"(#loc196))
#loc329 = loc("convolution.829_weight"(#loc199))
#loc330 = loc("convolution.830_weight"(#loc200))
#loc331 = loc("convolution.840_weight"(#loc204))
#loc332 = loc("convolution.866_weight"(#loc210))
#loc333 = loc(fused[#loc211, #loc212])
#loc334 = loc("convolution.1058_weight"(#loc224))
#loc335 = loc("convolution.1067_weight"(#loc227))
#loc336 = loc("convolution.1068_weight"(#loc228))
#loc337 = loc("convolution.1077_weight"(#loc231))
#loc338 = loc("convolution.1078_weight"(#loc232))
#loc339 = loc("convolution.1087_weight"(#loc235))
#loc340 = loc("convolution.1088_weight"(#loc236))
#loc341 = loc("convolution.1098_weight"(#loc240))
#loc342 = loc("convolution.1124_weight"(#loc246))
#loc343 = loc(fused[#loc247, #loc248])
#loc344 = loc("convolution.1316_weight"(#loc260))
#loc345 = loc("convolution.1325_weight"(#loc263))
#loc346 = loc("convolution.1326_weight"(#loc264))
#loc347 = loc("convolution.1335_weight"(#loc267))
#loc348 = loc("convolution.1336_weight"(#loc268))
#loc349 = loc("convolution.1345_weight"(#loc271))
#loc350 = loc("convolution.1346_weight"(#loc272))
#loc351 = loc("convolution.1356_weight"(#loc276))
#loc352 = loc("convolution.1382_weight"(#loc282))
#loc353 = loc(fused[#loc283, #loc284])
