#loc1 = loc("p0.3")
#loc2 = loc("p1.13")
#loc3 = loc("p2.31")
#loc4 = loc("p3.38")
#loc5 = loc("p4.50")
#loc6 = loc("p5.55")
#loc7 = loc("p6.129")
#loc8 = loc("p7.137")
#loc9 = loc("p8.157")
#loc10 = loc("p9.165")
#loc11 = loc("p10.172")
#loc12 = loc("p11.184")
#loc13 = loc("p12.189")
#loc14 = loc("p13.196")
#loc15 = loc("p14.208")
#loc16 = loc("p15.258")
#loc17 = loc("p16.355")
module @SyncTensorsGraph.426 attributes {mhlo.cross_program_prefetches = [], mhlo.input_output_alias = [], mhlo.is_dynamic = false, mhlo.use_auto_spmd_partitioning = false, ttcore.meshes = #ttcore.meshes<[<"mesh" = 1x1>]>} {
  ttcore.device_module {
    builtin.module @SyncTensorsGraph.426 attributes {mhlo.cross_program_prefetches = [], mhlo.input_output_alias = [], mhlo.is_dynamic = false, mhlo.use_auto_spmd_partitioning = false, ttcore.meshes = #ttcore.meshes<[<"mesh" = 1x1>]>} {
      func.func @main(%arg0: tensor<1xi64> {ttcore.argument_type = #ttcore.argument_type<input>, ttcore.shard_status = #ttcore.shard_status<unsharded>, ttir.name = "args_1"} loc("p0.3"), %arg1: tensor<128xbf16> {ttcore.argument_type = #ttcore.argument_type<constant>, ttcore.shard_status = #ttcore.shard_status<unsharded>, ttir.name = "l__self___model_rotary_emb_inv_freq"} loc("p1.13"), %arg2: tensor<256x2048xbf16> {ttcore.argument_type = #ttcore.argument_type<parameter>, ttcore.shard_status = #ttcore.shard_status<unsharded>, ttir.name = "l__self___model_layers__modules__0___self_attn_k_proj_weight"} loc("p2.31"), %arg3: tensor<2048xbf16> {ttcore.argument_type = #ttcore.argument_type<parameter>, ttcore.shard_status = #ttcore.shard_status<unsharded>, ttir.name = "l__self___model_layers__modules__0___input_layernorm_weight"} loc("p3.38"), %arg4: tensor<32x1xi64> {ttcore.argument_type = #ttcore.argument_type<input>, ttcore.shard_status = #ttcore.shard_status<unsharded>, ttir.name = "args_0"} loc("p4.50"), %arg5: tensor<256000x2048xbf16> {ttcore.argument_type = #ttcore.argument_type<parameter>, ttcore.shard_status = #ttcore.shard_status<unsharded>, ttir.name = "l__self___model_embed_tokens_weight"} loc("p5.55"), %arg6: tensor<32x1x128x256xbf16> {ttcore.argument_type = #ttcore.argument_type<input>, ttcore.shard_status = #ttcore.shard_status<unsharded>, ttir.name = "args_2"} loc("p6.129"), %arg7: tensor<256x2048xbf16> {ttcore.argument_type = #ttcore.argument_type<parameter>, ttcore.shard_status = #ttcore.shard_status<unsharded>, ttir.name = "l__self___model_layers__modules__0___self_attn_v_proj_weight"} loc("p7.137"), %arg8: tensor<32x1x128x256xbf16> {ttcore.argument_type = #ttcore.argument_type<input>, ttcore.shard_status = #ttcore.shard_status<unsharded>, ttir.name = "args_3"} loc("p8.157"), %arg9: tensor<256000x2048xbf16> {ttcore.argument_type = #ttcore.argument_type<parameter>, ttcore.shard_status = #ttcore.shard_status<unsharded>, ttir.name = "l__self___lm_head_weight"} loc("p9.165"), %arg10: tensor<2048xbf16> {ttcore.argument_type = #ttcore.argument_type<parameter>, ttcore.shard_status = #ttcore.shard_status<unsharded>, ttir.name = "l__self___model_norm_weight"} loc("p10.172"), %arg11: tensor<2048x16384xbf16> {ttcore.argument_type = #ttcore.argument_type<parameter>, ttcore.shard_status = #ttcore.shard_status<unsharded>, ttir.name = "l__self___model_layers__modules__0___mlp_down_proj_weight"} loc("p11.184"), %arg12: tensor<16384x2048xbf16> {ttcore.argument_type = #ttcore.argument_type<parameter>, ttcore.shard_status = #ttcore.shard_status<unsharded>, ttir.name = "l__self___model_layers__modules__0___mlp_up_proj_weight"} loc("p12.189"), %arg13: tensor<2048xbf16> {ttcore.argument_type = #ttcore.argument_type<parameter>, ttcore.shard_status = #ttcore.shard_status<unsharded>, ttir.name = "l__self___model_layers__modules__0___post_attention_layernorm_weight"} loc("p13.196"), %arg14: tensor<2048x2048xbf16> {ttcore.argument_type = #ttcore.argument_type<parameter>, ttcore.shard_status = #ttcore.shard_status<unsharded>, ttir.name = "l__self___model_layers__modules__0___self_attn_o_proj_weight"} loc("p14.208"), %arg15: tensor<2048x2048xbf16> {ttcore.argument_type = #ttcore.argument_type<parameter>, ttcore.shard_status = #ttcore.shard_status<unsharded>, ttir.name = "l__self___model_layers__modules__0___self_attn_q_proj_weight"} loc("p15.258"), %arg16: tensor<16384x2048xbf16> {ttcore.argument_type = #ttcore.argument_type<parameter>, ttcore.shard_status = #ttcore.shard_status<unsharded>, ttir.name = "l__self___model_layers__modules__0___mlp_gate_proj_weight"} loc("p16.355")) -> (tensor<32x1x128x256xbf16> {ttcore.shard_status = #ttcore.shard_status<unsharded>}, tensor<32x1x128x256xbf16> {ttcore.shard_status = #ttcore.shard_status<unsharded>}, tensor<32x256000xbf16> {ttcore.shard_status = #ttcore.shard_status<unsharded>}, tensor<32x1x256000xbf16> {ttcore.shard_status = #ttcore.shard_status<unsharded>}) {
        %0 = "ttir.constant"() <{value = dense<"…"> : tensor<1x128xi64>}> : () -> tensor<1x128xi64> loc(#loc)
        %1 = "ttir.constant"() <{value = dense<-3.389530e+38> : tensor<1x128xbf16>}> : () -> tensor<1x128xbf16> loc(#loc)
        %2 = "ttir.constant"() <{value = dense<6.250000e-02> : tensor<32x8x1x128xbf16>}> : () -> tensor<32x8x1x128xbf16> loc(#loc)
        %3 = "ttir.constant"() <{value = dense<1.000000e+00> : tensor<2048xf32>}> : () -> tensor<2048xf32> loc(#loc)
        %4 = "ttir.constant"() <{value = dense<9.99999997E-7> : tensor<32x1x1xf32>}> : () -> tensor<32x1x1xf32> loc(#loc)
        %5 = "ttir.constant"() <{value = dense<4.8828125E-4> : tensor<32x1xf32>}> : () -> tensor<32x1xf32> loc(#loc)
        %6 = "ttir.constant"() <{value = dense<2.000000e+00> : tensor<32x1x2048xf32>}> : () -> tensor<32x1x2048xf32> loc(#loc)
        %7 = "ttir.constant"() <{value = dense<4.525000e+01> : tensor<32x1x2048xbf16>}> : () -> tensor<32x1x2048xbf16> loc(#loc)
        %8 = "ttir.constant"() <{value = dense<128> : tensor<1xi64>}> : () -> tensor<1xi64> loc(#loc)
        %9 = "ttir.constant"() <{value = dense<0> : tensor<1xi64>}> : () -> tensor<1xi64> loc(#loc)
        %10 = "ttir.reshape"(%arg0) <{shape = [1 : i32, 1 : i32, 1 : i32]}> : (tensor<1xi64>) -> tensor<1x1x1xi64> loc(#loc18)
        %11 = "ttir.reshape"(%10) <{shape = [1 : i32]}> : (tensor<1x1x1xi64>) -> tensor<1xi64> loc(#loc19)
        %12 = "ttir.lt"(%11, %9) : (tensor<1xi64>, tensor<1xi64>) -> tensor<1xi1> loc(#loc20)
        %13 = "ttir.add"(%11, %8) : (tensor<1xi64>, tensor<1xi64>) -> tensor<1xi64> loc(#loc21)
        %14 = "ttir.where"(%12, %13, %11) : (tensor<1xi1>, tensor<1xi64>, tensor<1xi64>) -> tensor<1xi64> loc(#loc22)
        %15 = "ttir.reshape"(%arg5) <{shape = [1 : i32, 256000 : i32, 2048 : i32]}> : (tensor<256000x2048xbf16>) -> tensor<1x256000x2048xbf16> loc(#loc23)
        %16 = "ttir.reshape"(%15) <{shape = [256000 : i32, 2048 : i32]}> : (tensor<1x256000x2048xbf16>) -> tensor<256000x2048xbf16> loc(#loc24)
        %17 = "ttir.reshape"(%arg4) <{shape = [1 : i32, 32 : i32, 1 : i32]}> : (tensor<32x1xi64>) -> tensor<1x32x1xi64> loc(#loc25)
        %18 = "ttir.reshape"(%17) <{shape = [32 : i32]}> : (tensor<1x32x1xi64>) -> tensor<32xi64> loc(#loc26)
        %19 = "ttir.typecast"(%18) <{conservative_folding = false}> : (tensor<32xi64>) -> tensor<32xui32> loc(#loc27)
        %20 = "ttir.gather"(%16, %19) <{collapsed_slice_dims = array<i64: 0>, index_vector_dim = 1 : si64, indices_are_sorted = false, offset_dims = array<i64: 1>, operand_batching_dims = array<i64>, slice_sizes = array<i64: 1, 2048>, start_index_map = array<i64: 0>, start_indices_batching_dims = array<i64>}> : (tensor<256000x2048xbf16>, tensor<32xui32>) -> tensor<32x2048xbf16> loc(#loc28)
        %21 = "ttir.reshape"(%20) <{shape = [32 : i32, 1 : i32, 2048 : i32]}> : (tensor<32x2048xbf16>) -> tensor<32x1x2048xbf16> loc(#loc29)
        %22 = "ttir.multiply"(%21, %7) : (tensor<32x1x2048xbf16>, tensor<32x1x2048xbf16>) -> tensor<32x1x2048xbf16> loc(#loc30)
        %23 = "ttir.typecast"(%22) <{conservative_folding = false}> : (tensor<32x1x2048xbf16>) -> tensor<32x1x2048xf32> loc(#loc31)
        %24 = "ttir.pow"(%23, %6) : (tensor<32x1x2048xf32>, tensor<32x1x2048xf32>) -> tensor<32x1x2048xf32> loc(#loc32)
        %25 = "ttir.sum"(%24) <{dim_arg = [2 : i32], keep_dim = false}> : (tensor<32x1x2048xf32>) -> tensor<32x1xf32> loc(#loc33)
        %26 = "ttir.multiply"(%25, %5) : (tensor<32x1xf32>, tensor<32x1xf32>) -> tensor<32x1xf32> loc(#loc34)
        %27 = "ttir.reshape"(%26) <{shape = [32 : i32, 1 : i32, 1 : i32]}> : (tensor<32x1xf32>) -> tensor<32x1x1xf32> loc(#loc35)
        %28 = "ttir.add"(%27, %4) : (tensor<32x1x1xf32>, tensor<32x1x1xf32>) -> tensor<32x1x1xf32> loc(#loc36)
        %29 = "ttir.rsqrt"(%28) : (tensor<32x1x1xf32>) -> tensor<32x1x1xf32> loc(#loc37)
        %30 = "ttir.reshape"(%29) <{shape = [32 : i32, 1 : i32]}> : (tensor<32x1x1xf32>) -> tensor<32x1xf32> loc(#loc38)
        %31 = "ttir.reshape"(%30) <{shape = [32 : i32, 1 : i32, 1 : i32]}> : (tensor<32x1xf32>) -> tensor<32x1x1xf32> loc(#loc39)
        %32 = "ttir.broadcast"(%31) <{broadcast_dimensions = array<i64: 1, 1, 2048>}> : (tensor<32x1x1xf32>) -> tensor<32x1x2048xf32> loc(#loc39)
        %33 = "ttir.multiply"(%23, %32) : (tensor<32x1x2048xf32>, tensor<32x1x2048xf32>) -> tensor<32x1x2048xf32> loc(#loc40)
        %34 = "ttir.reshape"(%arg3) <{shape = [1 : i32, 1 : i32, 2048 : i32]}> : (tensor<2048xbf16>) -> tensor<1x1x2048xbf16> loc(#loc41)
        %35 = "ttir.reshape"(%34) <{shape = [2048 : i32]}> : (tensor<1x1x2048xbf16>) -> tensor<2048xbf16> loc(#loc42)
        %36 = "ttir.typecast"(%35) <{conservative_folding = false}> : (tensor<2048xbf16>) -> tensor<2048xf32> loc(#loc43)
        %37 = "ttir.add"(%36, %3) : (tensor<2048xf32>, tensor<2048xf32>) -> tensor<2048xf32> loc(#loc44)
        %38 = "ttir.reshape"(%37) <{shape = [1 : i32, 1 : i32, 2048 : i32]}> : (tensor<2048xf32>) -> tensor<1x1x2048xf32> loc(#loc45)
        %39 = "ttir.broadcast"(%38) <{broadcast_dimensions = array<i64: 32, 1, 1>}> : (tensor<1x1x2048xf32>) -> tensor<32x1x2048xf32> loc(#loc45)
        %40 = "ttir.multiply"(%33, %39) : (tensor<32x1x2048xf32>, tensor<32x1x2048xf32>) -> tensor<32x1x2048xf32> loc(#loc46)
        %41 = "ttir.typecast"(%40) <{conservative_folding = false}> : (tensor<32x1x2048xf32>) -> tensor<32x1x2048xbf16> loc(#loc47)
        %42 = "ttir.reshape"(%41) <{shape = [32 : i32, 2048 : i32]}> : (tensor<32x1x2048xbf16>) -> tensor<32x2048xbf16> loc(#loc48)
        %43 = "ttir.reshape"(%arg2) <{shape = [1 : i32, 256 : i32, 2048 : i32]}> : (tensor<256x2048xbf16>) -> tensor<1x256x2048xbf16> loc(#loc49)
        %44 = "ttir.reshape"(%43) <{shape = [256 : i32, 2048 : i32]}> : (tensor<1x256x2048xbf16>) -> tensor<256x2048xbf16> loc(#loc50)
        %45 = "ttir.permute"(%44) <{permutation = array<i64: 1, 0>}> : (tensor<256x2048xbf16>) -> tensor<2048x256xbf16> loc(#loc51)
        %46 = "ttir.dot_general"(%42, %45) <{batch_dims_lhs = array<i64>, batch_dims_rhs = array<i64>, contract_dims_lhs = array<i64: 1>, contract_dims_rhs = array<i64: 0>}> : (tensor<32x2048xbf16>, tensor<2048x256xbf16>) -> tensor<32x256xbf16> loc(#loc52)
        %47 = "ttir.reshape"(%46) <{shape = [32 : i32, 1 : i32, 1 : i32, 256 : i32]}> : (tensor<32x256xbf16>) -> tensor<32x1x1x256xbf16> loc(#loc53)
        %48 = "ttir.reshape"(%arg1) <{shape = [1 : i32, 1 : i32, 128 : i32]}> : (tensor<128xbf16>) -> tensor<1x1x128xbf16> loc(#loc54)
        %49 = "ttir.reshape"(%48) <{shape = [1 : i32, 128 : i32, 1 : i32]}> : (tensor<1x1x128xbf16>) -> tensor<1x128x1xbf16> loc(#loc55)
        %50 = "ttir.typecast"(%49) <{conservative_folding = false}> : (tensor<1x128x1xbf16>) -> tensor<1x128x1xf32> loc(#loc56)
        %51 = "ttir.typecast"(%10) <{conservative_folding = false}> : (tensor<1x1x1xi64>) -> tensor<1x1x1xf32> loc(#loc57)
        %52 = "ttir.dot_general"(%50, %51) <{batch_dims_lhs = array<i64: 0>, batch_dims_rhs = array<i64: 0>, contract_dims_lhs = array<i64: 2>, contract_dims_rhs = array<i64: 1>}> : (tensor<1x128x1xf32>, tensor<1x1x1xf32>) -> tensor<1x128x1xf32> loc(#loc58)
        %53 = "ttir.reshape"(%52) <{shape = [1 : i32, 1 : i32, 128 : i32]}> : (tensor<1x128x1xf32>) -> tensor<1x1x128xf32> loc(#loc59)
        %54 = "ttir.concat"(%53, %53) <{dim = 2 : si32}> : (tensor<1x1x128xf32>, tensor<1x1x128xf32>) -> tensor<1x1x256xf32> loc(#loc60)
        %55 = "ttir.cos"(%54) : (tensor<1x1x256xf32>) -> tensor<1x1x256xf32> loc(#loc61)
        %56 = "ttir.typecast"(%55) <{conservative_folding = false}> : (tensor<1x1x256xf32>) -> tensor<1x1x256xbf16> loc(#loc62)
        %57 = "ttir.reshape"(%56) <{shape = [1 : i32, 1 : i32, 1 : i32, 256 : i32]}> : (tensor<1x1x256xbf16>) -> tensor<1x1x1x256xbf16> loc(#loc63)
        %58 = "ttir.broadcast"(%57) <{broadcast_dimensions = array<i64: 32, 1, 1, 1>}> : (tensor<1x1x1x256xbf16>) -> tensor<32x1x1x256xbf16> loc(#loc63)
        %59 = "ttir.multiply"(%47, %58) : (tensor<32x1x1x256xbf16>, tensor<32x1x1x256xbf16>) -> tensor<32x1x1x256xbf16> loc(#loc64)
        %60 = "ttir.slice_static"(%47) <{begins = [0 : i32, 0 : i32, 0 : i32, 128 : i32], ends = [32 : i32, 1 : i32, 1 : i32, 256 : i32], step = [1 : i32, 1 : i32, 1 : i32, 1 : i32]}> : (tensor<32x1x1x256xbf16>) -> tensor<32x1x1x128xbf16> loc(#loc65)
        %61 = "ttir.neg"(%60) : (tensor<32x1x1x128xbf16>) -> tensor<32x1x1x128xbf16> loc(#loc66)
        %62 = "ttir.slice_static"(%47) <{begins = [0 : i32, 0 : i32, 0 : i32, 0 : i32], ends = [32 : i32, 1 : i32, 1 : i32, 128 : i32], step = [1 : i32, 1 : i32, 1 : i32, 1 : i32]}> : (tensor<32x1x1x256xbf16>) -> tensor<32x1x1x128xbf16> loc(#loc67)
        %63 = "ttir.concat"(%61, %62) <{dim = 3 : si32}> : (tensor<32x1x1x128xbf16>, tensor<32x1x1x128xbf16>) -> tensor<32x1x1x256xbf16> loc(#loc68)
        %64 = "ttir.sin"(%54) : (tensor<1x1x256xf32>) -> tensor<1x1x256xf32> loc(#loc69)
        %65 = "ttir.typecast"(%64) <{conservative_folding = false}> : (tensor<1x1x256xf32>) -> tensor<1x1x256xbf16> loc(#loc70)
        %66 = "ttir.reshape"(%65) <{shape = [1 : i32, 1 : i32, 1 : i32, 256 : i32]}> : (tensor<1x1x256xbf16>) -> tensor<1x1x1x256xbf16> loc(#loc71)
        %67 = "ttir.broadcast"(%66) <{broadcast_dimensions = array<i64: 32, 1, 1, 1>}> : (tensor<1x1x1x256xbf16>) -> tensor<32x1x1x256xbf16> loc(#loc71)
        %68 = "ttir.multiply"(%63, %67) : (tensor<32x1x1x256xbf16>, tensor<32x1x1x256xbf16>) -> tensor<32x1x1x256xbf16> loc(#loc72)
        %69 = "ttir.add"(%59, %68) : (tensor<32x1x1x256xbf16>, tensor<32x1x1x256xbf16>) -> tensor<32x1x1x256xbf16> loc(#loc73)
        %70 = "ttir.permute"(%69) <{permutation = array<i64: 2, 1, 0, 3>}> : (tensor<32x1x1x256xbf16>) -> tensor<1x1x32x256xbf16> loc(#loc74)
        %71 = "ttir.update_cache"(%arg6, %70, %arg0) <{batch_offset = 0 : i32}> : (tensor<32x1x128x256xbf16>, tensor<1x1x32x256xbf16>, tensor<1xi64>) -> tensor<32x1x128x256xbf16> loc(#loc74)
        %72 = "ttir.reshape"(%arg7) <{shape = [1 : i32, 256 : i32, 2048 : i32]}> : (tensor<256x2048xbf16>) -> tensor<1x256x2048xbf16> loc(#loc75)
        %73 = "ttir.reshape"(%72) <{shape = [256 : i32, 2048 : i32]}> : (tensor<1x256x2048xbf16>) -> tensor<256x2048xbf16> loc(#loc76)
        %74 = "ttir.permute"(%73) <{permutation = array<i64: 1, 0>}> : (tensor<256x2048xbf16>) -> tensor<2048x256xbf16> loc(#loc77)
        %75 = "ttir.dot_general"(%42, %74) <{batch_dims_lhs = array<i64>, batch_dims_rhs = array<i64>, contract_dims_lhs = array<i64: 1>, contract_dims_rhs = array<i64: 0>}> : (tensor<32x2048xbf16>, tensor<2048x256xbf16>) -> tensor<32x256xbf16> loc(#loc78)
        %76 = "ttir.reshape"(%75) <{shape = [32 : i32, 1 : i32, 1 : i32, 256 : i32]}> : (tensor<32x256xbf16>) -> tensor<32x1x1x256xbf16> loc(#loc79)
        %77 = "ttir.permute"(%76) <{permutation = array<i64: 2, 1, 0, 3>}> : (tensor<32x1x1x256xbf16>) -> tensor<1x1x32x256xbf16> loc(#loc80)
        %78 = "ttir.update_cache"(%arg8, %77, %arg0) <{batch_offset = 0 : i32}> : (tensor<32x1x128x256xbf16>, tensor<1x1x32x256xbf16>, tensor<1xi64>) -> tensor<32x1x128x256xbf16> loc(#loc80)
        %79 = "ttir.reshape"(%arg15) <{shape = [1 : i32, 2048 : i32, 2048 : i32]}> : (tensor<2048x2048xbf16>) -> tensor<1x2048x2048xbf16> loc(#loc81)
        %80 = "ttir.reshape"(%79) <{shape = [2048 : i32, 2048 : i32]}> : (tensor<1x2048x2048xbf16>) -> tensor<2048x2048xbf16> loc(#loc82)
        %81 = "ttir.permute"(%80) <{permutation = array<i64: 1, 0>}> : (tensor<2048x2048xbf16>) -> tensor<2048x2048xbf16> loc(#loc83)
        %82 = "ttir.dot_general"(%42, %81) <{batch_dims_lhs = array<i64>, batch_dims_rhs = array<i64>, contract_dims_lhs = array<i64: 1>, contract_dims_rhs = array<i64: 0>}> : (tensor<32x2048xbf16>, tensor<2048x2048xbf16>) -> tensor<32x2048xbf16> loc(#loc84)
        %83 = "ttir.reshape"(%82) <{shape = [32 : i32, 8 : i32, 1 : i32, 256 : i32]}> : (tensor<32x2048xbf16>) -> tensor<32x8x1x256xbf16> loc(#loc85)
        %84 = "ttir.reshape"(%56) <{shape = [1 : i32, 256 : i32]}> : (tensor<1x1x256xbf16>) -> tensor<1x256xbf16> loc(#loc86)
        %85 = "ttir.reshape"(%84) <{shape = [1 : i32, 1 : i32, 1 : i32, 256 : i32]}> : (tensor<1x256xbf16>) -> tensor<1x1x1x256xbf16> loc(#loc87)
        %86 = "ttir.broadcast"(%85) <{broadcast_dimensions = array<i64: 32, 8, 1, 1>}> : (tensor<1x1x1x256xbf16>) -> tensor<32x8x1x256xbf16> loc(#loc87)
        %87 = "ttir.multiply"(%83, %86) : (tensor<32x8x1x256xbf16>, tensor<32x8x1x256xbf16>) -> tensor<32x8x1x256xbf16> loc(#loc88)
        %88 = "ttir.slice_static"(%83) <{begins = [0 : i32, 0 : i32, 0 : i32, 128 : i32], ends = [32 : i32, 8 : i32, 1 : i32, 256 : i32], step = [1 : i32, 1 : i32, 1 : i32, 1 : i32]}> : (tensor<32x8x1x256xbf16>) -> tensor<32x8x1x128xbf16> loc(#loc89)
        %89 = "ttir.neg"(%88) : (tensor<32x8x1x128xbf16>) -> tensor<32x8x1x128xbf16> loc(#loc90)
        %90 = "ttir.slice_static"(%83) <{begins = [0 : i32, 0 : i32, 0 : i32, 0 : i32], ends = [32 : i32, 8 : i32, 1 : i32, 128 : i32], step = [1 : i32, 1 : i32, 1 : i32, 1 : i32]}> : (tensor<32x8x1x256xbf16>) -> tensor<32x8x1x128xbf16> loc(#loc91)
        %91 = "ttir.concat"(%89, %90) <{dim = 3 : si32}> : (tensor<32x8x1x128xbf16>, tensor<32x8x1x128xbf16>) -> tensor<32x8x1x256xbf16> loc(#loc92)
        %92 = "ttir.reshape"(%65) <{shape = [1 : i32, 256 : i32]}> : (tensor<1x1x256xbf16>) -> tensor<1x256xbf16> loc(#loc93)
        %93 = "ttir.reshape"(%92) <{shape = [1 : i32, 1 : i32, 1 : i32, 256 : i32]}> : (tensor<1x256xbf16>) -> tensor<1x1x1x256xbf16> loc(#loc94)
        %94 = "ttir.broadcast"(%93) <{broadcast_dimensions = array<i64: 32, 8, 1, 1>}> : (tensor<1x1x1x256xbf16>) -> tensor<32x8x1x256xbf16> loc(#loc94)
        %95 = "ttir.multiply"(%91, %94) : (tensor<32x8x1x256xbf16>, tensor<32x8x1x256xbf16>) -> tensor<32x8x1x256xbf16> loc(#loc95)
        %96 = "ttir.add"(%87, %95) : (tensor<32x8x1x256xbf16>, tensor<32x8x1x256xbf16>) -> tensor<32x8x1x256xbf16> loc(#loc96)
        %97 = "ttir.reshape"(%71) <{shape = [32 : i32, 1 : i32, 1 : i32, 128 : i32, 256 : i32]}> : (tensor<32x1x128x256xbf16>) -> tensor<32x1x1x128x256xbf16> loc(#loc97)
        %98 = "ttir.broadcast"(%97) <{broadcast_dimensions = array<i64: 1, 1, 8, 1, 1>}> : (tensor<32x1x1x128x256xbf16>) -> tensor<32x1x8x128x256xbf16> loc(#loc97)
        %99 = "ttir.reshape"(%98) <{shape = [32 : i32, 8 : i32, 128 : i32, 256 : i32]}> : (tensor<32x1x8x128x256xbf16>) -> tensor<32x8x128x256xbf16> loc(#loc98)
        %100 = "ttir.permute"(%99) <{permutation = array<i64: 0, 1, 3, 2>}> : (tensor<32x8x128x256xbf16>) -> tensor<32x8x256x128xbf16> loc(#loc99)
        %101 = "ttir.dot_general"(%96, %100) <{batch_dims_lhs = array<i64: 0, 1>, batch_dims_rhs = array<i64: 0, 1>, contract_dims_lhs = array<i64: 3>, contract_dims_rhs = array<i64: 2>}> : (tensor<32x8x1x256xbf16>, tensor<32x8x256x128xbf16>) -> tensor<32x8x1x128xbf16> loc(#loc100)
        %102 = "ttir.multiply"(%101, %2) : (tensor<32x8x1x128xbf16>, tensor<32x8x1x128xbf16>) -> tensor<32x8x1x128xbf16> loc(#loc101)
        %103 = "ttir.reshape"(%11) <{shape = [1 : i32, 1 : i32]}> : (tensor<1xi64>) -> tensor<1x1xi64> loc(#loc102)
        %104 = "ttir.broadcast"(%103) <{broadcast_dimensions = array<i64: 1, 128>}> : (tensor<1x1xi64>) -> tensor<1x128xi64> loc(#loc102)
        %105 = "ttir.gt"(%0, %104) : (tensor<1x128xi64>, tensor<1x128xi64>) -> tensor<1x128xi1> loc(#loc103)
        %106 = "ttir.typecast"(%105) <{conservative_folding = false}> : (tensor<1x128xi1>) -> tensor<1x128xbf16> loc(#loc104)
        %107 = "ttir.multiply"(%106, %1) : (tensor<1x128xbf16>, tensor<1x128xbf16>) -> tensor<1x128xbf16> loc(#loc105)
        %108 = "ttir.reshape"(%107) <{shape = [1 : i32, 1 : i32, 128 : i32]}> : (tensor<1x128xbf16>) -> tensor<1x1x128xbf16> loc(#loc106)
        %109 = "ttir.reshape"(%108) <{shape = [1 : i32, 1 : i32, 1 : i32, 128 : i32]}> : (tensor<1x1x128xbf16>) -> tensor<1x1x1x128xbf16> loc(#loc107)
        %110 = "ttir.broadcast"(%109) <{broadcast_dimensions = array<i64: 32, 1, 1, 1>}> : (tensor<1x1x1x128xbf16>) -> tensor<32x1x1x128xbf16> loc(#loc107)
        %111 = "ttir.reshape"(%110) <{shape = [32 : i32, 1 : i32, 128 : i32]}> : (tensor<32x1x1x128xbf16>) -> tensor<32x1x128xbf16> loc(#loc108)
        %112 = "ttir.reshape"(%111) <{shape = [32 : i32, 1 : i32, 1 : i32, 128 : i32]}> : (tensor<32x1x128xbf16>) -> tensor<32x1x1x128xbf16> loc(#loc109)
        %113 = "ttir.broadcast"(%112) <{broadcast_dimensions = array<i64: 1, 8, 1, 1>}> : (tensor<32x1x1x128xbf16>) -> tensor<32x8x1x128xbf16> loc(#loc109)
        %114 = "ttir.add"(%102, %113) : (tensor<32x8x1x128xbf16>, tensor<32x8x1x128xbf16>) -> tensor<32x8x1x128xbf16> loc(#loc110)
        %115 = "ttir.typecast"(%114) <{conservative_folding = false}> : (tensor<32x8x1x128xbf16>) -> tensor<32x8x1x128xf32> loc(#loc111)
        %116 = "ttir.max"(%115) <{dim_arg = [3 : i32], keep_dim = false}> : (tensor<32x8x1x128xf32>) -> tensor<32x8x1xf32> loc(#loc112)
        %117 = "ttir.reshape"(%116) <{shape = [32 : i32, 8 : i32, 1 : i32, 1 : i32]}> : (tensor<32x8x1xf32>) -> tensor<32x8x1x1xf32> loc(#loc113)
        %118 = "ttir.broadcast"(%117) <{broadcast_dimensions = array<i64: 1, 1, 1, 128>}> : (tensor<32x8x1x1xf32>) -> tensor<32x8x1x128xf32> loc(#loc113)
        %119 = "ttir.subtract"(%115, %118) : (tensor<32x8x1x128xf32>, tensor<32x8x1x128xf32>) -> tensor<32x8x1x128xf32> loc(#loc114)
        %120 = "ttir.exp"(%119) : (tensor<32x8x1x128xf32>) -> tensor<32x8x1x128xf32> loc(#loc115)
        %121 = "ttir.sum"(%120) <{dim_arg = [3 : i32], keep_dim = false}> : (tensor<32x8x1x128xf32>) -> tensor<32x8x1xf32> loc(#loc116)
        %122 = "ttir.reshape"(%121) <{shape = [32 : i32, 8 : i32, 1 : i32, 1 : i32]}> : (tensor<32x8x1xf32>) -> tensor<32x8x1x1xf32> loc(#loc117)
        %123 = "ttir.broadcast"(%122) <{broadcast_dimensions = array<i64: 1, 1, 1, 128>}> : (tensor<32x8x1x1xf32>) -> tensor<32x8x1x128xf32> loc(#loc117)
        %124 = "ttir.div"(%120, %123) : (tensor<32x8x1x128xf32>, tensor<32x8x1x128xf32>) -> tensor<32x8x1x128xf32> loc(#loc118)
        %125 = "ttir.typecast"(%124) <{conservative_folding = false}> : (tensor<32x8x1x128xf32>) -> tensor<32x8x1x128xbf16> loc(#loc119)
        %126 = "ttir.reshape"(%78) <{shape = [32 : i32, 1 : i32, 1 : i32, 128 : i32, 256 : i32]}> : (tensor<32x1x128x256xbf16>) -> tensor<32x1x1x128x256xbf16> loc(#loc120)
        %127 = "ttir.broadcast"(%126) <{broadcast_dimensions = array<i64: 1, 1, 8, 1, 1>}> : (tensor<32x1x1x128x256xbf16>) -> tensor<32x1x8x128x256xbf16> loc(#loc120)
        %128 = "ttir.reshape"(%127) <{shape = [32 : i32, 8 : i32, 128 : i32, 256 : i32]}> : (tensor<32x1x8x128x256xbf16>) -> tensor<32x8x128x256xbf16> loc(#loc121)
        %129 = "ttir.dot_general"(%125, %128) <{batch_dims_lhs = array<i64: 0, 1>, batch_dims_rhs = array<i64: 0, 1>, contract_dims_lhs = array<i64: 3>, contract_dims_rhs = array<i64: 2>}> : (tensor<32x8x1x128xbf16>, tensor<32x8x128x256xbf16>) -> tensor<32x8x1x256xbf16> loc(#loc122)
        %130 = "ttir.reshape"(%129) <{shape = [32 : i32, 2048 : i32]}> : (tensor<32x8x1x256xbf16>) -> tensor<32x2048xbf16> loc(#loc123)
        %131 = "ttir.reshape"(%arg14) <{shape = [1 : i32, 2048 : i32, 2048 : i32]}> : (tensor<2048x2048xbf16>) -> tensor<1x2048x2048xbf16> loc(#loc124)
        %132 = "ttir.reshape"(%131) <{shape = [2048 : i32, 2048 : i32]}> : (tensor<1x2048x2048xbf16>) -> tensor<2048x2048xbf16> loc(#loc125)
        %133 = "ttir.permute"(%132) <{permutation = array<i64: 1, 0>}> : (tensor<2048x2048xbf16>) -> tensor<2048x2048xbf16> loc(#loc126)
        %134 = "ttir.dot_general"(%130, %133) <{batch_dims_lhs = array<i64>, batch_dims_rhs = array<i64>, contract_dims_lhs = array<i64: 1>, contract_dims_rhs = array<i64: 0>}> : (tensor<32x2048xbf16>, tensor<2048x2048xbf16>) -> tensor<32x2048xbf16> loc(#loc127)
        %135 = "ttir.reshape"(%134) <{shape = [32 : i32, 1 : i32, 2048 : i32]}> : (tensor<32x2048xbf16>) -> tensor<32x1x2048xbf16> loc(#loc128)
        %136 = "ttir.add"(%22, %135) : (tensor<32x1x2048xbf16>, tensor<32x1x2048xbf16>) -> tensor<32x1x2048xbf16> loc(#loc129)
        %137 = "ttir.typecast"(%136) <{conservative_folding = false}> : (tensor<32x1x2048xbf16>) -> tensor<32x1x2048xf32> loc(#loc130)
        %138 = "ttir.pow"(%137, %6) : (tensor<32x1x2048xf32>, tensor<32x1x2048xf32>) -> tensor<32x1x2048xf32> loc(#loc131)
        %139 = "ttir.sum"(%138) <{dim_arg = [2 : i32], keep_dim = false}> : (tensor<32x1x2048xf32>) -> tensor<32x1xf32> loc(#loc132)
        %140 = "ttir.multiply"(%139, %5) : (tensor<32x1xf32>, tensor<32x1xf32>) -> tensor<32x1xf32> loc(#loc133)
        %141 = "ttir.reshape"(%140) <{shape = [32 : i32, 1 : i32, 1 : i32]}> : (tensor<32x1xf32>) -> tensor<32x1x1xf32> loc(#loc134)
        %142 = "ttir.add"(%141, %4) : (tensor<32x1x1xf32>, tensor<32x1x1xf32>) -> tensor<32x1x1xf32> loc(#loc135)
        %143 = "ttir.rsqrt"(%142) : (tensor<32x1x1xf32>) -> tensor<32x1x1xf32> loc(#loc136)
        %144 = "ttir.reshape"(%143) <{shape = [32 : i32, 1 : i32]}> : (tensor<32x1x1xf32>) -> tensor<32x1xf32> loc(#loc137)
        %145 = "ttir.reshape"(%144) <{shape = [32 : i32, 1 : i32, 1 : i32]}> : (tensor<32x1xf32>) -> tensor<32x1x1xf32> loc(#loc138)
        %146 = "ttir.broadcast"(%145) <{broadcast_dimensions = array<i64: 1, 1, 2048>}> : (tensor<32x1x1xf32>) -> tensor<32x1x2048xf32> loc(#loc138)
        %147 = "ttir.multiply"(%137, %146) : (tensor<32x1x2048xf32>, tensor<32x1x2048xf32>) -> tensor<32x1x2048xf32> loc(#loc139)
        %148 = "ttir.reshape"(%arg13) <{shape = [1 : i32, 1 : i32, 2048 : i32]}> : (tensor<2048xbf16>) -> tensor<1x1x2048xbf16> loc(#loc140)
        %149 = "ttir.reshape"(%148) <{shape = [2048 : i32]}> : (tensor<1x1x2048xbf16>) -> tensor<2048xbf16> loc(#loc141)
        %150 = "ttir.typecast"(%149) <{conservative_folding = false}> : (tensor<2048xbf16>) -> tensor<2048xf32> loc(#loc142)
        %151 = "ttir.add"(%150, %3) : (tensor<2048xf32>, tensor<2048xf32>) -> tensor<2048xf32> loc(#loc143)
        %152 = "ttir.reshape"(%151) <{shape = [1 : i32, 1 : i32, 2048 : i32]}> : (tensor<2048xf32>) -> tensor<1x1x2048xf32> loc(#loc144)
        %153 = "ttir.broadcast"(%152) <{broadcast_dimensions = array<i64: 32, 1, 1>}> : (tensor<1x1x2048xf32>) -> tensor<32x1x2048xf32> loc(#loc144)
        %154 = "ttir.multiply"(%147, %153) : (tensor<32x1x2048xf32>, tensor<32x1x2048xf32>) -> tensor<32x1x2048xf32> loc(#loc145)
        %155 = "ttir.typecast"(%154) <{conservative_folding = false}> : (tensor<32x1x2048xf32>) -> tensor<32x1x2048xbf16> loc(#loc146)
        %156 = "ttir.reshape"(%155) <{shape = [32 : i32, 2048 : i32]}> : (tensor<32x1x2048xbf16>) -> tensor<32x2048xbf16> loc(#loc147)
        %157 = "ttir.reshape"(%arg16) <{shape = [1 : i32, 16384 : i32, 2048 : i32]}> : (tensor<16384x2048xbf16>) -> tensor<1x16384x2048xbf16> loc(#loc148)
        %158 = "ttir.reshape"(%157) <{shape = [16384 : i32, 2048 : i32]}> : (tensor<1x16384x2048xbf16>) -> tensor<16384x2048xbf16> loc(#loc149)
        %159 = "ttir.permute"(%158) <{permutation = array<i64: 1, 0>}> : (tensor<16384x2048xbf16>) -> tensor<2048x16384xbf16> loc(#loc150)
        %160 = "ttir.dot_general"(%156, %159) <{batch_dims_lhs = array<i64>, batch_dims_rhs = array<i64>, contract_dims_lhs = array<i64: 1>, contract_dims_rhs = array<i64: 0>}> : (tensor<32x2048xbf16>, tensor<2048x16384xbf16>) -> tensor<32x16384xbf16> loc(#loc151)
        %161 = "ttir.reshape"(%160) <{shape = [32 : i32, 1 : i32, 16384 : i32]}> : (tensor<32x16384xbf16>) -> tensor<32x1x16384xbf16> loc(#loc152)
        %162 = "ttir.gelu"(%161) {approximate = "tanh"} : (tensor<32x1x16384xbf16>) -> tensor<32x1x16384xbf16> loc(#loc153)
        %163 = "ttir.reshape"(%arg12) <{shape = [1 : i32, 16384 : i32, 2048 : i32]}> : (tensor<16384x2048xbf16>) -> tensor<1x16384x2048xbf16> loc(#loc154)
        %164 = "ttir.reshape"(%163) <{shape = [16384 : i32, 2048 : i32]}> : (tensor<1x16384x2048xbf16>) -> tensor<16384x2048xbf16> loc(#loc155)
        %165 = "ttir.permute"(%164) <{permutation = array<i64: 1, 0>}> : (tensor<16384x2048xbf16>) -> tensor<2048x16384xbf16> loc(#loc156)
        %166 = "ttir.dot_general"(%156, %165) <{batch_dims_lhs = array<i64>, batch_dims_rhs = array<i64>, contract_dims_lhs = array<i64: 1>, contract_dims_rhs = array<i64: 0>}> : (tensor<32x2048xbf16>, tensor<2048x16384xbf16>) -> tensor<32x16384xbf16> loc(#loc157)
        %167 = "ttir.reshape"(%166) <{shape = [32 : i32, 1 : i32, 16384 : i32]}> : (tensor<32x16384xbf16>) -> tensor<32x1x16384xbf16> loc(#loc158)
        %168 = "ttir.multiply"(%162, %167) : (tensor<32x1x16384xbf16>, tensor<32x1x16384xbf16>) -> tensor<32x1x16384xbf16> loc(#loc159)
        %169 = "ttir.reshape"(%168) <{shape = [32 : i32, 16384 : i32]}> : (tensor<32x1x16384xbf16>) -> tensor<32x16384xbf16> loc(#loc160)
        %170 = "ttir.reshape"(%arg11) <{shape = [1 : i32, 2048 : i32, 16384 : i32]}> : (tensor<2048x16384xbf16>) -> tensor<1x2048x16384xbf16> loc(#loc161)
        %171 = "ttir.reshape"(%170) <{shape = [2048 : i32, 16384 : i32]}> : (tensor<1x2048x16384xbf16>) -> tensor<2048x16384xbf16> loc(#loc162)
        %172 = "ttir.permute"(%171) <{permutation = array<i64: 1, 0>}> : (tensor<2048x16384xbf16>) -> tensor<16384x2048xbf16> loc(#loc163)
        %173 = "ttir.dot_general"(%169, %172) <{batch_dims_lhs = array<i64>, batch_dims_rhs = array<i64>, contract_dims_lhs = array<i64: 1>, contract_dims_rhs = array<i64: 0>}> : (tensor<32x16384xbf16>, tensor<16384x2048xbf16>) -> tensor<32x2048xbf16> loc(#loc164)
        %174 = "ttir.reshape"(%173) <{shape = [32 : i32, 1 : i32, 2048 : i32]}> : (tensor<32x2048xbf16>) -> tensor<32x1x2048xbf16> loc(#loc165)
        %175 = "ttir.add"(%136, %174) : (tensor<32x1x2048xbf16>, tensor<32x1x2048xbf16>) -> tensor<32x1x2048xbf16> loc(#loc166)
        %176 = "ttir.typecast"(%175) <{conservative_folding = false}> : (tensor<32x1x2048xbf16>) -> tensor<32x1x2048xf32> loc(#loc167)
        %177 = "ttir.pow"(%176, %6) : (tensor<32x1x2048xf32>, tensor<32x1x2048xf32>) -> tensor<32x1x2048xf32> loc(#loc168)
        %178 = "ttir.sum"(%177) <{dim_arg = [2 : i32], keep_dim = false}> : (tensor<32x1x2048xf32>) -> tensor<32x1xf32> loc(#loc169)
        %179 = "ttir.multiply"(%178, %5) : (tensor<32x1xf32>, tensor<32x1xf32>) -> tensor<32x1xf32> loc(#loc170)
        %180 = "ttir.reshape"(%179) <{shape = [32 : i32, 1 : i32, 1 : i32]}> : (tensor<32x1xf32>) -> tensor<32x1x1xf32> loc(#loc171)
        %181 = "ttir.add"(%180, %4) : (tensor<32x1x1xf32>, tensor<32x1x1xf32>) -> tensor<32x1x1xf32> loc(#loc172)
        %182 = "ttir.rsqrt"(%181) : (tensor<32x1x1xf32>) -> tensor<32x1x1xf32> loc(#loc173)
        %183 = "ttir.reshape"(%182) <{shape = [32 : i32, 1 : i32]}> : (tensor<32x1x1xf32>) -> tensor<32x1xf32> loc(#loc174)
        %184 = "ttir.reshape"(%183) <{shape = [32 : i32, 1 : i32, 1 : i32]}> : (tensor<32x1xf32>) -> tensor<32x1x1xf32> loc(#loc175)
        %185 = "ttir.broadcast"(%184) <{broadcast_dimensions = array<i64: 1, 1, 2048>}> : (tensor<32x1x1xf32>) -> tensor<32x1x2048xf32> loc(#loc175)
        %186 = "ttir.multiply"(%176, %185) : (tensor<32x1x2048xf32>, tensor<32x1x2048xf32>) -> tensor<32x1x2048xf32> loc(#loc176)
        %187 = "ttir.reshape"(%arg10) <{shape = [1 : i32, 1 : i32, 2048 : i32]}> : (tensor<2048xbf16>) -> tensor<1x1x2048xbf16> loc(#loc177)
        %188 = "ttir.reshape"(%187) <{shape = [2048 : i32]}> : (tensor<1x1x2048xbf16>) -> tensor<2048xbf16> loc(#loc178)
        %189 = "ttir.typecast"(%188) <{conservative_folding = false}> : (tensor<2048xbf16>) -> tensor<2048xf32> loc(#loc179)
        %190 = "ttir.add"(%189, %3) : (tensor<2048xf32>, tensor<2048xf32>) -> tensor<2048xf32> loc(#loc180)
        %191 = "ttir.reshape"(%190) <{shape = [1 : i32, 1 : i32, 2048 : i32]}> : (tensor<2048xf32>) -> tensor<1x1x2048xf32> loc(#loc181)
        %192 = "ttir.broadcast"(%191) <{broadcast_dimensions = array<i64: 32, 1, 1>}> : (tensor<1x1x2048xf32>) -> tensor<32x1x2048xf32> loc(#loc181)
        %193 = "ttir.multiply"(%186, %192) : (tensor<32x1x2048xf32>, tensor<32x1x2048xf32>) -> tensor<32x1x2048xf32> loc(#loc182)
        %194 = "ttir.typecast"(%193) <{conservative_folding = false}> : (tensor<32x1x2048xf32>) -> tensor<32x1x2048xbf16> loc(#loc183)
        %195 = "ttir.reshape"(%194) <{shape = [32 : i32, 2048 : i32]}> : (tensor<32x1x2048xbf16>) -> tensor<32x2048xbf16> loc(#loc184)
        %196 = "ttir.reshape"(%arg9) <{shape = [1 : i32, 256000 : i32, 2048 : i32]}> : (tensor<256000x2048xbf16>) -> tensor<1x256000x2048xbf16> loc(#loc185)
        %197 = "ttir.reshape"(%196) <{shape = [256000 : i32, 2048 : i32]}> : (tensor<1x256000x2048xbf16>) -> tensor<256000x2048xbf16> loc(#loc186)
        %198 = "ttir.permute"(%197) <{permutation = array<i64: 1, 0>}> : (tensor<256000x2048xbf16>) -> tensor<2048x256000xbf16> loc(#loc187)
        %199 = "ttir.dot_general"(%195, %198) <{batch_dims_lhs = array<i64>, batch_dims_rhs = array<i64>, contract_dims_lhs = array<i64: 1>, contract_dims_rhs = array<i64: 0>}> : (tensor<32x2048xbf16>, tensor<2048x256000xbf16>) -> tensor<32x256000xbf16> loc(#loc188)
        %200 = "ttir.reshape"(%199) <{shape = [32 : i32, 1 : i32, 256000 : i32]}> : (tensor<32x256000xbf16>) -> tensor<32x1x256000xbf16> loc(#loc189)
        return %71, %78, %199, %200 : tensor<32x1x128x256xbf16>, tensor<32x1x128x256xbf16>, tensor<32x256000xbf16>, tensor<32x1x256000xbf16> loc(#loc)
      } loc(#loc)
    } loc(#loc)
  } loc(#loc)
} loc(#loc)
#loc = loc(unknown)
#loc18 = loc("reshape.4")
#loc19 = loc("reshape.6")
#loc20 = loc("compare.125")
#loc21 = loc("add.122")
#loc22 = loc("select.126")
#loc23 = loc("reshape.56")
#loc24 = loc("reshape.58")
#loc25 = loc("reshape.51")
#loc26 = loc("reshape.54")
#loc27 = loc("convert.59")
#loc28 = loc("gather.60")
#loc29 = loc("reshape.61")
#loc30 = loc("multiply.63")
#loc31 = loc("convert.64")
#loc32 = loc("power.66")
#loc33 = loc("reduce.73")
#loc34 = loc("multiply.82")
#loc35 = loc("reshape.83")
#loc36 = loc("add.87")
#loc37 = loc("rsqrt.88")
#loc38 = loc("reshape.89")
#loc39 = loc("broadcast.90")
#loc40 = loc("multiply.91")
#loc41 = loc("reshape.39")
#loc42 = loc("reshape.41")
#loc43 = loc("convert.42")
#loc44 = loc("add.45")
#loc45 = loc("broadcast.92")
#loc46 = loc("multiply.93")
#loc47 = loc("convert.94")
#loc48 = loc("reshape.95")
#loc49 = loc("reshape.32")
#loc50 = loc("reshape.34")
#loc51 = loc("transpose.35")
#loc52 = loc("dot.96")
#loc53 = loc("reshape.98")
#loc54 = loc("reshape.14")
#loc55 = loc("reshape.19")
#loc56 = loc("convert.20")
#loc57 = loc("convert.11")
#loc58 = loc("dot.23")
#loc59 = loc("transpose.24")
#loc60 = loc("concatenate.25")
#loc61 = loc("cosine.108")
#loc62 = loc("convert.111")
#loc63 = loc("broadcast.114")
#loc64 = loc("multiply.115")
#loc65 = loc("slice.101")
#loc66 = loc("negate.102")
#loc67 = loc("slice.100")
#loc68 = loc("concatenate.103")
#loc69 = loc("sine.26")
#loc70 = loc("convert.29")
#loc71 = loc("broadcast.105")
#loc72 = loc("multiply.106")
#loc73 = loc("add.118")
#loc74 = loc("scatter.135")
#loc75 = loc("reshape.138")
#loc76 = loc("reshape.140")
#loc77 = loc("transpose.141")
#loc78 = loc("dot.143")
#loc79 = loc("reshape.145")
#loc80 = loc("scatter.163")
#loc81 = loc("reshape.259")
#loc82 = loc("reshape.261")
#loc83 = loc("transpose.262")
#loc84 = loc("dot.264")
#loc85 = loc("transpose.267")
#loc86 = loc("reshape.275")
#loc87 = loc("broadcast.276")
#loc88 = loc("multiply.277")
#loc89 = loc("slice.269")
#loc90 = loc("negate.270")
#loc91 = loc("slice.268")
#loc92 = loc("concatenate.271")
#loc93 = loc("reshape.272")
#loc94 = loc("broadcast.273")
#loc95 = loc("multiply.274")
#loc96 = loc("add.280")
#loc97 = loc("broadcast.254")
#loc98 = loc("reshape.255")
#loc99 = loc("transpose.256")
#loc100 = loc("dot.281")
#loc101 = loc("multiply.284")
#loc102 = loc("broadcast.227")
#loc103 = loc("compare.228")
#loc104 = loc("convert.229")
#loc105 = loc("multiply.235")
#loc106 = loc("reshape.236")
#loc107 = loc("broadcast.242")
#loc108 = loc("reshape.287")
#loc109 = loc("broadcast.288")
#loc110 = loc("add.289")
#loc111 = loc("convert.290")
#loc112 = loc("reduce.296")
#loc113 = loc("broadcast.297")
#loc114 = loc("subtract.298")
#loc115 = loc("exponential.299")
#loc116 = loc("reduce.305")
#loc117 = loc("broadcast.306")
#loc118 = loc("divide.307")
#loc119 = loc("convert.308")
#loc120 = loc("broadcast.220")
#loc121 = loc("reshape.221")
#loc122 = loc("dot.309")
#loc123 = loc("reshape.313")
#loc124 = loc("reshape.209")
#loc125 = loc("reshape.211")
#loc126 = loc("transpose.212")
#loc127 = loc("dot.314")
#loc128 = loc("reshape.315")
#loc129 = loc("add.318")
#loc130 = loc("convert.319")
#loc131 = loc("power.321")
#loc132 = loc("reduce.328")
#loc133 = loc("multiply.337")
#loc134 = loc("reshape.338")
#loc135 = loc("add.342")
#loc136 = loc("rsqrt.343")
#loc137 = loc("reshape.344")
#loc138 = loc("broadcast.345")
#loc139 = loc("multiply.346")
#loc140 = loc("reshape.197")
#loc141 = loc("reshape.199")
#loc142 = loc("convert.200")
#loc143 = loc("add.203")
#loc144 = loc("broadcast.347")
#loc145 = loc("multiply.348")
#loc146 = loc("convert.349")
#loc147 = loc("reshape.360")
#loc148 = loc("reshape.356")
#loc149 = loc("reshape.358")
#loc150 = loc("transpose.359")
#loc151 = loc("dot.361")
#loc152 = loc("reshape.362")
#loc153 = loc("custom-call.380")
#loc154 = loc("reshape.190")
#loc155 = loc("reshape.192")
#loc156 = loc("transpose.193")
#loc157 = loc("dot.351")
#loc158 = loc("reshape.352")
#loc159 = loc("multiply.381")
#loc160 = loc("reshape.382")
#loc161 = loc("reshape.185")
#loc162 = loc("reshape.187")
#loc163 = loc("transpose.188")
#loc164 = loc("dot.383")
#loc165 = loc("reshape.384")
#loc166 = loc("add.387")
#loc167 = loc("convert.388")
#loc168 = loc("power.390")
#loc169 = loc("reduce.397")
#loc170 = loc("multiply.406")
#loc171 = loc("reshape.407")
#loc172 = loc("add.411")
#loc173 = loc("rsqrt.412")
#loc174 = loc("reshape.413")
#loc175 = loc("broadcast.414")
#loc176 = loc("multiply.415")
#loc177 = loc("reshape.173")
#loc178 = loc("reshape.175")
#loc179 = loc("convert.176")
#loc180 = loc("add.179")
#loc181 = loc("broadcast.416")
#loc182 = loc("multiply.417")
#loc183 = loc("convert.418")
#loc184 = loc("reshape.422")
#loc185 = loc("reshape.166")
#loc186 = loc("reshape.168")
#loc187 = loc("transpose.169")
#loc188 = loc("dot.423")
#loc189 = loc("reshape.424")
