#loc1 = loc("p0.3")
#loc2 = loc("p1.13")
#loc3 = loc("p2.31")
#loc4 = loc("p3.38")
#loc5 = loc("p4.50")
#loc6 = loc("p5.55")
#loc7 = loc("p6.131")
#loc8 = loc("p7.139")
#loc9 = loc("p8.161")
#loc10 = loc("p9.171")
#loc11 = loc("p10.178")
#loc12 = loc("p11.192")
#loc13 = loc("p12.203")
#loc14 = loc("p13.208")
#loc15 = loc("p14.215")
#loc16 = loc("p15.229")
#loc17 = loc("p16.240")
#loc18 = loc("p17.336")
#loc19 = loc("p18.383")
#loc20 = loc("p19.516")
module @SyncTensorsGraph.623 attributes {mhlo.cross_program_prefetches = [], mhlo.input_output_alias = [], mhlo.is_dynamic = false, mhlo.use_auto_spmd_partitioning = false, ttcore.meshes = #ttcore.meshes<[<"mesh" = 1x1>]>} {
  ttcore.device_module {
    builtin.module @SyncTensorsGraph.623 attributes {mhlo.cross_program_prefetches = [], mhlo.input_output_alias = [], mhlo.is_dynamic = false, mhlo.use_auto_spmd_partitioning = false, ttcore.meshes = #ttcore.meshes<[<"mesh" = 1x1>]>} {
      func.func @main(%arg0: tensor<17xi64> {ttcore.argument_type = #ttcore.argument_type<input>, ttcore.shard_status = #ttcore.shard_status<unsharded>, ttir.name = "args_1"} loc("p0.3"), %arg1: tensor<128xbf16> {ttcore.argument_type = #ttcore.argument_type<constant>, ttcore.shard_status = #ttcore.shard_status<unsharded>, ttir.name = "l__self___model_rotary_emb_inv_freq"} loc("p1.13"), %arg2: tensor<1024x2304xbf16> {ttcore.argument_type = #ttcore.argument_type<parameter>, ttcore.shard_status = #ttcore.shard_status<unsharded>, ttir.name = "l__self___model_layers__modules__0___self_attn_k_proj_weight"} loc("p2.31"), %arg3: tensor<2304xbf16> {ttcore.argument_type = #ttcore.argument_type<parameter>, ttcore.shard_status = #ttcore.shard_status<unsharded>, ttir.name = "l__self___model_layers__modules__0___input_layernorm_weight"} loc("p3.38"), %arg4: tensor<32x17xi64> {ttcore.argument_type = #ttcore.argument_type<input>, ttcore.shard_status = #ttcore.shard_status<unsharded>, ttir.name = "args_0"} loc("p4.50"), %arg5: tensor<256000x2304xbf16> {ttcore.argument_type = #ttcore.argument_type<parameter>, ttcore.shard_status = #ttcore.shard_status<unsharded>, ttir.name = "l__self___model_embed_tokens_weight"} loc("p5.55"), %arg6: tensor<32x4x128x256xbf16> {ttcore.argument_type = #ttcore.argument_type<input>, ttcore.shard_status = #ttcore.shard_status<unsharded>, ttir.name = "args_2"} loc("p6.131"), %arg7: tensor<1024x2304xbf16> {ttcore.argument_type = #ttcore.argument_type<parameter>, ttcore.shard_status = #ttcore.shard_status<unsharded>, ttir.name = "l__self___model_layers__modules__0___self_attn_v_proj_weight"} loc("p7.139"), %arg8: tensor<32x4x128x256xbf16> {ttcore.argument_type = #ttcore.argument_type<input>, ttcore.shard_status = #ttcore.shard_status<unsharded>, ttir.name = "args_3"} loc("p8.161"), %arg9: tensor<256000x2304xbf16> {ttcore.argument_type = #ttcore.argument_type<parameter>, ttcore.shard_status = #ttcore.shard_status<unsharded>, ttir.name = "l__self___lm_head_weight"} loc("p9.171"), %arg10: tensor<2304xbf16> {ttcore.argument_type = #ttcore.argument_type<parameter>, ttcore.shard_status = #ttcore.shard_status<unsharded>, ttir.name = "l__self___model_norm_weight"} loc("p10.178"), %arg11: tensor<2304xbf16> {ttcore.argument_type = #ttcore.argument_type<parameter>, ttcore.shard_status = #ttcore.shard_status<unsharded>, ttir.name = "l__self___model_layers__modules__0___post_feedforward_layernorm_weight"} loc("p11.192"), %arg12: tensor<2304x9216xbf16> {ttcore.argument_type = #ttcore.argument_type<parameter>, ttcore.shard_status = #ttcore.shard_status<unsharded>, ttir.name = "l__self___model_layers__modules__0___mlp_down_proj_weight"} loc("p12.203"), %arg13: tensor<9216x2304xbf16> {ttcore.argument_type = #ttcore.argument_type<parameter>, ttcore.shard_status = #ttcore.shard_status<unsharded>, ttir.name = "l__self___model_layers__modules__0___mlp_up_proj_weight"} loc("p13.208"), %arg14: tensor<2304xbf16> {ttcore.argument_type = #ttcore.argument_type<parameter>, ttcore.shard_status = #ttcore.shard_status<unsharded>, ttir.name = "l__self___model_layers__modules__0___pre_feedforward_layernorm_weight"} loc("p14.215"), %arg15: tensor<2304xbf16> {ttcore.argument_type = #ttcore.argument_type<parameter>, ttcore.shard_status = #ttcore.shard_status<unsharded>, ttir.name = "l__self___model_layers__modules__0___post_attention_layernorm_weight"} loc("p15.229"), %arg16: tensor<2304x2048xbf16> {ttcore.argument_type = #ttcore.argument_type<parameter>, ttcore.shard_status = #ttcore.shard_status<unsharded>, ttir.name = "l__self___model_layers__modules__0___self_attn_o_proj_weight"} loc("p16.240"), %arg17: tensor<i1> {ttcore.argument_type = #ttcore.argument_type<input>, ttcore.shard_status = #ttcore.shard_status<unsharded>} loc("p17.336"), %arg18: tensor<2048x2304xbf16> {ttcore.argument_type = #ttcore.argument_type<parameter>, ttcore.shard_status = #ttcore.shard_status<unsharded>, ttir.name = "l__self___model_layers__modules__0___self_attn_q_proj_weight"} loc("p18.383"), %arg19: tensor<9216x2304xbf16> {ttcore.argument_type = #ttcore.argument_type<parameter>, ttcore.shard_status = #ttcore.shard_status<unsharded>, ttir.name = "l__self___model_layers__modules__0___mlp_gate_proj_weight"} loc("p19.516")) -> (tensor<32x4x128x256xbf16> {ttcore.shard_status = #ttcore.shard_status<unsharded>}, tensor<32x4x128x256xbf16> {ttcore.shard_status = #ttcore.shard_status<unsharded>}, tensor<32x17x256000xbf16> {ttcore.shard_status = #ttcore.shard_status<unsharded>}) {
        %0 = "ttir.constant"() <{value = dense<3.000000e+01> : tensor<32x17x256000xbf16>}> : () -> tensor<32x17x256000xbf16> loc(#loc)
        %1 = "ttir.constant"() <{value = dense<128> : tensor<128xi64>}> : () -> tensor<128xi64> loc(#loc)
        %2 = "ttir.constant"() <{value = dense<0> : tensor<128xi64>}> : () -> tensor<128xi64> loc(#loc)
        %3 = "ttir.constant"() <{value = dense<1> : tensor<i64>}> : () -> tensor<i64> loc(#loc)
        %4 = "ttir.constant"() <{value = dense<4096> : tensor<i64>}> : () -> tensor<i64> loc(#loc)
        %5 = "ttir.constant"() <{value = dense<0.000000e+00> : tensor<17x128xbf16>}> : () -> tensor<17x128xbf16> loc(#loc)
        %6 = "ttir.constant"() <{value = dense<-3.389530e+38> : tensor<17x128xbf16>}> : () -> tensor<17x128xbf16> loc(#loc)
        %7 = "ttir.constant"() <{value = dense<1> : tensor<17x128xi64>}> : () -> tensor<17x128xi64> loc(#loc)
        %8 = "ttir.constant"() <{value = dense<-3.389530e+38> : tensor<32x1x17x128xbf16>}> : () -> tensor<32x1x17x128xbf16> loc(#loc)
        %9 = "ttir.constant"() <{value = dense<-4096> : tensor<17x128xi64>}> : () -> tensor<17x128xi64> loc(#loc)
        %10 = "ttir.constant"() <{value = dense<5.000000e+01> : tensor<32x8x17x128xbf16>}> : () -> tensor<32x8x17x128xbf16> loc(#loc)
        %11 = "ttir.constant"() <{value = dense<6.250000e-02> : tensor<32x8x17x128xbf16>}> : () -> tensor<32x8x17x128xbf16> loc(#loc)
        %12 = "ttir.constant"() <{value = dense<1.000000e+00> : tensor<2304xf32>}> : () -> tensor<2304xf32> loc(#loc)
        %13 = "ttir.constant"() <{value = dense<9.99999997E-7> : tensor<32x17x1xf32>}> : () -> tensor<32x17x1xf32> loc(#loc)
        %14 = "ttir.constant"() <{value = dense<4.34027781E-4> : tensor<32x17xf32>}> : () -> tensor<32x17xf32> loc(#loc)
        %15 = "ttir.constant"() <{value = dense<2.000000e+00> : tensor<32x17x2304xf32>}> : () -> tensor<32x17x2304xf32> loc(#loc)
        %16 = "ttir.constant"() <{value = dense<4.800000e+01> : tensor<32x17x2304xbf16>}> : () -> tensor<32x17x2304xbf16> loc(#loc)
        %17 = "ttir.constant"() <{value = dense<128> : tensor<17xi64>}> : () -> tensor<17xi64> loc(#loc)
        %18 = "ttir.constant"() <{value = dense<0> : tensor<17xi64>}> : () -> tensor<17xi64> loc(#loc)
        %19 = "ttir.constant"() <{value = dense<9223372036854775807> : tensor<i64>}> : () -> tensor<i64> loc(#loc)
        %20 = "ttir.constant"() <{value = dense<[0, 1, 2, 3, 4, 5, 6, 7, 8, 9, 10, 11, 12, 13, 14, 15, 16]> : tensor<17xi64>}> : () -> tensor<17xi64> loc(#loc)
        %21 = "ttir.constant"() <{value = dense<"…"> : tensor<128xi64>}> : () -> tensor<128xi64> loc(#loc)
        %22 = "ttir.constant"() <{value = dense<0> : tensor<i64>}> : () -> tensor<i64> loc(#loc)
        %23 = "ttir.reshape"(%arg0) <{shape = [1 : i32, 1 : i32, 17 : i32]}> : (tensor<17xi64>) -> tensor<1x1x17xi64> loc(#loc21)
        %24 = "ttir.reshape"(%23) <{shape = [17 : i32]}> : (tensor<1x1x17xi64>) -> tensor<17xi64> loc(#loc22)
        %25 = "ttir.lt"(%24, %18) : (tensor<17xi64>, tensor<17xi64>) -> tensor<17xi1> loc(#loc23)
        %26 = "ttir.add"(%24, %17) : (tensor<17xi64>, tensor<17xi64>) -> tensor<17xi64> loc(#loc24)
        %27 = "ttir.where"(%25, %26, %24) : (tensor<17xi1>, tensor<17xi64>, tensor<17xi64>) -> tensor<17xi64> loc(#loc25)
        %28 = "ttir.reshape"(%arg5) <{shape = [1 : i32, 256000 : i32, 2304 : i32]}> : (tensor<256000x2304xbf16>) -> tensor<1x256000x2304xbf16> loc(#loc26)
        %29 = "ttir.reshape"(%28) <{shape = [256000 : i32, 2304 : i32]}> : (tensor<1x256000x2304xbf16>) -> tensor<256000x2304xbf16> loc(#loc27)
        %30 = "ttir.reshape"(%arg4) <{shape = [1 : i32, 32 : i32, 17 : i32]}> : (tensor<32x17xi64>) -> tensor<1x32x17xi64> loc(#loc28)
        %31 = "ttir.reshape"(%30) <{shape = [544 : i32]}> : (tensor<1x32x17xi64>) -> tensor<544xi64> loc(#loc29)
        %32 = "ttir.typecast"(%31) <{conservative_folding = false}> : (tensor<544xi64>) -> tensor<544xui32> loc(#loc30)
        %33 = "ttir.gather"(%29, %32) <{collapsed_slice_dims = array<i64: 0>, index_vector_dim = 1 : si64, indices_are_sorted = false, offset_dims = array<i64: 1>, operand_batching_dims = array<i64>, slice_sizes = array<i64: 1, 2304>, start_index_map = array<i64: 0>, start_indices_batching_dims = array<i64>}> : (tensor<256000x2304xbf16>, tensor<544xui32>) -> tensor<544x2304xbf16> loc(#loc31)
        %34 = "ttir.reshape"(%33) <{shape = [32 : i32, 17 : i32, 2304 : i32]}> : (tensor<544x2304xbf16>) -> tensor<32x17x2304xbf16> loc(#loc32)
        %35 = "ttir.multiply"(%34, %16) : (tensor<32x17x2304xbf16>, tensor<32x17x2304xbf16>) -> tensor<32x17x2304xbf16> loc(#loc33)
        %36 = "ttir.typecast"(%35) <{conservative_folding = false}> : (tensor<32x17x2304xbf16>) -> tensor<32x17x2304xf32> loc(#loc34)
        %37 = "ttir.pow"(%36, %15) : (tensor<32x17x2304xf32>, tensor<32x17x2304xf32>) -> tensor<32x17x2304xf32> loc(#loc35)
        %38 = "ttir.sum"(%37) <{dim_arg = [2 : i32], keep_dim = false}> : (tensor<32x17x2304xf32>) -> tensor<32x17xf32> loc(#loc36)
        %39 = "ttir.multiply"(%38, %14) : (tensor<32x17xf32>, tensor<32x17xf32>) -> tensor<32x17xf32> loc(#loc37)
        %40 = "ttir.reshape"(%39) <{shape = [32 : i32, 17 : i32, 1 : i32]}> : (tensor<32x17xf32>) -> tensor<32x17x1xf32> loc(#loc38)
        %41 = "ttir.add"(%40, %13) : (tensor<32x17x1xf32>, tensor<32x17x1xf32>) -> tensor<32x17x1xf32> loc(#loc39)
        %42 = "ttir.rsqrt"(%41) : (tensor<32x17x1xf32>) -> tensor<32x17x1xf32> loc(#loc40)
        %43 = "ttir.reshape"(%42) <{shape = [32 : i32, 17 : i32]}> : (tensor<32x17x1xf32>) -> tensor<32x17xf32> loc(#loc41)
        %44 = "ttir.reshape"(%43) <{shape = [32 : i32, 17 : i32, 1 : i32]}> : (tensor<32x17xf32>) -> tensor<32x17x1xf32> loc(#loc42)
        %45 = "ttir.broadcast"(%44) <{broadcast_dimensions = array<i64: 1, 1, 2304>}> : (tensor<32x17x1xf32>) -> tensor<32x17x2304xf32> loc(#loc42)
        %46 = "ttir.multiply"(%36, %45) : (tensor<32x17x2304xf32>, tensor<32x17x2304xf32>) -> tensor<32x17x2304xf32> loc(#loc43)
        %47 = "ttir.reshape"(%arg3) <{shape = [1 : i32, 1 : i32, 2304 : i32]}> : (tensor<2304xbf16>) -> tensor<1x1x2304xbf16> loc(#loc44)
        %48 = "ttir.reshape"(%47) <{shape = [2304 : i32]}> : (tensor<1x1x2304xbf16>) -> tensor<2304xbf16> loc(#loc45)
        %49 = "ttir.typecast"(%48) <{conservative_folding = false}> : (tensor<2304xbf16>) -> tensor<2304xf32> loc(#loc46)
        %50 = "ttir.add"(%49, %12) : (tensor<2304xf32>, tensor<2304xf32>) -> tensor<2304xf32> loc(#loc47)
        %51 = "ttir.reshape"(%50) <{shape = [1 : i32, 1 : i32, 2304 : i32]}> : (tensor<2304xf32>) -> tensor<1x1x2304xf32> loc(#loc48)
        %52 = "ttir.broadcast"(%51) <{broadcast_dimensions = array<i64: 32, 17, 1>}> : (tensor<1x1x2304xf32>) -> tensor<32x17x2304xf32> loc(#loc48)
        %53 = "ttir.multiply"(%46, %52) : (tensor<32x17x2304xf32>, tensor<32x17x2304xf32>) -> tensor<32x17x2304xf32> loc(#loc49)
        %54 = "ttir.typecast"(%53) <{conservative_folding = false}> : (tensor<32x17x2304xf32>) -> tensor<32x17x2304xbf16> loc(#loc50)
        %55 = "ttir.reshape"(%54) <{shape = [544 : i32, 2304 : i32]}> : (tensor<32x17x2304xbf16>) -> tensor<544x2304xbf16> loc(#loc51)
        %56 = "ttir.reshape"(%arg2) <{shape = [1 : i32, 1024 : i32, 2304 : i32]}> : (tensor<1024x2304xbf16>) -> tensor<1x1024x2304xbf16> loc(#loc52)
        %57 = "ttir.reshape"(%56) <{shape = [1024 : i32, 2304 : i32]}> : (tensor<1x1024x2304xbf16>) -> tensor<1024x2304xbf16> loc(#loc53)
        %58 = "ttir.permute"(%57) <{permutation = array<i64: 1, 0>}> : (tensor<1024x2304xbf16>) -> tensor<2304x1024xbf16> loc(#loc54)
        %59 = "ttir.dot_general"(%55, %58) <{batch_dims_lhs = array<i64>, batch_dims_rhs = array<i64>, contract_dims_lhs = array<i64: 1>, contract_dims_rhs = array<i64: 0>}> : (tensor<544x2304xbf16>, tensor<2304x1024xbf16>) -> tensor<544x1024xbf16> loc(#loc55)
        %60 = "ttir.reshape"(%59) <{shape = [32 : i32, 17 : i32, 4 : i32, 256 : i32]}> : (tensor<544x1024xbf16>) -> tensor<32x17x4x256xbf16> loc(#loc56)
        %61 = "ttir.permute"(%60) <{permutation = array<i64: 0, 2, 1, 3>}> : (tensor<32x17x4x256xbf16>) -> tensor<32x4x17x256xbf16> loc(#loc57)
        %62 = "ttir.reshape"(%arg1) <{shape = [1 : i32, 1 : i32, 128 : i32]}> : (tensor<128xbf16>) -> tensor<1x1x128xbf16> loc(#loc58)
        %63 = "ttir.reshape"(%62) <{shape = [1 : i32, 128 : i32, 1 : i32]}> : (tensor<1x1x128xbf16>) -> tensor<1x128x1xbf16> loc(#loc59)
        %64 = "ttir.typecast"(%63) <{conservative_folding = false}> : (tensor<1x128x1xbf16>) -> tensor<1x128x1xf32> loc(#loc60)
        %65 = "ttir.typecast"(%23) <{conservative_folding = false}> : (tensor<1x1x17xi64>) -> tensor<1x1x17xf32> loc(#loc61)
        %66 = "ttir.dot_general"(%64, %65) <{batch_dims_lhs = array<i64: 0>, batch_dims_rhs = array<i64: 0>, contract_dims_lhs = array<i64: 2>, contract_dims_rhs = array<i64: 1>}> : (tensor<1x128x1xf32>, tensor<1x1x17xf32>) -> tensor<1x128x17xf32> loc(#loc62)
        %67 = "ttir.permute"(%66) <{permutation = array<i64: 0, 2, 1>}> : (tensor<1x128x17xf32>) -> tensor<1x17x128xf32> loc(#loc63)
        %68 = "ttir.concat"(%67, %67) <{dim = 2 : si32}> : (tensor<1x17x128xf32>, tensor<1x17x128xf32>) -> tensor<1x17x256xf32> loc(#loc64)
        %69 = "ttir.cos"(%68) : (tensor<1x17x256xf32>) -> tensor<1x17x256xf32> loc(#loc65)
        %70 = "ttir.typecast"(%69) <{conservative_folding = false}> : (tensor<1x17x256xf32>) -> tensor<1x17x256xbf16> loc(#loc66)
        %71 = "ttir.reshape"(%70) <{shape = [17 : i32, 256 : i32]}> : (tensor<1x17x256xbf16>) -> tensor<17x256xbf16> loc(#loc67)
        %72 = "ttir.reshape"(%71) <{shape = [1 : i32, 1 : i32, 17 : i32, 256 : i32]}> : (tensor<17x256xbf16>) -> tensor<1x1x17x256xbf16> loc(#loc68)
        %73 = "ttir.broadcast"(%72) <{broadcast_dimensions = array<i64: 32, 4, 1, 1>}> : (tensor<1x1x17x256xbf16>) -> tensor<32x4x17x256xbf16> loc(#loc68)
        %74 = "ttir.multiply"(%61, %73) : (tensor<32x4x17x256xbf16>, tensor<32x4x17x256xbf16>) -> tensor<32x4x17x256xbf16> loc(#loc69)
        %75 = "ttir.slice_static"(%61) <{begins = [0 : i32, 0 : i32, 0 : i32, 128 : i32], ends = [32 : i32, 4 : i32, 17 : i32, 256 : i32], step = [1 : i32, 1 : i32, 1 : i32, 1 : i32]}> : (tensor<32x4x17x256xbf16>) -> tensor<32x4x17x128xbf16> loc(#loc70)
        %76 = "ttir.neg"(%75) : (tensor<32x4x17x128xbf16>) -> tensor<32x4x17x128xbf16> loc(#loc71)
        %77 = "ttir.slice_static"(%61) <{begins = [0 : i32, 0 : i32, 0 : i32, 0 : i32], ends = [32 : i32, 4 : i32, 17 : i32, 128 : i32], step = [1 : i32, 1 : i32, 1 : i32, 1 : i32]}> : (tensor<32x4x17x256xbf16>) -> tensor<32x4x17x128xbf16> loc(#loc72)
        %78 = "ttir.concat"(%76, %77) <{dim = 3 : si32}> : (tensor<32x4x17x128xbf16>, tensor<32x4x17x128xbf16>) -> tensor<32x4x17x256xbf16> loc(#loc73)
        %79 = "ttir.sin"(%68) : (tensor<1x17x256xf32>) -> tensor<1x17x256xf32> loc(#loc74)
        %80 = "ttir.typecast"(%79) <{conservative_folding = false}> : (tensor<1x17x256xf32>) -> tensor<1x17x256xbf16> loc(#loc75)
        %81 = "ttir.reshape"(%80) <{shape = [17 : i32, 256 : i32]}> : (tensor<1x17x256xbf16>) -> tensor<17x256xbf16> loc(#loc76)
        %82 = "ttir.reshape"(%81) <{shape = [1 : i32, 1 : i32, 17 : i32, 256 : i32]}> : (tensor<17x256xbf16>) -> tensor<1x1x17x256xbf16> loc(#loc77)
        %83 = "ttir.broadcast"(%82) <{broadcast_dimensions = array<i64: 32, 4, 1, 1>}> : (tensor<1x1x17x256xbf16>) -> tensor<32x4x17x256xbf16> loc(#loc77)
        %84 = "ttir.multiply"(%78, %83) : (tensor<32x4x17x256xbf16>, tensor<32x4x17x256xbf16>) -> tensor<32x4x17x256xbf16> loc(#loc78)
        %85 = "ttir.add"(%74, %84) : (tensor<32x4x17x256xbf16>, tensor<32x4x17x256xbf16>) -> tensor<32x4x17x256xbf16> loc(#loc79)
        %86 = "ttir.slice_static"(%85) <{begins = [0 : i32, 0 : i32, 0 : i32, 0 : i32], ends = [1 : i32, 4 : i32, 17 : i32, 256 : i32], step = [1 : i32, 1 : i32, 1 : i32, 1 : i32]}> : (tensor<32x4x17x256xbf16>) -> tensor<1x4x17x256xbf16> loc(#loc80)
        %87 = "ttir.fill_cache"(%arg6, %86) <{batch_offset = 0 : i32}> : (tensor<32x4x128x256xbf16>, tensor<1x4x17x256xbf16>) -> tensor<32x4x128x256xbf16> loc(#loc80)
        %88 = "ttir.slice_static"(%85) <{begins = [1 : i32, 0 : i32, 0 : i32, 0 : i32], ends = [2 : i32, 4 : i32, 17 : i32, 256 : i32], step = [1 : i32, 1 : i32, 1 : i32, 1 : i32]}> : (tensor<32x4x17x256xbf16>) -> tensor<1x4x17x256xbf16> loc(#loc80)
        %89 = "ttir.fill_cache"(%87, %88) <{batch_offset = 1 : i32}> : (tensor<32x4x128x256xbf16>, tensor<1x4x17x256xbf16>) -> tensor<32x4x128x256xbf16> loc(#loc80)
        %90 = "ttir.slice_static"(%85) <{begins = [2 : i32, 0 : i32, 0 : i32, 0 : i32], ends = [3 : i32, 4 : i32, 17 : i32, 256 : i32], step = [1 : i32, 1 : i32, 1 : i32, 1 : i32]}> : (tensor<32x4x17x256xbf16>) -> tensor<1x4x17x256xbf16> loc(#loc80)
        %91 = "ttir.fill_cache"(%89, %90) <{batch_offset = 2 : i32}> : (tensor<32x4x128x256xbf16>, tensor<1x4x17x256xbf16>) -> tensor<32x4x128x256xbf16> loc(#loc80)
        %92 = "ttir.slice_static"(%85) <{begins = [3 : i32, 0 : i32, 0 : i32, 0 : i32], ends = [4 : i32, 4 : i32, 17 : i32, 256 : i32], step = [1 : i32, 1 : i32, 1 : i32, 1 : i32]}> : (tensor<32x4x17x256xbf16>) -> tensor<1x4x17x256xbf16> loc(#loc80)
        %93 = "ttir.fill_cache"(%91, %92) <{batch_offset = 3 : i32}> : (tensor<32x4x128x256xbf16>, tensor<1x4x17x256xbf16>) -> tensor<32x4x128x256xbf16> loc(#loc80)
        %94 = "ttir.slice_static"(%85) <{begins = [4 : i32, 0 : i32, 0 : i32, 0 : i32], ends = [5 : i32, 4 : i32, 17 : i32, 256 : i32], step = [1 : i32, 1 : i32, 1 : i32, 1 : i32]}> : (tensor<32x4x17x256xbf16>) -> tensor<1x4x17x256xbf16> loc(#loc80)
        %95 = "ttir.fill_cache"(%93, %94) <{batch_offset = 4 : i32}> : (tensor<32x4x128x256xbf16>, tensor<1x4x17x256xbf16>) -> tensor<32x4x128x256xbf16> loc(#loc80)
        %96 = "ttir.slice_static"(%85) <{begins = [5 : i32, 0 : i32, 0 : i32, 0 : i32], ends = [6 : i32, 4 : i32, 17 : i32, 256 : i32], step = [1 : i32, 1 : i32, 1 : i32, 1 : i32]}> : (tensor<32x4x17x256xbf16>) -> tensor<1x4x17x256xbf16> loc(#loc80)
        %97 = "ttir.fill_cache"(%95, %96) <{batch_offset = 5 : i32}> : (tensor<32x4x128x256xbf16>, tensor<1x4x17x256xbf16>) -> tensor<32x4x128x256xbf16> loc(#loc80)
        %98 = "ttir.slice_static"(%85) <{begins = [6 : i32, 0 : i32, 0 : i32, 0 : i32], ends = [7 : i32, 4 : i32, 17 : i32, 256 : i32], step = [1 : i32, 1 : i32, 1 : i32, 1 : i32]}> : (tensor<32x4x17x256xbf16>) -> tensor<1x4x17x256xbf16> loc(#loc80)
        %99 = "ttir.fill_cache"(%97, %98) <{batch_offset = 6 : i32}> : (tensor<32x4x128x256xbf16>, tensor<1x4x17x256xbf16>) -> tensor<32x4x128x256xbf16> loc(#loc80)
        %100 = "ttir.slice_static"(%85) <{begins = [7 : i32, 0 : i32, 0 : i32, 0 : i32], ends = [8 : i32, 4 : i32, 17 : i32, 256 : i32], step = [1 : i32, 1 : i32, 1 : i32, 1 : i32]}> : (tensor<32x4x17x256xbf16>) -> tensor<1x4x17x256xbf16> loc(#loc80)
        %101 = "ttir.fill_cache"(%99, %100) <{batch_offset = 7 : i32}> : (tensor<32x4x128x256xbf16>, tensor<1x4x17x256xbf16>) -> tensor<32x4x128x256xbf16> loc(#loc80)
        %102 = "ttir.slice_static"(%85) <{begins = [8 : i32, 0 : i32, 0 : i32, 0 : i32], ends = [9 : i32, 4 : i32, 17 : i32, 256 : i32], step = [1 : i32, 1 : i32, 1 : i32, 1 : i32]}> : (tensor<32x4x17x256xbf16>) -> tensor<1x4x17x256xbf16> loc(#loc80)
        %103 = "ttir.fill_cache"(%101, %102) <{batch_offset = 8 : i32}> : (tensor<32x4x128x256xbf16>, tensor<1x4x17x256xbf16>) -> tensor<32x4x128x256xbf16> loc(#loc80)
        %104 = "ttir.slice_static"(%85) <{begins = [9 : i32, 0 : i32, 0 : i32, 0 : i32], ends = [10 : i32, 4 : i32, 17 : i32, 256 : i32], step = [1 : i32, 1 : i32, 1 : i32, 1 : i32]}> : (tensor<32x4x17x256xbf16>) -> tensor<1x4x17x256xbf16> loc(#loc80)
        %105 = "ttir.fill_cache"(%103, %104) <{batch_offset = 9 : i32}> : (tensor<32x4x128x256xbf16>, tensor<1x4x17x256xbf16>) -> tensor<32x4x128x256xbf16> loc(#loc80)
        %106 = "ttir.slice_static"(%85) <{begins = [10 : i32, 0 : i32, 0 : i32, 0 : i32], ends = [11 : i32, 4 : i32, 17 : i32, 256 : i32], step = [1 : i32, 1 : i32, 1 : i32, 1 : i32]}> : (tensor<32x4x17x256xbf16>) -> tensor<1x4x17x256xbf16> loc(#loc80)
        %107 = "ttir.fill_cache"(%105, %106) <{batch_offset = 10 : i32}> : (tensor<32x4x128x256xbf16>, tensor<1x4x17x256xbf16>) -> tensor<32x4x128x256xbf16> loc(#loc80)
        %108 = "ttir.slice_static"(%85) <{begins = [11 : i32, 0 : i32, 0 : i32, 0 : i32], ends = [12 : i32, 4 : i32, 17 : i32, 256 : i32], step = [1 : i32, 1 : i32, 1 : i32, 1 : i32]}> : (tensor<32x4x17x256xbf16>) -> tensor<1x4x17x256xbf16> loc(#loc80)
        %109 = "ttir.fill_cache"(%107, %108) <{batch_offset = 11 : i32}> : (tensor<32x4x128x256xbf16>, tensor<1x4x17x256xbf16>) -> tensor<32x4x128x256xbf16> loc(#loc80)
        %110 = "ttir.slice_static"(%85) <{begins = [12 : i32, 0 : i32, 0 : i32, 0 : i32], ends = [13 : i32, 4 : i32, 17 : i32, 256 : i32], step = [1 : i32, 1 : i32, 1 : i32, 1 : i32]}> : (tensor<32x4x17x256xbf16>) -> tensor<1x4x17x256xbf16> loc(#loc80)
        %111 = "ttir.fill_cache"(%109, %110) <{batch_offset = 12 : i32}> : (tensor<32x4x128x256xbf16>, tensor<1x4x17x256xbf16>) -> tensor<32x4x128x256xbf16> loc(#loc80)
        %112 = "ttir.slice_static"(%85) <{begins = [13 : i32, 0 : i32, 0 : i32, 0 : i32], ends = [14 : i32, 4 : i32, 17 : i32, 256 : i32], step = [1 : i32, 1 : i32, 1 : i32, 1 : i32]}> : (tensor<32x4x17x256xbf16>) -> tensor<1x4x17x256xbf16> loc(#loc80)
        %113 = "ttir.fill_cache"(%111, %112) <{batch_offset = 13 : i32}> : (tensor<32x4x128x256xbf16>, tensor<1x4x17x256xbf16>) -> tensor<32x4x128x256xbf16> loc(#loc80)
        %114 = "ttir.slice_static"(%85) <{begins = [14 : i32, 0 : i32, 0 : i32, 0 : i32], ends = [15 : i32, 4 : i32, 17 : i32, 256 : i32], step = [1 : i32, 1 : i32, 1 : i32, 1 : i32]}> : (tensor<32x4x17x256xbf16>) -> tensor<1x4x17x256xbf16> loc(#loc80)
        %115 = "ttir.fill_cache"(%113, %114) <{batch_offset = 14 : i32}> : (tensor<32x4x128x256xbf16>, tensor<1x4x17x256xbf16>) -> tensor<32x4x128x256xbf16> loc(#loc80)
        %116 = "ttir.slice_static"(%85) <{begins = [15 : i32, 0 : i32, 0 : i32, 0 : i32], ends = [16 : i32, 4 : i32, 17 : i32, 256 : i32], step = [1 : i32, 1 : i32, 1 : i32, 1 : i32]}> : (tensor<32x4x17x256xbf16>) -> tensor<1x4x17x256xbf16> loc(#loc80)
        %117 = "ttir.fill_cache"(%115, %116) <{batch_offset = 15 : i32}> : (tensor<32x4x128x256xbf16>, tensor<1x4x17x256xbf16>) -> tensor<32x4x128x256xbf16> loc(#loc80)
        %118 = "ttir.slice_static"(%85) <{begins = [16 : i32, 0 : i32, 0 : i32, 0 : i32], ends = [17 : i32, 4 : i32, 17 : i32, 256 : i32], step = [1 : i32, 1 : i32, 1 : i32, 1 : i32]}> : (tensor<32x4x17x256xbf16>) -> tensor<1x4x17x256xbf16> loc(#loc80)
        %119 = "ttir.fill_cache"(%117, %118) <{batch_offset = 16 : i32}> : (tensor<32x4x128x256xbf16>, tensor<1x4x17x256xbf16>) -> tensor<32x4x128x256xbf16> loc(#loc80)
        %120 = "ttir.slice_static"(%85) <{begins = [17 : i32, 0 : i32, 0 : i32, 0 : i32], ends = [18 : i32, 4 : i32, 17 : i32, 256 : i32], step = [1 : i32, 1 : i32, 1 : i32, 1 : i32]}> : (tensor<32x4x17x256xbf16>) -> tensor<1x4x17x256xbf16> loc(#loc80)
        %121 = "ttir.fill_cache"(%119, %120) <{batch_offset = 17 : i32}> : (tensor<32x4x128x256xbf16>, tensor<1x4x17x256xbf16>) -> tensor<32x4x128x256xbf16> loc(#loc80)
        %122 = "ttir.slice_static"(%85) <{begins = [18 : i32, 0 : i32, 0 : i32, 0 : i32], ends = [19 : i32, 4 : i32, 17 : i32, 256 : i32], step = [1 : i32, 1 : i32, 1 : i32, 1 : i32]}> : (tensor<32x4x17x256xbf16>) -> tensor<1x4x17x256xbf16> loc(#loc80)
        %123 = "ttir.fill_cache"(%121, %122) <{batch_offset = 18 : i32}> : (tensor<32x4x128x256xbf16>, tensor<1x4x17x256xbf16>) -> tensor<32x4x128x256xbf16> loc(#loc80)
        %124 = "ttir.slice_static"(%85) <{begins = [19 : i32, 0 : i32, 0 : i32, 0 : i32], ends = [20 : i32, 4 : i32, 17 : i32, 256 : i32], step = [1 : i32, 1 : i32, 1 : i32, 1 : i32]}> : (tensor<32x4x17x256xbf16>) -> tensor<1x4x17x256xbf16> loc(#loc80)
        %125 = "ttir.fill_cache"(%123, %124) <{batch_offset = 19 : i32}> : (tensor<32x4x128x256xbf16>, tensor<1x4x17x256xbf16>) -> tensor<32x4x128x256xbf16> loc(#loc80)
        %126 = "ttir.slice_static"(%85) <{begins = [20 : i32, 0 : i32, 0 : i32, 0 : i32], ends = [21 : i32, 4 : i32, 17 : i32, 256 : i32], step = [1 : i32, 1 : i32, 1 : i32, 1 : i32]}> : (tensor<32x4x17x256xbf16>) -> tensor<1x4x17x256xbf16> loc(#loc80)
        %127 = "ttir.fill_cache"(%125, %126) <{batch_offset = 20 : i32}> : (tensor<32x4x128x256xbf16>, tensor<1x4x17x256xbf16>) -> tensor<32x4x128x256xbf16> loc(#loc80)
        %128 = "ttir.slice_static"(%85) <{begins = [21 : i32, 0 : i32, 0 : i32, 0 : i32], ends = [22 : i32, 4 : i32, 17 : i32, 256 : i32], step = [1 : i32, 1 : i32, 1 : i32, 1 : i32]}> : (tensor<32x4x17x256xbf16>) -> tensor<1x4x17x256xbf16> loc(#loc80)
        %129 = "ttir.fill_cache"(%127, %128) <{batch_offset = 21 : i32}> : (tensor<32x4x128x256xbf16>, tensor<1x4x17x256xbf16>) -> tensor<32x4x128x256xbf16> loc(#loc80)
        %130 = "ttir.slice_static"(%85) <{begins = [22 : i32, 0 : i32, 0 : i32, 0 : i32], ends = [23 : i32, 4 : i32, 17 : i32, 256 : i32], step = [1 : i32, 1 : i32, 1 : i32, 1 : i32]}> : (tensor<32x4x17x256xbf16>) -> tensor<1x4x17x256xbf16> loc(#loc80)
        %131 = "ttir.fill_cache"(%129, %130) <{batch_offset = 22 : i32}> : (tensor<32x4x128x256xbf16>, tensor<1x4x17x256xbf16>) -> tensor<32x4x128x256xbf16> loc(#loc80)
        %132 = "ttir.slice_static"(%85) <{begins = [23 : i32, 0 : i32, 0 : i32, 0 : i32], ends = [24 : i32, 4 : i32, 17 : i32, 256 : i32], step = [1 : i32, 1 : i32, 1 : i32, 1 : i32]}> : (tensor<32x4x17x256xbf16>) -> tensor<1x4x17x256xbf16> loc(#loc80)
        %133 = "ttir.fill_cache"(%131, %132) <{batch_offset = 23 : i32}> : (tensor<32x4x128x256xbf16>, tensor<1x4x17x256xbf16>) -> tensor<32x4x128x256xbf16> loc(#loc80)
        %134 = "ttir.slice_static"(%85) <{begins = [24 : i32, 0 : i32, 0 : i32, 0 : i32], ends = [25 : i32, 4 : i32, 17 : i32, 256 : i32], step = [1 : i32, 1 : i32, 1 : i32, 1 : i32]}> : (tensor<32x4x17x256xbf16>) -> tensor<1x4x17x256xbf16> loc(#loc80)
        %135 = "ttir.fill_cache"(%133, %134) <{batch_offset = 24 : i32}> : (tensor<32x4x128x256xbf16>, tensor<1x4x17x256xbf16>) -> tensor<32x4x128x256xbf16> loc(#loc80)
        %136 = "ttir.slice_static"(%85) <{begins = [25 : i32, 0 : i32, 0 : i32, 0 : i32], ends = [26 : i32, 4 : i32, 17 : i32, 256 : i32], step = [1 : i32, 1 : i32, 1 : i32, 1 : i32]}> : (tensor<32x4x17x256xbf16>) -> tensor<1x4x17x256xbf16> loc(#loc80)
        %137 = "ttir.fill_cache"(%135, %136) <{batch_offset = 25 : i32}> : (tensor<32x4x128x256xbf16>, tensor<1x4x17x256xbf16>) -> tensor<32x4x128x256xbf16> loc(#loc80)
        %138 = "ttir.slice_static"(%85) <{begins = [26 : i32, 0 : i32, 0 : i32, 0 : i32], ends = [27 : i32, 4 : i32, 17 : i32, 256 : i32], step = [1 : i32, 1 : i32, 1 : i32, 1 : i32]}> : (tensor<32x4x17x256xbf16>) -> tensor<1x4x17x256xbf16> loc(#loc80)
        %139 = "ttir.fill_cache"(%137, %138) <{batch_offset = 26 : i32}> : (tensor<32x4x128x256xbf16>, tensor<1x4x17x256xbf16>) -> tensor<32x4x128x256xbf16> loc(#loc80)
        %140 = "ttir.slice_static"(%85) <{begins = [27 : i32, 0 : i32, 0 : i32, 0 : i32], ends = [28 : i32, 4 : i32, 17 : i32, 256 : i32], step = [1 : i32, 1 : i32, 1 : i32, 1 : i32]}> : (tensor<32x4x17x256xbf16>) -> tensor<1x4x17x256xbf16> loc(#loc80)
        %141 = "ttir.fill_cache"(%139, %140) <{batch_offset = 27 : i32}> : (tensor<32x4x128x256xbf16>, tensor<1x4x17x256xbf16>) -> tensor<32x4x128x256xbf16> loc(#loc80)
        %142 = "ttir.slice_static"(%85) <{begins = [28 : i32, 0 : i32, 0 : i32, 0 : i32], ends = [29 : i32, 4 : i32, 17 : i32, 256 : i32], step = [1 : i32, 1 : i32, 1 : i32, 1 : i32]}> : (tensor<32x4x17x256xbf16>) -> tensor<1x4x17x256xbf16> loc(#loc80)
        %143 = "ttir.fill_cache"(%141, %142) <{batch_offset = 28 : i32}> : (tensor<32x4x128x256xbf16>, tensor<1x4x17x256xbf16>) -> tensor<32x4x128x256xbf16> loc(#loc80)
        %144 = "ttir.slice_static"(%85) <{begins = [29 : i32, 0 : i32, 0 : i32, 0 : i32], ends = [30 : i32, 4 : i32, 17 : i32, 256 : i32], step = [1 : i32, 1 : i32, 1 : i32, 1 : i32]}> : (tensor<32x4x17x256xbf16>) -> tensor<1x4x17x256xbf16> loc(#loc80)
        %145 = "ttir.fill_cache"(%143, %144) <{batch_offset = 29 : i32}> : (tensor<32x4x128x256xbf16>, tensor<1x4x17x256xbf16>) -> tensor<32x4x128x256xbf16> loc(#loc80)
        %146 = "ttir.slice_static"(%85) <{begins = [30 : i32, 0 : i32, 0 : i32, 0 : i32], ends = [31 : i32, 4 : i32, 17 : i32, 256 : i32], step = [1 : i32, 1 : i32, 1 : i32, 1 : i32]}> : (tensor<32x4x17x256xbf16>) -> tensor<1x4x17x256xbf16> loc(#loc80)
        %147 = "ttir.fill_cache"(%145, %146) <{batch_offset = 30 : i32}> : (tensor<32x4x128x256xbf16>, tensor<1x4x17x256xbf16>) -> tensor<32x4x128x256xbf16> loc(#loc80)
        %148 = "ttir.slice_static"(%85) <{begins = [31 : i32, 0 : i32, 0 : i32, 0 : i32], ends = [32 : i32, 4 : i32, 17 : i32, 256 : i32], step = [1 : i32, 1 : i32, 1 : i32, 1 : i32]}> : (tensor<32x4x17x256xbf16>) -> tensor<1x4x17x256xbf16> loc(#loc80)
        %149 = "ttir.fill_cache"(%147, %148) <{batch_offset = 31 : i32}> : (tensor<32x4x128x256xbf16>, tensor<1x4x17x256xbf16>) -> tensor<32x4x128x256xbf16> loc(#loc80)
        %150 = "ttir.reshape"(%arg7) <{shape = [1 : i32, 1024 : i32, 2304 : i32]}> : (tensor<1024x2304xbf16>) -> tensor<1x1024x2304xbf16> loc(#loc81)
        %151 = "ttir.reshape"(%150) <{shape = [1024 : i32, 2304 : i32]}> : (tensor<1x1024x2304xbf16>) -> tensor<1024x2304xbf16> loc(#loc82)
        %152 = "ttir.permute"(%151) <{permutation = array<i64: 1, 0>}> : (tensor<1024x2304xbf16>) -> tensor<2304x1024xbf16> loc(#loc83)
        %153 = "ttir.dot_general"(%55, %152) <{batch_dims_lhs = array<i64>, batch_dims_rhs = array<i64>, contract_dims_lhs = array<i64: 1>, contract_dims_rhs = array<i64: 0>}> : (tensor<544x2304xbf16>, tensor<2304x1024xbf16>) -> tensor<544x1024xbf16> loc(#loc84)
        %154 = "ttir.reshape"(%153) <{shape = [32 : i32, 17 : i32, 4 : i32, 256 : i32]}> : (tensor<544x1024xbf16>) -> tensor<32x17x4x256xbf16> loc(#loc85)
        %155 = "ttir.permute"(%154) <{permutation = array<i64: 0, 2, 1, 3>}> : (tensor<32x17x4x256xbf16>) -> tensor<32x4x17x256xbf16> loc(#loc86)
        %156 = "ttir.slice_static"(%155) <{begins = [0 : i32, 0 : i32, 0 : i32, 0 : i32], ends = [1 : i32, 4 : i32, 17 : i32, 256 : i32], step = [1 : i32, 1 : i32, 1 : i32, 1 : i32]}> : (tensor<32x4x17x256xbf16>) -> tensor<1x4x17x256xbf16> loc(#loc87)
        %157 = "ttir.fill_cache"(%arg8, %156) <{batch_offset = 0 : i32}> : (tensor<32x4x128x256xbf16>, tensor<1x4x17x256xbf16>) -> tensor<32x4x128x256xbf16> loc(#loc87)
        %158 = "ttir.slice_static"(%155) <{begins = [1 : i32, 0 : i32, 0 : i32, 0 : i32], ends = [2 : i32, 4 : i32, 17 : i32, 256 : i32], step = [1 : i32, 1 : i32, 1 : i32, 1 : i32]}> : (tensor<32x4x17x256xbf16>) -> tensor<1x4x17x256xbf16> loc(#loc87)
        %159 = "ttir.fill_cache"(%157, %158) <{batch_offset = 1 : i32}> : (tensor<32x4x128x256xbf16>, tensor<1x4x17x256xbf16>) -> tensor<32x4x128x256xbf16> loc(#loc87)
        %160 = "ttir.slice_static"(%155) <{begins = [2 : i32, 0 : i32, 0 : i32, 0 : i32], ends = [3 : i32, 4 : i32, 17 : i32, 256 : i32], step = [1 : i32, 1 : i32, 1 : i32, 1 : i32]}> : (tensor<32x4x17x256xbf16>) -> tensor<1x4x17x256xbf16> loc(#loc87)
        %161 = "ttir.fill_cache"(%159, %160) <{batch_offset = 2 : i32}> : (tensor<32x4x128x256xbf16>, tensor<1x4x17x256xbf16>) -> tensor<32x4x128x256xbf16> loc(#loc87)
        %162 = "ttir.slice_static"(%155) <{begins = [3 : i32, 0 : i32, 0 : i32, 0 : i32], ends = [4 : i32, 4 : i32, 17 : i32, 256 : i32], step = [1 : i32, 1 : i32, 1 : i32, 1 : i32]}> : (tensor<32x4x17x256xbf16>) -> tensor<1x4x17x256xbf16> loc(#loc87)
        %163 = "ttir.fill_cache"(%161, %162) <{batch_offset = 3 : i32}> : (tensor<32x4x128x256xbf16>, tensor<1x4x17x256xbf16>) -> tensor<32x4x128x256xbf16> loc(#loc87)
        %164 = "ttir.slice_static"(%155) <{begins = [4 : i32, 0 : i32, 0 : i32, 0 : i32], ends = [5 : i32, 4 : i32, 17 : i32, 256 : i32], step = [1 : i32, 1 : i32, 1 : i32, 1 : i32]}> : (tensor<32x4x17x256xbf16>) -> tensor<1x4x17x256xbf16> loc(#loc87)
        %165 = "ttir.fill_cache"(%163, %164) <{batch_offset = 4 : i32}> : (tensor<32x4x128x256xbf16>, tensor<1x4x17x256xbf16>) -> tensor<32x4x128x256xbf16> loc(#loc87)
        %166 = "ttir.slice_static"(%155) <{begins = [5 : i32, 0 : i32, 0 : i32, 0 : i32], ends = [6 : i32, 4 : i32, 17 : i32, 256 : i32], step = [1 : i32, 1 : i32, 1 : i32, 1 : i32]}> : (tensor<32x4x17x256xbf16>) -> tensor<1x4x17x256xbf16> loc(#loc87)
        %167 = "ttir.fill_cache"(%165, %166) <{batch_offset = 5 : i32}> : (tensor<32x4x128x256xbf16>, tensor<1x4x17x256xbf16>) -> tensor<32x4x128x256xbf16> loc(#loc87)
        %168 = "ttir.slice_static"(%155) <{begins = [6 : i32, 0 : i32, 0 : i32, 0 : i32], ends = [7 : i32, 4 : i32, 17 : i32, 256 : i32], step = [1 : i32, 1 : i32, 1 : i32, 1 : i32]}> : (tensor<32x4x17x256xbf16>) -> tensor<1x4x17x256xbf16> loc(#loc87)
        %169 = "ttir.fill_cache"(%167, %168) <{batch_offset = 6 : i32}> : (tensor<32x4x128x256xbf16>, tensor<1x4x17x256xbf16>) -> tensor<32x4x128x256xbf16> loc(#loc87)
        %170 = "ttir.slice_static"(%155) <{begins = [7 : i32, 0 : i32, 0 : i32, 0 : i32], ends = [8 : i32, 4 : i32, 17 : i32, 256 : i32], step = [1 : i32, 1 : i32, 1 : i32, 1 : i32]}> : (tensor<32x4x17x256xbf16>) -> tensor<1x4x17x256xbf16> loc(#loc87)
        %171 = "ttir.fill_cache"(%169, %170) <{batch_offset = 7 : i32}> : (tensor<32x4x128x256xbf16>, tensor<1x4x17x256xbf16>) -> tensor<32x4x128x256xbf16> loc(#loc87)
        %172 = "ttir.slice_static"(%155) <{begins = [8 : i32, 0 : i32, 0 : i32, 0 : i32], ends = [9 : i32, 4 : i32, 17 : i32, 256 : i32], step = [1 : i32, 1 : i32, 1 : i32, 1 : i32]}> : (tensor<32x4x17x256xbf16>) -> tensor<1x4x17x256xbf16> loc(#loc87)
        %173 = "ttir.fill_cache"(%171, %172) <{batch_offset = 8 : i32}> : (tensor<32x4x128x256xbf16>, tensor<1x4x17x256xbf16>) -> tensor<32x4x128x256xbf16> loc(#loc87)
        %174 = "ttir.slice_static"(%155) <{begins = [9 : i32, 0 : i32, 0 : i32, 0 : i32], ends = [10 : i32, 4 : i32, 17 : i32, 256 : i32], step = [1 : i32, 1 : i32, 1 : i32, 1 : i32]}> : (tensor<32x4x17x256xbf16>) -> tensor<1x4x17x256xbf16> loc(#loc87)
        %175 = "ttir.fill_cache"(%173, %174) <{batch_offset = 9 : i32}> : (tensor<32x4x128x256xbf16>, tensor<1x4x17x256xbf16>) -> tensor<32x4x128x256xbf16> loc(#loc87)
        %176 = "ttir.slice_static"(%155) <{begins = [10 : i32, 0 : i32, 0 : i32, 0 : i32], ends = [11 : i32, 4 : i32, 17 : i32, 256 : i32], step = [1 : i32, 1 : i32, 1 : i32, 1 : i32]}> : (tensor<32x4x17x256xbf16>) -> tensor<1x4x17x256xbf16> loc(#loc87)
        %177 = "ttir.fill_cache"(%175, %176) <{batch_offset = 10 : i32}> : (tensor<32x4x128x256xbf16>, tensor<1x4x17x256xbf16>) -> tensor<32x4x128x256xbf16> loc(#loc87)
        %178 = "ttir.slice_static"(%155) <{begins = [11 : i32, 0 : i32, 0 : i32, 0 : i32], ends = [12 : i32, 4 : i32, 17 : i32, 256 : i32], step = [1 : i32, 1 : i32, 1 : i32, 1 : i32]}> : (tensor<32x4x17x256xbf16>) -> tensor<1x4x17x256xbf16> loc(#loc87)
        %179 = "ttir.fill_cache"(%177, %178) <{batch_offset = 11 : i32}> : (tensor<32x4x128x256xbf16>, tensor<1x4x17x256xbf16>) -> tensor<32x4x128x256xbf16> loc(#loc87)
        %180 = "ttir.slice_static"(%155) <{begins = [12 : i32, 0 : i32, 0 : i32, 0 : i32], ends = [13 : i32, 4 : i32, 17 : i32, 256 : i32], step = [1 : i32, 1 : i32, 1 : i32, 1 : i32]}> : (tensor<32x4x17x256xbf16>) -> tensor<1x4x17x256xbf16> loc(#loc87)
        %181 = "ttir.fill_cache"(%179, %180) <{batch_offset = 12 : i32}> : (tensor<32x4x128x256xbf16>, tensor<1x4x17x256xbf16>) -> tensor<32x4x128x256xbf16> loc(#loc87)
        %182 = "ttir.slice_static"(%155) <{begins = [13 : i32, 0 : i32, 0 : i32, 0 : i32], ends = [14 : i32, 4 : i32, 17 : i32, 256 : i32], step = [1 : i32, 1 : i32, 1 : i32, 1 : i32]}> : (tensor<32x4x17x256xbf16>) -> tensor<1x4x17x256xbf16> loc(#loc87)
        %183 = "ttir.fill_cache"(%181, %182) <{batch_offset = 13 : i32}> : (tensor<32x4x128x256xbf16>, tensor<1x4x17x256xbf16>) -> tensor<32x4x128x256xbf16> loc(#loc87)
        %184 = "ttir.slice_static"(%155) <{begins = [14 : i32, 0 : i32, 0 : i32, 0 : i32], ends = [15 : i32, 4 : i32, 17 : i32, 256 : i32], step = [1 : i32, 1 : i32, 1 : i32, 1 : i32]}> : (tensor<32x4x17x256xbf16>) -> tensor<1x4x17x256xbf16> loc(#loc87)
        %185 = "ttir.fill_cache"(%183, %184) <{batch_offset = 14 : i32}> : (tensor<32x4x128x256xbf16>, tensor<1x4x17x256xbf16>) -> tensor<32x4x128x256xbf16> loc(#loc87)
        %186 = "ttir.slice_static"(%155) <{begins = [15 : i32, 0 : i32, 0 : i32, 0 : i32], ends = [16 : i32, 4 : i32, 17 : i32, 256 : i32], step = [1 : i32, 1 : i32, 1 : i32, 1 : i32]}> : (tensor<32x4x17x256xbf16>) -> tensor<1x4x17x256xbf16> loc(#loc87)
        %187 = "ttir.fill_cache"(%185, %186) <{batch_offset = 15 : i32}> : (tensor<32x4x128x256xbf16>, tensor<1x4x17x256xbf16>) -> tensor<32x4x128x256xbf16> loc(#loc87)
        %188 = "ttir.slice_static"(%155) <{begins = [16 : i32, 0 : i32, 0 : i32, 0 : i32], ends = [17 : i32, 4 : i32, 17 : i32, 256 : i32], step = [1 : i32, 1 : i32, 1 : i32, 1 : i32]}> : (tensor<32x4x17x256xbf16>) -> tensor<1x4x17x256xbf16> loc(#loc87)
        %189 = "ttir.fill_cache"(%187, %188) <{batch_offset = 16 : i32}> : (tensor<32x4x128x256xbf16>, tensor<1x4x17x256xbf16>) -> tensor<32x4x128x256xbf16> loc(#loc87)
        %190 = "ttir.slice_static"(%155) <{begins = [17 : i32, 0 : i32, 0 : i32, 0 : i32], ends = [18 : i32, 4 : i32, 17 : i32, 256 : i32], step = [1 : i32, 1 : i32, 1 : i32, 1 : i32]}> : (tensor<32x4x17x256xbf16>) -> tensor<1x4x17x256xbf16> loc(#loc87)
        %191 = "ttir.fill_cache"(%189, %190) <{batch_offset = 17 : i32}> : (tensor<32x4x128x256xbf16>, tensor<1x4x17x256xbf16>) -> tensor<32x4x128x256xbf16> loc(#loc87)
        %192 = "ttir.slice_static"(%155) <{begins = [18 : i32, 0 : i32, 0 : i32, 0 : i32], ends = [19 : i32, 4 : i32, 17 : i32, 256 : i32], step = [1 : i32, 1 : i32, 1 : i32, 1 : i32]}> : (tensor<32x4x17x256xbf16>) -> tensor<1x4x17x256xbf16> loc(#loc87)
        %193 = "ttir.fill_cache"(%191, %192) <{batch_offset = 18 : i32}> : (tensor<32x4x128x256xbf16>, tensor<1x4x17x256xbf16>) -> tensor<32x4x128x256xbf16> loc(#loc87)
        %194 = "ttir.slice_static"(%155) <{begins = [19 : i32, 0 : i32, 0 : i32, 0 : i32], ends = [20 : i32, 4 : i32, 17 : i32, 256 : i32], step = [1 : i32, 1 : i32, 1 : i32, 1 : i32]}> : (tensor<32x4x17x256xbf16>) -> tensor<1x4x17x256xbf16> loc(#loc87)
        %195 = "ttir.fill_cache"(%193, %194) <{batch_offset = 19 : i32}> : (tensor<32x4x128x256xbf16>, tensor<1x4x17x256xbf16>) -> tensor<32x4x128x256xbf16> loc(#loc87)
        %196 = "ttir.slice_static"(%155) <{begins = [20 : i32, 0 : i32, 0 : i32, 0 : i32], ends = [21 : i32, 4 : i32, 17 : i32, 256 : i32], step = [1 : i32, 1 : i32, 1 : i32, 1 : i32]}> : (tensor<32x4x17x256xbf16>) -> tensor<1x4x17x256xbf16> loc(#loc87)
        %197 = "ttir.fill_cache"(%195, %196) <{batch_offset = 20 : i32}> : (tensor<32x4x128x256xbf16>, tensor<1x4x17x256xbf16>) -> tensor<32x4x128x256xbf16> loc(#loc87)
        %198 = "ttir.slice_static"(%155) <{begins = [21 : i32, 0 : i32, 0 : i32, 0 : i32], ends = [22 : i32, 4 : i32, 17 : i32, 256 : i32], step = [1 : i32, 1 : i32, 1 : i32, 1 : i32]}> : (tensor<32x4x17x256xbf16>) -> tensor<1x4x17x256xbf16> loc(#loc87)
        %199 = "ttir.fill_cache"(%197, %198) <{batch_offset = 21 : i32}> : (tensor<32x4x128x256xbf16>, tensor<1x4x17x256xbf16>) -> tensor<32x4x128x256xbf16> loc(#loc87)
        %200 = "ttir.slice_static"(%155) <{begins = [22 : i32, 0 : i32, 0 : i32, 0 : i32], ends = [23 : i32, 4 : i32, 17 : i32, 256 : i32], step = [1 : i32, 1 : i32, 1 : i32, 1 : i32]}> : (tensor<32x4x17x256xbf16>) -> tensor<1x4x17x256xbf16> loc(#loc87)
        %201 = "ttir.fill_cache"(%199, %200) <{batch_offset = 22 : i32}> : (tensor<32x4x128x256xbf16>, tensor<1x4x17x256xbf16>) -> tensor<32x4x128x256xbf16> loc(#loc87)
        %202 = "ttir.slice_static"(%155) <{begins = [23 : i32, 0 : i32, 0 : i32, 0 : i32], ends = [24 : i32, 4 : i32, 17 : i32, 256 : i32], step = [1 : i32, 1 : i32, 1 : i32, 1 : i32]}> : (tensor<32x4x17x256xbf16>) -> tensor<1x4x17x256xbf16> loc(#loc87)
        %203 = "ttir.fill_cache"(%201, %202) <{batch_offset = 23 : i32}> : (tensor<32x4x128x256xbf16>, tensor<1x4x17x256xbf16>) -> tensor<32x4x128x256xbf16> loc(#loc87)
        %204 = "ttir.slice_static"(%155) <{begins = [24 : i32, 0 : i32, 0 : i32, 0 : i32], ends = [25 : i32, 4 : i32, 17 : i32, 256 : i32], step = [1 : i32, 1 : i32, 1 : i32, 1 : i32]}> : (tensor<32x4x17x256xbf16>) -> tensor<1x4x17x256xbf16> loc(#loc87)
        %205 = "ttir.fill_cache"(%203, %204) <{batch_offset = 24 : i32}> : (tensor<32x4x128x256xbf16>, tensor<1x4x17x256xbf16>) -> tensor<32x4x128x256xbf16> loc(#loc87)
        %206 = "ttir.slice_static"(%155) <{begins = [25 : i32, 0 : i32, 0 : i32, 0 : i32], ends = [26 : i32, 4 : i32, 17 : i32, 256 : i32], step = [1 : i32, 1 : i32, 1 : i32, 1 : i32]}> : (tensor<32x4x17x256xbf16>) -> tensor<1x4x17x256xbf16> loc(#loc87)
        %207 = "ttir.fill_cache"(%205, %206) <{batch_offset = 25 : i32}> : (tensor<32x4x128x256xbf16>, tensor<1x4x17x256xbf16>) -> tensor<32x4x128x256xbf16> loc(#loc87)
        %208 = "ttir.slice_static"(%155) <{begins = [26 : i32, 0 : i32, 0 : i32, 0 : i32], ends = [27 : i32, 4 : i32, 17 : i32, 256 : i32], step = [1 : i32, 1 : i32, 1 : i32, 1 : i32]}> : (tensor<32x4x17x256xbf16>) -> tensor<1x4x17x256xbf16> loc(#loc87)
        %209 = "ttir.fill_cache"(%207, %208) <{batch_offset = 26 : i32}> : (tensor<32x4x128x256xbf16>, tensor<1x4x17x256xbf16>) -> tensor<32x4x128x256xbf16> loc(#loc87)
        %210 = "ttir.slice_static"(%155) <{begins = [27 : i32, 0 : i32, 0 : i32, 0 : i32], ends = [28 : i32, 4 : i32, 17 : i32, 256 : i32], step = [1 : i32, 1 : i32, 1 : i32, 1 : i32]}> : (tensor<32x4x17x256xbf16>) -> tensor<1x4x17x256xbf16> loc(#loc87)
        %211 = "ttir.fill_cache"(%209, %210) <{batch_offset = 27 : i32}> : (tensor<32x4x128x256xbf16>, tensor<1x4x17x256xbf16>) -> tensor<32x4x128x256xbf16> loc(#loc87)
        %212 = "ttir.slice_static"(%155) <{begins = [28 : i32, 0 : i32, 0 : i32, 0 : i32], ends = [29 : i32, 4 : i32, 17 : i32, 256 : i32], step = [1 : i32, 1 : i32, 1 : i32, 1 : i32]}> : (tensor<32x4x17x256xbf16>) -> tensor<1x4x17x256xbf16> loc(#loc87)
        %213 = "ttir.fill_cache"(%211, %212) <{batch_offset = 28 : i32}> : (tensor<32x4x128x256xbf16>, tensor<1x4x17x256xbf16>) -> tensor<32x4x128x256xbf16> loc(#loc87)
        %214 = "ttir.slice_static"(%155) <{begins = [29 : i32, 0 : i32, 0 : i32, 0 : i32], ends = [30 : i32, 4 : i32, 17 : i32, 256 : i32], step = [1 : i32, 1 : i32, 1 : i32, 1 : i32]}> : (tensor<32x4x17x256xbf16>) -> tensor<1x4x17x256xbf16> loc(#loc87)
        %215 = "ttir.fill_cache"(%213, %214) <{batch_offset = 29 : i32}> : (tensor<32x4x128x256xbf16>, tensor<1x4x17x256xbf16>) -> tensor<32x4x128x256xbf16> loc(#loc87)
        %216 = "ttir.slice_static"(%155) <{begins = [30 : i32, 0 : i32, 0 : i32, 0 : i32], ends = [31 : i32, 4 : i32, 17 : i32, 256 : i32], step = [1 : i32, 1 : i32, 1 : i32, 1 : i32]}> : (tensor<32x4x17x256xbf16>) -> tensor<1x4x17x256xbf16> loc(#loc87)
        %217 = "ttir.fill_cache"(%215, %216) <{batch_offset = 30 : i32}> : (tensor<32x4x128x256xbf16>, tensor<1x4x17x256xbf16>) -> tensor<32x4x128x256xbf16> loc(#loc87)
        %218 = "ttir.slice_static"(%155) <{begins = [31 : i32, 0 : i32, 0 : i32, 0 : i32], ends = [32 : i32, 4 : i32, 17 : i32, 256 : i32], step = [1 : i32, 1 : i32, 1 : i32, 1 : i32]}> : (tensor<32x4x17x256xbf16>) -> tensor<1x4x17x256xbf16> loc(#loc87)
        %219 = "ttir.fill_cache"(%217, %218) <{batch_offset = 31 : i32}> : (tensor<32x4x128x256xbf16>, tensor<1x4x17x256xbf16>) -> tensor<32x4x128x256xbf16> loc(#loc87)
        %220 = "ttir.reshape"(%arg18) <{shape = [1 : i32, 2048 : i32, 2304 : i32]}> : (tensor<2048x2304xbf16>) -> tensor<1x2048x2304xbf16> loc(#loc88)
        %221 = "ttir.reshape"(%220) <{shape = [2048 : i32, 2304 : i32]}> : (tensor<1x2048x2304xbf16>) -> tensor<2048x2304xbf16> loc(#loc89)
        %222 = "ttir.permute"(%221) <{permutation = array<i64: 1, 0>}> : (tensor<2048x2304xbf16>) -> tensor<2304x2048xbf16> loc(#loc90)
        %223 = "ttir.dot_general"(%55, %222) <{batch_dims_lhs = array<i64>, batch_dims_rhs = array<i64>, contract_dims_lhs = array<i64: 1>, contract_dims_rhs = array<i64: 0>}> : (tensor<544x2304xbf16>, tensor<2304x2048xbf16>) -> tensor<544x2048xbf16> loc(#loc91)
        %224 = "ttir.reshape"(%223) <{shape = [32 : i32, 17 : i32, 8 : i32, 256 : i32]}> : (tensor<544x2048xbf16>) -> tensor<32x17x8x256xbf16> loc(#loc92)
        %225 = "ttir.permute"(%224) <{permutation = array<i64: 0, 2, 1, 3>}> : (tensor<32x17x8x256xbf16>) -> tensor<32x8x17x256xbf16> loc(#loc93)
        %226 = "ttir.broadcast"(%72) <{broadcast_dimensions = array<i64: 32, 8, 1, 1>}> : (tensor<1x1x17x256xbf16>) -> tensor<32x8x17x256xbf16> loc(#loc94)
        %227 = "ttir.multiply"(%225, %226) : (tensor<32x8x17x256xbf16>, tensor<32x8x17x256xbf16>) -> tensor<32x8x17x256xbf16> loc(#loc95)
        %228 = "ttir.slice_static"(%225) <{begins = [0 : i32, 0 : i32, 0 : i32, 128 : i32], ends = [32 : i32, 8 : i32, 17 : i32, 256 : i32], step = [1 : i32, 1 : i32, 1 : i32, 1 : i32]}> : (tensor<32x8x17x256xbf16>) -> tensor<32x8x17x128xbf16> loc(#loc96)
        %229 = "ttir.neg"(%228) : (tensor<32x8x17x128xbf16>) -> tensor<32x8x17x128xbf16> loc(#loc97)
        %230 = "ttir.slice_static"(%225) <{begins = [0 : i32, 0 : i32, 0 : i32, 0 : i32], ends = [32 : i32, 8 : i32, 17 : i32, 128 : i32], step = [1 : i32, 1 : i32, 1 : i32, 1 : i32]}> : (tensor<32x8x17x256xbf16>) -> tensor<32x8x17x128xbf16> loc(#loc98)
        %231 = "ttir.concat"(%229, %230) <{dim = 3 : si32}> : (tensor<32x8x17x128xbf16>, tensor<32x8x17x128xbf16>) -> tensor<32x8x17x256xbf16> loc(#loc99)
        %232 = "ttir.broadcast"(%82) <{broadcast_dimensions = array<i64: 32, 8, 1, 1>}> : (tensor<1x1x17x256xbf16>) -> tensor<32x8x17x256xbf16> loc(#loc100)
        %233 = "ttir.multiply"(%231, %232) : (tensor<32x8x17x256xbf16>, tensor<32x8x17x256xbf16>) -> tensor<32x8x17x256xbf16> loc(#loc101)
        %234 = "ttir.add"(%227, %233) : (tensor<32x8x17x256xbf16>, tensor<32x8x17x256xbf16>) -> tensor<32x8x17x256xbf16> loc(#loc102)
        %235 = "ttir.reshape"(%149) <{shape = [32 : i32, 4 : i32, 1 : i32, 128 : i32, 256 : i32]}> : (tensor<32x4x128x256xbf16>) -> tensor<32x4x1x128x256xbf16> loc(#loc103)
        %236 = "ttir.broadcast"(%235) <{broadcast_dimensions = array<i64: 1, 1, 2, 1, 1>}> : (tensor<32x4x1x128x256xbf16>) -> tensor<32x4x2x128x256xbf16> loc(#loc103)
        %237 = "ttir.reshape"(%236) <{shape = [32 : i32, 8 : i32, 128 : i32, 256 : i32]}> : (tensor<32x4x2x128x256xbf16>) -> tensor<32x8x128x256xbf16> loc(#loc104)
        %238 = "ttir.permute"(%237) <{permutation = array<i64: 0, 1, 3, 2>}> : (tensor<32x8x128x256xbf16>) -> tensor<32x8x256x128xbf16> loc(#loc105)
        %239 = "ttir.dot_general"(%234, %238) <{batch_dims_lhs = array<i64: 0, 1>, batch_dims_rhs = array<i64: 0, 1>, contract_dims_lhs = array<i64: 3>, contract_dims_rhs = array<i64: 2>}> : (tensor<32x8x17x256xbf16>, tensor<32x8x256x128xbf16>) -> tensor<32x8x17x128xbf16> loc(#loc106)
        %240 = "ttir.multiply"(%239, %11) : (tensor<32x8x17x128xbf16>, tensor<32x8x17x128xbf16>) -> tensor<32x8x17x128xbf16> loc(#loc107)
        %241 = "ttir.div"(%240, %10) : (tensor<32x8x17x128xbf16>, tensor<32x8x17x128xbf16>) -> tensor<32x8x17x128xbf16> loc(#loc108)
        %242 = "ttir.tanh"(%241) : (tensor<32x8x17x128xbf16>) -> tensor<32x8x17x128xbf16> loc(#loc109)
        %243 = "ttir.multiply"(%242, %10) : (tensor<32x8x17x128xbf16>, tensor<32x8x17x128xbf16>) -> tensor<32x8x17x128xbf16> loc(#loc110)
        %244 = "ttir.reshape"(%21) <{shape = [1 : i32, 128 : i32]}> : (tensor<128xi64>) -> tensor<1x128xi64> loc(#loc111)
        %245 = "ttir.broadcast"(%244) <{broadcast_dimensions = array<i64: 17, 1>}> : (tensor<1x128xi64>) -> tensor<17x128xi64> loc(#loc111)
        %246 = "ttir.reshape"(%20) <{shape = [17 : i32, 1 : i32]}> : (tensor<17xi64>) -> tensor<17x1xi64> loc(#loc112)
        %247 = "ttir.broadcast"(%246) <{broadcast_dimensions = array<i64: 1, 128>}> : (tensor<17x1xi64>) -> tensor<17x128xi64> loc(#loc112)
        %248 = "ttir.subtract"(%245, %247) : (tensor<17x128xi64>, tensor<17x128xi64>) -> tensor<17x128xi64> loc(#loc113)
        %249 = "ttir.le"(%248, %9) : (tensor<17x128xi64>, tensor<17x128xi64>) -> tensor<17x128xi1> loc(#loc114)
        %250 = "ttir.reshape"(%249) <{shape = [1 : i32, 1 : i32, 17 : i32, 128 : i32]}> : (tensor<17x128xi1>) -> tensor<1x1x17x128xi1> loc(#loc115)
        %251 = "ttir.broadcast"(%250) <{broadcast_dimensions = array<i64: 32, 1, 1, 1>}> : (tensor<1x1x17x128xi1>) -> tensor<32x1x17x128xi1> loc(#loc115)
        %252 = "ttir.reshape"(%arg17) <{shape = [1 : i32]}> : (tensor<i1>) -> tensor<1xi1> loc(#loc116)
        %253 = "ttir.reshape"(%252) <{shape = [1 : i32, 1 : i32, 1 : i32, 1 : i32]}> : (tensor<1xi1>) -> tensor<1x1x1x1xi1> loc(#loc117)
        %254 = "ttir.broadcast"(%253) <{broadcast_dimensions = array<i64: 32, 1, 17, 128>}> : (tensor<1x1x1x1xi1>) -> tensor<32x1x17x128xi1> loc(#loc117)
        %255 = "ttir.logical_and"(%251, %254) : (tensor<32x1x17x128xi1>, tensor<32x1x17x128xi1>) -> tensor<32x1x17x128xi1> loc(#loc118)
        %256 = "ttir.ge"(%248, %7) : (tensor<17x128xi64>, tensor<17x128xi64>) -> tensor<17x128xi1> loc(#loc119)
        %257 = "ttir.where"(%256, %6, %5) : (tensor<17x128xi1>, tensor<17x128xbf16>, tensor<17x128xbf16>) -> tensor<17x128xbf16> loc(#loc120)
        %258 = "ttir.reshape"(%24) <{shape = [17 : i32, 1 : i32]}> : (tensor<17xi64>) -> tensor<17x1xi64> loc(#loc121)
        %259 = "ttir.broadcast"(%258) <{broadcast_dimensions = array<i64: 1, 128>}> : (tensor<17x1xi64>) -> tensor<17x128xi64> loc(#loc121)
        %260 = "ttir.gt"(%245, %259) : (tensor<17x128xi64>, tensor<17x128xi64>) -> tensor<17x128xi1> loc(#loc122)
        %261 = "ttir.typecast"(%260) <{conservative_folding = false}> : (tensor<17x128xi1>) -> tensor<17x128xbf16> loc(#loc123)
        %262 = "ttir.multiply"(%257, %261) : (tensor<17x128xbf16>, tensor<17x128xbf16>) -> tensor<17x128xbf16> loc(#loc124)
        %263 = "ttir.reshape"(%262) <{shape = [1 : i32, 17 : i32, 128 : i32]}> : (tensor<17x128xbf16>) -> tensor<1x17x128xbf16> loc(#loc125)
        %264 = "ttir.reshape"(%263) <{shape = [1 : i32, 1 : i32, 17 : i32, 128 : i32]}> : (tensor<1x17x128xbf16>) -> tensor<1x1x17x128xbf16> loc(#loc126)
        %265 = "ttir.broadcast"(%264) <{broadcast_dimensions = array<i64: 32, 1, 1, 1>}> : (tensor<1x1x17x128xbf16>) -> tensor<32x1x17x128xbf16> loc(#loc126)
        %266 = "ttir.where"(%255, %8, %265) : (tensor<32x1x17x128xi1>, tensor<32x1x17x128xbf16>, tensor<32x1x17x128xbf16>) -> tensor<32x1x17x128xbf16> loc(#loc127)
        %267 = "ttir.slice_static"(%24) <{begins = [16 : i32], ends = [17 : i32], step = [1 : i32]}> : (tensor<17xi64>) -> tensor<1xi64> loc(#loc128)
        %268 = "ttir.reshape"(%267) <{shape = []}> : (tensor<1xi64>) -> tensor<i64> loc(#loc129)
        %269 = "ttir.subtract"(%268, %4) : (tensor<i64>, tensor<i64>) -> tensor<i64> loc(#loc130)
        %270 = "ttir.add"(%269, %3) : (tensor<i64>, tensor<i64>) -> tensor<i64> loc(#loc131)
        %271 = "ttir.clamp_tensor"(%270, %22, %19) : (tensor<i64>, tensor<i64>, tensor<i64>) -> tensor<i64> loc(#loc132)
        %272 = "ttir.reshape"(%271) <{shape = [1 : i32]}> : (tensor<i64>) -> tensor<1xi64> loc(#loc133)
        %273 = "ttir.broadcast"(%272) <{broadcast_dimensions = array<i64: 128>}> : (tensor<1xi64>) -> tensor<128xi64> loc(#loc133)
        %274 = "ttir.add"(%273, %21) : (tensor<128xi64>, tensor<128xi64>) -> tensor<128xi64> loc(#loc134)
        %275 = "ttir.lt"(%274, %2) : (tensor<128xi64>, tensor<128xi64>) -> tensor<128xi1> loc(#loc135)
        %276 = "ttir.add"(%274, %1) : (tensor<128xi64>, tensor<128xi64>) -> tensor<128xi64> loc(#loc136)
        %277 = "ttir.where"(%275, %276, %274) : (tensor<128xi1>, tensor<128xi64>, tensor<128xi64>) -> tensor<128xi64> loc(#loc137)
        %278 = "ttir.reshape"(%277) <{shape = [128 : i32, 1 : i32]}> : (tensor<128xi64>) -> tensor<128x1xi64> loc(#loc138)
        %279 = "ttir.gather"(%266, %278) <{collapsed_slice_dims = array<i64: 3>, index_vector_dim = 1 : si64, indices_are_sorted = false, offset_dims = array<i64: 0, 1, 2>, operand_batching_dims = array<i64>, slice_sizes = array<i64: 32, 1, 17, 1>, start_index_map = array<i64: 3>, start_indices_batching_dims = array<i64>}> : (tensor<32x1x17x128xbf16>, tensor<128x1xi64>) -> tensor<32x1x17x128xbf16> loc(#loc139)
        %280 = "ttir.reshape"(%279) <{shape = [32 : i32, 17 : i32, 128 : i32]}> : (tensor<32x1x17x128xbf16>) -> tensor<32x17x128xbf16> loc(#loc140)
        %281 = "ttir.reshape"(%280) <{shape = [32 : i32, 1 : i32, 17 : i32, 128 : i32]}> : (tensor<32x17x128xbf16>) -> tensor<32x1x17x128xbf16> loc(#loc141)
        %282 = "ttir.broadcast"(%281) <{broadcast_dimensions = array<i64: 1, 8, 1, 1>}> : (tensor<32x1x17x128xbf16>) -> tensor<32x8x17x128xbf16> loc(#loc141)
        %283 = "ttir.add"(%243, %282) : (tensor<32x8x17x128xbf16>, tensor<32x8x17x128xbf16>) -> tensor<32x8x17x128xbf16> loc(#loc142)
        %284 = "ttir.typecast"(%283) <{conservative_folding = false}> : (tensor<32x8x17x128xbf16>) -> tensor<32x8x17x128xf32> loc(#loc143)
        %285 = "ttir.max"(%284) <{dim_arg = [3 : i32], keep_dim = false}> : (tensor<32x8x17x128xf32>) -> tensor<32x8x17xf32> loc(#loc144)
        %286 = "ttir.reshape"(%285) <{shape = [32 : i32, 8 : i32, 17 : i32, 1 : i32]}> : (tensor<32x8x17xf32>) -> tensor<32x8x17x1xf32> loc(#loc145)
        %287 = "ttir.broadcast"(%286) <{broadcast_dimensions = array<i64: 1, 1, 1, 128>}> : (tensor<32x8x17x1xf32>) -> tensor<32x8x17x128xf32> loc(#loc145)
        %288 = "ttir.subtract"(%284, %287) : (tensor<32x8x17x128xf32>, tensor<32x8x17x128xf32>) -> tensor<32x8x17x128xf32> loc(#loc146)
        %289 = "ttir.exp"(%288) : (tensor<32x8x17x128xf32>) -> tensor<32x8x17x128xf32> loc(#loc147)
        %290 = "ttir.sum"(%289) <{dim_arg = [3 : i32], keep_dim = false}> : (tensor<32x8x17x128xf32>) -> tensor<32x8x17xf32> loc(#loc148)
        %291 = "ttir.reshape"(%290) <{shape = [32 : i32, 8 : i32, 17 : i32, 1 : i32]}> : (tensor<32x8x17xf32>) -> tensor<32x8x17x1xf32> loc(#loc149)
        %292 = "ttir.broadcast"(%291) <{broadcast_dimensions = array<i64: 1, 1, 1, 128>}> : (tensor<32x8x17x1xf32>) -> tensor<32x8x17x128xf32> loc(#loc149)
        %293 = "ttir.div"(%289, %292) : (tensor<32x8x17x128xf32>, tensor<32x8x17x128xf32>) -> tensor<32x8x17x128xf32> loc(#loc150)
        %294 = "ttir.typecast"(%293) <{conservative_folding = false}> : (tensor<32x8x17x128xf32>) -> tensor<32x8x17x128xbf16> loc(#loc151)
        %295 = "ttir.reshape"(%219) <{shape = [32 : i32, 4 : i32, 1 : i32, 128 : i32, 256 : i32]}> : (tensor<32x4x128x256xbf16>) -> tensor<32x4x1x128x256xbf16> loc(#loc152)
        %296 = "ttir.broadcast"(%295) <{broadcast_dimensions = array<i64: 1, 1, 2, 1, 1>}> : (tensor<32x4x1x128x256xbf16>) -> tensor<32x4x2x128x256xbf16> loc(#loc152)
        %297 = "ttir.reshape"(%296) <{shape = [32 : i32, 8 : i32, 128 : i32, 256 : i32]}> : (tensor<32x4x2x128x256xbf16>) -> tensor<32x8x128x256xbf16> loc(#loc153)
        %298 = "ttir.dot_general"(%294, %297) <{batch_dims_lhs = array<i64: 0, 1>, batch_dims_rhs = array<i64: 0, 1>, contract_dims_lhs = array<i64: 3>, contract_dims_rhs = array<i64: 2>}> : (tensor<32x8x17x128xbf16>, tensor<32x8x128x256xbf16>) -> tensor<32x8x17x256xbf16> loc(#loc154)
        %299 = "ttir.permute"(%298) <{permutation = array<i64: 0, 2, 1, 3>}> : (tensor<32x8x17x256xbf16>) -> tensor<32x17x8x256xbf16> loc(#loc155)
        %300 = "ttir.reshape"(%299) <{shape = [544 : i32, 2048 : i32]}> : (tensor<32x17x8x256xbf16>) -> tensor<544x2048xbf16> loc(#loc156)
        %301 = "ttir.reshape"(%arg16) <{shape = [1 : i32, 2304 : i32, 2048 : i32]}> : (tensor<2304x2048xbf16>) -> tensor<1x2304x2048xbf16> loc(#loc157)
        %302 = "ttir.reshape"(%301) <{shape = [2304 : i32, 2048 : i32]}> : (tensor<1x2304x2048xbf16>) -> tensor<2304x2048xbf16> loc(#loc158)
        %303 = "ttir.permute"(%302) <{permutation = array<i64: 1, 0>}> : (tensor<2304x2048xbf16>) -> tensor<2048x2304xbf16> loc(#loc159)
        %304 = "ttir.dot_general"(%300, %303) <{batch_dims_lhs = array<i64>, batch_dims_rhs = array<i64>, contract_dims_lhs = array<i64: 1>, contract_dims_rhs = array<i64: 0>}> : (tensor<544x2048xbf16>, tensor<2048x2304xbf16>) -> tensor<544x2304xbf16> loc(#loc160)
        %305 = "ttir.reshape"(%304) <{shape = [32 : i32, 17 : i32, 2304 : i32]}> : (tensor<544x2304xbf16>) -> tensor<32x17x2304xbf16> loc(#loc161)
        %306 = "ttir.typecast"(%305) <{conservative_folding = false}> : (tensor<32x17x2304xbf16>) -> tensor<32x17x2304xf32> loc(#loc162)
        %307 = "ttir.pow"(%306, %15) : (tensor<32x17x2304xf32>, tensor<32x17x2304xf32>) -> tensor<32x17x2304xf32> loc(#loc163)
        %308 = "ttir.sum"(%307) <{dim_arg = [2 : i32], keep_dim = false}> : (tensor<32x17x2304xf32>) -> tensor<32x17xf32> loc(#loc164)
        %309 = "ttir.multiply"(%308, %14) : (tensor<32x17xf32>, tensor<32x17xf32>) -> tensor<32x17xf32> loc(#loc165)
        %310 = "ttir.reshape"(%309) <{shape = [32 : i32, 17 : i32, 1 : i32]}> : (tensor<32x17xf32>) -> tensor<32x17x1xf32> loc(#loc166)
        %311 = "ttir.add"(%310, %13) : (tensor<32x17x1xf32>, tensor<32x17x1xf32>) -> tensor<32x17x1xf32> loc(#loc167)
        %312 = "ttir.rsqrt"(%311) : (tensor<32x17x1xf32>) -> tensor<32x17x1xf32> loc(#loc168)
        %313 = "ttir.reshape"(%312) <{shape = [32 : i32, 17 : i32]}> : (tensor<32x17x1xf32>) -> tensor<32x17xf32> loc(#loc169)
        %314 = "ttir.reshape"(%313) <{shape = [32 : i32, 17 : i32, 1 : i32]}> : (tensor<32x17xf32>) -> tensor<32x17x1xf32> loc(#loc170)
        %315 = "ttir.broadcast"(%314) <{broadcast_dimensions = array<i64: 1, 1, 2304>}> : (tensor<32x17x1xf32>) -> tensor<32x17x2304xf32> loc(#loc170)
        %316 = "ttir.multiply"(%306, %315) : (tensor<32x17x2304xf32>, tensor<32x17x2304xf32>) -> tensor<32x17x2304xf32> loc(#loc171)
        %317 = "ttir.reshape"(%arg15) <{shape = [1 : i32, 1 : i32, 2304 : i32]}> : (tensor<2304xbf16>) -> tensor<1x1x2304xbf16> loc(#loc172)
        %318 = "ttir.reshape"(%317) <{shape = [2304 : i32]}> : (tensor<1x1x2304xbf16>) -> tensor<2304xbf16> loc(#loc173)
        %319 = "ttir.typecast"(%318) <{conservative_folding = false}> : (tensor<2304xbf16>) -> tensor<2304xf32> loc(#loc174)
        %320 = "ttir.add"(%319, %12) : (tensor<2304xf32>, tensor<2304xf32>) -> tensor<2304xf32> loc(#loc175)
        %321 = "ttir.reshape"(%320) <{shape = [1 : i32, 1 : i32, 2304 : i32]}> : (tensor<2304xf32>) -> tensor<1x1x2304xf32> loc(#loc176)
        %322 = "ttir.broadcast"(%321) <{broadcast_dimensions = array<i64: 32, 17, 1>}> : (tensor<1x1x2304xf32>) -> tensor<32x17x2304xf32> loc(#loc176)
        %323 = "ttir.multiply"(%316, %322) : (tensor<32x17x2304xf32>, tensor<32x17x2304xf32>) -> tensor<32x17x2304xf32> loc(#loc177)
        %324 = "ttir.typecast"(%323) <{conservative_folding = false}> : (tensor<32x17x2304xf32>) -> tensor<32x17x2304xbf16> loc(#loc178)
        %325 = "ttir.add"(%35, %324) : (tensor<32x17x2304xbf16>, tensor<32x17x2304xbf16>) -> tensor<32x17x2304xbf16> loc(#loc179)
        %326 = "ttir.typecast"(%325) <{conservative_folding = false}> : (tensor<32x17x2304xbf16>) -> tensor<32x17x2304xf32> loc(#loc180)
        %327 = "ttir.pow"(%326, %15) : (tensor<32x17x2304xf32>, tensor<32x17x2304xf32>) -> tensor<32x17x2304xf32> loc(#loc181)
        %328 = "ttir.sum"(%327) <{dim_arg = [2 : i32], keep_dim = false}> : (tensor<32x17x2304xf32>) -> tensor<32x17xf32> loc(#loc182)
        %329 = "ttir.multiply"(%328, %14) : (tensor<32x17xf32>, tensor<32x17xf32>) -> tensor<32x17xf32> loc(#loc183)
        %330 = "ttir.reshape"(%329) <{shape = [32 : i32, 17 : i32, 1 : i32]}> : (tensor<32x17xf32>) -> tensor<32x17x1xf32> loc(#loc184)
        %331 = "ttir.add"(%330, %13) : (tensor<32x17x1xf32>, tensor<32x17x1xf32>) -> tensor<32x17x1xf32> loc(#loc185)
        %332 = "ttir.rsqrt"(%331) : (tensor<32x17x1xf32>) -> tensor<32x17x1xf32> loc(#loc186)
        %333 = "ttir.reshape"(%332) <{shape = [32 : i32, 17 : i32]}> : (tensor<32x17x1xf32>) -> tensor<32x17xf32> loc(#loc187)
        %334 = "ttir.reshape"(%333) <{shape = [32 : i32, 17 : i32, 1 : i32]}> : (tensor<32x17xf32>) -> tensor<32x17x1xf32> loc(#loc188)
        %335 = "ttir.broadcast"(%334) <{broadcast_dimensions = array<i64: 1, 1, 2304>}> : (tensor<32x17x1xf32>) -> tensor<32x17x2304xf32> loc(#loc188)
        %336 = "ttir.multiply"(%326, %335) : (tensor<32x17x2304xf32>, tensor<32x17x2304xf32>) -> tensor<32x17x2304xf32> loc(#loc189)
        %337 = "ttir.reshape"(%arg14) <{shape = [1 : i32, 1 : i32, 2304 : i32]}> : (tensor<2304xbf16>) -> tensor<1x1x2304xbf16> loc(#loc190)
        %338 = "ttir.reshape"(%337) <{shape = [2304 : i32]}> : (tensor<1x1x2304xbf16>) -> tensor<2304xbf16> loc(#loc191)
        %339 = "ttir.typecast"(%338) <{conservative_folding = false}> : (tensor<2304xbf16>) -> tensor<2304xf32> loc(#loc192)
        %340 = "ttir.add"(%339, %12) : (tensor<2304xf32>, tensor<2304xf32>) -> tensor<2304xf32> loc(#loc193)
        %341 = "ttir.reshape"(%340) <{shape = [1 : i32, 1 : i32, 2304 : i32]}> : (tensor<2304xf32>) -> tensor<1x1x2304xf32> loc(#loc194)
        %342 = "ttir.broadcast"(%341) <{broadcast_dimensions = array<i64: 32, 17, 1>}> : (tensor<1x1x2304xf32>) -> tensor<32x17x2304xf32> loc(#loc194)
        %343 = "ttir.multiply"(%336, %342) : (tensor<32x17x2304xf32>, tensor<32x17x2304xf32>) -> tensor<32x17x2304xf32> loc(#loc195)
        %344 = "ttir.typecast"(%343) <{conservative_folding = false}> : (tensor<32x17x2304xf32>) -> tensor<32x17x2304xbf16> loc(#loc196)
        %345 = "ttir.reshape"(%344) <{shape = [544 : i32, 2304 : i32]}> : (tensor<32x17x2304xbf16>) -> tensor<544x2304xbf16> loc(#loc197)
        %346 = "ttir.reshape"(%arg19) <{shape = [1 : i32, 9216 : i32, 2304 : i32]}> : (tensor<9216x2304xbf16>) -> tensor<1x9216x2304xbf16> loc(#loc198)
        %347 = "ttir.reshape"(%346) <{shape = [9216 : i32, 2304 : i32]}> : (tensor<1x9216x2304xbf16>) -> tensor<9216x2304xbf16> loc(#loc199)
        %348 = "ttir.permute"(%347) <{permutation = array<i64: 1, 0>}> : (tensor<9216x2304xbf16>) -> tensor<2304x9216xbf16> loc(#loc200)
        %349 = "ttir.dot_general"(%345, %348) <{batch_dims_lhs = array<i64>, batch_dims_rhs = array<i64>, contract_dims_lhs = array<i64: 1>, contract_dims_rhs = array<i64: 0>}> : (tensor<544x2304xbf16>, tensor<2304x9216xbf16>) -> tensor<544x9216xbf16> loc(#loc201)
        %350 = "ttir.reshape"(%349) <{shape = [32 : i32, 17 : i32, 9216 : i32]}> : (tensor<544x9216xbf16>) -> tensor<32x17x9216xbf16> loc(#loc202)
        %351 = "ttir.gelu"(%350) {approximate = "tanh"} : (tensor<32x17x9216xbf16>) -> tensor<32x17x9216xbf16> loc(#loc203)
        %352 = "ttir.reshape"(%arg13) <{shape = [1 : i32, 9216 : i32, 2304 : i32]}> : (tensor<9216x2304xbf16>) -> tensor<1x9216x2304xbf16> loc(#loc204)
        %353 = "ttir.reshape"(%352) <{shape = [9216 : i32, 2304 : i32]}> : (tensor<1x9216x2304xbf16>) -> tensor<9216x2304xbf16> loc(#loc205)
        %354 = "ttir.permute"(%353) <{permutation = array<i64: 1, 0>}> : (tensor<9216x2304xbf16>) -> tensor<2304x9216xbf16> loc(#loc206)
        %355 = "ttir.dot_general"(%345, %354) <{batch_dims_lhs = array<i64>, batch_dims_rhs = array<i64>, contract_dims_lhs = array<i64: 1>, contract_dims_rhs = array<i64: 0>}> : (tensor<544x2304xbf16>, tensor<2304x9216xbf16>) -> tensor<544x9216xbf16> loc(#loc207)
        %356 = "ttir.reshape"(%355) <{shape = [32 : i32, 17 : i32, 9216 : i32]}> : (tensor<544x9216xbf16>) -> tensor<32x17x9216xbf16> loc(#loc208)
        %357 = "ttir.multiply"(%351, %356) : (tensor<32x17x9216xbf16>, tensor<32x17x9216xbf16>) -> tensor<32x17x9216xbf16> loc(#loc209)
        %358 = "ttir.reshape"(%357) <{shape = [544 : i32, 9216 : i32]}> : (tensor<32x17x9216xbf16>) -> tensor<544x9216xbf16> loc(#loc210)
        %359 = "ttir.reshape"(%arg12) <{shape = [1 : i32, 2304 : i32, 9216 : i32]}> : (tensor<2304x9216xbf16>) -> tensor<1x2304x9216xbf16> loc(#loc211)
        %360 = "ttir.reshape"(%359) <{shape = [2304 : i32, 9216 : i32]}> : (tensor<1x2304x9216xbf16>) -> tensor<2304x9216xbf16> loc(#loc212)
        %361 = "ttir.permute"(%360) <{permutation = array<i64: 1, 0>}> : (tensor<2304x9216xbf16>) -> tensor<9216x2304xbf16> loc(#loc213)
        %362 = "ttir.dot_general"(%358, %361) <{batch_dims_lhs = array<i64>, batch_dims_rhs = array<i64>, contract_dims_lhs = array<i64: 1>, contract_dims_rhs = array<i64: 0>}> : (tensor<544x9216xbf16>, tensor<9216x2304xbf16>) -> tensor<544x2304xbf16> loc(#loc214)
        %363 = "ttir.reshape"(%362) <{shape = [32 : i32, 17 : i32, 2304 : i32]}> : (tensor<544x2304xbf16>) -> tensor<32x17x2304xbf16> loc(#loc215)
        %364 = "ttir.typecast"(%363) <{conservative_folding = false}> : (tensor<32x17x2304xbf16>) -> tensor<32x17x2304xf32> loc(#loc216)
        %365 = "ttir.pow"(%364, %15) : (tensor<32x17x2304xf32>, tensor<32x17x2304xf32>) -> tensor<32x17x2304xf32> loc(#loc217)
        %366 = "ttir.sum"(%365) <{dim_arg = [2 : i32], keep_dim = false}> : (tensor<32x17x2304xf32>) -> tensor<32x17xf32> loc(#loc218)
        %367 = "ttir.multiply"(%366, %14) : (tensor<32x17xf32>, tensor<32x17xf32>) -> tensor<32x17xf32> loc(#loc219)
        %368 = "ttir.reshape"(%367) <{shape = [32 : i32, 17 : i32, 1 : i32]}> : (tensor<32x17xf32>) -> tensor<32x17x1xf32> loc(#loc220)
        %369 = "ttir.add"(%368, %13) : (tensor<32x17x1xf32>, tensor<32x17x1xf32>) -> tensor<32x17x1xf32> loc(#loc221)
        %370 = "ttir.rsqrt"(%369) : (tensor<32x17x1xf32>) -> tensor<32x17x1xf32> loc(#loc222)
        %371 = "ttir.reshape"(%370) <{shape = [32 : i32, 17 : i32]}> : (tensor<32x17x1xf32>) -> tensor<32x17xf32> loc(#loc223)
        %372 = "ttir.reshape"(%371) <{shape = [32 : i32, 17 : i32, 1 : i32]}> : (tensor<32x17xf32>) -> tensor<32x17x1xf32> loc(#loc224)
        %373 = "ttir.broadcast"(%372) <{broadcast_dimensions = array<i64: 1, 1, 2304>}> : (tensor<32x17x1xf32>) -> tensor<32x17x2304xf32> loc(#loc224)
        %374 = "ttir.multiply"(%364, %373) : (tensor<32x17x2304xf32>, tensor<32x17x2304xf32>) -> tensor<32x17x2304xf32> loc(#loc225)
        %375 = "ttir.reshape"(%arg11) <{shape = [1 : i32, 1 : i32, 2304 : i32]}> : (tensor<2304xbf16>) -> tensor<1x1x2304xbf16> loc(#loc226)
        %376 = "ttir.reshape"(%375) <{shape = [2304 : i32]}> : (tensor<1x1x2304xbf16>) -> tensor<2304xbf16> loc(#loc227)
        %377 = "ttir.typecast"(%376) <{conservative_folding = false}> : (tensor<2304xbf16>) -> tensor<2304xf32> loc(#loc228)
        %378 = "ttir.add"(%377, %12) : (tensor<2304xf32>, tensor<2304xf32>) -> tensor<2304xf32> loc(#loc229)
        %379 = "ttir.reshape"(%378) <{shape = [1 : i32, 1 : i32, 2304 : i32]}> : (tensor<2304xf32>) -> tensor<1x1x2304xf32> loc(#loc230)
        %380 = "ttir.broadcast"(%379) <{broadcast_dimensions = array<i64: 32, 17, 1>}> : (tensor<1x1x2304xf32>) -> tensor<32x17x2304xf32> loc(#loc230)
        %381 = "ttir.multiply"(%374, %380) : (tensor<32x17x2304xf32>, tensor<32x17x2304xf32>) -> tensor<32x17x2304xf32> loc(#loc231)
        %382 = "ttir.typecast"(%381) <{conservative_folding = false}> : (tensor<32x17x2304xf32>) -> tensor<32x17x2304xbf16> loc(#loc232)
        %383 = "ttir.add"(%325, %382) : (tensor<32x17x2304xbf16>, tensor<32x17x2304xbf16>) -> tensor<32x17x2304xbf16> loc(#loc233)
        %384 = "ttir.typecast"(%383) <{conservative_folding = false}> : (tensor<32x17x2304xbf16>) -> tensor<32x17x2304xf32> loc(#loc234)
        %385 = "ttir.pow"(%384, %15) : (tensor<32x17x2304xf32>, tensor<32x17x2304xf32>) -> tensor<32x17x2304xf32> loc(#loc235)
        %386 = "ttir.sum"(%385) <{dim_arg = [2 : i32], keep_dim = false}> : (tensor<32x17x2304xf32>) -> tensor<32x17xf32> loc(#loc236)
        %387 = "ttir.multiply"(%386, %14) : (tensor<32x17xf32>, tensor<32x17xf32>) -> tensor<32x17xf32> loc(#loc237)
        %388 = "ttir.reshape"(%387) <{shape = [32 : i32, 17 : i32, 1 : i32]}> : (tensor<32x17xf32>) -> tensor<32x17x1xf32> loc(#loc238)
        %389 = "ttir.add"(%388, %13) : (tensor<32x17x1xf32>, tensor<32x17x1xf32>) -> tensor<32x17x1xf32> loc(#loc239)
        %390 = "ttir.rsqrt"(%389) : (tensor<32x17x1xf32>) -> tensor<32x17x1xf32> loc(#loc240)
        %391 = "ttir.reshape"(%390) <{shape = [32 : i32, 17 : i32]}> : (tensor<32x17x1xf32>) -> tensor<32x17xf32> loc(#loc241)
        %392 = "ttir.reshape"(%391) <{shape = [32 : i32, 17 : i32, 1 : i32]}> : (tensor<32x17xf32>) -> tensor<32x17x1xf32> loc(#loc242)
        %393 = "ttir.broadcast"(%392) <{broadcast_dimensions = array<i64: 1, 1, 2304>}> : (tensor<32x17x1xf32>) -> tensor<32x17x2304xf32> loc(#loc242)
        %394 = "ttir.multiply"(%384, %393) : (tensor<32x17x2304xf32>, tensor<32x17x2304xf32>) -> tensor<32x17x2304xf32> loc(#loc243)
        %395 = "ttir.reshape"(%arg10) <{shape = [1 : i32, 1 : i32, 2304 : i32]}> : (tensor<2304xbf16>) -> tensor<1x1x2304xbf16> loc(#loc244)
        %396 = "ttir.reshape"(%395) <{shape = [2304 : i32]}> : (tensor<1x1x2304xbf16>) -> tensor<2304xbf16> loc(#loc245)
        %397 = "ttir.typecast"(%396) <{conservative_folding = false}> : (tensor<2304xbf16>) -> tensor<2304xf32> loc(#loc246)
        %398 = "ttir.add"(%397, %12) : (tensor<2304xf32>, tensor<2304xf32>) -> tensor<2304xf32> loc(#loc247)
        %399 = "ttir.reshape"(%398) <{shape = [1 : i32, 1 : i32, 2304 : i32]}> : (tensor<2304xf32>) -> tensor<1x1x2304xf32> loc(#loc248)
        %400 = "ttir.broadcast"(%399) <{broadcast_dimensions = array<i64: 32, 17, 1>}> : (tensor<1x1x2304xf32>) -> tensor<32x17x2304xf32> loc(#loc248)
        %401 = "ttir.multiply"(%394, %400) : (tensor<32x17x2304xf32>, tensor<32x17x2304xf32>) -> tensor<32x17x2304xf32> loc(#loc249)
        %402 = "ttir.typecast"(%401) <{conservative_folding = false}> : (tensor<32x17x2304xf32>) -> tensor<32x17x2304xbf16> loc(#loc250)
        %403 = "ttir.reshape"(%402) <{shape = [544 : i32, 2304 : i32]}> : (tensor<32x17x2304xbf16>) -> tensor<544x2304xbf16> loc(#loc251)
        %404 = "ttir.reshape"(%arg9) <{shape = [1 : i32, 256000 : i32, 2304 : i32]}> : (tensor<256000x2304xbf16>) -> tensor<1x256000x2304xbf16> loc(#loc252)
        %405 = "ttir.reshape"(%404) <{shape = [256000 : i32, 2304 : i32]}> : (tensor<1x256000x2304xbf16>) -> tensor<256000x2304xbf16> loc(#loc253)
        %406 = "ttir.permute"(%405) <{permutation = array<i64: 1, 0>}> : (tensor<256000x2304xbf16>) -> tensor<2304x256000xbf16> loc(#loc254)
        %407 = "ttir.dot_general"(%403, %406) <{batch_dims_lhs = array<i64>, batch_dims_rhs = array<i64>, contract_dims_lhs = array<i64: 1>, contract_dims_rhs = array<i64: 0>}> : (tensor<544x2304xbf16>, tensor<2304x256000xbf16>) -> tensor<544x256000xbf16> loc(#loc255)
        %408 = "ttir.reshape"(%407) <{shape = [32 : i32, 17 : i32, 256000 : i32]}> : (tensor<544x256000xbf16>) -> tensor<32x17x256000xbf16> loc(#loc256)
        %409 = "ttir.div"(%408, %0) : (tensor<32x17x256000xbf16>, tensor<32x17x256000xbf16>) -> tensor<32x17x256000xbf16> loc(#loc257)
        %410 = "ttir.tanh"(%409) : (tensor<32x17x256000xbf16>) -> tensor<32x17x256000xbf16> loc(#loc258)
        %411 = "ttir.multiply"(%410, %0) : (tensor<32x17x256000xbf16>, tensor<32x17x256000xbf16>) -> tensor<32x17x256000xbf16> loc(#loc259)
        return %149, %219, %411 : tensor<32x4x128x256xbf16>, tensor<32x4x128x256xbf16>, tensor<32x17x256000xbf16> loc(#loc)
      } loc(#loc)
    } loc(#loc)
  } loc(#loc)
} loc(#loc)
#loc = loc(unknown)
#loc21 = loc("reshape.4")
#loc22 = loc("reshape.6")
#loc23 = loc("compare.127")
#loc24 = loc("add.124")
#loc25 = loc("select.128")
#loc26 = loc("reshape.56")
#loc27 = loc("reshape.58")
#loc28 = loc("reshape.51")
#loc29 = loc("reshape.54")
#loc30 = loc("convert.59")
#loc31 = loc("gather.60")
#loc32 = loc("reshape.61")
#loc33 = loc("multiply.63")
#loc34 = loc("convert.64")
#loc35 = loc("power.66")
#loc36 = loc("reduce.73")
#loc37 = loc("multiply.82")
#loc38 = loc("reshape.83")
#loc39 = loc("add.87")
#loc40 = loc("rsqrt.88")
#loc41 = loc("reshape.89")
#loc42 = loc("broadcast.90")
#loc43 = loc("multiply.91")
#loc44 = loc("reshape.39")
#loc45 = loc("reshape.41")
#loc46 = loc("convert.42")
#loc47 = loc("add.45")
#loc48 = loc("broadcast.92")
#loc49 = loc("multiply.93")
#loc50 = loc("convert.94")
#loc51 = loc("reshape.95")
#loc52 = loc("reshape.32")
#loc53 = loc("reshape.34")
#loc54 = loc("transpose.35")
#loc55 = loc("dot.96")
#loc56 = loc("reshape.98")
#loc57 = loc("transpose.99")
#loc58 = loc("reshape.14")
#loc59 = loc("reshape.19")
#loc60 = loc("convert.20")
#loc61 = loc("convert.11")
#loc62 = loc("dot.23")
#loc63 = loc("transpose.24")
#loc64 = loc("concatenate.25")
#loc65 = loc("cosine.108")
#loc66 = loc("convert.111")
#loc67 = loc("reshape.113")
#loc68 = loc("broadcast.114")
#loc69 = loc("multiply.115")
#loc70 = loc("slice.101")
#loc71 = loc("negate.102")
#loc72 = loc("slice.100")
#loc73 = loc("concatenate.103")
#loc74 = loc("sine.26")
#loc75 = loc("convert.29")
#loc76 = loc("reshape.104")
#loc77 = loc("broadcast.105")
#loc78 = loc("multiply.106")
#loc79 = loc("add.118")
#loc80 = loc("scatter.137")
#loc81 = loc("reshape.140")
#loc82 = loc("reshape.142")
#loc83 = loc("transpose.143")
#loc84 = loc("dot.145")
#loc85 = loc("reshape.147")
#loc86 = loc("transpose.148")
#loc87 = loc("scatter.167")
#loc88 = loc("reshape.384")
#loc89 = loc("reshape.386")
#loc90 = loc("transpose.387")
#loc91 = loc("dot.389")
#loc92 = loc("reshape.391")
#loc93 = loc("transpose.392")
#loc94 = loc("broadcast.401")
#loc95 = loc("multiply.402")
#loc96 = loc("slice.394")
#loc97 = loc("negate.395")
#loc98 = loc("slice.393")
#loc99 = loc("concatenate.396")
#loc100 = loc("broadcast.398")
#loc101 = loc("multiply.399")
#loc102 = loc("add.405")
#loc103 = loc("broadcast.379")
#loc104 = loc("reshape.380")
#loc105 = loc("transpose.381")
#loc106 = loc("dot.406")
#loc107 = loc("multiply.409")
#loc108 = loc("divide.411")
#loc109 = loc("tanh.412")
#loc110 = loc("multiply.414")
#loc111 = loc("broadcast.350")
#loc112 = loc("broadcast.352")
#loc113 = loc("subtract.353")
#loc114 = loc("compare.355")
#loc115 = loc("broadcast.358")
#loc116 = loc("reshape.339")
#loc117 = loc("broadcast.340")
#loc118 = loc("and.359")
#loc119 = loc("compare.318")
#loc120 = loc("select.320")
#loc121 = loc("broadcast.289")
#loc122 = loc("compare.290")
#loc123 = loc("convert.291")
#loc124 = loc("multiply.321")
#loc125 = loc("reshape.322")
#loc126 = loc("broadcast.328")
#loc127 = loc("select.361")
#loc128 = loc("slice.262")
#loc129 = loc("reshape.263")
#loc130 = loc("subtract.265")
#loc131 = loc("add.267")
#loc132 = loc("clamp.268")
#loc133 = loc("broadcast.271")
#loc134 = loc("add.272")
#loc135 = loc("compare.281")
#loc136 = loc("add.278")
#loc137 = loc("select.282")
#loc138 = loc("reshape.283")
#loc139 = loc("gather.365")
#loc140 = loc("reshape.417")
#loc141 = loc("broadcast.418")
#loc142 = loc("add.419")
#loc143 = loc("convert.420")
#loc144 = loc("reduce.426")
#loc145 = loc("broadcast.427")
#loc146 = loc("subtract.428")
#loc147 = loc("exponential.429")
#loc148 = loc("reduce.435")
#loc149 = loc("broadcast.436")
#loc150 = loc("divide.437")
#loc151 = loc("convert.438")
#loc152 = loc("broadcast.252")
#loc153 = loc("reshape.253")
#loc154 = loc("dot.439")
#loc155 = loc("transpose.441")
#loc156 = loc("reshape.443")
#loc157 = loc("reshape.241")
#loc158 = loc("reshape.243")
#loc159 = loc("transpose.244")
#loc160 = loc("dot.444")
#loc161 = loc("reshape.445")
#loc162 = loc("convert.446")
#loc163 = loc("power.448")
#loc164 = loc("reduce.455")
#loc165 = loc("multiply.464")
#loc166 = loc("reshape.465")
#loc167 = loc("add.469")
#loc168 = loc("rsqrt.470")
#loc169 = loc("reshape.471")
#loc170 = loc("broadcast.472")
#loc171 = loc("multiply.473")
#loc172 = loc("reshape.230")
#loc173 = loc("reshape.232")
#loc174 = loc("convert.233")
#loc175 = loc("add.236")
#loc176 = loc("broadcast.474")
#loc177 = loc("multiply.475")
#loc178 = loc("convert.476")
#loc179 = loc("add.479")
#loc180 = loc("convert.480")
#loc181 = loc("power.482")
#loc182 = loc("reduce.489")
#loc183 = loc("multiply.498")
#loc184 = loc("reshape.499")
#loc185 = loc("add.503")
#loc186 = loc("rsqrt.504")
#loc187 = loc("reshape.505")
#loc188 = loc("broadcast.506")
#loc189 = loc("multiply.507")
#loc190 = loc("reshape.216")
#loc191 = loc("reshape.218")
#loc192 = loc("convert.219")
#loc193 = loc("add.222")
#loc194 = loc("broadcast.508")
#loc195 = loc("multiply.509")
#loc196 = loc("convert.510")
#loc197 = loc("reshape.521")
#loc198 = loc("reshape.517")
#loc199 = loc("reshape.519")
#loc200 = loc("transpose.520")
#loc201 = loc("dot.522")
#loc202 = loc("reshape.523")
#loc203 = loc("custom-call.541")
#loc204 = loc("reshape.209")
#loc205 = loc("reshape.211")
#loc206 = loc("transpose.212")
#loc207 = loc("dot.512")
#loc208 = loc("reshape.513")
#loc209 = loc("multiply.542")
#loc210 = loc("reshape.543")
#loc211 = loc("reshape.204")
#loc212 = loc("reshape.206")
#loc213 = loc("transpose.207")
#loc214 = loc("dot.544")
#loc215 = loc("reshape.545")
#loc216 = loc("convert.546")
#loc217 = loc("power.548")
#loc218 = loc("reduce.555")
#loc219 = loc("multiply.564")
#loc220 = loc("reshape.565")
#loc221 = loc("add.569")
#loc222 = loc("rsqrt.570")
#loc223 = loc("reshape.571")
#loc224 = loc("broadcast.572")
#loc225 = loc("multiply.573")
#loc226 = loc("reshape.193")
#loc227 = loc("reshape.195")
#loc228 = loc("convert.196")
#loc229 = loc("add.199")
#loc230 = loc("broadcast.574")
#loc231 = loc("multiply.575")
#loc232 = loc("convert.576")
#loc233 = loc("add.579")
#loc234 = loc("convert.580")
#loc235 = loc("power.582")
#loc236 = loc("reduce.589")
#loc237 = loc("multiply.598")
#loc238 = loc("reshape.599")
#loc239 = loc("add.603")
#loc240 = loc("rsqrt.604")
#loc241 = loc("reshape.605")
#loc242 = loc("broadcast.606")
#loc243 = loc("multiply.607")
#loc244 = loc("reshape.179")
#loc245 = loc("reshape.181")
#loc246 = loc("convert.182")
#loc247 = loc("add.185")
#loc248 = loc("broadcast.608")
#loc249 = loc("multiply.609")
#loc250 = loc("convert.610")
#loc251 = loc("reshape.614")
#loc252 = loc("reshape.172")
#loc253 = loc("reshape.174")
#loc254 = loc("transpose.175")
#loc255 = loc("dot.615")
#loc256 = loc("reshape.616")
#loc257 = loc("divide.618")
#loc258 = loc("tanh.619")
#loc259 = loc("multiply.621")
