#loc1 = loc("p0.2")
#loc2 = loc("p1.6")
#loc3 = loc("p2.12")
#loc4 = loc("p3.16")
#loc5 = loc("p4.22")
#loc6 = loc("p5.27")
#loc7 = loc("p6.119")
#loc8 = loc("p7.123")
#loc9 = loc("p8.147")
#loc10 = loc("p9.187")
#loc11 = loc("p10.191")
#loc12 = loc("p11.197")
#loc13 = loc("p12.201")
#loc14 = loc("p13.210")
#loc15 = loc("p14.214")
#loc16 = loc("p15.226")
#loc17 = loc("p16.230")
#loc18 = loc("p17.267")
#loc19 = loc("p18.271")
#loc20 = loc("p19.328")
#loc21 = loc("p20.332")
module @SyncTensorsGraph.494 attributes {mhlo.cross_program_prefetches = [], mhlo.input_output_alias = [], mhlo.is_dynamic = false, mhlo.use_auto_spmd_partitioning = false, ttcore.meshes = #ttcore.meshes<[<"mesh" = 1x1>]>} {
  ttcore.device_module {
    builtin.module @SyncTensorsGraph.494 attributes {mhlo.cross_program_prefetches = [], mhlo.input_output_alias = [], mhlo.is_dynamic = false, mhlo.use_auto_spmd_partitioning = false, ttcore.meshes = #ttcore.meshes<[<"mesh" = 1x1>]>} {
      func.func @main(%arg0: tensor<2560xbf16> {ttcore.argument_type = #ttcore.argument_type<parameter>, ttcore.shard_status = #ttcore.shard_status<unsharded>, ttir.name = "l__self___model_layers__modules__0___self_attn_v_proj_bias"} loc("p0.2"), %arg1: tensor<2560x2560xbf16> {ttcore.argument_type = #ttcore.argument_type<parameter>, ttcore.shard_status = #ttcore.shard_status<unsharded>, ttir.name = "l__self___model_layers__modules__0___self_attn_v_proj_weight"} loc("p1.6"), %arg2: tensor<2560xbf16> {ttcore.argument_type = #ttcore.argument_type<parameter>, ttcore.shard_status = #ttcore.shard_status<unsharded>, ttir.name = "l__self___model_layers__modules__0___input_layernorm_bias"} loc("p2.12"), %arg3: tensor<2560xbf16> {ttcore.argument_type = #ttcore.argument_type<parameter>, ttcore.shard_status = #ttcore.shard_status<unsharded>, ttir.name = "l__self___model_layers__modules__0___input_layernorm_weight"} loc("p3.16"), %arg4: tensor<32x128xi64> {ttcore.argument_type = #ttcore.argument_type<input>, ttcore.shard_status = #ttcore.shard_status<unsharded>, ttir.name = "args_0"} loc("p4.22"), %arg5: tensor<51200x2560xbf16> {ttcore.argument_type = #ttcore.argument_type<parameter>, ttcore.shard_status = #ttcore.shard_status<unsharded>, ttir.name = "l__self___model_embed_tokens_weight"} loc("p5.27"), %arg6: tensor<2560xbf16> {ttcore.argument_type = #ttcore.argument_type<parameter>, ttcore.shard_status = #ttcore.shard_status<unsharded>, ttir.name = "l__self___model_layers__modules__0___self_attn_k_proj_bias"} loc("p6.119"), %arg7: tensor<2560x2560xbf16> {ttcore.argument_type = #ttcore.argument_type<parameter>, ttcore.shard_status = #ttcore.shard_status<unsharded>, ttir.name = "l__self___model_layers__modules__0___self_attn_k_proj_weight"} loc("p7.123"), %arg8: tensor<16xbf16> {ttcore.argument_type = #ttcore.argument_type<constant>, ttcore.shard_status = #ttcore.shard_status<unsharded>, ttir.name = "l__self___model_rotary_emb_inv_freq"} loc("p8.147"), %arg9: tensor<51200xbf16> {ttcore.argument_type = #ttcore.argument_type<parameter>, ttcore.shard_status = #ttcore.shard_status<unsharded>, ttir.name = "l__self___lm_head_bias"} loc("p9.187"), %arg10: tensor<51200x2560xbf16> {ttcore.argument_type = #ttcore.argument_type<parameter>, ttcore.shard_status = #ttcore.shard_status<unsharded>, ttir.name = "l__self___lm_head_weight"} loc("p10.191"), %arg11: tensor<2560xbf16> {ttcore.argument_type = #ttcore.argument_type<parameter>, ttcore.shard_status = #ttcore.shard_status<unsharded>, ttir.name = "l__self___model_final_layernorm_bias"} loc("p11.197"), %arg12: tensor<2560xbf16> {ttcore.argument_type = #ttcore.argument_type<parameter>, ttcore.shard_status = #ttcore.shard_status<unsharded>, ttir.name = "l__self___model_final_layernorm_weight"} loc("p12.201"), %arg13: tensor<2560xbf16> {ttcore.argument_type = #ttcore.argument_type<parameter>, ttcore.shard_status = #ttcore.shard_status<unsharded>, ttir.name = "l__self___model_layers__modules__0___mlp_fc2_bias"} loc("p13.210"), %arg14: tensor<2560x10240xbf16> {ttcore.argument_type = #ttcore.argument_type<parameter>, ttcore.shard_status = #ttcore.shard_status<unsharded>, ttir.name = "l__self___model_layers__modules__0___mlp_fc2_weight"} loc("p14.214"), %arg15: tensor<10240xbf16> {ttcore.argument_type = #ttcore.argument_type<parameter>, ttcore.shard_status = #ttcore.shard_status<unsharded>, ttir.name = "l__self___model_layers__modules__0___mlp_fc1_bias"} loc("p15.226"), %arg16: tensor<10240x2560xbf16> {ttcore.argument_type = #ttcore.argument_type<parameter>, ttcore.shard_status = #ttcore.shard_status<unsharded>, ttir.name = "l__self___model_layers__modules__0___mlp_fc1_weight"} loc("p16.230"), %arg17: tensor<2560xbf16> {ttcore.argument_type = #ttcore.argument_type<parameter>, ttcore.shard_status = #ttcore.shard_status<unsharded>, ttir.name = "l__self___model_layers__modules__0___self_attn_dense_bias"} loc("p17.267"), %arg18: tensor<2560x2560xbf16> {ttcore.argument_type = #ttcore.argument_type<parameter>, ttcore.shard_status = #ttcore.shard_status<unsharded>, ttir.name = "l__self___model_layers__modules__0___self_attn_dense_weight"} loc("p18.271"), %arg19: tensor<2560xbf16> {ttcore.argument_type = #ttcore.argument_type<parameter>, ttcore.shard_status = #ttcore.shard_status<unsharded>, ttir.name = "l__self___model_layers__modules__0___self_attn_q_proj_bias"} loc("p19.328"), %arg20: tensor<2560x2560xbf16> {ttcore.argument_type = #ttcore.argument_type<parameter>, ttcore.shard_status = #ttcore.shard_status<unsharded>, ttir.name = "l__self___model_layers__modules__0___self_attn_q_proj_weight"} loc("p20.332")) -> (tensor<32x32x128x80xbf16> {ttcore.shard_status = #ttcore.shard_status<unsharded>}, tensor<32x32x128x80xbf16> {ttcore.shard_status = #ttcore.shard_status<unsharded>}, tensor<32x128x51200xbf16> {ttcore.shard_status = #ttcore.shard_status<unsharded>}) {
        %0 = "ttir.constant"() <{value = dense<1.000000e+00> : tensor<32x128x10240xbf16>}> : () -> tensor<32x128x10240xbf16> loc(#loc)
        %1 = "ttir.constant"() <{value = dense<7.968750e-01> : tensor<32x128x10240xbf16>}> : () -> tensor<32x128x10240xbf16> loc(#loc)
        %2 = "ttir.constant"() <{value = dense<4.467770e-02> : tensor<32x128x10240xbf16>}> : () -> tensor<32x128x10240xbf16> loc(#loc)
        %3 = "ttir.constant"() <{value = dense<3.000000e+00> : tensor<32x128x10240xbf16>}> : () -> tensor<32x128x10240xbf16> loc(#loc)
        %4 = "ttir.constant"() <{value = dense<5.000000e-01> : tensor<32x128x10240xbf16>}> : () -> tensor<32x128x10240xbf16> loc(#loc)
        %5 = "ttir.constant"() <{value = dense<0.000000e+00> : tensor<128x129xbf16>}> : () -> tensor<128x129xbf16> loc(#loc)
        %6 = "ttir.constant"() <{value = dense<-3.389530e+38> : tensor<128x129xbf16>}> : () -> tensor<128x129xbf16> loc(#loc)
        %7 = "ttir.constant"() <{value = dense<1> : tensor<128x129xi64>}> : () -> tensor<128x129xi64> loc(#loc)
        %8 = "ttir.constant"() <{value = dense<1.118160e-01> : tensor<32x32x128x128xbf16>}> : () -> tensor<32x32x128x128xbf16> loc(#loc)
        %9 = "ttir.constant"() <{value = dense<"…"> : tensor<1x1x128xf32>}> : () -> tensor<1x1x128xf32> loc(#loc)
        %10 = "ttir.constant"() <{value = dense<1.001360e-05> : tensor<32x128x1xbf16>}> : () -> tensor<32x128x1xbf16> loc(#loc)
        %11 = "ttir.constant"() <{value = dense<3.910060e-04> : tensor<32x128xbf16>}> : () -> tensor<32x128xbf16> loc(#loc)
        %12 = "ttir.constant"() <{value = dense<"…"> : tensor<129xi64>}> : () -> tensor<129xi64> loc(#loc)
        %13 = "ttir.constant"() <{value = dense<"…"> : tensor<128xi64>}> : () -> tensor<128xi64> loc(#loc)
        %14 = "ttir.reshape"(%arg5) <{shape = [1 : i32, 51200 : i32, 2560 : i32]}> : (tensor<51200x2560xbf16>) -> tensor<1x51200x2560xbf16> loc(#loc22)
        %15 = "ttir.reshape"(%14) <{shape = [51200 : i32, 2560 : i32]}> : (tensor<1x51200x2560xbf16>) -> tensor<51200x2560xbf16> loc(#loc23)
        %16 = "ttir.reshape"(%arg4) <{shape = [1 : i32, 32 : i32, 128 : i32]}> : (tensor<32x128xi64>) -> tensor<1x32x128xi64> loc(#loc24)
        %17 = "ttir.reshape"(%16) <{shape = [4096 : i32]}> : (tensor<1x32x128xi64>) -> tensor<4096xi64> loc(#loc25)
        %18 = "ttir.typecast"(%17) <{conservative_folding = false}> : (tensor<4096xi64>) -> tensor<4096xui32> loc(#loc26)
        %19 = "ttir.gather"(%15, %18) <{collapsed_slice_dims = array<i64: 0>, index_vector_dim = 1 : si64, indices_are_sorted = false, offset_dims = array<i64: 1>, operand_batching_dims = array<i64>, slice_sizes = array<i64: 1, 2560>, start_index_map = array<i64: 0>, start_indices_batching_dims = array<i64>}> : (tensor<51200x2560xbf16>, tensor<4096xui32>) -> tensor<4096x2560xbf16> loc(#loc27)
        %20 = "ttir.reshape"(%19) <{shape = [32 : i32, 128 : i32, 2560 : i32]}> : (tensor<4096x2560xbf16>) -> tensor<32x128x2560xbf16> loc(#loc28)
        %21 = "ttir.sum"(%20) <{dim_arg = [2 : i32], keep_dim = false}> : (tensor<32x128x2560xbf16>) -> tensor<32x128xbf16> loc(#loc29)
        %22 = "ttir.multiply"(%21, %11) : (tensor<32x128xbf16>, tensor<32x128xbf16>) -> tensor<32x128xbf16> loc(#loc30)
        %23 = "ttir.reshape"(%22) <{shape = [32 : i32, 128 : i32, 1 : i32]}> : (tensor<32x128xbf16>) -> tensor<32x128x1xbf16> loc(#loc31)
        %24 = "ttir.broadcast"(%23) <{broadcast_dimensions = array<i64: 1, 1, 2560>}> : (tensor<32x128x1xbf16>) -> tensor<32x128x2560xbf16> loc(#loc31)
        %25 = "ttir.subtract"(%20, %24) : (tensor<32x128x2560xbf16>, tensor<32x128x2560xbf16>) -> tensor<32x128x2560xbf16> loc(#loc32)
        %26 = "ttir.multiply"(%25, %25) : (tensor<32x128x2560xbf16>, tensor<32x128x2560xbf16>) -> tensor<32x128x2560xbf16> loc(#loc33)
        %27 = "ttir.sum"(%26) <{dim_arg = [2 : i32], keep_dim = false}> : (tensor<32x128x2560xbf16>) -> tensor<32x128xbf16> loc(#loc34)
        %28 = "ttir.multiply"(%27, %11) : (tensor<32x128xbf16>, tensor<32x128xbf16>) -> tensor<32x128xbf16> loc(#loc35)
        %29 = "ttir.reshape"(%28) <{shape = [32 : i32, 128 : i32, 1 : i32]}> : (tensor<32x128xbf16>) -> tensor<32x128x1xbf16> loc(#loc36)
        %30 = "ttir.add"(%29, %10) : (tensor<32x128x1xbf16>, tensor<32x128x1xbf16>) -> tensor<32x128x1xbf16> loc(#loc37)
        %31 = "ttir.rsqrt"(%30) : (tensor<32x128x1xbf16>) -> tensor<32x128x1xbf16> loc(#loc38)
        %32 = "ttir.reshape"(%31) <{shape = [32 : i32, 128 : i32]}> : (tensor<32x128x1xbf16>) -> tensor<32x128xbf16> loc(#loc39)
        %33 = "ttir.reshape"(%32) <{shape = [32 : i32, 128 : i32, 1 : i32]}> : (tensor<32x128xbf16>) -> tensor<32x128x1xbf16> loc(#loc40)
        %34 = "ttir.broadcast"(%33) <{broadcast_dimensions = array<i64: 1, 1, 2560>}> : (tensor<32x128x1xbf16>) -> tensor<32x128x2560xbf16> loc(#loc40)
        %35 = "ttir.multiply"(%25, %34) : (tensor<32x128x2560xbf16>, tensor<32x128x2560xbf16>) -> tensor<32x128x2560xbf16> loc(#loc41)
        %36 = "ttir.reshape"(%arg3) <{shape = [1 : i32, 1 : i32, 2560 : i32]}> : (tensor<2560xbf16>) -> tensor<1x1x2560xbf16> loc(#loc42)
        %37 = "ttir.reshape"(%36) <{shape = [2560 : i32]}> : (tensor<1x1x2560xbf16>) -> tensor<2560xbf16> loc(#loc43)
        %38 = "ttir.reshape"(%37) <{shape = [1 : i32, 1 : i32, 2560 : i32]}> : (tensor<2560xbf16>) -> tensor<1x1x2560xbf16> loc(#loc44)
        %39 = "ttir.broadcast"(%38) <{broadcast_dimensions = array<i64: 32, 128, 1>}> : (tensor<1x1x2560xbf16>) -> tensor<32x128x2560xbf16> loc(#loc44)
        %40 = "ttir.multiply"(%35, %39) : (tensor<32x128x2560xbf16>, tensor<32x128x2560xbf16>) -> tensor<32x128x2560xbf16> loc(#loc45)
        %41 = "ttir.reshape"(%arg2) <{shape = [1 : i32, 1 : i32, 2560 : i32]}> : (tensor<2560xbf16>) -> tensor<1x1x2560xbf16> loc(#loc46)
        %42 = "ttir.reshape"(%41) <{shape = [2560 : i32]}> : (tensor<1x1x2560xbf16>) -> tensor<2560xbf16> loc(#loc47)
        %43 = "ttir.reshape"(%42) <{shape = [1 : i32, 1 : i32, 2560 : i32]}> : (tensor<2560xbf16>) -> tensor<1x1x2560xbf16> loc(#loc48)
        %44 = "ttir.broadcast"(%43) <{broadcast_dimensions = array<i64: 32, 128, 1>}> : (tensor<1x1x2560xbf16>) -> tensor<32x128x2560xbf16> loc(#loc48)
        %45 = "ttir.add"(%40, %44) : (tensor<32x128x2560xbf16>, tensor<32x128x2560xbf16>) -> tensor<32x128x2560xbf16> loc(#loc49)
        %46 = "ttir.reshape"(%45) <{shape = [4096 : i32, 2560 : i32]}> : (tensor<32x128x2560xbf16>) -> tensor<4096x2560xbf16> loc(#loc50)
        %47 = "ttir.reshape"(%arg1) <{shape = [1 : i32, 2560 : i32, 2560 : i32]}> : (tensor<2560x2560xbf16>) -> tensor<1x2560x2560xbf16> loc(#loc51)
        %48 = "ttir.reshape"(%47) <{shape = [2560 : i32, 2560 : i32]}> : (tensor<1x2560x2560xbf16>) -> tensor<2560x2560xbf16> loc(#loc52)
        %49 = "ttir.permute"(%48) <{permutation = array<i64: 1, 0>}> : (tensor<2560x2560xbf16>) -> tensor<2560x2560xbf16> loc(#loc53)
        %50 = "ttir.dot_general"(%46, %49) <{batch_dims_lhs = array<i64>, batch_dims_rhs = array<i64>, contract_dims_lhs = array<i64: 1>, contract_dims_rhs = array<i64: 0>}> : (tensor<4096x2560xbf16>, tensor<2560x2560xbf16>) -> tensor<4096x2560xbf16> loc(#loc54)
        %51 = "ttir.reshape"(%50) <{shape = [32 : i32, 128 : i32, 2560 : i32]}> : (tensor<4096x2560xbf16>) -> tensor<32x128x2560xbf16> loc(#loc55)
        %52 = "ttir.reshape"(%arg0) <{shape = [1 : i32, 1 : i32, 2560 : i32]}> : (tensor<2560xbf16>) -> tensor<1x1x2560xbf16> loc(#loc56)
        %53 = "ttir.reshape"(%52) <{shape = [2560 : i32]}> : (tensor<1x1x2560xbf16>) -> tensor<2560xbf16> loc(#loc57)
        %54 = "ttir.reshape"(%53) <{shape = [1 : i32, 1 : i32, 2560 : i32]}> : (tensor<2560xbf16>) -> tensor<1x1x2560xbf16> loc(#loc58)
        %55 = "ttir.broadcast"(%54) <{broadcast_dimensions = array<i64: 32, 128, 1>}> : (tensor<1x1x2560xbf16>) -> tensor<32x128x2560xbf16> loc(#loc58)
        %56 = "ttir.add"(%51, %55) : (tensor<32x128x2560xbf16>, tensor<32x128x2560xbf16>) -> tensor<32x128x2560xbf16> loc(#loc59)
        %57 = "ttir.reshape"(%56) <{shape = [32 : i32, 128 : i32, 32 : i32, 80 : i32]}> : (tensor<32x128x2560xbf16>) -> tensor<32x128x32x80xbf16> loc(#loc60)
        %58 = "ttir.permute"(%57) <{permutation = array<i64: 0, 2, 1, 3>}> : (tensor<32x128x32x80xbf16>) -> tensor<32x32x128x80xbf16> loc(#loc61)
        %59 = "ttir.reshape"(%arg7) <{shape = [1 : i32, 2560 : i32, 2560 : i32]}> : (tensor<2560x2560xbf16>) -> tensor<1x2560x2560xbf16> loc(#loc62)
        %60 = "ttir.reshape"(%59) <{shape = [2560 : i32, 2560 : i32]}> : (tensor<1x2560x2560xbf16>) -> tensor<2560x2560xbf16> loc(#loc63)
        %61 = "ttir.permute"(%60) <{permutation = array<i64: 1, 0>}> : (tensor<2560x2560xbf16>) -> tensor<2560x2560xbf16> loc(#loc64)
        %62 = "ttir.dot_general"(%46, %61) <{batch_dims_lhs = array<i64>, batch_dims_rhs = array<i64>, contract_dims_lhs = array<i64: 1>, contract_dims_rhs = array<i64: 0>}> : (tensor<4096x2560xbf16>, tensor<2560x2560xbf16>) -> tensor<4096x2560xbf16> loc(#loc65)
        %63 = "ttir.reshape"(%62) <{shape = [32 : i32, 128 : i32, 2560 : i32]}> : (tensor<4096x2560xbf16>) -> tensor<32x128x2560xbf16> loc(#loc66)
        %64 = "ttir.reshape"(%arg6) <{shape = [1 : i32, 1 : i32, 2560 : i32]}> : (tensor<2560xbf16>) -> tensor<1x1x2560xbf16> loc(#loc67)
        %65 = "ttir.reshape"(%64) <{shape = [2560 : i32]}> : (tensor<1x1x2560xbf16>) -> tensor<2560xbf16> loc(#loc68)
        %66 = "ttir.reshape"(%65) <{shape = [1 : i32, 1 : i32, 2560 : i32]}> : (tensor<2560xbf16>) -> tensor<1x1x2560xbf16> loc(#loc69)
        %67 = "ttir.broadcast"(%66) <{broadcast_dimensions = array<i64: 32, 128, 1>}> : (tensor<1x1x2560xbf16>) -> tensor<32x128x2560xbf16> loc(#loc69)
        %68 = "ttir.add"(%63, %67) : (tensor<32x128x2560xbf16>, tensor<32x128x2560xbf16>) -> tensor<32x128x2560xbf16> loc(#loc70)
        %69 = "ttir.reshape"(%68) <{shape = [32 : i32, 128 : i32, 32 : i32, 80 : i32]}> : (tensor<32x128x2560xbf16>) -> tensor<32x128x32x80xbf16> loc(#loc71)
        %70 = "ttir.permute"(%69) <{permutation = array<i64: 0, 2, 1, 3>}> : (tensor<32x128x32x80xbf16>) -> tensor<32x32x128x80xbf16> loc(#loc72)
        %71 = "ttir.slice_static"(%70) <{begins = [0 : i32, 0 : i32, 0 : i32, 0 : i32], ends = [32 : i32, 32 : i32, 128 : i32, 32 : i32], step = [1 : i32, 1 : i32, 1 : i32, 1 : i32]}> : (tensor<32x32x128x80xbf16>) -> tensor<32x32x128x32xbf16> loc(#loc73)
        %72 = "ttir.reshape"(%arg8) <{shape = [1 : i32, 1 : i32, 16 : i32]}> : (tensor<16xbf16>) -> tensor<1x1x16xbf16> loc(#loc74)
        %73 = "ttir.reshape"(%72) <{shape = [1 : i32, 16 : i32, 1 : i32]}> : (tensor<1x1x16xbf16>) -> tensor<1x16x1xbf16> loc(#loc75)
        %74 = "ttir.typecast"(%73) <{conservative_folding = false}> : (tensor<1x16x1xbf16>) -> tensor<1x16x1xf32> loc(#loc76)
        %75 = "ttir.dot_general"(%74, %9) <{batch_dims_lhs = array<i64: 0>, batch_dims_rhs = array<i64: 0>, contract_dims_lhs = array<i64: 2>, contract_dims_rhs = array<i64: 1>}> : (tensor<1x16x1xf32>, tensor<1x1x128xf32>) -> tensor<1x16x128xf32> loc(#loc77)
        %76 = "ttir.permute"(%75) <{permutation = array<i64: 0, 2, 1>}> : (tensor<1x16x128xf32>) -> tensor<1x128x16xf32> loc(#loc78)
        %77 = "ttir.concat"(%76, %76) <{dim = 2 : si32}> : (tensor<1x128x16xf32>, tensor<1x128x16xf32>) -> tensor<1x128x32xf32> loc(#loc79)
        %78 = "ttir.cos"(%77) : (tensor<1x128x32xf32>) -> tensor<1x128x32xf32> loc(#loc80)
        %79 = "ttir.typecast"(%78) <{conservative_folding = false}> : (tensor<1x128x32xf32>) -> tensor<1x128x32xbf16> loc(#loc81)
        %80 = "ttir.reshape"(%79) <{shape = [128 : i32, 32 : i32]}> : (tensor<1x128x32xbf16>) -> tensor<128x32xbf16> loc(#loc82)
        %81 = "ttir.reshape"(%80) <{shape = [1 : i32, 1 : i32, 128 : i32, 32 : i32]}> : (tensor<128x32xbf16>) -> tensor<1x1x128x32xbf16> loc(#loc83)
        %82 = "ttir.broadcast"(%81) <{broadcast_dimensions = array<i64: 32, 32, 1, 1>}> : (tensor<1x1x128x32xbf16>) -> tensor<32x32x128x32xbf16> loc(#loc83)
        %83 = "ttir.multiply"(%71, %82) : (tensor<32x32x128x32xbf16>, tensor<32x32x128x32xbf16>) -> tensor<32x32x128x32xbf16> loc(#loc84)
        %84 = "ttir.slice_static"(%71) <{begins = [0 : i32, 0 : i32, 0 : i32, 16 : i32], ends = [32 : i32, 32 : i32, 128 : i32, 32 : i32], step = [1 : i32, 1 : i32, 1 : i32, 1 : i32]}> : (tensor<32x32x128x32xbf16>) -> tensor<32x32x128x16xbf16> loc(#loc85)
        %85 = "ttir.neg"(%84) : (tensor<32x32x128x16xbf16>) -> tensor<32x32x128x16xbf16> loc(#loc86)
        %86 = "ttir.slice_static"(%71) <{begins = [0 : i32, 0 : i32, 0 : i32, 0 : i32], ends = [32 : i32, 32 : i32, 128 : i32, 16 : i32], step = [1 : i32, 1 : i32, 1 : i32, 1 : i32]}> : (tensor<32x32x128x32xbf16>) -> tensor<32x32x128x16xbf16> loc(#loc87)
        %87 = "ttir.concat"(%85, %86) <{dim = 3 : si32}> : (tensor<32x32x128x16xbf16>, tensor<32x32x128x16xbf16>) -> tensor<32x32x128x32xbf16> loc(#loc88)
        %88 = "ttir.sin"(%77) : (tensor<1x128x32xf32>) -> tensor<1x128x32xf32> loc(#loc89)
        %89 = "ttir.typecast"(%88) <{conservative_folding = false}> : (tensor<1x128x32xf32>) -> tensor<1x128x32xbf16> loc(#loc90)
        %90 = "ttir.reshape"(%89) <{shape = [128 : i32, 32 : i32]}> : (tensor<1x128x32xbf16>) -> tensor<128x32xbf16> loc(#loc91)
        %91 = "ttir.reshape"(%90) <{shape = [1 : i32, 1 : i32, 128 : i32, 32 : i32]}> : (tensor<128x32xbf16>) -> tensor<1x1x128x32xbf16> loc(#loc92)
        %92 = "ttir.broadcast"(%91) <{broadcast_dimensions = array<i64: 32, 32, 1, 1>}> : (tensor<1x1x128x32xbf16>) -> tensor<32x32x128x32xbf16> loc(#loc92)
        %93 = "ttir.multiply"(%87, %92) : (tensor<32x32x128x32xbf16>, tensor<32x32x128x32xbf16>) -> tensor<32x32x128x32xbf16> loc(#loc93)
        %94 = "ttir.add"(%83, %93) : (tensor<32x32x128x32xbf16>, tensor<32x32x128x32xbf16>) -> tensor<32x32x128x32xbf16> loc(#loc94)
        %95 = "ttir.slice_static"(%70) <{begins = [0 : i32, 0 : i32, 0 : i32, 32 : i32], ends = [32 : i32, 32 : i32, 128 : i32, 80 : i32], step = [1 : i32, 1 : i32, 1 : i32, 1 : i32]}> : (tensor<32x32x128x80xbf16>) -> tensor<32x32x128x48xbf16> loc(#loc95)
        %96 = "ttir.concat"(%94, %95) <{dim = 3 : si32}> : (tensor<32x32x128x32xbf16>, tensor<32x32x128x48xbf16>) -> tensor<32x32x128x80xbf16> loc(#loc96)
        %97 = "ttir.reshape"(%arg20) <{shape = [1 : i32, 2560 : i32, 2560 : i32]}> : (tensor<2560x2560xbf16>) -> tensor<1x2560x2560xbf16> loc(#loc97)
        %98 = "ttir.reshape"(%97) <{shape = [2560 : i32, 2560 : i32]}> : (tensor<1x2560x2560xbf16>) -> tensor<2560x2560xbf16> loc(#loc98)
        %99 = "ttir.permute"(%98) <{permutation = array<i64: 1, 0>}> : (tensor<2560x2560xbf16>) -> tensor<2560x2560xbf16> loc(#loc99)
        %100 = "ttir.dot_general"(%46, %99) <{batch_dims_lhs = array<i64>, batch_dims_rhs = array<i64>, contract_dims_lhs = array<i64: 1>, contract_dims_rhs = array<i64: 0>}> : (tensor<4096x2560xbf16>, tensor<2560x2560xbf16>) -> tensor<4096x2560xbf16> loc(#loc100)
        %101 = "ttir.reshape"(%100) <{shape = [32 : i32, 128 : i32, 2560 : i32]}> : (tensor<4096x2560xbf16>) -> tensor<32x128x2560xbf16> loc(#loc101)
        %102 = "ttir.reshape"(%arg19) <{shape = [1 : i32, 1 : i32, 2560 : i32]}> : (tensor<2560xbf16>) -> tensor<1x1x2560xbf16> loc(#loc102)
        %103 = "ttir.reshape"(%102) <{shape = [2560 : i32]}> : (tensor<1x1x2560xbf16>) -> tensor<2560xbf16> loc(#loc103)
        %104 = "ttir.reshape"(%103) <{shape = [1 : i32, 1 : i32, 2560 : i32]}> : (tensor<2560xbf16>) -> tensor<1x1x2560xbf16> loc(#loc104)
        %105 = "ttir.broadcast"(%104) <{broadcast_dimensions = array<i64: 32, 128, 1>}> : (tensor<1x1x2560xbf16>) -> tensor<32x128x2560xbf16> loc(#loc104)
        %106 = "ttir.add"(%101, %105) : (tensor<32x128x2560xbf16>, tensor<32x128x2560xbf16>) -> tensor<32x128x2560xbf16> loc(#loc105)
        %107 = "ttir.reshape"(%106) <{shape = [32 : i32, 128 : i32, 32 : i32, 80 : i32]}> : (tensor<32x128x2560xbf16>) -> tensor<32x128x32x80xbf16> loc(#loc106)
        %108 = "ttir.permute"(%107) <{permutation = array<i64: 0, 2, 1, 3>}> : (tensor<32x128x32x80xbf16>) -> tensor<32x32x128x80xbf16> loc(#loc107)
        %109 = "ttir.slice_static"(%108) <{begins = [0 : i32, 0 : i32, 0 : i32, 0 : i32], ends = [32 : i32, 32 : i32, 128 : i32, 32 : i32], step = [1 : i32, 1 : i32, 1 : i32, 1 : i32]}> : (tensor<32x32x128x80xbf16>) -> tensor<32x32x128x32xbf16> loc(#loc108)
        %110 = "ttir.multiply"(%109, %82) : (tensor<32x32x128x32xbf16>, tensor<32x32x128x32xbf16>) -> tensor<32x32x128x32xbf16> loc(#loc109)
        %111 = "ttir.slice_static"(%109) <{begins = [0 : i32, 0 : i32, 0 : i32, 16 : i32], ends = [32 : i32, 32 : i32, 128 : i32, 32 : i32], step = [1 : i32, 1 : i32, 1 : i32, 1 : i32]}> : (tensor<32x32x128x32xbf16>) -> tensor<32x32x128x16xbf16> loc(#loc110)
        %112 = "ttir.neg"(%111) : (tensor<32x32x128x16xbf16>) -> tensor<32x32x128x16xbf16> loc(#loc111)
        %113 = "ttir.slice_static"(%109) <{begins = [0 : i32, 0 : i32, 0 : i32, 0 : i32], ends = [32 : i32, 32 : i32, 128 : i32, 16 : i32], step = [1 : i32, 1 : i32, 1 : i32, 1 : i32]}> : (tensor<32x32x128x32xbf16>) -> tensor<32x32x128x16xbf16> loc(#loc112)
        %114 = "ttir.concat"(%112, %113) <{dim = 3 : si32}> : (tensor<32x32x128x16xbf16>, tensor<32x32x128x16xbf16>) -> tensor<32x32x128x32xbf16> loc(#loc113)
        %115 = "ttir.multiply"(%114, %92) : (tensor<32x32x128x32xbf16>, tensor<32x32x128x32xbf16>) -> tensor<32x32x128x32xbf16> loc(#loc114)
        %116 = "ttir.add"(%110, %115) : (tensor<32x32x128x32xbf16>, tensor<32x32x128x32xbf16>) -> tensor<32x32x128x32xbf16> loc(#loc115)
        %117 = "ttir.slice_static"(%108) <{begins = [0 : i32, 0 : i32, 0 : i32, 32 : i32], ends = [32 : i32, 32 : i32, 128 : i32, 80 : i32], step = [1 : i32, 1 : i32, 1 : i32, 1 : i32]}> : (tensor<32x32x128x80xbf16>) -> tensor<32x32x128x48xbf16> loc(#loc116)
        %118 = "ttir.concat"(%116, %117) <{dim = 3 : si32}> : (tensor<32x32x128x32xbf16>, tensor<32x32x128x48xbf16>) -> tensor<32x32x128x80xbf16> loc(#loc117)
        %119 = "ttir.permute"(%96) <{permutation = array<i64: 0, 1, 3, 2>}> : (tensor<32x32x128x80xbf16>) -> tensor<32x32x80x128xbf16> loc(#loc118)
        %120 = "ttir.dot_general"(%118, %119) <{batch_dims_lhs = array<i64: 0, 1>, batch_dims_rhs = array<i64: 0, 1>, contract_dims_lhs = array<i64: 3>, contract_dims_rhs = array<i64: 2>}> : (tensor<32x32x128x80xbf16>, tensor<32x32x80x128xbf16>) -> tensor<32x32x128x128xbf16> loc(#loc119)
        %121 = "ttir.multiply"(%120, %8) : (tensor<32x32x128x128xbf16>, tensor<32x32x128x128xbf16>) -> tensor<32x32x128x128xbf16> loc(#loc120)
        %122 = "ttir.reshape"(%12) <{shape = [1 : i32, 129 : i32]}> : (tensor<129xi64>) -> tensor<1x129xi64> loc(#loc121)
        %123 = "ttir.broadcast"(%122) <{broadcast_dimensions = array<i64: 128, 1>}> : (tensor<1x129xi64>) -> tensor<128x129xi64> loc(#loc121)
        %124 = "ttir.reshape"(%13) <{shape = [128 : i32, 1 : i32]}> : (tensor<128xi64>) -> tensor<128x1xi64> loc(#loc122)
        %125 = "ttir.broadcast"(%124) <{broadcast_dimensions = array<i64: 1, 129>}> : (tensor<128x1xi64>) -> tensor<128x129xi64> loc(#loc122)
        %126 = "ttir.subtract"(%123, %125) : (tensor<128x129xi64>, tensor<128x129xi64>) -> tensor<128x129xi64> loc(#loc123)
        %127 = "ttir.ge"(%126, %7) : (tensor<128x129xi64>, tensor<128x129xi64>) -> tensor<128x129xi1> loc(#loc124)
        %128 = "ttir.where"(%127, %6, %5) : (tensor<128x129xi1>, tensor<128x129xbf16>, tensor<128x129xbf16>) -> tensor<128x129xbf16> loc(#loc125)
        %129 = "ttir.gt"(%123, %125) : (tensor<128x129xi64>, tensor<128x129xi64>) -> tensor<128x129xi1> loc(#loc126)
        %130 = "ttir.typecast"(%129) <{conservative_folding = false}> : (tensor<128x129xi1>) -> tensor<128x129xbf16> loc(#loc127)
        %131 = "ttir.multiply"(%128, %130) : (tensor<128x129xbf16>, tensor<128x129xbf16>) -> tensor<128x129xbf16> loc(#loc128)
        %132 = "ttir.reshape"(%131) <{shape = [1 : i32, 128 : i32, 129 : i32]}> : (tensor<128x129xbf16>) -> tensor<1x128x129xbf16> loc(#loc129)
        %133 = "ttir.reshape"(%132) <{shape = [1 : i32, 1 : i32, 128 : i32, 129 : i32]}> : (tensor<1x128x129xbf16>) -> tensor<1x1x128x129xbf16> loc(#loc130)
        %134 = "ttir.broadcast"(%133) <{broadcast_dimensions = array<i64: 32, 1, 1, 1>}> : (tensor<1x1x128x129xbf16>) -> tensor<32x1x128x129xbf16> loc(#loc130)
        %135 = "ttir.slice_static"(%134) <{begins = [0 : i32, 0 : i32, 0 : i32, 0 : i32], ends = [32 : i32, 1 : i32, 128 : i32, 128 : i32], step = [1 : i32, 1 : i32, 1 : i32, 1 : i32]}> : (tensor<32x1x128x129xbf16>) -> tensor<32x1x128x128xbf16> loc(#loc131)
        %136 = "ttir.reshape"(%135) <{shape = [32 : i32, 128 : i32, 128 : i32]}> : (tensor<32x1x128x128xbf16>) -> tensor<32x128x128xbf16> loc(#loc132)
        %137 = "ttir.reshape"(%136) <{shape = [32 : i32, 1 : i32, 128 : i32, 128 : i32]}> : (tensor<32x128x128xbf16>) -> tensor<32x1x128x128xbf16> loc(#loc133)
        %138 = "ttir.broadcast"(%137) <{broadcast_dimensions = array<i64: 1, 32, 1, 1>}> : (tensor<32x1x128x128xbf16>) -> tensor<32x32x128x128xbf16> loc(#loc133)
        %139 = "ttir.add"(%121, %138) : (tensor<32x32x128x128xbf16>, tensor<32x32x128x128xbf16>) -> tensor<32x32x128x128xbf16> loc(#loc134)
        %140 = "ttir.typecast"(%139) <{conservative_folding = false}> : (tensor<32x32x128x128xbf16>) -> tensor<32x32x128x128xf32> loc(#loc135)
        %141 = "ttir.max"(%140) <{dim_arg = [3 : i32], keep_dim = false}> : (tensor<32x32x128x128xf32>) -> tensor<32x32x128xf32> loc(#loc136)
        %142 = "ttir.reshape"(%141) <{shape = [32 : i32, 32 : i32, 128 : i32, 1 : i32]}> : (tensor<32x32x128xf32>) -> tensor<32x32x128x1xf32> loc(#loc137)
        %143 = "ttir.broadcast"(%142) <{broadcast_dimensions = array<i64: 1, 1, 1, 128>}> : (tensor<32x32x128x1xf32>) -> tensor<32x32x128x128xf32> loc(#loc137)
        %144 = "ttir.subtract"(%140, %143) : (tensor<32x32x128x128xf32>, tensor<32x32x128x128xf32>) -> tensor<32x32x128x128xf32> loc(#loc138)
        %145 = "ttir.exp"(%144) : (tensor<32x32x128x128xf32>) -> tensor<32x32x128x128xf32> loc(#loc139)
        %146 = "ttir.sum"(%145) <{dim_arg = [3 : i32], keep_dim = false}> : (tensor<32x32x128x128xf32>) -> tensor<32x32x128xf32> loc(#loc140)
        %147 = "ttir.reshape"(%146) <{shape = [32 : i32, 32 : i32, 128 : i32, 1 : i32]}> : (tensor<32x32x128xf32>) -> tensor<32x32x128x1xf32> loc(#loc141)
        %148 = "ttir.broadcast"(%147) <{broadcast_dimensions = array<i64: 1, 1, 1, 128>}> : (tensor<32x32x128x1xf32>) -> tensor<32x32x128x128xf32> loc(#loc141)
        %149 = "ttir.div"(%145, %148) : (tensor<32x32x128x128xf32>, tensor<32x32x128x128xf32>) -> tensor<32x32x128x128xf32> loc(#loc142)
        %150 = "ttir.typecast"(%149) <{conservative_folding = false}> : (tensor<32x32x128x128xf32>) -> tensor<32x32x128x128xbf16> loc(#loc143)
        %151 = "ttir.dot_general"(%150, %58) <{batch_dims_lhs = array<i64: 0, 1>, batch_dims_rhs = array<i64: 0, 1>, contract_dims_lhs = array<i64: 3>, contract_dims_rhs = array<i64: 2>}> : (tensor<32x32x128x128xbf16>, tensor<32x32x128x80xbf16>) -> tensor<32x32x128x80xbf16> loc(#loc144)
        %152 = "ttir.permute"(%151) <{permutation = array<i64: 0, 2, 1, 3>}> : (tensor<32x32x128x80xbf16>) -> tensor<32x128x32x80xbf16> loc(#loc145)
        %153 = "ttir.reshape"(%152) <{shape = [4096 : i32, 2560 : i32]}> : (tensor<32x128x32x80xbf16>) -> tensor<4096x2560xbf16> loc(#loc146)
        %154 = "ttir.reshape"(%arg18) <{shape = [1 : i32, 2560 : i32, 2560 : i32]}> : (tensor<2560x2560xbf16>) -> tensor<1x2560x2560xbf16> loc(#loc147)
        %155 = "ttir.reshape"(%154) <{shape = [2560 : i32, 2560 : i32]}> : (tensor<1x2560x2560xbf16>) -> tensor<2560x2560xbf16> loc(#loc148)
        %156 = "ttir.permute"(%155) <{permutation = array<i64: 1, 0>}> : (tensor<2560x2560xbf16>) -> tensor<2560x2560xbf16> loc(#loc149)
        %157 = "ttir.dot_general"(%153, %156) <{batch_dims_lhs = array<i64>, batch_dims_rhs = array<i64>, contract_dims_lhs = array<i64: 1>, contract_dims_rhs = array<i64: 0>}> : (tensor<4096x2560xbf16>, tensor<2560x2560xbf16>) -> tensor<4096x2560xbf16> loc(#loc150)
        %158 = "ttir.reshape"(%157) <{shape = [32 : i32, 128 : i32, 2560 : i32]}> : (tensor<4096x2560xbf16>) -> tensor<32x128x2560xbf16> loc(#loc151)
        %159 = "ttir.reshape"(%arg17) <{shape = [1 : i32, 1 : i32, 2560 : i32]}> : (tensor<2560xbf16>) -> tensor<1x1x2560xbf16> loc(#loc152)
        %160 = "ttir.reshape"(%159) <{shape = [2560 : i32]}> : (tensor<1x1x2560xbf16>) -> tensor<2560xbf16> loc(#loc153)
        %161 = "ttir.reshape"(%160) <{shape = [1 : i32, 1 : i32, 2560 : i32]}> : (tensor<2560xbf16>) -> tensor<1x1x2560xbf16> loc(#loc154)
        %162 = "ttir.broadcast"(%161) <{broadcast_dimensions = array<i64: 32, 128, 1>}> : (tensor<1x1x2560xbf16>) -> tensor<32x128x2560xbf16> loc(#loc154)
        %163 = "ttir.add"(%158, %162) : (tensor<32x128x2560xbf16>, tensor<32x128x2560xbf16>) -> tensor<32x128x2560xbf16> loc(#loc155)
        %164 = "ttir.reshape"(%arg16) <{shape = [1 : i32, 10240 : i32, 2560 : i32]}> : (tensor<10240x2560xbf16>) -> tensor<1x10240x2560xbf16> loc(#loc156)
        %165 = "ttir.reshape"(%164) <{shape = [10240 : i32, 2560 : i32]}> : (tensor<1x10240x2560xbf16>) -> tensor<10240x2560xbf16> loc(#loc157)
        %166 = "ttir.permute"(%165) <{permutation = array<i64: 1, 0>}> : (tensor<10240x2560xbf16>) -> tensor<2560x10240xbf16> loc(#loc158)
        %167 = "ttir.dot_general"(%46, %166) <{batch_dims_lhs = array<i64>, batch_dims_rhs = array<i64>, contract_dims_lhs = array<i64: 1>, contract_dims_rhs = array<i64: 0>}> : (tensor<4096x2560xbf16>, tensor<2560x10240xbf16>) -> tensor<4096x10240xbf16> loc(#loc159)
        %168 = "ttir.reshape"(%167) <{shape = [32 : i32, 128 : i32, 10240 : i32]}> : (tensor<4096x10240xbf16>) -> tensor<32x128x10240xbf16> loc(#loc160)
        %169 = "ttir.reshape"(%arg15) <{shape = [1 : i32, 1 : i32, 10240 : i32]}> : (tensor<10240xbf16>) -> tensor<1x1x10240xbf16> loc(#loc161)
        %170 = "ttir.reshape"(%169) <{shape = [10240 : i32]}> : (tensor<1x1x10240xbf16>) -> tensor<10240xbf16> loc(#loc162)
        %171 = "ttir.reshape"(%170) <{shape = [1 : i32, 1 : i32, 10240 : i32]}> : (tensor<10240xbf16>) -> tensor<1x1x10240xbf16> loc(#loc163)
        %172 = "ttir.broadcast"(%171) <{broadcast_dimensions = array<i64: 32, 128, 1>}> : (tensor<1x1x10240xbf16>) -> tensor<32x128x10240xbf16> loc(#loc163)
        %173 = "ttir.add"(%168, %172) : (tensor<32x128x10240xbf16>, tensor<32x128x10240xbf16>) -> tensor<32x128x10240xbf16> loc(#loc164)
        %174 = "ttir.multiply"(%173, %4) : (tensor<32x128x10240xbf16>, tensor<32x128x10240xbf16>) -> tensor<32x128x10240xbf16> loc(#loc165)
        %175 = "ttir.pow"(%173, %3) : (tensor<32x128x10240xbf16>, tensor<32x128x10240xbf16>) -> tensor<32x128x10240xbf16> loc(#loc166)
        %176 = "ttir.multiply"(%175, %2) : (tensor<32x128x10240xbf16>, tensor<32x128x10240xbf16>) -> tensor<32x128x10240xbf16> loc(#loc167)
        %177 = "ttir.add"(%173, %176) : (tensor<32x128x10240xbf16>, tensor<32x128x10240xbf16>) -> tensor<32x128x10240xbf16> loc(#loc168)
        %178 = "ttir.multiply"(%177, %1) : (tensor<32x128x10240xbf16>, tensor<32x128x10240xbf16>) -> tensor<32x128x10240xbf16> loc(#loc169)
        %179 = "ttir.tanh"(%178) : (tensor<32x128x10240xbf16>) -> tensor<32x128x10240xbf16> loc(#loc170)
        %180 = "ttir.add"(%179, %0) : (tensor<32x128x10240xbf16>, tensor<32x128x10240xbf16>) -> tensor<32x128x10240xbf16> loc(#loc171)
        %181 = "ttir.multiply"(%174, %180) : (tensor<32x128x10240xbf16>, tensor<32x128x10240xbf16>) -> tensor<32x128x10240xbf16> loc(#loc172)
        %182 = "ttir.reshape"(%181) <{shape = [4096 : i32, 10240 : i32]}> : (tensor<32x128x10240xbf16>) -> tensor<4096x10240xbf16> loc(#loc173)
        %183 = "ttir.reshape"(%arg14) <{shape = [1 : i32, 2560 : i32, 10240 : i32]}> : (tensor<2560x10240xbf16>) -> tensor<1x2560x10240xbf16> loc(#loc174)
        %184 = "ttir.reshape"(%183) <{shape = [2560 : i32, 10240 : i32]}> : (tensor<1x2560x10240xbf16>) -> tensor<2560x10240xbf16> loc(#loc175)
        %185 = "ttir.permute"(%184) <{permutation = array<i64: 1, 0>}> : (tensor<2560x10240xbf16>) -> tensor<10240x2560xbf16> loc(#loc176)
        %186 = "ttir.dot_general"(%182, %185) <{batch_dims_lhs = array<i64>, batch_dims_rhs = array<i64>, contract_dims_lhs = array<i64: 1>, contract_dims_rhs = array<i64: 0>}> : (tensor<4096x10240xbf16>, tensor<10240x2560xbf16>) -> tensor<4096x2560xbf16> loc(#loc177)
        %187 = "ttir.reshape"(%186) <{shape = [32 : i32, 128 : i32, 2560 : i32]}> : (tensor<4096x2560xbf16>) -> tensor<32x128x2560xbf16> loc(#loc178)
        %188 = "ttir.reshape"(%arg13) <{shape = [1 : i32, 1 : i32, 2560 : i32]}> : (tensor<2560xbf16>) -> tensor<1x1x2560xbf16> loc(#loc179)
        %189 = "ttir.reshape"(%188) <{shape = [2560 : i32]}> : (tensor<1x1x2560xbf16>) -> tensor<2560xbf16> loc(#loc180)
        %190 = "ttir.reshape"(%189) <{shape = [1 : i32, 1 : i32, 2560 : i32]}> : (tensor<2560xbf16>) -> tensor<1x1x2560xbf16> loc(#loc181)
        %191 = "ttir.broadcast"(%190) <{broadcast_dimensions = array<i64: 32, 128, 1>}> : (tensor<1x1x2560xbf16>) -> tensor<32x128x2560xbf16> loc(#loc181)
        %192 = "ttir.add"(%187, %191) : (tensor<32x128x2560xbf16>, tensor<32x128x2560xbf16>) -> tensor<32x128x2560xbf16> loc(#loc182)
        %193 = "ttir.add"(%163, %192) : (tensor<32x128x2560xbf16>, tensor<32x128x2560xbf16>) -> tensor<32x128x2560xbf16> loc(#loc183)
        %194 = "ttir.add"(%193, %20) : (tensor<32x128x2560xbf16>, tensor<32x128x2560xbf16>) -> tensor<32x128x2560xbf16> loc(#loc184)
        %195 = "ttir.sum"(%194) <{dim_arg = [2 : i32], keep_dim = false}> : (tensor<32x128x2560xbf16>) -> tensor<32x128xbf16> loc(#loc185)
        %196 = "ttir.multiply"(%195, %11) : (tensor<32x128xbf16>, tensor<32x128xbf16>) -> tensor<32x128xbf16> loc(#loc186)
        %197 = "ttir.reshape"(%196) <{shape = [32 : i32, 128 : i32, 1 : i32]}> : (tensor<32x128xbf16>) -> tensor<32x128x1xbf16> loc(#loc187)
        %198 = "ttir.broadcast"(%197) <{broadcast_dimensions = array<i64: 1, 1, 2560>}> : (tensor<32x128x1xbf16>) -> tensor<32x128x2560xbf16> loc(#loc187)
        %199 = "ttir.subtract"(%194, %198) : (tensor<32x128x2560xbf16>, tensor<32x128x2560xbf16>) -> tensor<32x128x2560xbf16> loc(#loc188)
        %200 = "ttir.multiply"(%199, %199) : (tensor<32x128x2560xbf16>, tensor<32x128x2560xbf16>) -> tensor<32x128x2560xbf16> loc(#loc189)
        %201 = "ttir.sum"(%200) <{dim_arg = [2 : i32], keep_dim = false}> : (tensor<32x128x2560xbf16>) -> tensor<32x128xbf16> loc(#loc190)
        %202 = "ttir.multiply"(%201, %11) : (tensor<32x128xbf16>, tensor<32x128xbf16>) -> tensor<32x128xbf16> loc(#loc191)
        %203 = "ttir.reshape"(%202) <{shape = [32 : i32, 128 : i32, 1 : i32]}> : (tensor<32x128xbf16>) -> tensor<32x128x1xbf16> loc(#loc192)
        %204 = "ttir.add"(%203, %10) : (tensor<32x128x1xbf16>, tensor<32x128x1xbf16>) -> tensor<32x128x1xbf16> loc(#loc193)
        %205 = "ttir.rsqrt"(%204) : (tensor<32x128x1xbf16>) -> tensor<32x128x1xbf16> loc(#loc194)
        %206 = "ttir.reshape"(%205) <{shape = [32 : i32, 128 : i32]}> : (tensor<32x128x1xbf16>) -> tensor<32x128xbf16> loc(#loc195)
        %207 = "ttir.reshape"(%206) <{shape = [32 : i32, 128 : i32, 1 : i32]}> : (tensor<32x128xbf16>) -> tensor<32x128x1xbf16> loc(#loc196)
        %208 = "ttir.broadcast"(%207) <{broadcast_dimensions = array<i64: 1, 1, 2560>}> : (tensor<32x128x1xbf16>) -> tensor<32x128x2560xbf16> loc(#loc196)
        %209 = "ttir.multiply"(%199, %208) : (tensor<32x128x2560xbf16>, tensor<32x128x2560xbf16>) -> tensor<32x128x2560xbf16> loc(#loc197)
        %210 = "ttir.reshape"(%arg12) <{shape = [1 : i32, 1 : i32, 2560 : i32]}> : (tensor<2560xbf16>) -> tensor<1x1x2560xbf16> loc(#loc198)
        %211 = "ttir.reshape"(%210) <{shape = [2560 : i32]}> : (tensor<1x1x2560xbf16>) -> tensor<2560xbf16> loc(#loc199)
        %212 = "ttir.reshape"(%211) <{shape = [1 : i32, 1 : i32, 2560 : i32]}> : (tensor<2560xbf16>) -> tensor<1x1x2560xbf16> loc(#loc200)
        %213 = "ttir.broadcast"(%212) <{broadcast_dimensions = array<i64: 32, 128, 1>}> : (tensor<1x1x2560xbf16>) -> tensor<32x128x2560xbf16> loc(#loc200)
        %214 = "ttir.multiply"(%209, %213) : (tensor<32x128x2560xbf16>, tensor<32x128x2560xbf16>) -> tensor<32x128x2560xbf16> loc(#loc201)
        %215 = "ttir.reshape"(%arg11) <{shape = [1 : i32, 1 : i32, 2560 : i32]}> : (tensor<2560xbf16>) -> tensor<1x1x2560xbf16> loc(#loc202)
        %216 = "ttir.reshape"(%215) <{shape = [2560 : i32]}> : (tensor<1x1x2560xbf16>) -> tensor<2560xbf16> loc(#loc203)
        %217 = "ttir.reshape"(%216) <{shape = [1 : i32, 1 : i32, 2560 : i32]}> : (tensor<2560xbf16>) -> tensor<1x1x2560xbf16> loc(#loc204)
        %218 = "ttir.broadcast"(%217) <{broadcast_dimensions = array<i64: 32, 128, 1>}> : (tensor<1x1x2560xbf16>) -> tensor<32x128x2560xbf16> loc(#loc204)
        %219 = "ttir.add"(%214, %218) : (tensor<32x128x2560xbf16>, tensor<32x128x2560xbf16>) -> tensor<32x128x2560xbf16> loc(#loc205)
        %220 = "ttir.reshape"(%219) <{shape = [4096 : i32, 2560 : i32]}> : (tensor<32x128x2560xbf16>) -> tensor<4096x2560xbf16> loc(#loc206)
        %221 = "ttir.reshape"(%arg10) <{shape = [1 : i32, 51200 : i32, 2560 : i32]}> : (tensor<51200x2560xbf16>) -> tensor<1x51200x2560xbf16> loc(#loc207)
        %222 = "ttir.reshape"(%221) <{shape = [51200 : i32, 2560 : i32]}> : (tensor<1x51200x2560xbf16>) -> tensor<51200x2560xbf16> loc(#loc208)
        %223 = "ttir.permute"(%222) <{permutation = array<i64: 1, 0>}> : (tensor<51200x2560xbf16>) -> tensor<2560x51200xbf16> loc(#loc209)
        %224 = "ttir.dot_general"(%220, %223) <{batch_dims_lhs = array<i64>, batch_dims_rhs = array<i64>, contract_dims_lhs = array<i64: 1>, contract_dims_rhs = array<i64: 0>}> : (tensor<4096x2560xbf16>, tensor<2560x51200xbf16>) -> tensor<4096x51200xbf16> loc(#loc210)
        %225 = "ttir.reshape"(%224) <{shape = [32 : i32, 128 : i32, 51200 : i32]}> : (tensor<4096x51200xbf16>) -> tensor<32x128x51200xbf16> loc(#loc211)
        %226 = "ttir.reshape"(%arg9) <{shape = [1 : i32, 1 : i32, 51200 : i32]}> : (tensor<51200xbf16>) -> tensor<1x1x51200xbf16> loc(#loc212)
        %227 = "ttir.reshape"(%226) <{shape = [51200 : i32]}> : (tensor<1x1x51200xbf16>) -> tensor<51200xbf16> loc(#loc213)
        %228 = "ttir.reshape"(%227) <{shape = [1 : i32, 1 : i32, 51200 : i32]}> : (tensor<51200xbf16>) -> tensor<1x1x51200xbf16> loc(#loc214)
        %229 = "ttir.broadcast"(%228) <{broadcast_dimensions = array<i64: 32, 128, 1>}> : (tensor<1x1x51200xbf16>) -> tensor<32x128x51200xbf16> loc(#loc214)
        %230 = "ttir.add"(%225, %229) : (tensor<32x128x51200xbf16>, tensor<32x128x51200xbf16>) -> tensor<32x128x51200xbf16> loc(#loc215)
        return %58, %96, %230 : tensor<32x32x128x80xbf16>, tensor<32x32x128x80xbf16>, tensor<32x128x51200xbf16> loc(#loc)
      } loc(#loc)
    } loc(#loc)
  } loc(#loc)
} loc(#loc)
#loc = loc(unknown)
#loc22 = loc("reshape.28")
#loc23 = loc("reshape.30")
#loc24 = loc("reshape.23")
#loc25 = loc("reshape.26")
#loc26 = loc("convert.31")
#loc27 = loc("gather.32")
#loc28 = loc("reshape.33")
#loc29 = loc("reduce.79")
#loc30 = loc("multiply.88")
#loc31 = loc("broadcast.98")
#loc32 = loc("subtract.99")
#loc33 = loc("multiply.55")
#loc34 = loc("reduce.62")
#loc35 = loc("multiply.71")
#loc36 = loc("reshape.72")
#loc37 = loc("add.92")
#loc38 = loc("rsqrt.93")
#loc39 = loc("reshape.100")
#loc40 = loc("broadcast.101")
#loc41 = loc("multiply.102")
#loc42 = loc("reshape.17")
#loc43 = loc("reshape.19")
#loc44 = loc("broadcast.103")
#loc45 = loc("multiply.104")
#loc46 = loc("reshape.13")
#loc47 = loc("reshape.15")
#loc48 = loc("broadcast.107")
#loc49 = loc("add.108")
#loc50 = loc("reshape.109")
#loc51 = loc("reshape.7")
#loc52 = loc("reshape.9")
#loc53 = loc("transpose.10")
#loc54 = loc("dot.110")
#loc55 = loc("reshape.111")
#loc56 = loc("reshape.3")
#loc57 = loc("reshape.5")
#loc58 = loc("broadcast.114")
#loc59 = loc("add.115")
#loc60 = loc("reshape.116")
#loc61 = loc("transpose.117")
#loc62 = loc("reshape.124")
#loc63 = loc("reshape.126")
#loc64 = loc("transpose.127")
#loc65 = loc("dot.129")
#loc66 = loc("reshape.130")
#loc67 = loc("reshape.120")
#loc68 = loc("reshape.122")
#loc69 = loc("broadcast.133")
#loc70 = loc("add.134")
#loc71 = loc("reshape.135")
#loc72 = loc("transpose.136")
#loc73 = loc("slice.165")
#loc74 = loc("reshape.148")
#loc75 = loc("reshape.153")
#loc76 = loc("convert.154")
#loc77 = loc("dot.157")
#loc78 = loc("transpose.158")
#loc79 = loc("concatenate.159")
#loc80 = loc("cosine.174")
#loc81 = loc("convert.177")
#loc82 = loc("reshape.179")
#loc83 = loc("broadcast.180")
#loc84 = loc("multiply.181")
#loc85 = loc("slice.167")
#loc86 = loc("negate.168")
#loc87 = loc("slice.166")
#loc88 = loc("concatenate.169")
#loc89 = loc("sine.160")
#loc90 = loc("convert.163")
#loc91 = loc("reshape.170")
#loc92 = loc("broadcast.171")
#loc93 = loc("multiply.172")
#loc94 = loc("add.184")
#loc95 = loc("slice.137")
#loc96 = loc("concatenate.185")
#loc97 = loc("reshape.333")
#loc98 = loc("reshape.335")
#loc99 = loc("transpose.336")
#loc100 = loc("dot.338")
#loc101 = loc("reshape.339")
#loc102 = loc("reshape.329")
#loc103 = loc("reshape.331")
#loc104 = loc("broadcast.342")
#loc105 = loc("add.343")
#loc106 = loc("reshape.344")
#loc107 = loc("transpose.345")
#loc108 = loc("slice.348")
#loc109 = loc("multiply.358")
#loc110 = loc("slice.350")
#loc111 = loc("negate.351")
#loc112 = loc("slice.349")
#loc113 = loc("concatenate.352")
#loc114 = loc("multiply.355")
#loc115 = loc("add.361")
#loc116 = loc("slice.346")
#loc117 = loc("concatenate.362")
#loc118 = loc("transpose.326")
#loc119 = loc("dot.363")
#loc120 = loc("multiply.366")
#loc121 = loc("broadcast.305")
#loc122 = loc("broadcast.307")
#loc123 = loc("subtract.308")
#loc124 = loc("compare.310")
#loc125 = loc("select.312")
#loc126 = loc("compare.282")
#loc127 = loc("convert.283")
#loc128 = loc("multiply.313")
#loc129 = loc("reshape.314")
#loc130 = loc("broadcast.320")
#loc131 = loc("slice.324")
#loc132 = loc("reshape.369")
#loc133 = loc("broadcast.370")
#loc134 = loc("add.371")
#loc135 = loc("convert.372")
#loc136 = loc("reduce.378")
#loc137 = loc("broadcast.379")
#loc138 = loc("subtract.380")
#loc139 = loc("exponential.381")
#loc140 = loc("reduce.387")
#loc141 = loc("broadcast.388")
#loc142 = loc("divide.389")
#loc143 = loc("convert.390")
#loc144 = loc("dot.391")
#loc145 = loc("transpose.393")
#loc146 = loc("reshape.395")
#loc147 = loc("reshape.272")
#loc148 = loc("reshape.274")
#loc149 = loc("transpose.275")
#loc150 = loc("dot.396")
#loc151 = loc("reshape.397")
#loc152 = loc("reshape.268")
#loc153 = loc("reshape.270")
#loc154 = loc("broadcast.400")
#loc155 = loc("add.401")
#loc156 = loc("reshape.231")
#loc157 = loc("reshape.233")
#loc158 = loc("transpose.234")
#loc159 = loc("dot.236")
#loc160 = loc("reshape.237")
#loc161 = loc("reshape.227")
#loc162 = loc("reshape.229")
#loc163 = loc("broadcast.240")
#loc164 = loc("add.241")
#loc165 = loc("multiply.257")
#loc166 = loc("power.243")
#loc167 = loc("multiply.245")
#loc168 = loc("add.248")
#loc169 = loc("multiply.250")
#loc170 = loc("tanh.251")
#loc171 = loc("add.254")
#loc172 = loc("multiply.258")
#loc173 = loc("reshape.259")
#loc174 = loc("reshape.215")
#loc175 = loc("reshape.217")
#loc176 = loc("transpose.218")
#loc177 = loc("dot.260")
#loc178 = loc("reshape.261")
#loc179 = loc("reshape.211")
#loc180 = loc("reshape.213")
#loc181 = loc("broadcast.264")
#loc182 = loc("add.265")
#loc183 = loc("add.404")
#loc184 = loc("add.407")
#loc185 = loc("reduce.453")
#loc186 = loc("multiply.462")
#loc187 = loc("broadcast.472")
#loc188 = loc("subtract.473")
#loc189 = loc("multiply.429")
#loc190 = loc("reduce.436")
#loc191 = loc("multiply.445")
#loc192 = loc("reshape.446")
#loc193 = loc("add.466")
#loc194 = loc("rsqrt.467")
#loc195 = loc("reshape.474")
#loc196 = loc("broadcast.475")
#loc197 = loc("multiply.476")
#loc198 = loc("reshape.202")
#loc199 = loc("reshape.204")
#loc200 = loc("broadcast.477")
#loc201 = loc("multiply.478")
#loc202 = loc("reshape.198")
#loc203 = loc("reshape.200")
#loc204 = loc("broadcast.481")
#loc205 = loc("add.482")
#loc206 = loc("reshape.486")
#loc207 = loc("reshape.192")
#loc208 = loc("reshape.194")
#loc209 = loc("transpose.195")
#loc210 = loc("dot.487")
#loc211 = loc("reshape.488")
#loc212 = loc("reshape.188")
#loc213 = loc("reshape.190")
#loc214 = loc("broadcast.491")
#loc215 = loc("add.492")
