#loc1 = loc("p0.2")
#loc2 = loc("p1.6")
#loc3 = loc("p2.12")
#loc4 = loc("p3.17")
#loc5 = loc("p4.24")
#loc6 = loc("p5.29")
#loc7 = loc("p6.125")
#loc8 = loc("p7.135")
#loc9 = loc("p8.184")
#loc10 = loc("p9.193")
#loc11 = loc("p10.197")
#loc12 = loc("p11.221")
#loc13 = loc("p12.230")
#loc14 = loc("p13.234")
#loc15 = loc("p14.240")
#loc16 = loc("p15.245")
#loc17 = loc("p16.255")
#loc18 = loc("p17.259")
#loc19 = loc("p18.271")
#loc20 = loc("p19.275")
#loc21 = loc("p20.312")
#loc22 = loc("p21.316")
#loc23 = loc("p22.348")
#loc24 = loc("p23.352")
module @SyncTensorsGraph.516 attributes {mhlo.cross_program_prefetches = [], mhlo.input_output_alias = [], mhlo.is_dynamic = false, mhlo.use_auto_spmd_partitioning = false, ttcore.meshes = #ttcore.meshes<[<"mesh" = 1x1>]>} {
  ttcore.device_module {
    builtin.module @SyncTensorsGraph.516 attributes {mhlo.cross_program_prefetches = [], mhlo.input_output_alias = [], mhlo.is_dynamic = false, mhlo.use_auto_spmd_partitioning = false, ttcore.meshes = #ttcore.meshes<[<"mesh" = 1x1>]>} {
      func.func @main(%arg0: tensor<2048xbf16> {ttcore.argument_type = #ttcore.argument_type<parameter>, ttcore.shard_status = #ttcore.shard_status<unsharded>, ttir.name = "l__self___model_layers__modules__0___self_attn_k_proj_bias"} loc("p0.2"), %arg1: tensor<2048x2048xbf16> {ttcore.argument_type = #ttcore.argument_type<parameter>, ttcore.shard_status = #ttcore.shard_status<unsharded>, ttir.name = "l__self___model_layers__modules__0___self_attn_k_proj_weight"} loc("p1.6"), %arg2: tensor<2048xbf16> {ttcore.argument_type = #ttcore.argument_type<parameter>, ttcore.shard_status = #ttcore.shard_status<unsharded>, ttir.name = "l__self___model_layers__modules__0___input_layernorm_bias"} loc("p2.12"), %arg3: tensor<2048xbf16> {ttcore.argument_type = #ttcore.argument_type<parameter>, ttcore.shard_status = #ttcore.shard_status<unsharded>, ttir.name = "l__self___model_layers__modules__0___input_layernorm_weight"} loc("p3.17"), %arg4: tensor<32x1xi64> {ttcore.argument_type = #ttcore.argument_type<input>, ttcore.shard_status = #ttcore.shard_status<unsharded>, ttir.name = "args_0"} loc("p4.24"), %arg5: tensor<51200x2048xbf16> {ttcore.argument_type = #ttcore.argument_type<parameter>, ttcore.shard_status = #ttcore.shard_status<unsharded>, ttir.name = "l__self___model_embed_tokens_weight"} loc("p5.29"), %arg6: tensor<1xi64> {ttcore.argument_type = #ttcore.argument_type<input>, ttcore.shard_status = #ttcore.shard_status<unsharded>, ttir.name = "args_1"} loc("p6.125"), %arg7: tensor<16xbf16> {ttcore.argument_type = #ttcore.argument_type<constant>, ttcore.shard_status = #ttcore.shard_status<unsharded>, ttir.name = "l__self___model_rotary_emb_inv_freq"} loc("p7.135"), %arg8: tensor<32x32x128x64xbf16> {ttcore.argument_type = #ttcore.argument_type<input>, ttcore.shard_status = #ttcore.shard_status<unsharded>, ttir.name = "args_2"} loc("p8.184"), %arg9: tensor<2048xbf16> {ttcore.argument_type = #ttcore.argument_type<parameter>, ttcore.shard_status = #ttcore.shard_status<unsharded>, ttir.name = "l__self___model_layers__modules__0___self_attn_v_proj_bias"} loc("p9.193"), %arg10: tensor<2048x2048xbf16> {ttcore.argument_type = #ttcore.argument_type<parameter>, ttcore.shard_status = #ttcore.shard_status<unsharded>, ttir.name = "l__self___model_layers__modules__0___self_attn_v_proj_weight"} loc("p10.197"), %arg11: tensor<32x32x128x64xbf16> {ttcore.argument_type = #ttcore.argument_type<input>, ttcore.shard_status = #ttcore.shard_status<unsharded>, ttir.name = "args_3"} loc("p11.221"), %arg12: tensor<51200xbf16> {ttcore.argument_type = #ttcore.argument_type<parameter>, ttcore.shard_status = #ttcore.shard_status<unsharded>, ttir.name = "l__self___lm_head_bias"} loc("p12.230"), %arg13: tensor<51200x2048xbf16> {ttcore.argument_type = #ttcore.argument_type<parameter>, ttcore.shard_status = #ttcore.shard_status<unsharded>, ttir.name = "l__self___lm_head_weight"} loc("p13.234"), %arg14: tensor<2048xbf16> {ttcore.argument_type = #ttcore.argument_type<parameter>, ttcore.shard_status = #ttcore.shard_status<unsharded>, ttir.name = "l__self___model_final_layernorm_bias"} loc("p14.240"), %arg15: tensor<2048xbf16> {ttcore.argument_type = #ttcore.argument_type<parameter>, ttcore.shard_status = #ttcore.shard_status<unsharded>, ttir.name = "l__self___model_final_layernorm_weight"} loc("p15.245"), %arg16: tensor<2048xbf16> {ttcore.argument_type = #ttcore.argument_type<parameter>, ttcore.shard_status = #ttcore.shard_status<unsharded>, ttir.name = "l__self___model_layers__modules__0___mlp_fc2_bias"} loc("p16.255"), %arg17: tensor<2048x8192xbf16> {ttcore.argument_type = #ttcore.argument_type<parameter>, ttcore.shard_status = #ttcore.shard_status<unsharded>, ttir.name = "l__self___model_layers__modules__0___mlp_fc2_weight"} loc("p17.259"), %arg18: tensor<8192xbf16> {ttcore.argument_type = #ttcore.argument_type<parameter>, ttcore.shard_status = #ttcore.shard_status<unsharded>, ttir.name = "l__self___model_layers__modules__0___mlp_fc1_bias"} loc("p18.271"), %arg19: tensor<8192x2048xbf16> {ttcore.argument_type = #ttcore.argument_type<parameter>, ttcore.shard_status = #ttcore.shard_status<unsharded>, ttir.name = "l__self___model_layers__modules__0___mlp_fc1_weight"} loc("p19.275"), %arg20: tensor<2048xbf16> {ttcore.argument_type = #ttcore.argument_type<parameter>, ttcore.shard_status = #ttcore.shard_status<unsharded>, ttir.name = "l__self___model_layers__modules__0___self_attn_dense_bias"} loc("p20.312"), %arg21: tensor<2048x2048xbf16> {ttcore.argument_type = #ttcore.argument_type<parameter>, ttcore.shard_status = #ttcore.shard_status<unsharded>, ttir.name = "l__self___model_layers__modules__0___self_attn_dense_weight"} loc("p21.316"), %arg22: tensor<2048xbf16> {ttcore.argument_type = #ttcore.argument_type<parameter>, ttcore.shard_status = #ttcore.shard_status<unsharded>, ttir.name = "l__self___model_layers__modules__0___self_attn_q_proj_bias"} loc("p22.348"), %arg23: tensor<2048x2048xbf16> {ttcore.argument_type = #ttcore.argument_type<parameter>, ttcore.shard_status = #ttcore.shard_status<unsharded>, ttir.name = "l__self___model_layers__modules__0___self_attn_q_proj_weight"} loc("p23.352")) -> (tensor<32x32x128x64xbf16> {ttcore.shard_status = #ttcore.shard_status<unsharded>}, tensor<32x32x128x64xbf16> {ttcore.shard_status = #ttcore.shard_status<unsharded>}, tensor<32x1x51200xbf16> {ttcore.shard_status = #ttcore.shard_status<unsharded>}) {
        %0 = "ttir.constant"() <{value = dense<4.882810e-04> : tensor<32x1xbf16>}> : () -> tensor<32x1xbf16> loc(#loc)
        %1 = "ttir.constant"() <{value = dense<1.001360e-05> : tensor<32x1x1xbf16>}> : () -> tensor<32x1x1xbf16> loc(#loc)
        %2 = "ttir.constant"() <{value = dense<"…"> : tensor<1x128xi64>}> : () -> tensor<1x128xi64> loc(#loc)
        %3 = "ttir.constant"() <{value = dense<1.000000e+00> : tensor<32x1x8192xbf16>}> : () -> tensor<32x1x8192xbf16> loc(#loc)
        %4 = "ttir.constant"() <{value = dense<7.968750e-01> : tensor<32x1x8192xbf16>}> : () -> tensor<32x1x8192xbf16> loc(#loc)
        %5 = "ttir.constant"() <{value = dense<4.467770e-02> : tensor<32x1x8192xbf16>}> : () -> tensor<32x1x8192xbf16> loc(#loc)
        %6 = "ttir.constant"() <{value = dense<3.000000e+00> : tensor<32x1x8192xbf16>}> : () -> tensor<32x1x8192xbf16> loc(#loc)
        %7 = "ttir.constant"() <{value = dense<5.000000e-01> : tensor<32x1x8192xbf16>}> : () -> tensor<32x1x8192xbf16> loc(#loc)
        %8 = "ttir.constant"() <{value = dense<-3.389530e+38> : tensor<1x128xbf16>}> : () -> tensor<1x128xbf16> loc(#loc)
        %9 = "ttir.constant"() <{value = dense<1.250000e-01> : tensor<32x32x1x128xbf16>}> : () -> tensor<32x32x1x128xbf16> loc(#loc)
        %10 = "ttir.constant"() <{value = dense<128> : tensor<1xi64>}> : () -> tensor<1xi64> loc(#loc)
        %11 = "ttir.constant"() <{value = dense<0> : tensor<1xi64>}> : () -> tensor<1xi64> loc(#loc)
        %12 = "ttir.reshape"(%arg6) <{shape = [1 : i32, 1 : i32, 1 : i32]}> : (tensor<1xi64>) -> tensor<1x1x1xi64> loc(#loc25)
        %13 = "ttir.reshape"(%12) <{shape = [1 : i32]}> : (tensor<1x1x1xi64>) -> tensor<1xi64> loc(#loc26)
        %14 = "ttir.lt"(%13, %11) : (tensor<1xi64>, tensor<1xi64>) -> tensor<1xi1> loc(#loc27)
        %15 = "ttir.add"(%13, %10) : (tensor<1xi64>, tensor<1xi64>) -> tensor<1xi64> loc(#loc28)
        %16 = "ttir.where"(%14, %15, %13) : (tensor<1xi1>, tensor<1xi64>, tensor<1xi64>) -> tensor<1xi64> loc(#loc29)
        %17 = "ttir.reshape"(%arg5) <{shape = [1 : i32, 51200 : i32, 2048 : i32]}> : (tensor<51200x2048xbf16>) -> tensor<1x51200x2048xbf16> loc(#loc30)
        %18 = "ttir.reshape"(%17) <{shape = [51200 : i32, 2048 : i32]}> : (tensor<1x51200x2048xbf16>) -> tensor<51200x2048xbf16> loc(#loc31)
        %19 = "ttir.reshape"(%arg4) <{shape = [1 : i32, 32 : i32, 1 : i32]}> : (tensor<32x1xi64>) -> tensor<1x32x1xi64> loc(#loc32)
        %20 = "ttir.reshape"(%19) <{shape = [32 : i32]}> : (tensor<1x32x1xi64>) -> tensor<32xi64> loc(#loc33)
        %21 = "ttir.typecast"(%20) <{conservative_folding = false}> : (tensor<32xi64>) -> tensor<32xui32> loc(#loc34)
        %22 = "ttir.gather"(%18, %21) <{collapsed_slice_dims = array<i64: 0>, index_vector_dim = 1 : si64, indices_are_sorted = false, offset_dims = array<i64: 1>, operand_batching_dims = array<i64>, slice_sizes = array<i64: 1, 2048>, start_index_map = array<i64: 0>, start_indices_batching_dims = array<i64>}> : (tensor<51200x2048xbf16>, tensor<32xui32>) -> tensor<32x2048xbf16> loc(#loc35)
        %23 = "ttir.reshape"(%22) <{shape = [32 : i32, 1 : i32, 2048 : i32]}> : (tensor<32x2048xbf16>) -> tensor<32x1x2048xbf16> loc(#loc36)
        %24 = "ttir.reshape"(%arg3) <{shape = [1 : i32, 1 : i32, 2048 : i32]}> : (tensor<2048xbf16>) -> tensor<1x1x2048xbf16> loc(#loc37)
        %25 = "ttir.reshape"(%24) <{shape = [2048 : i32]}> : (tensor<1x1x2048xbf16>) -> tensor<2048xbf16> loc(#loc38)
        %26 = "ttir.reshape"(%arg2) <{shape = [1 : i32, 1 : i32, 2048 : i32]}> : (tensor<2048xbf16>) -> tensor<1x1x2048xbf16> loc(#loc39)
        %27 = "ttir.reshape"(%26) <{shape = [2048 : i32]}> : (tensor<1x1x2048xbf16>) -> tensor<2048xbf16> loc(#loc40)
        %28 = "ttir.sum"(%23) <{dim_arg = [2 : i32], keep_dim = false}> : (tensor<32x1x2048xbf16>) -> tensor<32x1xbf16> loc(#loc220)
        %29 = "ttir.multiply"(%28, %0) : (tensor<32x1xbf16>, tensor<32x1xbf16>) -> tensor<32x1xbf16> loc(#loc221)
        %30 = "ttir.reshape"(%29) <{shape = [32 : i32, 1 : i32, 1 : i32]}> : (tensor<32x1xbf16>) -> tensor<32x1x1xbf16> loc(#loc222)
        %31 = "ttir.broadcast"(%30) <{broadcast_dimensions = array<i64: 1, 1, 2048>}> : (tensor<32x1x1xbf16>) -> tensor<32x1x2048xbf16> loc(#loc222)
        %32 = "ttir.subtract"(%23, %31) : (tensor<32x1x2048xbf16>, tensor<32x1x2048xbf16>) -> tensor<32x1x2048xbf16> loc(#loc223)
        %33 = "ttir.multiply"(%32, %32) : (tensor<32x1x2048xbf16>, tensor<32x1x2048xbf16>) -> tensor<32x1x2048xbf16> loc(#loc224)
        %34 = "ttir.sum"(%33) <{dim_arg = [2 : i32], keep_dim = false}> : (tensor<32x1x2048xbf16>) -> tensor<32x1xbf16> loc(#loc225)
        %35 = "ttir.multiply"(%34, %0) : (tensor<32x1xbf16>, tensor<32x1xbf16>) -> tensor<32x1xbf16> loc(#loc226)
        %36 = "ttir.reshape"(%35) <{shape = [32 : i32, 1 : i32, 1 : i32]}> : (tensor<32x1xbf16>) -> tensor<32x1x1xbf16> loc(#loc227)
        %37 = "ttir.add"(%36, %1) : (tensor<32x1x1xbf16>, tensor<32x1x1xbf16>) -> tensor<32x1x1xbf16> loc(#loc228)
        %38 = "ttir.rsqrt"(%37) : (tensor<32x1x1xbf16>) -> tensor<32x1x1xbf16> loc(#loc229)
        %39 = "ttir.reshape"(%38) <{shape = [32 : i32, 1 : i32]}> : (tensor<32x1x1xbf16>) -> tensor<32x1xbf16> loc(#loc230)
        %40 = "ttir.reshape"(%39) <{shape = [32 : i32, 1 : i32, 1 : i32]}> : (tensor<32x1xbf16>) -> tensor<32x1x1xbf16> loc(#loc231)
        %41 = "ttir.broadcast"(%40) <{broadcast_dimensions = array<i64: 1, 1, 2048>}> : (tensor<32x1x1xbf16>) -> tensor<32x1x2048xbf16> loc(#loc231)
        %42 = "ttir.multiply"(%32, %41) : (tensor<32x1x2048xbf16>, tensor<32x1x2048xbf16>) -> tensor<32x1x2048xbf16> loc(#loc232)
        %43 = "ttir.reshape"(%25) <{shape = [1 : i32, 1 : i32, 2048 : i32]}> : (tensor<2048xbf16>) -> tensor<1x1x2048xbf16> loc(#loc233)
        %44 = "ttir.broadcast"(%43) <{broadcast_dimensions = array<i64: 32, 1, 1>}> : (tensor<1x1x2048xbf16>) -> tensor<32x1x2048xbf16> loc(#loc233)
        %45 = "ttir.multiply"(%42, %44) : (tensor<32x1x2048xbf16>, tensor<32x1x2048xbf16>) -> tensor<32x1x2048xbf16> loc(#loc234)
        %46 = "ttir.reshape"(%27) <{shape = [1 : i32, 1 : i32, 2048 : i32]}> : (tensor<2048xbf16>) -> tensor<1x1x2048xbf16> loc(#loc235)
        %47 = "ttir.broadcast"(%46) <{broadcast_dimensions = array<i64: 32, 1, 1>}> : (tensor<1x1x2048xbf16>) -> tensor<32x1x2048xbf16> loc(#loc235)
        %48 = "ttir.add"(%45, %47) : (tensor<32x1x2048xbf16>, tensor<32x1x2048xbf16>) -> tensor<32x1x2048xbf16> loc(#loc236)
        %49 = "ttir.reshape"(%48) <{shape = [32 : i32, 2048 : i32]}> : (tensor<32x1x2048xbf16>) -> tensor<32x2048xbf16> loc(#loc59)
        %50 = "ttir.reshape"(%arg1) <{shape = [1 : i32, 2048 : i32, 2048 : i32]}> : (tensor<2048x2048xbf16>) -> tensor<1x2048x2048xbf16> loc(#loc60)
        %51 = "ttir.reshape"(%50) <{shape = [2048 : i32, 2048 : i32]}> : (tensor<1x2048x2048xbf16>) -> tensor<2048x2048xbf16> loc(#loc61)
        %52 = "ttir.permute"(%51) <{permutation = array<i64: 1, 0>}> : (tensor<2048x2048xbf16>) -> tensor<2048x2048xbf16> loc(#loc62)
        %53 = "ttir.dot_general"(%49, %52) <{batch_dims_lhs = array<i64>, batch_dims_rhs = array<i64>, contract_dims_lhs = array<i64: 1>, contract_dims_rhs = array<i64: 0>}> : (tensor<32x2048xbf16>, tensor<2048x2048xbf16>) -> tensor<32x2048xbf16> loc(#loc63)
        %54 = "ttir.reshape"(%53) <{shape = [32 : i32, 1 : i32, 2048 : i32]}> : (tensor<32x2048xbf16>) -> tensor<32x1x2048xbf16> loc(#loc64)
        %55 = "ttir.reshape"(%arg0) <{shape = [1 : i32, 1 : i32, 2048 : i32]}> : (tensor<2048xbf16>) -> tensor<1x1x2048xbf16> loc(#loc65)
        %56 = "ttir.reshape"(%55) <{shape = [2048 : i32]}> : (tensor<1x1x2048xbf16>) -> tensor<2048xbf16> loc(#loc66)
        %57 = "ttir.reshape"(%56) <{shape = [1 : i32, 1 : i32, 2048 : i32]}> : (tensor<2048xbf16>) -> tensor<1x1x2048xbf16> loc(#loc67)
        %58 = "ttir.broadcast"(%57) <{broadcast_dimensions = array<i64: 32, 1, 1>}> : (tensor<1x1x2048xbf16>) -> tensor<32x1x2048xbf16> loc(#loc67)
        %59 = "ttir.add"(%54, %58) : (tensor<32x1x2048xbf16>, tensor<32x1x2048xbf16>) -> tensor<32x1x2048xbf16> loc(#loc68)
        %60 = "ttir.reshape"(%59) <{shape = [32 : i32, 32 : i32, 1 : i32, 64 : i32]}> : (tensor<32x1x2048xbf16>) -> tensor<32x32x1x64xbf16> loc(#loc69)
        %61 = "ttir.slice_static"(%60) <{begins = [0 : i32, 0 : i32, 0 : i32, 0 : i32], ends = [32 : i32, 32 : i32, 1 : i32, 32 : i32], step = [1 : i32, 1 : i32, 1 : i32, 1 : i32]}> : (tensor<32x32x1x64xbf16>) -> tensor<32x32x1x32xbf16> loc(#loc70)
        %62 = "ttir.reshape"(%arg7) <{shape = [1 : i32, 1 : i32, 16 : i32]}> : (tensor<16xbf16>) -> tensor<1x1x16xbf16> loc(#loc71)
        %63 = "ttir.reshape"(%62) <{shape = [1 : i32, 16 : i32, 1 : i32]}> : (tensor<1x1x16xbf16>) -> tensor<1x16x1xbf16> loc(#loc72)
        %64 = "ttir.typecast"(%63) <{conservative_folding = false}> : (tensor<1x16x1xbf16>) -> tensor<1x16x1xf32> loc(#loc73)
        %65 = "ttir.typecast"(%12) <{conservative_folding = false}> : (tensor<1x1x1xi64>) -> tensor<1x1x1xf32> loc(#loc74)
        %66 = "ttir.dot_general"(%64, %65) <{batch_dims_lhs = array<i64: 0>, batch_dims_rhs = array<i64: 0>, contract_dims_lhs = array<i64: 2>, contract_dims_rhs = array<i64: 1>}> : (tensor<1x16x1xf32>, tensor<1x1x1xf32>) -> tensor<1x16x1xf32> loc(#loc75)
        %67 = "ttir.reshape"(%66) <{shape = [1 : i32, 1 : i32, 16 : i32]}> : (tensor<1x16x1xf32>) -> tensor<1x1x16xf32> loc(#loc76)
        %68 = "ttir.concat"(%67, %67) <{dim = 2 : si32}> : (tensor<1x1x16xf32>, tensor<1x1x16xf32>) -> tensor<1x1x32xf32> loc(#loc77)
        %69 = "ttir.cos"(%68) : (tensor<1x1x32xf32>) -> tensor<1x1x32xf32> loc(#loc78)
        %70 = "ttir.typecast"(%69) <{conservative_folding = false}> : (tensor<1x1x32xf32>) -> tensor<1x1x32xbf16> loc(#loc79)
        %71 = "ttir.reshape"(%70) <{shape = [1 : i32, 32 : i32]}> : (tensor<1x1x32xbf16>) -> tensor<1x32xbf16> loc(#loc80)
        %72 = "ttir.reshape"(%71) <{shape = [1 : i32, 1 : i32, 1 : i32, 32 : i32]}> : (tensor<1x32xbf16>) -> tensor<1x1x1x32xbf16> loc(#loc81)
        %73 = "ttir.broadcast"(%72) <{broadcast_dimensions = array<i64: 32, 32, 1, 1>}> : (tensor<1x1x1x32xbf16>) -> tensor<32x32x1x32xbf16> loc(#loc81)
        %74 = "ttir.multiply"(%61, %73) : (tensor<32x32x1x32xbf16>, tensor<32x32x1x32xbf16>) -> tensor<32x32x1x32xbf16> loc(#loc82)
        %75 = "ttir.slice_static"(%61) <{begins = [0 : i32, 0 : i32, 0 : i32, 16 : i32], ends = [32 : i32, 32 : i32, 1 : i32, 32 : i32], step = [1 : i32, 1 : i32, 1 : i32, 1 : i32]}> : (tensor<32x32x1x32xbf16>) -> tensor<32x32x1x16xbf16> loc(#loc83)
        %76 = "ttir.neg"(%75) : (tensor<32x32x1x16xbf16>) -> tensor<32x32x1x16xbf16> loc(#loc84)
        %77 = "ttir.slice_static"(%61) <{begins = [0 : i32, 0 : i32, 0 : i32, 0 : i32], ends = [32 : i32, 32 : i32, 1 : i32, 16 : i32], step = [1 : i32, 1 : i32, 1 : i32, 1 : i32]}> : (tensor<32x32x1x32xbf16>) -> tensor<32x32x1x16xbf16> loc(#loc85)
        %78 = "ttir.concat"(%76, %77) <{dim = 3 : si32}> : (tensor<32x32x1x16xbf16>, tensor<32x32x1x16xbf16>) -> tensor<32x32x1x32xbf16> loc(#loc86)
        %79 = "ttir.sin"(%68) : (tensor<1x1x32xf32>) -> tensor<1x1x32xf32> loc(#loc87)
        %80 = "ttir.typecast"(%79) <{conservative_folding = false}> : (tensor<1x1x32xf32>) -> tensor<1x1x32xbf16> loc(#loc88)
        %81 = "ttir.reshape"(%80) <{shape = [1 : i32, 32 : i32]}> : (tensor<1x1x32xbf16>) -> tensor<1x32xbf16> loc(#loc89)
        %82 = "ttir.reshape"(%81) <{shape = [1 : i32, 1 : i32, 1 : i32, 32 : i32]}> : (tensor<1x32xbf16>) -> tensor<1x1x1x32xbf16> loc(#loc90)
        %83 = "ttir.broadcast"(%82) <{broadcast_dimensions = array<i64: 32, 32, 1, 1>}> : (tensor<1x1x1x32xbf16>) -> tensor<32x32x1x32xbf16> loc(#loc90)
        %84 = "ttir.multiply"(%78, %83) : (tensor<32x32x1x32xbf16>, tensor<32x32x1x32xbf16>) -> tensor<32x32x1x32xbf16> loc(#loc91)
        %85 = "ttir.add"(%74, %84) : (tensor<32x32x1x32xbf16>, tensor<32x32x1x32xbf16>) -> tensor<32x32x1x32xbf16> loc(#loc92)
        %86 = "ttir.slice_static"(%60) <{begins = [0 : i32, 0 : i32, 0 : i32, 32 : i32], ends = [32 : i32, 32 : i32, 1 : i32, 64 : i32], step = [1 : i32, 1 : i32, 1 : i32, 1 : i32]}> : (tensor<32x32x1x64xbf16>) -> tensor<32x32x1x32xbf16> loc(#loc93)
        %87 = "ttir.concat"(%85, %86) <{dim = 3 : si32}> : (tensor<32x32x1x32xbf16>, tensor<32x32x1x32xbf16>) -> tensor<32x32x1x64xbf16> loc(#loc94)
        %88 = "ttir.permute"(%87) <{permutation = array<i64: 2, 1, 0, 3>}> : (tensor<32x32x1x64xbf16>) -> tensor<1x32x32x64xbf16> loc(#loc95)
        %89 = "ttir.update_cache"(%arg8, %88, %arg6) <{batch_offset = 0 : i32}> : (tensor<32x32x128x64xbf16>, tensor<1x32x32x64xbf16>, tensor<1xi64>) -> tensor<32x32x128x64xbf16> loc(#loc95)
        %90 = "ttir.reshape"(%arg10) <{shape = [1 : i32, 2048 : i32, 2048 : i32]}> : (tensor<2048x2048xbf16>) -> tensor<1x2048x2048xbf16> loc(#loc96)
        %91 = "ttir.reshape"(%90) <{shape = [2048 : i32, 2048 : i32]}> : (tensor<1x2048x2048xbf16>) -> tensor<2048x2048xbf16> loc(#loc97)
        %92 = "ttir.permute"(%91) <{permutation = array<i64: 1, 0>}> : (tensor<2048x2048xbf16>) -> tensor<2048x2048xbf16> loc(#loc98)
        %93 = "ttir.dot_general"(%49, %92) <{batch_dims_lhs = array<i64>, batch_dims_rhs = array<i64>, contract_dims_lhs = array<i64: 1>, contract_dims_rhs = array<i64: 0>}> : (tensor<32x2048xbf16>, tensor<2048x2048xbf16>) -> tensor<32x2048xbf16> loc(#loc99)
        %94 = "ttir.reshape"(%93) <{shape = [32 : i32, 1 : i32, 2048 : i32]}> : (tensor<32x2048xbf16>) -> tensor<32x1x2048xbf16> loc(#loc100)
        %95 = "ttir.reshape"(%arg9) <{shape = [1 : i32, 1 : i32, 2048 : i32]}> : (tensor<2048xbf16>) -> tensor<1x1x2048xbf16> loc(#loc101)
        %96 = "ttir.reshape"(%95) <{shape = [2048 : i32]}> : (tensor<1x1x2048xbf16>) -> tensor<2048xbf16> loc(#loc102)
        %97 = "ttir.reshape"(%96) <{shape = [1 : i32, 1 : i32, 2048 : i32]}> : (tensor<2048xbf16>) -> tensor<1x1x2048xbf16> loc(#loc103)
        %98 = "ttir.broadcast"(%97) <{broadcast_dimensions = array<i64: 32, 1, 1>}> : (tensor<1x1x2048xbf16>) -> tensor<32x1x2048xbf16> loc(#loc103)
        %99 = "ttir.add"(%94, %98) : (tensor<32x1x2048xbf16>, tensor<32x1x2048xbf16>) -> tensor<32x1x2048xbf16> loc(#loc104)
        %100 = "ttir.reshape"(%99) <{shape = [32 : i32, 32 : i32, 1 : i32, 64 : i32]}> : (tensor<32x1x2048xbf16>) -> tensor<32x32x1x64xbf16> loc(#loc105)
        %101 = "ttir.permute"(%100) <{permutation = array<i64: 2, 1, 0, 3>}> : (tensor<32x32x1x64xbf16>) -> tensor<1x32x32x64xbf16> loc(#loc106)
        %102 = "ttir.update_cache"(%arg11, %101, %arg6) <{batch_offset = 0 : i32}> : (tensor<32x32x128x64xbf16>, tensor<1x32x32x64xbf16>, tensor<1xi64>) -> tensor<32x32x128x64xbf16> loc(#loc106)
        %103 = "ttir.reshape"(%arg23) <{shape = [1 : i32, 2048 : i32, 2048 : i32]}> : (tensor<2048x2048xbf16>) -> tensor<1x2048x2048xbf16> loc(#loc107)
        %104 = "ttir.reshape"(%103) <{shape = [2048 : i32, 2048 : i32]}> : (tensor<1x2048x2048xbf16>) -> tensor<2048x2048xbf16> loc(#loc108)
        %105 = "ttir.permute"(%104) <{permutation = array<i64: 1, 0>}> : (tensor<2048x2048xbf16>) -> tensor<2048x2048xbf16> loc(#loc109)
        %106 = "ttir.dot_general"(%49, %105) <{batch_dims_lhs = array<i64>, batch_dims_rhs = array<i64>, contract_dims_lhs = array<i64: 1>, contract_dims_rhs = array<i64: 0>}> : (tensor<32x2048xbf16>, tensor<2048x2048xbf16>) -> tensor<32x2048xbf16> loc(#loc110)
        %107 = "ttir.reshape"(%106) <{shape = [32 : i32, 1 : i32, 2048 : i32]}> : (tensor<32x2048xbf16>) -> tensor<32x1x2048xbf16> loc(#loc111)
        %108 = "ttir.reshape"(%arg22) <{shape = [1 : i32, 1 : i32, 2048 : i32]}> : (tensor<2048xbf16>) -> tensor<1x1x2048xbf16> loc(#loc112)
        %109 = "ttir.reshape"(%108) <{shape = [2048 : i32]}> : (tensor<1x1x2048xbf16>) -> tensor<2048xbf16> loc(#loc113)
        %110 = "ttir.reshape"(%109) <{shape = [1 : i32, 1 : i32, 2048 : i32]}> : (tensor<2048xbf16>) -> tensor<1x1x2048xbf16> loc(#loc114)
        %111 = "ttir.broadcast"(%110) <{broadcast_dimensions = array<i64: 32, 1, 1>}> : (tensor<1x1x2048xbf16>) -> tensor<32x1x2048xbf16> loc(#loc114)
        %112 = "ttir.add"(%107, %111) : (tensor<32x1x2048xbf16>, tensor<32x1x2048xbf16>) -> tensor<32x1x2048xbf16> loc(#loc115)
        %113 = "ttir.reshape"(%112) <{shape = [32 : i32, 32 : i32, 1 : i32, 64 : i32]}> : (tensor<32x1x2048xbf16>) -> tensor<32x32x1x64xbf16> loc(#loc116)
        %114 = "ttir.slice_static"(%113) <{begins = [0 : i32, 0 : i32, 0 : i32, 0 : i32], ends = [32 : i32, 32 : i32, 1 : i32, 32 : i32], step = [1 : i32, 1 : i32, 1 : i32, 1 : i32]}> : (tensor<32x32x1x64xbf16>) -> tensor<32x32x1x32xbf16> loc(#loc117)
        %115 = "ttir.multiply"(%114, %73) : (tensor<32x32x1x32xbf16>, tensor<32x32x1x32xbf16>) -> tensor<32x32x1x32xbf16> loc(#loc118)
        %116 = "ttir.slice_static"(%114) <{begins = [0 : i32, 0 : i32, 0 : i32, 16 : i32], ends = [32 : i32, 32 : i32, 1 : i32, 32 : i32], step = [1 : i32, 1 : i32, 1 : i32, 1 : i32]}> : (tensor<32x32x1x32xbf16>) -> tensor<32x32x1x16xbf16> loc(#loc119)
        %117 = "ttir.neg"(%116) : (tensor<32x32x1x16xbf16>) -> tensor<32x32x1x16xbf16> loc(#loc120)
        %118 = "ttir.slice_static"(%114) <{begins = [0 : i32, 0 : i32, 0 : i32, 0 : i32], ends = [32 : i32, 32 : i32, 1 : i32, 16 : i32], step = [1 : i32, 1 : i32, 1 : i32, 1 : i32]}> : (tensor<32x32x1x32xbf16>) -> tensor<32x32x1x16xbf16> loc(#loc121)
        %119 = "ttir.concat"(%117, %118) <{dim = 3 : si32}> : (tensor<32x32x1x16xbf16>, tensor<32x32x1x16xbf16>) -> tensor<32x32x1x32xbf16> loc(#loc122)
        %120 = "ttir.multiply"(%119, %83) : (tensor<32x32x1x32xbf16>, tensor<32x32x1x32xbf16>) -> tensor<32x32x1x32xbf16> loc(#loc123)
        %121 = "ttir.add"(%115, %120) : (tensor<32x32x1x32xbf16>, tensor<32x32x1x32xbf16>) -> tensor<32x32x1x32xbf16> loc(#loc124)
        %122 = "ttir.slice_static"(%113) <{begins = [0 : i32, 0 : i32, 0 : i32, 32 : i32], ends = [32 : i32, 32 : i32, 1 : i32, 64 : i32], step = [1 : i32, 1 : i32, 1 : i32, 1 : i32]}> : (tensor<32x32x1x64xbf16>) -> tensor<32x32x1x32xbf16> loc(#loc125)
        %123 = "ttir.concat"(%121, %122) <{dim = 3 : si32}> : (tensor<32x32x1x32xbf16>, tensor<32x32x1x32xbf16>) -> tensor<32x32x1x64xbf16> loc(#loc126)
        %124 = "ttir.permute"(%89) <{permutation = array<i64: 0, 1, 3, 2>}> : (tensor<32x32x128x64xbf16>) -> tensor<32x32x64x128xbf16> loc(#loc127)
        %125 = "ttir.dot_general"(%123, %124) <{batch_dims_lhs = array<i64: 0, 1>, batch_dims_rhs = array<i64: 0, 1>, contract_dims_lhs = array<i64: 3>, contract_dims_rhs = array<i64: 2>}> : (tensor<32x32x1x64xbf16>, tensor<32x32x64x128xbf16>) -> tensor<32x32x1x128xbf16> loc(#loc128)
        %126 = "ttir.multiply"(%125, %9) : (tensor<32x32x1x128xbf16>, tensor<32x32x1x128xbf16>) -> tensor<32x32x1x128xbf16> loc(#loc129)
        %127 = "ttir.reshape"(%13) <{shape = [1 : i32, 1 : i32]}> : (tensor<1xi64>) -> tensor<1x1xi64> loc(#loc130)
        %128 = "ttir.broadcast"(%127) <{broadcast_dimensions = array<i64: 1, 128>}> : (tensor<1x1xi64>) -> tensor<1x128xi64> loc(#loc130)
        %129 = "ttir.gt"(%2, %128) : (tensor<1x128xi64>, tensor<1x128xi64>) -> tensor<1x128xi1> loc(#loc131)
        %130 = "ttir.typecast"(%129) <{conservative_folding = false}> : (tensor<1x128xi1>) -> tensor<1x128xbf16> loc(#loc132)
        %131 = "ttir.multiply"(%130, %8) : (tensor<1x128xbf16>, tensor<1x128xbf16>) -> tensor<1x128xbf16> loc(#loc133)
        %132 = "ttir.reshape"(%131) <{shape = [1 : i32, 1 : i32, 128 : i32]}> : (tensor<1x128xbf16>) -> tensor<1x1x128xbf16> loc(#loc134)
        %133 = "ttir.reshape"(%132) <{shape = [1 : i32, 1 : i32, 1 : i32, 128 : i32]}> : (tensor<1x1x128xbf16>) -> tensor<1x1x1x128xbf16> loc(#loc135)
        %134 = "ttir.broadcast"(%133) <{broadcast_dimensions = array<i64: 32, 1, 1, 1>}> : (tensor<1x1x1x128xbf16>) -> tensor<32x1x1x128xbf16> loc(#loc135)
        %135 = "ttir.reshape"(%134) <{shape = [32 : i32, 1 : i32, 128 : i32]}> : (tensor<32x1x1x128xbf16>) -> tensor<32x1x128xbf16> loc(#loc136)
        %136 = "ttir.reshape"(%135) <{shape = [32 : i32, 1 : i32, 1 : i32, 128 : i32]}> : (tensor<32x1x128xbf16>) -> tensor<32x1x1x128xbf16> loc(#loc137)
        %137 = "ttir.broadcast"(%136) <{broadcast_dimensions = array<i64: 1, 32, 1, 1>}> : (tensor<32x1x1x128xbf16>) -> tensor<32x32x1x128xbf16> loc(#loc137)
        %138 = "ttir.add"(%126, %137) : (tensor<32x32x1x128xbf16>, tensor<32x32x1x128xbf16>) -> tensor<32x32x1x128xbf16> loc(#loc138)
        %139 = "ttir.typecast"(%138) <{conservative_folding = false}> : (tensor<32x32x1x128xbf16>) -> tensor<32x32x1x128xf32> loc(#loc139)
        %140 = "ttir.max"(%139) <{dim_arg = [3 : i32], keep_dim = false}> : (tensor<32x32x1x128xf32>) -> tensor<32x32x1xf32> loc(#loc140)
        %141 = "ttir.reshape"(%140) <{shape = [32 : i32, 32 : i32, 1 : i32, 1 : i32]}> : (tensor<32x32x1xf32>) -> tensor<32x32x1x1xf32> loc(#loc141)
        %142 = "ttir.broadcast"(%141) <{broadcast_dimensions = array<i64: 1, 1, 1, 128>}> : (tensor<32x32x1x1xf32>) -> tensor<32x32x1x128xf32> loc(#loc141)
        %143 = "ttir.subtract"(%139, %142) : (tensor<32x32x1x128xf32>, tensor<32x32x1x128xf32>) -> tensor<32x32x1x128xf32> loc(#loc142)
        %144 = "ttir.exp"(%143) : (tensor<32x32x1x128xf32>) -> tensor<32x32x1x128xf32> loc(#loc143)
        %145 = "ttir.sum"(%144) <{dim_arg = [3 : i32], keep_dim = false}> : (tensor<32x32x1x128xf32>) -> tensor<32x32x1xf32> loc(#loc144)
        %146 = "ttir.reshape"(%145) <{shape = [32 : i32, 32 : i32, 1 : i32, 1 : i32]}> : (tensor<32x32x1xf32>) -> tensor<32x32x1x1xf32> loc(#loc145)
        %147 = "ttir.broadcast"(%146) <{broadcast_dimensions = array<i64: 1, 1, 1, 128>}> : (tensor<32x32x1x1xf32>) -> tensor<32x32x1x128xf32> loc(#loc145)
        %148 = "ttir.div"(%144, %147) : (tensor<32x32x1x128xf32>, tensor<32x32x1x128xf32>) -> tensor<32x32x1x128xf32> loc(#loc146)
        %149 = "ttir.typecast"(%148) <{conservative_folding = false}> : (tensor<32x32x1x128xf32>) -> tensor<32x32x1x128xbf16> loc(#loc147)
        %150 = "ttir.dot_general"(%149, %102) <{batch_dims_lhs = array<i64: 0, 1>, batch_dims_rhs = array<i64: 0, 1>, contract_dims_lhs = array<i64: 3>, contract_dims_rhs = array<i64: 2>}> : (tensor<32x32x1x128xbf16>, tensor<32x32x128x64xbf16>) -> tensor<32x32x1x64xbf16> loc(#loc148)
        %151 = "ttir.reshape"(%150) <{shape = [32 : i32, 2048 : i32]}> : (tensor<32x32x1x64xbf16>) -> tensor<32x2048xbf16> loc(#loc149)
        %152 = "ttir.reshape"(%arg21) <{shape = [1 : i32, 2048 : i32, 2048 : i32]}> : (tensor<2048x2048xbf16>) -> tensor<1x2048x2048xbf16> loc(#loc150)
        %153 = "ttir.reshape"(%152) <{shape = [2048 : i32, 2048 : i32]}> : (tensor<1x2048x2048xbf16>) -> tensor<2048x2048xbf16> loc(#loc151)
        %154 = "ttir.permute"(%153) <{permutation = array<i64: 1, 0>}> : (tensor<2048x2048xbf16>) -> tensor<2048x2048xbf16> loc(#loc152)
        %155 = "ttir.dot_general"(%151, %154) <{batch_dims_lhs = array<i64>, batch_dims_rhs = array<i64>, contract_dims_lhs = array<i64: 1>, contract_dims_rhs = array<i64: 0>}> : (tensor<32x2048xbf16>, tensor<2048x2048xbf16>) -> tensor<32x2048xbf16> loc(#loc153)
        %156 = "ttir.reshape"(%155) <{shape = [32 : i32, 1 : i32, 2048 : i32]}> : (tensor<32x2048xbf16>) -> tensor<32x1x2048xbf16> loc(#loc154)
        %157 = "ttir.reshape"(%arg20) <{shape = [1 : i32, 1 : i32, 2048 : i32]}> : (tensor<2048xbf16>) -> tensor<1x1x2048xbf16> loc(#loc155)
        %158 = "ttir.reshape"(%157) <{shape = [2048 : i32]}> : (tensor<1x1x2048xbf16>) -> tensor<2048xbf16> loc(#loc156)
        %159 = "ttir.reshape"(%158) <{shape = [1 : i32, 1 : i32, 2048 : i32]}> : (tensor<2048xbf16>) -> tensor<1x1x2048xbf16> loc(#loc157)
        %160 = "ttir.broadcast"(%159) <{broadcast_dimensions = array<i64: 32, 1, 1>}> : (tensor<1x1x2048xbf16>) -> tensor<32x1x2048xbf16> loc(#loc157)
        %161 = "ttir.add"(%156, %160) : (tensor<32x1x2048xbf16>, tensor<32x1x2048xbf16>) -> tensor<32x1x2048xbf16> loc(#loc158)
        %162 = "ttir.reshape"(%arg19) <{shape = [1 : i32, 8192 : i32, 2048 : i32]}> : (tensor<8192x2048xbf16>) -> tensor<1x8192x2048xbf16> loc(#loc159)
        %163 = "ttir.reshape"(%162) <{shape = [8192 : i32, 2048 : i32]}> : (tensor<1x8192x2048xbf16>) -> tensor<8192x2048xbf16> loc(#loc160)
        %164 = "ttir.permute"(%163) <{permutation = array<i64: 1, 0>}> : (tensor<8192x2048xbf16>) -> tensor<2048x8192xbf16> loc(#loc161)
        %165 = "ttir.dot_general"(%49, %164) <{batch_dims_lhs = array<i64>, batch_dims_rhs = array<i64>, contract_dims_lhs = array<i64: 1>, contract_dims_rhs = array<i64: 0>}> : (tensor<32x2048xbf16>, tensor<2048x8192xbf16>) -> tensor<32x8192xbf16> loc(#loc162)
        %166 = "ttir.reshape"(%165) <{shape = [32 : i32, 1 : i32, 8192 : i32]}> : (tensor<32x8192xbf16>) -> tensor<32x1x8192xbf16> loc(#loc163)
        %167 = "ttir.reshape"(%arg18) <{shape = [1 : i32, 1 : i32, 8192 : i32]}> : (tensor<8192xbf16>) -> tensor<1x1x8192xbf16> loc(#loc164)
        %168 = "ttir.reshape"(%167) <{shape = [8192 : i32]}> : (tensor<1x1x8192xbf16>) -> tensor<8192xbf16> loc(#loc165)
        %169 = "ttir.reshape"(%168) <{shape = [1 : i32, 1 : i32, 8192 : i32]}> : (tensor<8192xbf16>) -> tensor<1x1x8192xbf16> loc(#loc166)
        %170 = "ttir.broadcast"(%169) <{broadcast_dimensions = array<i64: 32, 1, 1>}> : (tensor<1x1x8192xbf16>) -> tensor<32x1x8192xbf16> loc(#loc166)
        %171 = "ttir.add"(%166, %170) : (tensor<32x1x8192xbf16>, tensor<32x1x8192xbf16>) -> tensor<32x1x8192xbf16> loc(#loc167)
        %172 = "ttir.multiply"(%171, %7) : (tensor<32x1x8192xbf16>, tensor<32x1x8192xbf16>) -> tensor<32x1x8192xbf16> loc(#loc168)
        %173 = "ttir.pow"(%171, %6) : (tensor<32x1x8192xbf16>, tensor<32x1x8192xbf16>) -> tensor<32x1x8192xbf16> loc(#loc169)
        %174 = "ttir.multiply"(%173, %5) : (tensor<32x1x8192xbf16>, tensor<32x1x8192xbf16>) -> tensor<32x1x8192xbf16> loc(#loc170)
        %175 = "ttir.add"(%171, %174) : (tensor<32x1x8192xbf16>, tensor<32x1x8192xbf16>) -> tensor<32x1x8192xbf16> loc(#loc171)
        %176 = "ttir.multiply"(%175, %4) : (tensor<32x1x8192xbf16>, tensor<32x1x8192xbf16>) -> tensor<32x1x8192xbf16> loc(#loc172)
        %177 = "ttir.tanh"(%176) : (tensor<32x1x8192xbf16>) -> tensor<32x1x8192xbf16> loc(#loc173)
        %178 = "ttir.add"(%177, %3) : (tensor<32x1x8192xbf16>, tensor<32x1x8192xbf16>) -> tensor<32x1x8192xbf16> loc(#loc174)
        %179 = "ttir.multiply"(%172, %178) : (tensor<32x1x8192xbf16>, tensor<32x1x8192xbf16>) -> tensor<32x1x8192xbf16> loc(#loc175)
        %180 = "ttir.reshape"(%179) <{shape = [32 : i32, 8192 : i32]}> : (tensor<32x1x8192xbf16>) -> tensor<32x8192xbf16> loc(#loc176)
        %181 = "ttir.reshape"(%arg17) <{shape = [1 : i32, 2048 : i32, 8192 : i32]}> : (tensor<2048x8192xbf16>) -> tensor<1x2048x8192xbf16> loc(#loc177)
        %182 = "ttir.reshape"(%181) <{shape = [2048 : i32, 8192 : i32]}> : (tensor<1x2048x8192xbf16>) -> tensor<2048x8192xbf16> loc(#loc178)
        %183 = "ttir.permute"(%182) <{permutation = array<i64: 1, 0>}> : (tensor<2048x8192xbf16>) -> tensor<8192x2048xbf16> loc(#loc179)
        %184 = "ttir.dot_general"(%180, %183) <{batch_dims_lhs = array<i64>, batch_dims_rhs = array<i64>, contract_dims_lhs = array<i64: 1>, contract_dims_rhs = array<i64: 0>}> : (tensor<32x8192xbf16>, tensor<8192x2048xbf16>) -> tensor<32x2048xbf16> loc(#loc180)
        %185 = "ttir.reshape"(%184) <{shape = [32 : i32, 1 : i32, 2048 : i32]}> : (tensor<32x2048xbf16>) -> tensor<32x1x2048xbf16> loc(#loc181)
        %186 = "ttir.reshape"(%arg16) <{shape = [1 : i32, 1 : i32, 2048 : i32]}> : (tensor<2048xbf16>) -> tensor<1x1x2048xbf16> loc(#loc182)
        %187 = "ttir.reshape"(%186) <{shape = [2048 : i32]}> : (tensor<1x1x2048xbf16>) -> tensor<2048xbf16> loc(#loc183)
        %188 = "ttir.reshape"(%187) <{shape = [1 : i32, 1 : i32, 2048 : i32]}> : (tensor<2048xbf16>) -> tensor<1x1x2048xbf16> loc(#loc184)
        %189 = "ttir.broadcast"(%188) <{broadcast_dimensions = array<i64: 32, 1, 1>}> : (tensor<1x1x2048xbf16>) -> tensor<32x1x2048xbf16> loc(#loc184)
        %190 = "ttir.add"(%185, %189) : (tensor<32x1x2048xbf16>, tensor<32x1x2048xbf16>) -> tensor<32x1x2048xbf16> loc(#loc185)
        %191 = "ttir.add"(%161, %190) : (tensor<32x1x2048xbf16>, tensor<32x1x2048xbf16>) -> tensor<32x1x2048xbf16> loc(#loc186)
        %192 = "ttir.add"(%191, %23) : (tensor<32x1x2048xbf16>, tensor<32x1x2048xbf16>) -> tensor<32x1x2048xbf16> loc(#loc187)
        %193 = "ttir.reshape"(%arg15) <{shape = [1 : i32, 1 : i32, 2048 : i32]}> : (tensor<2048xbf16>) -> tensor<1x1x2048xbf16> loc(#loc188)
        %194 = "ttir.reshape"(%193) <{shape = [2048 : i32]}> : (tensor<1x1x2048xbf16>) -> tensor<2048xbf16> loc(#loc189)
        %195 = "ttir.reshape"(%arg14) <{shape = [1 : i32, 1 : i32, 2048 : i32]}> : (tensor<2048xbf16>) -> tensor<1x1x2048xbf16> loc(#loc190)
        %196 = "ttir.reshape"(%195) <{shape = [2048 : i32]}> : (tensor<1x1x2048xbf16>) -> tensor<2048xbf16> loc(#loc191)
        %197 = "ttir.sum"(%192) <{dim_arg = [2 : i32], keep_dim = false}> : (tensor<32x1x2048xbf16>) -> tensor<32x1xbf16> loc(#loc237)
        %198 = "ttir.multiply"(%197, %0) : (tensor<32x1xbf16>, tensor<32x1xbf16>) -> tensor<32x1xbf16> loc(#loc238)
        %199 = "ttir.reshape"(%198) <{shape = [32 : i32, 1 : i32, 1 : i32]}> : (tensor<32x1xbf16>) -> tensor<32x1x1xbf16> loc(#loc239)
        %200 = "ttir.broadcast"(%199) <{broadcast_dimensions = array<i64: 1, 1, 2048>}> : (tensor<32x1x1xbf16>) -> tensor<32x1x2048xbf16> loc(#loc239)
        %201 = "ttir.subtract"(%192, %200) : (tensor<32x1x2048xbf16>, tensor<32x1x2048xbf16>) -> tensor<32x1x2048xbf16> loc(#loc240)
        %202 = "ttir.multiply"(%201, %201) : (tensor<32x1x2048xbf16>, tensor<32x1x2048xbf16>) -> tensor<32x1x2048xbf16> loc(#loc241)
        %203 = "ttir.sum"(%202) <{dim_arg = [2 : i32], keep_dim = false}> : (tensor<32x1x2048xbf16>) -> tensor<32x1xbf16> loc(#loc242)
        %204 = "ttir.multiply"(%203, %0) : (tensor<32x1xbf16>, tensor<32x1xbf16>) -> tensor<32x1xbf16> loc(#loc243)
        %205 = "ttir.reshape"(%204) <{shape = [32 : i32, 1 : i32, 1 : i32]}> : (tensor<32x1xbf16>) -> tensor<32x1x1xbf16> loc(#loc244)
        %206 = "ttir.add"(%205, %1) : (tensor<32x1x1xbf16>, tensor<32x1x1xbf16>) -> tensor<32x1x1xbf16> loc(#loc245)
        %207 = "ttir.rsqrt"(%206) : (tensor<32x1x1xbf16>) -> tensor<32x1x1xbf16> loc(#loc246)
        %208 = "ttir.reshape"(%207) <{shape = [32 : i32, 1 : i32]}> : (tensor<32x1x1xbf16>) -> tensor<32x1xbf16> loc(#loc247)
        %209 = "ttir.reshape"(%208) <{shape = [32 : i32, 1 : i32, 1 : i32]}> : (tensor<32x1xbf16>) -> tensor<32x1x1xbf16> loc(#loc248)
        %210 = "ttir.broadcast"(%209) <{broadcast_dimensions = array<i64: 1, 1, 2048>}> : (tensor<32x1x1xbf16>) -> tensor<32x1x2048xbf16> loc(#loc248)
        %211 = "ttir.multiply"(%201, %210) : (tensor<32x1x2048xbf16>, tensor<32x1x2048xbf16>) -> tensor<32x1x2048xbf16> loc(#loc249)
        %212 = "ttir.reshape"(%194) <{shape = [1 : i32, 1 : i32, 2048 : i32]}> : (tensor<2048xbf16>) -> tensor<1x1x2048xbf16> loc(#loc250)
        %213 = "ttir.broadcast"(%212) <{broadcast_dimensions = array<i64: 32, 1, 1>}> : (tensor<1x1x2048xbf16>) -> tensor<32x1x2048xbf16> loc(#loc250)
        %214 = "ttir.multiply"(%211, %213) : (tensor<32x1x2048xbf16>, tensor<32x1x2048xbf16>) -> tensor<32x1x2048xbf16> loc(#loc251)
        %215 = "ttir.reshape"(%196) <{shape = [1 : i32, 1 : i32, 2048 : i32]}> : (tensor<2048xbf16>) -> tensor<1x1x2048xbf16> loc(#loc252)
        %216 = "ttir.broadcast"(%215) <{broadcast_dimensions = array<i64: 32, 1, 1>}> : (tensor<1x1x2048xbf16>) -> tensor<32x1x2048xbf16> loc(#loc252)
        %217 = "ttir.add"(%214, %216) : (tensor<32x1x2048xbf16>, tensor<32x1x2048xbf16>) -> tensor<32x1x2048xbf16> loc(#loc253)
        %218 = "ttir.reshape"(%217) <{shape = [32 : i32, 2048 : i32]}> : (tensor<32x1x2048xbf16>) -> tensor<32x2048xbf16> loc(#loc210)
        %219 = "ttir.reshape"(%arg13) <{shape = [1 : i32, 51200 : i32, 2048 : i32]}> : (tensor<51200x2048xbf16>) -> tensor<1x51200x2048xbf16> loc(#loc211)
        %220 = "ttir.reshape"(%219) <{shape = [51200 : i32, 2048 : i32]}> : (tensor<1x51200x2048xbf16>) -> tensor<51200x2048xbf16> loc(#loc212)
        %221 = "ttir.permute"(%220) <{permutation = array<i64: 1, 0>}> : (tensor<51200x2048xbf16>) -> tensor<2048x51200xbf16> loc(#loc213)
        %222 = "ttir.dot_general"(%218, %221) <{batch_dims_lhs = array<i64>, batch_dims_rhs = array<i64>, contract_dims_lhs = array<i64: 1>, contract_dims_rhs = array<i64: 0>}> : (tensor<32x2048xbf16>, tensor<2048x51200xbf16>) -> tensor<32x51200xbf16> loc(#loc214)
        %223 = "ttir.reshape"(%222) <{shape = [32 : i32, 1 : i32, 51200 : i32]}> : (tensor<32x51200xbf16>) -> tensor<32x1x51200xbf16> loc(#loc215)
        %224 = "ttir.reshape"(%arg12) <{shape = [1 : i32, 1 : i32, 51200 : i32]}> : (tensor<51200xbf16>) -> tensor<1x1x51200xbf16> loc(#loc216)
        %225 = "ttir.reshape"(%224) <{shape = [51200 : i32]}> : (tensor<1x1x51200xbf16>) -> tensor<51200xbf16> loc(#loc217)
        %226 = "ttir.reshape"(%225) <{shape = [1 : i32, 1 : i32, 51200 : i32]}> : (tensor<51200xbf16>) -> tensor<1x1x51200xbf16> loc(#loc218)
        %227 = "ttir.broadcast"(%226) <{broadcast_dimensions = array<i64: 32, 1, 1>}> : (tensor<1x1x51200xbf16>) -> tensor<32x1x51200xbf16> loc(#loc218)
        %228 = "ttir.add"(%223, %227) : (tensor<32x1x51200xbf16>, tensor<32x1x51200xbf16>) -> tensor<32x1x51200xbf16> loc(#loc219)
        return %89, %102, %228 : tensor<32x32x128x64xbf16>, tensor<32x32x128x64xbf16>, tensor<32x1x51200xbf16> loc(#loc)
      } loc(#loc)
    } loc(#loc)
  } loc(#loc)
} loc(#loc)
#loc = loc(unknown)
#loc25 = loc("reshape.126")
#loc26 = loc("reshape.128")
#loc27 = loc("compare.180")
#loc28 = loc("add.177")
#loc29 = loc("select.181")
#loc30 = loc("reshape.30")
#loc31 = loc("reshape.32")
#loc32 = loc("reshape.25")
#loc33 = loc("reshape.28")
#loc34 = loc("convert.33")
#loc35 = loc("gather.34")
#loc36 = loc("reshape.35")
#loc37 = loc("reshape.18")
#loc38 = loc("reshape.20")
#loc39 = loc("reshape.13")
#loc40 = loc("reshape.15")
#loc41 = loc("reduce.82")
#loc42 = loc("custom-call.112")
#loc43 = loc("multiply.91")
#loc44 = loc("broadcast.101")
#loc45 = loc("subtract.102")
#loc46 = loc("multiply.58")
#loc47 = loc("reduce.65")
#loc48 = loc("multiply.74")
#loc49 = loc("reshape.75")
#loc50 = loc("add.95")
#loc51 = loc("rsqrt.96")
#loc52 = loc("reshape.103")
#loc53 = loc("broadcast.104")
#loc54 = loc("multiply.105")
#loc55 = loc("broadcast.106")
#loc56 = loc("multiply.107")
#loc57 = loc("broadcast.110")
#loc58 = loc("add.111")
#loc59 = loc("reshape.113")
#loc60 = loc("reshape.7")
#loc61 = loc("reshape.9")
#loc62 = loc("transpose.10")
#loc63 = loc("dot.114")
#loc64 = loc("reshape.115")
#loc65 = loc("reshape.3")
#loc66 = loc("reshape.5")
#loc67 = loc("broadcast.118")
#loc68 = loc("add.119")
#loc69 = loc("transpose.121")
#loc70 = loc("slice.153")
#loc71 = loc("reshape.136")
#loc72 = loc("reshape.141")
#loc73 = loc("convert.142")
#loc74 = loc("convert.133")
#loc75 = loc("dot.145")
#loc76 = loc("transpose.146")
#loc77 = loc("concatenate.147")
#loc78 = loc("cosine.162")
#loc79 = loc("convert.165")
#loc80 = loc("reshape.167")
#loc81 = loc("broadcast.168")
#loc82 = loc("multiply.169")
#loc83 = loc("slice.155")
#loc84 = loc("negate.156")
#loc85 = loc("slice.154")
#loc86 = loc("concatenate.157")
#loc87 = loc("sine.148")
#loc88 = loc("convert.151")
#loc89 = loc("reshape.158")
#loc90 = loc("broadcast.159")
#loc91 = loc("multiply.160")
#loc92 = loc("add.172")
#loc93 = loc("slice.122")
#loc94 = loc("concatenate.173")
#loc95 = loc("scatter.190")
#loc96 = loc("reshape.198")
#loc97 = loc("reshape.200")
#loc98 = loc("transpose.201")
#loc99 = loc("dot.203")
#loc100 = loc("reshape.204")
#loc101 = loc("reshape.194")
#loc102 = loc("reshape.196")
#loc103 = loc("broadcast.207")
#loc104 = loc("add.208")
#loc105 = loc("transpose.210")
#loc106 = loc("scatter.227")
#loc107 = loc("reshape.353")
#loc108 = loc("reshape.355")
#loc109 = loc("transpose.356")
#loc110 = loc("dot.358")
#loc111 = loc("reshape.359")
#loc112 = loc("reshape.349")
#loc113 = loc("reshape.351")
#loc114 = loc("broadcast.362")
#loc115 = loc("add.363")
#loc116 = loc("transpose.365")
#loc117 = loc("slice.368")
#loc118 = loc("multiply.378")
#loc119 = loc("slice.370")
#loc120 = loc("negate.371")
#loc121 = loc("slice.369")
#loc122 = loc("concatenate.372")
#loc123 = loc("multiply.375")
#loc124 = loc("add.381")
#loc125 = loc("slice.366")
#loc126 = loc("concatenate.382")
#loc127 = loc("transpose.346")
#loc128 = loc("dot.383")
#loc129 = loc("multiply.386")
#loc130 = loc("broadcast.326")
#loc131 = loc("compare.327")
#loc132 = loc("convert.328")
#loc133 = loc("multiply.334")
#loc134 = loc("reshape.335")
#loc135 = loc("broadcast.341")
#loc136 = loc("reshape.389")
#loc137 = loc("broadcast.390")
#loc138 = loc("add.391")
#loc139 = loc("convert.392")
#loc140 = loc("reduce.398")
#loc141 = loc("broadcast.399")
#loc142 = loc("subtract.400")
#loc143 = loc("exponential.401")
#loc144 = loc("reduce.407")
#loc145 = loc("broadcast.408")
#loc146 = loc("divide.409")
#loc147 = loc("convert.410")
#loc148 = loc("dot.411")
#loc149 = loc("reshape.415")
#loc150 = loc("reshape.317")
#loc151 = loc("reshape.319")
#loc152 = loc("transpose.320")
#loc153 = loc("dot.416")
#loc154 = loc("reshape.417")
#loc155 = loc("reshape.313")
#loc156 = loc("reshape.315")
#loc157 = loc("broadcast.420")
#loc158 = loc("add.421")
#loc159 = loc("reshape.276")
#loc160 = loc("reshape.278")
#loc161 = loc("transpose.279")
#loc162 = loc("dot.281")
#loc163 = loc("reshape.282")
#loc164 = loc("reshape.272")
#loc165 = loc("reshape.274")
#loc166 = loc("broadcast.285")
#loc167 = loc("add.286")
#loc168 = loc("multiply.302")
#loc169 = loc("power.288")
#loc170 = loc("multiply.290")
#loc171 = loc("add.293")
#loc172 = loc("multiply.295")
#loc173 = loc("tanh.296")
#loc174 = loc("add.299")
#loc175 = loc("multiply.303")
#loc176 = loc("reshape.304")
#loc177 = loc("reshape.260")
#loc178 = loc("reshape.262")
#loc179 = loc("transpose.263")
#loc180 = loc("dot.305")
#loc181 = loc("reshape.306")
#loc182 = loc("reshape.256")
#loc183 = loc("reshape.258")
#loc184 = loc("broadcast.309")
#loc185 = loc("add.310")
#loc186 = loc("add.424")
#loc187 = loc("add.427")
#loc188 = loc("reshape.246")
#loc189 = loc("reshape.248")
#loc190 = loc("reshape.241")
#loc191 = loc("reshape.243")
#loc192 = loc("reduce.474")
#loc193 = loc("custom-call.504")
#loc194 = loc("multiply.483")
#loc195 = loc("broadcast.493")
#loc196 = loc("subtract.494")
#loc197 = loc("multiply.450")
#loc198 = loc("reduce.457")
#loc199 = loc("multiply.466")
#loc200 = loc("reshape.467")
#loc201 = loc("add.487")
#loc202 = loc("rsqrt.488")
#loc203 = loc("reshape.495")
#loc204 = loc("broadcast.496")
#loc205 = loc("multiply.497")
#loc206 = loc("broadcast.498")
#loc207 = loc("multiply.499")
#loc208 = loc("broadcast.502")
#loc209 = loc("add.503")
#loc210 = loc("reshape.508")
#loc211 = loc("reshape.235")
#loc212 = loc("reshape.237")
#loc213 = loc("transpose.238")
#loc214 = loc("dot.509")
#loc215 = loc("reshape.510")
#loc216 = loc("reshape.231")
#loc217 = loc("reshape.233")
#loc218 = loc("broadcast.513")
#loc219 = loc("add.514")
#loc220 = loc(callsite(#loc41 at #loc42))
#loc221 = loc(callsite(#loc43 at #loc42))
#loc222 = loc(callsite(#loc44 at #loc42))
#loc223 = loc(callsite(#loc45 at #loc42))
#loc224 = loc(callsite(#loc46 at #loc42))
#loc225 = loc(callsite(#loc47 at #loc42))
#loc226 = loc(callsite(#loc48 at #loc42))
#loc227 = loc(callsite(#loc49 at #loc42))
#loc228 = loc(callsite(#loc50 at #loc42))
#loc229 = loc(callsite(#loc51 at #loc42))
#loc230 = loc(callsite(#loc52 at #loc42))
#loc231 = loc(callsite(#loc53 at #loc42))
#loc232 = loc(callsite(#loc54 at #loc42))
#loc233 = loc(callsite(#loc55 at #loc42))
#loc234 = loc(callsite(#loc56 at #loc42))
#loc235 = loc(callsite(#loc57 at #loc42))
#loc236 = loc(callsite(#loc58 at #loc42))
#loc237 = loc(callsite(#loc192 at #loc193))
#loc238 = loc(callsite(#loc194 at #loc193))
#loc239 = loc(callsite(#loc195 at #loc193))
#loc240 = loc(callsite(#loc196 at #loc193))
#loc241 = loc(callsite(#loc197 at #loc193))
#loc242 = loc(callsite(#loc198 at #loc193))
#loc243 = loc(callsite(#loc199 at #loc193))
#loc244 = loc(callsite(#loc200 at #loc193))
#loc245 = loc(callsite(#loc201 at #loc193))
#loc246 = loc(callsite(#loc202 at #loc193))
#loc247 = loc(callsite(#loc203 at #loc193))
#loc248 = loc(callsite(#loc204 at #loc193))
#loc249 = loc(callsite(#loc205 at #loc193))
#loc250 = loc(callsite(#loc206 at #loc193))
#loc251 = loc(callsite(#loc207 at #loc193))
#loc252 = loc(callsite(#loc208 at #loc193))
#loc253 = loc(callsite(#loc209 at #loc193))
