#loc1 = loc("p0.2")
#loc2 = loc("p1.6")
#loc3 = loc("p2.14")
#loc4 = loc("p3.19")
#loc5 = loc("p4.55")
#loc6 = loc("p5.79")
#loc7 = loc("p6.98")
#loc8 = loc("p7.102")
#loc9 = loc("p8.135")
#loc10 = loc("p9.144")
#loc11 = loc("p10.149")
#loc12 = loc("p11.158")
#loc13 = loc("p12.210")
#loc14 = loc("p13.214")
#loc15 = loc("p14.308")
#loc16 = loc("p15.317")
#loc17 = loc("p16.363")
module @SyncTensorsGraph.376 attributes {mhlo.cross_program_prefetches = [], mhlo.input_output_alias = [], mhlo.is_dynamic = false, mhlo.use_auto_spmd_partitioning = false, ttcore.meshes = #ttcore.meshes<[<"mesh" = 1x1>]>} {
  ttcore.device_module {
    builtin.module @SyncTensorsGraph.376 attributes {mhlo.cross_program_prefetches = [], mhlo.input_output_alias = [], mhlo.is_dynamic = false, mhlo.use_auto_spmd_partitioning = false, ttcore.meshes = #ttcore.meshes<[<"mesh" = 1x1>]>} {
      func.func @main(%arg0: tensor<128xbf16> {ttcore.argument_type = #ttcore.argument_type<parameter>, ttcore.shard_status = #ttcore.shard_status<unsharded>, ttir.name = "l__self___model_layers__modules__0___self_attn_v_proj_bias"} loc("p0.2"), %arg1: tensor<128x896xbf16> {ttcore.argument_type = #ttcore.argument_type<parameter>, ttcore.shard_status = #ttcore.shard_status<unsharded>, ttir.name = "l__self___model_layers__modules__0___self_attn_v_proj_weight"} loc("p1.6"), %arg2: tensor<32x128xi64> {ttcore.argument_type = #ttcore.argument_type<input>, ttcore.shard_status = #ttcore.shard_status<unsharded>, ttir.name = "args_0"} loc("p2.14"), %arg3: tensor<151936x896xbf16> {ttcore.argument_type = #ttcore.argument_type<parameter>, ttcore.shard_status = #ttcore.shard_status<unsharded>, ttir.name = "l__self___model_embed_tokens_weight"} loc("p3.19"), %arg4: tensor<896xbf16> {ttcore.argument_type = #ttcore.argument_type<parameter>, ttcore.shard_status = #ttcore.shard_status<unsharded>, ttir.name = "l__self___model_layers__modules__0___input_layernorm_weight"} loc("p4.55"), %arg5: tensor<32xbf16> {ttcore.argument_type = #ttcore.argument_type<constant>, ttcore.shard_status = #ttcore.shard_status<unsharded>, ttir.name = "l__self___model_rotary_emb_inv_freq"} loc("p5.79"), %arg6: tensor<128xbf16> {ttcore.argument_type = #ttcore.argument_type<parameter>, ttcore.shard_status = #ttcore.shard_status<unsharded>, ttir.name = "l__self___model_layers__modules__0___self_attn_k_proj_bias"} loc("p6.98"), %arg7: tensor<128x896xbf16> {ttcore.argument_type = #ttcore.argument_type<parameter>, ttcore.shard_status = #ttcore.shard_status<unsharded>, ttir.name = "l__self___model_layers__modules__0___self_attn_k_proj_weight"} loc("p7.102"), %arg8: tensor<151936x896xbf16> {ttcore.argument_type = #ttcore.argument_type<parameter>, ttcore.shard_status = #ttcore.shard_status<unsharded>, ttir.name = "l__self___lm_head_weight"} loc("p8.135"), %arg9: tensor<896x4864xbf16> {ttcore.argument_type = #ttcore.argument_type<parameter>, ttcore.shard_status = #ttcore.shard_status<unsharded>, ttir.name = "l__self___model_layers__modules__0___mlp_down_proj_weight"} loc("p9.144"), %arg10: tensor<4864x896xbf16> {ttcore.argument_type = #ttcore.argument_type<parameter>, ttcore.shard_status = #ttcore.shard_status<unsharded>, ttir.name = "l__self___model_layers__modules__0___mlp_up_proj_weight"} loc("p10.149"), %arg11: tensor<896x896xbf16> {ttcore.argument_type = #ttcore.argument_type<parameter>, ttcore.shard_status = #ttcore.shard_status<unsharded>, ttir.name = "l__self___model_layers__modules__0___self_attn_o_proj_weight"} loc("p11.158"), %arg12: tensor<896xbf16> {ttcore.argument_type = #ttcore.argument_type<parameter>, ttcore.shard_status = #ttcore.shard_status<unsharded>, ttir.name = "l__self___model_layers__modules__0___self_attn_q_proj_bias"} loc("p12.210"), %arg13: tensor<896x896xbf16> {ttcore.argument_type = #ttcore.argument_type<parameter>, ttcore.shard_status = #ttcore.shard_status<unsharded>, ttir.name = "l__self___model_layers__modules__0___self_attn_q_proj_weight"} loc("p13.214"), %arg14: tensor<896xbf16> {ttcore.argument_type = #ttcore.argument_type<parameter>, ttcore.shard_status = #ttcore.shard_status<unsharded>, ttir.name = "l__self___model_layers__modules__0___post_attention_layernorm_weight"} loc("p14.308"), %arg15: tensor<4864x896xbf16> {ttcore.argument_type = #ttcore.argument_type<parameter>, ttcore.shard_status = #ttcore.shard_status<unsharded>, ttir.name = "l__self___model_layers__modules__0___mlp_gate_proj_weight"} loc("p15.317"), %arg16: tensor<896xbf16> {ttcore.argument_type = #ttcore.argument_type<parameter>, ttcore.shard_status = #ttcore.shard_status<unsharded>, ttir.name = "l__self___model_norm_weight"} loc("p16.363")) -> (tensor<32x2x128x64xbf16> {ttcore.shard_status = #ttcore.shard_status<unsharded>}, tensor<32x2x128x64xbf16> {ttcore.shard_status = #ttcore.shard_status<unsharded>}, tensor<32x128x151936xbf16> {ttcore.shard_status = #ttcore.shard_status<unsharded>}) {
        %0 = "ttir.constant"() <{value = dense<-3.389530e+38> : tensor<128x129xbf16>}> : () -> tensor<128x129xbf16> loc(#loc)
        %1 = "ttir.constant"() <{value = dense<1.250000e-01> : tensor<32x14x128x128xbf16>}> : () -> tensor<32x14x128x128xbf16> loc(#loc)
        %2 = "ttir.constant"() <{value = dense<"…"> : tensor<1x1x128xf32>}> : () -> tensor<1x1x128xf32> loc(#loc)
        %3 = "ttir.constant"() <{value = dense<9.99999997E-7> : tensor<32x128x1xf32>}> : () -> tensor<32x128x1xf32> loc(#loc)
        %4 = "ttir.constant"() <{value = dense<0.00111607148> : tensor<32x128xf32>}> : () -> tensor<32x128xf32> loc(#loc)
        %5 = "ttir.constant"() <{value = dense<2.000000e+00> : tensor<32x128x896xf32>}> : () -> tensor<32x128x896xf32> loc(#loc)
        %6 = "ttir.constant"() <{value = dense<"…"> : tensor<129xi64>}> : () -> tensor<129xi64> loc(#loc)
        %7 = "ttir.constant"() <{value = dense<"…"> : tensor<128xi64>}> : () -> tensor<128xi64> loc(#loc)
        %8 = "ttir.reshape"(%arg4) <{shape = [1 : i32, 1 : i32, 896 : i32]}> : (tensor<896xbf16>) -> tensor<1x1x896xbf16> loc(#loc18)
        %9 = "ttir.reshape"(%8) <{shape = [896 : i32]}> : (tensor<1x1x896xbf16>) -> tensor<896xbf16> loc(#loc19)
        %10 = "ttir.reshape"(%9) <{shape = [1 : i32, 1 : i32, 896 : i32]}> : (tensor<896xbf16>) -> tensor<1x1x896xbf16> loc(#loc20)
        %11 = "ttir.broadcast"(%10) <{broadcast_dimensions = array<i64: 32, 128, 1>}> : (tensor<1x1x896xbf16>) -> tensor<32x128x896xbf16> loc(#loc20)
        %12 = "ttir.reshape"(%arg3) <{shape = [1 : i32, 151936 : i32, 896 : i32]}> : (tensor<151936x896xbf16>) -> tensor<1x151936x896xbf16> loc(#loc21)
        %13 = "ttir.reshape"(%12) <{shape = [151936 : i32, 896 : i32]}> : (tensor<1x151936x896xbf16>) -> tensor<151936x896xbf16> loc(#loc22)
        %14 = "ttir.reshape"(%arg2) <{shape = [1 : i32, 32 : i32, 128 : i32]}> : (tensor<32x128xi64>) -> tensor<1x32x128xi64> loc(#loc23)
        %15 = "ttir.reshape"(%14) <{shape = [4096 : i32]}> : (tensor<1x32x128xi64>) -> tensor<4096xi64> loc(#loc24)
        %16 = "ttir.typecast"(%15) <{conservative_folding = false}> : (tensor<4096xi64>) -> tensor<4096xui32> loc(#loc25)
        %17 = "ttir.gather"(%13, %16) <{collapsed_slice_dims = array<i64: 0>, index_vector_dim = 1 : si64, indices_are_sorted = false, offset_dims = array<i64: 1>, operand_batching_dims = array<i64>, slice_sizes = array<i64: 1, 896>, start_index_map = array<i64: 0>, start_indices_batching_dims = array<i64>}> : (tensor<151936x896xbf16>, tensor<4096xui32>) -> tensor<4096x896xbf16> loc(#loc26)
        %18 = "ttir.reshape"(%17) <{shape = [32 : i32, 128 : i32, 896 : i32]}> : (tensor<4096x896xbf16>) -> tensor<32x128x896xbf16> loc(#loc27)
        %19 = "ttir.typecast"(%18) <{conservative_folding = false}> : (tensor<32x128x896xbf16>) -> tensor<32x128x896xf32> loc(#loc28)
        %20 = "ttir.pow"(%19, %5) : (tensor<32x128x896xf32>, tensor<32x128x896xf32>) -> tensor<32x128x896xf32> loc(#loc29)
        %21 = "ttir.sum"(%20) <{dim_arg = [2 : i32], keep_dim = false}> : (tensor<32x128x896xf32>) -> tensor<32x128xf32> loc(#loc30)
        %22 = "ttir.multiply"(%21, %4) : (tensor<32x128xf32>, tensor<32x128xf32>) -> tensor<32x128xf32> loc(#loc31)
        %23 = "ttir.reshape"(%22) <{shape = [32 : i32, 128 : i32, 1 : i32]}> : (tensor<32x128xf32>) -> tensor<32x128x1xf32> loc(#loc32)
        %24 = "ttir.add"(%23, %3) : (tensor<32x128x1xf32>, tensor<32x128x1xf32>) -> tensor<32x128x1xf32> loc(#loc33)
        %25 = "ttir.rsqrt"(%24) : (tensor<32x128x1xf32>) -> tensor<32x128x1xf32> loc(#loc34)
        %26 = "ttir.reshape"(%25) <{shape = [32 : i32, 128 : i32]}> : (tensor<32x128x1xf32>) -> tensor<32x128xf32> loc(#loc35)
        %27 = "ttir.reshape"(%26) <{shape = [32 : i32, 128 : i32, 1 : i32]}> : (tensor<32x128xf32>) -> tensor<32x128x1xf32> loc(#loc36)
        %28 = "ttir.broadcast"(%27) <{broadcast_dimensions = array<i64: 1, 1, 896>}> : (tensor<32x128x1xf32>) -> tensor<32x128x896xf32> loc(#loc36)
        %29 = "ttir.multiply"(%19, %28) : (tensor<32x128x896xf32>, tensor<32x128x896xf32>) -> tensor<32x128x896xf32> loc(#loc37)
        %30 = "ttir.typecast"(%29) <{conservative_folding = false}> : (tensor<32x128x896xf32>) -> tensor<32x128x896xbf16> loc(#loc38)
        %31 = "ttir.multiply"(%11, %30) : (tensor<32x128x896xbf16>, tensor<32x128x896xbf16>) -> tensor<32x128x896xbf16> loc(#loc39)
        %32 = "ttir.reshape"(%31) <{shape = [4096 : i32, 896 : i32]}> : (tensor<32x128x896xbf16>) -> tensor<4096x896xbf16> loc(#loc40)
        %33 = "ttir.reshape"(%arg1) <{shape = [1 : i32, 128 : i32, 896 : i32]}> : (tensor<128x896xbf16>) -> tensor<1x128x896xbf16> loc(#loc41)
        %34 = "ttir.reshape"(%33) <{shape = [128 : i32, 896 : i32]}> : (tensor<1x128x896xbf16>) -> tensor<128x896xbf16> loc(#loc42)
        %35 = "ttir.permute"(%34) <{permutation = array<i64: 1, 0>}> : (tensor<128x896xbf16>) -> tensor<896x128xbf16> loc(#loc43)
        %36 = "ttir.dot_general"(%32, %35) <{batch_dims_lhs = array<i64>, batch_dims_rhs = array<i64>, contract_dims_lhs = array<i64: 1>, contract_dims_rhs = array<i64: 0>}> : (tensor<4096x896xbf16>, tensor<896x128xbf16>) -> tensor<4096x128xbf16> loc(#loc44)
        %37 = "ttir.reshape"(%36) <{shape = [32 : i32, 128 : i32, 128 : i32]}> : (tensor<4096x128xbf16>) -> tensor<32x128x128xbf16> loc(#loc45)
        %38 = "ttir.reshape"(%arg0) <{shape = [1 : i32, 1 : i32, 128 : i32]}> : (tensor<128xbf16>) -> tensor<1x1x128xbf16> loc(#loc46)
        %39 = "ttir.reshape"(%38) <{shape = [128 : i32]}> : (tensor<1x1x128xbf16>) -> tensor<128xbf16> loc(#loc47)
        %40 = "ttir.reshape"(%39) <{shape = [1 : i32, 1 : i32, 128 : i32]}> : (tensor<128xbf16>) -> tensor<1x1x128xbf16> loc(#loc48)
        %41 = "ttir.broadcast"(%40) <{broadcast_dimensions = array<i64: 32, 128, 1>}> : (tensor<1x1x128xbf16>) -> tensor<32x128x128xbf16> loc(#loc48)
        %42 = "ttir.add"(%37, %41) : (tensor<32x128x128xbf16>, tensor<32x128x128xbf16>) -> tensor<32x128x128xbf16> loc(#loc49)
        %43 = "ttir.reshape"(%42) <{shape = [32 : i32, 128 : i32, 2 : i32, 64 : i32]}> : (tensor<32x128x128xbf16>) -> tensor<32x128x2x64xbf16> loc(#loc50)
        %44 = "ttir.permute"(%43) <{permutation = array<i64: 0, 2, 1, 3>}> : (tensor<32x128x2x64xbf16>) -> tensor<32x2x128x64xbf16> loc(#loc51)
        %45 = "ttir.reshape"(%arg7) <{shape = [1 : i32, 128 : i32, 896 : i32]}> : (tensor<128x896xbf16>) -> tensor<1x128x896xbf16> loc(#loc52)
        %46 = "ttir.reshape"(%45) <{shape = [128 : i32, 896 : i32]}> : (tensor<1x128x896xbf16>) -> tensor<128x896xbf16> loc(#loc53)
        %47 = "ttir.permute"(%46) <{permutation = array<i64: 1, 0>}> : (tensor<128x896xbf16>) -> tensor<896x128xbf16> loc(#loc54)
        %48 = "ttir.dot_general"(%32, %47) <{batch_dims_lhs = array<i64>, batch_dims_rhs = array<i64>, contract_dims_lhs = array<i64: 1>, contract_dims_rhs = array<i64: 0>}> : (tensor<4096x896xbf16>, tensor<896x128xbf16>) -> tensor<4096x128xbf16> loc(#loc55)
        %49 = "ttir.reshape"(%48) <{shape = [32 : i32, 128 : i32, 128 : i32]}> : (tensor<4096x128xbf16>) -> tensor<32x128x128xbf16> loc(#loc56)
        %50 = "ttir.reshape"(%arg6) <{shape = [1 : i32, 1 : i32, 128 : i32]}> : (tensor<128xbf16>) -> tensor<1x1x128xbf16> loc(#loc57)
        %51 = "ttir.reshape"(%50) <{shape = [128 : i32]}> : (tensor<1x1x128xbf16>) -> tensor<128xbf16> loc(#loc58)
        %52 = "ttir.reshape"(%51) <{shape = [1 : i32, 1 : i32, 128 : i32]}> : (tensor<128xbf16>) -> tensor<1x1x128xbf16> loc(#loc59)
        %53 = "ttir.broadcast"(%52) <{broadcast_dimensions = array<i64: 32, 128, 1>}> : (tensor<1x1x128xbf16>) -> tensor<32x128x128xbf16> loc(#loc59)
        %54 = "ttir.add"(%49, %53) : (tensor<32x128x128xbf16>, tensor<32x128x128xbf16>) -> tensor<32x128x128xbf16> loc(#loc60)
        %55 = "ttir.reshape"(%54) <{shape = [32 : i32, 128 : i32, 2 : i32, 64 : i32]}> : (tensor<32x128x128xbf16>) -> tensor<32x128x2x64xbf16> loc(#loc61)
        %56 = "ttir.permute"(%55) <{permutation = array<i64: 0, 2, 1, 3>}> : (tensor<32x128x2x64xbf16>) -> tensor<32x2x128x64xbf16> loc(#loc62)
        %57 = "ttir.reshape"(%arg5) <{shape = [1 : i32, 1 : i32, 32 : i32]}> : (tensor<32xbf16>) -> tensor<1x1x32xbf16> loc(#loc63)
        %58 = "ttir.reshape"(%57) <{shape = [1 : i32, 32 : i32, 1 : i32]}> : (tensor<1x1x32xbf16>) -> tensor<1x32x1xbf16> loc(#loc64)
        %59 = "ttir.typecast"(%58) <{conservative_folding = false}> : (tensor<1x32x1xbf16>) -> tensor<1x32x1xf32> loc(#loc65)
        %60 = "ttir.dot_general"(%59, %2) <{batch_dims_lhs = array<i64: 0>, batch_dims_rhs = array<i64: 0>, contract_dims_lhs = array<i64: 2>, contract_dims_rhs = array<i64: 1>}> : (tensor<1x32x1xf32>, tensor<1x1x128xf32>) -> tensor<1x32x128xf32> loc(#loc66)
        %61 = "ttir.permute"(%60) <{permutation = array<i64: 0, 2, 1>}> : (tensor<1x32x128xf32>) -> tensor<1x128x32xf32> loc(#loc67)
        %62 = "ttir.concat"(%61, %61) <{dim = 2 : si32}> : (tensor<1x128x32xf32>, tensor<1x128x32xf32>) -> tensor<1x128x64xf32> loc(#loc68)
        %63 = "ttir.cos"(%62) : (tensor<1x128x64xf32>) -> tensor<1x128x64xf32> loc(#loc69)
        %64 = "ttir.typecast"(%63) <{conservative_folding = false}> : (tensor<1x128x64xf32>) -> tensor<1x128x64xbf16> loc(#loc70)
        %65 = "ttir.reshape"(%64) <{shape = [128 : i32, 64 : i32]}> : (tensor<1x128x64xbf16>) -> tensor<128x64xbf16> loc(#loc71)
        %66 = "ttir.reshape"(%65) <{shape = [1 : i32, 1 : i32, 128 : i32, 64 : i32]}> : (tensor<128x64xbf16>) -> tensor<1x1x128x64xbf16> loc(#loc72)
        %67 = "ttir.broadcast"(%66) <{broadcast_dimensions = array<i64: 32, 2, 1, 1>}> : (tensor<1x1x128x64xbf16>) -> tensor<32x2x128x64xbf16> loc(#loc72)
        %68 = "ttir.multiply"(%56, %67) : (tensor<32x2x128x64xbf16>, tensor<32x2x128x64xbf16>) -> tensor<32x2x128x64xbf16> loc(#loc73)
        %69 = "ttir.slice_static"(%56) <{begins = [0 : i32, 0 : i32, 0 : i32, 32 : i32], ends = [32 : i32, 2 : i32, 128 : i32, 64 : i32], step = [1 : i32, 1 : i32, 1 : i32, 1 : i32]}> : (tensor<32x2x128x64xbf16>) -> tensor<32x2x128x32xbf16> loc(#loc74)
        %70 = "ttir.neg"(%69) : (tensor<32x2x128x32xbf16>) -> tensor<32x2x128x32xbf16> loc(#loc75)
        %71 = "ttir.slice_static"(%56) <{begins = [0 : i32, 0 : i32, 0 : i32, 0 : i32], ends = [32 : i32, 2 : i32, 128 : i32, 32 : i32], step = [1 : i32, 1 : i32, 1 : i32, 1 : i32]}> : (tensor<32x2x128x64xbf16>) -> tensor<32x2x128x32xbf16> loc(#loc76)
        %72 = "ttir.concat"(%70, %71) <{dim = 3 : si32}> : (tensor<32x2x128x32xbf16>, tensor<32x2x128x32xbf16>) -> tensor<32x2x128x64xbf16> loc(#loc77)
        %73 = "ttir.sin"(%62) : (tensor<1x128x64xf32>) -> tensor<1x128x64xf32> loc(#loc78)
        %74 = "ttir.typecast"(%73) <{conservative_folding = false}> : (tensor<1x128x64xf32>) -> tensor<1x128x64xbf16> loc(#loc79)
        %75 = "ttir.reshape"(%74) <{shape = [128 : i32, 64 : i32]}> : (tensor<1x128x64xbf16>) -> tensor<128x64xbf16> loc(#loc80)
        %76 = "ttir.reshape"(%75) <{shape = [1 : i32, 1 : i32, 128 : i32, 64 : i32]}> : (tensor<128x64xbf16>) -> tensor<1x1x128x64xbf16> loc(#loc81)
        %77 = "ttir.broadcast"(%76) <{broadcast_dimensions = array<i64: 32, 2, 1, 1>}> : (tensor<1x1x128x64xbf16>) -> tensor<32x2x128x64xbf16> loc(#loc81)
        %78 = "ttir.multiply"(%72, %77) : (tensor<32x2x128x64xbf16>, tensor<32x2x128x64xbf16>) -> tensor<32x2x128x64xbf16> loc(#loc82)
        %79 = "ttir.add"(%68, %78) : (tensor<32x2x128x64xbf16>, tensor<32x2x128x64xbf16>) -> tensor<32x2x128x64xbf16> loc(#loc83)
        %80 = "ttir.reshape"(%arg16) <{shape = [1 : i32, 1 : i32, 896 : i32]}> : (tensor<896xbf16>) -> tensor<1x1x896xbf16> loc(#loc84)
        %81 = "ttir.reshape"(%80) <{shape = [896 : i32]}> : (tensor<1x1x896xbf16>) -> tensor<896xbf16> loc(#loc85)
        %82 = "ttir.reshape"(%81) <{shape = [1 : i32, 1 : i32, 896 : i32]}> : (tensor<896xbf16>) -> tensor<1x1x896xbf16> loc(#loc86)
        %83 = "ttir.broadcast"(%82) <{broadcast_dimensions = array<i64: 32, 128, 1>}> : (tensor<1x1x896xbf16>) -> tensor<32x128x896xbf16> loc(#loc86)
        %84 = "ttir.reshape"(%arg13) <{shape = [1 : i32, 896 : i32, 896 : i32]}> : (tensor<896x896xbf16>) -> tensor<1x896x896xbf16> loc(#loc87)
        %85 = "ttir.reshape"(%84) <{shape = [896 : i32, 896 : i32]}> : (tensor<1x896x896xbf16>) -> tensor<896x896xbf16> loc(#loc88)
        %86 = "ttir.permute"(%85) <{permutation = array<i64: 1, 0>}> : (tensor<896x896xbf16>) -> tensor<896x896xbf16> loc(#loc89)
        %87 = "ttir.dot_general"(%32, %86) <{batch_dims_lhs = array<i64>, batch_dims_rhs = array<i64>, contract_dims_lhs = array<i64: 1>, contract_dims_rhs = array<i64: 0>}> : (tensor<4096x896xbf16>, tensor<896x896xbf16>) -> tensor<4096x896xbf16> loc(#loc90)
        %88 = "ttir.reshape"(%87) <{shape = [32 : i32, 128 : i32, 896 : i32]}> : (tensor<4096x896xbf16>) -> tensor<32x128x896xbf16> loc(#loc91)
        %89 = "ttir.reshape"(%arg12) <{shape = [1 : i32, 1 : i32, 896 : i32]}> : (tensor<896xbf16>) -> tensor<1x1x896xbf16> loc(#loc92)
        %90 = "ttir.reshape"(%89) <{shape = [896 : i32]}> : (tensor<1x1x896xbf16>) -> tensor<896xbf16> loc(#loc93)
        %91 = "ttir.reshape"(%90) <{shape = [1 : i32, 1 : i32, 896 : i32]}> : (tensor<896xbf16>) -> tensor<1x1x896xbf16> loc(#loc94)
        %92 = "ttir.broadcast"(%91) <{broadcast_dimensions = array<i64: 32, 128, 1>}> : (tensor<1x1x896xbf16>) -> tensor<32x128x896xbf16> loc(#loc94)
        %93 = "ttir.add"(%88, %92) : (tensor<32x128x896xbf16>, tensor<32x128x896xbf16>) -> tensor<32x128x896xbf16> loc(#loc95)
        %94 = "ttir.reshape"(%93) <{shape = [32 : i32, 128 : i32, 14 : i32, 64 : i32]}> : (tensor<32x128x896xbf16>) -> tensor<32x128x14x64xbf16> loc(#loc96)
        %95 = "ttir.permute"(%94) <{permutation = array<i64: 0, 2, 1, 3>}> : (tensor<32x128x14x64xbf16>) -> tensor<32x14x128x64xbf16> loc(#loc97)
        %96 = "ttir.broadcast"(%66) <{broadcast_dimensions = array<i64: 32, 14, 1, 1>}> : (tensor<1x1x128x64xbf16>) -> tensor<32x14x128x64xbf16> loc(#loc98)
        %97 = "ttir.multiply"(%95, %96) : (tensor<32x14x128x64xbf16>, tensor<32x14x128x64xbf16>) -> tensor<32x14x128x64xbf16> loc(#loc99)
        %98 = "ttir.slice_static"(%95) <{begins = [0 : i32, 0 : i32, 0 : i32, 32 : i32], ends = [32 : i32, 14 : i32, 128 : i32, 64 : i32], step = [1 : i32, 1 : i32, 1 : i32, 1 : i32]}> : (tensor<32x14x128x64xbf16>) -> tensor<32x14x128x32xbf16> loc(#loc100)
        %99 = "ttir.neg"(%98) : (tensor<32x14x128x32xbf16>) -> tensor<32x14x128x32xbf16> loc(#loc101)
        %100 = "ttir.slice_static"(%95) <{begins = [0 : i32, 0 : i32, 0 : i32, 0 : i32], ends = [32 : i32, 14 : i32, 128 : i32, 32 : i32], step = [1 : i32, 1 : i32, 1 : i32, 1 : i32]}> : (tensor<32x14x128x64xbf16>) -> tensor<32x14x128x32xbf16> loc(#loc102)
        %101 = "ttir.concat"(%99, %100) <{dim = 3 : si32}> : (tensor<32x14x128x32xbf16>, tensor<32x14x128x32xbf16>) -> tensor<32x14x128x64xbf16> loc(#loc103)
        %102 = "ttir.broadcast"(%76) <{broadcast_dimensions = array<i64: 32, 14, 1, 1>}> : (tensor<1x1x128x64xbf16>) -> tensor<32x14x128x64xbf16> loc(#loc104)
        %103 = "ttir.multiply"(%101, %102) : (tensor<32x14x128x64xbf16>, tensor<32x14x128x64xbf16>) -> tensor<32x14x128x64xbf16> loc(#loc105)
        %104 = "ttir.add"(%97, %103) : (tensor<32x14x128x64xbf16>, tensor<32x14x128x64xbf16>) -> tensor<32x14x128x64xbf16> loc(#loc106)
        %105 = "ttir.reshape"(%79) <{shape = [32 : i32, 2 : i32, 1 : i32, 128 : i32, 64 : i32]}> : (tensor<32x2x128x64xbf16>) -> tensor<32x2x1x128x64xbf16> loc(#loc107)
        %106 = "ttir.broadcast"(%105) <{broadcast_dimensions = array<i64: 1, 1, 7, 1, 1>}> : (tensor<32x2x1x128x64xbf16>) -> tensor<32x2x7x128x64xbf16> loc(#loc107)
        %107 = "ttir.reshape"(%106) <{shape = [32 : i32, 14 : i32, 128 : i32, 64 : i32]}> : (tensor<32x2x7x128x64xbf16>) -> tensor<32x14x128x64xbf16> loc(#loc108)
        %108 = "ttir.permute"(%107) <{permutation = array<i64: 0, 1, 3, 2>}> : (tensor<32x14x128x64xbf16>) -> tensor<32x14x64x128xbf16> loc(#loc109)
        %109 = "ttir.dot_general"(%104, %108) <{batch_dims_lhs = array<i64: 0, 1>, batch_dims_rhs = array<i64: 0, 1>, contract_dims_lhs = array<i64: 3>, contract_dims_rhs = array<i64: 2>}> : (tensor<32x14x128x64xbf16>, tensor<32x14x64x128xbf16>) -> tensor<32x14x128x128xbf16> loc(#loc110)
        %110 = "ttir.multiply"(%109, %1) : (tensor<32x14x128x128xbf16>, tensor<32x14x128x128xbf16>) -> tensor<32x14x128x128xbf16> loc(#loc111)
        %111 = "ttir.reshape"(%6) <{shape = [1 : i32, 129 : i32]}> : (tensor<129xi64>) -> tensor<1x129xi64> loc(#loc112)
        %112 = "ttir.broadcast"(%111) <{broadcast_dimensions = array<i64: 128, 1>}> : (tensor<1x129xi64>) -> tensor<128x129xi64> loc(#loc112)
        %113 = "ttir.reshape"(%7) <{shape = [128 : i32, 1 : i32]}> : (tensor<128xi64>) -> tensor<128x1xi64> loc(#loc113)
        %114 = "ttir.broadcast"(%113) <{broadcast_dimensions = array<i64: 1, 129>}> : (tensor<128x1xi64>) -> tensor<128x129xi64> loc(#loc113)
        %115 = "ttir.gt"(%112, %114) : (tensor<128x129xi64>, tensor<128x129xi64>) -> tensor<128x129xi1> loc(#loc114)
        %116 = "ttir.typecast"(%115) <{conservative_folding = false}> : (tensor<128x129xi1>) -> tensor<128x129xbf16> loc(#loc115)
        %117 = "ttir.multiply"(%116, %0) : (tensor<128x129xbf16>, tensor<128x129xbf16>) -> tensor<128x129xbf16> loc(#loc116)
        %118 = "ttir.reshape"(%117) <{shape = [1 : i32, 128 : i32, 129 : i32]}> : (tensor<128x129xbf16>) -> tensor<1x128x129xbf16> loc(#loc117)
        %119 = "ttir.reshape"(%118) <{shape = [1 : i32, 1 : i32, 128 : i32, 129 : i32]}> : (tensor<1x128x129xbf16>) -> tensor<1x1x128x129xbf16> loc(#loc118)
        %120 = "ttir.broadcast"(%119) <{broadcast_dimensions = array<i64: 32, 1, 1, 1>}> : (tensor<1x1x128x129xbf16>) -> tensor<32x1x128x129xbf16> loc(#loc118)
        %121 = "ttir.slice_static"(%120) <{begins = [0 : i32, 0 : i32, 0 : i32, 0 : i32], ends = [32 : i32, 1 : i32, 128 : i32, 128 : i32], step = [1 : i32, 1 : i32, 1 : i32, 1 : i32]}> : (tensor<32x1x128x129xbf16>) -> tensor<32x1x128x128xbf16> loc(#loc119)
        %122 = "ttir.reshape"(%121) <{shape = [32 : i32, 128 : i32, 128 : i32]}> : (tensor<32x1x128x128xbf16>) -> tensor<32x128x128xbf16> loc(#loc120)
        %123 = "ttir.reshape"(%122) <{shape = [32 : i32, 1 : i32, 128 : i32, 128 : i32]}> : (tensor<32x128x128xbf16>) -> tensor<32x1x128x128xbf16> loc(#loc121)
        %124 = "ttir.broadcast"(%123) <{broadcast_dimensions = array<i64: 1, 14, 1, 1>}> : (tensor<32x1x128x128xbf16>) -> tensor<32x14x128x128xbf16> loc(#loc121)
        %125 = "ttir.add"(%110, %124) : (tensor<32x14x128x128xbf16>, tensor<32x14x128x128xbf16>) -> tensor<32x14x128x128xbf16> loc(#loc122)
        %126 = "ttir.typecast"(%125) <{conservative_folding = false}> : (tensor<32x14x128x128xbf16>) -> tensor<32x14x128x128xf32> loc(#loc123)
        %127 = "ttir.max"(%126) <{dim_arg = [3 : i32], keep_dim = false}> : (tensor<32x14x128x128xf32>) -> tensor<32x14x128xf32> loc(#loc124)
        %128 = "ttir.reshape"(%127) <{shape = [32 : i32, 14 : i32, 128 : i32, 1 : i32]}> : (tensor<32x14x128xf32>) -> tensor<32x14x128x1xf32> loc(#loc125)
        %129 = "ttir.broadcast"(%128) <{broadcast_dimensions = array<i64: 1, 1, 1, 128>}> : (tensor<32x14x128x1xf32>) -> tensor<32x14x128x128xf32> loc(#loc125)
        %130 = "ttir.subtract"(%126, %129) : (tensor<32x14x128x128xf32>, tensor<32x14x128x128xf32>) -> tensor<32x14x128x128xf32> loc(#loc126)
        %131 = "ttir.exp"(%130) : (tensor<32x14x128x128xf32>) -> tensor<32x14x128x128xf32> loc(#loc127)
        %132 = "ttir.sum"(%131) <{dim_arg = [3 : i32], keep_dim = false}> : (tensor<32x14x128x128xf32>) -> tensor<32x14x128xf32> loc(#loc128)
        %133 = "ttir.reshape"(%132) <{shape = [32 : i32, 14 : i32, 128 : i32, 1 : i32]}> : (tensor<32x14x128xf32>) -> tensor<32x14x128x1xf32> loc(#loc129)
        %134 = "ttir.broadcast"(%133) <{broadcast_dimensions = array<i64: 1, 1, 1, 128>}> : (tensor<32x14x128x1xf32>) -> tensor<32x14x128x128xf32> loc(#loc129)
        %135 = "ttir.div"(%131, %134) : (tensor<32x14x128x128xf32>, tensor<32x14x128x128xf32>) -> tensor<32x14x128x128xf32> loc(#loc130)
        %136 = "ttir.typecast"(%135) <{conservative_folding = false}> : (tensor<32x14x128x128xf32>) -> tensor<32x14x128x128xbf16> loc(#loc131)
        %137 = "ttir.reshape"(%44) <{shape = [32 : i32, 2 : i32, 1 : i32, 128 : i32, 64 : i32]}> : (tensor<32x2x128x64xbf16>) -> tensor<32x2x1x128x64xbf16> loc(#loc132)
        %138 = "ttir.broadcast"(%137) <{broadcast_dimensions = array<i64: 1, 1, 7, 1, 1>}> : (tensor<32x2x1x128x64xbf16>) -> tensor<32x2x7x128x64xbf16> loc(#loc132)
        %139 = "ttir.reshape"(%138) <{shape = [32 : i32, 14 : i32, 128 : i32, 64 : i32]}> : (tensor<32x2x7x128x64xbf16>) -> tensor<32x14x128x64xbf16> loc(#loc133)
        %140 = "ttir.dot_general"(%136, %139) <{batch_dims_lhs = array<i64: 0, 1>, batch_dims_rhs = array<i64: 0, 1>, contract_dims_lhs = array<i64: 3>, contract_dims_rhs = array<i64: 2>}> : (tensor<32x14x128x128xbf16>, tensor<32x14x128x64xbf16>) -> tensor<32x14x128x64xbf16> loc(#loc134)
        %141 = "ttir.permute"(%140) <{permutation = array<i64: 0, 2, 1, 3>}> : (tensor<32x14x128x64xbf16>) -> tensor<32x128x14x64xbf16> loc(#loc135)
        %142 = "ttir.reshape"(%141) <{shape = [4096 : i32, 896 : i32]}> : (tensor<32x128x14x64xbf16>) -> tensor<4096x896xbf16> loc(#loc136)
        %143 = "ttir.reshape"(%arg11) <{shape = [1 : i32, 896 : i32, 896 : i32]}> : (tensor<896x896xbf16>) -> tensor<1x896x896xbf16> loc(#loc137)
        %144 = "ttir.reshape"(%143) <{shape = [896 : i32, 896 : i32]}> : (tensor<1x896x896xbf16>) -> tensor<896x896xbf16> loc(#loc138)
        %145 = "ttir.permute"(%144) <{permutation = array<i64: 1, 0>}> : (tensor<896x896xbf16>) -> tensor<896x896xbf16> loc(#loc139)
        %146 = "ttir.dot_general"(%142, %145) <{batch_dims_lhs = array<i64>, batch_dims_rhs = array<i64>, contract_dims_lhs = array<i64: 1>, contract_dims_rhs = array<i64: 0>}> : (tensor<4096x896xbf16>, tensor<896x896xbf16>) -> tensor<4096x896xbf16> loc(#loc140)
        %147 = "ttir.reshape"(%146) <{shape = [32 : i32, 128 : i32, 896 : i32]}> : (tensor<4096x896xbf16>) -> tensor<32x128x896xbf16> loc(#loc141)
        %148 = "ttir.add"(%18, %147) : (tensor<32x128x896xbf16>, tensor<32x128x896xbf16>) -> tensor<32x128x896xbf16> loc(#loc142)
        %149 = "ttir.reshape"(%arg14) <{shape = [1 : i32, 1 : i32, 896 : i32]}> : (tensor<896xbf16>) -> tensor<1x1x896xbf16> loc(#loc143)
        %150 = "ttir.reshape"(%149) <{shape = [896 : i32]}> : (tensor<1x1x896xbf16>) -> tensor<896xbf16> loc(#loc144)
        %151 = "ttir.reshape"(%150) <{shape = [1 : i32, 1 : i32, 896 : i32]}> : (tensor<896xbf16>) -> tensor<1x1x896xbf16> loc(#loc145)
        %152 = "ttir.broadcast"(%151) <{broadcast_dimensions = array<i64: 32, 128, 1>}> : (tensor<1x1x896xbf16>) -> tensor<32x128x896xbf16> loc(#loc145)
        %153 = "ttir.typecast"(%148) <{conservative_folding = false}> : (tensor<32x128x896xbf16>) -> tensor<32x128x896xf32> loc(#loc146)
        %154 = "ttir.pow"(%153, %5) : (tensor<32x128x896xf32>, tensor<32x128x896xf32>) -> tensor<32x128x896xf32> loc(#loc147)
        %155 = "ttir.sum"(%154) <{dim_arg = [2 : i32], keep_dim = false}> : (tensor<32x128x896xf32>) -> tensor<32x128xf32> loc(#loc148)
        %156 = "ttir.multiply"(%155, %4) : (tensor<32x128xf32>, tensor<32x128xf32>) -> tensor<32x128xf32> loc(#loc149)
        %157 = "ttir.reshape"(%156) <{shape = [32 : i32, 128 : i32, 1 : i32]}> : (tensor<32x128xf32>) -> tensor<32x128x1xf32> loc(#loc150)
        %158 = "ttir.add"(%157, %3) : (tensor<32x128x1xf32>, tensor<32x128x1xf32>) -> tensor<32x128x1xf32> loc(#loc151)
        %159 = "ttir.rsqrt"(%158) : (tensor<32x128x1xf32>) -> tensor<32x128x1xf32> loc(#loc152)
        %160 = "ttir.reshape"(%159) <{shape = [32 : i32, 128 : i32]}> : (tensor<32x128x1xf32>) -> tensor<32x128xf32> loc(#loc153)
        %161 = "ttir.reshape"(%160) <{shape = [32 : i32, 128 : i32, 1 : i32]}> : (tensor<32x128xf32>) -> tensor<32x128x1xf32> loc(#loc154)
        %162 = "ttir.broadcast"(%161) <{broadcast_dimensions = array<i64: 1, 1, 896>}> : (tensor<32x128x1xf32>) -> tensor<32x128x896xf32> loc(#loc154)
        %163 = "ttir.multiply"(%153, %162) : (tensor<32x128x896xf32>, tensor<32x128x896xf32>) -> tensor<32x128x896xf32> loc(#loc155)
        %164 = "ttir.typecast"(%163) <{conservative_folding = false}> : (tensor<32x128x896xf32>) -> tensor<32x128x896xbf16> loc(#loc156)
        %165 = "ttir.multiply"(%152, %164) : (tensor<32x128x896xbf16>, tensor<32x128x896xbf16>) -> tensor<32x128x896xbf16> loc(#loc157)
        %166 = "ttir.reshape"(%165) <{shape = [4096 : i32, 896 : i32]}> : (tensor<32x128x896xbf16>) -> tensor<4096x896xbf16> loc(#loc158)
        %167 = "ttir.reshape"(%arg15) <{shape = [1 : i32, 4864 : i32, 896 : i32]}> : (tensor<4864x896xbf16>) -> tensor<1x4864x896xbf16> loc(#loc159)
        %168 = "ttir.reshape"(%167) <{shape = [4864 : i32, 896 : i32]}> : (tensor<1x4864x896xbf16>) -> tensor<4864x896xbf16> loc(#loc160)
        %169 = "ttir.permute"(%168) <{permutation = array<i64: 1, 0>}> : (tensor<4864x896xbf16>) -> tensor<896x4864xbf16> loc(#loc161)
        %170 = "ttir.dot_general"(%166, %169) <{batch_dims_lhs = array<i64>, batch_dims_rhs = array<i64>, contract_dims_lhs = array<i64: 1>, contract_dims_rhs = array<i64: 0>}> : (tensor<4096x896xbf16>, tensor<896x4864xbf16>) -> tensor<4096x4864xbf16> loc(#loc162)
        %171 = "ttir.reshape"(%170) <{shape = [32 : i32, 128 : i32, 4864 : i32]}> : (tensor<4096x4864xbf16>) -> tensor<32x128x4864xbf16> loc(#loc163)
        %172 = "ttir.sigmoid"(%171) : (tensor<32x128x4864xbf16>) -> tensor<32x128x4864xbf16> loc(#loc164)
        %173 = "ttir.multiply"(%171, %172) : (tensor<32x128x4864xbf16>, tensor<32x128x4864xbf16>) -> tensor<32x128x4864xbf16> loc(#loc165)
        %174 = "ttir.reshape"(%arg10) <{shape = [1 : i32, 4864 : i32, 896 : i32]}> : (tensor<4864x896xbf16>) -> tensor<1x4864x896xbf16> loc(#loc166)
        %175 = "ttir.reshape"(%174) <{shape = [4864 : i32, 896 : i32]}> : (tensor<1x4864x896xbf16>) -> tensor<4864x896xbf16> loc(#loc167)
        %176 = "ttir.permute"(%175) <{permutation = array<i64: 1, 0>}> : (tensor<4864x896xbf16>) -> tensor<896x4864xbf16> loc(#loc168)
        %177 = "ttir.dot_general"(%166, %176) <{batch_dims_lhs = array<i64>, batch_dims_rhs = array<i64>, contract_dims_lhs = array<i64: 1>, contract_dims_rhs = array<i64: 0>}> : (tensor<4096x896xbf16>, tensor<896x4864xbf16>) -> tensor<4096x4864xbf16> loc(#loc169)
        %178 = "ttir.reshape"(%177) <{shape = [32 : i32, 128 : i32, 4864 : i32]}> : (tensor<4096x4864xbf16>) -> tensor<32x128x4864xbf16> loc(#loc170)
        %179 = "ttir.multiply"(%173, %178) : (tensor<32x128x4864xbf16>, tensor<32x128x4864xbf16>) -> tensor<32x128x4864xbf16> loc(#loc171)
        %180 = "ttir.reshape"(%179) <{shape = [4096 : i32, 4864 : i32]}> : (tensor<32x128x4864xbf16>) -> tensor<4096x4864xbf16> loc(#loc172)
        %181 = "ttir.reshape"(%arg9) <{shape = [1 : i32, 896 : i32, 4864 : i32]}> : (tensor<896x4864xbf16>) -> tensor<1x896x4864xbf16> loc(#loc173)
        %182 = "ttir.reshape"(%181) <{shape = [896 : i32, 4864 : i32]}> : (tensor<1x896x4864xbf16>) -> tensor<896x4864xbf16> loc(#loc174)
        %183 = "ttir.permute"(%182) <{permutation = array<i64: 1, 0>}> : (tensor<896x4864xbf16>) -> tensor<4864x896xbf16> loc(#loc175)
        %184 = "ttir.dot_general"(%180, %183) <{batch_dims_lhs = array<i64>, batch_dims_rhs = array<i64>, contract_dims_lhs = array<i64: 1>, contract_dims_rhs = array<i64: 0>}> : (tensor<4096x4864xbf16>, tensor<4864x896xbf16>) -> tensor<4096x896xbf16> loc(#loc176)
        %185 = "ttir.reshape"(%184) <{shape = [32 : i32, 128 : i32, 896 : i32]}> : (tensor<4096x896xbf16>) -> tensor<32x128x896xbf16> loc(#loc177)
        %186 = "ttir.add"(%148, %185) : (tensor<32x128x896xbf16>, tensor<32x128x896xbf16>) -> tensor<32x128x896xbf16> loc(#loc178)
        %187 = "ttir.typecast"(%186) <{conservative_folding = false}> : (tensor<32x128x896xbf16>) -> tensor<32x128x896xf32> loc(#loc179)
        %188 = "ttir.pow"(%187, %5) : (tensor<32x128x896xf32>, tensor<32x128x896xf32>) -> tensor<32x128x896xf32> loc(#loc180)
        %189 = "ttir.sum"(%188) <{dim_arg = [2 : i32], keep_dim = false}> : (tensor<32x128x896xf32>) -> tensor<32x128xf32> loc(#loc181)
        %190 = "ttir.multiply"(%189, %4) : (tensor<32x128xf32>, tensor<32x128xf32>) -> tensor<32x128xf32> loc(#loc182)
        %191 = "ttir.reshape"(%190) <{shape = [32 : i32, 128 : i32, 1 : i32]}> : (tensor<32x128xf32>) -> tensor<32x128x1xf32> loc(#loc183)
        %192 = "ttir.add"(%191, %3) : (tensor<32x128x1xf32>, tensor<32x128x1xf32>) -> tensor<32x128x1xf32> loc(#loc184)
        %193 = "ttir.rsqrt"(%192) : (tensor<32x128x1xf32>) -> tensor<32x128x1xf32> loc(#loc185)
        %194 = "ttir.reshape"(%193) <{shape = [32 : i32, 128 : i32]}> : (tensor<32x128x1xf32>) -> tensor<32x128xf32> loc(#loc186)
        %195 = "ttir.reshape"(%194) <{shape = [32 : i32, 128 : i32, 1 : i32]}> : (tensor<32x128xf32>) -> tensor<32x128x1xf32> loc(#loc187)
        %196 = "ttir.broadcast"(%195) <{broadcast_dimensions = array<i64: 1, 1, 896>}> : (tensor<32x128x1xf32>) -> tensor<32x128x896xf32> loc(#loc187)
        %197 = "ttir.multiply"(%187, %196) : (tensor<32x128x896xf32>, tensor<32x128x896xf32>) -> tensor<32x128x896xf32> loc(#loc188)
        %198 = "ttir.typecast"(%197) <{conservative_folding = false}> : (tensor<32x128x896xf32>) -> tensor<32x128x896xbf16> loc(#loc189)
        %199 = "ttir.multiply"(%83, %198) : (tensor<32x128x896xbf16>, tensor<32x128x896xbf16>) -> tensor<32x128x896xbf16> loc(#loc190)
        %200 = "ttir.reshape"(%199) <{shape = [4096 : i32, 896 : i32]}> : (tensor<32x128x896xbf16>) -> tensor<4096x896xbf16> loc(#loc191)
        %201 = "ttir.reshape"(%arg8) <{shape = [1 : i32, 151936 : i32, 896 : i32]}> : (tensor<151936x896xbf16>) -> tensor<1x151936x896xbf16> loc(#loc192)
        %202 = "ttir.reshape"(%201) <{shape = [151936 : i32, 896 : i32]}> : (tensor<1x151936x896xbf16>) -> tensor<151936x896xbf16> loc(#loc193)
        %203 = "ttir.permute"(%202) <{permutation = array<i64: 1, 0>}> : (tensor<151936x896xbf16>) -> tensor<896x151936xbf16> loc(#loc194)
        %204 = "ttir.dot_general"(%200, %203) <{batch_dims_lhs = array<i64>, batch_dims_rhs = array<i64>, contract_dims_lhs = array<i64: 1>, contract_dims_rhs = array<i64: 0>}> : (tensor<4096x896xbf16>, tensor<896x151936xbf16>) -> tensor<4096x151936xbf16> loc(#loc195)
        %205 = "ttir.reshape"(%204) <{shape = [32 : i32, 128 : i32, 151936 : i32]}> : (tensor<4096x151936xbf16>) -> tensor<32x128x151936xbf16> loc(#loc196)
        return %44, %79, %205 : tensor<32x2x128x64xbf16>, tensor<32x2x128x64xbf16>, tensor<32x128x151936xbf16> loc(#loc)
      } loc(#loc)
    } loc(#loc)
  } loc(#loc)
} loc(#loc)
#loc = loc(unknown)
#loc18 = loc("reshape.56")
#loc19 = loc("reshape.58")
#loc20 = loc("broadcast.59")
#loc21 = loc("reshape.20")
#loc22 = loc("reshape.22")
#loc23 = loc("reshape.15")
#loc24 = loc("reshape.18")
#loc25 = loc("convert.23")
#loc26 = loc("gather.24")
#loc27 = loc("reshape.25")
#loc28 = loc("convert.26")
#loc29 = loc("power.28")
#loc30 = loc("reduce.35")
#loc31 = loc("multiply.44")
#loc32 = loc("reshape.45")
#loc33 = loc("add.49")
#loc34 = loc("rsqrt.50")
#loc35 = loc("reshape.51")
#loc36 = loc("broadcast.52")
#loc37 = loc("multiply.53")
#loc38 = loc("convert.54")
#loc39 = loc("multiply.60")
#loc40 = loc("reshape.61")
#loc41 = loc("reshape.7")
#loc42 = loc("reshape.9")
#loc43 = loc("transpose.10")
#loc44 = loc("dot.62")
#loc45 = loc("reshape.63")
#loc46 = loc("reshape.3")
#loc47 = loc("reshape.5")
#loc48 = loc("broadcast.66")
#loc49 = loc("add.67")
#loc50 = loc("reshape.68")
#loc51 = loc("transpose.69")
#loc52 = loc("reshape.103")
#loc53 = loc("reshape.105")
#loc54 = loc("transpose.106")
#loc55 = loc("dot.108")
#loc56 = loc("reshape.109")
#loc57 = loc("reshape.99")
#loc58 = loc("reshape.101")
#loc59 = loc("broadcast.112")
#loc60 = loc("add.113")
#loc61 = loc("reshape.114")
#loc62 = loc("transpose.115")
#loc63 = loc("reshape.80")
#loc64 = loc("reshape.85")
#loc65 = loc("convert.86")
#loc66 = loc("dot.89")
#loc67 = loc("transpose.90")
#loc68 = loc("concatenate.91")
#loc69 = loc("cosine.124")
#loc70 = loc("convert.127")
#loc71 = loc("reshape.129")
#loc72 = loc("broadcast.130")
#loc73 = loc("multiply.131")
#loc74 = loc("slice.117")
#loc75 = loc("negate.118")
#loc76 = loc("slice.116")
#loc77 = loc("concatenate.119")
#loc78 = loc("sine.92")
#loc79 = loc("convert.95")
#loc80 = loc("reshape.120")
#loc81 = loc("broadcast.121")
#loc82 = loc("multiply.122")
#loc83 = loc("add.134")
#loc84 = loc("reshape.364")
#loc85 = loc("reshape.366")
#loc86 = loc("broadcast.367")
#loc87 = loc("reshape.215")
#loc88 = loc("reshape.217")
#loc89 = loc("transpose.218")
#loc90 = loc("dot.220")
#loc91 = loc("reshape.221")
#loc92 = loc("reshape.211")
#loc93 = loc("reshape.213")
#loc94 = loc("broadcast.224")
#loc95 = loc("add.225")
#loc96 = loc("reshape.226")
#loc97 = loc("transpose.227")
#loc98 = loc("broadcast.236")
#loc99 = loc("multiply.237")
#loc100 = loc("slice.229")
#loc101 = loc("negate.230")
#loc102 = loc("slice.228")
#loc103 = loc("concatenate.231")
#loc104 = loc("broadcast.233")
#loc105 = loc("multiply.234")
#loc106 = loc("add.240")
#loc107 = loc("broadcast.205")
#loc108 = loc("reshape.206")
#loc109 = loc("transpose.207")
#loc110 = loc("dot.241")
#loc111 = loc("multiply.244")
#loc112 = loc("broadcast.175")
#loc113 = loc("broadcast.177")
#loc114 = loc("compare.178")
#loc115 = loc("convert.179")
#loc116 = loc("multiply.185")
#loc117 = loc("reshape.186")
#loc118 = loc("broadcast.192")
#loc119 = loc("slice.196")
#loc120 = loc("reshape.247")
#loc121 = loc("broadcast.248")
#loc122 = loc("add.249")
#loc123 = loc("convert.250")
#loc124 = loc("reduce.256")
#loc125 = loc("broadcast.257")
#loc126 = loc("subtract.258")
#loc127 = loc("exponential.259")
#loc128 = loc("reduce.265")
#loc129 = loc("broadcast.266")
#loc130 = loc("divide.267")
#loc131 = loc("convert.268")
#loc132 = loc("broadcast.170")
#loc133 = loc("reshape.171")
#loc134 = loc("dot.269")
#loc135 = loc("transpose.271")
#loc136 = loc("reshape.273")
#loc137 = loc("reshape.159")
#loc138 = loc("reshape.161")
#loc139 = loc("transpose.162")
#loc140 = loc("dot.274")
#loc141 = loc("reshape.275")
#loc142 = loc("add.278")
#loc143 = loc("reshape.309")
#loc144 = loc("reshape.311")
#loc145 = loc("broadcast.312")
#loc146 = loc("convert.279")
#loc147 = loc("power.281")
#loc148 = loc("reduce.288")
#loc149 = loc("multiply.297")
#loc150 = loc("reshape.298")
#loc151 = loc("add.302")
#loc152 = loc("rsqrt.303")
#loc153 = loc("reshape.304")
#loc154 = loc("broadcast.305")
#loc155 = loc("multiply.306")
#loc156 = loc("convert.307")
#loc157 = loc("multiply.313")
#loc158 = loc("reshape.322")
#loc159 = loc("reshape.318")
#loc160 = loc("reshape.320")
#loc161 = loc("transpose.321")
#loc162 = loc("dot.323")
#loc163 = loc("reshape.324")
#loc164 = loc("logistic.325")
#loc165 = loc("multiply.326")
#loc166 = loc("reshape.150")
#loc167 = loc("reshape.152")
#loc168 = loc("transpose.153")
#loc169 = loc("dot.315")
#loc170 = loc("reshape.316")
#loc171 = loc("multiply.327")
#loc172 = loc("reshape.328")
#loc173 = loc("reshape.145")
#loc174 = loc("reshape.147")
#loc175 = loc("transpose.148")
#loc176 = loc("dot.329")
#loc177 = loc("reshape.330")
#loc178 = loc("add.333")
#loc179 = loc("convert.334")
#loc180 = loc("power.336")
#loc181 = loc("reduce.343")
#loc182 = loc("multiply.352")
#loc183 = loc("reshape.353")
#loc184 = loc("add.357")
#loc185 = loc("rsqrt.358")
#loc186 = loc("reshape.359")
#loc187 = loc("broadcast.360")
#loc188 = loc("multiply.361")
#loc189 = loc("convert.362")
#loc190 = loc("multiply.368")
#loc191 = loc("reshape.372")
#loc192 = loc("reshape.136")
#loc193 = loc("reshape.138")
#loc194 = loc("transpose.139")
#loc195 = loc("dot.373")
#loc196 = loc("reshape.374")
