#loc1 = loc("p0.3")
#loc2 = loc("p1.13")
#loc3 = loc("p2.32")
#loc4 = loc("p3.36")
#loc5 = loc("p4.44")
#loc6 = loc("p5.49")
#loc7 = loc("p6.85")
#loc8 = loc("p7.129")
#loc9 = loc("p8.138")
#loc10 = loc("p9.142")
#loc11 = loc("p10.166")
#loc12 = loc("p11.174")
#loc13 = loc("p12.183")
#loc14 = loc("p13.188")
#loc15 = loc("p14.197")
#loc16 = loc("p15.248")
#loc17 = loc("p16.252")
#loc18 = loc("p17.346")
#loc19 = loc("p18.355")
#loc20 = loc("p19.401")
module @SyncTensorsGraph.414 attributes {mhlo.cross_program_prefetches = [], mhlo.input_output_alias = [], mhlo.is_dynamic = false, mhlo.use_auto_spmd_partitioning = false, ttcore.meshes = #ttcore.meshes<[<"mesh" = 1x1>]>} {
  ttcore.device_module {
    builtin.module @SyncTensorsGraph.414 attributes {mhlo.cross_program_prefetches = [], mhlo.input_output_alias = [], mhlo.is_dynamic = false, mhlo.use_auto_spmd_partitioning = false, ttcore.meshes = #ttcore.meshes<[<"mesh" = 1x1>]>} {
      func.func @main(%arg0: tensor<1xi64> {ttcore.argument_type = #ttcore.argument_type<input>, ttcore.shard_status = #ttcore.shard_status<unsharded>, ttir.name = "args_1"} loc("p0.3"), %arg1: tensor<32xbf16> {ttcore.argument_type = #ttcore.argument_type<constant>, ttcore.shard_status = #ttcore.shard_status<unsharded>, ttir.name = "l__self___model_rotary_emb_inv_freq"} loc("p1.13"), %arg2: tensor<128xbf16> {ttcore.argument_type = #ttcore.argument_type<parameter>, ttcore.shard_status = #ttcore.shard_status<unsharded>, ttir.name = "l__self___model_layers__modules__0___self_attn_k_proj_bias"} loc("p2.32"), %arg3: tensor<128x896xbf16> {ttcore.argument_type = #ttcore.argument_type<parameter>, ttcore.shard_status = #ttcore.shard_status<unsharded>, ttir.name = "l__self___model_layers__modules__0___self_attn_k_proj_weight"} loc("p3.36"), %arg4: tensor<32x1xi64> {ttcore.argument_type = #ttcore.argument_type<input>, ttcore.shard_status = #ttcore.shard_status<unsharded>, ttir.name = "args_0"} loc("p4.44"), %arg5: tensor<151936x896xbf16> {ttcore.argument_type = #ttcore.argument_type<parameter>, ttcore.shard_status = #ttcore.shard_status<unsharded>, ttir.name = "l__self___model_embed_tokens_weight"} loc("p5.49"), %arg6: tensor<896xbf16> {ttcore.argument_type = #ttcore.argument_type<parameter>, ttcore.shard_status = #ttcore.shard_status<unsharded>, ttir.name = "l__self___model_layers__modules__0___input_layernorm_weight"} loc("p6.85"), %arg7: tensor<32x2x128x64xbf16> {ttcore.argument_type = #ttcore.argument_type<input>, ttcore.shard_status = #ttcore.shard_status<unsharded>, ttir.name = "args_2"} loc("p7.129"), %arg8: tensor<128xbf16> {ttcore.argument_type = #ttcore.argument_type<parameter>, ttcore.shard_status = #ttcore.shard_status<unsharded>, ttir.name = "l__self___model_layers__modules__0___self_attn_v_proj_bias"} loc("p8.138"), %arg9: tensor<128x896xbf16> {ttcore.argument_type = #ttcore.argument_type<parameter>, ttcore.shard_status = #ttcore.shard_status<unsharded>, ttir.name = "l__self___model_layers__modules__0___self_attn_v_proj_weight"} loc("p9.142"), %arg10: tensor<32x2x128x64xbf16> {ttcore.argument_type = #ttcore.argument_type<input>, ttcore.shard_status = #ttcore.shard_status<unsharded>, ttir.name = "args_3"} loc("p10.166"), %arg11: tensor<151936x896xbf16> {ttcore.argument_type = #ttcore.argument_type<parameter>, ttcore.shard_status = #ttcore.shard_status<unsharded>, ttir.name = "l__self___lm_head_weight"} loc("p11.174"), %arg12: tensor<896x4864xbf16> {ttcore.argument_type = #ttcore.argument_type<parameter>, ttcore.shard_status = #ttcore.shard_status<unsharded>, ttir.name = "l__self___model_layers__modules__0___mlp_down_proj_weight"} loc("p12.183"), %arg13: tensor<4864x896xbf16> {ttcore.argument_type = #ttcore.argument_type<parameter>, ttcore.shard_status = #ttcore.shard_status<unsharded>, ttir.name = "l__self___model_layers__modules__0___mlp_up_proj_weight"} loc("p13.188"), %arg14: tensor<896x896xbf16> {ttcore.argument_type = #ttcore.argument_type<parameter>, ttcore.shard_status = #ttcore.shard_status<unsharded>, ttir.name = "l__self___model_layers__modules__0___self_attn_o_proj_weight"} loc("p14.197"), %arg15: tensor<896xbf16> {ttcore.argument_type = #ttcore.argument_type<parameter>, ttcore.shard_status = #ttcore.shard_status<unsharded>, ttir.name = "l__self___model_layers__modules__0___self_attn_q_proj_bias"} loc("p15.248"), %arg16: tensor<896x896xbf16> {ttcore.argument_type = #ttcore.argument_type<parameter>, ttcore.shard_status = #ttcore.shard_status<unsharded>, ttir.name = "l__self___model_layers__modules__0___self_attn_q_proj_weight"} loc("p16.252"), %arg17: tensor<896xbf16> {ttcore.argument_type = #ttcore.argument_type<parameter>, ttcore.shard_status = #ttcore.shard_status<unsharded>, ttir.name = "l__self___model_layers__modules__0___post_attention_layernorm_weight"} loc("p17.346"), %arg18: tensor<4864x896xbf16> {ttcore.argument_type = #ttcore.argument_type<parameter>, ttcore.shard_status = #ttcore.shard_status<unsharded>, ttir.name = "l__self___model_layers__modules__0___mlp_gate_proj_weight"} loc("p18.355"), %arg19: tensor<896xbf16> {ttcore.argument_type = #ttcore.argument_type<parameter>, ttcore.shard_status = #ttcore.shard_status<unsharded>, ttir.name = "l__self___model_norm_weight"} loc("p19.401")) -> (tensor<32x2x128x64xbf16> {ttcore.shard_status = #ttcore.shard_status<unsharded>}, tensor<32x2x128x64xbf16> {ttcore.shard_status = #ttcore.shard_status<unsharded>}, tensor<32x1x151936xbf16> {ttcore.shard_status = #ttcore.shard_status<unsharded>}) {
        %0 = "ttir.constant"() <{value = dense<"…"> : tensor<1x128xi64>}> : () -> tensor<1x128xi64> loc(#loc)
        %1 = "ttir.constant"() <{value = dense<-3.389530e+38> : tensor<1x128xbf16>}> : () -> tensor<1x128xbf16> loc(#loc)
        %2 = "ttir.constant"() <{value = dense<1.250000e-01> : tensor<32x14x1x128xbf16>}> : () -> tensor<32x14x1x128xbf16> loc(#loc)
        %3 = "ttir.constant"() <{value = dense<9.99999997E-7> : tensor<32x1x1xf32>}> : () -> tensor<32x1x1xf32> loc(#loc)
        %4 = "ttir.constant"() <{value = dense<0.00111607148> : tensor<32x1xf32>}> : () -> tensor<32x1xf32> loc(#loc)
        %5 = "ttir.constant"() <{value = dense<2.000000e+00> : tensor<32x1x896xf32>}> : () -> tensor<32x1x896xf32> loc(#loc)
        %6 = "ttir.constant"() <{value = dense<128> : tensor<1xi64>}> : () -> tensor<1xi64> loc(#loc)
        %7 = "ttir.constant"() <{value = dense<0> : tensor<1xi64>}> : () -> tensor<1xi64> loc(#loc)
        %8 = "ttir.reshape"(%arg0) <{shape = [1 : i32, 1 : i32, 1 : i32]}> : (tensor<1xi64>) -> tensor<1x1x1xi64> loc(#loc21)
        %9 = "ttir.reshape"(%8) <{shape = [1 : i32]}> : (tensor<1x1x1xi64>) -> tensor<1xi64> loc(#loc22)
        %10 = "ttir.lt"(%9, %7) : (tensor<1xi64>, tensor<1xi64>) -> tensor<1xi1> loc(#loc23)
        %11 = "ttir.add"(%9, %6) : (tensor<1xi64>, tensor<1xi64>) -> tensor<1xi64> loc(#loc24)
        %12 = "ttir.where"(%10, %11, %9) : (tensor<1xi1>, tensor<1xi64>, tensor<1xi64>) -> tensor<1xi64> loc(#loc25)
        %13 = "ttir.reshape"(%arg6) <{shape = [1 : i32, 1 : i32, 896 : i32]}> : (tensor<896xbf16>) -> tensor<1x1x896xbf16> loc(#loc26)
        %14 = "ttir.reshape"(%13) <{shape = [896 : i32]}> : (tensor<1x1x896xbf16>) -> tensor<896xbf16> loc(#loc27)
        %15 = "ttir.reshape"(%14) <{shape = [1 : i32, 1 : i32, 896 : i32]}> : (tensor<896xbf16>) -> tensor<1x1x896xbf16> loc(#loc28)
        %16 = "ttir.broadcast"(%15) <{broadcast_dimensions = array<i64: 32, 1, 1>}> : (tensor<1x1x896xbf16>) -> tensor<32x1x896xbf16> loc(#loc28)
        %17 = "ttir.reshape"(%arg5) <{shape = [1 : i32, 151936 : i32, 896 : i32]}> : (tensor<151936x896xbf16>) -> tensor<1x151936x896xbf16> loc(#loc29)
        %18 = "ttir.reshape"(%17) <{shape = [151936 : i32, 896 : i32]}> : (tensor<1x151936x896xbf16>) -> tensor<151936x896xbf16> loc(#loc30)
        %19 = "ttir.reshape"(%arg4) <{shape = [1 : i32, 32 : i32, 1 : i32]}> : (tensor<32x1xi64>) -> tensor<1x32x1xi64> loc(#loc31)
        %20 = "ttir.reshape"(%19) <{shape = [32 : i32]}> : (tensor<1x32x1xi64>) -> tensor<32xi64> loc(#loc32)
        %21 = "ttir.typecast"(%20) <{conservative_folding = false}> : (tensor<32xi64>) -> tensor<32xui32> loc(#loc33)
        %22 = "ttir.gather"(%18, %21) <{collapsed_slice_dims = array<i64: 0>, index_vector_dim = 1 : si64, indices_are_sorted = false, offset_dims = array<i64: 1>, operand_batching_dims = array<i64>, slice_sizes = array<i64: 1, 896>, start_index_map = array<i64: 0>, start_indices_batching_dims = array<i64>}> : (tensor<151936x896xbf16>, tensor<32xui32>) -> tensor<32x896xbf16> loc(#loc34)
        %23 = "ttir.reshape"(%22) <{shape = [32 : i32, 1 : i32, 896 : i32]}> : (tensor<32x896xbf16>) -> tensor<32x1x896xbf16> loc(#loc35)
        %24 = "ttir.typecast"(%23) <{conservative_folding = false}> : (tensor<32x1x896xbf16>) -> tensor<32x1x896xf32> loc(#loc36)
        %25 = "ttir.pow"(%24, %5) : (tensor<32x1x896xf32>, tensor<32x1x896xf32>) -> tensor<32x1x896xf32> loc(#loc37)
        %26 = "ttir.sum"(%25) <{dim_arg = [2 : i32], keep_dim = false}> : (tensor<32x1x896xf32>) -> tensor<32x1xf32> loc(#loc38)
        %27 = "ttir.multiply"(%26, %4) : (tensor<32x1xf32>, tensor<32x1xf32>) -> tensor<32x1xf32> loc(#loc39)
        %28 = "ttir.reshape"(%27) <{shape = [32 : i32, 1 : i32, 1 : i32]}> : (tensor<32x1xf32>) -> tensor<32x1x1xf32> loc(#loc40)
        %29 = "ttir.add"(%28, %3) : (tensor<32x1x1xf32>, tensor<32x1x1xf32>) -> tensor<32x1x1xf32> loc(#loc41)
        %30 = "ttir.rsqrt"(%29) : (tensor<32x1x1xf32>) -> tensor<32x1x1xf32> loc(#loc42)
        %31 = "ttir.reshape"(%30) <{shape = [32 : i32, 1 : i32]}> : (tensor<32x1x1xf32>) -> tensor<32x1xf32> loc(#loc43)
        %32 = "ttir.reshape"(%31) <{shape = [32 : i32, 1 : i32, 1 : i32]}> : (tensor<32x1xf32>) -> tensor<32x1x1xf32> loc(#loc44)
        %33 = "ttir.broadcast"(%32) <{broadcast_dimensions = array<i64: 1, 1, 896>}> : (tensor<32x1x1xf32>) -> tensor<32x1x896xf32> loc(#loc44)
        %34 = "ttir.multiply"(%24, %33) : (tensor<32x1x896xf32>, tensor<32x1x896xf32>) -> tensor<32x1x896xf32> loc(#loc45)
        %35 = "ttir.typecast"(%34) <{conservative_folding = false}> : (tensor<32x1x896xf32>) -> tensor<32x1x896xbf16> loc(#loc46)
        %36 = "ttir.multiply"(%16, %35) : (tensor<32x1x896xbf16>, tensor<32x1x896xbf16>) -> tensor<32x1x896xbf16> loc(#loc47)
        %37 = "ttir.reshape"(%36) <{shape = [32 : i32, 896 : i32]}> : (tensor<32x1x896xbf16>) -> tensor<32x896xbf16> loc(#loc48)
        %38 = "ttir.reshape"(%arg3) <{shape = [1 : i32, 128 : i32, 896 : i32]}> : (tensor<128x896xbf16>) -> tensor<1x128x896xbf16> loc(#loc49)
        %39 = "ttir.reshape"(%38) <{shape = [128 : i32, 896 : i32]}> : (tensor<1x128x896xbf16>) -> tensor<128x896xbf16> loc(#loc50)
        %40 = "ttir.permute"(%39) <{permutation = array<i64: 1, 0>}> : (tensor<128x896xbf16>) -> tensor<896x128xbf16> loc(#loc51)
        %41 = "ttir.dot_general"(%37, %40) <{batch_dims_lhs = array<i64>, batch_dims_rhs = array<i64>, contract_dims_lhs = array<i64: 1>, contract_dims_rhs = array<i64: 0>}> : (tensor<32x896xbf16>, tensor<896x128xbf16>) -> tensor<32x128xbf16> loc(#loc52)
        %42 = "ttir.reshape"(%41) <{shape = [32 : i32, 1 : i32, 128 : i32]}> : (tensor<32x128xbf16>) -> tensor<32x1x128xbf16> loc(#loc53)
        %43 = "ttir.reshape"(%arg2) <{shape = [1 : i32, 1 : i32, 128 : i32]}> : (tensor<128xbf16>) -> tensor<1x1x128xbf16> loc(#loc54)
        %44 = "ttir.reshape"(%43) <{shape = [128 : i32]}> : (tensor<1x1x128xbf16>) -> tensor<128xbf16> loc(#loc55)
        %45 = "ttir.reshape"(%44) <{shape = [1 : i32, 1 : i32, 128 : i32]}> : (tensor<128xbf16>) -> tensor<1x1x128xbf16> loc(#loc56)
        %46 = "ttir.broadcast"(%45) <{broadcast_dimensions = array<i64: 32, 1, 1>}> : (tensor<1x1x128xbf16>) -> tensor<32x1x128xbf16> loc(#loc56)
        %47 = "ttir.add"(%42, %46) : (tensor<32x1x128xbf16>, tensor<32x1x128xbf16>) -> tensor<32x1x128xbf16> loc(#loc57)
        %48 = "ttir.reshape"(%47) <{shape = [32 : i32, 2 : i32, 1 : i32, 64 : i32]}> : (tensor<32x1x128xbf16>) -> tensor<32x2x1x64xbf16> loc(#loc58)
        %49 = "ttir.reshape"(%arg1) <{shape = [1 : i32, 1 : i32, 32 : i32]}> : (tensor<32xbf16>) -> tensor<1x1x32xbf16> loc(#loc59)
        %50 = "ttir.reshape"(%49) <{shape = [1 : i32, 32 : i32, 1 : i32]}> : (tensor<1x1x32xbf16>) -> tensor<1x32x1xbf16> loc(#loc60)
        %51 = "ttir.typecast"(%50) <{conservative_folding = false}> : (tensor<1x32x1xbf16>) -> tensor<1x32x1xf32> loc(#loc61)
        %52 = "ttir.typecast"(%8) <{conservative_folding = false}> : (tensor<1x1x1xi64>) -> tensor<1x1x1xf32> loc(#loc62)
        %53 = "ttir.dot_general"(%51, %52) <{batch_dims_lhs = array<i64: 0>, batch_dims_rhs = array<i64: 0>, contract_dims_lhs = array<i64: 2>, contract_dims_rhs = array<i64: 1>}> : (tensor<1x32x1xf32>, tensor<1x1x1xf32>) -> tensor<1x32x1xf32> loc(#loc63)
        %54 = "ttir.reshape"(%53) <{shape = [1 : i32, 1 : i32, 32 : i32]}> : (tensor<1x32x1xf32>) -> tensor<1x1x32xf32> loc(#loc64)
        %55 = "ttir.concat"(%54, %54) <{dim = 2 : si32}> : (tensor<1x1x32xf32>, tensor<1x1x32xf32>) -> tensor<1x1x64xf32> loc(#loc65)
        %56 = "ttir.cos"(%55) : (tensor<1x1x64xf32>) -> tensor<1x1x64xf32> loc(#loc66)
        %57 = "ttir.typecast"(%56) <{conservative_folding = false}> : (tensor<1x1x64xf32>) -> tensor<1x1x64xbf16> loc(#loc67)
        %58 = "ttir.reshape"(%57) <{shape = [1 : i32, 64 : i32]}> : (tensor<1x1x64xbf16>) -> tensor<1x64xbf16> loc(#loc68)
        %59 = "ttir.reshape"(%58) <{shape = [1 : i32, 1 : i32, 1 : i32, 64 : i32]}> : (tensor<1x64xbf16>) -> tensor<1x1x1x64xbf16> loc(#loc69)
        %60 = "ttir.broadcast"(%59) <{broadcast_dimensions = array<i64: 32, 2, 1, 1>}> : (tensor<1x1x1x64xbf16>) -> tensor<32x2x1x64xbf16> loc(#loc69)
        %61 = "ttir.multiply"(%48, %60) : (tensor<32x2x1x64xbf16>, tensor<32x2x1x64xbf16>) -> tensor<32x2x1x64xbf16> loc(#loc70)
        %62 = "ttir.slice_static"(%48) <{begins = [0 : i32, 0 : i32, 0 : i32, 32 : i32], ends = [32 : i32, 2 : i32, 1 : i32, 64 : i32], step = [1 : i32, 1 : i32, 1 : i32, 1 : i32]}> : (tensor<32x2x1x64xbf16>) -> tensor<32x2x1x32xbf16> loc(#loc71)
        %63 = "ttir.neg"(%62) : (tensor<32x2x1x32xbf16>) -> tensor<32x2x1x32xbf16> loc(#loc72)
        %64 = "ttir.slice_static"(%48) <{begins = [0 : i32, 0 : i32, 0 : i32, 0 : i32], ends = [32 : i32, 2 : i32, 1 : i32, 32 : i32], step = [1 : i32, 1 : i32, 1 : i32, 1 : i32]}> : (tensor<32x2x1x64xbf16>) -> tensor<32x2x1x32xbf16> loc(#loc73)
        %65 = "ttir.concat"(%63, %64) <{dim = 3 : si32}> : (tensor<32x2x1x32xbf16>, tensor<32x2x1x32xbf16>) -> tensor<32x2x1x64xbf16> loc(#loc74)
        %66 = "ttir.sin"(%55) : (tensor<1x1x64xf32>) -> tensor<1x1x64xf32> loc(#loc75)
        %67 = "ttir.typecast"(%66) <{conservative_folding = false}> : (tensor<1x1x64xf32>) -> tensor<1x1x64xbf16> loc(#loc76)
        %68 = "ttir.reshape"(%67) <{shape = [1 : i32, 64 : i32]}> : (tensor<1x1x64xbf16>) -> tensor<1x64xbf16> loc(#loc77)
        %69 = "ttir.reshape"(%68) <{shape = [1 : i32, 1 : i32, 1 : i32, 64 : i32]}> : (tensor<1x64xbf16>) -> tensor<1x1x1x64xbf16> loc(#loc78)
        %70 = "ttir.broadcast"(%69) <{broadcast_dimensions = array<i64: 32, 2, 1, 1>}> : (tensor<1x1x1x64xbf16>) -> tensor<32x2x1x64xbf16> loc(#loc78)
        %71 = "ttir.multiply"(%65, %70) : (tensor<32x2x1x64xbf16>, tensor<32x2x1x64xbf16>) -> tensor<32x2x1x64xbf16> loc(#loc79)
        %72 = "ttir.add"(%61, %71) : (tensor<32x2x1x64xbf16>, tensor<32x2x1x64xbf16>) -> tensor<32x2x1x64xbf16> loc(#loc80)
        %73 = "ttir.permute"(%72) <{permutation = array<i64: 2, 1, 0, 3>}> : (tensor<32x2x1x64xbf16>) -> tensor<1x2x32x64xbf16> loc(#loc81)
        %74 = "ttir.update_cache"(%arg7, %73, %arg0) <{batch_offset = 0 : i32}> : (tensor<32x2x128x64xbf16>, tensor<1x2x32x64xbf16>, tensor<1xi64>) -> tensor<32x2x128x64xbf16> loc(#loc81)
        %75 = "ttir.reshape"(%arg9) <{shape = [1 : i32, 128 : i32, 896 : i32]}> : (tensor<128x896xbf16>) -> tensor<1x128x896xbf16> loc(#loc82)
        %76 = "ttir.reshape"(%75) <{shape = [128 : i32, 896 : i32]}> : (tensor<1x128x896xbf16>) -> tensor<128x896xbf16> loc(#loc83)
        %77 = "ttir.permute"(%76) <{permutation = array<i64: 1, 0>}> : (tensor<128x896xbf16>) -> tensor<896x128xbf16> loc(#loc84)
        %78 = "ttir.dot_general"(%37, %77) <{batch_dims_lhs = array<i64>, batch_dims_rhs = array<i64>, contract_dims_lhs = array<i64: 1>, contract_dims_rhs = array<i64: 0>}> : (tensor<32x896xbf16>, tensor<896x128xbf16>) -> tensor<32x128xbf16> loc(#loc85)
        %79 = "ttir.reshape"(%78) <{shape = [32 : i32, 1 : i32, 128 : i32]}> : (tensor<32x128xbf16>) -> tensor<32x1x128xbf16> loc(#loc86)
        %80 = "ttir.reshape"(%arg8) <{shape = [1 : i32, 1 : i32, 128 : i32]}> : (tensor<128xbf16>) -> tensor<1x1x128xbf16> loc(#loc87)
        %81 = "ttir.reshape"(%80) <{shape = [128 : i32]}> : (tensor<1x1x128xbf16>) -> tensor<128xbf16> loc(#loc88)
        %82 = "ttir.reshape"(%81) <{shape = [1 : i32, 1 : i32, 128 : i32]}> : (tensor<128xbf16>) -> tensor<1x1x128xbf16> loc(#loc89)
        %83 = "ttir.broadcast"(%82) <{broadcast_dimensions = array<i64: 32, 1, 1>}> : (tensor<1x1x128xbf16>) -> tensor<32x1x128xbf16> loc(#loc89)
        %84 = "ttir.add"(%79, %83) : (tensor<32x1x128xbf16>, tensor<32x1x128xbf16>) -> tensor<32x1x128xbf16> loc(#loc90)
        %85 = "ttir.reshape"(%84) <{shape = [32 : i32, 2 : i32, 1 : i32, 64 : i32]}> : (tensor<32x1x128xbf16>) -> tensor<32x2x1x64xbf16> loc(#loc91)
        %86 = "ttir.permute"(%85) <{permutation = array<i64: 2, 1, 0, 3>}> : (tensor<32x2x1x64xbf16>) -> tensor<1x2x32x64xbf16> loc(#loc92)
        %87 = "ttir.update_cache"(%arg10, %86, %arg0) <{batch_offset = 0 : i32}> : (tensor<32x2x128x64xbf16>, tensor<1x2x32x64xbf16>, tensor<1xi64>) -> tensor<32x2x128x64xbf16> loc(#loc92)
        %88 = "ttir.reshape"(%arg19) <{shape = [1 : i32, 1 : i32, 896 : i32]}> : (tensor<896xbf16>) -> tensor<1x1x896xbf16> loc(#loc93)
        %89 = "ttir.reshape"(%88) <{shape = [896 : i32]}> : (tensor<1x1x896xbf16>) -> tensor<896xbf16> loc(#loc94)
        %90 = "ttir.reshape"(%89) <{shape = [1 : i32, 1 : i32, 896 : i32]}> : (tensor<896xbf16>) -> tensor<1x1x896xbf16> loc(#loc95)
        %91 = "ttir.broadcast"(%90) <{broadcast_dimensions = array<i64: 32, 1, 1>}> : (tensor<1x1x896xbf16>) -> tensor<32x1x896xbf16> loc(#loc95)
        %92 = "ttir.reshape"(%arg16) <{shape = [1 : i32, 896 : i32, 896 : i32]}> : (tensor<896x896xbf16>) -> tensor<1x896x896xbf16> loc(#loc96)
        %93 = "ttir.reshape"(%92) <{shape = [896 : i32, 896 : i32]}> : (tensor<1x896x896xbf16>) -> tensor<896x896xbf16> loc(#loc97)
        %94 = "ttir.permute"(%93) <{permutation = array<i64: 1, 0>}> : (tensor<896x896xbf16>) -> tensor<896x896xbf16> loc(#loc98)
        %95 = "ttir.dot_general"(%37, %94) <{batch_dims_lhs = array<i64>, batch_dims_rhs = array<i64>, contract_dims_lhs = array<i64: 1>, contract_dims_rhs = array<i64: 0>}> : (tensor<32x896xbf16>, tensor<896x896xbf16>) -> tensor<32x896xbf16> loc(#loc99)
        %96 = "ttir.reshape"(%95) <{shape = [32 : i32, 1 : i32, 896 : i32]}> : (tensor<32x896xbf16>) -> tensor<32x1x896xbf16> loc(#loc100)
        %97 = "ttir.reshape"(%arg15) <{shape = [1 : i32, 1 : i32, 896 : i32]}> : (tensor<896xbf16>) -> tensor<1x1x896xbf16> loc(#loc101)
        %98 = "ttir.reshape"(%97) <{shape = [896 : i32]}> : (tensor<1x1x896xbf16>) -> tensor<896xbf16> loc(#loc102)
        %99 = "ttir.reshape"(%98) <{shape = [1 : i32, 1 : i32, 896 : i32]}> : (tensor<896xbf16>) -> tensor<1x1x896xbf16> loc(#loc103)
        %100 = "ttir.broadcast"(%99) <{broadcast_dimensions = array<i64: 32, 1, 1>}> : (tensor<1x1x896xbf16>) -> tensor<32x1x896xbf16> loc(#loc103)
        %101 = "ttir.add"(%96, %100) : (tensor<32x1x896xbf16>, tensor<32x1x896xbf16>) -> tensor<32x1x896xbf16> loc(#loc104)
        %102 = "ttir.reshape"(%101) <{shape = [32 : i32, 14 : i32, 1 : i32, 64 : i32]}> : (tensor<32x1x896xbf16>) -> tensor<32x14x1x64xbf16> loc(#loc105)
        %103 = "ttir.broadcast"(%59) <{broadcast_dimensions = array<i64: 32, 14, 1, 1>}> : (tensor<1x1x1x64xbf16>) -> tensor<32x14x1x64xbf16> loc(#loc106)
        %104 = "ttir.multiply"(%102, %103) : (tensor<32x14x1x64xbf16>, tensor<32x14x1x64xbf16>) -> tensor<32x14x1x64xbf16> loc(#loc107)
        %105 = "ttir.slice_static"(%102) <{begins = [0 : i32, 0 : i32, 0 : i32, 32 : i32], ends = [32 : i32, 14 : i32, 1 : i32, 64 : i32], step = [1 : i32, 1 : i32, 1 : i32, 1 : i32]}> : (tensor<32x14x1x64xbf16>) -> tensor<32x14x1x32xbf16> loc(#loc108)
        %106 = "ttir.neg"(%105) : (tensor<32x14x1x32xbf16>) -> tensor<32x14x1x32xbf16> loc(#loc109)
        %107 = "ttir.slice_static"(%102) <{begins = [0 : i32, 0 : i32, 0 : i32, 0 : i32], ends = [32 : i32, 14 : i32, 1 : i32, 32 : i32], step = [1 : i32, 1 : i32, 1 : i32, 1 : i32]}> : (tensor<32x14x1x64xbf16>) -> tensor<32x14x1x32xbf16> loc(#loc110)
        %108 = "ttir.concat"(%106, %107) <{dim = 3 : si32}> : (tensor<32x14x1x32xbf16>, tensor<32x14x1x32xbf16>) -> tensor<32x14x1x64xbf16> loc(#loc111)
        %109 = "ttir.broadcast"(%69) <{broadcast_dimensions = array<i64: 32, 14, 1, 1>}> : (tensor<1x1x1x64xbf16>) -> tensor<32x14x1x64xbf16> loc(#loc112)
        %110 = "ttir.multiply"(%108, %109) : (tensor<32x14x1x64xbf16>, tensor<32x14x1x64xbf16>) -> tensor<32x14x1x64xbf16> loc(#loc113)
        %111 = "ttir.add"(%104, %110) : (tensor<32x14x1x64xbf16>, tensor<32x14x1x64xbf16>) -> tensor<32x14x1x64xbf16> loc(#loc114)
        %112 = "ttir.reshape"(%74) <{shape = [32 : i32, 2 : i32, 1 : i32, 128 : i32, 64 : i32]}> : (tensor<32x2x128x64xbf16>) -> tensor<32x2x1x128x64xbf16> loc(#loc115)
        %113 = "ttir.broadcast"(%112) <{broadcast_dimensions = array<i64: 1, 1, 7, 1, 1>}> : (tensor<32x2x1x128x64xbf16>) -> tensor<32x2x7x128x64xbf16> loc(#loc115)
        %114 = "ttir.reshape"(%113) <{shape = [32 : i32, 14 : i32, 128 : i32, 64 : i32]}> : (tensor<32x2x7x128x64xbf16>) -> tensor<32x14x128x64xbf16> loc(#loc116)
        %115 = "ttir.permute"(%114) <{permutation = array<i64: 0, 1, 3, 2>}> : (tensor<32x14x128x64xbf16>) -> tensor<32x14x64x128xbf16> loc(#loc117)
        %116 = "ttir.dot_general"(%111, %115) <{batch_dims_lhs = array<i64: 0, 1>, batch_dims_rhs = array<i64: 0, 1>, contract_dims_lhs = array<i64: 3>, contract_dims_rhs = array<i64: 2>}> : (tensor<32x14x1x64xbf16>, tensor<32x14x64x128xbf16>) -> tensor<32x14x1x128xbf16> loc(#loc118)
        %117 = "ttir.multiply"(%116, %2) : (tensor<32x14x1x128xbf16>, tensor<32x14x1x128xbf16>) -> tensor<32x14x1x128xbf16> loc(#loc119)
        %118 = "ttir.reshape"(%9) <{shape = [1 : i32, 1 : i32]}> : (tensor<1xi64>) -> tensor<1x1xi64> loc(#loc120)
        %119 = "ttir.broadcast"(%118) <{broadcast_dimensions = array<i64: 1, 128>}> : (tensor<1x1xi64>) -> tensor<1x128xi64> loc(#loc120)
        %120 = "ttir.gt"(%0, %119) : (tensor<1x128xi64>, tensor<1x128xi64>) -> tensor<1x128xi1> loc(#loc121)
        %121 = "ttir.typecast"(%120) <{conservative_folding = false}> : (tensor<1x128xi1>) -> tensor<1x128xbf16> loc(#loc122)
        %122 = "ttir.multiply"(%121, %1) : (tensor<1x128xbf16>, tensor<1x128xbf16>) -> tensor<1x128xbf16> loc(#loc123)
        %123 = "ttir.reshape"(%122) <{shape = [1 : i32, 1 : i32, 128 : i32]}> : (tensor<1x128xbf16>) -> tensor<1x1x128xbf16> loc(#loc124)
        %124 = "ttir.reshape"(%123) <{shape = [1 : i32, 1 : i32, 1 : i32, 128 : i32]}> : (tensor<1x1x128xbf16>) -> tensor<1x1x1x128xbf16> loc(#loc125)
        %125 = "ttir.broadcast"(%124) <{broadcast_dimensions = array<i64: 32, 1, 1, 1>}> : (tensor<1x1x1x128xbf16>) -> tensor<32x1x1x128xbf16> loc(#loc125)
        %126 = "ttir.reshape"(%125) <{shape = [32 : i32, 1 : i32, 128 : i32]}> : (tensor<32x1x1x128xbf16>) -> tensor<32x1x128xbf16> loc(#loc126)
        %127 = "ttir.reshape"(%126) <{shape = [32 : i32, 1 : i32, 1 : i32, 128 : i32]}> : (tensor<32x1x128xbf16>) -> tensor<32x1x1x128xbf16> loc(#loc127)
        %128 = "ttir.broadcast"(%127) <{broadcast_dimensions = array<i64: 1, 14, 1, 1>}> : (tensor<32x1x1x128xbf16>) -> tensor<32x14x1x128xbf16> loc(#loc127)
        %129 = "ttir.add"(%117, %128) : (tensor<32x14x1x128xbf16>, tensor<32x14x1x128xbf16>) -> tensor<32x14x1x128xbf16> loc(#loc128)
        %130 = "ttir.typecast"(%129) <{conservative_folding = false}> : (tensor<32x14x1x128xbf16>) -> tensor<32x14x1x128xf32> loc(#loc129)
        %131 = "ttir.max"(%130) <{dim_arg = [3 : i32], keep_dim = false}> : (tensor<32x14x1x128xf32>) -> tensor<32x14x1xf32> loc(#loc130)
        %132 = "ttir.reshape"(%131) <{shape = [32 : i32, 14 : i32, 1 : i32, 1 : i32]}> : (tensor<32x14x1xf32>) -> tensor<32x14x1x1xf32> loc(#loc131)
        %133 = "ttir.broadcast"(%132) <{broadcast_dimensions = array<i64: 1, 1, 1, 128>}> : (tensor<32x14x1x1xf32>) -> tensor<32x14x1x128xf32> loc(#loc131)
        %134 = "ttir.subtract"(%130, %133) : (tensor<32x14x1x128xf32>, tensor<32x14x1x128xf32>) -> tensor<32x14x1x128xf32> loc(#loc132)
        %135 = "ttir.exp"(%134) : (tensor<32x14x1x128xf32>) -> tensor<32x14x1x128xf32> loc(#loc133)
        %136 = "ttir.sum"(%135) <{dim_arg = [3 : i32], keep_dim = false}> : (tensor<32x14x1x128xf32>) -> tensor<32x14x1xf32> loc(#loc134)
        %137 = "ttir.reshape"(%136) <{shape = [32 : i32, 14 : i32, 1 : i32, 1 : i32]}> : (tensor<32x14x1xf32>) -> tensor<32x14x1x1xf32> loc(#loc135)
        %138 = "ttir.broadcast"(%137) <{broadcast_dimensions = array<i64: 1, 1, 1, 128>}> : (tensor<32x14x1x1xf32>) -> tensor<32x14x1x128xf32> loc(#loc135)
        %139 = "ttir.div"(%135, %138) : (tensor<32x14x1x128xf32>, tensor<32x14x1x128xf32>) -> tensor<32x14x1x128xf32> loc(#loc136)
        %140 = "ttir.typecast"(%139) <{conservative_folding = false}> : (tensor<32x14x1x128xf32>) -> tensor<32x14x1x128xbf16> loc(#loc137)
        %141 = "ttir.reshape"(%87) <{shape = [32 : i32, 2 : i32, 1 : i32, 128 : i32, 64 : i32]}> : (tensor<32x2x128x64xbf16>) -> tensor<32x2x1x128x64xbf16> loc(#loc138)
        %142 = "ttir.broadcast"(%141) <{broadcast_dimensions = array<i64: 1, 1, 7, 1, 1>}> : (tensor<32x2x1x128x64xbf16>) -> tensor<32x2x7x128x64xbf16> loc(#loc138)
        %143 = "ttir.reshape"(%142) <{shape = [32 : i32, 14 : i32, 128 : i32, 64 : i32]}> : (tensor<32x2x7x128x64xbf16>) -> tensor<32x14x128x64xbf16> loc(#loc139)
        %144 = "ttir.dot_general"(%140, %143) <{batch_dims_lhs = array<i64: 0, 1>, batch_dims_rhs = array<i64: 0, 1>, contract_dims_lhs = array<i64: 3>, contract_dims_rhs = array<i64: 2>}> : (tensor<32x14x1x128xbf16>, tensor<32x14x128x64xbf16>) -> tensor<32x14x1x64xbf16> loc(#loc140)
        %145 = "ttir.reshape"(%144) <{shape = [32 : i32, 896 : i32]}> : (tensor<32x14x1x64xbf16>) -> tensor<32x896xbf16> loc(#loc141)
        %146 = "ttir.reshape"(%arg14) <{shape = [1 : i32, 896 : i32, 896 : i32]}> : (tensor<896x896xbf16>) -> tensor<1x896x896xbf16> loc(#loc142)
        %147 = "ttir.reshape"(%146) <{shape = [896 : i32, 896 : i32]}> : (tensor<1x896x896xbf16>) -> tensor<896x896xbf16> loc(#loc143)
        %148 = "ttir.permute"(%147) <{permutation = array<i64: 1, 0>}> : (tensor<896x896xbf16>) -> tensor<896x896xbf16> loc(#loc144)
        %149 = "ttir.dot_general"(%145, %148) <{batch_dims_lhs = array<i64>, batch_dims_rhs = array<i64>, contract_dims_lhs = array<i64: 1>, contract_dims_rhs = array<i64: 0>}> : (tensor<32x896xbf16>, tensor<896x896xbf16>) -> tensor<32x896xbf16> loc(#loc145)
        %150 = "ttir.reshape"(%149) <{shape = [32 : i32, 1 : i32, 896 : i32]}> : (tensor<32x896xbf16>) -> tensor<32x1x896xbf16> loc(#loc146)
        %151 = "ttir.add"(%23, %150) : (tensor<32x1x896xbf16>, tensor<32x1x896xbf16>) -> tensor<32x1x896xbf16> loc(#loc147)
        %152 = "ttir.reshape"(%arg17) <{shape = [1 : i32, 1 : i32, 896 : i32]}> : (tensor<896xbf16>) -> tensor<1x1x896xbf16> loc(#loc148)
        %153 = "ttir.reshape"(%152) <{shape = [896 : i32]}> : (tensor<1x1x896xbf16>) -> tensor<896xbf16> loc(#loc149)
        %154 = "ttir.reshape"(%153) <{shape = [1 : i32, 1 : i32, 896 : i32]}> : (tensor<896xbf16>) -> tensor<1x1x896xbf16> loc(#loc150)
        %155 = "ttir.broadcast"(%154) <{broadcast_dimensions = array<i64: 32, 1, 1>}> : (tensor<1x1x896xbf16>) -> tensor<32x1x896xbf16> loc(#loc150)
        %156 = "ttir.typecast"(%151) <{conservative_folding = false}> : (tensor<32x1x896xbf16>) -> tensor<32x1x896xf32> loc(#loc151)
        %157 = "ttir.pow"(%156, %5) : (tensor<32x1x896xf32>, tensor<32x1x896xf32>) -> tensor<32x1x896xf32> loc(#loc152)
        %158 = "ttir.sum"(%157) <{dim_arg = [2 : i32], keep_dim = false}> : (tensor<32x1x896xf32>) -> tensor<32x1xf32> loc(#loc153)
        %159 = "ttir.multiply"(%158, %4) : (tensor<32x1xf32>, tensor<32x1xf32>) -> tensor<32x1xf32> loc(#loc154)
        %160 = "ttir.reshape"(%159) <{shape = [32 : i32, 1 : i32, 1 : i32]}> : (tensor<32x1xf32>) -> tensor<32x1x1xf32> loc(#loc155)
        %161 = "ttir.add"(%160, %3) : (tensor<32x1x1xf32>, tensor<32x1x1xf32>) -> tensor<32x1x1xf32> loc(#loc156)
        %162 = "ttir.rsqrt"(%161) : (tensor<32x1x1xf32>) -> tensor<32x1x1xf32> loc(#loc157)
        %163 = "ttir.reshape"(%162) <{shape = [32 : i32, 1 : i32]}> : (tensor<32x1x1xf32>) -> tensor<32x1xf32> loc(#loc158)
        %164 = "ttir.reshape"(%163) <{shape = [32 : i32, 1 : i32, 1 : i32]}> : (tensor<32x1xf32>) -> tensor<32x1x1xf32> loc(#loc159)
        %165 = "ttir.broadcast"(%164) <{broadcast_dimensions = array<i64: 1, 1, 896>}> : (tensor<32x1x1xf32>) -> tensor<32x1x896xf32> loc(#loc159)
        %166 = "ttir.multiply"(%156, %165) : (tensor<32x1x896xf32>, tensor<32x1x896xf32>) -> tensor<32x1x896xf32> loc(#loc160)
        %167 = "ttir.typecast"(%166) <{conservative_folding = false}> : (tensor<32x1x896xf32>) -> tensor<32x1x896xbf16> loc(#loc161)
        %168 = "ttir.multiply"(%155, %167) : (tensor<32x1x896xbf16>, tensor<32x1x896xbf16>) -> tensor<32x1x896xbf16> loc(#loc162)
        %169 = "ttir.reshape"(%168) <{shape = [32 : i32, 896 : i32]}> : (tensor<32x1x896xbf16>) -> tensor<32x896xbf16> loc(#loc163)
        %170 = "ttir.reshape"(%arg18) <{shape = [1 : i32, 4864 : i32, 896 : i32]}> : (tensor<4864x896xbf16>) -> tensor<1x4864x896xbf16> loc(#loc164)
        %171 = "ttir.reshape"(%170) <{shape = [4864 : i32, 896 : i32]}> : (tensor<1x4864x896xbf16>) -> tensor<4864x896xbf16> loc(#loc165)
        %172 = "ttir.permute"(%171) <{permutation = array<i64: 1, 0>}> : (tensor<4864x896xbf16>) -> tensor<896x4864xbf16> loc(#loc166)
        %173 = "ttir.dot_general"(%169, %172) <{batch_dims_lhs = array<i64>, batch_dims_rhs = array<i64>, contract_dims_lhs = array<i64: 1>, contract_dims_rhs = array<i64: 0>}> : (tensor<32x896xbf16>, tensor<896x4864xbf16>) -> tensor<32x4864xbf16> loc(#loc167)
        %174 = "ttir.reshape"(%173) <{shape = [32 : i32, 1 : i32, 4864 : i32]}> : (tensor<32x4864xbf16>) -> tensor<32x1x4864xbf16> loc(#loc168)
        %175 = "ttir.sigmoid"(%174) : (tensor<32x1x4864xbf16>) -> tensor<32x1x4864xbf16> loc(#loc169)
        %176 = "ttir.multiply"(%174, %175) : (tensor<32x1x4864xbf16>, tensor<32x1x4864xbf16>) -> tensor<32x1x4864xbf16> loc(#loc170)
        %177 = "ttir.reshape"(%arg13) <{shape = [1 : i32, 4864 : i32, 896 : i32]}> : (tensor<4864x896xbf16>) -> tensor<1x4864x896xbf16> loc(#loc171)
        %178 = "ttir.reshape"(%177) <{shape = [4864 : i32, 896 : i32]}> : (tensor<1x4864x896xbf16>) -> tensor<4864x896xbf16> loc(#loc172)
        %179 = "ttir.permute"(%178) <{permutation = array<i64: 1, 0>}> : (tensor<4864x896xbf16>) -> tensor<896x4864xbf16> loc(#loc173)
        %180 = "ttir.dot_general"(%169, %179) <{batch_dims_lhs = array<i64>, batch_dims_rhs = array<i64>, contract_dims_lhs = array<i64: 1>, contract_dims_rhs = array<i64: 0>}> : (tensor<32x896xbf16>, tensor<896x4864xbf16>) -> tensor<32x4864xbf16> loc(#loc174)
        %181 = "ttir.reshape"(%180) <{shape = [32 : i32, 1 : i32, 4864 : i32]}> : (tensor<32x4864xbf16>) -> tensor<32x1x4864xbf16> loc(#loc175)
        %182 = "ttir.multiply"(%176, %181) : (tensor<32x1x4864xbf16>, tensor<32x1x4864xbf16>) -> tensor<32x1x4864xbf16> loc(#loc176)
        %183 = "ttir.reshape"(%182) <{shape = [32 : i32, 4864 : i32]}> : (tensor<32x1x4864xbf16>) -> tensor<32x4864xbf16> loc(#loc177)
        %184 = "ttir.reshape"(%arg12) <{shape = [1 : i32, 896 : i32, 4864 : i32]}> : (tensor<896x4864xbf16>) -> tensor<1x896x4864xbf16> loc(#loc178)
        %185 = "ttir.reshape"(%184) <{shape = [896 : i32, 4864 : i32]}> : (tensor<1x896x4864xbf16>) -> tensor<896x4864xbf16> loc(#loc179)
        %186 = "ttir.permute"(%185) <{permutation = array<i64: 1, 0>}> : (tensor<896x4864xbf16>) -> tensor<4864x896xbf16> loc(#loc180)
        %187 = "ttir.dot_general"(%183, %186) <{batch_dims_lhs = array<i64>, batch_dims_rhs = array<i64>, contract_dims_lhs = array<i64: 1>, contract_dims_rhs = array<i64: 0>}> : (tensor<32x4864xbf16>, tensor<4864x896xbf16>) -> tensor<32x896xbf16> loc(#loc181)
        %188 = "ttir.reshape"(%187) <{shape = [32 : i32, 1 : i32, 896 : i32]}> : (tensor<32x896xbf16>) -> tensor<32x1x896xbf16> loc(#loc182)
        %189 = "ttir.add"(%151, %188) : (tensor<32x1x896xbf16>, tensor<32x1x896xbf16>) -> tensor<32x1x896xbf16> loc(#loc183)
        %190 = "ttir.typecast"(%189) <{conservative_folding = false}> : (tensor<32x1x896xbf16>) -> tensor<32x1x896xf32> loc(#loc184)
        %191 = "ttir.pow"(%190, %5) : (tensor<32x1x896xf32>, tensor<32x1x896xf32>) -> tensor<32x1x896xf32> loc(#loc185)
        %192 = "ttir.sum"(%191) <{dim_arg = [2 : i32], keep_dim = false}> : (tensor<32x1x896xf32>) -> tensor<32x1xf32> loc(#loc186)
        %193 = "ttir.multiply"(%192, %4) : (tensor<32x1xf32>, tensor<32x1xf32>) -> tensor<32x1xf32> loc(#loc187)
        %194 = "ttir.reshape"(%193) <{shape = [32 : i32, 1 : i32, 1 : i32]}> : (tensor<32x1xf32>) -> tensor<32x1x1xf32> loc(#loc188)
        %195 = "ttir.add"(%194, %3) : (tensor<32x1x1xf32>, tensor<32x1x1xf32>) -> tensor<32x1x1xf32> loc(#loc189)
        %196 = "ttir.rsqrt"(%195) : (tensor<32x1x1xf32>) -> tensor<32x1x1xf32> loc(#loc190)
        %197 = "ttir.reshape"(%196) <{shape = [32 : i32, 1 : i32]}> : (tensor<32x1x1xf32>) -> tensor<32x1xf32> loc(#loc191)
        %198 = "ttir.reshape"(%197) <{shape = [32 : i32, 1 : i32, 1 : i32]}> : (tensor<32x1xf32>) -> tensor<32x1x1xf32> loc(#loc192)
        %199 = "ttir.broadcast"(%198) <{broadcast_dimensions = array<i64: 1, 1, 896>}> : (tensor<32x1x1xf32>) -> tensor<32x1x896xf32> loc(#loc192)
        %200 = "ttir.multiply"(%190, %199) : (tensor<32x1x896xf32>, tensor<32x1x896xf32>) -> tensor<32x1x896xf32> loc(#loc193)
        %201 = "ttir.typecast"(%200) <{conservative_folding = false}> : (tensor<32x1x896xf32>) -> tensor<32x1x896xbf16> loc(#loc194)
        %202 = "ttir.multiply"(%91, %201) : (tensor<32x1x896xbf16>, tensor<32x1x896xbf16>) -> tensor<32x1x896xbf16> loc(#loc195)
        %203 = "ttir.reshape"(%202) <{shape = [32 : i32, 896 : i32]}> : (tensor<32x1x896xbf16>) -> tensor<32x896xbf16> loc(#loc196)
        %204 = "ttir.reshape"(%arg11) <{shape = [1 : i32, 151936 : i32, 896 : i32]}> : (tensor<151936x896xbf16>) -> tensor<1x151936x896xbf16> loc(#loc197)
        %205 = "ttir.reshape"(%204) <{shape = [151936 : i32, 896 : i32]}> : (tensor<1x151936x896xbf16>) -> tensor<151936x896xbf16> loc(#loc198)
        %206 = "ttir.permute"(%205) <{permutation = array<i64: 1, 0>}> : (tensor<151936x896xbf16>) -> tensor<896x151936xbf16> loc(#loc199)
        %207 = "ttir.dot_general"(%203, %206) <{batch_dims_lhs = array<i64>, batch_dims_rhs = array<i64>, contract_dims_lhs = array<i64: 1>, contract_dims_rhs = array<i64: 0>}> : (tensor<32x896xbf16>, tensor<896x151936xbf16>) -> tensor<32x151936xbf16> loc(#loc200)
        %208 = "ttir.reshape"(%207) <{shape = [32 : i32, 1 : i32, 151936 : i32]}> : (tensor<32x151936xbf16>) -> tensor<32x1x151936xbf16> loc(#loc201)
        return %74, %87, %208 : tensor<32x2x128x64xbf16>, tensor<32x2x128x64xbf16>, tensor<32x1x151936xbf16> loc(#loc)
      } loc(#loc)
    } loc(#loc)
  } loc(#loc)
} loc(#loc)
#loc = loc(unknown)
#loc21 = loc("reshape.4")
#loc22 = loc("reshape.6")
#loc23 = loc("compare.125")
#loc24 = loc("add.122")
#loc25 = loc("select.126")
#loc26 = loc("reshape.86")
#loc27 = loc("reshape.88")
#loc28 = loc("broadcast.89")
#loc29 = loc("reshape.50")
#loc30 = loc("reshape.52")
#loc31 = loc("reshape.45")
#loc32 = loc("reshape.48")
#loc33 = loc("convert.53")
#loc34 = loc("gather.54")
#loc35 = loc("reshape.55")
#loc36 = loc("convert.56")
#loc37 = loc("power.58")
#loc38 = loc("reduce.65")
#loc39 = loc("multiply.74")
#loc40 = loc("reshape.75")
#loc41 = loc("add.79")
#loc42 = loc("rsqrt.80")
#loc43 = loc("reshape.81")
#loc44 = loc("broadcast.82")
#loc45 = loc("multiply.83")
#loc46 = loc("convert.84")
#loc47 = loc("multiply.90")
#loc48 = loc("reshape.91")
#loc49 = loc("reshape.37")
#loc50 = loc("reshape.39")
#loc51 = loc("transpose.40")
#loc52 = loc("dot.92")
#loc53 = loc("reshape.93")
#loc54 = loc("reshape.33")
#loc55 = loc("reshape.35")
#loc56 = loc("broadcast.96")
#loc57 = loc("add.97")
#loc58 = loc("transpose.99")
#loc59 = loc("reshape.14")
#loc60 = loc("reshape.19")
#loc61 = loc("convert.20")
#loc62 = loc("convert.11")
#loc63 = loc("dot.23")
#loc64 = loc("transpose.24")
#loc65 = loc("concatenate.25")
#loc66 = loc("cosine.108")
#loc67 = loc("convert.111")
#loc68 = loc("reshape.113")
#loc69 = loc("broadcast.114")
#loc70 = loc("multiply.115")
#loc71 = loc("slice.101")
#loc72 = loc("negate.102")
#loc73 = loc("slice.100")
#loc74 = loc("concatenate.103")
#loc75 = loc("sine.26")
#loc76 = loc("convert.29")
#loc77 = loc("reshape.104")
#loc78 = loc("broadcast.105")
#loc79 = loc("multiply.106")
#loc80 = loc("add.118")
#loc81 = loc("scatter.135")
#loc82 = loc("reshape.143")
#loc83 = loc("reshape.145")
#loc84 = loc("transpose.146")
#loc85 = loc("dot.148")
#loc86 = loc("reshape.149")
#loc87 = loc("reshape.139")
#loc88 = loc("reshape.141")
#loc89 = loc("broadcast.152")
#loc90 = loc("add.153")
#loc91 = loc("transpose.155")
#loc92 = loc("scatter.172")
#loc93 = loc("reshape.402")
#loc94 = loc("reshape.404")
#loc95 = loc("broadcast.405")
#loc96 = loc("reshape.253")
#loc97 = loc("reshape.255")
#loc98 = loc("transpose.256")
#loc99 = loc("dot.258")
#loc100 = loc("reshape.259")
#loc101 = loc("reshape.249")
#loc102 = loc("reshape.251")
#loc103 = loc("broadcast.262")
#loc104 = loc("add.263")
#loc105 = loc("transpose.265")
#loc106 = loc("broadcast.274")
#loc107 = loc("multiply.275")
#loc108 = loc("slice.267")
#loc109 = loc("negate.268")
#loc110 = loc("slice.266")
#loc111 = loc("concatenate.269")
#loc112 = loc("broadcast.271")
#loc113 = loc("multiply.272")
#loc114 = loc("add.278")
#loc115 = loc("broadcast.243")
#loc116 = loc("reshape.244")
#loc117 = loc("transpose.245")
#loc118 = loc("dot.279")
#loc119 = loc("multiply.282")
#loc120 = loc("broadcast.216")
#loc121 = loc("compare.217")
#loc122 = loc("convert.218")
#loc123 = loc("multiply.224")
#loc124 = loc("reshape.225")
#loc125 = loc("broadcast.231")
#loc126 = loc("reshape.285")
#loc127 = loc("broadcast.286")
#loc128 = loc("add.287")
#loc129 = loc("convert.288")
#loc130 = loc("reduce.294")
#loc131 = loc("broadcast.295")
#loc132 = loc("subtract.296")
#loc133 = loc("exponential.297")
#loc134 = loc("reduce.303")
#loc135 = loc("broadcast.304")
#loc136 = loc("divide.305")
#loc137 = loc("convert.306")
#loc138 = loc("broadcast.209")
#loc139 = loc("reshape.210")
#loc140 = loc("dot.307")
#loc141 = loc("reshape.311")
#loc142 = loc("reshape.198")
#loc143 = loc("reshape.200")
#loc144 = loc("transpose.201")
#loc145 = loc("dot.312")
#loc146 = loc("reshape.313")
#loc147 = loc("add.316")
#loc148 = loc("reshape.347")
#loc149 = loc("reshape.349")
#loc150 = loc("broadcast.350")
#loc151 = loc("convert.317")
#loc152 = loc("power.319")
#loc153 = loc("reduce.326")
#loc154 = loc("multiply.335")
#loc155 = loc("reshape.336")
#loc156 = loc("add.340")
#loc157 = loc("rsqrt.341")
#loc158 = loc("reshape.342")
#loc159 = loc("broadcast.343")
#loc160 = loc("multiply.344")
#loc161 = loc("convert.345")
#loc162 = loc("multiply.351")
#loc163 = loc("reshape.360")
#loc164 = loc("reshape.356")
#loc165 = loc("reshape.358")
#loc166 = loc("transpose.359")
#loc167 = loc("dot.361")
#loc168 = loc("reshape.362")
#loc169 = loc("logistic.363")
#loc170 = loc("multiply.364")
#loc171 = loc("reshape.189")
#loc172 = loc("reshape.191")
#loc173 = loc("transpose.192")
#loc174 = loc("dot.353")
#loc175 = loc("reshape.354")
#loc176 = loc("multiply.365")
#loc177 = loc("reshape.366")
#loc178 = loc("reshape.184")
#loc179 = loc("reshape.186")
#loc180 = loc("transpose.187")
#loc181 = loc("dot.367")
#loc182 = loc("reshape.368")
#loc183 = loc("add.371")
#loc184 = loc("convert.372")
#loc185 = loc("power.374")
#loc186 = loc("reduce.381")
#loc187 = loc("multiply.390")
#loc188 = loc("reshape.391")
#loc189 = loc("add.395")
#loc190 = loc("rsqrt.396")
#loc191 = loc("reshape.397")
#loc192 = loc("broadcast.398")
#loc193 = loc("multiply.399")
#loc194 = loc("convert.400")
#loc195 = loc("multiply.406")
#loc196 = loc("reshape.410")
#loc197 = loc("reshape.175")
#loc198 = loc("reshape.177")
#loc199 = loc("transpose.178")
#loc200 = loc("dot.411")
#loc201 = loc("reshape.412")
