// -----// IR Dump After ConvertStableHLOToTTIR (convert-stablehlo-to-ttir) ('builtin.module' operation: @SyncTensorsGraph.7624) //----- //
module @SyncTensorsGraph.7624 attributes {mhlo.cross_program_prefetches = [], mhlo.input_output_alias = [], mhlo.is_dynamic = false, mhlo.use_auto_spmd_partitioning = false, ttcore.meshes = #ttcore.meshes<[<"mesh" = 1x1>]>} {
  func.func @main(%arg0: tensor<1024x3072xbf16> {ttcore.argument_type = #ttcore.argument_type<parameter>, ttcore.shard_status = #ttcore.shard_status<unsharded>, ttir.name = "l__self___model_layers__modules__0___self_attn_v_proj_weight"}, %arg1: tensor<f32> {ttcore.argument_type = #ttcore.argument_type<constant>, ttcore.shard_status = #ttcore.shard_status<unsharded>, ttir.name = "auto_annotated_const_0"}, %arg2: tensor<1x640xi64> {ttcore.argument_type = #ttcore.argument_type<input>, ttcore.shard_status = #ttcore.shard_status<unsharded>, ttir.name = "args_0"}, %arg3: tensor<128256x3072xbf16> {ttcore.argument_type = #ttcore.argument_type<parameter>, ttcore.shard_status = #ttcore.shard_status<unsharded>, ttir.name = "l__self___model_embed_tokens_weight"}, %arg4: tensor<3072xbf16> {ttcore.argument_type = #ttcore.argument_type<parameter>, ttcore.shard_status = #ttcore.shard_status<unsharded>, ttir.name = "l__self___model_layers__modules__0___input_layernorm_weight"}, %arg5: tensor<1024x3072xbf16> {ttcore.argument_type = #ttcore.argument_type<parameter>, ttcore.shard_status = #ttcore.shard_status<unsharded>, ttir.name = "l__self___model_layers__modules__1___self_attn_v_proj_weight"}, %arg6: tensor<3072x8192xbf16> {ttcore.argument_type = #ttcore.argument_type<parameter>, ttcore.shard_status = #ttcore.shard_status<unsharded>, ttir.name = "l__self___model_layers__modules__0___mlp_down_proj_weight"}, %arg7: tensor<8192x3072xbf16> {ttcore.argument_type = #ttcore.argument_type<parameter>, ttcore.shard_status = #ttcore.shard_status<unsharded>, ttir.name = "l__self___model_layers__modules__0___mlp_up_proj_weight"}, %arg8: tensor<3072x3072xbf16> {ttcore.argument_type = #ttcore.argument_type<parameter>, ttcore.shard_status = #ttcore.shard_status<unsharded>, ttir.name = "l__self___model_layers__modules__0___self_attn_o_proj_weight"}, %arg9: tensor<bf16> {ttcore.argument_type = #ttcore.argument_type<constant>, ttcore.shard_status = #ttcore.shard_status<unsharded>, ttir.name = "auto_annotated_const_1"}, %arg10: tensor<1x640xi64> {ttcore.argument_type = #ttcore.argument_type<input>, ttcore.shard_status = #ttcore.shard_status<unsharded>, ttir.name = "args_1"}, %arg11: tensor<f32> {ttcore.argument_type = #ttcore.argument_type<constant>, ttcore.shard_status = #ttcore.shard_status<unsharded>, ttir.name = "auto_annotated_const_2"}, %arg12: tensor<64xf32> {ttcore.argument_type = #ttcore.argument_type<constant>, ttcore.shard_status = #ttcore.shard_status<unsharded>, ttir.name = "l__self___model_rotary_emb_inv_freq"}, %arg13: tensor<1024x3072xbf16> {ttcore.argument_type = #ttcore.argument_type<parameter>, ttcore.shard_status = #ttcore.shard_status<unsharded>, ttir.name = "l__self___model_layers__modules__0___self_attn_k_proj_weight"}, %arg14: tensor<3072x3072xbf16> {ttcore.argument_type = #ttcore.argument_type<parameter>, ttcore.shard_status = #ttcore.shard_status<unsharded>, ttir.name = "l__self___model_layers__modules__0___self_attn_q_proj_weight"}, %arg15: tensor<3072xbf16> {ttcore.argument_type = #ttcore.argument_type<parameter>, ttcore.shard_status = #ttcore.shard_status<unsharded>, ttir.name = "l__self___model_layers__modules__0___post_attention_layernorm_weight"}, %arg16: tensor<8192x3072xbf16> {ttcore.argument_type = #ttcore.argument_type<parameter>, ttcore.shard_status = #ttcore.shard_status<unsharded>, ttir.name = "l__self___model_layers__modules__0___mlp_gate_proj_weight"}, %arg17: tensor<3072xbf16> {ttcore.argument_type = #ttcore.argument_type<parameter>, ttcore.shard_status = #ttcore.shard_status<unsharded>, ttir.name = "l__self___model_layers__modules__1___input_layernorm_weight"}, %arg18: tensor<1024x3072xbf16> {ttcore.argument_type = #ttcore.argument_type<parameter>, ttcore.shard_status = #ttcore.shard_status<unsharded>, ttir.name = "l__self___model_layers__modules__2___self_attn_v_proj_weight"}, %arg19: tensor<3072x8192xbf16> {ttcore.argument_type = #ttcore.argument_type<parameter>, ttcore.shard_status = #ttcore.shard_status<unsharded>, ttir.name = "l__self___model_layers__modules__1___mlp_down_proj_weight"}, %arg20: tensor<8192x3072xbf16> {ttcore.argument_type = #ttcore.argument_type<parameter>, ttcore.shard_status = #ttcore.shard_status<unsharded>, ttir.name = "l__self___model_layers__modules__1___mlp_up_proj_weight"}, %arg21: tensor<3072x3072xbf16> {ttcore.argument_type = #ttcore.argument_type<parameter>, ttcore.shard_status = #ttcore.shard_status<unsharded>, ttir.name = "l__self___model_layers__modules__1___self_attn_o_proj_weight"}, %arg22: tensor<1024x3072xbf16> {ttcore.argument_type = #ttcore.argument_type<parameter>, ttcore.shard_status = #ttcore.shard_status<unsharded>, ttir.name = "l__self___model_layers__modules__1___self_attn_k_proj_weight"}, %arg23: tensor<3072x3072xbf16> {ttcore.argument_type = #ttcore.argument_type<parameter>, ttcore.shard_status = #ttcore.shard_status<unsharded>, ttir.name = "l__self___model_layers__modules__1___self_attn_q_proj_weight"}, %arg24: tensor<3072xbf16> {ttcore.argument_type = #ttcore.argument_type<parameter>, ttcore.shard_status = #ttcore.shard_status<unsharded>, ttir.name = "l__self___model_layers__modules__1___post_attention_layernorm_weight"}, %arg25: tensor<8192x3072xbf16> {ttcore.argument_type = #ttcore.argument_type<parameter>, ttcore.shard_status = #ttcore.shard_status<unsharded>, ttir.name = "l__self___model_layers__modules__1___mlp_gate_proj_weight"}, %arg26: tensor<3072xbf16> {ttcore.argument_type = #ttcore.argument_type<parameter>, ttcore.shard_status = #ttcore.shard_status<unsharded>, ttir.name = "l__self___model_layers__modules__2___input_layernorm_weight"}, %arg27: tensor<1024x3072xbf16> {ttcore.argument_type = #ttcore.argument_type<parameter>, ttcore.shard_status = #ttcore.shard_status<unsharded>, ttir.name = "l__self___model_layers__modules__3___self_attn_v_proj_weight"}, %arg28: tensor<3072x8192xbf16> {ttcore.argument_type = #ttcore.argument_type<parameter>, ttcore.shard_status = #ttcore.shard_status<unsharded>, ttir.name = "l__self___model_layers__modules__2___mlp_down_proj_weight"}, %arg29: tensor<8192x3072xbf16> {ttcore.argument_type = #ttcore.argument_type<parameter>, ttcore.shard_status = #ttcore.shard_status<unsharded>, ttir.name = "l__self___model_layers__modules__2___mlp_up_proj_weight"}, %arg30: tensor<3072x3072xbf16> {ttcore.argument_type = #ttcore.argument_type<parameter>, ttcore.shard_status = #ttcore.shard_status<unsharded>, ttir.name = "l__self___model_layers__modules__2___self_attn_o_proj_weight"}, %arg31: tensor<1024x3072xbf16> {ttcore.argument_type = #ttcore.argument_type<parameter>, ttcore.shard_status = #ttcore.shard_status<unsharded>, ttir.name = "l__self___model_layers__modules__2___self_attn_k_proj_weight"}, %arg32: tensor<3072x3072xbf16> {ttcore.argument_type = #ttcore.argument_type<parameter>, ttcore.shard_status = #ttcore.shard_status<unsharded>, ttir.name = "l__self___model_layers__modules__2___self_attn_q_proj_weight"}, %arg33: tensor<3072xbf16> {ttcore.argument_type = #ttcore.argument_type<parameter>, ttcore.shard_status = #ttcore.shard_status<unsharded>, ttir.name = "l__self___model_layers__modules__2___post_attention_layernorm_weight"}, %arg34: tensor<8192x3072xbf16> {ttcore.argument_type = #ttcore.argument_type<parameter>, ttcore.shard_status = #ttcore.shard_status<unsharded>, ttir.name = "l__self___model_layers__modules__2___mlp_gate_proj_weight"}, %arg35: tensor<3072xbf16> {ttcore.argument_type = #ttcore.argument_type<parameter>, ttcore.shard_status = #ttcore.shard_status<unsharded>, ttir.name = "l__self___model_layers__modules__3___input_layernorm_weight"}, %arg36: tensor<1024x3072xbf16> {ttcore.argument_type = #ttcore.argument_type<parameter>, ttcore.shard_status = #ttcore.shard_status<unsharded>, ttir.name = "l__self___model_layers__modules__4___self_attn_v_proj_weight"}, %arg37: tensor<3072x8192xbf16> {ttcore.argument_type = #ttcore.argument_type<parameter>, ttcore.shard_status = #ttcore.shard_status<unsharded>, ttir.name = "l__self___model_layers__modules__3___mlp_down_proj_weight"}, %arg38: tensor<8192x3072xbf16> {ttcore.argument_type = #ttcore.argument_type<parameter>, ttcore.shard_status = #ttcore.shard_status<unsharded>, ttir.name = "l__self___model_layers__modules__3___mlp_up_proj_weight"}, %arg39: tensor<3072x3072xbf16> {ttcore.argument_type = #ttcore.argument_type<parameter>, ttcore.shard_status = #ttcore.shard_status<unsharded>, ttir.name = "l__self___model_layers__modules__3___self_attn_o_proj_weight"}, %arg40: tensor<1024x3072xbf16> {ttcore.argument_type = #ttcore.argument_type<parameter>, ttcore.shard_status = #ttcore.shard_status<unsharded>, ttir.name = "l__self___model_layers__modules__3___self_attn_k_proj_weight"}, %arg41: tensor<3072x3072xbf16> {ttcore.argument_type = #ttcore.argument_type<parameter>, ttcore.shard_status = #ttcore.shard_status<unsharded>, ttir.name = "l__self___model_layers__modules__3___self_attn_q_proj_weight"}, %arg42: tensor<3072xbf16> {ttcore.argument_type = #ttcore.argument_type<parameter>, ttcore.shard_status = #ttcore.shard_status<unsharded>, ttir.name = "l__self___model_layers__modules__3___post_attention_layernorm_weight"}, %arg43: tensor<8192x3072xbf16> {ttcore.argument_type = #ttcore.argument_type<parameter>, ttcore.shard_status = #ttcore.shard_status<unsharded>, ttir.name = "l__self___model_layers__modules__3___mlp_gate_proj_weight"}, %arg44: tensor<3072xbf16> {ttcore.argument_type = #ttcore.argument_type<parameter>, ttcore.shard_status = #ttcore.shard_status<unsharded>, ttir.name = "l__self___model_layers__modules__4___input_layernorm_weight"}, %arg45: tensor<1024x3072xbf16> {ttcore.argument_type = #ttcore.argument_type<parameter>, ttcore.shard_status = #ttcore.shard_status<unsharded>, ttir.name = "l__self___model_layers__modules__5___self_attn_v_proj_weight"}, %arg46: tensor<3072x8192xbf16> {ttcore.argument_type = #ttcore.argument_type<parameter>, ttcore.shard_status = #ttcore.shard_status<unsharded>, ttir.name = "l__self___model_layers__modules__4___mlp_down_proj_weight"}, %arg47: tensor<8192x3072xbf16> {ttcore.argument_type = #ttcore.argument_type<parameter>, ttcore.shard_status = #ttcore.shard_status<unsharded>, ttir.name = "l__self___model_layers__modules__4___mlp_up_proj_weight"}, %arg48: tensor<3072x3072xbf16> {ttcore.argument_type = #ttcore.argument_type<parameter>, ttcore.shard_status = #ttcore.shard_status<unsharded>, ttir.name = "l__self___model_layers__modules__4___self_attn_o_proj_weight"}, %arg49: tensor<1024x3072xbf16> {ttcore.argument_type = #ttcore.argument_type<parameter>, ttcore.shard_status = #ttcore.shard_status<unsharded>, ttir.name = "l__self___model_layers__modules__4___self_attn_k_proj_weight"}, %arg50: tensor<3072x3072xbf16> {ttcore.argument_type = #ttcore.argument_type<parameter>, ttcore.shard_status = #ttcore.shard_status<unsharded>, ttir.name = "l__self___model_layers__modules__4___self_attn_q_proj_weight"}, %arg51: tensor<3072xbf16> {ttcore.argument_type = #ttcore.argument_type<parameter>, ttcore.shard_status = #ttcore.shard_status<unsharded>, ttir.name = "l__self___model_layers__modules__4___post_attention_layernorm_weight"}, %arg52: tensor<8192x3072xbf16> {ttcore.argument_type = #ttcore.argument_type<parameter>, ttcore.shard_status = #ttcore.shard_status<unsharded>, ttir.name = "l__self___model_layers__modules__4___mlp_gate_proj_weight"}, %arg53: tensor<3072xbf16> {ttcore.argument_type = #ttcore.argument_type<parameter>, ttcore.shard_status = #ttcore.shard_status<unsharded>, ttir.name = "l__self___model_layers__modules__5___input_layernorm_weight"}, %arg54: tensor<1024x3072xbf16> {ttcore.argument_type = #ttcore.argument_type<parameter>, ttcore.shard_status = #ttcore.shard_status<unsharded>, ttir.name = "l__self___model_layers__modules__6___self_attn_v_proj_weight"}, %arg55: tensor<3072x8192xbf16> {ttcore.argument_type = #ttcore.argument_type<parameter>, ttcore.shard_status = #ttcore.shard_status<unsharded>, ttir.name = "l__self___model_layers__modules__5___mlp_down_proj_weight"}, %arg56: tensor<8192x3072xbf16> {ttcore.argument_type = #ttcore.argument_type<parameter>, ttcore.shard_status = #ttcore.shard_status<unsharded>, ttir.name = "l__self___model_layers__modules__5___mlp_up_proj_weight"}, %arg57: tensor<3072x3072xbf16> {ttcore.argument_type = #ttcore.argument_type<parameter>, ttcore.shard_status = #ttcore.shard_status<unsharded>, ttir.name = "l__self___model_layers__modules__5___self_attn_o_proj_weight"}, %arg58: tensor<1024x3072xbf16> {ttcore.argument_type = #ttcore.argument_type<parameter>, ttcore.shard_status = #ttcore.shard_status<unsharded>, ttir.name = "l__self___model_layers__modules__5___self_attn_k_proj_weight"}, %arg59: tensor<3072x3072xbf16> {ttcore.argument_type = #ttcore.argument_type<parameter>, ttcore.shard_status = #ttcore.shard_status<unsharded>, ttir.name = "l__self___model_layers__modules__5___self_attn_q_proj_weight"}, %arg60: tensor<3072xbf16> {ttcore.argument_type = #ttcore.argument_type<parameter>, ttcore.shard_status = #ttcore.shard_status<unsharded>, ttir.name = "l__self___model_layers__modules__5___post_attention_layernorm_weight"}, %arg61: tensor<8192x3072xbf16> {ttcore.argument_type = #ttcore.argument_type<parameter>, ttcore.shard_status = #ttcore.shard_status<unsharded>, ttir.name = "l__self___model_layers__modules__5___mlp_gate_proj_weight"}, %arg62: tensor<3072xbf16> {ttcore.argument_type = #ttcore.argument_type<parameter>, ttcore.shard_status = #ttcore.shard_status<unsharded>, ttir.name = "l__self___model_layers__modules__6___input_layernorm_weight"}, %arg63: tensor<1024x3072xbf16> {ttcore.argument_type = #ttcore.argument_type<parameter>, ttcore.shard_status = #ttcore.shard_status<unsharded>, ttir.name = "l__self___model_layers__modules__7___self_attn_v_proj_weight"}, %arg64: tensor<3072x8192xbf16> {ttcore.argument_type = #ttcore.argument_type<parameter>, ttcore.shard_status = #ttcore.shard_status<unsharded>, ttir.name = "l__self___model_layers__modules__6___mlp_down_proj_weight"}, %arg65: tensor<8192x3072xbf16> {ttcore.argument_type = #ttcore.argument_type<parameter>, ttcore.shard_status = #ttcore.shard_status<unsharded>, ttir.name = "l__self___model_layers__modules__6___mlp_up_proj_weight"}, %arg66: tensor<3072x3072xbf16> {ttcore.argument_type = #ttcore.argument_type<parameter>, ttcore.shard_status = #ttcore.shard_status<unsharded>, ttir.name = "l__self___model_layers__modules__6___self_attn_o_proj_weight"}, %arg67: tensor<1024x3072xbf16> {ttcore.argument_type = #ttcore.argument_type<parameter>, ttcore.shard_status = #ttcore.shard_status<unsharded>, ttir.name = "l__self___model_layers__modules__6___self_attn_k_proj_weight"}, %arg68: tensor<3072x3072xbf16> {ttcore.argument_type = #ttcore.argument_type<parameter>, ttcore.shard_status = #ttcore.shard_status<unsharded>, ttir.name = "l__self___model_layers__modules__6___self_attn_q_proj_weight"}, %arg69: tensor<3072xbf16> {ttcore.argument_type = #ttcore.argument_type<parameter>, ttcore.shard_status = #ttcore.shard_status<unsharded>, ttir.name = "l__self___model_layers__modules__6___post_attention_layernorm_weight"}, %arg70: tensor<8192x3072xbf16> {ttcore.argument_type = #ttcore.argument_type<parameter>, ttcore.shard_status = #ttcore.shard_status<unsharded>, ttir.name = "l__self___model_layers__modules__6___mlp_gate_proj_weight"}, %arg71: tensor<3072xbf16> {ttcore.argument_type = #ttcore.argument_type<parameter>, ttcore.shard_status = #ttcore.shard_status<unsharded>, ttir.name = "l__self___model_layers__modules__7___input_layernorm_weight"}, %arg72: tensor<1024x3072xbf16> {ttcore.argument_type = #ttcore.argument_type<parameter>, ttcore.shard_status = #ttcore.shard_status<unsharded>, ttir.name = "l__self___model_layers__modules__8___self_attn_v_proj_weight"}, %arg73: tensor<3072x8192xbf16> {ttcore.argument_type = #ttcore.argument_type<parameter>, ttcore.shard_status = #ttcore.shard_status<unsharded>, ttir.name = "l__self___model_layers__modules__7___mlp_down_proj_weight"}, %arg74: tensor<8192x3072xbf16> {ttcore.argument_type = #ttcore.argument_type<parameter>, ttcore.shard_status = #ttcore.shard_status<unsharded>, ttir.name = "l__self___model_layers__modules__7___mlp_up_proj_weight"}, %arg75: tensor<3072x3072xbf16> {ttcore.argument_type = #ttcore.argument_type<parameter>, ttcore.shard_status = #ttcore.shard_status<unsharded>, ttir.name = "l__self___model_layers__modules__7___self_attn_o_proj_weight"}, %arg76: tensor<1024x3072xbf16> {ttcore.argument_type = #ttcore.argument_type<parameter>, ttcore.shard_status = #ttcore.shard_status<unsharded>, ttir.name = "l__self___model_layers__modules__7___self_attn_k_proj_weight"}, %arg77: tensor<3072x3072xbf16> {ttcore.argument_type = #ttcore.argument_type<parameter>, ttcore.shard_status = #ttcore.shard_status<unsharded>, ttir.name = "l__self___model_layers__modules__7___self_attn_q_proj_weight"}, %arg78: tensor<3072xbf16> {ttcore.argument_type = #ttcore.argument_type<parameter>, ttcore.shard_status = #ttcore.shard_status<unsharded>, ttir.name = "l__self___model_layers__modules__7___post_attention_layernorm_weight"}, %arg79: tensor<8192x3072xbf16> {ttcore.argument_type = #ttcore.argument_type<parameter>, ttcore.shard_status = #ttcore.shard_status<unsharded>, ttir.name = "l__self___model_layers__modules__7___mlp_gate_proj_weight"}, %arg80: tensor<3072xbf16> {ttcore.argument_type = #ttcore.argument_type<parameter>, ttcore.shard_status = #ttcore.shard_status<unsharded>, ttir.name = "l__self___model_layers__modules__8___input_layernorm_weight"}, %arg81: tensor<1024x3072xbf16> {ttcore.argument_type = #ttcore.argument_type<parameter>, ttcore.shard_status = #ttcore.shard_status<unsharded>, ttir.name = "l__self___model_layers__modules__9___self_attn_v_proj_weight"}, %arg82: tensor<3072x8192xbf16> {ttcore.argument_type = #ttcore.argument_type<parameter>, ttcore.shard_status = #ttcore.shard_status<unsharded>, ttir.name = "l__self___model_layers__modules__8___mlp_down_proj_weight"}, %arg83: tensor<8192x3072xbf16> {ttcore.argument_type = #ttcore.argument_type<parameter>, ttcore.shard_status = #ttcore.shard_status<unsharded>, ttir.name = "l__self___model_layers__modules__8___mlp_up_proj_weight"}, %arg84: tensor<3072x3072xbf16> {ttcore.argument_type = #ttcore.argument_type<parameter>, ttcore.shard_status = #ttcore.shard_status<unsharded>, ttir.name = "l__self___model_layers__modules__8___self_attn_o_proj_weight"}, %arg85: tensor<1024x3072xbf16> {ttcore.argument_type = #ttcore.argument_type<parameter>, ttcore.shard_status = #ttcore.shard_status<unsharded>, ttir.name = "l__self___model_layers__modules__8___self_attn_k_proj_weight"}, %arg86: tensor<3072x3072xbf16> {ttcore.argument_type = #ttcore.argument_type<parameter>, ttcore.shard_status = #ttcore.shard_status<unsharded>, ttir.name = "l__self___model_layers__modules__8___self_attn_q_proj_weight"}, %arg87: tensor<3072xbf16> {ttcore.argument_type = #ttcore.argument_type<parameter>, ttcore.shard_status = #ttcore.shard_status<unsharded>, ttir.name = "l__self___model_layers__modules__8___post_attention_layernorm_weight"}, %arg88: tensor<8192x3072xbf16> {ttcore.argument_type = #ttcore.argument_type<parameter>, ttcore.shard_status = #ttcore.shard_status<unsharded>, ttir.name = "l__self___model_layers__modules__8___mlp_gate_proj_weight"}, %arg89: tensor<3072xbf16> {ttcore.argument_type = #ttcore.argument_type<parameter>, ttcore.shard_status = #ttcore.shard_status<unsharded>, ttir.name = "l__self___model_layers__modules__9___input_layernorm_weight"}, %arg90: tensor<1024x3072xbf16> {ttcore.argument_type = #ttcore.argument_type<parameter>, ttcore.shard_status = #ttcore.shard_status<unsharded>, ttir.name = "l__self___model_layers__modules__10___self_attn_v_proj_weight"}, %arg91: tensor<3072x8192xbf16> {ttcore.argument_type = #ttcore.argument_type<parameter>, ttcore.shard_status = #ttcore.shard_status<unsharded>, ttir.name = "l__self___model_layers__modules__9___mlp_down_proj_weight"}, %arg92: tensor<8192x3072xbf16> {ttcore.argument_type = #ttcore.argument_type<parameter>, ttcore.shard_status = #ttcore.shard_status<unsharded>, ttir.name = "l__self___model_layers__modules__9___mlp_up_proj_weight"}, %arg93: tensor<3072x3072xbf16> {ttcore.argument_type = #ttcore.argument_type<parameter>, ttcore.shard_status = #ttcore.shard_status<unsharded>, ttir.name = "l__self___model_layers__modules__9___self_attn_o_proj_weight"}, %arg94: tensor<1024x3072xbf16> {ttcore.argument_type = #ttcore.argument_type<parameter>, ttcore.shard_status = #ttcore.shard_status<unsharded>, ttir.name = "l__self___model_layers__modules__9___self_attn_k_proj_weight"}, %arg95: tensor<3072x3072xbf16> {ttcore.argument_type = #ttcore.argument_type<parameter>, ttcore.shard_status = #ttcore.shard_status<unsharded>, ttir.name = "l__self___model_layers__modules__9___self_attn_q_proj_weight"}, %arg96: tensor<3072xbf16> {ttcore.argument_type = #ttcore.argument_type<parameter>, ttcore.shard_status = #ttcore.shard_status<unsharded>, ttir.name = "l__self___model_layers__modules__9___post_attention_layernorm_weight"}, %arg97: tensor<8192x3072xbf16> {ttcore.argument_type = #ttcore.argument_type<parameter>, ttcore.shard_status = #ttcore.shard_status<unsharded>, ttir.name = "l__self___model_layers__modules__9___mlp_gate_proj_weight"}, %arg98: tensor<3072xbf16> {ttcore.argument_type = #ttcore.argument_type<parameter>, ttcore.shard_status = #ttcore.shard_status<unsharded>, ttir.name = "l__self___model_layers__modules__10___input_layernorm_weight"}, %arg99: tensor<1024x3072xbf16> {ttcore.argument_type = #ttcore.argument_type<parameter>, ttcore.shard_status = #ttcore.shard_status<unsharded>, ttir.name = "l__self___model_layers__modules__11___self_attn_v_proj_weight"}, %arg100: tensor<3072x8192xbf16> {ttcore.argument_type = #ttcore.argument_type<parameter>, ttcore.shard_status = #ttcore.shard_status<unsharded>, ttir.name = "l__self___model_layers__modules__10___mlp_down_proj_weight"}, %arg101: tensor<8192x3072xbf16> {ttcore.argument_type = #ttcore.argument_type<parameter>, ttcore.shard_status = #ttcore.shard_status<unsharded>, ttir.name = "l__self___model_layers__modules__10___mlp_up_proj_weight"}, %arg102: tensor<3072x3072xbf16> {ttcore.argument_type = #ttcore.argument_type<parameter>, ttcore.shard_status = #ttcore.shard_status<unsharded>, ttir.name = "l__self___model_layers__modules__10___self_attn_o_proj_weight"}, %arg103: tensor<1024x3072xbf16> {ttcore.argument_type = #ttcore.argument_type<parameter>, ttcore.shard_status = #ttcore.shard_status<unsharded>, ttir.name = "l__self___model_layers__modules__10___self_attn_k_proj_weight"}, %arg104: tensor<3072x3072xbf16> {ttcore.argument_type = #ttcore.argument_type<parameter>, ttcore.shard_status = #ttcore.shard_status<unsharded>, ttir.name = "l__self___model_layers__modules__10___self_attn_q_proj_weight"}, %arg105: tensor<3072xbf16> {ttcore.argument_type = #ttcore.argument_type<parameter>, ttcore.shard_status = #ttcore.shard_status<unsharded>, ttir.name = "l__self___model_layers__modules__10___post_attention_layernorm_weight"}, %arg106: tensor<8192x3072xbf16> {ttcore.argument_type = #ttcore.argument_type<parameter>, ttcore.shard_status = #ttcore.shard_status<unsharded>, ttir.name = "l__self___model_layers__modules__10___mlp_gate_proj_weight"}, %arg107: tensor<3072xbf16> {ttcore.argument_type = #ttcore.argument_type<parameter>, ttcore.shard_status = #ttcore.shard_status<unsharded>, ttir.name = "l__self___model_layers__modules__11___input_layernorm_weight"}, %arg108: tensor<1024x3072xbf16> {ttcore.argument_type = #ttcore.argument_type<parameter>, ttcore.shard_status = #ttcore.shard_status<unsharded>, ttir.name = "l__self___model_layers__modules__12___self_attn_v_proj_weight"}, %arg109: tensor<3072x8192xbf16> {ttcore.argument_type = #ttcore.argument_type<parameter>, ttcore.shard_status = #ttcore.shard_status<unsharded>, ttir.name = "l__self___model_layers__modules__11___mlp_down_proj_weight"}, %arg110: tensor<8192x3072xbf16> {ttcore.argument_type = #ttcore.argument_type<parameter>, ttcore.shard_status = #ttcore.shard_status<unsharded>, ttir.name = "l__self___model_layers__modules__11___mlp_up_proj_weight"}, %arg111: tensor<3072x3072xbf16> {ttcore.argument_type = #ttcore.argument_type<parameter>, ttcore.shard_status = #ttcore.shard_status<unsharded>, ttir.name = "l__self___model_layers__modules__11___self_attn_o_proj_weight"}, %arg112: tensor<1024x3072xbf16> {ttcore.argument_type = #ttcore.argument_type<parameter>, ttcore.shard_status = #ttcore.shard_status<unsharded>, ttir.name = "l__self___model_layers__modules__11___self_attn_k_proj_weight"}, %arg113: tensor<3072x3072xbf16> {ttcore.argument_type = #ttcore.argument_type<parameter>, ttcore.shard_status = #ttcore.shard_status<unsharded>, ttir.name = "l__self___model_layers__modules__11___self_attn_q_proj_weight"}, %arg114: tensor<3072xbf16> {ttcore.argument_type = #ttcore.argument_type<parameter>, ttcore.shard_status = #ttcore.shard_status<unsharded>, ttir.name = "l__self___model_layers__modules__11___post_attention_layernorm_weight"}, %arg115: tensor<8192x3072xbf16> {ttcore.argument_type = #ttcore.argument_type<parameter>, ttcore.shard_status = #ttcore.shard_status<unsharded>, ttir.name = "l__self___model_layers__modules__11___mlp_gate_proj_weight"}, %arg116: tensor<3072xbf16> {ttcore.argument_type = #ttcore.argument_type<parameter>, ttcore.shard_status = #ttcore.shard_status<unsharded>, ttir.name = "l__self___model_layers__modules__12___input_layernorm_weight"}, %arg117: tensor<1024x3072xbf16> {ttcore.argument_type = #ttcore.argument_type<parameter>, ttcore.shard_status = #ttcore.shard_status<unsharded>, ttir.name = "l__self___model_layers__modules__13___self_attn_v_proj_weight"}, %arg118: tensor<3072x8192xbf16> {ttcore.argument_type = #ttcore.argument_type<parameter>, ttcore.shard_status = #ttcore.shard_status<unsharded>, ttir.name = "l__self___model_layers__modules__12___mlp_down_proj_weight"}, %arg119: tensor<8192x3072xbf16> {ttcore.argument_type = #ttcore.argument_type<parameter>, ttcore.shard_status = #ttcore.shard_status<unsharded>, ttir.name = "l__self___model_layers__modules__12___mlp_up_proj_weight"}, %arg120: tensor<3072x3072xbf16> {ttcore.argument_type = #ttcore.argument_type<parameter>, ttcore.shard_status = #ttcore.shard_status<unsharded>, ttir.name = "l__self___model_layers__modules__12___self_attn_o_proj_weight"}, %arg121: tensor<1024x3072xbf16> {ttcore.argument_type = #ttcore.argument_type<parameter>, ttcore.shard_status = #ttcore.shard_status<unsharded>, ttir.name = "l__self___model_layers__modules__12___self_attn_k_proj_weight"}, %arg122: tensor<3072x3072xbf16> {ttcore.argument_type = #ttcore.argument_type<parameter>, ttcore.shard_status = #ttcore.shard_status<unsharded>, ttir.name = "l__self___model_layers__modules__12___self_attn_q_proj_weight"}, %arg123: tensor<3072xbf16> {ttcore.argument_type = #ttcore.argument_type<parameter>, ttcore.shard_status = #ttcore.shard_status<unsharded>, ttir.name = "l__self___model_layers__modules__12___post_attention_layernorm_weight"}, %arg124: tensor<8192x3072xbf16> {ttcore.argument_type = #ttcore.argument_type<parameter>, ttcore.shard_status = #ttcore.shard_status<unsharded>, ttir.name = "l__self___model_layers__modules__12___mlp_gate_proj_weight"}, %arg125: tensor<3072xbf16> {ttcore.argument_type = #ttcore.argument_type<parameter>, ttcore.shard_status = #ttcore.shard_status<unsharded>, ttir.name = "l__self___model_layers__modules__13___input_layernorm_weight"}, %arg126: tensor<1024x3072xbf16> {ttcore.argument_type = #ttcore.argument_type<parameter>, ttcore.shard_status = #ttcore.shard_status<unsharded>, ttir.name = "l__self___model_layers__modules__14___self_attn_v_proj_weight"}, %arg127: tensor<3072x8192xbf16> {ttcore.argument_type = #ttcore.argument_type<parameter>, ttcore.shard_status = #ttcore.shard_status<unsharded>, ttir.name = "l__self___model_layers__modules__13___mlp_down_proj_weight"}, %arg128: tensor<8192x3072xbf16> {ttcore.argument_type = #ttcore.argument_type<parameter>, ttcore.shard_status = #ttcore.shard_status<unsharded>, ttir.name = "l__self___model_layers__modules__13___mlp_up_proj_weight"}, %arg129: tensor<3072x3072xbf16> {ttcore.argument_type = #ttcore.argument_type<parameter>, ttcore.shard_status = #ttcore.shard_status<unsharded>, ttir.name = "l__self___model_layers__modules__13___self_attn_o_proj_weight"}, %arg130: tensor<1024x3072xbf16> {ttcore.argument_type = #ttcore.argument_type<parameter>, ttcore.shard_status = #ttcore.shard_status<unsharded>, ttir.name = "l__self___model_layers__modules__13___self_attn_k_proj_weight"}, %arg131: tensor<3072x3072xbf16> {ttcore.argument_type = #ttcore.argument_type<parameter>, ttcore.shard_status = #ttcore.shard_status<unsharded>, ttir.name = "l__self___model_layers__modules__13___self_attn_q_proj_weight"}, %arg132: tensor<3072xbf16> {ttcore.argument_type = #ttcore.argument_type<parameter>, ttcore.shard_status = #ttcore.shard_status<unsharded>, ttir.name = "l__self___model_layers__modules__13___post_attention_layernorm_weight"}, %arg133: tensor<8192x3072xbf16> {ttcore.argument_type = #ttcore.argument_type<parameter>, ttcore.shard_status = #ttcore.shard_status<unsharded>, ttir.name = "l__self___model_layers__modules__13___mlp_gate_proj_weight"}, %arg134: tensor<3072xbf16> {ttcore.argument_type = #ttcore.argument_type<parameter>, ttcore.shard_status = #ttcore.shard_status<unsharded>, ttir.name = "l__self___model_layers__modules__14___input_layernorm_weight"}, %arg135: tensor<1024x3072xbf16> {ttcore.argument_type = #ttcore.argument_type<parameter>, ttcore.shard_status = #ttcore.shard_status<unsharded>, ttir.name = "l__self___model_layers__modules__15___self_attn_v_proj_weight"}, %arg136: tensor<3072x8192xbf16> {ttcore.argument_type = #ttcore.argument_type<parameter>, ttcore.shard_status = #ttcore.shard_status<unsharded>, ttir.name = "l__self___model_layers__modules__14___mlp_down_proj_weight"}, %arg137: tensor<8192x3072xbf16> {ttcore.argument_type = #ttcore.argument_type<parameter>, ttcore.shard_status = #ttcore.shard_status<unsharded>, ttir.name = "l__self___model_layers__modules__14___mlp_up_proj_weight"}, %arg138: tensor<3072x3072xbf16> {ttcore.argument_type = #ttcore.argument_type<parameter>, ttcore.shard_status = #ttcore.shard_status<unsharded>, ttir.name = "l__self___model_layers__modules__14___self_attn_o_proj_weight"}, %arg139: tensor<1024x3072xbf16> {ttcore.argument_type = #ttcore.argument_type<parameter>, ttcore.shard_status = #ttcore.shard_status<unsharded>, ttir.name = "l__self___model_layers__modules__14___self_attn_k_proj_weight"}, %arg140: tensor<3072x3072xbf16> {ttcore.argument_type = #ttcore.argument_type<parameter>, ttcore.shard_status = #ttcore.shard_status<unsharded>, ttir.name = "l__self___model_layers__modules__14___self_attn_q_proj_weight"}, %arg141: tensor<3072xbf16> {ttcore.argument_type = #ttcore.argument_type<parameter>, ttcore.shard_status = #ttcore.shard_status<unsharded>, ttir.name = "l__self___model_layers__modules__14___post_attention_layernorm_weight"}, %arg142: tensor<8192x3072xbf16> {ttcore.argument_type = #ttcore.argument_type<parameter>, ttcore.shard_status = #ttcore.shard_status<unsharded>, ttir.name = "l__self___model_layers__modules__14___mlp_gate_proj_weight"}, %arg143: tensor<3072xbf16> {ttcore.argument_type = #ttcore.argument_type<parameter>, ttcore.shard_status = #ttcore.shard_status<unsharded>, ttir.name = "l__self___model_layers__modules__15___input_layernorm_weight"}, %arg144: tensor<1024x3072xbf16> {ttcore.argument_type = #ttcore.argument_type<parameter>, ttcore.shard_status = #ttcore.shard_status<unsharded>, ttir.name = "l__self___model_layers__modules__16___self_attn_v_proj_weight"}, %arg145: tensor<3072x8192xbf16> {ttcore.argument_type = #ttcore.argument_type<parameter>, ttcore.shard_status = #ttcore.shard_status<unsharded>, ttir.name = "l__self___model_layers__modules__15___mlp_down_proj_weight"}, %arg146: tensor<8192x3072xbf16> {ttcore.argument_type = #ttcore.argument_type<parameter>, ttcore.shard_status = #ttcore.shard_status<unsharded>, ttir.name = "l__self___model_layers__modules__15___mlp_up_proj_weight"}, %arg147: tensor<3072x3072xbf16> {ttcore.argument_type = #ttcore.argument_type<parameter>, ttcore.shard_status = #ttcore.shard_status<unsharded>, ttir.name = "l__self___model_layers__modules__15___self_attn_o_proj_weight"}, %arg148: tensor<1024x3072xbf16> {ttcore.argument_type = #ttcore.argument_type<parameter>, ttcore.shard_status = #ttcore.shard_status<unsharded>, ttir.name = "l__self___model_layers__modules__15___self_attn_k_proj_weight"}, %arg149: tensor<3072x3072xbf16> {ttcore.argument_type = #ttcore.argument_type<parameter>, ttcore.shard_status = #ttcore.shard_status<unsharded>, ttir.name = "l__self___model_layers__modules__15___self_attn_q_proj_weight"}, %arg150: tensor<3072xbf16> {ttcore.argument_type = #ttcore.argument_type<parameter>, ttcore.shard_status = #ttcore.shard_status<unsharded>, ttir.name = "l__self___model_layers__modules__15___post_attention_layernorm_weight"}, %arg151: tensor<8192x3072xbf16> {ttcore.argument_type = #ttcore.argument_type<parameter>, ttcore.shard_status = #ttcore.shard_status<unsharded>, ttir.name = "l__self___model_layers__modules__15___mlp_gate_proj_weight"}, %arg152: tensor<3072xbf16> {ttcore.argument_type = #ttcore.argument_type<parameter>, ttcore.shard_status = #ttcore.shard_status<unsharded>, ttir.name = "l__self___model_layers__modules__16___input_layernorm_weight"}, %arg153: tensor<1024x3072xbf16> {ttcore.argument_type = #ttcore.argument_type<parameter>, ttcore.shard_status = #ttcore.shard_status<unsharded>, ttir.name = "l__self___model_layers__modules__17___self_attn_v_proj_weight"}, %arg154: tensor<3072x8192xbf16> {ttcore.argument_type = #ttcore.argument_type<parameter>, ttcore.shard_status = #ttcore.shard_status<unsharded>, ttir.name = "l__self___model_layers__modules__16___mlp_down_proj_weight"}, %arg155: tensor<8192x3072xbf16> {ttcore.argument_type = #ttcore.argument_type<parameter>, ttcore.shard_status = #ttcore.shard_status<unsharded>, ttir.name = "l__self___model_layers__modules__16___mlp_up_proj_weight"}, %arg156: tensor<3072x3072xbf16> {ttcore.argument_type = #ttcore.argument_type<parameter>, ttcore.shard_status = #ttcore.shard_status<unsharded>, ttir.name = "l__self___model_layers__modules__16___self_attn_o_proj_weight"}, %arg157: tensor<1024x3072xbf16> {ttcore.argument_type = #ttcore.argument_type<parameter>, ttcore.shard_status = #ttcore.shard_status<unsharded>, ttir.name = "l__self___model_layers__modules__16___self_attn_k_proj_weight"}, %arg158: tensor<3072x3072xbf16> {ttcore.argument_type = #ttcore.argument_type<parameter>, ttcore.shard_status = #ttcore.shard_status<unsharded>, ttir.name = "l__self___model_layers__modules__16___self_attn_q_proj_weight"}, %arg159: tensor<3072xbf16> {ttcore.argument_type = #ttcore.argument_type<parameter>, ttcore.shard_status = #ttcore.shard_status<unsharded>, ttir.name = "l__self___model_layers__modules__16___post_attention_layernorm_weight"}, %arg160: tensor<8192x3072xbf16> {ttcore.argument_type = #ttcore.argument_type<parameter>, ttcore.shard_status = #ttcore.shard_status<unsharded>, ttir.name = "l__self___model_layers__modules__16___mlp_gate_proj_weight"}, %arg161: tensor<3072xbf16> {ttcore.argument_type = #ttcore.argument_type<parameter>, ttcore.shard_status = #ttcore.shard_status<unsharded>, ttir.name = "l__self___model_layers__modules__17___input_layernorm_weight"}, %arg162: tensor<1024x3072xbf16> {ttcore.argument_type = #ttcore.argument_type<parameter>, ttcore.shard_status = #ttcore.shard_status<unsharded>, ttir.name = "l__self___model_layers__modules__18___self_attn_v_proj_weight"}, %arg163: tensor<3072x8192xbf16> {ttcore.argument_type = #ttcore.argument_type<parameter>, ttcore.shard_status = #ttcore.shard_status<unsharded>, ttir.name = "l__self___model_layers__modules__17___mlp_down_proj_weight"}, %arg164: tensor<8192x3072xbf16> {ttcore.argument_type = #ttcore.argument_type<parameter>, ttcore.shard_status = #ttcore.shard_status<unsharded>, ttir.name = "l__self___model_layers__modules__17___mlp_up_proj_weight"}, %arg165: tensor<3072x3072xbf16> {ttcore.argument_type = #ttcore.argument_type<parameter>, ttcore.shard_status = #ttcore.shard_status<unsharded>, ttir.name = "l__self___model_layers__modules__17___self_attn_o_proj_weight"}, %arg166: tensor<1024x3072xbf16> {ttcore.argument_type = #ttcore.argument_type<parameter>, ttcore.shard_status = #ttcore.shard_status<unsharded>, ttir.name = "l__self___model_layers__modules__17___self_attn_k_proj_weight"}, %arg167: tensor<3072x3072xbf16> {ttcore.argument_type = #ttcore.argument_type<parameter>, ttcore.shard_status = #ttcore.shard_status<unsharded>, ttir.name = "l__self___model_layers__modules__17___self_attn_q_proj_weight"}, %arg168: tensor<3072xbf16> {ttcore.argument_type = #ttcore.argument_type<parameter>, ttcore.shard_status = #ttcore.shard_status<unsharded>, ttir.name = "l__self___model_layers__modules__17___post_attention_layernorm_weight"}, %arg169: tensor<8192x3072xbf16> {ttcore.argument_type = #ttcore.argument_type<parameter>, ttcore.shard_status = #ttcore.shard_status<unsharded>, ttir.name = "l__self___model_layers__modules__17___mlp_gate_proj_weight"}, %arg170: tensor<3072xbf16> {ttcore.argument_type = #ttcore.argument_type<parameter>, ttcore.shard_status = #ttcore.shard_status<unsharded>, ttir.name = "l__self___model_layers__modules__18___input_layernorm_weight"}, %arg171: tensor<1024x3072xbf16> {ttcore.argument_type = #ttcore.argument_type<parameter>, ttcore.shard_status = #ttcore.shard_status<unsharded>, ttir.name = "l__self___model_layers__modules__19___self_attn_v_proj_weight"}, %arg172: tensor<3072x8192xbf16> {ttcore.argument_type = #ttcore.argument_type<parameter>, ttcore.shard_status = #ttcore.shard_status<unsharded>, ttir.name = "l__self___model_layers__modules__18___mlp_down_proj_weight"}, %arg173: tensor<8192x3072xbf16> {ttcore.argument_type = #ttcore.argument_type<parameter>, ttcore.shard_status = #ttcore.shard_status<unsharded>, ttir.name = "l__self___model_layers__modules__18___mlp_up_proj_weight"}, %arg174: tensor<3072x3072xbf16> {ttcore.argument_type = #ttcore.argument_type<parameter>, ttcore.shard_status = #ttcore.shard_status<unsharded>, ttir.name = "l__self___model_layers__modules__18___self_attn_o_proj_weight"}, %arg175: tensor<1024x3072xbf16> {ttcore.argument_type = #ttcore.argument_type<parameter>, ttcore.shard_status = #ttcore.shard_status<unsharded>, ttir.name = "l__self___model_layers__modules__18___self_attn_k_proj_weight"}, %arg176: tensor<3072x3072xbf16> {ttcore.argument_type = #ttcore.argument_type<parameter>, ttcore.shard_status = #ttcore.shard_status<unsharded>, ttir.name = "l__self___model_layers__modules__18___self_attn_q_proj_weight"}, %arg177: tensor<3072xbf16> {ttcore.argument_type = #ttcore.argument_type<parameter>, ttcore.shard_status = #ttcore.shard_status<unsharded>, ttir.name = "l__self___model_layers__modules__18___post_attention_layernorm_weight"}, %arg178: tensor<8192x3072xbf16> {ttcore.argument_type = #ttcore.argument_type<parameter>, ttcore.shard_status = #ttcore.shard_status<unsharded>, ttir.name = "l__self___model_layers__modules__18___mlp_gate_proj_weight"}, %arg179: tensor<3072xbf16> {ttcore.argument_type = #ttcore.argument_type<parameter>, ttcore.shard_status = #ttcore.shard_status<unsharded>, ttir.name = "l__self___model_layers__modules__19___input_layernorm_weight"}, %arg180: tensor<1024x3072xbf16> {ttcore.argument_type = #ttcore.argument_type<parameter>, ttcore.shard_status = #ttcore.shard_status<unsharded>, ttir.name = "l__self___model_layers__modules__20___self_attn_v_proj_weight"}, %arg181: tensor<3072x8192xbf16> {ttcore.argument_type = #ttcore.argument_type<parameter>, ttcore.shard_status = #ttcore.shard_status<unsharded>, ttir.name = "l__self___model_layers__modules__19___mlp_down_proj_weight"}, %arg182: tensor<8192x3072xbf16> {ttcore.argument_type = #ttcore.argument_type<parameter>, ttcore.shard_status = #ttcore.shard_status<unsharded>, ttir.name = "l__self___model_layers__modules__19___mlp_up_proj_weight"}, %arg183: tensor<3072x3072xbf16> {ttcore.argument_type = #ttcore.argument_type<parameter>, ttcore.shard_status = #ttcore.shard_status<unsharded>, ttir.name = "l__self___model_layers__modules__19___self_attn_o_proj_weight"}, %arg184: tensor<1024x3072xbf16> {ttcore.argument_type = #ttcore.argument_type<parameter>, ttcore.shard_status = #ttcore.shard_status<unsharded>, ttir.name = "l__self___model_layers__modules__19___self_attn_k_proj_weight"}, %arg185: tensor<3072x3072xbf16> {ttcore.argument_type = #ttcore.argument_type<parameter>, ttcore.shard_status = #ttcore.shard_status<unsharded>, ttir.name = "l__self___model_layers__modules__19___self_attn_q_proj_weight"}, %arg186: tensor<3072xbf16> {ttcore.argument_type = #ttcore.argument_type<parameter>, ttcore.shard_status = #ttcore.shard_status<unsharded>, ttir.name = "l__self___model_layers__modules__19___post_attention_layernorm_weight"}, %arg187: tensor<8192x3072xbf16> {ttcore.argument_type = #ttcore.argument_type<parameter>, ttcore.shard_status = #ttcore.shard_status<unsharded>, ttir.name = "l__self___model_layers__modules__19___mlp_gate_proj_weight"}, %arg188: tensor<3072xbf16> {ttcore.argument_type = #ttcore.argument_type<parameter>, ttcore.shard_status = #ttcore.shard_status<unsharded>, ttir.name = "l__self___model_layers__modules__20___input_layernorm_weight"}, %arg189: tensor<1024x3072xbf16> {ttcore.argument_type = #ttcore.argument_type<parameter>, ttcore.shard_status = #ttcore.shard_status<unsharded>, ttir.name = "l__self___model_layers__modules__21___self_attn_v_proj_weight"}, %arg190: tensor<3072x8192xbf16> {ttcore.argument_type = #ttcore.argument_type<parameter>, ttcore.shard_status = #ttcore.shard_status<unsharded>, ttir.name = "l__self___model_layers__modules__20___mlp_down_proj_weight"}, %arg191: tensor<8192x3072xbf16> {ttcore.argument_type = #ttcore.argument_type<parameter>, ttcore.shard_status = #ttcore.shard_status<unsharded>, ttir.name = "l__self___model_layers__modules__20___mlp_up_proj_weight"}, %arg192: tensor<3072x3072xbf16> {ttcore.argument_type = #ttcore.argument_type<parameter>, ttcore.shard_status = #ttcore.shard_status<unsharded>, ttir.name = "l__self___model_layers__modules__20___self_attn_o_proj_weight"}, %arg193: tensor<1024x3072xbf16> {ttcore.argument_type = #ttcore.argument_type<parameter>, ttcore.shard_status = #ttcore.shard_status<unsharded>, ttir.name = "l__self___model_layers__modules__20___self_attn_k_proj_weight"}, %arg194: tensor<3072x3072xbf16> {ttcore.argument_type = #ttcore.argument_type<parameter>, ttcore.shard_status = #ttcore.shard_status<unsharded>, ttir.name = "l__self___model_layers__modules__20___self_attn_q_proj_weight"}, %arg195: tensor<3072xbf16> {ttcore.argument_type = #ttcore.argument_type<parameter>, ttcore.shard_status = #ttcore.shard_status<unsharded>, ttir.name = "l__self___model_layers__modules__20___post_attention_layernorm_weight"}, %arg196: tensor<8192x3072xbf16> {ttcore.argument_type = #ttcore.argument_type<parameter>, ttcore.shard_status = #ttcore.shard_status<unsharded>, ttir.name = "l__self___model_layers__modules__20___mlp_gate_proj_weight"}, %arg197: tensor<3072xbf16> {ttcore.argument_type = #ttcore.argument_type<parameter>, ttcore.shard_status = #ttcore.shard_status<unsharded>, ttir.name = "l__self___model_layers__modules__21___input_layernorm_weight"}, %arg198: tensor<1024x3072xbf16> {ttcore.argument_type = #ttcore.argument_type<parameter>, ttcore.shard_status = #ttcore.shard_status<unsharded>, ttir.name = "l__self___model_layers__modules__22___self_attn_v_proj_weight"}, %arg199: tensor<3072x8192xbf16> {ttcore.argument_type = #ttcore.argument_type<parameter>, ttcore.shard_status = #ttcore.shard_status<unsharded>, ttir.name = "l__self___model_layers__modules__21___mlp_down_proj_weight"}, %arg200: tensor<8192x3072xbf16> {ttcore.argument_type = #ttcore.argument_type<parameter>, ttcore.shard_status = #ttcore.shard_status<unsharded>, ttir.name = "l__self___model_layers__modules__21___mlp_up_proj_weight"}, %arg201: tensor<3072x3072xbf16> {ttcore.argument_type = #ttcore.argument_type<parameter>, ttcore.shard_status = #ttcore.shard_status<unsharded>, ttir.name = "l__self___model_layers__modules__21___self_attn_o_proj_weight"}, %arg202: tensor<1024x3072xbf16> {ttcore.argument_type = #ttcore.argument_type<parameter>, ttcore.shard_status = #ttcore.shard_status<unsharded>, ttir.name = "l__self___model_layers__modules__21___self_attn_k_proj_weight"}, %arg203: tensor<3072x3072xbf16> {ttcore.argument_type = #ttcore.argument_type<parameter>, ttcore.shard_status = #ttcore.shard_status<unsharded>, ttir.name = "l__self___model_layers__modules__21___self_attn_q_proj_weight"}, %arg204: tensor<3072xbf16> {ttcore.argument_type = #ttcore.argument_type<parameter>, ttcore.shard_status = #ttcore.shard_status<unsharded>, ttir.name = "l__self___model_layers__modules__21___post_attention_layernorm_weight"}, %arg205: tensor<8192x3072xbf16> {ttcore.argument_type = #ttcore.argument_type<parameter>, ttcore.shard_status = #ttcore.shard_status<unsharded>, ttir.name = "l__self___model_layers__modules__21___mlp_gate_proj_weight"}, %arg206: tensor<3072xbf16> {ttcore.argument_type = #ttcore.argument_type<parameter>, ttcore.shard_status = #ttcore.shard_status<unsharded>, ttir.name = "l__self___model_layers__modules__22___input_layernorm_weight"}, %arg207: tensor<1024x3072xbf16> {ttcore.argument_type = #ttcore.argument_type<parameter>, ttcore.shard_status = #ttcore.shard_status<unsharded>, ttir.name = "l__self___model_layers__modules__23___self_attn_v_proj_weight"}, %arg208: tensor<3072x8192xbf16> {ttcore.argument_type = #ttcore.argument_type<parameter>, ttcore.shard_status = #ttcore.shard_status<unsharded>, ttir.name = "l__self___model_layers__modules__22___mlp_down_proj_weight"}, %arg209: tensor<8192x3072xbf16> {ttcore.argument_type = #ttcore.argument_type<parameter>, ttcore.shard_status = #ttcore.shard_status<unsharded>, ttir.name = "l__self___model_layers__modules__22___mlp_up_proj_weight"}, %arg210: tensor<3072x3072xbf16> {ttcore.argument_type = #ttcore.argument_type<parameter>, ttcore.shard_status = #ttcore.shard_status<unsharded>, ttir.name = "l__self___model_layers__modules__22___self_attn_o_proj_weight"}, %arg211: tensor<1024x3072xbf16> {ttcore.argument_type = #ttcore.argument_type<parameter>, ttcore.shard_status = #ttcore.shard_status<unsharded>, ttir.name = "l__self___model_layers__modules__22___self_attn_k_proj_weight"}, %arg212: tensor<3072x3072xbf16> {ttcore.argument_type = #ttcore.argument_type<parameter>, ttcore.shard_status = #ttcore.shard_status<unsharded>, ttir.name = "l__self___model_layers__modules__22___self_attn_q_proj_weight"}, %arg213: tensor<3072xbf16> {ttcore.argument_type = #ttcore.argument_type<parameter>, ttcore.shard_status = #ttcore.shard_status<unsharded>, ttir.name = "l__self___model_layers__modules__22___post_attention_layernorm_weight"}, %arg214: tensor<8192x3072xbf16> {ttcore.argument_type = #ttcore.argument_type<parameter>, ttcore.shard_status = #ttcore.shard_status<unsharded>, ttir.name = "l__self___model_layers__modules__22___mlp_gate_proj_weight"}, %arg215: tensor<3072xbf16> {ttcore.argument_type = #ttcore.argument_type<parameter>, ttcore.shard_status = #ttcore.shard_status<unsharded>, ttir.name = "l__self___model_layers__modules__23___input_layernorm_weight"}, %arg216: tensor<1024x3072xbf16> {ttcore.argument_type = #ttcore.argument_type<parameter>, ttcore.shard_status = #ttcore.shard_status<unsharded>, ttir.name = "l__self___model_layers__modules__24___self_attn_v_proj_weight"}, %arg217: tensor<3072x8192xbf16> {ttcore.argument_type = #ttcore.argument_type<parameter>, ttcore.shard_status = #ttcore.shard_status<unsharded>, ttir.name = "l__self___model_layers__modules__23___mlp_down_proj_weight"}, %arg218: tensor<8192x3072xbf16> {ttcore.argument_type = #ttcore.argument_type<parameter>, ttcore.shard_status = #ttcore.shard_status<unsharded>, ttir.name = "l__self___model_layers__modules__23___mlp_up_proj_weight"}, %arg219: tensor<3072x3072xbf16> {ttcore.argument_type = #ttcore.argument_type<parameter>, ttcore.shard_status = #ttcore.shard_status<unsharded>, ttir.name = "l__self___model_layers__modules__23___self_attn_o_proj_weight"}, %arg220: tensor<1024x3072xbf16> {ttcore.argument_type = #ttcore.argument_type<parameter>, ttcore.shard_status = #ttcore.shard_status<unsharded>, ttir.name = "l__self___model_layers__modules__23___self_attn_k_proj_weight"}, %arg221: tensor<3072x3072xbf16> {ttcore.argument_type = #ttcore.argument_type<parameter>, ttcore.shard_status = #ttcore.shard_status<unsharded>, ttir.name = "l__self___model_layers__modules__23___self_attn_q_proj_weight"}, %arg222: tensor<3072xbf16> {ttcore.argument_type = #ttcore.argument_type<parameter>, ttcore.shard_status = #ttcore.shard_status<unsharded>, ttir.name = "l__self___model_layers__modules__23___post_attention_layernorm_weight"}, %arg223: tensor<8192x3072xbf16> {ttcore.argument_type = #ttcore.argument_type<parameter>, ttcore.shard_status = #ttcore.shard_status<unsharded>, ttir.name = "l__self___model_layers__modules__23___mlp_gate_proj_weight"}, %arg224: tensor<3072xbf16> {ttcore.argument_type = #ttcore.argument_type<parameter>, ttcore.shard_status = #ttcore.shard_status<unsharded>, ttir.name = "l__self___model_layers__modules__24___input_layernorm_weight"}, %arg225: tensor<1024x3072xbf16> {ttcore.argument_type = #ttcore.argument_type<parameter>, ttcore.shard_status = #ttcore.shard_status<unsharded>, ttir.name = "l__self___model_layers__modules__25___self_attn_v_proj_weight"}, %arg226: tensor<3072x8192xbf16> {ttcore.argument_type = #ttcore.argument_type<parameter>, ttcore.shard_status = #ttcore.shard_status<unsharded>, ttir.name = "l__self___model_layers__modules__24___mlp_down_proj_weight"}, %arg227: tensor<8192x3072xbf16> {ttcore.argument_type = #ttcore.argument_type<parameter>, ttcore.shard_status = #ttcore.shard_status<unsharded>, ttir.name = "l__self___model_layers__modules__24___mlp_up_proj_weight"}, %arg228: tensor<3072x3072xbf16> {ttcore.argument_type = #ttcore.argument_type<parameter>, ttcore.shard_status = #ttcore.shard_status<unsharded>, ttir.name = "l__self___model_layers__modules__24___self_attn_o_proj_weight"}, %arg229: tensor<1024x3072xbf16> {ttcore.argument_type = #ttcore.argument_type<parameter>, ttcore.shard_status = #ttcore.shard_status<unsharded>, ttir.name = "l__self___model_layers__modules__24___self_attn_k_proj_weight"}, %arg230: tensor<3072x3072xbf16> {ttcore.argument_type = #ttcore.argument_type<parameter>, ttcore.shard_status = #ttcore.shard_status<unsharded>, ttir.name = "l__self___model_layers__modules__24___self_attn_q_proj_weight"}, %arg231: tensor<3072xbf16> {ttcore.argument_type = #ttcore.argument_type<parameter>, ttcore.shard_status = #ttcore.shard_status<unsharded>, ttir.name = "l__self___model_layers__modules__24___post_attention_layernorm_weight"}, %arg232: tensor<8192x3072xbf16> {ttcore.argument_type = #ttcore.argument_type<parameter>, ttcore.shard_status = #ttcore.shard_status<unsharded>, ttir.name = "l__self___model_layers__modules__24___mlp_gate_proj_weight"}, %arg233: tensor<3072xbf16> {ttcore.argument_type = #ttcore.argument_type<parameter>, ttcore.shard_status = #ttcore.shard_status<unsharded>, ttir.name = "l__self___model_layers__modules__25___input_layernorm_weight"}, %arg234: tensor<1024x3072xbf16> {ttcore.argument_type = #ttcore.argument_type<parameter>, ttcore.shard_status = #ttcore.shard_status<unsharded>, ttir.name = "l__self___model_layers__modules__26___self_attn_v_proj_weight"}, %arg235: tensor<3072x8192xbf16> {ttcore.argument_type = #ttcore.argument_type<parameter>, ttcore.shard_status = #ttcore.shard_status<unsharded>, ttir.name = "l__self___model_layers__modules__25___mlp_down_proj_weight"}, %arg236: tensor<8192x3072xbf16> {ttcore.argument_type = #ttcore.argument_type<parameter>, ttcore.shard_status = #ttcore.shard_status<unsharded>, ttir.name = "l__self___model_layers__modules__25___mlp_up_proj_weight"}, %arg237: tensor<3072x3072xbf16> {ttcore.argument_type = #ttcore.argument_type<parameter>, ttcore.shard_status = #ttcore.shard_status<unsharded>, ttir.name = "l__self___model_layers__modules__25___self_attn_o_proj_weight"}, %arg238: tensor<1024x3072xbf16> {ttcore.argument_type = #ttcore.argument_type<parameter>, ttcore.shard_status = #ttcore.shard_status<unsharded>, ttir.name = "l__self___model_layers__modules__25___self_attn_k_proj_weight"}, %arg239: tensor<3072x3072xbf16> {ttcore.argument_type = #ttcore.argument_type<parameter>, ttcore.shard_status = #ttcore.shard_status<unsharded>, ttir.name = "l__self___model_layers__modules__25___self_attn_q_proj_weight"}, %arg240: tensor<3072xbf16> {ttcore.argument_type = #ttcore.argument_type<parameter>, ttcore.shard_status = #ttcore.shard_status<unsharded>, ttir.name = "l__self___model_layers__modules__25___post_attention_layernorm_weight"}, %arg241: tensor<8192x3072xbf16> {ttcore.argument_type = #ttcore.argument_type<parameter>, ttcore.shard_status = #ttcore.shard_status<unsharded>, ttir.name = "l__self___model_layers__modules__25___mlp_gate_proj_weight"}, %arg242: tensor<3072xbf16> {ttcore.argument_type = #ttcore.argument_type<parameter>, ttcore.shard_status = #ttcore.shard_status<unsharded>, ttir.name = "l__self___model_layers__modules__26___input_layernorm_weight"}, %arg243: tensor<1024x3072xbf16> {ttcore.argument_type = #ttcore.argument_type<parameter>, ttcore.shard_status = #ttcore.shard_status<unsharded>, ttir.name = "l__self___model_layers__modules__27___self_attn_v_proj_weight"}, %arg244: tensor<3072x8192xbf16> {ttcore.argument_type = #ttcore.argument_type<parameter>, ttcore.shard_status = #ttcore.shard_status<unsharded>, ttir.name = "l__self___model_layers__modules__26___mlp_down_proj_weight"}, %arg245: tensor<8192x3072xbf16> {ttcore.argument_type = #ttcore.argument_type<parameter>, ttcore.shard_status = #ttcore.shard_status<unsharded>, ttir.name = "l__self___model_layers__modules__26___mlp_up_proj_weight"}, %arg246: tensor<3072x3072xbf16> {ttcore.argument_type = #ttcore.argument_type<parameter>, ttcore.shard_status = #ttcore.shard_status<unsharded>, ttir.name = "l__self___model_layers__modules__26___self_attn_o_proj_weight"}, %arg247: tensor<1024x3072xbf16> {ttcore.argument_type = #ttcore.argument_type<parameter>, ttcore.shard_status = #ttcore.shard_status<unsharded>, ttir.name = "l__self___model_layers__modules__26___self_attn_k_proj_weight"}, %arg248: tensor<3072x3072xbf16> {ttcore.argument_type = #ttcore.argument_type<parameter>, ttcore.shard_status = #ttcore.shard_status<unsharded>, ttir.name = "l__self___model_layers__modules__26___self_attn_q_proj_weight"}, %arg249: tensor<3072xbf16> {ttcore.argument_type = #ttcore.argument_type<parameter>, ttcore.shard_status = #ttcore.shard_status<unsharded>, ttir.name = "l__self___model_layers__modules__26___post_attention_layernorm_weight"}, %arg250: tensor<8192x3072xbf16> {ttcore.argument_type = #ttcore.argument_type<parameter>, ttcore.shard_status = #ttcore.shard_status<unsharded>, ttir.name = "l__self___model_layers__modules__26___mlp_gate_proj_weight"}, %arg251: tensor<3072xbf16> {ttcore.argument_type = #ttcore.argument_type<parameter>, ttcore.shard_status = #ttcore.shard_status<unsharded>, ttir.name = "l__self___model_layers__modules__27___input_layernorm_weight"}, %arg252: tensor<1024x3072xbf16> {ttcore.argument_type = #ttcore.argument_type<parameter>, ttcore.shard_status = #ttcore.shard_status<unsharded>, ttir.name = "l__self___model_layers__modules__27___self_attn_k_proj_weight"}, %arg253: tensor<128256x3072xbf16> {ttcore.argument_type = #ttcore.argument_type<parameter>, ttcore.shard_status = #ttcore.shard_status<unsharded>, ttir.name = "l__self___lm_head_weight"}, %arg254: tensor<3072x8192xbf16> {ttcore.argument_type = #ttcore.argument_type<parameter>, ttcore.shard_status = #ttcore.shard_status<unsharded>, ttir.name = "l__self___model_layers__modules__27___mlp_down_proj_weight"}, %arg255: tensor<8192x3072xbf16> {ttcore.argument_type = #ttcore.argument_type<parameter>, ttcore.shard_status = #ttcore.shard_status<unsharded>, ttir.name = "l__self___model_layers__modules__27___mlp_up_proj_weight"}, %arg256: tensor<3072x3072xbf16> {ttcore.argument_type = #ttcore.argument_type<parameter>, ttcore.shard_status = #ttcore.shard_status<unsharded>, ttir.name = "l__self___model_layers__modules__27___self_attn_o_proj_weight"}, %arg257: tensor<3072x3072xbf16> {ttcore.argument_type = #ttcore.argument_type<parameter>, ttcore.shard_status = #ttcore.shard_status<unsharded>, ttir.name = "l__self___model_layers__modules__27___self_attn_q_proj_weight"}, %arg258: tensor<3072xbf16> {ttcore.argument_type = #ttcore.argument_type<parameter>, ttcore.shard_status = #ttcore.shard_status<unsharded>, ttir.name = "l__self___model_layers__modules__27___post_attention_layernorm_weight"}, %arg259: tensor<8192x3072xbf16> {ttcore.argument_type = #ttcore.argument_type<parameter>, ttcore.shard_status = #ttcore.shard_status<unsharded>, ttir.name = "l__self___model_layers__modules__27___mlp_gate_proj_weight"}, %arg260: tensor<3072xbf16> {ttcore.argument_type = #ttcore.argument_type<parameter>, ttcore.shard_status = #ttcore.shard_status<unsharded>, ttir.name = "l__self___model_norm_weight"}) -> (tensor<1x8x640x128xbf16> {ttcore.shard_status = #ttcore.shard_status<unsharded>}, tensor<1x8x640x128xbf16> {ttcore.shard_status = #ttcore.shard_status<unsharded>}, tensor<1x8x640x128xbf16> {ttcore.shard_status = #ttcore.shard_status<unsharded>}, tensor<1x8x640x128xbf16> {ttcore.shard_status = #ttcore.shard_status<unsharded>}, tensor<1x8x640x128xbf16> {ttcore.shard_status = #ttcore.shard_status<unsharded>}, tensor<1x8x640x128xbf16> {ttcore.shard_status = #ttcore.shard_status<unsharded>}, tensor<1x8x640x128xbf16> {ttcore.shard_status = #ttcore.shard_status<unsharded>}, tensor<1x8x640x128xbf16> {ttcore.shard_status = #ttcore.shard_status<unsharded>}, tensor<1x8x640x128xbf16> {ttcore.shard_status = #ttcore.shard_status<unsharded>}, tensor<1x8x640x128xbf16> {ttcore.shard_status = #ttcore.shard_status<unsharded>}, tensor<1x8x640x128xbf16> {ttcore.shard_status = #ttcore.shard_status<unsharded>}, tensor<1x8x640x128xbf16> {ttcore.shard_status = #ttcore.shard_status<unsharded>}, tensor<1x8x640x128xbf16> {ttcore.shard_status = #ttcore.shard_status<unsharded>}, tensor<1x8x640x128xbf16> {ttcore.shard_status = #ttcore.shard_status<unsharded>}, tensor<1x8x640x128xbf16> {ttcore.shard_status = #ttcore.shard_status<unsharded>}, tensor<1x8x640x128xbf16> {ttcore.shard_status = #ttcore.shard_status<unsharded>}, tensor<1x8x640x128xbf16> {ttcore.shard_status = #ttcore.shard_status<unsharded>}, tensor<1x8x640x128xbf16> {ttcore.shard_status = #ttcore.shard_status<unsharded>}, tensor<1x8x640x128xbf16> {ttcore.shard_status = #ttcore.shard_status<unsharded>}, tensor<1x8x640x128xbf16> {ttcore.shard_status = #ttcore.shard_status<unsharded>}, tensor<1x8x640x128xbf16> {ttcore.shard_status = #ttcore.shard_status<unsharded>}, tensor<1x8x640x128xbf16> {ttcore.shard_status = #ttcore.shard_status<unsharded>}, tensor<1x8x640x128xbf16> {ttcore.shard_status = #ttcore.shard_status<unsharded>}, tensor<1x8x640x128xbf16> {ttcore.shard_status = #ttcore.shard_status<unsharded>}, tensor<1x8x640x128xbf16> {ttcore.shard_status = #ttcore.shard_status<unsharded>}, tensor<1x8x640x128xbf16> {ttcore.shard_status = #ttcore.shard_status<unsharded>}, tensor<1x8x640x128xbf16> {ttcore.shard_status = #ttcore.shard_status<unsharded>}, tensor<1x8x640x128xbf16> {ttcore.shard_status = #ttcore.shard_status<unsharded>}, tensor<1x8x640x128xbf16> {ttcore.shard_status = #ttcore.shard_status<unsharded>}, tensor<1x8x640x128xbf16> {ttcore.shard_status = #ttcore.shard_status<unsharded>}, tensor<1x8x640x128xbf16> {ttcore.shard_status = #ttcore.shard_status<unsharded>}, tensor<1x8x640x128xbf16> {ttcore.shard_status = #ttcore.shard_status<unsharded>}, tensor<1x8x640x128xbf16> {ttcore.shard_status = #ttcore.shard_status<unsharded>}, tensor<1x8x640x128xbf16> {ttcore.shard_status = #ttcore.shard_status<unsharded>}, tensor<1x8x640x128xbf16> {ttcore.shard_status = #ttcore.shard_status<unsharded>}, tensor<1x8x640x128xbf16> {ttcore.shard_status = #ttcore.shard_status<unsharded>}, tensor<1x8x640x128xbf16> {ttcore.shard_status = #ttcore.shard_status<unsharded>}, tensor<1x8x640x128xbf16> {ttcore.shard_status = #ttcore.shard_status<unsharded>}, tensor<1x8x640x128xbf16> {ttcore.shard_status = #ttcore.shard_status<unsharded>}, tensor<1x8x640x128xbf16> {ttcore.shard_status = #ttcore.shard_status<unsharded>}, tensor<1x8x640x128xbf16> {ttcore.shard_status = #ttcore.shard_status<unsharded>}, tensor<1x8x640x128xbf16> {ttcore.shard_status = #ttcore.shard_status<unsharded>}, tensor<1x8x640x128xbf16> {ttcore.shard_status = #ttcore.shard_status<unsharded>}, tensor<1x8x640x128xbf16> {ttcore.shard_status = #ttcore.shard_status<unsharded>}, tensor<1x8x640x128xbf16> {ttcore.shard_status = #ttcore.shard_status<unsharded>}, tensor<1x8x640x128xbf16> {ttcore.shard_status = #ttcore.shard_status<unsharded>}, tensor<1x8x640x128xbf16> {ttcore.shard_status = #ttcore.shard_status<unsharded>}, tensor<1x8x640x128xbf16> {ttcore.shard_status = #ttcore.shard_status<unsharded>}, tensor<1x8x640x128xbf16> {ttcore.shard_status = #ttcore.shard_status<unsharded>}, tensor<1x8x640x128xbf16> {ttcore.shard_status = #ttcore.shard_status<unsharded>}, tensor<1x8x640x128xbf16> {ttcore.shard_status = #ttcore.shard_status<unsharded>}, tensor<1x8x640x128xbf16> {ttcore.shard_status = #ttcore.shard_status<unsharded>}, tensor<1x8x640x128xbf16> {ttcore.shard_status = #ttcore.shard_status<unsharded>}, tensor<1x8x640x128xbf16> {ttcore.shard_status = #ttcore.shard_status<unsharded>}, tensor<1x8x640x128xbf16> {ttcore.shard_status = #ttcore.shard_status<unsharded>}, tensor<1x8x640x128xbf16> {ttcore.shard_status = #ttcore.shard_status<unsharded>}, tensor<1x640x128256xbf16> {ttcore.shard_status = #ttcore.shard_status<unsharded>}) {
    %0 = "ttir.constant"() <{value = dense<0.000000e+00> : tensor<1x1x640x640xbf16>}> : () -> tensor<1x1x640x640xbf16>
    %1 = "ttir.constant"() <{value = dense<0.000000e+00> : tensor<640x640xbf16>}> : () -> tensor<640x640xbf16>
    %2 = "ttir.constant"() <{value = dense<1> : tensor<640x640xi64>}> : () -> tensor<640x640xi64>
    %3 = "ttir.constant"() <{value = dense<"…"> : tensor<1x1x640xf32>}> : () -> tensor<1x1x640xf32>
    %4 = "ttir.constant"() <{value = dense<3.25520843E-4> : tensor<1x640xf32>}> : () -> tensor<1x640xf32>
    %5 = "ttir.constant"() <{value = dense<2.000000e+00> : tensor<1x640x3072xf32>}> : () -> tensor<1x640x3072xf32>
    %6 = "ttir.constant"() <{value = dense<0xFF800000> : tensor<f32>}> : () -> tensor<f32>
    %7 = "ttir.constant"() <{value = dense<"…"> : tensor<640xi64>}> : () -> tensor<640xi64>
    %8 = "ttir.constant"() <{value = dense<0.000000e+00> : tensor<f32>}> : () -> tensor<f32>
    %9 = ttir.empty() : tensor<1x1x3072xbf16>
    %10 = "ttir.reshape"(%arg4, %9) <{shape = [1 : i32, 1 : i32, 3072 : i32]}> : (tensor<3072xbf16>, tensor<1x1x3072xbf16>) -> tensor<1x1x3072xbf16>
    %11 = ttir.empty() : tensor<3072xbf16>
    %12 = "ttir.reshape"(%10, %11) <{shape = [3072 : i32]}> : (tensor<1x1x3072xbf16>, tensor<3072xbf16>) -> tensor<3072xbf16>
    %13 = ttir.empty() : tensor<3072xf32>
    %14 = "ttir.typecast"(%12, %13) <{conservative_folding = false}> : (tensor<3072xbf16>, tensor<3072xf32>) -> tensor<3072xf32>
    %15 = ttir.empty() : tensor<1x1x3072xf32>
    %16 = "ttir.reshape"(%14, %15) <{shape = [1 : i32, 1 : i32, 3072 : i32]}> : (tensor<3072xf32>, tensor<1x1x3072xf32>) -> tensor<1x1x3072xf32>
    %17 = ttir.empty() : tensor<1x640x3072xf32>
    %18 = "ttir.broadcast"(%16, %17) <{broadcast_dimensions = array<i64: 1, 640, 1>}> : (tensor<1x1x3072xf32>, tensor<1x640x3072xf32>) -> tensor<1x640x3072xf32>
    %19 = ttir.empty() : tensor<1x128256x3072xbf16>
    %20 = "ttir.reshape"(%arg3, %19) <{shape = [1 : i32, 128256 : i32, 3072 : i32]}> : (tensor<128256x3072xbf16>, tensor<1x128256x3072xbf16>) -> tensor<1x128256x3072xbf16>
    %21 = ttir.empty() : tensor<128256x3072xbf16>
    %22 = "ttir.reshape"(%20, %21) <{shape = [128256 : i32, 3072 : i32]}> : (tensor<1x128256x3072xbf16>, tensor<128256x3072xbf16>) -> tensor<128256x3072xbf16>
    %23 = ttir.empty() : tensor<1x1x640xi64>
    %24 = "ttir.reshape"(%arg2, %23) <{shape = [1 : i32, 1 : i32, 640 : i32]}> : (tensor<1x640xi64>, tensor<1x1x640xi64>) -> tensor<1x1x640xi64>
    %25 = ttir.empty() : tensor<640xi64>
    %26 = "ttir.reshape"(%24, %25) <{shape = [640 : i32]}> : (tensor<1x1x640xi64>, tensor<640xi64>) -> tensor<640xi64>
    %27 = ttir.empty() : tensor<640xui32>
    %28 = "ttir.typecast"(%26, %27) <{conservative_folding = false}> : (tensor<640xi64>, tensor<640xui32>) -> tensor<640xui32>
    %29 = ttir.empty() : tensor<640x3072xbf16>
    %30 = "ttir.gather"(%22, %28, %29) <{collapsed_slice_dims = array<i64: 0>, index_vector_dim = 1 : si64, indices_are_sorted = false, offset_dims = array<i64: 1>, operand_batching_dims = array<i64>, slice_sizes = array<i64: 1, 3072>, start_index_map = array<i64: 0>, start_indices_batching_dims = array<i64>}> : (tensor<128256x3072xbf16>, tensor<640xui32>, tensor<640x3072xbf16>) -> tensor<640x3072xbf16>
    %31 = ttir.empty() : tensor<1x640x3072xbf16>
    %32 = "ttir.reshape"(%30, %31) <{shape = [1 : i32, 640 : i32, 3072 : i32]}> : (tensor<640x3072xbf16>, tensor<1x640x3072xbf16>) -> tensor<1x640x3072xbf16>
    %33 = ttir.empty() : tensor<1x640x3072xf32>
    %34 = "ttir.typecast"(%32, %33) <{conservative_folding = false}> : (tensor<1x640x3072xbf16>, tensor<1x640x3072xf32>) -> tensor<1x640x3072xf32>
    %35 = ttir.empty() : tensor<1x640x3072xf32>
    %36 = "ttir.pow"(%34, %5, %35) : (tensor<1x640x3072xf32>, tensor<1x640x3072xf32>, tensor<1x640x3072xf32>) -> tensor<1x640x3072xf32>
    %37 = ttir.empty() : tensor<1x640xf32>
    %38 = "ttir.sum"(%36, %37) <{dim_arg = [2 : i32], keep_dim = false}> : (tensor<1x640x3072xf32>, tensor<1x640xf32>) -> tensor<1x640xf32>
    %39 = ttir.empty() : tensor<1x640xf32>
    %40 = "ttir.multiply"(%38, %4, %39) : (tensor<1x640xf32>, tensor<1x640xf32>, tensor<1x640xf32>) -> tensor<1x640xf32>
    %41 = ttir.empty() : tensor<1x640x1xf32>
    %42 = "ttir.reshape"(%40, %41) <{shape = [1 : i32, 640 : i32, 1 : i32]}> : (tensor<1x640xf32>, tensor<1x640x1xf32>) -> tensor<1x640x1xf32>
    %43 = ttir.empty() : tensor<1x1x1xf32>
    %44 = "ttir.reshape"(%arg1, %43) <{shape = [1 : i32, 1 : i32, 1 : i32]}> : (tensor<f32>, tensor<1x1x1xf32>) -> tensor<1x1x1xf32>
    %45 = ttir.empty() : tensor<1x640x1xf32>
    %46 = "ttir.broadcast"(%44, %45) <{broadcast_dimensions = array<i64: 1, 640, 1>}> : (tensor<1x1x1xf32>, tensor<1x640x1xf32>) -> tensor<1x640x1xf32>
    %47 = ttir.empty() : tensor<1x640x1xf32>
    %48 = "ttir.add"(%42, %46, %47) : (tensor<1x640x1xf32>, tensor<1x640x1xf32>, tensor<1x640x1xf32>) -> tensor<1x640x1xf32>
    %49 = ttir.empty() : tensor<1x640x1xf32>
    %50 = "ttir.rsqrt"(%48, %49) : (tensor<1x640x1xf32>, tensor<1x640x1xf32>) -> tensor<1x640x1xf32>
    %51 = ttir.empty() : tensor<1x640xf32>
    %52 = "ttir.reshape"(%50, %51) <{shape = [1 : i32, 640 : i32]}> : (tensor<1x640x1xf32>, tensor<1x640xf32>) -> tensor<1x640xf32>
    %53 = ttir.empty() : tensor<1x640x1xf32>
    %54 = "ttir.reshape"(%52, %53) <{shape = [1 : i32, 640 : i32, 1 : i32]}> : (tensor<1x640xf32>, tensor<1x640x1xf32>) -> tensor<1x640x1xf32>
    %55 = ttir.empty() : tensor<1x640x3072xf32>
    %56 = "ttir.broadcast"(%54, %55) <{broadcast_dimensions = array<i64: 1, 1, 3072>}> : (tensor<1x640x1xf32>, tensor<1x640x3072xf32>) -> tensor<1x640x3072xf32>
    %57 = ttir.empty() : tensor<1x640x3072xf32>
    %58 = "ttir.multiply"(%34, %56, %57) : (tensor<1x640x3072xf32>, tensor<1x640x3072xf32>, tensor<1x640x3072xf32>) -> tensor<1x640x3072xf32>
    %59 = ttir.empty() : tensor<1x640x3072xbf16>
    %60 = "ttir.typecast"(%58, %59) <{conservative_folding = false}> : (tensor<1x640x3072xf32>, tensor<1x640x3072xbf16>) -> tensor<1x640x3072xbf16>
    %61 = ttir.empty() : tensor<1x640x3072xf32>
    %62 = "ttir.typecast"(%60, %61) <{conservative_folding = false}> : (tensor<1x640x3072xbf16>, tensor<1x640x3072xf32>) -> tensor<1x640x3072xf32>
    %63 = ttir.empty() : tensor<1x640x3072xf32>
    %64 = "ttir.multiply"(%18, %62, %63) : (tensor<1x640x3072xf32>, tensor<1x640x3072xf32>, tensor<1x640x3072xf32>) -> tensor<1x640x3072xf32>
    %65 = ttir.empty() : tensor<1x640x3072xbf16>
    %66 = "ttir.typecast"(%64, %65) <{conservative_folding = false}> : (tensor<1x640x3072xf32>, tensor<1x640x3072xbf16>) -> tensor<1x640x3072xbf16>
    %67 = ttir.empty() : tensor<640x3072xbf16>
    %68 = "ttir.reshape"(%66, %67) <{shape = [640 : i32, 3072 : i32]}> : (tensor<1x640x3072xbf16>, tensor<640x3072xbf16>) -> tensor<640x3072xbf16>
    %69 = ttir.empty() : tensor<1x1024x3072xbf16>
    %70 = "ttir.reshape"(%arg0, %69) <{shape = [1 : i32, 1024 : i32, 3072 : i32]}> : (tensor<1024x3072xbf16>, tensor<1x1024x3072xbf16>) -> tensor<1x1024x3072xbf16>
    %71 = ttir.empty() : tensor<1024x3072xbf16>
    %72 = "ttir.reshape"(%70, %71) <{shape = [1024 : i32, 3072 : i32]}> : (tensor<1x1024x3072xbf16>, tensor<1024x3072xbf16>) -> tensor<1024x3072xbf16>
    %73 = ttir.empty() : tensor<3072x1024xbf16>
    %74 = "ttir.permute"(%72, %73) <{permutation = array<i64: 1, 0>}> : (tensor<1024x3072xbf16>, tensor<3072x1024xbf16>) -> tensor<3072x1024xbf16>
    %75 = "ttir.dot_general"(%68, %74) <{batch_dims_lhs = array<i64>, batch_dims_rhs = array<i64>, contract_dims_lhs = array<i64: 1>, contract_dims_rhs = array<i64: 0>}> : (tensor<640x3072xbf16>, tensor<3072x1024xbf16>) -> tensor<640x1024xbf16>
    %76 = ttir.empty() : tensor<1x640x8x128xbf16>
    %77 = "ttir.reshape"(%75, %76) <{shape = [1 : i32, 640 : i32, 8 : i32, 128 : i32]}> : (tensor<640x1024xbf16>, tensor<1x640x8x128xbf16>) -> tensor<1x640x8x128xbf16>
    %78 = ttir.empty() : tensor<1x8x640x128xbf16>
    %79 = "ttir.permute"(%77, %78) <{permutation = array<i64: 0, 2, 1, 3>}> : (tensor<1x640x8x128xbf16>, tensor<1x8x640x128xbf16>) -> tensor<1x8x640x128xbf16>
    %80 = ttir.empty() : tensor<1x1x3072xbf16>
    %81 = "ttir.reshape"(%arg17, %80) <{shape = [1 : i32, 1 : i32, 3072 : i32]}> : (tensor<3072xbf16>, tensor<1x1x3072xbf16>) -> tensor<1x1x3072xbf16>
    %82 = ttir.empty() : tensor<3072xbf16>
    %83 = "ttir.reshape"(%81, %82) <{shape = [3072 : i32]}> : (tensor<1x1x3072xbf16>, tensor<3072xbf16>) -> tensor<3072xbf16>
    %84 = ttir.empty() : tensor<3072xf32>
    %85 = "ttir.typecast"(%83, %84) <{conservative_folding = false}> : (tensor<3072xbf16>, tensor<3072xf32>) -> tensor<3072xf32>
    %86 = ttir.empty() : tensor<1x1x3072xf32>
    %87 = "ttir.reshape"(%85, %86) <{shape = [1 : i32, 1 : i32, 3072 : i32]}> : (tensor<3072xf32>, tensor<1x1x3072xf32>) -> tensor<1x1x3072xf32>
    %88 = ttir.empty() : tensor<1x640x3072xf32>
    %89 = "ttir.broadcast"(%87, %88) <{broadcast_dimensions = array<i64: 1, 640, 1>}> : (tensor<1x1x3072xf32>, tensor<1x640x3072xf32>) -> tensor<1x640x3072xf32>
    %90 = ttir.empty() : tensor<1x3072x3072xbf16>
    %91 = "ttir.reshape"(%arg14, %90) <{shape = [1 : i32, 3072 : i32, 3072 : i32]}> : (tensor<3072x3072xbf16>, tensor<1x3072x3072xbf16>) -> tensor<1x3072x3072xbf16>
    %92 = ttir.empty() : tensor<3072x3072xbf16>
    %93 = "ttir.reshape"(%91, %92) <{shape = [3072 : i32, 3072 : i32]}> : (tensor<1x3072x3072xbf16>, tensor<3072x3072xbf16>) -> tensor<3072x3072xbf16>
    %94 = ttir.empty() : tensor<3072x3072xbf16>
    %95 = "ttir.permute"(%93, %94) <{permutation = array<i64: 1, 0>}> : (tensor<3072x3072xbf16>, tensor<3072x3072xbf16>) -> tensor<3072x3072xbf16>
    %96 = "ttir.dot_general"(%68, %95) <{batch_dims_lhs = array<i64>, batch_dims_rhs = array<i64>, contract_dims_lhs = array<i64: 1>, contract_dims_rhs = array<i64: 0>}> : (tensor<640x3072xbf16>, tensor<3072x3072xbf16>) -> tensor<640x3072xbf16>
    %97 = ttir.empty() : tensor<1x640x24x128xbf16>
    %98 = "ttir.reshape"(%96, %97) <{shape = [1 : i32, 640 : i32, 24 : i32, 128 : i32]}> : (tensor<640x3072xbf16>, tensor<1x640x24x128xbf16>) -> tensor<1x640x24x128xbf16>
    %99 = ttir.empty() : tensor<1x24x640x128xbf16>
    %100 = "ttir.permute"(%98, %99) <{permutation = array<i64: 0, 2, 1, 3>}> : (tensor<1x640x24x128xbf16>, tensor<1x24x640x128xbf16>) -> tensor<1x24x640x128xbf16>
    %101 = ttir.empty() : tensor<1x24x640x128xf32>
    %102 = "ttir.typecast"(%100, %101) <{conservative_folding = false}> : (tensor<1x24x640x128xbf16>, tensor<1x24x640x128xf32>) -> tensor<1x24x640x128xf32>
    %103 = ttir.empty() : tensor<1x1x64xf32>
    %104 = "ttir.reshape"(%arg12, %103) <{shape = [1 : i32, 1 : i32, 64 : i32]}> : (tensor<64xf32>, tensor<1x1x64xf32>) -> tensor<1x1x64xf32>
    %105 = ttir.empty() : tensor<1x64x1xf32>
    %106 = "ttir.reshape"(%104, %105) <{shape = [1 : i32, 64 : i32, 1 : i32]}> : (tensor<1x1x64xf32>, tensor<1x64x1xf32>) -> tensor<1x64x1xf32>
    %107 = "ttir.dot_general"(%106, %3) <{batch_dims_lhs = array<i64: 0>, batch_dims_rhs = array<i64: 0>, contract_dims_lhs = array<i64: 2>, contract_dims_rhs = array<i64: 1>}> : (tensor<1x64x1xf32>, tensor<1x1x640xf32>) -> tensor<1x64x640xf32>
    %108 = ttir.empty() : tensor<1x640x64xf32>
    %109 = "ttir.permute"(%107, %108) <{permutation = array<i64: 0, 2, 1>}> : (tensor<1x64x640xf32>, tensor<1x640x64xf32>) -> tensor<1x640x64xf32>
    %110 = ttir.empty() : tensor<1x640x128xf32>
    %111 = "ttir.concat"(%109, %109, %110) <{dim = 2 : si32}> : (tensor<1x640x64xf32>, tensor<1x640x64xf32>, tensor<1x640x128xf32>) -> tensor<1x640x128xf32>
    %112 = ttir.empty() : tensor<1x640x128xf32>
    %113 = "ttir.cos"(%111, %112) : (tensor<1x640x128xf32>, tensor<1x640x128xf32>) -> tensor<1x640x128xf32>
    %114 = ttir.empty() : tensor<1x640x128xbf16>
    %115 = "ttir.typecast"(%113, %114) <{conservative_folding = false}> : (tensor<1x640x128xf32>, tensor<1x640x128xbf16>) -> tensor<1x640x128xbf16>
    %116 = ttir.empty() : tensor<1x1x640x128xbf16>
    %117 = "ttir.reshape"(%115, %116) <{shape = [1 : i32, 1 : i32, 640 : i32, 128 : i32]}> : (tensor<1x640x128xbf16>, tensor<1x1x640x128xbf16>) -> tensor<1x1x640x128xbf16>
    %118 = ttir.empty() : tensor<1x1x640x128xf32>
    %119 = "ttir.typecast"(%117, %118) <{conservative_folding = false}> : (tensor<1x1x640x128xbf16>, tensor<1x1x640x128xf32>) -> tensor<1x1x640x128xf32>
    %120 = ttir.empty() : tensor<1x640x128xf32>
    %121 = "ttir.reshape"(%119, %120) <{shape = [1 : i32, 640 : i32, 128 : i32]}> : (tensor<1x1x640x128xf32>, tensor<1x640x128xf32>) -> tensor<1x640x128xf32>
    %122 = ttir.empty() : tensor<1x1x640x128xf32>
    %123 = "ttir.reshape"(%121, %122) <{shape = [1 : i32, 1 : i32, 640 : i32, 128 : i32]}> : (tensor<1x640x128xf32>, tensor<1x1x640x128xf32>) -> tensor<1x1x640x128xf32>
    %124 = ttir.empty() : tensor<1x24x640x128xf32>
    %125 = "ttir.broadcast"(%123, %124) <{broadcast_dimensions = array<i64: 1, 24, 1, 1>}> : (tensor<1x1x640x128xf32>, tensor<1x24x640x128xf32>) -> tensor<1x24x640x128xf32>
    %126 = ttir.empty() : tensor<1x24x640x128xf32>
    %127 = "ttir.multiply"(%102, %125, %126) : (tensor<1x24x640x128xf32>, tensor<1x24x640x128xf32>, tensor<1x24x640x128xf32>) -> tensor<1x24x640x128xf32>
    %128 = ttir.empty() : tensor<1x24x640x128xbf16>
    %129 = "ttir.typecast"(%127, %128) <{conservative_folding = false}> : (tensor<1x24x640x128xf32>, tensor<1x24x640x128xbf16>) -> tensor<1x24x640x128xbf16>
    %130 = ttir.empty() : tensor<1x24x640x64xbf16>
    %131 = "ttir.slice_static"(%100, %130) <{begins = [0 : i32, 0 : i32, 0 : i32, 64 : i32], ends = [1 : i32, 24 : i32, 640 : i32, 128 : i32], step = [1 : i32, 1 : i32, 1 : i32, 1 : i32]}> : (tensor<1x24x640x128xbf16>, tensor<1x24x640x64xbf16>) -> tensor<1x24x640x64xbf16>
    %132 = ttir.empty() : tensor<1x24x640x64xbf16>
    %133 = "ttir.neg"(%131, %132) : (tensor<1x24x640x64xbf16>, tensor<1x24x640x64xbf16>) -> tensor<1x24x640x64xbf16>
    %134 = ttir.empty() : tensor<1x24x640x64xbf16>
    %135 = "ttir.slice_static"(%100, %134) <{begins = [0 : i32, 0 : i32, 0 : i32, 0 : i32], ends = [1 : i32, 24 : i32, 640 : i32, 64 : i32], step = [1 : i32, 1 : i32, 1 : i32, 1 : i32]}> : (tensor<1x24x640x128xbf16>, tensor<1x24x640x64xbf16>) -> tensor<1x24x640x64xbf16>
    %136 = ttir.empty() : tensor<1x24x640x128xbf16>
    %137 = "ttir.concat"(%133, %135, %136) <{dim = 3 : si32}> : (tensor<1x24x640x64xbf16>, tensor<1x24x640x64xbf16>, tensor<1x24x640x128xbf16>) -> tensor<1x24x640x128xbf16>
    %138 = ttir.empty() : tensor<1x24x640x128xf32>
    %139 = "ttir.typecast"(%137, %138) <{conservative_folding = false}> : (tensor<1x24x640x128xbf16>, tensor<1x24x640x128xf32>) -> tensor<1x24x640x128xf32>
    %140 = ttir.empty() : tensor<1x640x128xf32>
    %141 = "ttir.sin"(%111, %140) : (tensor<1x640x128xf32>, tensor<1x640x128xf32>) -> tensor<1x640x128xf32>
    %142 = ttir.empty() : tensor<1x640x128xbf16>
    %143 = "ttir.typecast"(%141, %142) <{conservative_folding = false}> : (tensor<1x640x128xf32>, tensor<1x640x128xbf16>) -> tensor<1x640x128xbf16>
    %144 = ttir.empty() : tensor<1x1x640x128xbf16>
    %145 = "ttir.reshape"(%143, %144) <{shape = [1 : i32, 1 : i32, 640 : i32, 128 : i32]}> : (tensor<1x640x128xbf16>, tensor<1x1x640x128xbf16>) -> tensor<1x1x640x128xbf16>
    %146 = ttir.empty() : tensor<1x1x640x128xf32>
    %147 = "ttir.typecast"(%145, %146) <{conservative_folding = false}> : (tensor<1x1x640x128xbf16>, tensor<1x1x640x128xf32>) -> tensor<1x1x640x128xf32>
    %148 = ttir.empty() : tensor<1x640x128xf32>
    %149 = "ttir.reshape"(%147, %148) <{shape = [1 : i32, 640 : i32, 128 : i32]}> : (tensor<1x1x640x128xf32>, tensor<1x640x128xf32>) -> tensor<1x640x128xf32>
    %150 = ttir.empty() : tensor<1x1x640x128xf32>
    %151 = "ttir.reshape"(%149, %150) <{shape = [1 : i32, 1 : i32, 640 : i32, 128 : i32]}> : (tensor<1x640x128xf32>, tensor<1x1x640x128xf32>) -> tensor<1x1x640x128xf32>
    %152 = ttir.empty() : tensor<1x24x640x128xf32>
    %153 = "ttir.broadcast"(%151, %152) <{broadcast_dimensions = array<i64: 1, 24, 1, 1>}> : (tensor<1x1x640x128xf32>, tensor<1x24x640x128xf32>) -> tensor<1x24x640x128xf32>
    %154 = ttir.empty() : tensor<1x24x640x128xf32>
    %155 = "ttir.multiply"(%139, %153, %154) : (tensor<1x24x640x128xf32>, tensor<1x24x640x128xf32>, tensor<1x24x640x128xf32>) -> tensor<1x24x640x128xf32>
    %156 = ttir.empty() : tensor<1x24x640x128xbf16>
    %157 = "ttir.typecast"(%155, %156) <{conservative_folding = false}> : (tensor<1x24x640x128xf32>, tensor<1x24x640x128xbf16>) -> tensor<1x24x640x128xbf16>
    %158 = ttir.empty() : tensor<1x24x640x128xbf16>
    %159 = "ttir.add"(%129, %157, %158) : (tensor<1x24x640x128xbf16>, tensor<1x24x640x128xbf16>, tensor<1x24x640x128xbf16>) -> tensor<1x24x640x128xbf16>
    %160 = ttir.empty() : tensor<24x640x128xbf16>
    %161 = "ttir.reshape"(%159, %160) <{shape = [24 : i32, 640 : i32, 128 : i32]}> : (tensor<1x24x640x128xbf16>, tensor<24x640x128xbf16>) -> tensor<24x640x128xbf16>
    %162 = ttir.empty() : tensor<1x1024x3072xbf16>
    %163 = "ttir.reshape"(%arg13, %162) <{shape = [1 : i32, 1024 : i32, 3072 : i32]}> : (tensor<1024x3072xbf16>, tensor<1x1024x3072xbf16>) -> tensor<1x1024x3072xbf16>
    %164 = ttir.empty() : tensor<1024x3072xbf16>
    %165 = "ttir.reshape"(%163, %164) <{shape = [1024 : i32, 3072 : i32]}> : (tensor<1x1024x3072xbf16>, tensor<1024x3072xbf16>) -> tensor<1024x3072xbf16>
    %166 = ttir.empty() : tensor<3072x1024xbf16>
    %167 = "ttir.permute"(%165, %166) <{permutation = array<i64: 1, 0>}> : (tensor<1024x3072xbf16>, tensor<3072x1024xbf16>) -> tensor<3072x1024xbf16>
    %168 = "ttir.dot_general"(%68, %167) <{batch_dims_lhs = array<i64>, batch_dims_rhs = array<i64>, contract_dims_lhs = array<i64: 1>, contract_dims_rhs = array<i64: 0>}> : (tensor<640x3072xbf16>, tensor<3072x1024xbf16>) -> tensor<640x1024xbf16>
    %169 = ttir.empty() : tensor<1x640x8x128xbf16>
    %170 = "ttir.reshape"(%168, %169) <{shape = [1 : i32, 640 : i32, 8 : i32, 128 : i32]}> : (tensor<640x1024xbf16>, tensor<1x640x8x128xbf16>) -> tensor<1x640x8x128xbf16>
    %171 = ttir.empty() : tensor<1x8x640x128xbf16>
    %172 = "ttir.permute"(%170, %171) <{permutation = array<i64: 0, 2, 1, 3>}> : (tensor<1x640x8x128xbf16>, tensor<1x8x640x128xbf16>) -> tensor<1x8x640x128xbf16>
    %173 = ttir.empty() : tensor<1x8x640x128xf32>
    %174 = "ttir.typecast"(%172, %173) <{conservative_folding = false}> : (tensor<1x8x640x128xbf16>, tensor<1x8x640x128xf32>) -> tensor<1x8x640x128xf32>
    %175 = ttir.empty() : tensor<1x1x640x128xf32>
    %176 = "ttir.reshape"(%121, %175) <{shape = [1 : i32, 1 : i32, 640 : i32, 128 : i32]}> : (tensor<1x640x128xf32>, tensor<1x1x640x128xf32>) -> tensor<1x1x640x128xf32>
    %177 = ttir.empty() : tensor<1x8x640x128xf32>
    %178 = "ttir.broadcast"(%176, %177) <{broadcast_dimensions = array<i64: 1, 8, 1, 1>}> : (tensor<1x1x640x128xf32>, tensor<1x8x640x128xf32>) -> tensor<1x8x640x128xf32>
    %179 = ttir.empty() : tensor<1x8x640x128xf32>
    %180 = "ttir.multiply"(%174, %178, %179) : (tensor<1x8x640x128xf32>, tensor<1x8x640x128xf32>, tensor<1x8x640x128xf32>) -> tensor<1x8x640x128xf32>
    %181 = ttir.empty() : tensor<1x8x640x128xbf16>
    %182 = "ttir.typecast"(%180, %181) <{conservative_folding = false}> : (tensor<1x8x640x128xf32>, tensor<1x8x640x128xbf16>) -> tensor<1x8x640x128xbf16>
    %183 = ttir.empty() : tensor<1x8x640x64xbf16>
    %184 = "ttir.slice_static"(%172, %183) <{begins = [0 : i32, 0 : i32, 0 : i32, 64 : i32], ends = [1 : i32, 8 : i32, 640 : i32, 128 : i32], step = [1 : i32, 1 : i32, 1 : i32, 1 : i32]}> : (tensor<1x8x640x128xbf16>, tensor<1x8x640x64xbf16>) -> tensor<1x8x640x64xbf16>
    %185 = ttir.empty() : tensor<1x8x640x64xbf16>
    %186 = "ttir.neg"(%184, %185) : (tensor<1x8x640x64xbf16>, tensor<1x8x640x64xbf16>) -> tensor<1x8x640x64xbf16>
    %187 = ttir.empty() : tensor<1x8x640x64xbf16>
    %188 = "ttir.slice_static"(%172, %187) <{begins = [0 : i32, 0 : i32, 0 : i32, 0 : i32], ends = [1 : i32, 8 : i32, 640 : i32, 64 : i32], step = [1 : i32, 1 : i32, 1 : i32, 1 : i32]}> : (tensor<1x8x640x128xbf16>, tensor<1x8x640x64xbf16>) -> tensor<1x8x640x64xbf16>
    %189 = ttir.empty() : tensor<1x8x640x128xbf16>
    %190 = "ttir.concat"(%186, %188, %189) <{dim = 3 : si32}> : (tensor<1x8x640x64xbf16>, tensor<1x8x640x64xbf16>, tensor<1x8x640x128xbf16>) -> tensor<1x8x640x128xbf16>
    %191 = ttir.empty() : tensor<1x8x640x128xf32>
    %192 = "ttir.typecast"(%190, %191) <{conservative_folding = false}> : (tensor<1x8x640x128xbf16>, tensor<1x8x640x128xf32>) -> tensor<1x8x640x128xf32>
    %193 = ttir.empty() : tensor<1x1x640x128xf32>
    %194 = "ttir.reshape"(%149, %193) <{shape = [1 : i32, 1 : i32, 640 : i32, 128 : i32]}> : (tensor<1x640x128xf32>, tensor<1x1x640x128xf32>) -> tensor<1x1x640x128xf32>
    %195 = ttir.empty() : tensor<1x8x640x128xf32>
    %196 = "ttir.broadcast"(%194, %195) <{broadcast_dimensions = array<i64: 1, 8, 1, 1>}> : (tensor<1x1x640x128xf32>, tensor<1x8x640x128xf32>) -> tensor<1x8x640x128xf32>
    %197 = ttir.empty() : tensor<1x8x640x128xf32>
    %198 = "ttir.multiply"(%192, %196, %197) : (tensor<1x8x640x128xf32>, tensor<1x8x640x128xf32>, tensor<1x8x640x128xf32>) -> tensor<1x8x640x128xf32>
    %199 = ttir.empty() : tensor<1x8x640x128xbf16>
    %200 = "ttir.typecast"(%198, %199) <{conservative_folding = false}> : (tensor<1x8x640x128xf32>, tensor<1x8x640x128xbf16>) -> tensor<1x8x640x128xbf16>
    %201 = ttir.empty() : tensor<1x8x640x128xbf16>
    %202 = "ttir.add"(%182, %200, %201) : (tensor<1x8x640x128xbf16>, tensor<1x8x640x128xbf16>, tensor<1x8x640x128xbf16>) -> tensor<1x8x640x128xbf16>
    %203 = ttir.empty() : tensor<1x8x1x640x128xbf16>
    %204 = "ttir.reshape"(%202, %203) <{shape = [1 : i32, 8 : i32, 1 : i32, 640 : i32, 128 : i32]}> : (tensor<1x8x640x128xbf16>, tensor<1x8x1x640x128xbf16>) -> tensor<1x8x1x640x128xbf16>
    %205 = ttir.empty() : tensor<1x8x3x640x128xbf16>
    %206 = "ttir.broadcast"(%204, %205) <{broadcast_dimensions = array<i64: 1, 1, 3, 1, 1>}> : (tensor<1x8x1x640x128xbf16>, tensor<1x8x3x640x128xbf16>) -> tensor<1x8x3x640x128xbf16>
    %207 = ttir.empty() : tensor<1x24x640x128xbf16>
    %208 = "ttir.reshape"(%206, %207) <{shape = [1 : i32, 24 : i32, 640 : i32, 128 : i32]}> : (tensor<1x8x3x640x128xbf16>, tensor<1x24x640x128xbf16>) -> tensor<1x24x640x128xbf16>
    %209 = ttir.empty() : tensor<1x24x128x640xbf16>
    %210 = "ttir.permute"(%208, %209) <{permutation = array<i64: 0, 1, 3, 2>}> : (tensor<1x24x640x128xbf16>, tensor<1x24x128x640xbf16>) -> tensor<1x24x128x640xbf16>
    %211 = ttir.empty() : tensor<24x128x640xbf16>
    %212 = "ttir.reshape"(%210, %211) <{shape = [24 : i32, 128 : i32, 640 : i32]}> : (tensor<1x24x128x640xbf16>, tensor<24x128x640xbf16>) -> tensor<24x128x640xbf16>
    %213 = "ttir.dot_general"(%161, %212) <{batch_dims_lhs = array<i64: 0>, batch_dims_rhs = array<i64: 0>, contract_dims_lhs = array<i64: 2>, contract_dims_rhs = array<i64: 1>}> : (tensor<24x640x128xbf16>, tensor<24x128x640xbf16>) -> tensor<24x640x640xbf16>
    %214 = ttir.empty() : tensor<1x24x640x640xbf16>
    %215 = "ttir.reshape"(%213, %214) <{shape = [1 : i32, 24 : i32, 640 : i32, 640 : i32]}> : (tensor<24x640x640xbf16>, tensor<1x24x640x640xbf16>) -> tensor<1x24x640x640xbf16>
    %216 = ttir.empty() : tensor<1x24x640x640xf32>
    %217 = "ttir.typecast"(%215, %216) <{conservative_folding = false}> : (tensor<1x24x640x640xbf16>, tensor<1x24x640x640xf32>) -> tensor<1x24x640x640xf32>
    %218 = ttir.empty() : tensor<1x1x1x1xf32>
    %219 = "ttir.reshape"(%arg11, %218) <{shape = [1 : i32, 1 : i32, 1 : i32, 1 : i32]}> : (tensor<f32>, tensor<1x1x1x1xf32>) -> tensor<1x1x1x1xf32>
    %220 = ttir.empty() : tensor<1x24x640x640xf32>
    %221 = "ttir.broadcast"(%219, %220) <{broadcast_dimensions = array<i64: 1, 24, 640, 640>}> : (tensor<1x1x1x1xf32>, tensor<1x24x640x640xf32>) -> tensor<1x24x640x640xf32>
    %222 = ttir.empty() : tensor<1x24x640x640xf32>
    %223 = "ttir.multiply"(%217, %221, %222) : (tensor<1x24x640x640xf32>, tensor<1x24x640x640xf32>, tensor<1x24x640x640xf32>) -> tensor<1x24x640x640xf32>
    %224 = ttir.empty() : tensor<1x24x640x640xbf16>
    %225 = "ttir.typecast"(%223, %224) <{conservative_folding = false}> : (tensor<1x24x640x640xf32>, tensor<1x24x640x640xbf16>) -> tensor<1x24x640x640xbf16>
    %226 = ttir.empty() : tensor<1x640xi64>
    %227 = "ttir.reshape"(%7, %226) <{shape = [1 : i32, 640 : i32]}> : (tensor<640xi64>, tensor<1x640xi64>) -> tensor<1x640xi64>
    %228 = ttir.empty() : tensor<640x640xi64>
    %229 = "ttir.broadcast"(%227, %228) <{broadcast_dimensions = array<i64: 640, 1>}> : (tensor<1x640xi64>, tensor<640x640xi64>) -> tensor<640x640xi64>
    %230 = ttir.empty() : tensor<640x1xi64>
    %231 = "ttir.reshape"(%7, %230) <{shape = [640 : i32, 1 : i32]}> : (tensor<640xi64>, tensor<640x1xi64>) -> tensor<640x1xi64>
    %232 = ttir.empty() : tensor<640x640xi64>
    %233 = "ttir.broadcast"(%231, %232) <{broadcast_dimensions = array<i64: 1, 640>}> : (tensor<640x1xi64>, tensor<640x640xi64>) -> tensor<640x640xi64>
    %234 = ttir.empty() : tensor<640x640xi64>
    %235 = "ttir.subtract"(%229, %233, %234) : (tensor<640x640xi64>, tensor<640x640xi64>, tensor<640x640xi64>) -> tensor<640x640xi64>
    %236 = ttir.empty() : tensor<640x640xi1>
    %237 = "ttir.ge"(%235, %2, %236) : (tensor<640x640xi64>, tensor<640x640xi64>, tensor<640x640xi1>) -> tensor<640x640xi1>
    %238 = ttir.empty() : tensor<1x1xbf16>
    %239 = "ttir.reshape"(%arg9, %238) <{shape = [1 : i32, 1 : i32]}> : (tensor<bf16>, tensor<1x1xbf16>) -> tensor<1x1xbf16>
    %240 = ttir.empty() : tensor<640x640xbf16>
    %241 = "ttir.broadcast"(%239, %240) <{broadcast_dimensions = array<i64: 640, 640>}> : (tensor<1x1xbf16>, tensor<640x640xbf16>) -> tensor<640x640xbf16>
    %242 = ttir.empty() : tensor<640x640xbf16>
    %243 = "ttir.where"(%237, %241, %1, %242) : (tensor<640x640xi1>, tensor<640x640xbf16>, tensor<640x640xbf16>, tensor<640x640xbf16>) -> tensor<640x640xbf16>
    %244 = ttir.empty() : tensor<640x640xf32>
    %245 = "ttir.typecast"(%243, %244) <{conservative_folding = false}> : (tensor<640x640xbf16>, tensor<640x640xf32>) -> tensor<640x640xf32>
    %246 = ttir.empty() : tensor<640x640xi1>
    %247 = "ttir.gt"(%229, %233, %246) : (tensor<640x640xi64>, tensor<640x640xi64>, tensor<640x640xi1>) -> tensor<640x640xi1>
    %248 = ttir.empty() : tensor<640x640xf32>
    %249 = "ttir.typecast"(%247, %248) <{conservative_folding = false}> : (tensor<640x640xi1>, tensor<640x640xf32>) -> tensor<640x640xf32>
    %250 = ttir.empty() : tensor<640x640xf32>
    %251 = "ttir.multiply"(%245, %249, %250) : (tensor<640x640xf32>, tensor<640x640xf32>, tensor<640x640xf32>) -> tensor<640x640xf32>
    %252 = ttir.empty() : tensor<640x640xbf16>
    %253 = "ttir.typecast"(%251, %252) <{conservative_folding = false}> : (tensor<640x640xf32>, tensor<640x640xbf16>) -> tensor<640x640xbf16>
    %254 = ttir.empty() : tensor<1x1x640x640xbf16>
    %255 = "ttir.reshape"(%253, %254) <{shape = [1 : i32, 1 : i32, 640 : i32, 640 : i32]}> : (tensor<640x640xbf16>, tensor<1x1x640x640xbf16>) -> tensor<1x1x640x640xbf16>
    %256 = ttir.empty() : tensor<1x1x640xi64>
    %257 = "ttir.reshape"(%arg10, %256) <{shape = [1 : i32, 1 : i32, 640 : i32]}> : (tensor<1x640xi64>, tensor<1x1x640xi64>) -> tensor<1x1x640xi64>
    %258 = ttir.empty() : tensor<1x1x1x640xi64>
    %259 = "ttir.reshape"(%257, %258) <{shape = [1 : i32, 1 : i32, 1 : i32, 640 : i32]}> : (tensor<1x1x640xi64>, tensor<1x1x1x640xi64>) -> tensor<1x1x1x640xi64>
    %260 = ttir.empty() : tensor<1x1x1x640xbf16>
    %261 = "ttir.typecast"(%259, %260) <{conservative_folding = false}> : (tensor<1x1x1x640xi64>, tensor<1x1x1x640xbf16>) -> tensor<1x1x1x640xbf16>
    %262 = ttir.empty() : tensor<1x1x640xbf16>
    %263 = "ttir.reshape"(%261, %262) <{shape = [1 : i32, 1 : i32, 640 : i32]}> : (tensor<1x1x1x640xbf16>, tensor<1x1x640xbf16>) -> tensor<1x1x640xbf16>
    %264 = ttir.empty() : tensor<1x1x1x640xbf16>
    %265 = "ttir.reshape"(%263, %264) <{shape = [1 : i32, 1 : i32, 1 : i32, 640 : i32]}> : (tensor<1x1x640xbf16>, tensor<1x1x1x640xbf16>) -> tensor<1x1x1x640xbf16>
    %266 = ttir.empty() : tensor<1x1x640x640xbf16>
    %267 = "ttir.broadcast"(%265, %266) <{broadcast_dimensions = array<i64: 1, 1, 640, 1>}> : (tensor<1x1x1x640xbf16>, tensor<1x1x640x640xbf16>) -> tensor<1x1x640x640xbf16>
    %268 = ttir.empty() : tensor<1x1x640x640xbf16>
    %269 = "ttir.add"(%255, %267, %268) : (tensor<1x1x640x640xbf16>, tensor<1x1x640x640xbf16>, tensor<1x1x640x640xbf16>) -> tensor<1x1x640x640xbf16>
    %270 = ttir.empty() : tensor<1x1x640x640xi1>
    %271 = "ttir.eq"(%269, %0, %270) : (tensor<1x1x640x640xbf16>, tensor<1x1x640x640xbf16>, tensor<1x1x640x640xi1>) -> tensor<1x1x640x640xi1>
    %272 = ttir.empty() : tensor<1x1xbf16>
    %273 = "ttir.reshape"(%arg9, %272) <{shape = [1 : i32, 1 : i32]}> : (tensor<bf16>, tensor<1x1xbf16>) -> tensor<1x1xbf16>
    %274 = ttir.empty() : tensor<1x1x1x1xbf16>
    %275 = "ttir.reshape"(%273, %274) <{shape = [1 : i32, 1 : i32, 1 : i32, 1 : i32]}> : (tensor<1x1xbf16>, tensor<1x1x1x1xbf16>) -> tensor<1x1x1x1xbf16>
    %276 = ttir.empty() : tensor<1x1x640x640xbf16>
    %277 = "ttir.broadcast"(%275, %276) <{broadcast_dimensions = array<i64: 1, 1, 640, 640>}> : (tensor<1x1x1x1xbf16>, tensor<1x1x640x640xbf16>) -> tensor<1x1x640x640xbf16>
    %278 = ttir.empty() : tensor<1x1x640x640xbf16>
    %279 = "ttir.where"(%271, %277, %255, %278) : (tensor<1x1x640x640xi1>, tensor<1x1x640x640xbf16>, tensor<1x1x640x640xbf16>, tensor<1x1x640x640xbf16>) -> tensor<1x1x640x640xbf16>
    %280 = ttir.empty() : tensor<1x640x640xbf16>
    %281 = "ttir.reshape"(%279, %280) <{shape = [1 : i32, 640 : i32, 640 : i32]}> : (tensor<1x1x640x640xbf16>, tensor<1x640x640xbf16>) -> tensor<1x640x640xbf16>
    %282 = ttir.empty() : tensor<1x1x640x640xbf16>
    %283 = "ttir.reshape"(%281, %282) <{shape = [1 : i32, 1 : i32, 640 : i32, 640 : i32]}> : (tensor<1x640x640xbf16>, tensor<1x1x640x640xbf16>) -> tensor<1x1x640x640xbf16>
    %284 = ttir.empty() : tensor<1x24x640x640xbf16>
    %285 = "ttir.broadcast"(%283, %284) <{broadcast_dimensions = array<i64: 1, 24, 1, 1>}> : (tensor<1x1x640x640xbf16>, tensor<1x24x640x640xbf16>) -> tensor<1x24x640x640xbf16>
    %286 = ttir.empty() : tensor<1x24x640x640xbf16>
    %287 = "ttir.add"(%225, %285, %286) : (tensor<1x24x640x640xbf16>, tensor<1x24x640x640xbf16>, tensor<1x24x640x640xbf16>) -> tensor<1x24x640x640xbf16>
    %288 = ttir.empty() : tensor<1x24x640x640xf32>
    %289 = "ttir.typecast"(%287, %288) <{conservative_folding = false}> : (tensor<1x24x640x640xbf16>, tensor<1x24x640x640xf32>) -> tensor<1x24x640x640xf32>
    %290 = ttir.empty() : tensor<1x24x640xf32>
    %291 = "ttir.max"(%289, %290) <{dim_arg = [3 : i32], keep_dim = false}> : (tensor<1x24x640x640xf32>, tensor<1x24x640xf32>) -> tensor<1x24x640xf32>
    %292 = ttir.empty() : tensor<1x24x640x1xf32>
    %293 = "ttir.reshape"(%291, %292) <{shape = [1 : i32, 24 : i32, 640 : i32, 1 : i32]}> : (tensor<1x24x640xf32>, tensor<1x24x640x1xf32>) -> tensor<1x24x640x1xf32>
    %294 = ttir.empty() : tensor<1x24x640x640xf32>
    %295 = "ttir.broadcast"(%293, %294) <{broadcast_dimensions = array<i64: 1, 1, 1, 640>}> : (tensor<1x24x640x1xf32>, tensor<1x24x640x640xf32>) -> tensor<1x24x640x640xf32>
    %296 = ttir.empty() : tensor<1x24x640x640xf32>
    %297 = "ttir.subtract"(%289, %295, %296) : (tensor<1x24x640x640xf32>, tensor<1x24x640x640xf32>, tensor<1x24x640x640xf32>) -> tensor<1x24x640x640xf32>
    %298 = ttir.empty() : tensor<1x24x640x640xf32>
    %299 = "ttir.exp"(%297, %298) : (tensor<1x24x640x640xf32>, tensor<1x24x640x640xf32>) -> tensor<1x24x640x640xf32>
    %300 = ttir.empty() : tensor<1x24x640xf32>
    %301 = "ttir.sum"(%299, %300) <{dim_arg = [3 : i32], keep_dim = false}> : (tensor<1x24x640x640xf32>, tensor<1x24x640xf32>) -> tensor<1x24x640xf32>
    %302 = ttir.empty() : tensor<1x24x640x1xf32>
    %303 = "ttir.reshape"(%301, %302) <{shape = [1 : i32, 24 : i32, 640 : i32, 1 : i32]}> : (tensor<1x24x640xf32>, tensor<1x24x640x1xf32>) -> tensor<1x24x640x1xf32>
    %304 = ttir.empty() : tensor<1x24x640x640xf32>
    %305 = "ttir.broadcast"(%303, %304) <{broadcast_dimensions = array<i64: 1, 1, 1, 640>}> : (tensor<1x24x640x1xf32>, tensor<1x24x640x640xf32>) -> tensor<1x24x640x640xf32>
    %306 = ttir.empty() : tensor<1x24x640x640xf32>
    %307 = "ttir.div"(%299, %305, %306) : (tensor<1x24x640x640xf32>, tensor<1x24x640x640xf32>, tensor<1x24x640x640xf32>) -> tensor<1x24x640x640xf32>
    %308 = ttir.empty() : tensor<1x24x640x640xbf16>
    %309 = "ttir.typecast"(%307, %308) <{conservative_folding = false}> : (tensor<1x24x640x640xf32>, tensor<1x24x640x640xbf16>) -> tensor<1x24x640x640xbf16>
    %310 = ttir.empty() : tensor<24x640x640xbf16>
    %311 = "ttir.reshape"(%309, %310) <{shape = [24 : i32, 640 : i32, 640 : i32]}> : (tensor<1x24x640x640xbf16>, tensor<24x640x640xbf16>) -> tensor<24x640x640xbf16>
    %312 = ttir.empty() : tensor<1x8x1x640x128xbf16>
    %313 = "ttir.reshape"(%79, %312) <{shape = [1 : i32, 8 : i32, 1 : i32, 640 : i32, 128 : i32]}> : (tensor<1x8x640x128xbf16>, tensor<1x8x1x640x128xbf16>) -> tensor<1x8x1x640x128xbf16>
    %314 = ttir.empty() : tensor<1x8x3x640x128xbf16>
    %315 = "ttir.broadcast"(%313, %314) <{broadcast_dimensions = array<i64: 1, 1, 3, 1, 1>}> : (tensor<1x8x1x640x128xbf16>, tensor<1x8x3x640x128xbf16>) -> tensor<1x8x3x640x128xbf16>
    %316 = ttir.empty() : tensor<24x640x128xbf16>
    %317 = "ttir.reshape"(%315, %316) <{shape = [24 : i32, 640 : i32, 128 : i32]}> : (tensor<1x8x3x640x128xbf16>, tensor<24x640x128xbf16>) -> tensor<24x640x128xbf16>
    %318 = "ttir.dot_general"(%311, %317) <{batch_dims_lhs = array<i64: 0>, batch_dims_rhs = array<i64: 0>, contract_dims_lhs = array<i64: 2>, contract_dims_rhs = array<i64: 1>}> : (tensor<24x640x640xbf16>, tensor<24x640x128xbf16>) -> tensor<24x640x128xbf16>
    %319 = ttir.empty() : tensor<1x24x640x128xbf16>
    %320 = "ttir.reshape"(%318, %319) <{shape = [1 : i32, 24 : i32, 640 : i32, 128 : i32]}> : (tensor<24x640x128xbf16>, tensor<1x24x640x128xbf16>) -> tensor<1x24x640x128xbf16>
    %321 = ttir.empty() : tensor<1x640x24x128xbf16>
    %322 = "ttir.permute"(%320, %321) <{permutation = array<i64: 0, 2, 1, 3>}> : (tensor<1x24x640x128xbf16>, tensor<1x640x24x128xbf16>) -> tensor<1x640x24x128xbf16>
    %323 = ttir.empty() : tensor<640x3072xbf16>
    %324 = "ttir.reshape"(%322, %323) <{shape = [640 : i32, 3072 : i32]}> : (tensor<1x640x24x128xbf16>, tensor<640x3072xbf16>) -> tensor<640x3072xbf16>
    %325 = ttir.empty() : tensor<1x3072x3072xbf16>
    %326 = "ttir.reshape"(%arg8, %325) <{shape = [1 : i32, 3072 : i32, 3072 : i32]}> : (tensor<3072x3072xbf16>, tensor<1x3072x3072xbf16>) -> tensor<1x3072x3072xbf16>
    %327 = ttir.empty() : tensor<3072x3072xbf16>
    %328 = "ttir.reshape"(%326, %327) <{shape = [3072 : i32, 3072 : i32]}> : (tensor<1x3072x3072xbf16>, tensor<3072x3072xbf16>) -> tensor<3072x3072xbf16>
    %329 = ttir.empty() : tensor<3072x3072xbf16>
    %330 = "ttir.permute"(%328, %329) <{permutation = array<i64: 1, 0>}> : (tensor<3072x3072xbf16>, tensor<3072x3072xbf16>) -> tensor<3072x3072xbf16>
    %331 = "ttir.dot_general"(%324, %330) <{batch_dims_lhs = array<i64>, batch_dims_rhs = array<i64>, contract_dims_lhs = array<i64: 1>, contract_dims_rhs = array<i64: 0>}> : (tensor<640x3072xbf16>, tensor<3072x3072xbf16>) -> tensor<640x3072xbf16>
    %332 = ttir.empty() : tensor<1x640x3072xbf16>
    %333 = "ttir.reshape"(%331, %332) <{shape = [1 : i32, 640 : i32, 3072 : i32]}> : (tensor<640x3072xbf16>, tensor<1x640x3072xbf16>) -> tensor<1x640x3072xbf16>
    %334 = ttir.empty() : tensor<1x640x3072xbf16>
    %335 = "ttir.add"(%32, %333, %334) : (tensor<1x640x3072xbf16>, tensor<1x640x3072xbf16>, tensor<1x640x3072xbf16>) -> tensor<1x640x3072xbf16>
    %336 = ttir.empty() : tensor<1x1x3072xbf16>
    %337 = "ttir.reshape"(%arg15, %336) <{shape = [1 : i32, 1 : i32, 3072 : i32]}> : (tensor<3072xbf16>, tensor<1x1x3072xbf16>) -> tensor<1x1x3072xbf16>
    %338 = ttir.empty() : tensor<3072xbf16>
    %339 = "ttir.reshape"(%337, %338) <{shape = [3072 : i32]}> : (tensor<1x1x3072xbf16>, tensor<3072xbf16>) -> tensor<3072xbf16>
    %340 = ttir.empty() : tensor<3072xf32>
    %341 = "ttir.typecast"(%339, %340) <{conservative_folding = false}> : (tensor<3072xbf16>, tensor<3072xf32>) -> tensor<3072xf32>
    %342 = ttir.empty() : tensor<1x1x3072xf32>
    %343 = "ttir.reshape"(%341, %342) <{shape = [1 : i32, 1 : i32, 3072 : i32]}> : (tensor<3072xf32>, tensor<1x1x3072xf32>) -> tensor<1x1x3072xf32>
    %344 = ttir.empty() : tensor<1x640x3072xf32>
    %345 = "ttir.broadcast"(%343, %344) <{broadcast_dimensions = array<i64: 1, 640, 1>}> : (tensor<1x1x3072xf32>, tensor<1x640x3072xf32>) -> tensor<1x640x3072xf32>
    %346 = ttir.empty() : tensor<1x640x3072xf32>
    %347 = "ttir.typecast"(%335, %346) <{conservative_folding = false}> : (tensor<1x640x3072xbf16>, tensor<1x640x3072xf32>) -> tensor<1x640x3072xf32>
    %348 = ttir.empty() : tensor<1x640x3072xf32>
    %349 = "ttir.pow"(%347, %5, %348) : (tensor<1x640x3072xf32>, tensor<1x640x3072xf32>, tensor<1x640x3072xf32>) -> tensor<1x640x3072xf32>
    %350 = ttir.empty() : tensor<1x640xf32>
    %351 = "ttir.sum"(%349, %350) <{dim_arg = [2 : i32], keep_dim = false}> : (tensor<1x640x3072xf32>, tensor<1x640xf32>) -> tensor<1x640xf32>
    %352 = ttir.empty() : tensor<1x640xf32>
    %353 = "ttir.multiply"(%351, %4, %352) : (tensor<1x640xf32>, tensor<1x640xf32>, tensor<1x640xf32>) -> tensor<1x640xf32>
    %354 = ttir.empty() : tensor<1x640x1xf32>
    %355 = "ttir.reshape"(%353, %354) <{shape = [1 : i32, 640 : i32, 1 : i32]}> : (tensor<1x640xf32>, tensor<1x640x1xf32>) -> tensor<1x640x1xf32>
    %356 = ttir.empty() : tensor<1x640x1xf32>
    %357 = "ttir.add"(%355, %46, %356) : (tensor<1x640x1xf32>, tensor<1x640x1xf32>, tensor<1x640x1xf32>) -> tensor<1x640x1xf32>
    %358 = ttir.empty() : tensor<1x640x1xf32>
    %359 = "ttir.rsqrt"(%357, %358) : (tensor<1x640x1xf32>, tensor<1x640x1xf32>) -> tensor<1x640x1xf32>
    %360 = ttir.empty() : tensor<1x640xf32>
    %361 = "ttir.reshape"(%359, %360) <{shape = [1 : i32, 640 : i32]}> : (tensor<1x640x1xf32>, tensor<1x640xf32>) -> tensor<1x640xf32>
    %362 = ttir.empty() : tensor<1x640x1xf32>
    %363 = "ttir.reshape"(%361, %362) <{shape = [1 : i32, 640 : i32, 1 : i32]}> : (tensor<1x640xf32>, tensor<1x640x1xf32>) -> tensor<1x640x1xf32>
    %364 = ttir.empty() : tensor<1x640x3072xf32>
    %365 = "ttir.broadcast"(%363, %364) <{broadcast_dimensions = array<i64: 1, 1, 3072>}> : (tensor<1x640x1xf32>, tensor<1x640x3072xf32>) -> tensor<1x640x3072xf32>
    %366 = ttir.empty() : tensor<1x640x3072xf32>
    %367 = "ttir.multiply"(%347, %365, %366) : (tensor<1x640x3072xf32>, tensor<1x640x3072xf32>, tensor<1x640x3072xf32>) -> tensor<1x640x3072xf32>
    %368 = ttir.empty() : tensor<1x640x3072xbf16>
    %369 = "ttir.typecast"(%367, %368) <{conservative_folding = false}> : (tensor<1x640x3072xf32>, tensor<1x640x3072xbf16>) -> tensor<1x640x3072xbf16>
    %370 = ttir.empty() : tensor<1x640x3072xf32>
    %371 = "ttir.typecast"(%369, %370) <{conservative_folding = false}> : (tensor<1x640x3072xbf16>, tensor<1x640x3072xf32>) -> tensor<1x640x3072xf32>
    %372 = ttir.empty() : tensor<1x640x3072xf32>
    %373 = "ttir.multiply"(%345, %371, %372) : (tensor<1x640x3072xf32>, tensor<1x640x3072xf32>, tensor<1x640x3072xf32>) -> tensor<1x640x3072xf32>
    %374 = ttir.empty() : tensor<1x640x3072xbf16>
    %375 = "ttir.typecast"(%373, %374) <{conservative_folding = false}> : (tensor<1x640x3072xf32>, tensor<1x640x3072xbf16>) -> tensor<1x640x3072xbf16>
    %376 = ttir.empty() : tensor<640x3072xbf16>
    %377 = "ttir.reshape"(%375, %376) <{shape = [640 : i32, 3072 : i32]}> : (tensor<1x640x3072xbf16>, tensor<640x3072xbf16>) -> tensor<640x3072xbf16>
    %378 = ttir.empty() : tensor<1x8192x3072xbf16>
    %379 = "ttir.reshape"(%arg16, %378) <{shape = [1 : i32, 8192 : i32, 3072 : i32]}> : (tensor<8192x3072xbf16>, tensor<1x8192x3072xbf16>) -> tensor<1x8192x3072xbf16>
    %380 = ttir.empty() : tensor<8192x3072xbf16>
    %381 = "ttir.reshape"(%379, %380) <{shape = [8192 : i32, 3072 : i32]}> : (tensor<1x8192x3072xbf16>, tensor<8192x3072xbf16>) -> tensor<8192x3072xbf16>
    %382 = ttir.empty() : tensor<3072x8192xbf16>
    %383 = "ttir.permute"(%381, %382) <{permutation = array<i64: 1, 0>}> : (tensor<8192x3072xbf16>, tensor<3072x8192xbf16>) -> tensor<3072x8192xbf16>
    %384 = "ttir.dot_general"(%377, %383) <{batch_dims_lhs = array<i64>, batch_dims_rhs = array<i64>, contract_dims_lhs = array<i64: 1>, contract_dims_rhs = array<i64: 0>}> : (tensor<640x3072xbf16>, tensor<3072x8192xbf16>) -> tensor<640x8192xbf16>
    %385 = ttir.empty() : tensor<1x640x8192xbf16>
    %386 = "ttir.reshape"(%384, %385) <{shape = [1 : i32, 640 : i32, 8192 : i32]}> : (tensor<640x8192xbf16>, tensor<1x640x8192xbf16>) -> tensor<1x640x8192xbf16>
    %387 = ttir.empty() : tensor<1x640x8192xf32>
    %388 = "ttir.typecast"(%386, %387) <{conservative_folding = false}> : (tensor<1x640x8192xbf16>, tensor<1x640x8192xf32>) -> tensor<1x640x8192xf32>
    %389 = ttir.empty() : tensor<1x640x8192xbf16>
    %390 = "ttir.sigmoid"(%386, %389) : (tensor<1x640x8192xbf16>, tensor<1x640x8192xbf16>) -> tensor<1x640x8192xbf16>
    %391 = ttir.empty() : tensor<1x640x8192xf32>
    %392 = "ttir.typecast"(%390, %391) <{conservative_folding = false}> : (tensor<1x640x8192xbf16>, tensor<1x640x8192xf32>) -> tensor<1x640x8192xf32>
    %393 = ttir.empty() : tensor<1x640x8192xf32>
    %394 = "ttir.multiply"(%388, %392, %393) : (tensor<1x640x8192xf32>, tensor<1x640x8192xf32>, tensor<1x640x8192xf32>) -> tensor<1x640x8192xf32>
    %395 = ttir.empty() : tensor<1x640x8192xbf16>
    %396 = "ttir.typecast"(%394, %395) <{conservative_folding = false}> : (tensor<1x640x8192xf32>, tensor<1x640x8192xbf16>) -> tensor<1x640x8192xbf16>
    %397 = ttir.empty() : tensor<1x640x8192xf32>
    %398 = "ttir.typecast"(%396, %397) <{conservative_folding = false}> : (tensor<1x640x8192xbf16>, tensor<1x640x8192xf32>) -> tensor<1x640x8192xf32>
    %399 = ttir.empty() : tensor<1x8192x3072xbf16>
    %400 = "ttir.reshape"(%arg7, %399) <{shape = [1 : i32, 8192 : i32, 3072 : i32]}> : (tensor<8192x3072xbf16>, tensor<1x8192x3072xbf16>) -> tensor<1x8192x3072xbf16>
    %401 = ttir.empty() : tensor<8192x3072xbf16>
    %402 = "ttir.reshape"(%400, %401) <{shape = [8192 : i32, 3072 : i32]}> : (tensor<1x8192x3072xbf16>, tensor<8192x3072xbf16>) -> tensor<8192x3072xbf16>
    %403 = ttir.empty() : tensor<3072x8192xbf16>
    %404 = "ttir.permute"(%402, %403) <{permutation = array<i64: 1, 0>}> : (tensor<8192x3072xbf16>, tensor<3072x8192xbf16>) -> tensor<3072x8192xbf16>
    %405 = "ttir.dot_general"(%377, %404) <{batch_dims_lhs = array<i64>, batch_dims_rhs = array<i64>, contract_dims_lhs = array<i64: 1>, contract_dims_rhs = array<i64: 0>}> : (tensor<640x3072xbf16>, tensor<3072x8192xbf16>) -> tensor<640x8192xbf16>
    %406 = ttir.empty() : tensor<1x640x8192xbf16>
    %407 = "ttir.reshape"(%405, %406) <{shape = [1 : i32, 640 : i32, 8192 : i32]}> : (tensor<640x8192xbf16>, tensor<1x640x8192xbf16>) -> tensor<1x640x8192xbf16>
    %408 = ttir.empty() : tensor<1x640x8192xf32>
    %409 = "ttir.typecast"(%407, %408) <{conservative_folding = false}> : (tensor<1x640x8192xbf16>, tensor<1x640x8192xf32>) -> tensor<1x640x8192xf32>
    %410 = ttir.empty() : tensor<1x640x8192xf32>
    %411 = "ttir.multiply"(%398, %409, %410) : (tensor<1x640x8192xf32>, tensor<1x640x8192xf32>, tensor<1x640x8192xf32>) -> tensor<1x640x8192xf32>
    %412 = ttir.empty() : tensor<1x640x8192xbf16>
    %413 = "ttir.typecast"(%411, %412) <{conservative_folding = false}> : (tensor<1x640x8192xf32>, tensor<1x640x8192xbf16>) -> tensor<1x640x8192xbf16>
    %414 = ttir.empty() : tensor<640x8192xbf16>
    %415 = "ttir.reshape"(%413, %414) <{shape = [640 : i32, 8192 : i32]}> : (tensor<1x640x8192xbf16>, tensor<640x8192xbf16>) -> tensor<640x8192xbf16>
    %416 = ttir.empty() : tensor<1x3072x8192xbf16>
    %417 = "ttir.reshape"(%arg6, %416) <{shape = [1 : i32, 3072 : i32, 8192 : i32]}> : (tensor<3072x8192xbf16>, tensor<1x3072x8192xbf16>) -> tensor<1x3072x8192xbf16>
    %418 = ttir.empty() : tensor<3072x8192xbf16>
    %419 = "ttir.reshape"(%417, %418) <{shape = [3072 : i32, 8192 : i32]}> : (tensor<1x3072x8192xbf16>, tensor<3072x8192xbf16>) -> tensor<3072x8192xbf16>
    %420 = ttir.empty() : tensor<8192x3072xbf16>
    %421 = "ttir.permute"(%419, %420) <{permutation = array<i64: 1, 0>}> : (tensor<3072x8192xbf16>, tensor<8192x3072xbf16>) -> tensor<8192x3072xbf16>
    %422 = "ttir.dot_general"(%415, %421) <{batch_dims_lhs = array<i64>, batch_dims_rhs = array<i64>, contract_dims_lhs = array<i64: 1>, contract_dims_rhs = array<i64: 0>}> : (tensor<640x8192xbf16>, tensor<8192x3072xbf16>) -> tensor<640x3072xbf16>
    %423 = ttir.empty() : tensor<1x640x3072xbf16>
    %424 = "ttir.reshape"(%422, %423) <{shape = [1 : i32, 640 : i32, 3072 : i32]}> : (tensor<640x3072xbf16>, tensor<1x640x3072xbf16>) -> tensor<1x640x3072xbf16>
    %425 = ttir.empty() : tensor<1x640x3072xbf16>
    %426 = "ttir.add"(%335, %424, %425) : (tensor<1x640x3072xbf16>, tensor<1x640x3072xbf16>, tensor<1x640x3072xbf16>) -> tensor<1x640x3072xbf16>
    %427 = ttir.empty() : tensor<1x640x3072xf32>
    %428 = "ttir.typecast"(%426, %427) <{conservative_folding = false}> : (tensor<1x640x3072xbf16>, tensor<1x640x3072xf32>) -> tensor<1x640x3072xf32>
    %429 = ttir.empty() : tensor<1x640x3072xf32>
    %430 = "ttir.pow"(%428, %5, %429) : (tensor<1x640x3072xf32>, tensor<1x640x3072xf32>, tensor<1x640x3072xf32>) -> tensor<1x640x3072xf32>
    %431 = ttir.empty() : tensor<1x640xf32>
    %432 = "ttir.sum"(%430, %431) <{dim_arg = [2 : i32], keep_dim = false}> : (tensor<1x640x3072xf32>, tensor<1x640xf32>) -> tensor<1x640xf32>
    %433 = ttir.empty() : tensor<1x640xf32>
    %434 = "ttir.multiply"(%432, %4, %433) : (tensor<1x640xf32>, tensor<1x640xf32>, tensor<1x640xf32>) -> tensor<1x640xf32>
    %435 = ttir.empty() : tensor<1x640x1xf32>
    %436 = "ttir.reshape"(%434, %435) <{shape = [1 : i32, 640 : i32, 1 : i32]}> : (tensor<1x640xf32>, tensor<1x640x1xf32>) -> tensor<1x640x1xf32>
    %437 = ttir.empty() : tensor<1x640x1xf32>
    %438 = "ttir.add"(%436, %46, %437) : (tensor<1x640x1xf32>, tensor<1x640x1xf32>, tensor<1x640x1xf32>) -> tensor<1x640x1xf32>
    %439 = ttir.empty() : tensor<1x640x1xf32>
    %440 = "ttir.rsqrt"(%438, %439) : (tensor<1x640x1xf32>, tensor<1x640x1xf32>) -> tensor<1x640x1xf32>
    %441 = ttir.empty() : tensor<1x640xf32>
    %442 = "ttir.reshape"(%440, %441) <{shape = [1 : i32, 640 : i32]}> : (tensor<1x640x1xf32>, tensor<1x640xf32>) -> tensor<1x640xf32>
    %443 = ttir.empty() : tensor<1x640x1xf32>
    %444 = "ttir.reshape"(%442, %443) <{shape = [1 : i32, 640 : i32, 1 : i32]}> : (tensor<1x640xf32>, tensor<1x640x1xf32>) -> tensor<1x640x1xf32>
    %445 = ttir.empty() : tensor<1x640x3072xf32>
    %446 = "ttir.broadcast"(%444, %445) <{broadcast_dimensions = array<i64: 1, 1, 3072>}> : (tensor<1x640x1xf32>, tensor<1x640x3072xf32>) -> tensor<1x640x3072xf32>
    %447 = ttir.empty() : tensor<1x640x3072xf32>
    %448 = "ttir.multiply"(%428, %446, %447) : (tensor<1x640x3072xf32>, tensor<1x640x3072xf32>, tensor<1x640x3072xf32>) -> tensor<1x640x3072xf32>
    %449 = ttir.empty() : tensor<1x640x3072xbf16>
    %450 = "ttir.typecast"(%448, %449) <{conservative_folding = false}> : (tensor<1x640x3072xf32>, tensor<1x640x3072xbf16>) -> tensor<1x640x3072xbf16>
    %451 = ttir.empty() : tensor<1x640x3072xf32>
    %452 = "ttir.typecast"(%450, %451) <{conservative_folding = false}> : (tensor<1x640x3072xbf16>, tensor<1x640x3072xf32>) -> tensor<1x640x3072xf32>
    %453 = ttir.empty() : tensor<1x640x3072xf32>
    %454 = "ttir.multiply"(%89, %452, %453) : (tensor<1x640x3072xf32>, tensor<1x640x3072xf32>, tensor<1x640x3072xf32>) -> tensor<1x640x3072xf32>
    %455 = ttir.empty() : tensor<1x640x3072xbf16>
    %456 = "ttir.typecast"(%454, %455) <{conservative_folding = false}> : (tensor<1x640x3072xf32>, tensor<1x640x3072xbf16>) -> tensor<1x640x3072xbf16>
    %457 = ttir.empty() : tensor<640x3072xbf16>
    %458 = "ttir.reshape"(%456, %457) <{shape = [640 : i32, 3072 : i32]}> : (tensor<1x640x3072xbf16>, tensor<640x3072xbf16>) -> tensor<640x3072xbf16>
    %459 = ttir.empty() : tensor<1x1024x3072xbf16>
    %460 = "ttir.reshape"(%arg5, %459) <{shape = [1 : i32, 1024 : i32, 3072 : i32]}> : (tensor<1024x3072xbf16>, tensor<1x1024x3072xbf16>) -> tensor<1x1024x3072xbf16>
    %461 = ttir.empty() : tensor<1024x3072xbf16>
    %462 = "ttir.reshape"(%460, %461) <{shape = [1024 : i32, 3072 : i32]}> : (tensor<1x1024x3072xbf16>, tensor<1024x3072xbf16>) -> tensor<1024x3072xbf16>
    %463 = ttir.empty() : tensor<3072x1024xbf16>
    %464 = "ttir.permute"(%462, %463) <{permutation = array<i64: 1, 0>}> : (tensor<1024x3072xbf16>, tensor<3072x1024xbf16>) -> tensor<3072x1024xbf16>
    %465 = "ttir.dot_general"(%458, %464) <{batch_dims_lhs = array<i64>, batch_dims_rhs = array<i64>, contract_dims_lhs = array<i64: 1>, contract_dims_rhs = array<i64: 0>}> : (tensor<640x3072xbf16>, tensor<3072x1024xbf16>) -> tensor<640x1024xbf16>
    %466 = ttir.empty() : tensor<1x640x8x128xbf16>
    %467 = "ttir.reshape"(%465, %466) <{shape = [1 : i32, 640 : i32, 8 : i32, 128 : i32]}> : (tensor<640x1024xbf16>, tensor<1x640x8x128xbf16>) -> tensor<1x640x8x128xbf16>
    %468 = ttir.empty() : tensor<1x8x640x128xbf16>
    %469 = "ttir.permute"(%467, %468) <{permutation = array<i64: 0, 2, 1, 3>}> : (tensor<1x640x8x128xbf16>, tensor<1x8x640x128xbf16>) -> tensor<1x8x640x128xbf16>
    %470 = ttir.empty() : tensor<1x1x3072xbf16>
    %471 = "ttir.reshape"(%arg26, %470) <{shape = [1 : i32, 1 : i32, 3072 : i32]}> : (tensor<3072xbf16>, tensor<1x1x3072xbf16>) -> tensor<1x1x3072xbf16>
    %472 = ttir.empty() : tensor<3072xbf16>
    %473 = "ttir.reshape"(%471, %472) <{shape = [3072 : i32]}> : (tensor<1x1x3072xbf16>, tensor<3072xbf16>) -> tensor<3072xbf16>
    %474 = ttir.empty() : tensor<3072xf32>
    %475 = "ttir.typecast"(%473, %474) <{conservative_folding = false}> : (tensor<3072xbf16>, tensor<3072xf32>) -> tensor<3072xf32>
    %476 = ttir.empty() : tensor<1x1x3072xf32>
    %477 = "ttir.reshape"(%475, %476) <{shape = [1 : i32, 1 : i32, 3072 : i32]}> : (tensor<3072xf32>, tensor<1x1x3072xf32>) -> tensor<1x1x3072xf32>
    %478 = ttir.empty() : tensor<1x640x3072xf32>
    %479 = "ttir.broadcast"(%477, %478) <{broadcast_dimensions = array<i64: 1, 640, 1>}> : (tensor<1x1x3072xf32>, tensor<1x640x3072xf32>) -> tensor<1x640x3072xf32>
    %480 = ttir.empty() : tensor<1x3072x3072xbf16>
    %481 = "ttir.reshape"(%arg23, %480) <{shape = [1 : i32, 3072 : i32, 3072 : i32]}> : (tensor<3072x3072xbf16>, tensor<1x3072x3072xbf16>) -> tensor<1x3072x3072xbf16>
    %482 = ttir.empty() : tensor<3072x3072xbf16>
    %483 = "ttir.reshape"(%481, %482) <{shape = [3072 : i32, 3072 : i32]}> : (tensor<1x3072x3072xbf16>, tensor<3072x3072xbf16>) -> tensor<3072x3072xbf16>
    %484 = ttir.empty() : tensor<3072x3072xbf16>
    %485 = "ttir.permute"(%483, %484) <{permutation = array<i64: 1, 0>}> : (tensor<3072x3072xbf16>, tensor<3072x3072xbf16>) -> tensor<3072x3072xbf16>
    %486 = "ttir.dot_general"(%458, %485) <{batch_dims_lhs = array<i64>, batch_dims_rhs = array<i64>, contract_dims_lhs = array<i64: 1>, contract_dims_rhs = array<i64: 0>}> : (tensor<640x3072xbf16>, tensor<3072x3072xbf16>) -> tensor<640x3072xbf16>
    %487 = ttir.empty() : tensor<1x640x24x128xbf16>
    %488 = "ttir.reshape"(%486, %487) <{shape = [1 : i32, 640 : i32, 24 : i32, 128 : i32]}> : (tensor<640x3072xbf16>, tensor<1x640x24x128xbf16>) -> tensor<1x640x24x128xbf16>
    %489 = ttir.empty() : tensor<1x24x640x128xbf16>
    %490 = "ttir.permute"(%488, %489) <{permutation = array<i64: 0, 2, 1, 3>}> : (tensor<1x640x24x128xbf16>, tensor<1x24x640x128xbf16>) -> tensor<1x24x640x128xbf16>
    %491 = ttir.empty() : tensor<1x24x640x128xf32>
    %492 = "ttir.typecast"(%490, %491) <{conservative_folding = false}> : (tensor<1x24x640x128xbf16>, tensor<1x24x640x128xf32>) -> tensor<1x24x640x128xf32>
    %493 = ttir.empty() : tensor<1x24x640x128xf32>
    %494 = "ttir.multiply"(%492, %125, %493) : (tensor<1x24x640x128xf32>, tensor<1x24x640x128xf32>, tensor<1x24x640x128xf32>) -> tensor<1x24x640x128xf32>
    %495 = ttir.empty() : tensor<1x24x640x128xbf16>
    %496 = "ttir.typecast"(%494, %495) <{conservative_folding = false}> : (tensor<1x24x640x128xf32>, tensor<1x24x640x128xbf16>) -> tensor<1x24x640x128xbf16>
    %497 = ttir.empty() : tensor<1x24x640x64xbf16>
    %498 = "ttir.slice_static"(%490, %497) <{begins = [0 : i32, 0 : i32, 0 : i32, 64 : i32], ends = [1 : i32, 24 : i32, 640 : i32, 128 : i32], step = [1 : i32, 1 : i32, 1 : i32, 1 : i32]}> : (tensor<1x24x640x128xbf16>, tensor<1x24x640x64xbf16>) -> tensor<1x24x640x64xbf16>
    %499 = ttir.empty() : tensor<1x24x640x64xbf16>
    %500 = "ttir.neg"(%498, %499) : (tensor<1x24x640x64xbf16>, tensor<1x24x640x64xbf16>) -> tensor<1x24x640x64xbf16>
    %501 = ttir.empty() : tensor<1x24x640x64xbf16>
    %502 = "ttir.slice_static"(%490, %501) <{begins = [0 : i32, 0 : i32, 0 : i32, 0 : i32], ends = [1 : i32, 24 : i32, 640 : i32, 64 : i32], step = [1 : i32, 1 : i32, 1 : i32, 1 : i32]}> : (tensor<1x24x640x128xbf16>, tensor<1x24x640x64xbf16>) -> tensor<1x24x640x64xbf16>
    %503 = ttir.empty() : tensor<1x24x640x128xbf16>
    %504 = "ttir.concat"(%500, %502, %503) <{dim = 3 : si32}> : (tensor<1x24x640x64xbf16>, tensor<1x24x640x64xbf16>, tensor<1x24x640x128xbf16>) -> tensor<1x24x640x128xbf16>
    %505 = ttir.empty() : tensor<1x24x640x128xf32>
    %506 = "ttir.typecast"(%504, %505) <{conservative_folding = false}> : (tensor<1x24x640x128xbf16>, tensor<1x24x640x128xf32>) -> tensor<1x24x640x128xf32>
    %507 = ttir.empty() : tensor<1x24x640x128xf32>
    %508 = "ttir.multiply"(%506, %153, %507) : (tensor<1x24x640x128xf32>, tensor<1x24x640x128xf32>, tensor<1x24x640x128xf32>) -> tensor<1x24x640x128xf32>
    %509 = ttir.empty() : tensor<1x24x640x128xbf16>
    %510 = "ttir.typecast"(%508, %509) <{conservative_folding = false}> : (tensor<1x24x640x128xf32>, tensor<1x24x640x128xbf16>) -> tensor<1x24x640x128xbf16>
    %511 = ttir.empty() : tensor<1x24x640x128xbf16>
    %512 = "ttir.add"(%496, %510, %511) : (tensor<1x24x640x128xbf16>, tensor<1x24x640x128xbf16>, tensor<1x24x640x128xbf16>) -> tensor<1x24x640x128xbf16>
    %513 = ttir.empty() : tensor<24x640x128xbf16>
    %514 = "ttir.reshape"(%512, %513) <{shape = [24 : i32, 640 : i32, 128 : i32]}> : (tensor<1x24x640x128xbf16>, tensor<24x640x128xbf16>) -> tensor<24x640x128xbf16>
    %515 = ttir.empty() : tensor<1x1024x3072xbf16>
    %516 = "ttir.reshape"(%arg22, %515) <{shape = [1 : i32, 1024 : i32, 3072 : i32]}> : (tensor<1024x3072xbf16>, tensor<1x1024x3072xbf16>) -> tensor<1x1024x3072xbf16>
    %517 = ttir.empty() : tensor<1024x3072xbf16>
    %518 = "ttir.reshape"(%516, %517) <{shape = [1024 : i32, 3072 : i32]}> : (tensor<1x1024x3072xbf16>, tensor<1024x3072xbf16>) -> tensor<1024x3072xbf16>
    %519 = ttir.empty() : tensor<3072x1024xbf16>
    %520 = "ttir.permute"(%518, %519) <{permutation = array<i64: 1, 0>}> : (tensor<1024x3072xbf16>, tensor<3072x1024xbf16>) -> tensor<3072x1024xbf16>
    %521 = "ttir.dot_general"(%458, %520) <{batch_dims_lhs = array<i64>, batch_dims_rhs = array<i64>, contract_dims_lhs = array<i64: 1>, contract_dims_rhs = array<i64: 0>}> : (tensor<640x3072xbf16>, tensor<3072x1024xbf16>) -> tensor<640x1024xbf16>
    %522 = ttir.empty() : tensor<1x640x8x128xbf16>
    %523 = "ttir.reshape"(%521, %522) <{shape = [1 : i32, 640 : i32, 8 : i32, 128 : i32]}> : (tensor<640x1024xbf16>, tensor<1x640x8x128xbf16>) -> tensor<1x640x8x128xbf16>
    %524 = ttir.empty() : tensor<1x8x640x128xbf16>
    %525 = "ttir.permute"(%523, %524) <{permutation = array<i64: 0, 2, 1, 3>}> : (tensor<1x640x8x128xbf16>, tensor<1x8x640x128xbf16>) -> tensor<1x8x640x128xbf16>
    %526 = ttir.empty() : tensor<1x8x640x128xf32>
    %527 = "ttir.typecast"(%525, %526) <{conservative_folding = false}> : (tensor<1x8x640x128xbf16>, tensor<1x8x640x128xf32>) -> tensor<1x8x640x128xf32>
    %528 = ttir.empty() : tensor<1x8x640x128xf32>
    %529 = "ttir.multiply"(%527, %178, %528) : (tensor<1x8x640x128xf32>, tensor<1x8x640x128xf32>, tensor<1x8x640x128xf32>) -> tensor<1x8x640x128xf32>
    %530 = ttir.empty() : tensor<1x8x640x128xbf16>
    %531 = "ttir.typecast"(%529, %530) <{conservative_folding = false}> : (tensor<1x8x640x128xf32>, tensor<1x8x640x128xbf16>) -> tensor<1x8x640x128xbf16>
    %532 = ttir.empty() : tensor<1x8x640x64xbf16>
    %533 = "ttir.slice_static"(%525, %532) <{begins = [0 : i32, 0 : i32, 0 : i32, 64 : i32], ends = [1 : i32, 8 : i32, 640 : i32, 128 : i32], step = [1 : i32, 1 : i32, 1 : i32, 1 : i32]}> : (tensor<1x8x640x128xbf16>, tensor<1x8x640x64xbf16>) -> tensor<1x8x640x64xbf16>
    %534 = ttir.empty() : tensor<1x8x640x64xbf16>
    %535 = "ttir.neg"(%533, %534) : (tensor<1x8x640x64xbf16>, tensor<1x8x640x64xbf16>) -> tensor<1x8x640x64xbf16>
    %536 = ttir.empty() : tensor<1x8x640x64xbf16>
    %537 = "ttir.slice_static"(%525, %536) <{begins = [0 : i32, 0 : i32, 0 : i32, 0 : i32], ends = [1 : i32, 8 : i32, 640 : i32, 64 : i32], step = [1 : i32, 1 : i32, 1 : i32, 1 : i32]}> : (tensor<1x8x640x128xbf16>, tensor<1x8x640x64xbf16>) -> tensor<1x8x640x64xbf16>
    %538 = ttir.empty() : tensor<1x8x640x128xbf16>
    %539 = "ttir.concat"(%535, %537, %538) <{dim = 3 : si32}> : (tensor<1x8x640x64xbf16>, tensor<1x8x640x64xbf16>, tensor<1x8x640x128xbf16>) -> tensor<1x8x640x128xbf16>
    %540 = ttir.empty() : tensor<1x8x640x128xf32>
    %541 = "ttir.typecast"(%539, %540) <{conservative_folding = false}> : (tensor<1x8x640x128xbf16>, tensor<1x8x640x128xf32>) -> tensor<1x8x640x128xf32>
    %542 = ttir.empty() : tensor<1x8x640x128xf32>
    %543 = "ttir.multiply"(%541, %196, %542) : (tensor<1x8x640x128xf32>, tensor<1x8x640x128xf32>, tensor<1x8x640x128xf32>) -> tensor<1x8x640x128xf32>
    %544 = ttir.empty() : tensor<1x8x640x128xbf16>
    %545 = "ttir.typecast"(%543, %544) <{conservative_folding = false}> : (tensor<1x8x640x128xf32>, tensor<1x8x640x128xbf16>) -> tensor<1x8x640x128xbf16>
    %546 = ttir.empty() : tensor<1x8x640x128xbf16>
    %547 = "ttir.add"(%531, %545, %546) : (tensor<1x8x640x128xbf16>, tensor<1x8x640x128xbf16>, tensor<1x8x640x128xbf16>) -> tensor<1x8x640x128xbf16>
    %548 = ttir.empty() : tensor<1x8x1x640x128xbf16>
    %549 = "ttir.reshape"(%547, %548) <{shape = [1 : i32, 8 : i32, 1 : i32, 640 : i32, 128 : i32]}> : (tensor<1x8x640x128xbf16>, tensor<1x8x1x640x128xbf16>) -> tensor<1x8x1x640x128xbf16>
    %550 = ttir.empty() : tensor<1x8x3x640x128xbf16>
    %551 = "ttir.broadcast"(%549, %550) <{broadcast_dimensions = array<i64: 1, 1, 3, 1, 1>}> : (tensor<1x8x1x640x128xbf16>, tensor<1x8x3x640x128xbf16>) -> tensor<1x8x3x640x128xbf16>
    %552 = ttir.empty() : tensor<1x24x640x128xbf16>
    %553 = "ttir.reshape"(%551, %552) <{shape = [1 : i32, 24 : i32, 640 : i32, 128 : i32]}> : (tensor<1x8x3x640x128xbf16>, tensor<1x24x640x128xbf16>) -> tensor<1x24x640x128xbf16>
    %554 = ttir.empty() : tensor<1x24x128x640xbf16>
    %555 = "ttir.permute"(%553, %554) <{permutation = array<i64: 0, 1, 3, 2>}> : (tensor<1x24x640x128xbf16>, tensor<1x24x128x640xbf16>) -> tensor<1x24x128x640xbf16>
    %556 = ttir.empty() : tensor<24x128x640xbf16>
    %557 = "ttir.reshape"(%555, %556) <{shape = [24 : i32, 128 : i32, 640 : i32]}> : (tensor<1x24x128x640xbf16>, tensor<24x128x640xbf16>) -> tensor<24x128x640xbf16>
    %558 = "ttir.dot_general"(%514, %557) <{batch_dims_lhs = array<i64: 0>, batch_dims_rhs = array<i64: 0>, contract_dims_lhs = array<i64: 2>, contract_dims_rhs = array<i64: 1>}> : (tensor<24x640x128xbf16>, tensor<24x128x640xbf16>) -> tensor<24x640x640xbf16>
    %559 = ttir.empty() : tensor<1x24x640x640xbf16>
    %560 = "ttir.reshape"(%558, %559) <{shape = [1 : i32, 24 : i32, 640 : i32, 640 : i32]}> : (tensor<24x640x640xbf16>, tensor<1x24x640x640xbf16>) -> tensor<1x24x640x640xbf16>
    %561 = ttir.empty() : tensor<1x24x640x640xf32>
    %562 = "ttir.typecast"(%560, %561) <{conservative_folding = false}> : (tensor<1x24x640x640xbf16>, tensor<1x24x640x640xf32>) -> tensor<1x24x640x640xf32>
    %563 = ttir.empty() : tensor<1x24x640x640xf32>
    %564 = "ttir.multiply"(%562, %221, %563) : (tensor<1x24x640x640xf32>, tensor<1x24x640x640xf32>, tensor<1x24x640x640xf32>) -> tensor<1x24x640x640xf32>
    %565 = ttir.empty() : tensor<1x24x640x640xbf16>
    %566 = "ttir.typecast"(%564, %565) <{conservative_folding = false}> : (tensor<1x24x640x640xf32>, tensor<1x24x640x640xbf16>) -> tensor<1x24x640x640xbf16>
    %567 = ttir.empty() : tensor<1x24x640x640xbf16>
    %568 = "ttir.add"(%566, %285, %567) : (tensor<1x24x640x640xbf16>, tensor<1x24x640x640xbf16>, tensor<1x24x640x640xbf16>) -> tensor<1x24x640x640xbf16>
    %569 = ttir.empty() : tensor<1x24x640x640xf32>
    %570 = "ttir.typecast"(%568, %569) <{conservative_folding = false}> : (tensor<1x24x640x640xbf16>, tensor<1x24x640x640xf32>) -> tensor<1x24x640x640xf32>
    %571 = ttir.empty() : tensor<1x24x640xf32>
    %572 = "ttir.max"(%570, %571) <{dim_arg = [3 : i32], keep_dim = false}> : (tensor<1x24x640x640xf32>, tensor<1x24x640xf32>) -> tensor<1x24x640xf32>
    %573 = ttir.empty() : tensor<1x24x640x1xf32>
    %574 = "ttir.reshape"(%572, %573) <{shape = [1 : i32, 24 : i32, 640 : i32, 1 : i32]}> : (tensor<1x24x640xf32>, tensor<1x24x640x1xf32>) -> tensor<1x24x640x1xf32>
    %575 = ttir.empty() : tensor<1x24x640x640xf32>
    %576 = "ttir.broadcast"(%574, %575) <{broadcast_dimensions = array<i64: 1, 1, 1, 640>}> : (tensor<1x24x640x1xf32>, tensor<1x24x640x640xf32>) -> tensor<1x24x640x640xf32>
    %577 = ttir.empty() : tensor<1x24x640x640xf32>
    %578 = "ttir.subtract"(%570, %576, %577) : (tensor<1x24x640x640xf32>, tensor<1x24x640x640xf32>, tensor<1x24x640x640xf32>) -> tensor<1x24x640x640xf32>
    %579 = ttir.empty() : tensor<1x24x640x640xf32>
    %580 = "ttir.exp"(%578, %579) : (tensor<1x24x640x640xf32>, tensor<1x24x640x640xf32>) -> tensor<1x24x640x640xf32>
    %581 = ttir.empty() : tensor<1x24x640xf32>
    %582 = "ttir.sum"(%580, %581) <{dim_arg = [3 : i32], keep_dim = false}> : (tensor<1x24x640x640xf32>, tensor<1x24x640xf32>) -> tensor<1x24x640xf32>
    %583 = ttir.empty() : tensor<1x24x640x1xf32>
    %584 = "ttir.reshape"(%582, %583) <{shape = [1 : i32, 24 : i32, 640 : i32, 1 : i32]}> : (tensor<1x24x640xf32>, tensor<1x24x640x1xf32>) -> tensor<1x24x640x1xf32>
    %585 = ttir.empty() : tensor<1x24x640x640xf32>
    %586 = "ttir.broadcast"(%584, %585) <{broadcast_dimensions = array<i64: 1, 1, 1, 640>}> : (tensor<1x24x640x1xf32>, tensor<1x24x640x640xf32>) -> tensor<1x24x640x640xf32>
    %587 = ttir.empty() : tensor<1x24x640x640xf32>
    %588 = "ttir.div"(%580, %586, %587) : (tensor<1x24x640x640xf32>, tensor<1x24x640x640xf32>, tensor<1x24x640x640xf32>) -> tensor<1x24x640x640xf32>
    %589 = ttir.empty() : tensor<1x24x640x640xbf16>
    %590 = "ttir.typecast"(%588, %589) <{conservative_folding = false}> : (tensor<1x24x640x640xf32>, tensor<1x24x640x640xbf16>) -> tensor<1x24x640x640xbf16>
    %591 = ttir.empty() : tensor<24x640x640xbf16>
    %592 = "ttir.reshape"(%590, %591) <{shape = [24 : i32, 640 : i32, 640 : i32]}> : (tensor<1x24x640x640xbf16>, tensor<24x640x640xbf16>) -> tensor<24x640x640xbf16>
    %593 = ttir.empty() : tensor<1x8x1x640x128xbf16>
    %594 = "ttir.reshape"(%469, %593) <{shape = [1 : i32, 8 : i32, 1 : i32, 640 : i32, 128 : i32]}> : (tensor<1x8x640x128xbf16>, tensor<1x8x1x640x128xbf16>) -> tensor<1x8x1x640x128xbf16>
    %595 = ttir.empty() : tensor<1x8x3x640x128xbf16>
    %596 = "ttir.broadcast"(%594, %595) <{broadcast_dimensions = array<i64: 1, 1, 3, 1, 1>}> : (tensor<1x8x1x640x128xbf16>, tensor<1x8x3x640x128xbf16>) -> tensor<1x8x3x640x128xbf16>
    %597 = ttir.empty() : tensor<24x640x128xbf16>
    %598 = "ttir.reshape"(%596, %597) <{shape = [24 : i32, 640 : i32, 128 : i32]}> : (tensor<1x8x3x640x128xbf16>, tensor<24x640x128xbf16>) -> tensor<24x640x128xbf16>
    %599 = "ttir.dot_general"(%592, %598) <{batch_dims_lhs = array<i64: 0>, batch_dims_rhs = array<i64: 0>, contract_dims_lhs = array<i64: 2>, contract_dims_rhs = array<i64: 1>}> : (tensor<24x640x640xbf16>, tensor<24x640x128xbf16>) -> tensor<24x640x128xbf16>
    %600 = ttir.empty() : tensor<1x24x640x128xbf16>
    %601 = "ttir.reshape"(%599, %600) <{shape = [1 : i32, 24 : i32, 640 : i32, 128 : i32]}> : (tensor<24x640x128xbf16>, tensor<1x24x640x128xbf16>) -> tensor<1x24x640x128xbf16>
    %602 = ttir.empty() : tensor<1x640x24x128xbf16>
    %603 = "ttir.permute"(%601, %602) <{permutation = array<i64: 0, 2, 1, 3>}> : (tensor<1x24x640x128xbf16>, tensor<1x640x24x128xbf16>) -> tensor<1x640x24x128xbf16>
    %604 = ttir.empty() : tensor<640x3072xbf16>
    %605 = "ttir.reshape"(%603, %604) <{shape = [640 : i32, 3072 : i32]}> : (tensor<1x640x24x128xbf16>, tensor<640x3072xbf16>) -> tensor<640x3072xbf16>
    %606 = ttir.empty() : tensor<1x3072x3072xbf16>
    %607 = "ttir.reshape"(%arg21, %606) <{shape = [1 : i32, 3072 : i32, 3072 : i32]}> : (tensor<3072x3072xbf16>, tensor<1x3072x3072xbf16>) -> tensor<1x3072x3072xbf16>
    %608 = ttir.empty() : tensor<3072x3072xbf16>
    %609 = "ttir.reshape"(%607, %608) <{shape = [3072 : i32, 3072 : i32]}> : (tensor<1x3072x3072xbf16>, tensor<3072x3072xbf16>) -> tensor<3072x3072xbf16>
    %610 = ttir.empty() : tensor<3072x3072xbf16>
    %611 = "ttir.permute"(%609, %610) <{permutation = array<i64: 1, 0>}> : (tensor<3072x3072xbf16>, tensor<3072x3072xbf16>) -> tensor<3072x3072xbf16>
    %612 = "ttir.dot_general"(%605, %611) <{batch_dims_lhs = array<i64>, batch_dims_rhs = array<i64>, contract_dims_lhs = array<i64: 1>, contract_dims_rhs = array<i64: 0>}> : (tensor<640x3072xbf16>, tensor<3072x3072xbf16>) -> tensor<640x3072xbf16>
    %613 = ttir.empty() : tensor<1x640x3072xbf16>
    %614 = "ttir.reshape"(%612, %613) <{shape = [1 : i32, 640 : i32, 3072 : i32]}> : (tensor<640x3072xbf16>, tensor<1x640x3072xbf16>) -> tensor<1x640x3072xbf16>
    %615 = ttir.empty() : tensor<1x640x3072xbf16>
    %616 = "ttir.add"(%426, %614, %615) : (tensor<1x640x3072xbf16>, tensor<1x640x3072xbf16>, tensor<1x640x3072xbf16>) -> tensor<1x640x3072xbf16>
    %617 = ttir.empty() : tensor<1x1x3072xbf16>
    %618 = "ttir.reshape"(%arg24, %617) <{shape = [1 : i32, 1 : i32, 3072 : i32]}> : (tensor<3072xbf16>, tensor<1x1x3072xbf16>) -> tensor<1x1x3072xbf16>
    %619 = ttir.empty() : tensor<3072xbf16>
    %620 = "ttir.reshape"(%618, %619) <{shape = [3072 : i32]}> : (tensor<1x1x3072xbf16>, tensor<3072xbf16>) -> tensor<3072xbf16>
    %621 = ttir.empty() : tensor<3072xf32>
    %622 = "ttir.typecast"(%620, %621) <{conservative_folding = false}> : (tensor<3072xbf16>, tensor<3072xf32>) -> tensor<3072xf32>
    %623 = ttir.empty() : tensor<1x1x3072xf32>
    %624 = "ttir.reshape"(%622, %623) <{shape = [1 : i32, 1 : i32, 3072 : i32]}> : (tensor<3072xf32>, tensor<1x1x3072xf32>) -> tensor<1x1x3072xf32>
    %625 = ttir.empty() : tensor<1x640x3072xf32>
    %626 = "ttir.broadcast"(%624, %625) <{broadcast_dimensions = array<i64: 1, 640, 1>}> : (tensor<1x1x3072xf32>, tensor<1x640x3072xf32>) -> tensor<1x640x3072xf32>
    %627 = ttir.empty() : tensor<1x640x3072xf32>
    %628 = "ttir.typecast"(%616, %627) <{conservative_folding = false}> : (tensor<1x640x3072xbf16>, tensor<1x640x3072xf32>) -> tensor<1x640x3072xf32>
    %629 = ttir.empty() : tensor<1x640x3072xf32>
    %630 = "ttir.pow"(%628, %5, %629) : (tensor<1x640x3072xf32>, tensor<1x640x3072xf32>, tensor<1x640x3072xf32>) -> tensor<1x640x3072xf32>
    %631 = ttir.empty() : tensor<1x640xf32>
    %632 = "ttir.sum"(%630, %631) <{dim_arg = [2 : i32], keep_dim = false}> : (tensor<1x640x3072xf32>, tensor<1x640xf32>) -> tensor<1x640xf32>
    %633 = ttir.empty() : tensor<1x640xf32>
    %634 = "ttir.multiply"(%632, %4, %633) : (tensor<1x640xf32>, tensor<1x640xf32>, tensor<1x640xf32>) -> tensor<1x640xf32>
    %635 = ttir.empty() : tensor<1x640x1xf32>
    %636 = "ttir.reshape"(%634, %635) <{shape = [1 : i32, 640 : i32, 1 : i32]}> : (tensor<1x640xf32>, tensor<1x640x1xf32>) -> tensor<1x640x1xf32>
    %637 = ttir.empty() : tensor<1x640x1xf32>
    %638 = "ttir.add"(%636, %46, %637) : (tensor<1x640x1xf32>, tensor<1x640x1xf32>, tensor<1x640x1xf32>) -> tensor<1x640x1xf32>
    %639 = ttir.empty() : tensor<1x640x1xf32>
    %640 = "ttir.rsqrt"(%638, %639) : (tensor<1x640x1xf32>, tensor<1x640x1xf32>) -> tensor<1x640x1xf32>
    %641 = ttir.empty() : tensor<1x640xf32>
    %642 = "ttir.reshape"(%640, %641) <{shape = [1 : i32, 640 : i32]}> : (tensor<1x640x1xf32>, tensor<1x640xf32>) -> tensor<1x640xf32>
    %643 = ttir.empty() : tensor<1x640x1xf32>
    %644 = "ttir.reshape"(%642, %643) <{shape = [1 : i32, 640 : i32, 1 : i32]}> : (tensor<1x640xf32>, tensor<1x640x1xf32>) -> tensor<1x640x1xf32>
    %645 = ttir.empty() : tensor<1x640x3072xf32>
    %646 = "ttir.broadcast"(%644, %645) <{broadcast_dimensions = array<i64: 1, 1, 3072>}> : (tensor<1x640x1xf32>, tensor<1x640x3072xf32>) -> tensor<1x640x3072xf32>
    %647 = ttir.empty() : tensor<1x640x3072xf32>
    %648 = "ttir.multiply"(%628, %646, %647) : (tensor<1x640x3072xf32>, tensor<1x640x3072xf32>, tensor<1x640x3072xf32>) -> tensor<1x640x3072xf32>
    %649 = ttir.empty() : tensor<1x640x3072xbf16>
    %650 = "ttir.typecast"(%648, %649) <{conservative_folding = false}> : (tensor<1x640x3072xf32>, tensor<1x640x3072xbf16>) -> tensor<1x640x3072xbf16>
    %651 = ttir.empty() : tensor<1x640x3072xf32>
    %652 = "ttir.typecast"(%650, %651) <{conservative_folding = false}> : (tensor<1x640x3072xbf16>, tensor<1x640x3072xf32>) -> tensor<1x640x3072xf32>
    %653 = ttir.empty() : tensor<1x640x3072xf32>
    %654 = "ttir.multiply"(%626, %652, %653) : (tensor<1x640x3072xf32>, tensor<1x640x3072xf32>, tensor<1x640x3072xf32>) -> tensor<1x640x3072xf32>
    %655 = ttir.empty() : tensor<1x640x3072xbf16>
    %656 = "ttir.typecast"(%654, %655) <{conservative_folding = false}> : (tensor<1x640x3072xf32>, tensor<1x640x3072xbf16>) -> tensor<1x640x3072xbf16>
    %657 = ttir.empty() : tensor<640x3072xbf16>
    %658 = "ttir.reshape"(%656, %657) <{shape = [640 : i32, 3072 : i32]}> : (tensor<1x640x3072xbf16>, tensor<640x3072xbf16>) -> tensor<640x3072xbf16>
    %659 = ttir.empty() : tensor<1x8192x3072xbf16>
    %660 = "ttir.reshape"(%arg25, %659) <{shape = [1 : i32, 8192 : i32, 3072 : i32]}> : (tensor<8192x3072xbf16>, tensor<1x8192x3072xbf16>) -> tensor<1x8192x3072xbf16>
    %661 = ttir.empty() : tensor<8192x3072xbf16>
    %662 = "ttir.reshape"(%660, %661) <{shape = [8192 : i32, 3072 : i32]}> : (tensor<1x8192x3072xbf16>, tensor<8192x3072xbf16>) -> tensor<8192x3072xbf16>
    %663 = ttir.empty() : tensor<3072x8192xbf16>
    %664 = "ttir.permute"(%662, %663) <{permutation = array<i64: 1, 0>}> : (tensor<8192x3072xbf16>, tensor<3072x8192xbf16>) -> tensor<3072x8192xbf16>
    %665 = "ttir.dot_general"(%658, %664) <{batch_dims_lhs = array<i64>, batch_dims_rhs = array<i64>, contract_dims_lhs = array<i64: 1>, contract_dims_rhs = array<i64: 0>}> : (tensor<640x3072xbf16>, tensor<3072x8192xbf16>) -> tensor<640x8192xbf16>
    %666 = ttir.empty() : tensor<1x640x8192xbf16>
    %667 = "ttir.reshape"(%665, %666) <{shape = [1 : i32, 640 : i32, 8192 : i32]}> : (tensor<640x8192xbf16>, tensor<1x640x8192xbf16>) -> tensor<1x640x8192xbf16>
    %668 = ttir.empty() : tensor<1x640x8192xf32>
    %669 = "ttir.typecast"(%667, %668) <{conservative_folding = false}> : (tensor<1x640x8192xbf16>, tensor<1x640x8192xf32>) -> tensor<1x640x8192xf32>
    %670 = ttir.empty() : tensor<1x640x8192xbf16>
    %671 = "ttir.sigmoid"(%667, %670) : (tensor<1x640x8192xbf16>, tensor<1x640x8192xbf16>) -> tensor<1x640x8192xbf16>
    %672 = ttir.empty() : tensor<1x640x8192xf32>
    %673 = "ttir.typecast"(%671, %672) <{conservative_folding = false}> : (tensor<1x640x8192xbf16>, tensor<1x640x8192xf32>) -> tensor<1x640x8192xf32>
    %674 = ttir.empty() : tensor<1x640x8192xf32>
    %675 = "ttir.multiply"(%669, %673, %674) : (tensor<1x640x8192xf32>, tensor<1x640x8192xf32>, tensor<1x640x8192xf32>) -> tensor<1x640x8192xf32>
    %676 = ttir.empty() : tensor<1x640x8192xbf16>
    %677 = "ttir.typecast"(%675, %676) <{conservative_folding = false}> : (tensor<1x640x8192xf32>, tensor<1x640x8192xbf16>) -> tensor<1x640x8192xbf16>
    %678 = ttir.empty() : tensor<1x640x8192xf32>
    %679 = "ttir.typecast"(%677, %678) <{conservative_folding = false}> : (tensor<1x640x8192xbf16>, tensor<1x640x8192xf32>) -> tensor<1x640x8192xf32>
    %680 = ttir.empty() : tensor<1x8192x3072xbf16>
    %681 = "ttir.reshape"(%arg20, %680) <{shape = [1 : i32, 8192 : i32, 3072 : i32]}> : (tensor<8192x3072xbf16>, tensor<1x8192x3072xbf16>) -> tensor<1x8192x3072xbf16>
    %682 = ttir.empty() : tensor<8192x3072xbf16>
    %683 = "ttir.reshape"(%681, %682) <{shape = [8192 : i32, 3072 : i32]}> : (tensor<1x8192x3072xbf16>, tensor<8192x3072xbf16>) -> tensor<8192x3072xbf16>
    %684 = ttir.empty() : tensor<3072x8192xbf16>
    %685 = "ttir.permute"(%683, %684) <{permutation = array<i64: 1, 0>}> : (tensor<8192x3072xbf16>, tensor<3072x8192xbf16>) -> tensor<3072x8192xbf16>
    %686 = "ttir.dot_general"(%658, %685) <{batch_dims_lhs = array<i64>, batch_dims_rhs = array<i64>, contract_dims_lhs = array<i64: 1>, contract_dims_rhs = array<i64: 0>}> : (tensor<640x3072xbf16>, tensor<3072x8192xbf16>) -> tensor<640x8192xbf16>
    %687 = ttir.empty() : tensor<1x640x8192xbf16>
    %688 = "ttir.reshape"(%686, %687) <{shape = [1 : i32, 640 : i32, 8192 : i32]}> : (tensor<640x8192xbf16>, tensor<1x640x8192xbf16>) -> tensor<1x640x8192xbf16>
    %689 = ttir.empty() : tensor<1x640x8192xf32>
    %690 = "ttir.typecast"(%688, %689) <{conservative_folding = false}> : (tensor<1x640x8192xbf16>, tensor<1x640x8192xf32>) -> tensor<1x640x8192xf32>
    %691 = ttir.empty() : tensor<1x640x8192xf32>
    %692 = "ttir.multiply"(%679, %690, %691) : (tensor<1x640x8192xf32>, tensor<1x640x8192xf32>, tensor<1x640x8192xf32>) -> tensor<1x640x8192xf32>
    %693 = ttir.empty() : tensor<1x640x8192xbf16>
    %694 = "ttir.typecast"(%692, %693) <{conservative_folding = false}> : (tensor<1x640x8192xf32>, tensor<1x640x8192xbf16>) -> tensor<1x640x8192xbf16>
    %695 = ttir.empty() : tensor<640x8192xbf16>
    %696 = "ttir.reshape"(%694, %695) <{shape = [640 : i32, 8192 : i32]}> : (tensor<1x640x8192xbf16>, tensor<640x8192xbf16>) -> tensor<640x8192xbf16>
    %697 = ttir.empty() : tensor<1x3072x8192xbf16>
    %698 = "ttir.reshape"(%arg19, %697) <{shape = [1 : i32, 3072 : i32, 8192 : i32]}> : (tensor<3072x8192xbf16>, tensor<1x3072x8192xbf16>) -> tensor<1x3072x8192xbf16>
    %699 = ttir.empty() : tensor<3072x8192xbf16>
    %700 = "ttir.reshape"(%698, %699) <{shape = [3072 : i32, 8192 : i32]}> : (tensor<1x3072x8192xbf16>, tensor<3072x8192xbf16>) -> tensor<3072x8192xbf16>
    %701 = ttir.empty() : tensor<8192x3072xbf16>
    %702 = "ttir.permute"(%700, %701) <{permutation = array<i64: 1, 0>}> : (tensor<3072x8192xbf16>, tensor<8192x3072xbf16>) -> tensor<8192x3072xbf16>
    %703 = "ttir.dot_general"(%696, %702) <{batch_dims_lhs = array<i64>, batch_dims_rhs = array<i64>, contract_dims_lhs = array<i64: 1>, contract_dims_rhs = array<i64: 0>}> : (tensor<640x8192xbf16>, tensor<8192x3072xbf16>) -> tensor<640x3072xbf16>
    %704 = ttir.empty() : tensor<1x640x3072xbf16>
    %705 = "ttir.reshape"(%703, %704) <{shape = [1 : i32, 640 : i32, 3072 : i32]}> : (tensor<640x3072xbf16>, tensor<1x640x3072xbf16>) -> tensor<1x640x3072xbf16>
    %706 = ttir.empty() : tensor<1x640x3072xbf16>
    %707 = "ttir.add"(%616, %705, %706) : (tensor<1x640x3072xbf16>, tensor<1x640x3072xbf16>, tensor<1x640x3072xbf16>) -> tensor<1x640x3072xbf16>
    %708 = ttir.empty() : tensor<1x640x3072xf32>
    %709 = "ttir.typecast"(%707, %708) <{conservative_folding = false}> : (tensor<1x640x3072xbf16>, tensor<1x640x3072xf32>) -> tensor<1x640x3072xf32>
    %710 = ttir.empty() : tensor<1x640x3072xf32>
    %711 = "ttir.pow"(%709, %5, %710) : (tensor<1x640x3072xf32>, tensor<1x640x3072xf32>, tensor<1x640x3072xf32>) -> tensor<1x640x3072xf32>
    %712 = ttir.empty() : tensor<1x640xf32>
    %713 = "ttir.sum"(%711, %712) <{dim_arg = [2 : i32], keep_dim = false}> : (tensor<1x640x3072xf32>, tensor<1x640xf32>) -> tensor<1x640xf32>
    %714 = ttir.empty() : tensor<1x640xf32>
    %715 = "ttir.multiply"(%713, %4, %714) : (tensor<1x640xf32>, tensor<1x640xf32>, tensor<1x640xf32>) -> tensor<1x640xf32>
    %716 = ttir.empty() : tensor<1x640x1xf32>
    %717 = "ttir.reshape"(%715, %716) <{shape = [1 : i32, 640 : i32, 1 : i32]}> : (tensor<1x640xf32>, tensor<1x640x1xf32>) -> tensor<1x640x1xf32>
    %718 = ttir.empty() : tensor<1x640x1xf32>
    %719 = "ttir.add"(%717, %46, %718) : (tensor<1x640x1xf32>, tensor<1x640x1xf32>, tensor<1x640x1xf32>) -> tensor<1x640x1xf32>
    %720 = ttir.empty() : tensor<1x640x1xf32>
    %721 = "ttir.rsqrt"(%719, %720) : (tensor<1x640x1xf32>, tensor<1x640x1xf32>) -> tensor<1x640x1xf32>
    %722 = ttir.empty() : tensor<1x640xf32>
    %723 = "ttir.reshape"(%721, %722) <{shape = [1 : i32, 640 : i32]}> : (tensor<1x640x1xf32>, tensor<1x640xf32>) -> tensor<1x640xf32>
    %724 = ttir.empty() : tensor<1x640x1xf32>
    %725 = "ttir.reshape"(%723, %724) <{shape = [1 : i32, 640 : i32, 1 : i32]}> : (tensor<1x640xf32>, tensor<1x640x1xf32>) -> tensor<1x640x1xf32>
    %726 = ttir.empty() : tensor<1x640x3072xf32>
    %727 = "ttir.broadcast"(%725, %726) <{broadcast_dimensions = array<i64: 1, 1, 3072>}> : (tensor<1x640x1xf32>, tensor<1x640x3072xf32>) -> tensor<1x640x3072xf32>
    %728 = ttir.empty() : tensor<1x640x3072xf32>
    %729 = "ttir.multiply"(%709, %727, %728) : (tensor<1x640x3072xf32>, tensor<1x640x3072xf32>, tensor<1x640x3072xf32>) -> tensor<1x640x3072xf32>
    %730 = ttir.empty() : tensor<1x640x3072xbf16>
    %731 = "ttir.typecast"(%729, %730) <{conservative_folding = false}> : (tensor<1x640x3072xf32>, tensor<1x640x3072xbf16>) -> tensor<1x640x3072xbf16>
    %732 = ttir.empty() : tensor<1x640x3072xf32>
    %733 = "ttir.typecast"(%731, %732) <{conservative_folding = false}> : (tensor<1x640x3072xbf16>, tensor<1x640x3072xf32>) -> tensor<1x640x3072xf32>
    %734 = ttir.empty() : tensor<1x640x3072xf32>
    %735 = "ttir.multiply"(%479, %733, %734) : (tensor<1x640x3072xf32>, tensor<1x640x3072xf32>, tensor<1x640x3072xf32>) -> tensor<1x640x3072xf32>
    %736 = ttir.empty() : tensor<1x640x3072xbf16>
    %737 = "ttir.typecast"(%735, %736) <{conservative_folding = false}> : (tensor<1x640x3072xf32>, tensor<1x640x3072xbf16>) -> tensor<1x640x3072xbf16>
    %738 = ttir.empty() : tensor<640x3072xbf16>
    %739 = "ttir.reshape"(%737, %738) <{shape = [640 : i32, 3072 : i32]}> : (tensor<1x640x3072xbf16>, tensor<640x3072xbf16>) -> tensor<640x3072xbf16>
    %740 = ttir.empty() : tensor<1x1024x3072xbf16>
    %741 = "ttir.reshape"(%arg18, %740) <{shape = [1 : i32, 1024 : i32, 3072 : i32]}> : (tensor<1024x3072xbf16>, tensor<1x1024x3072xbf16>) -> tensor<1x1024x3072xbf16>
    %742 = ttir.empty() : tensor<1024x3072xbf16>
    %743 = "ttir.reshape"(%741, %742) <{shape = [1024 : i32, 3072 : i32]}> : (tensor<1x1024x3072xbf16>, tensor<1024x3072xbf16>) -> tensor<1024x3072xbf16>
    %744 = ttir.empty() : tensor<3072x1024xbf16>
    %745 = "ttir.permute"(%743, %744) <{permutation = array<i64: 1, 0>}> : (tensor<1024x3072xbf16>, tensor<3072x1024xbf16>) -> tensor<3072x1024xbf16>
    %746 = "ttir.dot_general"(%739, %745) <{batch_dims_lhs = array<i64>, batch_dims_rhs = array<i64>, contract_dims_lhs = array<i64: 1>, contract_dims_rhs = array<i64: 0>}> : (tensor<640x3072xbf16>, tensor<3072x1024xbf16>) -> tensor<640x1024xbf16>
    %747 = ttir.empty() : tensor<1x640x8x128xbf16>
    %748 = "ttir.reshape"(%746, %747) <{shape = [1 : i32, 640 : i32, 8 : i32, 128 : i32]}> : (tensor<640x1024xbf16>, tensor<1x640x8x128xbf16>) -> tensor<1x640x8x128xbf16>
    %749 = ttir.empty() : tensor<1x8x640x128xbf16>
    %750 = "ttir.permute"(%748, %749) <{permutation = array<i64: 0, 2, 1, 3>}> : (tensor<1x640x8x128xbf16>, tensor<1x8x640x128xbf16>) -> tensor<1x8x640x128xbf16>
    %751 = ttir.empty() : tensor<1x1x3072xbf16>
    %752 = "ttir.reshape"(%arg35, %751) <{shape = [1 : i32, 1 : i32, 3072 : i32]}> : (tensor<3072xbf16>, tensor<1x1x3072xbf16>) -> tensor<1x1x3072xbf16>
    %753 = ttir.empty() : tensor<3072xbf16>
    %754 = "ttir.reshape"(%752, %753) <{shape = [3072 : i32]}> : (tensor<1x1x3072xbf16>, tensor<3072xbf16>) -> tensor<3072xbf16>
    %755 = ttir.empty() : tensor<3072xf32>
    %756 = "ttir.typecast"(%754, %755) <{conservative_folding = false}> : (tensor<3072xbf16>, tensor<3072xf32>) -> tensor<3072xf32>
    %757 = ttir.empty() : tensor<1x1x3072xf32>
    %758 = "ttir.reshape"(%756, %757) <{shape = [1 : i32, 1 : i32, 3072 : i32]}> : (tensor<3072xf32>, tensor<1x1x3072xf32>) -> tensor<1x1x3072xf32>
    %759 = ttir.empty() : tensor<1x640x3072xf32>
    %760 = "ttir.broadcast"(%758, %759) <{broadcast_dimensions = array<i64: 1, 640, 1>}> : (tensor<1x1x3072xf32>, tensor<1x640x3072xf32>) -> tensor<1x640x3072xf32>
    %761 = ttir.empty() : tensor<1x3072x3072xbf16>
    %762 = "ttir.reshape"(%arg32, %761) <{shape = [1 : i32, 3072 : i32, 3072 : i32]}> : (tensor<3072x3072xbf16>, tensor<1x3072x3072xbf16>) -> tensor<1x3072x3072xbf16>
    %763 = ttir.empty() : tensor<3072x3072xbf16>
    %764 = "ttir.reshape"(%762, %763) <{shape = [3072 : i32, 3072 : i32]}> : (tensor<1x3072x3072xbf16>, tensor<3072x3072xbf16>) -> tensor<3072x3072xbf16>
    %765 = ttir.empty() : tensor<3072x3072xbf16>
    %766 = "ttir.permute"(%764, %765) <{permutation = array<i64: 1, 0>}> : (tensor<3072x3072xbf16>, tensor<3072x3072xbf16>) -> tensor<3072x3072xbf16>
    %767 = "ttir.dot_general"(%739, %766) <{batch_dims_lhs = array<i64>, batch_dims_rhs = array<i64>, contract_dims_lhs = array<i64: 1>, contract_dims_rhs = array<i64: 0>}> : (tensor<640x3072xbf16>, tensor<3072x3072xbf16>) -> tensor<640x3072xbf16>
    %768 = ttir.empty() : tensor<1x640x24x128xbf16>
    %769 = "ttir.reshape"(%767, %768) <{shape = [1 : i32, 640 : i32, 24 : i32, 128 : i32]}> : (tensor<640x3072xbf16>, tensor<1x640x24x128xbf16>) -> tensor<1x640x24x128xbf16>
    %770 = ttir.empty() : tensor<1x24x640x128xbf16>
    %771 = "ttir.permute"(%769, %770) <{permutation = array<i64: 0, 2, 1, 3>}> : (tensor<1x640x24x128xbf16>, tensor<1x24x640x128xbf16>) -> tensor<1x24x640x128xbf16>
    %772 = ttir.empty() : tensor<1x24x640x128xf32>
    %773 = "ttir.typecast"(%771, %772) <{conservative_folding = false}> : (tensor<1x24x640x128xbf16>, tensor<1x24x640x128xf32>) -> tensor<1x24x640x128xf32>
    %774 = ttir.empty() : tensor<1x24x640x128xf32>
    %775 = "ttir.multiply"(%773, %125, %774) : (tensor<1x24x640x128xf32>, tensor<1x24x640x128xf32>, tensor<1x24x640x128xf32>) -> tensor<1x24x640x128xf32>
    %776 = ttir.empty() : tensor<1x24x640x128xbf16>
    %777 = "ttir.typecast"(%775, %776) <{conservative_folding = false}> : (tensor<1x24x640x128xf32>, tensor<1x24x640x128xbf16>) -> tensor<1x24x640x128xbf16>
    %778 = ttir.empty() : tensor<1x24x640x64xbf16>
    %779 = "ttir.slice_static"(%771, %778) <{begins = [0 : i32, 0 : i32, 0 : i32, 64 : i32], ends = [1 : i32, 24 : i32, 640 : i32, 128 : i32], step = [1 : i32, 1 : i32, 1 : i32, 1 : i32]}> : (tensor<1x24x640x128xbf16>, tensor<1x24x640x64xbf16>) -> tensor<1x24x640x64xbf16>
    %780 = ttir.empty() : tensor<1x24x640x64xbf16>
    %781 = "ttir.neg"(%779, %780) : (tensor<1x24x640x64xbf16>, tensor<1x24x640x64xbf16>) -> tensor<1x24x640x64xbf16>
    %782 = ttir.empty() : tensor<1x24x640x64xbf16>
    %783 = "ttir.slice_static"(%771, %782) <{begins = [0 : i32, 0 : i32, 0 : i32, 0 : i32], ends = [1 : i32, 24 : i32, 640 : i32, 64 : i32], step = [1 : i32, 1 : i32, 1 : i32, 1 : i32]}> : (tensor<1x24x640x128xbf16>, tensor<1x24x640x64xbf16>) -> tensor<1x24x640x64xbf16>
    %784 = ttir.empty() : tensor<1x24x640x128xbf16>
    %785 = "ttir.concat"(%781, %783, %784) <{dim = 3 : si32}> : (tensor<1x24x640x64xbf16>, tensor<1x24x640x64xbf16>, tensor<1x24x640x128xbf16>) -> tensor<1x24x640x128xbf16>
    %786 = ttir.empty() : tensor<1x24x640x128xf32>
    %787 = "ttir.typecast"(%785, %786) <{conservative_folding = false}> : (tensor<1x24x640x128xbf16>, tensor<1x24x640x128xf32>) -> tensor<1x24x640x128xf32>
    %788 = ttir.empty() : tensor<1x24x640x128xf32>
    %789 = "ttir.multiply"(%787, %153, %788) : (tensor<1x24x640x128xf32>, tensor<1x24x640x128xf32>, tensor<1x24x640x128xf32>) -> tensor<1x24x640x128xf32>
    %790 = ttir.empty() : tensor<1x24x640x128xbf16>
    %791 = "ttir.typecast"(%789, %790) <{conservative_folding = false}> : (tensor<1x24x640x128xf32>, tensor<1x24x640x128xbf16>) -> tensor<1x24x640x128xbf16>
    %792 = ttir.empty() : tensor<1x24x640x128xbf16>
    %793 = "ttir.add"(%777, %791, %792) : (tensor<1x24x640x128xbf16>, tensor<1x24x640x128xbf16>, tensor<1x24x640x128xbf16>) -> tensor<1x24x640x128xbf16>
    %794 = ttir.empty() : tensor<24x640x128xbf16>
    %795 = "ttir.reshape"(%793, %794) <{shape = [24 : i32, 640 : i32, 128 : i32]}> : (tensor<1x24x640x128xbf16>, tensor<24x640x128xbf16>) -> tensor<24x640x128xbf16>
    %796 = ttir.empty() : tensor<1x1024x3072xbf16>
    %797 = "ttir.reshape"(%arg31, %796) <{shape = [1 : i32, 1024 : i32, 3072 : i32]}> : (tensor<1024x3072xbf16>, tensor<1x1024x3072xbf16>) -> tensor<1x1024x3072xbf16>
    %798 = ttir.empty() : tensor<1024x3072xbf16>
    %799 = "ttir.reshape"(%797, %798) <{shape = [1024 : i32, 3072 : i32]}> : (tensor<1x1024x3072xbf16>, tensor<1024x3072xbf16>) -> tensor<1024x3072xbf16>
    %800 = ttir.empty() : tensor<3072x1024xbf16>
    %801 = "ttir.permute"(%799, %800) <{permutation = array<i64: 1, 0>}> : (tensor<1024x3072xbf16>, tensor<3072x1024xbf16>) -> tensor<3072x1024xbf16>
    %802 = "ttir.dot_general"(%739, %801) <{batch_dims_lhs = array<i64>, batch_dims_rhs = array<i64>, contract_dims_lhs = array<i64: 1>, contract_dims_rhs = array<i64: 0>}> : (tensor<640x3072xbf16>, tensor<3072x1024xbf16>) -> tensor<640x1024xbf16>
    %803 = ttir.empty() : tensor<1x640x8x128xbf16>
    %804 = "ttir.reshape"(%802, %803) <{shape = [1 : i32, 640 : i32, 8 : i32, 128 : i32]}> : (tensor<640x1024xbf16>, tensor<1x640x8x128xbf16>) -> tensor<1x640x8x128xbf16>
    %805 = ttir.empty() : tensor<1x8x640x128xbf16>
    %806 = "ttir.permute"(%804, %805) <{permutation = array<i64: 0, 2, 1, 3>}> : (tensor<1x640x8x128xbf16>, tensor<1x8x640x128xbf16>) -> tensor<1x8x640x128xbf16>
    %807 = ttir.empty() : tensor<1x8x640x128xf32>
    %808 = "ttir.typecast"(%806, %807) <{conservative_folding = false}> : (tensor<1x8x640x128xbf16>, tensor<1x8x640x128xf32>) -> tensor<1x8x640x128xf32>
    %809 = ttir.empty() : tensor<1x8x640x128xf32>
    %810 = "ttir.multiply"(%808, %178, %809) : (tensor<1x8x640x128xf32>, tensor<1x8x640x128xf32>, tensor<1x8x640x128xf32>) -> tensor<1x8x640x128xf32>
    %811 = ttir.empty() : tensor<1x8x640x128xbf16>
    %812 = "ttir.typecast"(%810, %811) <{conservative_folding = false}> : (tensor<1x8x640x128xf32>, tensor<1x8x640x128xbf16>) -> tensor<1x8x640x128xbf16>
    %813 = ttir.empty() : tensor<1x8x640x64xbf16>
    %814 = "ttir.slice_static"(%806, %813) <{begins = [0 : i32, 0 : i32, 0 : i32, 64 : i32], ends = [1 : i32, 8 : i32, 640 : i32, 128 : i32], step = [1 : i32, 1 : i32, 1 : i32, 1 : i32]}> : (tensor<1x8x640x128xbf16>, tensor<1x8x640x64xbf16>) -> tensor<1x8x640x64xbf16>
    %815 = ttir.empty() : tensor<1x8x640x64xbf16>
    %816 = "ttir.neg"(%814, %815) : (tensor<1x8x640x64xbf16>, tensor<1x8x640x64xbf16>) -> tensor<1x8x640x64xbf16>
    %817 = ttir.empty() : tensor<1x8x640x64xbf16>
    %818 = "ttir.slice_static"(%806, %817) <{begins = [0 : i32, 0 : i32, 0 : i32, 0 : i32], ends = [1 : i32, 8 : i32, 640 : i32, 64 : i32], step = [1 : i32, 1 : i32, 1 : i32, 1 : i32]}> : (tensor<1x8x640x128xbf16>, tensor<1x8x640x64xbf16>) -> tensor<1x8x640x64xbf16>
    %819 = ttir.empty() : tensor<1x8x640x128xbf16>
    %820 = "ttir.concat"(%816, %818, %819) <{dim = 3 : si32}> : (tensor<1x8x640x64xbf16>, tensor<1x8x640x64xbf16>, tensor<1x8x640x128xbf16>) -> tensor<1x8x640x128xbf16>
    %821 = ttir.empty() : tensor<1x8x640x128xf32>
    %822 = "ttir.typecast"(%820, %821) <{conservative_folding = false}> : (tensor<1x8x640x128xbf16>, tensor<1x8x640x128xf32>) -> tensor<1x8x640x128xf32>
    %823 = ttir.empty() : tensor<1x8x640x128xf32>
…
    %7612 = ttir.empty() : tensor<1x24x640x640xf32>
    %7613 = "ttir.div"(%7605, %7611, %7612) : (tensor<1x24x640x640xf32>, tensor<1x24x640x640xf32>, tensor<1x24x640x640xf32>) -> tensor<1x24x640x640xf32>
    %7614 = ttir.empty() : tensor<1x24x640x640xbf16>
    %7615 = "ttir.typecast"(%7613, %7614) <{conservative_folding = false}> : (tensor<1x24x640x640xf32>, tensor<1x24x640x640xbf16>) -> tensor<1x24x640x640xbf16>
    %7616 = ttir.empty() : tensor<24x640x640xbf16>
    %7617 = "ttir.reshape"(%7615, %7616) <{shape = [24 : i32, 640 : i32, 640 : i32]}> : (tensor<1x24x640x640xbf16>, tensor<24x640x640xbf16>) -> tensor<24x640x640xbf16>
    %7618 = ttir.empty() : tensor<1x8x1x640x128xbf16>
    %7619 = "ttir.reshape"(%7494, %7618) <{shape = [1 : i32, 8 : i32, 1 : i32, 640 : i32, 128 : i32]}> : (tensor<1x8x640x128xbf16>, tensor<1x8x1x640x128xbf16>) -> tensor<1x8x1x640x128xbf16>
    %7620 = ttir.empty() : tensor<1x8x3x640x128xbf16>
    %7621 = "ttir.broadcast"(%7619, %7620) <{broadcast_dimensions = array<i64: 1, 1, 3, 1, 1>}> : (tensor<1x8x1x640x128xbf16>, tensor<1x8x3x640x128xbf16>) -> tensor<1x8x3x640x128xbf16>
    %7622 = ttir.empty() : tensor<24x640x128xbf16>
    %7623 = "ttir.reshape"(%7621, %7622) <{shape = [24 : i32, 640 : i32, 128 : i32]}> : (tensor<1x8x3x640x128xbf16>, tensor<24x640x128xbf16>) -> tensor<24x640x128xbf16>
    %7624 = "ttir.dot_general"(%7617, %7623) <{batch_dims_lhs = array<i64: 0>, batch_dims_rhs = array<i64: 0>, contract_dims_lhs = array<i64: 2>, contract_dims_rhs = array<i64: 1>}> : (tensor<24x640x640xbf16>, tensor<24x640x128xbf16>) -> tensor<24x640x128xbf16>
    %7625 = ttir.empty() : tensor<1x24x640x128xbf16>
    %7626 = "ttir.reshape"(%7624, %7625) <{shape = [1 : i32, 24 : i32, 640 : i32, 128 : i32]}> : (tensor<24x640x128xbf16>, tensor<1x24x640x128xbf16>) -> tensor<1x24x640x128xbf16>
    %7627 = ttir.empty() : tensor<1x640x24x128xbf16>
    %7628 = "ttir.permute"(%7626, %7627) <{permutation = array<i64: 0, 2, 1, 3>}> : (tensor<1x24x640x128xbf16>, tensor<1x640x24x128xbf16>) -> tensor<1x640x24x128xbf16>
    %7629 = ttir.empty() : tensor<640x3072xbf16>
    %7630 = "ttir.reshape"(%7628, %7629) <{shape = [640 : i32, 3072 : i32]}> : (tensor<1x640x24x128xbf16>, tensor<640x3072xbf16>) -> tensor<640x3072xbf16>
    %7631 = ttir.empty() : tensor<1x3072x3072xbf16>
    %7632 = "ttir.reshape"(%arg246, %7631) <{shape = [1 : i32, 3072 : i32, 3072 : i32]}> : (tensor<3072x3072xbf16>, tensor<1x3072x3072xbf16>) -> tensor<1x3072x3072xbf16>
    %7633 = ttir.empty() : tensor<3072x3072xbf16>
    %7634 = "ttir.reshape"(%7632, %7633) <{shape = [3072 : i32, 3072 : i32]}> : (tensor<1x3072x3072xbf16>, tensor<3072x3072xbf16>) -> tensor<3072x3072xbf16>
    %7635 = ttir.empty() : tensor<3072x3072xbf16>
    %7636 = "ttir.permute"(%7634, %7635) <{permutation = array<i64: 1, 0>}> : (tensor<3072x3072xbf16>, tensor<3072x3072xbf16>) -> tensor<3072x3072xbf16>
    %7637 = "ttir.dot_general"(%7630, %7636) <{batch_dims_lhs = array<i64>, batch_dims_rhs = array<i64>, contract_dims_lhs = array<i64: 1>, contract_dims_rhs = array<i64: 0>}> : (tensor<640x3072xbf16>, tensor<3072x3072xbf16>) -> tensor<640x3072xbf16>
    %7638 = ttir.empty() : tensor<1x640x3072xbf16>
    %7639 = "ttir.reshape"(%7637, %7638) <{shape = [1 : i32, 640 : i32, 3072 : i32]}> : (tensor<640x3072xbf16>, tensor<1x640x3072xbf16>) -> tensor<1x640x3072xbf16>
    %7640 = ttir.empty() : tensor<1x640x3072xbf16>
    %7641 = "ttir.add"(%7451, %7639, %7640) : (tensor<1x640x3072xbf16>, tensor<1x640x3072xbf16>, tensor<1x640x3072xbf16>) -> tensor<1x640x3072xbf16>
    %7642 = ttir.empty() : tensor<1x1x3072xbf16>
    %7643 = "ttir.reshape"(%arg249, %7642) <{shape = [1 : i32, 1 : i32, 3072 : i32]}> : (tensor<3072xbf16>, tensor<1x1x3072xbf16>) -> tensor<1x1x3072xbf16>
    %7644 = ttir.empty() : tensor<3072xbf16>
    %7645 = "ttir.reshape"(%7643, %7644) <{shape = [3072 : i32]}> : (tensor<1x1x3072xbf16>, tensor<3072xbf16>) -> tensor<3072xbf16>
    %7646 = ttir.empty() : tensor<3072xf32>
    %7647 = "ttir.typecast"(%7645, %7646) <{conservative_folding = false}> : (tensor<3072xbf16>, tensor<3072xf32>) -> tensor<3072xf32>
    %7648 = ttir.empty() : tensor<1x1x3072xf32>
    %7649 = "ttir.reshape"(%7647, %7648) <{shape = [1 : i32, 1 : i32, 3072 : i32]}> : (tensor<3072xf32>, tensor<1x1x3072xf32>) -> tensor<1x1x3072xf32>
    %7650 = ttir.empty() : tensor<1x640x3072xf32>
    %7651 = "ttir.broadcast"(%7649, %7650) <{broadcast_dimensions = array<i64: 1, 640, 1>}> : (tensor<1x1x3072xf32>, tensor<1x640x3072xf32>) -> tensor<1x640x3072xf32>
    %7652 = ttir.empty() : tensor<1x640x3072xf32>
    %7653 = "ttir.typecast"(%7641, %7652) <{conservative_folding = false}> : (tensor<1x640x3072xbf16>, tensor<1x640x3072xf32>) -> tensor<1x640x3072xf32>
    %7654 = ttir.empty() : tensor<1x640x3072xf32>
    %7655 = "ttir.pow"(%7653, %5, %7654) : (tensor<1x640x3072xf32>, tensor<1x640x3072xf32>, tensor<1x640x3072xf32>) -> tensor<1x640x3072xf32>
    %7656 = ttir.empty() : tensor<1x640xf32>
    %7657 = "ttir.sum"(%7655, %7656) <{dim_arg = [2 : i32], keep_dim = false}> : (tensor<1x640x3072xf32>, tensor<1x640xf32>) -> tensor<1x640xf32>
    %7658 = ttir.empty() : tensor<1x640xf32>
    %7659 = "ttir.multiply"(%7657, %4, %7658) : (tensor<1x640xf32>, tensor<1x640xf32>, tensor<1x640xf32>) -> tensor<1x640xf32>
    %7660 = ttir.empty() : tensor<1x640x1xf32>
    %7661 = "ttir.reshape"(%7659, %7660) <{shape = [1 : i32, 640 : i32, 1 : i32]}> : (tensor<1x640xf32>, tensor<1x640x1xf32>) -> tensor<1x640x1xf32>
    %7662 = ttir.empty() : tensor<1x640x1xf32>
    %7663 = "ttir.add"(%7661, %46, %7662) : (tensor<1x640x1xf32>, tensor<1x640x1xf32>, tensor<1x640x1xf32>) -> tensor<1x640x1xf32>
    %7664 = ttir.empty() : tensor<1x640x1xf32>
    %7665 = "ttir.rsqrt"(%7663, %7664) : (tensor<1x640x1xf32>, tensor<1x640x1xf32>) -> tensor<1x640x1xf32>
    %7666 = ttir.empty() : tensor<1x640xf32>
    %7667 = "ttir.reshape"(%7665, %7666) <{shape = [1 : i32, 640 : i32]}> : (tensor<1x640x1xf32>, tensor<1x640xf32>) -> tensor<1x640xf32>
    %7668 = ttir.empty() : tensor<1x640x1xf32>
    %7669 = "ttir.reshape"(%7667, %7668) <{shape = [1 : i32, 640 : i32, 1 : i32]}> : (tensor<1x640xf32>, tensor<1x640x1xf32>) -> tensor<1x640x1xf32>
    %7670 = ttir.empty() : tensor<1x640x3072xf32>
    %7671 = "ttir.broadcast"(%7669, %7670) <{broadcast_dimensions = array<i64: 1, 1, 3072>}> : (tensor<1x640x1xf32>, tensor<1x640x3072xf32>) -> tensor<1x640x3072xf32>
    %7672 = ttir.empty() : tensor<1x640x3072xf32>
    %7673 = "ttir.multiply"(%7653, %7671, %7672) : (tensor<1x640x3072xf32>, tensor<1x640x3072xf32>, tensor<1x640x3072xf32>) -> tensor<1x640x3072xf32>
    %7674 = ttir.empty() : tensor<1x640x3072xbf16>
    %7675 = "ttir.typecast"(%7673, %7674) <{conservative_folding = false}> : (tensor<1x640x3072xf32>, tensor<1x640x3072xbf16>) -> tensor<1x640x3072xbf16>
    %7676 = ttir.empty() : tensor<1x640x3072xf32>
    %7677 = "ttir.typecast"(%7675, %7676) <{conservative_folding = false}> : (tensor<1x640x3072xbf16>, tensor<1x640x3072xf32>) -> tensor<1x640x3072xf32>
    %7678 = ttir.empty() : tensor<1x640x3072xf32>
    %7679 = "ttir.multiply"(%7651, %7677, %7678) : (tensor<1x640x3072xf32>, tensor<1x640x3072xf32>, tensor<1x640x3072xf32>) -> tensor<1x640x3072xf32>
    %7680 = ttir.empty() : tensor<1x640x3072xbf16>
    %7681 = "ttir.typecast"(%7679, %7680) <{conservative_folding = false}> : (tensor<1x640x3072xf32>, tensor<1x640x3072xbf16>) -> tensor<1x640x3072xbf16>
    %7682 = ttir.empty() : tensor<640x3072xbf16>
    %7683 = "ttir.reshape"(%7681, %7682) <{shape = [640 : i32, 3072 : i32]}> : (tensor<1x640x3072xbf16>, tensor<640x3072xbf16>) -> tensor<640x3072xbf16>
    %7684 = ttir.empty() : tensor<1x8192x3072xbf16>
    %7685 = "ttir.reshape"(%arg250, %7684) <{shape = [1 : i32, 8192 : i32, 3072 : i32]}> : (tensor<8192x3072xbf16>, tensor<1x8192x3072xbf16>) -> tensor<1x8192x3072xbf16>
    %7686 = ttir.empty() : tensor<8192x3072xbf16>
    %7687 = "ttir.reshape"(%7685, %7686) <{shape = [8192 : i32, 3072 : i32]}> : (tensor<1x8192x3072xbf16>, tensor<8192x3072xbf16>) -> tensor<8192x3072xbf16>
    %7688 = ttir.empty() : tensor<3072x8192xbf16>
    %7689 = "ttir.permute"(%7687, %7688) <{permutation = array<i64: 1, 0>}> : (tensor<8192x3072xbf16>, tensor<3072x8192xbf16>) -> tensor<3072x8192xbf16>
    %7690 = "ttir.dot_general"(%7683, %7689) <{batch_dims_lhs = array<i64>, batch_dims_rhs = array<i64>, contract_dims_lhs = array<i64: 1>, contract_dims_rhs = array<i64: 0>}> : (tensor<640x3072xbf16>, tensor<3072x8192xbf16>) -> tensor<640x8192xbf16>
    %7691 = ttir.empty() : tensor<1x640x8192xbf16>
    %7692 = "ttir.reshape"(%7690, %7691) <{shape = [1 : i32, 640 : i32, 8192 : i32]}> : (tensor<640x8192xbf16>, tensor<1x640x8192xbf16>) -> tensor<1x640x8192xbf16>
    %7693 = ttir.empty() : tensor<1x640x8192xf32>
    %7694 = "ttir.typecast"(%7692, %7693) <{conservative_folding = false}> : (tensor<1x640x8192xbf16>, tensor<1x640x8192xf32>) -> tensor<1x640x8192xf32>
    %7695 = ttir.empty() : tensor<1x640x8192xbf16>
    %7696 = "ttir.sigmoid"(%7692, %7695) : (tensor<1x640x8192xbf16>, tensor<1x640x8192xbf16>) -> tensor<1x640x8192xbf16>
    %7697 = ttir.empty() : tensor<1x640x8192xf32>
    %7698 = "ttir.typecast"(%7696, %7697) <{conservative_folding = false}> : (tensor<1x640x8192xbf16>, tensor<1x640x8192xf32>) -> tensor<1x640x8192xf32>
    %7699 = ttir.empty() : tensor<1x640x8192xf32>
    %7700 = "ttir.multiply"(%7694, %7698, %7699) : (tensor<1x640x8192xf32>, tensor<1x640x8192xf32>, tensor<1x640x8192xf32>) -> tensor<1x640x8192xf32>
    %7701 = ttir.empty() : tensor<1x640x8192xbf16>
    %7702 = "ttir.typecast"(%7700, %7701) <{conservative_folding = false}> : (tensor<1x640x8192xf32>, tensor<1x640x8192xbf16>) -> tensor<1x640x8192xbf16>
    %7703 = ttir.empty() : tensor<1x640x8192xf32>
    %7704 = "ttir.typecast"(%7702, %7703) <{conservative_folding = false}> : (tensor<1x640x8192xbf16>, tensor<1x640x8192xf32>) -> tensor<1x640x8192xf32>
    %7705 = ttir.empty() : tensor<1x8192x3072xbf16>
    %7706 = "ttir.reshape"(%arg245, %7705) <{shape = [1 : i32, 8192 : i32, 3072 : i32]}> : (tensor<8192x3072xbf16>, tensor<1x8192x3072xbf16>) -> tensor<1x8192x3072xbf16>
    %7707 = ttir.empty() : tensor<8192x3072xbf16>
    %7708 = "ttir.reshape"(%7706, %7707) <{shape = [8192 : i32, 3072 : i32]}> : (tensor<1x8192x3072xbf16>, tensor<8192x3072xbf16>) -> tensor<8192x3072xbf16>
    %7709 = ttir.empty() : tensor<3072x8192xbf16>
    %7710 = "ttir.permute"(%7708, %7709) <{permutation = array<i64: 1, 0>}> : (tensor<8192x3072xbf16>, tensor<3072x8192xbf16>) -> tensor<3072x8192xbf16>
    %7711 = "ttir.dot_general"(%7683, %7710) <{batch_dims_lhs = array<i64>, batch_dims_rhs = array<i64>, contract_dims_lhs = array<i64: 1>, contract_dims_rhs = array<i64: 0>}> : (tensor<640x3072xbf16>, tensor<3072x8192xbf16>) -> tensor<640x8192xbf16>
    %7712 = ttir.empty() : tensor<1x640x8192xbf16>
    %7713 = "ttir.reshape"(%7711, %7712) <{shape = [1 : i32, 640 : i32, 8192 : i32]}> : (tensor<640x8192xbf16>, tensor<1x640x8192xbf16>) -> tensor<1x640x8192xbf16>
    %7714 = ttir.empty() : tensor<1x640x8192xf32>
    %7715 = "ttir.typecast"(%7713, %7714) <{conservative_folding = false}> : (tensor<1x640x8192xbf16>, tensor<1x640x8192xf32>) -> tensor<1x640x8192xf32>
    %7716 = ttir.empty() : tensor<1x640x8192xf32>
    %7717 = "ttir.multiply"(%7704, %7715, %7716) : (tensor<1x640x8192xf32>, tensor<1x640x8192xf32>, tensor<1x640x8192xf32>) -> tensor<1x640x8192xf32>
    %7718 = ttir.empty() : tensor<1x640x8192xbf16>
    %7719 = "ttir.typecast"(%7717, %7718) <{conservative_folding = false}> : (tensor<1x640x8192xf32>, tensor<1x640x8192xbf16>) -> tensor<1x640x8192xbf16>
    %7720 = ttir.empty() : tensor<640x8192xbf16>
    %7721 = "ttir.reshape"(%7719, %7720) <{shape = [640 : i32, 8192 : i32]}> : (tensor<1x640x8192xbf16>, tensor<640x8192xbf16>) -> tensor<640x8192xbf16>
    %7722 = ttir.empty() : tensor<1x3072x8192xbf16>
    %7723 = "ttir.reshape"(%arg244, %7722) <{shape = [1 : i32, 3072 : i32, 8192 : i32]}> : (tensor<3072x8192xbf16>, tensor<1x3072x8192xbf16>) -> tensor<1x3072x8192xbf16>
    %7724 = ttir.empty() : tensor<3072x8192xbf16>
    %7725 = "ttir.reshape"(%7723, %7724) <{shape = [3072 : i32, 8192 : i32]}> : (tensor<1x3072x8192xbf16>, tensor<3072x8192xbf16>) -> tensor<3072x8192xbf16>
    %7726 = ttir.empty() : tensor<8192x3072xbf16>
    %7727 = "ttir.permute"(%7725, %7726) <{permutation = array<i64: 1, 0>}> : (tensor<3072x8192xbf16>, tensor<8192x3072xbf16>) -> tensor<8192x3072xbf16>
    %7728 = "ttir.dot_general"(%7721, %7727) <{batch_dims_lhs = array<i64>, batch_dims_rhs = array<i64>, contract_dims_lhs = array<i64: 1>, contract_dims_rhs = array<i64: 0>}> : (tensor<640x8192xbf16>, tensor<8192x3072xbf16>) -> tensor<640x3072xbf16>
    %7729 = ttir.empty() : tensor<1x640x3072xbf16>
    %7730 = "ttir.reshape"(%7728, %7729) <{shape = [1 : i32, 640 : i32, 3072 : i32]}> : (tensor<640x3072xbf16>, tensor<1x640x3072xbf16>) -> tensor<1x640x3072xbf16>
    %7731 = ttir.empty() : tensor<1x640x3072xbf16>
    %7732 = "ttir.add"(%7641, %7730, %7731) : (tensor<1x640x3072xbf16>, tensor<1x640x3072xbf16>, tensor<1x640x3072xbf16>) -> tensor<1x640x3072xbf16>
    %7733 = ttir.empty() : tensor<1x640x3072xf32>
    %7734 = "ttir.typecast"(%7732, %7733) <{conservative_folding = false}> : (tensor<1x640x3072xbf16>, tensor<1x640x3072xf32>) -> tensor<1x640x3072xf32>
    %7735 = ttir.empty() : tensor<1x640x3072xf32>
    %7736 = "ttir.pow"(%7734, %5, %7735) : (tensor<1x640x3072xf32>, tensor<1x640x3072xf32>, tensor<1x640x3072xf32>) -> tensor<1x640x3072xf32>
    %7737 = ttir.empty() : tensor<1x640xf32>
    %7738 = "ttir.sum"(%7736, %7737) <{dim_arg = [2 : i32], keep_dim = false}> : (tensor<1x640x3072xf32>, tensor<1x640xf32>) -> tensor<1x640xf32>
    %7739 = ttir.empty() : tensor<1x640xf32>
    %7740 = "ttir.multiply"(%7738, %4, %7739) : (tensor<1x640xf32>, tensor<1x640xf32>, tensor<1x640xf32>) -> tensor<1x640xf32>
    %7741 = ttir.empty() : tensor<1x640x1xf32>
    %7742 = "ttir.reshape"(%7740, %7741) <{shape = [1 : i32, 640 : i32, 1 : i32]}> : (tensor<1x640xf32>, tensor<1x640x1xf32>) -> tensor<1x640x1xf32>
    %7743 = ttir.empty() : tensor<1x640x1xf32>
    %7744 = "ttir.add"(%7742, %46, %7743) : (tensor<1x640x1xf32>, tensor<1x640x1xf32>, tensor<1x640x1xf32>) -> tensor<1x640x1xf32>
    %7745 = ttir.empty() : tensor<1x640x1xf32>
    %7746 = "ttir.rsqrt"(%7744, %7745) : (tensor<1x640x1xf32>, tensor<1x640x1xf32>) -> tensor<1x640x1xf32>
    %7747 = ttir.empty() : tensor<1x640xf32>
    %7748 = "ttir.reshape"(%7746, %7747) <{shape = [1 : i32, 640 : i32]}> : (tensor<1x640x1xf32>, tensor<1x640xf32>) -> tensor<1x640xf32>
    %7749 = ttir.empty() : tensor<1x640x1xf32>
    %7750 = "ttir.reshape"(%7748, %7749) <{shape = [1 : i32, 640 : i32, 1 : i32]}> : (tensor<1x640xf32>, tensor<1x640x1xf32>) -> tensor<1x640x1xf32>
    %7751 = ttir.empty() : tensor<1x640x3072xf32>
    %7752 = "ttir.broadcast"(%7750, %7751) <{broadcast_dimensions = array<i64: 1, 1, 3072>}> : (tensor<1x640x1xf32>, tensor<1x640x3072xf32>) -> tensor<1x640x3072xf32>
    %7753 = ttir.empty() : tensor<1x640x3072xf32>
    %7754 = "ttir.multiply"(%7734, %7752, %7753) : (tensor<1x640x3072xf32>, tensor<1x640x3072xf32>, tensor<1x640x3072xf32>) -> tensor<1x640x3072xf32>
    %7755 = ttir.empty() : tensor<1x640x3072xbf16>
    %7756 = "ttir.typecast"(%7754, %7755) <{conservative_folding = false}> : (tensor<1x640x3072xf32>, tensor<1x640x3072xbf16>) -> tensor<1x640x3072xbf16>
    %7757 = ttir.empty() : tensor<1x640x3072xf32>
    %7758 = "ttir.typecast"(%7756, %7757) <{conservative_folding = false}> : (tensor<1x640x3072xbf16>, tensor<1x640x3072xf32>) -> tensor<1x640x3072xf32>
    %7759 = ttir.empty() : tensor<1x640x3072xf32>
    %7760 = "ttir.multiply"(%7504, %7758, %7759) : (tensor<1x640x3072xf32>, tensor<1x640x3072xf32>, tensor<1x640x3072xf32>) -> tensor<1x640x3072xf32>
    %7761 = ttir.empty() : tensor<1x640x3072xbf16>
    %7762 = "ttir.typecast"(%7760, %7761) <{conservative_folding = false}> : (tensor<1x640x3072xf32>, tensor<1x640x3072xbf16>) -> tensor<1x640x3072xbf16>
    %7763 = ttir.empty() : tensor<640x3072xbf16>
    %7764 = "ttir.reshape"(%7762, %7763) <{shape = [640 : i32, 3072 : i32]}> : (tensor<1x640x3072xbf16>, tensor<640x3072xbf16>) -> tensor<640x3072xbf16>
    %7765 = ttir.empty() : tensor<1x1024x3072xbf16>
    %7766 = "ttir.reshape"(%arg243, %7765) <{shape = [1 : i32, 1024 : i32, 3072 : i32]}> : (tensor<1024x3072xbf16>, tensor<1x1024x3072xbf16>) -> tensor<1x1024x3072xbf16>
    %7767 = ttir.empty() : tensor<1024x3072xbf16>
    %7768 = "ttir.reshape"(%7766, %7767) <{shape = [1024 : i32, 3072 : i32]}> : (tensor<1x1024x3072xbf16>, tensor<1024x3072xbf16>) -> tensor<1024x3072xbf16>
    %7769 = ttir.empty() : tensor<3072x1024xbf16>
    %7770 = "ttir.permute"(%7768, %7769) <{permutation = array<i64: 1, 0>}> : (tensor<1024x3072xbf16>, tensor<3072x1024xbf16>) -> tensor<3072x1024xbf16>
    %7771 = "ttir.dot_general"(%7764, %7770) <{batch_dims_lhs = array<i64>, batch_dims_rhs = array<i64>, contract_dims_lhs = array<i64: 1>, contract_dims_rhs = array<i64: 0>}> : (tensor<640x3072xbf16>, tensor<3072x1024xbf16>) -> tensor<640x1024xbf16>
    %7772 = ttir.empty() : tensor<1x640x8x128xbf16>
    %7773 = "ttir.reshape"(%7771, %7772) <{shape = [1 : i32, 640 : i32, 8 : i32, 128 : i32]}> : (tensor<640x1024xbf16>, tensor<1x640x8x128xbf16>) -> tensor<1x640x8x128xbf16>
    %7774 = ttir.empty() : tensor<1x8x640x128xbf16>
    %7775 = "ttir.permute"(%7773, %7774) <{permutation = array<i64: 0, 2, 1, 3>}> : (tensor<1x640x8x128xbf16>, tensor<1x8x640x128xbf16>) -> tensor<1x8x640x128xbf16>
    %7776 = ttir.empty() : tensor<1x1024x3072xbf16>
    %7777 = "ttir.reshape"(%arg252, %7776) <{shape = [1 : i32, 1024 : i32, 3072 : i32]}> : (tensor<1024x3072xbf16>, tensor<1x1024x3072xbf16>) -> tensor<1x1024x3072xbf16>
    %7778 = ttir.empty() : tensor<1024x3072xbf16>
    %7779 = "ttir.reshape"(%7777, %7778) <{shape = [1024 : i32, 3072 : i32]}> : (tensor<1x1024x3072xbf16>, tensor<1024x3072xbf16>) -> tensor<1024x3072xbf16>
    %7780 = ttir.empty() : tensor<3072x1024xbf16>
    %7781 = "ttir.permute"(%7779, %7780) <{permutation = array<i64: 1, 0>}> : (tensor<1024x3072xbf16>, tensor<3072x1024xbf16>) -> tensor<3072x1024xbf16>
    %7782 = "ttir.dot_general"(%7764, %7781) <{batch_dims_lhs = array<i64>, batch_dims_rhs = array<i64>, contract_dims_lhs = array<i64: 1>, contract_dims_rhs = array<i64: 0>}> : (tensor<640x3072xbf16>, tensor<3072x1024xbf16>) -> tensor<640x1024xbf16>
    %7783 = ttir.empty() : tensor<1x640x8x128xbf16>
    %7784 = "ttir.reshape"(%7782, %7783) <{shape = [1 : i32, 640 : i32, 8 : i32, 128 : i32]}> : (tensor<640x1024xbf16>, tensor<1x640x8x128xbf16>) -> tensor<1x640x8x128xbf16>
    %7785 = ttir.empty() : tensor<1x8x640x128xbf16>
    %7786 = "ttir.permute"(%7784, %7785) <{permutation = array<i64: 0, 2, 1, 3>}> : (tensor<1x640x8x128xbf16>, tensor<1x8x640x128xbf16>) -> tensor<1x8x640x128xbf16>
    %7787 = ttir.empty() : tensor<1x8x640x128xf32>
    %7788 = "ttir.typecast"(%7786, %7787) <{conservative_folding = false}> : (tensor<1x8x640x128xbf16>, tensor<1x8x640x128xf32>) -> tensor<1x8x640x128xf32>
    %7789 = ttir.empty() : tensor<1x8x640x128xf32>
    %7790 = "ttir.multiply"(%7788, %178, %7789) : (tensor<1x8x640x128xf32>, tensor<1x8x640x128xf32>, tensor<1x8x640x128xf32>) -> tensor<1x8x640x128xf32>
    %7791 = ttir.empty() : tensor<1x8x640x128xbf16>
    %7792 = "ttir.typecast"(%7790, %7791) <{conservative_folding = false}> : (tensor<1x8x640x128xf32>, tensor<1x8x640x128xbf16>) -> tensor<1x8x640x128xbf16>
    %7793 = ttir.empty() : tensor<1x8x640x64xbf16>
    %7794 = "ttir.slice_static"(%7786, %7793) <{begins = [0 : i32, 0 : i32, 0 : i32, 64 : i32], ends = [1 : i32, 8 : i32, 640 : i32, 128 : i32], step = [1 : i32, 1 : i32, 1 : i32, 1 : i32]}> : (tensor<1x8x640x128xbf16>, tensor<1x8x640x64xbf16>) -> tensor<1x8x640x64xbf16>
    %7795 = ttir.empty() : tensor<1x8x640x64xbf16>
    %7796 = "ttir.neg"(%7794, %7795) : (tensor<1x8x640x64xbf16>, tensor<1x8x640x64xbf16>) -> tensor<1x8x640x64xbf16>
    %7797 = ttir.empty() : tensor<1x8x640x64xbf16>
    %7798 = "ttir.slice_static"(%7786, %7797) <{begins = [0 : i32, 0 : i32, 0 : i32, 0 : i32], ends = [1 : i32, 8 : i32, 640 : i32, 64 : i32], step = [1 : i32, 1 : i32, 1 : i32, 1 : i32]}> : (tensor<1x8x640x128xbf16>, tensor<1x8x640x64xbf16>) -> tensor<1x8x640x64xbf16>
    %7799 = ttir.empty() : tensor<1x8x640x128xbf16>
    %7800 = "ttir.concat"(%7796, %7798, %7799) <{dim = 3 : si32}> : (tensor<1x8x640x64xbf16>, tensor<1x8x640x64xbf16>, tensor<1x8x640x128xbf16>) -> tensor<1x8x640x128xbf16>
    %7801 = ttir.empty() : tensor<1x8x640x128xf32>
    %7802 = "ttir.typecast"(%7800, %7801) <{conservative_folding = false}> : (tensor<1x8x640x128xbf16>, tensor<1x8x640x128xf32>) -> tensor<1x8x640x128xf32>
    %7803 = ttir.empty() : tensor<1x8x640x128xf32>
    %7804 = "ttir.multiply"(%7802, %196, %7803) : (tensor<1x8x640x128xf32>, tensor<1x8x640x128xf32>, tensor<1x8x640x128xf32>) -> tensor<1x8x640x128xf32>
    %7805 = ttir.empty() : tensor<1x8x640x128xbf16>
    %7806 = "ttir.typecast"(%7804, %7805) <{conservative_folding = false}> : (tensor<1x8x640x128xf32>, tensor<1x8x640x128xbf16>) -> tensor<1x8x640x128xbf16>
    %7807 = ttir.empty() : tensor<1x8x640x128xbf16>
    %7808 = "ttir.add"(%7792, %7806, %7807) : (tensor<1x8x640x128xbf16>, tensor<1x8x640x128xbf16>, tensor<1x8x640x128xbf16>) -> tensor<1x8x640x128xbf16>
    %7809 = ttir.empty() : tensor<1x1x3072xbf16>
    %7810 = "ttir.reshape"(%arg260, %7809) <{shape = [1 : i32, 1 : i32, 3072 : i32]}> : (tensor<3072xbf16>, tensor<1x1x3072xbf16>) -> tensor<1x1x3072xbf16>
    %7811 = ttir.empty() : tensor<3072xbf16>
    %7812 = "ttir.reshape"(%7810, %7811) <{shape = [3072 : i32]}> : (tensor<1x1x3072xbf16>, tensor<3072xbf16>) -> tensor<3072xbf16>
    %7813 = ttir.empty() : tensor<3072xf32>
    %7814 = "ttir.typecast"(%7812, %7813) <{conservative_folding = false}> : (tensor<3072xbf16>, tensor<3072xf32>) -> tensor<3072xf32>
    %7815 = ttir.empty() : tensor<1x1x3072xf32>
    %7816 = "ttir.reshape"(%7814, %7815) <{shape = [1 : i32, 1 : i32, 3072 : i32]}> : (tensor<3072xf32>, tensor<1x1x3072xf32>) -> tensor<1x1x3072xf32>
    %7817 = ttir.empty() : tensor<1x640x3072xf32>
    %7818 = "ttir.broadcast"(%7816, %7817) <{broadcast_dimensions = array<i64: 1, 640, 1>}> : (tensor<1x1x3072xf32>, tensor<1x640x3072xf32>) -> tensor<1x640x3072xf32>
    %7819 = ttir.empty() : tensor<1x3072x3072xbf16>
    %7820 = "ttir.reshape"(%arg257, %7819) <{shape = [1 : i32, 3072 : i32, 3072 : i32]}> : (tensor<3072x3072xbf16>, tensor<1x3072x3072xbf16>) -> tensor<1x3072x3072xbf16>
    %7821 = ttir.empty() : tensor<3072x3072xbf16>
    %7822 = "ttir.reshape"(%7820, %7821) <{shape = [3072 : i32, 3072 : i32]}> : (tensor<1x3072x3072xbf16>, tensor<3072x3072xbf16>) -> tensor<3072x3072xbf16>
    %7823 = ttir.empty() : tensor<3072x3072xbf16>
    %7824 = "ttir.permute"(%7822, %7823) <{permutation = array<i64: 1, 0>}> : (tensor<3072x3072xbf16>, tensor<3072x3072xbf16>) -> tensor<3072x3072xbf16>
    %7825 = "ttir.dot_general"(%7764, %7824) <{batch_dims_lhs = array<i64>, batch_dims_rhs = array<i64>, contract_dims_lhs = array<i64: 1>, contract_dims_rhs = array<i64: 0>}> : (tensor<640x3072xbf16>, tensor<3072x3072xbf16>) -> tensor<640x3072xbf16>
    %7826 = ttir.empty() : tensor<1x640x24x128xbf16>
    %7827 = "ttir.reshape"(%7825, %7826) <{shape = [1 : i32, 640 : i32, 24 : i32, 128 : i32]}> : (tensor<640x3072xbf16>, tensor<1x640x24x128xbf16>) -> tensor<1x640x24x128xbf16>
    %7828 = ttir.empty() : tensor<1x24x640x128xbf16>
    %7829 = "ttir.permute"(%7827, %7828) <{permutation = array<i64: 0, 2, 1, 3>}> : (tensor<1x640x24x128xbf16>, tensor<1x24x640x128xbf16>) -> tensor<1x24x640x128xbf16>
    %7830 = ttir.empty() : tensor<1x24x640x128xf32>
    %7831 = "ttir.typecast"(%7829, %7830) <{conservative_folding = false}> : (tensor<1x24x640x128xbf16>, tensor<1x24x640x128xf32>) -> tensor<1x24x640x128xf32>
    %7832 = ttir.empty() : tensor<1x24x640x128xf32>
    %7833 = "ttir.multiply"(%7831, %125, %7832) : (tensor<1x24x640x128xf32>, tensor<1x24x640x128xf32>, tensor<1x24x640x128xf32>) -> tensor<1x24x640x128xf32>
    %7834 = ttir.empty() : tensor<1x24x640x128xbf16>
    %7835 = "ttir.typecast"(%7833, %7834) <{conservative_folding = false}> : (tensor<1x24x640x128xf32>, tensor<1x24x640x128xbf16>) -> tensor<1x24x640x128xbf16>
    %7836 = ttir.empty() : tensor<1x24x640x64xbf16>
    %7837 = "ttir.slice_static"(%7829, %7836) <{begins = [0 : i32, 0 : i32, 0 : i32, 64 : i32], ends = [1 : i32, 24 : i32, 640 : i32, 128 : i32], step = [1 : i32, 1 : i32, 1 : i32, 1 : i32]}> : (tensor<1x24x640x128xbf16>, tensor<1x24x640x64xbf16>) -> tensor<1x24x640x64xbf16>
    %7838 = ttir.empty() : tensor<1x24x640x64xbf16>
    %7839 = "ttir.neg"(%7837, %7838) : (tensor<1x24x640x64xbf16>, tensor<1x24x640x64xbf16>) -> tensor<1x24x640x64xbf16>
    %7840 = ttir.empty() : tensor<1x24x640x64xbf16>
    %7841 = "ttir.slice_static"(%7829, %7840) <{begins = [0 : i32, 0 : i32, 0 : i32, 0 : i32], ends = [1 : i32, 24 : i32, 640 : i32, 64 : i32], step = [1 : i32, 1 : i32, 1 : i32, 1 : i32]}> : (tensor<1x24x640x128xbf16>, tensor<1x24x640x64xbf16>) -> tensor<1x24x640x64xbf16>
    %7842 = ttir.empty() : tensor<1x24x640x128xbf16>
    %7843 = "ttir.concat"(%7839, %7841, %7842) <{dim = 3 : si32}> : (tensor<1x24x640x64xbf16>, tensor<1x24x640x64xbf16>, tensor<1x24x640x128xbf16>) -> tensor<1x24x640x128xbf16>
    %7844 = ttir.empty() : tensor<1x24x640x128xf32>
    %7845 = "ttir.typecast"(%7843, %7844) <{conservative_folding = false}> : (tensor<1x24x640x128xbf16>, tensor<1x24x640x128xf32>) -> tensor<1x24x640x128xf32>
    %7846 = ttir.empty() : tensor<1x24x640x128xf32>
    %7847 = "ttir.multiply"(%7845, %153, %7846) : (tensor<1x24x640x128xf32>, tensor<1x24x640x128xf32>, tensor<1x24x640x128xf32>) -> tensor<1x24x640x128xf32>
    %7848 = ttir.empty() : tensor<1x24x640x128xbf16>
    %7849 = "ttir.typecast"(%7847, %7848) <{conservative_folding = false}> : (tensor<1x24x640x128xf32>, tensor<1x24x640x128xbf16>) -> tensor<1x24x640x128xbf16>
    %7850 = ttir.empty() : tensor<1x24x640x128xbf16>
    %7851 = "ttir.add"(%7835, %7849, %7850) : (tensor<1x24x640x128xbf16>, tensor<1x24x640x128xbf16>, tensor<1x24x640x128xbf16>) -> tensor<1x24x640x128xbf16>
    %7852 = ttir.empty() : tensor<24x640x128xbf16>
    %7853 = "ttir.reshape"(%7851, %7852) <{shape = [24 : i32, 640 : i32, 128 : i32]}> : (tensor<1x24x640x128xbf16>, tensor<24x640x128xbf16>) -> tensor<24x640x128xbf16>
    %7854 = ttir.empty() : tensor<1x8x1x640x128xbf16>
    %7855 = "ttir.reshape"(%7808, %7854) <{shape = [1 : i32, 8 : i32, 1 : i32, 640 : i32, 128 : i32]}> : (tensor<1x8x640x128xbf16>, tensor<1x8x1x640x128xbf16>) -> tensor<1x8x1x640x128xbf16>
    %7856 = ttir.empty() : tensor<1x8x3x640x128xbf16>
    %7857 = "ttir.broadcast"(%7855, %7856) <{broadcast_dimensions = array<i64: 1, 1, 3, 1, 1>}> : (tensor<1x8x1x640x128xbf16>, tensor<1x8x3x640x128xbf16>) -> tensor<1x8x3x640x128xbf16>
    %7858 = ttir.empty() : tensor<1x24x640x128xbf16>
    %7859 = "ttir.reshape"(%7857, %7858) <{shape = [1 : i32, 24 : i32, 640 : i32, 128 : i32]}> : (tensor<1x8x3x640x128xbf16>, tensor<1x24x640x128xbf16>) -> tensor<1x24x640x128xbf16>
    %7860 = ttir.empty() : tensor<1x24x128x640xbf16>
    %7861 = "ttir.permute"(%7859, %7860) <{permutation = array<i64: 0, 1, 3, 2>}> : (tensor<1x24x640x128xbf16>, tensor<1x24x128x640xbf16>) -> tensor<1x24x128x640xbf16>
    %7862 = ttir.empty() : tensor<24x128x640xbf16>
    %7863 = "ttir.reshape"(%7861, %7862) <{shape = [24 : i32, 128 : i32, 640 : i32]}> : (tensor<1x24x128x640xbf16>, tensor<24x128x640xbf16>) -> tensor<24x128x640xbf16>
    %7864 = "ttir.dot_general"(%7853, %7863) <{batch_dims_lhs = array<i64: 0>, batch_dims_rhs = array<i64: 0>, contract_dims_lhs = array<i64: 2>, contract_dims_rhs = array<i64: 1>}> : (tensor<24x640x128xbf16>, tensor<24x128x640xbf16>) -> tensor<24x640x640xbf16>
    %7865 = ttir.empty() : tensor<1x24x640x640xbf16>
    %7866 = "ttir.reshape"(%7864, %7865) <{shape = [1 : i32, 24 : i32, 640 : i32, 640 : i32]}> : (tensor<24x640x640xbf16>, tensor<1x24x640x640xbf16>) -> tensor<1x24x640x640xbf16>
    %7867 = ttir.empty() : tensor<1x24x640x640xf32>
    %7868 = "ttir.typecast"(%7866, %7867) <{conservative_folding = false}> : (tensor<1x24x640x640xbf16>, tensor<1x24x640x640xf32>) -> tensor<1x24x640x640xf32>
    %7869 = ttir.empty() : tensor<1x24x640x640xf32>
    %7870 = "ttir.multiply"(%7868, %221, %7869) : (tensor<1x24x640x640xf32>, tensor<1x24x640x640xf32>, tensor<1x24x640x640xf32>) -> tensor<1x24x640x640xf32>
    %7871 = ttir.empty() : tensor<1x24x640x640xbf16>
    %7872 = "ttir.typecast"(%7870, %7871) <{conservative_folding = false}> : (tensor<1x24x640x640xf32>, tensor<1x24x640x640xbf16>) -> tensor<1x24x640x640xbf16>
    %7873 = ttir.empty() : tensor<1x24x640x640xbf16>
    %7874 = "ttir.add"(%7872, %285, %7873) : (tensor<1x24x640x640xbf16>, tensor<1x24x640x640xbf16>, tensor<1x24x640x640xbf16>) -> tensor<1x24x640x640xbf16>
    %7875 = ttir.empty() : tensor<1x24x640x640xf32>
    %7876 = "ttir.typecast"(%7874, %7875) <{conservative_folding = false}> : (tensor<1x24x640x640xbf16>, tensor<1x24x640x640xf32>) -> tensor<1x24x640x640xf32>
    %7877 = ttir.empty() : tensor<1x24x640xf32>
    %7878 = "ttir.max"(%7876, %7877) <{dim_arg = [3 : i32], keep_dim = false}> : (tensor<1x24x640x640xf32>, tensor<1x24x640xf32>) -> tensor<1x24x640xf32>
    %7879 = ttir.empty() : tensor<1x24x640x1xf32>
    %7880 = "ttir.reshape"(%7878, %7879) <{shape = [1 : i32, 24 : i32, 640 : i32, 1 : i32]}> : (tensor<1x24x640xf32>, tensor<1x24x640x1xf32>) -> tensor<1x24x640x1xf32>
    %7881 = ttir.empty() : tensor<1x24x640x640xf32>
    %7882 = "ttir.broadcast"(%7880, %7881) <{broadcast_dimensions = array<i64: 1, 1, 1, 640>}> : (tensor<1x24x640x1xf32>, tensor<1x24x640x640xf32>) -> tensor<1x24x640x640xf32>
    %7883 = ttir.empty() : tensor<1x24x640x640xf32>
    %7884 = "ttir.subtract"(%7876, %7882, %7883) : (tensor<1x24x640x640xf32>, tensor<1x24x640x640xf32>, tensor<1x24x640x640xf32>) -> tensor<1x24x640x640xf32>
    %7885 = ttir.empty() : tensor<1x24x640x640xf32>
    %7886 = "ttir.exp"(%7884, %7885) : (tensor<1x24x640x640xf32>, tensor<1x24x640x640xf32>) -> tensor<1x24x640x640xf32>
    %7887 = ttir.empty() : tensor<1x24x640xf32>
    %7888 = "ttir.sum"(%7886, %7887) <{dim_arg = [3 : i32], keep_dim = false}> : (tensor<1x24x640x640xf32>, tensor<1x24x640xf32>) -> tensor<1x24x640xf32>
    %7889 = ttir.empty() : tensor<1x24x640x1xf32>
    %7890 = "ttir.reshape"(%7888, %7889) <{shape = [1 : i32, 24 : i32, 640 : i32, 1 : i32]}> : (tensor<1x24x640xf32>, tensor<1x24x640x1xf32>) -> tensor<1x24x640x1xf32>
    %7891 = ttir.empty() : tensor<1x24x640x640xf32>
    %7892 = "ttir.broadcast"(%7890, %7891) <{broadcast_dimensions = array<i64: 1, 1, 1, 640>}> : (tensor<1x24x640x1xf32>, tensor<1x24x640x640xf32>) -> tensor<1x24x640x640xf32>
    %7893 = ttir.empty() : tensor<1x24x640x640xf32>
    %7894 = "ttir.div"(%7886, %7892, %7893) : (tensor<1x24x640x640xf32>, tensor<1x24x640x640xf32>, tensor<1x24x640x640xf32>) -> tensor<1x24x640x640xf32>
    %7895 = ttir.empty() : tensor<1x24x640x640xbf16>
    %7896 = "ttir.typecast"(%7894, %7895) <{conservative_folding = false}> : (tensor<1x24x640x640xf32>, tensor<1x24x640x640xbf16>) -> tensor<1x24x640x640xbf16>
    %7897 = ttir.empty() : tensor<24x640x640xbf16>
    %7898 = "ttir.reshape"(%7896, %7897) <{shape = [24 : i32, 640 : i32, 640 : i32]}> : (tensor<1x24x640x640xbf16>, tensor<24x640x640xbf16>) -> tensor<24x640x640xbf16>
    %7899 = ttir.empty() : tensor<1x8x1x640x128xbf16>
    %7900 = "ttir.reshape"(%7775, %7899) <{shape = [1 : i32, 8 : i32, 1 : i32, 640 : i32, 128 : i32]}> : (tensor<1x8x640x128xbf16>, tensor<1x8x1x640x128xbf16>) -> tensor<1x8x1x640x128xbf16>
    %7901 = ttir.empty() : tensor<1x8x3x640x128xbf16>
    %7902 = "ttir.broadcast"(%7900, %7901) <{broadcast_dimensions = array<i64: 1, 1, 3, 1, 1>}> : (tensor<1x8x1x640x128xbf16>, tensor<1x8x3x640x128xbf16>) -> tensor<1x8x3x640x128xbf16>
    %7903 = ttir.empty() : tensor<24x640x128xbf16>
    %7904 = "ttir.reshape"(%7902, %7903) <{shape = [24 : i32, 640 : i32, 128 : i32]}> : (tensor<1x8x3x640x128xbf16>, tensor<24x640x128xbf16>) -> tensor<24x640x128xbf16>
    %7905 = "ttir.dot_general"(%7898, %7904) <{batch_dims_lhs = array<i64: 0>, batch_dims_rhs = array<i64: 0>, contract_dims_lhs = array<i64: 2>, contract_dims_rhs = array<i64: 1>}> : (tensor<24x640x640xbf16>, tensor<24x640x128xbf16>) -> tensor<24x640x128xbf16>
    %7906 = ttir.empty() : tensor<1x24x640x128xbf16>
    %7907 = "ttir.reshape"(%7905, %7906) <{shape = [1 : i32, 24 : i32, 640 : i32, 128 : i32]}> : (tensor<24x640x128xbf16>, tensor<1x24x640x128xbf16>) -> tensor<1x24x640x128xbf16>
    %7908 = ttir.empty() : tensor<1x640x24x128xbf16>
    %7909 = "ttir.permute"(%7907, %7908) <{permutation = array<i64: 0, 2, 1, 3>}> : (tensor<1x24x640x128xbf16>, tensor<1x640x24x128xbf16>) -> tensor<1x640x24x128xbf16>
    %7910 = ttir.empty() : tensor<640x3072xbf16>
    %7911 = "ttir.reshape"(%7909, %7910) <{shape = [640 : i32, 3072 : i32]}> : (tensor<1x640x24x128xbf16>, tensor<640x3072xbf16>) -> tensor<640x3072xbf16>
    %7912 = ttir.empty() : tensor<1x3072x3072xbf16>
    %7913 = "ttir.reshape"(%arg256, %7912) <{shape = [1 : i32, 3072 : i32, 3072 : i32]}> : (tensor<3072x3072xbf16>, tensor<1x3072x3072xbf16>) -> tensor<1x3072x3072xbf16>
    %7914 = ttir.empty() : tensor<3072x3072xbf16>
    %7915 = "ttir.reshape"(%7913, %7914) <{shape = [3072 : i32, 3072 : i32]}> : (tensor<1x3072x3072xbf16>, tensor<3072x3072xbf16>) -> tensor<3072x3072xbf16>
    %7916 = ttir.empty() : tensor<3072x3072xbf16>
    %7917 = "ttir.permute"(%7915, %7916) <{permutation = array<i64: 1, 0>}> : (tensor<3072x3072xbf16>, tensor<3072x3072xbf16>) -> tensor<3072x3072xbf16>
    %7918 = "ttir.dot_general"(%7911, %7917) <{batch_dims_lhs = array<i64>, batch_dims_rhs = array<i64>, contract_dims_lhs = array<i64: 1>, contract_dims_rhs = array<i64: 0>}> : (tensor<640x3072xbf16>, tensor<3072x3072xbf16>) -> tensor<640x3072xbf16>
    %7919 = ttir.empty() : tensor<1x640x3072xbf16>
    %7920 = "ttir.reshape"(%7918, %7919) <{shape = [1 : i32, 640 : i32, 3072 : i32]}> : (tensor<640x3072xbf16>, tensor<1x640x3072xbf16>) -> tensor<1x640x3072xbf16>
    %7921 = ttir.empty() : tensor<1x640x3072xbf16>
    %7922 = "ttir.add"(%7732, %7920, %7921) : (tensor<1x640x3072xbf16>, tensor<1x640x3072xbf16>, tensor<1x640x3072xbf16>) -> tensor<1x640x3072xbf16>
    %7923 = ttir.empty() : tensor<1x1x3072xbf16>
    %7924 = "ttir.reshape"(%arg258, %7923) <{shape = [1 : i32, 1 : i32, 3072 : i32]}> : (tensor<3072xbf16>, tensor<1x1x3072xbf16>) -> tensor<1x1x3072xbf16>
    %7925 = ttir.empty() : tensor<3072xbf16>
    %7926 = "ttir.reshape"(%7924, %7925) <{shape = [3072 : i32]}> : (tensor<1x1x3072xbf16>, tensor<3072xbf16>) -> tensor<3072xbf16>
    %7927 = ttir.empty() : tensor<3072xf32>
    %7928 = "ttir.typecast"(%7926, %7927) <{conservative_folding = false}> : (tensor<3072xbf16>, tensor<3072xf32>) -> tensor<3072xf32>
    %7929 = ttir.empty() : tensor<1x1x3072xf32>
    %7930 = "ttir.reshape"(%7928, %7929) <{shape = [1 : i32, 1 : i32, 3072 : i32]}> : (tensor<3072xf32>, tensor<1x1x3072xf32>) -> tensor<1x1x3072xf32>
    %7931 = ttir.empty() : tensor<1x640x3072xf32>
    %7932 = "ttir.broadcast"(%7930, %7931) <{broadcast_dimensions = array<i64: 1, 640, 1>}> : (tensor<1x1x3072xf32>, tensor<1x640x3072xf32>) -> tensor<1x640x3072xf32>
    %7933 = ttir.empty() : tensor<1x640x3072xf32>
    %7934 = "ttir.typecast"(%7922, %7933) <{conservative_folding = false}> : (tensor<1x640x3072xbf16>, tensor<1x640x3072xf32>) -> tensor<1x640x3072xf32>
    %7935 = ttir.empty() : tensor<1x640x3072xf32>
    %7936 = "ttir.pow"(%7934, %5, %7935) : (tensor<1x640x3072xf32>, tensor<1x640x3072xf32>, tensor<1x640x3072xf32>) -> tensor<1x640x3072xf32>
    %7937 = ttir.empty() : tensor<1x640xf32>
    %7938 = "ttir.sum"(%7936, %7937) <{dim_arg = [2 : i32], keep_dim = false}> : (tensor<1x640x3072xf32>, tensor<1x640xf32>) -> tensor<1x640xf32>
    %7939 = ttir.empty() : tensor<1x640xf32>
    %7940 = "ttir.multiply"(%7938, %4, %7939) : (tensor<1x640xf32>, tensor<1x640xf32>, tensor<1x640xf32>) -> tensor<1x640xf32>
    %7941 = ttir.empty() : tensor<1x640x1xf32>
    %7942 = "ttir.reshape"(%7940, %7941) <{shape = [1 : i32, 640 : i32, 1 : i32]}> : (tensor<1x640xf32>, tensor<1x640x1xf32>) -> tensor<1x640x1xf32>
    %7943 = ttir.empty() : tensor<1x640x1xf32>
    %7944 = "ttir.add"(%7942, %46, %7943) : (tensor<1x640x1xf32>, tensor<1x640x1xf32>, tensor<1x640x1xf32>) -> tensor<1x640x1xf32>
    %7945 = ttir.empty() : tensor<1x640x1xf32>
    %7946 = "ttir.rsqrt"(%7944, %7945) : (tensor<1x640x1xf32>, tensor<1x640x1xf32>) -> tensor<1x640x1xf32>
    %7947 = ttir.empty() : tensor<1x640xf32>
    %7948 = "ttir.reshape"(%7946, %7947) <{shape = [1 : i32, 640 : i32]}> : (tensor<1x640x1xf32>, tensor<1x640xf32>) -> tensor<1x640xf32>
    %7949 = ttir.empty() : tensor<1x640x1xf32>
    %7950 = "ttir.reshape"(%7948, %7949) <{shape = [1 : i32, 640 : i32, 1 : i32]}> : (tensor<1x640xf32>, tensor<1x640x1xf32>) -> tensor<1x640x1xf32>
    %7951 = ttir.empty() : tensor<1x640x3072xf32>
    %7952 = "ttir.broadcast"(%7950, %7951) <{broadcast_dimensions = array<i64: 1, 1, 3072>}> : (tensor<1x640x1xf32>, tensor<1x640x3072xf32>) -> tensor<1x640x3072xf32>
    %7953 = ttir.empty() : tensor<1x640x3072xf32>
    %7954 = "ttir.multiply"(%7934, %7952, %7953) : (tensor<1x640x3072xf32>, tensor<1x640x3072xf32>, tensor<1x640x3072xf32>) -> tensor<1x640x3072xf32>
    %7955 = ttir.empty() : tensor<1x640x3072xbf16>
    %7956 = "ttir.typecast"(%7954, %7955) <{conservative_folding = false}> : (tensor<1x640x3072xf32>, tensor<1x640x3072xbf16>) -> tensor<1x640x3072xbf16>
    %7957 = ttir.empty() : tensor<1x640x3072xf32>
    %7958 = "ttir.typecast"(%7956, %7957) <{conservative_folding = false}> : (tensor<1x640x3072xbf16>, tensor<1x640x3072xf32>) -> tensor<1x640x3072xf32>
    %7959 = ttir.empty() : tensor<1x640x3072xf32>
    %7960 = "ttir.multiply"(%7932, %7958, %7959) : (tensor<1x640x3072xf32>, tensor<1x640x3072xf32>, tensor<1x640x3072xf32>) -> tensor<1x640x3072xf32>
    %7961 = ttir.empty() : tensor<1x640x3072xbf16>
    %7962 = "ttir.typecast"(%7960, %7961) <{conservative_folding = false}> : (tensor<1x640x3072xf32>, tensor<1x640x3072xbf16>) -> tensor<1x640x3072xbf16>
    %7963 = ttir.empty() : tensor<640x3072xbf16>
    %7964 = "ttir.reshape"(%7962, %7963) <{shape = [640 : i32, 3072 : i32]}> : (tensor<1x640x3072xbf16>, tensor<640x3072xbf16>) -> tensor<640x3072xbf16>
    %7965 = ttir.empty() : tensor<1x8192x3072xbf16>
    %7966 = "ttir.reshape"(%arg259, %7965) <{shape = [1 : i32, 8192 : i32, 3072 : i32]}> : (tensor<8192x3072xbf16>, tensor<1x8192x3072xbf16>) -> tensor<1x8192x3072xbf16>
    %7967 = ttir.empty() : tensor<8192x3072xbf16>
    %7968 = "ttir.reshape"(%7966, %7967) <{shape = [8192 : i32, 3072 : i32]}> : (tensor<1x8192x3072xbf16>, tensor<8192x3072xbf16>) -> tensor<8192x3072xbf16>
    %7969 = ttir.empty() : tensor<3072x8192xbf16>
    %7970 = "ttir.permute"(%7968, %7969) <{permutation = array<i64: 1, 0>}> : (tensor<8192x3072xbf16>, tensor<3072x8192xbf16>) -> tensor<3072x8192xbf16>
    %7971 = "ttir.dot_general"(%7964, %7970) <{batch_dims_lhs = array<i64>, batch_dims_rhs = array<i64>, contract_dims_lhs = array<i64: 1>, contract_dims_rhs = array<i64: 0>}> : (tensor<640x3072xbf16>, tensor<3072x8192xbf16>) -> tensor<640x8192xbf16>
    %7972 = ttir.empty() : tensor<1x640x8192xbf16>
    %7973 = "ttir.reshape"(%7971, %7972) <{shape = [1 : i32, 640 : i32, 8192 : i32]}> : (tensor<640x8192xbf16>, tensor<1x640x8192xbf16>) -> tensor<1x640x8192xbf16>
    %7974 = ttir.empty() : tensor<1x640x8192xf32>
    %7975 = "ttir.typecast"(%7973, %7974) <{conservative_folding = false}> : (tensor<1x640x8192xbf16>, tensor<1x640x8192xf32>) -> tensor<1x640x8192xf32>
    %7976 = ttir.empty() : tensor<1x640x8192xbf16>
    %7977 = "ttir.sigmoid"(%7973, %7976) : (tensor<1x640x8192xbf16>, tensor<1x640x8192xbf16>) -> tensor<1x640x8192xbf16>
    %7978 = ttir.empty() : tensor<1x640x8192xf32>
    %7979 = "ttir.typecast"(%7977, %7978) <{conservative_folding = false}> : (tensor<1x640x8192xbf16>, tensor<1x640x8192xf32>) -> tensor<1x640x8192xf32>
    %7980 = ttir.empty() : tensor<1x640x8192xf32>
    %7981 = "ttir.multiply"(%7975, %7979, %7980) : (tensor<1x640x8192xf32>, tensor<1x640x8192xf32>, tensor<1x640x8192xf32>) -> tensor<1x640x8192xf32>
    %7982 = ttir.empty() : tensor<1x640x8192xbf16>
    %7983 = "ttir.typecast"(%7981, %7982) <{conservative_folding = false}> : (tensor<1x640x8192xf32>, tensor<1x640x8192xbf16>) -> tensor<1x640x8192xbf16>
    %7984 = ttir.empty() : tensor<1x640x8192xf32>
    %7985 = "ttir.typecast"(%7983, %7984) <{conservative_folding = false}> : (tensor<1x640x8192xbf16>, tensor<1x640x8192xf32>) -> tensor<1x640x8192xf32>
    %7986 = ttir.empty() : tensor<1x8192x3072xbf16>
    %7987 = "ttir.reshape"(%arg255, %7986) <{shape = [1 : i32, 8192 : i32, 3072 : i32]}> : (tensor<8192x3072xbf16>, tensor<1x8192x3072xbf16>) -> tensor<1x8192x3072xbf16>
    %7988 = ttir.empty() : tensor<8192x3072xbf16>
    %7989 = "ttir.reshape"(%7987, %7988) <{shape = [8192 : i32, 3072 : i32]}> : (tensor<1x8192x3072xbf16>, tensor<8192x3072xbf16>) -> tensor<8192x3072xbf16>
    %7990 = ttir.empty() : tensor<3072x8192xbf16>
    %7991 = "ttir.permute"(%7989, %7990) <{permutation = array<i64: 1, 0>}> : (tensor<8192x3072xbf16>, tensor<3072x8192xbf16>) -> tensor<3072x8192xbf16>
    %7992 = "ttir.dot_general"(%7964, %7991) <{batch_dims_lhs = array<i64>, batch_dims_rhs = array<i64>, contract_dims_lhs = array<i64: 1>, contract_dims_rhs = array<i64: 0>}> : (tensor<640x3072xbf16>, tensor<3072x8192xbf16>) -> tensor<640x8192xbf16>
    %7993 = ttir.empty() : tensor<1x640x8192xbf16>
    %7994 = "ttir.reshape"(%7992, %7993) <{shape = [1 : i32, 640 : i32, 8192 : i32]}> : (tensor<640x8192xbf16>, tensor<1x640x8192xbf16>) -> tensor<1x640x8192xbf16>
    %7995 = ttir.empty() : tensor<1x640x8192xf32>
    %7996 = "ttir.typecast"(%7994, %7995) <{conservative_folding = false}> : (tensor<1x640x8192xbf16>, tensor<1x640x8192xf32>) -> tensor<1x640x8192xf32>
    %7997 = ttir.empty() : tensor<1x640x8192xf32>
    %7998 = "ttir.multiply"(%7985, %7996, %7997) : (tensor<1x640x8192xf32>, tensor<1x640x8192xf32>, tensor<1x640x8192xf32>) -> tensor<1x640x8192xf32>
    %7999 = ttir.empty() : tensor<1x640x8192xbf16>
    %8000 = "ttir.typecast"(%7998, %7999) <{conservative_folding = false}> : (tensor<1x640x8192xf32>, tensor<1x640x8192xbf16>) -> tensor<1x640x8192xbf16>
    %8001 = ttir.empty() : tensor<640x8192xbf16>
    %8002 = "ttir.reshape"(%8000, %8001) <{shape = [640 : i32, 8192 : i32]}> : (tensor<1x640x8192xbf16>, tensor<640x8192xbf16>) -> tensor<640x8192xbf16>
    %8003 = ttir.empty() : tensor<1x3072x8192xbf16>
    %8004 = "ttir.reshape"(%arg254, %8003) <{shape = [1 : i32, 3072 : i32, 8192 : i32]}> : (tensor<3072x8192xbf16>, tensor<1x3072x8192xbf16>) -> tensor<1x3072x8192xbf16>
    %8005 = ttir.empty() : tensor<3072x8192xbf16>
    %8006 = "ttir.reshape"(%8004, %8005) <{shape = [3072 : i32, 8192 : i32]}> : (tensor<1x3072x8192xbf16>, tensor<3072x8192xbf16>) -> tensor<3072x8192xbf16>
    %8007 = ttir.empty() : tensor<8192x3072xbf16>
    %8008 = "ttir.permute"(%8006, %8007) <{permutation = array<i64: 1, 0>}> : (tensor<3072x8192xbf16>, tensor<8192x3072xbf16>) -> tensor<8192x3072xbf16>
    %8009 = "ttir.dot_general"(%8002, %8008) <{batch_dims_lhs = array<i64>, batch_dims_rhs = array<i64>, contract_dims_lhs = array<i64: 1>, contract_dims_rhs = array<i64: 0>}> : (tensor<640x8192xbf16>, tensor<8192x3072xbf16>) -> tensor<640x3072xbf16>
    %8010 = ttir.empty() : tensor<1x640x3072xbf16>
    %8011 = "ttir.reshape"(%8009, %8010) <{shape = [1 : i32, 640 : i32, 3072 : i32]}> : (tensor<640x3072xbf16>, tensor<1x640x3072xbf16>) -> tensor<1x640x3072xbf16>
    %8012 = ttir.empty() : tensor<1x640x3072xbf16>
    %8013 = "ttir.add"(%7922, %8011, %8012) : (tensor<1x640x3072xbf16>, tensor<1x640x3072xbf16>, tensor<1x640x3072xbf16>) -> tensor<1x640x3072xbf16>
    %8014 = ttir.empty() : tensor<1x640x3072xf32>
    %8015 = "ttir.typecast"(%8013, %8014) <{conservative_folding = false}> : (tensor<1x640x3072xbf16>, tensor<1x640x3072xf32>) -> tensor<1x640x3072xf32>
    %8016 = ttir.empty() : tensor<1x640x3072xf32>
    %8017 = "ttir.pow"(%8015, %5, %8016) : (tensor<1x640x3072xf32>, tensor<1x640x3072xf32>, tensor<1x640x3072xf32>) -> tensor<1x640x3072xf32>
    %8018 = ttir.empty() : tensor<1x640xf32>
    %8019 = "ttir.sum"(%8017, %8018) <{dim_arg = [2 : i32], keep_dim = false}> : (tensor<1x640x3072xf32>, tensor<1x640xf32>) -> tensor<1x640xf32>
    %8020 = ttir.empty() : tensor<1x640xf32>
    %8021 = "ttir.multiply"(%8019, %4, %8020) : (tensor<1x640xf32>, tensor<1x640xf32>, tensor<1x640xf32>) -> tensor<1x640xf32>
    %8022 = ttir.empty() : tensor<1x640x1xf32>
    %8023 = "ttir.reshape"(%8021, %8022) <{shape = [1 : i32, 640 : i32, 1 : i32]}> : (tensor<1x640xf32>, tensor<1x640x1xf32>) -> tensor<1x640x1xf32>
    %8024 = ttir.empty() : tensor<1x640x1xf32>
    %8025 = "ttir.add"(%8023, %46, %8024) : (tensor<1x640x1xf32>, tensor<1x640x1xf32>, tensor<1x640x1xf32>) -> tensor<1x640x1xf32>
    %8026 = ttir.empty() : tensor<1x640x1xf32>
    %8027 = "ttir.rsqrt"(%8025, %8026) : (tensor<1x640x1xf32>, tensor<1x640x1xf32>) -> tensor<1x640x1xf32>
    %8028 = ttir.empty() : tensor<1x640xf32>
    %8029 = "ttir.reshape"(%8027, %8028) <{shape = [1 : i32, 640 : i32]}> : (tensor<1x640x1xf32>, tensor<1x640xf32>) -> tensor<1x640xf32>
    %8030 = ttir.empty() : tensor<1x640x1xf32>
    %8031 = "ttir.reshape"(%8029, %8030) <{shape = [1 : i32, 640 : i32, 1 : i32]}> : (tensor<1x640xf32>, tensor<1x640x1xf32>) -> tensor<1x640x1xf32>
    %8032 = ttir.empty() : tensor<1x640x3072xf32>
    %8033 = "ttir.broadcast"(%8031, %8032) <{broadcast_dimensions = array<i64: 1, 1, 3072>}> : (tensor<1x640x1xf32>, tensor<1x640x3072xf32>) -> tensor<1x640x3072xf32>
    %8034 = ttir.empty() : tensor<1x640x3072xf32>
    %8035 = "ttir.multiply"(%8015, %8033, %8034) : (tensor<1x640x3072xf32>, tensor<1x640x3072xf32>, tensor<1x640x3072xf32>) -> tensor<1x640x3072xf32>
    %8036 = ttir.empty() : tensor<1x640x3072xbf16>
    %8037 = "ttir.typecast"(%8035, %8036) <{conservative_folding = false}> : (tensor<1x640x3072xf32>, tensor<1x640x3072xbf16>) -> tensor<1x640x3072xbf16>
    %8038 = ttir.empty() : tensor<1x640x3072xf32>
    %8039 = "ttir.typecast"(%8037, %8038) <{conservative_folding = false}> : (tensor<1x640x3072xbf16>, tensor<1x640x3072xf32>) -> tensor<1x640x3072xf32>
    %8040 = ttir.empty() : tensor<1x640x3072xf32>
    %8041 = "ttir.multiply"(%7818, %8039, %8040) : (tensor<1x640x3072xf32>, tensor<1x640x3072xf32>, tensor<1x640x3072xf32>) -> tensor<1x640x3072xf32>
    %8042 = ttir.empty() : tensor<1x640x3072xbf16>
    %8043 = "ttir.typecast"(%8041, %8042) <{conservative_folding = false}> : (tensor<1x640x3072xf32>, tensor<1x640x3072xbf16>) -> tensor<1x640x3072xbf16>
    %8044 = ttir.empty() : tensor<640x3072xbf16>
    %8045 = "ttir.reshape"(%8043, %8044) <{shape = [640 : i32, 3072 : i32]}> : (tensor<1x640x3072xbf16>, tensor<640x3072xbf16>) -> tensor<640x3072xbf16>
    %8046 = ttir.empty() : tensor<1x128256x3072xbf16>
    %8047 = "ttir.reshape"(%arg253, %8046) <{shape = [1 : i32, 128256 : i32, 3072 : i32]}> : (tensor<128256x3072xbf16>, tensor<1x128256x3072xbf16>) -> tensor<1x128256x3072xbf16>
    %8048 = ttir.empty() : tensor<128256x3072xbf16>
    %8049 = "ttir.reshape"(%8047, %8048) <{shape = [128256 : i32, 3072 : i32]}> : (tensor<1x128256x3072xbf16>, tensor<128256x3072xbf16>) -> tensor<128256x3072xbf16>
    %8050 = ttir.empty() : tensor<3072x128256xbf16>
    %8051 = "ttir.permute"(%8049, %8050) <{permutation = array<i64: 1, 0>}> : (tensor<128256x3072xbf16>, tensor<3072x128256xbf16>) -> tensor<3072x128256xbf16>
    %8052 = "ttir.dot_general"(%8045, %8051) <{batch_dims_lhs = array<i64>, batch_dims_rhs = array<i64>, contract_dims_lhs = array<i64: 1>, contract_dims_rhs = array<i64: 0>}> : (tensor<640x3072xbf16>, tensor<3072x128256xbf16>) -> tensor<640x128256xbf16>
    %8053 = ttir.empty() : tensor<1x640x128256xbf16>
    %8054 = "ttir.reshape"(%8052, %8053) <{shape = [1 : i32, 640 : i32, 128256 : i32]}> : (tensor<640x128256xbf16>, tensor<1x640x128256xbf16>) -> tensor<1x640x128256xbf16>
    return %79, %469, %750, %1031, %1312, %1593, %1874, %2155, %2436, %2717, %2998, %3279, %3560, %3841, %4122, %4403, %4684, %4965, %5246, %5527, %5808, %6089, %6370, %6651, %6932, %7213, %7494, %7775, %202, %547, %828, %1109, %1390, %1671, %1952, %2233, %2514, %2795, %3076, %3357, %3638, %3919, %4200, %4481, %4762, %5043, %5324, %5605, %5886, %6167, %6448, %6729, %7010, %7291, %7572, %7808, %8054 : tensor<1x8x640x128xbf16>, tensor<1x8x640x128xbf16>, tensor<1x8x640x128xbf16>, tensor<1x8x640x128xbf16>, tensor<1x8x640x128xbf16>, tensor<1x8x640x128xbf16>, tensor<1x8x640x128xbf16>, tensor<1x8x640x128xbf16>, tensor<1x8x640x128xbf16>, tensor<1x8x640x128xbf16>, tensor<1x8x640x128xbf16>, tensor<1x8x640x128xbf16>, tensor<1x8x640x128xbf16>, tensor<1x8x640x128xbf16>, tensor<1x8x640x128xbf16>, tensor<1x8x640x128xbf16>, tensor<1x8x640x128xbf16>, tensor<1x8x640x128xbf16>, tensor<1x8x640x128xbf16>, tensor<1x8x640x128xbf16>, tensor<1x8x640x128xbf16>, tensor<1x8x640x128xbf16>, tensor<1x8x640x128xbf16>, tensor<1x8x640x128xbf16>, tensor<1x8x640x128xbf16>, tensor<1x8x640x128xbf16>, tensor<1x8x640x128xbf16>, tensor<1x8x640x128xbf16>, tensor<1x8x640x128xbf16>, tensor<1x8x640x128xbf16>, tensor<1x8x640x128xbf16>, tensor<1x8x640x128xbf16>, tensor<1x8x640x128xbf16>, tensor<1x8x640x128xbf16>, tensor<1x8x640x128xbf16>, tensor<1x8x640x128xbf16>, tensor<1x8x640x128xbf16>, tensor<1x8x640x128xbf16>, tensor<1x8x640x128xbf16>, tensor<1x8x640x128xbf16>, tensor<1x8x640x128xbf16>, tensor<1x8x640x128xbf16>, tensor<1x8x640x128xbf16>, tensor<1x8x640x128xbf16>, tensor<1x8x640x128xbf16>, tensor<1x8x640x128xbf16>, tensor<1x8x640x128xbf16>, tensor<1x8x640x128xbf16>, tensor<1x8x640x128xbf16>, tensor<1x8x640x128xbf16>, tensor<1x8x640x128xbf16>, tensor<1x8x640x128xbf16>, tensor<1x8x640x128xbf16>, tensor<1x8x640x128xbf16>, tensor<1x8x640x128xbf16>, tensor<1x8x640x128xbf16>, tensor<1x640x128256xbf16>
  }
}
