#loc1 = loc("p0.2")
#loc2 = loc("p1.7")
#loc3 = loc("p2.17")
#loc4 = loc("p3.22")
#loc5 = loc("p4.32")
#loc6 = loc("p5.37")
#loc7 = loc("p6.46")
#loc8 = loc("p7.52")
#loc9 = loc("p8.60")
#loc10 = loc("p9.65")
#loc11 = loc("p10.72")
#loc12 = loc("p11.77")
#loc13 = loc("p12.173")
#loc14 = loc("p13.177")
#loc15 = loc("p14.183")
#loc16 = loc("p15.187")
#loc17 = loc("p16.204")
#loc18 = loc("p17.214")
#loc19 = loc("p18.234")
#loc20 = loc("p19.238")
#loc21 = loc("p20.258")
#loc22 = loc("p21.262")
#loc23 = loc("p22.435")
#loc24 = loc("p23.439")
#loc25 = loc("p24.445")
#loc26 = loc("p25.449")
#loc27 = loc("p26.566")
#loc28 = loc("p27.574")
module @SyncTensorsGraph.593 attributes {mhlo.cross_program_prefetches = [], mhlo.input_output_alias = [], mhlo.is_dynamic = false, mhlo.use_auto_spmd_partitioning = false, ttcore.meshes = #ttcore.meshes<[<"mesh" = 1x1>]>} {
  ttcore.device_module {
    builtin.module @SyncTensorsGraph.593 attributes {mhlo.cross_program_prefetches = [], mhlo.input_output_alias = [], mhlo.is_dynamic = false, mhlo.use_auto_spmd_partitioning = false, ttcore.meshes = #ttcore.meshes<[<"mesh" = 1x1>]>} {
      func.func @main(%arg0: tensor<768xbf16> {ttcore.argument_type = #ttcore.argument_type<parameter>, ttcore.local_shape = #ttcore<local_shape local_shape = tensor<768xbf16>>, ttcore.shard_status = #ttcore.shard_status<unsharded>, ttir.name = "encoder.layer.0.output.LayerNorm.bias"} loc("p0.2"), %arg1: tensor<768xbf16> {ttcore.argument_type = #ttcore.argument_type<parameter>, ttcore.local_shape = #ttcore<local_shape local_shape = tensor<768xbf16>>, ttcore.shard_status = #ttcore.shard_status<unsharded>, ttir.name = "encoder.layer.0.output.LayerNorm.weight"} loc("p1.7"), %arg2: tensor<768xbf16> {ttcore.argument_type = #ttcore.argument_type<parameter>, ttcore.local_shape = #ttcore<local_shape local_shape = tensor<768xbf16>>, ttcore.shard_status = #ttcore.shard_status<unsharded>, ttir.name = "encoder.layer.0.attention.output.LayerNorm.bias"} loc("p2.17"), %arg3: tensor<768xbf16> {ttcore.argument_type = #ttcore.argument_type<parameter>, ttcore.local_shape = #ttcore<local_shape local_shape = tensor<768xbf16>>, ttcore.shard_status = #ttcore.shard_status<unsharded>, ttir.name = "encoder.layer.0.attention.output.LayerNorm.weight"} loc("p3.22"), %arg4: tensor<768xbf16> {ttcore.argument_type = #ttcore.argument_type<parameter>, ttcore.local_shape = #ttcore<local_shape local_shape = tensor<768xbf16>>, ttcore.shard_status = #ttcore.shard_status<unsharded>, ttir.name = "embeddings.LayerNorm.bias"} loc("p4.32"), %arg5: tensor<768xbf16> {ttcore.argument_type = #ttcore.argument_type<parameter>, ttcore.local_shape = #ttcore<local_shape local_shape = tensor<768xbf16>>, ttcore.shard_status = #ttcore.shard_status<unsharded>, ttir.name = "embeddings.LayerNorm.weight"} loc("p5.37"), %arg6: tensor<1x512xi64> {ttcore.argument_type = #ttcore.argument_type<constant>, ttcore.local_shape = #ttcore<local_shape local_shape = tensor<1x512xi64>>, ttcore.shard_status = #ttcore.shard_status<unsharded>, ttir.name = "embeddings.position_ids"} loc("p6.46"), %arg7: tensor<512x768xbf16> {ttcore.argument_type = #ttcore.argument_type<parameter>, ttcore.local_shape = #ttcore<local_shape local_shape = tensor<512x768xbf16>>, ttcore.shard_status = #ttcore.shard_status<unsharded>, ttir.name = "embeddings.position_embeddings.weight"} loc("p7.52"), %arg8: tensor<8x384xi64> {ttcore.argument_type = #ttcore.argument_type<input>, ttcore.local_shape = #ttcore<local_shape local_shape = tensor<8x384xi64>>, ttcore.shard_status = #ttcore.shard_status<unsharded>, ttir.name = "args_1"} loc("p8.60"), %arg9: tensor<2x768xbf16> {ttcore.argument_type = #ttcore.argument_type<parameter>, ttcore.local_shape = #ttcore<local_shape local_shape = tensor<2x768xbf16>>, ttcore.shard_status = #ttcore.shard_status<unsharded>, ttir.name = "embeddings.token_type_embeddings.weight"} loc("p9.65"), %arg10: tensor<8x384xi64> {ttcore.argument_type = #ttcore.argument_type<input>, ttcore.local_shape = #ttcore<local_shape local_shape = tensor<8x384xi64>>, ttcore.shard_status = #ttcore.shard_status<unsharded>, ttir.name = "args_0"} loc("p10.72"), %arg11: tensor<32000x768xbf16> {ttcore.argument_type = #ttcore.argument_type<parameter>, ttcore.local_shape = #ttcore<local_shape local_shape = tensor<32000x768xbf16>>, ttcore.shard_status = #ttcore.shard_status<unsharded>, ttir.name = "embeddings.word_embeddings.weight"} loc("p11.77"), %arg12: tensor<768xbf16> {ttcore.argument_type = #ttcore.argument_type<parameter>, ttcore.local_shape = #ttcore<local_shape local_shape = tensor<768xbf16>>, ttcore.shard_status = #ttcore.shard_status<unsharded>, ttir.name = "encoder.layer.0.attention.output.dense.bias"} loc("p12.173"), %arg13: tensor<768x768xbf16> {ttcore.argument_type = #ttcore.argument_type<parameter>, ttcore.local_shape = #ttcore<local_shape local_shape = tensor<768x768xbf16>>, ttcore.shard_status = #ttcore.shard_status<unsharded>, ttir.name = "encoder.layer.0.attention.output.dense.weight"} loc("p13.177"), %arg14: tensor<768xbf16> {ttcore.argument_type = #ttcore.argument_type<parameter>, ttcore.local_shape = #ttcore<local_shape local_shape = tensor<768xbf16>>, ttcore.shard_status = #ttcore.shard_status<unsharded>, ttir.name = "encoder.layer.0.attention.self.value.bias"} loc("p14.183"), %arg15: tensor<768x768xbf16> {ttcore.argument_type = #ttcore.argument_type<parameter>, ttcore.local_shape = #ttcore<local_shape local_shape = tensor<768x768xbf16>>, ttcore.shard_status = #ttcore.shard_status<unsharded>, ttir.name = "encoder.layer.0.attention.self.value.weight"} loc("p15.187"), %arg16: tensor<8x384xi64> {ttcore.argument_type = #ttcore.argument_type<input>, ttcore.local_shape = #ttcore<local_shape local_shape = tensor<8x384xi64>>, ttcore.shard_status = #ttcore.shard_status<unsharded>, ttir.name = "args_2"} loc("p16.204"), %arg17: tensor<bf16> {ttcore.argument_type = #ttcore.argument_type<constant>, ttcore.local_shape = #ttcore<local_shape local_shape = tensor<bf16>>, ttcore.shard_status = #ttcore.shard_status<unsharded>, ttir.name = "lifted_tensor_0"} loc("p17.214"), %arg18: tensor<768xbf16> {ttcore.argument_type = #ttcore.argument_type<parameter>, ttcore.local_shape = #ttcore<local_shape local_shape = tensor<768xbf16>>, ttcore.shard_status = #ttcore.shard_status<unsharded>, ttir.name = "encoder.layer.0.attention.self.key.bias"} loc("p18.234"), %arg19: tensor<768x768xbf16> {ttcore.argument_type = #ttcore.argument_type<parameter>, ttcore.local_shape = #ttcore<local_shape local_shape = tensor<768x768xbf16>>, ttcore.shard_status = #ttcore.shard_status<unsharded>, ttir.name = "encoder.layer.0.attention.self.key.weight"} loc("p19.238"), %arg20: tensor<768xbf16> {ttcore.argument_type = #ttcore.argument_type<parameter>, ttcore.local_shape = #ttcore<local_shape local_shape = tensor<768xbf16>>, ttcore.shard_status = #ttcore.shard_status<unsharded>, ttir.name = "encoder.layer.0.attention.self.query.bias"} loc("p20.258"), %arg21: tensor<768x768xbf16> {ttcore.argument_type = #ttcore.argument_type<parameter>, ttcore.local_shape = #ttcore<local_shape local_shape = tensor<768x768xbf16>>, ttcore.shard_status = #ttcore.shard_status<unsharded>, ttir.name = "encoder.layer.0.attention.self.query.weight"} loc("p21.262"), %arg22: tensor<768xbf16> {ttcore.argument_type = #ttcore.argument_type<parameter>, ttcore.local_shape = #ttcore<local_shape local_shape = tensor<768xbf16>>, ttcore.shard_status = #ttcore.shard_status<unsharded>, ttir.name = "encoder.layer.0.output.dense.bias"} loc("p22.435"), %arg23: tensor<768x3072xbf16> {ttcore.argument_type = #ttcore.argument_type<parameter>, ttcore.local_shape = #ttcore<local_shape local_shape = tensor<768x3072xbf16>>, ttcore.shard_status = #ttcore.shard_status<unsharded>, ttir.name = "encoder.layer.0.output.dense.weight"} loc("p23.439"), %arg24: tensor<3072xbf16> {ttcore.argument_type = #ttcore.argument_type<parameter>, ttcore.local_shape = #ttcore<local_shape local_shape = tensor<3072xbf16>>, ttcore.shard_status = #ttcore.shard_status<unsharded>, ttir.name = "encoder.layer.0.intermediate.dense.bias"} loc("p24.445"), %arg25: tensor<3072x768xbf16> {ttcore.argument_type = #ttcore.argument_type<parameter>, ttcore.local_shape = #ttcore<local_shape local_shape = tensor<3072x768xbf16>>, ttcore.shard_status = #ttcore.shard_status<unsharded>, ttir.name = "encoder.layer.0.intermediate.dense.weight"} loc("p25.449"), %arg26: tensor<768xbf16> {ttcore.argument_type = #ttcore.argument_type<parameter>, ttcore.local_shape = #ttcore<local_shape local_shape = tensor<768xbf16>>, ttcore.shard_status = #ttcore.shard_status<unsharded>, ttir.name = "pooler.dense.bias"} loc("p26.566"), %arg27: tensor<768x768xbf16> {ttcore.argument_type = #ttcore.argument_type<parameter>, ttcore.local_shape = #ttcore<local_shape local_shape = tensor<768x768xbf16>>, ttcore.shard_status = #ttcore.shard_status<unsharded>, ttir.name = "pooler.dense.weight"} loc("p27.574")) -> (tensor<8x384x768xbf16> {ttcore.local_shape = #ttcore<local_shape local_shape = tensor<8x384x768xbf16>>, ttcore.shard_status = #ttcore.shard_status<presharded>}, tensor<8x768xbf16> {ttcore.local_shape = #ttcore<local_shape local_shape = tensor<8x768xbf16>>, ttcore.shard_status = #ttcore.shard_status<presharded>}) {
        %0 = "ttir.constant"() <{value = dense<0.000000e+00> : tensor<8x12x384x384xf32>}> : () -> tensor<8x12x384x384xf32> loc(#loc)
        %1 = "ttir.constant"() <{value = dense<0xFFF0000000000000> : tensor<8x12x384x384xf64>}> : () -> tensor<8x12x384x384xf64> loc(#loc)
        %2 = "ttir.constant"() <{value = dense<-3.389530e+38> : tensor<8x1x384x384xbf16>}> : () -> tensor<8x1x384x384xbf16> loc(#loc)
        %3 = "ttir.constant"() <{value = dense<0.353553385> : tensor<8x12x64x384xf32>}> : () -> tensor<8x12x64x384xf32> loc(#loc)
        %4 = "ttir.constant"() <{value = dense<0.353553385> : tensor<8x12x384x64xf32>}> : () -> tensor<8x12x384x64xf32> loc(#loc)
        %5 = "ttir.constant"() <{value = dense<0.000000e+00> : tensor<8x1x384x384xbf16>}> : () -> tensor<8x1x384x384xbf16> loc(#loc)
        %6 = "ttir.reshape"(%arg11) <{shape = [1 : i32, 32000 : i32, 768 : i32]}> : (tensor<32000x768xbf16>) -> tensor<1x32000x768xbf16> loc(#loc29)
        %7 = "ttir.reshape"(%6) <{shape = [32000 : i32, 768 : i32]}> : (tensor<1x32000x768xbf16>) -> tensor<32000x768xbf16> loc(#loc30)
        %8 = "ttir.reshape"(%arg10) <{shape = [1 : i32, 8 : i32, 384 : i32]}> : (tensor<8x384xi64>) -> tensor<1x8x384xi64> loc(#loc31)
        %9 = "ttir.reshape"(%8) <{shape = [3072 : i32]}> : (tensor<1x8x384xi64>) -> tensor<3072xi64> loc(#loc32)
        %10 = "ttir.typecast"(%9) <{conservative_folding = false}> : (tensor<3072xi64>) -> tensor<3072xui32> loc(#loc33)
        %11 = "ttir.permute"(%7) <{permutation = array<i64: 0, 1>}> : (tensor<32000x768xbf16>) -> tensor<32000x768xbf16> loc(#loc191)
        %12 = "ttir.reshape"(%11) <{shape = [32000 : i32, 768 : i32]}> : (tensor<32000x768xbf16>) -> tensor<32000x768xbf16> loc(#loc192)
        %13 = "ttir.reshape"(%10) <{shape = [1 : i32, 3072 : i32]}> : (tensor<3072xui32>) -> tensor<1x3072xui32> loc(#loc193)
        %14 = "ttir.embedding"(%13, %12) : (tensor<1x3072xui32>, tensor<32000x768xbf16>) -> tensor<1x3072x768xbf16> loc(#loc34)
        %15 = "ttir.reshape"(%14) <{shape = [3072 : i32, 768 : i32]}> : (tensor<1x3072x768xbf16>) -> tensor<3072x768xbf16> loc(#loc194)
        %16 = "ttir.permute"(%15) <{permutation = array<i64: 0, 1>}> : (tensor<3072x768xbf16>) -> tensor<3072x768xbf16> loc(#loc195)
        %17 = "ttir.reshape"(%16) <{shape = [8 : i32, 384 : i32, 768 : i32]}> : (tensor<3072x768xbf16>) -> tensor<8x384x768xbf16> loc(#loc35)
        %18 = "ttir.reshape"(%arg9) <{shape = [1 : i32, 2 : i32, 768 : i32]}> : (tensor<2x768xbf16>) -> tensor<1x2x768xbf16> loc(#loc36)
        %19 = "ttir.reshape"(%18) <{shape = [2 : i32, 768 : i32]}> : (tensor<1x2x768xbf16>) -> tensor<2x768xbf16> loc(#loc37)
        %20 = "ttir.reshape"(%arg8) <{shape = [1 : i32, 8 : i32, 384 : i32]}> : (tensor<8x384xi64>) -> tensor<1x8x384xi64> loc(#loc38)
        %21 = "ttir.reshape"(%20) <{shape = [3072 : i32]}> : (tensor<1x8x384xi64>) -> tensor<3072xi64> loc(#loc39)
        %22 = "ttir.typecast"(%21) <{conservative_folding = false}> : (tensor<3072xi64>) -> tensor<3072xui32> loc(#loc40)
        %23 = "ttir.permute"(%19) <{permutation = array<i64: 0, 1>}> : (tensor<2x768xbf16>) -> tensor<2x768xbf16> loc(#loc196)
        %24 = "ttir.reshape"(%23) <{shape = [2 : i32, 768 : i32]}> : (tensor<2x768xbf16>) -> tensor<2x768xbf16> loc(#loc197)
        %25 = "ttir.reshape"(%22) <{shape = [1 : i32, 3072 : i32]}> : (tensor<3072xui32>) -> tensor<1x3072xui32> loc(#loc198)
        %26 = "ttir.embedding"(%25, %24) : (tensor<1x3072xui32>, tensor<2x768xbf16>) -> tensor<1x3072x768xbf16> loc(#loc41)
        %27 = "ttir.reshape"(%26) <{shape = [3072 : i32, 768 : i32]}> : (tensor<1x3072x768xbf16>) -> tensor<3072x768xbf16> loc(#loc199)
        %28 = "ttir.permute"(%27) <{permutation = array<i64: 0, 1>}> : (tensor<3072x768xbf16>) -> tensor<3072x768xbf16> loc(#loc200)
        %29 = "ttir.reshape"(%28) <{shape = [8 : i32, 384 : i32, 768 : i32]}> : (tensor<3072x768xbf16>) -> tensor<8x384x768xbf16> loc(#loc42)
        %30 = "ttir.add"(%17, %29) : (tensor<8x384x768xbf16>, tensor<8x384x768xbf16>) -> tensor<8x384x768xbf16> loc(#loc43)
        %31 = "ttir.reshape"(%arg7) <{shape = [1 : i32, 512 : i32, 768 : i32]}> : (tensor<512x768xbf16>) -> tensor<1x512x768xbf16> loc(#loc44)
        %32 = "ttir.reshape"(%31) <{shape = [512 : i32, 768 : i32]}> : (tensor<1x512x768xbf16>) -> tensor<512x768xbf16> loc(#loc45)
        %33 = "ttir.reshape"(%arg6) <{shape = [1 : i32, 1 : i32, 512 : i32]}> : (tensor<1x512xi64>) -> tensor<1x1x512xi64> loc(#loc46)
        %34 = "ttir.reshape"(%33) <{shape = [1 : i32, 512 : i32]}> : (tensor<1x1x512xi64>) -> tensor<1x512xi64> loc(#loc47)
        %35 = "ttir.slice_static"(%34) <{begins = [0 : i32, 0 : i32], ends = [1 : i32, 384 : i32], step = [1 : i32, 1 : i32]}> : (tensor<1x512xi64>) -> tensor<1x384xi64> loc(#loc48)
        %36 = "ttir.reshape"(%35) <{shape = [384 : i32]}> : (tensor<1x384xi64>) -> tensor<384xi64> loc(#loc49)
        %37 = "ttir.typecast"(%36) <{conservative_folding = false}> : (tensor<384xi64>) -> tensor<384xui32> loc(#loc50)
        %38 = "ttir.permute"(%32) <{permutation = array<i64: 0, 1>}> : (tensor<512x768xbf16>) -> tensor<512x768xbf16> loc(#loc201)
        %39 = "ttir.reshape"(%38) <{shape = [512 : i32, 768 : i32]}> : (tensor<512x768xbf16>) -> tensor<512x768xbf16> loc(#loc202)
        %40 = "ttir.reshape"(%37) <{shape = [1 : i32, 384 : i32]}> : (tensor<384xui32>) -> tensor<1x384xui32> loc(#loc203)
        %41 = "ttir.embedding"(%40, %39) : (tensor<1x384xui32>, tensor<512x768xbf16>) -> tensor<1x384x768xbf16> loc(#loc51)
        %42 = "ttir.reshape"(%41) <{shape = [384 : i32, 768 : i32]}> : (tensor<1x384x768xbf16>) -> tensor<384x768xbf16> loc(#loc204)
        %43 = "ttir.permute"(%42) <{permutation = array<i64: 0, 1>}> : (tensor<384x768xbf16>) -> tensor<384x768xbf16> loc(#loc205)
        %44 = "ttir.reshape"(%43) <{shape = [1 : i32, 384 : i32, 768 : i32]}> : (tensor<384x768xbf16>) -> tensor<1x384x768xbf16> loc(#loc52)
        %45 = "ttir.broadcast"(%44) <{broadcast_dimensions = array<i64: 8, 1, 1>}> : (tensor<1x384x768xbf16>) -> tensor<8x384x768xbf16> loc(#loc52)
        %46 = "ttir.add"(%30, %45) : (tensor<8x384x768xbf16>, tensor<8x384x768xbf16>) -> tensor<8x384x768xbf16> loc(#loc53)
        %47 = "ttir.reshape"(%arg5) <{shape = [1 : i32, 1 : i32, 768 : i32]}> : (tensor<768xbf16>) -> tensor<1x1x768xbf16> loc(#loc54)
        %48 = "ttir.reshape"(%47) <{shape = [768 : i32]}> : (tensor<1x1x768xbf16>) -> tensor<768xbf16> loc(#loc55)
        %49 = "ttir.reshape"(%arg4) <{shape = [1 : i32, 1 : i32, 768 : i32]}> : (tensor<768xbf16>) -> tensor<1x1x768xbf16> loc(#loc56)
        %50 = "ttir.reshape"(%49) <{shape = [768 : i32]}> : (tensor<1x1x768xbf16>) -> tensor<768xbf16> loc(#loc57)
        %51 = "ttir.layer_norm"(%46, %48, %50) <{epsilon = 9.99999996E-13 : f32, normalized_shape = array<i64: 768>, operandSegmentSizes = array<i32: 1, 1, 1>}> : (tensor<8x384x768xbf16>, tensor<768xbf16>, tensor<768xbf16>) -> tensor<8x384x768xbf16> loc(#loc58)
        %52 = "ttir.reshape"(%51) <{shape = [3072 : i32, 768 : i32]}> : (tensor<8x384x768xbf16>) -> tensor<3072x768xbf16> loc(#loc59)
        %53 = "ttir.reshape"(%arg21) <{shape = [1 : i32, 768 : i32, 768 : i32]}> : (tensor<768x768xbf16>) -> tensor<1x768x768xbf16> loc(#loc60)
        %54 = "ttir.reshape"(%53) <{shape = [768 : i32, 768 : i32]}> : (tensor<1x768x768xbf16>) -> tensor<768x768xbf16> loc(#loc61)
        %55 = "ttir.permute"(%54) <{permutation = array<i64: 1, 0>}> : (tensor<768x768xbf16>) -> tensor<768x768xbf16> loc(#loc62)
        %56 = "ttir.dot_general"(%52, %55) <{batch_dims_lhs = array<i64>, batch_dims_rhs = array<i64>, contract_dims_lhs = array<i64: 1>, contract_dims_rhs = array<i64: 0>}> : (tensor<3072x768xbf16>, tensor<768x768xbf16>) -> tensor<3072x768xbf16> loc(#loc63)
        %57 = "ttir.reshape"(%56) <{shape = [8 : i32, 384 : i32, 768 : i32]}> : (tensor<3072x768xbf16>) -> tensor<8x384x768xbf16> loc(#loc64)
        %58 = "ttir.reshape"(%arg20) <{shape = [1 : i32, 1 : i32, 768 : i32]}> : (tensor<768xbf16>) -> tensor<1x1x768xbf16> loc(#loc65)
        %59 = "ttir.reshape"(%58) <{shape = [768 : i32]}> : (tensor<1x1x768xbf16>) -> tensor<768xbf16> loc(#loc66)
        %60 = "ttir.reshape"(%59) <{shape = [1 : i32, 1 : i32, 768 : i32]}> : (tensor<768xbf16>) -> tensor<1x1x768xbf16> loc(#loc67)
        %61 = "ttir.broadcast"(%60) <{broadcast_dimensions = array<i64: 8, 384, 1>}> : (tensor<1x1x768xbf16>) -> tensor<8x384x768xbf16> loc(#loc67)
        %62 = "ttir.add"(%57, %61) : (tensor<8x384x768xbf16>, tensor<8x384x768xbf16>) -> tensor<8x384x768xbf16> loc(#loc68)
        %63 = "ttir.reshape"(%62) <{shape = [8 : i32, 384 : i32, 12 : i32, 64 : i32]}> : (tensor<8x384x768xbf16>) -> tensor<8x384x12x64xbf16> loc(#loc69)
        %64 = "ttir.permute"(%63) <{permutation = array<i64: 0, 2, 1, 3>}> : (tensor<8x384x12x64xbf16>) -> tensor<8x12x384x64xbf16> loc(#loc70)
        %65 = "ttir.typecast"(%64) <{conservative_folding = false}> : (tensor<8x12x384x64xbf16>) -> tensor<8x12x384x64xf32> loc(#loc71)
        %66 = "ttir.multiply"(%65, %4) : (tensor<8x12x384x64xf32>, tensor<8x12x384x64xf32>) -> tensor<8x12x384x64xf32> loc(#loc72)
        %67 = "ttir.reshape"(%arg19) <{shape = [1 : i32, 768 : i32, 768 : i32]}> : (tensor<768x768xbf16>) -> tensor<1x768x768xbf16> loc(#loc73)
        %68 = "ttir.reshape"(%67) <{shape = [768 : i32, 768 : i32]}> : (tensor<1x768x768xbf16>) -> tensor<768x768xbf16> loc(#loc74)
        %69 = "ttir.permute"(%68) <{permutation = array<i64: 1, 0>}> : (tensor<768x768xbf16>) -> tensor<768x768xbf16> loc(#loc75)
        %70 = "ttir.dot_general"(%52, %69) <{batch_dims_lhs = array<i64>, batch_dims_rhs = array<i64>, contract_dims_lhs = array<i64: 1>, contract_dims_rhs = array<i64: 0>}> : (tensor<3072x768xbf16>, tensor<768x768xbf16>) -> tensor<3072x768xbf16> loc(#loc76)
        %71 = "ttir.reshape"(%70) <{shape = [8 : i32, 384 : i32, 768 : i32]}> : (tensor<3072x768xbf16>) -> tensor<8x384x768xbf16> loc(#loc77)
        %72 = "ttir.reshape"(%arg18) <{shape = [1 : i32, 1 : i32, 768 : i32]}> : (tensor<768xbf16>) -> tensor<1x1x768xbf16> loc(#loc78)
        %73 = "ttir.reshape"(%72) <{shape = [768 : i32]}> : (tensor<1x1x768xbf16>) -> tensor<768xbf16> loc(#loc79)
        %74 = "ttir.reshape"(%73) <{shape = [1 : i32, 1 : i32, 768 : i32]}> : (tensor<768xbf16>) -> tensor<1x1x768xbf16> loc(#loc80)
        %75 = "ttir.broadcast"(%74) <{broadcast_dimensions = array<i64: 8, 384, 1>}> : (tensor<1x1x768xbf16>) -> tensor<8x384x768xbf16> loc(#loc80)
        %76 = "ttir.add"(%71, %75) : (tensor<8x384x768xbf16>, tensor<8x384x768xbf16>) -> tensor<8x384x768xbf16> loc(#loc81)
        %77 = "ttir.reshape"(%76) <{shape = [8 : i32, 384 : i32, 12 : i32, 64 : i32]}> : (tensor<8x384x768xbf16>) -> tensor<8x384x12x64xbf16> loc(#loc82)
        %78 = "ttir.permute"(%77) <{permutation = array<i64: 0, 2, 1, 3>}> : (tensor<8x384x12x64xbf16>) -> tensor<8x12x384x64xbf16> loc(#loc83)
        %79 = "ttir.typecast"(%78) <{conservative_folding = false}> : (tensor<8x12x384x64xbf16>) -> tensor<8x12x384x64xf32> loc(#loc84)
        %80 = "ttir.permute"(%79) <{permutation = array<i64: 0, 1, 3, 2>}> : (tensor<8x12x384x64xf32>) -> tensor<8x12x64x384xf32> loc(#loc85)
        %81 = "ttir.multiply"(%80, %3) : (tensor<8x12x64x384xf32>, tensor<8x12x64x384xf32>) -> tensor<8x12x64x384xf32> loc(#loc86)
        %82 = "ttir.dot_general"(%66, %81) <{batch_dims_lhs = array<i64: 0, 1>, batch_dims_rhs = array<i64: 0, 1>, contract_dims_lhs = array<i64: 3>, contract_dims_rhs = array<i64: 2>}> : (tensor<8x12x384x64xf32>, tensor<8x12x64x384xf32>) -> tensor<8x12x384x384xf32> loc(#loc87)
        %83 = "ttir.reshape"(%arg17) <{shape = [1 : i32, 1 : i32, 1 : i32]}> : (tensor<bf16>) -> tensor<1x1x1xbf16> loc(#loc88)
        %84 = "ttir.reshape"(%83) <{shape = []}> : (tensor<1x1x1xbf16>) -> tensor<bf16> loc(#loc89)
        %85 = "ttir.reshape"(%84) <{shape = [1 : i32, 1 : i32, 1 : i32, 1 : i32]}> : (tensor<bf16>) -> tensor<1x1x1x1xbf16> loc(#loc90)
        %86 = "ttir.broadcast"(%85) <{broadcast_dimensions = array<i64: 8, 1, 384, 384>}> : (tensor<1x1x1x1xbf16>) -> tensor<8x1x384x384xbf16> loc(#loc90)
        %87 = "ttir.reshape"(%arg16) <{shape = [1 : i32, 8 : i32, 384 : i32]}> : (tensor<8x384xi64>) -> tensor<1x8x384xi64> loc(#loc91)
        %88 = "ttir.reshape"(%87) <{shape = [8 : i32, 1 : i32, 384 : i32]}> : (tensor<1x8x384xi64>) -> tensor<8x1x384xi64> loc(#loc92)
        %89 = "ttir.reshape"(%88) <{shape = [8 : i32, 1 : i32, 1 : i32, 384 : i32]}> : (tensor<8x1x384xi64>) -> tensor<8x1x1x384xi64> loc(#loc93)
        %90 = "ttir.broadcast"(%89) <{broadcast_dimensions = array<i64: 1, 1, 384, 1>}> : (tensor<8x1x1x384xi64>) -> tensor<8x1x384x384xi64> loc(#loc93)
        %91 = "ttir.typecast"(%90) <{conservative_folding = false}> : (tensor<8x1x384x384xi64>) -> tensor<8x1x384x384xbf16> loc(#loc94)
        %92 = "ttir.subtract"(%86, %91) : (tensor<8x1x384x384xbf16>, tensor<8x1x384x384xbf16>) -> tensor<8x1x384x384xbf16> loc(#loc95)
        %93 = "ttir.ne"(%92, %5) : (tensor<8x1x384x384xbf16>, tensor<8x1x384x384xbf16>) -> tensor<8x1x384x384xi1> loc(#loc96)
        %94 = "ttir.where"(%93, %2, %92) : (tensor<8x1x384x384xi1>, tensor<8x1x384x384xbf16>, tensor<8x1x384x384xbf16>) -> tensor<8x1x384x384xbf16> loc(#loc97)
        %95 = "ttir.typecast"(%94) <{conservative_folding = false}> : (tensor<8x1x384x384xbf16>) -> tensor<8x1x384x384xf32> loc(#loc98)
        %96 = "ttir.reshape"(%95) <{shape = [8 : i32, 384 : i32, 384 : i32]}> : (tensor<8x1x384x384xf32>) -> tensor<8x384x384xf32> loc(#loc99)
        %97 = "ttir.reshape"(%96) <{shape = [8 : i32, 1 : i32, 384 : i32, 384 : i32]}> : (tensor<8x384x384xf32>) -> tensor<8x1x384x384xf32> loc(#loc100)
        %98 = "ttir.broadcast"(%97) <{broadcast_dimensions = array<i64: 1, 12, 1, 1>}> : (tensor<8x1x384x384xf32>) -> tensor<8x12x384x384xf32> loc(#loc100)
        %99 = "ttir.add"(%82, %98) : (tensor<8x12x384x384xf32>, tensor<8x12x384x384xf32>) -> tensor<8x12x384x384xf32> loc(#loc101)
        %100 = "ttir.typecast"(%99) <{conservative_folding = false}> : (tensor<8x12x384x384xf32>) -> tensor<8x12x384x384xf64> loc(#loc102)
        %101 = "ttir.eq"(%100, %1) : (tensor<8x12x384x384xf64>, tensor<8x12x384x384xf64>) -> tensor<8x12x384x384xi1> loc(#loc103)
        %102 = "ttir.logical_not"(%101) : (tensor<8x12x384x384xi1>) -> tensor<8x12x384x384xi1> loc(#loc104)
        %103 = "ttir.reduce_or"(%102) <{dim_arg = [3 : i32], keep_dim = false}> : (tensor<8x12x384x384xi1>) -> tensor<8x12x384xi1> loc(#loc105)
        %104 = "ttir.reshape"(%103) <{shape = [8 : i32, 12 : i32, 384 : i32, 1 : i32]}> : (tensor<8x12x384xi1>) -> tensor<8x12x384x1xi1> loc(#loc106)
        %105 = "ttir.logical_not"(%104) : (tensor<8x12x384x1xi1>) -> tensor<8x12x384x1xi1> loc(#loc107)
        %106 = "ttir.reshape"(%105) <{shape = [8 : i32, 12 : i32, 384 : i32]}> : (tensor<8x12x384x1xi1>) -> tensor<8x12x384xi1> loc(#loc108)
        %107 = "ttir.reshape"(%106) <{shape = [8 : i32, 12 : i32, 384 : i32, 1 : i32]}> : (tensor<8x12x384xi1>) -> tensor<8x12x384x1xi1> loc(#loc109)
        %108 = "ttir.broadcast"(%107) <{broadcast_dimensions = array<i64: 1, 1, 1, 384>}> : (tensor<8x12x384x1xi1>) -> tensor<8x12x384x384xi1> loc(#loc109)
        %109 = "ttir.max"(%99) <{dim_arg = [3 : i32], keep_dim = false}> : (tensor<8x12x384x384xf32>) -> tensor<8x12x384xf32> loc(#loc110)
        %110 = "ttir.reshape"(%109) <{shape = [8 : i32, 12 : i32, 384 : i32, 1 : i32]}> : (tensor<8x12x384xf32>) -> tensor<8x12x384x1xf32> loc(#loc111)
        %111 = "ttir.broadcast"(%110) <{broadcast_dimensions = array<i64: 1, 1, 1, 384>}> : (tensor<8x12x384x1xf32>) -> tensor<8x12x384x384xf32> loc(#loc111)
        %112 = "ttir.subtract"(%99, %111) : (tensor<8x12x384x384xf32>, tensor<8x12x384x384xf32>) -> tensor<8x12x384x384xf32> loc(#loc112)
        %113 = "ttir.exp"(%112) : (tensor<8x12x384x384xf32>) -> tensor<8x12x384x384xf32> loc(#loc113)
        %114 = "ttir.sum"(%113) <{dim_arg = [3 : i32], keep_dim = false}> : (tensor<8x12x384x384xf32>) -> tensor<8x12x384xf32> loc(#loc114)
        %115 = "ttir.reshape"(%114) <{shape = [8 : i32, 12 : i32, 384 : i32, 1 : i32]}> : (tensor<8x12x384xf32>) -> tensor<8x12x384x1xf32> loc(#loc115)
        %116 = "ttir.broadcast"(%115) <{broadcast_dimensions = array<i64: 1, 1, 1, 384>}> : (tensor<8x12x384x1xf32>) -> tensor<8x12x384x384xf32> loc(#loc115)
        %117 = "ttir.div"(%113, %116) : (tensor<8x12x384x384xf32>, tensor<8x12x384x384xf32>) -> tensor<8x12x384x384xf32> loc(#loc116)
        %118 = "ttir.where"(%108, %0, %117) : (tensor<8x12x384x384xi1>, tensor<8x12x384x384xf32>, tensor<8x12x384x384xf32>) -> tensor<8x12x384x384xf32> loc(#loc117)
        %119 = "ttir.reshape"(%arg15) <{shape = [1 : i32, 768 : i32, 768 : i32]}> : (tensor<768x768xbf16>) -> tensor<1x768x768xbf16> loc(#loc118)
        %120 = "ttir.reshape"(%119) <{shape = [768 : i32, 768 : i32]}> : (tensor<1x768x768xbf16>) -> tensor<768x768xbf16> loc(#loc119)
        %121 = "ttir.permute"(%120) <{permutation = array<i64: 1, 0>}> : (tensor<768x768xbf16>) -> tensor<768x768xbf16> loc(#loc120)
        %122 = "ttir.dot_general"(%52, %121) <{batch_dims_lhs = array<i64>, batch_dims_rhs = array<i64>, contract_dims_lhs = array<i64: 1>, contract_dims_rhs = array<i64: 0>}> : (tensor<3072x768xbf16>, tensor<768x768xbf16>) -> tensor<3072x768xbf16> loc(#loc121)
        %123 = "ttir.reshape"(%122) <{shape = [8 : i32, 384 : i32, 768 : i32]}> : (tensor<3072x768xbf16>) -> tensor<8x384x768xbf16> loc(#loc122)
        %124 = "ttir.reshape"(%arg14) <{shape = [1 : i32, 1 : i32, 768 : i32]}> : (tensor<768xbf16>) -> tensor<1x1x768xbf16> loc(#loc123)
        %125 = "ttir.reshape"(%124) <{shape = [768 : i32]}> : (tensor<1x1x768xbf16>) -> tensor<768xbf16> loc(#loc124)
        %126 = "ttir.reshape"(%125) <{shape = [1 : i32, 1 : i32, 768 : i32]}> : (tensor<768xbf16>) -> tensor<1x1x768xbf16> loc(#loc125)
        %127 = "ttir.broadcast"(%126) <{broadcast_dimensions = array<i64: 8, 384, 1>}> : (tensor<1x1x768xbf16>) -> tensor<8x384x768xbf16> loc(#loc125)
        %128 = "ttir.add"(%123, %127) : (tensor<8x384x768xbf16>, tensor<8x384x768xbf16>) -> tensor<8x384x768xbf16> loc(#loc126)
        %129 = "ttir.reshape"(%128) <{shape = [8 : i32, 384 : i32, 12 : i32, 64 : i32]}> : (tensor<8x384x768xbf16>) -> tensor<8x384x12x64xbf16> loc(#loc127)
        %130 = "ttir.permute"(%129) <{permutation = array<i64: 0, 2, 1, 3>}> : (tensor<8x384x12x64xbf16>) -> tensor<8x12x384x64xbf16> loc(#loc128)
        %131 = "ttir.typecast"(%130) <{conservative_folding = false}> : (tensor<8x12x384x64xbf16>) -> tensor<8x12x384x64xf32> loc(#loc129)
        %132 = "ttir.dot_general"(%118, %131) <{batch_dims_lhs = array<i64: 0, 1>, batch_dims_rhs = array<i64: 0, 1>, contract_dims_lhs = array<i64: 3>, contract_dims_rhs = array<i64: 2>}> : (tensor<8x12x384x384xf32>, tensor<8x12x384x64xf32>) -> tensor<8x12x384x64xf32> loc(#loc130)
        %133 = "ttir.typecast"(%132) <{conservative_folding = false}> : (tensor<8x12x384x64xf32>) -> tensor<8x12x384x64xbf16> loc(#loc131)
        %134 = "ttir.permute"(%133) <{permutation = array<i64: 0, 2, 1, 3>}> : (tensor<8x12x384x64xbf16>) -> tensor<8x384x12x64xbf16> loc(#loc132)
        %135 = "ttir.reshape"(%134) <{shape = [3072 : i32, 768 : i32]}> : (tensor<8x384x12x64xbf16>) -> tensor<3072x768xbf16> loc(#loc133)
        %136 = "ttir.reshape"(%arg13) <{shape = [1 : i32, 768 : i32, 768 : i32]}> : (tensor<768x768xbf16>) -> tensor<1x768x768xbf16> loc(#loc134)
        %137 = "ttir.reshape"(%136) <{shape = [768 : i32, 768 : i32]}> : (tensor<1x768x768xbf16>) -> tensor<768x768xbf16> loc(#loc135)
        %138 = "ttir.permute"(%137) <{permutation = array<i64: 1, 0>}> : (tensor<768x768xbf16>) -> tensor<768x768xbf16> loc(#loc136)
        %139 = "ttir.dot_general"(%135, %138) <{batch_dims_lhs = array<i64>, batch_dims_rhs = array<i64>, contract_dims_lhs = array<i64: 1>, contract_dims_rhs = array<i64: 0>}> : (tensor<3072x768xbf16>, tensor<768x768xbf16>) -> tensor<3072x768xbf16> loc(#loc137)
        %140 = "ttir.reshape"(%139) <{shape = [8 : i32, 384 : i32, 768 : i32]}> : (tensor<3072x768xbf16>) -> tensor<8x384x768xbf16> loc(#loc138)
        %141 = "ttir.reshape"(%arg12) <{shape = [1 : i32, 1 : i32, 768 : i32]}> : (tensor<768xbf16>) -> tensor<1x1x768xbf16> loc(#loc139)
        %142 = "ttir.reshape"(%141) <{shape = [768 : i32]}> : (tensor<1x1x768xbf16>) -> tensor<768xbf16> loc(#loc140)
        %143 = "ttir.reshape"(%142) <{shape = [1 : i32, 1 : i32, 768 : i32]}> : (tensor<768xbf16>) -> tensor<1x1x768xbf16> loc(#loc141)
        %144 = "ttir.broadcast"(%143) <{broadcast_dimensions = array<i64: 8, 384, 1>}> : (tensor<1x1x768xbf16>) -> tensor<8x384x768xbf16> loc(#loc141)
        %145 = "ttir.add"(%140, %144) : (tensor<8x384x768xbf16>, tensor<8x384x768xbf16>) -> tensor<8x384x768xbf16> loc(#loc142)
        %146 = "ttir.add"(%145, %51) : (tensor<8x384x768xbf16>, tensor<8x384x768xbf16>) -> tensor<8x384x768xbf16> loc(#loc143)
        %147 = "ttir.reshape"(%arg3) <{shape = [1 : i32, 1 : i32, 768 : i32]}> : (tensor<768xbf16>) -> tensor<1x1x768xbf16> loc(#loc144)
        %148 = "ttir.reshape"(%147) <{shape = [768 : i32]}> : (tensor<1x1x768xbf16>) -> tensor<768xbf16> loc(#loc145)
        %149 = "ttir.reshape"(%arg2) <{shape = [1 : i32, 1 : i32, 768 : i32]}> : (tensor<768xbf16>) -> tensor<1x1x768xbf16> loc(#loc146)
        %150 = "ttir.reshape"(%149) <{shape = [768 : i32]}> : (tensor<1x1x768xbf16>) -> tensor<768xbf16> loc(#loc147)
        %151 = "ttir.layer_norm"(%146, %148, %150) <{epsilon = 9.99999996E-13 : f32, normalized_shape = array<i64: 768>, operandSegmentSizes = array<i32: 1, 1, 1>}> : (tensor<8x384x768xbf16>, tensor<768xbf16>, tensor<768xbf16>) -> tensor<8x384x768xbf16> loc(#loc148)
        %152 = "ttir.reshape"(%151) <{shape = [3072 : i32, 768 : i32]}> : (tensor<8x384x768xbf16>) -> tensor<3072x768xbf16> loc(#loc149)
        %153 = "ttir.reshape"(%arg25) <{shape = [1 : i32, 3072 : i32, 768 : i32]}> : (tensor<3072x768xbf16>) -> tensor<1x3072x768xbf16> loc(#loc150)
        %154 = "ttir.reshape"(%153) <{shape = [3072 : i32, 768 : i32]}> : (tensor<1x3072x768xbf16>) -> tensor<3072x768xbf16> loc(#loc151)
        %155 = "ttir.permute"(%154) <{permutation = array<i64: 1, 0>}> : (tensor<3072x768xbf16>) -> tensor<768x3072xbf16> loc(#loc152)
        %156 = "ttir.dot_general"(%152, %155) <{batch_dims_lhs = array<i64>, batch_dims_rhs = array<i64>, contract_dims_lhs = array<i64: 1>, contract_dims_rhs = array<i64: 0>}> : (tensor<3072x768xbf16>, tensor<768x3072xbf16>) -> tensor<3072x3072xbf16> loc(#loc153)
        %157 = "ttir.reshape"(%156) <{shape = [8 : i32, 384 : i32, 3072 : i32]}> : (tensor<3072x3072xbf16>) -> tensor<8x384x3072xbf16> loc(#loc154)
        %158 = "ttir.reshape"(%arg24) <{shape = [1 : i32, 1 : i32, 3072 : i32]}> : (tensor<3072xbf16>) -> tensor<1x1x3072xbf16> loc(#loc155)
        %159 = "ttir.reshape"(%158) <{shape = [3072 : i32]}> : (tensor<1x1x3072xbf16>) -> tensor<3072xbf16> loc(#loc156)
        %160 = "ttir.reshape"(%159) <{shape = [1 : i32, 1 : i32, 3072 : i32]}> : (tensor<3072xbf16>) -> tensor<1x1x3072xbf16> loc(#loc157)
        %161 = "ttir.broadcast"(%160) <{broadcast_dimensions = array<i64: 8, 384, 1>}> : (tensor<1x1x3072xbf16>) -> tensor<8x384x3072xbf16> loc(#loc157)
        %162 = "ttir.add"(%157, %161) : (tensor<8x384x3072xbf16>, tensor<8x384x3072xbf16>) -> tensor<8x384x3072xbf16> loc(#loc158)
        %163 = "ttir.gelu"(%162) : (tensor<8x384x3072xbf16>) -> tensor<8x384x3072xbf16> loc(#loc159)
        %164 = "ttir.reshape"(%163) <{shape = [3072 : i32, 3072 : i32]}> : (tensor<8x384x3072xbf16>) -> tensor<3072x3072xbf16> loc(#loc160)
        %165 = "ttir.reshape"(%arg23) <{shape = [1 : i32, 768 : i32, 3072 : i32]}> : (tensor<768x3072xbf16>) -> tensor<1x768x3072xbf16> loc(#loc161)
        %166 = "ttir.reshape"(%165) <{shape = [768 : i32, 3072 : i32]}> : (tensor<1x768x3072xbf16>) -> tensor<768x3072xbf16> loc(#loc162)
        %167 = "ttir.permute"(%166) <{permutation = array<i64: 1, 0>}> : (tensor<768x3072xbf16>) -> tensor<3072x768xbf16> loc(#loc163)
        %168 = "ttir.dot_general"(%164, %167) <{batch_dims_lhs = array<i64>, batch_dims_rhs = array<i64>, contract_dims_lhs = array<i64: 1>, contract_dims_rhs = array<i64: 0>}> : (tensor<3072x3072xbf16>, tensor<3072x768xbf16>) -> tensor<3072x768xbf16> loc(#loc164)
        %169 = "ttir.reshape"(%168) <{shape = [8 : i32, 384 : i32, 768 : i32]}> : (tensor<3072x768xbf16>) -> tensor<8x384x768xbf16> loc(#loc165)
        %170 = "ttir.reshape"(%arg22) <{shape = [1 : i32, 1 : i32, 768 : i32]}> : (tensor<768xbf16>) -> tensor<1x1x768xbf16> loc(#loc166)
        %171 = "ttir.reshape"(%170) <{shape = [768 : i32]}> : (tensor<1x1x768xbf16>) -> tensor<768xbf16> loc(#loc167)
        %172 = "ttir.reshape"(%171) <{shape = [1 : i32, 1 : i32, 768 : i32]}> : (tensor<768xbf16>) -> tensor<1x1x768xbf16> loc(#loc168)
        %173 = "ttir.broadcast"(%172) <{broadcast_dimensions = array<i64: 8, 384, 1>}> : (tensor<1x1x768xbf16>) -> tensor<8x384x768xbf16> loc(#loc168)
        %174 = "ttir.add"(%169, %173) : (tensor<8x384x768xbf16>, tensor<8x384x768xbf16>) -> tensor<8x384x768xbf16> loc(#loc169)
        %175 = "ttir.add"(%174, %151) : (tensor<8x384x768xbf16>, tensor<8x384x768xbf16>) -> tensor<8x384x768xbf16> loc(#loc170)
        %176 = "ttir.reshape"(%arg1) <{shape = [1 : i32, 1 : i32, 768 : i32]}> : (tensor<768xbf16>) -> tensor<1x1x768xbf16> loc(#loc171)
        %177 = "ttir.reshape"(%176) <{shape = [768 : i32]}> : (tensor<1x1x768xbf16>) -> tensor<768xbf16> loc(#loc172)
        %178 = "ttir.reshape"(%arg0) <{shape = [1 : i32, 1 : i32, 768 : i32]}> : (tensor<768xbf16>) -> tensor<1x1x768xbf16> loc(#loc173)
        %179 = "ttir.reshape"(%178) <{shape = [768 : i32]}> : (tensor<1x1x768xbf16>) -> tensor<768xbf16> loc(#loc174)
        %180 = "ttir.layer_norm"(%175, %177, %179) <{epsilon = 9.99999996E-13 : f32, normalized_shape = array<i64: 768>, operandSegmentSizes = array<i32: 1, 1, 1>}> : (tensor<8x384x768xbf16>, tensor<768xbf16>, tensor<768xbf16>) -> tensor<8x384x768xbf16> loc(#loc175)
        %181 = "ttir.slice_static"(%180) <{begins = [0 : i32, 0 : i32, 0 : i32], ends = [8 : i32, 1 : i32, 768 : i32], step = [1 : i32, 1 : i32, 1 : i32]}> : (tensor<8x384x768xbf16>) -> tensor<8x1x768xbf16> loc(#loc176)
        %182 = "ttir.reshape"(%181) <{shape = [8 : i32, 768 : i32]}> : (tensor<8x1x768xbf16>) -> tensor<8x768xbf16> loc(#loc177)
        %183 = "ttir.typecast"(%182) <{conservative_folding = false}> : (tensor<8x768xbf16>) -> tensor<8x768xf32> loc(#loc178)
        %184 = "ttir.reshape"(%arg27) <{shape = [1 : i32, 768 : i32, 768 : i32]}> : (tensor<768x768xbf16>) -> tensor<1x768x768xbf16> loc(#loc179)
        %185 = "ttir.reshape"(%184) <{shape = [768 : i32, 768 : i32]}> : (tensor<1x768x768xbf16>) -> tensor<768x768xbf16> loc(#loc180)
        %186 = "ttir.permute"(%185) <{permutation = array<i64: 1, 0>}> : (tensor<768x768xbf16>) -> tensor<768x768xbf16> loc(#loc181)
        %187 = "ttir.typecast"(%186) <{conservative_folding = false}> : (tensor<768x768xbf16>) -> tensor<768x768xf32> loc(#loc182)
        %188 = "ttir.dot_general"(%183, %187) <{batch_dims_lhs = array<i64>, batch_dims_rhs = array<i64>, contract_dims_lhs = array<i64: 1>, contract_dims_rhs = array<i64: 0>}> : (tensor<8x768xf32>, tensor<768x768xf32>) -> tensor<8x768xf32> loc(#loc183)
        %189 = "ttir.reshape"(%arg26) <{shape = [1 : i32, 1 : i32, 768 : i32]}> : (tensor<768xbf16>) -> tensor<1x1x768xbf16> loc(#loc184)
        %190 = "ttir.reshape"(%189) <{shape = [768 : i32]}> : (tensor<1x1x768xbf16>) -> tensor<768xbf16> loc(#loc185)
        %191 = "ttir.typecast"(%190) <{conservative_folding = false}> : (tensor<768xbf16>) -> tensor<768xf32> loc(#loc186)
        %192 = "ttir.reshape"(%191) <{shape = [1 : i32, 768 : i32]}> : (tensor<768xf32>) -> tensor<1x768xf32> loc(#loc187)
        %193 = "ttir.broadcast"(%192) <{broadcast_dimensions = array<i64: 8, 1>}> : (tensor<1x768xf32>) -> tensor<8x768xf32> loc(#loc187)
        %194 = "ttir.add"(%188, %193) : (tensor<8x768xf32>, tensor<8x768xf32>) -> tensor<8x768xf32> loc(#loc188)
        %195 = "ttir.typecast"(%194) <{conservative_folding = false}> : (tensor<8x768xf32>) -> tensor<8x768xbf16> loc(#loc189)
        %196 = "ttir.tanh"(%195) : (tensor<8x768xbf16>) -> tensor<8x768xbf16> loc(#loc190)
        return %180, %196 : tensor<8x384x768xbf16>, tensor<8x768xbf16> loc(#loc)
      } loc(#loc)
    } loc(#loc)
  } loc(#loc)
} loc(#loc)
#loc = loc(unknown)
#loc29 = loc("reshape.78")
#loc30 = loc("reshape.80")
#loc31 = loc("reshape.73")
#loc32 = loc("reshape.76")
#loc33 = loc("convert.81")
#loc34 = loc("gather.82")
#loc35 = loc("reshape.83")
#loc36 = loc("reshape.66")
#loc37 = loc("reshape.68")
#loc38 = loc("reshape.61")
#loc39 = loc("reshape.64")
#loc40 = loc("convert.69")
#loc41 = loc("gather.70")
#loc42 = loc("reshape.71")
#loc43 = loc("add.86")
#loc44 = loc("reshape.53")
#loc45 = loc("reshape.55")
#loc46 = loc("reshape.47")
#loc47 = loc("reshape.49")
#loc48 = loc("slice.50")
#loc49 = loc("reshape.51")
#loc50 = loc("convert.56")
#loc51 = loc("gather.57")
#loc52 = loc("broadcast.90")
#loc53 = loc("add.91")
#loc54 = loc("reshape.38")
#loc55 = loc("reshape.40")
#loc56 = loc("reshape.33")
#loc57 = loc("reshape.35")
#loc58 = loc("custom-call.171")
#loc59 = loc("reshape.267")
#loc60 = loc("reshape.263")
#loc61 = loc("reshape.265")
#loc62 = loc("transpose.266")
#loc63 = loc("dot.268")
#loc64 = loc("reshape.269")
#loc65 = loc("reshape.259")
#loc66 = loc("reshape.261")
#loc67 = loc("broadcast.272")
#loc68 = loc("add.273")
#loc69 = loc("reshape.274")
#loc70 = loc("transpose.275")
#loc71 = loc("convert.276")
#loc72 = loc("multiply.278")
#loc73 = loc("reshape.239")
#loc74 = loc("reshape.241")
#loc75 = loc("transpose.242")
#loc76 = loc("dot.244")
#loc77 = loc("reshape.245")
#loc78 = loc("reshape.235")
#loc79 = loc("reshape.237")
#loc80 = loc("broadcast.248")
#loc81 = loc("add.249")
#loc82 = loc("reshape.250")
#loc83 = loc("transpose.251")
#loc84 = loc("convert.252")
#loc85 = loc("transpose.253")
#loc86 = loc("multiply.255")
#loc87 = loc("dot.279")
#loc88 = loc("reshape.215")
#loc89 = loc("reshape.217")
#loc90 = loc("broadcast.220")
#loc91 = loc("reshape.205")
#loc92 = loc("reshape.208")
#loc93 = loc("broadcast.212")
#loc94 = loc("convert.213")
#loc95 = loc("subtract.221")
#loc96 = loc("convert.229")
#loc97 = loc("select.231")
#loc98 = loc("convert.281")
#loc99 = loc("reshape.284")
#loc100 = loc("broadcast.285")
#loc101 = loc("add.286")
#loc102 = loc("convert.312")
#loc103 = loc("compare.314")
#loc104 = loc("not.316")
#loc105 = loc("reduce.328")
#loc106 = loc("reshape.332")
#loc107 = loc("not.334")
#loc108 = loc("reshape.336")
#loc109 = loc("broadcast.337")
#loc110 = loc("reduce.292")
#loc111 = loc("broadcast.293")
#loc112 = loc("subtract.294")
#loc113 = loc("exponential.295")
#loc114 = loc("reduce.301")
#loc115 = loc("broadcast.302")
#loc116 = loc("divide.303")
#loc117 = loc("select.338")
#loc118 = loc("reshape.188")
#loc119 = loc("reshape.190")
#loc120 = loc("transpose.191")
#loc121 = loc("dot.193")
#loc122 = loc("reshape.194")
#loc123 = loc("reshape.184")
#loc124 = loc("reshape.186")
#loc125 = loc("broadcast.197")
#loc126 = loc("add.198")
#loc127 = loc("reshape.199")
#loc128 = loc("transpose.200")
#loc129 = loc("convert.201")
#loc130 = loc("dot.339")
#loc131 = loc("convert.341")
#loc132 = loc("transpose.342")
#loc133 = loc("reshape.344")
#loc134 = loc("reshape.178")
#loc135 = loc("reshape.180")
#loc136 = loc("transpose.181")
#loc137 = loc("dot.345")
#loc138 = loc("reshape.346")
#loc139 = loc("reshape.174")
#loc140 = loc("reshape.176")
#loc141 = loc("broadcast.349")
#loc142 = loc("add.350")
#loc143 = loc("add.353")
#loc144 = loc("reshape.23")
#loc145 = loc("reshape.25")
#loc146 = loc("reshape.18")
#loc147 = loc("reshape.20")
#loc148 = loc("custom-call.433")
#loc149 = loc("reshape.454")
#loc150 = loc("reshape.450")
#loc151 = loc("reshape.452")
#loc152 = loc("transpose.453")
#loc153 = loc("dot.455")
#loc154 = loc("reshape.456")
#loc155 = loc("reshape.446")
#loc156 = loc("reshape.448")
#loc157 = loc("broadcast.459")
#loc158 = loc("add.460")
#loc159 = loc("custom-call.473")
#loc160 = loc("reshape.474")
#loc161 = loc("reshape.440")
#loc162 = loc("reshape.442")
#loc163 = loc("transpose.443")
#loc164 = loc("dot.475")
#loc165 = loc("reshape.476")
#loc166 = loc("reshape.436")
#loc167 = loc("reshape.438")
#loc168 = loc("broadcast.479")
#loc169 = loc("add.480")
#loc170 = loc("add.483")
#loc171 = loc("reshape.8")
#loc172 = loc("reshape.10")
#loc173 = loc("reshape.3")
#loc174 = loc("reshape.5")
#loc175 = loc("custom-call.563")
#loc176 = loc("slice.580")
#loc177 = loc("reshape.581")
#loc178 = loc("convert.582")
#loc179 = loc("reshape.575")
#loc180 = loc("reshape.577")
#loc181 = loc("transpose.578")
#loc182 = loc("convert.579")
#loc183 = loc("dot.583")
#loc184 = loc("reshape.567")
#loc185 = loc("reshape.569")
#loc186 = loc("convert.570")
#loc187 = loc("broadcast.588")
#loc188 = loc("add.589")
#loc189 = loc("convert.590")
#loc190 = loc("tanh.591")
#loc191 = loc("gather.82_permuteInput"(#loc34))
#loc192 = loc("gather.82_reshapeInput"(#loc34))
#loc193 = loc("gather.82_reshapeStartIndices"(#loc34))
#loc194 = loc("gather.82_reshapeOutput"(#loc34))
#loc195 = loc("gather.82_permuteOutput"(#loc34))
#loc196 = loc("gather.70_permuteInput"(#loc41))
#loc197 = loc("gather.70_reshapeInput"(#loc41))
#loc198 = loc("gather.70_reshapeStartIndices"(#loc41))
#loc199 = loc("gather.70_reshapeOutput"(#loc41))
#loc200 = loc("gather.70_permuteOutput"(#loc41))
#loc201 = loc("gather.57_permuteInput"(#loc51))
#loc202 = loc("gather.57_reshapeInput"(#loc51))
#loc203 = loc("gather.57_reshapeStartIndices"(#loc51))
#loc204 = loc("gather.57_reshapeOutput"(#loc51))
#loc205 = loc("gather.57_permuteOutput"(#loc51))
