#loc1 = loc("p0.3")
#loc2 = loc("p1.11")
#loc3 = loc("p2.28")
#loc4 = loc("p3.36")
#loc5 = loc("p4.48")
#loc6 = loc("p5.53")
#loc7 = loc("p6.130")
#loc8 = loc("p7.138")
#loc9 = loc("p8.161")
#loc10 = loc("p9.175")
#loc11 = loc("p10.183")
#loc12 = loc("p11.196")
#loc13 = loc("p12.204")
#loc14 = loc("p13.212")
#loc15 = loc("p14.225")
#loc16 = loc("p15.284")
#loc17 = loc("p16.420")
module @SyncTensorsGraph.512 attributes {mhlo.cross_program_prefetches = [], mhlo.input_output_alias = [], mhlo.is_dynamic = false, mhlo.use_auto_spmd_partitioning = false, ttcore.meshes = #ttcore.meshes<[<"mesh" = 1x1>]>} {
  ttcore.device_module {
    builtin.module @SyncTensorsGraph.512 attributes {mhlo.cross_program_prefetches = [], mhlo.input_output_alias = [], mhlo.is_dynamic = false, mhlo.use_auto_spmd_partitioning = false, ttcore.meshes = #ttcore.meshes<[<"mesh" = 1x1>]>} {
      func.func @main(%arg0: tensor<1xi64> {ttcore.argument_type = #ttcore.argument_type<input>, ttcore.local_shape = #ttcore<local_shape local_shape = tensor<1xi64>>, ttcore.shard_status = #ttcore.shard_status<unsharded>, ttir.name = "args_1"} loc("p0.3"), %arg1: tensor<128xbf16> {ttcore.argument_type = #ttcore.argument_type<constant>, ttcore.local_shape = #ttcore<local_shape local_shape = tensor<128xbf16>>, ttcore.shard_status = #ttcore.shard_status<unsharded>, ttir.name = "model.model.rotary_emb.inv_freq"} loc("p1.11"), %arg2: tensor<1024x2048xbf16> {ttcore.argument_type = #ttcore.argument_type<parameter>, ttcore.local_shape = #ttcore<local_shape local_shape = tensor<1024x2048xbf16>>, ttcore.shard_status = #ttcore.shard_status<unsharded>, ttcore.weight_dtype = "bfp_bf8", ttir.name = "L__self___model_model_layers__modules__0___self_attn_k_proj.parametrizations.weight.original"} loc("p2.28"), %arg3: tensor<2048xbf16> {ttcore.argument_type = #ttcore.argument_type<parameter>, ttcore.local_shape = #ttcore<local_shape local_shape = tensor<2048xbf16>>, ttcore.shard_status = #ttcore.shard_status<unsharded>, ttcore.weight_dtype = "bfp_bf8", ttir.name = "L__self___model_model_layers__modules__0___input_layernorm_parametrizations__weight___original"} loc("p3.36"), %arg4: tensor<32x1xi64> {ttcore.argument_type = #ttcore.argument_type<input>, ttcore.local_shape = #ttcore<local_shape local_shape = tensor<32x1xi64>>, ttcore.shard_status = #ttcore.shard_status<unsharded>, ttir.name = "args_0"} loc("p4.48"), %arg5: tensor<131072x2048xbf16> {ttcore.argument_type = #ttcore.argument_type<parameter>, ttcore.local_shape = #ttcore<local_shape local_shape = tensor<131072x2048xbf16>>, ttcore.shard_status = #ttcore.shard_status<unsharded>, ttcore.weight_dtype = "bfp_bf8", ttir.name = "model.model.embed_tokens.parametrizations.weight.original"} loc("p5.53"), %arg6: tensor<32x4x128x256xbf16> {ttcore.argument_type = #ttcore.argument_type<input>, ttcore.local_shape = #ttcore<local_shape local_shape = tensor<32x4x128x256xbf16>>, ttcore.shard_status = #ttcore.shard_status<unsharded>, ttir.name = "args_2"} loc("p6.130"), %arg7: tensor<1024x2048xbf16> {ttcore.argument_type = #ttcore.argument_type<parameter>, ttcore.local_shape = #ttcore<local_shape local_shape = tensor<1024x2048xbf16>>, ttcore.shard_status = #ttcore.shard_status<unsharded>, ttcore.weight_dtype = "bfp_bf8", ttir.name = "L__self___model_model_layers__modules__0___self_attn_v_proj.parametrizations.weight.original"} loc("p7.138"), %arg8: tensor<32x4x128x256xbf16> {ttcore.argument_type = #ttcore.argument_type<input>, ttcore.local_shape = #ttcore<local_shape local_shape = tensor<32x4x128x256xbf16>>, ttcore.shard_status = #ttcore.shard_status<unsharded>, ttir.name = "args_3"} loc("p8.161"), %arg9: tensor<131072x2048xbf16> {ttcore.argument_type = #ttcore.argument_type<parameter>, ttcore.local_shape = #ttcore<local_shape local_shape = tensor<131072x2048xbf16>>, ttcore.shard_status = #ttcore.shard_status<unsharded>, ttcore.weight_dtype = "bfp_bf8", ttir.name = "model.lm_head.parametrizations.weight.original"} loc("p9.175"), %arg10: tensor<2048xbf16> {ttcore.argument_type = #ttcore.argument_type<parameter>, ttcore.local_shape = #ttcore<local_shape local_shape = tensor<2048xbf16>>, ttcore.shard_status = #ttcore.shard_status<unsharded>, ttcore.weight_dtype = "bfp_bf8", ttir.name = "model.model.norm.parametrizations.weight.original"} loc("p10.183"), %arg11: tensor<2048x8192xbf16> {ttcore.argument_type = #ttcore.argument_type<parameter>, ttcore.local_shape = #ttcore<local_shape local_shape = tensor<2048x8192xbf16>>, ttcore.shard_status = #ttcore.shard_status<unsharded>, ttcore.weight_dtype = "bfp_bf8", ttir.name = "L__self___model_model_layers__modules__0___mlp_down_proj.parametrizations.weight.original"} loc("p11.196"), %arg12: tensor<8192x2048xbf16> {ttcore.argument_type = #ttcore.argument_type<parameter>, ttcore.local_shape = #ttcore<local_shape local_shape = tensor<8192x2048xbf16>>, ttcore.shard_status = #ttcore.shard_status<unsharded>, ttcore.weight_dtype = "bfp_bf8", ttir.name = "L__self___model_model_layers__modules__0___mlp_up_proj.parametrizations.weight.original"} loc("p12.204"), %arg13: tensor<2048xbf16> {ttcore.argument_type = #ttcore.argument_type<parameter>, ttcore.local_shape = #ttcore<local_shape local_shape = tensor<2048xbf16>>, ttcore.shard_status = #ttcore.shard_status<unsharded>, ttcore.weight_dtype = "bfp_bf8", ttir.name = "L__self___model_model_layers__modules__0___post_attention_layernorm_parametrizations__weight___original"} loc("p13.212"), %arg14: tensor<2048x2048xbf16> {ttcore.argument_type = #ttcore.argument_type<parameter>, ttcore.local_shape = #ttcore<local_shape local_shape = tensor<2048x2048xbf16>>, ttcore.shard_status = #ttcore.shard_status<unsharded>, ttcore.weight_dtype = "bfp_bf8", ttir.name = "L__self___model_model_layers__modules__0___self_attn_o_proj.parametrizations.weight.original"} loc("p14.225"), %arg15: tensor<2048x2048xbf16> {ttcore.argument_type = #ttcore.argument_type<parameter>, ttcore.local_shape = #ttcore<local_shape local_shape = tensor<2048x2048xbf16>>, ttcore.shard_status = #ttcore.shard_status<unsharded>, ttcore.weight_dtype = "bfp_bf8", ttir.name = "L__self___model_model_layers__modules__0___self_attn_q_proj.parametrizations.weight.original"} loc("p15.284"), %arg16: tensor<8192x2048xbf16> {ttcore.argument_type = #ttcore.argument_type<parameter>, ttcore.local_shape = #ttcore<local_shape local_shape = tensor<8192x2048xbf16>>, ttcore.shard_status = #ttcore.shard_status<unsharded>, ttcore.weight_dtype = "bfp_bf8", ttir.name = "L__self___model_model_layers__modules__0___mlp_gate_proj.parametrizations.weight.original"} loc("p16.420")) -> (tensor<32x4x128x256xbf16> {ttcore.local_shape = #ttcore<local_shape local_shape = tensor<32x4x128x256xbf16>>, ttcore.shard_status = #ttcore.shard_status<presharded>}, tensor<32x4x128x256xbf16> {ttcore.local_shape = #ttcore<local_shape local_shape = tensor<32x4x128x256xbf16>>, ttcore.shard_status = #ttcore.shard_status<presharded>}, tensor<1xi64> {ttcore.local_shape = #ttcore<local_shape local_shape = tensor<1xi64>>, ttcore.shard_status = #ttcore.shard_status<presharded>}, tensor<32x1xi64> {ttcore.local_shape = #ttcore<local_shape local_shape = tensor<32x1xi64>>, ttcore.shard_status = #ttcore.shard_status<presharded>}) {
        %0 = "ttir.constant"() <{value = dense<0.000000e+00> : tensor<32x8x1x128xf32>}> : () -> tensor<32x8x1x128xf32> loc(#loc)
        %1 = "ttir.constant"() <{value = dense<0xFFF0000000000000> : tensor<32x8x1x128xf64>}> : () -> tensor<32x8x1x128xf64> loc(#loc)
        %2 = "ttir.constant"() <{value = dense<0xFF80> : tensor<32x1x1x128xbf16>}> : () -> tensor<32x1x1x128xbf16> loc(#loc)
        %3 = "ttir.constant"() <{value = dense<0.000000e+00> : tensor<32x1x1x128xbf16>}> : () -> tensor<32x1x1x128xbf16> loc(#loc)
        %4 = "ttir.constant"() <{value = dense<"…"> : tensor<1x1x1x128xi64>}> : () -> tensor<1x1x1x128xi64> loc(#loc)
        %5 = "ttir.constant"() <{value = dense<2.500000e-01> : tensor<32x8x256x128xf32>}> : () -> tensor<32x8x256x128xf32> loc(#loc)
        %6 = "ttir.constant"() <{value = dense<2.500000e-01> : tensor<32x8x1x256xf32>}> : () -> tensor<32x8x1x256xf32> loc(#loc)
        %7 = "ttir.constant"() <{value = dense<1> : tensor<1xi64>}> : () -> tensor<1xi64> loc(#loc)
        %8 = "ttir.constant"() <{value = dense<128> : tensor<1xi64>}> : () -> tensor<1xi64> loc(#loc)
        %9 = "ttir.constant"() <{value = dense<0> : tensor<1xi64>}> : () -> tensor<1xi64> loc(#loc)
        %10 = "ttir.reshape"(%arg0) <{shape = [1 : i32, 1 : i32, 1 : i32]}> : (tensor<1xi64>) -> tensor<1x1x1xi64> loc(#loc18)
        %11 = "ttir.lt"(%arg0, %9) : (tensor<1xi64>, tensor<1xi64>) -> tensor<1xi1> loc(#loc19)
        %12 = "ttir.add"(%arg0, %8) : (tensor<1xi64>, tensor<1xi64>) -> tensor<1xi64> loc(#loc20)
        %13 = "ttir.where"(%11, %12, %arg0) : (tensor<1xi1>, tensor<1xi64>, tensor<1xi64>) -> tensor<1xi64> loc(#loc21)
        %14 = "ttir.reshape"(%arg4) <{shape = [32 : i32]}> : (tensor<32x1xi64>) -> tensor<32xi64> loc(#loc141)
        %15 = "ttir.typecast"(%14) <{conservative_folding = false}> : (tensor<32xi64>) -> tensor<32xui32> loc(#loc24)
        %16 = "ttir.permute"(%arg5) <{permutation = array<i64: 0, 1>}> : (tensor<131072x2048xbf16>) -> tensor<131072x2048xbf16> loc(#loc142)
        %17 = "ttir.reshape"(%16) <{shape = [131072 : i32, 2048 : i32]}> : (tensor<131072x2048xbf16>) -> tensor<131072x2048xbf16> loc(#loc143)
        %18 = "ttir.reshape"(%15) <{shape = [1 : i32, 32 : i32]}> : (tensor<32xui32>) -> tensor<1x32xui32> loc(#loc144)
        %19 = "ttir.embedding"(%18, %17) : (tensor<1x32xui32>, tensor<131072x2048xbf16>) -> tensor<1x32x2048xbf16> loc(#loc25)
        %20 = "ttir.reshape"(%19) <{shape = [32 : i32, 2048 : i32]}> : (tensor<1x32x2048xbf16>) -> tensor<32x2048xbf16> loc(#loc145)
        %21 = "ttir.permute"(%20) <{permutation = array<i64: 0, 1>}> : (tensor<32x2048xbf16>) -> tensor<32x2048xbf16> loc(#loc146)
        %22 = "ttir.reshape"(%21) <{shape = [32 : i32, 1 : i32, 2048 : i32]}> : (tensor<32x2048xbf16>) -> tensor<32x1x2048xbf16> loc(#loc26)
        %23 = "ttir.rms_norm"(%22, %arg3) <{epsilon = 9.99999997E-7 : f32, normalized_shape = array<i64: 2048>, operandSegmentSizes = array<i32: 1, 1, 0>}> : (tensor<32x1x2048xbf16>, tensor<2048xbf16>) -> tensor<32x1x2048xbf16> loc(#loc27)
        %24 = "ttir.reshape"(%23) <{shape = [32 : i32, 2048 : i32]}> : (tensor<32x1x2048xbf16>) -> tensor<32x2048xbf16> loc(#loc28)
        %25 = "ttir.permute"(%arg2) <{permutation = array<i64: 1, 0>}> : (tensor<1024x2048xbf16>) -> tensor<2048x1024xbf16> loc(#loc29)
        %26 = "ttir.dot_general"(%24, %25) <{batch_dims_lhs = array<i64>, batch_dims_rhs = array<i64>, contract_dims_lhs = array<i64: 1>, contract_dims_rhs = array<i64: 0>}> : (tensor<32x2048xbf16>, tensor<2048x1024xbf16>) -> tensor<32x1024xbf16> loc(#loc30)
        %27 = "ttir.reshape"(%26) <{shape = [32 : i32, 4 : i32, 1 : i32, 256 : i32]}> : (tensor<32x1024xbf16>) -> tensor<32x4x1x256xbf16> loc(#loc31)
        %28 = "ttir.reshape"(%arg1) <{shape = [1 : i32, 128 : i32, 1 : i32]}> : (tensor<128xbf16>) -> tensor<1x128x1xbf16> loc(#loc147)
        %29 = "ttir.typecast"(%28) <{conservative_folding = false}> : (tensor<1x128x1xbf16>) -> tensor<1x128x1xf32> loc(#loc34)
        %30 = "ttir.typecast"(%10) <{conservative_folding = false}> : (tensor<1x1x1xi64>) -> tensor<1x1x1xf32> loc(#loc35)
        %31 = "ttir.dot_general"(%29, %30) <{batch_dims_lhs = array<i64: 0>, batch_dims_rhs = array<i64: 0>, contract_dims_lhs = array<i64: 2>, contract_dims_rhs = array<i64: 1>}> : (tensor<1x128x1xf32>, tensor<1x1x1xf32>) -> tensor<1x128x1xf32> loc(#loc36)
        %32 = "ttir.reshape"(%31) <{shape = [1 : i32, 1 : i32, 128 : i32]}> : (tensor<1x128x1xf32>) -> tensor<1x1x128xf32> loc(#loc37)
        %33 = "ttir.concat"(%32, %32) <{dim = 2 : si32}> : (tensor<1x1x128xf32>, tensor<1x1x128xf32>) -> tensor<1x1x256xf32> loc(#loc38)
        %34 = "ttir.cos"(%33) : (tensor<1x1x256xf32>) -> tensor<1x1x256xf32> loc(#loc39)
        %35 = "ttir.typecast"(%34) <{conservative_folding = false}> : (tensor<1x1x256xf32>) -> tensor<1x1x256xbf16> loc(#loc40)
        %36 = "ttir.reshape"(%35) <{shape = [1 : i32, 256 : i32]}> : (tensor<1x1x256xbf16>) -> tensor<1x256xbf16> loc(#loc41)
        %37 = "ttir.reshape"(%36) <{shape = [1 : i32, 1 : i32, 1 : i32, 256 : i32]}> : (tensor<1x256xbf16>) -> tensor<1x1x1x256xbf16> loc(#loc42)
        %38 = "ttir.broadcast"(%37) <{broadcast_dimensions = array<i64: 32, 4, 1, 1>}> : (tensor<1x1x1x256xbf16>) -> tensor<32x4x1x256xbf16> loc(#loc42)
        %39 = "ttir.multiply"(%27, %38) : (tensor<32x4x1x256xbf16>, tensor<32x4x1x256xbf16>) -> tensor<32x4x1x256xbf16> loc(#loc43)
        %40 = "ttir.slice_static"(%27) <{begins = [0 : i32, 0 : i32, 0 : i32, 128 : i32], ends = [32 : i32, 4 : i32, 1 : i32, 256 : i32], step = [1 : i32, 1 : i32, 1 : i32, 1 : i32]}> : (tensor<32x4x1x256xbf16>) -> tensor<32x4x1x128xbf16> loc(#loc44)
        %41 = "ttir.neg"(%40) : (tensor<32x4x1x128xbf16>) -> tensor<32x4x1x128xbf16> loc(#loc45)
        %42 = "ttir.slice_static"(%27) <{begins = [0 : i32, 0 : i32, 0 : i32, 0 : i32], ends = [32 : i32, 4 : i32, 1 : i32, 128 : i32], step = [1 : i32, 1 : i32, 1 : i32, 1 : i32]}> : (tensor<32x4x1x256xbf16>) -> tensor<32x4x1x128xbf16> loc(#loc46)
        %43 = "ttir.concat"(%41, %42) <{dim = 3 : si32}> : (tensor<32x4x1x128xbf16>, tensor<32x4x1x128xbf16>) -> tensor<32x4x1x256xbf16> loc(#loc47)
        %44 = "ttir.sin"(%33) : (tensor<1x1x256xf32>) -> tensor<1x1x256xf32> loc(#loc48)
        %45 = "ttir.typecast"(%44) <{conservative_folding = false}> : (tensor<1x1x256xf32>) -> tensor<1x1x256xbf16> loc(#loc49)
        %46 = "ttir.reshape"(%45) <{shape = [1 : i32, 256 : i32]}> : (tensor<1x1x256xbf16>) -> tensor<1x256xbf16> loc(#loc50)
        %47 = "ttir.reshape"(%46) <{shape = [1 : i32, 1 : i32, 1 : i32, 256 : i32]}> : (tensor<1x256xbf16>) -> tensor<1x1x1x256xbf16> loc(#loc51)
        %48 = "ttir.broadcast"(%47) <{broadcast_dimensions = array<i64: 32, 4, 1, 1>}> : (tensor<1x1x1x256xbf16>) -> tensor<32x4x1x256xbf16> loc(#loc51)
        %49 = "ttir.multiply"(%43, %48) : (tensor<32x4x1x256xbf16>, tensor<32x4x1x256xbf16>) -> tensor<32x4x1x256xbf16> loc(#loc52)
        %50 = "ttir.add"(%39, %49) : (tensor<32x4x1x256xbf16>, tensor<32x4x1x256xbf16>) -> tensor<32x4x1x256xbf16> loc(#loc53)
        %51 = "ttir.permute"(%50) <{permutation = array<i64: 2, 1, 0, 3>}> : (tensor<32x4x1x256xbf16>) -> tensor<1x4x32x256xbf16> loc(#loc54)
        "ttir.update_cache"(%arg6, %51, %arg0) <{batch_offset = 0 : i32}> : (tensor<32x4x128x256xbf16>, tensor<1x4x32x256xbf16>, tensor<1xi64>) -> () loc(#loc54)
        %52 = "ttir.permute"(%arg7) <{permutation = array<i64: 1, 0>}> : (tensor<1024x2048xbf16>) -> tensor<2048x1024xbf16> loc(#loc55)
        %53 = "ttir.dot_general"(%24, %52) <{batch_dims_lhs = array<i64>, batch_dims_rhs = array<i64>, contract_dims_lhs = array<i64: 1>, contract_dims_rhs = array<i64: 0>}> : (tensor<32x2048xbf16>, tensor<2048x1024xbf16>) -> tensor<32x1024xbf16> loc(#loc56)
        %54 = "ttir.reshape"(%53) <{shape = [32 : i32, 4 : i32, 1 : i32, 256 : i32]}> : (tensor<32x1024xbf16>) -> tensor<32x4x1x256xbf16> loc(#loc57)
        %55 = "ttir.permute"(%54) <{permutation = array<i64: 2, 1, 0, 3>}> : (tensor<32x4x1x256xbf16>) -> tensor<1x4x32x256xbf16> loc(#loc58)
        "ttir.update_cache"(%arg8, %55, %arg0) <{batch_offset = 0 : i32}> : (tensor<32x4x128x256xbf16>, tensor<1x4x32x256xbf16>, tensor<1xi64>) -> () loc(#loc58)
        %56 = "ttir.add"(%arg0, %7) : (tensor<1xi64>, tensor<1xi64>) -> tensor<1xi64> loc(#loc59)
        %57 = "ttir.permute"(%arg15) <{permutation = array<i64: 1, 0>}> : (tensor<2048x2048xbf16>) -> tensor<2048x2048xbf16> loc(#loc60)
        %58 = "ttir.dot_general"(%24, %57) <{batch_dims_lhs = array<i64>, batch_dims_rhs = array<i64>, contract_dims_lhs = array<i64: 1>, contract_dims_rhs = array<i64: 0>}> : (tensor<32x2048xbf16>, tensor<2048x2048xbf16>) -> tensor<32x2048xbf16> loc(#loc61)
        %59 = "ttir.reshape"(%58) <{shape = [32 : i32, 8 : i32, 1 : i32, 256 : i32]}> : (tensor<32x2048xbf16>) -> tensor<32x8x1x256xbf16> loc(#loc62)
        %60 = "ttir.broadcast"(%37) <{broadcast_dimensions = array<i64: 32, 8, 1, 1>}> : (tensor<1x1x1x256xbf16>) -> tensor<32x8x1x256xbf16> loc(#loc63)
        %61 = "ttir.multiply"(%59, %60) : (tensor<32x8x1x256xbf16>, tensor<32x8x1x256xbf16>) -> tensor<32x8x1x256xbf16> loc(#loc64)
        %62 = "ttir.slice_static"(%59) <{begins = [0 : i32, 0 : i32, 0 : i32, 128 : i32], ends = [32 : i32, 8 : i32, 1 : i32, 256 : i32], step = [1 : i32, 1 : i32, 1 : i32, 1 : i32]}> : (tensor<32x8x1x256xbf16>) -> tensor<32x8x1x128xbf16> loc(#loc65)
        %63 = "ttir.neg"(%62) : (tensor<32x8x1x128xbf16>) -> tensor<32x8x1x128xbf16> loc(#loc66)
        %64 = "ttir.slice_static"(%59) <{begins = [0 : i32, 0 : i32, 0 : i32, 0 : i32], ends = [32 : i32, 8 : i32, 1 : i32, 128 : i32], step = [1 : i32, 1 : i32, 1 : i32, 1 : i32]}> : (tensor<32x8x1x256xbf16>) -> tensor<32x8x1x128xbf16> loc(#loc67)
        %65 = "ttir.concat"(%63, %64) <{dim = 3 : si32}> : (tensor<32x8x1x128xbf16>, tensor<32x8x1x128xbf16>) -> tensor<32x8x1x256xbf16> loc(#loc68)
        %66 = "ttir.broadcast"(%47) <{broadcast_dimensions = array<i64: 32, 8, 1, 1>}> : (tensor<1x1x1x256xbf16>) -> tensor<32x8x1x256xbf16> loc(#loc69)
        %67 = "ttir.multiply"(%65, %66) : (tensor<32x8x1x256xbf16>, tensor<32x8x1x256xbf16>) -> tensor<32x8x1x256xbf16> loc(#loc70)
        %68 = "ttir.add"(%61, %67) : (tensor<32x8x1x256xbf16>, tensor<32x8x1x256xbf16>) -> tensor<32x8x1x256xbf16> loc(#loc71)
        %69 = "ttir.typecast"(%68) <{conservative_folding = false}> : (tensor<32x8x1x256xbf16>) -> tensor<32x8x1x256xf32> loc(#loc72)
        %70 = "ttir.multiply"(%69, %6) : (tensor<32x8x1x256xf32>, tensor<32x8x1x256xf32>) -> tensor<32x8x1x256xf32> loc(#loc73)
        %71 = "ttir.reshape"(%arg6) <{shape = [32 : i32, 4 : i32, 1 : i32, 128 : i32, 256 : i32]}> : (tensor<32x4x128x256xbf16>) -> tensor<32x4x1x128x256xbf16> loc(#loc74)
        %72 = "ttir.broadcast"(%71) <{broadcast_dimensions = array<i64: 1, 1, 2, 1, 1>}> : (tensor<32x4x1x128x256xbf16>) -> tensor<32x4x2x128x256xbf16> loc(#loc74)
        %73 = "ttir.reshape"(%72) <{shape = [32 : i32, 8 : i32, 128 : i32, 256 : i32]}> : (tensor<32x4x2x128x256xbf16>) -> tensor<32x8x128x256xbf16> loc(#loc75)
        %74 = "ttir.typecast"(%73) <{conservative_folding = false}> : (tensor<32x8x128x256xbf16>) -> tensor<32x8x128x256xf32> loc(#loc76)
        %75 = "ttir.permute"(%74) <{permutation = array<i64: 0, 1, 3, 2>}> : (tensor<32x8x128x256xf32>) -> tensor<32x8x256x128xf32> loc(#loc77)
        %76 = "ttir.multiply"(%75, %5) : (tensor<32x8x256x128xf32>, tensor<32x8x256x128xf32>) -> tensor<32x8x256x128xf32> loc(#loc78)
        %77 = "ttir.dot_general"(%70, %76) <{batch_dims_lhs = array<i64: 0, 1>, batch_dims_rhs = array<i64: 0, 1>, contract_dims_lhs = array<i64: 3>, contract_dims_rhs = array<i64: 2>}> : (tensor<32x8x1x256xf32>, tensor<32x8x256x128xf32>) -> tensor<32x8x1x128xf32> loc(#loc79)
        %78 = "ttir.reshape"(%10) <{shape = [1 : i32, 1 : i32, 1 : i32, 1 : i32]}> : (tensor<1x1x1xi64>) -> tensor<1x1x1x1xi64> loc(#loc80)
        %79 = "ttir.broadcast"(%78) <{broadcast_dimensions = array<i64: 1, 1, 1, 128>}> : (tensor<1x1x1x1xi64>) -> tensor<1x1x1x128xi64> loc(#loc80)
        %80 = "ttir.le"(%4, %79) : (tensor<1x1x1x128xi64>, tensor<1x1x1x128xi64>) -> tensor<1x1x1x128xi1> loc(#loc81)
        %81 = "ttir.reshape"(%80) <{shape = [1 : i32, 1 : i32, 128 : i32]}> : (tensor<1x1x1x128xi1>) -> tensor<1x1x128xi1> loc(#loc82)
        %82 = "ttir.reshape"(%81) <{shape = [1 : i32, 1 : i32, 1 : i32, 128 : i32]}> : (tensor<1x1x128xi1>) -> tensor<1x1x1x128xi1> loc(#loc83)
        %83 = "ttir.broadcast"(%82) <{broadcast_dimensions = array<i64: 32, 1, 1, 1>}> : (tensor<1x1x1x128xi1>) -> tensor<32x1x1x128xi1> loc(#loc83)
        %84 = "ttir.where"(%83, %3, %2) : (tensor<32x1x1x128xi1>, tensor<32x1x1x128xbf16>, tensor<32x1x1x128xbf16>) -> tensor<32x1x1x128xbf16> loc(#loc84)
        %85 = "ttir.typecast"(%84) <{conservative_folding = false}> : (tensor<32x1x1x128xbf16>) -> tensor<32x1x1x128xf32> loc(#loc85)
        %86 = "ttir.reshape"(%85) <{shape = [32 : i32, 1 : i32, 128 : i32]}> : (tensor<32x1x1x128xf32>) -> tensor<32x1x128xf32> loc(#loc86)
        %87 = "ttir.reshape"(%86) <{shape = [32 : i32, 1 : i32, 1 : i32, 128 : i32]}> : (tensor<32x1x128xf32>) -> tensor<32x1x1x128xf32> loc(#loc87)
        %88 = "ttir.broadcast"(%87) <{broadcast_dimensions = array<i64: 1, 8, 1, 1>}> : (tensor<32x1x1x128xf32>) -> tensor<32x8x1x128xf32> loc(#loc87)
        %89 = "ttir.add"(%77, %88) : (tensor<32x8x1x128xf32>, tensor<32x8x1x128xf32>) -> tensor<32x8x1x128xf32> loc(#loc88)
        %90 = "ttir.typecast"(%89) <{conservative_folding = false}> : (tensor<32x8x1x128xf32>) -> tensor<32x8x1x128xf64> loc(#loc89)
        %91 = "ttir.eq"(%90, %1) : (tensor<32x8x1x128xf64>, tensor<32x8x1x128xf64>) -> tensor<32x8x1x128xi1> loc(#loc90)
        %92 = "ttir.logical_not"(%91) : (tensor<32x8x1x128xi1>) -> tensor<32x8x1x128xi1> loc(#loc91)
        %93 = "ttir.reduce_or"(%92) <{dim_arg = [3 : i32], keep_dim = false}> : (tensor<32x8x1x128xi1>) -> tensor<32x8x1xi1> loc(#loc92)
        %94 = "ttir.reshape"(%93) <{shape = [32 : i32, 8 : i32, 1 : i32, 1 : i32]}> : (tensor<32x8x1xi1>) -> tensor<32x8x1x1xi1> loc(#loc93)
        %95 = "ttir.logical_not"(%94) : (tensor<32x8x1x1xi1>) -> tensor<32x8x1x1xi1> loc(#loc94)
        %96 = "ttir.reshape"(%95) <{shape = [32 : i32, 8 : i32, 1 : i32]}> : (tensor<32x8x1x1xi1>) -> tensor<32x8x1xi1> loc(#loc95)
        %97 = "ttir.reshape"(%96) <{shape = [32 : i32, 8 : i32, 1 : i32, 1 : i32]}> : (tensor<32x8x1xi1>) -> tensor<32x8x1x1xi1> loc(#loc96)
        %98 = "ttir.broadcast"(%97) <{broadcast_dimensions = array<i64: 1, 1, 1, 128>}> : (tensor<32x8x1x1xi1>) -> tensor<32x8x1x128xi1> loc(#loc96)
        %99 = "ttir.max"(%89) <{dim_arg = [3 : i32], keep_dim = false}> : (tensor<32x8x1x128xf32>) -> tensor<32x8x1xf32> loc(#loc97)
        %100 = "ttir.reshape"(%99) <{shape = [32 : i32, 8 : i32, 1 : i32, 1 : i32]}> : (tensor<32x8x1xf32>) -> tensor<32x8x1x1xf32> loc(#loc98)
        %101 = "ttir.broadcast"(%100) <{broadcast_dimensions = array<i64: 1, 1, 1, 128>}> : (tensor<32x8x1x1xf32>) -> tensor<32x8x1x128xf32> loc(#loc98)
        %102 = "ttir.subtract"(%89, %101) : (tensor<32x8x1x128xf32>, tensor<32x8x1x128xf32>) -> tensor<32x8x1x128xf32> loc(#loc99)
        %103 = "ttir.exp"(%102) : (tensor<32x8x1x128xf32>) -> tensor<32x8x1x128xf32> loc(#loc100)
        %104 = "ttir.sum"(%103) <{dim_arg = [3 : i32], keep_dim = false}> : (tensor<32x8x1x128xf32>) -> tensor<32x8x1xf32> loc(#loc101)
        %105 = "ttir.reshape"(%104) <{shape = [32 : i32, 8 : i32, 1 : i32, 1 : i32]}> : (tensor<32x8x1xf32>) -> tensor<32x8x1x1xf32> loc(#loc102)
        %106 = "ttir.broadcast"(%105) <{broadcast_dimensions = array<i64: 1, 1, 1, 128>}> : (tensor<32x8x1x1xf32>) -> tensor<32x8x1x128xf32> loc(#loc102)
        %107 = "ttir.div"(%103, %106) : (tensor<32x8x1x128xf32>, tensor<32x8x1x128xf32>) -> tensor<32x8x1x128xf32> loc(#loc103)
        %108 = "ttir.where"(%98, %0, %107) : (tensor<32x8x1x128xi1>, tensor<32x8x1x128xf32>, tensor<32x8x1x128xf32>) -> tensor<32x8x1x128xf32> loc(#loc104)
        %109 = "ttir.reshape"(%arg8) <{shape = [32 : i32, 4 : i32, 1 : i32, 128 : i32, 256 : i32]}> : (tensor<32x4x128x256xbf16>) -> tensor<32x4x1x128x256xbf16> loc(#loc105)
        %110 = "ttir.broadcast"(%109) <{broadcast_dimensions = array<i64: 1, 1, 2, 1, 1>}> : (tensor<32x4x1x128x256xbf16>) -> tensor<32x4x2x128x256xbf16> loc(#loc105)
        %111 = "ttir.reshape"(%110) <{shape = [32 : i32, 8 : i32, 128 : i32, 256 : i32]}> : (tensor<32x4x2x128x256xbf16>) -> tensor<32x8x128x256xbf16> loc(#loc106)
        %112 = "ttir.typecast"(%111) <{conservative_folding = false}> : (tensor<32x8x128x256xbf16>) -> tensor<32x8x128x256xf32> loc(#loc107)
        %113 = "ttir.dot_general"(%108, %112) <{batch_dims_lhs = array<i64: 0, 1>, batch_dims_rhs = array<i64: 0, 1>, contract_dims_lhs = array<i64: 3>, contract_dims_rhs = array<i64: 2>}> : (tensor<32x8x1x128xf32>, tensor<32x8x128x256xf32>) -> tensor<32x8x1x256xf32> loc(#loc108)
        %114 = "ttir.typecast"(%113) <{conservative_folding = false}> : (tensor<32x8x1x256xf32>) -> tensor<32x8x1x256xbf16> loc(#loc109)
        %115 = "ttir.reshape"(%114) <{shape = [32 : i32, 2048 : i32]}> : (tensor<32x8x1x256xbf16>) -> tensor<32x2048xbf16> loc(#loc110)
        %116 = "ttir.permute"(%arg14) <{permutation = array<i64: 1, 0>}> : (tensor<2048x2048xbf16>) -> tensor<2048x2048xbf16> loc(#loc111)
        %117 = "ttir.dot_general"(%115, %116) <{batch_dims_lhs = array<i64>, batch_dims_rhs = array<i64>, contract_dims_lhs = array<i64: 1>, contract_dims_rhs = array<i64: 0>}> : (tensor<32x2048xbf16>, tensor<2048x2048xbf16>) -> tensor<32x2048xbf16> loc(#loc112)
        %118 = "ttir.reshape"(%117) <{shape = [32 : i32, 1 : i32, 2048 : i32]}> : (tensor<32x2048xbf16>) -> tensor<32x1x2048xbf16> loc(#loc113)
        %119 = "ttir.add"(%22, %118) : (tensor<32x1x2048xbf16>, tensor<32x1x2048xbf16>) -> tensor<32x1x2048xbf16> loc(#loc114)
        %120 = "ttir.rms_norm"(%119, %arg13) <{epsilon = 9.99999997E-7 : f32, normalized_shape = array<i64: 2048>, operandSegmentSizes = array<i32: 1, 1, 0>}> : (tensor<32x1x2048xbf16>, tensor<2048xbf16>) -> tensor<32x1x2048xbf16> loc(#loc115)
        %121 = "ttir.reshape"(%120) <{shape = [32 : i32, 2048 : i32]}> : (tensor<32x1x2048xbf16>) -> tensor<32x2048xbf16> loc(#loc116)
        %122 = "ttir.permute"(%arg16) <{permutation = array<i64: 1, 0>}> : (tensor<8192x2048xbf16>) -> tensor<2048x8192xbf16> loc(#loc117)
        %123 = "ttir.dot_general"(%121, %122) <{batch_dims_lhs = array<i64>, batch_dims_rhs = array<i64>, contract_dims_lhs = array<i64: 1>, contract_dims_rhs = array<i64: 0>}> : (tensor<32x2048xbf16>, tensor<2048x8192xbf16>) -> tensor<32x8192xbf16> loc(#loc118)
        %124 = "ttir.reshape"(%123) <{shape = [32 : i32, 1 : i32, 8192 : i32]}> : (tensor<32x8192xbf16>) -> tensor<32x1x8192xbf16> loc(#loc119)
        %125 = "ttir.typecast"(%124) <{conservative_folding = false}> : (tensor<32x1x8192xbf16>) -> tensor<32x1x8192xf32> loc(#loc120)
        %126 = "ttir.sigmoid"(%125) : (tensor<32x1x8192xf32>) -> tensor<32x1x8192xf32> loc(#loc121)
        %127 = "ttir.multiply"(%125, %126) : (tensor<32x1x8192xf32>, tensor<32x1x8192xf32>) -> tensor<32x1x8192xf32> loc(#loc122)
        %128 = "ttir.typecast"(%127) <{conservative_folding = false}> : (tensor<32x1x8192xf32>) -> tensor<32x1x8192xbf16> loc(#loc123)
        %129 = "ttir.permute"(%arg12) <{permutation = array<i64: 1, 0>}> : (tensor<8192x2048xbf16>) -> tensor<2048x8192xbf16> loc(#loc124)
        %130 = "ttir.dot_general"(%121, %129) <{batch_dims_lhs = array<i64>, batch_dims_rhs = array<i64>, contract_dims_lhs = array<i64: 1>, contract_dims_rhs = array<i64: 0>}> : (tensor<32x2048xbf16>, tensor<2048x8192xbf16>) -> tensor<32x8192xbf16> loc(#loc125)
        %131 = "ttir.reshape"(%130) <{shape = [32 : i32, 1 : i32, 8192 : i32]}> : (tensor<32x8192xbf16>) -> tensor<32x1x8192xbf16> loc(#loc126)
        %132 = "ttir.multiply"(%128, %131) : (tensor<32x1x8192xbf16>, tensor<32x1x8192xbf16>) -> tensor<32x1x8192xbf16> loc(#loc127)
        %133 = "ttir.reshape"(%132) <{shape = [32 : i32, 8192 : i32]}> : (tensor<32x1x8192xbf16>) -> tensor<32x8192xbf16> loc(#loc128)
        %134 = "ttir.permute"(%arg11) <{permutation = array<i64: 1, 0>}> : (tensor<2048x8192xbf16>) -> tensor<8192x2048xbf16> loc(#loc129)
        %135 = "ttir.dot_general"(%133, %134) <{batch_dims_lhs = array<i64>, batch_dims_rhs = array<i64>, contract_dims_lhs = array<i64: 1>, contract_dims_rhs = array<i64: 0>}> : (tensor<32x8192xbf16>, tensor<8192x2048xbf16>) -> tensor<32x2048xbf16> loc(#loc130)
        %136 = "ttir.reshape"(%135) <{shape = [32 : i32, 1 : i32, 2048 : i32]}> : (tensor<32x2048xbf16>) -> tensor<32x1x2048xbf16> loc(#loc131)
        %137 = "ttir.add"(%119, %136) : (tensor<32x1x2048xbf16>, tensor<32x1x2048xbf16>) -> tensor<32x1x2048xbf16> loc(#loc132)
        %138 = "ttir.rms_norm"(%137, %arg10) <{epsilon = 9.99999997E-7 : f32, normalized_shape = array<i64: 2048>, operandSegmentSizes = array<i32: 1, 1, 0>}> : (tensor<32x1x2048xbf16>, tensor<2048xbf16>) -> tensor<32x1x2048xbf16> loc(#loc133)
        %139 = "ttir.reshape"(%138) <{shape = [32 : i32, 2048 : i32]}> : (tensor<32x1x2048xbf16>) -> tensor<32x2048xbf16> loc(#loc134)
        %140 = "ttir.permute"(%arg9) <{permutation = array<i64: 1, 0>}> : (tensor<131072x2048xbf16>) -> tensor<2048x131072xbf16> loc(#loc135)
        %141 = "ttir.dot_general"(%139, %140) <{batch_dims_lhs = array<i64>, batch_dims_rhs = array<i64>, contract_dims_lhs = array<i64: 1>, contract_dims_rhs = array<i64: 0>}> : (tensor<32x2048xbf16>, tensor<2048x131072xbf16>) -> tensor<32x131072xbf16> loc(#loc136)
        %142 = "ttir.arange"() <{arange_dimension = 0 : i64, end = 131072 : si64, start = 0 : si64, step = 1 : si64}> : () -> tensor<131072xi32> loc(#loc137)
        %143 = "ttir.reshape"(%142) <{shape = [1 : i32, 131072 : i32]}> : (tensor<131072xi32>) -> tensor<1x131072xi32> loc(#loc137)
        %144 = "ttir.argmax"(%141) <{dim_arg = [1 : i32], keep_dim = false}> : (tensor<32x131072xbf16>) -> tensor<32xi32> loc(#loc138)
        %145 = "ttir.typecast"(%144) <{conservative_folding = false}> : (tensor<32xi32>) -> tensor<32xi64> loc(#loc139)
        %146 = "ttir.reshape"(%145) <{shape = [32 : i32, 1 : i32]}> : (tensor<32xi64>) -> tensor<32x1xi64> loc(#loc140)
        return %arg6, %arg8, %56, %146 : tensor<32x4x128x256xbf16>, tensor<32x4x128x256xbf16>, tensor<1xi64>, tensor<32x1xi64> loc(#loc)
      } loc(#loc)
    } loc(#loc)
  } loc(#loc)
} loc(#loc)
#loc = loc(unknown)
#loc18 = loc("reshape.4")
#loc19 = loc("compare.126")
#loc20 = loc("add.123")
#loc21 = loc("select.127")
#loc22 = loc("reshape.52")
#loc23 = loc("reshape.49")
#loc24 = loc("convert.60")
#loc25 = loc("gather.61")
#loc26 = loc("reshape.62")
#loc27 = loc("custom-call.95")
#loc28 = loc("reshape.96")
#loc29 = loc("transpose.35")
#loc30 = loc("dot.97")
#loc31 = loc("transpose.100")
#loc32 = loc("reshape.16")
#loc33 = loc("reshape.12")
#loc34 = loc("convert.17")
#loc35 = loc("convert.9")
#loc36 = loc("dot.20")
#loc37 = loc("transpose.21")
#loc38 = loc("concatenate.22")
#loc39 = loc("cosine.109")
#loc40 = loc("convert.112")
#loc41 = loc("reshape.114")
#loc42 = loc("broadcast.115")
#loc43 = loc("multiply.116")
#loc44 = loc("slice.102")
#loc45 = loc("negate.103")
#loc46 = loc("slice.101")
#loc47 = loc("concatenate.104")
#loc48 = loc("sine.23")
#loc49 = loc("convert.26")
#loc50 = loc("reshape.105")
#loc51 = loc("broadcast.106")
#loc52 = loc("multiply.107")
#loc53 = loc("add.119")
#loc54 = loc("scatter.136")
#loc55 = loc("transpose.145")
#loc56 = loc("dot.147")
#loc57 = loc("transpose.150")
#loc58 = loc("scatter.167")
#loc59 = loc("add.174")
#loc60 = loc("transpose.291")
#loc61 = loc("dot.293")
#loc62 = loc("transpose.296")
#loc63 = loc("broadcast.305")
#loc64 = loc("multiply.306")
#loc65 = loc("slice.298")
#loc66 = loc("negate.299")
#loc67 = loc("slice.297")
#loc68 = loc("concatenate.300")
#loc69 = loc("broadcast.302")
#loc70 = loc("multiply.303")
#loc71 = loc("add.309")
#loc72 = loc("convert.310")
#loc73 = loc("multiply.312")
#loc74 = loc("broadcast.276")
#loc75 = loc("reshape.277")
#loc76 = loc("convert.278")
#loc77 = loc("transpose.279")
#loc78 = loc("multiply.281")
#loc79 = loc("dot.313")
#loc80 = loc("broadcast.265")
#loc81 = loc("compare.266")
#loc82 = loc("reshape.268")
#loc83 = loc("broadcast.269")
#loc84 = loc("select.271")
#loc85 = loc("convert.315")
#loc86 = loc("reshape.318")
#loc87 = loc("broadcast.319")
#loc88 = loc("add.320")
#loc89 = loc("convert.346")
#loc90 = loc("compare.348")
#loc91 = loc("not.350")
#loc92 = loc("reduce.362")
#loc93 = loc("reshape.366")
#loc94 = loc("not.368")
#loc95 = loc("reshape.370")
#loc96 = loc("broadcast.371")
#loc97 = loc("reduce.326")
#loc98 = loc("broadcast.327")
#loc99 = loc("subtract.328")
#loc100 = loc("exponential.329")
#loc101 = loc("reduce.335")
#loc102 = loc("broadcast.336")
#loc103 = loc("divide.337")
#loc104 = loc("select.372")
#loc105 = loc("broadcast.236")
#loc106 = loc("reshape.237")
#loc107 = loc("convert.238")
#loc108 = loc("dot.373")
#loc109 = loc("convert.375")
#loc110 = loc("reshape.378")
#loc111 = loc("transpose.232")
#loc112 = loc("dot.379")
#loc113 = loc("reshape.380")
#loc114 = loc("add.383")
#loc115 = loc("custom-call.416")
#loc116 = loc("reshape.428")
#loc117 = loc("transpose.427")
#loc118 = loc("dot.429")
#loc119 = loc("reshape.430")
#loc120 = loc("convert.431")
#loc121 = loc("logistic.432")
#loc122 = loc("multiply.433")
#loc123 = loc("convert.434")
#loc124 = loc("transpose.211")
#loc125 = loc("dot.418")
#loc126 = loc("reshape.419")
#loc127 = loc("multiply.435")
#loc128 = loc("reshape.436")
#loc129 = loc("transpose.203")
#loc130 = loc("dot.437")
#loc131 = loc("reshape.438")
#loc132 = loc("add.441")
#loc133 = loc("custom-call.474")
#loc134 = loc("reshape.475")
#loc135 = loc("transpose.182")
#loc136 = loc("dot.476")
#loc137 = loc("iota.482")
#loc138 = loc("reduce.507")
#loc139 = loc("convert.509")
#loc140 = loc("reshape.510")
#loc141 = loc(fused[#loc22, #loc23])
#loc142 = loc("gather.61_permuteInput"(#loc25))
#loc143 = loc("gather.61_reshapeInput"(#loc25))
#loc144 = loc("gather.61_reshapeStartIndices"(#loc25))
#loc145 = loc("gather.61_reshapeOutput"(#loc25))
#loc146 = loc("gather.61_permuteOutput"(#loc25))
#loc147 = loc(fused[#loc32, #loc33])
