#loc1 = loc("p0.3")
#loc2 = loc("p1.11")
#loc3 = loc("p2.28")
#loc4 = loc("p3.35")
#loc5 = loc("p4.46")
#loc6 = loc("p5.50")
#loc7 = loc("p6.55")
#loc8 = loc("p7.129")
#loc9 = loc("p8.137")
#loc10 = loc("p9.157")
#loc11 = loc("p10.173")
#loc12 = loc("p11.180")
#loc13 = loc("p12.194")
#loc14 = loc("p13.205")
#loc15 = loc("p14.210")
#loc16 = loc("p15.217")
#loc17 = loc("p16.231")
#loc18 = loc("p17.242")
#loc19 = loc("p18.287")
#loc20 = loc("p19.319")
#loc21 = loc("p20.483")
module @SyncTensorsGraph.620 attributes {mhlo.cross_program_prefetches = [], mhlo.input_output_alias = [], mhlo.is_dynamic = false, mhlo.use_auto_spmd_partitioning = false, ttcore.meshes = #ttcore.meshes<[<"mesh" = 1x1>]>} {
  ttcore.device_module {
    builtin.module @SyncTensorsGraph.620 attributes {mhlo.cross_program_prefetches = [], mhlo.input_output_alias = [], mhlo.is_dynamic = false, mhlo.use_auto_spmd_partitioning = false, ttcore.meshes = #ttcore.meshes<[<"mesh" = 1x1>]>} {
      func.func @main(%arg0: tensor<1xi64> {ttcore.argument_type = #ttcore.argument_type<input>, ttcore.local_shape = #ttcore<local_shape local_shape = tensor<1xi64>>, ttcore.shard_status = #ttcore.shard_status<unsharded>, ttir.name = "args_1"} loc("p0.3"), %arg1: tensor<128xbf16> {ttcore.argument_type = #ttcore.argument_type<constant>, ttcore.local_shape = #ttcore<local_shape local_shape = tensor<128xbf16>>, ttcore.shard_status = #ttcore.shard_status<unsharded>, ttir.name = "L__self___model_model_rotary_emb_inv_freq"} loc("p1.11"), %arg2: tensor<1024x2304xbf16> {ttcore.argument_type = #ttcore.argument_type<parameter>, ttcore.local_shape = #ttcore<local_shape local_shape = tensor<1024x2304xbf16>>, ttcore.shard_status = #ttcore.shard_status<unsharded>, ttir.name = "L__self___model_model_layers__modules__0___self_attn_k_proj.weight"} loc("p2.28"), %arg3: tensor<2304xbf16> {ttcore.argument_type = #ttcore.argument_type<parameter>, ttcore.local_shape = #ttcore<local_shape local_shape = tensor<2304xbf16>>, ttcore.shard_status = #ttcore.shard_status<unsharded>, ttir.name = "L__self___model_model_layers__modules__0___input_layernorm_weight"} loc("p3.35"), %arg4: tensor<bf16> {ttcore.argument_type = #ttcore.argument_type<constant>, ttcore.local_shape = #ttcore<local_shape local_shape = tensor<bf16>>, ttcore.shard_status = #ttcore.shard_status<unsharded>, ttir.name = "L['self'].model.model.lifted_tensor_0"} loc("p4.46"), %arg5: tensor<32x1xi64> {ttcore.argument_type = #ttcore.argument_type<input>, ttcore.local_shape = #ttcore<local_shape local_shape = tensor<32x1xi64>>, ttcore.shard_status = #ttcore.shard_status<unsharded>, ttir.name = "args_0"} loc("p5.50"), %arg6: tensor<256000x2304xbf16> {ttcore.argument_type = #ttcore.argument_type<parameter>, ttcore.local_shape = #ttcore<local_shape local_shape = tensor<256000x2304xbf16>>, ttcore.shard_status = #ttcore.shard_status<unsharded>, ttir.name = "L__self___model_model_embed_tokens.weight"} loc("p6.55"), %arg7: tensor<32x4x128x256xbf16> {ttcore.argument_type = #ttcore.argument_type<input>, ttcore.local_shape = #ttcore<local_shape local_shape = tensor<32x4x128x256xbf16>>, ttcore.shard_status = #ttcore.shard_status<unsharded>, ttir.name = "args_2"} loc("p7.129"), %arg8: tensor<1024x2304xbf16> {ttcore.argument_type = #ttcore.argument_type<parameter>, ttcore.local_shape = #ttcore<local_shape local_shape = tensor<1024x2304xbf16>>, ttcore.shard_status = #ttcore.shard_status<unsharded>, ttir.name = "L__self___model_model_layers__modules__0___self_attn_v_proj.weight"} loc("p8.137"), %arg9: tensor<32x4x128x256xbf16> {ttcore.argument_type = #ttcore.argument_type<input>, ttcore.local_shape = #ttcore<local_shape local_shape = tensor<32x4x128x256xbf16>>, ttcore.shard_status = #ttcore.shard_status<unsharded>, ttir.name = "args_3"} loc("p9.157"), %arg10: tensor<256000x2304xbf16> {ttcore.argument_type = #ttcore.argument_type<parameter>, ttcore.local_shape = #ttcore<local_shape local_shape = tensor<256000x2304xbf16>>, ttcore.shard_status = #ttcore.shard_status<unsharded>, ttir.name = "L__self___model_lm_head.weight"} loc("p10.173"), %arg11: tensor<2304xbf16> {ttcore.argument_type = #ttcore.argument_type<parameter>, ttcore.local_shape = #ttcore<local_shape local_shape = tensor<2304xbf16>>, ttcore.shard_status = #ttcore.shard_status<unsharded>, ttir.name = "L__self___model_model_norm_weight"} loc("p11.180"), %arg12: tensor<2304xbf16> {ttcore.argument_type = #ttcore.argument_type<parameter>, ttcore.local_shape = #ttcore<local_shape local_shape = tensor<2304xbf16>>, ttcore.shard_status = #ttcore.shard_status<unsharded>, ttir.name = "L__self___model_model_layers__modules__0___post_feedforward_layernorm_weight"} loc("p12.194"), %arg13: tensor<2304x9216xbf16> {ttcore.argument_type = #ttcore.argument_type<parameter>, ttcore.local_shape = #ttcore<local_shape local_shape = tensor<2304x9216xbf16>>, ttcore.shard_status = #ttcore.shard_status<unsharded>, ttir.name = "L__self___model_model_layers__modules__0___mlp_down_proj.weight"} loc("p13.205"), %arg14: tensor<9216x2304xbf16> {ttcore.argument_type = #ttcore.argument_type<parameter>, ttcore.local_shape = #ttcore<local_shape local_shape = tensor<9216x2304xbf16>>, ttcore.shard_status = #ttcore.shard_status<unsharded>, ttir.name = "L__self___model_model_layers__modules__0___mlp_up_proj.weight"} loc("p14.210"), %arg15: tensor<2304xbf16> {ttcore.argument_type = #ttcore.argument_type<parameter>, ttcore.local_shape = #ttcore<local_shape local_shape = tensor<2304xbf16>>, ttcore.shard_status = #ttcore.shard_status<unsharded>, ttir.name = "L__self___model_model_layers__modules__0___pre_feedforward_layernorm_weight"} loc("p15.217"), %arg16: tensor<2304xbf16> {ttcore.argument_type = #ttcore.argument_type<parameter>, ttcore.local_shape = #ttcore<local_shape local_shape = tensor<2304xbf16>>, ttcore.shard_status = #ttcore.shard_status<unsharded>, ttir.name = "L__self___model_model_layers__modules__0___post_attention_layernorm_weight"} loc("p16.231"), %arg17: tensor<2304x2048xbf16> {ttcore.argument_type = #ttcore.argument_type<parameter>, ttcore.local_shape = #ttcore<local_shape local_shape = tensor<2304x2048xbf16>>, ttcore.shard_status = #ttcore.shard_status<unsharded>, ttir.name = "L__self___model_model_layers__modules__0___self_attn_o_proj.weight"} loc("p17.242"), %arg18: tensor<i1> {ttcore.argument_type = #ttcore.argument_type<input>, ttcore.local_shape = #ttcore<local_shape local_shape = tensor<i1>>, ttcore.shard_status = #ttcore.shard_status<unsharded>} loc("p18.287"), %arg19: tensor<2048x2304xbf16> {ttcore.argument_type = #ttcore.argument_type<parameter>, ttcore.local_shape = #ttcore<local_shape local_shape = tensor<2048x2304xbf16>>, ttcore.shard_status = #ttcore.shard_status<unsharded>, ttir.name = "L__self___model_model_layers__modules__0___self_attn_q_proj.weight"} loc("p19.319"), %arg20: tensor<9216x2304xbf16> {ttcore.argument_type = #ttcore.argument_type<parameter>, ttcore.local_shape = #ttcore<local_shape local_shape = tensor<9216x2304xbf16>>, ttcore.shard_status = #ttcore.shard_status<unsharded>, ttir.name = "L__self___model_model_layers__modules__0___mlp_gate_proj.weight"} loc("p20.483")) -> (tensor<32x4x128x256xbf16> {ttcore.local_shape = #ttcore<local_shape local_shape = tensor<32x4x128x256xbf16>>, ttcore.shard_status = #ttcore.shard_status<presharded>}, tensor<32x4x128x256xbf16> {ttcore.local_shape = #ttcore<local_shape local_shape = tensor<32x4x128x256xbf16>>, ttcore.shard_status = #ttcore.shard_status<presharded>}, tensor<1xi64> {ttcore.local_shape = #ttcore<local_shape local_shape = tensor<1xi64>>, ttcore.shard_status = #ttcore.shard_status<presharded>}, tensor<32x1x256000xbf16> {ttcore.local_shape = #ttcore<local_shape local_shape = tensor<32x1x256000xbf16>>, ttcore.shard_status = #ttcore.shard_status<presharded>}, tensor<32x1xi64> {ttcore.local_shape = #ttcore<local_shape local_shape = tensor<32x1xi64>>, ttcore.shard_status = #ttcore.shard_status<presharded>}) {
        %0 = "ttir.constant"() <{value = dense<"…"> : tensor<1x128xi64>}> : () -> tensor<1x128xi64> loc(#loc)
        %1 = "ttir.constant"() <{value = dense<3.000000e+01> : tensor<32x1x256000xbf16>}> : () -> tensor<32x1x256000xbf16> loc(#loc)
        %2 = "ttir.constant"() <{value = dense<0.000000e+00> : tensor<32x8x1x128xf32>}> : () -> tensor<32x8x1x128xf32> loc(#loc)
        %3 = "ttir.constant"() <{value = dense<0xFFF0000000000000> : tensor<32x8x1x128xf64>}> : () -> tensor<32x8x1x128xf64> loc(#loc)
        %4 = "ttir.constant"() <{value = dense<0xFF80> : tensor<32x1x1x128xbf16>}> : () -> tensor<32x1x1x128xbf16> loc(#loc)
        %5 = "ttir.constant"() <{value = dense<0.000000e+00> : tensor<32x1x1x128xbf16>}> : () -> tensor<32x1x1x128xbf16> loc(#loc)
        %6 = "ttir.constant"() <{value = dense<4096> : tensor<1xi64>}> : () -> tensor<1xi64> loc(#loc)
        %7 = "ttir.constant"() <{value = dense<2.500000e-01> : tensor<32x8x256x128xf32>}> : () -> tensor<32x8x256x128xf32> loc(#loc)
        %8 = "ttir.constant"() <{value = dense<2.500000e-01> : tensor<32x8x1x256xf32>}> : () -> tensor<32x8x1x256xf32> loc(#loc)
        %9 = "ttir.constant"() <{value = dense<1> : tensor<1xi64>}> : () -> tensor<1xi64> loc(#loc)
        %10 = "ttir.constant"() <{value = dense<1.000000e+00> : tensor<2304xf32>}> : () -> tensor<2304xf32> loc(#loc)
        %11 = "ttir.constant"() <{value = dense<9.99999997E-7> : tensor<32x1x1xf32>}> : () -> tensor<32x1x1xf32> loc(#loc)
        %12 = "ttir.constant"() <{value = dense<4.34027781E-4> : tensor<32x1xf32>}> : () -> tensor<32x1xf32> loc(#loc)
        %13 = "ttir.constant"() <{value = dense<2.000000e+00> : tensor<32x1x2304xf32>}> : () -> tensor<32x1x2304xf32> loc(#loc)
        %14 = "ttir.constant"() <{value = dense<128> : tensor<1xi64>}> : () -> tensor<1xi64> loc(#loc)
        %15 = "ttir.constant"() <{value = dense<0> : tensor<1xi64>}> : () -> tensor<1xi64> loc(#loc)
        %16 = "ttir.reshape"(%arg0) <{shape = [1 : i32, 1 : i32, 1 : i32]}> : (tensor<1xi64>) -> tensor<1x1x1xi64> loc(#loc22)
        %17 = "ttir.reshape"(%16) <{shape = [1 : i32]}> : (tensor<1x1x1xi64>) -> tensor<1xi64> loc(#loc23)
        %18 = "ttir.lt"(%17, %15) : (tensor<1xi64>, tensor<1xi64>) -> tensor<1xi1> loc(#loc24)
        %19 = "ttir.add"(%17, %14) : (tensor<1xi64>, tensor<1xi64>) -> tensor<1xi64> loc(#loc25)
        %20 = "ttir.where"(%18, %19, %17) : (tensor<1xi1>, tensor<1xi64>, tensor<1xi64>) -> tensor<1xi64> loc(#loc26)
        %21 = "ttir.reshape"(%arg6) <{shape = [1 : i32, 256000 : i32, 2304 : i32]}> : (tensor<256000x2304xbf16>) -> tensor<1x256000x2304xbf16> loc(#loc27)
        %22 = "ttir.reshape"(%21) <{shape = [256000 : i32, 2304 : i32]}> : (tensor<1x256000x2304xbf16>) -> tensor<256000x2304xbf16> loc(#loc28)
        %23 = "ttir.reshape"(%arg5) <{shape = [1 : i32, 32 : i32, 1 : i32]}> : (tensor<32x1xi64>) -> tensor<1x32x1xi64> loc(#loc29)
        %24 = "ttir.reshape"(%23) <{shape = [32 : i32]}> : (tensor<1x32x1xi64>) -> tensor<32xi64> loc(#loc30)
        %25 = "ttir.typecast"(%24) <{conservative_folding = false}> : (tensor<32xi64>) -> tensor<32xui32> loc(#loc31)
        %26 = "ttir.permute"(%22) <{permutation = array<i64: 0, 1>}> : (tensor<256000x2304xbf16>) -> tensor<256000x2304xbf16> loc(#loc259)
        %27 = "ttir.reshape"(%26) <{shape = [256000 : i32, 2304 : i32]}> : (tensor<256000x2304xbf16>) -> tensor<256000x2304xbf16> loc(#loc260)
        %28 = "ttir.reshape"(%25) <{shape = [1 : i32, 32 : i32]}> : (tensor<32xui32>) -> tensor<1x32xui32> loc(#loc261)
        %29 = "ttir.embedding"(%28, %27) : (tensor<1x32xui32>, tensor<256000x2304xbf16>) -> tensor<1x32x2304xbf16> loc(#loc32)
        %30 = "ttir.reshape"(%29) <{shape = [32 : i32, 2304 : i32]}> : (tensor<1x32x2304xbf16>) -> tensor<32x2304xbf16> loc(#loc262)
        %31 = "ttir.permute"(%30) <{permutation = array<i64: 0, 1>}> : (tensor<32x2304xbf16>) -> tensor<32x2304xbf16> loc(#loc263)
        %32 = "ttir.reshape"(%31) <{shape = [32 : i32, 1 : i32, 2304 : i32]}> : (tensor<32x2304xbf16>) -> tensor<32x1x2304xbf16> loc(#loc33)
        %33 = "ttir.reshape"(%arg4) <{shape = [1 : i32, 1 : i32, 1 : i32]}> : (tensor<bf16>) -> tensor<1x1x1xbf16> loc(#loc34)
        %34 = "ttir.reshape"(%33) <{shape = []}> : (tensor<1x1x1xbf16>) -> tensor<bf16> loc(#loc35)
        %35 = "ttir.reshape"(%34) <{shape = [1 : i32, 1 : i32, 1 : i32]}> : (tensor<bf16>) -> tensor<1x1x1xbf16> loc(#loc36)
        %36 = "ttir.broadcast"(%35) <{broadcast_dimensions = array<i64: 32, 1, 2304>}> : (tensor<1x1x1xbf16>) -> tensor<32x1x2304xbf16> loc(#loc36)
        %37 = "ttir.multiply"(%32, %36) : (tensor<32x1x2304xbf16>, tensor<32x1x2304xbf16>) -> tensor<32x1x2304xbf16> loc(#loc37)
        %38 = "ttir.typecast"(%37) <{conservative_folding = false}> : (tensor<32x1x2304xbf16>) -> tensor<32x1x2304xf32> loc(#loc38)
        %39 = "ttir.pow"(%38, %13) : (tensor<32x1x2304xf32>, tensor<32x1x2304xf32>) -> tensor<32x1x2304xf32> loc(#loc39)
        %40 = "ttir.sum"(%39) <{dim_arg = [2 : i32], keep_dim = false}> : (tensor<32x1x2304xf32>) -> tensor<32x1xf32> loc(#loc40)
        %41 = "ttir.multiply"(%40, %12) : (tensor<32x1xf32>, tensor<32x1xf32>) -> tensor<32x1xf32> loc(#loc41)
        %42 = "ttir.reshape"(%41) <{shape = [32 : i32, 1 : i32, 1 : i32]}> : (tensor<32x1xf32>) -> tensor<32x1x1xf32> loc(#loc42)
        %43 = "ttir.add"(%42, %11) : (tensor<32x1x1xf32>, tensor<32x1x1xf32>) -> tensor<32x1x1xf32> loc(#loc43)
        %44 = "ttir.rsqrt"(%43) : (tensor<32x1x1xf32>) -> tensor<32x1x1xf32> loc(#loc44)
        %45 = "ttir.reshape"(%44) <{shape = [32 : i32, 1 : i32]}> : (tensor<32x1x1xf32>) -> tensor<32x1xf32> loc(#loc45)
        %46 = "ttir.reshape"(%45) <{shape = [32 : i32, 1 : i32, 1 : i32]}> : (tensor<32x1xf32>) -> tensor<32x1x1xf32> loc(#loc46)
        %47 = "ttir.broadcast"(%46) <{broadcast_dimensions = array<i64: 1, 1, 2304>}> : (tensor<32x1x1xf32>) -> tensor<32x1x2304xf32> loc(#loc46)
        %48 = "ttir.multiply"(%38, %47) : (tensor<32x1x2304xf32>, tensor<32x1x2304xf32>) -> tensor<32x1x2304xf32> loc(#loc47)
        %49 = "ttir.reshape"(%arg3) <{shape = [1 : i32, 1 : i32, 2304 : i32]}> : (tensor<2304xbf16>) -> tensor<1x1x2304xbf16> loc(#loc48)
        %50 = "ttir.reshape"(%49) <{shape = [2304 : i32]}> : (tensor<1x1x2304xbf16>) -> tensor<2304xbf16> loc(#loc49)
        %51 = "ttir.typecast"(%50) <{conservative_folding = false}> : (tensor<2304xbf16>) -> tensor<2304xf32> loc(#loc50)
        %52 = "ttir.add"(%51, %10) : (tensor<2304xf32>, tensor<2304xf32>) -> tensor<2304xf32> loc(#loc51)
        %53 = "ttir.reshape"(%52) <{shape = [1 : i32, 1 : i32, 2304 : i32]}> : (tensor<2304xf32>) -> tensor<1x1x2304xf32> loc(#loc52)
        %54 = "ttir.broadcast"(%53) <{broadcast_dimensions = array<i64: 32, 1, 1>}> : (tensor<1x1x2304xf32>) -> tensor<32x1x2304xf32> loc(#loc52)
        %55 = "ttir.multiply"(%48, %54) : (tensor<32x1x2304xf32>, tensor<32x1x2304xf32>) -> tensor<32x1x2304xf32> loc(#loc53)
        %56 = "ttir.typecast"(%55) <{conservative_folding = false}> : (tensor<32x1x2304xf32>) -> tensor<32x1x2304xbf16> loc(#loc54)
        %57 = "ttir.reshape"(%56) <{shape = [32 : i32, 2304 : i32]}> : (tensor<32x1x2304xbf16>) -> tensor<32x2304xbf16> loc(#loc55)
        %58 = "ttir.reshape"(%arg2) <{shape = [1 : i32, 1024 : i32, 2304 : i32]}> : (tensor<1024x2304xbf16>) -> tensor<1x1024x2304xbf16> loc(#loc56)
        %59 = "ttir.reshape"(%58) <{shape = [1024 : i32, 2304 : i32]}> : (tensor<1x1024x2304xbf16>) -> tensor<1024x2304xbf16> loc(#loc57)
        %60 = "ttir.permute"(%59) <{permutation = array<i64: 1, 0>}> : (tensor<1024x2304xbf16>) -> tensor<2304x1024xbf16> loc(#loc58)
        %61 = "ttir.dot_general"(%57, %60) <{batch_dims_lhs = array<i64>, batch_dims_rhs = array<i64>, contract_dims_lhs = array<i64: 1>, contract_dims_rhs = array<i64: 0>}> : (tensor<32x2304xbf16>, tensor<2304x1024xbf16>) -> tensor<32x1024xbf16> loc(#loc59)
        %62 = "ttir.reshape"(%61) <{shape = [32 : i32, 4 : i32, 1 : i32, 256 : i32]}> : (tensor<32x1024xbf16>) -> tensor<32x4x1x256xbf16> loc(#loc60)
        %63 = "ttir.reshape"(%arg1) <{shape = [1 : i32, 1 : i32, 128 : i32]}> : (tensor<128xbf16>) -> tensor<1x1x128xbf16> loc(#loc61)
        %64 = "ttir.reshape"(%63) <{shape = [1 : i32, 128 : i32, 1 : i32]}> : (tensor<1x1x128xbf16>) -> tensor<1x128x1xbf16> loc(#loc62)
        %65 = "ttir.typecast"(%64) <{conservative_folding = false}> : (tensor<1x128x1xbf16>) -> tensor<1x128x1xf32> loc(#loc63)
        %66 = "ttir.typecast"(%16) <{conservative_folding = false}> : (tensor<1x1x1xi64>) -> tensor<1x1x1xf32> loc(#loc64)
        %67 = "ttir.dot_general"(%65, %66) <{batch_dims_lhs = array<i64: 0>, batch_dims_rhs = array<i64: 0>, contract_dims_lhs = array<i64: 2>, contract_dims_rhs = array<i64: 1>}> : (tensor<1x128x1xf32>, tensor<1x1x1xf32>) -> tensor<1x128x1xf32> loc(#loc65)
        %68 = "ttir.reshape"(%67) <{shape = [1 : i32, 1 : i32, 128 : i32]}> : (tensor<1x128x1xf32>) -> tensor<1x1x128xf32> loc(#loc66)
        %69 = "ttir.concat"(%68, %68) <{dim = 2 : si32}> : (tensor<1x1x128xf32>, tensor<1x1x128xf32>) -> tensor<1x1x256xf32> loc(#loc67)
        %70 = "ttir.cos"(%69) : (tensor<1x1x256xf32>) -> tensor<1x1x256xf32> loc(#loc68)
        %71 = "ttir.typecast"(%70) <{conservative_folding = false}> : (tensor<1x1x256xf32>) -> tensor<1x1x256xbf16> loc(#loc69)
        %72 = "ttir.reshape"(%71) <{shape = [1 : i32, 256 : i32]}> : (tensor<1x1x256xbf16>) -> tensor<1x256xbf16> loc(#loc70)
        %73 = "ttir.reshape"(%72) <{shape = [1 : i32, 1 : i32, 1 : i32, 256 : i32]}> : (tensor<1x256xbf16>) -> tensor<1x1x1x256xbf16> loc(#loc71)
        %74 = "ttir.broadcast"(%73) <{broadcast_dimensions = array<i64: 32, 4, 1, 1>}> : (tensor<1x1x1x256xbf16>) -> tensor<32x4x1x256xbf16> loc(#loc71)
        %75 = "ttir.multiply"(%62, %74) : (tensor<32x4x1x256xbf16>, tensor<32x4x1x256xbf16>) -> tensor<32x4x1x256xbf16> loc(#loc72)
        %76 = "ttir.slice_static"(%62) <{begins = [0 : i32, 0 : i32, 0 : i32, 128 : i32], ends = [32 : i32, 4 : i32, 1 : i32, 256 : i32], step = [1 : i32, 1 : i32, 1 : i32, 1 : i32]}> : (tensor<32x4x1x256xbf16>) -> tensor<32x4x1x128xbf16> loc(#loc73)
        %77 = "ttir.neg"(%76) : (tensor<32x4x1x128xbf16>) -> tensor<32x4x1x128xbf16> loc(#loc74)
        %78 = "ttir.slice_static"(%62) <{begins = [0 : i32, 0 : i32, 0 : i32, 0 : i32], ends = [32 : i32, 4 : i32, 1 : i32, 128 : i32], step = [1 : i32, 1 : i32, 1 : i32, 1 : i32]}> : (tensor<32x4x1x256xbf16>) -> tensor<32x4x1x128xbf16> loc(#loc75)
        %79 = "ttir.concat"(%77, %78) <{dim = 3 : si32}> : (tensor<32x4x1x128xbf16>, tensor<32x4x1x128xbf16>) -> tensor<32x4x1x256xbf16> loc(#loc76)
        %80 = "ttir.sin"(%69) : (tensor<1x1x256xf32>) -> tensor<1x1x256xf32> loc(#loc77)
        %81 = "ttir.typecast"(%80) <{conservative_folding = false}> : (tensor<1x1x256xf32>) -> tensor<1x1x256xbf16> loc(#loc78)
        %82 = "ttir.reshape"(%81) <{shape = [1 : i32, 256 : i32]}> : (tensor<1x1x256xbf16>) -> tensor<1x256xbf16> loc(#loc79)
        %83 = "ttir.reshape"(%82) <{shape = [1 : i32, 1 : i32, 1 : i32, 256 : i32]}> : (tensor<1x256xbf16>) -> tensor<1x1x1x256xbf16> loc(#loc80)
        %84 = "ttir.broadcast"(%83) <{broadcast_dimensions = array<i64: 32, 4, 1, 1>}> : (tensor<1x1x1x256xbf16>) -> tensor<32x4x1x256xbf16> loc(#loc80)
        %85 = "ttir.multiply"(%79, %84) : (tensor<32x4x1x256xbf16>, tensor<32x4x1x256xbf16>) -> tensor<32x4x1x256xbf16> loc(#loc81)
        %86 = "ttir.add"(%75, %85) : (tensor<32x4x1x256xbf16>, tensor<32x4x1x256xbf16>) -> tensor<32x4x1x256xbf16> loc(#loc82)
        %87 = "ttir.permute"(%86) <{permutation = array<i64: 2, 1, 0, 3>}> : (tensor<32x4x1x256xbf16>) -> tensor<1x4x32x256xbf16> loc(#loc83)
        %88 = "ttir.update_cache"(%arg7, %87, %arg0) <{batch_offset = 0 : i32}> : (tensor<32x4x128x256xbf16>, tensor<1x4x32x256xbf16>, tensor<1xi64>) -> tensor<32x4x128x256xbf16> loc(#loc83)
        %89 = "ttir.reshape"(%arg8) <{shape = [1 : i32, 1024 : i32, 2304 : i32]}> : (tensor<1024x2304xbf16>) -> tensor<1x1024x2304xbf16> loc(#loc84)
        %90 = "ttir.reshape"(%89) <{shape = [1024 : i32, 2304 : i32]}> : (tensor<1x1024x2304xbf16>) -> tensor<1024x2304xbf16> loc(#loc85)
        %91 = "ttir.permute"(%90) <{permutation = array<i64: 1, 0>}> : (tensor<1024x2304xbf16>) -> tensor<2304x1024xbf16> loc(#loc86)
        %92 = "ttir.dot_general"(%57, %91) <{batch_dims_lhs = array<i64>, batch_dims_rhs = array<i64>, contract_dims_lhs = array<i64: 1>, contract_dims_rhs = array<i64: 0>}> : (tensor<32x2304xbf16>, tensor<2304x1024xbf16>) -> tensor<32x1024xbf16> loc(#loc87)
        %93 = "ttir.reshape"(%92) <{shape = [32 : i32, 4 : i32, 1 : i32, 256 : i32]}> : (tensor<32x1024xbf16>) -> tensor<32x4x1x256xbf16> loc(#loc88)
        %94 = "ttir.permute"(%93) <{permutation = array<i64: 2, 1, 0, 3>}> : (tensor<32x4x1x256xbf16>) -> tensor<1x4x32x256xbf16> loc(#loc89)
        %95 = "ttir.update_cache"(%arg9, %94, %arg0) <{batch_offset = 0 : i32}> : (tensor<32x4x128x256xbf16>, tensor<1x4x32x256xbf16>, tensor<1xi64>) -> tensor<32x4x128x256xbf16> loc(#loc89)
        %96 = "ttir.add"(%17, %9) : (tensor<1xi64>, tensor<1xi64>) -> tensor<1xi64> loc(#loc90)
        %97 = "ttir.reshape"(%arg19) <{shape = [1 : i32, 2048 : i32, 2304 : i32]}> : (tensor<2048x2304xbf16>) -> tensor<1x2048x2304xbf16> loc(#loc91)
        %98 = "ttir.reshape"(%97) <{shape = [2048 : i32, 2304 : i32]}> : (tensor<1x2048x2304xbf16>) -> tensor<2048x2304xbf16> loc(#loc92)
        %99 = "ttir.permute"(%98) <{permutation = array<i64: 1, 0>}> : (tensor<2048x2304xbf16>) -> tensor<2304x2048xbf16> loc(#loc93)
        %100 = "ttir.dot_general"(%57, %99) <{batch_dims_lhs = array<i64>, batch_dims_rhs = array<i64>, contract_dims_lhs = array<i64: 1>, contract_dims_rhs = array<i64: 0>}> : (tensor<32x2304xbf16>, tensor<2304x2048xbf16>) -> tensor<32x2048xbf16> loc(#loc94)
        %101 = "ttir.reshape"(%100) <{shape = [32 : i32, 8 : i32, 1 : i32, 256 : i32]}> : (tensor<32x2048xbf16>) -> tensor<32x8x1x256xbf16> loc(#loc95)
        %102 = "ttir.broadcast"(%73) <{broadcast_dimensions = array<i64: 32, 8, 1, 1>}> : (tensor<1x1x1x256xbf16>) -> tensor<32x8x1x256xbf16> loc(#loc96)
        %103 = "ttir.multiply"(%101, %102) : (tensor<32x8x1x256xbf16>, tensor<32x8x1x256xbf16>) -> tensor<32x8x1x256xbf16> loc(#loc97)
        %104 = "ttir.slice_static"(%101) <{begins = [0 : i32, 0 : i32, 0 : i32, 128 : i32], ends = [32 : i32, 8 : i32, 1 : i32, 256 : i32], step = [1 : i32, 1 : i32, 1 : i32, 1 : i32]}> : (tensor<32x8x1x256xbf16>) -> tensor<32x8x1x128xbf16> loc(#loc98)
        %105 = "ttir.neg"(%104) : (tensor<32x8x1x128xbf16>) -> tensor<32x8x1x128xbf16> loc(#loc99)
        %106 = "ttir.slice_static"(%101) <{begins = [0 : i32, 0 : i32, 0 : i32, 0 : i32], ends = [32 : i32, 8 : i32, 1 : i32, 128 : i32], step = [1 : i32, 1 : i32, 1 : i32, 1 : i32]}> : (tensor<32x8x1x256xbf16>) -> tensor<32x8x1x128xbf16> loc(#loc100)
        %107 = "ttir.concat"(%105, %106) <{dim = 3 : si32}> : (tensor<32x8x1x128xbf16>, tensor<32x8x1x128xbf16>) -> tensor<32x8x1x256xbf16> loc(#loc101)
        %108 = "ttir.broadcast"(%83) <{broadcast_dimensions = array<i64: 32, 8, 1, 1>}> : (tensor<1x1x1x256xbf16>) -> tensor<32x8x1x256xbf16> loc(#loc102)
        %109 = "ttir.multiply"(%107, %108) : (tensor<32x8x1x256xbf16>, tensor<32x8x1x256xbf16>) -> tensor<32x8x1x256xbf16> loc(#loc103)
        %110 = "ttir.add"(%103, %109) : (tensor<32x8x1x256xbf16>, tensor<32x8x1x256xbf16>) -> tensor<32x8x1x256xbf16> loc(#loc104)
        %111 = "ttir.typecast"(%110) <{conservative_folding = false}> : (tensor<32x8x1x256xbf16>) -> tensor<32x8x1x256xf32> loc(#loc105)
        %112 = "ttir.multiply"(%111, %8) : (tensor<32x8x1x256xf32>, tensor<32x8x1x256xf32>) -> tensor<32x8x1x256xf32> loc(#loc106)
        %113 = "ttir.reshape"(%88) <{shape = [32 : i32, 4 : i32, 1 : i32, 128 : i32, 256 : i32]}> : (tensor<32x4x128x256xbf16>) -> tensor<32x4x1x128x256xbf16> loc(#loc107)
        %114 = "ttir.broadcast"(%113) <{broadcast_dimensions = array<i64: 1, 1, 2, 1, 1>}> : (tensor<32x4x1x128x256xbf16>) -> tensor<32x4x2x128x256xbf16> loc(#loc107)
        %115 = "ttir.reshape"(%114) <{shape = [32 : i32, 8 : i32, 128 : i32, 256 : i32]}> : (tensor<32x4x2x128x256xbf16>) -> tensor<32x8x128x256xbf16> loc(#loc108)
        %116 = "ttir.typecast"(%115) <{conservative_folding = false}> : (tensor<32x8x128x256xbf16>) -> tensor<32x8x128x256xf32> loc(#loc109)
        %117 = "ttir.permute"(%116) <{permutation = array<i64: 0, 1, 3, 2>}> : (tensor<32x8x128x256xf32>) -> tensor<32x8x256x128xf32> loc(#loc110)
        %118 = "ttir.multiply"(%117, %7) : (tensor<32x8x256x128xf32>, tensor<32x8x256x128xf32>) -> tensor<32x8x256x128xf32> loc(#loc111)
        %119 = "ttir.dot_general"(%112, %118) <{batch_dims_lhs = array<i64: 0, 1>, batch_dims_rhs = array<i64: 0, 1>, contract_dims_lhs = array<i64: 3>, contract_dims_rhs = array<i64: 2>}> : (tensor<32x8x1x256xf32>, tensor<32x8x256x128xf32>) -> tensor<32x8x1x128xf32> loc(#loc112)
        %120 = "ttir.reshape"(%arg18) <{shape = [1 : i32]}> : (tensor<i1>) -> tensor<1xi1> loc(#loc113)
        %121 = "ttir.reshape"(%120) <{shape = [1 : i32, 1 : i32]}> : (tensor<1xi1>) -> tensor<1x1xi1> loc(#loc114)
        %122 = "ttir.broadcast"(%121) <{broadcast_dimensions = array<i64: 1, 128>}> : (tensor<1x1xi1>) -> tensor<1x128xi1> loc(#loc114)
        %123 = "ttir.subtract"(%17, %6) : (tensor<1xi64>, tensor<1xi64>) -> tensor<1xi64> loc(#loc115)
        %124 = "ttir.reshape"(%123) <{shape = [1 : i32, 1 : i32]}> : (tensor<1xi64>) -> tensor<1x1xi64> loc(#loc116)
        %125 = "ttir.broadcast"(%124) <{broadcast_dimensions = array<i64: 1, 128>}> : (tensor<1x1xi64>) -> tensor<1x128xi64> loc(#loc116)
        %126 = "ttir.gt"(%0, %125) : (tensor<1x128xi64>, tensor<1x128xi64>) -> tensor<1x128xi1> loc(#loc117)
        %127 = "ttir.logical_and"(%122, %126) : (tensor<1x128xi1>, tensor<1x128xi1>) -> tensor<1x128xi1> loc(#loc118)
        %128 = "ttir.reshape"(%17) <{shape = [1 : i32, 1 : i32]}> : (tensor<1xi64>) -> tensor<1x1xi64> loc(#loc119)
        %129 = "ttir.broadcast"(%128) <{broadcast_dimensions = array<i64: 1, 128>}> : (tensor<1x1xi64>) -> tensor<1x128xi64> loc(#loc119)
        %130 = "ttir.le"(%0, %129) : (tensor<1x128xi64>, tensor<1x128xi64>) -> tensor<1x128xi1> loc(#loc120)
        %131 = "ttir.logical_and"(%127, %130) : (tensor<1x128xi1>, tensor<1x128xi1>) -> tensor<1x128xi1> loc(#loc121)
        %132 = "ttir.reshape"(%131) <{shape = [1 : i32, 1 : i32, 128 : i32]}> : (tensor<1x128xi1>) -> tensor<1x1x128xi1> loc(#loc122)
        %133 = "ttir.reshape"(%132) <{shape = [1 : i32, 1 : i32, 1 : i32, 128 : i32]}> : (tensor<1x1x128xi1>) -> tensor<1x1x1x128xi1> loc(#loc123)
        %134 = "ttir.broadcast"(%133) <{broadcast_dimensions = array<i64: 32, 1, 1, 1>}> : (tensor<1x1x1x128xi1>) -> tensor<32x1x1x128xi1> loc(#loc123)
        %135 = "ttir.where"(%134, %5, %4) : (tensor<32x1x1x128xi1>, tensor<32x1x1x128xbf16>, tensor<32x1x1x128xbf16>) -> tensor<32x1x1x128xbf16> loc(#loc124)
        %136 = "ttir.typecast"(%135) <{conservative_folding = false}> : (tensor<32x1x1x128xbf16>) -> tensor<32x1x1x128xf32> loc(#loc125)
        %137 = "ttir.reshape"(%136) <{shape = [32 : i32, 1 : i32, 128 : i32]}> : (tensor<32x1x1x128xf32>) -> tensor<32x1x128xf32> loc(#loc126)
        %138 = "ttir.reshape"(%137) <{shape = [32 : i32, 1 : i32, 1 : i32, 128 : i32]}> : (tensor<32x1x128xf32>) -> tensor<32x1x1x128xf32> loc(#loc127)
        %139 = "ttir.broadcast"(%138) <{broadcast_dimensions = array<i64: 1, 8, 1, 1>}> : (tensor<32x1x1x128xf32>) -> tensor<32x8x1x128xf32> loc(#loc127)
        %140 = "ttir.add"(%119, %139) : (tensor<32x8x1x128xf32>, tensor<32x8x1x128xf32>) -> tensor<32x8x1x128xf32> loc(#loc128)
        %141 = "ttir.typecast"(%140) <{conservative_folding = false}> : (tensor<32x8x1x128xf32>) -> tensor<32x8x1x128xf64> loc(#loc129)
        %142 = "ttir.eq"(%141, %3) : (tensor<32x8x1x128xf64>, tensor<32x8x1x128xf64>) -> tensor<32x8x1x128xi1> loc(#loc130)
        %143 = "ttir.logical_not"(%142) : (tensor<32x8x1x128xi1>) -> tensor<32x8x1x128xi1> loc(#loc131)
        %144 = "ttir.reduce_or"(%143) <{dim_arg = [3 : i32], keep_dim = false}> : (tensor<32x8x1x128xi1>) -> tensor<32x8x1xi1> loc(#loc132)
        %145 = "ttir.reshape"(%144) <{shape = [32 : i32, 8 : i32, 1 : i32, 1 : i32]}> : (tensor<32x8x1xi1>) -> tensor<32x8x1x1xi1> loc(#loc133)
        %146 = "ttir.logical_not"(%145) : (tensor<32x8x1x1xi1>) -> tensor<32x8x1x1xi1> loc(#loc134)
        %147 = "ttir.reshape"(%146) <{shape = [32 : i32, 8 : i32, 1 : i32]}> : (tensor<32x8x1x1xi1>) -> tensor<32x8x1xi1> loc(#loc135)
        %148 = "ttir.reshape"(%147) <{shape = [32 : i32, 8 : i32, 1 : i32, 1 : i32]}> : (tensor<32x8x1xi1>) -> tensor<32x8x1x1xi1> loc(#loc136)
        %149 = "ttir.broadcast"(%148) <{broadcast_dimensions = array<i64: 1, 1, 1, 128>}> : (tensor<32x8x1x1xi1>) -> tensor<32x8x1x128xi1> loc(#loc136)
        %150 = "ttir.max"(%140) <{dim_arg = [3 : i32], keep_dim = false}> : (tensor<32x8x1x128xf32>) -> tensor<32x8x1xf32> loc(#loc137)
        %151 = "ttir.reshape"(%150) <{shape = [32 : i32, 8 : i32, 1 : i32, 1 : i32]}> : (tensor<32x8x1xf32>) -> tensor<32x8x1x1xf32> loc(#loc138)
        %152 = "ttir.broadcast"(%151) <{broadcast_dimensions = array<i64: 1, 1, 1, 128>}> : (tensor<32x8x1x1xf32>) -> tensor<32x8x1x128xf32> loc(#loc138)
        %153 = "ttir.subtract"(%140, %152) : (tensor<32x8x1x128xf32>, tensor<32x8x1x128xf32>) -> tensor<32x8x1x128xf32> loc(#loc139)
        %154 = "ttir.exp"(%153) : (tensor<32x8x1x128xf32>) -> tensor<32x8x1x128xf32> loc(#loc140)
        %155 = "ttir.sum"(%154) <{dim_arg = [3 : i32], keep_dim = false}> : (tensor<32x8x1x128xf32>) -> tensor<32x8x1xf32> loc(#loc141)
        %156 = "ttir.reshape"(%155) <{shape = [32 : i32, 8 : i32, 1 : i32, 1 : i32]}> : (tensor<32x8x1xf32>) -> tensor<32x8x1x1xf32> loc(#loc142)
        %157 = "ttir.broadcast"(%156) <{broadcast_dimensions = array<i64: 1, 1, 1, 128>}> : (tensor<32x8x1x1xf32>) -> tensor<32x8x1x128xf32> loc(#loc142)
        %158 = "ttir.div"(%154, %157) : (tensor<32x8x1x128xf32>, tensor<32x8x1x128xf32>) -> tensor<32x8x1x128xf32> loc(#loc143)
        %159 = "ttir.where"(%149, %2, %158) : (tensor<32x8x1x128xi1>, tensor<32x8x1x128xf32>, tensor<32x8x1x128xf32>) -> tensor<32x8x1x128xf32> loc(#loc144)
        %160 = "ttir.reshape"(%95) <{shape = [32 : i32, 4 : i32, 1 : i32, 128 : i32, 256 : i32]}> : (tensor<32x4x128x256xbf16>) -> tensor<32x4x1x128x256xbf16> loc(#loc145)
        %161 = "ttir.broadcast"(%160) <{broadcast_dimensions = array<i64: 1, 1, 2, 1, 1>}> : (tensor<32x4x1x128x256xbf16>) -> tensor<32x4x2x128x256xbf16> loc(#loc145)
        %162 = "ttir.reshape"(%161) <{shape = [32 : i32, 8 : i32, 128 : i32, 256 : i32]}> : (tensor<32x4x2x128x256xbf16>) -> tensor<32x8x128x256xbf16> loc(#loc146)
        %163 = "ttir.typecast"(%162) <{conservative_folding = false}> : (tensor<32x8x128x256xbf16>) -> tensor<32x8x128x256xf32> loc(#loc147)
        %164 = "ttir.dot_general"(%159, %163) <{batch_dims_lhs = array<i64: 0, 1>, batch_dims_rhs = array<i64: 0, 1>, contract_dims_lhs = array<i64: 3>, contract_dims_rhs = array<i64: 2>}> : (tensor<32x8x1x128xf32>, tensor<32x8x128x256xf32>) -> tensor<32x8x1x256xf32> loc(#loc148)
        %165 = "ttir.typecast"(%164) <{conservative_folding = false}> : (tensor<32x8x1x256xf32>) -> tensor<32x8x1x256xbf16> loc(#loc149)
        %166 = "ttir.reshape"(%165) <{shape = [32 : i32, 2048 : i32]}> : (tensor<32x8x1x256xbf16>) -> tensor<32x2048xbf16> loc(#loc150)
        %167 = "ttir.reshape"(%arg17) <{shape = [1 : i32, 2304 : i32, 2048 : i32]}> : (tensor<2304x2048xbf16>) -> tensor<1x2304x2048xbf16> loc(#loc151)
        %168 = "ttir.reshape"(%167) <{shape = [2304 : i32, 2048 : i32]}> : (tensor<1x2304x2048xbf16>) -> tensor<2304x2048xbf16> loc(#loc152)
        %169 = "ttir.permute"(%168) <{permutation = array<i64: 1, 0>}> : (tensor<2304x2048xbf16>) -> tensor<2048x2304xbf16> loc(#loc153)
        %170 = "ttir.dot_general"(%166, %169) <{batch_dims_lhs = array<i64>, batch_dims_rhs = array<i64>, contract_dims_lhs = array<i64: 1>, contract_dims_rhs = array<i64: 0>}> : (tensor<32x2048xbf16>, tensor<2048x2304xbf16>) -> tensor<32x2304xbf16> loc(#loc154)
        %171 = "ttir.reshape"(%170) <{shape = [32 : i32, 1 : i32, 2304 : i32]}> : (tensor<32x2304xbf16>) -> tensor<32x1x2304xbf16> loc(#loc155)
        %172 = "ttir.typecast"(%171) <{conservative_folding = false}> : (tensor<32x1x2304xbf16>) -> tensor<32x1x2304xf32> loc(#loc156)
        %173 = "ttir.pow"(%172, %13) : (tensor<32x1x2304xf32>, tensor<32x1x2304xf32>) -> tensor<32x1x2304xf32> loc(#loc157)
        %174 = "ttir.sum"(%173) <{dim_arg = [2 : i32], keep_dim = false}> : (tensor<32x1x2304xf32>) -> tensor<32x1xf32> loc(#loc158)
        %175 = "ttir.multiply"(%174, %12) : (tensor<32x1xf32>, tensor<32x1xf32>) -> tensor<32x1xf32> loc(#loc159)
        %176 = "ttir.reshape"(%175) <{shape = [32 : i32, 1 : i32, 1 : i32]}> : (tensor<32x1xf32>) -> tensor<32x1x1xf32> loc(#loc160)
        %177 = "ttir.add"(%176, %11) : (tensor<32x1x1xf32>, tensor<32x1x1xf32>) -> tensor<32x1x1xf32> loc(#loc161)
        %178 = "ttir.rsqrt"(%177) : (tensor<32x1x1xf32>) -> tensor<32x1x1xf32> loc(#loc162)
        %179 = "ttir.reshape"(%178) <{shape = [32 : i32, 1 : i32]}> : (tensor<32x1x1xf32>) -> tensor<32x1xf32> loc(#loc163)
        %180 = "ttir.reshape"(%179) <{shape = [32 : i32, 1 : i32, 1 : i32]}> : (tensor<32x1xf32>) -> tensor<32x1x1xf32> loc(#loc164)
        %181 = "ttir.broadcast"(%180) <{broadcast_dimensions = array<i64: 1, 1, 2304>}> : (tensor<32x1x1xf32>) -> tensor<32x1x2304xf32> loc(#loc164)
        %182 = "ttir.multiply"(%172, %181) : (tensor<32x1x2304xf32>, tensor<32x1x2304xf32>) -> tensor<32x1x2304xf32> loc(#loc165)
        %183 = "ttir.reshape"(%arg16) <{shape = [1 : i32, 1 : i32, 2304 : i32]}> : (tensor<2304xbf16>) -> tensor<1x1x2304xbf16> loc(#loc166)
        %184 = "ttir.reshape"(%183) <{shape = [2304 : i32]}> : (tensor<1x1x2304xbf16>) -> tensor<2304xbf16> loc(#loc167)
        %185 = "ttir.typecast"(%184) <{conservative_folding = false}> : (tensor<2304xbf16>) -> tensor<2304xf32> loc(#loc168)
        %186 = "ttir.add"(%185, %10) : (tensor<2304xf32>, tensor<2304xf32>) -> tensor<2304xf32> loc(#loc169)
        %187 = "ttir.reshape"(%186) <{shape = [1 : i32, 1 : i32, 2304 : i32]}> : (tensor<2304xf32>) -> tensor<1x1x2304xf32> loc(#loc170)
        %188 = "ttir.broadcast"(%187) <{broadcast_dimensions = array<i64: 32, 1, 1>}> : (tensor<1x1x2304xf32>) -> tensor<32x1x2304xf32> loc(#loc170)
        %189 = "ttir.multiply"(%182, %188) : (tensor<32x1x2304xf32>, tensor<32x1x2304xf32>) -> tensor<32x1x2304xf32> loc(#loc171)
        %190 = "ttir.typecast"(%189) <{conservative_folding = false}> : (tensor<32x1x2304xf32>) -> tensor<32x1x2304xbf16> loc(#loc172)
        %191 = "ttir.add"(%37, %190) : (tensor<32x1x2304xbf16>, tensor<32x1x2304xbf16>) -> tensor<32x1x2304xbf16> loc(#loc173)
        %192 = "ttir.typecast"(%191) <{conservative_folding = false}> : (tensor<32x1x2304xbf16>) -> tensor<32x1x2304xf32> loc(#loc174)
        %193 = "ttir.pow"(%192, %13) : (tensor<32x1x2304xf32>, tensor<32x1x2304xf32>) -> tensor<32x1x2304xf32> loc(#loc175)
        %194 = "ttir.sum"(%193) <{dim_arg = [2 : i32], keep_dim = false}> : (tensor<32x1x2304xf32>) -> tensor<32x1xf32> loc(#loc176)
        %195 = "ttir.multiply"(%194, %12) : (tensor<32x1xf32>, tensor<32x1xf32>) -> tensor<32x1xf32> loc(#loc177)
        %196 = "ttir.reshape"(%195) <{shape = [32 : i32, 1 : i32, 1 : i32]}> : (tensor<32x1xf32>) -> tensor<32x1x1xf32> loc(#loc178)
        %197 = "ttir.add"(%196, %11) : (tensor<32x1x1xf32>, tensor<32x1x1xf32>) -> tensor<32x1x1xf32> loc(#loc179)
        %198 = "ttir.rsqrt"(%197) : (tensor<32x1x1xf32>) -> tensor<32x1x1xf32> loc(#loc180)
        %199 = "ttir.reshape"(%198) <{shape = [32 : i32, 1 : i32]}> : (tensor<32x1x1xf32>) -> tensor<32x1xf32> loc(#loc181)
        %200 = "ttir.reshape"(%199) <{shape = [32 : i32, 1 : i32, 1 : i32]}> : (tensor<32x1xf32>) -> tensor<32x1x1xf32> loc(#loc182)
        %201 = "ttir.broadcast"(%200) <{broadcast_dimensions = array<i64: 1, 1, 2304>}> : (tensor<32x1x1xf32>) -> tensor<32x1x2304xf32> loc(#loc182)
        %202 = "ttir.multiply"(%192, %201) : (tensor<32x1x2304xf32>, tensor<32x1x2304xf32>) -> tensor<32x1x2304xf32> loc(#loc183)
        %203 = "ttir.reshape"(%arg15) <{shape = [1 : i32, 1 : i32, 2304 : i32]}> : (tensor<2304xbf16>) -> tensor<1x1x2304xbf16> loc(#loc184)
        %204 = "ttir.reshape"(%203) <{shape = [2304 : i32]}> : (tensor<1x1x2304xbf16>) -> tensor<2304xbf16> loc(#loc185)
        %205 = "ttir.typecast"(%204) <{conservative_folding = false}> : (tensor<2304xbf16>) -> tensor<2304xf32> loc(#loc186)
        %206 = "ttir.add"(%205, %10) : (tensor<2304xf32>, tensor<2304xf32>) -> tensor<2304xf32> loc(#loc187)
        %207 = "ttir.reshape"(%206) <{shape = [1 : i32, 1 : i32, 2304 : i32]}> : (tensor<2304xf32>) -> tensor<1x1x2304xf32> loc(#loc188)
        %208 = "ttir.broadcast"(%207) <{broadcast_dimensions = array<i64: 32, 1, 1>}> : (tensor<1x1x2304xf32>) -> tensor<32x1x2304xf32> loc(#loc188)
        %209 = "ttir.multiply"(%202, %208) : (tensor<32x1x2304xf32>, tensor<32x1x2304xf32>) -> tensor<32x1x2304xf32> loc(#loc189)
        %210 = "ttir.typecast"(%209) <{conservative_folding = false}> : (tensor<32x1x2304xf32>) -> tensor<32x1x2304xbf16> loc(#loc190)
        %211 = "ttir.reshape"(%210) <{shape = [32 : i32, 2304 : i32]}> : (tensor<32x1x2304xbf16>) -> tensor<32x2304xbf16> loc(#loc191)
        %212 = "ttir.reshape"(%arg20) <{shape = [1 : i32, 9216 : i32, 2304 : i32]}> : (tensor<9216x2304xbf16>) -> tensor<1x9216x2304xbf16> loc(#loc192)
        %213 = "ttir.reshape"(%212) <{shape = [9216 : i32, 2304 : i32]}> : (tensor<1x9216x2304xbf16>) -> tensor<9216x2304xbf16> loc(#loc193)
        %214 = "ttir.permute"(%213) <{permutation = array<i64: 1, 0>}> : (tensor<9216x2304xbf16>) -> tensor<2304x9216xbf16> loc(#loc194)
        %215 = "ttir.dot_general"(%211, %214) <{batch_dims_lhs = array<i64>, batch_dims_rhs = array<i64>, contract_dims_lhs = array<i64: 1>, contract_dims_rhs = array<i64: 0>}> : (tensor<32x2304xbf16>, tensor<2304x9216xbf16>) -> tensor<32x9216xbf16> loc(#loc195)
        %216 = "ttir.reshape"(%215) <{shape = [32 : i32, 1 : i32, 9216 : i32]}> : (tensor<32x9216xbf16>) -> tensor<32x1x9216xbf16> loc(#loc196)
        %217 = "ttir.gelu"(%216) {approximate = "tanh"} : (tensor<32x1x9216xbf16>) -> tensor<32x1x9216xbf16> loc(#loc197)
        %218 = "ttir.reshape"(%arg14) <{shape = [1 : i32, 9216 : i32, 2304 : i32]}> : (tensor<9216x2304xbf16>) -> tensor<1x9216x2304xbf16> loc(#loc198)
        %219 = "ttir.reshape"(%218) <{shape = [9216 : i32, 2304 : i32]}> : (tensor<1x9216x2304xbf16>) -> tensor<9216x2304xbf16> loc(#loc199)
        %220 = "ttir.permute"(%219) <{permutation = array<i64: 1, 0>}> : (tensor<9216x2304xbf16>) -> tensor<2304x9216xbf16> loc(#loc200)
        %221 = "ttir.dot_general"(%211, %220) <{batch_dims_lhs = array<i64>, batch_dims_rhs = array<i64>, contract_dims_lhs = array<i64: 1>, contract_dims_rhs = array<i64: 0>}> : (tensor<32x2304xbf16>, tensor<2304x9216xbf16>) -> tensor<32x9216xbf16> loc(#loc201)
        %222 = "ttir.reshape"(%221) <{shape = [32 : i32, 1 : i32, 9216 : i32]}> : (tensor<32x9216xbf16>) -> tensor<32x1x9216xbf16> loc(#loc202)
        %223 = "ttir.multiply"(%217, %222) : (tensor<32x1x9216xbf16>, tensor<32x1x9216xbf16>) -> tensor<32x1x9216xbf16> loc(#loc203)
        %224 = "ttir.reshape"(%223) <{shape = [32 : i32, 9216 : i32]}> : (tensor<32x1x9216xbf16>) -> tensor<32x9216xbf16> loc(#loc204)
        %225 = "ttir.reshape"(%arg13) <{shape = [1 : i32, 2304 : i32, 9216 : i32]}> : (tensor<2304x9216xbf16>) -> tensor<1x2304x9216xbf16> loc(#loc205)
        %226 = "ttir.reshape"(%225) <{shape = [2304 : i32, 9216 : i32]}> : (tensor<1x2304x9216xbf16>) -> tensor<2304x9216xbf16> loc(#loc206)
        %227 = "ttir.permute"(%226) <{permutation = array<i64: 1, 0>}> : (tensor<2304x9216xbf16>) -> tensor<9216x2304xbf16> loc(#loc207)
        %228 = "ttir.dot_general"(%224, %227) <{batch_dims_lhs = array<i64>, batch_dims_rhs = array<i64>, contract_dims_lhs = array<i64: 1>, contract_dims_rhs = array<i64: 0>}> : (tensor<32x9216xbf16>, tensor<9216x2304xbf16>) -> tensor<32x2304xbf16> loc(#loc208)
        %229 = "ttir.reshape"(%228) <{shape = [32 : i32, 1 : i32, 2304 : i32]}> : (tensor<32x2304xbf16>) -> tensor<32x1x2304xbf16> loc(#loc209)
        %230 = "ttir.typecast"(%229) <{conservative_folding = false}> : (tensor<32x1x2304xbf16>) -> tensor<32x1x2304xf32> loc(#loc210)
        %231 = "ttir.pow"(%230, %13) : (tensor<32x1x2304xf32>, tensor<32x1x2304xf32>) -> tensor<32x1x2304xf32> loc(#loc211)
        %232 = "ttir.sum"(%231) <{dim_arg = [2 : i32], keep_dim = false}> : (tensor<32x1x2304xf32>) -> tensor<32x1xf32> loc(#loc212)
        %233 = "ttir.multiply"(%232, %12) : (tensor<32x1xf32>, tensor<32x1xf32>) -> tensor<32x1xf32> loc(#loc213)
        %234 = "ttir.reshape"(%233) <{shape = [32 : i32, 1 : i32, 1 : i32]}> : (tensor<32x1xf32>) -> tensor<32x1x1xf32> loc(#loc214)
        %235 = "ttir.add"(%234, %11) : (tensor<32x1x1xf32>, tensor<32x1x1xf32>) -> tensor<32x1x1xf32> loc(#loc215)
        %236 = "ttir.rsqrt"(%235) : (tensor<32x1x1xf32>) -> tensor<32x1x1xf32> loc(#loc216)
        %237 = "ttir.reshape"(%236) <{shape = [32 : i32, 1 : i32]}> : (tensor<32x1x1xf32>) -> tensor<32x1xf32> loc(#loc217)
        %238 = "ttir.reshape"(%237) <{shape = [32 : i32, 1 : i32, 1 : i32]}> : (tensor<32x1xf32>) -> tensor<32x1x1xf32> loc(#loc218)
        %239 = "ttir.broadcast"(%238) <{broadcast_dimensions = array<i64: 1, 1, 2304>}> : (tensor<32x1x1xf32>) -> tensor<32x1x2304xf32> loc(#loc218)
        %240 = "ttir.multiply"(%230, %239) : (tensor<32x1x2304xf32>, tensor<32x1x2304xf32>) -> tensor<32x1x2304xf32> loc(#loc219)
        %241 = "ttir.reshape"(%arg12) <{shape = [1 : i32, 1 : i32, 2304 : i32]}> : (tensor<2304xbf16>) -> tensor<1x1x2304xbf16> loc(#loc220)
        %242 = "ttir.reshape"(%241) <{shape = [2304 : i32]}> : (tensor<1x1x2304xbf16>) -> tensor<2304xbf16> loc(#loc221)
        %243 = "ttir.typecast"(%242) <{conservative_folding = false}> : (tensor<2304xbf16>) -> tensor<2304xf32> loc(#loc222)
        %244 = "ttir.add"(%243, %10) : (tensor<2304xf32>, tensor<2304xf32>) -> tensor<2304xf32> loc(#loc223)
        %245 = "ttir.reshape"(%244) <{shape = [1 : i32, 1 : i32, 2304 : i32]}> : (tensor<2304xf32>) -> tensor<1x1x2304xf32> loc(#loc224)
        %246 = "ttir.broadcast"(%245) <{broadcast_dimensions = array<i64: 32, 1, 1>}> : (tensor<1x1x2304xf32>) -> tensor<32x1x2304xf32> loc(#loc224)
        %247 = "ttir.multiply"(%240, %246) : (tensor<32x1x2304xf32>, tensor<32x1x2304xf32>) -> tensor<32x1x2304xf32> loc(#loc225)
        %248 = "ttir.typecast"(%247) <{conservative_folding = false}> : (tensor<32x1x2304xf32>) -> tensor<32x1x2304xbf16> loc(#loc226)
        %249 = "ttir.add"(%191, %248) : (tensor<32x1x2304xbf16>, tensor<32x1x2304xbf16>) -> tensor<32x1x2304xbf16> loc(#loc227)
        %250 = "ttir.typecast"(%249) <{conservative_folding = false}> : (tensor<32x1x2304xbf16>) -> tensor<32x1x2304xf32> loc(#loc228)
        %251 = "ttir.pow"(%250, %13) : (tensor<32x1x2304xf32>, tensor<32x1x2304xf32>) -> tensor<32x1x2304xf32> loc(#loc229)
        %252 = "ttir.sum"(%251) <{dim_arg = [2 : i32], keep_dim = false}> : (tensor<32x1x2304xf32>) -> tensor<32x1xf32> loc(#loc230)
        %253 = "ttir.multiply"(%252, %12) : (tensor<32x1xf32>, tensor<32x1xf32>) -> tensor<32x1xf32> loc(#loc231)
        %254 = "ttir.reshape"(%253) <{shape = [32 : i32, 1 : i32, 1 : i32]}> : (tensor<32x1xf32>) -> tensor<32x1x1xf32> loc(#loc232)
        %255 = "ttir.add"(%254, %11) : (tensor<32x1x1xf32>, tensor<32x1x1xf32>) -> tensor<32x1x1xf32> loc(#loc233)
        %256 = "ttir.rsqrt"(%255) : (tensor<32x1x1xf32>) -> tensor<32x1x1xf32> loc(#loc234)
        %257 = "ttir.reshape"(%256) <{shape = [32 : i32, 1 : i32]}> : (tensor<32x1x1xf32>) -> tensor<32x1xf32> loc(#loc235)
        %258 = "ttir.reshape"(%257) <{shape = [32 : i32, 1 : i32, 1 : i32]}> : (tensor<32x1xf32>) -> tensor<32x1x1xf32> loc(#loc236)
        %259 = "ttir.broadcast"(%258) <{broadcast_dimensions = array<i64: 1, 1, 2304>}> : (tensor<32x1x1xf32>) -> tensor<32x1x2304xf32> loc(#loc236)
        %260 = "ttir.multiply"(%250, %259) : (tensor<32x1x2304xf32>, tensor<32x1x2304xf32>) -> tensor<32x1x2304xf32> loc(#loc237)
        %261 = "ttir.reshape"(%arg11) <{shape = [1 : i32, 1 : i32, 2304 : i32]}> : (tensor<2304xbf16>) -> tensor<1x1x2304xbf16> loc(#loc238)
        %262 = "ttir.reshape"(%261) <{shape = [2304 : i32]}> : (tensor<1x1x2304xbf16>) -> tensor<2304xbf16> loc(#loc239)
        %263 = "ttir.typecast"(%262) <{conservative_folding = false}> : (tensor<2304xbf16>) -> tensor<2304xf32> loc(#loc240)
        %264 = "ttir.add"(%263, %10) : (tensor<2304xf32>, tensor<2304xf32>) -> tensor<2304xf32> loc(#loc241)
        %265 = "ttir.reshape"(%264) <{shape = [1 : i32, 1 : i32, 2304 : i32]}> : (tensor<2304xf32>) -> tensor<1x1x2304xf32> loc(#loc242)
        %266 = "ttir.broadcast"(%265) <{broadcast_dimensions = array<i64: 32, 1, 1>}> : (tensor<1x1x2304xf32>) -> tensor<32x1x2304xf32> loc(#loc242)
        %267 = "ttir.multiply"(%260, %266) : (tensor<32x1x2304xf32>, tensor<32x1x2304xf32>) -> tensor<32x1x2304xf32> loc(#loc243)
        %268 = "ttir.typecast"(%267) <{conservative_folding = false}> : (tensor<32x1x2304xf32>) -> tensor<32x1x2304xbf16> loc(#loc244)
        %269 = "ttir.reshape"(%268) <{shape = [32 : i32, 2304 : i32]}> : (tensor<32x1x2304xbf16>) -> tensor<32x2304xbf16> loc(#loc245)
        %270 = "ttir.reshape"(%arg10) <{shape = [1 : i32, 256000 : i32, 2304 : i32]}> : (tensor<256000x2304xbf16>) -> tensor<1x256000x2304xbf16> loc(#loc246)
        %271 = "ttir.reshape"(%270) <{shape = [256000 : i32, 2304 : i32]}> : (tensor<1x256000x2304xbf16>) -> tensor<256000x2304xbf16> loc(#loc247)
        %272 = "ttir.permute"(%271) <{permutation = array<i64: 1, 0>}> : (tensor<256000x2304xbf16>) -> tensor<2304x256000xbf16> loc(#loc248)
        %273 = "ttir.dot_general"(%269, %272) <{batch_dims_lhs = array<i64>, batch_dims_rhs = array<i64>, contract_dims_lhs = array<i64: 1>, contract_dims_rhs = array<i64: 0>}> : (tensor<32x2304xbf16>, tensor<2304x256000xbf16>) -> tensor<32x256000xbf16> loc(#loc249)
        %274 = "ttir.reshape"(%273) <{shape = [32 : i32, 1 : i32, 256000 : i32]}> : (tensor<32x256000xbf16>) -> tensor<32x1x256000xbf16> loc(#loc250)
        %275 = "ttir.div"(%274, %1) : (tensor<32x1x256000xbf16>, tensor<32x1x256000xbf16>) -> tensor<32x1x256000xbf16> loc(#loc251)
        %276 = "ttir.tanh"(%275) : (tensor<32x1x256000xbf16>) -> tensor<32x1x256000xbf16> loc(#loc252)
        %277 = "ttir.multiply"(%276, %1) : (tensor<32x1x256000xbf16>, tensor<32x1x256000xbf16>) -> tensor<32x1x256000xbf16> loc(#loc253)
        %278 = "ttir.reshape"(%277) <{shape = [32 : i32, 256000 : i32]}> : (tensor<32x1x256000xbf16>) -> tensor<32x256000xbf16> loc(#loc254)
        %279 = "ttir.arange"() <{arange_dimension = 0 : i64, end = 256000 : si64, start = 0 : si64, step = 1 : si64}> : () -> tensor<256000xi32> loc(#loc255)
        %280 = "ttir.reshape"(%279) <{shape = [1 : i32, 256000 : i32]}> : (tensor<256000xi32>) -> tensor<1x256000xi32> loc(#loc255)
        %281 = "ttir.argmax"(%278) <{dim_arg = [1 : i32], keep_dim = false}> : (tensor<32x256000xbf16>) -> tensor<32xi32> loc(#loc256)
        %282 = "ttir.typecast"(%281) <{conservative_folding = false}> : (tensor<32xi32>) -> tensor<32xi64> loc(#loc257)
        %283 = "ttir.reshape"(%282) <{shape = [32 : i32, 1 : i32]}> : (tensor<32xi64>) -> tensor<32x1xi64> loc(#loc258)
        return %88, %95, %96, %277, %283 : tensor<32x4x128x256xbf16>, tensor<32x4x128x256xbf16>, tensor<1xi64>, tensor<32x1x256000xbf16>, tensor<32x1xi64> loc(#loc)
      } loc(#loc)
    } loc(#loc)
  } loc(#loc)
} loc(#loc)
#loc = loc(unknown)
#loc22 = loc("reshape.4")
#loc23 = loc("reshape.6")
#loc24 = loc("compare.125")
#loc25 = loc("add.122")
#loc26 = loc("select.126")
#loc27 = loc("reshape.56")
#loc28 = loc("reshape.58")
#loc29 = loc("reshape.51")
#loc30 = loc("reshape.54")
#loc31 = loc("convert.59")
#loc32 = loc("gather.60")
#loc33 = loc("reshape.61")
#loc34 = loc("reshape.47")
#loc35 = loc("reshape.49")
#loc36 = loc("broadcast.62")
#loc37 = loc("multiply.63")
#loc38 = loc("convert.64")
#loc39 = loc("power.66")
#loc40 = loc("reduce.73")
#loc41 = loc("multiply.82")
#loc42 = loc("reshape.83")
#loc43 = loc("add.87")
#loc44 = loc("rsqrt.88")
#loc45 = loc("reshape.89")
#loc46 = loc("broadcast.90")
#loc47 = loc("multiply.91")
#loc48 = loc("reshape.36")
#loc49 = loc("reshape.38")
#loc50 = loc("convert.39")
#loc51 = loc("add.42")
#loc52 = loc("broadcast.92")
#loc53 = loc("multiply.93")
#loc54 = loc("convert.94")
#loc55 = loc("reshape.95")
#loc56 = loc("reshape.29")
#loc57 = loc("reshape.31")
#loc58 = loc("transpose.32")
#loc59 = loc("dot.96")
#loc60 = loc("transpose.99")
#loc61 = loc("reshape.12")
#loc62 = loc("reshape.16")
#loc63 = loc("convert.17")
#loc64 = loc("convert.9")
#loc65 = loc("dot.20")
#loc66 = loc("transpose.21")
#loc67 = loc("concatenate.22")
#loc68 = loc("cosine.108")
#loc69 = loc("convert.111")
#loc70 = loc("reshape.113")
#loc71 = loc("broadcast.114")
#loc72 = loc("multiply.115")
#loc73 = loc("slice.101")
#loc74 = loc("negate.102")
#loc75 = loc("slice.100")
#loc76 = loc("concatenate.103")
#loc77 = loc("sine.23")
#loc78 = loc("convert.26")
#loc79 = loc("reshape.104")
#loc80 = loc("broadcast.105")
#loc81 = loc("multiply.106")
#loc82 = loc("add.118")
#loc83 = loc("scatter.135")
#loc84 = loc("reshape.138")
#loc85 = loc("reshape.140")
#loc86 = loc("transpose.141")
#loc87 = loc("dot.143")
#loc88 = loc("transpose.146")
#loc89 = loc("scatter.163")
#loc90 = loc("add.170")
#loc91 = loc("reshape.320")
#loc92 = loc("reshape.322")
#loc93 = loc("transpose.323")
#loc94 = loc("dot.325")
#loc95 = loc("transpose.328")
#loc96 = loc("broadcast.337")
#loc97 = loc("multiply.338")
#loc98 = loc("slice.330")
#loc99 = loc("negate.331")
#loc100 = loc("slice.329")
#loc101 = loc("concatenate.332")
#loc102 = loc("broadcast.334")
#loc103 = loc("multiply.335")
#loc104 = loc("add.341")
#loc105 = loc("convert.342")
#loc106 = loc("multiply.344")
#loc107 = loc("broadcast.311")
#loc108 = loc("reshape.312")
#loc109 = loc("convert.313")
#loc110 = loc("transpose.314")
#loc111 = loc("multiply.316")
#loc112 = loc("dot.345")
#loc113 = loc("reshape.288")
#loc114 = loc("broadcast.294")
#loc115 = loc("subtract.281")
#loc116 = loc("broadcast.285")
#loc117 = loc("compare.286")
#loc118 = loc("and.295")
#loc119 = loc("broadcast.275")
#loc120 = loc("compare.276")
#loc121 = loc("and.298")
#loc122 = loc("reshape.299")
#loc123 = loc("broadcast.304")
#loc124 = loc("select.306")
#loc125 = loc("convert.347")
#loc126 = loc("reshape.350")
#loc127 = loc("broadcast.351")
#loc128 = loc("add.352")
#loc129 = loc("convert.378")
#loc130 = loc("compare.380")
#loc131 = loc("not.382")
#loc132 = loc("reduce.394")
#loc133 = loc("reshape.398")
#loc134 = loc("not.400")
#loc135 = loc("reshape.402")
#loc136 = loc("broadcast.403")
#loc137 = loc("reduce.358")
#loc138 = loc("broadcast.359")
#loc139 = loc("subtract.360")
#loc140 = loc("exponential.361")
#loc141 = loc("reduce.367")
#loc142 = loc("broadcast.368")
#loc143 = loc("divide.369")
#loc144 = loc("select.404")
#loc145 = loc("broadcast.250")
#loc146 = loc("reshape.251")
#loc147 = loc("convert.252")
#loc148 = loc("dot.405")
#loc149 = loc("convert.407")
#loc150 = loc("reshape.410")
#loc151 = loc("reshape.243")
#loc152 = loc("reshape.245")
#loc153 = loc("transpose.246")
#loc154 = loc("dot.411")
#loc155 = loc("reshape.412")
#loc156 = loc("convert.413")
#loc157 = loc("power.415")
#loc158 = loc("reduce.422")
#loc159 = loc("multiply.431")
#loc160 = loc("reshape.432")
#loc161 = loc("add.436")
#loc162 = loc("rsqrt.437")
#loc163 = loc("reshape.438")
#loc164 = loc("broadcast.439")
#loc165 = loc("multiply.440")
#loc166 = loc("reshape.232")
#loc167 = loc("reshape.234")
#loc168 = loc("convert.235")
#loc169 = loc("add.238")
#loc170 = loc("broadcast.441")
#loc171 = loc("multiply.442")
#loc172 = loc("convert.443")
#loc173 = loc("add.446")
#loc174 = loc("convert.447")
#loc175 = loc("power.449")
#loc176 = loc("reduce.456")
#loc177 = loc("multiply.465")
#loc178 = loc("reshape.466")
#loc179 = loc("add.470")
#loc180 = loc("rsqrt.471")
#loc181 = loc("reshape.472")
#loc182 = loc("broadcast.473")
#loc183 = loc("multiply.474")
#loc184 = loc("reshape.218")
#loc185 = loc("reshape.220")
#loc186 = loc("convert.221")
#loc187 = loc("add.224")
#loc188 = loc("broadcast.475")
#loc189 = loc("multiply.476")
#loc190 = loc("convert.477")
#loc191 = loc("reshape.488")
#loc192 = loc("reshape.484")
#loc193 = loc("reshape.486")
#loc194 = loc("transpose.487")
#loc195 = loc("dot.489")
#loc196 = loc("reshape.490")
#loc197 = loc("custom-call.508")
#loc198 = loc("reshape.211")
#loc199 = loc("reshape.213")
#loc200 = loc("transpose.214")
#loc201 = loc("dot.479")
#loc202 = loc("reshape.480")
#loc203 = loc("multiply.509")
#loc204 = loc("reshape.510")
#loc205 = loc("reshape.206")
#loc206 = loc("reshape.208")
#loc207 = loc("transpose.209")
#loc208 = loc("dot.511")
#loc209 = loc("reshape.512")
#loc210 = loc("convert.513")
#loc211 = loc("power.515")
#loc212 = loc("reduce.522")
#loc213 = loc("multiply.531")
#loc214 = loc("reshape.532")
#loc215 = loc("add.536")
#loc216 = loc("rsqrt.537")
#loc217 = loc("reshape.538")
#loc218 = loc("broadcast.539")
#loc219 = loc("multiply.540")
#loc220 = loc("reshape.195")
#loc221 = loc("reshape.197")
#loc222 = loc("convert.198")
#loc223 = loc("add.201")
#loc224 = loc("broadcast.541")
#loc225 = loc("multiply.542")
#loc226 = loc("convert.543")
#loc227 = loc("add.546")
#loc228 = loc("convert.547")
#loc229 = loc("power.549")
#loc230 = loc("reduce.556")
#loc231 = loc("multiply.565")
#loc232 = loc("reshape.566")
#loc233 = loc("add.570")
#loc234 = loc("rsqrt.571")
#loc235 = loc("reshape.572")
#loc236 = loc("broadcast.573")
#loc237 = loc("multiply.574")
#loc238 = loc("reshape.181")
#loc239 = loc("reshape.183")
#loc240 = loc("convert.184")
#loc241 = loc("add.187")
#loc242 = loc("broadcast.575")
#loc243 = loc("multiply.576")
#loc244 = loc("convert.577")
#loc245 = loc("reshape.578")
#loc246 = loc("reshape.174")
#loc247 = loc("reshape.176")
#loc248 = loc("transpose.177")
#loc249 = loc("dot.579")
#loc250 = loc("reshape.580")
#loc251 = loc("divide.582")
#loc252 = loc("tanh.583")
#loc253 = loc("multiply.585")
#loc254 = loc("reshape.587")
#loc255 = loc("iota.590")
#loc256 = loc("reduce.615")
#loc257 = loc("convert.617")
#loc258 = loc("reshape.618")
#loc259 = loc("gather.60_permuteInput"(#loc32))
#loc260 = loc("gather.60_reshapeInput"(#loc32))
#loc261 = loc("gather.60_reshapeStartIndices"(#loc32))
#loc262 = loc("gather.60_reshapeOutput"(#loc32))
#loc263 = loc("gather.60_permuteOutput"(#loc32))
