#loc1 = loc("p0.3")
#loc2 = loc("p1.11")
#loc3 = loc("p2.28")
#loc4 = loc("p3.35")
#loc5 = loc("p4.47")
#loc6 = loc("p5.52")
#loc7 = loc("p6.128")
#loc8 = loc("p7.136")
#loc9 = loc("p8.158")
#loc10 = loc("p9.168")
#loc11 = loc("p10.175")
#loc12 = loc("p11.189")
#loc13 = loc("p12.200")
#loc14 = loc("p13.205")
#loc15 = loc("p14.212")
#loc16 = loc("p15.226")
#loc17 = loc("p16.237")
#loc18 = loc("p17.282")
#loc19 = loc("p18.316")
#loc20 = loc("p19.480")
module @SyncTensorsGraph.584 attributes {mhlo.cross_program_prefetches = [], mhlo.input_output_alias = [], mhlo.is_dynamic = false, mhlo.use_auto_spmd_partitioning = false, ttcore.meshes = #ttcore.meshes<[<"mesh" = 1x1>]>} {
  ttcore.device_module {
    builtin.module @SyncTensorsGraph.584 attributes {mhlo.cross_program_prefetches = [], mhlo.input_output_alias = [], mhlo.is_dynamic = false, mhlo.use_auto_spmd_partitioning = false, ttcore.meshes = #ttcore.meshes<[<"mesh" = 1x1>]>} {
      func.func @main(%arg0: tensor<17xi64> {ttcore.argument_type = #ttcore.argument_type<input>, ttcore.shard_status = #ttcore.shard_status<unsharded>, ttir.name = "args_1"} loc("p0.3"), %arg1: tensor<128xbf16> {ttcore.argument_type = #ttcore.argument_type<constant>, ttcore.shard_status = #ttcore.shard_status<unsharded>, ttir.name = "l__self___model_rotary_emb_inv_freq"} loc("p1.11"), %arg2: tensor<1024x2304xbf16> {ttcore.argument_type = #ttcore.argument_type<parameter>, ttcore.shard_status = #ttcore.shard_status<unsharded>, ttir.name = "l__self___model_layers__modules__0___self_attn_k_proj_weight"} loc("p2.28"), %arg3: tensor<2304xbf16> {ttcore.argument_type = #ttcore.argument_type<parameter>, ttcore.shard_status = #ttcore.shard_status<unsharded>, ttir.name = "l__self___model_layers__modules__0___input_layernorm_weight"} loc("p3.35"), %arg4: tensor<32x17xi64> {ttcore.argument_type = #ttcore.argument_type<input>, ttcore.shard_status = #ttcore.shard_status<unsharded>, ttir.name = "args_0"} loc("p4.47"), %arg5: tensor<256000x2304xbf16> {ttcore.argument_type = #ttcore.argument_type<parameter>, ttcore.shard_status = #ttcore.shard_status<unsharded>, ttir.name = "l__self___model_embed_tokens_weight"} loc("p5.52"), %arg6: tensor<32x4x128x256xbf16> {ttcore.argument_type = #ttcore.argument_type<input>, ttcore.shard_status = #ttcore.shard_status<unsharded>, ttir.name = "args_2"} loc("p6.128"), %arg7: tensor<1024x2304xbf16> {ttcore.argument_type = #ttcore.argument_type<parameter>, ttcore.shard_status = #ttcore.shard_status<unsharded>, ttir.name = "l__self___model_layers__modules__0___self_attn_v_proj_weight"} loc("p7.136"), %arg8: tensor<32x4x128x256xbf16> {ttcore.argument_type = #ttcore.argument_type<input>, ttcore.shard_status = #ttcore.shard_status<unsharded>, ttir.name = "args_3"} loc("p8.158"), %arg9: tensor<256000x2304xbf16> {ttcore.argument_type = #ttcore.argument_type<parameter>, ttcore.shard_status = #ttcore.shard_status<unsharded>, ttir.name = "l__self___lm_head_weight"} loc("p9.168"), %arg10: tensor<2304xbf16> {ttcore.argument_type = #ttcore.argument_type<parameter>, ttcore.shard_status = #ttcore.shard_status<unsharded>, ttir.name = "l__self___model_norm_weight"} loc("p10.175"), %arg11: tensor<2304xbf16> {ttcore.argument_type = #ttcore.argument_type<parameter>, ttcore.shard_status = #ttcore.shard_status<unsharded>, ttir.name = "l__self___model_layers__modules__0___post_feedforward_layernorm_weight"} loc("p11.189"), %arg12: tensor<2304x9216xbf16> {ttcore.argument_type = #ttcore.argument_type<parameter>, ttcore.shard_status = #ttcore.shard_status<unsharded>, ttir.name = "l__self___model_layers__modules__0___mlp_down_proj_weight"} loc("p12.200"), %arg13: tensor<9216x2304xbf16> {ttcore.argument_type = #ttcore.argument_type<parameter>, ttcore.shard_status = #ttcore.shard_status<unsharded>, ttir.name = "l__self___model_layers__modules__0___mlp_up_proj_weight"} loc("p13.205"), %arg14: tensor<2304xbf16> {ttcore.argument_type = #ttcore.argument_type<parameter>, ttcore.shard_status = #ttcore.shard_status<unsharded>, ttir.name = "l__self___model_layers__modules__0___pre_feedforward_layernorm_weight"} loc("p14.212"), %arg15: tensor<2304xbf16> {ttcore.argument_type = #ttcore.argument_type<parameter>, ttcore.shard_status = #ttcore.shard_status<unsharded>, ttir.name = "l__self___model_layers__modules__0___post_attention_layernorm_weight"} loc("p15.226"), %arg16: tensor<2304x2048xbf16> {ttcore.argument_type = #ttcore.argument_type<parameter>, ttcore.shard_status = #ttcore.shard_status<unsharded>, ttir.name = "l__self___model_layers__modules__0___self_attn_o_proj_weight"} loc("p16.237"), %arg17: tensor<i1> {ttcore.argument_type = #ttcore.argument_type<input>, ttcore.shard_status = #ttcore.shard_status<unsharded>} loc("p17.282"), %arg18: tensor<2048x2304xbf16> {ttcore.argument_type = #ttcore.argument_type<parameter>, ttcore.shard_status = #ttcore.shard_status<unsharded>, ttir.name = "l__self___model_layers__modules__0___self_attn_q_proj_weight"} loc("p18.316"), %arg19: tensor<9216x2304xbf16> {ttcore.argument_type = #ttcore.argument_type<parameter>, ttcore.shard_status = #ttcore.shard_status<unsharded>, ttir.name = "l__self___model_layers__modules__0___mlp_gate_proj_weight"} loc("p19.480")) -> (tensor<32x4x128x256xbf16> {ttcore.shard_status = #ttcore.shard_status<unsharded>}, tensor<32x4x128x256xbf16> {ttcore.shard_status = #ttcore.shard_status<unsharded>}, tensor<32x17x256000xbf16> {ttcore.shard_status = #ttcore.shard_status<unsharded>}) {
        %0 = "ttir.constant"() <{value = dense<3.000000e+01> : tensor<32x17x256000xbf16>}> : () -> tensor<32x17x256000xbf16> loc(#loc)
        %1 = "ttir.constant"() <{value = dense<0.000000e+00> : tensor<32x8x17x128xf32>}> : () -> tensor<32x8x17x128xf32> loc(#loc)
        %2 = "ttir.constant"() <{value = dense<0xFFF0000000000000> : tensor<32x8x17x128xf64>}> : () -> tensor<32x8x17x128xf64> loc(#loc)
        %3 = "ttir.constant"() <{value = dense<0xFF80> : tensor<32x1x17x128xbf16>}> : () -> tensor<32x1x17x128xbf16> loc(#loc)
        %4 = "ttir.constant"() <{value = dense<0.000000e+00> : tensor<32x1x17x128xbf16>}> : () -> tensor<32x1x17x128xbf16> loc(#loc)
        %5 = "ttir.constant"() <{value = dense<4096> : tensor<17xi64>}> : () -> tensor<17xi64> loc(#loc)
        %6 = "ttir.constant"() <{value = dense<2.500000e-01> : tensor<32x8x256x128xf32>}> : () -> tensor<32x8x256x128xf32> loc(#loc)
        %7 = "ttir.constant"() <{value = dense<2.500000e-01> : tensor<32x8x17x256xf32>}> : () -> tensor<32x8x17x256xf32> loc(#loc)
        %8 = "ttir.constant"() <{value = dense<1.000000e+00> : tensor<2304xf32>}> : () -> tensor<2304xf32> loc(#loc)
        %9 = "ttir.constant"() <{value = dense<9.99999997E-7> : tensor<32x17x1xf32>}> : () -> tensor<32x17x1xf32> loc(#loc)
        %10 = "ttir.constant"() <{value = dense<4.34027781E-4> : tensor<32x17xf32>}> : () -> tensor<32x17xf32> loc(#loc)
        %11 = "ttir.constant"() <{value = dense<2.000000e+00> : tensor<32x17x2304xf32>}> : () -> tensor<32x17x2304xf32> loc(#loc)
        %12 = "ttir.constant"() <{value = dense<4.800000e+01> : tensor<32x17x2304xbf16>}> : () -> tensor<32x17x2304xbf16> loc(#loc)
        %13 = "ttir.constant"() <{value = dense<128> : tensor<17xi64>}> : () -> tensor<17xi64> loc(#loc)
        %14 = "ttir.constant"() <{value = dense<0> : tensor<17xi64>}> : () -> tensor<17xi64> loc(#loc)
        %15 = "ttir.constant"() <{value = dense<"…"> : tensor<128xi64>}> : () -> tensor<128xi64> loc(#loc)
        %16 = "ttir.reshape"(%arg0) <{shape = [1 : i32, 1 : i32, 17 : i32]}> : (tensor<17xi64>) -> tensor<1x1x17xi64> loc(#loc21)
        %17 = "ttir.reshape"(%16) <{shape = [17 : i32]}> : (tensor<1x1x17xi64>) -> tensor<17xi64> loc(#loc22)
        %18 = "ttir.lt"(%17, %14) : (tensor<17xi64>, tensor<17xi64>) -> tensor<17xi1> loc(#loc23)
        %19 = "ttir.add"(%17, %13) : (tensor<17xi64>, tensor<17xi64>) -> tensor<17xi64> loc(#loc24)
        %20 = "ttir.where"(%18, %19, %17) : (tensor<17xi1>, tensor<17xi64>, tensor<17xi64>) -> tensor<17xi64> loc(#loc25)
        %21 = "ttir.reshape"(%arg5) <{shape = [1 : i32, 256000 : i32, 2304 : i32]}> : (tensor<256000x2304xbf16>) -> tensor<1x256000x2304xbf16> loc(#loc26)
        %22 = "ttir.reshape"(%21) <{shape = [256000 : i32, 2304 : i32]}> : (tensor<1x256000x2304xbf16>) -> tensor<256000x2304xbf16> loc(#loc27)
        %23 = "ttir.reshape"(%arg4) <{shape = [1 : i32, 32 : i32, 17 : i32]}> : (tensor<32x17xi64>) -> tensor<1x32x17xi64> loc(#loc28)
        %24 = "ttir.reshape"(%23) <{shape = [544 : i32]}> : (tensor<1x32x17xi64>) -> tensor<544xi64> loc(#loc29)
        %25 = "ttir.typecast"(%24) <{conservative_folding = false}> : (tensor<544xi64>) -> tensor<544xui32> loc(#loc30)
        %26 = "ttir.gather"(%22, %25) <{collapsed_slice_dims = array<i64: 0>, index_vector_dim = 1 : si64, indices_are_sorted = false, offset_dims = array<i64: 1>, operand_batching_dims = array<i64>, slice_sizes = array<i64: 1, 2304>, start_index_map = array<i64: 0>, start_indices_batching_dims = array<i64>}> : (tensor<256000x2304xbf16>, tensor<544xui32>) -> tensor<544x2304xbf16> loc(#loc31)
        %27 = "ttir.reshape"(%26) <{shape = [32 : i32, 17 : i32, 2304 : i32]}> : (tensor<544x2304xbf16>) -> tensor<32x17x2304xbf16> loc(#loc32)
        %28 = "ttir.multiply"(%27, %12) : (tensor<32x17x2304xbf16>, tensor<32x17x2304xbf16>) -> tensor<32x17x2304xbf16> loc(#loc33)
        %29 = "ttir.typecast"(%28) <{conservative_folding = false}> : (tensor<32x17x2304xbf16>) -> tensor<32x17x2304xf32> loc(#loc34)
        %30 = "ttir.pow"(%29, %11) : (tensor<32x17x2304xf32>, tensor<32x17x2304xf32>) -> tensor<32x17x2304xf32> loc(#loc35)
        %31 = "ttir.sum"(%30) <{dim_arg = [2 : i32], keep_dim = false}> : (tensor<32x17x2304xf32>) -> tensor<32x17xf32> loc(#loc36)
        %32 = "ttir.multiply"(%31, %10) : (tensor<32x17xf32>, tensor<32x17xf32>) -> tensor<32x17xf32> loc(#loc37)
        %33 = "ttir.reshape"(%32) <{shape = [32 : i32, 17 : i32, 1 : i32]}> : (tensor<32x17xf32>) -> tensor<32x17x1xf32> loc(#loc38)
        %34 = "ttir.add"(%33, %9) : (tensor<32x17x1xf32>, tensor<32x17x1xf32>) -> tensor<32x17x1xf32> loc(#loc39)
        %35 = "ttir.rsqrt"(%34) : (tensor<32x17x1xf32>) -> tensor<32x17x1xf32> loc(#loc40)
        %36 = "ttir.reshape"(%35) <{shape = [32 : i32, 17 : i32]}> : (tensor<32x17x1xf32>) -> tensor<32x17xf32> loc(#loc41)
        %37 = "ttir.reshape"(%36) <{shape = [32 : i32, 17 : i32, 1 : i32]}> : (tensor<32x17xf32>) -> tensor<32x17x1xf32> loc(#loc42)
        %38 = "ttir.broadcast"(%37) <{broadcast_dimensions = array<i64: 1, 1, 2304>}> : (tensor<32x17x1xf32>) -> tensor<32x17x2304xf32> loc(#loc42)
        %39 = "ttir.multiply"(%29, %38) : (tensor<32x17x2304xf32>, tensor<32x17x2304xf32>) -> tensor<32x17x2304xf32> loc(#loc43)
        %40 = "ttir.reshape"(%arg3) <{shape = [1 : i32, 1 : i32, 2304 : i32]}> : (tensor<2304xbf16>) -> tensor<1x1x2304xbf16> loc(#loc44)
        %41 = "ttir.reshape"(%40) <{shape = [2304 : i32]}> : (tensor<1x1x2304xbf16>) -> tensor<2304xbf16> loc(#loc45)
        %42 = "ttir.typecast"(%41) <{conservative_folding = false}> : (tensor<2304xbf16>) -> tensor<2304xf32> loc(#loc46)
        %43 = "ttir.add"(%42, %8) : (tensor<2304xf32>, tensor<2304xf32>) -> tensor<2304xf32> loc(#loc47)
        %44 = "ttir.reshape"(%43) <{shape = [1 : i32, 1 : i32, 2304 : i32]}> : (tensor<2304xf32>) -> tensor<1x1x2304xf32> loc(#loc48)
        %45 = "ttir.broadcast"(%44) <{broadcast_dimensions = array<i64: 32, 17, 1>}> : (tensor<1x1x2304xf32>) -> tensor<32x17x2304xf32> loc(#loc48)
        %46 = "ttir.multiply"(%39, %45) : (tensor<32x17x2304xf32>, tensor<32x17x2304xf32>) -> tensor<32x17x2304xf32> loc(#loc49)
        %47 = "ttir.typecast"(%46) <{conservative_folding = false}> : (tensor<32x17x2304xf32>) -> tensor<32x17x2304xbf16> loc(#loc50)
        %48 = "ttir.reshape"(%47) <{shape = [544 : i32, 2304 : i32]}> : (tensor<32x17x2304xbf16>) -> tensor<544x2304xbf16> loc(#loc51)
        %49 = "ttir.reshape"(%arg2) <{shape = [1 : i32, 1024 : i32, 2304 : i32]}> : (tensor<1024x2304xbf16>) -> tensor<1x1024x2304xbf16> loc(#loc52)
        %50 = "ttir.reshape"(%49) <{shape = [1024 : i32, 2304 : i32]}> : (tensor<1x1024x2304xbf16>) -> tensor<1024x2304xbf16> loc(#loc53)
        %51 = "ttir.permute"(%50) <{permutation = array<i64: 1, 0>}> : (tensor<1024x2304xbf16>) -> tensor<2304x1024xbf16> loc(#loc54)
        %52 = "ttir.dot_general"(%48, %51) <{batch_dims_lhs = array<i64>, batch_dims_rhs = array<i64>, contract_dims_lhs = array<i64: 1>, contract_dims_rhs = array<i64: 0>}> : (tensor<544x2304xbf16>, tensor<2304x1024xbf16>) -> tensor<544x1024xbf16> loc(#loc55)
        %53 = "ttir.reshape"(%52) <{shape = [32 : i32, 17 : i32, 4 : i32, 256 : i32]}> : (tensor<544x1024xbf16>) -> tensor<32x17x4x256xbf16> loc(#loc56)
        %54 = "ttir.permute"(%53) <{permutation = array<i64: 0, 2, 1, 3>}> : (tensor<32x17x4x256xbf16>) -> tensor<32x4x17x256xbf16> loc(#loc57)
        %55 = "ttir.reshape"(%arg1) <{shape = [1 : i32, 1 : i32, 128 : i32]}> : (tensor<128xbf16>) -> tensor<1x1x128xbf16> loc(#loc58)
        %56 = "ttir.reshape"(%55) <{shape = [1 : i32, 128 : i32, 1 : i32]}> : (tensor<1x1x128xbf16>) -> tensor<1x128x1xbf16> loc(#loc59)
        %57 = "ttir.typecast"(%56) <{conservative_folding = false}> : (tensor<1x128x1xbf16>) -> tensor<1x128x1xf32> loc(#loc60)
        %58 = "ttir.typecast"(%16) <{conservative_folding = false}> : (tensor<1x1x17xi64>) -> tensor<1x1x17xf32> loc(#loc61)
        %59 = "ttir.dot_general"(%57, %58) <{batch_dims_lhs = array<i64: 0>, batch_dims_rhs = array<i64: 0>, contract_dims_lhs = array<i64: 2>, contract_dims_rhs = array<i64: 1>}> : (tensor<1x128x1xf32>, tensor<1x1x17xf32>) -> tensor<1x128x17xf32> loc(#loc62)
        %60 = "ttir.permute"(%59) <{permutation = array<i64: 0, 2, 1>}> : (tensor<1x128x17xf32>) -> tensor<1x17x128xf32> loc(#loc63)
        %61 = "ttir.concat"(%60, %60) <{dim = 2 : si32}> : (tensor<1x17x128xf32>, tensor<1x17x128xf32>) -> tensor<1x17x256xf32> loc(#loc64)
        %62 = "ttir.cos"(%61) : (tensor<1x17x256xf32>) -> tensor<1x17x256xf32> loc(#loc65)
        %63 = "ttir.typecast"(%62) <{conservative_folding = false}> : (tensor<1x17x256xf32>) -> tensor<1x17x256xbf16> loc(#loc66)
        %64 = "ttir.reshape"(%63) <{shape = [17 : i32, 256 : i32]}> : (tensor<1x17x256xbf16>) -> tensor<17x256xbf16> loc(#loc67)
        %65 = "ttir.reshape"(%64) <{shape = [1 : i32, 1 : i32, 17 : i32, 256 : i32]}> : (tensor<17x256xbf16>) -> tensor<1x1x17x256xbf16> loc(#loc68)
        %66 = "ttir.broadcast"(%65) <{broadcast_dimensions = array<i64: 32, 4, 1, 1>}> : (tensor<1x1x17x256xbf16>) -> tensor<32x4x17x256xbf16> loc(#loc68)
        %67 = "ttir.multiply"(%54, %66) : (tensor<32x4x17x256xbf16>, tensor<32x4x17x256xbf16>) -> tensor<32x4x17x256xbf16> loc(#loc69)
        %68 = "ttir.slice_static"(%54) <{begins = [0 : i32, 0 : i32, 0 : i32, 128 : i32], ends = [32 : i32, 4 : i32, 17 : i32, 256 : i32], step = [1 : i32, 1 : i32, 1 : i32, 1 : i32]}> : (tensor<32x4x17x256xbf16>) -> tensor<32x4x17x128xbf16> loc(#loc70)
        %69 = "ttir.neg"(%68) : (tensor<32x4x17x128xbf16>) -> tensor<32x4x17x128xbf16> loc(#loc71)
        %70 = "ttir.slice_static"(%54) <{begins = [0 : i32, 0 : i32, 0 : i32, 0 : i32], ends = [32 : i32, 4 : i32, 17 : i32, 128 : i32], step = [1 : i32, 1 : i32, 1 : i32, 1 : i32]}> : (tensor<32x4x17x256xbf16>) -> tensor<32x4x17x128xbf16> loc(#loc72)
        %71 = "ttir.concat"(%69, %70) <{dim = 3 : si32}> : (tensor<32x4x17x128xbf16>, tensor<32x4x17x128xbf16>) -> tensor<32x4x17x256xbf16> loc(#loc73)
        %72 = "ttir.sin"(%61) : (tensor<1x17x256xf32>) -> tensor<1x17x256xf32> loc(#loc74)
        %73 = "ttir.typecast"(%72) <{conservative_folding = false}> : (tensor<1x17x256xf32>) -> tensor<1x17x256xbf16> loc(#loc75)
        %74 = "ttir.reshape"(%73) <{shape = [17 : i32, 256 : i32]}> : (tensor<1x17x256xbf16>) -> tensor<17x256xbf16> loc(#loc76)
        %75 = "ttir.reshape"(%74) <{shape = [1 : i32, 1 : i32, 17 : i32, 256 : i32]}> : (tensor<17x256xbf16>) -> tensor<1x1x17x256xbf16> loc(#loc77)
        %76 = "ttir.broadcast"(%75) <{broadcast_dimensions = array<i64: 32, 4, 1, 1>}> : (tensor<1x1x17x256xbf16>) -> tensor<32x4x17x256xbf16> loc(#loc77)
        %77 = "ttir.multiply"(%71, %76) : (tensor<32x4x17x256xbf16>, tensor<32x4x17x256xbf16>) -> tensor<32x4x17x256xbf16> loc(#loc78)
        %78 = "ttir.add"(%67, %77) : (tensor<32x4x17x256xbf16>, tensor<32x4x17x256xbf16>) -> tensor<32x4x17x256xbf16> loc(#loc79)
        %79 = "ttir.slice_static"(%78) <{begins = [0 : i32, 0 : i32, 0 : i32, 0 : i32], ends = [1 : i32, 4 : i32, 17 : i32, 256 : i32], step = [1 : i32, 1 : i32, 1 : i32, 1 : i32]}> : (tensor<32x4x17x256xbf16>) -> tensor<1x4x17x256xbf16> loc(#loc80)
        %80 = "ttir.fill_cache"(%arg6, %79) <{batch_offset = 0 : i32}> : (tensor<32x4x128x256xbf16>, tensor<1x4x17x256xbf16>) -> tensor<32x4x128x256xbf16> loc(#loc80)
        %81 = "ttir.slice_static"(%78) <{begins = [1 : i32, 0 : i32, 0 : i32, 0 : i32], ends = [2 : i32, 4 : i32, 17 : i32, 256 : i32], step = [1 : i32, 1 : i32, 1 : i32, 1 : i32]}> : (tensor<32x4x17x256xbf16>) -> tensor<1x4x17x256xbf16> loc(#loc80)
        %82 = "ttir.fill_cache"(%80, %81) <{batch_offset = 1 : i32}> : (tensor<32x4x128x256xbf16>, tensor<1x4x17x256xbf16>) -> tensor<32x4x128x256xbf16> loc(#loc80)
        %83 = "ttir.slice_static"(%78) <{begins = [2 : i32, 0 : i32, 0 : i32, 0 : i32], ends = [3 : i32, 4 : i32, 17 : i32, 256 : i32], step = [1 : i32, 1 : i32, 1 : i32, 1 : i32]}> : (tensor<32x4x17x256xbf16>) -> tensor<1x4x17x256xbf16> loc(#loc80)
        %84 = "ttir.fill_cache"(%82, %83) <{batch_offset = 2 : i32}> : (tensor<32x4x128x256xbf16>, tensor<1x4x17x256xbf16>) -> tensor<32x4x128x256xbf16> loc(#loc80)
        %85 = "ttir.slice_static"(%78) <{begins = [3 : i32, 0 : i32, 0 : i32, 0 : i32], ends = [4 : i32, 4 : i32, 17 : i32, 256 : i32], step = [1 : i32, 1 : i32, 1 : i32, 1 : i32]}> : (tensor<32x4x17x256xbf16>) -> tensor<1x4x17x256xbf16> loc(#loc80)
        %86 = "ttir.fill_cache"(%84, %85) <{batch_offset = 3 : i32}> : (tensor<32x4x128x256xbf16>, tensor<1x4x17x256xbf16>) -> tensor<32x4x128x256xbf16> loc(#loc80)
        %87 = "ttir.slice_static"(%78) <{begins = [4 : i32, 0 : i32, 0 : i32, 0 : i32], ends = [5 : i32, 4 : i32, 17 : i32, 256 : i32], step = [1 : i32, 1 : i32, 1 : i32, 1 : i32]}> : (tensor<32x4x17x256xbf16>) -> tensor<1x4x17x256xbf16> loc(#loc80)
        %88 = "ttir.fill_cache"(%86, %87) <{batch_offset = 4 : i32}> : (tensor<32x4x128x256xbf16>, tensor<1x4x17x256xbf16>) -> tensor<32x4x128x256xbf16> loc(#loc80)
        %89 = "ttir.slice_static"(%78) <{begins = [5 : i32, 0 : i32, 0 : i32, 0 : i32], ends = [6 : i32, 4 : i32, 17 : i32, 256 : i32], step = [1 : i32, 1 : i32, 1 : i32, 1 : i32]}> : (tensor<32x4x17x256xbf16>) -> tensor<1x4x17x256xbf16> loc(#loc80)
        %90 = "ttir.fill_cache"(%88, %89) <{batch_offset = 5 : i32}> : (tensor<32x4x128x256xbf16>, tensor<1x4x17x256xbf16>) -> tensor<32x4x128x256xbf16> loc(#loc80)
        %91 = "ttir.slice_static"(%78) <{begins = [6 : i32, 0 : i32, 0 : i32, 0 : i32], ends = [7 : i32, 4 : i32, 17 : i32, 256 : i32], step = [1 : i32, 1 : i32, 1 : i32, 1 : i32]}> : (tensor<32x4x17x256xbf16>) -> tensor<1x4x17x256xbf16> loc(#loc80)
        %92 = "ttir.fill_cache"(%90, %91) <{batch_offset = 6 : i32}> : (tensor<32x4x128x256xbf16>, tensor<1x4x17x256xbf16>) -> tensor<32x4x128x256xbf16> loc(#loc80)
        %93 = "ttir.slice_static"(%78) <{begins = [7 : i32, 0 : i32, 0 : i32, 0 : i32], ends = [8 : i32, 4 : i32, 17 : i32, 256 : i32], step = [1 : i32, 1 : i32, 1 : i32, 1 : i32]}> : (tensor<32x4x17x256xbf16>) -> tensor<1x4x17x256xbf16> loc(#loc80)
        %94 = "ttir.fill_cache"(%92, %93) <{batch_offset = 7 : i32}> : (tensor<32x4x128x256xbf16>, tensor<1x4x17x256xbf16>) -> tensor<32x4x128x256xbf16> loc(#loc80)
        %95 = "ttir.slice_static"(%78) <{begins = [8 : i32, 0 : i32, 0 : i32, 0 : i32], ends = [9 : i32, 4 : i32, 17 : i32, 256 : i32], step = [1 : i32, 1 : i32, 1 : i32, 1 : i32]}> : (tensor<32x4x17x256xbf16>) -> tensor<1x4x17x256xbf16> loc(#loc80)
        %96 = "ttir.fill_cache"(%94, %95) <{batch_offset = 8 : i32}> : (tensor<32x4x128x256xbf16>, tensor<1x4x17x256xbf16>) -> tensor<32x4x128x256xbf16> loc(#loc80)
        %97 = "ttir.slice_static"(%78) <{begins = [9 : i32, 0 : i32, 0 : i32, 0 : i32], ends = [10 : i32, 4 : i32, 17 : i32, 256 : i32], step = [1 : i32, 1 : i32, 1 : i32, 1 : i32]}> : (tensor<32x4x17x256xbf16>) -> tensor<1x4x17x256xbf16> loc(#loc80)
        %98 = "ttir.fill_cache"(%96, %97) <{batch_offset = 9 : i32}> : (tensor<32x4x128x256xbf16>, tensor<1x4x17x256xbf16>) -> tensor<32x4x128x256xbf16> loc(#loc80)
        %99 = "ttir.slice_static"(%78) <{begins = [10 : i32, 0 : i32, 0 : i32, 0 : i32], ends = [11 : i32, 4 : i32, 17 : i32, 256 : i32], step = [1 : i32, 1 : i32, 1 : i32, 1 : i32]}> : (tensor<32x4x17x256xbf16>) -> tensor<1x4x17x256xbf16> loc(#loc80)
        %100 = "ttir.fill_cache"(%98, %99) <{batch_offset = 10 : i32}> : (tensor<32x4x128x256xbf16>, tensor<1x4x17x256xbf16>) -> tensor<32x4x128x256xbf16> loc(#loc80)
        %101 = "ttir.slice_static"(%78) <{begins = [11 : i32, 0 : i32, 0 : i32, 0 : i32], ends = [12 : i32, 4 : i32, 17 : i32, 256 : i32], step = [1 : i32, 1 : i32, 1 : i32, 1 : i32]}> : (tensor<32x4x17x256xbf16>) -> tensor<1x4x17x256xbf16> loc(#loc80)
        %102 = "ttir.fill_cache"(%100, %101) <{batch_offset = 11 : i32}> : (tensor<32x4x128x256xbf16>, tensor<1x4x17x256xbf16>) -> tensor<32x4x128x256xbf16> loc(#loc80)
        %103 = "ttir.slice_static"(%78) <{begins = [12 : i32, 0 : i32, 0 : i32, 0 : i32], ends = [13 : i32, 4 : i32, 17 : i32, 256 : i32], step = [1 : i32, 1 : i32, 1 : i32, 1 : i32]}> : (tensor<32x4x17x256xbf16>) -> tensor<1x4x17x256xbf16> loc(#loc80)
        %104 = "ttir.fill_cache"(%102, %103) <{batch_offset = 12 : i32}> : (tensor<32x4x128x256xbf16>, tensor<1x4x17x256xbf16>) -> tensor<32x4x128x256xbf16> loc(#loc80)
        %105 = "ttir.slice_static"(%78) <{begins = [13 : i32, 0 : i32, 0 : i32, 0 : i32], ends = [14 : i32, 4 : i32, 17 : i32, 256 : i32], step = [1 : i32, 1 : i32, 1 : i32, 1 : i32]}> : (tensor<32x4x17x256xbf16>) -> tensor<1x4x17x256xbf16> loc(#loc80)
        %106 = "ttir.fill_cache"(%104, %105) <{batch_offset = 13 : i32}> : (tensor<32x4x128x256xbf16>, tensor<1x4x17x256xbf16>) -> tensor<32x4x128x256xbf16> loc(#loc80)
        %107 = "ttir.slice_static"(%78) <{begins = [14 : i32, 0 : i32, 0 : i32, 0 : i32], ends = [15 : i32, 4 : i32, 17 : i32, 256 : i32], step = [1 : i32, 1 : i32, 1 : i32, 1 : i32]}> : (tensor<32x4x17x256xbf16>) -> tensor<1x4x17x256xbf16> loc(#loc80)
        %108 = "ttir.fill_cache"(%106, %107) <{batch_offset = 14 : i32}> : (tensor<32x4x128x256xbf16>, tensor<1x4x17x256xbf16>) -> tensor<32x4x128x256xbf16> loc(#loc80)
        %109 = "ttir.slice_static"(%78) <{begins = [15 : i32, 0 : i32, 0 : i32, 0 : i32], ends = [16 : i32, 4 : i32, 17 : i32, 256 : i32], step = [1 : i32, 1 : i32, 1 : i32, 1 : i32]}> : (tensor<32x4x17x256xbf16>) -> tensor<1x4x17x256xbf16> loc(#loc80)
        %110 = "ttir.fill_cache"(%108, %109) <{batch_offset = 15 : i32}> : (tensor<32x4x128x256xbf16>, tensor<1x4x17x256xbf16>) -> tensor<32x4x128x256xbf16> loc(#loc80)
        %111 = "ttir.slice_static"(%78) <{begins = [16 : i32, 0 : i32, 0 : i32, 0 : i32], ends = [17 : i32, 4 : i32, 17 : i32, 256 : i32], step = [1 : i32, 1 : i32, 1 : i32, 1 : i32]}> : (tensor<32x4x17x256xbf16>) -> tensor<1x4x17x256xbf16> loc(#loc80)
        %112 = "ttir.fill_cache"(%110, %111) <{batch_offset = 16 : i32}> : (tensor<32x4x128x256xbf16>, tensor<1x4x17x256xbf16>) -> tensor<32x4x128x256xbf16> loc(#loc80)
        %113 = "ttir.slice_static"(%78) <{begins = [17 : i32, 0 : i32, 0 : i32, 0 : i32], ends = [18 : i32, 4 : i32, 17 : i32, 256 : i32], step = [1 : i32, 1 : i32, 1 : i32, 1 : i32]}> : (tensor<32x4x17x256xbf16>) -> tensor<1x4x17x256xbf16> loc(#loc80)
        %114 = "ttir.fill_cache"(%112, %113) <{batch_offset = 17 : i32}> : (tensor<32x4x128x256xbf16>, tensor<1x4x17x256xbf16>) -> tensor<32x4x128x256xbf16> loc(#loc80)
        %115 = "ttir.slice_static"(%78) <{begins = [18 : i32, 0 : i32, 0 : i32, 0 : i32], ends = [19 : i32, 4 : i32, 17 : i32, 256 : i32], step = [1 : i32, 1 : i32, 1 : i32, 1 : i32]}> : (tensor<32x4x17x256xbf16>) -> tensor<1x4x17x256xbf16> loc(#loc80)
        %116 = "ttir.fill_cache"(%114, %115) <{batch_offset = 18 : i32}> : (tensor<32x4x128x256xbf16>, tensor<1x4x17x256xbf16>) -> tensor<32x4x128x256xbf16> loc(#loc80)
        %117 = "ttir.slice_static"(%78) <{begins = [19 : i32, 0 : i32, 0 : i32, 0 : i32], ends = [20 : i32, 4 : i32, 17 : i32, 256 : i32], step = [1 : i32, 1 : i32, 1 : i32, 1 : i32]}> : (tensor<32x4x17x256xbf16>) -> tensor<1x4x17x256xbf16> loc(#loc80)
        %118 = "ttir.fill_cache"(%116, %117) <{batch_offset = 19 : i32}> : (tensor<32x4x128x256xbf16>, tensor<1x4x17x256xbf16>) -> tensor<32x4x128x256xbf16> loc(#loc80)
        %119 = "ttir.slice_static"(%78) <{begins = [20 : i32, 0 : i32, 0 : i32, 0 : i32], ends = [21 : i32, 4 : i32, 17 : i32, 256 : i32], step = [1 : i32, 1 : i32, 1 : i32, 1 : i32]}> : (tensor<32x4x17x256xbf16>) -> tensor<1x4x17x256xbf16> loc(#loc80)
        %120 = "ttir.fill_cache"(%118, %119) <{batch_offset = 20 : i32}> : (tensor<32x4x128x256xbf16>, tensor<1x4x17x256xbf16>) -> tensor<32x4x128x256xbf16> loc(#loc80)
        %121 = "ttir.slice_static"(%78) <{begins = [21 : i32, 0 : i32, 0 : i32, 0 : i32], ends = [22 : i32, 4 : i32, 17 : i32, 256 : i32], step = [1 : i32, 1 : i32, 1 : i32, 1 : i32]}> : (tensor<32x4x17x256xbf16>) -> tensor<1x4x17x256xbf16> loc(#loc80)
        %122 = "ttir.fill_cache"(%120, %121) <{batch_offset = 21 : i32}> : (tensor<32x4x128x256xbf16>, tensor<1x4x17x256xbf16>) -> tensor<32x4x128x256xbf16> loc(#loc80)
        %123 = "ttir.slice_static"(%78) <{begins = [22 : i32, 0 : i32, 0 : i32, 0 : i32], ends = [23 : i32, 4 : i32, 17 : i32, 256 : i32], step = [1 : i32, 1 : i32, 1 : i32, 1 : i32]}> : (tensor<32x4x17x256xbf16>) -> tensor<1x4x17x256xbf16> loc(#loc80)
        %124 = "ttir.fill_cache"(%122, %123) <{batch_offset = 22 : i32}> : (tensor<32x4x128x256xbf16>, tensor<1x4x17x256xbf16>) -> tensor<32x4x128x256xbf16> loc(#loc80)
        %125 = "ttir.slice_static"(%78) <{begins = [23 : i32, 0 : i32, 0 : i32, 0 : i32], ends = [24 : i32, 4 : i32, 17 : i32, 256 : i32], step = [1 : i32, 1 : i32, 1 : i32, 1 : i32]}> : (tensor<32x4x17x256xbf16>) -> tensor<1x4x17x256xbf16> loc(#loc80)
        %126 = "ttir.fill_cache"(%124, %125) <{batch_offset = 23 : i32}> : (tensor<32x4x128x256xbf16>, tensor<1x4x17x256xbf16>) -> tensor<32x4x128x256xbf16> loc(#loc80)
        %127 = "ttir.slice_static"(%78) <{begins = [24 : i32, 0 : i32, 0 : i32, 0 : i32], ends = [25 : i32, 4 : i32, 17 : i32, 256 : i32], step = [1 : i32, 1 : i32, 1 : i32, 1 : i32]}> : (tensor<32x4x17x256xbf16>) -> tensor<1x4x17x256xbf16> loc(#loc80)
        %128 = "ttir.fill_cache"(%126, %127) <{batch_offset = 24 : i32}> : (tensor<32x4x128x256xbf16>, tensor<1x4x17x256xbf16>) -> tensor<32x4x128x256xbf16> loc(#loc80)
        %129 = "ttir.slice_static"(%78) <{begins = [25 : i32, 0 : i32, 0 : i32, 0 : i32], ends = [26 : i32, 4 : i32, 17 : i32, 256 : i32], step = [1 : i32, 1 : i32, 1 : i32, 1 : i32]}> : (tensor<32x4x17x256xbf16>) -> tensor<1x4x17x256xbf16> loc(#loc80)
        %130 = "ttir.fill_cache"(%128, %129) <{batch_offset = 25 : i32}> : (tensor<32x4x128x256xbf16>, tensor<1x4x17x256xbf16>) -> tensor<32x4x128x256xbf16> loc(#loc80)
        %131 = "ttir.slice_static"(%78) <{begins = [26 : i32, 0 : i32, 0 : i32, 0 : i32], ends = [27 : i32, 4 : i32, 17 : i32, 256 : i32], step = [1 : i32, 1 : i32, 1 : i32, 1 : i32]}> : (tensor<32x4x17x256xbf16>) -> tensor<1x4x17x256xbf16> loc(#loc80)
        %132 = "ttir.fill_cache"(%130, %131) <{batch_offset = 26 : i32}> : (tensor<32x4x128x256xbf16>, tensor<1x4x17x256xbf16>) -> tensor<32x4x128x256xbf16> loc(#loc80)
        %133 = "ttir.slice_static"(%78) <{begins = [27 : i32, 0 : i32, 0 : i32, 0 : i32], ends = [28 : i32, 4 : i32, 17 : i32, 256 : i32], step = [1 : i32, 1 : i32, 1 : i32, 1 : i32]}> : (tensor<32x4x17x256xbf16>) -> tensor<1x4x17x256xbf16> loc(#loc80)
        %134 = "ttir.fill_cache"(%132, %133) <{batch_offset = 27 : i32}> : (tensor<32x4x128x256xbf16>, tensor<1x4x17x256xbf16>) -> tensor<32x4x128x256xbf16> loc(#loc80)
        %135 = "ttir.slice_static"(%78) <{begins = [28 : i32, 0 : i32, 0 : i32, 0 : i32], ends = [29 : i32, 4 : i32, 17 : i32, 256 : i32], step = [1 : i32, 1 : i32, 1 : i32, 1 : i32]}> : (tensor<32x4x17x256xbf16>) -> tensor<1x4x17x256xbf16> loc(#loc80)
        %136 = "ttir.fill_cache"(%134, %135) <{batch_offset = 28 : i32}> : (tensor<32x4x128x256xbf16>, tensor<1x4x17x256xbf16>) -> tensor<32x4x128x256xbf16> loc(#loc80)
        %137 = "ttir.slice_static"(%78) <{begins = [29 : i32, 0 : i32, 0 : i32, 0 : i32], ends = [30 : i32, 4 : i32, 17 : i32, 256 : i32], step = [1 : i32, 1 : i32, 1 : i32, 1 : i32]}> : (tensor<32x4x17x256xbf16>) -> tensor<1x4x17x256xbf16> loc(#loc80)
        %138 = "ttir.fill_cache"(%136, %137) <{batch_offset = 29 : i32}> : (tensor<32x4x128x256xbf16>, tensor<1x4x17x256xbf16>) -> tensor<32x4x128x256xbf16> loc(#loc80)
        %139 = "ttir.slice_static"(%78) <{begins = [30 : i32, 0 : i32, 0 : i32, 0 : i32], ends = [31 : i32, 4 : i32, 17 : i32, 256 : i32], step = [1 : i32, 1 : i32, 1 : i32, 1 : i32]}> : (tensor<32x4x17x256xbf16>) -> tensor<1x4x17x256xbf16> loc(#loc80)
        %140 = "ttir.fill_cache"(%138, %139) <{batch_offset = 30 : i32}> : (tensor<32x4x128x256xbf16>, tensor<1x4x17x256xbf16>) -> tensor<32x4x128x256xbf16> loc(#loc80)
        %141 = "ttir.slice_static"(%78) <{begins = [31 : i32, 0 : i32, 0 : i32, 0 : i32], ends = [32 : i32, 4 : i32, 17 : i32, 256 : i32], step = [1 : i32, 1 : i32, 1 : i32, 1 : i32]}> : (tensor<32x4x17x256xbf16>) -> tensor<1x4x17x256xbf16> loc(#loc80)
        %142 = "ttir.fill_cache"(%140, %141) <{batch_offset = 31 : i32}> : (tensor<32x4x128x256xbf16>, tensor<1x4x17x256xbf16>) -> tensor<32x4x128x256xbf16> loc(#loc80)
        %143 = "ttir.reshape"(%arg7) <{shape = [1 : i32, 1024 : i32, 2304 : i32]}> : (tensor<1024x2304xbf16>) -> tensor<1x1024x2304xbf16> loc(#loc81)
        %144 = "ttir.reshape"(%143) <{shape = [1024 : i32, 2304 : i32]}> : (tensor<1x1024x2304xbf16>) -> tensor<1024x2304xbf16> loc(#loc82)
        %145 = "ttir.permute"(%144) <{permutation = array<i64: 1, 0>}> : (tensor<1024x2304xbf16>) -> tensor<2304x1024xbf16> loc(#loc83)
        %146 = "ttir.dot_general"(%48, %145) <{batch_dims_lhs = array<i64>, batch_dims_rhs = array<i64>, contract_dims_lhs = array<i64: 1>, contract_dims_rhs = array<i64: 0>}> : (tensor<544x2304xbf16>, tensor<2304x1024xbf16>) -> tensor<544x1024xbf16> loc(#loc84)
        %147 = "ttir.reshape"(%146) <{shape = [32 : i32, 17 : i32, 4 : i32, 256 : i32]}> : (tensor<544x1024xbf16>) -> tensor<32x17x4x256xbf16> loc(#loc85)
        %148 = "ttir.permute"(%147) <{permutation = array<i64: 0, 2, 1, 3>}> : (tensor<32x17x4x256xbf16>) -> tensor<32x4x17x256xbf16> loc(#loc86)
        %149 = "ttir.slice_static"(%148) <{begins = [0 : i32, 0 : i32, 0 : i32, 0 : i32], ends = [1 : i32, 4 : i32, 17 : i32, 256 : i32], step = [1 : i32, 1 : i32, 1 : i32, 1 : i32]}> : (tensor<32x4x17x256xbf16>) -> tensor<1x4x17x256xbf16> loc(#loc87)
        %150 = "ttir.fill_cache"(%arg8, %149) <{batch_offset = 0 : i32}> : (tensor<32x4x128x256xbf16>, tensor<1x4x17x256xbf16>) -> tensor<32x4x128x256xbf16> loc(#loc87)
        %151 = "ttir.slice_static"(%148) <{begins = [1 : i32, 0 : i32, 0 : i32, 0 : i32], ends = [2 : i32, 4 : i32, 17 : i32, 256 : i32], step = [1 : i32, 1 : i32, 1 : i32, 1 : i32]}> : (tensor<32x4x17x256xbf16>) -> tensor<1x4x17x256xbf16> loc(#loc87)
        %152 = "ttir.fill_cache"(%150, %151) <{batch_offset = 1 : i32}> : (tensor<32x4x128x256xbf16>, tensor<1x4x17x256xbf16>) -> tensor<32x4x128x256xbf16> loc(#loc87)
        %153 = "ttir.slice_static"(%148) <{begins = [2 : i32, 0 : i32, 0 : i32, 0 : i32], ends = [3 : i32, 4 : i32, 17 : i32, 256 : i32], step = [1 : i32, 1 : i32, 1 : i32, 1 : i32]}> : (tensor<32x4x17x256xbf16>) -> tensor<1x4x17x256xbf16> loc(#loc87)
        %154 = "ttir.fill_cache"(%152, %153) <{batch_offset = 2 : i32}> : (tensor<32x4x128x256xbf16>, tensor<1x4x17x256xbf16>) -> tensor<32x4x128x256xbf16> loc(#loc87)
        %155 = "ttir.slice_static"(%148) <{begins = [3 : i32, 0 : i32, 0 : i32, 0 : i32], ends = [4 : i32, 4 : i32, 17 : i32, 256 : i32], step = [1 : i32, 1 : i32, 1 : i32, 1 : i32]}> : (tensor<32x4x17x256xbf16>) -> tensor<1x4x17x256xbf16> loc(#loc87)
        %156 = "ttir.fill_cache"(%154, %155) <{batch_offset = 3 : i32}> : (tensor<32x4x128x256xbf16>, tensor<1x4x17x256xbf16>) -> tensor<32x4x128x256xbf16> loc(#loc87)
        %157 = "ttir.slice_static"(%148) <{begins = [4 : i32, 0 : i32, 0 : i32, 0 : i32], ends = [5 : i32, 4 : i32, 17 : i32, 256 : i32], step = [1 : i32, 1 : i32, 1 : i32, 1 : i32]}> : (tensor<32x4x17x256xbf16>) -> tensor<1x4x17x256xbf16> loc(#loc87)
        %158 = "ttir.fill_cache"(%156, %157) <{batch_offset = 4 : i32}> : (tensor<32x4x128x256xbf16>, tensor<1x4x17x256xbf16>) -> tensor<32x4x128x256xbf16> loc(#loc87)
        %159 = "ttir.slice_static"(%148) <{begins = [5 : i32, 0 : i32, 0 : i32, 0 : i32], ends = [6 : i32, 4 : i32, 17 : i32, 256 : i32], step = [1 : i32, 1 : i32, 1 : i32, 1 : i32]}> : (tensor<32x4x17x256xbf16>) -> tensor<1x4x17x256xbf16> loc(#loc87)
        %160 = "ttir.fill_cache"(%158, %159) <{batch_offset = 5 : i32}> : (tensor<32x4x128x256xbf16>, tensor<1x4x17x256xbf16>) -> tensor<32x4x128x256xbf16> loc(#loc87)
        %161 = "ttir.slice_static"(%148) <{begins = [6 : i32, 0 : i32, 0 : i32, 0 : i32], ends = [7 : i32, 4 : i32, 17 : i32, 256 : i32], step = [1 : i32, 1 : i32, 1 : i32, 1 : i32]}> : (tensor<32x4x17x256xbf16>) -> tensor<1x4x17x256xbf16> loc(#loc87)
        %162 = "ttir.fill_cache"(%160, %161) <{batch_offset = 6 : i32}> : (tensor<32x4x128x256xbf16>, tensor<1x4x17x256xbf16>) -> tensor<32x4x128x256xbf16> loc(#loc87)
        %163 = "ttir.slice_static"(%148) <{begins = [7 : i32, 0 : i32, 0 : i32, 0 : i32], ends = [8 : i32, 4 : i32, 17 : i32, 256 : i32], step = [1 : i32, 1 : i32, 1 : i32, 1 : i32]}> : (tensor<32x4x17x256xbf16>) -> tensor<1x4x17x256xbf16> loc(#loc87)
        %164 = "ttir.fill_cache"(%162, %163) <{batch_offset = 7 : i32}> : (tensor<32x4x128x256xbf16>, tensor<1x4x17x256xbf16>) -> tensor<32x4x128x256xbf16> loc(#loc87)
        %165 = "ttir.slice_static"(%148) <{begins = [8 : i32, 0 : i32, 0 : i32, 0 : i32], ends = [9 : i32, 4 : i32, 17 : i32, 256 : i32], step = [1 : i32, 1 : i32, 1 : i32, 1 : i32]}> : (tensor<32x4x17x256xbf16>) -> tensor<1x4x17x256xbf16> loc(#loc87)
        %166 = "ttir.fill_cache"(%164, %165) <{batch_offset = 8 : i32}> : (tensor<32x4x128x256xbf16>, tensor<1x4x17x256xbf16>) -> tensor<32x4x128x256xbf16> loc(#loc87)
        %167 = "ttir.slice_static"(%148) <{begins = [9 : i32, 0 : i32, 0 : i32, 0 : i32], ends = [10 : i32, 4 : i32, 17 : i32, 256 : i32], step = [1 : i32, 1 : i32, 1 : i32, 1 : i32]}> : (tensor<32x4x17x256xbf16>) -> tensor<1x4x17x256xbf16> loc(#loc87)
        %168 = "ttir.fill_cache"(%166, %167) <{batch_offset = 9 : i32}> : (tensor<32x4x128x256xbf16>, tensor<1x4x17x256xbf16>) -> tensor<32x4x128x256xbf16> loc(#loc87)
        %169 = "ttir.slice_static"(%148) <{begins = [10 : i32, 0 : i32, 0 : i32, 0 : i32], ends = [11 : i32, 4 : i32, 17 : i32, 256 : i32], step = [1 : i32, 1 : i32, 1 : i32, 1 : i32]}> : (tensor<32x4x17x256xbf16>) -> tensor<1x4x17x256xbf16> loc(#loc87)
        %170 = "ttir.fill_cache"(%168, %169) <{batch_offset = 10 : i32}> : (tensor<32x4x128x256xbf16>, tensor<1x4x17x256xbf16>) -> tensor<32x4x128x256xbf16> loc(#loc87)
        %171 = "ttir.slice_static"(%148) <{begins = [11 : i32, 0 : i32, 0 : i32, 0 : i32], ends = [12 : i32, 4 : i32, 17 : i32, 256 : i32], step = [1 : i32, 1 : i32, 1 : i32, 1 : i32]}> : (tensor<32x4x17x256xbf16>) -> tensor<1x4x17x256xbf16> loc(#loc87)
        %172 = "ttir.fill_cache"(%170, %171) <{batch_offset = 11 : i32}> : (tensor<32x4x128x256xbf16>, tensor<1x4x17x256xbf16>) -> tensor<32x4x128x256xbf16> loc(#loc87)
        %173 = "ttir.slice_static"(%148) <{begins = [12 : i32, 0 : i32, 0 : i32, 0 : i32], ends = [13 : i32, 4 : i32, 17 : i32, 256 : i32], step = [1 : i32, 1 : i32, 1 : i32, 1 : i32]}> : (tensor<32x4x17x256xbf16>) -> tensor<1x4x17x256xbf16> loc(#loc87)
        %174 = "ttir.fill_cache"(%172, %173) <{batch_offset = 12 : i32}> : (tensor<32x4x128x256xbf16>, tensor<1x4x17x256xbf16>) -> tensor<32x4x128x256xbf16> loc(#loc87)
        %175 = "ttir.slice_static"(%148) <{begins = [13 : i32, 0 : i32, 0 : i32, 0 : i32], ends = [14 : i32, 4 : i32, 17 : i32, 256 : i32], step = [1 : i32, 1 : i32, 1 : i32, 1 : i32]}> : (tensor<32x4x17x256xbf16>) -> tensor<1x4x17x256xbf16> loc(#loc87)
        %176 = "ttir.fill_cache"(%174, %175) <{batch_offset = 13 : i32}> : (tensor<32x4x128x256xbf16>, tensor<1x4x17x256xbf16>) -> tensor<32x4x128x256xbf16> loc(#loc87)
        %177 = "ttir.slice_static"(%148) <{begins = [14 : i32, 0 : i32, 0 : i32, 0 : i32], ends = [15 : i32, 4 : i32, 17 : i32, 256 : i32], step = [1 : i32, 1 : i32, 1 : i32, 1 : i32]}> : (tensor<32x4x17x256xbf16>) -> tensor<1x4x17x256xbf16> loc(#loc87)
        %178 = "ttir.fill_cache"(%176, %177) <{batch_offset = 14 : i32}> : (tensor<32x4x128x256xbf16>, tensor<1x4x17x256xbf16>) -> tensor<32x4x128x256xbf16> loc(#loc87)
        %179 = "ttir.slice_static"(%148) <{begins = [15 : i32, 0 : i32, 0 : i32, 0 : i32], ends = [16 : i32, 4 : i32, 17 : i32, 256 : i32], step = [1 : i32, 1 : i32, 1 : i32, 1 : i32]}> : (tensor<32x4x17x256xbf16>) -> tensor<1x4x17x256xbf16> loc(#loc87)
        %180 = "ttir.fill_cache"(%178, %179) <{batch_offset = 15 : i32}> : (tensor<32x4x128x256xbf16>, tensor<1x4x17x256xbf16>) -> tensor<32x4x128x256xbf16> loc(#loc87)
        %181 = "ttir.slice_static"(%148) <{begins = [16 : i32, 0 : i32, 0 : i32, 0 : i32], ends = [17 : i32, 4 : i32, 17 : i32, 256 : i32], step = [1 : i32, 1 : i32, 1 : i32, 1 : i32]}> : (tensor<32x4x17x256xbf16>) -> tensor<1x4x17x256xbf16> loc(#loc87)
        %182 = "ttir.fill_cache"(%180, %181) <{batch_offset = 16 : i32}> : (tensor<32x4x128x256xbf16>, tensor<1x4x17x256xbf16>) -> tensor<32x4x128x256xbf16> loc(#loc87)
        %183 = "ttir.slice_static"(%148) <{begins = [17 : i32, 0 : i32, 0 : i32, 0 : i32], ends = [18 : i32, 4 : i32, 17 : i32, 256 : i32], step = [1 : i32, 1 : i32, 1 : i32, 1 : i32]}> : (tensor<32x4x17x256xbf16>) -> tensor<1x4x17x256xbf16> loc(#loc87)
        %184 = "ttir.fill_cache"(%182, %183) <{batch_offset = 17 : i32}> : (tensor<32x4x128x256xbf16>, tensor<1x4x17x256xbf16>) -> tensor<32x4x128x256xbf16> loc(#loc87)
        %185 = "ttir.slice_static"(%148) <{begins = [18 : i32, 0 : i32, 0 : i32, 0 : i32], ends = [19 : i32, 4 : i32, 17 : i32, 256 : i32], step = [1 : i32, 1 : i32, 1 : i32, 1 : i32]}> : (tensor<32x4x17x256xbf16>) -> tensor<1x4x17x256xbf16> loc(#loc87)
        %186 = "ttir.fill_cache"(%184, %185) <{batch_offset = 18 : i32}> : (tensor<32x4x128x256xbf16>, tensor<1x4x17x256xbf16>) -> tensor<32x4x128x256xbf16> loc(#loc87)
        %187 = "ttir.slice_static"(%148) <{begins = [19 : i32, 0 : i32, 0 : i32, 0 : i32], ends = [20 : i32, 4 : i32, 17 : i32, 256 : i32], step = [1 : i32, 1 : i32, 1 : i32, 1 : i32]}> : (tensor<32x4x17x256xbf16>) -> tensor<1x4x17x256xbf16> loc(#loc87)
        %188 = "ttir.fill_cache"(%186, %187) <{batch_offset = 19 : i32}> : (tensor<32x4x128x256xbf16>, tensor<1x4x17x256xbf16>) -> tensor<32x4x128x256xbf16> loc(#loc87)
        %189 = "ttir.slice_static"(%148) <{begins = [20 : i32, 0 : i32, 0 : i32, 0 : i32], ends = [21 : i32, 4 : i32, 17 : i32, 256 : i32], step = [1 : i32, 1 : i32, 1 : i32, 1 : i32]}> : (tensor<32x4x17x256xbf16>) -> tensor<1x4x17x256xbf16> loc(#loc87)
        %190 = "ttir.fill_cache"(%188, %189) <{batch_offset = 20 : i32}> : (tensor<32x4x128x256xbf16>, tensor<1x4x17x256xbf16>) -> tensor<32x4x128x256xbf16> loc(#loc87)
        %191 = "ttir.slice_static"(%148) <{begins = [21 : i32, 0 : i32, 0 : i32, 0 : i32], ends = [22 : i32, 4 : i32, 17 : i32, 256 : i32], step = [1 : i32, 1 : i32, 1 : i32, 1 : i32]}> : (tensor<32x4x17x256xbf16>) -> tensor<1x4x17x256xbf16> loc(#loc87)
        %192 = "ttir.fill_cache"(%190, %191) <{batch_offset = 21 : i32}> : (tensor<32x4x128x256xbf16>, tensor<1x4x17x256xbf16>) -> tensor<32x4x128x256xbf16> loc(#loc87)
        %193 = "ttir.slice_static"(%148) <{begins = [22 : i32, 0 : i32, 0 : i32, 0 : i32], ends = [23 : i32, 4 : i32, 17 : i32, 256 : i32], step = [1 : i32, 1 : i32, 1 : i32, 1 : i32]}> : (tensor<32x4x17x256xbf16>) -> tensor<1x4x17x256xbf16> loc(#loc87)
        %194 = "ttir.fill_cache"(%192, %193) <{batch_offset = 22 : i32}> : (tensor<32x4x128x256xbf16>, tensor<1x4x17x256xbf16>) -> tensor<32x4x128x256xbf16> loc(#loc87)
        %195 = "ttir.slice_static"(%148) <{begins = [23 : i32, 0 : i32, 0 : i32, 0 : i32], ends = [24 : i32, 4 : i32, 17 : i32, 256 : i32], step = [1 : i32, 1 : i32, 1 : i32, 1 : i32]}> : (tensor<32x4x17x256xbf16>) -> tensor<1x4x17x256xbf16> loc(#loc87)
        %196 = "ttir.fill_cache"(%194, %195) <{batch_offset = 23 : i32}> : (tensor<32x4x128x256xbf16>, tensor<1x4x17x256xbf16>) -> tensor<32x4x128x256xbf16> loc(#loc87)
        %197 = "ttir.slice_static"(%148) <{begins = [24 : i32, 0 : i32, 0 : i32, 0 : i32], ends = [25 : i32, 4 : i32, 17 : i32, 256 : i32], step = [1 : i32, 1 : i32, 1 : i32, 1 : i32]}> : (tensor<32x4x17x256xbf16>) -> tensor<1x4x17x256xbf16> loc(#loc87)
        %198 = "ttir.fill_cache"(%196, %197) <{batch_offset = 24 : i32}> : (tensor<32x4x128x256xbf16>, tensor<1x4x17x256xbf16>) -> tensor<32x4x128x256xbf16> loc(#loc87)
        %199 = "ttir.slice_static"(%148) <{begins = [25 : i32, 0 : i32, 0 : i32, 0 : i32], ends = [26 : i32, 4 : i32, 17 : i32, 256 : i32], step = [1 : i32, 1 : i32, 1 : i32, 1 : i32]}> : (tensor<32x4x17x256xbf16>) -> tensor<1x4x17x256xbf16> loc(#loc87)
        %200 = "ttir.fill_cache"(%198, %199) <{batch_offset = 25 : i32}> : (tensor<32x4x128x256xbf16>, tensor<1x4x17x256xbf16>) -> tensor<32x4x128x256xbf16> loc(#loc87)
        %201 = "ttir.slice_static"(%148) <{begins = [26 : i32, 0 : i32, 0 : i32, 0 : i32], ends = [27 : i32, 4 : i32, 17 : i32, 256 : i32], step = [1 : i32, 1 : i32, 1 : i32, 1 : i32]}> : (tensor<32x4x17x256xbf16>) -> tensor<1x4x17x256xbf16> loc(#loc87)
        %202 = "ttir.fill_cache"(%200, %201) <{batch_offset = 26 : i32}> : (tensor<32x4x128x256xbf16>, tensor<1x4x17x256xbf16>) -> tensor<32x4x128x256xbf16> loc(#loc87)
        %203 = "ttir.slice_static"(%148) <{begins = [27 : i32, 0 : i32, 0 : i32, 0 : i32], ends = [28 : i32, 4 : i32, 17 : i32, 256 : i32], step = [1 : i32, 1 : i32, 1 : i32, 1 : i32]}> : (tensor<32x4x17x256xbf16>) -> tensor<1x4x17x256xbf16> loc(#loc87)
        %204 = "ttir.fill_cache"(%202, %203) <{batch_offset = 27 : i32}> : (tensor<32x4x128x256xbf16>, tensor<1x4x17x256xbf16>) -> tensor<32x4x128x256xbf16> loc(#loc87)
        %205 = "ttir.slice_static"(%148) <{begins = [28 : i32, 0 : i32, 0 : i32, 0 : i32], ends = [29 : i32, 4 : i32, 17 : i32, 256 : i32], step = [1 : i32, 1 : i32, 1 : i32, 1 : i32]}> : (tensor<32x4x17x256xbf16>) -> tensor<1x4x17x256xbf16> loc(#loc87)
        %206 = "ttir.fill_cache"(%204, %205) <{batch_offset = 28 : i32}> : (tensor<32x4x128x256xbf16>, tensor<1x4x17x256xbf16>) -> tensor<32x4x128x256xbf16> loc(#loc87)
        %207 = "ttir.slice_static"(%148) <{begins = [29 : i32, 0 : i32, 0 : i32, 0 : i32], ends = [30 : i32, 4 : i32, 17 : i32, 256 : i32], step = [1 : i32, 1 : i32, 1 : i32, 1 : i32]}> : (tensor<32x4x17x256xbf16>) -> tensor<1x4x17x256xbf16> loc(#loc87)
        %208 = "ttir.fill_cache"(%206, %207) <{batch_offset = 29 : i32}> : (tensor<32x4x128x256xbf16>, tensor<1x4x17x256xbf16>) -> tensor<32x4x128x256xbf16> loc(#loc87)
        %209 = "ttir.slice_static"(%148) <{begins = [30 : i32, 0 : i32, 0 : i32, 0 : i32], ends = [31 : i32, 4 : i32, 17 : i32, 256 : i32], step = [1 : i32, 1 : i32, 1 : i32, 1 : i32]}> : (tensor<32x4x17x256xbf16>) -> tensor<1x4x17x256xbf16> loc(#loc87)
        %210 = "ttir.fill_cache"(%208, %209) <{batch_offset = 30 : i32}> : (tensor<32x4x128x256xbf16>, tensor<1x4x17x256xbf16>) -> tensor<32x4x128x256xbf16> loc(#loc87)
        %211 = "ttir.slice_static"(%148) <{begins = [31 : i32, 0 : i32, 0 : i32, 0 : i32], ends = [32 : i32, 4 : i32, 17 : i32, 256 : i32], step = [1 : i32, 1 : i32, 1 : i32, 1 : i32]}> : (tensor<32x4x17x256xbf16>) -> tensor<1x4x17x256xbf16> loc(#loc87)
        %212 = "ttir.fill_cache"(%210, %211) <{batch_offset = 31 : i32}> : (tensor<32x4x128x256xbf16>, tensor<1x4x17x256xbf16>) -> tensor<32x4x128x256xbf16> loc(#loc87)
        %213 = "ttir.reshape"(%arg18) <{shape = [1 : i32, 2048 : i32, 2304 : i32]}> : (tensor<2048x2304xbf16>) -> tensor<1x2048x2304xbf16> loc(#loc88)
        %214 = "ttir.reshape"(%213) <{shape = [2048 : i32, 2304 : i32]}> : (tensor<1x2048x2304xbf16>) -> tensor<2048x2304xbf16> loc(#loc89)
        %215 = "ttir.permute"(%214) <{permutation = array<i64: 1, 0>}> : (tensor<2048x2304xbf16>) -> tensor<2304x2048xbf16> loc(#loc90)
        %216 = "ttir.dot_general"(%48, %215) <{batch_dims_lhs = array<i64>, batch_dims_rhs = array<i64>, contract_dims_lhs = array<i64: 1>, contract_dims_rhs = array<i64: 0>}> : (tensor<544x2304xbf16>, tensor<2304x2048xbf16>) -> tensor<544x2048xbf16> loc(#loc91)
        %217 = "ttir.reshape"(%216) <{shape = [32 : i32, 17 : i32, 8 : i32, 256 : i32]}> : (tensor<544x2048xbf16>) -> tensor<32x17x8x256xbf16> loc(#loc92)
        %218 = "ttir.permute"(%217) <{permutation = array<i64: 0, 2, 1, 3>}> : (tensor<32x17x8x256xbf16>) -> tensor<32x8x17x256xbf16> loc(#loc93)
        %219 = "ttir.broadcast"(%65) <{broadcast_dimensions = array<i64: 32, 8, 1, 1>}> : (tensor<1x1x17x256xbf16>) -> tensor<32x8x17x256xbf16> loc(#loc94)
        %220 = "ttir.multiply"(%218, %219) : (tensor<32x8x17x256xbf16>, tensor<32x8x17x256xbf16>) -> tensor<32x8x17x256xbf16> loc(#loc95)
        %221 = "ttir.slice_static"(%218) <{begins = [0 : i32, 0 : i32, 0 : i32, 128 : i32], ends = [32 : i32, 8 : i32, 17 : i32, 256 : i32], step = [1 : i32, 1 : i32, 1 : i32, 1 : i32]}> : (tensor<32x8x17x256xbf16>) -> tensor<32x8x17x128xbf16> loc(#loc96)
        %222 = "ttir.neg"(%221) : (tensor<32x8x17x128xbf16>) -> tensor<32x8x17x128xbf16> loc(#loc97)
        %223 = "ttir.slice_static"(%218) <{begins = [0 : i32, 0 : i32, 0 : i32, 0 : i32], ends = [32 : i32, 8 : i32, 17 : i32, 128 : i32], step = [1 : i32, 1 : i32, 1 : i32, 1 : i32]}> : (tensor<32x8x17x256xbf16>) -> tensor<32x8x17x128xbf16> loc(#loc98)
        %224 = "ttir.concat"(%222, %223) <{dim = 3 : si32}> : (tensor<32x8x17x128xbf16>, tensor<32x8x17x128xbf16>) -> tensor<32x8x17x256xbf16> loc(#loc99)
        %225 = "ttir.broadcast"(%75) <{broadcast_dimensions = array<i64: 32, 8, 1, 1>}> : (tensor<1x1x17x256xbf16>) -> tensor<32x8x17x256xbf16> loc(#loc100)
        %226 = "ttir.multiply"(%224, %225) : (tensor<32x8x17x256xbf16>, tensor<32x8x17x256xbf16>) -> tensor<32x8x17x256xbf16> loc(#loc101)
        %227 = "ttir.add"(%220, %226) : (tensor<32x8x17x256xbf16>, tensor<32x8x17x256xbf16>) -> tensor<32x8x17x256xbf16> loc(#loc102)
        %228 = "ttir.typecast"(%227) <{conservative_folding = false}> : (tensor<32x8x17x256xbf16>) -> tensor<32x8x17x256xf32> loc(#loc103)
        %229 = "ttir.multiply"(%228, %7) : (tensor<32x8x17x256xf32>, tensor<32x8x17x256xf32>) -> tensor<32x8x17x256xf32> loc(#loc104)
        %230 = "ttir.reshape"(%142) <{shape = [32 : i32, 4 : i32, 1 : i32, 128 : i32, 256 : i32]}> : (tensor<32x4x128x256xbf16>) -> tensor<32x4x1x128x256xbf16> loc(#loc105)
        %231 = "ttir.broadcast"(%230) <{broadcast_dimensions = array<i64: 1, 1, 2, 1, 1>}> : (tensor<32x4x1x128x256xbf16>) -> tensor<32x4x2x128x256xbf16> loc(#loc105)
        %232 = "ttir.reshape"(%231) <{shape = [32 : i32, 8 : i32, 128 : i32, 256 : i32]}> : (tensor<32x4x2x128x256xbf16>) -> tensor<32x8x128x256xbf16> loc(#loc106)
        %233 = "ttir.typecast"(%232) <{conservative_folding = false}> : (tensor<32x8x128x256xbf16>) -> tensor<32x8x128x256xf32> loc(#loc107)
        %234 = "ttir.permute"(%233) <{permutation = array<i64: 0, 1, 3, 2>}> : (tensor<32x8x128x256xf32>) -> tensor<32x8x256x128xf32> loc(#loc108)
        %235 = "ttir.multiply"(%234, %6) : (tensor<32x8x256x128xf32>, tensor<32x8x256x128xf32>) -> tensor<32x8x256x128xf32> loc(#loc109)
        %236 = "ttir.dot_general"(%229, %235) <{batch_dims_lhs = array<i64: 0, 1>, batch_dims_rhs = array<i64: 0, 1>, contract_dims_lhs = array<i64: 3>, contract_dims_rhs = array<i64: 2>}> : (tensor<32x8x17x256xf32>, tensor<32x8x256x128xf32>) -> tensor<32x8x17x128xf32> loc(#loc110)
        %237 = "ttir.reshape"(%arg17) <{shape = [1 : i32, 1 : i32]}> : (tensor<i1>) -> tensor<1x1xi1> loc(#loc111)
        %238 = "ttir.broadcast"(%237) <{broadcast_dimensions = array<i64: 17, 128>}> : (tensor<1x1xi1>) -> tensor<17x128xi1> loc(#loc111)
        %239 = "ttir.reshape"(%15) <{shape = [1 : i32, 128 : i32]}> : (tensor<128xi64>) -> tensor<1x128xi64> loc(#loc112)
        %240 = "ttir.broadcast"(%239) <{broadcast_dimensions = array<i64: 17, 1>}> : (tensor<1x128xi64>) -> tensor<17x128xi64> loc(#loc112)
        %241 = "ttir.subtract"(%17, %5) : (tensor<17xi64>, tensor<17xi64>) -> tensor<17xi64> loc(#loc113)
        %242 = "ttir.reshape"(%241) <{shape = [17 : i32, 1 : i32]}> : (tensor<17xi64>) -> tensor<17x1xi64> loc(#loc114)
        %243 = "ttir.broadcast"(%242) <{broadcast_dimensions = array<i64: 1, 128>}> : (tensor<17x1xi64>) -> tensor<17x128xi64> loc(#loc114)
        %244 = "ttir.gt"(%240, %243) : (tensor<17x128xi64>, tensor<17x128xi64>) -> tensor<17x128xi1> loc(#loc115)
        %245 = "ttir.logical_and"(%238, %244) : (tensor<17x128xi1>, tensor<17x128xi1>) -> tensor<17x128xi1> loc(#loc116)
        %246 = "ttir.reshape"(%17) <{shape = [17 : i32, 1 : i32]}> : (tensor<17xi64>) -> tensor<17x1xi64> loc(#loc117)
        %247 = "ttir.broadcast"(%246) <{broadcast_dimensions = array<i64: 1, 128>}> : (tensor<17x1xi64>) -> tensor<17x128xi64> loc(#loc117)
        %248 = "ttir.le"(%240, %247) : (tensor<17x128xi64>, tensor<17x128xi64>) -> tensor<17x128xi1> loc(#loc118)
        %249 = "ttir.logical_and"(%245, %248) : (tensor<17x128xi1>, tensor<17x128xi1>) -> tensor<17x128xi1> loc(#loc119)
        %250 = "ttir.reshape"(%249) <{shape = [1 : i32, 17 : i32, 128 : i32]}> : (tensor<17x128xi1>) -> tensor<1x17x128xi1> loc(#loc120)
        %251 = "ttir.reshape"(%250) <{shape = [1 : i32, 1 : i32, 17 : i32, 128 : i32]}> : (tensor<1x17x128xi1>) -> tensor<1x1x17x128xi1> loc(#loc121)
        %252 = "ttir.broadcast"(%251) <{broadcast_dimensions = array<i64: 32, 1, 1, 1>}> : (tensor<1x1x17x128xi1>) -> tensor<32x1x17x128xi1> loc(#loc121)
        %253 = "ttir.where"(%252, %4, %3) : (tensor<32x1x17x128xi1>, tensor<32x1x17x128xbf16>, tensor<32x1x17x128xbf16>) -> tensor<32x1x17x128xbf16> loc(#loc122)
        %254 = "ttir.typecast"(%253) <{conservative_folding = false}> : (tensor<32x1x17x128xbf16>) -> tensor<32x1x17x128xf32> loc(#loc123)
        %255 = "ttir.reshape"(%254) <{shape = [32 : i32, 17 : i32, 128 : i32]}> : (tensor<32x1x17x128xf32>) -> tensor<32x17x128xf32> loc(#loc124)
        %256 = "ttir.reshape"(%255) <{shape = [32 : i32, 1 : i32, 17 : i32, 128 : i32]}> : (tensor<32x17x128xf32>) -> tensor<32x1x17x128xf32> loc(#loc125)
        %257 = "ttir.broadcast"(%256) <{broadcast_dimensions = array<i64: 1, 8, 1, 1>}> : (tensor<32x1x17x128xf32>) -> tensor<32x8x17x128xf32> loc(#loc125)
        %258 = "ttir.add"(%236, %257) : (tensor<32x8x17x128xf32>, tensor<32x8x17x128xf32>) -> tensor<32x8x17x128xf32> loc(#loc126)
        %259 = "ttir.typecast"(%258) <{conservative_folding = false}> : (tensor<32x8x17x128xf32>) -> tensor<32x8x17x128xf64> loc(#loc127)
        %260 = "ttir.eq"(%259, %2) : (tensor<32x8x17x128xf64>, tensor<32x8x17x128xf64>) -> tensor<32x8x17x128xi1> loc(#loc128)
        %261 = "ttir.logical_not"(%260) : (tensor<32x8x17x128xi1>) -> tensor<32x8x17x128xi1> loc(#loc129)
        %262 = "ttir.reduce_or"(%261) <{dim_arg = [3 : i32], keep_dim = false}> : (tensor<32x8x17x128xi1>) -> tensor<32x8x17xi1> loc(#loc130)
        %263 = "ttir.reshape"(%262) <{shape = [32 : i32, 8 : i32, 17 : i32, 1 : i32]}> : (tensor<32x8x17xi1>) -> tensor<32x8x17x1xi1> loc(#loc131)
        %264 = "ttir.logical_not"(%263) : (tensor<32x8x17x1xi1>) -> tensor<32x8x17x1xi1> loc(#loc132)
        %265 = "ttir.reshape"(%264) <{shape = [32 : i32, 8 : i32, 17 : i32]}> : (tensor<32x8x17x1xi1>) -> tensor<32x8x17xi1> loc(#loc133)
        %266 = "ttir.reshape"(%265) <{shape = [32 : i32, 8 : i32, 17 : i32, 1 : i32]}> : (tensor<32x8x17xi1>) -> tensor<32x8x17x1xi1> loc(#loc134)
        %267 = "ttir.broadcast"(%266) <{broadcast_dimensions = array<i64: 1, 1, 1, 128>}> : (tensor<32x8x17x1xi1>) -> tensor<32x8x17x128xi1> loc(#loc134)
        %268 = "ttir.max"(%258) <{dim_arg = [3 : i32], keep_dim = false}> : (tensor<32x8x17x128xf32>) -> tensor<32x8x17xf32> loc(#loc135)
        %269 = "ttir.reshape"(%268) <{shape = [32 : i32, 8 : i32, 17 : i32, 1 : i32]}> : (tensor<32x8x17xf32>) -> tensor<32x8x17x1xf32> loc(#loc136)
        %270 = "ttir.broadcast"(%269) <{broadcast_dimensions = array<i64: 1, 1, 1, 128>}> : (tensor<32x8x17x1xf32>) -> tensor<32x8x17x128xf32> loc(#loc136)
        %271 = "ttir.subtract"(%258, %270) : (tensor<32x8x17x128xf32>, tensor<32x8x17x128xf32>) -> tensor<32x8x17x128xf32> loc(#loc137)
        %272 = "ttir.exp"(%271) : (tensor<32x8x17x128xf32>) -> tensor<32x8x17x128xf32> loc(#loc138)
        %273 = "ttir.sum"(%272) <{dim_arg = [3 : i32], keep_dim = false}> : (tensor<32x8x17x128xf32>) -> tensor<32x8x17xf32> loc(#loc139)
        %274 = "ttir.reshape"(%273) <{shape = [32 : i32, 8 : i32, 17 : i32, 1 : i32]}> : (tensor<32x8x17xf32>) -> tensor<32x8x17x1xf32> loc(#loc140)
        %275 = "ttir.broadcast"(%274) <{broadcast_dimensions = array<i64: 1, 1, 1, 128>}> : (tensor<32x8x17x1xf32>) -> tensor<32x8x17x128xf32> loc(#loc140)
        %276 = "ttir.div"(%272, %275) : (tensor<32x8x17x128xf32>, tensor<32x8x17x128xf32>) -> tensor<32x8x17x128xf32> loc(#loc141)
        %277 = "ttir.where"(%267, %1, %276) : (tensor<32x8x17x128xi1>, tensor<32x8x17x128xf32>, tensor<32x8x17x128xf32>) -> tensor<32x8x17x128xf32> loc(#loc142)
        %278 = "ttir.reshape"(%212) <{shape = [32 : i32, 4 : i32, 1 : i32, 128 : i32, 256 : i32]}> : (tensor<32x4x128x256xbf16>) -> tensor<32x4x1x128x256xbf16> loc(#loc143)
        %279 = "ttir.broadcast"(%278) <{broadcast_dimensions = array<i64: 1, 1, 2, 1, 1>}> : (tensor<32x4x1x128x256xbf16>) -> tensor<32x4x2x128x256xbf16> loc(#loc143)
        %280 = "ttir.reshape"(%279) <{shape = [32 : i32, 8 : i32, 128 : i32, 256 : i32]}> : (tensor<32x4x2x128x256xbf16>) -> tensor<32x8x128x256xbf16> loc(#loc144)
        %281 = "ttir.typecast"(%280) <{conservative_folding = false}> : (tensor<32x8x128x256xbf16>) -> tensor<32x8x128x256xf32> loc(#loc145)
        %282 = "ttir.dot_general"(%277, %281) <{batch_dims_lhs = array<i64: 0, 1>, batch_dims_rhs = array<i64: 0, 1>, contract_dims_lhs = array<i64: 3>, contract_dims_rhs = array<i64: 2>}> : (tensor<32x8x17x128xf32>, tensor<32x8x128x256xf32>) -> tensor<32x8x17x256xf32> loc(#loc146)
        %283 = "ttir.typecast"(%282) <{conservative_folding = false}> : (tensor<32x8x17x256xf32>) -> tensor<32x8x17x256xbf16> loc(#loc147)
        %284 = "ttir.permute"(%283) <{permutation = array<i64: 0, 2, 1, 3>}> : (tensor<32x8x17x256xbf16>) -> tensor<32x17x8x256xbf16> loc(#loc148)
        %285 = "ttir.reshape"(%284) <{shape = [544 : i32, 2048 : i32]}> : (tensor<32x17x8x256xbf16>) -> tensor<544x2048xbf16> loc(#loc149)
        %286 = "ttir.reshape"(%arg16) <{shape = [1 : i32, 2304 : i32, 2048 : i32]}> : (tensor<2304x2048xbf16>) -> tensor<1x2304x2048xbf16> loc(#loc150)
        %287 = "ttir.reshape"(%286) <{shape = [2304 : i32, 2048 : i32]}> : (tensor<1x2304x2048xbf16>) -> tensor<2304x2048xbf16> loc(#loc151)
        %288 = "ttir.permute"(%287) <{permutation = array<i64: 1, 0>}> : (tensor<2304x2048xbf16>) -> tensor<2048x2304xbf16> loc(#loc152)
        %289 = "ttir.dot_general"(%285, %288) <{batch_dims_lhs = array<i64>, batch_dims_rhs = array<i64>, contract_dims_lhs = array<i64: 1>, contract_dims_rhs = array<i64: 0>}> : (tensor<544x2048xbf16>, tensor<2048x2304xbf16>) -> tensor<544x2304xbf16> loc(#loc153)
        %290 = "ttir.reshape"(%289) <{shape = [32 : i32, 17 : i32, 2304 : i32]}> : (tensor<544x2304xbf16>) -> tensor<32x17x2304xbf16> loc(#loc154)
        %291 = "ttir.typecast"(%290) <{conservative_folding = false}> : (tensor<32x17x2304xbf16>) -> tensor<32x17x2304xf32> loc(#loc155)
        %292 = "ttir.pow"(%291, %11) : (tensor<32x17x2304xf32>, tensor<32x17x2304xf32>) -> tensor<32x17x2304xf32> loc(#loc156)
        %293 = "ttir.sum"(%292) <{dim_arg = [2 : i32], keep_dim = false}> : (tensor<32x17x2304xf32>) -> tensor<32x17xf32> loc(#loc157)
        %294 = "ttir.multiply"(%293, %10) : (tensor<32x17xf32>, tensor<32x17xf32>) -> tensor<32x17xf32> loc(#loc158)
        %295 = "ttir.reshape"(%294) <{shape = [32 : i32, 17 : i32, 1 : i32]}> : (tensor<32x17xf32>) -> tensor<32x17x1xf32> loc(#loc159)
        %296 = "ttir.add"(%295, %9) : (tensor<32x17x1xf32>, tensor<32x17x1xf32>) -> tensor<32x17x1xf32> loc(#loc160)
        %297 = "ttir.rsqrt"(%296) : (tensor<32x17x1xf32>) -> tensor<32x17x1xf32> loc(#loc161)
        %298 = "ttir.reshape"(%297) <{shape = [32 : i32, 17 : i32]}> : (tensor<32x17x1xf32>) -> tensor<32x17xf32> loc(#loc162)
        %299 = "ttir.reshape"(%298) <{shape = [32 : i32, 17 : i32, 1 : i32]}> : (tensor<32x17xf32>) -> tensor<32x17x1xf32> loc(#loc163)
        %300 = "ttir.broadcast"(%299) <{broadcast_dimensions = array<i64: 1, 1, 2304>}> : (tensor<32x17x1xf32>) -> tensor<32x17x2304xf32> loc(#loc163)
        %301 = "ttir.multiply"(%291, %300) : (tensor<32x17x2304xf32>, tensor<32x17x2304xf32>) -> tensor<32x17x2304xf32> loc(#loc164)
        %302 = "ttir.reshape"(%arg15) <{shape = [1 : i32, 1 : i32, 2304 : i32]}> : (tensor<2304xbf16>) -> tensor<1x1x2304xbf16> loc(#loc165)
        %303 = "ttir.reshape"(%302) <{shape = [2304 : i32]}> : (tensor<1x1x2304xbf16>) -> tensor<2304xbf16> loc(#loc166)
        %304 = "ttir.typecast"(%303) <{conservative_folding = false}> : (tensor<2304xbf16>) -> tensor<2304xf32> loc(#loc167)
        %305 = "ttir.add"(%304, %8) : (tensor<2304xf32>, tensor<2304xf32>) -> tensor<2304xf32> loc(#loc168)
        %306 = "ttir.reshape"(%305) <{shape = [1 : i32, 1 : i32, 2304 : i32]}> : (tensor<2304xf32>) -> tensor<1x1x2304xf32> loc(#loc169)
        %307 = "ttir.broadcast"(%306) <{broadcast_dimensions = array<i64: 32, 17, 1>}> : (tensor<1x1x2304xf32>) -> tensor<32x17x2304xf32> loc(#loc169)
        %308 = "ttir.multiply"(%301, %307) : (tensor<32x17x2304xf32>, tensor<32x17x2304xf32>) -> tensor<32x17x2304xf32> loc(#loc170)
        %309 = "ttir.typecast"(%308) <{conservative_folding = false}> : (tensor<32x17x2304xf32>) -> tensor<32x17x2304xbf16> loc(#loc171)
        %310 = "ttir.add"(%28, %309) : (tensor<32x17x2304xbf16>, tensor<32x17x2304xbf16>) -> tensor<32x17x2304xbf16> loc(#loc172)
        %311 = "ttir.typecast"(%310) <{conservative_folding = false}> : (tensor<32x17x2304xbf16>) -> tensor<32x17x2304xf32> loc(#loc173)
        %312 = "ttir.pow"(%311, %11) : (tensor<32x17x2304xf32>, tensor<32x17x2304xf32>) -> tensor<32x17x2304xf32> loc(#loc174)
        %313 = "ttir.sum"(%312) <{dim_arg = [2 : i32], keep_dim = false}> : (tensor<32x17x2304xf32>) -> tensor<32x17xf32> loc(#loc175)
        %314 = "ttir.multiply"(%313, %10) : (tensor<32x17xf32>, tensor<32x17xf32>) -> tensor<32x17xf32> loc(#loc176)
        %315 = "ttir.reshape"(%314) <{shape = [32 : i32, 17 : i32, 1 : i32]}> : (tensor<32x17xf32>) -> tensor<32x17x1xf32> loc(#loc177)
        %316 = "ttir.add"(%315, %9) : (tensor<32x17x1xf32>, tensor<32x17x1xf32>) -> tensor<32x17x1xf32> loc(#loc178)
        %317 = "ttir.rsqrt"(%316) : (tensor<32x17x1xf32>) -> tensor<32x17x1xf32> loc(#loc179)
        %318 = "ttir.reshape"(%317) <{shape = [32 : i32, 17 : i32]}> : (tensor<32x17x1xf32>) -> tensor<32x17xf32> loc(#loc180)
        %319 = "ttir.reshape"(%318) <{shape = [32 : i32, 17 : i32, 1 : i32]}> : (tensor<32x17xf32>) -> tensor<32x17x1xf32> loc(#loc181)
        %320 = "ttir.broadcast"(%319) <{broadcast_dimensions = array<i64: 1, 1, 2304>}> : (tensor<32x17x1xf32>) -> tensor<32x17x2304xf32> loc(#loc181)
        %321 = "ttir.multiply"(%311, %320) : (tensor<32x17x2304xf32>, tensor<32x17x2304xf32>) -> tensor<32x17x2304xf32> loc(#loc182)
        %322 = "ttir.reshape"(%arg14) <{shape = [1 : i32, 1 : i32, 2304 : i32]}> : (tensor<2304xbf16>) -> tensor<1x1x2304xbf16> loc(#loc183)
        %323 = "ttir.reshape"(%322) <{shape = [2304 : i32]}> : (tensor<1x1x2304xbf16>) -> tensor<2304xbf16> loc(#loc184)
        %324 = "ttir.typecast"(%323) <{conservative_folding = false}> : (tensor<2304xbf16>) -> tensor<2304xf32> loc(#loc185)
        %325 = "ttir.add"(%324, %8) : (tensor<2304xf32>, tensor<2304xf32>) -> tensor<2304xf32> loc(#loc186)
        %326 = "ttir.reshape"(%325) <{shape = [1 : i32, 1 : i32, 2304 : i32]}> : (tensor<2304xf32>) -> tensor<1x1x2304xf32> loc(#loc187)
        %327 = "ttir.broadcast"(%326) <{broadcast_dimensions = array<i64: 32, 17, 1>}> : (tensor<1x1x2304xf32>) -> tensor<32x17x2304xf32> loc(#loc187)
        %328 = "ttir.multiply"(%321, %327) : (tensor<32x17x2304xf32>, tensor<32x17x2304xf32>) -> tensor<32x17x2304xf32> loc(#loc188)
        %329 = "ttir.typecast"(%328) <{conservative_folding = false}> : (tensor<32x17x2304xf32>) -> tensor<32x17x2304xbf16> loc(#loc189)
        %330 = "ttir.reshape"(%329) <{shape = [544 : i32, 2304 : i32]}> : (tensor<32x17x2304xbf16>) -> tensor<544x2304xbf16> loc(#loc190)
        %331 = "ttir.reshape"(%arg19) <{shape = [1 : i32, 9216 : i32, 2304 : i32]}> : (tensor<9216x2304xbf16>) -> tensor<1x9216x2304xbf16> loc(#loc191)
        %332 = "ttir.reshape"(%331) <{shape = [9216 : i32, 2304 : i32]}> : (tensor<1x9216x2304xbf16>) -> tensor<9216x2304xbf16> loc(#loc192)
        %333 = "ttir.permute"(%332) <{permutation = array<i64: 1, 0>}> : (tensor<9216x2304xbf16>) -> tensor<2304x9216xbf16> loc(#loc193)
        %334 = "ttir.dot_general"(%330, %333) <{batch_dims_lhs = array<i64>, batch_dims_rhs = array<i64>, contract_dims_lhs = array<i64: 1>, contract_dims_rhs = array<i64: 0>}> : (tensor<544x2304xbf16>, tensor<2304x9216xbf16>) -> tensor<544x9216xbf16> loc(#loc194)
        %335 = "ttir.reshape"(%334) <{shape = [32 : i32, 17 : i32, 9216 : i32]}> : (tensor<544x9216xbf16>) -> tensor<32x17x9216xbf16> loc(#loc195)
        %336 = "ttir.gelu"(%335) {approximate = "tanh"} : (tensor<32x17x9216xbf16>) -> tensor<32x17x9216xbf16> loc(#loc196)
        %337 = "ttir.reshape"(%arg13) <{shape = [1 : i32, 9216 : i32, 2304 : i32]}> : (tensor<9216x2304xbf16>) -> tensor<1x9216x2304xbf16> loc(#loc197)
        %338 = "ttir.reshape"(%337) <{shape = [9216 : i32, 2304 : i32]}> : (tensor<1x9216x2304xbf16>) -> tensor<9216x2304xbf16> loc(#loc198)
        %339 = "ttir.permute"(%338) <{permutation = array<i64: 1, 0>}> : (tensor<9216x2304xbf16>) -> tensor<2304x9216xbf16> loc(#loc199)
        %340 = "ttir.dot_general"(%330, %339) <{batch_dims_lhs = array<i64>, batch_dims_rhs = array<i64>, contract_dims_lhs = array<i64: 1>, contract_dims_rhs = array<i64: 0>}> : (tensor<544x2304xbf16>, tensor<2304x9216xbf16>) -> tensor<544x9216xbf16> loc(#loc200)
        %341 = "ttir.reshape"(%340) <{shape = [32 : i32, 17 : i32, 9216 : i32]}> : (tensor<544x9216xbf16>) -> tensor<32x17x9216xbf16> loc(#loc201)
        %342 = "ttir.multiply"(%336, %341) : (tensor<32x17x9216xbf16>, tensor<32x17x9216xbf16>) -> tensor<32x17x9216xbf16> loc(#loc202)
        %343 = "ttir.reshape"(%342) <{shape = [544 : i32, 9216 : i32]}> : (tensor<32x17x9216xbf16>) -> tensor<544x9216xbf16> loc(#loc203)
        %344 = "ttir.reshape"(%arg12) <{shape = [1 : i32, 2304 : i32, 9216 : i32]}> : (tensor<2304x9216xbf16>) -> tensor<1x2304x9216xbf16> loc(#loc204)
        %345 = "ttir.reshape"(%344) <{shape = [2304 : i32, 9216 : i32]}> : (tensor<1x2304x9216xbf16>) -> tensor<2304x9216xbf16> loc(#loc205)
        %346 = "ttir.permute"(%345) <{permutation = array<i64: 1, 0>}> : (tensor<2304x9216xbf16>) -> tensor<9216x2304xbf16> loc(#loc206)
        %347 = "ttir.dot_general"(%343, %346) <{batch_dims_lhs = array<i64>, batch_dims_rhs = array<i64>, contract_dims_lhs = array<i64: 1>, contract_dims_rhs = array<i64: 0>}> : (tensor<544x9216xbf16>, tensor<9216x2304xbf16>) -> tensor<544x2304xbf16> loc(#loc207)
        %348 = "ttir.reshape"(%347) <{shape = [32 : i32, 17 : i32, 2304 : i32]}> : (tensor<544x2304xbf16>) -> tensor<32x17x2304xbf16> loc(#loc208)
        %349 = "ttir.typecast"(%348) <{conservative_folding = false}> : (tensor<32x17x2304xbf16>) -> tensor<32x17x2304xf32> loc(#loc209)
        %350 = "ttir.pow"(%349, %11) : (tensor<32x17x2304xf32>, tensor<32x17x2304xf32>) -> tensor<32x17x2304xf32> loc(#loc210)
        %351 = "ttir.sum"(%350) <{dim_arg = [2 : i32], keep_dim = false}> : (tensor<32x17x2304xf32>) -> tensor<32x17xf32> loc(#loc211)
        %352 = "ttir.multiply"(%351, %10) : (tensor<32x17xf32>, tensor<32x17xf32>) -> tensor<32x17xf32> loc(#loc212)
        %353 = "ttir.reshape"(%352) <{shape = [32 : i32, 17 : i32, 1 : i32]}> : (tensor<32x17xf32>) -> tensor<32x17x1xf32> loc(#loc213)
        %354 = "ttir.add"(%353, %9) : (tensor<32x17x1xf32>, tensor<32x17x1xf32>) -> tensor<32x17x1xf32> loc(#loc214)
        %355 = "ttir.rsqrt"(%354) : (tensor<32x17x1xf32>) -> tensor<32x17x1xf32> loc(#loc215)
        %356 = "ttir.reshape"(%355) <{shape = [32 : i32, 17 : i32]}> : (tensor<32x17x1xf32>) -> tensor<32x17xf32> loc(#loc216)
        %357 = "ttir.reshape"(%356) <{shape = [32 : i32, 17 : i32, 1 : i32]}> : (tensor<32x17xf32>) -> tensor<32x17x1xf32> loc(#loc217)
        %358 = "ttir.broadcast"(%357) <{broadcast_dimensions = array<i64: 1, 1, 2304>}> : (tensor<32x17x1xf32>) -> tensor<32x17x2304xf32> loc(#loc217)
        %359 = "ttir.multiply"(%349, %358) : (tensor<32x17x2304xf32>, tensor<32x17x2304xf32>) -> tensor<32x17x2304xf32> loc(#loc218)
        %360 = "ttir.reshape"(%arg11) <{shape = [1 : i32, 1 : i32, 2304 : i32]}> : (tensor<2304xbf16>) -> tensor<1x1x2304xbf16> loc(#loc219)
        %361 = "ttir.reshape"(%360) <{shape = [2304 : i32]}> : (tensor<1x1x2304xbf16>) -> tensor<2304xbf16> loc(#loc220)
        %362 = "ttir.typecast"(%361) <{conservative_folding = false}> : (tensor<2304xbf16>) -> tensor<2304xf32> loc(#loc221)
        %363 = "ttir.add"(%362, %8) : (tensor<2304xf32>, tensor<2304xf32>) -> tensor<2304xf32> loc(#loc222)
        %364 = "ttir.reshape"(%363) <{shape = [1 : i32, 1 : i32, 2304 : i32]}> : (tensor<2304xf32>) -> tensor<1x1x2304xf32> loc(#loc223)
        %365 = "ttir.broadcast"(%364) <{broadcast_dimensions = array<i64: 32, 17, 1>}> : (tensor<1x1x2304xf32>) -> tensor<32x17x2304xf32> loc(#loc223)
        %366 = "ttir.multiply"(%359, %365) : (tensor<32x17x2304xf32>, tensor<32x17x2304xf32>) -> tensor<32x17x2304xf32> loc(#loc224)
        %367 = "ttir.typecast"(%366) <{conservative_folding = false}> : (tensor<32x17x2304xf32>) -> tensor<32x17x2304xbf16> loc(#loc225)
        %368 = "ttir.add"(%310, %367) : (tensor<32x17x2304xbf16>, tensor<32x17x2304xbf16>) -> tensor<32x17x2304xbf16> loc(#loc226)
        %369 = "ttir.typecast"(%368) <{conservative_folding = false}> : (tensor<32x17x2304xbf16>) -> tensor<32x17x2304xf32> loc(#loc227)
        %370 = "ttir.pow"(%369, %11) : (tensor<32x17x2304xf32>, tensor<32x17x2304xf32>) -> tensor<32x17x2304xf32> loc(#loc228)
        %371 = "ttir.sum"(%370) <{dim_arg = [2 : i32], keep_dim = false}> : (tensor<32x17x2304xf32>) -> tensor<32x17xf32> loc(#loc229)
        %372 = "ttir.multiply"(%371, %10) : (tensor<32x17xf32>, tensor<32x17xf32>) -> tensor<32x17xf32> loc(#loc230)
        %373 = "ttir.reshape"(%372) <{shape = [32 : i32, 17 : i32, 1 : i32]}> : (tensor<32x17xf32>) -> tensor<32x17x1xf32> loc(#loc231)
        %374 = "ttir.add"(%373, %9) : (tensor<32x17x1xf32>, tensor<32x17x1xf32>) -> tensor<32x17x1xf32> loc(#loc232)
        %375 = "ttir.rsqrt"(%374) : (tensor<32x17x1xf32>) -> tensor<32x17x1xf32> loc(#loc233)
        %376 = "ttir.reshape"(%375) <{shape = [32 : i32, 17 : i32]}> : (tensor<32x17x1xf32>) -> tensor<32x17xf32> loc(#loc234)
        %377 = "ttir.reshape"(%376) <{shape = [32 : i32, 17 : i32, 1 : i32]}> : (tensor<32x17xf32>) -> tensor<32x17x1xf32> loc(#loc235)
        %378 = "ttir.broadcast"(%377) <{broadcast_dimensions = array<i64: 1, 1, 2304>}> : (tensor<32x17x1xf32>) -> tensor<32x17x2304xf32> loc(#loc235)
        %379 = "ttir.multiply"(%369, %378) : (tensor<32x17x2304xf32>, tensor<32x17x2304xf32>) -> tensor<32x17x2304xf32> loc(#loc236)
        %380 = "ttir.reshape"(%arg10) <{shape = [1 : i32, 1 : i32, 2304 : i32]}> : (tensor<2304xbf16>) -> tensor<1x1x2304xbf16> loc(#loc237)
        %381 = "ttir.reshape"(%380) <{shape = [2304 : i32]}> : (tensor<1x1x2304xbf16>) -> tensor<2304xbf16> loc(#loc238)
        %382 = "ttir.typecast"(%381) <{conservative_folding = false}> : (tensor<2304xbf16>) -> tensor<2304xf32> loc(#loc239)
        %383 = "ttir.add"(%382, %8) : (tensor<2304xf32>, tensor<2304xf32>) -> tensor<2304xf32> loc(#loc240)
        %384 = "ttir.reshape"(%383) <{shape = [1 : i32, 1 : i32, 2304 : i32]}> : (tensor<2304xf32>) -> tensor<1x1x2304xf32> loc(#loc241)
        %385 = "ttir.broadcast"(%384) <{broadcast_dimensions = array<i64: 32, 17, 1>}> : (tensor<1x1x2304xf32>) -> tensor<32x17x2304xf32> loc(#loc241)
        %386 = "ttir.multiply"(%379, %385) : (tensor<32x17x2304xf32>, tensor<32x17x2304xf32>) -> tensor<32x17x2304xf32> loc(#loc242)
        %387 = "ttir.typecast"(%386) <{conservative_folding = false}> : (tensor<32x17x2304xf32>) -> tensor<32x17x2304xbf16> loc(#loc243)
        %388 = "ttir.reshape"(%387) <{shape = [544 : i32, 2304 : i32]}> : (tensor<32x17x2304xbf16>) -> tensor<544x2304xbf16> loc(#loc244)
        %389 = "ttir.reshape"(%arg9) <{shape = [1 : i32, 256000 : i32, 2304 : i32]}> : (tensor<256000x2304xbf16>) -> tensor<1x256000x2304xbf16> loc(#loc245)
        %390 = "ttir.reshape"(%389) <{shape = [256000 : i32, 2304 : i32]}> : (tensor<1x256000x2304xbf16>) -> tensor<256000x2304xbf16> loc(#loc246)
        %391 = "ttir.permute"(%390) <{permutation = array<i64: 1, 0>}> : (tensor<256000x2304xbf16>) -> tensor<2304x256000xbf16> loc(#loc247)
        %392 = "ttir.dot_general"(%388, %391) <{batch_dims_lhs = array<i64>, batch_dims_rhs = array<i64>, contract_dims_lhs = array<i64: 1>, contract_dims_rhs = array<i64: 0>}> : (tensor<544x2304xbf16>, tensor<2304x256000xbf16>) -> tensor<544x256000xbf16> loc(#loc248)
        %393 = "ttir.reshape"(%392) <{shape = [32 : i32, 17 : i32, 256000 : i32]}> : (tensor<544x256000xbf16>) -> tensor<32x17x256000xbf16> loc(#loc249)
        %394 = "ttir.div"(%393, %0) : (tensor<32x17x256000xbf16>, tensor<32x17x256000xbf16>) -> tensor<32x17x256000xbf16> loc(#loc250)
        %395 = "ttir.tanh"(%394) : (tensor<32x17x256000xbf16>) -> tensor<32x17x256000xbf16> loc(#loc251)
        %396 = "ttir.multiply"(%395, %0) : (tensor<32x17x256000xbf16>, tensor<32x17x256000xbf16>) -> tensor<32x17x256000xbf16> loc(#loc252)
        return %142, %212, %396 : tensor<32x4x128x256xbf16>, tensor<32x4x128x256xbf16>, tensor<32x17x256000xbf16> loc(#loc)
      } loc(#loc)
    } loc(#loc)
  } loc(#loc)
} loc(#loc)
#loc = loc(unknown)
#loc21 = loc("reshape.4")
#loc22 = loc("reshape.6")
#loc23 = loc("compare.124")
#loc24 = loc("add.121")
#loc25 = loc("select.125")
#loc26 = loc("reshape.53")
#loc27 = loc("reshape.55")
#loc28 = loc("reshape.48")
#loc29 = loc("reshape.51")
#loc30 = loc("convert.56")
#loc31 = loc("gather.57")
#loc32 = loc("reshape.58")
#loc33 = loc("multiply.60")
#loc34 = loc("convert.61")
#loc35 = loc("power.63")
#loc36 = loc("reduce.70")
#loc37 = loc("multiply.79")
#loc38 = loc("reshape.80")
#loc39 = loc("add.84")
#loc40 = loc("rsqrt.85")
#loc41 = loc("reshape.86")
#loc42 = loc("broadcast.87")
#loc43 = loc("multiply.88")
#loc44 = loc("reshape.36")
#loc45 = loc("reshape.38")
#loc46 = loc("convert.39")
#loc47 = loc("add.42")
#loc48 = loc("broadcast.89")
#loc49 = loc("multiply.90")
#loc50 = loc("convert.91")
#loc51 = loc("reshape.92")
#loc52 = loc("reshape.29")
#loc53 = loc("reshape.31")
#loc54 = loc("transpose.32")
#loc55 = loc("dot.93")
#loc56 = loc("reshape.95")
#loc57 = loc("transpose.96")
#loc58 = loc("reshape.12")
#loc59 = loc("reshape.16")
#loc60 = loc("convert.17")
#loc61 = loc("convert.9")
#loc62 = loc("dot.20")
#loc63 = loc("transpose.21")
#loc64 = loc("concatenate.22")
#loc65 = loc("cosine.105")
#loc66 = loc("convert.108")
#loc67 = loc("reshape.110")
#loc68 = loc("broadcast.111")
#loc69 = loc("multiply.112")
#loc70 = loc("slice.98")
#loc71 = loc("negate.99")
#loc72 = loc("slice.97")
#loc73 = loc("concatenate.100")
#loc74 = loc("sine.23")
#loc75 = loc("convert.26")
#loc76 = loc("reshape.101")
#loc77 = loc("broadcast.102")
#loc78 = loc("multiply.103")
#loc79 = loc("add.115")
#loc80 = loc("scatter.134")
#loc81 = loc("reshape.137")
#loc82 = loc("reshape.139")
#loc83 = loc("transpose.140")
#loc84 = loc("dot.142")
#loc85 = loc("reshape.144")
#loc86 = loc("transpose.145")
#loc87 = loc("scatter.164")
#loc88 = loc("reshape.317")
#loc89 = loc("reshape.319")
#loc90 = loc("transpose.320")
#loc91 = loc("dot.322")
#loc92 = loc("reshape.324")
#loc93 = loc("transpose.325")
#loc94 = loc("broadcast.334")
#loc95 = loc("multiply.335")
#loc96 = loc("slice.327")
#loc97 = loc("negate.328")
#loc98 = loc("slice.326")
#loc99 = loc("concatenate.329")
#loc100 = loc("broadcast.331")
#loc101 = loc("multiply.332")
#loc102 = loc("add.338")
#loc103 = loc("convert.339")
#loc104 = loc("multiply.341")
#loc105 = loc("broadcast.308")
#loc106 = loc("reshape.309")
#loc107 = loc("convert.310")
#loc108 = loc("transpose.311")
#loc109 = loc("multiply.313")
#loc110 = loc("dot.342")
#loc111 = loc("broadcast.291")
#loc112 = loc("broadcast.278")
#loc113 = loc("subtract.276")
#loc114 = loc("broadcast.280")
#loc115 = loc("compare.281")
#loc116 = loc("and.292")
#loc117 = loc("broadcast.270")
#loc118 = loc("compare.271")
#loc119 = loc("and.295")
#loc120 = loc("reshape.296")
#loc121 = loc("broadcast.301")
#loc122 = loc("select.303")
#loc123 = loc("convert.344")
#loc124 = loc("reshape.347")
#loc125 = loc("broadcast.348")
#loc126 = loc("add.349")
#loc127 = loc("convert.375")
#loc128 = loc("compare.377")
#loc129 = loc("not.379")
#loc130 = loc("reduce.391")
#loc131 = loc("reshape.395")
#loc132 = loc("not.397")
#loc133 = loc("reshape.399")
#loc134 = loc("broadcast.400")
#loc135 = loc("reduce.355")
#loc136 = loc("broadcast.356")
#loc137 = loc("subtract.357")
#loc138 = loc("exponential.358")
#loc139 = loc("reduce.364")
#loc140 = loc("broadcast.365")
#loc141 = loc("divide.366")
#loc142 = loc("select.401")
#loc143 = loc("broadcast.245")
#loc144 = loc("reshape.246")
#loc145 = loc("convert.247")
#loc146 = loc("dot.402")
#loc147 = loc("convert.404")
#loc148 = loc("transpose.405")
#loc149 = loc("reshape.407")
#loc150 = loc("reshape.238")
#loc151 = loc("reshape.240")
#loc152 = loc("transpose.241")
#loc153 = loc("dot.408")
#loc154 = loc("reshape.409")
#loc155 = loc("convert.410")
#loc156 = loc("power.412")
#loc157 = loc("reduce.419")
#loc158 = loc("multiply.428")
#loc159 = loc("reshape.429")
#loc160 = loc("add.433")
#loc161 = loc("rsqrt.434")
#loc162 = loc("reshape.435")
#loc163 = loc("broadcast.436")
#loc164 = loc("multiply.437")
#loc165 = loc("reshape.227")
#loc166 = loc("reshape.229")
#loc167 = loc("convert.230")
#loc168 = loc("add.233")
#loc169 = loc("broadcast.438")
#loc170 = loc("multiply.439")
#loc171 = loc("convert.440")
#loc172 = loc("add.443")
#loc173 = loc("convert.444")
#loc174 = loc("power.446")
#loc175 = loc("reduce.453")
#loc176 = loc("multiply.462")
#loc177 = loc("reshape.463")
#loc178 = loc("add.467")
#loc179 = loc("rsqrt.468")
#loc180 = loc("reshape.469")
#loc181 = loc("broadcast.470")
#loc182 = loc("multiply.471")
#loc183 = loc("reshape.213")
#loc184 = loc("reshape.215")
#loc185 = loc("convert.216")
#loc186 = loc("add.219")
#loc187 = loc("broadcast.472")
#loc188 = loc("multiply.473")
#loc189 = loc("convert.474")
#loc190 = loc("reshape.485")
#loc191 = loc("reshape.481")
#loc192 = loc("reshape.483")
#loc193 = loc("transpose.484")
#loc194 = loc("dot.486")
#loc195 = loc("reshape.487")
#loc196 = loc("custom-call.505")
#loc197 = loc("reshape.206")
#loc198 = loc("reshape.208")
#loc199 = loc("transpose.209")
#loc200 = loc("dot.476")
#loc201 = loc("reshape.477")
#loc202 = loc("multiply.506")
#loc203 = loc("reshape.507")
#loc204 = loc("reshape.201")
#loc205 = loc("reshape.203")
#loc206 = loc("transpose.204")
#loc207 = loc("dot.508")
#loc208 = loc("reshape.509")
#loc209 = loc("convert.510")
#loc210 = loc("power.512")
#loc211 = loc("reduce.519")
#loc212 = loc("multiply.528")
#loc213 = loc("reshape.529")
#loc214 = loc("add.533")
#loc215 = loc("rsqrt.534")
#loc216 = loc("reshape.535")
#loc217 = loc("broadcast.536")
#loc218 = loc("multiply.537")
#loc219 = loc("reshape.190")
#loc220 = loc("reshape.192")
#loc221 = loc("convert.193")
#loc222 = loc("add.196")
#loc223 = loc("broadcast.538")
#loc224 = loc("multiply.539")
#loc225 = loc("convert.540")
#loc226 = loc("add.543")
#loc227 = loc("convert.544")
#loc228 = loc("power.546")
#loc229 = loc("reduce.553")
#loc230 = loc("multiply.562")
#loc231 = loc("reshape.563")
#loc232 = loc("add.567")
#loc233 = loc("rsqrt.568")
#loc234 = loc("reshape.569")
#loc235 = loc("broadcast.570")
#loc236 = loc("multiply.571")
#loc237 = loc("reshape.176")
#loc238 = loc("reshape.178")
#loc239 = loc("convert.179")
#loc240 = loc("add.182")
#loc241 = loc("broadcast.572")
#loc242 = loc("multiply.573")
#loc243 = loc("convert.574")
#loc244 = loc("reshape.575")
#loc245 = loc("reshape.169")
#loc246 = loc("reshape.171")
#loc247 = loc("transpose.172")
#loc248 = loc("dot.576")
#loc249 = loc("reshape.577")
#loc250 = loc("divide.579")
#loc251 = loc("tanh.580")
#loc252 = loc("multiply.582")
