#loc1 = loc("p0.3")
#loc2 = loc("p1.11")
#loc3 = loc("p2.28")
#loc4 = loc("p3.32")
#loc5 = loc("p4.40")
#loc6 = loc("p5.52")
#loc7 = loc("p6.57")
#loc8 = loc("p7.149")
#loc9 = loc("p8.158")
#loc10 = loc("p9.162")
#loc11 = loc("p10.191")
#loc12 = loc("p11.205")
#loc13 = loc("p12.213")
#loc14 = loc("p13.228")
#loc15 = loc("p14.236")
#loc16 = loc("p15.245")
#loc17 = loc("p16.259")
#loc18 = loc("p17.263")
#loc19 = loc("p18.277")
#loc20 = loc("p19.292")
#loc21 = loc("p20.327")
#loc22 = loc("p21.350")
#loc23 = loc("p22.354")
#loc24 = loc("p23.584")
#loc25 = loc("p24.589")
#loc26 = loc("p25.595")
#loc27 = loc("p26.600")
module @SyncTensorsGraph.723 attributes {mhlo.cross_program_prefetches = [], mhlo.input_output_alias = [], mhlo.is_dynamic = false, mhlo.use_auto_spmd_partitioning = false, ttcore.meshes = #ttcore.meshes<[<"mesh" = 1x8>]>} {
  ttcore.device_module {
    builtin.module @SyncTensorsGraph.723 attributes {mhlo.cross_program_prefetches = [], mhlo.input_output_alias = [], mhlo.is_dynamic = false, mhlo.use_auto_spmd_partitioning = false, ttcore.meshes = #ttcore.meshes<[<"mesh" = 1x8>]>} {
      func.func @main(%arg0: tensor<17xi64> {ttcore.argument_type = #ttcore.argument_type<input>, ttcore.local_shape = #ttcore<local_shape local_shape = tensor<17xi64>>, ttcore.shard_status = #ttcore.shard_status<presharded>, ttir.name = "args_1"} loc("p0.3"), %arg1: tensor<32xbf16> {ttcore.argument_type = #ttcore.argument_type<constant>, ttcore.local_shape = #ttcore<local_shape local_shape = tensor<32xbf16>>, ttcore.shard_status = #ttcore.shard_status<presharded>, ttir.name = "model.model.rotary_emb.inv_freq"} loc("p1.11"), %arg2: tensor<512xbf16> {ttcore.argument_type = #ttcore.argument_type<parameter>, ttcore.local_shape = #ttcore<local_shape local_shape = tensor<512xbf16>>, ttcore.shard_status = #ttcore.shard_status<presharded>, ttir.name = "model.model.layers.0.self_attn.k_proj.bias"} loc("p2.28"), %arg3: tensor<512x2880xbf16> {ttcore.argument_type = #ttcore.argument_type<parameter>, ttcore.local_shape = #ttcore<local_shape local_shape = tensor<64x2880xbf16>>, ttcore.shard_status = #ttcore.shard_status<presharded>, ttcore.weight_dtype = "bfp_bf8", ttir.name = "model.model.layers.0.self_attn.k_proj.parametrizations.weight.original"} loc("p3.32"), %arg4: tensor<2880xbf16> {ttcore.argument_type = #ttcore.argument_type<parameter>, ttcore.local_shape = #ttcore<local_shape local_shape = tensor<2880xbf16>>, ttcore.shard_status = #ttcore.shard_status<presharded>, ttcore.weight_dtype = "bfp_bf8", ttir.name = "model.model.layers.0.input_layernorm.parametrizations.weight.original"} loc("p4.40"), %arg5: tensor<32x17xi64> {ttcore.argument_type = #ttcore.argument_type<input>, ttcore.local_shape = #ttcore<local_shape local_shape = tensor<32x17xi64>>, ttcore.shard_status = #ttcore.shard_status<presharded>, ttir.name = "args_0"} loc("p5.52"), %arg6: tensor<201088x2880xbf16> {ttcore.argument_type = #ttcore.argument_type<parameter>, ttcore.local_shape = #ttcore<local_shape local_shape = tensor<201088x2880xbf16>>, ttcore.shard_status = #ttcore.shard_status<presharded>, ttcore.weight_dtype = "bfp_bf8", ttir.name = "model.model.embed_tokens.parametrizations.weight.original"} loc("p6.57"), %arg7: tensor<32x8x128x64xbf16> {ttcore.argument_type = #ttcore.argument_type<input>, ttcore.local_shape = #ttcore<local_shape local_shape = tensor<32x1x128x64xbf16>>, ttcore.shard_status = #ttcore.shard_status<presharded>, ttir.name = "args_2"} loc("p7.149"), %arg8: tensor<512xbf16> {ttcore.argument_type = #ttcore.argument_type<parameter>, ttcore.local_shape = #ttcore<local_shape local_shape = tensor<512xbf16>>, ttcore.shard_status = #ttcore.shard_status<presharded>, ttir.name = "model.model.layers.0.self_attn.v_proj.bias"} loc("p8.158"), %arg9: tensor<512x2880xbf16> {ttcore.argument_type = #ttcore.argument_type<parameter>, ttcore.local_shape = #ttcore<local_shape local_shape = tensor<64x2880xbf16>>, ttcore.shard_status = #ttcore.shard_status<presharded>, ttcore.weight_dtype = "bfp_bf8", ttir.name = "model.model.layers.0.self_attn.v_proj.parametrizations.weight.original"} loc("p9.162"), %arg10: tensor<32x8x128x64xbf16> {ttcore.argument_type = #ttcore.argument_type<input>, ttcore.local_shape = #ttcore<local_shape local_shape = tensor<32x1x128x64xbf16>>, ttcore.shard_status = #ttcore.shard_status<presharded>, ttir.name = "args_3"} loc("p10.191"), %arg11: tensor<201088x2880xbf16> {ttcore.argument_type = #ttcore.argument_type<parameter>, ttcore.local_shape = #ttcore<local_shape local_shape = tensor<201088x2880xbf16>>, ttcore.shard_status = #ttcore.shard_status<presharded>, ttcore.weight_dtype = "bfp_bf8", ttir.name = "model.lm_head.parametrizations.weight.original"} loc("p11.205"), %arg12: tensor<2880xbf16> {ttcore.argument_type = #ttcore.argument_type<parameter>, ttcore.local_shape = #ttcore<local_shape local_shape = tensor<2880xbf16>>, ttcore.shard_status = #ttcore.shard_status<presharded>, ttcore.weight_dtype = "bfp_bf8", ttir.name = "model.model.norm.parametrizations.weight.original"} loc("p12.213"), %arg13: tensor<32xbf16> {ttcore.argument_type = #ttcore.argument_type<parameter>, ttcore.local_shape = #ttcore<local_shape local_shape = tensor<32xbf16>>, ttcore.shard_status = #ttcore.shard_status<presharded>, ttir.name = "model.model.layers.0.mlp.router.bias"} loc("p13.228"), %arg14: tensor<32x2880xbf16> {ttcore.argument_type = #ttcore.argument_type<parameter>, ttcore.local_shape = #ttcore<local_shape local_shape = tensor<32x2880xbf16>>, ttcore.shard_status = #ttcore.shard_status<presharded>, ttcore.weight_dtype = "bfp_bf8", ttir.name = "model.model.layers.0.mlp.router.parametrizations.weight.original"} loc("p14.236"), %arg15: tensor<2880xbf16> {ttcore.argument_type = #ttcore.argument_type<parameter>, ttcore.local_shape = #ttcore<local_shape local_shape = tensor<2880xbf16>>, ttcore.shard_status = #ttcore.shard_status<presharded>, ttcore.weight_dtype = "bfp_bf8", ttir.name = "model.model.layers.0.post_attention_layernorm.parametrizations.weight.original"} loc("p15.245"), %arg16: tensor<2880xbf16> {ttcore.argument_type = #ttcore.argument_type<parameter>, ttcore.local_shape = #ttcore<local_shape local_shape = tensor<2880xbf16>>, ttcore.shard_status = #ttcore.shard_status<presharded>, ttir.name = "model.model.layers.0.self_attn.o_proj.bias"} loc("p16.259"), %arg17: tensor<2880x4096xbf16> {ttcore.argument_type = #ttcore.argument_type<parameter>, ttcore.local_shape = #ttcore<local_shape local_shape = tensor<2880x512xbf16>>, ttcore.shard_status = #ttcore.shard_status<presharded>, ttcore.weight_dtype = "bfp_bf8", ttir.name = "model.model.layers.0.self_attn.o_proj.parametrizations.weight.original"} loc("p17.263"), %arg18: tensor<64xbf16> {ttcore.argument_type = #ttcore.argument_type<parameter>, ttcore.local_shape = #ttcore<local_shape local_shape = tensor<64xbf16>>, ttcore.shard_status = #ttcore.shard_status<presharded>, ttir.name = "model.model.layers.0.self_attn.sinks"} loc("p18.277"), %arg19: tensor<bf16> {ttcore.argument_type = #ttcore.argument_type<constant>, ttcore.local_shape = #ttcore<local_shape local_shape = tensor<bf16>>, ttcore.shard_status = #ttcore.shard_status<presharded>, ttir.name = "L['self'].model.model.lifted_tensor_1"} loc("p19.292"), %arg20: tensor<i1> {ttcore.argument_type = #ttcore.argument_type<input>, ttcore.local_shape = #ttcore<local_shape local_shape = tensor<i1>>, ttcore.shard_status = #ttcore.shard_status<presharded>} loc("p20.327"), %arg21: tensor<4096xbf16> {ttcore.argument_type = #ttcore.argument_type<parameter>, ttcore.local_shape = #ttcore<local_shape local_shape = tensor<4096xbf16>>, ttcore.shard_status = #ttcore.shard_status<presharded>, ttir.name = "model.model.layers.0.self_attn.q_proj.bias"} loc("p21.350"), %arg22: tensor<4096x2880xbf16> {ttcore.argument_type = #ttcore.argument_type<parameter>, ttcore.local_shape = #ttcore<local_shape local_shape = tensor<512x2880xbf16>>, ttcore.shard_status = #ttcore.shard_status<presharded>, ttcore.weight_dtype = "bfp_bf8", ttir.name = "model.model.layers.0.self_attn.q_proj.parametrizations.weight.original"} loc("p22.354"), %arg23: tensor<32x2880xbf16> {ttcore.argument_type = #ttcore.argument_type<parameter>, ttcore.local_shape = #ttcore<local_shape local_shape = tensor<4x2880xbf16>>, ttcore.shard_status = #ttcore.shard_status<presharded>, ttir.name = "model.model.layers.0.mlp.experts.down_proj_bias"} loc("p23.584"), %arg24: tensor<32x2880x2880xbf16> {ttcore.argument_type = #ttcore.argument_type<parameter>, ttcore.local_shape = #ttcore<local_shape local_shape = tensor<4x2880x2880xbf16>>, ttcore.shard_status = #ttcore.shard_status<presharded>, ttir.name = "model.model.layers.0.mlp.experts.down_proj"} loc("p24.589"), %arg25: tensor<32x5760xbf16> {ttcore.argument_type = #ttcore.argument_type<parameter>, ttcore.local_shape = #ttcore<local_shape local_shape = tensor<4x5760xbf16>>, ttcore.shard_status = #ttcore.shard_status<presharded>, ttir.name = "model.model.layers.0.mlp.experts.gate_up_proj_bias"} loc("p25.595"), %arg26: tensor<32x2880x5760xbf16> {ttcore.argument_type = #ttcore.argument_type<parameter>, ttcore.local_shape = #ttcore<local_shape local_shape = tensor<4x2880x5760xbf16>>, ttcore.shard_status = #ttcore.shard_status<presharded>, ttir.name = "model.model.layers.0.mlp.experts.gate_up_proj"} loc("p26.600")) -> (tensor<32x8x128x64xbf16> {ttcore.local_shape = #ttcore<local_shape local_shape = tensor<32x1x128x64xbf16>>, ttcore.shard_status = #ttcore.shard_status<presharded>}, tensor<32x8x128x64xbf16> {ttcore.local_shape = #ttcore<local_shape local_shape = tensor<32x1x128x64xbf16>>, ttcore.shard_status = #ttcore.shard_status<presharded>}, tensor<1xi64> {ttcore.local_shape = #ttcore<local_shape local_shape = tensor<1xi64>>, ttcore.shard_status = #ttcore.shard_status<presharded>}, tensor<32x1xi64> {ttcore.local_shape = #ttcore<local_shape local_shape = tensor<32x1xi64>>, ttcore.shard_status = #ttcore.shard_status<presharded>}) {
        %0 = "ttir.mesh_shard"(%arg0) <{shard_dims = array<i64: -1>, shard_direction = #ttcore.shard_direction<full_to_shard>, shard_shape = array<i64: 1>, shard_type = #ttcore.shard_type<identity>}> : (tensor<17xi64>) -> tensor<17xi64> loc(#loc)
        %1 = "ttir.mesh_shard"(%arg1) <{shard_dims = array<i64: -1>, shard_direction = #ttcore.shard_direction<full_to_shard>, shard_shape = array<i64: 1>, shard_type = #ttcore.shard_type<identity>}> : (tensor<32xbf16>) -> tensor<32xbf16> loc(#loc)
        %2 = "ttir.mesh_shard"(%arg2) <{shard_dims = array<i64: -1>, shard_direction = #ttcore.shard_direction<full_to_shard>, shard_shape = array<i64: 1>, shard_type = #ttcore.shard_type<identity>}> : (tensor<512xbf16>) -> tensor<512xbf16> loc(#loc)
        %3 = "ttir.mesh_shard"(%arg3) <{shard_dims = array<i64: -1, 0>, shard_direction = #ttcore.shard_direction<full_to_shard>, shard_shape = array<i64: 8, 1>, shard_type = #ttcore.shard_type<identity>}> : (tensor<512x2880xbf16>) -> tensor<64x2880xbf16> loc(#loc)
        %4 = "ttir.mesh_shard"(%arg4) <{shard_dims = array<i64: -1>, shard_direction = #ttcore.shard_direction<full_to_shard>, shard_shape = array<i64: 1>, shard_type = #ttcore.shard_type<identity>}> : (tensor<2880xbf16>) -> tensor<2880xbf16> loc(#loc)
        %5 = "ttir.mesh_shard"(%arg5) <{shard_dims = array<i64: -1>, shard_direction = #ttcore.shard_direction<full_to_shard>, shard_shape = array<i64: 1>, shard_type = #ttcore.shard_type<identity>}> : (tensor<32x17xi64>) -> tensor<32x17xi64> loc(#loc)
        %6 = "ttir.mesh_shard"(%arg6) <{shard_dims = array<i64: -1>, shard_direction = #ttcore.shard_direction<full_to_shard>, shard_shape = array<i64: 1>, shard_type = #ttcore.shard_type<identity>}> : (tensor<201088x2880xbf16>) -> tensor<201088x2880xbf16> loc(#loc)
        %7 = "ttir.mesh_shard"(%arg7) <{shard_dims = array<i64: -1, 1>, shard_direction = #ttcore.shard_direction<full_to_shard>, shard_shape = array<i64: 1, 8, 1, 1>, shard_type = #ttcore.shard_type<identity>}> : (tensor<32x8x128x64xbf16>) -> tensor<32x1x128x64xbf16> loc(#loc)
        %8 = "ttir.mesh_shard"(%arg8) <{shard_dims = array<i64: -1>, shard_direction = #ttcore.shard_direction<full_to_shard>, shard_shape = array<i64: 1>, shard_type = #ttcore.shard_type<identity>}> : (tensor<512xbf16>) -> tensor<512xbf16> loc(#loc)
        %9 = "ttir.mesh_shard"(%arg9) <{shard_dims = array<i64: -1, 0>, shard_direction = #ttcore.shard_direction<full_to_shard>, shard_shape = array<i64: 8, 1>, shard_type = #ttcore.shard_type<identity>}> : (tensor<512x2880xbf16>) -> tensor<64x2880xbf16> loc(#loc)
        %10 = "ttir.mesh_shard"(%arg10) <{shard_dims = array<i64: -1, 1>, shard_direction = #ttcore.shard_direction<full_to_shard>, shard_shape = array<i64: 1, 8, 1, 1>, shard_type = #ttcore.shard_type<identity>}> : (tensor<32x8x128x64xbf16>) -> tensor<32x1x128x64xbf16> loc(#loc)
        %11 = "ttir.mesh_shard"(%arg11) <{shard_dims = array<i64: -1>, shard_direction = #ttcore.shard_direction<full_to_shard>, shard_shape = array<i64: 1>, shard_type = #ttcore.shard_type<identity>}> : (tensor<201088x2880xbf16>) -> tensor<201088x2880xbf16> loc(#loc)
        %12 = "ttir.mesh_shard"(%arg12) <{shard_dims = array<i64: -1>, shard_direction = #ttcore.shard_direction<full_to_shard>, shard_shape = array<i64: 1>, shard_type = #ttcore.shard_type<identity>}> : (tensor<2880xbf16>) -> tensor<2880xbf16> loc(#loc)
        %13 = "ttir.mesh_shard"(%arg13) <{shard_dims = array<i64: -1>, shard_direction = #ttcore.shard_direction<full_to_shard>, shard_shape = array<i64: 1>, shard_type = #ttcore.shard_type<identity>}> : (tensor<32xbf16>) -> tensor<32xbf16> loc(#loc)
        %14 = "ttir.mesh_shard"(%arg14) <{shard_dims = array<i64: -1>, shard_direction = #ttcore.shard_direction<full_to_shard>, shard_shape = array<i64: 1>, shard_type = #ttcore.shard_type<identity>}> : (tensor<32x2880xbf16>) -> tensor<32x2880xbf16> loc(#loc)
        %15 = "ttir.mesh_shard"(%arg15) <{shard_dims = array<i64: -1>, shard_direction = #ttcore.shard_direction<full_to_shard>, shard_shape = array<i64: 1>, shard_type = #ttcore.shard_type<identity>}> : (tensor<2880xbf16>) -> tensor<2880xbf16> loc(#loc)
        %16 = "ttir.mesh_shard"(%arg16) <{shard_dims = array<i64: -1>, shard_direction = #ttcore.shard_direction<full_to_shard>, shard_shape = array<i64: 1>, shard_type = #ttcore.shard_type<identity>}> : (tensor<2880xbf16>) -> tensor<2880xbf16> loc(#loc)
        %17 = "ttir.mesh_shard"(%arg17) <{shard_dims = array<i64: -1, 1>, shard_direction = #ttcore.shard_direction<full_to_shard>, shard_shape = array<i64: 1, 8>, shard_type = #ttcore.shard_type<identity>}> : (tensor<2880x4096xbf16>) -> tensor<2880x512xbf16> loc(#loc)
        %18 = "ttir.mesh_shard"(%arg18) <{shard_dims = array<i64: -1>, shard_direction = #ttcore.shard_direction<full_to_shard>, shard_shape = array<i64: 1>, shard_type = #ttcore.shard_type<identity>}> : (tensor<64xbf16>) -> tensor<64xbf16> loc(#loc)
        %19 = "ttir.mesh_shard"(%arg19) <{shard_dims = array<i64: -1>, shard_direction = #ttcore.shard_direction<full_to_shard>, shard_shape = array<i64: 1>, shard_type = #ttcore.shard_type<identity>}> : (tensor<bf16>) -> tensor<bf16> loc(#loc)
        %20 = "ttir.mesh_shard"(%arg20) <{shard_dims = array<i64: -1>, shard_direction = #ttcore.shard_direction<full_to_shard>, shard_shape = array<i64: 1>, shard_type = #ttcore.shard_type<identity>}> : (tensor<i1>) -> tensor<i1> loc(#loc)
        %21 = "ttir.mesh_shard"(%arg21) <{shard_dims = array<i64: -1>, shard_direction = #ttcore.shard_direction<full_to_shard>, shard_shape = array<i64: 1>, shard_type = #ttcore.shard_type<identity>}> : (tensor<4096xbf16>) -> tensor<4096xbf16> loc(#loc)
        %22 = "ttir.mesh_shard"(%arg22) <{shard_dims = array<i64: -1, 0>, shard_direction = #ttcore.shard_direction<full_to_shard>, shard_shape = array<i64: 8, 1>, shard_type = #ttcore.shard_type<identity>}> : (tensor<4096x2880xbf16>) -> tensor<512x2880xbf16> loc(#loc)
        %23 = "ttir.mesh_shard"(%arg23) <{shard_dims = array<i64: -1, 0>, shard_direction = #ttcore.shard_direction<full_to_shard>, shard_shape = array<i64: 8, 1>, shard_type = #ttcore.shard_type<identity>}> : (tensor<32x2880xbf16>) -> tensor<4x2880xbf16> loc(#loc)
        %24 = "ttir.mesh_shard"(%arg24) <{shard_dims = array<i64: -1, 0>, shard_direction = #ttcore.shard_direction<full_to_shard>, shard_shape = array<i64: 8, 1, 1>, shard_type = #ttcore.shard_type<identity>}> : (tensor<32x2880x2880xbf16>) -> tensor<4x2880x2880xbf16> loc(#loc)
        %25 = "ttir.mesh_shard"(%arg25) <{shard_dims = array<i64: -1, 0>, shard_direction = #ttcore.shard_direction<full_to_shard>, shard_shape = array<i64: 8, 1>, shard_type = #ttcore.shard_type<identity>}> : (tensor<32x5760xbf16>) -> tensor<4x5760xbf16> loc(#loc)
        %26 = "ttir.mesh_shard"(%arg26) <{shard_dims = array<i64: -1, 0>, shard_direction = #ttcore.shard_direction<full_to_shard>, shard_shape = array<i64: 8, 1, 1>, shard_type = #ttcore.shard_type<identity>}> : (tensor<32x2880x5760xbf16>) -> tensor<4x2880x5760xbf16> loc(#loc)
        %27 = "ttir.constant"() <{value = dense<[0, 1, 2, 3, 4, 5, 6, 7, 8, 9, 10, 11, 12, 13, 14, 15, 16, 17, 18, 19, 20, 21, 22, 23, 24, 25, 26, 27, 28, 29, 30, 31]> : tensor<32xi64>}> : () -> tensor<32xi64> loc(#loc)
        %28 = "ttir.constant"() <{value = dense<1.34657359> : tensor<f32>}> : () -> tensor<f32> loc(#loc)
        %29 = "ttir.constant"() <{value = dense<0> : tensor<17xi64>}> : () -> tensor<17xi64> loc(#loc)
        %30 = "ttir.constant"() <{value = dense<128> : tensor<17xi64>}> : () -> tensor<17xi64> loc(#loc)
        %31 = "ttir.constant"() <{value = dense<1.250000e-01> : tensor<bf16>}> : () -> tensor<bf16> loc(#loc)
        %32 = "ttir.constant"() <{value = dense<"…"> : tensor<1x1x128xi64>}> : () -> tensor<1x1x128xi64> loc(#loc)
        %33 = "ttir.constant"() <{value = dense<128> : tensor<1x1x17x1xi64>}> : () -> tensor<1x1x17x1xi64> loc(#loc)
        %34 = "ttir.constant"() <{value = dense<-3.389530e+38> : tensor<bf16>}> : () -> tensor<bf16> loc(#loc)
        %35 = "ttir.constant"() <{value = dense<1> : tensor<1xi64>}> : () -> tensor<1xi64> loc(#loc)
        %36 = "ttir.constant"() <{value = dense<-7.000000e+00> : tensor<bf16>}> : () -> tensor<bf16> loc(#loc)
        %37 = "ttir.constant"() <{value = dense<7.000000e+00> : tensor<bf16>}> : () -> tensor<bf16> loc(#loc)
        %38 = "ttir.constant"() <{value = dense<1.000000e+00> : tensor<bf16>}> : () -> tensor<bf16> loc(#loc)
        %39 = "ttir.constant"() <{value = dense<0xFF80> : tensor<bf16>}> : () -> tensor<bf16> loc(#loc)
        %40 = "ttir.constant"() <{value = dense<1.703130e+00> : tensor<bf16>}> : () -> tensor<bf16> loc(#loc)
        %41 = "ttir.reshape"(%40) <{shape = [1 : i32, 1 : i32, 1 : i32]}> : (tensor<bf16>) -> tensor<1x1x1xbf16> loc(#loc)
        %42 = "ttir.broadcast"(%41) <{broadcast_dimensions = array<i64: 4, 544, 2880>}> : (tensor<1x1x1xbf16>) -> tensor<4x544x2880xbf16> loc(#loc)
        %43 = "ttir.reshape"(%39) <{shape = [1 : i32, 1 : i32, 1 : i32]}> : (tensor<bf16>) -> tensor<1x1x1xbf16> loc(#loc)
        %44 = "ttir.broadcast"(%43) <{broadcast_dimensions = array<i64: 4, 544, 2880>}> : (tensor<1x1x1xbf16>) -> tensor<4x544x2880xbf16> loc(#loc)
        %45 = "ttir.reshape"(%38) <{shape = [1 : i32, 1 : i32, 1 : i32]}> : (tensor<bf16>) -> tensor<1x1x1xbf16> loc(#loc)
        %46 = "ttir.broadcast"(%45) <{broadcast_dimensions = array<i64: 4, 544, 2880>}> : (tensor<1x1x1xbf16>) -> tensor<4x544x2880xbf16> loc(#loc)
        %47 = "ttir.reshape"(%37) <{shape = [1 : i32, 1 : i32, 1 : i32]}> : (tensor<bf16>) -> tensor<1x1x1xbf16> loc(#loc)
        %48 = "ttir.broadcast"(%47) <{broadcast_dimensions = array<i64: 4, 544, 2880>}> : (tensor<1x1x1xbf16>) -> tensor<4x544x2880xbf16> loc(#loc)
        %49 = "ttir.reshape"(%36) <{shape = [1 : i32, 1 : i32, 1 : i32]}> : (tensor<bf16>) -> tensor<1x1x1xbf16> loc(#loc)
        %50 = "ttir.broadcast"(%49) <{broadcast_dimensions = array<i64: 4, 544, 2880>}> : (tensor<1x1x1xbf16>) -> tensor<4x544x2880xbf16> loc(#loc)
        %51 = "ttir.reshape"(%34) <{shape = [1 : i32, 1 : i32, 1 : i32, 1 : i32]}> : (tensor<bf16>) -> tensor<1x1x1x1xbf16> loc(#loc)
        %52 = "ttir.broadcast"(%51) <{broadcast_dimensions = array<i64: 32, 1, 17, 128>}> : (tensor<1x1x1x1xbf16>) -> tensor<32x1x17x128xbf16> loc(#loc)
        %53 = "ttir.reshape"(%31) <{shape = [1 : i32, 1 : i32, 1 : i32, 1 : i32]}> : (tensor<bf16>) -> tensor<1x1x1x1xbf16> loc(#loc)
        %54 = "ttir.broadcast"(%53) <{broadcast_dimensions = array<i64: 32, 8, 17, 128>}> : (tensor<1x1x1x1xbf16>) -> tensor<32x8x17x128xbf16> loc(#loc)
        %55 = "ttir.reshape"(%28) <{shape = [1 : i32, 1 : i32, 1 : i32]}> : (tensor<f32>) -> tensor<1x1x1xf32> loc(#loc)
        %56 = "ttir.broadcast"(%55) <{broadcast_dimensions = array<i64: 1, 17, 32>}> : (tensor<1x1x1xf32>) -> tensor<1x17x32xf32> loc(#loc)
        %57 = "ttir.reshape"(%5) <{shape = [544 : i32]}> : (tensor<32x17xi64>) -> tensor<544xi64> loc(#loc210)
        %58 = "ttir.typecast"(%57) <{conservative_folding = false}> : (tensor<544xi64>) -> tensor<544xui32> loc(#loc30)
        %59 = "ttir.permute"(%6) <{permutation = array<i64: 0, 1>}> : (tensor<201088x2880xbf16>) -> tensor<201088x2880xbf16> loc(#loc211)
        %60 = "ttir.reshape"(%59) <{shape = [201088 : i32, 2880 : i32]}> : (tensor<201088x2880xbf16>) -> tensor<201088x2880xbf16> loc(#loc212)
        %61 = "ttir.reshape"(%58) <{shape = [1 : i32, 544 : i32]}> : (tensor<544xui32>) -> tensor<1x544xui32> loc(#loc213)
        %62 = "ttir.embedding"(%61, %60) : (tensor<1x544xui32>, tensor<201088x2880xbf16>) -> tensor<1x544x2880xbf16> loc(#loc31)
        %63 = "ttir.reshape"(%62) <{shape = [544 : i32, 2880 : i32]}> : (tensor<1x544x2880xbf16>) -> tensor<544x2880xbf16> loc(#loc214)
        %64 = "ttir.permute"(%63) <{permutation = array<i64: 0, 1>}> : (tensor<544x2880xbf16>) -> tensor<544x2880xbf16> loc(#loc215)
        %65 = "ttir.reshape"(%64) <{shape = [32 : i32, 17 : i32, 2880 : i32]}> : (tensor<544x2880xbf16>) -> tensor<32x17x2880xbf16> loc(#loc32)
        %66 = "ttir.rms_norm"(%65, %4) <{epsilon = 9.99999974E-6 : f32, normalized_shape = array<i64: 2880>, operandSegmentSizes = array<i32: 1, 1, 0>}> : (tensor<32x17x2880xbf16>, tensor<2880xbf16>) -> tensor<32x17x2880xbf16> loc(#loc33)
        %67 = "ttir.reshape"(%66) <{shape = [544 : i32, 2880 : i32]}> : (tensor<32x17x2880xbf16>) -> tensor<544x2880xbf16> loc(#loc34)
        %68 = "ttir.permute"(%22) <{permutation = array<i64: 1, 0>}> : (tensor<512x2880xbf16>) -> tensor<2880x512xbf16> loc(#loc35)
        %69 = "ttir.dot_general"(%67, %68) <{batch_dims_lhs = array<i64>, batch_dims_rhs = array<i64>, contract_dims_lhs = array<i64: 1>, contract_dims_rhs = array<i64: 0>}> : (tensor<544x2880xbf16>, tensor<2880x512xbf16>) -> tensor<544x512xbf16> loc(#loc36)
        %70 = "ttir.reshape"(%69) <{shape = [32 : i32, 17 : i32, 512 : i32]}> : (tensor<544x512xbf16>) -> tensor<32x17x512xbf16> loc(#loc37)
        %71 = "ttir.mesh_partition"(%21) <{cluster_axis = 1 : ui32, dim = 0 : si32}> : (tensor<4096xbf16>) -> tensor<512xbf16> loc(#loc)
        %72 = "ttir.reshape"(%71) <{shape = [1 : i32, 1 : i32, 512 : i32]}> : (tensor<512xbf16>) -> tensor<1x1x512xbf16> loc(#loc38)
        %73 = "ttir.broadcast"(%72) <{broadcast_dimensions = array<i64: 32, 17, 1>}> : (tensor<1x1x512xbf16>) -> tensor<32x17x512xbf16> loc(#loc38)
        %74 = "ttir.add"(%70, %73) : (tensor<32x17x512xbf16>, tensor<32x17x512xbf16>) -> tensor<32x17x512xbf16> loc(#loc39)
        %75 = "ttir.reshape"(%74) <{shape = [32 : i32, 17 : i32, 8 : i32, 64 : i32]}> : (tensor<32x17x512xbf16>) -> tensor<32x17x8x64xbf16> loc(#loc40)
        %76 = "ttir.permute"(%75) <{permutation = array<i64: 0, 2, 1, 3>}> : (tensor<32x17x8x64xbf16>) -> tensor<32x8x17x64xbf16> loc(#loc41)
        %77 = "ttir.slice_static"(%76) <{begins = [0 : i32, 0 : i32, 0 : i32, 0 : i32], ends = [32 : i32, 8 : i32, 17 : i32, 32 : i32], step = [1 : i32, 1 : i32, 1 : i32, 1 : i32]}> : (tensor<32x8x17x64xbf16>) -> tensor<32x8x17x32xbf16> loc(#loc42)
        %78 = "ttir.reshape"(%1) <{shape = [1 : i32, 32 : i32, 1 : i32]}> : (tensor<32xbf16>) -> tensor<1x32x1xbf16> loc(#loc216)
        %79 = "ttir.typecast"(%78) <{conservative_folding = false}> : (tensor<1x32x1xbf16>) -> tensor<1x32x1xf32> loc(#loc45)
        %80 = "ttir.reshape"(%0) <{shape = [1 : i32, 1 : i32, 17 : i32]}> : (tensor<17xi64>) -> tensor<1x1x17xi64> loc(#loc46)
        %81 = "ttir.typecast"(%80) <{conservative_folding = false}> : (tensor<1x1x17xi64>) -> tensor<1x1x17xf32> loc(#loc47)
        %82 = "ttir.dot_general"(%79, %81) <{batch_dims_lhs = array<i64: 0>, batch_dims_rhs = array<i64: 0>, contract_dims_lhs = array<i64: 2>, contract_dims_rhs = array<i64: 1>}> : (tensor<1x32x1xf32>, tensor<1x1x17xf32>) -> tensor<1x32x17xf32> loc(#loc48)
        %83 = "ttir.permute"(%82) <{permutation = array<i64: 0, 2, 1>}> : (tensor<1x32x17xf32>) -> tensor<1x17x32xf32> loc(#loc49)
        %84 = "ttir.cos"(%83) : (tensor<1x17x32xf32>) -> tensor<1x17x32xf32> loc(#loc50)
        %85 = "ttir.multiply"(%84, %56) : (tensor<1x17x32xf32>, tensor<1x17x32xf32>) -> tensor<1x17x32xf32> loc(#loc51)
        %86 = "ttir.typecast"(%85) <{conservative_folding = false}> : (tensor<1x17x32xf32>) -> tensor<1x17x32xbf16> loc(#loc52)
        %87 = "ttir.reshape"(%86) <{shape = [17 : i32, 32 : i32]}> : (tensor<1x17x32xbf16>) -> tensor<17x32xbf16> loc(#loc53)
        %88 = "ttir.reshape"(%87) <{shape = [1 : i32, 1 : i32, 17 : i32, 32 : i32]}> : (tensor<17x32xbf16>) -> tensor<1x1x17x32xbf16> loc(#loc54)
        %89 = "ttir.broadcast"(%88) <{broadcast_dimensions = array<i64: 32, 8, 1, 1>}> : (tensor<1x1x17x32xbf16>) -> tensor<32x8x17x32xbf16> loc(#loc54)
        %90 = "ttir.multiply"(%77, %89) : (tensor<32x8x17x32xbf16>, tensor<32x8x17x32xbf16>) -> tensor<32x8x17x32xbf16> loc(#loc55)
        %91 = "ttir.slice_static"(%76) <{begins = [0 : i32, 0 : i32, 0 : i32, 32 : i32], ends = [32 : i32, 8 : i32, 17 : i32, 64 : i32], step = [1 : i32, 1 : i32, 1 : i32, 1 : i32]}> : (tensor<32x8x17x64xbf16>) -> tensor<32x8x17x32xbf16> loc(#loc56)
        %92 = "ttir.sin"(%83) : (tensor<1x17x32xf32>) -> tensor<1x17x32xf32> loc(#loc57)
        %93 = "ttir.multiply"(%92, %56) : (tensor<1x17x32xf32>, tensor<1x17x32xf32>) -> tensor<1x17x32xf32> loc(#loc58)
        %94 = "ttir.typecast"(%93) <{conservative_folding = false}> : (tensor<1x17x32xf32>) -> tensor<1x17x32xbf16> loc(#loc59)
        %95 = "ttir.reshape"(%94) <{shape = [17 : i32, 32 : i32]}> : (tensor<1x17x32xbf16>) -> tensor<17x32xbf16> loc(#loc60)
        %96 = "ttir.reshape"(%95) <{shape = [1 : i32, 1 : i32, 17 : i32, 32 : i32]}> : (tensor<17x32xbf16>) -> tensor<1x1x17x32xbf16> loc(#loc61)
        %97 = "ttir.broadcast"(%96) <{broadcast_dimensions = array<i64: 32, 8, 1, 1>}> : (tensor<1x1x17x32xbf16>) -> tensor<32x8x17x32xbf16> loc(#loc61)
        %98 = "ttir.multiply"(%91, %97) : (tensor<32x8x17x32xbf16>, tensor<32x8x17x32xbf16>) -> tensor<32x8x17x32xbf16> loc(#loc62)
        %99 = "ttir.subtract"(%90, %98) : (tensor<32x8x17x32xbf16>, tensor<32x8x17x32xbf16>) -> tensor<32x8x17x32xbf16> loc(#loc63)
        %100 = "ttir.multiply"(%91, %89) : (tensor<32x8x17x32xbf16>, tensor<32x8x17x32xbf16>) -> tensor<32x8x17x32xbf16> loc(#loc64)
        %101 = "ttir.multiply"(%77, %97) : (tensor<32x8x17x32xbf16>, tensor<32x8x17x32xbf16>) -> tensor<32x8x17x32xbf16> loc(#loc65)
        %102 = "ttir.add"(%100, %101) : (tensor<32x8x17x32xbf16>, tensor<32x8x17x32xbf16>) -> tensor<32x8x17x32xbf16> loc(#loc66)
        %103 = "ttir.concat"(%99, %102) <{dim = 3 : si32}> : (tensor<32x8x17x32xbf16>, tensor<32x8x17x32xbf16>) -> tensor<32x8x17x64xbf16> loc(#loc67)
        %104 = "ttir.lt"(%0, %29) : (tensor<17xi64>, tensor<17xi64>) -> tensor<17xi1> loc(#loc68)
        %105 = "ttir.add"(%0, %30) : (tensor<17xi64>, tensor<17xi64>) -> tensor<17xi64> loc(#loc69)
        %106 = "ttir.where"(%104, %105, %0) : (tensor<17xi1>, tensor<17xi64>, tensor<17xi64>) -> tensor<17xi64> loc(#loc70)
        %107 = "ttir.permute"(%3) <{permutation = array<i64: 1, 0>}> : (tensor<64x2880xbf16>) -> tensor<2880x64xbf16> loc(#loc71)
        %108 = "ttir.dot_general"(%67, %107) <{batch_dims_lhs = array<i64>, batch_dims_rhs = array<i64>, contract_dims_lhs = array<i64: 1>, contract_dims_rhs = array<i64: 0>}> : (tensor<544x2880xbf16>, tensor<2880x64xbf16>) -> tensor<544x64xbf16> loc(#loc72)
        %109 = "ttir.reshape"(%108) <{shape = [32 : i32, 17 : i32, 64 : i32]}> : (tensor<544x64xbf16>) -> tensor<32x17x64xbf16> loc(#loc73)
        %110 = "ttir.mesh_partition"(%2) <{cluster_axis = 1 : ui32, dim = 0 : si32}> : (tensor<512xbf16>) -> tensor<64xbf16> loc(#loc)
        %111 = "ttir.reshape"(%110) <{shape = [1 : i32, 1 : i32, 64 : i32]}> : (tensor<64xbf16>) -> tensor<1x1x64xbf16> loc(#loc74)
        %112 = "ttir.broadcast"(%111) <{broadcast_dimensions = array<i64: 32, 17, 1>}> : (tensor<1x1x64xbf16>) -> tensor<32x17x64xbf16> loc(#loc74)
        %113 = "ttir.add"(%109, %112) : (tensor<32x17x64xbf16>, tensor<32x17x64xbf16>) -> tensor<32x17x64xbf16> loc(#loc75)
        %114 = "ttir.reshape"(%113) <{shape = [32 : i32, 1 : i32, 17 : i32, 64 : i32]}> : (tensor<32x17x64xbf16>) -> tensor<32x1x17x64xbf16> loc(#loc217)
        %115 = "ttir.slice_static"(%114) <{begins = [0 : i32, 0 : i32, 0 : i32, 0 : i32], ends = [32 : i32, 1 : i32, 17 : i32, 32 : i32], step = [1 : i32, 1 : i32, 1 : i32, 1 : i32]}> : (tensor<32x1x17x64xbf16>) -> tensor<32x1x17x32xbf16> loc(#loc78)
        %116 = "ttir.broadcast"(%88) <{broadcast_dimensions = array<i64: 32, 1, 1, 1>}> : (tensor<1x1x17x32xbf16>) -> tensor<32x1x17x32xbf16> loc(#loc79)
        %117 = "ttir.multiply"(%115, %116) : (tensor<32x1x17x32xbf16>, tensor<32x1x17x32xbf16>) -> tensor<32x1x17x32xbf16> loc(#loc80)
        %118 = "ttir.slice_static"(%114) <{begins = [0 : i32, 0 : i32, 0 : i32, 32 : i32], ends = [32 : i32, 1 : i32, 17 : i32, 64 : i32], step = [1 : i32, 1 : i32, 1 : i32, 1 : i32]}> : (tensor<32x1x17x64xbf16>) -> tensor<32x1x17x32xbf16> loc(#loc81)
        %119 = "ttir.broadcast"(%96) <{broadcast_dimensions = array<i64: 32, 1, 1, 1>}> : (tensor<1x1x17x32xbf16>) -> tensor<32x1x17x32xbf16> loc(#loc82)
        %120 = "ttir.multiply"(%118, %119) : (tensor<32x1x17x32xbf16>, tensor<32x1x17x32xbf16>) -> tensor<32x1x17x32xbf16> loc(#loc83)
        %121 = "ttir.subtract"(%117, %120) : (tensor<32x1x17x32xbf16>, tensor<32x1x17x32xbf16>) -> tensor<32x1x17x32xbf16> loc(#loc84)
        %122 = "ttir.multiply"(%118, %116) : (tensor<32x1x17x32xbf16>, tensor<32x1x17x32xbf16>) -> tensor<32x1x17x32xbf16> loc(#loc85)
        %123 = "ttir.multiply"(%115, %119) : (tensor<32x1x17x32xbf16>, tensor<32x1x17x32xbf16>) -> tensor<32x1x17x32xbf16> loc(#loc86)
        %124 = "ttir.add"(%122, %123) : (tensor<32x1x17x32xbf16>, tensor<32x1x17x32xbf16>) -> tensor<32x1x17x32xbf16> loc(#loc87)
        %125 = "ttir.concat"(%121, %124) <{dim = 3 : si32}> : (tensor<32x1x17x32xbf16>, tensor<32x1x17x32xbf16>) -> tensor<32x1x17x64xbf16> loc(#loc88)
        %126 = "ttir.slice_static"(%125) <{begins = [0 : i32, 0 : i32, 0 : i32, 0 : i32], ends = [1 : i32, 1 : i32, 17 : i32, 64 : i32], step = [1 : i32, 1 : i32, 1 : i32, 1 : i32]}> : (tensor<32x1x17x64xbf16>) -> tensor<1x1x17x64xbf16> loc(#loc89)
        "ttir.fill_cache"(%7, %126) <{batch_offset = 0 : i32}> : (tensor<32x1x128x64xbf16>, tensor<1x1x17x64xbf16>) -> () loc(#loc89)
        %127 = "ttir.slice_static"(%125) <{begins = [1 : i32, 0 : i32, 0 : i32, 0 : i32], ends = [2 : i32, 1 : i32, 17 : i32, 64 : i32], step = [1 : i32, 1 : i32, 1 : i32, 1 : i32]}> : (tensor<32x1x17x64xbf16>) -> tensor<1x1x17x64xbf16> loc(#loc89)
        "ttir.fill_cache"(%7, %127) <{batch_offset = 1 : i32}> : (tensor<32x1x128x64xbf16>, tensor<1x1x17x64xbf16>) -> () loc(#loc89)
        %128 = "ttir.slice_static"(%125) <{begins = [2 : i32, 0 : i32, 0 : i32, 0 : i32], ends = [3 : i32, 1 : i32, 17 : i32, 64 : i32], step = [1 : i32, 1 : i32, 1 : i32, 1 : i32]}> : (tensor<32x1x17x64xbf16>) -> tensor<1x1x17x64xbf16> loc(#loc89)
        "ttir.fill_cache"(%7, %128) <{batch_offset = 2 : i32}> : (tensor<32x1x128x64xbf16>, tensor<1x1x17x64xbf16>) -> () loc(#loc89)
        %129 = "ttir.slice_static"(%125) <{begins = [3 : i32, 0 : i32, 0 : i32, 0 : i32], ends = [4 : i32, 1 : i32, 17 : i32, 64 : i32], step = [1 : i32, 1 : i32, 1 : i32, 1 : i32]}> : (tensor<32x1x17x64xbf16>) -> tensor<1x1x17x64xbf16> loc(#loc89)
        "ttir.fill_cache"(%7, %129) <{batch_offset = 3 : i32}> : (tensor<32x1x128x64xbf16>, tensor<1x1x17x64xbf16>) -> () loc(#loc89)
        %130 = "ttir.slice_static"(%125) <{begins = [4 : i32, 0 : i32, 0 : i32, 0 : i32], ends = [5 : i32, 1 : i32, 17 : i32, 64 : i32], step = [1 : i32, 1 : i32, 1 : i32, 1 : i32]}> : (tensor<32x1x17x64xbf16>) -> tensor<1x1x17x64xbf16> loc(#loc89)
        "ttir.fill_cache"(%7, %130) <{batch_offset = 4 : i32}> : (tensor<32x1x128x64xbf16>, tensor<1x1x17x64xbf16>) -> () loc(#loc89)
        %131 = "ttir.slice_static"(%125) <{begins = [5 : i32, 0 : i32, 0 : i32, 0 : i32], ends = [6 : i32, 1 : i32, 17 : i32, 64 : i32], step = [1 : i32, 1 : i32, 1 : i32, 1 : i32]}> : (tensor<32x1x17x64xbf16>) -> tensor<1x1x17x64xbf16> loc(#loc89)
        "ttir.fill_cache"(%7, %131) <{batch_offset = 5 : i32}> : (tensor<32x1x128x64xbf16>, tensor<1x1x17x64xbf16>) -> () loc(#loc89)
        %132 = "ttir.slice_static"(%125) <{begins = [6 : i32, 0 : i32, 0 : i32, 0 : i32], ends = [7 : i32, 1 : i32, 17 : i32, 64 : i32], step = [1 : i32, 1 : i32, 1 : i32, 1 : i32]}> : (tensor<32x1x17x64xbf16>) -> tensor<1x1x17x64xbf16> loc(#loc89)
        "ttir.fill_cache"(%7, %132) <{batch_offset = 6 : i32}> : (tensor<32x1x128x64xbf16>, tensor<1x1x17x64xbf16>) -> () loc(#loc89)
        %133 = "ttir.slice_static"(%125) <{begins = [7 : i32, 0 : i32, 0 : i32, 0 : i32], ends = [8 : i32, 1 : i32, 17 : i32, 64 : i32], step = [1 : i32, 1 : i32, 1 : i32, 1 : i32]}> : (tensor<32x1x17x64xbf16>) -> tensor<1x1x17x64xbf16> loc(#loc89)
        "ttir.fill_cache"(%7, %133) <{batch_offset = 7 : i32}> : (tensor<32x1x128x64xbf16>, tensor<1x1x17x64xbf16>) -> () loc(#loc89)
        %134 = "ttir.slice_static"(%125) <{begins = [8 : i32, 0 : i32, 0 : i32, 0 : i32], ends = [9 : i32, 1 : i32, 17 : i32, 64 : i32], step = [1 : i32, 1 : i32, 1 : i32, 1 : i32]}> : (tensor<32x1x17x64xbf16>) -> tensor<1x1x17x64xbf16> loc(#loc89)
        "ttir.fill_cache"(%7, %134) <{batch_offset = 8 : i32}> : (tensor<32x1x128x64xbf16>, tensor<1x1x17x64xbf16>) -> () loc(#loc89)
        %135 = "ttir.slice_static"(%125) <{begins = [9 : i32, 0 : i32, 0 : i32, 0 : i32], ends = [10 : i32, 1 : i32, 17 : i32, 64 : i32], step = [1 : i32, 1 : i32, 1 : i32, 1 : i32]}> : (tensor<32x1x17x64xbf16>) -> tensor<1x1x17x64xbf16> loc(#loc89)
        "ttir.fill_cache"(%7, %135) <{batch_offset = 9 : i32}> : (tensor<32x1x128x64xbf16>, tensor<1x1x17x64xbf16>) -> () loc(#loc89)
        %136 = "ttir.slice_static"(%125) <{begins = [10 : i32, 0 : i32, 0 : i32, 0 : i32], ends = [11 : i32, 1 : i32, 17 : i32, 64 : i32], step = [1 : i32, 1 : i32, 1 : i32, 1 : i32]}> : (tensor<32x1x17x64xbf16>) -> tensor<1x1x17x64xbf16> loc(#loc89)
        "ttir.fill_cache"(%7, %136) <{batch_offset = 10 : i32}> : (tensor<32x1x128x64xbf16>, tensor<1x1x17x64xbf16>) -> () loc(#loc89)
        %137 = "ttir.slice_static"(%125) <{begins = [11 : i32, 0 : i32, 0 : i32, 0 : i32], ends = [12 : i32, 1 : i32, 17 : i32, 64 : i32], step = [1 : i32, 1 : i32, 1 : i32, 1 : i32]}> : (tensor<32x1x17x64xbf16>) -> tensor<1x1x17x64xbf16> loc(#loc89)
        "ttir.fill_cache"(%7, %137) <{batch_offset = 11 : i32}> : (tensor<32x1x128x64xbf16>, tensor<1x1x17x64xbf16>) -> () loc(#loc89)
        %138 = "ttir.slice_static"(%125) <{begins = [12 : i32, 0 : i32, 0 : i32, 0 : i32], ends = [13 : i32, 1 : i32, 17 : i32, 64 : i32], step = [1 : i32, 1 : i32, 1 : i32, 1 : i32]}> : (tensor<32x1x17x64xbf16>) -> tensor<1x1x17x64xbf16> loc(#loc89)
        "ttir.fill_cache"(%7, %138) <{batch_offset = 12 : i32}> : (tensor<32x1x128x64xbf16>, tensor<1x1x17x64xbf16>) -> () loc(#loc89)
        %139 = "ttir.slice_static"(%125) <{begins = [13 : i32, 0 : i32, 0 : i32, 0 : i32], ends = [14 : i32, 1 : i32, 17 : i32, 64 : i32], step = [1 : i32, 1 : i32, 1 : i32, 1 : i32]}> : (tensor<32x1x17x64xbf16>) -> tensor<1x1x17x64xbf16> loc(#loc89)
        "ttir.fill_cache"(%7, %139) <{batch_offset = 13 : i32}> : (tensor<32x1x128x64xbf16>, tensor<1x1x17x64xbf16>) -> () loc(#loc89)
        %140 = "ttir.slice_static"(%125) <{begins = [14 : i32, 0 : i32, 0 : i32, 0 : i32], ends = [15 : i32, 1 : i32, 17 : i32, 64 : i32], step = [1 : i32, 1 : i32, 1 : i32, 1 : i32]}> : (tensor<32x1x17x64xbf16>) -> tensor<1x1x17x64xbf16> loc(#loc89)
        "ttir.fill_cache"(%7, %140) <{batch_offset = 14 : i32}> : (tensor<32x1x128x64xbf16>, tensor<1x1x17x64xbf16>) -> () loc(#loc89)
        %141 = "ttir.slice_static"(%125) <{begins = [15 : i32, 0 : i32, 0 : i32, 0 : i32], ends = [16 : i32, 1 : i32, 17 : i32, 64 : i32], step = [1 : i32, 1 : i32, 1 : i32, 1 : i32]}> : (tensor<32x1x17x64xbf16>) -> tensor<1x1x17x64xbf16> loc(#loc89)
        "ttir.fill_cache"(%7, %141) <{batch_offset = 15 : i32}> : (tensor<32x1x128x64xbf16>, tensor<1x1x17x64xbf16>) -> () loc(#loc89)
        %142 = "ttir.slice_static"(%125) <{begins = [16 : i32, 0 : i32, 0 : i32, 0 : i32], ends = [17 : i32, 1 : i32, 17 : i32, 64 : i32], step = [1 : i32, 1 : i32, 1 : i32, 1 : i32]}> : (tensor<32x1x17x64xbf16>) -> tensor<1x1x17x64xbf16> loc(#loc89)
        "ttir.fill_cache"(%7, %142) <{batch_offset = 16 : i32}> : (tensor<32x1x128x64xbf16>, tensor<1x1x17x64xbf16>) -> () loc(#loc89)
        %143 = "ttir.slice_static"(%125) <{begins = [17 : i32, 0 : i32, 0 : i32, 0 : i32], ends = [18 : i32, 1 : i32, 17 : i32, 64 : i32], step = [1 : i32, 1 : i32, 1 : i32, 1 : i32]}> : (tensor<32x1x17x64xbf16>) -> tensor<1x1x17x64xbf16> loc(#loc89)
        "ttir.fill_cache"(%7, %143) <{batch_offset = 17 : i32}> : (tensor<32x1x128x64xbf16>, tensor<1x1x17x64xbf16>) -> () loc(#loc89)
        %144 = "ttir.slice_static"(%125) <{begins = [18 : i32, 0 : i32, 0 : i32, 0 : i32], ends = [19 : i32, 1 : i32, 17 : i32, 64 : i32], step = [1 : i32, 1 : i32, 1 : i32, 1 : i32]}> : (tensor<32x1x17x64xbf16>) -> tensor<1x1x17x64xbf16> loc(#loc89)
        "ttir.fill_cache"(%7, %144) <{batch_offset = 18 : i32}> : (tensor<32x1x128x64xbf16>, tensor<1x1x17x64xbf16>) -> () loc(#loc89)
        %145 = "ttir.slice_static"(%125) <{begins = [19 : i32, 0 : i32, 0 : i32, 0 : i32], ends = [20 : i32, 1 : i32, 17 : i32, 64 : i32], step = [1 : i32, 1 : i32, 1 : i32, 1 : i32]}> : (tensor<32x1x17x64xbf16>) -> tensor<1x1x17x64xbf16> loc(#loc89)
        "ttir.fill_cache"(%7, %145) <{batch_offset = 19 : i32}> : (tensor<32x1x128x64xbf16>, tensor<1x1x17x64xbf16>) -> () loc(#loc89)
        %146 = "ttir.slice_static"(%125) <{begins = [20 : i32, 0 : i32, 0 : i32, 0 : i32], ends = [21 : i32, 1 : i32, 17 : i32, 64 : i32], step = [1 : i32, 1 : i32, 1 : i32, 1 : i32]}> : (tensor<32x1x17x64xbf16>) -> tensor<1x1x17x64xbf16> loc(#loc89)
        "ttir.fill_cache"(%7, %146) <{batch_offset = 20 : i32}> : (tensor<32x1x128x64xbf16>, tensor<1x1x17x64xbf16>) -> () loc(#loc89)
        %147 = "ttir.slice_static"(%125) <{begins = [21 : i32, 0 : i32, 0 : i32, 0 : i32], ends = [22 : i32, 1 : i32, 17 : i32, 64 : i32], step = [1 : i32, 1 : i32, 1 : i32, 1 : i32]}> : (tensor<32x1x17x64xbf16>) -> tensor<1x1x17x64xbf16> loc(#loc89)
        "ttir.fill_cache"(%7, %147) <{batch_offset = 21 : i32}> : (tensor<32x1x128x64xbf16>, tensor<1x1x17x64xbf16>) -> () loc(#loc89)
        %148 = "ttir.slice_static"(%125) <{begins = [22 : i32, 0 : i32, 0 : i32, 0 : i32], ends = [23 : i32, 1 : i32, 17 : i32, 64 : i32], step = [1 : i32, 1 : i32, 1 : i32, 1 : i32]}> : (tensor<32x1x17x64xbf16>) -> tensor<1x1x17x64xbf16> loc(#loc89)
        "ttir.fill_cache"(%7, %148) <{batch_offset = 22 : i32}> : (tensor<32x1x128x64xbf16>, tensor<1x1x17x64xbf16>) -> () loc(#loc89)
        %149 = "ttir.slice_static"(%125) <{begins = [23 : i32, 0 : i32, 0 : i32, 0 : i32], ends = [24 : i32, 1 : i32, 17 : i32, 64 : i32], step = [1 : i32, 1 : i32, 1 : i32, 1 : i32]}> : (tensor<32x1x17x64xbf16>) -> tensor<1x1x17x64xbf16> loc(#loc89)
        "ttir.fill_cache"(%7, %149) <{batch_offset = 23 : i32}> : (tensor<32x1x128x64xbf16>, tensor<1x1x17x64xbf16>) -> () loc(#loc89)
        %150 = "ttir.slice_static"(%125) <{begins = [24 : i32, 0 : i32, 0 : i32, 0 : i32], ends = [25 : i32, 1 : i32, 17 : i32, 64 : i32], step = [1 : i32, 1 : i32, 1 : i32, 1 : i32]}> : (tensor<32x1x17x64xbf16>) -> tensor<1x1x17x64xbf16> loc(#loc89)
        "ttir.fill_cache"(%7, %150) <{batch_offset = 24 : i32}> : (tensor<32x1x128x64xbf16>, tensor<1x1x17x64xbf16>) -> () loc(#loc89)
        %151 = "ttir.slice_static"(%125) <{begins = [25 : i32, 0 : i32, 0 : i32, 0 : i32], ends = [26 : i32, 1 : i32, 17 : i32, 64 : i32], step = [1 : i32, 1 : i32, 1 : i32, 1 : i32]}> : (tensor<32x1x17x64xbf16>) -> tensor<1x1x17x64xbf16> loc(#loc89)
        "ttir.fill_cache"(%7, %151) <{batch_offset = 25 : i32}> : (tensor<32x1x128x64xbf16>, tensor<1x1x17x64xbf16>) -> () loc(#loc89)
        %152 = "ttir.slice_static"(%125) <{begins = [26 : i32, 0 : i32, 0 : i32, 0 : i32], ends = [27 : i32, 1 : i32, 17 : i32, 64 : i32], step = [1 : i32, 1 : i32, 1 : i32, 1 : i32]}> : (tensor<32x1x17x64xbf16>) -> tensor<1x1x17x64xbf16> loc(#loc89)
        "ttir.fill_cache"(%7, %152) <{batch_offset = 26 : i32}> : (tensor<32x1x128x64xbf16>, tensor<1x1x17x64xbf16>) -> () loc(#loc89)
        %153 = "ttir.slice_static"(%125) <{begins = [27 : i32, 0 : i32, 0 : i32, 0 : i32], ends = [28 : i32, 1 : i32, 17 : i32, 64 : i32], step = [1 : i32, 1 : i32, 1 : i32, 1 : i32]}> : (tensor<32x1x17x64xbf16>) -> tensor<1x1x17x64xbf16> loc(#loc89)
        "ttir.fill_cache"(%7, %153) <{batch_offset = 27 : i32}> : (tensor<32x1x128x64xbf16>, tensor<1x1x17x64xbf16>) -> () loc(#loc89)
        %154 = "ttir.slice_static"(%125) <{begins = [28 : i32, 0 : i32, 0 : i32, 0 : i32], ends = [29 : i32, 1 : i32, 17 : i32, 64 : i32], step = [1 : i32, 1 : i32, 1 : i32, 1 : i32]}> : (tensor<32x1x17x64xbf16>) -> tensor<1x1x17x64xbf16> loc(#loc89)
        "ttir.fill_cache"(%7, %154) <{batch_offset = 28 : i32}> : (tensor<32x1x128x64xbf16>, tensor<1x1x17x64xbf16>) -> () loc(#loc89)
        %155 = "ttir.slice_static"(%125) <{begins = [29 : i32, 0 : i32, 0 : i32, 0 : i32], ends = [30 : i32, 1 : i32, 17 : i32, 64 : i32], step = [1 : i32, 1 : i32, 1 : i32, 1 : i32]}> : (tensor<32x1x17x64xbf16>) -> tensor<1x1x17x64xbf16> loc(#loc89)
        "ttir.fill_cache"(%7, %155) <{batch_offset = 29 : i32}> : (tensor<32x1x128x64xbf16>, tensor<1x1x17x64xbf16>) -> () loc(#loc89)
        %156 = "ttir.slice_static"(%125) <{begins = [30 : i32, 0 : i32, 0 : i32, 0 : i32], ends = [31 : i32, 1 : i32, 17 : i32, 64 : i32], step = [1 : i32, 1 : i32, 1 : i32, 1 : i32]}> : (tensor<32x1x17x64xbf16>) -> tensor<1x1x17x64xbf16> loc(#loc89)
        "ttir.fill_cache"(%7, %156) <{batch_offset = 30 : i32}> : (tensor<32x1x128x64xbf16>, tensor<1x1x17x64xbf16>) -> () loc(#loc89)
        %157 = "ttir.slice_static"(%125) <{begins = [31 : i32, 0 : i32, 0 : i32, 0 : i32], ends = [32 : i32, 1 : i32, 17 : i32, 64 : i32], step = [1 : i32, 1 : i32, 1 : i32, 1 : i32]}> : (tensor<32x1x17x64xbf16>) -> tensor<1x1x17x64xbf16> loc(#loc89)
        "ttir.fill_cache"(%7, %157) <{batch_offset = 31 : i32}> : (tensor<32x1x128x64xbf16>, tensor<1x1x17x64xbf16>) -> () loc(#loc89)
        %158 = "ttir.reshape"(%7) <{shape = [32 : i32, 1 : i32, 1 : i32, 128 : i32, 64 : i32]}> : (tensor<32x1x128x64xbf16>) -> tensor<32x1x1x128x64xbf16> loc(#loc90)
        %159 = "ttir.broadcast"(%158) <{broadcast_dimensions = array<i64: 1, 1, 8, 1, 1>}> : (tensor<32x1x1x128x64xbf16>) -> tensor<32x1x8x128x64xbf16> loc(#loc90)
        %160 = "ttir.reshape"(%159) <{shape = [32 : i32, 8 : i32, 128 : i32, 64 : i32]}> : (tensor<32x1x8x128x64xbf16>) -> tensor<32x8x128x64xbf16> loc(#loc91)
        %161 = "ttir.permute"(%160) <{permutation = array<i64: 0, 1, 3, 2>}> : (tensor<32x8x128x64xbf16>) -> tensor<32x8x64x128xbf16> loc(#loc92)
        %162 = "ttir.dot_general"(%103, %161) <{batch_dims_lhs = array<i64: 0, 1>, batch_dims_rhs = array<i64: 0, 1>, contract_dims_lhs = array<i64: 3>, contract_dims_rhs = array<i64: 2>}> : (tensor<32x8x17x64xbf16>, tensor<32x8x64x128xbf16>) -> tensor<32x8x17x128xbf16> loc(#loc93)
        %163 = "ttir.multiply"(%162, %54) : (tensor<32x8x17x128xbf16>, tensor<32x8x17x128xbf16>) -> tensor<32x8x17x128xbf16> loc(#loc94)
        %164 = "ttir.reshape"(%20) <{shape = [1 : i32, 1 : i32, 1 : i32, 1 : i32]}> : (tensor<i1>) -> tensor<1x1x1x1xi1> loc(#loc95)
        %165 = "ttir.broadcast"(%164) <{broadcast_dimensions = array<i64: 1, 1, 17, 128>}> : (tensor<1x1x1x1xi1>) -> tensor<1x1x17x128xi1> loc(#loc95)
        %166 = "ttir.reshape"(%32) <{shape = [1 : i32, 1 : i32, 1 : i32, 128 : i32]}> : (tensor<1x1x128xi64>) -> tensor<1x1x1x128xi64> loc(#loc96)
        %167 = "ttir.broadcast"(%166) <{broadcast_dimensions = array<i64: 1, 1, 17, 1>}> : (tensor<1x1x1x128xi64>) -> tensor<1x1x17x128xi64> loc(#loc96)
        %168 = "ttir.reshape"(%0) <{shape = [1 : i32, 1 : i32, 17 : i32, 1 : i32]}> : (tensor<17xi64>) -> tensor<1x1x17x1xi64> loc(#loc218)
        %169 = "ttir.subtract"(%168, %33) : (tensor<1x1x17x1xi64>, tensor<1x1x17x1xi64>) -> tensor<1x1x17x1xi64> loc(#loc98)
        %170 = "ttir.reshape"(%169) <{shape = [1 : i32, 1 : i32, 17 : i32]}> : (tensor<1x1x17x1xi64>) -> tensor<1x1x17xi64> loc(#loc99)
        %171 = "ttir.reshape"(%170) <{shape = [1 : i32, 1 : i32, 17 : i32, 1 : i32]}> : (tensor<1x1x17xi64>) -> tensor<1x1x17x1xi64> loc(#loc100)
        %172 = "ttir.broadcast"(%171) <{broadcast_dimensions = array<i64: 1, 1, 1, 128>}> : (tensor<1x1x17x1xi64>) -> tensor<1x1x17x128xi64> loc(#loc100)
        %173 = "ttir.gt"(%167, %172) : (tensor<1x1x17x128xi64>, tensor<1x1x17x128xi64>) -> tensor<1x1x17x128xi1> loc(#loc101)
        %174 = "ttir.logical_and"(%165, %173) : (tensor<1x1x17x128xi1>, tensor<1x1x17x128xi1>) -> tensor<1x1x17x128xi1> loc(#loc102)
        %175 = "ttir.reshape"(%80) <{shape = [1 : i32, 1 : i32, 17 : i32, 1 : i32]}> : (tensor<1x1x17xi64>) -> tensor<1x1x17x1xi64> loc(#loc103)
        %176 = "ttir.broadcast"(%175) <{broadcast_dimensions = array<i64: 1, 1, 1, 128>}> : (tensor<1x1x17x1xi64>) -> tensor<1x1x17x128xi64> loc(#loc103)
        %177 = "ttir.le"(%167, %176) : (tensor<1x1x17x128xi64>, tensor<1x1x17x128xi64>) -> tensor<1x1x17x128xi1> loc(#loc104)
        %178 = "ttir.logical_and"(%174, %177) : (tensor<1x1x17x128xi1>, tensor<1x1x17x128xi1>) -> tensor<1x1x17x128xi1> loc(#loc105)
        %179 = "ttir.reshape"(%178) <{shape = [1 : i32, 17 : i32, 128 : i32]}> : (tensor<1x1x17x128xi1>) -> tensor<1x17x128xi1> loc(#loc106)
        %180 = "ttir.reshape"(%179) <{shape = [1 : i32, 1 : i32, 17 : i32, 128 : i32]}> : (tensor<1x17x128xi1>) -> tensor<1x1x17x128xi1> loc(#loc107)
        %181 = "ttir.broadcast"(%180) <{broadcast_dimensions = array<i64: 32, 1, 1, 1>}> : (tensor<1x1x17x128xi1>) -> tensor<32x1x17x128xi1> loc(#loc107)
        %182 = "ttir.reshape"(%19) <{shape = [1 : i32]}> : (tensor<bf16>) -> tensor<1xbf16> loc(#loc219)
        %183 = "ttir.reshape"(%182) <{shape = [1 : i32, 1 : i32, 1 : i32, 1 : i32]}> : (tensor<1xbf16>) -> tensor<1x1x1x1xbf16> loc(#loc110)
        %184 = "ttir.broadcast"(%183) <{broadcast_dimensions = array<i64: 32, 1, 17, 128>}> : (tensor<1x1x1x1xbf16>) -> tensor<32x1x17x128xbf16> loc(#loc110)
        %185 = "ttir.where"(%181, %184, %52) : (tensor<32x1x17x128xi1>, tensor<32x1x17x128xbf16>, tensor<32x1x17x128xbf16>) -> tensor<32x1x17x128xbf16> loc(#loc111)
        %186 = "ttir.reshape"(%185) <{shape = [32 : i32, 17 : i32, 128 : i32]}> : (tensor<32x1x17x128xbf16>) -> tensor<32x17x128xbf16> loc(#loc112)
        %187 = "ttir.reshape"(%186) <{shape = [32 : i32, 1 : i32, 17 : i32, 128 : i32]}> : (tensor<32x17x128xbf16>) -> tensor<32x1x17x128xbf16> loc(#loc113)
        %188 = "ttir.broadcast"(%187) <{broadcast_dimensions = array<i64: 1, 8, 1, 1>}> : (tensor<32x1x17x128xbf16>) -> tensor<32x8x17x128xbf16> loc(#loc113)
        %189 = "ttir.add"(%163, %188) : (tensor<32x8x17x128xbf16>, tensor<32x8x17x128xbf16>) -> tensor<32x8x17x128xbf16> loc(#loc114)
        %190 = "ttir.mesh_partition"(%18) <{cluster_axis = 1 : ui32, dim = 0 : si32}> : (tensor<64xbf16>) -> tensor<8xbf16> loc(#loc)
        %191 = "ttir.reshape"(%190) <{shape = [8 : i32, 1 : i32]}> : (tensor<8xbf16>) -> tensor<8x1xbf16> loc(#loc220)
        %192 = "ttir.reshape"(%191) <{shape = [1 : i32, 8 : i32, 1 : i32, 1 : i32]}> : (tensor<8x1xbf16>) -> tensor<1x8x1x1xbf16> loc(#loc117)
        %193 = "ttir.broadcast"(%192) <{broadcast_dimensions = array<i64: 32, 1, 17, 1>}> : (tensor<1x8x1x1xbf16>) -> tensor<32x8x17x1xbf16> loc(#loc117)
        %194 = "ttir.concat"(%189, %193) <{dim = 3 : si32}> : (tensor<32x8x17x128xbf16>, tensor<32x8x17x1xbf16>) -> tensor<32x8x17x129xbf16> loc(#loc118)
        %195 = "ttir.permute"(%9) <{permutation = array<i64: 1, 0>}> : (tensor<64x2880xbf16>) -> tensor<2880x64xbf16> loc(#loc119)
        %196 = "ttir.dot_general"(%67, %195) <{batch_dims_lhs = array<i64>, batch_dims_rhs = array<i64>, contract_dims_lhs = array<i64: 1>, contract_dims_rhs = array<i64: 0>}> : (tensor<544x2880xbf16>, tensor<2880x64xbf16>) -> tensor<544x64xbf16> loc(#loc120)
        %197 = "ttir.reshape"(%196) <{shape = [32 : i32, 17 : i32, 64 : i32]}> : (tensor<544x64xbf16>) -> tensor<32x17x64xbf16> loc(#loc121)
        %198 = "ttir.mesh_partition"(%8) <{cluster_axis = 1 : ui32, dim = 0 : si32}> : (tensor<512xbf16>) -> tensor<64xbf16> loc(#loc)
        %199 = "ttir.reshape"(%198) <{shape = [1 : i32, 1 : i32, 64 : i32]}> : (tensor<64xbf16>) -> tensor<1x1x64xbf16> loc(#loc122)
        %200 = "ttir.broadcast"(%199) <{broadcast_dimensions = array<i64: 32, 17, 1>}> : (tensor<1x1x64xbf16>) -> tensor<32x17x64xbf16> loc(#loc122)
        %201 = "ttir.add"(%197, %200) : (tensor<32x17x64xbf16>, tensor<32x17x64xbf16>) -> tensor<32x17x64xbf16> loc(#loc123)
        %202 = "ttir.reshape"(%201) <{shape = [32 : i32, 1 : i32, 17 : i32, 64 : i32]}> : (tensor<32x17x64xbf16>) -> tensor<32x1x17x64xbf16> loc(#loc221)
        %203 = "ttir.slice_static"(%202) <{begins = [0 : i32, 0 : i32, 0 : i32, 0 : i32], ends = [1 : i32, 1 : i32, 17 : i32, 64 : i32], step = [1 : i32, 1 : i32, 1 : i32, 1 : i32]}> : (tensor<32x1x17x64xbf16>) -> tensor<1x1x17x64xbf16> loc(#loc126)
        "ttir.fill_cache"(%10, %203) <{batch_offset = 0 : i32}> : (tensor<32x1x128x64xbf16>, tensor<1x1x17x64xbf16>) -> () loc(#loc126)
        %204 = "ttir.slice_static"(%202) <{begins = [1 : i32, 0 : i32, 0 : i32, 0 : i32], ends = [2 : i32, 1 : i32, 17 : i32, 64 : i32], step = [1 : i32, 1 : i32, 1 : i32, 1 : i32]}> : (tensor<32x1x17x64xbf16>) -> tensor<1x1x17x64xbf16> loc(#loc126)
        "ttir.fill_cache"(%10, %204) <{batch_offset = 1 : i32}> : (tensor<32x1x128x64xbf16>, tensor<1x1x17x64xbf16>) -> () loc(#loc126)
        %205 = "ttir.slice_static"(%202) <{begins = [2 : i32, 0 : i32, 0 : i32, 0 : i32], ends = [3 : i32, 1 : i32, 17 : i32, 64 : i32], step = [1 : i32, 1 : i32, 1 : i32, 1 : i32]}> : (tensor<32x1x17x64xbf16>) -> tensor<1x1x17x64xbf16> loc(#loc126)
        "ttir.fill_cache"(%10, %205) <{batch_offset = 2 : i32}> : (tensor<32x1x128x64xbf16>, tensor<1x1x17x64xbf16>) -> () loc(#loc126)
        %206 = "ttir.slice_static"(%202) <{begins = [3 : i32, 0 : i32, 0 : i32, 0 : i32], ends = [4 : i32, 1 : i32, 17 : i32, 64 : i32], step = [1 : i32, 1 : i32, 1 : i32, 1 : i32]}> : (tensor<32x1x17x64xbf16>) -> tensor<1x1x17x64xbf16> loc(#loc126)
        "ttir.fill_cache"(%10, %206) <{batch_offset = 3 : i32}> : (tensor<32x1x128x64xbf16>, tensor<1x1x17x64xbf16>) -> () loc(#loc126)
        %207 = "ttir.slice_static"(%202) <{begins = [4 : i32, 0 : i32, 0 : i32, 0 : i32], ends = [5 : i32, 1 : i32, 17 : i32, 64 : i32], step = [1 : i32, 1 : i32, 1 : i32, 1 : i32]}> : (tensor<32x1x17x64xbf16>) -> tensor<1x1x17x64xbf16> loc(#loc126)
        "ttir.fill_cache"(%10, %207) <{batch_offset = 4 : i32}> : (tensor<32x1x128x64xbf16>, tensor<1x1x17x64xbf16>) -> () loc(#loc126)
        %208 = "ttir.slice_static"(%202) <{begins = [5 : i32, 0 : i32, 0 : i32, 0 : i32], ends = [6 : i32, 1 : i32, 17 : i32, 64 : i32], step = [1 : i32, 1 : i32, 1 : i32, 1 : i32]}> : (tensor<32x1x17x64xbf16>) -> tensor<1x1x17x64xbf16> loc(#loc126)
        "ttir.fill_cache"(%10, %208) <{batch_offset = 5 : i32}> : (tensor<32x1x128x64xbf16>, tensor<1x1x17x64xbf16>) -> () loc(#loc126)
        %209 = "ttir.slice_static"(%202) <{begins = [6 : i32, 0 : i32, 0 : i32, 0 : i32], ends = [7 : i32, 1 : i32, 17 : i32, 64 : i32], step = [1 : i32, 1 : i32, 1 : i32, 1 : i32]}> : (tensor<32x1x17x64xbf16>) -> tensor<1x1x17x64xbf16> loc(#loc126)
        "ttir.fill_cache"(%10, %209) <{batch_offset = 6 : i32}> : (tensor<32x1x128x64xbf16>, tensor<1x1x17x64xbf16>) -> () loc(#loc126)
        %210 = "ttir.slice_static"(%202) <{begins = [7 : i32, 0 : i32, 0 : i32, 0 : i32], ends = [8 : i32, 1 : i32, 17 : i32, 64 : i32], step = [1 : i32, 1 : i32, 1 : i32, 1 : i32]}> : (tensor<32x1x17x64xbf16>) -> tensor<1x1x17x64xbf16> loc(#loc126)
        "ttir.fill_cache"(%10, %210) <{batch_offset = 7 : i32}> : (tensor<32x1x128x64xbf16>, tensor<1x1x17x64xbf16>) -> () loc(#loc126)
        %211 = "ttir.slice_static"(%202) <{begins = [8 : i32, 0 : i32, 0 : i32, 0 : i32], ends = [9 : i32, 1 : i32, 17 : i32, 64 : i32], step = [1 : i32, 1 : i32, 1 : i32, 1 : i32]}> : (tensor<32x1x17x64xbf16>) -> tensor<1x1x17x64xbf16> loc(#loc126)
        "ttir.fill_cache"(%10, %211) <{batch_offset = 8 : i32}> : (tensor<32x1x128x64xbf16>, tensor<1x1x17x64xbf16>) -> () loc(#loc126)
        %212 = "ttir.slice_static"(%202) <{begins = [9 : i32, 0 : i32, 0 : i32, 0 : i32], ends = [10 : i32, 1 : i32, 17 : i32, 64 : i32], step = [1 : i32, 1 : i32, 1 : i32, 1 : i32]}> : (tensor<32x1x17x64xbf16>) -> tensor<1x1x17x64xbf16> loc(#loc126)
        "ttir.fill_cache"(%10, %212) <{batch_offset = 9 : i32}> : (tensor<32x1x128x64xbf16>, tensor<1x1x17x64xbf16>) -> () loc(#loc126)
        %213 = "ttir.slice_static"(%202) <{begins = [10 : i32, 0 : i32, 0 : i32, 0 : i32], ends = [11 : i32, 1 : i32, 17 : i32, 64 : i32], step = [1 : i32, 1 : i32, 1 : i32, 1 : i32]}> : (tensor<32x1x17x64xbf16>) -> tensor<1x1x17x64xbf16> loc(#loc126)
        "ttir.fill_cache"(%10, %213) <{batch_offset = 10 : i32}> : (tensor<32x1x128x64xbf16>, tensor<1x1x17x64xbf16>) -> () loc(#loc126)
        %214 = "ttir.slice_static"(%202) <{begins = [11 : i32, 0 : i32, 0 : i32, 0 : i32], ends = [12 : i32, 1 : i32, 17 : i32, 64 : i32], step = [1 : i32, 1 : i32, 1 : i32, 1 : i32]}> : (tensor<32x1x17x64xbf16>) -> tensor<1x1x17x64xbf16> loc(#loc126)
        "ttir.fill_cache"(%10, %214) <{batch_offset = 11 : i32}> : (tensor<32x1x128x64xbf16>, tensor<1x1x17x64xbf16>) -> () loc(#loc126)
        %215 = "ttir.slice_static"(%202) <{begins = [12 : i32, 0 : i32, 0 : i32, 0 : i32], ends = [13 : i32, 1 : i32, 17 : i32, 64 : i32], step = [1 : i32, 1 : i32, 1 : i32, 1 : i32]}> : (tensor<32x1x17x64xbf16>) -> tensor<1x1x17x64xbf16> loc(#loc126)
        "ttir.fill_cache"(%10, %215) <{batch_offset = 12 : i32}> : (tensor<32x1x128x64xbf16>, tensor<1x1x17x64xbf16>) -> () loc(#loc126)
        %216 = "ttir.slice_static"(%202) <{begins = [13 : i32, 0 : i32, 0 : i32, 0 : i32], ends = [14 : i32, 1 : i32, 17 : i32, 64 : i32], step = [1 : i32, 1 : i32, 1 : i32, 1 : i32]}> : (tensor<32x1x17x64xbf16>) -> tensor<1x1x17x64xbf16> loc(#loc126)
        "ttir.fill_cache"(%10, %216) <{batch_offset = 13 : i32}> : (tensor<32x1x128x64xbf16>, tensor<1x1x17x64xbf16>) -> () loc(#loc126)
        %217 = "ttir.slice_static"(%202) <{begins = [14 : i32, 0 : i32, 0 : i32, 0 : i32], ends = [15 : i32, 1 : i32, 17 : i32, 64 : i32], step = [1 : i32, 1 : i32, 1 : i32, 1 : i32]}> : (tensor<32x1x17x64xbf16>) -> tensor<1x1x17x64xbf16> loc(#loc126)
        "ttir.fill_cache"(%10, %217) <{batch_offset = 14 : i32}> : (tensor<32x1x128x64xbf16>, tensor<1x1x17x64xbf16>) -> () loc(#loc126)
        %218 = "ttir.slice_static"(%202) <{begins = [15 : i32, 0 : i32, 0 : i32, 0 : i32], ends = [16 : i32, 1 : i32, 17 : i32, 64 : i32], step = [1 : i32, 1 : i32, 1 : i32, 1 : i32]}> : (tensor<32x1x17x64xbf16>) -> tensor<1x1x17x64xbf16> loc(#loc126)
        "ttir.fill_cache"(%10, %218) <{batch_offset = 15 : i32}> : (tensor<32x1x128x64xbf16>, tensor<1x1x17x64xbf16>) -> () loc(#loc126)
        %219 = "ttir.slice_static"(%202) <{begins = [16 : i32, 0 : i32, 0 : i32, 0 : i32], ends = [17 : i32, 1 : i32, 17 : i32, 64 : i32], step = [1 : i32, 1 : i32, 1 : i32, 1 : i32]}> : (tensor<32x1x17x64xbf16>) -> tensor<1x1x17x64xbf16> loc(#loc126)
        "ttir.fill_cache"(%10, %219) <{batch_offset = 16 : i32}> : (tensor<32x1x128x64xbf16>, tensor<1x1x17x64xbf16>) -> () loc(#loc126)
        %220 = "ttir.slice_static"(%202) <{begins = [17 : i32, 0 : i32, 0 : i32, 0 : i32], ends = [18 : i32, 1 : i32, 17 : i32, 64 : i32], step = [1 : i32, 1 : i32, 1 : i32, 1 : i32]}> : (tensor<32x1x17x64xbf16>) -> tensor<1x1x17x64xbf16> loc(#loc126)
        "ttir.fill_cache"(%10, %220) <{batch_offset = 17 : i32}> : (tensor<32x1x128x64xbf16>, tensor<1x1x17x64xbf16>) -> () loc(#loc126)
        %221 = "ttir.slice_static"(%202) <{begins = [18 : i32, 0 : i32, 0 : i32, 0 : i32], ends = [19 : i32, 1 : i32, 17 : i32, 64 : i32], step = [1 : i32, 1 : i32, 1 : i32, 1 : i32]}> : (tensor<32x1x17x64xbf16>) -> tensor<1x1x17x64xbf16> loc(#loc126)
        "ttir.fill_cache"(%10, %221) <{batch_offset = 18 : i32}> : (tensor<32x1x128x64xbf16>, tensor<1x1x17x64xbf16>) -> () loc(#loc126)
        %222 = "ttir.slice_static"(%202) <{begins = [19 : i32, 0 : i32, 0 : i32, 0 : i32], ends = [20 : i32, 1 : i32, 17 : i32, 64 : i32], step = [1 : i32, 1 : i32, 1 : i32, 1 : i32]}> : (tensor<32x1x17x64xbf16>) -> tensor<1x1x17x64xbf16> loc(#loc126)
        "ttir.fill_cache"(%10, %222) <{batch_offset = 19 : i32}> : (tensor<32x1x128x64xbf16>, tensor<1x1x17x64xbf16>) -> () loc(#loc126)
        %223 = "ttir.slice_static"(%202) <{begins = [20 : i32, 0 : i32, 0 : i32, 0 : i32], ends = [21 : i32, 1 : i32, 17 : i32, 64 : i32], step = [1 : i32, 1 : i32, 1 : i32, 1 : i32]}> : (tensor<32x1x17x64xbf16>) -> tensor<1x1x17x64xbf16> loc(#loc126)
        "ttir.fill_cache"(%10, %223) <{batch_offset = 20 : i32}> : (tensor<32x1x128x64xbf16>, tensor<1x1x17x64xbf16>) -> () loc(#loc126)
        %224 = "ttir.slice_static"(%202) <{begins = [21 : i32, 0 : i32, 0 : i32, 0 : i32], ends = [22 : i32, 1 : i32, 17 : i32, 64 : i32], step = [1 : i32, 1 : i32, 1 : i32, 1 : i32]}> : (tensor<32x1x17x64xbf16>) -> tensor<1x1x17x64xbf16> loc(#loc126)
        "ttir.fill_cache"(%10, %224) <{batch_offset = 21 : i32}> : (tensor<32x1x128x64xbf16>, tensor<1x1x17x64xbf16>) -> () loc(#loc126)
        %225 = "ttir.slice_static"(%202) <{begins = [22 : i32, 0 : i32, 0 : i32, 0 : i32], ends = [23 : i32, 1 : i32, 17 : i32, 64 : i32], step = [1 : i32, 1 : i32, 1 : i32, 1 : i32]}> : (tensor<32x1x17x64xbf16>) -> tensor<1x1x17x64xbf16> loc(#loc126)
        "ttir.fill_cache"(%10, %225) <{batch_offset = 22 : i32}> : (tensor<32x1x128x64xbf16>, tensor<1x1x17x64xbf16>) -> () loc(#loc126)
        %226 = "ttir.slice_static"(%202) <{begins = [23 : i32, 0 : i32, 0 : i32, 0 : i32], ends = [24 : i32, 1 : i32, 17 : i32, 64 : i32], step = [1 : i32, 1 : i32, 1 : i32, 1 : i32]}> : (tensor<32x1x17x64xbf16>) -> tensor<1x1x17x64xbf16> loc(#loc126)
        "ttir.fill_cache"(%10, %226) <{batch_offset = 23 : i32}> : (tensor<32x1x128x64xbf16>, tensor<1x1x17x64xbf16>) -> () loc(#loc126)
        %227 = "ttir.slice_static"(%202) <{begins = [24 : i32, 0 : i32, 0 : i32, 0 : i32], ends = [25 : i32, 1 : i32, 17 : i32, 64 : i32], step = [1 : i32, 1 : i32, 1 : i32, 1 : i32]}> : (tensor<32x1x17x64xbf16>) -> tensor<1x1x17x64xbf16> loc(#loc126)
        "ttir.fill_cache"(%10, %227) <{batch_offset = 24 : i32}> : (tensor<32x1x128x64xbf16>, tensor<1x1x17x64xbf16>) -> () loc(#loc126)
        %228 = "ttir.slice_static"(%202) <{begins = [25 : i32, 0 : i32, 0 : i32, 0 : i32], ends = [26 : i32, 1 : i32, 17 : i32, 64 : i32], step = [1 : i32, 1 : i32, 1 : i32, 1 : i32]}> : (tensor<32x1x17x64xbf16>) -> tensor<1x1x17x64xbf16> loc(#loc126)
        "ttir.fill_cache"(%10, %228) <{batch_offset = 25 : i32}> : (tensor<32x1x128x64xbf16>, tensor<1x1x17x64xbf16>) -> () loc(#loc126)
        %229 = "ttir.slice_static"(%202) <{begins = [26 : i32, 0 : i32, 0 : i32, 0 : i32], ends = [27 : i32, 1 : i32, 17 : i32, 64 : i32], step = [1 : i32, 1 : i32, 1 : i32, 1 : i32]}> : (tensor<32x1x17x64xbf16>) -> tensor<1x1x17x64xbf16> loc(#loc126)
        "ttir.fill_cache"(%10, %229) <{batch_offset = 26 : i32}> : (tensor<32x1x128x64xbf16>, tensor<1x1x17x64xbf16>) -> () loc(#loc126)
        %230 = "ttir.slice_static"(%202) <{begins = [27 : i32, 0 : i32, 0 : i32, 0 : i32], ends = [28 : i32, 1 : i32, 17 : i32, 64 : i32], step = [1 : i32, 1 : i32, 1 : i32, 1 : i32]}> : (tensor<32x1x17x64xbf16>) -> tensor<1x1x17x64xbf16> loc(#loc126)
        "ttir.fill_cache"(%10, %230) <{batch_offset = 27 : i32}> : (tensor<32x1x128x64xbf16>, tensor<1x1x17x64xbf16>) -> () loc(#loc126)
        %231 = "ttir.slice_static"(%202) <{begins = [28 : i32, 0 : i32, 0 : i32, 0 : i32], ends = [29 : i32, 1 : i32, 17 : i32, 64 : i32], step = [1 : i32, 1 : i32, 1 : i32, 1 : i32]}> : (tensor<32x1x17x64xbf16>) -> tensor<1x1x17x64xbf16> loc(#loc126)
        "ttir.fill_cache"(%10, %231) <{batch_offset = 28 : i32}> : (tensor<32x1x128x64xbf16>, tensor<1x1x17x64xbf16>) -> () loc(#loc126)
        %232 = "ttir.slice_static"(%202) <{begins = [29 : i32, 0 : i32, 0 : i32, 0 : i32], ends = [30 : i32, 1 : i32, 17 : i32, 64 : i32], step = [1 : i32, 1 : i32, 1 : i32, 1 : i32]}> : (tensor<32x1x17x64xbf16>) -> tensor<1x1x17x64xbf16> loc(#loc126)
        "ttir.fill_cache"(%10, %232) <{batch_offset = 29 : i32}> : (tensor<32x1x128x64xbf16>, tensor<1x1x17x64xbf16>) -> () loc(#loc126)
        %233 = "ttir.slice_static"(%202) <{begins = [30 : i32, 0 : i32, 0 : i32, 0 : i32], ends = [31 : i32, 1 : i32, 17 : i32, 64 : i32], step = [1 : i32, 1 : i32, 1 : i32, 1 : i32]}> : (tensor<32x1x17x64xbf16>) -> tensor<1x1x17x64xbf16> loc(#loc126)
        "ttir.fill_cache"(%10, %233) <{batch_offset = 30 : i32}> : (tensor<32x1x128x64xbf16>, tensor<1x1x17x64xbf16>) -> () loc(#loc126)
        %234 = "ttir.slice_static"(%202) <{begins = [31 : i32, 0 : i32, 0 : i32, 0 : i32], ends = [32 : i32, 1 : i32, 17 : i32, 64 : i32], step = [1 : i32, 1 : i32, 1 : i32, 1 : i32]}> : (tensor<32x1x17x64xbf16>) -> tensor<1x1x17x64xbf16> loc(#loc126)
        "ttir.fill_cache"(%10, %234) <{batch_offset = 31 : i32}> : (tensor<32x1x128x64xbf16>, tensor<1x1x17x64xbf16>) -> () loc(#loc126)
        %235 = "ttir.slice_static"(%0) <{begins = [16 : i32], ends = [17 : i32], step = [1 : i32]}> : (tensor<17xi64>) -> tensor<1xi64> loc(#loc127)
        %236 = "ttir.add"(%235, %35) : (tensor<1xi64>, tensor<1xi64>) -> tensor<1xi64> loc(#loc128)
        %237 = "ttir.max"(%194) <{dim_arg = [3 : i32], keep_dim = false}> : (tensor<32x8x17x129xbf16>) -> tensor<32x8x17xbf16> loc(#loc129)
        %238 = "ttir.reshape"(%237) <{shape = [32 : i32, 8 : i32, 17 : i32, 1 : i32]}> : (tensor<32x8x17xbf16>) -> tensor<32x8x17x1xbf16> loc(#loc130)
        %239 = "ttir.broadcast"(%238) <{broadcast_dimensions = array<i64: 1, 1, 1, 129>}> : (tensor<32x8x17x1xbf16>) -> tensor<32x8x17x129xbf16> loc(#loc130)
        %240 = "ttir.subtract"(%194, %239) : (tensor<32x8x17x129xbf16>, tensor<32x8x17x129xbf16>) -> tensor<32x8x17x129xbf16> loc(#loc131)
        %241 = "ttir.max"(%240) <{dim_arg = [3 : i32], keep_dim = false}> : (tensor<32x8x17x129xbf16>) -> tensor<32x8x17xbf16> loc(#loc132)
        %242 = "ttir.reshape"(%241) <{shape = [32 : i32, 8 : i32, 17 : i32, 1 : i32]}> : (tensor<32x8x17xbf16>) -> tensor<32x8x17x1xbf16> loc(#loc133)
        %243 = "ttir.broadcast"(%242) <{broadcast_dimensions = array<i64: 1, 1, 1, 129>}> : (tensor<32x8x17x1xbf16>) -> tensor<32x8x17x129xbf16> loc(#loc133)
        %244 = "ttir.subtract"(%240, %243) : (tensor<32x8x17x129xbf16>, tensor<32x8x17x129xbf16>) -> tensor<32x8x17x129xbf16> loc(#loc134)
        %245 = "ttir.exp"(%244) : (tensor<32x8x17x129xbf16>) -> tensor<32x8x17x129xbf16> loc(#loc135)
        %246 = "ttir.sum"(%245) <{dim_arg = [3 : i32], keep_dim = false}> : (tensor<32x8x17x129xbf16>) -> tensor<32x8x17xbf16> loc(#loc136)
        %247 = "ttir.reshape"(%246) <{shape = [32 : i32, 8 : i32, 17 : i32, 1 : i32]}> : (tensor<32x8x17xbf16>) -> tensor<32x8x17x1xbf16> loc(#loc137)
        %248 = "ttir.broadcast"(%247) <{broadcast_dimensions = array<i64: 1, 1, 1, 129>}> : (tensor<32x8x17x1xbf16>) -> tensor<32x8x17x129xbf16> loc(#loc137)
        %249 = "ttir.div"(%245, %248) : (tensor<32x8x17x129xbf16>, tensor<32x8x17x129xbf16>) -> tensor<32x8x17x129xbf16> loc(#loc138)
        %250 = "ttir.slice_static"(%249) <{begins = [0 : i32, 0 : i32, 0 : i32, 0 : i32], ends = [32 : i32, 8 : i32, 17 : i32, 128 : i32], step = [1 : i32, 1 : i32, 1 : i32, 1 : i32]}> : (tensor<32x8x17x129xbf16>) -> tensor<32x8x17x128xbf16> loc(#loc139)
        %251 = "ttir.reshape"(%10) <{shape = [32 : i32, 1 : i32, 1 : i32, 128 : i32, 64 : i32]}> : (tensor<32x1x128x64xbf16>) -> tensor<32x1x1x128x64xbf16> loc(#loc140)
        %252 = "ttir.broadcast"(%251) <{broadcast_dimensions = array<i64: 1, 1, 8, 1, 1>}> : (tensor<32x1x1x128x64xbf16>) -> tensor<32x1x8x128x64xbf16> loc(#loc140)
        %253 = "ttir.reshape"(%252) <{shape = [32 : i32, 8 : i32, 128 : i32, 64 : i32]}> : (tensor<32x1x8x128x64xbf16>) -> tensor<32x8x128x64xbf16> loc(#loc141)
        %254 = "ttir.dot_general"(%250, %253) <{batch_dims_lhs = array<i64: 0, 1>, batch_dims_rhs = array<i64: 0, 1>, contract_dims_lhs = array<i64: 3>, contract_dims_rhs = array<i64: 2>}> : (tensor<32x8x17x128xbf16>, tensor<32x8x128x64xbf16>) -> tensor<32x8x17x64xbf16> loc(#loc142)
        %255 = "ttir.permute"(%254) <{permutation = array<i64: 0, 2, 1, 3>}> : (tensor<32x8x17x64xbf16>) -> tensor<32x17x8x64xbf16> loc(#loc143)
        %256 = "ttir.reshape"(%255) <{shape = [544 : i32, 512 : i32]}> : (tensor<32x17x8x64xbf16>) -> tensor<544x512xbf16> loc(#loc144)
        %257 = "ttir.permute"(%17) <{permutation = array<i64: 1, 0>}> : (tensor<2880x512xbf16>) -> tensor<512x2880xbf16> loc(#loc145)
        %258 = "ttir.dot_general"(%256, %257) <{batch_dims_lhs = array<i64>, batch_dims_rhs = array<i64>, contract_dims_lhs = array<i64: 1>, contract_dims_rhs = array<i64: 0>}> : (tensor<544x512xbf16>, tensor<512x2880xbf16>) -> tensor<544x2880xbf16> loc(#loc146)
        %259 = "ttir.all_reduce"(%258) <{cluster_axis = 1 : ui32, reduce_type = #ttcore.reduce_type<sum>}> : (tensor<544x2880xbf16>) -> tensor<544x2880xbf16> loc(#loc146)
        %260 = "ttir.reshape"(%259) <{shape = [32 : i32, 17 : i32, 2880 : i32]}> : (tensor<544x2880xbf16>) -> tensor<32x17x2880xbf16> loc(#loc147)
        %261 = "ttir.reshape"(%16) <{shape = [1 : i32, 1 : i32, 2880 : i32]}> : (tensor<2880xbf16>) -> tensor<1x1x2880xbf16> loc(#loc148)
        %262 = "ttir.broadcast"(%261) <{broadcast_dimensions = array<i64: 32, 17, 1>}> : (tensor<1x1x2880xbf16>) -> tensor<32x17x2880xbf16> loc(#loc148)
        %263 = "ttir.add"(%260, %262) : (tensor<32x17x2880xbf16>, tensor<32x17x2880xbf16>) -> tensor<32x17x2880xbf16> loc(#loc149)
        %264 = "ttir.add"(%65, %263) : (tensor<32x17x2880xbf16>, tensor<32x17x2880xbf16>) -> tensor<32x17x2880xbf16> loc(#loc150)
        %265 = "ttir.rms_norm"(%264, %15) <{epsilon = 9.99999974E-6 : f32, normalized_shape = array<i64: 2880>, operandSegmentSizes = array<i32: 1, 1, 0>}> : (tensor<32x17x2880xbf16>, tensor<2880xbf16>) -> tensor<32x17x2880xbf16> loc(#loc151)
        %266 = "ttir.reshape"(%265) <{shape = [544 : i32, 2880 : i32]}> : (tensor<32x17x2880xbf16>) -> tensor<544x2880xbf16> loc(#loc152)
        %267 = "ttir.reshape"(%266) <{shape = [1 : i32, 544 : i32, 2880 : i32]}> : (tensor<544x2880xbf16>) -> tensor<1x544x2880xbf16> loc(#loc153)
        %268 = "ttir.broadcast"(%267) <{broadcast_dimensions = array<i64: 4, 1, 1>}> : (tensor<1x544x2880xbf16>) -> tensor<4x544x2880xbf16> loc(#loc153)
        %269 = "ttir.dot_general"(%268, %26) <{batch_dims_lhs = array<i64: 0>, batch_dims_rhs = array<i64: 0>, contract_dims_lhs = array<i64: 2>, contract_dims_rhs = array<i64: 1>}> : (tensor<4x544x2880xbf16>, tensor<4x2880x5760xbf16>) -> tensor<4x544x5760xbf16> loc(#loc154)
        %270 = "ttir.reshape"(%25) <{shape = [4 : i32, 1 : i32, 5760 : i32]}> : (tensor<4x5760xbf16>) -> tensor<4x1x5760xbf16> loc(#loc155)
        %271 = "ttir.broadcast"(%270) <{broadcast_dimensions = array<i64: 1, 544, 1>}> : (tensor<4x1x5760xbf16>) -> tensor<4x544x5760xbf16> loc(#loc155)
        %272 = "ttir.add"(%269, %271) : (tensor<4x544x5760xbf16>, tensor<4x544x5760xbf16>) -> tensor<4x544x5760xbf16> loc(#loc156)
        %273 = "ttir.slice_static"(%272) <{begins = [0 : i32, 0 : i32, 1 : i32], ends = [4 : i32, 544 : i32, 5760 : i32], step = [1 : i32, 1 : i32, 2 : i32]}> : (tensor<4x544x5760xbf16>) -> tensor<4x544x2880xbf16> loc(#loc157)
        %274 = "ttir.clamp_tensor"(%273, %50, %48) : (tensor<4x544x2880xbf16>, tensor<4x544x2880xbf16>, tensor<4x544x2880xbf16>) -> tensor<4x544x2880xbf16> loc(#loc158)
        %275 = "ttir.add"(%274, %46) : (tensor<4x544x2880xbf16>, tensor<4x544x2880xbf16>) -> tensor<4x544x2880xbf16> loc(#loc159)
        %276 = "ttir.slice_static"(%272) <{begins = [0 : i32, 0 : i32, 0 : i32], ends = [4 : i32, 544 : i32, 5760 : i32], step = [1 : i32, 1 : i32, 2 : i32]}> : (tensor<4x544x5760xbf16>) -> tensor<4x544x2880xbf16> loc(#loc160)
        %277 = "ttir.clamp_tensor"(%276, %44, %48) : (tensor<4x544x2880xbf16>, tensor<4x544x2880xbf16>, tensor<4x544x2880xbf16>) -> tensor<4x544x2880xbf16> loc(#loc161)
        %278 = "ttir.multiply"(%277, %42) : (tensor<4x544x2880xbf16>, tensor<4x544x2880xbf16>) -> tensor<4x544x2880xbf16> loc(#loc162)
        %279 = "ttir.sigmoid"(%278) : (tensor<4x544x2880xbf16>) -> tensor<4x544x2880xbf16> loc(#loc163)
        %280 = "ttir.multiply"(%277, %279) : (tensor<4x544x2880xbf16>, tensor<4x544x2880xbf16>) -> tensor<4x544x2880xbf16> loc(#loc164)
        %281 = "ttir.multiply"(%275, %280) : (tensor<4x544x2880xbf16>, tensor<4x544x2880xbf16>) -> tensor<4x544x2880xbf16> loc(#loc165)
        %282 = "ttir.dot_general"(%281, %24) <{batch_dims_lhs = array<i64: 0>, batch_dims_rhs = array<i64: 0>, contract_dims_lhs = array<i64: 2>, contract_dims_rhs = array<i64: 1>}> : (tensor<4x544x2880xbf16>, tensor<4x2880x2880xbf16>) -> tensor<4x544x2880xbf16> loc(#loc166)
        %283 = "ttir.reshape"(%23) <{shape = [4 : i32, 1 : i32, 2880 : i32]}> : (tensor<4x2880xbf16>) -> tensor<4x1x2880xbf16> loc(#loc167)
        %284 = "ttir.broadcast"(%283) <{broadcast_dimensions = array<i64: 1, 544, 1>}> : (tensor<4x1x2880xbf16>) -> tensor<4x544x2880xbf16> loc(#loc167)
        %285 = "ttir.add"(%282, %284) : (tensor<4x544x2880xbf16>, tensor<4x544x2880xbf16>) -> tensor<4x544x2880xbf16> loc(#loc168)
        %286 = "ttir.reshape"(%285) <{shape = [4 : i32, 32 : i32, 17 : i32, 2880 : i32]}> : (tensor<4x544x2880xbf16>) -> tensor<4x32x17x2880xbf16> loc(#loc169)
        %287 = "ttir.typecast"(%266) <{conservative_folding = false}> : (tensor<544x2880xbf16>) -> tensor<544x2880xf32> loc(#loc170)
        %288 = "ttir.permute"(%14) <{permutation = array<i64: 1, 0>}> : (tensor<32x2880xbf16>) -> tensor<2880x32xbf16> loc(#loc171)
        %289 = "ttir.typecast"(%288) <{conservative_folding = false}> : (tensor<2880x32xbf16>) -> tensor<2880x32xf32> loc(#loc172)
        %290 = "ttir.dot_general"(%287, %289) <{batch_dims_lhs = array<i64>, batch_dims_rhs = array<i64>, contract_dims_lhs = array<i64: 1>, contract_dims_rhs = array<i64: 0>}> : (tensor<544x2880xf32>, tensor<2880x32xf32>) -> tensor<544x32xf32> loc(#loc173)
        %291 = "ttir.typecast"(%13) <{conservative_folding = false}> : (tensor<32xbf16>) -> tensor<32xf32> loc(#loc174)
        %292 = "ttir.reshape"(%291) <{shape = [1 : i32, 32 : i32]}> : (tensor<32xf32>) -> tensor<1x32xf32> loc(#loc175)
        %293 = "ttir.broadcast"(%292) <{broadcast_dimensions = array<i64: 544, 1>}> : (tensor<1x32xf32>) -> tensor<544x32xf32> loc(#loc175)
        %294 = "ttir.add"(%290, %293) : (tensor<544x32xf32>, tensor<544x32xf32>) -> tensor<544x32xf32> loc(#loc176)
        %295 = "ttir.typecast"(%294) <{conservative_folding = false}> : (tensor<544x32xf32>) -> tensor<544x32xbf16> loc(#loc177)
        %values, %indices = "ttir.topk"(%295) <{dim = -1 : i32, k = 4 : i32, largest = true, sorted = true}> : (tensor<544x32xbf16>) -> (tensor<544x4xbf16>, tensor<544x4xi64>) loc(#loc)
        %296 = "ttir.reshape"(%indices) <{shape = [544 : i32, 4 : i32, 1 : i32]}> : (tensor<544x4xi64>) -> tensor<544x4x1xi64> loc(#loc178)
        %297 = "ttir.broadcast"(%296) <{broadcast_dimensions = array<i64: 1, 1, 4>}> : (tensor<544x4x1xi64>) -> tensor<544x4x4xi64> loc(#loc178)
        %298 = "ttir.mesh_partition"(%27) <{cluster_axis = 1 : ui32, dim = 0 : si32}> : (tensor<32xi64>) -> tensor<4xi64> loc(#loc)
        %299 = "ttir.reshape"(%298) <{shape = [1 : i32, 1 : i32, 4 : i32]}> : (tensor<4xi64>) -> tensor<1x1x4xi64> loc(#loc179)
        %300 = "ttir.broadcast"(%299) <{broadcast_dimensions = array<i64: 544, 4, 1>}> : (tensor<1x1x4xi64>) -> tensor<544x4x4xi64> loc(#loc179)
        %301 = "ttir.eq"(%297, %300) : (tensor<544x4x4xi64>, tensor<544x4x4xi64>) -> tensor<544x4x4xi1> loc(#loc180)
        %302 = "ttir.typecast"(%301) <{conservative_folding = false}> : (tensor<544x4x4xi1>) -> tensor<544x4x4xi64> loc(#loc181)
        %303 = "ttir.typecast"(%302) <{conservative_folding = false}> : (tensor<544x4x4xi64>) -> tensor<544x4x4xbf16> loc(#loc182)
        %304 = "ttir.max"(%values) <{dim_arg = [1 : i32], keep_dim = false}> : (tensor<544x4xbf16>) -> tensor<544xbf16> loc(#loc183)
        %305 = "ttir.reshape"(%304) <{shape = [544 : i32, 1 : i32]}> : (tensor<544xbf16>) -> tensor<544x1xbf16> loc(#loc184)
        %306 = "ttir.broadcast"(%305) <{broadcast_dimensions = array<i64: 1, 4>}> : (tensor<544x1xbf16>) -> tensor<544x4xbf16> loc(#loc184)
        %307 = "ttir.subtract"(%values, %306) : (tensor<544x4xbf16>, tensor<544x4xbf16>) -> tensor<544x4xbf16> loc(#loc185)
        %308 = "ttir.exp"(%307) : (tensor<544x4xbf16>) -> tensor<544x4xbf16> loc(#loc186)
        %309 = "ttir.sum"(%308) <{dim_arg = [1 : i32], keep_dim = false}> : (tensor<544x4xbf16>) -> tensor<544xbf16> loc(#loc187)
        %310 = "ttir.reshape"(%309) <{shape = [544 : i32, 1 : i32]}> : (tensor<544xbf16>) -> tensor<544x1xbf16> loc(#loc188)
        %311 = "ttir.broadcast"(%310) <{broadcast_dimensions = array<i64: 1, 4>}> : (tensor<544x1xbf16>) -> tensor<544x4xbf16> loc(#loc188)
        %312 = "ttir.div"(%308, %311) : (tensor<544x4xbf16>, tensor<544x4xbf16>) -> tensor<544x4xbf16> loc(#loc189)
        %313 = "ttir.reshape"(%312) <{shape = [544 : i32, 4 : i32, 1 : i32]}> : (tensor<544x4xbf16>) -> tensor<544x4x1xbf16> loc(#loc190)
        %314 = "ttir.broadcast"(%313) <{broadcast_dimensions = array<i64: 1, 1, 4>}> : (tensor<544x4x1xbf16>) -> tensor<544x4x4xbf16> loc(#loc190)
        %315 = "ttir.multiply"(%303, %314) : (tensor<544x4x4xbf16>, tensor<544x4x4xbf16>) -> tensor<544x4x4xbf16> loc(#loc191)
        %316 = "ttir.sum"(%315) <{dim_arg = [1 : i32], keep_dim = false}> : (tensor<544x4x4xbf16>) -> tensor<544x4xbf16> loc(#loc192)
        %317 = "ttir.permute"(%316) <{permutation = array<i64: 1, 0>}> : (tensor<544x4xbf16>) -> tensor<4x544xbf16> loc(#loc193)
        %318 = "ttir.reshape"(%317) <{shape = [4 : i32, 32 : i32, 17 : i32]}> : (tensor<4x544xbf16>) -> tensor<4x32x17xbf16> loc(#loc194)
        %319 = "ttir.reshape"(%318) <{shape = [4 : i32, 32 : i32, 17 : i32, 1 : i32]}> : (tensor<4x32x17xbf16>) -> tensor<4x32x17x1xbf16> loc(#loc195)
        %320 = "ttir.broadcast"(%319) <{broadcast_dimensions = array<i64: 1, 1, 1, 2880>}> : (tensor<4x32x17x1xbf16>) -> tensor<4x32x17x2880xbf16> loc(#loc195)
        %321 = "ttir.multiply"(%286, %320) : (tensor<4x32x17x2880xbf16>, tensor<4x32x17x2880xbf16>) -> tensor<4x32x17x2880xbf16> loc(#loc196)
        %322 = "ttir.sum"(%321) <{dim_arg = [0 : i32], keep_dim = false}> : (tensor<4x32x17x2880xbf16>) -> tensor<32x17x2880xbf16> loc(#loc197)
        %323 = "ttir.all_reduce"(%322) <{cluster_axis = 1 : ui32, reduce_type = #ttcore.reduce_type<sum>}> : (tensor<32x17x2880xbf16>) -> tensor<32x17x2880xbf16> loc(#loc197)
        %324 = "ttir.add"(%264, %323) : (tensor<32x17x2880xbf16>, tensor<32x17x2880xbf16>) -> tensor<32x17x2880xbf16> loc(#loc198)
        %325 = "ttir.rms_norm"(%324, %12) <{epsilon = 9.99999974E-6 : f32, normalized_shape = array<i64: 2880>, operandSegmentSizes = array<i32: 1, 1, 0>}> : (tensor<32x17x2880xbf16>, tensor<2880xbf16>) -> tensor<32x17x2880xbf16> loc(#loc199)
        %326 = "ttir.reshape"(%325) <{shape = [544 : i32, 2880 : i32]}> : (tensor<32x17x2880xbf16>) -> tensor<544x2880xbf16> loc(#loc200)
        %327 = "ttir.permute"(%11) <{permutation = array<i64: 1, 0>}> : (tensor<201088x2880xbf16>) -> tensor<2880x201088xbf16> loc(#loc201)
        %328 = "ttir.dot_general"(%326, %327) <{batch_dims_lhs = array<i64>, batch_dims_rhs = array<i64>, contract_dims_lhs = array<i64: 1>, contract_dims_rhs = array<i64: 0>}> : (tensor<544x2880xbf16>, tensor<2880x201088xbf16>) -> tensor<544x201088xbf16> loc(#loc202)
        %329 = "ttir.reshape"(%328) <{shape = [32 : i32, 17 : i32, 201088 : i32]}> : (tensor<544x201088xbf16>) -> tensor<32x17x201088xbf16> loc(#loc203)
        %330 = "ttir.slice_static"(%329) <{begins = [0 : i32, 16 : i32, 0 : i32], ends = [32 : i32, 17 : i32, 201088 : i32], step = [1 : i32, 1 : i32, 1 : i32]}> : (tensor<32x17x201088xbf16>) -> tensor<32x1x201088xbf16> loc(#loc204)
        %331 = "ttir.reshape"(%330) <{shape = [32 : i32, 201088 : i32]}> : (tensor<32x1x201088xbf16>) -> tensor<32x201088xbf16> loc(#loc205)
        %332 = "ttir.arange"() <{arange_dimension = 0 : i64, end = 201088 : si64, start = 0 : si64, step = 1 : si64}> : () -> tensor<201088xi32> loc(#loc206)
        %333 = "ttir.reshape"(%332) <{shape = [1 : i32, 201088 : i32]}> : (tensor<201088xi32>) -> tensor<1x201088xi32> loc(#loc206)
        %334 = "ttir.argmax"(%331) <{dim_arg = [1 : i32], keep_dim = false}> : (tensor<32x201088xbf16>) -> tensor<32xi32> loc(#loc207)
        %335 = "ttir.typecast"(%334) <{conservative_folding = false}> : (tensor<32xi32>) -> tensor<32xi64> loc(#loc208)
        %336 = "ttir.reshape"(%335) <{shape = [32 : i32, 1 : i32]}> : (tensor<32xi64>) -> tensor<32x1xi64> loc(#loc209)
        %337 = "ttir.mesh_shard"(%7) <{shard_dims = array<i64: -1, 1>, shard_direction = #ttcore.shard_direction<shard_to_full>, shard_shape = array<i64: 1, 8, 1, 1>, shard_type = #ttcore.shard_type<identity>}> : (tensor<32x1x128x64xbf16>) -> tensor<32x8x128x64xbf16> loc(#loc)
        %338 = "ttir.mesh_shard"(%10) <{shard_dims = array<i64: -1, 1>, shard_direction = #ttcore.shard_direction<shard_to_full>, shard_shape = array<i64: 1, 8, 1, 1>, shard_type = #ttcore.shard_type<identity>}> : (tensor<32x1x128x64xbf16>) -> tensor<32x8x128x64xbf16> loc(#loc)
        %339 = "ttir.mesh_shard"(%236) <{shard_dims = array<i64: -1>, shard_direction = #ttcore.shard_direction<shard_to_full>, shard_shape = array<i64: 1>, shard_type = #ttcore.shard_type<identity>}> : (tensor<1xi64>) -> tensor<1xi64> loc(#loc)
        %340 = "ttir.mesh_shard"(%336) <{shard_dims = array<i64: -1>, shard_direction = #ttcore.shard_direction<shard_to_full>, shard_shape = array<i64: 1>, shard_type = #ttcore.shard_type<identity>}> : (tensor<32x1xi64>) -> tensor<32x1xi64> loc(#loc)
        return %337, %338, %339, %340 : tensor<32x8x128x64xbf16>, tensor<32x8x128x64xbf16>, tensor<1xi64>, tensor<32x1xi64> loc(#loc)
      } loc(#loc)
    } loc(#loc)
  } loc(#loc)
} loc(#loc)
#loc = loc(unknown)
#loc28 = loc("reshape.56")
#loc29 = loc("reshape.53")
#loc30 = loc("convert.64")
#loc31 = loc("gather.65")
#loc32 = loc("reshape.66")
#loc33 = loc("custom-call.99")
#loc34 = loc("reshape.362")
#loc35 = loc("transpose.361")
#loc36 = loc("dot.363")
#loc37 = loc("reshape.364")
#loc38 = loc("broadcast.367")
#loc39 = loc("add.368")
#loc40 = loc("reshape.369")
#loc41 = loc("transpose.370")
#loc42 = loc("slice.371")
#loc43 = loc("reshape.16")
#loc44 = loc("reshape.12")
#loc45 = loc("convert.17")
#loc46 = loc("reshape.4")
#loc47 = loc("convert.9")
#loc48 = loc("dot.20")
#loc49 = loc("transpose.21")
#loc50 = loc("cosine.114")
#loc51 = loc("multiply.116")
#loc52 = loc("convert.117")
#loc53 = loc("reshape.386")
#loc54 = loc("broadcast.387")
#loc55 = loc("multiply.388")
#loc56 = loc("slice.375")
#loc57 = loc("sine.22")
#loc58 = loc("multiply.24")
#loc59 = loc("convert.25")
#loc60 = loc("reshape.383")
#loc61 = loc("broadcast.384")
#loc62 = loc("multiply.385")
#loc63 = loc("subtract.391")
#loc64 = loc("multiply.378")
#loc65 = loc("multiply.374")
#loc66 = loc("add.381")
#loc67 = loc("concatenate.392")
#loc68 = loc("compare.145")
#loc69 = loc("add.142")
#loc70 = loc("select.146")
#loc71 = loc("transpose.39")
#loc72 = loc("dot.101")
#loc73 = loc("reshape.102")
#loc74 = loc("broadcast.105")
#loc75 = loc("add.106")
#loc76 = loc("transpose.108")
#loc77 = loc("reshape.107")
#loc78 = loc("slice.109")
#loc79 = loc("broadcast.131")
#loc80 = loc("multiply.132")
#loc81 = loc("slice.119")
#loc82 = loc("broadcast.128")
#loc83 = loc("multiply.129")
#loc84 = loc("subtract.135")
#loc85 = loc("multiply.122")
#loc86 = loc("multiply.112")
#loc87 = loc("add.125")
#loc88 = loc("concatenate.136")
#loc89 = loc("scatter.155")
#loc90 = loc("broadcast.345")
#loc91 = loc("reshape.346")
#loc92 = loc("transpose.347")
#loc93 = loc("dot.393")
#loc94 = loc("multiply.396")
#loc95 = loc("broadcast.331")
#loc96 = loc("broadcast.323")
#loc97 = loc("reshape.302")
#loc98 = loc("subtract.321")
#loc99 = loc("reshape.324")
#loc100 = loc("broadcast.325")
#loc101 = loc("compare.326")
#loc102 = loc("and.332")
#loc103 = loc("broadcast.315")
#loc104 = loc("compare.316")
#loc105 = loc("and.335")
#loc106 = loc("reshape.337")
#loc107 = loc("broadcast.338")
#loc108 = loc("reshape.298")
#loc109 = loc("reshape.293")
#loc110 = loc("broadcast.299")
#loc111 = loc("select.340")
#loc112 = loc("reshape.399")
#loc113 = loc("broadcast.400")
#loc114 = loc("add.401")
#loc115 = loc("reshape.283")
#loc116 = loc("reshape.278")
#loc117 = loc("broadcast.284")
#loc118 = loc("concatenate.402")
#loc119 = loc("transpose.169")
#loc120 = loc("dot.171")
#loc121 = loc("reshape.172")
#loc122 = loc("broadcast.175")
#loc123 = loc("add.176")
#loc124 = loc("transpose.178")
#loc125 = loc("reshape.177")
#loc126 = loc("scatter.197")
#loc127 = loc("slice.201")
#loc128 = loc("add.204")
#loc129 = loc("reduce.409")
#loc130 = loc("broadcast.445")
#loc131 = loc("subtract.446")
#loc132 = loc("reduce.452")
#loc133 = loc("broadcast.453")
#loc134 = loc("subtract.454")
#loc135 = loc("exponential.455")
#loc136 = loc("reduce.461")
#loc137 = loc("broadcast.462")
#loc138 = loc("divide.463")
#loc139 = loc("slice.464")
#loc140 = loc("broadcast.274")
#loc141 = loc("reshape.275")
#loc142 = loc("dot.465")
#loc143 = loc("transpose.467")
#loc144 = loc("reshape.469")
#loc145 = loc("transpose.270")
#loc146 = loc("dot.470")
#loc147 = loc("reshape.471")
#loc148 = loc("broadcast.474")
#loc149 = loc("add.475")
#loc150 = loc("add.478")
#loc151 = loc("custom-call.511")
#loc152 = loc("reshape.602")
#loc153 = loc("concatenate.603")
#loc154 = loc("dot.606")
#loc155 = loc("broadcast.610")
#loc156 = loc("add.611")
#loc157 = loc("slice.624")
#loc158 = loc("clamp.627")
#loc159 = loc("add.630")
#loc160 = loc("slice.612")
#loc161 = loc("clamp.615")
#loc162 = loc("multiply.617")
#loc163 = loc("logistic.618")
#loc164 = loc("multiply.619")
#loc165 = loc("multiply.631")
#loc166 = loc("dot.632")
#loc167 = loc("broadcast.636")
#loc168 = loc("add.637")
#loc169 = loc("reshape.638")
#loc170 = loc("convert.513")
#loc171 = loc("transpose.243")
#loc172 = loc("convert.244")
#loc173 = loc("dot.514")
#loc174 = loc("convert.232")
#loc175 = loc("broadcast.519")
#loc176 = loc("add.520")
#loc177 = loc("convert.521")
#loc178 = loc("broadcast.566")
#loc179 = loc("broadcast.564")
#loc180 = loc("compare.567")
#loc181 = loc("convert.568")
#loc182 = loc("convert.569")
#loc183 = loc("reduce.548")
#loc184 = loc("broadcast.549")
#loc185 = loc("subtract.550")
#loc186 = loc("exponential.551")
#loc187 = loc("reduce.557")
#loc188 = loc("broadcast.558")
#loc189 = loc("divide.559")
#loc190 = loc("broadcast.571")
#loc191 = loc("multiply.572")
#loc192 = loc("reduce.579")
#loc193 = loc("transpose.580")
#loc194 = loc("reshape.581")
#loc195 = loc("broadcast.640")
#loc196 = loc("multiply.641")
#loc197 = loc("reduce.648")
#loc198 = loc("add.651")
#loc199 = loc("custom-call.684")
#loc200 = loc("reshape.685")
#loc201 = loc("transpose.212")
#loc202 = loc("dot.686")
#loc203 = loc("reshape.687")
#loc204 = loc("slice.689")
#loc205 = loc("reshape.690")
#loc206 = loc("iota.693")
#loc207 = loc("reduce.718")
#loc208 = loc("convert.720")
#loc209 = loc("reshape.721")
#loc210 = loc(fused[#loc28, #loc29])
#loc211 = loc("gather.65_permuteInput"(#loc31))
#loc212 = loc("gather.65_reshapeInput"(#loc31))
#loc213 = loc("gather.65_reshapeStartIndices"(#loc31))
#loc214 = loc("gather.65_reshapeOutput"(#loc31))
#loc215 = loc("gather.65_permuteOutput"(#loc31))
#loc216 = loc(fused[#loc43, #loc44])
#loc217 = loc(fused[#loc76, #loc77])
#loc218 = loc(fused[#loc97, #loc46])
#loc219 = loc(fused[#loc108, #loc109])
#loc220 = loc(fused[#loc115, #loc116])
#loc221 = loc(fused[#loc124, #loc125])
