#loc1 = loc("p0.3")
#loc2 = loc("p1.11")
#loc3 = loc("p2.28")
#loc4 = loc("p3.36")
#loc5 = loc("p4.41")
#loc6 = loc("p5.77")
#loc7 = loc("p6.119")
#loc8 = loc("p7.127")
#loc9 = loc("p8.149")
#loc10 = loc("p9.157")
#loc11 = loc("p10.166")
#loc12 = loc("p11.171")
#loc13 = loc("p12.180")
#loc14 = loc("p13.235")
#loc15 = loc("p14.361")
#loc16 = loc("p15.370")
#loc17 = loc("p16.418")
module @SyncTensorsGraph.428 attributes {mhlo.cross_program_prefetches = [], mhlo.input_output_alias = [], mhlo.is_dynamic = false, mhlo.use_auto_spmd_partitioning = false, ttcore.meshes = #ttcore.meshes<[<"mesh" = 1x1>]>} {
  ttcore.device_module {
    builtin.module @SyncTensorsGraph.428 attributes {mhlo.cross_program_prefetches = [], mhlo.input_output_alias = [], mhlo.is_dynamic = false, mhlo.use_auto_spmd_partitioning = false, ttcore.meshes = #ttcore.meshes<[<"mesh" = 1x1>]>} {
      func.func @main(%arg0: tensor<18xi64> {ttcore.argument_type = #ttcore.argument_type<input>, ttcore.shard_status = #ttcore.shard_status<unsharded>, ttir.name = "args_1"} loc("p0.3"), %arg1: tensor<32xbf16> {ttcore.argument_type = #ttcore.argument_type<constant>, ttcore.shard_status = #ttcore.shard_status<unsharded>, ttir.name = "l__self___model_rotary_emb_inv_freq"} loc("p1.11"), %arg2: tensor<512x2048xbf16> {ttcore.argument_type = #ttcore.argument_type<parameter>, ttcore.shard_status = #ttcore.shard_status<unsharded>, ttir.name = "l__self___model_layers__modules__0___self_attn_k_proj_weight"} loc("p2.28"), %arg3: tensor<32x18xi64> {ttcore.argument_type = #ttcore.argument_type<input>, ttcore.shard_status = #ttcore.shard_status<unsharded>, ttir.name = "args_0"} loc("p3.36"), %arg4: tensor<128256x2048xbf16> {ttcore.argument_type = #ttcore.argument_type<parameter>, ttcore.shard_status = #ttcore.shard_status<unsharded>, ttir.name = "l__self___model_embed_tokens_weight"} loc("p4.41"), %arg5: tensor<2048xbf16> {ttcore.argument_type = #ttcore.argument_type<parameter>, ttcore.shard_status = #ttcore.shard_status<unsharded>, ttir.name = "l__self___model_layers__modules__0___input_layernorm_weight"} loc("p5.77"), %arg6: tensor<32x8x128x64xbf16> {ttcore.argument_type = #ttcore.argument_type<input>, ttcore.shard_status = #ttcore.shard_status<unsharded>, ttir.name = "args_2"} loc("p6.119"), %arg7: tensor<512x2048xbf16> {ttcore.argument_type = #ttcore.argument_type<parameter>, ttcore.shard_status = #ttcore.shard_status<unsharded>, ttir.name = "l__self___model_layers__modules__0___self_attn_v_proj_weight"} loc("p7.127"), %arg8: tensor<32x8x128x64xbf16> {ttcore.argument_type = #ttcore.argument_type<input>, ttcore.shard_status = #ttcore.shard_status<unsharded>, ttir.name = "args_3"} loc("p8.149"), %arg9: tensor<128256x2048xbf16> {ttcore.argument_type = #ttcore.argument_type<parameter>, ttcore.shard_status = #ttcore.shard_status<unsharded>, ttir.name = "l__self___lm_head_weight"} loc("p9.157"), %arg10: tensor<2048x8192xbf16> {ttcore.argument_type = #ttcore.argument_type<parameter>, ttcore.shard_status = #ttcore.shard_status<unsharded>, ttir.name = "l__self___model_layers__modules__0___mlp_down_proj_weight"} loc("p10.166"), %arg11: tensor<8192x2048xbf16> {ttcore.argument_type = #ttcore.argument_type<parameter>, ttcore.shard_status = #ttcore.shard_status<unsharded>, ttir.name = "l__self___model_layers__modules__0___mlp_up_proj_weight"} loc("p11.171"), %arg12: tensor<2048x2048xbf16> {ttcore.argument_type = #ttcore.argument_type<parameter>, ttcore.shard_status = #ttcore.shard_status<unsharded>, ttir.name = "l__self___model_layers__modules__0___self_attn_o_proj_weight"} loc("p12.180"), %arg13: tensor<2048x2048xbf16> {ttcore.argument_type = #ttcore.argument_type<parameter>, ttcore.shard_status = #ttcore.shard_status<unsharded>, ttir.name = "l__self___model_layers__modules__0___self_attn_q_proj_weight"} loc("p13.235"), %arg14: tensor<2048xbf16> {ttcore.argument_type = #ttcore.argument_type<parameter>, ttcore.shard_status = #ttcore.shard_status<unsharded>, ttir.name = "l__self___model_layers__modules__0___post_attention_layernorm_weight"} loc("p14.361"), %arg15: tensor<8192x2048xbf16> {ttcore.argument_type = #ttcore.argument_type<parameter>, ttcore.shard_status = #ttcore.shard_status<unsharded>, ttir.name = "l__self___model_layers__modules__0___mlp_gate_proj_weight"} loc("p15.370"), %arg16: tensor<2048xbf16> {ttcore.argument_type = #ttcore.argument_type<parameter>, ttcore.shard_status = #ttcore.shard_status<unsharded>, ttir.name = "l__self___model_norm_weight"} loc("p16.418")) -> (tensor<32x8x128x64xbf16> {ttcore.shard_status = #ttcore.shard_status<unsharded>}, tensor<32x8x128x64xbf16> {ttcore.shard_status = #ttcore.shard_status<unsharded>}, tensor<32x18x128256xbf16> {ttcore.shard_status = #ttcore.shard_status<unsharded>}) {
        %0 = "ttir.constant"() <{value = dense<0.000000e+00> : tensor<32x32x18x128xf32>}> : () -> tensor<32x32x18x128xf32> loc(#loc)
        %1 = "ttir.constant"() <{value = dense<0xFFF0000000000000> : tensor<32x32x18x128xf64>}> : () -> tensor<32x32x18x128xf64> loc(#loc)
        %2 = "ttir.constant"() <{value = dense<0xFF80> : tensor<32x1x18x128xbf16>}> : () -> tensor<32x1x18x128xbf16> loc(#loc)
        %3 = "ttir.constant"() <{value = dense<0.000000e+00> : tensor<32x1x18x128xbf16>}> : () -> tensor<32x1x18x128xbf16> loc(#loc)
        %4 = "ttir.constant"() <{value = dense<0.353553385> : tensor<32x32x64x128xf32>}> : () -> tensor<32x32x64x128xf32> loc(#loc)
        %5 = "ttir.constant"() <{value = dense<0.353553385> : tensor<32x32x18x64xf32>}> : () -> tensor<32x32x18x64xf32> loc(#loc)
        %6 = "ttir.constant"() <{value = dense<9.99999974E-6> : tensor<32x18x1xf32>}> : () -> tensor<32x18x1xf32> loc(#loc)
        %7 = "ttir.constant"() <{value = dense<4.8828125E-4> : tensor<32x18xf32>}> : () -> tensor<32x18xf32> loc(#loc)
        %8 = "ttir.constant"() <{value = dense<2.000000e+00> : tensor<32x18x2048xf32>}> : () -> tensor<32x18x2048xf32> loc(#loc)
        %9 = "ttir.constant"() <{value = dense<128> : tensor<18xi64>}> : () -> tensor<18xi64> loc(#loc)
        %10 = "ttir.constant"() <{value = dense<0> : tensor<18xi64>}> : () -> tensor<18xi64> loc(#loc)
        %11 = "ttir.constant"() <{value = dense<"…"> : tensor<128xi64>}> : () -> tensor<128xi64> loc(#loc)
        %12 = "ttir.reshape"(%arg0) <{shape = [1 : i32, 1 : i32, 18 : i32]}> : (tensor<18xi64>) -> tensor<1x1x18xi64> loc(#loc18)
        %13 = "ttir.reshape"(%12) <{shape = [18 : i32]}> : (tensor<1x1x18xi64>) -> tensor<18xi64> loc(#loc19)
        %14 = "ttir.lt"(%13, %10) : (tensor<18xi64>, tensor<18xi64>) -> tensor<18xi1> loc(#loc20)
        %15 = "ttir.add"(%13, %9) : (tensor<18xi64>, tensor<18xi64>) -> tensor<18xi64> loc(#loc21)
        %16 = "ttir.where"(%14, %15, %13) : (tensor<18xi1>, tensor<18xi64>, tensor<18xi64>) -> tensor<18xi64> loc(#loc22)
        %17 = "ttir.reshape"(%arg5) <{shape = [1 : i32, 1 : i32, 2048 : i32]}> : (tensor<2048xbf16>) -> tensor<1x1x2048xbf16> loc(#loc23)
        %18 = "ttir.reshape"(%17) <{shape = [2048 : i32]}> : (tensor<1x1x2048xbf16>) -> tensor<2048xbf16> loc(#loc24)
        %19 = "ttir.reshape"(%18) <{shape = [1 : i32, 1 : i32, 2048 : i32]}> : (tensor<2048xbf16>) -> tensor<1x1x2048xbf16> loc(#loc25)
        %20 = "ttir.broadcast"(%19) <{broadcast_dimensions = array<i64: 32, 18, 1>}> : (tensor<1x1x2048xbf16>) -> tensor<32x18x2048xbf16> loc(#loc25)
        %21 = "ttir.reshape"(%arg4) <{shape = [1 : i32, 128256 : i32, 2048 : i32]}> : (tensor<128256x2048xbf16>) -> tensor<1x128256x2048xbf16> loc(#loc26)
        %22 = "ttir.reshape"(%21) <{shape = [128256 : i32, 2048 : i32]}> : (tensor<1x128256x2048xbf16>) -> tensor<128256x2048xbf16> loc(#loc27)
        %23 = "ttir.reshape"(%arg3) <{shape = [1 : i32, 32 : i32, 18 : i32]}> : (tensor<32x18xi64>) -> tensor<1x32x18xi64> loc(#loc28)
        %24 = "ttir.reshape"(%23) <{shape = [576 : i32]}> : (tensor<1x32x18xi64>) -> tensor<576xi64> loc(#loc29)
        %25 = "ttir.typecast"(%24) <{conservative_folding = false}> : (tensor<576xi64>) -> tensor<576xui32> loc(#loc30)
        %26 = "ttir.gather"(%22, %25) <{collapsed_slice_dims = array<i64: 0>, index_vector_dim = 1 : si64, indices_are_sorted = false, offset_dims = array<i64: 1>, operand_batching_dims = array<i64>, slice_sizes = array<i64: 1, 2048>, start_index_map = array<i64: 0>, start_indices_batching_dims = array<i64>}> : (tensor<128256x2048xbf16>, tensor<576xui32>) -> tensor<576x2048xbf16> loc(#loc31)
        %27 = "ttir.reshape"(%26) <{shape = [32 : i32, 18 : i32, 2048 : i32]}> : (tensor<576x2048xbf16>) -> tensor<32x18x2048xbf16> loc(#loc32)
        %28 = "ttir.typecast"(%27) <{conservative_folding = false}> : (tensor<32x18x2048xbf16>) -> tensor<32x18x2048xf32> loc(#loc33)
        %29 = "ttir.pow"(%28, %8) : (tensor<32x18x2048xf32>, tensor<32x18x2048xf32>) -> tensor<32x18x2048xf32> loc(#loc34)
        %30 = "ttir.sum"(%29) <{dim_arg = [2 : i32], keep_dim = false}> : (tensor<32x18x2048xf32>) -> tensor<32x18xf32> loc(#loc35)
        %31 = "ttir.multiply"(%30, %7) : (tensor<32x18xf32>, tensor<32x18xf32>) -> tensor<32x18xf32> loc(#loc36)
        %32 = "ttir.reshape"(%31) <{shape = [32 : i32, 18 : i32, 1 : i32]}> : (tensor<32x18xf32>) -> tensor<32x18x1xf32> loc(#loc37)
        %33 = "ttir.add"(%32, %6) : (tensor<32x18x1xf32>, tensor<32x18x1xf32>) -> tensor<32x18x1xf32> loc(#loc38)
        %34 = "ttir.rsqrt"(%33) : (tensor<32x18x1xf32>) -> tensor<32x18x1xf32> loc(#loc39)
        %35 = "ttir.reshape"(%34) <{shape = [32 : i32, 18 : i32]}> : (tensor<32x18x1xf32>) -> tensor<32x18xf32> loc(#loc40)
        %36 = "ttir.reshape"(%35) <{shape = [32 : i32, 18 : i32, 1 : i32]}> : (tensor<32x18xf32>) -> tensor<32x18x1xf32> loc(#loc41)
        %37 = "ttir.broadcast"(%36) <{broadcast_dimensions = array<i64: 1, 1, 2048>}> : (tensor<32x18x1xf32>) -> tensor<32x18x2048xf32> loc(#loc41)
        %38 = "ttir.multiply"(%28, %37) : (tensor<32x18x2048xf32>, tensor<32x18x2048xf32>) -> tensor<32x18x2048xf32> loc(#loc42)
        %39 = "ttir.typecast"(%38) <{conservative_folding = false}> : (tensor<32x18x2048xf32>) -> tensor<32x18x2048xbf16> loc(#loc43)
        %40 = "ttir.multiply"(%20, %39) : (tensor<32x18x2048xbf16>, tensor<32x18x2048xbf16>) -> tensor<32x18x2048xbf16> loc(#loc44)
        %41 = "ttir.reshape"(%40) <{shape = [576 : i32, 2048 : i32]}> : (tensor<32x18x2048xbf16>) -> tensor<576x2048xbf16> loc(#loc45)
        %42 = "ttir.reshape"(%arg2) <{shape = [1 : i32, 512 : i32, 2048 : i32]}> : (tensor<512x2048xbf16>) -> tensor<1x512x2048xbf16> loc(#loc46)
        %43 = "ttir.reshape"(%42) <{shape = [512 : i32, 2048 : i32]}> : (tensor<1x512x2048xbf16>) -> tensor<512x2048xbf16> loc(#loc47)
        %44 = "ttir.permute"(%43) <{permutation = array<i64: 1, 0>}> : (tensor<512x2048xbf16>) -> tensor<2048x512xbf16> loc(#loc48)
        %45 = "ttir.dot_general"(%41, %44) <{batch_dims_lhs = array<i64>, batch_dims_rhs = array<i64>, contract_dims_lhs = array<i64: 1>, contract_dims_rhs = array<i64: 0>}> : (tensor<576x2048xbf16>, tensor<2048x512xbf16>) -> tensor<576x512xbf16> loc(#loc49)
        %46 = "ttir.reshape"(%45) <{shape = [32 : i32, 18 : i32, 8 : i32, 64 : i32]}> : (tensor<576x512xbf16>) -> tensor<32x18x8x64xbf16> loc(#loc50)
        %47 = "ttir.permute"(%46) <{permutation = array<i64: 0, 2, 1, 3>}> : (tensor<32x18x8x64xbf16>) -> tensor<32x8x18x64xbf16> loc(#loc51)
        %48 = "ttir.reshape"(%arg1) <{shape = [1 : i32, 1 : i32, 32 : i32]}> : (tensor<32xbf16>) -> tensor<1x1x32xbf16> loc(#loc52)
        %49 = "ttir.reshape"(%48) <{shape = [1 : i32, 32 : i32, 1 : i32]}> : (tensor<1x1x32xbf16>) -> tensor<1x32x1xbf16> loc(#loc53)
        %50 = "ttir.typecast"(%49) <{conservative_folding = false}> : (tensor<1x32x1xbf16>) -> tensor<1x32x1xf32> loc(#loc54)
        %51 = "ttir.typecast"(%12) <{conservative_folding = false}> : (tensor<1x1x18xi64>) -> tensor<1x1x18xf32> loc(#loc55)
        %52 = "ttir.dot_general"(%50, %51) <{batch_dims_lhs = array<i64: 0>, batch_dims_rhs = array<i64: 0>, contract_dims_lhs = array<i64: 2>, contract_dims_rhs = array<i64: 1>}> : (tensor<1x32x1xf32>, tensor<1x1x18xf32>) -> tensor<1x32x18xf32> loc(#loc56)
        %53 = "ttir.permute"(%52) <{permutation = array<i64: 0, 2, 1>}> : (tensor<1x32x18xf32>) -> tensor<1x18x32xf32> loc(#loc57)
        %54 = "ttir.concat"(%53, %53) <{dim = 2 : si32}> : (tensor<1x18x32xf32>, tensor<1x18x32xf32>) -> tensor<1x18x64xf32> loc(#loc58)
        %55 = "ttir.cos"(%54) : (tensor<1x18x64xf32>) -> tensor<1x18x64xf32> loc(#loc59)
        %56 = "ttir.typecast"(%55) <{conservative_folding = false}> : (tensor<1x18x64xf32>) -> tensor<1x18x64xbf16> loc(#loc60)
        %57 = "ttir.reshape"(%56) <{shape = [18 : i32, 64 : i32]}> : (tensor<1x18x64xbf16>) -> tensor<18x64xbf16> loc(#loc61)
        %58 = "ttir.reshape"(%57) <{shape = [1 : i32, 1 : i32, 18 : i32, 64 : i32]}> : (tensor<18x64xbf16>) -> tensor<1x1x18x64xbf16> loc(#loc62)
        %59 = "ttir.broadcast"(%58) <{broadcast_dimensions = array<i64: 32, 8, 1, 1>}> : (tensor<1x1x18x64xbf16>) -> tensor<32x8x18x64xbf16> loc(#loc62)
        %60 = "ttir.multiply"(%47, %59) : (tensor<32x8x18x64xbf16>, tensor<32x8x18x64xbf16>) -> tensor<32x8x18x64xbf16> loc(#loc63)
        %61 = "ttir.slice_static"(%47) <{begins = [0 : i32, 0 : i32, 0 : i32, 32 : i32], ends = [32 : i32, 8 : i32, 18 : i32, 64 : i32], step = [1 : i32, 1 : i32, 1 : i32, 1 : i32]}> : (tensor<32x8x18x64xbf16>) -> tensor<32x8x18x32xbf16> loc(#loc64)
        %62 = "ttir.neg"(%61) : (tensor<32x8x18x32xbf16>) -> tensor<32x8x18x32xbf16> loc(#loc65)
        %63 = "ttir.slice_static"(%47) <{begins = [0 : i32, 0 : i32, 0 : i32, 0 : i32], ends = [32 : i32, 8 : i32, 18 : i32, 32 : i32], step = [1 : i32, 1 : i32, 1 : i32, 1 : i32]}> : (tensor<32x8x18x64xbf16>) -> tensor<32x8x18x32xbf16> loc(#loc66)
        %64 = "ttir.concat"(%62, %63) <{dim = 3 : si32}> : (tensor<32x8x18x32xbf16>, tensor<32x8x18x32xbf16>) -> tensor<32x8x18x64xbf16> loc(#loc67)
        %65 = "ttir.sin"(%54) : (tensor<1x18x64xf32>) -> tensor<1x18x64xf32> loc(#loc68)
        %66 = "ttir.typecast"(%65) <{conservative_folding = false}> : (tensor<1x18x64xf32>) -> tensor<1x18x64xbf16> loc(#loc69)
        %67 = "ttir.reshape"(%66) <{shape = [18 : i32, 64 : i32]}> : (tensor<1x18x64xbf16>) -> tensor<18x64xbf16> loc(#loc70)
        %68 = "ttir.reshape"(%67) <{shape = [1 : i32, 1 : i32, 18 : i32, 64 : i32]}> : (tensor<18x64xbf16>) -> tensor<1x1x18x64xbf16> loc(#loc71)
        %69 = "ttir.broadcast"(%68) <{broadcast_dimensions = array<i64: 32, 8, 1, 1>}> : (tensor<1x1x18x64xbf16>) -> tensor<32x8x18x64xbf16> loc(#loc71)
        %70 = "ttir.multiply"(%64, %69) : (tensor<32x8x18x64xbf16>, tensor<32x8x18x64xbf16>) -> tensor<32x8x18x64xbf16> loc(#loc72)
        %71 = "ttir.add"(%60, %70) : (tensor<32x8x18x64xbf16>, tensor<32x8x18x64xbf16>) -> tensor<32x8x18x64xbf16> loc(#loc73)
        %72 = "ttir.slice_static"(%71) <{begins = [0 : i32, 0 : i32, 0 : i32, 0 : i32], ends = [1 : i32, 8 : i32, 18 : i32, 64 : i32], step = [1 : i32, 1 : i32, 1 : i32, 1 : i32]}> : (tensor<32x8x18x64xbf16>) -> tensor<1x8x18x64xbf16> loc(#loc74)
        %73 = "ttir.fill_cache"(%arg6, %72) <{batch_offset = 0 : i32}> : (tensor<32x8x128x64xbf16>, tensor<1x8x18x64xbf16>) -> tensor<32x8x128x64xbf16> loc(#loc74)
        %74 = "ttir.slice_static"(%71) <{begins = [1 : i32, 0 : i32, 0 : i32, 0 : i32], ends = [2 : i32, 8 : i32, 18 : i32, 64 : i32], step = [1 : i32, 1 : i32, 1 : i32, 1 : i32]}> : (tensor<32x8x18x64xbf16>) -> tensor<1x8x18x64xbf16> loc(#loc74)
        %75 = "ttir.fill_cache"(%73, %74) <{batch_offset = 1 : i32}> : (tensor<32x8x128x64xbf16>, tensor<1x8x18x64xbf16>) -> tensor<32x8x128x64xbf16> loc(#loc74)
        %76 = "ttir.slice_static"(%71) <{begins = [2 : i32, 0 : i32, 0 : i32, 0 : i32], ends = [3 : i32, 8 : i32, 18 : i32, 64 : i32], step = [1 : i32, 1 : i32, 1 : i32, 1 : i32]}> : (tensor<32x8x18x64xbf16>) -> tensor<1x8x18x64xbf16> loc(#loc74)
        %77 = "ttir.fill_cache"(%75, %76) <{batch_offset = 2 : i32}> : (tensor<32x8x128x64xbf16>, tensor<1x8x18x64xbf16>) -> tensor<32x8x128x64xbf16> loc(#loc74)
        %78 = "ttir.slice_static"(%71) <{begins = [3 : i32, 0 : i32, 0 : i32, 0 : i32], ends = [4 : i32, 8 : i32, 18 : i32, 64 : i32], step = [1 : i32, 1 : i32, 1 : i32, 1 : i32]}> : (tensor<32x8x18x64xbf16>) -> tensor<1x8x18x64xbf16> loc(#loc74)
        %79 = "ttir.fill_cache"(%77, %78) <{batch_offset = 3 : i32}> : (tensor<32x8x128x64xbf16>, tensor<1x8x18x64xbf16>) -> tensor<32x8x128x64xbf16> loc(#loc74)
        %80 = "ttir.slice_static"(%71) <{begins = [4 : i32, 0 : i32, 0 : i32, 0 : i32], ends = [5 : i32, 8 : i32, 18 : i32, 64 : i32], step = [1 : i32, 1 : i32, 1 : i32, 1 : i32]}> : (tensor<32x8x18x64xbf16>) -> tensor<1x8x18x64xbf16> loc(#loc74)
        %81 = "ttir.fill_cache"(%79, %80) <{batch_offset = 4 : i32}> : (tensor<32x8x128x64xbf16>, tensor<1x8x18x64xbf16>) -> tensor<32x8x128x64xbf16> loc(#loc74)
        %82 = "ttir.slice_static"(%71) <{begins = [5 : i32, 0 : i32, 0 : i32, 0 : i32], ends = [6 : i32, 8 : i32, 18 : i32, 64 : i32], step = [1 : i32, 1 : i32, 1 : i32, 1 : i32]}> : (tensor<32x8x18x64xbf16>) -> tensor<1x8x18x64xbf16> loc(#loc74)
        %83 = "ttir.fill_cache"(%81, %82) <{batch_offset = 5 : i32}> : (tensor<32x8x128x64xbf16>, tensor<1x8x18x64xbf16>) -> tensor<32x8x128x64xbf16> loc(#loc74)
        %84 = "ttir.slice_static"(%71) <{begins = [6 : i32, 0 : i32, 0 : i32, 0 : i32], ends = [7 : i32, 8 : i32, 18 : i32, 64 : i32], step = [1 : i32, 1 : i32, 1 : i32, 1 : i32]}> : (tensor<32x8x18x64xbf16>) -> tensor<1x8x18x64xbf16> loc(#loc74)
        %85 = "ttir.fill_cache"(%83, %84) <{batch_offset = 6 : i32}> : (tensor<32x8x128x64xbf16>, tensor<1x8x18x64xbf16>) -> tensor<32x8x128x64xbf16> loc(#loc74)
        %86 = "ttir.slice_static"(%71) <{begins = [7 : i32, 0 : i32, 0 : i32, 0 : i32], ends = [8 : i32, 8 : i32, 18 : i32, 64 : i32], step = [1 : i32, 1 : i32, 1 : i32, 1 : i32]}> : (tensor<32x8x18x64xbf16>) -> tensor<1x8x18x64xbf16> loc(#loc74)
        %87 = "ttir.fill_cache"(%85, %86) <{batch_offset = 7 : i32}> : (tensor<32x8x128x64xbf16>, tensor<1x8x18x64xbf16>) -> tensor<32x8x128x64xbf16> loc(#loc74)
        %88 = "ttir.slice_static"(%71) <{begins = [8 : i32, 0 : i32, 0 : i32, 0 : i32], ends = [9 : i32, 8 : i32, 18 : i32, 64 : i32], step = [1 : i32, 1 : i32, 1 : i32, 1 : i32]}> : (tensor<32x8x18x64xbf16>) -> tensor<1x8x18x64xbf16> loc(#loc74)
        %89 = "ttir.fill_cache"(%87, %88) <{batch_offset = 8 : i32}> : (tensor<32x8x128x64xbf16>, tensor<1x8x18x64xbf16>) -> tensor<32x8x128x64xbf16> loc(#loc74)
        %90 = "ttir.slice_static"(%71) <{begins = [9 : i32, 0 : i32, 0 : i32, 0 : i32], ends = [10 : i32, 8 : i32, 18 : i32, 64 : i32], step = [1 : i32, 1 : i32, 1 : i32, 1 : i32]}> : (tensor<32x8x18x64xbf16>) -> tensor<1x8x18x64xbf16> loc(#loc74)
        %91 = "ttir.fill_cache"(%89, %90) <{batch_offset = 9 : i32}> : (tensor<32x8x128x64xbf16>, tensor<1x8x18x64xbf16>) -> tensor<32x8x128x64xbf16> loc(#loc74)
        %92 = "ttir.slice_static"(%71) <{begins = [10 : i32, 0 : i32, 0 : i32, 0 : i32], ends = [11 : i32, 8 : i32, 18 : i32, 64 : i32], step = [1 : i32, 1 : i32, 1 : i32, 1 : i32]}> : (tensor<32x8x18x64xbf16>) -> tensor<1x8x18x64xbf16> loc(#loc74)
        %93 = "ttir.fill_cache"(%91, %92) <{batch_offset = 10 : i32}> : (tensor<32x8x128x64xbf16>, tensor<1x8x18x64xbf16>) -> tensor<32x8x128x64xbf16> loc(#loc74)
        %94 = "ttir.slice_static"(%71) <{begins = [11 : i32, 0 : i32, 0 : i32, 0 : i32], ends = [12 : i32, 8 : i32, 18 : i32, 64 : i32], step = [1 : i32, 1 : i32, 1 : i32, 1 : i32]}> : (tensor<32x8x18x64xbf16>) -> tensor<1x8x18x64xbf16> loc(#loc74)
        %95 = "ttir.fill_cache"(%93, %94) <{batch_offset = 11 : i32}> : (tensor<32x8x128x64xbf16>, tensor<1x8x18x64xbf16>) -> tensor<32x8x128x64xbf16> loc(#loc74)
        %96 = "ttir.slice_static"(%71) <{begins = [12 : i32, 0 : i32, 0 : i32, 0 : i32], ends = [13 : i32, 8 : i32, 18 : i32, 64 : i32], step = [1 : i32, 1 : i32, 1 : i32, 1 : i32]}> : (tensor<32x8x18x64xbf16>) -> tensor<1x8x18x64xbf16> loc(#loc74)
        %97 = "ttir.fill_cache"(%95, %96) <{batch_offset = 12 : i32}> : (tensor<32x8x128x64xbf16>, tensor<1x8x18x64xbf16>) -> tensor<32x8x128x64xbf16> loc(#loc74)
        %98 = "ttir.slice_static"(%71) <{begins = [13 : i32, 0 : i32, 0 : i32, 0 : i32], ends = [14 : i32, 8 : i32, 18 : i32, 64 : i32], step = [1 : i32, 1 : i32, 1 : i32, 1 : i32]}> : (tensor<32x8x18x64xbf16>) -> tensor<1x8x18x64xbf16> loc(#loc74)
        %99 = "ttir.fill_cache"(%97, %98) <{batch_offset = 13 : i32}> : (tensor<32x8x128x64xbf16>, tensor<1x8x18x64xbf16>) -> tensor<32x8x128x64xbf16> loc(#loc74)
        %100 = "ttir.slice_static"(%71) <{begins = [14 : i32, 0 : i32, 0 : i32, 0 : i32], ends = [15 : i32, 8 : i32, 18 : i32, 64 : i32], step = [1 : i32, 1 : i32, 1 : i32, 1 : i32]}> : (tensor<32x8x18x64xbf16>) -> tensor<1x8x18x64xbf16> loc(#loc74)
        %101 = "ttir.fill_cache"(%99, %100) <{batch_offset = 14 : i32}> : (tensor<32x8x128x64xbf16>, tensor<1x8x18x64xbf16>) -> tensor<32x8x128x64xbf16> loc(#loc74)
        %102 = "ttir.slice_static"(%71) <{begins = [15 : i32, 0 : i32, 0 : i32, 0 : i32], ends = [16 : i32, 8 : i32, 18 : i32, 64 : i32], step = [1 : i32, 1 : i32, 1 : i32, 1 : i32]}> : (tensor<32x8x18x64xbf16>) -> tensor<1x8x18x64xbf16> loc(#loc74)
        %103 = "ttir.fill_cache"(%101, %102) <{batch_offset = 15 : i32}> : (tensor<32x8x128x64xbf16>, tensor<1x8x18x64xbf16>) -> tensor<32x8x128x64xbf16> loc(#loc74)
        %104 = "ttir.slice_static"(%71) <{begins = [16 : i32, 0 : i32, 0 : i32, 0 : i32], ends = [17 : i32, 8 : i32, 18 : i32, 64 : i32], step = [1 : i32, 1 : i32, 1 : i32, 1 : i32]}> : (tensor<32x8x18x64xbf16>) -> tensor<1x8x18x64xbf16> loc(#loc74)
        %105 = "ttir.fill_cache"(%103, %104) <{batch_offset = 16 : i32}> : (tensor<32x8x128x64xbf16>, tensor<1x8x18x64xbf16>) -> tensor<32x8x128x64xbf16> loc(#loc74)
        %106 = "ttir.slice_static"(%71) <{begins = [17 : i32, 0 : i32, 0 : i32, 0 : i32], ends = [18 : i32, 8 : i32, 18 : i32, 64 : i32], step = [1 : i32, 1 : i32, 1 : i32, 1 : i32]}> : (tensor<32x8x18x64xbf16>) -> tensor<1x8x18x64xbf16> loc(#loc74)
        %107 = "ttir.fill_cache"(%105, %106) <{batch_offset = 17 : i32}> : (tensor<32x8x128x64xbf16>, tensor<1x8x18x64xbf16>) -> tensor<32x8x128x64xbf16> loc(#loc74)
        %108 = "ttir.slice_static"(%71) <{begins = [18 : i32, 0 : i32, 0 : i32, 0 : i32], ends = [19 : i32, 8 : i32, 18 : i32, 64 : i32], step = [1 : i32, 1 : i32, 1 : i32, 1 : i32]}> : (tensor<32x8x18x64xbf16>) -> tensor<1x8x18x64xbf16> loc(#loc74)
        %109 = "ttir.fill_cache"(%107, %108) <{batch_offset = 18 : i32}> : (tensor<32x8x128x64xbf16>, tensor<1x8x18x64xbf16>) -> tensor<32x8x128x64xbf16> loc(#loc74)
        %110 = "ttir.slice_static"(%71) <{begins = [19 : i32, 0 : i32, 0 : i32, 0 : i32], ends = [20 : i32, 8 : i32, 18 : i32, 64 : i32], step = [1 : i32, 1 : i32, 1 : i32, 1 : i32]}> : (tensor<32x8x18x64xbf16>) -> tensor<1x8x18x64xbf16> loc(#loc74)
        %111 = "ttir.fill_cache"(%109, %110) <{batch_offset = 19 : i32}> : (tensor<32x8x128x64xbf16>, tensor<1x8x18x64xbf16>) -> tensor<32x8x128x64xbf16> loc(#loc74)
        %112 = "ttir.slice_static"(%71) <{begins = [20 : i32, 0 : i32, 0 : i32, 0 : i32], ends = [21 : i32, 8 : i32, 18 : i32, 64 : i32], step = [1 : i32, 1 : i32, 1 : i32, 1 : i32]}> : (tensor<32x8x18x64xbf16>) -> tensor<1x8x18x64xbf16> loc(#loc74)
        %113 = "ttir.fill_cache"(%111, %112) <{batch_offset = 20 : i32}> : (tensor<32x8x128x64xbf16>, tensor<1x8x18x64xbf16>) -> tensor<32x8x128x64xbf16> loc(#loc74)
        %114 = "ttir.slice_static"(%71) <{begins = [21 : i32, 0 : i32, 0 : i32, 0 : i32], ends = [22 : i32, 8 : i32, 18 : i32, 64 : i32], step = [1 : i32, 1 : i32, 1 : i32, 1 : i32]}> : (tensor<32x8x18x64xbf16>) -> tensor<1x8x18x64xbf16> loc(#loc74)
        %115 = "ttir.fill_cache"(%113, %114) <{batch_offset = 21 : i32}> : (tensor<32x8x128x64xbf16>, tensor<1x8x18x64xbf16>) -> tensor<32x8x128x64xbf16> loc(#loc74)
        %116 = "ttir.slice_static"(%71) <{begins = [22 : i32, 0 : i32, 0 : i32, 0 : i32], ends = [23 : i32, 8 : i32, 18 : i32, 64 : i32], step = [1 : i32, 1 : i32, 1 : i32, 1 : i32]}> : (tensor<32x8x18x64xbf16>) -> tensor<1x8x18x64xbf16> loc(#loc74)
        %117 = "ttir.fill_cache"(%115, %116) <{batch_offset = 22 : i32}> : (tensor<32x8x128x64xbf16>, tensor<1x8x18x64xbf16>) -> tensor<32x8x128x64xbf16> loc(#loc74)
        %118 = "ttir.slice_static"(%71) <{begins = [23 : i32, 0 : i32, 0 : i32, 0 : i32], ends = [24 : i32, 8 : i32, 18 : i32, 64 : i32], step = [1 : i32, 1 : i32, 1 : i32, 1 : i32]}> : (tensor<32x8x18x64xbf16>) -> tensor<1x8x18x64xbf16> loc(#loc74)
        %119 = "ttir.fill_cache"(%117, %118) <{batch_offset = 23 : i32}> : (tensor<32x8x128x64xbf16>, tensor<1x8x18x64xbf16>) -> tensor<32x8x128x64xbf16> loc(#loc74)
        %120 = "ttir.slice_static"(%71) <{begins = [24 : i32, 0 : i32, 0 : i32, 0 : i32], ends = [25 : i32, 8 : i32, 18 : i32, 64 : i32], step = [1 : i32, 1 : i32, 1 : i32, 1 : i32]}> : (tensor<32x8x18x64xbf16>) -> tensor<1x8x18x64xbf16> loc(#loc74)
        %121 = "ttir.fill_cache"(%119, %120) <{batch_offset = 24 : i32}> : (tensor<32x8x128x64xbf16>, tensor<1x8x18x64xbf16>) -> tensor<32x8x128x64xbf16> loc(#loc74)
        %122 = "ttir.slice_static"(%71) <{begins = [25 : i32, 0 : i32, 0 : i32, 0 : i32], ends = [26 : i32, 8 : i32, 18 : i32, 64 : i32], step = [1 : i32, 1 : i32, 1 : i32, 1 : i32]}> : (tensor<32x8x18x64xbf16>) -> tensor<1x8x18x64xbf16> loc(#loc74)
        %123 = "ttir.fill_cache"(%121, %122) <{batch_offset = 25 : i32}> : (tensor<32x8x128x64xbf16>, tensor<1x8x18x64xbf16>) -> tensor<32x8x128x64xbf16> loc(#loc74)
        %124 = "ttir.slice_static"(%71) <{begins = [26 : i32, 0 : i32, 0 : i32, 0 : i32], ends = [27 : i32, 8 : i32, 18 : i32, 64 : i32], step = [1 : i32, 1 : i32, 1 : i32, 1 : i32]}> : (tensor<32x8x18x64xbf16>) -> tensor<1x8x18x64xbf16> loc(#loc74)
        %125 = "ttir.fill_cache"(%123, %124) <{batch_offset = 26 : i32}> : (tensor<32x8x128x64xbf16>, tensor<1x8x18x64xbf16>) -> tensor<32x8x128x64xbf16> loc(#loc74)
        %126 = "ttir.slice_static"(%71) <{begins = [27 : i32, 0 : i32, 0 : i32, 0 : i32], ends = [28 : i32, 8 : i32, 18 : i32, 64 : i32], step = [1 : i32, 1 : i32, 1 : i32, 1 : i32]}> : (tensor<32x8x18x64xbf16>) -> tensor<1x8x18x64xbf16> loc(#loc74)
        %127 = "ttir.fill_cache"(%125, %126) <{batch_offset = 27 : i32}> : (tensor<32x8x128x64xbf16>, tensor<1x8x18x64xbf16>) -> tensor<32x8x128x64xbf16> loc(#loc74)
        %128 = "ttir.slice_static"(%71) <{begins = [28 : i32, 0 : i32, 0 : i32, 0 : i32], ends = [29 : i32, 8 : i32, 18 : i32, 64 : i32], step = [1 : i32, 1 : i32, 1 : i32, 1 : i32]}> : (tensor<32x8x18x64xbf16>) -> tensor<1x8x18x64xbf16> loc(#loc74)
        %129 = "ttir.fill_cache"(%127, %128) <{batch_offset = 28 : i32}> : (tensor<32x8x128x64xbf16>, tensor<1x8x18x64xbf16>) -> tensor<32x8x128x64xbf16> loc(#loc74)
        %130 = "ttir.slice_static"(%71) <{begins = [29 : i32, 0 : i32, 0 : i32, 0 : i32], ends = [30 : i32, 8 : i32, 18 : i32, 64 : i32], step = [1 : i32, 1 : i32, 1 : i32, 1 : i32]}> : (tensor<32x8x18x64xbf16>) -> tensor<1x8x18x64xbf16> loc(#loc74)
        %131 = "ttir.fill_cache"(%129, %130) <{batch_offset = 29 : i32}> : (tensor<32x8x128x64xbf16>, tensor<1x8x18x64xbf16>) -> tensor<32x8x128x64xbf16> loc(#loc74)
        %132 = "ttir.slice_static"(%71) <{begins = [30 : i32, 0 : i32, 0 : i32, 0 : i32], ends = [31 : i32, 8 : i32, 18 : i32, 64 : i32], step = [1 : i32, 1 : i32, 1 : i32, 1 : i32]}> : (tensor<32x8x18x64xbf16>) -> tensor<1x8x18x64xbf16> loc(#loc74)
        %133 = "ttir.fill_cache"(%131, %132) <{batch_offset = 30 : i32}> : (tensor<32x8x128x64xbf16>, tensor<1x8x18x64xbf16>) -> tensor<32x8x128x64xbf16> loc(#loc74)
        %134 = "ttir.slice_static"(%71) <{begins = [31 : i32, 0 : i32, 0 : i32, 0 : i32], ends = [32 : i32, 8 : i32, 18 : i32, 64 : i32], step = [1 : i32, 1 : i32, 1 : i32, 1 : i32]}> : (tensor<32x8x18x64xbf16>) -> tensor<1x8x18x64xbf16> loc(#loc74)
        %135 = "ttir.fill_cache"(%133, %134) <{batch_offset = 31 : i32}> : (tensor<32x8x128x64xbf16>, tensor<1x8x18x64xbf16>) -> tensor<32x8x128x64xbf16> loc(#loc74)
        %136 = "ttir.reshape"(%arg7) <{shape = [1 : i32, 512 : i32, 2048 : i32]}> : (tensor<512x2048xbf16>) -> tensor<1x512x2048xbf16> loc(#loc75)
        %137 = "ttir.reshape"(%136) <{shape = [512 : i32, 2048 : i32]}> : (tensor<1x512x2048xbf16>) -> tensor<512x2048xbf16> loc(#loc76)
        %138 = "ttir.permute"(%137) <{permutation = array<i64: 1, 0>}> : (tensor<512x2048xbf16>) -> tensor<2048x512xbf16> loc(#loc77)
        %139 = "ttir.dot_general"(%41, %138) <{batch_dims_lhs = array<i64>, batch_dims_rhs = array<i64>, contract_dims_lhs = array<i64: 1>, contract_dims_rhs = array<i64: 0>}> : (tensor<576x2048xbf16>, tensor<2048x512xbf16>) -> tensor<576x512xbf16> loc(#loc78)
        %140 = "ttir.reshape"(%139) <{shape = [32 : i32, 18 : i32, 8 : i32, 64 : i32]}> : (tensor<576x512xbf16>) -> tensor<32x18x8x64xbf16> loc(#loc79)
        %141 = "ttir.permute"(%140) <{permutation = array<i64: 0, 2, 1, 3>}> : (tensor<32x18x8x64xbf16>) -> tensor<32x8x18x64xbf16> loc(#loc80)
        %142 = "ttir.slice_static"(%141) <{begins = [0 : i32, 0 : i32, 0 : i32, 0 : i32], ends = [1 : i32, 8 : i32, 18 : i32, 64 : i32], step = [1 : i32, 1 : i32, 1 : i32, 1 : i32]}> : (tensor<32x8x18x64xbf16>) -> tensor<1x8x18x64xbf16> loc(#loc81)
        %143 = "ttir.fill_cache"(%arg8, %142) <{batch_offset = 0 : i32}> : (tensor<32x8x128x64xbf16>, tensor<1x8x18x64xbf16>) -> tensor<32x8x128x64xbf16> loc(#loc81)
        %144 = "ttir.slice_static"(%141) <{begins = [1 : i32, 0 : i32, 0 : i32, 0 : i32], ends = [2 : i32, 8 : i32, 18 : i32, 64 : i32], step = [1 : i32, 1 : i32, 1 : i32, 1 : i32]}> : (tensor<32x8x18x64xbf16>) -> tensor<1x8x18x64xbf16> loc(#loc81)
        %145 = "ttir.fill_cache"(%143, %144) <{batch_offset = 1 : i32}> : (tensor<32x8x128x64xbf16>, tensor<1x8x18x64xbf16>) -> tensor<32x8x128x64xbf16> loc(#loc81)
        %146 = "ttir.slice_static"(%141) <{begins = [2 : i32, 0 : i32, 0 : i32, 0 : i32], ends = [3 : i32, 8 : i32, 18 : i32, 64 : i32], step = [1 : i32, 1 : i32, 1 : i32, 1 : i32]}> : (tensor<32x8x18x64xbf16>) -> tensor<1x8x18x64xbf16> loc(#loc81)
        %147 = "ttir.fill_cache"(%145, %146) <{batch_offset = 2 : i32}> : (tensor<32x8x128x64xbf16>, tensor<1x8x18x64xbf16>) -> tensor<32x8x128x64xbf16> loc(#loc81)
        %148 = "ttir.slice_static"(%141) <{begins = [3 : i32, 0 : i32, 0 : i32, 0 : i32], ends = [4 : i32, 8 : i32, 18 : i32, 64 : i32], step = [1 : i32, 1 : i32, 1 : i32, 1 : i32]}> : (tensor<32x8x18x64xbf16>) -> tensor<1x8x18x64xbf16> loc(#loc81)
        %149 = "ttir.fill_cache"(%147, %148) <{batch_offset = 3 : i32}> : (tensor<32x8x128x64xbf16>, tensor<1x8x18x64xbf16>) -> tensor<32x8x128x64xbf16> loc(#loc81)
        %150 = "ttir.slice_static"(%141) <{begins = [4 : i32, 0 : i32, 0 : i32, 0 : i32], ends = [5 : i32, 8 : i32, 18 : i32, 64 : i32], step = [1 : i32, 1 : i32, 1 : i32, 1 : i32]}> : (tensor<32x8x18x64xbf16>) -> tensor<1x8x18x64xbf16> loc(#loc81)
        %151 = "ttir.fill_cache"(%149, %150) <{batch_offset = 4 : i32}> : (tensor<32x8x128x64xbf16>, tensor<1x8x18x64xbf16>) -> tensor<32x8x128x64xbf16> loc(#loc81)
        %152 = "ttir.slice_static"(%141) <{begins = [5 : i32, 0 : i32, 0 : i32, 0 : i32], ends = [6 : i32, 8 : i32, 18 : i32, 64 : i32], step = [1 : i32, 1 : i32, 1 : i32, 1 : i32]}> : (tensor<32x8x18x64xbf16>) -> tensor<1x8x18x64xbf16> loc(#loc81)
        %153 = "ttir.fill_cache"(%151, %152) <{batch_offset = 5 : i32}> : (tensor<32x8x128x64xbf16>, tensor<1x8x18x64xbf16>) -> tensor<32x8x128x64xbf16> loc(#loc81)
        %154 = "ttir.slice_static"(%141) <{begins = [6 : i32, 0 : i32, 0 : i32, 0 : i32], ends = [7 : i32, 8 : i32, 18 : i32, 64 : i32], step = [1 : i32, 1 : i32, 1 : i32, 1 : i32]}> : (tensor<32x8x18x64xbf16>) -> tensor<1x8x18x64xbf16> loc(#loc81)
        %155 = "ttir.fill_cache"(%153, %154) <{batch_offset = 6 : i32}> : (tensor<32x8x128x64xbf16>, tensor<1x8x18x64xbf16>) -> tensor<32x8x128x64xbf16> loc(#loc81)
        %156 = "ttir.slice_static"(%141) <{begins = [7 : i32, 0 : i32, 0 : i32, 0 : i32], ends = [8 : i32, 8 : i32, 18 : i32, 64 : i32], step = [1 : i32, 1 : i32, 1 : i32, 1 : i32]}> : (tensor<32x8x18x64xbf16>) -> tensor<1x8x18x64xbf16> loc(#loc81)
        %157 = "ttir.fill_cache"(%155, %156) <{batch_offset = 7 : i32}> : (tensor<32x8x128x64xbf16>, tensor<1x8x18x64xbf16>) -> tensor<32x8x128x64xbf16> loc(#loc81)
        %158 = "ttir.slice_static"(%141) <{begins = [8 : i32, 0 : i32, 0 : i32, 0 : i32], ends = [9 : i32, 8 : i32, 18 : i32, 64 : i32], step = [1 : i32, 1 : i32, 1 : i32, 1 : i32]}> : (tensor<32x8x18x64xbf16>) -> tensor<1x8x18x64xbf16> loc(#loc81)
        %159 = "ttir.fill_cache"(%157, %158) <{batch_offset = 8 : i32}> : (tensor<32x8x128x64xbf16>, tensor<1x8x18x64xbf16>) -> tensor<32x8x128x64xbf16> loc(#loc81)
        %160 = "ttir.slice_static"(%141) <{begins = [9 : i32, 0 : i32, 0 : i32, 0 : i32], ends = [10 : i32, 8 : i32, 18 : i32, 64 : i32], step = [1 : i32, 1 : i32, 1 : i32, 1 : i32]}> : (tensor<32x8x18x64xbf16>) -> tensor<1x8x18x64xbf16> loc(#loc81)
        %161 = "ttir.fill_cache"(%159, %160) <{batch_offset = 9 : i32}> : (tensor<32x8x128x64xbf16>, tensor<1x8x18x64xbf16>) -> tensor<32x8x128x64xbf16> loc(#loc81)
        %162 = "ttir.slice_static"(%141) <{begins = [10 : i32, 0 : i32, 0 : i32, 0 : i32], ends = [11 : i32, 8 : i32, 18 : i32, 64 : i32], step = [1 : i32, 1 : i32, 1 : i32, 1 : i32]}> : (tensor<32x8x18x64xbf16>) -> tensor<1x8x18x64xbf16> loc(#loc81)
        %163 = "ttir.fill_cache"(%161, %162) <{batch_offset = 10 : i32}> : (tensor<32x8x128x64xbf16>, tensor<1x8x18x64xbf16>) -> tensor<32x8x128x64xbf16> loc(#loc81)
        %164 = "ttir.slice_static"(%141) <{begins = [11 : i32, 0 : i32, 0 : i32, 0 : i32], ends = [12 : i32, 8 : i32, 18 : i32, 64 : i32], step = [1 : i32, 1 : i32, 1 : i32, 1 : i32]}> : (tensor<32x8x18x64xbf16>) -> tensor<1x8x18x64xbf16> loc(#loc81)
        %165 = "ttir.fill_cache"(%163, %164) <{batch_offset = 11 : i32}> : (tensor<32x8x128x64xbf16>, tensor<1x8x18x64xbf16>) -> tensor<32x8x128x64xbf16> loc(#loc81)
        %166 = "ttir.slice_static"(%141) <{begins = [12 : i32, 0 : i32, 0 : i32, 0 : i32], ends = [13 : i32, 8 : i32, 18 : i32, 64 : i32], step = [1 : i32, 1 : i32, 1 : i32, 1 : i32]}> : (tensor<32x8x18x64xbf16>) -> tensor<1x8x18x64xbf16> loc(#loc81)
        %167 = "ttir.fill_cache"(%165, %166) <{batch_offset = 12 : i32}> : (tensor<32x8x128x64xbf16>, tensor<1x8x18x64xbf16>) -> tensor<32x8x128x64xbf16> loc(#loc81)
        %168 = "ttir.slice_static"(%141) <{begins = [13 : i32, 0 : i32, 0 : i32, 0 : i32], ends = [14 : i32, 8 : i32, 18 : i32, 64 : i32], step = [1 : i32, 1 : i32, 1 : i32, 1 : i32]}> : (tensor<32x8x18x64xbf16>) -> tensor<1x8x18x64xbf16> loc(#loc81)
        %169 = "ttir.fill_cache"(%167, %168) <{batch_offset = 13 : i32}> : (tensor<32x8x128x64xbf16>, tensor<1x8x18x64xbf16>) -> tensor<32x8x128x64xbf16> loc(#loc81)
        %170 = "ttir.slice_static"(%141) <{begins = [14 : i32, 0 : i32, 0 : i32, 0 : i32], ends = [15 : i32, 8 : i32, 18 : i32, 64 : i32], step = [1 : i32, 1 : i32, 1 : i32, 1 : i32]}> : (tensor<32x8x18x64xbf16>) -> tensor<1x8x18x64xbf16> loc(#loc81)
        %171 = "ttir.fill_cache"(%169, %170) <{batch_offset = 14 : i32}> : (tensor<32x8x128x64xbf16>, tensor<1x8x18x64xbf16>) -> tensor<32x8x128x64xbf16> loc(#loc81)
        %172 = "ttir.slice_static"(%141) <{begins = [15 : i32, 0 : i32, 0 : i32, 0 : i32], ends = [16 : i32, 8 : i32, 18 : i32, 64 : i32], step = [1 : i32, 1 : i32, 1 : i32, 1 : i32]}> : (tensor<32x8x18x64xbf16>) -> tensor<1x8x18x64xbf16> loc(#loc81)
        %173 = "ttir.fill_cache"(%171, %172) <{batch_offset = 15 : i32}> : (tensor<32x8x128x64xbf16>, tensor<1x8x18x64xbf16>) -> tensor<32x8x128x64xbf16> loc(#loc81)
        %174 = "ttir.slice_static"(%141) <{begins = [16 : i32, 0 : i32, 0 : i32, 0 : i32], ends = [17 : i32, 8 : i32, 18 : i32, 64 : i32], step = [1 : i32, 1 : i32, 1 : i32, 1 : i32]}> : (tensor<32x8x18x64xbf16>) -> tensor<1x8x18x64xbf16> loc(#loc81)
        %175 = "ttir.fill_cache"(%173, %174) <{batch_offset = 16 : i32}> : (tensor<32x8x128x64xbf16>, tensor<1x8x18x64xbf16>) -> tensor<32x8x128x64xbf16> loc(#loc81)
        %176 = "ttir.slice_static"(%141) <{begins = [17 : i32, 0 : i32, 0 : i32, 0 : i32], ends = [18 : i32, 8 : i32, 18 : i32, 64 : i32], step = [1 : i32, 1 : i32, 1 : i32, 1 : i32]}> : (tensor<32x8x18x64xbf16>) -> tensor<1x8x18x64xbf16> loc(#loc81)
        %177 = "ttir.fill_cache"(%175, %176) <{batch_offset = 17 : i32}> : (tensor<32x8x128x64xbf16>, tensor<1x8x18x64xbf16>) -> tensor<32x8x128x64xbf16> loc(#loc81)
        %178 = "ttir.slice_static"(%141) <{begins = [18 : i32, 0 : i32, 0 : i32, 0 : i32], ends = [19 : i32, 8 : i32, 18 : i32, 64 : i32], step = [1 : i32, 1 : i32, 1 : i32, 1 : i32]}> : (tensor<32x8x18x64xbf16>) -> tensor<1x8x18x64xbf16> loc(#loc81)
        %179 = "ttir.fill_cache"(%177, %178) <{batch_offset = 18 : i32}> : (tensor<32x8x128x64xbf16>, tensor<1x8x18x64xbf16>) -> tensor<32x8x128x64xbf16> loc(#loc81)
        %180 = "ttir.slice_static"(%141) <{begins = [19 : i32, 0 : i32, 0 : i32, 0 : i32], ends = [20 : i32, 8 : i32, 18 : i32, 64 : i32], step = [1 : i32, 1 : i32, 1 : i32, 1 : i32]}> : (tensor<32x8x18x64xbf16>) -> tensor<1x8x18x64xbf16> loc(#loc81)
        %181 = "ttir.fill_cache"(%179, %180) <{batch_offset = 19 : i32}> : (tensor<32x8x128x64xbf16>, tensor<1x8x18x64xbf16>) -> tensor<32x8x128x64xbf16> loc(#loc81)
        %182 = "ttir.slice_static"(%141) <{begins = [20 : i32, 0 : i32, 0 : i32, 0 : i32], ends = [21 : i32, 8 : i32, 18 : i32, 64 : i32], step = [1 : i32, 1 : i32, 1 : i32, 1 : i32]}> : (tensor<32x8x18x64xbf16>) -> tensor<1x8x18x64xbf16> loc(#loc81)
        %183 = "ttir.fill_cache"(%181, %182) <{batch_offset = 20 : i32}> : (tensor<32x8x128x64xbf16>, tensor<1x8x18x64xbf16>) -> tensor<32x8x128x64xbf16> loc(#loc81)
        %184 = "ttir.slice_static"(%141) <{begins = [21 : i32, 0 : i32, 0 : i32, 0 : i32], ends = [22 : i32, 8 : i32, 18 : i32, 64 : i32], step = [1 : i32, 1 : i32, 1 : i32, 1 : i32]}> : (tensor<32x8x18x64xbf16>) -> tensor<1x8x18x64xbf16> loc(#loc81)
        %185 = "ttir.fill_cache"(%183, %184) <{batch_offset = 21 : i32}> : (tensor<32x8x128x64xbf16>, tensor<1x8x18x64xbf16>) -> tensor<32x8x128x64xbf16> loc(#loc81)
        %186 = "ttir.slice_static"(%141) <{begins = [22 : i32, 0 : i32, 0 : i32, 0 : i32], ends = [23 : i32, 8 : i32, 18 : i32, 64 : i32], step = [1 : i32, 1 : i32, 1 : i32, 1 : i32]}> : (tensor<32x8x18x64xbf16>) -> tensor<1x8x18x64xbf16> loc(#loc81)
        %187 = "ttir.fill_cache"(%185, %186) <{batch_offset = 22 : i32}> : (tensor<32x8x128x64xbf16>, tensor<1x8x18x64xbf16>) -> tensor<32x8x128x64xbf16> loc(#loc81)
        %188 = "ttir.slice_static"(%141) <{begins = [23 : i32, 0 : i32, 0 : i32, 0 : i32], ends = [24 : i32, 8 : i32, 18 : i32, 64 : i32], step = [1 : i32, 1 : i32, 1 : i32, 1 : i32]}> : (tensor<32x8x18x64xbf16>) -> tensor<1x8x18x64xbf16> loc(#loc81)
        %189 = "ttir.fill_cache"(%187, %188) <{batch_offset = 23 : i32}> : (tensor<32x8x128x64xbf16>, tensor<1x8x18x64xbf16>) -> tensor<32x8x128x64xbf16> loc(#loc81)
        %190 = "ttir.slice_static"(%141) <{begins = [24 : i32, 0 : i32, 0 : i32, 0 : i32], ends = [25 : i32, 8 : i32, 18 : i32, 64 : i32], step = [1 : i32, 1 : i32, 1 : i32, 1 : i32]}> : (tensor<32x8x18x64xbf16>) -> tensor<1x8x18x64xbf16> loc(#loc81)
        %191 = "ttir.fill_cache"(%189, %190) <{batch_offset = 24 : i32}> : (tensor<32x8x128x64xbf16>, tensor<1x8x18x64xbf16>) -> tensor<32x8x128x64xbf16> loc(#loc81)
        %192 = "ttir.slice_static"(%141) <{begins = [25 : i32, 0 : i32, 0 : i32, 0 : i32], ends = [26 : i32, 8 : i32, 18 : i32, 64 : i32], step = [1 : i32, 1 : i32, 1 : i32, 1 : i32]}> : (tensor<32x8x18x64xbf16>) -> tensor<1x8x18x64xbf16> loc(#loc81)
        %193 = "ttir.fill_cache"(%191, %192) <{batch_offset = 25 : i32}> : (tensor<32x8x128x64xbf16>, tensor<1x8x18x64xbf16>) -> tensor<32x8x128x64xbf16> loc(#loc81)
        %194 = "ttir.slice_static"(%141) <{begins = [26 : i32, 0 : i32, 0 : i32, 0 : i32], ends = [27 : i32, 8 : i32, 18 : i32, 64 : i32], step = [1 : i32, 1 : i32, 1 : i32, 1 : i32]}> : (tensor<32x8x18x64xbf16>) -> tensor<1x8x18x64xbf16> loc(#loc81)
        %195 = "ttir.fill_cache"(%193, %194) <{batch_offset = 26 : i32}> : (tensor<32x8x128x64xbf16>, tensor<1x8x18x64xbf16>) -> tensor<32x8x128x64xbf16> loc(#loc81)
        %196 = "ttir.slice_static"(%141) <{begins = [27 : i32, 0 : i32, 0 : i32, 0 : i32], ends = [28 : i32, 8 : i32, 18 : i32, 64 : i32], step = [1 : i32, 1 : i32, 1 : i32, 1 : i32]}> : (tensor<32x8x18x64xbf16>) -> tensor<1x8x18x64xbf16> loc(#loc81)
        %197 = "ttir.fill_cache"(%195, %196) <{batch_offset = 27 : i32}> : (tensor<32x8x128x64xbf16>, tensor<1x8x18x64xbf16>) -> tensor<32x8x128x64xbf16> loc(#loc81)
        %198 = "ttir.slice_static"(%141) <{begins = [28 : i32, 0 : i32, 0 : i32, 0 : i32], ends = [29 : i32, 8 : i32, 18 : i32, 64 : i32], step = [1 : i32, 1 : i32, 1 : i32, 1 : i32]}> : (tensor<32x8x18x64xbf16>) -> tensor<1x8x18x64xbf16> loc(#loc81)
        %199 = "ttir.fill_cache"(%197, %198) <{batch_offset = 28 : i32}> : (tensor<32x8x128x64xbf16>, tensor<1x8x18x64xbf16>) -> tensor<32x8x128x64xbf16> loc(#loc81)
        %200 = "ttir.slice_static"(%141) <{begins = [29 : i32, 0 : i32, 0 : i32, 0 : i32], ends = [30 : i32, 8 : i32, 18 : i32, 64 : i32], step = [1 : i32, 1 : i32, 1 : i32, 1 : i32]}> : (tensor<32x8x18x64xbf16>) -> tensor<1x8x18x64xbf16> loc(#loc81)
        %201 = "ttir.fill_cache"(%199, %200) <{batch_offset = 29 : i32}> : (tensor<32x8x128x64xbf16>, tensor<1x8x18x64xbf16>) -> tensor<32x8x128x64xbf16> loc(#loc81)
        %202 = "ttir.slice_static"(%141) <{begins = [30 : i32, 0 : i32, 0 : i32, 0 : i32], ends = [31 : i32, 8 : i32, 18 : i32, 64 : i32], step = [1 : i32, 1 : i32, 1 : i32, 1 : i32]}> : (tensor<32x8x18x64xbf16>) -> tensor<1x8x18x64xbf16> loc(#loc81)
        %203 = "ttir.fill_cache"(%201, %202) <{batch_offset = 30 : i32}> : (tensor<32x8x128x64xbf16>, tensor<1x8x18x64xbf16>) -> tensor<32x8x128x64xbf16> loc(#loc81)
        %204 = "ttir.slice_static"(%141) <{begins = [31 : i32, 0 : i32, 0 : i32, 0 : i32], ends = [32 : i32, 8 : i32, 18 : i32, 64 : i32], step = [1 : i32, 1 : i32, 1 : i32, 1 : i32]}> : (tensor<32x8x18x64xbf16>) -> tensor<1x8x18x64xbf16> loc(#loc81)
        %205 = "ttir.fill_cache"(%203, %204) <{batch_offset = 31 : i32}> : (tensor<32x8x128x64xbf16>, tensor<1x8x18x64xbf16>) -> tensor<32x8x128x64xbf16> loc(#loc81)
        %206 = "ttir.reshape"(%arg16) <{shape = [1 : i32, 1 : i32, 2048 : i32]}> : (tensor<2048xbf16>) -> tensor<1x1x2048xbf16> loc(#loc82)
        %207 = "ttir.reshape"(%206) <{shape = [2048 : i32]}> : (tensor<1x1x2048xbf16>) -> tensor<2048xbf16> loc(#loc83)
        %208 = "ttir.reshape"(%207) <{shape = [1 : i32, 1 : i32, 2048 : i32]}> : (tensor<2048xbf16>) -> tensor<1x1x2048xbf16> loc(#loc84)
        %209 = "ttir.broadcast"(%208) <{broadcast_dimensions = array<i64: 32, 18, 1>}> : (tensor<1x1x2048xbf16>) -> tensor<32x18x2048xbf16> loc(#loc84)
        %210 = "ttir.reshape"(%arg13) <{shape = [1 : i32, 2048 : i32, 2048 : i32]}> : (tensor<2048x2048xbf16>) -> tensor<1x2048x2048xbf16> loc(#loc85)
        %211 = "ttir.reshape"(%210) <{shape = [2048 : i32, 2048 : i32]}> : (tensor<1x2048x2048xbf16>) -> tensor<2048x2048xbf16> loc(#loc86)
        %212 = "ttir.permute"(%211) <{permutation = array<i64: 1, 0>}> : (tensor<2048x2048xbf16>) -> tensor<2048x2048xbf16> loc(#loc87)
        %213 = "ttir.dot_general"(%41, %212) <{batch_dims_lhs = array<i64>, batch_dims_rhs = array<i64>, contract_dims_lhs = array<i64: 1>, contract_dims_rhs = array<i64: 0>}> : (tensor<576x2048xbf16>, tensor<2048x2048xbf16>) -> tensor<576x2048xbf16> loc(#loc88)
        %214 = "ttir.reshape"(%213) <{shape = [32 : i32, 18 : i32, 32 : i32, 64 : i32]}> : (tensor<576x2048xbf16>) -> tensor<32x18x32x64xbf16> loc(#loc89)
        %215 = "ttir.permute"(%214) <{permutation = array<i64: 0, 2, 1, 3>}> : (tensor<32x18x32x64xbf16>) -> tensor<32x32x18x64xbf16> loc(#loc90)
        %216 = "ttir.broadcast"(%58) <{broadcast_dimensions = array<i64: 32, 32, 1, 1>}> : (tensor<1x1x18x64xbf16>) -> tensor<32x32x18x64xbf16> loc(#loc91)
        %217 = "ttir.multiply"(%215, %216) : (tensor<32x32x18x64xbf16>, tensor<32x32x18x64xbf16>) -> tensor<32x32x18x64xbf16> loc(#loc92)
        %218 = "ttir.slice_static"(%215) <{begins = [0 : i32, 0 : i32, 0 : i32, 32 : i32], ends = [32 : i32, 32 : i32, 18 : i32, 64 : i32], step = [1 : i32, 1 : i32, 1 : i32, 1 : i32]}> : (tensor<32x32x18x64xbf16>) -> tensor<32x32x18x32xbf16> loc(#loc93)
        %219 = "ttir.neg"(%218) : (tensor<32x32x18x32xbf16>) -> tensor<32x32x18x32xbf16> loc(#loc94)
        %220 = "ttir.slice_static"(%215) <{begins = [0 : i32, 0 : i32, 0 : i32, 0 : i32], ends = [32 : i32, 32 : i32, 18 : i32, 32 : i32], step = [1 : i32, 1 : i32, 1 : i32, 1 : i32]}> : (tensor<32x32x18x64xbf16>) -> tensor<32x32x18x32xbf16> loc(#loc95)
        %221 = "ttir.concat"(%219, %220) <{dim = 3 : si32}> : (tensor<32x32x18x32xbf16>, tensor<32x32x18x32xbf16>) -> tensor<32x32x18x64xbf16> loc(#loc96)
        %222 = "ttir.broadcast"(%68) <{broadcast_dimensions = array<i64: 32, 32, 1, 1>}> : (tensor<1x1x18x64xbf16>) -> tensor<32x32x18x64xbf16> loc(#loc97)
        %223 = "ttir.multiply"(%221, %222) : (tensor<32x32x18x64xbf16>, tensor<32x32x18x64xbf16>) -> tensor<32x32x18x64xbf16> loc(#loc98)
        %224 = "ttir.add"(%217, %223) : (tensor<32x32x18x64xbf16>, tensor<32x32x18x64xbf16>) -> tensor<32x32x18x64xbf16> loc(#loc99)
        %225 = "ttir.typecast"(%224) <{conservative_folding = false}> : (tensor<32x32x18x64xbf16>) -> tensor<32x32x18x64xf32> loc(#loc100)
        %226 = "ttir.multiply"(%225, %5) : (tensor<32x32x18x64xf32>, tensor<32x32x18x64xf32>) -> tensor<32x32x18x64xf32> loc(#loc101)
        %227 = "ttir.reshape"(%135) <{shape = [32 : i32, 8 : i32, 1 : i32, 128 : i32, 64 : i32]}> : (tensor<32x8x128x64xbf16>) -> tensor<32x8x1x128x64xbf16> loc(#loc102)
        %228 = "ttir.broadcast"(%227) <{broadcast_dimensions = array<i64: 1, 1, 4, 1, 1>}> : (tensor<32x8x1x128x64xbf16>) -> tensor<32x8x4x128x64xbf16> loc(#loc102)
        %229 = "ttir.reshape"(%228) <{shape = [32 : i32, 32 : i32, 128 : i32, 64 : i32]}> : (tensor<32x8x4x128x64xbf16>) -> tensor<32x32x128x64xbf16> loc(#loc103)
        %230 = "ttir.typecast"(%229) <{conservative_folding = false}> : (tensor<32x32x128x64xbf16>) -> tensor<32x32x128x64xf32> loc(#loc104)
        %231 = "ttir.permute"(%230) <{permutation = array<i64: 0, 1, 3, 2>}> : (tensor<32x32x128x64xf32>) -> tensor<32x32x64x128xf32> loc(#loc105)
        %232 = "ttir.multiply"(%231, %4) : (tensor<32x32x64x128xf32>, tensor<32x32x64x128xf32>) -> tensor<32x32x64x128xf32> loc(#loc106)
        %233 = "ttir.dot_general"(%226, %232) <{batch_dims_lhs = array<i64: 0, 1>, batch_dims_rhs = array<i64: 0, 1>, contract_dims_lhs = array<i64: 3>, contract_dims_rhs = array<i64: 2>}> : (tensor<32x32x18x64xf32>, tensor<32x32x64x128xf32>) -> tensor<32x32x18x128xf32> loc(#loc107)
        %234 = "ttir.reshape"(%11) <{shape = [1 : i32, 128 : i32]}> : (tensor<128xi64>) -> tensor<1x128xi64> loc(#loc108)
        %235 = "ttir.broadcast"(%234) <{broadcast_dimensions = array<i64: 18, 1>}> : (tensor<1x128xi64>) -> tensor<18x128xi64> loc(#loc108)
        %236 = "ttir.reshape"(%13) <{shape = [18 : i32, 1 : i32]}> : (tensor<18xi64>) -> tensor<18x1xi64> loc(#loc109)
        %237 = "ttir.broadcast"(%236) <{broadcast_dimensions = array<i64: 1, 128>}> : (tensor<18x1xi64>) -> tensor<18x128xi64> loc(#loc109)
        %238 = "ttir.le"(%235, %237) : (tensor<18x128xi64>, tensor<18x128xi64>) -> tensor<18x128xi1> loc(#loc110)
        %239 = "ttir.reshape"(%238) <{shape = [1 : i32, 18 : i32, 128 : i32]}> : (tensor<18x128xi1>) -> tensor<1x18x128xi1> loc(#loc111)
        %240 = "ttir.reshape"(%239) <{shape = [1 : i32, 1 : i32, 18 : i32, 128 : i32]}> : (tensor<1x18x128xi1>) -> tensor<1x1x18x128xi1> loc(#loc112)
        %241 = "ttir.broadcast"(%240) <{broadcast_dimensions = array<i64: 32, 1, 1, 1>}> : (tensor<1x1x18x128xi1>) -> tensor<32x1x18x128xi1> loc(#loc112)
        %242 = "ttir.where"(%241, %3, %2) : (tensor<32x1x18x128xi1>, tensor<32x1x18x128xbf16>, tensor<32x1x18x128xbf16>) -> tensor<32x1x18x128xbf16> loc(#loc113)
        %243 = "ttir.typecast"(%242) <{conservative_folding = false}> : (tensor<32x1x18x128xbf16>) -> tensor<32x1x18x128xf32> loc(#loc114)
        %244 = "ttir.reshape"(%243) <{shape = [32 : i32, 18 : i32, 128 : i32]}> : (tensor<32x1x18x128xf32>) -> tensor<32x18x128xf32> loc(#loc115)
        %245 = "ttir.reshape"(%244) <{shape = [32 : i32, 1 : i32, 18 : i32, 128 : i32]}> : (tensor<32x18x128xf32>) -> tensor<32x1x18x128xf32> loc(#loc116)
        %246 = "ttir.broadcast"(%245) <{broadcast_dimensions = array<i64: 1, 32, 1, 1>}> : (tensor<32x1x18x128xf32>) -> tensor<32x32x18x128xf32> loc(#loc116)
        %247 = "ttir.add"(%233, %246) : (tensor<32x32x18x128xf32>, tensor<32x32x18x128xf32>) -> tensor<32x32x18x128xf32> loc(#loc117)
        %248 = "ttir.typecast"(%247) <{conservative_folding = false}> : (tensor<32x32x18x128xf32>) -> tensor<32x32x18x128xf64> loc(#loc118)
        %249 = "ttir.eq"(%248, %1) : (tensor<32x32x18x128xf64>, tensor<32x32x18x128xf64>) -> tensor<32x32x18x128xi1> loc(#loc119)
        %250 = "ttir.logical_not"(%249) : (tensor<32x32x18x128xi1>) -> tensor<32x32x18x128xi1> loc(#loc120)
        %251 = "ttir.reduce_or"(%250) <{dim_arg = [3 : i32], keep_dim = false}> : (tensor<32x32x18x128xi1>) -> tensor<32x32x18xi1> loc(#loc121)
        %252 = "ttir.reshape"(%251) <{shape = [32 : i32, 32 : i32, 18 : i32, 1 : i32]}> : (tensor<32x32x18xi1>) -> tensor<32x32x18x1xi1> loc(#loc122)
        %253 = "ttir.logical_not"(%252) : (tensor<32x32x18x1xi1>) -> tensor<32x32x18x1xi1> loc(#loc123)
        %254 = "ttir.reshape"(%253) <{shape = [32 : i32, 32 : i32, 18 : i32]}> : (tensor<32x32x18x1xi1>) -> tensor<32x32x18xi1> loc(#loc124)
        %255 = "ttir.reshape"(%254) <{shape = [32 : i32, 32 : i32, 18 : i32, 1 : i32]}> : (tensor<32x32x18xi1>) -> tensor<32x32x18x1xi1> loc(#loc125)
        %256 = "ttir.broadcast"(%255) <{broadcast_dimensions = array<i64: 1, 1, 1, 128>}> : (tensor<32x32x18x1xi1>) -> tensor<32x32x18x128xi1> loc(#loc125)
        %257 = "ttir.max"(%247) <{dim_arg = [3 : i32], keep_dim = false}> : (tensor<32x32x18x128xf32>) -> tensor<32x32x18xf32> loc(#loc126)
        %258 = "ttir.reshape"(%257) <{shape = [32 : i32, 32 : i32, 18 : i32, 1 : i32]}> : (tensor<32x32x18xf32>) -> tensor<32x32x18x1xf32> loc(#loc127)
        %259 = "ttir.broadcast"(%258) <{broadcast_dimensions = array<i64: 1, 1, 1, 128>}> : (tensor<32x32x18x1xf32>) -> tensor<32x32x18x128xf32> loc(#loc127)
        %260 = "ttir.subtract"(%247, %259) : (tensor<32x32x18x128xf32>, tensor<32x32x18x128xf32>) -> tensor<32x32x18x128xf32> loc(#loc128)
        %261 = "ttir.exp"(%260) : (tensor<32x32x18x128xf32>) -> tensor<32x32x18x128xf32> loc(#loc129)
        %262 = "ttir.sum"(%261) <{dim_arg = [3 : i32], keep_dim = false}> : (tensor<32x32x18x128xf32>) -> tensor<32x32x18xf32> loc(#loc130)
        %263 = "ttir.reshape"(%262) <{shape = [32 : i32, 32 : i32, 18 : i32, 1 : i32]}> : (tensor<32x32x18xf32>) -> tensor<32x32x18x1xf32> loc(#loc131)
        %264 = "ttir.broadcast"(%263) <{broadcast_dimensions = array<i64: 1, 1, 1, 128>}> : (tensor<32x32x18x1xf32>) -> tensor<32x32x18x128xf32> loc(#loc131)
        %265 = "ttir.div"(%261, %264) : (tensor<32x32x18x128xf32>, tensor<32x32x18x128xf32>) -> tensor<32x32x18x128xf32> loc(#loc132)
        %266 = "ttir.where"(%256, %0, %265) : (tensor<32x32x18x128xi1>, tensor<32x32x18x128xf32>, tensor<32x32x18x128xf32>) -> tensor<32x32x18x128xf32> loc(#loc133)
        %267 = "ttir.reshape"(%205) <{shape = [32 : i32, 8 : i32, 1 : i32, 128 : i32, 64 : i32]}> : (tensor<32x8x128x64xbf16>) -> tensor<32x8x1x128x64xbf16> loc(#loc134)
        %268 = "ttir.broadcast"(%267) <{broadcast_dimensions = array<i64: 1, 1, 4, 1, 1>}> : (tensor<32x8x1x128x64xbf16>) -> tensor<32x8x4x128x64xbf16> loc(#loc134)
        %269 = "ttir.reshape"(%268) <{shape = [32 : i32, 32 : i32, 128 : i32, 64 : i32]}> : (tensor<32x8x4x128x64xbf16>) -> tensor<32x32x128x64xbf16> loc(#loc135)
        %270 = "ttir.typecast"(%269) <{conservative_folding = false}> : (tensor<32x32x128x64xbf16>) -> tensor<32x32x128x64xf32> loc(#loc136)
        %271 = "ttir.dot_general"(%266, %270) <{batch_dims_lhs = array<i64: 0, 1>, batch_dims_rhs = array<i64: 0, 1>, contract_dims_lhs = array<i64: 3>, contract_dims_rhs = array<i64: 2>}> : (tensor<32x32x18x128xf32>, tensor<32x32x128x64xf32>) -> tensor<32x32x18x64xf32> loc(#loc137)
        %272 = "ttir.typecast"(%271) <{conservative_folding = false}> : (tensor<32x32x18x64xf32>) -> tensor<32x32x18x64xbf16> loc(#loc138)
        %273 = "ttir.permute"(%272) <{permutation = array<i64: 0, 2, 1, 3>}> : (tensor<32x32x18x64xbf16>) -> tensor<32x18x32x64xbf16> loc(#loc139)
        %274 = "ttir.reshape"(%273) <{shape = [576 : i32, 2048 : i32]}> : (tensor<32x18x32x64xbf16>) -> tensor<576x2048xbf16> loc(#loc140)
        %275 = "ttir.reshape"(%arg12) <{shape = [1 : i32, 2048 : i32, 2048 : i32]}> : (tensor<2048x2048xbf16>) -> tensor<1x2048x2048xbf16> loc(#loc141)
        %276 = "ttir.reshape"(%275) <{shape = [2048 : i32, 2048 : i32]}> : (tensor<1x2048x2048xbf16>) -> tensor<2048x2048xbf16> loc(#loc142)
        %277 = "ttir.permute"(%276) <{permutation = array<i64: 1, 0>}> : (tensor<2048x2048xbf16>) -> tensor<2048x2048xbf16> loc(#loc143)
        %278 = "ttir.dot_general"(%274, %277) <{batch_dims_lhs = array<i64>, batch_dims_rhs = array<i64>, contract_dims_lhs = array<i64: 1>, contract_dims_rhs = array<i64: 0>}> : (tensor<576x2048xbf16>, tensor<2048x2048xbf16>) -> tensor<576x2048xbf16> loc(#loc144)
        %279 = "ttir.reshape"(%278) <{shape = [32 : i32, 18 : i32, 2048 : i32]}> : (tensor<576x2048xbf16>) -> tensor<32x18x2048xbf16> loc(#loc145)
        %280 = "ttir.add"(%27, %279) : (tensor<32x18x2048xbf16>, tensor<32x18x2048xbf16>) -> tensor<32x18x2048xbf16> loc(#loc146)
        %281 = "ttir.reshape"(%arg14) <{shape = [1 : i32, 1 : i32, 2048 : i32]}> : (tensor<2048xbf16>) -> tensor<1x1x2048xbf16> loc(#loc147)
        %282 = "ttir.reshape"(%281) <{shape = [2048 : i32]}> : (tensor<1x1x2048xbf16>) -> tensor<2048xbf16> loc(#loc148)
        %283 = "ttir.reshape"(%282) <{shape = [1 : i32, 1 : i32, 2048 : i32]}> : (tensor<2048xbf16>) -> tensor<1x1x2048xbf16> loc(#loc149)
        %284 = "ttir.broadcast"(%283) <{broadcast_dimensions = array<i64: 32, 18, 1>}> : (tensor<1x1x2048xbf16>) -> tensor<32x18x2048xbf16> loc(#loc149)
        %285 = "ttir.typecast"(%280) <{conservative_folding = false}> : (tensor<32x18x2048xbf16>) -> tensor<32x18x2048xf32> loc(#loc150)
        %286 = "ttir.pow"(%285, %8) : (tensor<32x18x2048xf32>, tensor<32x18x2048xf32>) -> tensor<32x18x2048xf32> loc(#loc151)
        %287 = "ttir.sum"(%286) <{dim_arg = [2 : i32], keep_dim = false}> : (tensor<32x18x2048xf32>) -> tensor<32x18xf32> loc(#loc152)
        %288 = "ttir.multiply"(%287, %7) : (tensor<32x18xf32>, tensor<32x18xf32>) -> tensor<32x18xf32> loc(#loc153)
        %289 = "ttir.reshape"(%288) <{shape = [32 : i32, 18 : i32, 1 : i32]}> : (tensor<32x18xf32>) -> tensor<32x18x1xf32> loc(#loc154)
        %290 = "ttir.add"(%289, %6) : (tensor<32x18x1xf32>, tensor<32x18x1xf32>) -> tensor<32x18x1xf32> loc(#loc155)
        %291 = "ttir.rsqrt"(%290) : (tensor<32x18x1xf32>) -> tensor<32x18x1xf32> loc(#loc156)
        %292 = "ttir.reshape"(%291) <{shape = [32 : i32, 18 : i32]}> : (tensor<32x18x1xf32>) -> tensor<32x18xf32> loc(#loc157)
        %293 = "ttir.reshape"(%292) <{shape = [32 : i32, 18 : i32, 1 : i32]}> : (tensor<32x18xf32>) -> tensor<32x18x1xf32> loc(#loc158)
        %294 = "ttir.broadcast"(%293) <{broadcast_dimensions = array<i64: 1, 1, 2048>}> : (tensor<32x18x1xf32>) -> tensor<32x18x2048xf32> loc(#loc158)
        %295 = "ttir.multiply"(%285, %294) : (tensor<32x18x2048xf32>, tensor<32x18x2048xf32>) -> tensor<32x18x2048xf32> loc(#loc159)
        %296 = "ttir.typecast"(%295) <{conservative_folding = false}> : (tensor<32x18x2048xf32>) -> tensor<32x18x2048xbf16> loc(#loc160)
        %297 = "ttir.multiply"(%284, %296) : (tensor<32x18x2048xbf16>, tensor<32x18x2048xbf16>) -> tensor<32x18x2048xbf16> loc(#loc161)
        %298 = "ttir.reshape"(%297) <{shape = [576 : i32, 2048 : i32]}> : (tensor<32x18x2048xbf16>) -> tensor<576x2048xbf16> loc(#loc162)
        %299 = "ttir.reshape"(%arg15) <{shape = [1 : i32, 8192 : i32, 2048 : i32]}> : (tensor<8192x2048xbf16>) -> tensor<1x8192x2048xbf16> loc(#loc163)
        %300 = "ttir.reshape"(%299) <{shape = [8192 : i32, 2048 : i32]}> : (tensor<1x8192x2048xbf16>) -> tensor<8192x2048xbf16> loc(#loc164)
        %301 = "ttir.permute"(%300) <{permutation = array<i64: 1, 0>}> : (tensor<8192x2048xbf16>) -> tensor<2048x8192xbf16> loc(#loc165)
        %302 = "ttir.dot_general"(%298, %301) <{batch_dims_lhs = array<i64>, batch_dims_rhs = array<i64>, contract_dims_lhs = array<i64: 1>, contract_dims_rhs = array<i64: 0>}> : (tensor<576x2048xbf16>, tensor<2048x8192xbf16>) -> tensor<576x8192xbf16> loc(#loc166)
        %303 = "ttir.reshape"(%302) <{shape = [32 : i32, 18 : i32, 8192 : i32]}> : (tensor<576x8192xbf16>) -> tensor<32x18x8192xbf16> loc(#loc167)
        %304 = "ttir.typecast"(%303) <{conservative_folding = false}> : (tensor<32x18x8192xbf16>) -> tensor<32x18x8192xf32> loc(#loc168)
        %305 = "ttir.sigmoid"(%304) : (tensor<32x18x8192xf32>) -> tensor<32x18x8192xf32> loc(#loc169)
        %306 = "ttir.multiply"(%304, %305) : (tensor<32x18x8192xf32>, tensor<32x18x8192xf32>) -> tensor<32x18x8192xf32> loc(#loc170)
        %307 = "ttir.typecast"(%306) <{conservative_folding = false}> : (tensor<32x18x8192xf32>) -> tensor<32x18x8192xbf16> loc(#loc171)
        %308 = "ttir.reshape"(%arg11) <{shape = [1 : i32, 8192 : i32, 2048 : i32]}> : (tensor<8192x2048xbf16>) -> tensor<1x8192x2048xbf16> loc(#loc172)
        %309 = "ttir.reshape"(%308) <{shape = [8192 : i32, 2048 : i32]}> : (tensor<1x8192x2048xbf16>) -> tensor<8192x2048xbf16> loc(#loc173)
        %310 = "ttir.permute"(%309) <{permutation = array<i64: 1, 0>}> : (tensor<8192x2048xbf16>) -> tensor<2048x8192xbf16> loc(#loc174)
        %311 = "ttir.dot_general"(%298, %310) <{batch_dims_lhs = array<i64>, batch_dims_rhs = array<i64>, contract_dims_lhs = array<i64: 1>, contract_dims_rhs = array<i64: 0>}> : (tensor<576x2048xbf16>, tensor<2048x8192xbf16>) -> tensor<576x8192xbf16> loc(#loc175)
        %312 = "ttir.reshape"(%311) <{shape = [32 : i32, 18 : i32, 8192 : i32]}> : (tensor<576x8192xbf16>) -> tensor<32x18x8192xbf16> loc(#loc176)
        %313 = "ttir.multiply"(%307, %312) : (tensor<32x18x8192xbf16>, tensor<32x18x8192xbf16>) -> tensor<32x18x8192xbf16> loc(#loc177)
        %314 = "ttir.reshape"(%313) <{shape = [576 : i32, 8192 : i32]}> : (tensor<32x18x8192xbf16>) -> tensor<576x8192xbf16> loc(#loc178)
        %315 = "ttir.reshape"(%arg10) <{shape = [1 : i32, 2048 : i32, 8192 : i32]}> : (tensor<2048x8192xbf16>) -> tensor<1x2048x8192xbf16> loc(#loc179)
        %316 = "ttir.reshape"(%315) <{shape = [2048 : i32, 8192 : i32]}> : (tensor<1x2048x8192xbf16>) -> tensor<2048x8192xbf16> loc(#loc180)
        %317 = "ttir.permute"(%316) <{permutation = array<i64: 1, 0>}> : (tensor<2048x8192xbf16>) -> tensor<8192x2048xbf16> loc(#loc181)
        %318 = "ttir.dot_general"(%314, %317) <{batch_dims_lhs = array<i64>, batch_dims_rhs = array<i64>, contract_dims_lhs = array<i64: 1>, contract_dims_rhs = array<i64: 0>}> : (tensor<576x8192xbf16>, tensor<8192x2048xbf16>) -> tensor<576x2048xbf16> loc(#loc182)
        %319 = "ttir.reshape"(%318) <{shape = [32 : i32, 18 : i32, 2048 : i32]}> : (tensor<576x2048xbf16>) -> tensor<32x18x2048xbf16> loc(#loc183)
        %320 = "ttir.add"(%280, %319) : (tensor<32x18x2048xbf16>, tensor<32x18x2048xbf16>) -> tensor<32x18x2048xbf16> loc(#loc184)
        %321 = "ttir.typecast"(%320) <{conservative_folding = false}> : (tensor<32x18x2048xbf16>) -> tensor<32x18x2048xf32> loc(#loc185)
        %322 = "ttir.pow"(%321, %8) : (tensor<32x18x2048xf32>, tensor<32x18x2048xf32>) -> tensor<32x18x2048xf32> loc(#loc186)
        %323 = "ttir.sum"(%322) <{dim_arg = [2 : i32], keep_dim = false}> : (tensor<32x18x2048xf32>) -> tensor<32x18xf32> loc(#loc187)
        %324 = "ttir.multiply"(%323, %7) : (tensor<32x18xf32>, tensor<32x18xf32>) -> tensor<32x18xf32> loc(#loc188)
        %325 = "ttir.reshape"(%324) <{shape = [32 : i32, 18 : i32, 1 : i32]}> : (tensor<32x18xf32>) -> tensor<32x18x1xf32> loc(#loc189)
        %326 = "ttir.add"(%325, %6) : (tensor<32x18x1xf32>, tensor<32x18x1xf32>) -> tensor<32x18x1xf32> loc(#loc190)
        %327 = "ttir.rsqrt"(%326) : (tensor<32x18x1xf32>) -> tensor<32x18x1xf32> loc(#loc191)
        %328 = "ttir.reshape"(%327) <{shape = [32 : i32, 18 : i32]}> : (tensor<32x18x1xf32>) -> tensor<32x18xf32> loc(#loc192)
        %329 = "ttir.reshape"(%328) <{shape = [32 : i32, 18 : i32, 1 : i32]}> : (tensor<32x18xf32>) -> tensor<32x18x1xf32> loc(#loc193)
        %330 = "ttir.broadcast"(%329) <{broadcast_dimensions = array<i64: 1, 1, 2048>}> : (tensor<32x18x1xf32>) -> tensor<32x18x2048xf32> loc(#loc193)
        %331 = "ttir.multiply"(%321, %330) : (tensor<32x18x2048xf32>, tensor<32x18x2048xf32>) -> tensor<32x18x2048xf32> loc(#loc194)
        %332 = "ttir.typecast"(%331) <{conservative_folding = false}> : (tensor<32x18x2048xf32>) -> tensor<32x18x2048xbf16> loc(#loc195)
        %333 = "ttir.multiply"(%209, %332) : (tensor<32x18x2048xbf16>, tensor<32x18x2048xbf16>) -> tensor<32x18x2048xbf16> loc(#loc196)
        %334 = "ttir.reshape"(%333) <{shape = [576 : i32, 2048 : i32]}> : (tensor<32x18x2048xbf16>) -> tensor<576x2048xbf16> loc(#loc197)
        %335 = "ttir.reshape"(%arg9) <{shape = [1 : i32, 128256 : i32, 2048 : i32]}> : (tensor<128256x2048xbf16>) -> tensor<1x128256x2048xbf16> loc(#loc198)
        %336 = "ttir.reshape"(%335) <{shape = [128256 : i32, 2048 : i32]}> : (tensor<1x128256x2048xbf16>) -> tensor<128256x2048xbf16> loc(#loc199)
        %337 = "ttir.permute"(%336) <{permutation = array<i64: 1, 0>}> : (tensor<128256x2048xbf16>) -> tensor<2048x128256xbf16> loc(#loc200)
        %338 = "ttir.dot_general"(%334, %337) <{batch_dims_lhs = array<i64>, batch_dims_rhs = array<i64>, contract_dims_lhs = array<i64: 1>, contract_dims_rhs = array<i64: 0>}> : (tensor<576x2048xbf16>, tensor<2048x128256xbf16>) -> tensor<576x128256xbf16> loc(#loc201)
        %339 = "ttir.reshape"(%338) <{shape = [32 : i32, 18 : i32, 128256 : i32]}> : (tensor<576x128256xbf16>) -> tensor<32x18x128256xbf16> loc(#loc202)
        return %135, %205, %339 : tensor<32x8x128x64xbf16>, tensor<32x8x128x64xbf16>, tensor<32x18x128256xbf16> loc(#loc)
      } loc(#loc)
    } loc(#loc)
  } loc(#loc)
} loc(#loc)
#loc = loc(unknown)
#loc18 = loc("reshape.4")
#loc19 = loc("reshape.6")
#loc20 = loc("compare.115")
#loc21 = loc("add.112")
#loc22 = loc("select.116")
#loc23 = loc("reshape.78")
#loc24 = loc("reshape.80")
#loc25 = loc("broadcast.81")
#loc26 = loc("reshape.42")
#loc27 = loc("reshape.44")
#loc28 = loc("reshape.37")
#loc29 = loc("reshape.40")
#loc30 = loc("convert.45")
#loc31 = loc("gather.46")
#loc32 = loc("reshape.47")
#loc33 = loc("convert.48")
#loc34 = loc("power.50")
#loc35 = loc("reduce.57")
#loc36 = loc("multiply.66")
#loc37 = loc("reshape.67")
#loc38 = loc("add.71")
#loc39 = loc("rsqrt.72")
#loc40 = loc("reshape.73")
#loc41 = loc("broadcast.74")
#loc42 = loc("multiply.75")
#loc43 = loc("convert.76")
#loc44 = loc("multiply.82")
#loc45 = loc("reshape.83")
#loc46 = loc("reshape.29")
#loc47 = loc("reshape.31")
#loc48 = loc("transpose.32")
#loc49 = loc("dot.84")
#loc50 = loc("reshape.86")
#loc51 = loc("transpose.87")
#loc52 = loc("reshape.12")
#loc53 = loc("reshape.16")
#loc54 = loc("convert.17")
#loc55 = loc("convert.9")
#loc56 = loc("dot.20")
#loc57 = loc("transpose.21")
#loc58 = loc("concatenate.22")
#loc59 = loc("cosine.96")
#loc60 = loc("convert.99")
#loc61 = loc("reshape.101")
#loc62 = loc("broadcast.102")
#loc63 = loc("multiply.103")
#loc64 = loc("slice.89")
#loc65 = loc("negate.90")
#loc66 = loc("slice.88")
#loc67 = loc("concatenate.91")
#loc68 = loc("sine.23")
#loc69 = loc("convert.26")
#loc70 = loc("reshape.92")
#loc71 = loc("broadcast.93")
#loc72 = loc("multiply.94")
#loc73 = loc("add.106")
#loc74 = loc("scatter.125")
#loc75 = loc("reshape.128")
#loc76 = loc("reshape.130")
#loc77 = loc("transpose.131")
#loc78 = loc("dot.133")
#loc79 = loc("reshape.135")
#loc80 = loc("transpose.136")
#loc81 = loc("scatter.155")
#loc82 = loc("reshape.419")
#loc83 = loc("reshape.421")
#loc84 = loc("broadcast.422")
#loc85 = loc("reshape.236")
#loc86 = loc("reshape.238")
#loc87 = loc("transpose.239")
#loc88 = loc("dot.241")
#loc89 = loc("reshape.243")
#loc90 = loc("transpose.244")
#loc91 = loc("broadcast.253")
#loc92 = loc("multiply.254")
#loc93 = loc("slice.246")
#loc94 = loc("negate.247")
#loc95 = loc("slice.245")
#loc96 = loc("concatenate.248")
#loc97 = loc("broadcast.250")
#loc98 = loc("multiply.251")
#loc99 = loc("add.257")
#loc100 = loc("convert.258")
#loc101 = loc("multiply.260")
#loc102 = loc("broadcast.227")
#loc103 = loc("reshape.228")
#loc104 = loc("convert.229")
#loc105 = loc("transpose.230")
#loc106 = loc("multiply.232")
#loc107 = loc("dot.261")
#loc108 = loc("broadcast.211")
#loc109 = loc("broadcast.213")
#loc110 = loc("compare.214")
#loc111 = loc("reshape.215")
#loc112 = loc("broadcast.220")
#loc113 = loc("select.222")
#loc114 = loc("convert.263")
#loc115 = loc("reshape.266")
#loc116 = loc("broadcast.267")
#loc117 = loc("add.268")
#loc118 = loc("convert.294")
#loc119 = loc("compare.296")
#loc120 = loc("not.298")
#loc121 = loc("reduce.310")
#loc122 = loc("reshape.314")
#loc123 = loc("not.316")
#loc124 = loc("reshape.318")
#loc125 = loc("broadcast.319")
#loc126 = loc("reduce.274")
#loc127 = loc("broadcast.275")
#loc128 = loc("subtract.276")
#loc129 = loc("exponential.277")
#loc130 = loc("reduce.283")
#loc131 = loc("broadcast.284")
#loc132 = loc("divide.285")
#loc133 = loc("select.320")
#loc134 = loc("broadcast.188")
#loc135 = loc("reshape.189")
#loc136 = loc("convert.190")
#loc137 = loc("dot.321")
#loc138 = loc("convert.323")
#loc139 = loc("transpose.324")
#loc140 = loc("reshape.326")
#loc141 = loc("reshape.181")
#loc142 = loc("reshape.183")
#loc143 = loc("transpose.184")
#loc144 = loc("dot.327")
#loc145 = loc("reshape.328")
#loc146 = loc("add.331")
#loc147 = loc("reshape.362")
#loc148 = loc("reshape.364")
#loc149 = loc("broadcast.365")
#loc150 = loc("convert.332")
#loc151 = loc("power.334")
#loc152 = loc("reduce.341")
#loc153 = loc("multiply.350")
#loc154 = loc("reshape.351")
#loc155 = loc("add.355")
#loc156 = loc("rsqrt.356")
#loc157 = loc("reshape.357")
#loc158 = loc("broadcast.358")
#loc159 = loc("multiply.359")
#loc160 = loc("convert.360")
#loc161 = loc("multiply.366")
#loc162 = loc("reshape.375")
#loc163 = loc("reshape.371")
#loc164 = loc("reshape.373")
#loc165 = loc("transpose.374")
#loc166 = loc("dot.376")
#loc167 = loc("reshape.377")
#loc168 = loc("convert.378")
#loc169 = loc("logistic.379")
#loc170 = loc("multiply.380")
#loc171 = loc("convert.381")
#loc172 = loc("reshape.172")
#loc173 = loc("reshape.174")
#loc174 = loc("transpose.175")
#loc175 = loc("dot.368")
#loc176 = loc("reshape.369")
#loc177 = loc("multiply.382")
#loc178 = loc("reshape.383")
#loc179 = loc("reshape.167")
#loc180 = loc("reshape.169")
#loc181 = loc("transpose.170")
#loc182 = loc("dot.384")
#loc183 = loc("reshape.385")
#loc184 = loc("add.388")
#loc185 = loc("convert.389")
#loc186 = loc("power.391")
#loc187 = loc("reduce.398")
#loc188 = loc("multiply.407")
#loc189 = loc("reshape.408")
#loc190 = loc("add.412")
#loc191 = loc("rsqrt.413")
#loc192 = loc("reshape.414")
#loc193 = loc("broadcast.415")
#loc194 = loc("multiply.416")
#loc195 = loc("convert.417")
#loc196 = loc("multiply.423")
#loc197 = loc("reshape.424")
#loc198 = loc("reshape.158")
#loc199 = loc("reshape.160")
#loc200 = loc("transpose.161")
#loc201 = loc("dot.425")
#loc202 = loc("reshape.426")
