#loc1 = loc("p0.3")
#loc2 = loc("p1.11")
#loc3 = loc("p2.28")
#loc4 = loc("p3.33")
#loc5 = loc("p4.42")
#loc6 = loc("p5.47")
#loc7 = loc("p6.121")
#loc8 = loc("p7.129")
#loc9 = loc("p8.149")
#loc10 = loc("p9.163")
#loc11 = loc("p10.168")
#loc12 = loc("p11.178")
#loc13 = loc("p12.183")
#loc14 = loc("p13.188")
#loc15 = loc("p14.198")
#loc16 = loc("p15.253")
#loc17 = loc("p16.386")
module @SyncTensorsGraph.475 attributes {mhlo.cross_program_prefetches = [], mhlo.input_output_alias = [], mhlo.is_dynamic = false, mhlo.use_auto_spmd_partitioning = false, ttcore.meshes = #ttcore.meshes<[<"mesh" = 1x1>]>} {
  ttcore.device_module {
    builtin.module @SyncTensorsGraph.475 attributes {mhlo.cross_program_prefetches = [], mhlo.input_output_alias = [], mhlo.is_dynamic = false, mhlo.use_auto_spmd_partitioning = false, ttcore.meshes = #ttcore.meshes<[<"mesh" = 1x1>]>} {
      func.func @main(%arg0: tensor<1xi64> {ttcore.argument_type = #ttcore.argument_type<input>, ttcore.local_shape = #ttcore<local_shape local_shape = tensor<1xi64>>, ttcore.shard_status = #ttcore.shard_status<unsharded>, ttir.name = "args_1"} loc("p0.3"), %arg1: tensor<64xbf16> {ttcore.argument_type = #ttcore.argument_type<constant>, ttcore.local_shape = #ttcore<local_shape local_shape = tensor<64xbf16>>, ttcore.shard_status = #ttcore.shard_status<unsharded>, ttir.name = "L__self___model_model_rotary_emb_inv_freq"} loc("p1.11"), %arg2: tensor<1024x4096xbf16> {ttcore.argument_type = #ttcore.argument_type<parameter>, ttcore.local_shape = #ttcore<local_shape local_shape = tensor<1024x4096xbf16>>, ttcore.shard_status = #ttcore.shard_status<unsharded>, ttir.name = "L__self___model_model_layers__modules__0___self_attn_k_proj.weight"} loc("p2.28"), %arg3: tensor<4096xbf16> {ttcore.argument_type = #ttcore.argument_type<parameter>, ttcore.local_shape = #ttcore<local_shape local_shape = tensor<4096xbf16>>, ttcore.shard_status = #ttcore.shard_status<unsharded>, ttir.name = "L__self___model_model_layers__modules__0___input_layernorm_weight"} loc("p3.33"), %arg4: tensor<32x1xi64> {ttcore.argument_type = #ttcore.argument_type<input>, ttcore.local_shape = #ttcore<local_shape local_shape = tensor<32x1xi64>>, ttcore.shard_status = #ttcore.shard_status<unsharded>, ttir.name = "args_0"} loc("p4.42"), %arg5: tensor<128256x4096xbf16> {ttcore.argument_type = #ttcore.argument_type<parameter>, ttcore.local_shape = #ttcore<local_shape local_shape = tensor<128256x4096xbf16>>, ttcore.shard_status = #ttcore.shard_status<unsharded>, ttir.name = "L__self___model_model_embed_tokens.weight"} loc("p5.47"), %arg6: tensor<32x8x128x128xbf16> {ttcore.argument_type = #ttcore.argument_type<input>, ttcore.local_shape = #ttcore<local_shape local_shape = tensor<32x8x128x128xbf16>>, ttcore.shard_status = #ttcore.shard_status<unsharded>, ttir.name = "args_2"} loc("p6.121"), %arg7: tensor<1024x4096xbf16> {ttcore.argument_type = #ttcore.argument_type<parameter>, ttcore.local_shape = #ttcore<local_shape local_shape = tensor<1024x4096xbf16>>, ttcore.shard_status = #ttcore.shard_status<unsharded>, ttir.name = "L__self___model_model_layers__modules__0___self_attn_v_proj.weight"} loc("p7.129"), %arg8: tensor<32x8x128x128xbf16> {ttcore.argument_type = #ttcore.argument_type<input>, ttcore.local_shape = #ttcore<local_shape local_shape = tensor<32x8x128x128xbf16>>, ttcore.shard_status = #ttcore.shard_status<unsharded>, ttir.name = "args_3"} loc("p8.149"), %arg9: tensor<128256x4096xbf16> {ttcore.argument_type = #ttcore.argument_type<parameter>, ttcore.local_shape = #ttcore<local_shape local_shape = tensor<128256x4096xbf16>>, ttcore.shard_status = #ttcore.shard_status<unsharded>, ttir.name = "L__self___model_lm_head.weight"} loc("p9.163"), %arg10: tensor<4096xbf16> {ttcore.argument_type = #ttcore.argument_type<parameter>, ttcore.local_shape = #ttcore<local_shape local_shape = tensor<4096xbf16>>, ttcore.shard_status = #ttcore.shard_status<unsharded>, ttir.name = "L__self___model_model_norm_weight"} loc("p10.168"), %arg11: tensor<4096x14336xbf16> {ttcore.argument_type = #ttcore.argument_type<parameter>, ttcore.local_shape = #ttcore<local_shape local_shape = tensor<4096x14336xbf16>>, ttcore.shard_status = #ttcore.shard_status<unsharded>, ttir.name = "L__self___model_model_layers__modules__0___mlp_down_proj.weight"} loc("p11.178"), %arg12: tensor<14336x4096xbf16> {ttcore.argument_type = #ttcore.argument_type<parameter>, ttcore.local_shape = #ttcore<local_shape local_shape = tensor<14336x4096xbf16>>, ttcore.shard_status = #ttcore.shard_status<unsharded>, ttir.name = "L__self___model_model_layers__modules__0___mlp_up_proj.weight"} loc("p12.183"), %arg13: tensor<4096xbf16> {ttcore.argument_type = #ttcore.argument_type<parameter>, ttcore.local_shape = #ttcore<local_shape local_shape = tensor<4096xbf16>>, ttcore.shard_status = #ttcore.shard_status<unsharded>, ttir.name = "L__self___model_model_layers__modules__0___post_attention_layernorm_weight"} loc("p13.188"), %arg14: tensor<4096x4096xbf16> {ttcore.argument_type = #ttcore.argument_type<parameter>, ttcore.local_shape = #ttcore<local_shape local_shape = tensor<4096x4096xbf16>>, ttcore.shard_status = #ttcore.shard_status<unsharded>, ttir.name = "L__self___model_model_layers__modules__0___self_attn_o_proj.weight"} loc("p14.198"), %arg15: tensor<4096x4096xbf16> {ttcore.argument_type = #ttcore.argument_type<parameter>, ttcore.local_shape = #ttcore<local_shape local_shape = tensor<4096x4096xbf16>>, ttcore.shard_status = #ttcore.shard_status<unsharded>, ttir.name = "L__self___model_model_layers__modules__0___self_attn_q_proj.weight"} loc("p15.253"), %arg16: tensor<14336x4096xbf16> {ttcore.argument_type = #ttcore.argument_type<parameter>, ttcore.local_shape = #ttcore<local_shape local_shape = tensor<14336x4096xbf16>>, ttcore.shard_status = #ttcore.shard_status<unsharded>, ttir.name = "L__self___model_model_layers__modules__0___mlp_gate_proj.weight"} loc("p16.386")) -> (tensor<32x8x128x128xbf16> {ttcore.local_shape = #ttcore<local_shape local_shape = tensor<32x8x128x128xbf16>>, ttcore.shard_status = #ttcore.shard_status<presharded>}, tensor<32x8x128x128xbf16> {ttcore.local_shape = #ttcore<local_shape local_shape = tensor<32x8x128x128xbf16>>, ttcore.shard_status = #ttcore.shard_status<presharded>}, tensor<1xi64> {ttcore.local_shape = #ttcore<local_shape local_shape = tensor<1xi64>>, ttcore.shard_status = #ttcore.shard_status<presharded>}, tensor<32x1xi64> {ttcore.local_shape = #ttcore<local_shape local_shape = tensor<32x1xi64>>, ttcore.shard_status = #ttcore.shard_status<presharded>}) {
        %0 = "ttir.constant"() <{value = dense<"…"> : tensor<1x128xi64>}> : () -> tensor<1x128xi64> loc(#loc)
        %1 = "ttir.constant"() <{value = dense<0.000000e+00> : tensor<32x32x1x128xf32>}> : () -> tensor<32x32x1x128xf32> loc(#loc)
        %2 = "ttir.constant"() <{value = dense<0xFFF0000000000000> : tensor<32x32x1x128xf64>}> : () -> tensor<32x32x1x128xf64> loc(#loc)
        %3 = "ttir.constant"() <{value = dense<0xFF80> : tensor<32x1x1x128xbf16>}> : () -> tensor<32x1x1x128xbf16> loc(#loc)
        %4 = "ttir.constant"() <{value = dense<0.000000e+00> : tensor<32x1x1x128xbf16>}> : () -> tensor<32x1x1x128xbf16> loc(#loc)
        %5 = "ttir.constant"() <{value = dense<0.297301769> : tensor<32x32x128x128xf32>}> : () -> tensor<32x32x128x128xf32> loc(#loc)
        %6 = "ttir.constant"() <{value = dense<0.297301769> : tensor<32x32x1x128xf32>}> : () -> tensor<32x32x1x128xf32> loc(#loc)
        %7 = "ttir.constant"() <{value = dense<1> : tensor<1xi64>}> : () -> tensor<1xi64> loc(#loc)
        %8 = "ttir.constant"() <{value = dense<128> : tensor<1xi64>}> : () -> tensor<1xi64> loc(#loc)
        %9 = "ttir.constant"() <{value = dense<0> : tensor<1xi64>}> : () -> tensor<1xi64> loc(#loc)
        %10 = "ttir.reshape"(%arg0) <{shape = [1 : i32, 1 : i32, 1 : i32]}> : (tensor<1xi64>) -> tensor<1x1x1xi64> loc(#loc18)
        %11 = "ttir.reshape"(%10) <{shape = [1 : i32]}> : (tensor<1x1x1xi64>) -> tensor<1xi64> loc(#loc19)
        %12 = "ttir.lt"(%11, %9) : (tensor<1xi64>, tensor<1xi64>) -> tensor<1xi1> loc(#loc20)
        %13 = "ttir.add"(%11, %8) : (tensor<1xi64>, tensor<1xi64>) -> tensor<1xi64> loc(#loc21)
        %14 = "ttir.where"(%12, %13, %11) : (tensor<1xi1>, tensor<1xi64>, tensor<1xi64>) -> tensor<1xi64> loc(#loc22)
        %15 = "ttir.reshape"(%arg5) <{shape = [1 : i32, 128256 : i32, 4096 : i32]}> : (tensor<128256x4096xbf16>) -> tensor<1x128256x4096xbf16> loc(#loc23)
        %16 = "ttir.reshape"(%15) <{shape = [128256 : i32, 4096 : i32]}> : (tensor<1x128256x4096xbf16>) -> tensor<128256x4096xbf16> loc(#loc24)
        %17 = "ttir.reshape"(%arg4) <{shape = [1 : i32, 32 : i32, 1 : i32]}> : (tensor<32x1xi64>) -> tensor<1x32x1xi64> loc(#loc25)
        %18 = "ttir.reshape"(%17) <{shape = [32 : i32]}> : (tensor<1x32x1xi64>) -> tensor<32xi64> loc(#loc26)
        %19 = "ttir.typecast"(%18) <{conservative_folding = false}> : (tensor<32xi64>) -> tensor<32xui32> loc(#loc27)
        %20 = "ttir.permute"(%16) <{permutation = array<i64: 0, 1>}> : (tensor<128256x4096xbf16>) -> tensor<128256x4096xbf16> loc(#loc166)
        %21 = "ttir.reshape"(%20) <{shape = [128256 : i32, 4096 : i32]}> : (tensor<128256x4096xbf16>) -> tensor<128256x4096xbf16> loc(#loc167)
        %22 = "ttir.reshape"(%19) <{shape = [1 : i32, 32 : i32]}> : (tensor<32xui32>) -> tensor<1x32xui32> loc(#loc168)
        %23 = "ttir.embedding"(%22, %21) : (tensor<1x32xui32>, tensor<128256x4096xbf16>) -> tensor<1x32x4096xbf16> loc(#loc28)
        %24 = "ttir.reshape"(%23) <{shape = [32 : i32, 4096 : i32]}> : (tensor<1x32x4096xbf16>) -> tensor<32x4096xbf16> loc(#loc169)
        %25 = "ttir.permute"(%24) <{permutation = array<i64: 0, 1>}> : (tensor<32x4096xbf16>) -> tensor<32x4096xbf16> loc(#loc170)
        %26 = "ttir.reshape"(%25) <{shape = [32 : i32, 1 : i32, 4096 : i32]}> : (tensor<32x4096xbf16>) -> tensor<32x1x4096xbf16> loc(#loc29)
        %27 = "ttir.reshape"(%arg3) <{shape = [1 : i32, 1 : i32, 4096 : i32]}> : (tensor<4096xbf16>) -> tensor<1x1x4096xbf16> loc(#loc30)
        %28 = "ttir.reshape"(%27) <{shape = [4096 : i32]}> : (tensor<1x1x4096xbf16>) -> tensor<4096xbf16> loc(#loc31)
        %29 = "ttir.rms_norm"(%26, %28) <{epsilon = 9.99999974E-6 : f32, normalized_shape = array<i64: 4096>, operandSegmentSizes = array<i32: 1, 1, 0>}> : (tensor<32x1x4096xbf16>, tensor<4096xbf16>) -> tensor<32x1x4096xbf16> loc(#loc32)
        %30 = "ttir.reshape"(%29) <{shape = [32 : i32, 4096 : i32]}> : (tensor<32x1x4096xbf16>) -> tensor<32x4096xbf16> loc(#loc33)
        %31 = "ttir.reshape"(%arg2) <{shape = [1 : i32, 1024 : i32, 4096 : i32]}> : (tensor<1024x4096xbf16>) -> tensor<1x1024x4096xbf16> loc(#loc34)
        %32 = "ttir.reshape"(%31) <{shape = [1024 : i32, 4096 : i32]}> : (tensor<1x1024x4096xbf16>) -> tensor<1024x4096xbf16> loc(#loc35)
        %33 = "ttir.permute"(%32) <{permutation = array<i64: 1, 0>}> : (tensor<1024x4096xbf16>) -> tensor<4096x1024xbf16> loc(#loc36)
        %34 = "ttir.dot_general"(%30, %33) <{batch_dims_lhs = array<i64>, batch_dims_rhs = array<i64>, contract_dims_lhs = array<i64: 1>, contract_dims_rhs = array<i64: 0>}> : (tensor<32x4096xbf16>, tensor<4096x1024xbf16>) -> tensor<32x1024xbf16> loc(#loc37)
        %35 = "ttir.reshape"(%34) <{shape = [32 : i32, 8 : i32, 1 : i32, 128 : i32]}> : (tensor<32x1024xbf16>) -> tensor<32x8x1x128xbf16> loc(#loc38)
        %36 = "ttir.reshape"(%arg1) <{shape = [1 : i32, 1 : i32, 64 : i32]}> : (tensor<64xbf16>) -> tensor<1x1x64xbf16> loc(#loc39)
        %37 = "ttir.reshape"(%36) <{shape = [1 : i32, 64 : i32, 1 : i32]}> : (tensor<1x1x64xbf16>) -> tensor<1x64x1xbf16> loc(#loc40)
        %38 = "ttir.typecast"(%37) <{conservative_folding = false}> : (tensor<1x64x1xbf16>) -> tensor<1x64x1xf32> loc(#loc41)
        %39 = "ttir.typecast"(%10) <{conservative_folding = false}> : (tensor<1x1x1xi64>) -> tensor<1x1x1xf32> loc(#loc42)
        %40 = "ttir.dot_general"(%38, %39) <{batch_dims_lhs = array<i64: 0>, batch_dims_rhs = array<i64: 0>, contract_dims_lhs = array<i64: 2>, contract_dims_rhs = array<i64: 1>}> : (tensor<1x64x1xf32>, tensor<1x1x1xf32>) -> tensor<1x64x1xf32> loc(#loc43)
        %41 = "ttir.reshape"(%40) <{shape = [1 : i32, 1 : i32, 64 : i32]}> : (tensor<1x64x1xf32>) -> tensor<1x1x64xf32> loc(#loc44)
        %42 = "ttir.concat"(%41, %41) <{dim = 2 : si32}> : (tensor<1x1x64xf32>, tensor<1x1x64xf32>) -> tensor<1x1x128xf32> loc(#loc45)
        %43 = "ttir.cos"(%42) : (tensor<1x1x128xf32>) -> tensor<1x1x128xf32> loc(#loc46)
        %44 = "ttir.typecast"(%43) <{conservative_folding = false}> : (tensor<1x1x128xf32>) -> tensor<1x1x128xbf16> loc(#loc47)
        %45 = "ttir.reshape"(%44) <{shape = [1 : i32, 128 : i32]}> : (tensor<1x1x128xbf16>) -> tensor<1x128xbf16> loc(#loc48)
        %46 = "ttir.reshape"(%45) <{shape = [1 : i32, 1 : i32, 1 : i32, 128 : i32]}> : (tensor<1x128xbf16>) -> tensor<1x1x1x128xbf16> loc(#loc49)
        %47 = "ttir.broadcast"(%46) <{broadcast_dimensions = array<i64: 32, 8, 1, 1>}> : (tensor<1x1x1x128xbf16>) -> tensor<32x8x1x128xbf16> loc(#loc49)
        %48 = "ttir.multiply"(%35, %47) : (tensor<32x8x1x128xbf16>, tensor<32x8x1x128xbf16>) -> tensor<32x8x1x128xbf16> loc(#loc50)
        %49 = "ttir.slice_static"(%35) <{begins = [0 : i32, 0 : i32, 0 : i32, 64 : i32], ends = [32 : i32, 8 : i32, 1 : i32, 128 : i32], step = [1 : i32, 1 : i32, 1 : i32, 1 : i32]}> : (tensor<32x8x1x128xbf16>) -> tensor<32x8x1x64xbf16> loc(#loc51)
        %50 = "ttir.neg"(%49) : (tensor<32x8x1x64xbf16>) -> tensor<32x8x1x64xbf16> loc(#loc52)
        %51 = "ttir.slice_static"(%35) <{begins = [0 : i32, 0 : i32, 0 : i32, 0 : i32], ends = [32 : i32, 8 : i32, 1 : i32, 64 : i32], step = [1 : i32, 1 : i32, 1 : i32, 1 : i32]}> : (tensor<32x8x1x128xbf16>) -> tensor<32x8x1x64xbf16> loc(#loc53)
        %52 = "ttir.concat"(%50, %51) <{dim = 3 : si32}> : (tensor<32x8x1x64xbf16>, tensor<32x8x1x64xbf16>) -> tensor<32x8x1x128xbf16> loc(#loc54)
        %53 = "ttir.sin"(%42) : (tensor<1x1x128xf32>) -> tensor<1x1x128xf32> loc(#loc55)
        %54 = "ttir.typecast"(%53) <{conservative_folding = false}> : (tensor<1x1x128xf32>) -> tensor<1x1x128xbf16> loc(#loc56)
        %55 = "ttir.reshape"(%54) <{shape = [1 : i32, 128 : i32]}> : (tensor<1x1x128xbf16>) -> tensor<1x128xbf16> loc(#loc57)
        %56 = "ttir.reshape"(%55) <{shape = [1 : i32, 1 : i32, 1 : i32, 128 : i32]}> : (tensor<1x128xbf16>) -> tensor<1x1x1x128xbf16> loc(#loc58)
        %57 = "ttir.broadcast"(%56) <{broadcast_dimensions = array<i64: 32, 8, 1, 1>}> : (tensor<1x1x1x128xbf16>) -> tensor<32x8x1x128xbf16> loc(#loc58)
        %58 = "ttir.multiply"(%52, %57) : (tensor<32x8x1x128xbf16>, tensor<32x8x1x128xbf16>) -> tensor<32x8x1x128xbf16> loc(#loc59)
        %59 = "ttir.add"(%48, %58) : (tensor<32x8x1x128xbf16>, tensor<32x8x1x128xbf16>) -> tensor<32x8x1x128xbf16> loc(#loc60)
        %60 = "ttir.permute"(%59) <{permutation = array<i64: 2, 1, 0, 3>}> : (tensor<32x8x1x128xbf16>) -> tensor<1x8x32x128xbf16> loc(#loc61)
        %61 = "ttir.update_cache"(%arg6, %60, %arg0) <{batch_offset = 0 : i32}> : (tensor<32x8x128x128xbf16>, tensor<1x8x32x128xbf16>, tensor<1xi64>) -> tensor<32x8x128x128xbf16> loc(#loc61)
        %62 = "ttir.reshape"(%arg7) <{shape = [1 : i32, 1024 : i32, 4096 : i32]}> : (tensor<1024x4096xbf16>) -> tensor<1x1024x4096xbf16> loc(#loc62)
        %63 = "ttir.reshape"(%62) <{shape = [1024 : i32, 4096 : i32]}> : (tensor<1x1024x4096xbf16>) -> tensor<1024x4096xbf16> loc(#loc63)
        %64 = "ttir.permute"(%63) <{permutation = array<i64: 1, 0>}> : (tensor<1024x4096xbf16>) -> tensor<4096x1024xbf16> loc(#loc64)
        %65 = "ttir.dot_general"(%30, %64) <{batch_dims_lhs = array<i64>, batch_dims_rhs = array<i64>, contract_dims_lhs = array<i64: 1>, contract_dims_rhs = array<i64: 0>}> : (tensor<32x4096xbf16>, tensor<4096x1024xbf16>) -> tensor<32x1024xbf16> loc(#loc65)
        %66 = "ttir.reshape"(%65) <{shape = [32 : i32, 8 : i32, 1 : i32, 128 : i32]}> : (tensor<32x1024xbf16>) -> tensor<32x8x1x128xbf16> loc(#loc66)
        %67 = "ttir.permute"(%66) <{permutation = array<i64: 2, 1, 0, 3>}> : (tensor<32x8x1x128xbf16>) -> tensor<1x8x32x128xbf16> loc(#loc67)
        %68 = "ttir.update_cache"(%arg8, %67, %arg0) <{batch_offset = 0 : i32}> : (tensor<32x8x128x128xbf16>, tensor<1x8x32x128xbf16>, tensor<1xi64>) -> tensor<32x8x128x128xbf16> loc(#loc67)
        %69 = "ttir.add"(%11, %7) : (tensor<1xi64>, tensor<1xi64>) -> tensor<1xi64> loc(#loc68)
        %70 = "ttir.reshape"(%arg15) <{shape = [1 : i32, 4096 : i32, 4096 : i32]}> : (tensor<4096x4096xbf16>) -> tensor<1x4096x4096xbf16> loc(#loc69)
        %71 = "ttir.reshape"(%70) <{shape = [4096 : i32, 4096 : i32]}> : (tensor<1x4096x4096xbf16>) -> tensor<4096x4096xbf16> loc(#loc70)
        %72 = "ttir.permute"(%71) <{permutation = array<i64: 1, 0>}> : (tensor<4096x4096xbf16>) -> tensor<4096x4096xbf16> loc(#loc71)
        %73 = "ttir.dot_general"(%30, %72) <{batch_dims_lhs = array<i64>, batch_dims_rhs = array<i64>, contract_dims_lhs = array<i64: 1>, contract_dims_rhs = array<i64: 0>}> : (tensor<32x4096xbf16>, tensor<4096x4096xbf16>) -> tensor<32x4096xbf16> loc(#loc72)
        %74 = "ttir.reshape"(%73) <{shape = [32 : i32, 32 : i32, 1 : i32, 128 : i32]}> : (tensor<32x4096xbf16>) -> tensor<32x32x1x128xbf16> loc(#loc73)
        %75 = "ttir.broadcast"(%46) <{broadcast_dimensions = array<i64: 32, 32, 1, 1>}> : (tensor<1x1x1x128xbf16>) -> tensor<32x32x1x128xbf16> loc(#loc74)
        %76 = "ttir.multiply"(%74, %75) : (tensor<32x32x1x128xbf16>, tensor<32x32x1x128xbf16>) -> tensor<32x32x1x128xbf16> loc(#loc75)
        %77 = "ttir.slice_static"(%74) <{begins = [0 : i32, 0 : i32, 0 : i32, 64 : i32], ends = [32 : i32, 32 : i32, 1 : i32, 128 : i32], step = [1 : i32, 1 : i32, 1 : i32, 1 : i32]}> : (tensor<32x32x1x128xbf16>) -> tensor<32x32x1x64xbf16> loc(#loc76)
        %78 = "ttir.neg"(%77) : (tensor<32x32x1x64xbf16>) -> tensor<32x32x1x64xbf16> loc(#loc77)
        %79 = "ttir.slice_static"(%74) <{begins = [0 : i32, 0 : i32, 0 : i32, 0 : i32], ends = [32 : i32, 32 : i32, 1 : i32, 64 : i32], step = [1 : i32, 1 : i32, 1 : i32, 1 : i32]}> : (tensor<32x32x1x128xbf16>) -> tensor<32x32x1x64xbf16> loc(#loc78)
        %80 = "ttir.concat"(%78, %79) <{dim = 3 : si32}> : (tensor<32x32x1x64xbf16>, tensor<32x32x1x64xbf16>) -> tensor<32x32x1x128xbf16> loc(#loc79)
        %81 = "ttir.broadcast"(%56) <{broadcast_dimensions = array<i64: 32, 32, 1, 1>}> : (tensor<1x1x1x128xbf16>) -> tensor<32x32x1x128xbf16> loc(#loc80)
        %82 = "ttir.multiply"(%80, %81) : (tensor<32x32x1x128xbf16>, tensor<32x32x1x128xbf16>) -> tensor<32x32x1x128xbf16> loc(#loc81)
        %83 = "ttir.add"(%76, %82) : (tensor<32x32x1x128xbf16>, tensor<32x32x1x128xbf16>) -> tensor<32x32x1x128xbf16> loc(#loc82)
        %84 = "ttir.typecast"(%83) <{conservative_folding = false}> : (tensor<32x32x1x128xbf16>) -> tensor<32x32x1x128xf32> loc(#loc83)
        %85 = "ttir.multiply"(%84, %6) : (tensor<32x32x1x128xf32>, tensor<32x32x1x128xf32>) -> tensor<32x32x1x128xf32> loc(#loc84)
        %86 = "ttir.reshape"(%61) <{shape = [32 : i32, 8 : i32, 1 : i32, 128 : i32, 128 : i32]}> : (tensor<32x8x128x128xbf16>) -> tensor<32x8x1x128x128xbf16> loc(#loc85)
        %87 = "ttir.broadcast"(%86) <{broadcast_dimensions = array<i64: 1, 1, 4, 1, 1>}> : (tensor<32x8x1x128x128xbf16>) -> tensor<32x8x4x128x128xbf16> loc(#loc85)
        %88 = "ttir.reshape"(%87) <{shape = [32 : i32, 32 : i32, 128 : i32, 128 : i32]}> : (tensor<32x8x4x128x128xbf16>) -> tensor<32x32x128x128xbf16> loc(#loc86)
        %89 = "ttir.typecast"(%88) <{conservative_folding = false}> : (tensor<32x32x128x128xbf16>) -> tensor<32x32x128x128xf32> loc(#loc87)
        %90 = "ttir.permute"(%89) <{permutation = array<i64: 0, 1, 3, 2>}> : (tensor<32x32x128x128xf32>) -> tensor<32x32x128x128xf32> loc(#loc88)
        %91 = "ttir.multiply"(%90, %5) : (tensor<32x32x128x128xf32>, tensor<32x32x128x128xf32>) -> tensor<32x32x128x128xf32> loc(#loc89)
        %92 = "ttir.dot_general"(%85, %91) <{batch_dims_lhs = array<i64: 0, 1>, batch_dims_rhs = array<i64: 0, 1>, contract_dims_lhs = array<i64: 3>, contract_dims_rhs = array<i64: 2>}> : (tensor<32x32x1x128xf32>, tensor<32x32x128x128xf32>) -> tensor<32x32x1x128xf32> loc(#loc90)
        %93 = "ttir.reshape"(%11) <{shape = [1 : i32, 1 : i32]}> : (tensor<1xi64>) -> tensor<1x1xi64> loc(#loc91)
        %94 = "ttir.broadcast"(%93) <{broadcast_dimensions = array<i64: 1, 128>}> : (tensor<1x1xi64>) -> tensor<1x128xi64> loc(#loc91)
        %95 = "ttir.le"(%0, %94) : (tensor<1x128xi64>, tensor<1x128xi64>) -> tensor<1x128xi1> loc(#loc92)
        %96 = "ttir.reshape"(%95) <{shape = [1 : i32, 1 : i32, 128 : i32]}> : (tensor<1x128xi1>) -> tensor<1x1x128xi1> loc(#loc93)
        %97 = "ttir.reshape"(%96) <{shape = [1 : i32, 1 : i32, 1 : i32, 128 : i32]}> : (tensor<1x1x128xi1>) -> tensor<1x1x1x128xi1> loc(#loc94)
        %98 = "ttir.broadcast"(%97) <{broadcast_dimensions = array<i64: 32, 1, 1, 1>}> : (tensor<1x1x1x128xi1>) -> tensor<32x1x1x128xi1> loc(#loc94)
        %99 = "ttir.where"(%98, %4, %3) : (tensor<32x1x1x128xi1>, tensor<32x1x1x128xbf16>, tensor<32x1x1x128xbf16>) -> tensor<32x1x1x128xbf16> loc(#loc95)
        %100 = "ttir.typecast"(%99) <{conservative_folding = false}> : (tensor<32x1x1x128xbf16>) -> tensor<32x1x1x128xf32> loc(#loc96)
        %101 = "ttir.reshape"(%100) <{shape = [32 : i32, 1 : i32, 128 : i32]}> : (tensor<32x1x1x128xf32>) -> tensor<32x1x128xf32> loc(#loc97)
        %102 = "ttir.reshape"(%101) <{shape = [32 : i32, 1 : i32, 1 : i32, 128 : i32]}> : (tensor<32x1x128xf32>) -> tensor<32x1x1x128xf32> loc(#loc98)
        %103 = "ttir.broadcast"(%102) <{broadcast_dimensions = array<i64: 1, 32, 1, 1>}> : (tensor<32x1x1x128xf32>) -> tensor<32x32x1x128xf32> loc(#loc98)
        %104 = "ttir.add"(%92, %103) : (tensor<32x32x1x128xf32>, tensor<32x32x1x128xf32>) -> tensor<32x32x1x128xf32> loc(#loc99)
        %105 = "ttir.typecast"(%104) <{conservative_folding = false}> : (tensor<32x32x1x128xf32>) -> tensor<32x32x1x128xf64> loc(#loc100)
        %106 = "ttir.eq"(%105, %2) : (tensor<32x32x1x128xf64>, tensor<32x32x1x128xf64>) -> tensor<32x32x1x128xi1> loc(#loc101)
        %107 = "ttir.logical_not"(%106) : (tensor<32x32x1x128xi1>) -> tensor<32x32x1x128xi1> loc(#loc102)
        %108 = "ttir.reduce_or"(%107) <{dim_arg = [3 : i32], keep_dim = false}> : (tensor<32x32x1x128xi1>) -> tensor<32x32x1xi1> loc(#loc103)
        %109 = "ttir.reshape"(%108) <{shape = [32 : i32, 32 : i32, 1 : i32, 1 : i32]}> : (tensor<32x32x1xi1>) -> tensor<32x32x1x1xi1> loc(#loc104)
        %110 = "ttir.logical_not"(%109) : (tensor<32x32x1x1xi1>) -> tensor<32x32x1x1xi1> loc(#loc105)
        %111 = "ttir.reshape"(%110) <{shape = [32 : i32, 32 : i32, 1 : i32]}> : (tensor<32x32x1x1xi1>) -> tensor<32x32x1xi1> loc(#loc106)
        %112 = "ttir.reshape"(%111) <{shape = [32 : i32, 32 : i32, 1 : i32, 1 : i32]}> : (tensor<32x32x1xi1>) -> tensor<32x32x1x1xi1> loc(#loc107)
        %113 = "ttir.broadcast"(%112) <{broadcast_dimensions = array<i64: 1, 1, 1, 128>}> : (tensor<32x32x1x1xi1>) -> tensor<32x32x1x128xi1> loc(#loc107)
        %114 = "ttir.max"(%104) <{dim_arg = [3 : i32], keep_dim = false}> : (tensor<32x32x1x128xf32>) -> tensor<32x32x1xf32> loc(#loc108)
        %115 = "ttir.reshape"(%114) <{shape = [32 : i32, 32 : i32, 1 : i32, 1 : i32]}> : (tensor<32x32x1xf32>) -> tensor<32x32x1x1xf32> loc(#loc109)
        %116 = "ttir.broadcast"(%115) <{broadcast_dimensions = array<i64: 1, 1, 1, 128>}> : (tensor<32x32x1x1xf32>) -> tensor<32x32x1x128xf32> loc(#loc109)
        %117 = "ttir.subtract"(%104, %116) : (tensor<32x32x1x128xf32>, tensor<32x32x1x128xf32>) -> tensor<32x32x1x128xf32> loc(#loc110)
        %118 = "ttir.exp"(%117) : (tensor<32x32x1x128xf32>) -> tensor<32x32x1x128xf32> loc(#loc111)
        %119 = "ttir.sum"(%118) <{dim_arg = [3 : i32], keep_dim = false}> : (tensor<32x32x1x128xf32>) -> tensor<32x32x1xf32> loc(#loc112)
        %120 = "ttir.reshape"(%119) <{shape = [32 : i32, 32 : i32, 1 : i32, 1 : i32]}> : (tensor<32x32x1xf32>) -> tensor<32x32x1x1xf32> loc(#loc113)
        %121 = "ttir.broadcast"(%120) <{broadcast_dimensions = array<i64: 1, 1, 1, 128>}> : (tensor<32x32x1x1xf32>) -> tensor<32x32x1x128xf32> loc(#loc113)
        %122 = "ttir.div"(%118, %121) : (tensor<32x32x1x128xf32>, tensor<32x32x1x128xf32>) -> tensor<32x32x1x128xf32> loc(#loc114)
        %123 = "ttir.where"(%113, %1, %122) : (tensor<32x32x1x128xi1>, tensor<32x32x1x128xf32>, tensor<32x32x1x128xf32>) -> tensor<32x32x1x128xf32> loc(#loc115)
        %124 = "ttir.reshape"(%68) <{shape = [32 : i32, 8 : i32, 1 : i32, 128 : i32, 128 : i32]}> : (tensor<32x8x128x128xbf16>) -> tensor<32x8x1x128x128xbf16> loc(#loc116)
        %125 = "ttir.broadcast"(%124) <{broadcast_dimensions = array<i64: 1, 1, 4, 1, 1>}> : (tensor<32x8x1x128x128xbf16>) -> tensor<32x8x4x128x128xbf16> loc(#loc116)
        %126 = "ttir.reshape"(%125) <{shape = [32 : i32, 32 : i32, 128 : i32, 128 : i32]}> : (tensor<32x8x4x128x128xbf16>) -> tensor<32x32x128x128xbf16> loc(#loc117)
        %127 = "ttir.typecast"(%126) <{conservative_folding = false}> : (tensor<32x32x128x128xbf16>) -> tensor<32x32x128x128xf32> loc(#loc118)
        %128 = "ttir.dot_general"(%123, %127) <{batch_dims_lhs = array<i64: 0, 1>, batch_dims_rhs = array<i64: 0, 1>, contract_dims_lhs = array<i64: 3>, contract_dims_rhs = array<i64: 2>}> : (tensor<32x32x1x128xf32>, tensor<32x32x128x128xf32>) -> tensor<32x32x1x128xf32> loc(#loc119)
        %129 = "ttir.typecast"(%128) <{conservative_folding = false}> : (tensor<32x32x1x128xf32>) -> tensor<32x32x1x128xbf16> loc(#loc120)
        %130 = "ttir.reshape"(%129) <{shape = [32 : i32, 4096 : i32]}> : (tensor<32x32x1x128xbf16>) -> tensor<32x4096xbf16> loc(#loc121)
        %131 = "ttir.reshape"(%arg14) <{shape = [1 : i32, 4096 : i32, 4096 : i32]}> : (tensor<4096x4096xbf16>) -> tensor<1x4096x4096xbf16> loc(#loc122)
        %132 = "ttir.reshape"(%131) <{shape = [4096 : i32, 4096 : i32]}> : (tensor<1x4096x4096xbf16>) -> tensor<4096x4096xbf16> loc(#loc123)
        %133 = "ttir.permute"(%132) <{permutation = array<i64: 1, 0>}> : (tensor<4096x4096xbf16>) -> tensor<4096x4096xbf16> loc(#loc124)
        %134 = "ttir.dot_general"(%130, %133) <{batch_dims_lhs = array<i64>, batch_dims_rhs = array<i64>, contract_dims_lhs = array<i64: 1>, contract_dims_rhs = array<i64: 0>}> : (tensor<32x4096xbf16>, tensor<4096x4096xbf16>) -> tensor<32x4096xbf16> loc(#loc125)
        %135 = "ttir.reshape"(%134) <{shape = [32 : i32, 1 : i32, 4096 : i32]}> : (tensor<32x4096xbf16>) -> tensor<32x1x4096xbf16> loc(#loc126)
        %136 = "ttir.add"(%26, %135) : (tensor<32x1x4096xbf16>, tensor<32x1x4096xbf16>) -> tensor<32x1x4096xbf16> loc(#loc127)
        %137 = "ttir.reshape"(%arg13) <{shape = [1 : i32, 1 : i32, 4096 : i32]}> : (tensor<4096xbf16>) -> tensor<1x1x4096xbf16> loc(#loc128)
        %138 = "ttir.reshape"(%137) <{shape = [4096 : i32]}> : (tensor<1x1x4096xbf16>) -> tensor<4096xbf16> loc(#loc129)
        %139 = "ttir.rms_norm"(%136, %138) <{epsilon = 9.99999974E-6 : f32, normalized_shape = array<i64: 4096>, operandSegmentSizes = array<i32: 1, 1, 0>}> : (tensor<32x1x4096xbf16>, tensor<4096xbf16>) -> tensor<32x1x4096xbf16> loc(#loc130)
        %140 = "ttir.reshape"(%139) <{shape = [32 : i32, 4096 : i32]}> : (tensor<32x1x4096xbf16>) -> tensor<32x4096xbf16> loc(#loc131)
        %141 = "ttir.reshape"(%arg16) <{shape = [1 : i32, 14336 : i32, 4096 : i32]}> : (tensor<14336x4096xbf16>) -> tensor<1x14336x4096xbf16> loc(#loc132)
        %142 = "ttir.reshape"(%141) <{shape = [14336 : i32, 4096 : i32]}> : (tensor<1x14336x4096xbf16>) -> tensor<14336x4096xbf16> loc(#loc133)
        %143 = "ttir.permute"(%142) <{permutation = array<i64: 1, 0>}> : (tensor<14336x4096xbf16>) -> tensor<4096x14336xbf16> loc(#loc134)
        %144 = "ttir.dot_general"(%140, %143) <{batch_dims_lhs = array<i64>, batch_dims_rhs = array<i64>, contract_dims_lhs = array<i64: 1>, contract_dims_rhs = array<i64: 0>}> : (tensor<32x4096xbf16>, tensor<4096x14336xbf16>) -> tensor<32x14336xbf16> loc(#loc135)
        %145 = "ttir.reshape"(%144) <{shape = [32 : i32, 1 : i32, 14336 : i32]}> : (tensor<32x14336xbf16>) -> tensor<32x1x14336xbf16> loc(#loc136)
        %146 = "ttir.typecast"(%145) <{conservative_folding = false}> : (tensor<32x1x14336xbf16>) -> tensor<32x1x14336xf32> loc(#loc137)
        %147 = "ttir.sigmoid"(%146) : (tensor<32x1x14336xf32>) -> tensor<32x1x14336xf32> loc(#loc138)
        %148 = "ttir.multiply"(%146, %147) : (tensor<32x1x14336xf32>, tensor<32x1x14336xf32>) -> tensor<32x1x14336xf32> loc(#loc139)
        %149 = "ttir.typecast"(%148) <{conservative_folding = false}> : (tensor<32x1x14336xf32>) -> tensor<32x1x14336xbf16> loc(#loc140)
        %150 = "ttir.reshape"(%arg12) <{shape = [1 : i32, 14336 : i32, 4096 : i32]}> : (tensor<14336x4096xbf16>) -> tensor<1x14336x4096xbf16> loc(#loc141)
        %151 = "ttir.reshape"(%150) <{shape = [14336 : i32, 4096 : i32]}> : (tensor<1x14336x4096xbf16>) -> tensor<14336x4096xbf16> loc(#loc142)
        %152 = "ttir.permute"(%151) <{permutation = array<i64: 1, 0>}> : (tensor<14336x4096xbf16>) -> tensor<4096x14336xbf16> loc(#loc143)
        %153 = "ttir.dot_general"(%140, %152) <{batch_dims_lhs = array<i64>, batch_dims_rhs = array<i64>, contract_dims_lhs = array<i64: 1>, contract_dims_rhs = array<i64: 0>}> : (tensor<32x4096xbf16>, tensor<4096x14336xbf16>) -> tensor<32x14336xbf16> loc(#loc144)
        %154 = "ttir.reshape"(%153) <{shape = [32 : i32, 1 : i32, 14336 : i32]}> : (tensor<32x14336xbf16>) -> tensor<32x1x14336xbf16> loc(#loc145)
        %155 = "ttir.multiply"(%149, %154) : (tensor<32x1x14336xbf16>, tensor<32x1x14336xbf16>) -> tensor<32x1x14336xbf16> loc(#loc146)
        %156 = "ttir.reshape"(%155) <{shape = [32 : i32, 14336 : i32]}> : (tensor<32x1x14336xbf16>) -> tensor<32x14336xbf16> loc(#loc147)
        %157 = "ttir.reshape"(%arg11) <{shape = [1 : i32, 4096 : i32, 14336 : i32]}> : (tensor<4096x14336xbf16>) -> tensor<1x4096x14336xbf16> loc(#loc148)
        %158 = "ttir.reshape"(%157) <{shape = [4096 : i32, 14336 : i32]}> : (tensor<1x4096x14336xbf16>) -> tensor<4096x14336xbf16> loc(#loc149)
        %159 = "ttir.permute"(%158) <{permutation = array<i64: 1, 0>}> : (tensor<4096x14336xbf16>) -> tensor<14336x4096xbf16> loc(#loc150)
        %160 = "ttir.dot_general"(%156, %159) <{batch_dims_lhs = array<i64>, batch_dims_rhs = array<i64>, contract_dims_lhs = array<i64: 1>, contract_dims_rhs = array<i64: 0>}> : (tensor<32x14336xbf16>, tensor<14336x4096xbf16>) -> tensor<32x4096xbf16> loc(#loc151)
        %161 = "ttir.reshape"(%160) <{shape = [32 : i32, 1 : i32, 4096 : i32]}> : (tensor<32x4096xbf16>) -> tensor<32x1x4096xbf16> loc(#loc152)
        %162 = "ttir.add"(%136, %161) : (tensor<32x1x4096xbf16>, tensor<32x1x4096xbf16>) -> tensor<32x1x4096xbf16> loc(#loc153)
        %163 = "ttir.reshape"(%arg10) <{shape = [1 : i32, 1 : i32, 4096 : i32]}> : (tensor<4096xbf16>) -> tensor<1x1x4096xbf16> loc(#loc154)
        %164 = "ttir.reshape"(%163) <{shape = [4096 : i32]}> : (tensor<1x1x4096xbf16>) -> tensor<4096xbf16> loc(#loc155)
        %165 = "ttir.rms_norm"(%162, %164) <{epsilon = 9.99999974E-6 : f32, normalized_shape = array<i64: 4096>, operandSegmentSizes = array<i32: 1, 1, 0>}> : (tensor<32x1x4096xbf16>, tensor<4096xbf16>) -> tensor<32x1x4096xbf16> loc(#loc156)
        %166 = "ttir.reshape"(%165) <{shape = [32 : i32, 4096 : i32]}> : (tensor<32x1x4096xbf16>) -> tensor<32x4096xbf16> loc(#loc157)
        %167 = "ttir.reshape"(%arg9) <{shape = [1 : i32, 128256 : i32, 4096 : i32]}> : (tensor<128256x4096xbf16>) -> tensor<1x128256x4096xbf16> loc(#loc158)
        %168 = "ttir.reshape"(%167) <{shape = [128256 : i32, 4096 : i32]}> : (tensor<1x128256x4096xbf16>) -> tensor<128256x4096xbf16> loc(#loc159)
        %169 = "ttir.permute"(%168) <{permutation = array<i64: 1, 0>}> : (tensor<128256x4096xbf16>) -> tensor<4096x128256xbf16> loc(#loc160)
        %170 = "ttir.dot_general"(%166, %169) <{batch_dims_lhs = array<i64>, batch_dims_rhs = array<i64>, contract_dims_lhs = array<i64: 1>, contract_dims_rhs = array<i64: 0>}> : (tensor<32x4096xbf16>, tensor<4096x128256xbf16>) -> tensor<32x128256xbf16> loc(#loc161)
        %171 = "ttir.arange"() <{arange_dimension = 0 : i64, end = 128256 : si64, start = 0 : si64, step = 1 : si64}> : () -> tensor<128256xi32> loc(#loc162)
        %172 = "ttir.reshape"(%171) <{shape = [1 : i32, 128256 : i32]}> : (tensor<128256xi32>) -> tensor<1x128256xi32> loc(#loc162)
        %173 = "ttir.argmax"(%170) <{dim_arg = [1 : i32], keep_dim = false}> : (tensor<32x128256xbf16>) -> tensor<32xi32> loc(#loc163)
        %174 = "ttir.typecast"(%173) <{conservative_folding = false}> : (tensor<32xi32>) -> tensor<32xi64> loc(#loc164)
        %175 = "ttir.reshape"(%174) <{shape = [32 : i32, 1 : i32]}> : (tensor<32xi64>) -> tensor<32x1xi64> loc(#loc165)
        return %61, %68, %69, %175 : tensor<32x8x128x128xbf16>, tensor<32x8x128x128xbf16>, tensor<1xi64>, tensor<32x1xi64> loc(#loc)
      } loc(#loc)
    } loc(#loc)
  } loc(#loc)
} loc(#loc)
#loc = loc(unknown)
#loc18 = loc("reshape.4")
#loc19 = loc("reshape.6")
#loc20 = loc("compare.117")
#loc21 = loc("add.114")
#loc22 = loc("select.118")
#loc23 = loc("reshape.48")
#loc24 = loc("reshape.50")
#loc25 = loc("reshape.43")
#loc26 = loc("reshape.46")
#loc27 = loc("convert.51")
#loc28 = loc("gather.52")
#loc29 = loc("reshape.53")
#loc30 = loc("reshape.34")
#loc31 = loc("reshape.36")
#loc32 = loc("custom-call.86")
#loc33 = loc("reshape.87")
#loc34 = loc("reshape.29")
#loc35 = loc("reshape.31")
#loc36 = loc("transpose.32")
#loc37 = loc("dot.88")
#loc38 = loc("transpose.91")
#loc39 = loc("reshape.12")
#loc40 = loc("reshape.16")
#loc41 = loc("convert.17")
#loc42 = loc("convert.9")
#loc43 = loc("dot.20")
#loc44 = loc("transpose.21")
#loc45 = loc("concatenate.22")
#loc46 = loc("cosine.100")
#loc47 = loc("convert.103")
#loc48 = loc("reshape.105")
#loc49 = loc("broadcast.106")
#loc50 = loc("multiply.107")
#loc51 = loc("slice.93")
#loc52 = loc("negate.94")
#loc53 = loc("slice.92")
#loc54 = loc("concatenate.95")
#loc55 = loc("sine.23")
#loc56 = loc("convert.26")
#loc57 = loc("reshape.96")
#loc58 = loc("broadcast.97")
#loc59 = loc("multiply.98")
#loc60 = loc("add.110")
#loc61 = loc("scatter.127")
#loc62 = loc("reshape.130")
#loc63 = loc("reshape.132")
#loc64 = loc("transpose.133")
#loc65 = loc("dot.135")
#loc66 = loc("transpose.138")
#loc67 = loc("scatter.155")
#loc68 = loc("add.162")
#loc69 = loc("reshape.254")
#loc70 = loc("reshape.256")
#loc71 = loc("transpose.257")
#loc72 = loc("dot.259")
#loc73 = loc("transpose.262")
#loc74 = loc("broadcast.271")
#loc75 = loc("multiply.272")
#loc76 = loc("slice.264")
#loc77 = loc("negate.265")
#loc78 = loc("slice.263")
#loc79 = loc("concatenate.266")
#loc80 = loc("broadcast.268")
#loc81 = loc("multiply.269")
#loc82 = loc("add.275")
#loc83 = loc("convert.276")
#loc84 = loc("multiply.278")
#loc85 = loc("broadcast.245")
#loc86 = loc("reshape.246")
#loc87 = loc("convert.247")
#loc88 = loc("transpose.248")
#loc89 = loc("multiply.250")
#loc90 = loc("dot.279")
#loc91 = loc("broadcast.231")
#loc92 = loc("compare.232")
#loc93 = loc("reshape.233")
#loc94 = loc("broadcast.238")
#loc95 = loc("select.240")
#loc96 = loc("convert.281")
#loc97 = loc("reshape.284")
#loc98 = loc("broadcast.285")
#loc99 = loc("add.286")
#loc100 = loc("convert.312")
#loc101 = loc("compare.314")
#loc102 = loc("not.316")
#loc103 = loc("reduce.328")
#loc104 = loc("reshape.332")
#loc105 = loc("not.334")
#loc106 = loc("reshape.336")
#loc107 = loc("broadcast.337")
#loc108 = loc("reduce.292")
#loc109 = loc("broadcast.293")
#loc110 = loc("subtract.294")
#loc111 = loc("exponential.295")
#loc112 = loc("reduce.301")
#loc113 = loc("broadcast.302")
#loc114 = loc("divide.303")
#loc115 = loc("select.338")
#loc116 = loc("broadcast.206")
#loc117 = loc("reshape.207")
#loc118 = loc("convert.208")
#loc119 = loc("dot.339")
#loc120 = loc("convert.341")
#loc121 = loc("reshape.344")
#loc122 = loc("reshape.199")
#loc123 = loc("reshape.201")
#loc124 = loc("transpose.202")
#loc125 = loc("dot.345")
#loc126 = loc("reshape.346")
#loc127 = loc("add.349")
#loc128 = loc("reshape.189")
#loc129 = loc("reshape.191")
#loc130 = loc("custom-call.382")
#loc131 = loc("reshape.391")
#loc132 = loc("reshape.387")
#loc133 = loc("reshape.389")
#loc134 = loc("transpose.390")
#loc135 = loc("dot.392")
#loc136 = loc("reshape.393")
#loc137 = loc("convert.394")
#loc138 = loc("logistic.395")
#loc139 = loc("multiply.396")
#loc140 = loc("convert.397")
#loc141 = loc("reshape.184")
#loc142 = loc("reshape.186")
#loc143 = loc("transpose.187")
#loc144 = loc("dot.384")
#loc145 = loc("reshape.385")
#loc146 = loc("multiply.398")
#loc147 = loc("reshape.399")
#loc148 = loc("reshape.179")
#loc149 = loc("reshape.181")
#loc150 = loc("transpose.182")
#loc151 = loc("dot.400")
#loc152 = loc("reshape.401")
#loc153 = loc("add.404")
#loc154 = loc("reshape.169")
#loc155 = loc("reshape.171")
#loc156 = loc("custom-call.437")
#loc157 = loc("reshape.438")
#loc158 = loc("reshape.164")
#loc159 = loc("reshape.166")
#loc160 = loc("transpose.167")
#loc161 = loc("dot.439")
#loc162 = loc("iota.445")
#loc163 = loc("reduce.470")
#loc164 = loc("convert.472")
#loc165 = loc("reshape.473")
#loc166 = loc("gather.52_permuteInput"(#loc28))
#loc167 = loc("gather.52_reshapeInput"(#loc28))
#loc168 = loc("gather.52_reshapeStartIndices"(#loc28))
#loc169 = loc("gather.52_reshapeOutput"(#loc28))
#loc170 = loc("gather.52_permuteOutput"(#loc28))
