#loc1 = loc("p0.3")
#loc2 = loc("p1.11")
#loc3 = loc("p2.28")
#loc4 = loc("p3.33")
#loc5 = loc("p4.42")
#loc6 = loc("p5.47")
#loc7 = loc("p6.123")
#loc8 = loc("p7.131")
#loc9 = loc("p8.153")
#loc10 = loc("p9.167")
#loc11 = loc("p10.172")
#loc12 = loc("p11.182")
#loc13 = loc("p12.187")
#loc14 = loc("p13.195")
#loc15 = loc("p14.205")
#loc16 = loc("p15.263")
#loc17 = loc("p16.396")
module @SyncTensorsGraph.489 attributes {mhlo.cross_program_prefetches = [], mhlo.input_output_alias = [], mhlo.is_dynamic = false, mhlo.use_auto_spmd_partitioning = false, ttcore.meshes = #ttcore.meshes<[<"mesh" = 2x4>]>} {
  ttcore.device_module {
    builtin.module @SyncTensorsGraph.489 attributes {mhlo.cross_program_prefetches = [], mhlo.input_output_alias = [], mhlo.is_dynamic = false, mhlo.use_auto_spmd_partitioning = false, ttcore.meshes = #ttcore.meshes<[<"mesh" = 2x4>]>} {
      func.func @main(%arg0: tensor<18xi64> {ttcore.argument_type = #ttcore.argument_type<input>, ttcore.local_shape = #ttcore<local_shape local_shape = tensor<18xi64>>, ttcore.shard_status = #ttcore.shard_status<presharded>, ttir.name = "args_1"} loc("p0.3"), %arg1: tensor<64xbf16> {ttcore.argument_type = #ttcore.argument_type<constant>, ttcore.local_shape = #ttcore<local_shape local_shape = tensor<64xbf16>>, ttcore.shard_status = #ttcore.shard_status<presharded>, ttir.name = "model.model.rotary_emb.inv_freq"} loc("p1.11"), %arg2: tensor<1024x8192xbf16> {ttcore.argument_type = #ttcore.argument_type<parameter>, ttcore.local_shape = #ttcore<local_shape local_shape = tensor<256x4096xbf16>>, ttcore.shard_status = #ttcore.shard_status<presharded>, ttir.name = "self___model_model_layers__modules__0___self_attn_k_proj__parameters__weight"} loc("p2.28"), %arg3: tensor<8192xbf16> {ttcore.argument_type = #ttcore.argument_type<parameter>, ttcore.local_shape = #ttcore<local_shape local_shape = tensor<4096xbf16>>, ttcore.shard_status = #ttcore.shard_status<presharded>, ttir.name = "L__self___model_model_layers__modules__0___input_layernorm_weight"} loc("p3.33"), %arg4: tensor<32x18xi64> {ttcore.argument_type = #ttcore.argument_type<input>, ttcore.local_shape = #ttcore<local_shape local_shape = tensor<32x18xi64>>, ttcore.shard_status = #ttcore.shard_status<presharded>, ttir.name = "args_0"} loc("p4.42"), %arg5: tensor<128256x8192xbf16> {ttcore.argument_type = #ttcore.argument_type<parameter>, ttcore.local_shape = #ttcore<local_shape local_shape = tensor<128256x4096xbf16>>, ttcore.shard_status = #ttcore.shard_status<presharded>, ttir.name = "model.model.embed_tokens.weight"} loc("p5.47"), %arg6: tensor<32x8x128x128xbf16> {ttcore.argument_type = #ttcore.argument_type<input>, ttcore.local_shape = #ttcore<local_shape local_shape = tensor<32x2x128x128xbf16>>, ttcore.shard_status = #ttcore.shard_status<presharded>, ttir.name = "args_2"} loc("p6.123"), %arg7: tensor<1024x8192xbf16> {ttcore.argument_type = #ttcore.argument_type<parameter>, ttcore.local_shape = #ttcore<local_shape local_shape = tensor<256x4096xbf16>>, ttcore.shard_status = #ttcore.shard_status<presharded>, ttir.name = "self___model_model_layers__modules__0___self_attn_v_proj__parameters__weight"} loc("p7.131"), %arg8: tensor<32x8x128x128xbf16> {ttcore.argument_type = #ttcore.argument_type<input>, ttcore.local_shape = #ttcore<local_shape local_shape = tensor<32x2x128x128xbf16>>, ttcore.shard_status = #ttcore.shard_status<presharded>, ttir.name = "args_3"} loc("p8.153"), %arg9: tensor<128256x8192xbf16> {ttcore.argument_type = #ttcore.argument_type<parameter>, ttcore.local_shape = #ttcore<local_shape local_shape = tensor<32064x4096xbf16>>, ttcore.shard_status = #ttcore.shard_status<presharded>, ttir.name = "self___model_lm_head__parameters__weight"} loc("p9.167"), %arg10: tensor<8192xbf16> {ttcore.argument_type = #ttcore.argument_type<parameter>, ttcore.local_shape = #ttcore<local_shape local_shape = tensor<4096xbf16>>, ttcore.shard_status = #ttcore.shard_status<presharded>, ttir.name = "model.model.norm.weight"} loc("p10.172"), %arg11: tensor<8192x28672xbf16> {ttcore.argument_type = #ttcore.argument_type<parameter>, ttcore.local_shape = #ttcore<local_shape local_shape = tensor<4096x7168xbf16>>, ttcore.shard_status = #ttcore.shard_status<presharded>, ttir.name = "self___model_model_layers__modules__0___mlp_down_proj__parameters__weight"} loc("p11.182"), %arg12: tensor<28672x8192xbf16> {ttcore.argument_type = #ttcore.argument_type<parameter>, ttcore.local_shape = #ttcore<local_shape local_shape = tensor<7168x4096xbf16>>, ttcore.shard_status = #ttcore.shard_status<presharded>, ttcore.weight_dtype = "bfp_bf4", ttir.name = "L__self___model_model_layers__modules__0___mlp_up_proj.parametrizations.weight.original"} loc("p12.187"), %arg13: tensor<8192xbf16> {ttcore.argument_type = #ttcore.argument_type<parameter>, ttcore.local_shape = #ttcore<local_shape local_shape = tensor<4096xbf16>>, ttcore.shard_status = #ttcore.shard_status<presharded>, ttir.name = "L__self___model_model_layers__modules__0___post_attention_layernorm_weight"} loc("p13.195"), %arg14: tensor<8192x8192xbf16> {ttcore.argument_type = #ttcore.argument_type<parameter>, ttcore.local_shape = #ttcore<local_shape local_shape = tensor<4096x2048xbf16>>, ttcore.shard_status = #ttcore.shard_status<presharded>, ttir.name = "self___model_model_layers__modules__0___self_attn_o_proj__parameters__weight"} loc("p14.205"), %arg15: tensor<8192x8192xbf16> {ttcore.argument_type = #ttcore.argument_type<parameter>, ttcore.local_shape = #ttcore<local_shape local_shape = tensor<2048x4096xbf16>>, ttcore.shard_status = #ttcore.shard_status<presharded>, ttir.name = "self___model_model_layers__modules__0___self_attn_q_proj__parameters__weight"} loc("p15.263"), %arg16: tensor<28672x8192xbf16> {ttcore.argument_type = #ttcore.argument_type<parameter>, ttcore.local_shape = #ttcore<local_shape local_shape = tensor<7168x4096xbf16>>, ttcore.shard_status = #ttcore.shard_status<presharded>, ttcore.weight_dtype = "bfp_bf4", ttir.name = "L__self___model_model_layers__modules__0___mlp_gate_proj.parametrizations.weight.original"} loc("p16.396")) -> (tensor<32x8x128x128xbf16> {ttcore.local_shape = #ttcore<local_shape local_shape = tensor<32x2x128x128xbf16>>, ttcore.shard_status = #ttcore.shard_status<presharded>}, tensor<32x8x128x128xbf16> {ttcore.local_shape = #ttcore<local_shape local_shape = tensor<32x2x128x128xbf16>>, ttcore.shard_status = #ttcore.shard_status<presharded>}, tensor<1xi64> {ttcore.local_shape = #ttcore<local_shape local_shape = tensor<1xi64>>, ttcore.shard_status = #ttcore.shard_status<presharded>}, tensor<32x1xi64> {ttcore.local_shape = #ttcore<local_shape local_shape = tensor<32x1xi64>>, ttcore.shard_status = #ttcore.shard_status<presharded>}) {
        %0 = "ttir.mesh_shard"(%arg0) <{shard_dims = array<i64: -1>, shard_direction = #ttcore.shard_direction<full_to_shard>, shard_shape = array<i64: 1>, shard_type = #ttcore.shard_type<identity>}> : (tensor<18xi64>) -> tensor<18xi64> loc(#loc)
        %1 = "ttir.mesh_shard"(%arg1) <{shard_dims = array<i64: -1>, shard_direction = #ttcore.shard_direction<full_to_shard>, shard_shape = array<i64: 1>, shard_type = #ttcore.shard_type<identity>}> : (tensor<64xbf16>) -> tensor<64xbf16> loc(#loc)
        %2 = "ttir.mesh_shard"(%arg2) <{shard_dims = array<i64: 1, 0>, shard_direction = #ttcore.shard_direction<full_to_shard>, shard_shape = array<i64: 4, 2>, shard_type = #ttcore.shard_type<identity>}> : (tensor<1024x8192xbf16>) -> tensor<256x4096xbf16> loc(#loc)
        %3 = "ttir.mesh_shard"(%arg3) <{shard_dims = array<i64: 0, -1>, shard_direction = #ttcore.shard_direction<full_to_shard>, shard_shape = array<i64: 2>, shard_type = #ttcore.shard_type<identity>}> : (tensor<8192xbf16>) -> tensor<4096xbf16> loc(#loc)
        %4 = "ttir.mesh_shard"(%arg4) <{shard_dims = array<i64: -1>, shard_direction = #ttcore.shard_direction<full_to_shard>, shard_shape = array<i64: 1>, shard_type = #ttcore.shard_type<identity>}> : (tensor<32x18xi64>) -> tensor<32x18xi64> loc(#loc)
        %5 = "ttir.mesh_shard"(%arg5) <{shard_dims = array<i64: 1, -1>, shard_direction = #ttcore.shard_direction<full_to_shard>, shard_shape = array<i64: 1, 2>, shard_type = #ttcore.shard_type<identity>}> : (tensor<128256x8192xbf16>) -> tensor<128256x4096xbf16> loc(#loc)
        %6 = "ttir.mesh_shard"(%arg6) <{shard_dims = array<i64: -1, 1>, shard_direction = #ttcore.shard_direction<full_to_shard>, shard_shape = array<i64: 1, 4, 1, 1>, shard_type = #ttcore.shard_type<identity>}> : (tensor<32x8x128x128xbf16>) -> tensor<32x2x128x128xbf16> loc(#loc)
        %7 = "ttir.mesh_shard"(%arg7) <{shard_dims = array<i64: 1, 0>, shard_direction = #ttcore.shard_direction<full_to_shard>, shard_shape = array<i64: 4, 2>, shard_type = #ttcore.shard_type<identity>}> : (tensor<1024x8192xbf16>) -> tensor<256x4096xbf16> loc(#loc)
        %8 = "ttir.mesh_shard"(%arg8) <{shard_dims = array<i64: -1, 1>, shard_direction = #ttcore.shard_direction<full_to_shard>, shard_shape = array<i64: 1, 4, 1, 1>, shard_type = #ttcore.shard_type<identity>}> : (tensor<32x8x128x128xbf16>) -> tensor<32x2x128x128xbf16> loc(#loc)
        %9 = "ttir.mesh_shard"(%arg9) <{shard_dims = array<i64: 1, 0>, shard_direction = #ttcore.shard_direction<full_to_shard>, shard_shape = array<i64: 4, 2>, shard_type = #ttcore.shard_type<identity>}> : (tensor<128256x8192xbf16>) -> tensor<32064x4096xbf16> loc(#loc)
        %10 = "ttir.mesh_shard"(%arg10) <{shard_dims = array<i64: 0, -1>, shard_direction = #ttcore.shard_direction<full_to_shard>, shard_shape = array<i64: 2>, shard_type = #ttcore.shard_type<identity>}> : (tensor<8192xbf16>) -> tensor<4096xbf16> loc(#loc)
        %11 = "ttir.mesh_shard"(%arg11) <{shard_dims = array<i64: 0, 1>, shard_direction = #ttcore.shard_direction<full_to_shard>, shard_shape = array<i64: 2, 4>, shard_type = #ttcore.shard_type<identity>}> : (tensor<8192x28672xbf16>) -> tensor<4096x7168xbf16> loc(#loc)
        %12 = "ttir.mesh_shard"(%arg12) <{shard_dims = array<i64: 1, 0>, shard_direction = #ttcore.shard_direction<full_to_shard>, shard_shape = array<i64: 4, 2>, shard_type = #ttcore.shard_type<identity>}> : (tensor<28672x8192xbf16>) -> tensor<7168x4096xbf16> loc(#loc)
        %13 = "ttir.mesh_shard"(%arg13) <{shard_dims = array<i64: 0, -1>, shard_direction = #ttcore.shard_direction<full_to_shard>, shard_shape = array<i64: 2>, shard_type = #ttcore.shard_type<identity>}> : (tensor<8192xbf16>) -> tensor<4096xbf16> loc(#loc)
        %14 = "ttir.mesh_shard"(%arg14) <{shard_dims = array<i64: 0, 1>, shard_direction = #ttcore.shard_direction<full_to_shard>, shard_shape = array<i64: 2, 4>, shard_type = #ttcore.shard_type<identity>}> : (tensor<8192x8192xbf16>) -> tensor<4096x2048xbf16> loc(#loc)
        %15 = "ttir.mesh_shard"(%arg15) <{shard_dims = array<i64: 1, 0>, shard_direction = #ttcore.shard_direction<full_to_shard>, shard_shape = array<i64: 4, 2>, shard_type = #ttcore.shard_type<identity>}> : (tensor<8192x8192xbf16>) -> tensor<2048x4096xbf16> loc(#loc)
        %16 = "ttir.mesh_shard"(%arg16) <{shard_dims = array<i64: 1, 0>, shard_direction = #ttcore.shard_direction<full_to_shard>, shard_shape = array<i64: 4, 2>, shard_type = #ttcore.shard_type<identity>}> : (tensor<28672x8192xbf16>) -> tensor<7168x4096xbf16> loc(#loc)
        %17 = "ttir.constant"() <{value = dense<0> : tensor<18xi64>}> : () -> tensor<18xi64> loc(#loc)
        %18 = "ttir.constant"() <{value = dense<128> : tensor<18xi64>}> : () -> tensor<18xi64> loc(#loc)
        %19 = "ttir.constant"() <{value = dense<1> : tensor<1xi64>}> : () -> tensor<1xi64> loc(#loc)
        %20 = "ttir.constant"() <{value = dense<0.297301769> : tensor<f32>}> : () -> tensor<f32> loc(#loc)
        %21 = "ttir.constant"() <{value = dense<"…"> : tensor<1x1x128xi64>}> : () -> tensor<1x1x128xi64> loc(#loc)
        %22 = "ttir.constant"() <{value = dense<0.000000e+00> : tensor<bf16>}> : () -> tensor<bf16> loc(#loc)
        %23 = "ttir.constant"() <{value = dense<0xFF80> : tensor<bf16>}> : () -> tensor<bf16> loc(#loc)
        %24 = "ttir.constant"() <{value = dense<0xFFF0000000000000> : tensor<f64>}> : () -> tensor<f64> loc(#loc)
        %25 = "ttir.constant"() <{value = dense<0.000000e+00> : tensor<f32>}> : () -> tensor<f32> loc(#loc)
        %26 = "ttir.reshape"(%25) <{shape = [1 : i32, 1 : i32, 1 : i32, 1 : i32]}> : (tensor<f32>) -> tensor<1x1x1x1xf32> loc(#loc)
        %27 = "ttir.broadcast"(%26) <{broadcast_dimensions = array<i64: 32, 16, 18, 128>}> : (tensor<1x1x1x1xf32>) -> tensor<32x16x18x128xf32> loc(#loc)
        %28 = "ttir.reshape"(%24) <{shape = [1 : i32, 1 : i32, 1 : i32, 1 : i32]}> : (tensor<f64>) -> tensor<1x1x1x1xf64> loc(#loc)
        %29 = "ttir.broadcast"(%28) <{broadcast_dimensions = array<i64: 32, 16, 18, 128>}> : (tensor<1x1x1x1xf64>) -> tensor<32x16x18x128xf64> loc(#loc)
        %30 = "ttir.reshape"(%23) <{shape = [1 : i32, 1 : i32, 1 : i32, 1 : i32]}> : (tensor<bf16>) -> tensor<1x1x1x1xbf16> loc(#loc)
        %31 = "ttir.broadcast"(%30) <{broadcast_dimensions = array<i64: 32, 1, 18, 128>}> : (tensor<1x1x1x1xbf16>) -> tensor<32x1x18x128xbf16> loc(#loc)
        %32 = "ttir.reshape"(%22) <{shape = [1 : i32, 1 : i32, 1 : i32, 1 : i32]}> : (tensor<bf16>) -> tensor<1x1x1x1xbf16> loc(#loc)
        %33 = "ttir.broadcast"(%32) <{broadcast_dimensions = array<i64: 32, 1, 18, 128>}> : (tensor<1x1x1x1xbf16>) -> tensor<32x1x18x128xbf16> loc(#loc)
        %34 = "ttir.reshape"(%20) <{shape = [1 : i32, 1 : i32, 1 : i32, 1 : i32]}> : (tensor<f32>) -> tensor<1x1x1x1xf32> loc(#loc)
        %35 = "ttir.broadcast"(%34) <{broadcast_dimensions = array<i64: 32, 16, 128, 128>}> : (tensor<1x1x1x1xf32>) -> tensor<32x16x128x128xf32> loc(#loc)
        %36 = "ttir.broadcast"(%34) <{broadcast_dimensions = array<i64: 32, 16, 18, 128>}> : (tensor<1x1x1x1xf32>) -> tensor<32x16x18x128xf32> loc(#loc)
        %37 = "ttir.reshape"(%0) <{shape = [1 : i32, 1 : i32, 18 : i32]}> : (tensor<18xi64>) -> tensor<1x1x18xi64> loc(#loc18)
        %38 = "ttir.lt"(%0, %17) : (tensor<18xi64>, tensor<18xi64>) -> tensor<18xi1> loc(#loc19)
        %39 = "ttir.add"(%0, %18) : (tensor<18xi64>, tensor<18xi64>) -> tensor<18xi64> loc(#loc20)
        %40 = "ttir.where"(%38, %39, %0) : (tensor<18xi1>, tensor<18xi64>, tensor<18xi64>) -> tensor<18xi64> loc(#loc21)
        %41 = "ttir.reshape"(%4) <{shape = [576 : i32]}> : (tensor<32x18xi64>) -> tensor<576xi64> loc(#loc150)
        %42 = "ttir.typecast"(%41) <{conservative_folding = false}> : (tensor<576xi64>) -> tensor<576xui32> loc(#loc24)
        %43 = "ttir.permute"(%5) <{permutation = array<i64: 0, 1>}> : (tensor<128256x4096xbf16>) -> tensor<128256x4096xbf16> loc(#loc151)
        %44 = "ttir.reshape"(%43) <{shape = [128256 : i32, 4096 : i32]}> : (tensor<128256x4096xbf16>) -> tensor<128256x4096xbf16> loc(#loc152)
        %45 = "ttir.reshape"(%42) <{shape = [1 : i32, 576 : i32]}> : (tensor<576xui32>) -> tensor<1x576xui32> loc(#loc153)
        %46 = "ttir.embedding"(%45, %44) : (tensor<1x576xui32>, tensor<128256x4096xbf16>) -> tensor<1x576x4096xbf16> loc(#loc25)
        %47 = "ttir.reshape"(%46) <{shape = [576 : i32, 4096 : i32]}> : (tensor<1x576x4096xbf16>) -> tensor<576x4096xbf16> loc(#loc154)
        %48 = "ttir.permute"(%47) <{permutation = array<i64: 0, 1>}> : (tensor<576x4096xbf16>) -> tensor<576x4096xbf16> loc(#loc155)
        %49 = "ttir.reshape"(%48) <{shape = [32 : i32, 18 : i32, 4096 : i32]}> : (tensor<576x4096xbf16>) -> tensor<32x18x4096xbf16> loc(#loc26)
        %50 = "ttir.distributed_rms_norm"(%49, %3) <{cluster_axis = 0 : ui32, epsilon = 9.99999974E-6 : f32, operandSegmentSizes = array<i32: 1, 1, 0>}> : (tensor<32x18x4096xbf16>, tensor<4096xbf16>) -> tensor<32x18x4096xbf16> loc(#loc27)
        %51 = "ttir.reshape"(%50) <{shape = [576 : i32, 4096 : i32]}> : (tensor<32x18x4096xbf16>) -> tensor<576x4096xbf16> loc(#loc28)
        %52 = "ttir.permute"(%2) <{permutation = array<i64: 1, 0>}> : (tensor<256x4096xbf16>) -> tensor<4096x256xbf16> loc(#loc29)
        %53 = "ttir.dot_general"(%51, %52) <{batch_dims_lhs = array<i64>, batch_dims_rhs = array<i64>, contract_dims_lhs = array<i64: 1>, contract_dims_rhs = array<i64: 0>}> : (tensor<576x4096xbf16>, tensor<4096x256xbf16>) -> tensor<576x256xbf16> loc(#loc30)
        %54 = "ttir.all_reduce"(%53) <{cluster_axis = 0 : ui32, reduce_type = #ttcore.reduce_type<sum>}> : (tensor<576x256xbf16>) -> tensor<576x256xbf16> loc(#loc30)
        %55 = "ttir.reshape"(%54) <{shape = [32 : i32, 18 : i32, 2 : i32, 128 : i32]}> : (tensor<576x256xbf16>) -> tensor<32x18x2x128xbf16> loc(#loc31)
        %56 = "ttir.permute"(%55) <{permutation = array<i64: 0, 2, 1, 3>}> : (tensor<32x18x2x128xbf16>) -> tensor<32x2x18x128xbf16> loc(#loc32)
        %57 = "ttir.reshape"(%1) <{shape = [1 : i32, 64 : i32, 1 : i32]}> : (tensor<64xbf16>) -> tensor<1x64x1xbf16> loc(#loc156)
        %58 = "ttir.typecast"(%57) <{conservative_folding = false}> : (tensor<1x64x1xbf16>) -> tensor<1x64x1xf32> loc(#loc35)
        %59 = "ttir.typecast"(%37) <{conservative_folding = false}> : (tensor<1x1x18xi64>) -> tensor<1x1x18xf32> loc(#loc36)
        %60 = "ttir.dot_general"(%58, %59) <{batch_dims_lhs = array<i64: 0>, batch_dims_rhs = array<i64: 0>, contract_dims_lhs = array<i64: 2>, contract_dims_rhs = array<i64: 1>}> : (tensor<1x64x1xf32>, tensor<1x1x18xf32>) -> tensor<1x64x18xf32> loc(#loc37)
        %61 = "ttir.permute"(%60) <{permutation = array<i64: 0, 2, 1>}> : (tensor<1x64x18xf32>) -> tensor<1x18x64xf32> loc(#loc38)
        %62 = "ttir.concat"(%61, %61) <{dim = 2 : si32}> : (tensor<1x18x64xf32>, tensor<1x18x64xf32>) -> tensor<1x18x128xf32> loc(#loc39)
        %63 = "ttir.cos"(%62) : (tensor<1x18x128xf32>) -> tensor<1x18x128xf32> loc(#loc40)
        %64 = "ttir.typecast"(%63) <{conservative_folding = false}> : (tensor<1x18x128xf32>) -> tensor<1x18x128xbf16> loc(#loc41)
        %65 = "ttir.reshape"(%64) <{shape = [18 : i32, 128 : i32]}> : (tensor<1x18x128xbf16>) -> tensor<18x128xbf16> loc(#loc42)
        %66 = "ttir.reshape"(%65) <{shape = [1 : i32, 1 : i32, 18 : i32, 128 : i32]}> : (tensor<18x128xbf16>) -> tensor<1x1x18x128xbf16> loc(#loc43)
        %67 = "ttir.broadcast"(%66) <{broadcast_dimensions = array<i64: 32, 2, 1, 1>}> : (tensor<1x1x18x128xbf16>) -> tensor<32x2x18x128xbf16> loc(#loc43)
        %68 = "ttir.multiply"(%56, %67) : (tensor<32x2x18x128xbf16>, tensor<32x2x18x128xbf16>) -> tensor<32x2x18x128xbf16> loc(#loc44)
        %69 = "ttir.slice_static"(%56) <{begins = [0 : i32, 0 : i32, 0 : i32, 64 : i32], ends = [32 : i32, 2 : i32, 18 : i32, 128 : i32], step = [1 : i32, 1 : i32, 1 : i32, 1 : i32]}> : (tensor<32x2x18x128xbf16>) -> tensor<32x2x18x64xbf16> loc(#loc45)
        %70 = "ttir.neg"(%69) : (tensor<32x2x18x64xbf16>) -> tensor<32x2x18x64xbf16> loc(#loc46)
        %71 = "ttir.slice_static"(%56) <{begins = [0 : i32, 0 : i32, 0 : i32, 0 : i32], ends = [32 : i32, 2 : i32, 18 : i32, 64 : i32], step = [1 : i32, 1 : i32, 1 : i32, 1 : i32]}> : (tensor<32x2x18x128xbf16>) -> tensor<32x2x18x64xbf16> loc(#loc47)
        %72 = "ttir.concat"(%70, %71) <{dim = 3 : si32}> : (tensor<32x2x18x64xbf16>, tensor<32x2x18x64xbf16>) -> tensor<32x2x18x128xbf16> loc(#loc48)
        %73 = "ttir.sin"(%62) : (tensor<1x18x128xf32>) -> tensor<1x18x128xf32> loc(#loc49)
        %74 = "ttir.typecast"(%73) <{conservative_folding = false}> : (tensor<1x18x128xf32>) -> tensor<1x18x128xbf16> loc(#loc50)
        %75 = "ttir.reshape"(%74) <{shape = [18 : i32, 128 : i32]}> : (tensor<1x18x128xbf16>) -> tensor<18x128xbf16> loc(#loc51)
        %76 = "ttir.reshape"(%75) <{shape = [1 : i32, 1 : i32, 18 : i32, 128 : i32]}> : (tensor<18x128xbf16>) -> tensor<1x1x18x128xbf16> loc(#loc52)
        %77 = "ttir.broadcast"(%76) <{broadcast_dimensions = array<i64: 32, 2, 1, 1>}> : (tensor<1x1x18x128xbf16>) -> tensor<32x2x18x128xbf16> loc(#loc52)
        %78 = "ttir.multiply"(%72, %77) : (tensor<32x2x18x128xbf16>, tensor<32x2x18x128xbf16>) -> tensor<32x2x18x128xbf16> loc(#loc53)
        %79 = "ttir.add"(%68, %78) : (tensor<32x2x18x128xbf16>, tensor<32x2x18x128xbf16>) -> tensor<32x2x18x128xbf16> loc(#loc54)
        %80 = "ttir.slice_static"(%79) <{begins = [0 : i32, 0 : i32, 0 : i32, 0 : i32], ends = [1 : i32, 2 : i32, 18 : i32, 128 : i32], step = [1 : i32, 1 : i32, 1 : i32, 1 : i32]}> : (tensor<32x2x18x128xbf16>) -> tensor<1x2x18x128xbf16> loc(#loc55)
        "ttir.fill_cache"(%6, %80) <{batch_offset = 0 : i32}> : (tensor<32x2x128x128xbf16>, tensor<1x2x18x128xbf16>) -> () loc(#loc55)
        %81 = "ttir.slice_static"(%79) <{begins = [1 : i32, 0 : i32, 0 : i32, 0 : i32], ends = [2 : i32, 2 : i32, 18 : i32, 128 : i32], step = [1 : i32, 1 : i32, 1 : i32, 1 : i32]}> : (tensor<32x2x18x128xbf16>) -> tensor<1x2x18x128xbf16> loc(#loc55)
        "ttir.fill_cache"(%6, %81) <{batch_offset = 1 : i32}> : (tensor<32x2x128x128xbf16>, tensor<1x2x18x128xbf16>) -> () loc(#loc55)
        %82 = "ttir.slice_static"(%79) <{begins = [2 : i32, 0 : i32, 0 : i32, 0 : i32], ends = [3 : i32, 2 : i32, 18 : i32, 128 : i32], step = [1 : i32, 1 : i32, 1 : i32, 1 : i32]}> : (tensor<32x2x18x128xbf16>) -> tensor<1x2x18x128xbf16> loc(#loc55)
        "ttir.fill_cache"(%6, %82) <{batch_offset = 2 : i32}> : (tensor<32x2x128x128xbf16>, tensor<1x2x18x128xbf16>) -> () loc(#loc55)
        %83 = "ttir.slice_static"(%79) <{begins = [3 : i32, 0 : i32, 0 : i32, 0 : i32], ends = [4 : i32, 2 : i32, 18 : i32, 128 : i32], step = [1 : i32, 1 : i32, 1 : i32, 1 : i32]}> : (tensor<32x2x18x128xbf16>) -> tensor<1x2x18x128xbf16> loc(#loc55)
        "ttir.fill_cache"(%6, %83) <{batch_offset = 3 : i32}> : (tensor<32x2x128x128xbf16>, tensor<1x2x18x128xbf16>) -> () loc(#loc55)
        %84 = "ttir.slice_static"(%79) <{begins = [4 : i32, 0 : i32, 0 : i32, 0 : i32], ends = [5 : i32, 2 : i32, 18 : i32, 128 : i32], step = [1 : i32, 1 : i32, 1 : i32, 1 : i32]}> : (tensor<32x2x18x128xbf16>) -> tensor<1x2x18x128xbf16> loc(#loc55)
        "ttir.fill_cache"(%6, %84) <{batch_offset = 4 : i32}> : (tensor<32x2x128x128xbf16>, tensor<1x2x18x128xbf16>) -> () loc(#loc55)
        %85 = "ttir.slice_static"(%79) <{begins = [5 : i32, 0 : i32, 0 : i32, 0 : i32], ends = [6 : i32, 2 : i32, 18 : i32, 128 : i32], step = [1 : i32, 1 : i32, 1 : i32, 1 : i32]}> : (tensor<32x2x18x128xbf16>) -> tensor<1x2x18x128xbf16> loc(#loc55)
        "ttir.fill_cache"(%6, %85) <{batch_offset = 5 : i32}> : (tensor<32x2x128x128xbf16>, tensor<1x2x18x128xbf16>) -> () loc(#loc55)
        %86 = "ttir.slice_static"(%79) <{begins = [6 : i32, 0 : i32, 0 : i32, 0 : i32], ends = [7 : i32, 2 : i32, 18 : i32, 128 : i32], step = [1 : i32, 1 : i32, 1 : i32, 1 : i32]}> : (tensor<32x2x18x128xbf16>) -> tensor<1x2x18x128xbf16> loc(#loc55)
        "ttir.fill_cache"(%6, %86) <{batch_offset = 6 : i32}> : (tensor<32x2x128x128xbf16>, tensor<1x2x18x128xbf16>) -> () loc(#loc55)
        %87 = "ttir.slice_static"(%79) <{begins = [7 : i32, 0 : i32, 0 : i32, 0 : i32], ends = [8 : i32, 2 : i32, 18 : i32, 128 : i32], step = [1 : i32, 1 : i32, 1 : i32, 1 : i32]}> : (tensor<32x2x18x128xbf16>) -> tensor<1x2x18x128xbf16> loc(#loc55)
        "ttir.fill_cache"(%6, %87) <{batch_offset = 7 : i32}> : (tensor<32x2x128x128xbf16>, tensor<1x2x18x128xbf16>) -> () loc(#loc55)
        %88 = "ttir.slice_static"(%79) <{begins = [8 : i32, 0 : i32, 0 : i32, 0 : i32], ends = [9 : i32, 2 : i32, 18 : i32, 128 : i32], step = [1 : i32, 1 : i32, 1 : i32, 1 : i32]}> : (tensor<32x2x18x128xbf16>) -> tensor<1x2x18x128xbf16> loc(#loc55)
        "ttir.fill_cache"(%6, %88) <{batch_offset = 8 : i32}> : (tensor<32x2x128x128xbf16>, tensor<1x2x18x128xbf16>) -> () loc(#loc55)
        %89 = "ttir.slice_static"(%79) <{begins = [9 : i32, 0 : i32, 0 : i32, 0 : i32], ends = [10 : i32, 2 : i32, 18 : i32, 128 : i32], step = [1 : i32, 1 : i32, 1 : i32, 1 : i32]}> : (tensor<32x2x18x128xbf16>) -> tensor<1x2x18x128xbf16> loc(#loc55)
        "ttir.fill_cache"(%6, %89) <{batch_offset = 9 : i32}> : (tensor<32x2x128x128xbf16>, tensor<1x2x18x128xbf16>) -> () loc(#loc55)
        %90 = "ttir.slice_static"(%79) <{begins = [10 : i32, 0 : i32, 0 : i32, 0 : i32], ends = [11 : i32, 2 : i32, 18 : i32, 128 : i32], step = [1 : i32, 1 : i32, 1 : i32, 1 : i32]}> : (tensor<32x2x18x128xbf16>) -> tensor<1x2x18x128xbf16> loc(#loc55)
        "ttir.fill_cache"(%6, %90) <{batch_offset = 10 : i32}> : (tensor<32x2x128x128xbf16>, tensor<1x2x18x128xbf16>) -> () loc(#loc55)
        %91 = "ttir.slice_static"(%79) <{begins = [11 : i32, 0 : i32, 0 : i32, 0 : i32], ends = [12 : i32, 2 : i32, 18 : i32, 128 : i32], step = [1 : i32, 1 : i32, 1 : i32, 1 : i32]}> : (tensor<32x2x18x128xbf16>) -> tensor<1x2x18x128xbf16> loc(#loc55)
        "ttir.fill_cache"(%6, %91) <{batch_offset = 11 : i32}> : (tensor<32x2x128x128xbf16>, tensor<1x2x18x128xbf16>) -> () loc(#loc55)
        %92 = "ttir.slice_static"(%79) <{begins = [12 : i32, 0 : i32, 0 : i32, 0 : i32], ends = [13 : i32, 2 : i32, 18 : i32, 128 : i32], step = [1 : i32, 1 : i32, 1 : i32, 1 : i32]}> : (tensor<32x2x18x128xbf16>) -> tensor<1x2x18x128xbf16> loc(#loc55)
        "ttir.fill_cache"(%6, %92) <{batch_offset = 12 : i32}> : (tensor<32x2x128x128xbf16>, tensor<1x2x18x128xbf16>) -> () loc(#loc55)
        %93 = "ttir.slice_static"(%79) <{begins = [13 : i32, 0 : i32, 0 : i32, 0 : i32], ends = [14 : i32, 2 : i32, 18 : i32, 128 : i32], step = [1 : i32, 1 : i32, 1 : i32, 1 : i32]}> : (tensor<32x2x18x128xbf16>) -> tensor<1x2x18x128xbf16> loc(#loc55)
        "ttir.fill_cache"(%6, %93) <{batch_offset = 13 : i32}> : (tensor<32x2x128x128xbf16>, tensor<1x2x18x128xbf16>) -> () loc(#loc55)
        %94 = "ttir.slice_static"(%79) <{begins = [14 : i32, 0 : i32, 0 : i32, 0 : i32], ends = [15 : i32, 2 : i32, 18 : i32, 128 : i32], step = [1 : i32, 1 : i32, 1 : i32, 1 : i32]}> : (tensor<32x2x18x128xbf16>) -> tensor<1x2x18x128xbf16> loc(#loc55)
        "ttir.fill_cache"(%6, %94) <{batch_offset = 14 : i32}> : (tensor<32x2x128x128xbf16>, tensor<1x2x18x128xbf16>) -> () loc(#loc55)
        %95 = "ttir.slice_static"(%79) <{begins = [15 : i32, 0 : i32, 0 : i32, 0 : i32], ends = [16 : i32, 2 : i32, 18 : i32, 128 : i32], step = [1 : i32, 1 : i32, 1 : i32, 1 : i32]}> : (tensor<32x2x18x128xbf16>) -> tensor<1x2x18x128xbf16> loc(#loc55)
        "ttir.fill_cache"(%6, %95) <{batch_offset = 15 : i32}> : (tensor<32x2x128x128xbf16>, tensor<1x2x18x128xbf16>) -> () loc(#loc55)
        %96 = "ttir.slice_static"(%79) <{begins = [16 : i32, 0 : i32, 0 : i32, 0 : i32], ends = [17 : i32, 2 : i32, 18 : i32, 128 : i32], step = [1 : i32, 1 : i32, 1 : i32, 1 : i32]}> : (tensor<32x2x18x128xbf16>) -> tensor<1x2x18x128xbf16> loc(#loc55)
        "ttir.fill_cache"(%6, %96) <{batch_offset = 16 : i32}> : (tensor<32x2x128x128xbf16>, tensor<1x2x18x128xbf16>) -> () loc(#loc55)
        %97 = "ttir.slice_static"(%79) <{begins = [17 : i32, 0 : i32, 0 : i32, 0 : i32], ends = [18 : i32, 2 : i32, 18 : i32, 128 : i32], step = [1 : i32, 1 : i32, 1 : i32, 1 : i32]}> : (tensor<32x2x18x128xbf16>) -> tensor<1x2x18x128xbf16> loc(#loc55)
        "ttir.fill_cache"(%6, %97) <{batch_offset = 17 : i32}> : (tensor<32x2x128x128xbf16>, tensor<1x2x18x128xbf16>) -> () loc(#loc55)
        %98 = "ttir.slice_static"(%79) <{begins = [18 : i32, 0 : i32, 0 : i32, 0 : i32], ends = [19 : i32, 2 : i32, 18 : i32, 128 : i32], step = [1 : i32, 1 : i32, 1 : i32, 1 : i32]}> : (tensor<32x2x18x128xbf16>) -> tensor<1x2x18x128xbf16> loc(#loc55)
        "ttir.fill_cache"(%6, %98) <{batch_offset = 18 : i32}> : (tensor<32x2x128x128xbf16>, tensor<1x2x18x128xbf16>) -> () loc(#loc55)
        %99 = "ttir.slice_static"(%79) <{begins = [19 : i32, 0 : i32, 0 : i32, 0 : i32], ends = [20 : i32, 2 : i32, 18 : i32, 128 : i32], step = [1 : i32, 1 : i32, 1 : i32, 1 : i32]}> : (tensor<32x2x18x128xbf16>) -> tensor<1x2x18x128xbf16> loc(#loc55)
        "ttir.fill_cache"(%6, %99) <{batch_offset = 19 : i32}> : (tensor<32x2x128x128xbf16>, tensor<1x2x18x128xbf16>) -> () loc(#loc55)
        %100 = "ttir.slice_static"(%79) <{begins = [20 : i32, 0 : i32, 0 : i32, 0 : i32], ends = [21 : i32, 2 : i32, 18 : i32, 128 : i32], step = [1 : i32, 1 : i32, 1 : i32, 1 : i32]}> : (tensor<32x2x18x128xbf16>) -> tensor<1x2x18x128xbf16> loc(#loc55)
        "ttir.fill_cache"(%6, %100) <{batch_offset = 20 : i32}> : (tensor<32x2x128x128xbf16>, tensor<1x2x18x128xbf16>) -> () loc(#loc55)
        %101 = "ttir.slice_static"(%79) <{begins = [21 : i32, 0 : i32, 0 : i32, 0 : i32], ends = [22 : i32, 2 : i32, 18 : i32, 128 : i32], step = [1 : i32, 1 : i32, 1 : i32, 1 : i32]}> : (tensor<32x2x18x128xbf16>) -> tensor<1x2x18x128xbf16> loc(#loc55)
        "ttir.fill_cache"(%6, %101) <{batch_offset = 21 : i32}> : (tensor<32x2x128x128xbf16>, tensor<1x2x18x128xbf16>) -> () loc(#loc55)
        %102 = "ttir.slice_static"(%79) <{begins = [22 : i32, 0 : i32, 0 : i32, 0 : i32], ends = [23 : i32, 2 : i32, 18 : i32, 128 : i32], step = [1 : i32, 1 : i32, 1 : i32, 1 : i32]}> : (tensor<32x2x18x128xbf16>) -> tensor<1x2x18x128xbf16> loc(#loc55)
        "ttir.fill_cache"(%6, %102) <{batch_offset = 22 : i32}> : (tensor<32x2x128x128xbf16>, tensor<1x2x18x128xbf16>) -> () loc(#loc55)
        %103 = "ttir.slice_static"(%79) <{begins = [23 : i32, 0 : i32, 0 : i32, 0 : i32], ends = [24 : i32, 2 : i32, 18 : i32, 128 : i32], step = [1 : i32, 1 : i32, 1 : i32, 1 : i32]}> : (tensor<32x2x18x128xbf16>) -> tensor<1x2x18x128xbf16> loc(#loc55)
        "ttir.fill_cache"(%6, %103) <{batch_offset = 23 : i32}> : (tensor<32x2x128x128xbf16>, tensor<1x2x18x128xbf16>) -> () loc(#loc55)
        %104 = "ttir.slice_static"(%79) <{begins = [24 : i32, 0 : i32, 0 : i32, 0 : i32], ends = [25 : i32, 2 : i32, 18 : i32, 128 : i32], step = [1 : i32, 1 : i32, 1 : i32, 1 : i32]}> : (tensor<32x2x18x128xbf16>) -> tensor<1x2x18x128xbf16> loc(#loc55)
        "ttir.fill_cache"(%6, %104) <{batch_offset = 24 : i32}> : (tensor<32x2x128x128xbf16>, tensor<1x2x18x128xbf16>) -> () loc(#loc55)
        %105 = "ttir.slice_static"(%79) <{begins = [25 : i32, 0 : i32, 0 : i32, 0 : i32], ends = [26 : i32, 2 : i32, 18 : i32, 128 : i32], step = [1 : i32, 1 : i32, 1 : i32, 1 : i32]}> : (tensor<32x2x18x128xbf16>) -> tensor<1x2x18x128xbf16> loc(#loc55)
        "ttir.fill_cache"(%6, %105) <{batch_offset = 25 : i32}> : (tensor<32x2x128x128xbf16>, tensor<1x2x18x128xbf16>) -> () loc(#loc55)
        %106 = "ttir.slice_static"(%79) <{begins = [26 : i32, 0 : i32, 0 : i32, 0 : i32], ends = [27 : i32, 2 : i32, 18 : i32, 128 : i32], step = [1 : i32, 1 : i32, 1 : i32, 1 : i32]}> : (tensor<32x2x18x128xbf16>) -> tensor<1x2x18x128xbf16> loc(#loc55)
        "ttir.fill_cache"(%6, %106) <{batch_offset = 26 : i32}> : (tensor<32x2x128x128xbf16>, tensor<1x2x18x128xbf16>) -> () loc(#loc55)
        %107 = "ttir.slice_static"(%79) <{begins = [27 : i32, 0 : i32, 0 : i32, 0 : i32], ends = [28 : i32, 2 : i32, 18 : i32, 128 : i32], step = [1 : i32, 1 : i32, 1 : i32, 1 : i32]}> : (tensor<32x2x18x128xbf16>) -> tensor<1x2x18x128xbf16> loc(#loc55)
        "ttir.fill_cache"(%6, %107) <{batch_offset = 27 : i32}> : (tensor<32x2x128x128xbf16>, tensor<1x2x18x128xbf16>) -> () loc(#loc55)
        %108 = "ttir.slice_static"(%79) <{begins = [28 : i32, 0 : i32, 0 : i32, 0 : i32], ends = [29 : i32, 2 : i32, 18 : i32, 128 : i32], step = [1 : i32, 1 : i32, 1 : i32, 1 : i32]}> : (tensor<32x2x18x128xbf16>) -> tensor<1x2x18x128xbf16> loc(#loc55)
        "ttir.fill_cache"(%6, %108) <{batch_offset = 28 : i32}> : (tensor<32x2x128x128xbf16>, tensor<1x2x18x128xbf16>) -> () loc(#loc55)
        %109 = "ttir.slice_static"(%79) <{begins = [29 : i32, 0 : i32, 0 : i32, 0 : i32], ends = [30 : i32, 2 : i32, 18 : i32, 128 : i32], step = [1 : i32, 1 : i32, 1 : i32, 1 : i32]}> : (tensor<32x2x18x128xbf16>) -> tensor<1x2x18x128xbf16> loc(#loc55)
        "ttir.fill_cache"(%6, %109) <{batch_offset = 29 : i32}> : (tensor<32x2x128x128xbf16>, tensor<1x2x18x128xbf16>) -> () loc(#loc55)
        %110 = "ttir.slice_static"(%79) <{begins = [30 : i32, 0 : i32, 0 : i32, 0 : i32], ends = [31 : i32, 2 : i32, 18 : i32, 128 : i32], step = [1 : i32, 1 : i32, 1 : i32, 1 : i32]}> : (tensor<32x2x18x128xbf16>) -> tensor<1x2x18x128xbf16> loc(#loc55)
        "ttir.fill_cache"(%6, %110) <{batch_offset = 30 : i32}> : (tensor<32x2x128x128xbf16>, tensor<1x2x18x128xbf16>) -> () loc(#loc55)
        %111 = "ttir.slice_static"(%79) <{begins = [31 : i32, 0 : i32, 0 : i32, 0 : i32], ends = [32 : i32, 2 : i32, 18 : i32, 128 : i32], step = [1 : i32, 1 : i32, 1 : i32, 1 : i32]}> : (tensor<32x2x18x128xbf16>) -> tensor<1x2x18x128xbf16> loc(#loc55)
        "ttir.fill_cache"(%6, %111) <{batch_offset = 31 : i32}> : (tensor<32x2x128x128xbf16>, tensor<1x2x18x128xbf16>) -> () loc(#loc55)
        %112 = "ttir.permute"(%7) <{permutation = array<i64: 1, 0>}> : (tensor<256x4096xbf16>) -> tensor<4096x256xbf16> loc(#loc56)
        %113 = "ttir.dot_general"(%51, %112) <{batch_dims_lhs = array<i64>, batch_dims_rhs = array<i64>, contract_dims_lhs = array<i64: 1>, contract_dims_rhs = array<i64: 0>}> : (tensor<576x4096xbf16>, tensor<4096x256xbf16>) -> tensor<576x256xbf16> loc(#loc57)
        %114 = "ttir.all_reduce"(%113) <{cluster_axis = 0 : ui32, reduce_type = #ttcore.reduce_type<sum>}> : (tensor<576x256xbf16>) -> tensor<576x256xbf16> loc(#loc57)
        %115 = "ttir.reshape"(%114) <{shape = [32 : i32, 18 : i32, 2 : i32, 128 : i32]}> : (tensor<576x256xbf16>) -> tensor<32x18x2x128xbf16> loc(#loc58)
        %116 = "ttir.permute"(%115) <{permutation = array<i64: 0, 2, 1, 3>}> : (tensor<32x18x2x128xbf16>) -> tensor<32x2x18x128xbf16> loc(#loc59)
        %117 = "ttir.slice_static"(%116) <{begins = [0 : i32, 0 : i32, 0 : i32, 0 : i32], ends = [1 : i32, 2 : i32, 18 : i32, 128 : i32], step = [1 : i32, 1 : i32, 1 : i32, 1 : i32]}> : (tensor<32x2x18x128xbf16>) -> tensor<1x2x18x128xbf16> loc(#loc60)
        "ttir.fill_cache"(%8, %117) <{batch_offset = 0 : i32}> : (tensor<32x2x128x128xbf16>, tensor<1x2x18x128xbf16>) -> () loc(#loc60)
        %118 = "ttir.slice_static"(%116) <{begins = [1 : i32, 0 : i32, 0 : i32, 0 : i32], ends = [2 : i32, 2 : i32, 18 : i32, 128 : i32], step = [1 : i32, 1 : i32, 1 : i32, 1 : i32]}> : (tensor<32x2x18x128xbf16>) -> tensor<1x2x18x128xbf16> loc(#loc60)
        "ttir.fill_cache"(%8, %118) <{batch_offset = 1 : i32}> : (tensor<32x2x128x128xbf16>, tensor<1x2x18x128xbf16>) -> () loc(#loc60)
        %119 = "ttir.slice_static"(%116) <{begins = [2 : i32, 0 : i32, 0 : i32, 0 : i32], ends = [3 : i32, 2 : i32, 18 : i32, 128 : i32], step = [1 : i32, 1 : i32, 1 : i32, 1 : i32]}> : (tensor<32x2x18x128xbf16>) -> tensor<1x2x18x128xbf16> loc(#loc60)
        "ttir.fill_cache"(%8, %119) <{batch_offset = 2 : i32}> : (tensor<32x2x128x128xbf16>, tensor<1x2x18x128xbf16>) -> () loc(#loc60)
        %120 = "ttir.slice_static"(%116) <{begins = [3 : i32, 0 : i32, 0 : i32, 0 : i32], ends = [4 : i32, 2 : i32, 18 : i32, 128 : i32], step = [1 : i32, 1 : i32, 1 : i32, 1 : i32]}> : (tensor<32x2x18x128xbf16>) -> tensor<1x2x18x128xbf16> loc(#loc60)
        "ttir.fill_cache"(%8, %120) <{batch_offset = 3 : i32}> : (tensor<32x2x128x128xbf16>, tensor<1x2x18x128xbf16>) -> () loc(#loc60)
        %121 = "ttir.slice_static"(%116) <{begins = [4 : i32, 0 : i32, 0 : i32, 0 : i32], ends = [5 : i32, 2 : i32, 18 : i32, 128 : i32], step = [1 : i32, 1 : i32, 1 : i32, 1 : i32]}> : (tensor<32x2x18x128xbf16>) -> tensor<1x2x18x128xbf16> loc(#loc60)
        "ttir.fill_cache"(%8, %121) <{batch_offset = 4 : i32}> : (tensor<32x2x128x128xbf16>, tensor<1x2x18x128xbf16>) -> () loc(#loc60)
        %122 = "ttir.slice_static"(%116) <{begins = [5 : i32, 0 : i32, 0 : i32, 0 : i32], ends = [6 : i32, 2 : i32, 18 : i32, 128 : i32], step = [1 : i32, 1 : i32, 1 : i32, 1 : i32]}> : (tensor<32x2x18x128xbf16>) -> tensor<1x2x18x128xbf16> loc(#loc60)
        "ttir.fill_cache"(%8, %122) <{batch_offset = 5 : i32}> : (tensor<32x2x128x128xbf16>, tensor<1x2x18x128xbf16>) -> () loc(#loc60)
        %123 = "ttir.slice_static"(%116) <{begins = [6 : i32, 0 : i32, 0 : i32, 0 : i32], ends = [7 : i32, 2 : i32, 18 : i32, 128 : i32], step = [1 : i32, 1 : i32, 1 : i32, 1 : i32]}> : (tensor<32x2x18x128xbf16>) -> tensor<1x2x18x128xbf16> loc(#loc60)
        "ttir.fill_cache"(%8, %123) <{batch_offset = 6 : i32}> : (tensor<32x2x128x128xbf16>, tensor<1x2x18x128xbf16>) -> () loc(#loc60)
        %124 = "ttir.slice_static"(%116) <{begins = [7 : i32, 0 : i32, 0 : i32, 0 : i32], ends = [8 : i32, 2 : i32, 18 : i32, 128 : i32], step = [1 : i32, 1 : i32, 1 : i32, 1 : i32]}> : (tensor<32x2x18x128xbf16>) -> tensor<1x2x18x128xbf16> loc(#loc60)
        "ttir.fill_cache"(%8, %124) <{batch_offset = 7 : i32}> : (tensor<32x2x128x128xbf16>, tensor<1x2x18x128xbf16>) -> () loc(#loc60)
        %125 = "ttir.slice_static"(%116) <{begins = [8 : i32, 0 : i32, 0 : i32, 0 : i32], ends = [9 : i32, 2 : i32, 18 : i32, 128 : i32], step = [1 : i32, 1 : i32, 1 : i32, 1 : i32]}> : (tensor<32x2x18x128xbf16>) -> tensor<1x2x18x128xbf16> loc(#loc60)
        "ttir.fill_cache"(%8, %125) <{batch_offset = 8 : i32}> : (tensor<32x2x128x128xbf16>, tensor<1x2x18x128xbf16>) -> () loc(#loc60)
        %126 = "ttir.slice_static"(%116) <{begins = [9 : i32, 0 : i32, 0 : i32, 0 : i32], ends = [10 : i32, 2 : i32, 18 : i32, 128 : i32], step = [1 : i32, 1 : i32, 1 : i32, 1 : i32]}> : (tensor<32x2x18x128xbf16>) -> tensor<1x2x18x128xbf16> loc(#loc60)
        "ttir.fill_cache"(%8, %126) <{batch_offset = 9 : i32}> : (tensor<32x2x128x128xbf16>, tensor<1x2x18x128xbf16>) -> () loc(#loc60)
        %127 = "ttir.slice_static"(%116) <{begins = [10 : i32, 0 : i32, 0 : i32, 0 : i32], ends = [11 : i32, 2 : i32, 18 : i32, 128 : i32], step = [1 : i32, 1 : i32, 1 : i32, 1 : i32]}> : (tensor<32x2x18x128xbf16>) -> tensor<1x2x18x128xbf16> loc(#loc60)
        "ttir.fill_cache"(%8, %127) <{batch_offset = 10 : i32}> : (tensor<32x2x128x128xbf16>, tensor<1x2x18x128xbf16>) -> () loc(#loc60)
        %128 = "ttir.slice_static"(%116) <{begins = [11 : i32, 0 : i32, 0 : i32, 0 : i32], ends = [12 : i32, 2 : i32, 18 : i32, 128 : i32], step = [1 : i32, 1 : i32, 1 : i32, 1 : i32]}> : (tensor<32x2x18x128xbf16>) -> tensor<1x2x18x128xbf16> loc(#loc60)
        "ttir.fill_cache"(%8, %128) <{batch_offset = 11 : i32}> : (tensor<32x2x128x128xbf16>, tensor<1x2x18x128xbf16>) -> () loc(#loc60)
        %129 = "ttir.slice_static"(%116) <{begins = [12 : i32, 0 : i32, 0 : i32, 0 : i32], ends = [13 : i32, 2 : i32, 18 : i32, 128 : i32], step = [1 : i32, 1 : i32, 1 : i32, 1 : i32]}> : (tensor<32x2x18x128xbf16>) -> tensor<1x2x18x128xbf16> loc(#loc60)
        "ttir.fill_cache"(%8, %129) <{batch_offset = 12 : i32}> : (tensor<32x2x128x128xbf16>, tensor<1x2x18x128xbf16>) -> () loc(#loc60)
        %130 = "ttir.slice_static"(%116) <{begins = [13 : i32, 0 : i32, 0 : i32, 0 : i32], ends = [14 : i32, 2 : i32, 18 : i32, 128 : i32], step = [1 : i32, 1 : i32, 1 : i32, 1 : i32]}> : (tensor<32x2x18x128xbf16>) -> tensor<1x2x18x128xbf16> loc(#loc60)
        "ttir.fill_cache"(%8, %130) <{batch_offset = 13 : i32}> : (tensor<32x2x128x128xbf16>, tensor<1x2x18x128xbf16>) -> () loc(#loc60)
        %131 = "ttir.slice_static"(%116) <{begins = [14 : i32, 0 : i32, 0 : i32, 0 : i32], ends = [15 : i32, 2 : i32, 18 : i32, 128 : i32], step = [1 : i32, 1 : i32, 1 : i32, 1 : i32]}> : (tensor<32x2x18x128xbf16>) -> tensor<1x2x18x128xbf16> loc(#loc60)
        "ttir.fill_cache"(%8, %131) <{batch_offset = 14 : i32}> : (tensor<32x2x128x128xbf16>, tensor<1x2x18x128xbf16>) -> () loc(#loc60)
        %132 = "ttir.slice_static"(%116) <{begins = [15 : i32, 0 : i32, 0 : i32, 0 : i32], ends = [16 : i32, 2 : i32, 18 : i32, 128 : i32], step = [1 : i32, 1 : i32, 1 : i32, 1 : i32]}> : (tensor<32x2x18x128xbf16>) -> tensor<1x2x18x128xbf16> loc(#loc60)
        "ttir.fill_cache"(%8, %132) <{batch_offset = 15 : i32}> : (tensor<32x2x128x128xbf16>, tensor<1x2x18x128xbf16>) -> () loc(#loc60)
        %133 = "ttir.slice_static"(%116) <{begins = [16 : i32, 0 : i32, 0 : i32, 0 : i32], ends = [17 : i32, 2 : i32, 18 : i32, 128 : i32], step = [1 : i32, 1 : i32, 1 : i32, 1 : i32]}> : (tensor<32x2x18x128xbf16>) -> tensor<1x2x18x128xbf16> loc(#loc60)
        "ttir.fill_cache"(%8, %133) <{batch_offset = 16 : i32}> : (tensor<32x2x128x128xbf16>, tensor<1x2x18x128xbf16>) -> () loc(#loc60)
        %134 = "ttir.slice_static"(%116) <{begins = [17 : i32, 0 : i32, 0 : i32, 0 : i32], ends = [18 : i32, 2 : i32, 18 : i32, 128 : i32], step = [1 : i32, 1 : i32, 1 : i32, 1 : i32]}> : (tensor<32x2x18x128xbf16>) -> tensor<1x2x18x128xbf16> loc(#loc60)
        "ttir.fill_cache"(%8, %134) <{batch_offset = 17 : i32}> : (tensor<32x2x128x128xbf16>, tensor<1x2x18x128xbf16>) -> () loc(#loc60)
        %135 = "ttir.slice_static"(%116) <{begins = [18 : i32, 0 : i32, 0 : i32, 0 : i32], ends = [19 : i32, 2 : i32, 18 : i32, 128 : i32], step = [1 : i32, 1 : i32, 1 : i32, 1 : i32]}> : (tensor<32x2x18x128xbf16>) -> tensor<1x2x18x128xbf16> loc(#loc60)
        "ttir.fill_cache"(%8, %135) <{batch_offset = 18 : i32}> : (tensor<32x2x128x128xbf16>, tensor<1x2x18x128xbf16>) -> () loc(#loc60)
        %136 = "ttir.slice_static"(%116) <{begins = [19 : i32, 0 : i32, 0 : i32, 0 : i32], ends = [20 : i32, 2 : i32, 18 : i32, 128 : i32], step = [1 : i32, 1 : i32, 1 : i32, 1 : i32]}> : (tensor<32x2x18x128xbf16>) -> tensor<1x2x18x128xbf16> loc(#loc60)
        "ttir.fill_cache"(%8, %136) <{batch_offset = 19 : i32}> : (tensor<32x2x128x128xbf16>, tensor<1x2x18x128xbf16>) -> () loc(#loc60)
        %137 = "ttir.slice_static"(%116) <{begins = [20 : i32, 0 : i32, 0 : i32, 0 : i32], ends = [21 : i32, 2 : i32, 18 : i32, 128 : i32], step = [1 : i32, 1 : i32, 1 : i32, 1 : i32]}> : (tensor<32x2x18x128xbf16>) -> tensor<1x2x18x128xbf16> loc(#loc60)
        "ttir.fill_cache"(%8, %137) <{batch_offset = 20 : i32}> : (tensor<32x2x128x128xbf16>, tensor<1x2x18x128xbf16>) -> () loc(#loc60)
        %138 = "ttir.slice_static"(%116) <{begins = [21 : i32, 0 : i32, 0 : i32, 0 : i32], ends = [22 : i32, 2 : i32, 18 : i32, 128 : i32], step = [1 : i32, 1 : i32, 1 : i32, 1 : i32]}> : (tensor<32x2x18x128xbf16>) -> tensor<1x2x18x128xbf16> loc(#loc60)
        "ttir.fill_cache"(%8, %138) <{batch_offset = 21 : i32}> : (tensor<32x2x128x128xbf16>, tensor<1x2x18x128xbf16>) -> () loc(#loc60)
        %139 = "ttir.slice_static"(%116) <{begins = [22 : i32, 0 : i32, 0 : i32, 0 : i32], ends = [23 : i32, 2 : i32, 18 : i32, 128 : i32], step = [1 : i32, 1 : i32, 1 : i32, 1 : i32]}> : (tensor<32x2x18x128xbf16>) -> tensor<1x2x18x128xbf16> loc(#loc60)
        "ttir.fill_cache"(%8, %139) <{batch_offset = 22 : i32}> : (tensor<32x2x128x128xbf16>, tensor<1x2x18x128xbf16>) -> () loc(#loc60)
        %140 = "ttir.slice_static"(%116) <{begins = [23 : i32, 0 : i32, 0 : i32, 0 : i32], ends = [24 : i32, 2 : i32, 18 : i32, 128 : i32], step = [1 : i32, 1 : i32, 1 : i32, 1 : i32]}> : (tensor<32x2x18x128xbf16>) -> tensor<1x2x18x128xbf16> loc(#loc60)
        "ttir.fill_cache"(%8, %140) <{batch_offset = 23 : i32}> : (tensor<32x2x128x128xbf16>, tensor<1x2x18x128xbf16>) -> () loc(#loc60)
        %141 = "ttir.slice_static"(%116) <{begins = [24 : i32, 0 : i32, 0 : i32, 0 : i32], ends = [25 : i32, 2 : i32, 18 : i32, 128 : i32], step = [1 : i32, 1 : i32, 1 : i32, 1 : i32]}> : (tensor<32x2x18x128xbf16>) -> tensor<1x2x18x128xbf16> loc(#loc60)
        "ttir.fill_cache"(%8, %141) <{batch_offset = 24 : i32}> : (tensor<32x2x128x128xbf16>, tensor<1x2x18x128xbf16>) -> () loc(#loc60)
        %142 = "ttir.slice_static"(%116) <{begins = [25 : i32, 0 : i32, 0 : i32, 0 : i32], ends = [26 : i32, 2 : i32, 18 : i32, 128 : i32], step = [1 : i32, 1 : i32, 1 : i32, 1 : i32]}> : (tensor<32x2x18x128xbf16>) -> tensor<1x2x18x128xbf16> loc(#loc60)
        "ttir.fill_cache"(%8, %142) <{batch_offset = 25 : i32}> : (tensor<32x2x128x128xbf16>, tensor<1x2x18x128xbf16>) -> () loc(#loc60)
        %143 = "ttir.slice_static"(%116) <{begins = [26 : i32, 0 : i32, 0 : i32, 0 : i32], ends = [27 : i32, 2 : i32, 18 : i32, 128 : i32], step = [1 : i32, 1 : i32, 1 : i32, 1 : i32]}> : (tensor<32x2x18x128xbf16>) -> tensor<1x2x18x128xbf16> loc(#loc60)
        "ttir.fill_cache"(%8, %143) <{batch_offset = 26 : i32}> : (tensor<32x2x128x128xbf16>, tensor<1x2x18x128xbf16>) -> () loc(#loc60)
        %144 = "ttir.slice_static"(%116) <{begins = [27 : i32, 0 : i32, 0 : i32, 0 : i32], ends = [28 : i32, 2 : i32, 18 : i32, 128 : i32], step = [1 : i32, 1 : i32, 1 : i32, 1 : i32]}> : (tensor<32x2x18x128xbf16>) -> tensor<1x2x18x128xbf16> loc(#loc60)
        "ttir.fill_cache"(%8, %144) <{batch_offset = 27 : i32}> : (tensor<32x2x128x128xbf16>, tensor<1x2x18x128xbf16>) -> () loc(#loc60)
        %145 = "ttir.slice_static"(%116) <{begins = [28 : i32, 0 : i32, 0 : i32, 0 : i32], ends = [29 : i32, 2 : i32, 18 : i32, 128 : i32], step = [1 : i32, 1 : i32, 1 : i32, 1 : i32]}> : (tensor<32x2x18x128xbf16>) -> tensor<1x2x18x128xbf16> loc(#loc60)
        "ttir.fill_cache"(%8, %145) <{batch_offset = 28 : i32}> : (tensor<32x2x128x128xbf16>, tensor<1x2x18x128xbf16>) -> () loc(#loc60)
        %146 = "ttir.slice_static"(%116) <{begins = [29 : i32, 0 : i32, 0 : i32, 0 : i32], ends = [30 : i32, 2 : i32, 18 : i32, 128 : i32], step = [1 : i32, 1 : i32, 1 : i32, 1 : i32]}> : (tensor<32x2x18x128xbf16>) -> tensor<1x2x18x128xbf16> loc(#loc60)
        "ttir.fill_cache"(%8, %146) <{batch_offset = 29 : i32}> : (tensor<32x2x128x128xbf16>, tensor<1x2x18x128xbf16>) -> () loc(#loc60)
        %147 = "ttir.slice_static"(%116) <{begins = [30 : i32, 0 : i32, 0 : i32, 0 : i32], ends = [31 : i32, 2 : i32, 18 : i32, 128 : i32], step = [1 : i32, 1 : i32, 1 : i32, 1 : i32]}> : (tensor<32x2x18x128xbf16>) -> tensor<1x2x18x128xbf16> loc(#loc60)
        "ttir.fill_cache"(%8, %147) <{batch_offset = 30 : i32}> : (tensor<32x2x128x128xbf16>, tensor<1x2x18x128xbf16>) -> () loc(#loc60)
        %148 = "ttir.slice_static"(%116) <{begins = [31 : i32, 0 : i32, 0 : i32, 0 : i32], ends = [32 : i32, 2 : i32, 18 : i32, 128 : i32], step = [1 : i32, 1 : i32, 1 : i32, 1 : i32]}> : (tensor<32x2x18x128xbf16>) -> tensor<1x2x18x128xbf16> loc(#loc60)
        "ttir.fill_cache"(%8, %148) <{batch_offset = 31 : i32}> : (tensor<32x2x128x128xbf16>, tensor<1x2x18x128xbf16>) -> () loc(#loc60)
        %149 = "ttir.slice_static"(%0) <{begins = [17 : i32], ends = [18 : i32], step = [1 : i32]}> : (tensor<18xi64>) -> tensor<1xi64> loc(#loc61)
        %150 = "ttir.add"(%149, %19) : (tensor<1xi64>, tensor<1xi64>) -> tensor<1xi64> loc(#loc62)
        %151 = "ttir.permute"(%15) <{permutation = array<i64: 1, 0>}> : (tensor<2048x4096xbf16>) -> tensor<4096x2048xbf16> loc(#loc63)
        %152 = "ttir.dot_general"(%51, %151) <{batch_dims_lhs = array<i64>, batch_dims_rhs = array<i64>, contract_dims_lhs = array<i64: 1>, contract_dims_rhs = array<i64: 0>}> : (tensor<576x4096xbf16>, tensor<4096x2048xbf16>) -> tensor<576x2048xbf16> loc(#loc64)
        %153 = "ttir.all_reduce"(%152) <{cluster_axis = 0 : ui32, reduce_type = #ttcore.reduce_type<sum>}> : (tensor<576x2048xbf16>) -> tensor<576x2048xbf16> loc(#loc64)
        %154 = "ttir.reshape"(%153) <{shape = [32 : i32, 18 : i32, 16 : i32, 128 : i32]}> : (tensor<576x2048xbf16>) -> tensor<32x18x16x128xbf16> loc(#loc65)
        %155 = "ttir.permute"(%154) <{permutation = array<i64: 0, 2, 1, 3>}> : (tensor<32x18x16x128xbf16>) -> tensor<32x16x18x128xbf16> loc(#loc66)
        %156 = "ttir.broadcast"(%66) <{broadcast_dimensions = array<i64: 32, 16, 1, 1>}> : (tensor<1x1x18x128xbf16>) -> tensor<32x16x18x128xbf16> loc(#loc67)
        %157 = "ttir.multiply"(%155, %156) : (tensor<32x16x18x128xbf16>, tensor<32x16x18x128xbf16>) -> tensor<32x16x18x128xbf16> loc(#loc68)
        %158 = "ttir.slice_static"(%155) <{begins = [0 : i32, 0 : i32, 0 : i32, 64 : i32], ends = [32 : i32, 16 : i32, 18 : i32, 128 : i32], step = [1 : i32, 1 : i32, 1 : i32, 1 : i32]}> : (tensor<32x16x18x128xbf16>) -> tensor<32x16x18x64xbf16> loc(#loc69)
        %159 = "ttir.neg"(%158) : (tensor<32x16x18x64xbf16>) -> tensor<32x16x18x64xbf16> loc(#loc70)
        %160 = "ttir.slice_static"(%155) <{begins = [0 : i32, 0 : i32, 0 : i32, 0 : i32], ends = [32 : i32, 16 : i32, 18 : i32, 64 : i32], step = [1 : i32, 1 : i32, 1 : i32, 1 : i32]}> : (tensor<32x16x18x128xbf16>) -> tensor<32x16x18x64xbf16> loc(#loc71)
        %161 = "ttir.concat"(%159, %160) <{dim = 3 : si32}> : (tensor<32x16x18x64xbf16>, tensor<32x16x18x64xbf16>) -> tensor<32x16x18x128xbf16> loc(#loc72)
        %162 = "ttir.broadcast"(%76) <{broadcast_dimensions = array<i64: 32, 16, 1, 1>}> : (tensor<1x1x18x128xbf16>) -> tensor<32x16x18x128xbf16> loc(#loc73)
        %163 = "ttir.multiply"(%161, %162) : (tensor<32x16x18x128xbf16>, tensor<32x16x18x128xbf16>) -> tensor<32x16x18x128xbf16> loc(#loc74)
        %164 = "ttir.add"(%157, %163) : (tensor<32x16x18x128xbf16>, tensor<32x16x18x128xbf16>) -> tensor<32x16x18x128xbf16> loc(#loc75)
        %165 = "ttir.typecast"(%164) <{conservative_folding = false}> : (tensor<32x16x18x128xbf16>) -> tensor<32x16x18x128xf32> loc(#loc76)
        %166 = "ttir.multiply"(%165, %36) : (tensor<32x16x18x128xf32>, tensor<32x16x18x128xf32>) -> tensor<32x16x18x128xf32> loc(#loc77)
        %167 = "ttir.reshape"(%6) <{shape = [32 : i32, 2 : i32, 1 : i32, 128 : i32, 128 : i32]}> : (tensor<32x2x128x128xbf16>) -> tensor<32x2x1x128x128xbf16> loc(#loc78)
        %168 = "ttir.broadcast"(%167) <{broadcast_dimensions = array<i64: 1, 1, 8, 1, 1>}> : (tensor<32x2x1x128x128xbf16>) -> tensor<32x2x8x128x128xbf16> loc(#loc78)
        %169 = "ttir.reshape"(%168) <{shape = [32 : i32, 16 : i32, 128 : i32, 128 : i32]}> : (tensor<32x2x8x128x128xbf16>) -> tensor<32x16x128x128xbf16> loc(#loc79)
        %170 = "ttir.typecast"(%169) <{conservative_folding = false}> : (tensor<32x16x128x128xbf16>) -> tensor<32x16x128x128xf32> loc(#loc80)
        %171 = "ttir.permute"(%170) <{permutation = array<i64: 0, 1, 3, 2>}> : (tensor<32x16x128x128xf32>) -> tensor<32x16x128x128xf32> loc(#loc81)
        %172 = "ttir.multiply"(%171, %35) : (tensor<32x16x128x128xf32>, tensor<32x16x128x128xf32>) -> tensor<32x16x128x128xf32> loc(#loc82)
        %173 = "ttir.dot_general"(%166, %172) <{batch_dims_lhs = array<i64: 0, 1>, batch_dims_rhs = array<i64: 0, 1>, contract_dims_lhs = array<i64: 3>, contract_dims_rhs = array<i64: 2>}> : (tensor<32x16x18x128xf32>, tensor<32x16x128x128xf32>) -> tensor<32x16x18x128xf32> loc(#loc83)
        %174 = "ttir.reshape"(%21) <{shape = [1 : i32, 1 : i32, 1 : i32, 128 : i32]}> : (tensor<1x1x128xi64>) -> tensor<1x1x1x128xi64> loc(#loc84)
        %175 = "ttir.broadcast"(%174) <{broadcast_dimensions = array<i64: 1, 1, 18, 1>}> : (tensor<1x1x1x128xi64>) -> tensor<1x1x18x128xi64> loc(#loc84)
        %176 = "ttir.reshape"(%37) <{shape = [1 : i32, 1 : i32, 18 : i32, 1 : i32]}> : (tensor<1x1x18xi64>) -> tensor<1x1x18x1xi64> loc(#loc85)
        %177 = "ttir.broadcast"(%176) <{broadcast_dimensions = array<i64: 1, 1, 1, 128>}> : (tensor<1x1x18x1xi64>) -> tensor<1x1x18x128xi64> loc(#loc85)
        %178 = "ttir.le"(%175, %177) : (tensor<1x1x18x128xi64>, tensor<1x1x18x128xi64>) -> tensor<1x1x18x128xi1> loc(#loc86)
        %179 = "ttir.reshape"(%178) <{shape = [1 : i32, 18 : i32, 128 : i32]}> : (tensor<1x1x18x128xi1>) -> tensor<1x18x128xi1> loc(#loc87)
        %180 = "ttir.reshape"(%179) <{shape = [1 : i32, 1 : i32, 18 : i32, 128 : i32]}> : (tensor<1x18x128xi1>) -> tensor<1x1x18x128xi1> loc(#loc88)
        %181 = "ttir.broadcast"(%180) <{broadcast_dimensions = array<i64: 32, 1, 1, 1>}> : (tensor<1x1x18x128xi1>) -> tensor<32x1x18x128xi1> loc(#loc88)
        %182 = "ttir.where"(%181, %33, %31) : (tensor<32x1x18x128xi1>, tensor<32x1x18x128xbf16>, tensor<32x1x18x128xbf16>) -> tensor<32x1x18x128xbf16> loc(#loc89)
        %183 = "ttir.typecast"(%182) <{conservative_folding = false}> : (tensor<32x1x18x128xbf16>) -> tensor<32x1x18x128xf32> loc(#loc90)
        %184 = "ttir.reshape"(%183) <{shape = [32 : i32, 18 : i32, 128 : i32]}> : (tensor<32x1x18x128xf32>) -> tensor<32x18x128xf32> loc(#loc91)
        %185 = "ttir.reshape"(%184) <{shape = [32 : i32, 1 : i32, 18 : i32, 128 : i32]}> : (tensor<32x18x128xf32>) -> tensor<32x1x18x128xf32> loc(#loc92)
        %186 = "ttir.broadcast"(%185) <{broadcast_dimensions = array<i64: 1, 16, 1, 1>}> : (tensor<32x1x18x128xf32>) -> tensor<32x16x18x128xf32> loc(#loc92)
        %187 = "ttir.add"(%173, %186) : (tensor<32x16x18x128xf32>, tensor<32x16x18x128xf32>) -> tensor<32x16x18x128xf32> loc(#loc93)
        %188 = "ttir.typecast"(%187) <{conservative_folding = false}> : (tensor<32x16x18x128xf32>) -> tensor<32x16x18x128xf64> loc(#loc94)
        %189 = "ttir.eq"(%188, %29) : (tensor<32x16x18x128xf64>, tensor<32x16x18x128xf64>) -> tensor<32x16x18x128xi1> loc(#loc95)
        %190 = "ttir.logical_not"(%189) : (tensor<32x16x18x128xi1>) -> tensor<32x16x18x128xi1> loc(#loc96)
        %191 = "ttir.reduce_or"(%190) <{dim_arg = [3 : i32], keep_dim = false}> : (tensor<32x16x18x128xi1>) -> tensor<32x16x18xi1> loc(#loc97)
        %192 = "ttir.reshape"(%191) <{shape = [32 : i32, 16 : i32, 18 : i32, 1 : i32]}> : (tensor<32x16x18xi1>) -> tensor<32x16x18x1xi1> loc(#loc98)
        %193 = "ttir.logical_not"(%192) : (tensor<32x16x18x1xi1>) -> tensor<32x16x18x1xi1> loc(#loc99)
        %194 = "ttir.reshape"(%193) <{shape = [32 : i32, 16 : i32, 18 : i32]}> : (tensor<32x16x18x1xi1>) -> tensor<32x16x18xi1> loc(#loc100)
        %195 = "ttir.reshape"(%194) <{shape = [32 : i32, 16 : i32, 18 : i32, 1 : i32]}> : (tensor<32x16x18xi1>) -> tensor<32x16x18x1xi1> loc(#loc101)
        %196 = "ttir.broadcast"(%195) <{broadcast_dimensions = array<i64: 1, 1, 1, 128>}> : (tensor<32x16x18x1xi1>) -> tensor<32x16x18x128xi1> loc(#loc101)
        %197 = "ttir.max"(%187) <{dim_arg = [3 : i32], keep_dim = false}> : (tensor<32x16x18x128xf32>) -> tensor<32x16x18xf32> loc(#loc102)
        %198 = "ttir.reshape"(%197) <{shape = [32 : i32, 16 : i32, 18 : i32, 1 : i32]}> : (tensor<32x16x18xf32>) -> tensor<32x16x18x1xf32> loc(#loc103)
        %199 = "ttir.broadcast"(%198) <{broadcast_dimensions = array<i64: 1, 1, 1, 128>}> : (tensor<32x16x18x1xf32>) -> tensor<32x16x18x128xf32> loc(#loc103)
        %200 = "ttir.subtract"(%187, %199) : (tensor<32x16x18x128xf32>, tensor<32x16x18x128xf32>) -> tensor<32x16x18x128xf32> loc(#loc104)
        %201 = "ttir.exp"(%200) : (tensor<32x16x18x128xf32>) -> tensor<32x16x18x128xf32> loc(#loc105)
        %202 = "ttir.sum"(%201) <{dim_arg = [3 : i32], keep_dim = false}> : (tensor<32x16x18x128xf32>) -> tensor<32x16x18xf32> loc(#loc106)
        %203 = "ttir.reshape"(%202) <{shape = [32 : i32, 16 : i32, 18 : i32, 1 : i32]}> : (tensor<32x16x18xf32>) -> tensor<32x16x18x1xf32> loc(#loc107)
        %204 = "ttir.broadcast"(%203) <{broadcast_dimensions = array<i64: 1, 1, 1, 128>}> : (tensor<32x16x18x1xf32>) -> tensor<32x16x18x128xf32> loc(#loc107)
        %205 = "ttir.div"(%201, %204) : (tensor<32x16x18x128xf32>, tensor<32x16x18x128xf32>) -> tensor<32x16x18x128xf32> loc(#loc108)
        %206 = "ttir.where"(%196, %27, %205) : (tensor<32x16x18x128xi1>, tensor<32x16x18x128xf32>, tensor<32x16x18x128xf32>) -> tensor<32x16x18x128xf32> loc(#loc109)
        %207 = "ttir.reshape"(%8) <{shape = [32 : i32, 2 : i32, 1 : i32, 128 : i32, 128 : i32]}> : (tensor<32x2x128x128xbf16>) -> tensor<32x2x1x128x128xbf16> loc(#loc110)
        %208 = "ttir.broadcast"(%207) <{broadcast_dimensions = array<i64: 1, 1, 8, 1, 1>}> : (tensor<32x2x1x128x128xbf16>) -> tensor<32x2x8x128x128xbf16> loc(#loc110)
        %209 = "ttir.reshape"(%208) <{shape = [32 : i32, 16 : i32, 128 : i32, 128 : i32]}> : (tensor<32x2x8x128x128xbf16>) -> tensor<32x16x128x128xbf16> loc(#loc111)
        %210 = "ttir.typecast"(%209) <{conservative_folding = false}> : (tensor<32x16x128x128xbf16>) -> tensor<32x16x128x128xf32> loc(#loc112)
        %211 = "ttir.dot_general"(%206, %210) <{batch_dims_lhs = array<i64: 0, 1>, batch_dims_rhs = array<i64: 0, 1>, contract_dims_lhs = array<i64: 3>, contract_dims_rhs = array<i64: 2>}> : (tensor<32x16x18x128xf32>, tensor<32x16x128x128xf32>) -> tensor<32x16x18x128xf32> loc(#loc113)
        %212 = "ttir.typecast"(%211) <{conservative_folding = false}> : (tensor<32x16x18x128xf32>) -> tensor<32x16x18x128xbf16> loc(#loc114)
        %213 = "ttir.permute"(%212) <{permutation = array<i64: 0, 2, 1, 3>}> : (tensor<32x16x18x128xbf16>) -> tensor<32x18x16x128xbf16> loc(#loc115)
        %214 = "ttir.reshape"(%213) <{shape = [576 : i32, 2048 : i32]}> : (tensor<32x18x16x128xbf16>) -> tensor<576x2048xbf16> loc(#loc116)
        %215 = "ttir.permute"(%14) <{permutation = array<i64: 1, 0>}> : (tensor<4096x2048xbf16>) -> tensor<2048x4096xbf16> loc(#loc117)
        %216 = "ttir.dot_general"(%214, %215) <{batch_dims_lhs = array<i64>, batch_dims_rhs = array<i64>, contract_dims_lhs = array<i64: 1>, contract_dims_rhs = array<i64: 0>}> : (tensor<576x2048xbf16>, tensor<2048x4096xbf16>) -> tensor<576x4096xbf16> loc(#loc118)
        %217 = "ttir.all_reduce"(%216) <{cluster_axis = 1 : ui32, reduce_type = #ttcore.reduce_type<sum>}> : (tensor<576x4096xbf16>) -> tensor<576x4096xbf16> loc(#loc118)
        %218 = "ttir.reshape"(%217) <{shape = [32 : i32, 18 : i32, 4096 : i32]}> : (tensor<576x4096xbf16>) -> tensor<32x18x4096xbf16> loc(#loc119)
        %219 = "ttir.add"(%49, %218) : (tensor<32x18x4096xbf16>, tensor<32x18x4096xbf16>) -> tensor<32x18x4096xbf16> loc(#loc120)
        %220 = "ttir.distributed_rms_norm"(%219, %13) <{cluster_axis = 0 : ui32, epsilon = 9.99999974E-6 : f32, operandSegmentSizes = array<i32: 1, 1, 0>}> : (tensor<32x18x4096xbf16>, tensor<4096xbf16>) -> tensor<32x18x4096xbf16> loc(#loc121)
        %221 = "ttir.reshape"(%220) <{shape = [576 : i32, 4096 : i32]}> : (tensor<32x18x4096xbf16>) -> tensor<576x4096xbf16> loc(#loc122)
        %222 = "ttir.permute"(%16) <{permutation = array<i64: 1, 0>}> : (tensor<7168x4096xbf16>) -> tensor<4096x7168xbf16> loc(#loc123)
        %223 = "ttir.dot_general"(%221, %222) <{batch_dims_lhs = array<i64>, batch_dims_rhs = array<i64>, contract_dims_lhs = array<i64: 1>, contract_dims_rhs = array<i64: 0>}> : (tensor<576x4096xbf16>, tensor<4096x7168xbf16>) -> tensor<576x7168xbf16> loc(#loc124)
        %224 = "ttir.all_reduce"(%223) <{cluster_axis = 0 : ui32, reduce_type = #ttcore.reduce_type<sum>}> : (tensor<576x7168xbf16>) -> tensor<576x7168xbf16> loc(#loc124)
        %225 = "ttir.reshape"(%224) <{shape = [32 : i32, 18 : i32, 7168 : i32]}> : (tensor<576x7168xbf16>) -> tensor<32x18x7168xbf16> loc(#loc125)
        %226 = "ttir.typecast"(%225) <{conservative_folding = false}> : (tensor<32x18x7168xbf16>) -> tensor<32x18x7168xf32> loc(#loc126)
        %227 = "ttir.sigmoid"(%226) : (tensor<32x18x7168xf32>) -> tensor<32x18x7168xf32> loc(#loc127)
        %228 = "ttir.multiply"(%226, %227) : (tensor<32x18x7168xf32>, tensor<32x18x7168xf32>) -> tensor<32x18x7168xf32> loc(#loc128)
        %229 = "ttir.typecast"(%228) <{conservative_folding = false}> : (tensor<32x18x7168xf32>) -> tensor<32x18x7168xbf16> loc(#loc129)
        %230 = "ttir.permute"(%12) <{permutation = array<i64: 1, 0>}> : (tensor<7168x4096xbf16>) -> tensor<4096x7168xbf16> loc(#loc130)
        %231 = "ttir.dot_general"(%221, %230) <{batch_dims_lhs = array<i64>, batch_dims_rhs = array<i64>, contract_dims_lhs = array<i64: 1>, contract_dims_rhs = array<i64: 0>}> : (tensor<576x4096xbf16>, tensor<4096x7168xbf16>) -> tensor<576x7168xbf16> loc(#loc131)
        %232 = "ttir.all_reduce"(%231) <{cluster_axis = 0 : ui32, reduce_type = #ttcore.reduce_type<sum>}> : (tensor<576x7168xbf16>) -> tensor<576x7168xbf16> loc(#loc131)
        %233 = "ttir.reshape"(%232) <{shape = [32 : i32, 18 : i32, 7168 : i32]}> : (tensor<576x7168xbf16>) -> tensor<32x18x7168xbf16> loc(#loc132)
        %234 = "ttir.multiply"(%229, %233) : (tensor<32x18x7168xbf16>, tensor<32x18x7168xbf16>) -> tensor<32x18x7168xbf16> loc(#loc133)
        %235 = "ttir.reshape"(%234) <{shape = [576 : i32, 7168 : i32]}> : (tensor<32x18x7168xbf16>) -> tensor<576x7168xbf16> loc(#loc134)
        %236 = "ttir.permute"(%11) <{permutation = array<i64: 1, 0>}> : (tensor<4096x7168xbf16>) -> tensor<7168x4096xbf16> loc(#loc135)
        %237 = "ttir.dot_general"(%235, %236) <{batch_dims_lhs = array<i64>, batch_dims_rhs = array<i64>, contract_dims_lhs = array<i64: 1>, contract_dims_rhs = array<i64: 0>}> : (tensor<576x7168xbf16>, tensor<7168x4096xbf16>) -> tensor<576x4096xbf16> loc(#loc136)
        %238 = "ttir.all_reduce"(%237) <{cluster_axis = 1 : ui32, reduce_type = #ttcore.reduce_type<sum>}> : (tensor<576x4096xbf16>) -> tensor<576x4096xbf16> loc(#loc136)
        %239 = "ttir.reshape"(%238) <{shape = [32 : i32, 18 : i32, 4096 : i32]}> : (tensor<576x4096xbf16>) -> tensor<32x18x4096xbf16> loc(#loc137)
        %240 = "ttir.add"(%219, %239) : (tensor<32x18x4096xbf16>, tensor<32x18x4096xbf16>) -> tensor<32x18x4096xbf16> loc(#loc138)
        %241 = "ttir.distributed_rms_norm"(%240, %10) <{cluster_axis = 0 : ui32, epsilon = 9.99999974E-6 : f32, operandSegmentSizes = array<i32: 1, 1, 0>}> : (tensor<32x18x4096xbf16>, tensor<4096xbf16>) -> tensor<32x18x4096xbf16> loc(#loc139)
        %242 = "ttir.reshape"(%241) <{shape = [576 : i32, 4096 : i32]}> : (tensor<32x18x4096xbf16>) -> tensor<576x4096xbf16> loc(#loc140)
        %243 = "ttir.permute"(%9) <{permutation = array<i64: 1, 0>}> : (tensor<32064x4096xbf16>) -> tensor<4096x32064xbf16> loc(#loc141)
        %244 = "ttir.dot_general"(%242, %243) <{batch_dims_lhs = array<i64>, batch_dims_rhs = array<i64>, contract_dims_lhs = array<i64: 1>, contract_dims_rhs = array<i64: 0>}> : (tensor<576x4096xbf16>, tensor<4096x32064xbf16>) -> tensor<576x32064xbf16> loc(#loc142)
        %245 = "ttir.all_reduce"(%244) <{cluster_axis = 0 : ui32, reduce_type = #ttcore.reduce_type<sum>}> : (tensor<576x32064xbf16>) -> tensor<576x32064xbf16> loc(#loc142)
        %246 = "ttir.reshape"(%245) <{shape = [32 : i32, 18 : i32, 32064 : i32]}> : (tensor<576x32064xbf16>) -> tensor<32x18x32064xbf16> loc(#loc143)
        %247 = "ttir.all_gather"(%246) <{all_gather_dim = 2 : si32, cluster_axis = 1 : ui32}> : (tensor<32x18x32064xbf16>) -> tensor<32x18x128256xbf16> loc(#loc143)
        %248 = "ttir.slice_static"(%247) <{begins = [0 : i32, 17 : i32, 0 : i32], ends = [32 : i32, 18 : i32, 128256 : i32], step = [1 : i32, 1 : i32, 1 : i32]}> : (tensor<32x18x128256xbf16>) -> tensor<32x1x128256xbf16> loc(#loc144)
        %249 = "ttir.reshape"(%248) <{shape = [32 : i32, 128256 : i32]}> : (tensor<32x1x128256xbf16>) -> tensor<32x128256xbf16> loc(#loc145)
        %250 = "ttir.arange"() <{arange_dimension = 0 : i64, end = 128256 : si64, start = 0 : si64, step = 1 : si64}> : () -> tensor<128256xi32> loc(#loc146)
        %251 = "ttir.reshape"(%250) <{shape = [1 : i32, 128256 : i32]}> : (tensor<128256xi32>) -> tensor<1x128256xi32> loc(#loc146)
        %252 = "ttir.argmax"(%249) <{dim_arg = [1 : i32], keep_dim = false}> : (tensor<32x128256xbf16>) -> tensor<32xi32> loc(#loc147)
        %253 = "ttir.typecast"(%252) <{conservative_folding = false}> : (tensor<32xi32>) -> tensor<32xi64> loc(#loc148)
        %254 = "ttir.reshape"(%253) <{shape = [32 : i32, 1 : i32]}> : (tensor<32xi64>) -> tensor<32x1xi64> loc(#loc149)
        %255 = "ttir.mesh_shard"(%6) <{shard_dims = array<i64: -1, 1>, shard_direction = #ttcore.shard_direction<shard_to_full>, shard_shape = array<i64: 1, 4, 1, 1>, shard_type = #ttcore.shard_type<identity>}> : (tensor<32x2x128x128xbf16>) -> tensor<32x8x128x128xbf16> loc(#loc)
        %256 = "ttir.mesh_shard"(%8) <{shard_dims = array<i64: -1, 1>, shard_direction = #ttcore.shard_direction<shard_to_full>, shard_shape = array<i64: 1, 4, 1, 1>, shard_type = #ttcore.shard_type<identity>}> : (tensor<32x2x128x128xbf16>) -> tensor<32x8x128x128xbf16> loc(#loc)
        %257 = "ttir.mesh_shard"(%150) <{shard_dims = array<i64: -1>, shard_direction = #ttcore.shard_direction<shard_to_full>, shard_shape = array<i64: 1>, shard_type = #ttcore.shard_type<identity>}> : (tensor<1xi64>) -> tensor<1xi64> loc(#loc)
        %258 = "ttir.mesh_shard"(%254) <{shard_dims = array<i64: -1>, shard_direction = #ttcore.shard_direction<shard_to_full>, shard_shape = array<i64: 1>, shard_type = #ttcore.shard_type<identity>}> : (tensor<32x1xi64>) -> tensor<32x1xi64> loc(#loc)
        return %255, %256, %257, %258 : tensor<32x8x128x128xbf16>, tensor<32x8x128x128xbf16>, tensor<1xi64>, tensor<32x1xi64> loc(#loc)
      } loc(#loc)
    } loc(#loc)
  } loc(#loc)
} loc(#loc)
#loc = loc(unknown)
#loc18 = loc("reshape.4")
#loc19 = loc("compare.119")
#loc20 = loc("add.116")
#loc21 = loc("select.120")
#loc22 = loc("reshape.46")
#loc23 = loc("reshape.43")
#loc24 = loc("convert.51")
#loc25 = loc("gather.52")
#loc26 = loc("reshape.53")
#loc27 = loc("custom-call.86")
#loc28 = loc("reshape.87")
#loc29 = loc("transpose.32")
#loc30 = loc("dot.88")
#loc31 = loc("reshape.90")
#loc32 = loc("transpose.91")
#loc33 = loc("reshape.16")
#loc34 = loc("reshape.12")
#loc35 = loc("convert.17")
#loc36 = loc("convert.9")
#loc37 = loc("dot.20")
#loc38 = loc("transpose.21")
#loc39 = loc("concatenate.22")
#loc40 = loc("cosine.100")
#loc41 = loc("convert.103")
#loc42 = loc("reshape.105")
#loc43 = loc("broadcast.106")
#loc44 = loc("multiply.107")
#loc45 = loc("slice.93")
#loc46 = loc("negate.94")
#loc47 = loc("slice.92")
#loc48 = loc("concatenate.95")
#loc49 = loc("sine.23")
#loc50 = loc("convert.26")
#loc51 = loc("reshape.96")
#loc52 = loc("broadcast.97")
#loc53 = loc("multiply.98")
#loc54 = loc("add.110")
#loc55 = loc("scatter.129")
#loc56 = loc("transpose.135")
#loc57 = loc("dot.137")
#loc58 = loc("reshape.139")
#loc59 = loc("transpose.140")
#loc60 = loc("scatter.159")
#loc61 = loc("slice.163")
#loc62 = loc("add.166")
#loc63 = loc("transpose.267")
#loc64 = loc("dot.269")
#loc65 = loc("reshape.271")
#loc66 = loc("transpose.272")
#loc67 = loc("broadcast.281")
#loc68 = loc("multiply.282")
#loc69 = loc("slice.274")
#loc70 = loc("negate.275")
#loc71 = loc("slice.273")
#loc72 = loc("concatenate.276")
#loc73 = loc("broadcast.278")
#loc74 = loc("multiply.279")
#loc75 = loc("add.285")
#loc76 = loc("convert.286")
#loc77 = loc("multiply.288")
#loc78 = loc("broadcast.255")
#loc79 = loc("reshape.256")
#loc80 = loc("convert.257")
#loc81 = loc("transpose.258")
#loc82 = loc("multiply.260")
#loc83 = loc("dot.289")
#loc84 = loc("broadcast.242")
#loc85 = loc("broadcast.244")
#loc86 = loc("compare.245")
#loc87 = loc("reshape.247")
#loc88 = loc("broadcast.248")
#loc89 = loc("select.250")
#loc90 = loc("convert.291")
#loc91 = loc("reshape.294")
#loc92 = loc("broadcast.295")
#loc93 = loc("add.296")
#loc94 = loc("convert.322")
#loc95 = loc("compare.324")
#loc96 = loc("not.326")
#loc97 = loc("reduce.338")
#loc98 = loc("reshape.342")
#loc99 = loc("not.344")
#loc100 = loc("reshape.346")
#loc101 = loc("broadcast.347")
#loc102 = loc("reduce.302")
#loc103 = loc("broadcast.303")
#loc104 = loc("subtract.304")
#loc105 = loc("exponential.305")
#loc106 = loc("reduce.311")
#loc107 = loc("broadcast.312")
#loc108 = loc("divide.313")
#loc109 = loc("select.348")
#loc110 = loc("broadcast.213")
#loc111 = loc("reshape.214")
#loc112 = loc("convert.215")
#loc113 = loc("dot.349")
#loc114 = loc("convert.351")
#loc115 = loc("transpose.352")
#loc116 = loc("reshape.354")
#loc117 = loc("transpose.209")
#loc118 = loc("dot.355")
#loc119 = loc("reshape.356")
#loc120 = loc("add.359")
#loc121 = loc("custom-call.392")
#loc122 = loc("reshape.404")
#loc123 = loc("transpose.403")
#loc124 = loc("dot.405")
#loc125 = loc("reshape.406")
#loc126 = loc("convert.407")
#loc127 = loc("logistic.408")
#loc128 = loc("multiply.409")
#loc129 = loc("convert.410")
#loc130 = loc("transpose.194")
#loc131 = loc("dot.394")
#loc132 = loc("reshape.395")
#loc133 = loc("multiply.411")
#loc134 = loc("reshape.412")
#loc135 = loc("transpose.186")
#loc136 = loc("dot.413")
#loc137 = loc("reshape.414")
#loc138 = loc("add.417")
#loc139 = loc("custom-call.450")
#loc140 = loc("reshape.451")
#loc141 = loc("transpose.171")
#loc142 = loc("dot.452")
#loc143 = loc("reshape.453")
#loc144 = loc("slice.455")
#loc145 = loc("reshape.456")
#loc146 = loc("iota.459")
#loc147 = loc("reduce.484")
#loc148 = loc("convert.486")
#loc149 = loc("reshape.487")
#loc150 = loc(fused[#loc22, #loc23])
#loc151 = loc("gather.52_permuteInput"(#loc25))
#loc152 = loc("gather.52_reshapeInput"(#loc25))
#loc153 = loc("gather.52_reshapeStartIndices"(#loc25))
#loc154 = loc("gather.52_reshapeOutput"(#loc25))
#loc155 = loc("gather.52_permuteOutput"(#loc25))
#loc156 = loc(fused[#loc33, #loc34])
