#loc1 = loc("p0.3")
#loc2 = loc("p1.11")
#loc3 = loc("p2.28")
#loc4 = loc("p3.36")
#loc5 = loc("p4.48")
#loc6 = loc("p5.53")
#loc7 = loc("p6.130")
#loc8 = loc("p7.138")
#loc9 = loc("p8.161")
#loc10 = loc("p9.175")
#loc11 = loc("p10.183")
#loc12 = loc("p11.196")
#loc13 = loc("p12.204")
#loc14 = loc("p13.212")
#loc15 = loc("p14.225")
#loc16 = loc("p15.284")
#loc17 = loc("p16.420")
module @SyncTensorsGraph.513 attributes {mhlo.cross_program_prefetches = [], mhlo.input_output_alias = [], mhlo.is_dynamic = false, mhlo.use_auto_spmd_partitioning = false, ttcore.meshes = #ttcore.meshes<[<"mesh" = 1x8>]>} {
  ttcore.device_module {
    builtin.module @SyncTensorsGraph.513 attributes {mhlo.cross_program_prefetches = [], mhlo.input_output_alias = [], mhlo.is_dynamic = false, mhlo.use_auto_spmd_partitioning = false, ttcore.meshes = #ttcore.meshes<[<"mesh" = 1x8>]>} {
      func.func @main(%arg0: tensor<1xi64> {ttcore.argument_type = #ttcore.argument_type<input>, ttcore.local_shape = #ttcore<local_shape local_shape = tensor<1xi64>>, ttcore.shard_status = #ttcore.shard_status<presharded>, ttir.name = "args_1"} loc("p0.3"), %arg1: tensor<64xbf16> {ttcore.argument_type = #ttcore.argument_type<constant>, ttcore.local_shape = #ttcore<local_shape local_shape = tensor<64xbf16>>, ttcore.shard_status = #ttcore.shard_status<presharded>, ttir.name = "model.model.rotary_emb.inv_freq"} loc("p1.11"), %arg2: tensor<1024x4096xbf16> {ttcore.argument_type = #ttcore.argument_type<parameter>, ttcore.local_shape = #ttcore<local_shape local_shape = tensor<128x4096xbf16>>, ttcore.shard_status = #ttcore.shard_status<presharded>, ttcore.weight_dtype = "bfp_bf8", ttir.name = "L__self___model_model_layers__modules__0___self_attn_k_proj.parametrizations.weight.original"} loc("p2.28"), %arg3: tensor<4096xbf16> {ttcore.argument_type = #ttcore.argument_type<parameter>, ttcore.local_shape = #ttcore<local_shape local_shape = tensor<4096xbf16>>, ttcore.shard_status = #ttcore.shard_status<presharded>, ttcore.weight_dtype = "bfp_bf8", ttir.name = "L__self___model_model_layers__modules__0___input_layernorm_parametrizations__weight___original"} loc("p3.36"), %arg4: tensor<32x1xi64> {ttcore.argument_type = #ttcore.argument_type<input>, ttcore.local_shape = #ttcore<local_shape local_shape = tensor<32x1xi64>>, ttcore.shard_status = #ttcore.shard_status<presharded>, ttir.name = "args_0"} loc("p4.48"), %arg5: tensor<131072x4096xbf16> {ttcore.argument_type = #ttcore.argument_type<parameter>, ttcore.local_shape = #ttcore<local_shape local_shape = tensor<131072x4096xbf16>>, ttcore.shard_status = #ttcore.shard_status<presharded>, ttcore.weight_dtype = "bfp_bf8", ttir.name = "model.model.embed_tokens.parametrizations.weight.original"} loc("p5.53"), %arg6: tensor<32x8x128x128xbf16> {ttcore.argument_type = #ttcore.argument_type<input>, ttcore.local_shape = #ttcore<local_shape local_shape = tensor<32x1x128x128xbf16>>, ttcore.shard_status = #ttcore.shard_status<presharded>, ttir.name = "args_2"} loc("p6.130"), %arg7: tensor<1024x4096xbf16> {ttcore.argument_type = #ttcore.argument_type<parameter>, ttcore.local_shape = #ttcore<local_shape local_shape = tensor<128x4096xbf16>>, ttcore.shard_status = #ttcore.shard_status<presharded>, ttcore.weight_dtype = "bfp_bf8", ttir.name = "L__self___model_model_layers__modules__0___self_attn_v_proj.parametrizations.weight.original"} loc("p7.138"), %arg8: tensor<32x8x128x128xbf16> {ttcore.argument_type = #ttcore.argument_type<input>, ttcore.local_shape = #ttcore<local_shape local_shape = tensor<32x1x128x128xbf16>>, ttcore.shard_status = #ttcore.shard_status<presharded>, ttir.name = "args_3"} loc("p8.161"), %arg9: tensor<131072x4096xbf16> {ttcore.argument_type = #ttcore.argument_type<parameter>, ttcore.local_shape = #ttcore<local_shape local_shape = tensor<131072x4096xbf16>>, ttcore.shard_status = #ttcore.shard_status<presharded>, ttcore.weight_dtype = "bfp_bf8", ttir.name = "model.lm_head.parametrizations.weight.original"} loc("p9.175"), %arg10: tensor<4096xbf16> {ttcore.argument_type = #ttcore.argument_type<parameter>, ttcore.local_shape = #ttcore<local_shape local_shape = tensor<4096xbf16>>, ttcore.shard_status = #ttcore.shard_status<presharded>, ttcore.weight_dtype = "bfp_bf8", ttir.name = "model.model.norm.parametrizations.weight.original"} loc("p10.183"), %arg11: tensor<4096x12288xbf16> {ttcore.argument_type = #ttcore.argument_type<parameter>, ttcore.local_shape = #ttcore<local_shape local_shape = tensor<4096x1536xbf16>>, ttcore.shard_status = #ttcore.shard_status<presharded>, ttcore.weight_dtype = "bfp_bf8", ttir.name = "L__self___model_model_layers__modules__0___mlp_down_proj.parametrizations.weight.original"} loc("p11.196"), %arg12: tensor<12288x4096xbf16> {ttcore.argument_type = #ttcore.argument_type<parameter>, ttcore.local_shape = #ttcore<local_shape local_shape = tensor<1536x4096xbf16>>, ttcore.shard_status = #ttcore.shard_status<presharded>, ttcore.weight_dtype = "bfp_bf8", ttir.name = "L__self___model_model_layers__modules__0___mlp_up_proj.parametrizations.weight.original"} loc("p12.204"), %arg13: tensor<4096xbf16> {ttcore.argument_type = #ttcore.argument_type<parameter>, ttcore.local_shape = #ttcore<local_shape local_shape = tensor<4096xbf16>>, ttcore.shard_status = #ttcore.shard_status<presharded>, ttcore.weight_dtype = "bfp_bf8", ttir.name = "L__self___model_model_layers__modules__0___post_attention_layernorm_parametrizations__weight___original"} loc("p13.212"), %arg14: tensor<4096x4096xbf16> {ttcore.argument_type = #ttcore.argument_type<parameter>, ttcore.local_shape = #ttcore<local_shape local_shape = tensor<4096x512xbf16>>, ttcore.shard_status = #ttcore.shard_status<presharded>, ttcore.weight_dtype = "bfp_bf8", ttir.name = "L__self___model_model_layers__modules__0___self_attn_o_proj.parametrizations.weight.original"} loc("p14.225"), %arg15: tensor<4096x4096xbf16> {ttcore.argument_type = #ttcore.argument_type<parameter>, ttcore.local_shape = #ttcore<local_shape local_shape = tensor<512x4096xbf16>>, ttcore.shard_status = #ttcore.shard_status<presharded>, ttcore.weight_dtype = "bfp_bf8", ttir.name = "L__self___model_model_layers__modules__0___self_attn_q_proj.parametrizations.weight.original"} loc("p15.284"), %arg16: tensor<12288x4096xbf16> {ttcore.argument_type = #ttcore.argument_type<parameter>, ttcore.local_shape = #ttcore<local_shape local_shape = tensor<1536x4096xbf16>>, ttcore.shard_status = #ttcore.shard_status<presharded>, ttcore.weight_dtype = "bfp_bf8", ttir.name = "L__self___model_model_layers__modules__0___mlp_gate_proj.parametrizations.weight.original"} loc("p16.420")) -> (tensor<32x8x128x128xbf16> {ttcore.local_shape = #ttcore<local_shape local_shape = tensor<32x1x128x128xbf16>>, ttcore.shard_status = #ttcore.shard_status<presharded>}, tensor<32x8x128x128xbf16> {ttcore.local_shape = #ttcore<local_shape local_shape = tensor<32x1x128x128xbf16>>, ttcore.shard_status = #ttcore.shard_status<presharded>}, tensor<1xi64> {ttcore.local_shape = #ttcore<local_shape local_shape = tensor<1xi64>>, ttcore.shard_status = #ttcore.shard_status<presharded>}, tensor<32x1xi64> {ttcore.local_shape = #ttcore<local_shape local_shape = tensor<32x1xi64>>, ttcore.shard_status = #ttcore.shard_status<presharded>}) {
        %0 = "ttir.mesh_shard"(%arg0) <{shard_dims = array<i64: -1>, shard_direction = #ttcore.shard_direction<full_to_shard>, shard_shape = array<i64: 1>, shard_type = #ttcore.shard_type<identity>}> : (tensor<1xi64>) -> tensor<1xi64> loc(#loc)
        %1 = "ttir.mesh_shard"(%arg1) <{shard_dims = array<i64: -1>, shard_direction = #ttcore.shard_direction<full_to_shard>, shard_shape = array<i64: 1>, shard_type = #ttcore.shard_type<identity>}> : (tensor<64xbf16>) -> tensor<64xbf16> loc(#loc)
        %2 = "ttir.mesh_shard"(%arg2) <{shard_dims = array<i64: -1, 0>, shard_direction = #ttcore.shard_direction<full_to_shard>, shard_shape = array<i64: 8, 1>, shard_type = #ttcore.shard_type<identity>}> : (tensor<1024x4096xbf16>) -> tensor<128x4096xbf16> loc(#loc)
        %3 = "ttir.mesh_shard"(%arg3) <{shard_dims = array<i64: -1>, shard_direction = #ttcore.shard_direction<full_to_shard>, shard_shape = array<i64: 1>, shard_type = #ttcore.shard_type<identity>}> : (tensor<4096xbf16>) -> tensor<4096xbf16> loc(#loc)
        %4 = "ttir.mesh_shard"(%arg4) <{shard_dims = array<i64: -1>, shard_direction = #ttcore.shard_direction<full_to_shard>, shard_shape = array<i64: 1>, shard_type = #ttcore.shard_type<identity>}> : (tensor<32x1xi64>) -> tensor<32x1xi64> loc(#loc)
        %5 = "ttir.mesh_shard"(%arg5) <{shard_dims = array<i64: -1>, shard_direction = #ttcore.shard_direction<full_to_shard>, shard_shape = array<i64: 1>, shard_type = #ttcore.shard_type<identity>}> : (tensor<131072x4096xbf16>) -> tensor<131072x4096xbf16> loc(#loc)
        %6 = "ttir.mesh_shard"(%arg6) <{shard_dims = array<i64: -1, 1>, shard_direction = #ttcore.shard_direction<full_to_shard>, shard_shape = array<i64: 1, 8, 1, 1>, shard_type = #ttcore.shard_type<identity>}> : (tensor<32x8x128x128xbf16>) -> tensor<32x1x128x128xbf16> loc(#loc)
        %7 = "ttir.mesh_shard"(%arg7) <{shard_dims = array<i64: -1, 0>, shard_direction = #ttcore.shard_direction<full_to_shard>, shard_shape = array<i64: 8, 1>, shard_type = #ttcore.shard_type<identity>}> : (tensor<1024x4096xbf16>) -> tensor<128x4096xbf16> loc(#loc)
        %8 = "ttir.mesh_shard"(%arg8) <{shard_dims = array<i64: -1, 1>, shard_direction = #ttcore.shard_direction<full_to_shard>, shard_shape = array<i64: 1, 8, 1, 1>, shard_type = #ttcore.shard_type<identity>}> : (tensor<32x8x128x128xbf16>) -> tensor<32x1x128x128xbf16> loc(#loc)
        %9 = "ttir.mesh_shard"(%arg9) <{shard_dims = array<i64: -1>, shard_direction = #ttcore.shard_direction<full_to_shard>, shard_shape = array<i64: 1>, shard_type = #ttcore.shard_type<identity>}> : (tensor<131072x4096xbf16>) -> tensor<131072x4096xbf16> loc(#loc)
        %10 = "ttir.mesh_shard"(%arg10) <{shard_dims = array<i64: -1>, shard_direction = #ttcore.shard_direction<full_to_shard>, shard_shape = array<i64: 1>, shard_type = #ttcore.shard_type<identity>}> : (tensor<4096xbf16>) -> tensor<4096xbf16> loc(#loc)
        %11 = "ttir.mesh_shard"(%arg11) <{shard_dims = array<i64: -1, 1>, shard_direction = #ttcore.shard_direction<full_to_shard>, shard_shape = array<i64: 1, 8>, shard_type = #ttcore.shard_type<identity>}> : (tensor<4096x12288xbf16>) -> tensor<4096x1536xbf16> loc(#loc)
        %12 = "ttir.mesh_shard"(%arg12) <{shard_dims = array<i64: -1, 0>, shard_direction = #ttcore.shard_direction<full_to_shard>, shard_shape = array<i64: 8, 1>, shard_type = #ttcore.shard_type<identity>}> : (tensor<12288x4096xbf16>) -> tensor<1536x4096xbf16> loc(#loc)
        %13 = "ttir.mesh_shard"(%arg13) <{shard_dims = array<i64: -1>, shard_direction = #ttcore.shard_direction<full_to_shard>, shard_shape = array<i64: 1>, shard_type = #ttcore.shard_type<identity>}> : (tensor<4096xbf16>) -> tensor<4096xbf16> loc(#loc)
        %14 = "ttir.mesh_shard"(%arg14) <{shard_dims = array<i64: -1, 1>, shard_direction = #ttcore.shard_direction<full_to_shard>, shard_shape = array<i64: 1, 8>, shard_type = #ttcore.shard_type<identity>}> : (tensor<4096x4096xbf16>) -> tensor<4096x512xbf16> loc(#loc)
        %15 = "ttir.mesh_shard"(%arg15) <{shard_dims = array<i64: -1, 0>, shard_direction = #ttcore.shard_direction<full_to_shard>, shard_shape = array<i64: 8, 1>, shard_type = #ttcore.shard_type<identity>}> : (tensor<4096x4096xbf16>) -> tensor<512x4096xbf16> loc(#loc)
        %16 = "ttir.mesh_shard"(%arg16) <{shard_dims = array<i64: -1, 0>, shard_direction = #ttcore.shard_direction<full_to_shard>, shard_shape = array<i64: 8, 1>, shard_type = #ttcore.shard_type<identity>}> : (tensor<12288x4096xbf16>) -> tensor<1536x4096xbf16> loc(#loc)
        %17 = "ttir.constant"() <{value = dense<0> : tensor<1xi64>}> : () -> tensor<1xi64> loc(#loc)
        %18 = "ttir.constant"() <{value = dense<128> : tensor<1xi64>}> : () -> tensor<1xi64> loc(#loc)
        %19 = "ttir.constant"() <{value = dense<1> : tensor<1xi64>}> : () -> tensor<1xi64> loc(#loc)
        %20 = "ttir.constant"() <{value = dense<0.297301769> : tensor<f32>}> : () -> tensor<f32> loc(#loc)
        %21 = "ttir.constant"() <{value = dense<"…"> : tensor<1x1x1x128xi64>}> : () -> tensor<1x1x1x128xi64> loc(#loc)
        %22 = "ttir.constant"() <{value = dense<0.000000e+00> : tensor<bf16>}> : () -> tensor<bf16> loc(#loc)
        %23 = "ttir.constant"() <{value = dense<0xFF80> : tensor<bf16>}> : () -> tensor<bf16> loc(#loc)
        %24 = "ttir.constant"() <{value = dense<0xFFF0000000000000> : tensor<f64>}> : () -> tensor<f64> loc(#loc)
        %25 = "ttir.constant"() <{value = dense<0.000000e+00> : tensor<f32>}> : () -> tensor<f32> loc(#loc)
        %26 = "ttir.reshape"(%25) <{shape = [1 : i32, 1 : i32, 1 : i32, 1 : i32]}> : (tensor<f32>) -> tensor<1x1x1x1xf32> loc(#loc)
        %27 = "ttir.broadcast"(%26) <{broadcast_dimensions = array<i64: 32, 4, 1, 128>}> : (tensor<1x1x1x1xf32>) -> tensor<32x4x1x128xf32> loc(#loc)
        %28 = "ttir.reshape"(%24) <{shape = [1 : i32, 1 : i32, 1 : i32, 1 : i32]}> : (tensor<f64>) -> tensor<1x1x1x1xf64> loc(#loc)
        %29 = "ttir.broadcast"(%28) <{broadcast_dimensions = array<i64: 32, 4, 1, 128>}> : (tensor<1x1x1x1xf64>) -> tensor<32x4x1x128xf64> loc(#loc)
        %30 = "ttir.reshape"(%23) <{shape = [1 : i32, 1 : i32, 1 : i32, 1 : i32]}> : (tensor<bf16>) -> tensor<1x1x1x1xbf16> loc(#loc)
        %31 = "ttir.broadcast"(%30) <{broadcast_dimensions = array<i64: 32, 1, 1, 128>}> : (tensor<1x1x1x1xbf16>) -> tensor<32x1x1x128xbf16> loc(#loc)
        %32 = "ttir.reshape"(%22) <{shape = [1 : i32, 1 : i32, 1 : i32, 1 : i32]}> : (tensor<bf16>) -> tensor<1x1x1x1xbf16> loc(#loc)
        %33 = "ttir.broadcast"(%32) <{broadcast_dimensions = array<i64: 32, 1, 1, 128>}> : (tensor<1x1x1x1xbf16>) -> tensor<32x1x1x128xbf16> loc(#loc)
        %34 = "ttir.reshape"(%20) <{shape = [1 : i32, 1 : i32, 1 : i32, 1 : i32]}> : (tensor<f32>) -> tensor<1x1x1x1xf32> loc(#loc)
        %35 = "ttir.broadcast"(%34) <{broadcast_dimensions = array<i64: 32, 4, 128, 128>}> : (tensor<1x1x1x1xf32>) -> tensor<32x4x128x128xf32> loc(#loc)
        %36 = "ttir.broadcast"(%34) <{broadcast_dimensions = array<i64: 32, 4, 1, 128>}> : (tensor<1x1x1x1xf32>) -> tensor<32x4x1x128xf32> loc(#loc)
        %37 = "ttir.reshape"(%0) <{shape = [1 : i32, 1 : i32, 1 : i32]}> : (tensor<1xi64>) -> tensor<1x1x1xi64> loc(#loc18)
        %38 = "ttir.lt"(%0, %17) : (tensor<1xi64>, tensor<1xi64>) -> tensor<1xi1> loc(#loc19)
        %39 = "ttir.add"(%0, %18) : (tensor<1xi64>, tensor<1xi64>) -> tensor<1xi64> loc(#loc20)
        %40 = "ttir.where"(%38, %39, %0) : (tensor<1xi1>, tensor<1xi64>, tensor<1xi64>) -> tensor<1xi64> loc(#loc21)
        %41 = "ttir.reshape"(%4) <{shape = [32 : i32]}> : (tensor<32x1xi64>) -> tensor<32xi64> loc(#loc141)
        %42 = "ttir.typecast"(%41) <{conservative_folding = false}> : (tensor<32xi64>) -> tensor<32xui32> loc(#loc24)
        %43 = "ttir.permute"(%5) <{permutation = array<i64: 0, 1>}> : (tensor<131072x4096xbf16>) -> tensor<131072x4096xbf16> loc(#loc142)
        %44 = "ttir.reshape"(%43) <{shape = [131072 : i32, 4096 : i32]}> : (tensor<131072x4096xbf16>) -> tensor<131072x4096xbf16> loc(#loc143)
        %45 = "ttir.reshape"(%42) <{shape = [1 : i32, 32 : i32]}> : (tensor<32xui32>) -> tensor<1x32xui32> loc(#loc144)
        %46 = "ttir.embedding"(%45, %44) : (tensor<1x32xui32>, tensor<131072x4096xbf16>) -> tensor<1x32x4096xbf16> loc(#loc25)
        %47 = "ttir.reshape"(%46) <{shape = [32 : i32, 4096 : i32]}> : (tensor<1x32x4096xbf16>) -> tensor<32x4096xbf16> loc(#loc145)
        %48 = "ttir.permute"(%47) <{permutation = array<i64: 0, 1>}> : (tensor<32x4096xbf16>) -> tensor<32x4096xbf16> loc(#loc146)
        %49 = "ttir.reshape"(%48) <{shape = [32 : i32, 1 : i32, 4096 : i32]}> : (tensor<32x4096xbf16>) -> tensor<32x1x4096xbf16> loc(#loc26)
        %50 = "ttir.rms_norm"(%49, %3) <{epsilon = 9.99999974E-6 : f32, normalized_shape = array<i64: 4096>, operandSegmentSizes = array<i32: 1, 1, 0>}> : (tensor<32x1x4096xbf16>, tensor<4096xbf16>) -> tensor<32x1x4096xbf16> loc(#loc27)
        %51 = "ttir.reshape"(%50) <{shape = [32 : i32, 4096 : i32]}> : (tensor<32x1x4096xbf16>) -> tensor<32x4096xbf16> loc(#loc28)
        %52 = "ttir.permute"(%2) <{permutation = array<i64: 1, 0>}> : (tensor<128x4096xbf16>) -> tensor<4096x128xbf16> loc(#loc29)
        %53 = "ttir.dot_general"(%51, %52) <{batch_dims_lhs = array<i64>, batch_dims_rhs = array<i64>, contract_dims_lhs = array<i64: 1>, contract_dims_rhs = array<i64: 0>}> : (tensor<32x4096xbf16>, tensor<4096x128xbf16>) -> tensor<32x128xbf16> loc(#loc30)
        %54 = "ttir.reshape"(%53) <{shape = [32 : i32, 1 : i32, 1 : i32, 128 : i32]}> : (tensor<32x128xbf16>) -> tensor<32x1x1x128xbf16> loc(#loc31)
        %55 = "ttir.reshape"(%1) <{shape = [1 : i32, 64 : i32, 1 : i32]}> : (tensor<64xbf16>) -> tensor<1x64x1xbf16> loc(#loc147)
        %56 = "ttir.typecast"(%55) <{conservative_folding = false}> : (tensor<1x64x1xbf16>) -> tensor<1x64x1xf32> loc(#loc34)
        %57 = "ttir.typecast"(%37) <{conservative_folding = false}> : (tensor<1x1x1xi64>) -> tensor<1x1x1xf32> loc(#loc35)
        %58 = "ttir.dot_general"(%56, %57) <{batch_dims_lhs = array<i64: 0>, batch_dims_rhs = array<i64: 0>, contract_dims_lhs = array<i64: 2>, contract_dims_rhs = array<i64: 1>}> : (tensor<1x64x1xf32>, tensor<1x1x1xf32>) -> tensor<1x64x1xf32> loc(#loc36)
        %59 = "ttir.reshape"(%58) <{shape = [1 : i32, 1 : i32, 64 : i32]}> : (tensor<1x64x1xf32>) -> tensor<1x1x64xf32> loc(#loc37)
        %60 = "ttir.concat"(%59, %59) <{dim = 2 : si32}> : (tensor<1x1x64xf32>, tensor<1x1x64xf32>) -> tensor<1x1x128xf32> loc(#loc38)
        %61 = "ttir.cos"(%60) : (tensor<1x1x128xf32>) -> tensor<1x1x128xf32> loc(#loc39)
        %62 = "ttir.typecast"(%61) <{conservative_folding = false}> : (tensor<1x1x128xf32>) -> tensor<1x1x128xbf16> loc(#loc40)
        %63 = "ttir.reshape"(%62) <{shape = [1 : i32, 128 : i32]}> : (tensor<1x1x128xbf16>) -> tensor<1x128xbf16> loc(#loc41)
        %64 = "ttir.reshape"(%63) <{shape = [1 : i32, 1 : i32, 1 : i32, 128 : i32]}> : (tensor<1x128xbf16>) -> tensor<1x1x1x128xbf16> loc(#loc42)
        %65 = "ttir.broadcast"(%64) <{broadcast_dimensions = array<i64: 32, 1, 1, 1>}> : (tensor<1x1x1x128xbf16>) -> tensor<32x1x1x128xbf16> loc(#loc42)
        %66 = "ttir.multiply"(%54, %65) : (tensor<32x1x1x128xbf16>, tensor<32x1x1x128xbf16>) -> tensor<32x1x1x128xbf16> loc(#loc43)
        %67 = "ttir.slice_static"(%54) <{begins = [0 : i32, 0 : i32, 0 : i32, 64 : i32], ends = [32 : i32, 1 : i32, 1 : i32, 128 : i32], step = [1 : i32, 1 : i32, 1 : i32, 1 : i32]}> : (tensor<32x1x1x128xbf16>) -> tensor<32x1x1x64xbf16> loc(#loc44)
        %68 = "ttir.neg"(%67) : (tensor<32x1x1x64xbf16>) -> tensor<32x1x1x64xbf16> loc(#loc45)
        %69 = "ttir.slice_static"(%54) <{begins = [0 : i32, 0 : i32, 0 : i32, 0 : i32], ends = [32 : i32, 1 : i32, 1 : i32, 64 : i32], step = [1 : i32, 1 : i32, 1 : i32, 1 : i32]}> : (tensor<32x1x1x128xbf16>) -> tensor<32x1x1x64xbf16> loc(#loc46)
        %70 = "ttir.concat"(%68, %69) <{dim = 3 : si32}> : (tensor<32x1x1x64xbf16>, tensor<32x1x1x64xbf16>) -> tensor<32x1x1x128xbf16> loc(#loc47)
        %71 = "ttir.sin"(%60) : (tensor<1x1x128xf32>) -> tensor<1x1x128xf32> loc(#loc48)
        %72 = "ttir.typecast"(%71) <{conservative_folding = false}> : (tensor<1x1x128xf32>) -> tensor<1x1x128xbf16> loc(#loc49)
        %73 = "ttir.reshape"(%72) <{shape = [1 : i32, 128 : i32]}> : (tensor<1x1x128xbf16>) -> tensor<1x128xbf16> loc(#loc50)
        %74 = "ttir.reshape"(%73) <{shape = [1 : i32, 1 : i32, 1 : i32, 128 : i32]}> : (tensor<1x128xbf16>) -> tensor<1x1x1x128xbf16> loc(#loc51)
        %75 = "ttir.broadcast"(%74) <{broadcast_dimensions = array<i64: 32, 1, 1, 1>}> : (tensor<1x1x1x128xbf16>) -> tensor<32x1x1x128xbf16> loc(#loc51)
        %76 = "ttir.multiply"(%70, %75) : (tensor<32x1x1x128xbf16>, tensor<32x1x1x128xbf16>) -> tensor<32x1x1x128xbf16> loc(#loc52)
        %77 = "ttir.add"(%66, %76) : (tensor<32x1x1x128xbf16>, tensor<32x1x1x128xbf16>) -> tensor<32x1x1x128xbf16> loc(#loc53)
        %78 = "ttir.permute"(%77) <{permutation = array<i64: 2, 1, 0, 3>}> : (tensor<32x1x1x128xbf16>) -> tensor<1x1x32x128xbf16> loc(#loc54)
        "ttir.update_cache"(%6, %78, %0) <{batch_offset = 0 : i32}> : (tensor<32x1x128x128xbf16>, tensor<1x1x32x128xbf16>, tensor<1xi64>) -> () loc(#loc54)
        %79 = "ttir.permute"(%7) <{permutation = array<i64: 1, 0>}> : (tensor<128x4096xbf16>) -> tensor<4096x128xbf16> loc(#loc55)
        %80 = "ttir.dot_general"(%51, %79) <{batch_dims_lhs = array<i64>, batch_dims_rhs = array<i64>, contract_dims_lhs = array<i64: 1>, contract_dims_rhs = array<i64: 0>}> : (tensor<32x4096xbf16>, tensor<4096x128xbf16>) -> tensor<32x128xbf16> loc(#loc56)
        %81 = "ttir.reshape"(%80) <{shape = [32 : i32, 1 : i32, 1 : i32, 128 : i32]}> : (tensor<32x128xbf16>) -> tensor<32x1x1x128xbf16> loc(#loc57)
        %82 = "ttir.permute"(%81) <{permutation = array<i64: 2, 1, 0, 3>}> : (tensor<32x1x1x128xbf16>) -> tensor<1x1x32x128xbf16> loc(#loc58)
        "ttir.update_cache"(%8, %82, %0) <{batch_offset = 0 : i32}> : (tensor<32x1x128x128xbf16>, tensor<1x1x32x128xbf16>, tensor<1xi64>) -> () loc(#loc58)
        %83 = "ttir.add"(%0, %19) : (tensor<1xi64>, tensor<1xi64>) -> tensor<1xi64> loc(#loc59)
        %84 = "ttir.permute"(%15) <{permutation = array<i64: 1, 0>}> : (tensor<512x4096xbf16>) -> tensor<4096x512xbf16> loc(#loc60)
        %85 = "ttir.dot_general"(%51, %84) <{batch_dims_lhs = array<i64>, batch_dims_rhs = array<i64>, contract_dims_lhs = array<i64: 1>, contract_dims_rhs = array<i64: 0>}> : (tensor<32x4096xbf16>, tensor<4096x512xbf16>) -> tensor<32x512xbf16> loc(#loc61)
        %86 = "ttir.reshape"(%85) <{shape = [32 : i32, 4 : i32, 1 : i32, 128 : i32]}> : (tensor<32x512xbf16>) -> tensor<32x4x1x128xbf16> loc(#loc62)
        %87 = "ttir.broadcast"(%64) <{broadcast_dimensions = array<i64: 32, 4, 1, 1>}> : (tensor<1x1x1x128xbf16>) -> tensor<32x4x1x128xbf16> loc(#loc63)
        %88 = "ttir.multiply"(%86, %87) : (tensor<32x4x1x128xbf16>, tensor<32x4x1x128xbf16>) -> tensor<32x4x1x128xbf16> loc(#loc64)
        %89 = "ttir.slice_static"(%86) <{begins = [0 : i32, 0 : i32, 0 : i32, 64 : i32], ends = [32 : i32, 4 : i32, 1 : i32, 128 : i32], step = [1 : i32, 1 : i32, 1 : i32, 1 : i32]}> : (tensor<32x4x1x128xbf16>) -> tensor<32x4x1x64xbf16> loc(#loc65)
        %90 = "ttir.neg"(%89) : (tensor<32x4x1x64xbf16>) -> tensor<32x4x1x64xbf16> loc(#loc66)
        %91 = "ttir.slice_static"(%86) <{begins = [0 : i32, 0 : i32, 0 : i32, 0 : i32], ends = [32 : i32, 4 : i32, 1 : i32, 64 : i32], step = [1 : i32, 1 : i32, 1 : i32, 1 : i32]}> : (tensor<32x4x1x128xbf16>) -> tensor<32x4x1x64xbf16> loc(#loc67)
        %92 = "ttir.concat"(%90, %91) <{dim = 3 : si32}> : (tensor<32x4x1x64xbf16>, tensor<32x4x1x64xbf16>) -> tensor<32x4x1x128xbf16> loc(#loc68)
        %93 = "ttir.broadcast"(%74) <{broadcast_dimensions = array<i64: 32, 4, 1, 1>}> : (tensor<1x1x1x128xbf16>) -> tensor<32x4x1x128xbf16> loc(#loc69)
        %94 = "ttir.multiply"(%92, %93) : (tensor<32x4x1x128xbf16>, tensor<32x4x1x128xbf16>) -> tensor<32x4x1x128xbf16> loc(#loc70)
        %95 = "ttir.add"(%88, %94) : (tensor<32x4x1x128xbf16>, tensor<32x4x1x128xbf16>) -> tensor<32x4x1x128xbf16> loc(#loc71)
        %96 = "ttir.typecast"(%95) <{conservative_folding = false}> : (tensor<32x4x1x128xbf16>) -> tensor<32x4x1x128xf32> loc(#loc72)
        %97 = "ttir.multiply"(%96, %36) : (tensor<32x4x1x128xf32>, tensor<32x4x1x128xf32>) -> tensor<32x4x1x128xf32> loc(#loc73)
        %98 = "ttir.reshape"(%6) <{shape = [32 : i32, 1 : i32, 1 : i32, 128 : i32, 128 : i32]}> : (tensor<32x1x128x128xbf16>) -> tensor<32x1x1x128x128xbf16> loc(#loc74)
        %99 = "ttir.broadcast"(%98) <{broadcast_dimensions = array<i64: 1, 1, 4, 1, 1>}> : (tensor<32x1x1x128x128xbf16>) -> tensor<32x1x4x128x128xbf16> loc(#loc74)
        %100 = "ttir.reshape"(%99) <{shape = [32 : i32, 4 : i32, 128 : i32, 128 : i32]}> : (tensor<32x1x4x128x128xbf16>) -> tensor<32x4x128x128xbf16> loc(#loc75)
        %101 = "ttir.typecast"(%100) <{conservative_folding = false}> : (tensor<32x4x128x128xbf16>) -> tensor<32x4x128x128xf32> loc(#loc76)
        %102 = "ttir.permute"(%101) <{permutation = array<i64: 0, 1, 3, 2>}> : (tensor<32x4x128x128xf32>) -> tensor<32x4x128x128xf32> loc(#loc77)
        %103 = "ttir.multiply"(%102, %35) : (tensor<32x4x128x128xf32>, tensor<32x4x128x128xf32>) -> tensor<32x4x128x128xf32> loc(#loc78)
        %104 = "ttir.dot_general"(%97, %103) <{batch_dims_lhs = array<i64: 0, 1>, batch_dims_rhs = array<i64: 0, 1>, contract_dims_lhs = array<i64: 3>, contract_dims_rhs = array<i64: 2>}> : (tensor<32x4x1x128xf32>, tensor<32x4x128x128xf32>) -> tensor<32x4x1x128xf32> loc(#loc79)
        %105 = "ttir.reshape"(%37) <{shape = [1 : i32, 1 : i32, 1 : i32, 1 : i32]}> : (tensor<1x1x1xi64>) -> tensor<1x1x1x1xi64> loc(#loc80)
        %106 = "ttir.broadcast"(%105) <{broadcast_dimensions = array<i64: 1, 1, 1, 128>}> : (tensor<1x1x1x1xi64>) -> tensor<1x1x1x128xi64> loc(#loc80)
        %107 = "ttir.le"(%21, %106) : (tensor<1x1x1x128xi64>, tensor<1x1x1x128xi64>) -> tensor<1x1x1x128xi1> loc(#loc81)
        %108 = "ttir.reshape"(%107) <{shape = [1 : i32, 1 : i32, 128 : i32]}> : (tensor<1x1x1x128xi1>) -> tensor<1x1x128xi1> loc(#loc82)
        %109 = "ttir.reshape"(%108) <{shape = [1 : i32, 1 : i32, 1 : i32, 128 : i32]}> : (tensor<1x1x128xi1>) -> tensor<1x1x1x128xi1> loc(#loc83)
        %110 = "ttir.broadcast"(%109) <{broadcast_dimensions = array<i64: 32, 1, 1, 1>}> : (tensor<1x1x1x128xi1>) -> tensor<32x1x1x128xi1> loc(#loc83)
        %111 = "ttir.where"(%110, %33, %31) : (tensor<32x1x1x128xi1>, tensor<32x1x1x128xbf16>, tensor<32x1x1x128xbf16>) -> tensor<32x1x1x128xbf16> loc(#loc84)
        %112 = "ttir.typecast"(%111) <{conservative_folding = false}> : (tensor<32x1x1x128xbf16>) -> tensor<32x1x1x128xf32> loc(#loc85)
        %113 = "ttir.reshape"(%112) <{shape = [32 : i32, 1 : i32, 128 : i32]}> : (tensor<32x1x1x128xf32>) -> tensor<32x1x128xf32> loc(#loc86)
        %114 = "ttir.reshape"(%113) <{shape = [32 : i32, 1 : i32, 1 : i32, 128 : i32]}> : (tensor<32x1x128xf32>) -> tensor<32x1x1x128xf32> loc(#loc87)
        %115 = "ttir.broadcast"(%114) <{broadcast_dimensions = array<i64: 1, 4, 1, 1>}> : (tensor<32x1x1x128xf32>) -> tensor<32x4x1x128xf32> loc(#loc87)
        %116 = "ttir.add"(%104, %115) : (tensor<32x4x1x128xf32>, tensor<32x4x1x128xf32>) -> tensor<32x4x1x128xf32> loc(#loc88)
        %117 = "ttir.typecast"(%116) <{conservative_folding = false}> : (tensor<32x4x1x128xf32>) -> tensor<32x4x1x128xf64> loc(#loc89)
        %118 = "ttir.eq"(%117, %29) : (tensor<32x4x1x128xf64>, tensor<32x4x1x128xf64>) -> tensor<32x4x1x128xi1> loc(#loc90)
        %119 = "ttir.logical_not"(%118) : (tensor<32x4x1x128xi1>) -> tensor<32x4x1x128xi1> loc(#loc91)
        %120 = "ttir.reduce_or"(%119) <{dim_arg = [3 : i32], keep_dim = false}> : (tensor<32x4x1x128xi1>) -> tensor<32x4x1xi1> loc(#loc92)
        %121 = "ttir.reshape"(%120) <{shape = [32 : i32, 4 : i32, 1 : i32, 1 : i32]}> : (tensor<32x4x1xi1>) -> tensor<32x4x1x1xi1> loc(#loc93)
        %122 = "ttir.logical_not"(%121) : (tensor<32x4x1x1xi1>) -> tensor<32x4x1x1xi1> loc(#loc94)
        %123 = "ttir.reshape"(%122) <{shape = [32 : i32, 4 : i32, 1 : i32]}> : (tensor<32x4x1x1xi1>) -> tensor<32x4x1xi1> loc(#loc95)
        %124 = "ttir.reshape"(%123) <{shape = [32 : i32, 4 : i32, 1 : i32, 1 : i32]}> : (tensor<32x4x1xi1>) -> tensor<32x4x1x1xi1> loc(#loc96)
        %125 = "ttir.broadcast"(%124) <{broadcast_dimensions = array<i64: 1, 1, 1, 128>}> : (tensor<32x4x1x1xi1>) -> tensor<32x4x1x128xi1> loc(#loc96)
        %126 = "ttir.max"(%116) <{dim_arg = [3 : i32], keep_dim = false}> : (tensor<32x4x1x128xf32>) -> tensor<32x4x1xf32> loc(#loc97)
        %127 = "ttir.reshape"(%126) <{shape = [32 : i32, 4 : i32, 1 : i32, 1 : i32]}> : (tensor<32x4x1xf32>) -> tensor<32x4x1x1xf32> loc(#loc98)
        %128 = "ttir.broadcast"(%127) <{broadcast_dimensions = array<i64: 1, 1, 1, 128>}> : (tensor<32x4x1x1xf32>) -> tensor<32x4x1x128xf32> loc(#loc98)
        %129 = "ttir.subtract"(%116, %128) : (tensor<32x4x1x128xf32>, tensor<32x4x1x128xf32>) -> tensor<32x4x1x128xf32> loc(#loc99)
        %130 = "ttir.exp"(%129) : (tensor<32x4x1x128xf32>) -> tensor<32x4x1x128xf32> loc(#loc100)
        %131 = "ttir.sum"(%130) <{dim_arg = [3 : i32], keep_dim = false}> : (tensor<32x4x1x128xf32>) -> tensor<32x4x1xf32> loc(#loc101)
        %132 = "ttir.reshape"(%131) <{shape = [32 : i32, 4 : i32, 1 : i32, 1 : i32]}> : (tensor<32x4x1xf32>) -> tensor<32x4x1x1xf32> loc(#loc102)
        %133 = "ttir.broadcast"(%132) <{broadcast_dimensions = array<i64: 1, 1, 1, 128>}> : (tensor<32x4x1x1xf32>) -> tensor<32x4x1x128xf32> loc(#loc102)
        %134 = "ttir.div"(%130, %133) : (tensor<32x4x1x128xf32>, tensor<32x4x1x128xf32>) -> tensor<32x4x1x128xf32> loc(#loc103)
        %135 = "ttir.where"(%125, %27, %134) : (tensor<32x4x1x128xi1>, tensor<32x4x1x128xf32>, tensor<32x4x1x128xf32>) -> tensor<32x4x1x128xf32> loc(#loc104)
        %136 = "ttir.reshape"(%8) <{shape = [32 : i32, 1 : i32, 1 : i32, 128 : i32, 128 : i32]}> : (tensor<32x1x128x128xbf16>) -> tensor<32x1x1x128x128xbf16> loc(#loc105)
        %137 = "ttir.broadcast"(%136) <{broadcast_dimensions = array<i64: 1, 1, 4, 1, 1>}> : (tensor<32x1x1x128x128xbf16>) -> tensor<32x1x4x128x128xbf16> loc(#loc105)
        %138 = "ttir.reshape"(%137) <{shape = [32 : i32, 4 : i32, 128 : i32, 128 : i32]}> : (tensor<32x1x4x128x128xbf16>) -> tensor<32x4x128x128xbf16> loc(#loc106)
        %139 = "ttir.typecast"(%138) <{conservative_folding = false}> : (tensor<32x4x128x128xbf16>) -> tensor<32x4x128x128xf32> loc(#loc107)
        %140 = "ttir.dot_general"(%135, %139) <{batch_dims_lhs = array<i64: 0, 1>, batch_dims_rhs = array<i64: 0, 1>, contract_dims_lhs = array<i64: 3>, contract_dims_rhs = array<i64: 2>}> : (tensor<32x4x1x128xf32>, tensor<32x4x128x128xf32>) -> tensor<32x4x1x128xf32> loc(#loc108)
        %141 = "ttir.typecast"(%140) <{conservative_folding = false}> : (tensor<32x4x1x128xf32>) -> tensor<32x4x1x128xbf16> loc(#loc109)
        %142 = "ttir.reshape"(%141) <{shape = [32 : i32, 512 : i32]}> : (tensor<32x4x1x128xbf16>) -> tensor<32x512xbf16> loc(#loc110)
        %143 = "ttir.permute"(%14) <{permutation = array<i64: 1, 0>}> : (tensor<4096x512xbf16>) -> tensor<512x4096xbf16> loc(#loc111)
        %144 = "ttir.dot_general"(%142, %143) <{batch_dims_lhs = array<i64>, batch_dims_rhs = array<i64>, contract_dims_lhs = array<i64: 1>, contract_dims_rhs = array<i64: 0>}> : (tensor<32x512xbf16>, tensor<512x4096xbf16>) -> tensor<32x4096xbf16> loc(#loc112)
        %145 = "ttir.all_reduce"(%144) <{cluster_axis = 1 : ui32, reduce_type = #ttcore.reduce_type<sum>}> : (tensor<32x4096xbf16>) -> tensor<32x4096xbf16> loc(#loc112)
        %146 = "ttir.reshape"(%145) <{shape = [32 : i32, 1 : i32, 4096 : i32]}> : (tensor<32x4096xbf16>) -> tensor<32x1x4096xbf16> loc(#loc113)
        %147 = "ttir.add"(%49, %146) : (tensor<32x1x4096xbf16>, tensor<32x1x4096xbf16>) -> tensor<32x1x4096xbf16> loc(#loc114)
        %148 = "ttir.rms_norm"(%147, %13) <{epsilon = 9.99999974E-6 : f32, normalized_shape = array<i64: 4096>, operandSegmentSizes = array<i32: 1, 1, 0>}> : (tensor<32x1x4096xbf16>, tensor<4096xbf16>) -> tensor<32x1x4096xbf16> loc(#loc115)
        %149 = "ttir.reshape"(%148) <{shape = [32 : i32, 4096 : i32]}> : (tensor<32x1x4096xbf16>) -> tensor<32x4096xbf16> loc(#loc116)
        %150 = "ttir.permute"(%16) <{permutation = array<i64: 1, 0>}> : (tensor<1536x4096xbf16>) -> tensor<4096x1536xbf16> loc(#loc117)
        %151 = "ttir.dot_general"(%149, %150) <{batch_dims_lhs = array<i64>, batch_dims_rhs = array<i64>, contract_dims_lhs = array<i64: 1>, contract_dims_rhs = array<i64: 0>}> : (tensor<32x4096xbf16>, tensor<4096x1536xbf16>) -> tensor<32x1536xbf16> loc(#loc118)
        %152 = "ttir.reshape"(%151) <{shape = [32 : i32, 1 : i32, 1536 : i32]}> : (tensor<32x1536xbf16>) -> tensor<32x1x1536xbf16> loc(#loc119)
        %153 = "ttir.typecast"(%152) <{conservative_folding = false}> : (tensor<32x1x1536xbf16>) -> tensor<32x1x1536xf32> loc(#loc120)
        %154 = "ttir.sigmoid"(%153) : (tensor<32x1x1536xf32>) -> tensor<32x1x1536xf32> loc(#loc121)
        %155 = "ttir.multiply"(%153, %154) : (tensor<32x1x1536xf32>, tensor<32x1x1536xf32>) -> tensor<32x1x1536xf32> loc(#loc122)
        %156 = "ttir.typecast"(%155) <{conservative_folding = false}> : (tensor<32x1x1536xf32>) -> tensor<32x1x1536xbf16> loc(#loc123)
        %157 = "ttir.permute"(%12) <{permutation = array<i64: 1, 0>}> : (tensor<1536x4096xbf16>) -> tensor<4096x1536xbf16> loc(#loc124)
        %158 = "ttir.dot_general"(%149, %157) <{batch_dims_lhs = array<i64>, batch_dims_rhs = array<i64>, contract_dims_lhs = array<i64: 1>, contract_dims_rhs = array<i64: 0>}> : (tensor<32x4096xbf16>, tensor<4096x1536xbf16>) -> tensor<32x1536xbf16> loc(#loc125)
        %159 = "ttir.reshape"(%158) <{shape = [32 : i32, 1 : i32, 1536 : i32]}> : (tensor<32x1536xbf16>) -> tensor<32x1x1536xbf16> loc(#loc126)
        %160 = "ttir.multiply"(%156, %159) : (tensor<32x1x1536xbf16>, tensor<32x1x1536xbf16>) -> tensor<32x1x1536xbf16> loc(#loc127)
        %161 = "ttir.reshape"(%160) <{shape = [32 : i32, 1536 : i32]}> : (tensor<32x1x1536xbf16>) -> tensor<32x1536xbf16> loc(#loc128)
        %162 = "ttir.permute"(%11) <{permutation = array<i64: 1, 0>}> : (tensor<4096x1536xbf16>) -> tensor<1536x4096xbf16> loc(#loc129)
        %163 = "ttir.dot_general"(%161, %162) <{batch_dims_lhs = array<i64>, batch_dims_rhs = array<i64>, contract_dims_lhs = array<i64: 1>, contract_dims_rhs = array<i64: 0>}> : (tensor<32x1536xbf16>, tensor<1536x4096xbf16>) -> tensor<32x4096xbf16> loc(#loc130)
        %164 = "ttir.all_reduce"(%163) <{cluster_axis = 1 : ui32, reduce_type = #ttcore.reduce_type<sum>}> : (tensor<32x4096xbf16>) -> tensor<32x4096xbf16> loc(#loc130)
        %165 = "ttir.reshape"(%164) <{shape = [32 : i32, 1 : i32, 4096 : i32]}> : (tensor<32x4096xbf16>) -> tensor<32x1x4096xbf16> loc(#loc131)
        %166 = "ttir.add"(%147, %165) : (tensor<32x1x4096xbf16>, tensor<32x1x4096xbf16>) -> tensor<32x1x4096xbf16> loc(#loc132)
        %167 = "ttir.rms_norm"(%166, %10) <{epsilon = 9.99999974E-6 : f32, normalized_shape = array<i64: 4096>, operandSegmentSizes = array<i32: 1, 1, 0>}> : (tensor<32x1x4096xbf16>, tensor<4096xbf16>) -> tensor<32x1x4096xbf16> loc(#loc133)
        %168 = "ttir.reshape"(%167) <{shape = [32 : i32, 4096 : i32]}> : (tensor<32x1x4096xbf16>) -> tensor<32x4096xbf16> loc(#loc134)
        %169 = "ttir.permute"(%9) <{permutation = array<i64: 1, 0>}> : (tensor<131072x4096xbf16>) -> tensor<4096x131072xbf16> loc(#loc135)
        %170 = "ttir.dot_general"(%168, %169) <{batch_dims_lhs = array<i64>, batch_dims_rhs = array<i64>, contract_dims_lhs = array<i64: 1>, contract_dims_rhs = array<i64: 0>}> : (tensor<32x4096xbf16>, tensor<4096x131072xbf16>) -> tensor<32x131072xbf16> loc(#loc136)
        %171 = "ttir.arange"() <{arange_dimension = 0 : i64, end = 131072 : si64, start = 0 : si64, step = 1 : si64}> : () -> tensor<131072xi32> loc(#loc137)
        %172 = "ttir.reshape"(%171) <{shape = [1 : i32, 131072 : i32]}> : (tensor<131072xi32>) -> tensor<1x131072xi32> loc(#loc137)
        %173 = "ttir.argmax"(%170) <{dim_arg = [1 : i32], keep_dim = false}> : (tensor<32x131072xbf16>) -> tensor<32xi32> loc(#loc138)
        %174 = "ttir.typecast"(%173) <{conservative_folding = false}> : (tensor<32xi32>) -> tensor<32xi64> loc(#loc139)
        %175 = "ttir.reshape"(%174) <{shape = [32 : i32, 1 : i32]}> : (tensor<32xi64>) -> tensor<32x1xi64> loc(#loc140)
        %176 = "ttir.mesh_shard"(%6) <{shard_dims = array<i64: -1, 1>, shard_direction = #ttcore.shard_direction<shard_to_full>, shard_shape = array<i64: 1, 8, 1, 1>, shard_type = #ttcore.shard_type<identity>}> : (tensor<32x1x128x128xbf16>) -> tensor<32x8x128x128xbf16> loc(#loc)
        %177 = "ttir.mesh_shard"(%8) <{shard_dims = array<i64: -1, 1>, shard_direction = #ttcore.shard_direction<shard_to_full>, shard_shape = array<i64: 1, 8, 1, 1>, shard_type = #ttcore.shard_type<identity>}> : (tensor<32x1x128x128xbf16>) -> tensor<32x8x128x128xbf16> loc(#loc)
        %178 = "ttir.mesh_shard"(%83) <{shard_dims = array<i64: -1>, shard_direction = #ttcore.shard_direction<shard_to_full>, shard_shape = array<i64: 1>, shard_type = #ttcore.shard_type<identity>}> : (tensor<1xi64>) -> tensor<1xi64> loc(#loc)
        %179 = "ttir.mesh_shard"(%175) <{shard_dims = array<i64: -1>, shard_direction = #ttcore.shard_direction<shard_to_full>, shard_shape = array<i64: 1>, shard_type = #ttcore.shard_type<identity>}> : (tensor<32x1xi64>) -> tensor<32x1xi64> loc(#loc)
        return %176, %177, %178, %179 : tensor<32x8x128x128xbf16>, tensor<32x8x128x128xbf16>, tensor<1xi64>, tensor<32x1xi64> loc(#loc)
      } loc(#loc)
    } loc(#loc)
  } loc(#loc)
} loc(#loc)
#loc = loc(unknown)
#loc18 = loc("reshape.4")
#loc19 = loc("compare.126")
#loc20 = loc("add.123")
#loc21 = loc("select.127")
#loc22 = loc("reshape.52")
#loc23 = loc("reshape.49")
#loc24 = loc("convert.60")
#loc25 = loc("gather.61")
#loc26 = loc("reshape.62")
#loc27 = loc("custom-call.95")
#loc28 = loc("reshape.96")
#loc29 = loc("transpose.35")
#loc30 = loc("dot.97")
#loc31 = loc("transpose.100")
#loc32 = loc("reshape.16")
#loc33 = loc("reshape.12")
#loc34 = loc("convert.17")
#loc35 = loc("convert.9")
#loc36 = loc("dot.20")
#loc37 = loc("transpose.21")
#loc38 = loc("concatenate.22")
#loc39 = loc("cosine.109")
#loc40 = loc("convert.112")
#loc41 = loc("reshape.114")
#loc42 = loc("broadcast.115")
#loc43 = loc("multiply.116")
#loc44 = loc("slice.102")
#loc45 = loc("negate.103")
#loc46 = loc("slice.101")
#loc47 = loc("concatenate.104")
#loc48 = loc("sine.23")
#loc49 = loc("convert.26")
#loc50 = loc("reshape.105")
#loc51 = loc("broadcast.106")
#loc52 = loc("multiply.107")
#loc53 = loc("add.119")
#loc54 = loc("scatter.136")
#loc55 = loc("transpose.145")
#loc56 = loc("dot.147")
#loc57 = loc("transpose.150")
#loc58 = loc("scatter.167")
#loc59 = loc("add.174")
#loc60 = loc("transpose.291")
#loc61 = loc("dot.293")
#loc62 = loc("transpose.296")
#loc63 = loc("broadcast.305")
#loc64 = loc("multiply.306")
#loc65 = loc("slice.298")
#loc66 = loc("negate.299")
#loc67 = loc("slice.297")
#loc68 = loc("concatenate.300")
#loc69 = loc("broadcast.302")
#loc70 = loc("multiply.303")
#loc71 = loc("add.309")
#loc72 = loc("convert.310")
#loc73 = loc("multiply.312")
#loc74 = loc("broadcast.276")
#loc75 = loc("reshape.277")
#loc76 = loc("convert.278")
#loc77 = loc("transpose.279")
#loc78 = loc("multiply.281")
#loc79 = loc("dot.313")
#loc80 = loc("broadcast.265")
#loc81 = loc("compare.266")
#loc82 = loc("reshape.268")
#loc83 = loc("broadcast.269")
#loc84 = loc("select.271")
#loc85 = loc("convert.315")
#loc86 = loc("reshape.318")
#loc87 = loc("broadcast.319")
#loc88 = loc("add.320")
#loc89 = loc("convert.346")
#loc90 = loc("compare.348")
#loc91 = loc("not.350")
#loc92 = loc("reduce.362")
#loc93 = loc("reshape.366")
#loc94 = loc("not.368")
#loc95 = loc("reshape.370")
#loc96 = loc("broadcast.371")
#loc97 = loc("reduce.326")
#loc98 = loc("broadcast.327")
#loc99 = loc("subtract.328")
#loc100 = loc("exponential.329")
#loc101 = loc("reduce.335")
#loc102 = loc("broadcast.336")
#loc103 = loc("divide.337")
#loc104 = loc("select.372")
#loc105 = loc("broadcast.236")
#loc106 = loc("reshape.237")
#loc107 = loc("convert.238")
#loc108 = loc("dot.373")
#loc109 = loc("convert.375")
#loc110 = loc("reshape.378")
#loc111 = loc("transpose.232")
#loc112 = loc("dot.379")
#loc113 = loc("reshape.380")
#loc114 = loc("add.383")
#loc115 = loc("custom-call.416")
#loc116 = loc("reshape.428")
#loc117 = loc("transpose.427")
#loc118 = loc("dot.429")
#loc119 = loc("reshape.430")
#loc120 = loc("convert.431")
#loc121 = loc("logistic.432")
#loc122 = loc("multiply.433")
#loc123 = loc("convert.434")
#loc124 = loc("transpose.211")
#loc125 = loc("dot.418")
#loc126 = loc("reshape.419")
#loc127 = loc("multiply.435")
#loc128 = loc("reshape.436")
#loc129 = loc("transpose.203")
#loc130 = loc("dot.437")
#loc131 = loc("reshape.438")
#loc132 = loc("add.441")
#loc133 = loc("custom-call.474")
#loc134 = loc("reshape.475")
#loc135 = loc("transpose.182")
#loc136 = loc("dot.476")
#loc137 = loc("iota.483")
#loc138 = loc("reduce.508")
#loc139 = loc("convert.510")
#loc140 = loc("reshape.511")
#loc141 = loc(fused[#loc22, #loc23])
#loc142 = loc("gather.61_permuteInput"(#loc25))
#loc143 = loc("gather.61_reshapeInput"(#loc25))
#loc144 = loc("gather.61_reshapeStartIndices"(#loc25))
#loc145 = loc("gather.61_reshapeOutput"(#loc25))
#loc146 = loc("gather.61_permuteOutput"(#loc25))
#loc147 = loc(fused[#loc32, #loc33])
