#loc1 = loc("p0.3")
#loc2 = loc("p1.12")
#loc3 = loc("p2.20")
#loc4 = loc("p3.28")
#loc5 = loc("p4.40")
#loc6 = loc("p5.45")
#loc7 = loc("p6.108")
#loc8 = loc("p7.122")
#loc9 = loc("p8.139")
#loc10 = loc("p9.181")
#loc11 = loc("p10.189")
#loc12 = loc("p11.197")
#loc13 = loc("p12.210")
#loc14 = loc("p13.218")
#loc15 = loc("p14.226")
#loc16 = loc("p15.239")
#loc17 = loc("p16.305")
#loc18 = loc("p17.443")
module @SyncTensorsGraph.535 attributes {mhlo.cross_program_prefetches = [], mhlo.input_output_alias = [], mhlo.is_dynamic = false, mhlo.use_auto_spmd_partitioning = false, ttcore.meshes = #ttcore.meshes<[<"mesh" = 1x1>]>} {
  ttcore.device_module {
    builtin.module @SyncTensorsGraph.535 attributes {mhlo.cross_program_prefetches = [], mhlo.input_output_alias = [], mhlo.is_dynamic = false, mhlo.use_auto_spmd_partitioning = false, ttcore.meshes = #ttcore.meshes<[<"mesh" = 1x1>]>} {
      func.func @main(%arg0: tensor<1xi64> {ttcore.argument_type = #ttcore.argument_type<input>, ttcore.local_shape = #ttcore<local_shape local_shape = tensor<1xi64>>, ttcore.shard_status = #ttcore.shard_status<unsharded>, ttir.name = "arg15_1"} loc("p0.3"), %arg1: tensor<1xi64> {ttcore.argument_type = #ttcore.argument_type<input>, ttcore.local_shape = #ttcore<local_shape local_shape = tensor<1xi64>>, ttcore.shard_status = #ttcore.shard_status<unsharded>, ttir.name = "arg13_1"} loc("p1.12"), %arg2: tensor<1024x4096xbf16> {ttcore.argument_type = #ttcore.argument_type<parameter>, ttcore.local_shape = #ttcore<local_shape local_shape = tensor<1024x4096xbf16>>, ttcore.shard_status = #ttcore.shard_status<unsharded>, ttcore.weight_dtype = "bfp_bf8", ttir.name = "model.model.layers.0.self_attn.v_proj.parametrizations.weight.original"} loc("p2.20"), %arg3: tensor<4096xbf16> {ttcore.argument_type = #ttcore.argument_type<parameter>, ttcore.local_shape = #ttcore<local_shape local_shape = tensor<4096xbf16>>, ttcore.shard_status = #ttcore.shard_status<unsharded>, ttcore.weight_dtype = "bfp_bf8", ttir.name = "model.model.layers.0.input_layernorm.parametrizations.weight.original"} loc("p3.28"), %arg4: tensor<32x1xi64> {ttcore.argument_type = #ttcore.argument_type<input>, ttcore.local_shape = #ttcore<local_shape local_shape = tensor<32x1xi64>>, ttcore.shard_status = #ttcore.shard_status<unsharded>, ttir.name = "arg14_1"} loc("p4.40"), %arg5: tensor<32768x4096xbf16> {ttcore.argument_type = #ttcore.argument_type<parameter>, ttcore.local_shape = #ttcore<local_shape local_shape = tensor<32768x4096xbf16>>, ttcore.shard_status = #ttcore.shard_status<unsharded>, ttcore.weight_dtype = "bfp_bf8", ttir.name = "model.model.embed_tokens.parametrizations.weight.original"} loc("p5.45"), %arg6: tensor<32x8x128x128xbf16> {ttcore.argument_type = #ttcore.argument_type<input>, ttcore.local_shape = #ttcore<local_shape local_shape = tensor<32x8x128x128xbf16>>, ttcore.shard_status = #ttcore.shard_status<unsharded>, ttir.name = "arg17_1"} loc("p6.108"), %arg7: tensor<64xbf16> {ttcore.argument_type = #ttcore.argument_type<constant>, ttcore.local_shape = #ttcore<local_shape local_shape = tensor<64xbf16>>, ttcore.shard_status = #ttcore.shard_status<unsharded>, ttir.name = "model.model.rotary_emb.inv_freq"} loc("p7.122"), %arg8: tensor<1024x4096xbf16> {ttcore.argument_type = #ttcore.argument_type<parameter>, ttcore.local_shape = #ttcore<local_shape local_shape = tensor<1024x4096xbf16>>, ttcore.shard_status = #ttcore.shard_status<unsharded>, ttcore.weight_dtype = "bfp_bf8", ttir.name = "model.model.layers.0.self_attn.k_proj.parametrizations.weight.original"} loc("p8.139"), %arg9: tensor<32x8x128x128xbf16> {ttcore.argument_type = #ttcore.argument_type<input>, ttcore.local_shape = #ttcore<local_shape local_shape = tensor<32x8x128x128xbf16>>, ttcore.shard_status = #ttcore.shard_status<unsharded>, ttir.name = "arg16_1"} loc("p9.181"), %arg10: tensor<32768x4096xbf16> {ttcore.argument_type = #ttcore.argument_type<parameter>, ttcore.local_shape = #ttcore<local_shape local_shape = tensor<32768x4096xbf16>>, ttcore.shard_status = #ttcore.shard_status<unsharded>, ttcore.weight_dtype = "bfp_bf8", ttir.name = "model.lm_head.parametrizations.weight.original"} loc("p10.189"), %arg11: tensor<4096xbf16> {ttcore.argument_type = #ttcore.argument_type<parameter>, ttcore.local_shape = #ttcore<local_shape local_shape = tensor<4096xbf16>>, ttcore.shard_status = #ttcore.shard_status<unsharded>, ttcore.weight_dtype = "bfp_bf8", ttir.name = "model.model.norm.parametrizations.weight.original"} loc("p11.197"), %arg12: tensor<4096x14336xbf16> {ttcore.argument_type = #ttcore.argument_type<parameter>, ttcore.local_shape = #ttcore<local_shape local_shape = tensor<4096x14336xbf16>>, ttcore.shard_status = #ttcore.shard_status<unsharded>, ttcore.weight_dtype = "bfp_bf8", ttir.name = "model.model.layers.0.mlp.down_proj.parametrizations.weight.original"} loc("p12.210"), %arg13: tensor<14336x4096xbf16> {ttcore.argument_type = #ttcore.argument_type<parameter>, ttcore.local_shape = #ttcore<local_shape local_shape = tensor<14336x4096xbf16>>, ttcore.shard_status = #ttcore.shard_status<unsharded>, ttcore.weight_dtype = "bfp_bf8", ttir.name = "model.model.layers.0.mlp.up_proj.parametrizations.weight.original"} loc("p13.218"), %arg14: tensor<4096xbf16> {ttcore.argument_type = #ttcore.argument_type<parameter>, ttcore.local_shape = #ttcore<local_shape local_shape = tensor<4096xbf16>>, ttcore.shard_status = #ttcore.shard_status<unsharded>, ttcore.weight_dtype = "bfp_bf8", ttir.name = "model.model.layers.0.post_attention_layernorm.parametrizations.weight.original"} loc("p14.226"), %arg15: tensor<4096x4096xbf16> {ttcore.argument_type = #ttcore.argument_type<parameter>, ttcore.local_shape = #ttcore<local_shape local_shape = tensor<4096x4096xbf16>>, ttcore.shard_status = #ttcore.shard_status<unsharded>, ttcore.weight_dtype = "bfp_bf8", ttir.name = "model.model.layers.0.self_attn.o_proj.parametrizations.weight.original"} loc("p15.239"), %arg16: tensor<4096x4096xbf16> {ttcore.argument_type = #ttcore.argument_type<parameter>, ttcore.local_shape = #ttcore<local_shape local_shape = tensor<4096x4096xbf16>>, ttcore.shard_status = #ttcore.shard_status<unsharded>, ttcore.weight_dtype = "bfp_bf8", ttir.name = "model.model.layers.0.self_attn.q_proj.parametrizations.weight.original"} loc("p16.305"), %arg17: tensor<14336x4096xbf16> {ttcore.argument_type = #ttcore.argument_type<parameter>, ttcore.local_shape = #ttcore<local_shape local_shape = tensor<14336x4096xbf16>>, ttcore.shard_status = #ttcore.shard_status<unsharded>, ttcore.weight_dtype = "bfp_bf8", ttir.name = "model.model.layers.0.mlp.gate_proj.parametrizations.weight.original"} loc("p17.443")) -> (tensor<1xi64> {ttcore.local_shape = #ttcore<local_shape local_shape = tensor<1xi64>>, ttcore.shard_status = #ttcore.shard_status<presharded>}, tensor<1xi64> {ttcore.local_shape = #ttcore<local_shape local_shape = tensor<1xi64>>, ttcore.shard_status = #ttcore.shard_status<presharded>}, tensor<32x8x128x128xbf16> {ttcore.local_shape = #ttcore<local_shape local_shape = tensor<32x8x128x128xbf16>>, ttcore.shard_status = #ttcore.shard_status<presharded>}, tensor<32x8x128x128xbf16> {ttcore.local_shape = #ttcore<local_shape local_shape = tensor<32x8x128x128xbf16>>, ttcore.shard_status = #ttcore.shard_status<presharded>}, tensor<32x1x32768xbf16> {ttcore.local_shape = #ttcore<local_shape local_shape = tensor<32x1x32768xbf16>>, ttcore.shard_status = #ttcore.shard_status<presharded>}, tensor<32x1xi64> {ttcore.local_shape = #ttcore<local_shape local_shape = tensor<32x1xi64>>, ttcore.shard_status = #ttcore.shard_status<presharded>}) {
        %0 = "ttir.constant"() <{value = dense<0.000000e+00> : tensor<32x32x1x128xf32>}> : () -> tensor<32x32x1x128xf32> loc(#loc)
        %1 = "ttir.constant"() <{value = dense<0xFF80> : tensor<32x1x1x128xbf16>}> : () -> tensor<32x1x1x128xbf16> loc(#loc)
        %2 = "ttir.constant"() <{value = dense<0.000000e+00> : tensor<32x1x1x128xbf16>}> : () -> tensor<32x1x1x128xbf16> loc(#loc)
        %3 = "ttir.constant"() <{value = dense<"…"> : tensor<1x1x1x128xi64>}> : () -> tensor<1x1x1x128xi64> loc(#loc)
        %4 = "ttir.constant"() <{value = dense<0.297301769> : tensor<32x32x128x128xf32>}> : () -> tensor<32x32x128x128xf32> loc(#loc)
        %5 = "ttir.constant"() <{value = dense<0.297301769> : tensor<32x32x1x128xf32>}> : () -> tensor<32x32x1x128xf32> loc(#loc)
        %6 = "ttir.constant"() <{value = dense<128> : tensor<1xi64>}> : () -> tensor<1xi64> loc(#loc)
        %7 = "ttir.constant"() <{value = dense<0> : tensor<1xi64>}> : () -> tensor<1xi64> loc(#loc)
        %8 = "ttir.constant"() <{value = dense<1> : tensor<1xi64>}> : () -> tensor<1xi64> loc(#loc)
        %9 = "ttir.reshape"(%arg0) <{shape = [1 : i32, 1 : i32, 1 : i32]}> : (tensor<1xi64>) -> tensor<1x1x1xi64> loc(#loc19)
        %10 = "ttir.add"(%arg0, %8) : (tensor<1xi64>, tensor<1xi64>) -> tensor<1xi64> loc(#loc20)
        %11 = "ttir.reshape"(%arg1) <{shape = [1 : i32, 1 : i32, 1 : i32]}> : (tensor<1xi64>) -> tensor<1x1x1xi64> loc(#loc21)
        %12 = "ttir.add"(%arg1, %8) : (tensor<1xi64>, tensor<1xi64>) -> tensor<1xi64> loc(#loc22)
        %13 = "ttir.lt"(%arg0, %7) : (tensor<1xi64>, tensor<1xi64>) -> tensor<1xi1> loc(#loc23)
        %14 = "ttir.add"(%arg0, %6) : (tensor<1xi64>, tensor<1xi64>) -> tensor<1xi64> loc(#loc24)
        %15 = "ttir.where"(%13, %14, %arg0) : (tensor<1xi1>, tensor<1xi64>, tensor<1xi64>) -> tensor<1xi64> loc(#loc25)
        %16 = "ttir.reshape"(%arg4) <{shape = [32 : i32]}> : (tensor<32x1xi64>) -> tensor<32xi64> loc(#loc144)
        %17 = "ttir.typecast"(%16) <{conservative_folding = false}> : (tensor<32xi64>) -> tensor<32xui32> loc(#loc28)
        %18 = "ttir.permute"(%arg5) <{permutation = array<i64: 0, 1>}> : (tensor<32768x4096xbf16>) -> tensor<32768x4096xbf16> loc(#loc145)
        %19 = "ttir.reshape"(%18) <{shape = [32768 : i32, 4096 : i32]}> : (tensor<32768x4096xbf16>) -> tensor<32768x4096xbf16> loc(#loc146)
        %20 = "ttir.reshape"(%17) <{shape = [1 : i32, 32 : i32]}> : (tensor<32xui32>) -> tensor<1x32xui32> loc(#loc147)
        %21 = "ttir.embedding"(%20, %19) : (tensor<1x32xui32>, tensor<32768x4096xbf16>) -> tensor<1x32x4096xbf16> loc(#loc29)
        %22 = "ttir.reshape"(%21) <{shape = [32 : i32, 4096 : i32]}> : (tensor<1x32x4096xbf16>) -> tensor<32x4096xbf16> loc(#loc148)
        %23 = "ttir.permute"(%22) <{permutation = array<i64: 0, 1>}> : (tensor<32x4096xbf16>) -> tensor<32x4096xbf16> loc(#loc149)
        %24 = "ttir.reshape"(%23) <{shape = [32 : i32, 1 : i32, 4096 : i32]}> : (tensor<32x4096xbf16>) -> tensor<32x1x4096xbf16> loc(#loc30)
        %25 = "ttir.rms_norm"(%24, %arg3) <{epsilon = 9.99999974E-6 : f32, normalized_shape = array<i64: 4096>, operandSegmentSizes = array<i32: 1, 1, 0>}> : (tensor<32x1x4096xbf16>, tensor<4096xbf16>) -> tensor<32x1x4096xbf16> loc(#loc31)
        %26 = "ttir.reshape"(%25) <{shape = [32 : i32, 4096 : i32]}> : (tensor<32x1x4096xbf16>) -> tensor<32x4096xbf16> loc(#loc32)
        %27 = "ttir.permute"(%arg2) <{permutation = array<i64: 1, 0>}> : (tensor<1024x4096xbf16>) -> tensor<4096x1024xbf16> loc(#loc33)
        %28 = "ttir.dot_general"(%26, %27) <{batch_dims_lhs = array<i64>, batch_dims_rhs = array<i64>, contract_dims_lhs = array<i64: 1>, contract_dims_rhs = array<i64: 0>}> : (tensor<32x4096xbf16>, tensor<4096x1024xbf16>) -> tensor<32x1024xbf16> loc(#loc34)
        %29 = "ttir.reshape"(%28) <{shape = [32 : i32, 8 : i32, 1 : i32, 128 : i32]}> : (tensor<32x1024xbf16>) -> tensor<32x8x1x128xbf16> loc(#loc35)
        %30 = "ttir.permute"(%29) <{permutation = array<i64: 2, 1, 0, 3>}> : (tensor<32x8x1x128xbf16>) -> tensor<1x8x32x128xbf16> loc(#loc36)
        "ttir.update_cache"(%arg6, %30, %arg0) <{batch_offset = 0 : i32}> : (tensor<32x8x128x128xbf16>, tensor<1x8x32x128xbf16>, tensor<1xi64>) -> () loc(#loc36)
        %31 = "ttir.permute"(%arg8) <{permutation = array<i64: 1, 0>}> : (tensor<1024x4096xbf16>) -> tensor<4096x1024xbf16> loc(#loc37)
        %32 = "ttir.dot_general"(%26, %31) <{batch_dims_lhs = array<i64>, batch_dims_rhs = array<i64>, contract_dims_lhs = array<i64: 1>, contract_dims_rhs = array<i64: 0>}> : (tensor<32x4096xbf16>, tensor<4096x1024xbf16>) -> tensor<32x1024xbf16> loc(#loc38)
        %33 = "ttir.reshape"(%32) <{shape = [32 : i32, 8 : i32, 1 : i32, 128 : i32]}> : (tensor<32x1024xbf16>) -> tensor<32x8x1x128xbf16> loc(#loc39)
        %34 = "ttir.reshape"(%arg7) <{shape = [1 : i32, 64 : i32, 1 : i32]}> : (tensor<64xbf16>) -> tensor<1x64x1xbf16> loc(#loc150)
        %35 = "ttir.typecast"(%34) <{conservative_folding = false}> : (tensor<1x64x1xbf16>) -> tensor<1x64x1xf32> loc(#loc42)
        %36 = "ttir.typecast"(%11) <{conservative_folding = false}> : (tensor<1x1x1xi64>) -> tensor<1x1x1xf32> loc(#loc43)
        %37 = "ttir.dot_general"(%35, %36) <{batch_dims_lhs = array<i64: 0>, batch_dims_rhs = array<i64: 0>, contract_dims_lhs = array<i64: 2>, contract_dims_rhs = array<i64: 1>}> : (tensor<1x64x1xf32>, tensor<1x1x1xf32>) -> tensor<1x64x1xf32> loc(#loc44)
        %38 = "ttir.reshape"(%37) <{shape = [1 : i32, 1 : i32, 64 : i32]}> : (tensor<1x64x1xf32>) -> tensor<1x1x64xf32> loc(#loc45)
        %39 = "ttir.concat"(%38, %38) <{dim = 2 : si32}> : (tensor<1x1x64xf32>, tensor<1x1x64xf32>) -> tensor<1x1x128xf32> loc(#loc46)
        %40 = "ttir.cos"(%39) : (tensor<1x1x128xf32>) -> tensor<1x1x128xf32> loc(#loc47)
        %41 = "ttir.typecast"(%40) <{conservative_folding = false}> : (tensor<1x1x128xf32>) -> tensor<1x1x128xbf16> loc(#loc48)
        %42 = "ttir.reshape"(%41) <{shape = [1 : i32, 128 : i32]}> : (tensor<1x1x128xbf16>) -> tensor<1x128xbf16> loc(#loc49)
        %43 = "ttir.reshape"(%42) <{shape = [1 : i32, 1 : i32, 1 : i32, 128 : i32]}> : (tensor<1x128xbf16>) -> tensor<1x1x1x128xbf16> loc(#loc50)
        %44 = "ttir.broadcast"(%43) <{broadcast_dimensions = array<i64: 32, 8, 1, 1>}> : (tensor<1x1x1x128xbf16>) -> tensor<32x8x1x128xbf16> loc(#loc50)
        %45 = "ttir.multiply"(%33, %44) : (tensor<32x8x1x128xbf16>, tensor<32x8x1x128xbf16>) -> tensor<32x8x1x128xbf16> loc(#loc51)
        %46 = "ttir.slice_static"(%33) <{begins = [0 : i32, 0 : i32, 0 : i32, 64 : i32], ends = [32 : i32, 8 : i32, 1 : i32, 128 : i32], step = [1 : i32, 1 : i32, 1 : i32, 1 : i32]}> : (tensor<32x8x1x128xbf16>) -> tensor<32x8x1x64xbf16> loc(#loc52)
        %47 = "ttir.neg"(%46) : (tensor<32x8x1x64xbf16>) -> tensor<32x8x1x64xbf16> loc(#loc53)
        %48 = "ttir.slice_static"(%33) <{begins = [0 : i32, 0 : i32, 0 : i32, 0 : i32], ends = [32 : i32, 8 : i32, 1 : i32, 64 : i32], step = [1 : i32, 1 : i32, 1 : i32, 1 : i32]}> : (tensor<32x8x1x128xbf16>) -> tensor<32x8x1x64xbf16> loc(#loc54)
        %49 = "ttir.concat"(%47, %48) <{dim = 3 : si32}> : (tensor<32x8x1x64xbf16>, tensor<32x8x1x64xbf16>) -> tensor<32x8x1x128xbf16> loc(#loc55)
        %50 = "ttir.sin"(%39) : (tensor<1x1x128xf32>) -> tensor<1x1x128xf32> loc(#loc56)
        %51 = "ttir.typecast"(%50) <{conservative_folding = false}> : (tensor<1x1x128xf32>) -> tensor<1x1x128xbf16> loc(#loc57)
        %52 = "ttir.reshape"(%51) <{shape = [1 : i32, 128 : i32]}> : (tensor<1x1x128xbf16>) -> tensor<1x128xbf16> loc(#loc58)
        %53 = "ttir.reshape"(%52) <{shape = [1 : i32, 1 : i32, 1 : i32, 128 : i32]}> : (tensor<1x128xbf16>) -> tensor<1x1x1x128xbf16> loc(#loc59)
        %54 = "ttir.broadcast"(%53) <{broadcast_dimensions = array<i64: 32, 8, 1, 1>}> : (tensor<1x1x1x128xbf16>) -> tensor<32x8x1x128xbf16> loc(#loc59)
        %55 = "ttir.multiply"(%49, %54) : (tensor<32x8x1x128xbf16>, tensor<32x8x1x128xbf16>) -> tensor<32x8x1x128xbf16> loc(#loc60)
        %56 = "ttir.add"(%45, %55) : (tensor<32x8x1x128xbf16>, tensor<32x8x1x128xbf16>) -> tensor<32x8x1x128xbf16> loc(#loc61)
        %57 = "ttir.permute"(%56) <{permutation = array<i64: 2, 1, 0, 3>}> : (tensor<32x8x1x128xbf16>) -> tensor<1x8x32x128xbf16> loc(#loc62)
        "ttir.update_cache"(%arg9, %57, %arg0) <{batch_offset = 0 : i32}> : (tensor<32x8x128x128xbf16>, tensor<1x8x32x128xbf16>, tensor<1xi64>) -> () loc(#loc62)
        %58 = "ttir.permute"(%arg16) <{permutation = array<i64: 1, 0>}> : (tensor<4096x4096xbf16>) -> tensor<4096x4096xbf16> loc(#loc63)
        %59 = "ttir.dot_general"(%26, %58) <{batch_dims_lhs = array<i64>, batch_dims_rhs = array<i64>, contract_dims_lhs = array<i64: 1>, contract_dims_rhs = array<i64: 0>}> : (tensor<32x4096xbf16>, tensor<4096x4096xbf16>) -> tensor<32x4096xbf16> loc(#loc64)
        %60 = "ttir.reshape"(%59) <{shape = [32 : i32, 32 : i32, 1 : i32, 128 : i32]}> : (tensor<32x4096xbf16>) -> tensor<32x32x1x128xbf16> loc(#loc65)
        %61 = "ttir.broadcast"(%43) <{broadcast_dimensions = array<i64: 32, 32, 1, 1>}> : (tensor<1x1x1x128xbf16>) -> tensor<32x32x1x128xbf16> loc(#loc66)
        %62 = "ttir.multiply"(%60, %61) : (tensor<32x32x1x128xbf16>, tensor<32x32x1x128xbf16>) -> tensor<32x32x1x128xbf16> loc(#loc67)
        %63 = "ttir.slice_static"(%60) <{begins = [0 : i32, 0 : i32, 0 : i32, 64 : i32], ends = [32 : i32, 32 : i32, 1 : i32, 128 : i32], step = [1 : i32, 1 : i32, 1 : i32, 1 : i32]}> : (tensor<32x32x1x128xbf16>) -> tensor<32x32x1x64xbf16> loc(#loc68)
        %64 = "ttir.neg"(%63) : (tensor<32x32x1x64xbf16>) -> tensor<32x32x1x64xbf16> loc(#loc69)
        %65 = "ttir.slice_static"(%60) <{begins = [0 : i32, 0 : i32, 0 : i32, 0 : i32], ends = [32 : i32, 32 : i32, 1 : i32, 64 : i32], step = [1 : i32, 1 : i32, 1 : i32, 1 : i32]}> : (tensor<32x32x1x128xbf16>) -> tensor<32x32x1x64xbf16> loc(#loc70)
        %66 = "ttir.concat"(%64, %65) <{dim = 3 : si32}> : (tensor<32x32x1x64xbf16>, tensor<32x32x1x64xbf16>) -> tensor<32x32x1x128xbf16> loc(#loc71)
        %67 = "ttir.broadcast"(%53) <{broadcast_dimensions = array<i64: 32, 32, 1, 1>}> : (tensor<1x1x1x128xbf16>) -> tensor<32x32x1x128xbf16> loc(#loc72)
        %68 = "ttir.multiply"(%66, %67) : (tensor<32x32x1x128xbf16>, tensor<32x32x1x128xbf16>) -> tensor<32x32x1x128xbf16> loc(#loc73)
        %69 = "ttir.add"(%62, %68) : (tensor<32x32x1x128xbf16>, tensor<32x32x1x128xbf16>) -> tensor<32x32x1x128xbf16> loc(#loc74)
        %70 = "ttir.typecast"(%69) <{conservative_folding = false}> : (tensor<32x32x1x128xbf16>) -> tensor<32x32x1x128xf32> loc(#loc75)
        %71 = "ttir.multiply"(%70, %5) : (tensor<32x32x1x128xf32>, tensor<32x32x1x128xf32>) -> tensor<32x32x1x128xf32> loc(#loc76)
        %72 = "ttir.reshape"(%arg9) <{shape = [32 : i32, 8 : i32, 1 : i32, 128 : i32, 128 : i32]}> : (tensor<32x8x128x128xbf16>) -> tensor<32x8x1x128x128xbf16> loc(#loc77)
        %73 = "ttir.broadcast"(%72) <{broadcast_dimensions = array<i64: 1, 1, 4, 1, 1>}> : (tensor<32x8x1x128x128xbf16>) -> tensor<32x8x4x128x128xbf16> loc(#loc77)
        %74 = "ttir.reshape"(%73) <{shape = [32 : i32, 32 : i32, 128 : i32, 128 : i32]}> : (tensor<32x8x4x128x128xbf16>) -> tensor<32x32x128x128xbf16> loc(#loc78)
        %75 = "ttir.typecast"(%74) <{conservative_folding = false}> : (tensor<32x32x128x128xbf16>) -> tensor<32x32x128x128xf32> loc(#loc79)
        %76 = "ttir.permute"(%75) <{permutation = array<i64: 0, 1, 3, 2>}> : (tensor<32x32x128x128xf32>) -> tensor<32x32x128x128xf32> loc(#loc80)
        %77 = "ttir.multiply"(%76, %4) : (tensor<32x32x128x128xf32>, tensor<32x32x128x128xf32>) -> tensor<32x32x128x128xf32> loc(#loc81)
        %78 = "ttir.dot_general"(%71, %77) <{batch_dims_lhs = array<i64: 0, 1>, batch_dims_rhs = array<i64: 0, 1>, contract_dims_lhs = array<i64: 3>, contract_dims_rhs = array<i64: 2>}> : (tensor<32x32x1x128xf32>, tensor<32x32x128x128xf32>) -> tensor<32x32x1x128xf32> loc(#loc82)
        %79 = "ttir.reshape"(%9) <{shape = [1 : i32, 1 : i32, 1 : i32, 1 : i32]}> : (tensor<1x1x1xi64>) -> tensor<1x1x1x1xi64> loc(#loc83)
        %80 = "ttir.broadcast"(%79) <{broadcast_dimensions = array<i64: 1, 1, 1, 128>}> : (tensor<1x1x1x1xi64>) -> tensor<1x1x1x128xi64> loc(#loc83)
        %81 = "ttir.le"(%3, %80) : (tensor<1x1x1x128xi64>, tensor<1x1x1x128xi64>) -> tensor<1x1x1x128xi1> loc(#loc84)
        %82 = "ttir.reshape"(%81) <{shape = [1 : i32, 1 : i32, 128 : i32]}> : (tensor<1x1x1x128xi1>) -> tensor<1x1x128xi1> loc(#loc85)
        %83 = "ttir.reshape"(%82) <{shape = [1 : i32, 1 : i32, 1 : i32, 128 : i32]}> : (tensor<1x1x128xi1>) -> tensor<1x1x1x128xi1> loc(#loc86)
        %84 = "ttir.broadcast"(%83) <{broadcast_dimensions = array<i64: 32, 1, 1, 1>}> : (tensor<1x1x1x128xi1>) -> tensor<32x1x1x128xi1> loc(#loc86)
        %85 = "ttir.where"(%84, %2, %1) : (tensor<32x1x1x128xi1>, tensor<32x1x1x128xbf16>, tensor<32x1x1x128xbf16>) -> tensor<32x1x1x128xbf16> loc(#loc87)
        %86 = "ttir.typecast"(%85) <{conservative_folding = false}> : (tensor<32x1x1x128xbf16>) -> tensor<32x1x1x128xf32> loc(#loc88)
        %87 = "ttir.reshape"(%86) <{shape = [32 : i32, 1 : i32, 128 : i32]}> : (tensor<32x1x1x128xf32>) -> tensor<32x1x128xf32> loc(#loc89)
        %88 = "ttir.reshape"(%87) <{shape = [32 : i32, 1 : i32, 1 : i32, 128 : i32]}> : (tensor<32x1x128xf32>) -> tensor<32x1x1x128xf32> loc(#loc90)
        %89 = "ttir.broadcast"(%88) <{broadcast_dimensions = array<i64: 1, 32, 1, 1>}> : (tensor<32x1x1x128xf32>) -> tensor<32x32x1x128xf32> loc(#loc90)
        %90 = "ttir.add"(%78, %89) : (tensor<32x32x1x128xf32>, tensor<32x32x1x128xf32>) -> tensor<32x32x1x128xf32> loc(#loc91)
        %91 = "ttir.constant"() <{value = dense<0xFF800000> : tensor<32x32x1x128xf32>}> : () -> tensor<32x32x1x128xf32> loc(#loc)
        %92 = "ttir.eq"(%90, %91) : (tensor<32x32x1x128xf32>, tensor<32x32x1x128xf32>) -> tensor<32x32x1x128xi1> loc(#loc92)
        %93 = "ttir.logical_not"(%92) : (tensor<32x32x1x128xi1>) -> tensor<32x32x1x128xi1> loc(#loc93)
        %94 = "ttir.reduce_or"(%93) <{dim_arg = [3 : i32], keep_dim = false}> : (tensor<32x32x1x128xi1>) -> tensor<32x32x1xi1> loc(#loc94)
        %95 = "ttir.reshape"(%94) <{shape = [32 : i32, 32 : i32, 1 : i32, 1 : i32]}> : (tensor<32x32x1xi1>) -> tensor<32x32x1x1xi1> loc(#loc95)
        %96 = "ttir.logical_not"(%95) : (tensor<32x32x1x1xi1>) -> tensor<32x32x1x1xi1> loc(#loc96)
        %97 = "ttir.reshape"(%96) <{shape = [32 : i32, 32 : i32, 1 : i32]}> : (tensor<32x32x1x1xi1>) -> tensor<32x32x1xi1> loc(#loc97)
        %98 = "ttir.reshape"(%97) <{shape = [32 : i32, 32 : i32, 1 : i32, 1 : i32]}> : (tensor<32x32x1xi1>) -> tensor<32x32x1x1xi1> loc(#loc98)
        %99 = "ttir.broadcast"(%98) <{broadcast_dimensions = array<i64: 1, 1, 1, 128>}> : (tensor<32x32x1x1xi1>) -> tensor<32x32x1x128xi1> loc(#loc98)
        %100 = "ttir.max"(%90) <{dim_arg = [3 : i32], keep_dim = false}> : (tensor<32x32x1x128xf32>) -> tensor<32x32x1xf32> loc(#loc99)
        %101 = "ttir.reshape"(%100) <{shape = [32 : i32, 32 : i32, 1 : i32, 1 : i32]}> : (tensor<32x32x1xf32>) -> tensor<32x32x1x1xf32> loc(#loc100)
        %102 = "ttir.broadcast"(%101) <{broadcast_dimensions = array<i64: 1, 1, 1, 128>}> : (tensor<32x32x1x1xf32>) -> tensor<32x32x1x128xf32> loc(#loc100)
        %103 = "ttir.subtract"(%90, %102) : (tensor<32x32x1x128xf32>, tensor<32x32x1x128xf32>) -> tensor<32x32x1x128xf32> loc(#loc101)
        %104 = "ttir.exp"(%103) : (tensor<32x32x1x128xf32>) -> tensor<32x32x1x128xf32> loc(#loc102)
        %105 = "ttir.sum"(%104) <{dim_arg = [3 : i32], keep_dim = false}> : (tensor<32x32x1x128xf32>) -> tensor<32x32x1xf32> loc(#loc103)
        %106 = "ttir.reshape"(%105) <{shape = [32 : i32, 32 : i32, 1 : i32, 1 : i32]}> : (tensor<32x32x1xf32>) -> tensor<32x32x1x1xf32> loc(#loc104)
        %107 = "ttir.broadcast"(%106) <{broadcast_dimensions = array<i64: 1, 1, 1, 128>}> : (tensor<32x32x1x1xf32>) -> tensor<32x32x1x128xf32> loc(#loc104)
        %108 = "ttir.div"(%104, %107) : (tensor<32x32x1x128xf32>, tensor<32x32x1x128xf32>) -> tensor<32x32x1x128xf32> loc(#loc105)
        %109 = "ttir.where"(%99, %0, %108) : (tensor<32x32x1x128xi1>, tensor<32x32x1x128xf32>, tensor<32x32x1x128xf32>) -> tensor<32x32x1x128xf32> loc(#loc106)
        %110 = "ttir.reshape"(%arg6) <{shape = [32 : i32, 8 : i32, 1 : i32, 128 : i32, 128 : i32]}> : (tensor<32x8x128x128xbf16>) -> tensor<32x8x1x128x128xbf16> loc(#loc107)
        %111 = "ttir.broadcast"(%110) <{broadcast_dimensions = array<i64: 1, 1, 4, 1, 1>}> : (tensor<32x8x1x128x128xbf16>) -> tensor<32x8x4x128x128xbf16> loc(#loc107)
        %112 = "ttir.reshape"(%111) <{shape = [32 : i32, 32 : i32, 128 : i32, 128 : i32]}> : (tensor<32x8x4x128x128xbf16>) -> tensor<32x32x128x128xbf16> loc(#loc108)
        %113 = "ttir.typecast"(%112) <{conservative_folding = false}> : (tensor<32x32x128x128xbf16>) -> tensor<32x32x128x128xf32> loc(#loc109)
        %114 = "ttir.dot_general"(%109, %113) <{batch_dims_lhs = array<i64: 0, 1>, batch_dims_rhs = array<i64: 0, 1>, contract_dims_lhs = array<i64: 3>, contract_dims_rhs = array<i64: 2>}> : (tensor<32x32x1x128xf32>, tensor<32x32x128x128xf32>) -> tensor<32x32x1x128xf32> loc(#loc110)
        %115 = "ttir.typecast"(%114) <{conservative_folding = false}> : (tensor<32x32x1x128xf32>) -> tensor<32x32x1x128xbf16> loc(#loc111)
        %116 = "ttir.reshape"(%115) <{shape = [32 : i32, 4096 : i32]}> : (tensor<32x32x1x128xbf16>) -> tensor<32x4096xbf16> loc(#loc112)
        %117 = "ttir.permute"(%arg15) <{permutation = array<i64: 1, 0>}> : (tensor<4096x4096xbf16>) -> tensor<4096x4096xbf16> loc(#loc113)
        %118 = "ttir.dot_general"(%116, %117) <{batch_dims_lhs = array<i64>, batch_dims_rhs = array<i64>, contract_dims_lhs = array<i64: 1>, contract_dims_rhs = array<i64: 0>}> : (tensor<32x4096xbf16>, tensor<4096x4096xbf16>) -> tensor<32x4096xbf16> loc(#loc114)
        %119 = "ttir.reshape"(%118) <{shape = [32 : i32, 1 : i32, 4096 : i32]}> : (tensor<32x4096xbf16>) -> tensor<32x1x4096xbf16> loc(#loc115)
        %120 = "ttir.add"(%24, %119) : (tensor<32x1x4096xbf16>, tensor<32x1x4096xbf16>) -> tensor<32x1x4096xbf16> loc(#loc116)
        %121 = "ttir.rms_norm"(%120, %arg14) <{epsilon = 9.99999974E-6 : f32, normalized_shape = array<i64: 4096>, operandSegmentSizes = array<i32: 1, 1, 0>}> : (tensor<32x1x4096xbf16>, tensor<4096xbf16>) -> tensor<32x1x4096xbf16> loc(#loc117)
        %122 = "ttir.reshape"(%121) <{shape = [32 : i32, 4096 : i32]}> : (tensor<32x1x4096xbf16>) -> tensor<32x4096xbf16> loc(#loc118)
        %123 = "ttir.permute"(%arg17) <{permutation = array<i64: 1, 0>}> : (tensor<14336x4096xbf16>) -> tensor<4096x14336xbf16> loc(#loc119)
        %124 = "ttir.dot_general"(%122, %123) <{batch_dims_lhs = array<i64>, batch_dims_rhs = array<i64>, contract_dims_lhs = array<i64: 1>, contract_dims_rhs = array<i64: 0>}> : (tensor<32x4096xbf16>, tensor<4096x14336xbf16>) -> tensor<32x14336xbf16> loc(#loc120)
        %125 = "ttir.reshape"(%124) <{shape = [32 : i32, 1 : i32, 14336 : i32]}> : (tensor<32x14336xbf16>) -> tensor<32x1x14336xbf16> loc(#loc121)
        %126 = "ttir.typecast"(%125) <{conservative_folding = false}> : (tensor<32x1x14336xbf16>) -> tensor<32x1x14336xf32> loc(#loc122)
        %127 = "ttir.sigmoid"(%126) : (tensor<32x1x14336xf32>) -> tensor<32x1x14336xf32> loc(#loc123)
        %128 = "ttir.multiply"(%126, %127) : (tensor<32x1x14336xf32>, tensor<32x1x14336xf32>) -> tensor<32x1x14336xf32> loc(#loc124)
        %129 = "ttir.typecast"(%128) <{conservative_folding = false}> : (tensor<32x1x14336xf32>) -> tensor<32x1x14336xbf16> loc(#loc125)
        %130 = "ttir.permute"(%arg13) <{permutation = array<i64: 1, 0>}> : (tensor<14336x4096xbf16>) -> tensor<4096x14336xbf16> loc(#loc126)
        %131 = "ttir.dot_general"(%122, %130) <{batch_dims_lhs = array<i64>, batch_dims_rhs = array<i64>, contract_dims_lhs = array<i64: 1>, contract_dims_rhs = array<i64: 0>}> : (tensor<32x4096xbf16>, tensor<4096x14336xbf16>) -> tensor<32x14336xbf16> loc(#loc127)
        %132 = "ttir.reshape"(%131) <{shape = [32 : i32, 1 : i32, 14336 : i32]}> : (tensor<32x14336xbf16>) -> tensor<32x1x14336xbf16> loc(#loc128)
        %133 = "ttir.multiply"(%129, %132) : (tensor<32x1x14336xbf16>, tensor<32x1x14336xbf16>) -> tensor<32x1x14336xbf16> loc(#loc129)
        %134 = "ttir.reshape"(%133) <{shape = [32 : i32, 14336 : i32]}> : (tensor<32x1x14336xbf16>) -> tensor<32x14336xbf16> loc(#loc130)
        %135 = "ttir.permute"(%arg12) <{permutation = array<i64: 1, 0>}> : (tensor<4096x14336xbf16>) -> tensor<14336x4096xbf16> loc(#loc131)
        %136 = "ttir.dot_general"(%134, %135) <{batch_dims_lhs = array<i64>, batch_dims_rhs = array<i64>, contract_dims_lhs = array<i64: 1>, contract_dims_rhs = array<i64: 0>}> : (tensor<32x14336xbf16>, tensor<14336x4096xbf16>) -> tensor<32x4096xbf16> loc(#loc132)
        %137 = "ttir.reshape"(%136) <{shape = [32 : i32, 1 : i32, 4096 : i32]}> : (tensor<32x4096xbf16>) -> tensor<32x1x4096xbf16> loc(#loc133)
        %138 = "ttir.add"(%120, %137) : (tensor<32x1x4096xbf16>, tensor<32x1x4096xbf16>) -> tensor<32x1x4096xbf16> loc(#loc134)
        %139 = "ttir.rms_norm"(%138, %arg11) <{epsilon = 9.99999974E-6 : f32, normalized_shape = array<i64: 4096>, operandSegmentSizes = array<i32: 1, 1, 0>}> : (tensor<32x1x4096xbf16>, tensor<4096xbf16>) -> tensor<32x1x4096xbf16> loc(#loc135)
        %140 = "ttir.reshape"(%139) <{shape = [32 : i32, 4096 : i32]}> : (tensor<32x1x4096xbf16>) -> tensor<32x4096xbf16> loc(#loc136)
        %141 = "ttir.permute"(%arg10) <{permutation = array<i64: 1, 0>}> : (tensor<32768x4096xbf16>) -> tensor<4096x32768xbf16> loc(#loc137)
        %142 = "ttir.dot_general"(%140, %141) <{batch_dims_lhs = array<i64>, batch_dims_rhs = array<i64>, contract_dims_lhs = array<i64: 1>, contract_dims_rhs = array<i64: 0>}> : (tensor<32x4096xbf16>, tensor<4096x32768xbf16>) -> tensor<32x32768xbf16> loc(#loc138)
        %143 = "ttir.reshape"(%142) <{shape = [32 : i32, 1 : i32, 32768 : i32]}> : (tensor<32x32768xbf16>) -> tensor<32x1x32768xbf16> loc(#loc139)
        %144 = "ttir.arange"() <{arange_dimension = 0 : i64, end = 32768 : si64, start = 0 : si64, step = 1 : si64}> : () -> tensor<32768xi32> loc(#loc140)
        %145 = "ttir.reshape"(%144) <{shape = [1 : i32, 32768 : i32]}> : (tensor<32768xi32>) -> tensor<1x32768xi32> loc(#loc140)
        %146 = "ttir.argmax"(%142) <{dim_arg = [1 : i32], keep_dim = false}> : (tensor<32x32768xbf16>) -> tensor<32xi32> loc(#loc141)
        %147 = "ttir.typecast"(%146) <{conservative_folding = false}> : (tensor<32xi32>) -> tensor<32xi64> loc(#loc142)
        %148 = "ttir.reshape"(%147) <{shape = [32 : i32, 1 : i32]}> : (tensor<32xi64>) -> tensor<32x1xi64> loc(#loc143)
        return %10, %12, %arg6, %arg9, %143, %148 : tensor<1xi64>, tensor<1xi64>, tensor<32x8x128x128xbf16>, tensor<32x8x128x128xbf16>, tensor<32x1x32768xbf16>, tensor<32x1xi64> loc(#loc)
      } loc(#loc)
    } loc(#loc)
  } loc(#loc)
} loc(#loc)
#loc = loc(unknown)
#loc19 = loc("reshape.4")
#loc20 = loc("add.9")
#loc21 = loc("reshape.13")
#loc22 = loc("add.19")
#loc23 = loc("compare.104")
#loc24 = loc("add.101")
#loc25 = loc("select.105")
#loc26 = loc("reshape.44")
#loc27 = loc("reshape.41")
#loc28 = loc("convert.52")
#loc29 = loc("gather.53")
#loc30 = loc("reshape.54")
#loc31 = loc("custom-call.87")
#loc32 = loc("reshape.88")
#loc33 = loc("transpose.27")
#loc34 = loc("dot.89")
#loc35 = loc("transpose.92")
#loc36 = loc("scatter.114")
#loc37 = loc("transpose.146")
#loc38 = loc("dot.148")
#loc39 = loc("transpose.151")
#loc40 = loc("reshape.127")
#loc41 = loc("reshape.123")
#loc42 = loc("convert.128")
#loc43 = loc("convert.120")
#loc44 = loc("dot.131")
#loc45 = loc("transpose.132")
#loc46 = loc("concatenate.133")
#loc47 = loc("cosine.160")
#loc48 = loc("convert.163")
#loc49 = loc("reshape.165")
#loc50 = loc("broadcast.166")
#loc51 = loc("multiply.167")
#loc52 = loc("slice.153")
#loc53 = loc("negate.154")
#loc54 = loc("slice.152")
#loc55 = loc("concatenate.155")
#loc56 = loc("sine.134")
#loc57 = loc("convert.137")
#loc58 = loc("reshape.156")
#loc59 = loc("broadcast.157")
#loc60 = loc("multiply.158")
#loc61 = loc("add.170")
#loc62 = loc("scatter.187")
#loc63 = loc("transpose.312")
#loc64 = loc("dot.314")
#loc65 = loc("transpose.317")
#loc66 = loc("broadcast.326")
#loc67 = loc("multiply.327")
#loc68 = loc("slice.319")
#loc69 = loc("negate.320")
#loc70 = loc("slice.318")
#loc71 = loc("concatenate.321")
#loc72 = loc("broadcast.323")
#loc73 = loc("multiply.324")
#loc74 = loc("add.330")
#loc75 = loc("convert.331")
#loc76 = loc("multiply.333")
#loc77 = loc("broadcast.296")
#loc78 = loc("reshape.297")
#loc79 = loc("convert.298")
#loc80 = loc("transpose.299")
#loc81 = loc("multiply.301")
#loc82 = loc("dot.335")
#loc83 = loc("broadcast.285")
#loc84 = loc("compare.286")
#loc85 = loc("reshape.288")
#loc86 = loc("broadcast.289")
#loc87 = loc("select.291")
#loc88 = loc("convert.337")
#loc89 = loc("reshape.340")
#loc90 = loc("broadcast.341")
#loc91 = loc("add.342")
#loc92 = loc("compare.370")
#loc93 = loc("not.372")
#loc94 = loc("reduce.384")
#loc95 = loc("reshape.388")
#loc96 = loc("not.390")
#loc97 = loc("reshape.392")
#loc98 = loc("broadcast.393")
#loc99 = loc("reduce.348")
#loc100 = loc("broadcast.349")
#loc101 = loc("subtract.350")
#loc102 = loc("exponential.351")
#loc103 = loc("reduce.357")
#loc104 = loc("broadcast.358")
#loc105 = loc("divide.359")
#loc106 = loc("select.394")
#loc107 = loc("broadcast.250")
#loc108 = loc("reshape.251")
#loc109 = loc("convert.252")
#loc110 = loc("dot.396")
#loc111 = loc("convert.398")
#loc112 = loc("reshape.401")
#loc113 = loc("transpose.246")
#loc114 = loc("dot.402")
#loc115 = loc("reshape.403")
#loc116 = loc("add.406")
#loc117 = loc("custom-call.439")
#loc118 = loc("reshape.451")
#loc119 = loc("transpose.450")
#loc120 = loc("dot.452")
#loc121 = loc("reshape.453")
#loc122 = loc("convert.454")
#loc123 = loc("logistic.455")
#loc124 = loc("multiply.456")
#loc125 = loc("convert.457")
#loc126 = loc("transpose.225")
#loc127 = loc("dot.441")
#loc128 = loc("reshape.442")
#loc129 = loc("multiply.458")
#loc130 = loc("reshape.459")
#loc131 = loc("transpose.217")
#loc132 = loc("dot.460")
#loc133 = loc("reshape.461")
#loc134 = loc("add.464")
#loc135 = loc("custom-call.497")
#loc136 = loc("reshape.498")
#loc137 = loc("transpose.196")
#loc138 = loc("dot.499")
#loc139 = loc("reshape.500")
#loc140 = loc("iota.505")
#loc141 = loc("reduce.530")
#loc142 = loc("convert.532")
#loc143 = loc("reshape.533")
#loc144 = loc(fused[#loc26, #loc27])
#loc145 = loc("gather.53_permuteInput"(#loc29))
#loc146 = loc("gather.53_reshapeInput"(#loc29))
#loc147 = loc("gather.53_reshapeStartIndices"(#loc29))
#loc148 = loc("gather.53_reshapeOutput"(#loc29))
#loc149 = loc("gather.53_permuteOutput"(#loc29))
#loc150 = loc(fused[#loc40, #loc41])
