#loc1 = loc("p0.3")
#loc2 = loc("p1.12")
#loc3 = loc("p2.21")
#loc4 = loc("p3.25")
#loc5 = loc("p4.34")
#loc6 = loc("p5.45")
#loc7 = loc("p6.50")
#loc8 = loc("p7.139")
#loc9 = loc("p8.173")
#loc10 = loc("p9.182")
#loc11 = loc("p10.186")
#loc12 = loc("p11.210")
#loc13 = loc("p12.258")
#loc14 = loc("p13.267")
#loc15 = loc("p14.271")
#loc16 = loc("p15.280")
#loc17 = loc("p16.294")
#loc18 = loc("p17.298")
#loc19 = loc("p18.313")
#loc20 = loc("p19.317")
#loc21 = loc("p20.357")
#loc22 = loc("p21.361")
#loc23 = loc("p22.417")
#loc24 = loc("p23.421")
#loc25 = loc("p24.617")
module @SyncTensorsGraph.668 attributes {mhlo.cross_program_prefetches = [], mhlo.input_output_alias = [], mhlo.is_dynamic = false, mhlo.use_auto_spmd_partitioning = false, ttcore.meshes = #ttcore.meshes<[<"mesh" = 1x1>]>} {
  ttcore.device_module {
    builtin.module @SyncTensorsGraph.668 attributes {mhlo.cross_program_prefetches = [], mhlo.input_output_alias = [], mhlo.is_dynamic = false, mhlo.use_auto_spmd_partitioning = false, ttcore.meshes = #ttcore.meshes<[<"mesh" = 1x1>]>} {
      func.func @main(%arg0: tensor<1xi64> {ttcore.argument_type = #ttcore.argument_type<input>, ttcore.local_shape = #ttcore<local_shape local_shape = tensor<1xi64>>, ttcore.shard_status = #ttcore.shard_status<unsharded>, ttir.name = "arg22_1"} loc("p0.3"), %arg1: tensor<1xi64> {ttcore.argument_type = #ttcore.argument_type<input>, ttcore.local_shape = #ttcore<local_shape local_shape = tensor<1xi64>>, ttcore.shard_status = #ttcore.shard_status<unsharded>, ttir.name = "arg20_1"} loc("p1.12"), %arg2: tensor<2560xbf16> {ttcore.argument_type = #ttcore.argument_type<parameter>, ttcore.local_shape = #ttcore<local_shape local_shape = tensor<2560xbf16>>, ttcore.shard_status = #ttcore.shard_status<unsharded>, ttir.name = "model.model.layers.0.self_attn.v_proj.bias"} loc("p2.21"), %arg3: tensor<2560x2560xbf16> {ttcore.argument_type = #ttcore.argument_type<parameter>, ttcore.local_shape = #ttcore<local_shape local_shape = tensor<2560x2560xbf16>>, ttcore.shard_status = #ttcore.shard_status<unsharded>, ttcore.weight_dtype = "bfp_bf8", ttir.name = "model.model.layers.0.self_attn.v_proj.parametrizations.weight.original"} loc("p3.25"), %arg4: tensor<2560xbf16> {ttcore.argument_type = #ttcore.argument_type<parameter>, ttcore.local_shape = #ttcore<local_shape local_shape = tensor<2560xbf16>>, ttcore.shard_status = #ttcore.shard_status<unsharded>, ttcore.weight_dtype = "bfp_bf8", ttir.name = "model.model.layers.0.input_layernorm.parametrizations.weight.original"} loc("p4.34"), %arg5: tensor<32x1xi64> {ttcore.argument_type = #ttcore.argument_type<input>, ttcore.local_shape = #ttcore<local_shape local_shape = tensor<32x1xi64>>, ttcore.shard_status = #ttcore.shard_status<unsharded>, ttir.name = "arg21_1"} loc("p5.45"), %arg6: tensor<51200x2560xbf16> {ttcore.argument_type = #ttcore.argument_type<parameter>, ttcore.local_shape = #ttcore<local_shape local_shape = tensor<51200x2560xbf16>>, ttcore.shard_status = #ttcore.shard_status<unsharded>, ttcore.weight_dtype = "bfp_bf8", ttir.name = "model.model.embed_tokens.parametrizations.weight.original"} loc("p6.50"), %arg7: tensor<2560xbf16> {ttcore.argument_type = #ttcore.argument_type<parameter>, ttcore.local_shape = #ttcore<local_shape local_shape = tensor<2560xbf16>>, ttcore.shard_status = #ttcore.shard_status<unsharded>, ttir.name = "model.model.layers.0.input_layernorm.bias"} loc("p7.139"), %arg8: tensor<32x32x128x80xbf16> {ttcore.argument_type = #ttcore.argument_type<input>, ttcore.local_shape = #ttcore<local_shape local_shape = tensor<32x32x128x80xbf16>>, ttcore.shard_status = #ttcore.shard_status<unsharded>, ttir.name = "arg24_1"} loc("p8.173"), %arg9: tensor<2560xbf16> {ttcore.argument_type = #ttcore.argument_type<parameter>, ttcore.local_shape = #ttcore<local_shape local_shape = tensor<2560xbf16>>, ttcore.shard_status = #ttcore.shard_status<unsharded>, ttir.name = "model.model.layers.0.self_attn.k_proj.bias"} loc("p9.182"), %arg10: tensor<2560x2560xbf16> {ttcore.argument_type = #ttcore.argument_type<parameter>, ttcore.local_shape = #ttcore<local_shape local_shape = tensor<2560x2560xbf16>>, ttcore.shard_status = #ttcore.shard_status<unsharded>, ttcore.weight_dtype = "bfp_bf8", ttir.name = "model.model.layers.0.self_attn.k_proj.parametrizations.weight.original"} loc("p10.186"), %arg11: tensor<16xbf16> {ttcore.argument_type = #ttcore.argument_type<constant>, ttcore.local_shape = #ttcore<local_shape local_shape = tensor<16xbf16>>, ttcore.shard_status = #ttcore.shard_status<unsharded>, ttir.name = "model.model.rotary_emb.inv_freq"} loc("p11.210"), %arg12: tensor<32x32x128x80xbf16> {ttcore.argument_type = #ttcore.argument_type<input>, ttcore.local_shape = #ttcore<local_shape local_shape = tensor<32x32x128x80xbf16>>, ttcore.shard_status = #ttcore.shard_status<unsharded>, ttir.name = "arg23_1"} loc("p12.258"), %arg13: tensor<51200xbf16> {ttcore.argument_type = #ttcore.argument_type<parameter>, ttcore.local_shape = #ttcore<local_shape local_shape = tensor<51200xbf16>>, ttcore.shard_status = #ttcore.shard_status<unsharded>, ttir.name = "model.lm_head.bias"} loc("p13.267"), %arg14: tensor<51200x2560xbf16> {ttcore.argument_type = #ttcore.argument_type<parameter>, ttcore.local_shape = #ttcore<local_shape local_shape = tensor<51200x2560xbf16>>, ttcore.shard_status = #ttcore.shard_status<unsharded>, ttcore.weight_dtype = "bfp_bf8", ttir.name = "model.lm_head.parametrizations.weight.original"} loc("p14.271"), %arg15: tensor<2560xbf16> {ttcore.argument_type = #ttcore.argument_type<parameter>, ttcore.local_shape = #ttcore<local_shape local_shape = tensor<2560xbf16>>, ttcore.shard_status = #ttcore.shard_status<unsharded>, ttcore.weight_dtype = "bfp_bf8", ttir.name = "model.model.final_layernorm.parametrizations.weight.original"} loc("p15.280"), %arg16: tensor<2560xbf16> {ttcore.argument_type = #ttcore.argument_type<parameter>, ttcore.local_shape = #ttcore<local_shape local_shape = tensor<2560xbf16>>, ttcore.shard_status = #ttcore.shard_status<unsharded>, ttir.name = "model.model.layers.0.mlp.fc2.bias"} loc("p16.294"), %arg17: tensor<2560x10240xbf16> {ttcore.argument_type = #ttcore.argument_type<parameter>, ttcore.local_shape = #ttcore<local_shape local_shape = tensor<2560x10240xbf16>>, ttcore.shard_status = #ttcore.shard_status<unsharded>, ttcore.weight_dtype = "bfp_bf8", ttir.name = "model.model.layers.0.mlp.fc2.parametrizations.weight.original"} loc("p17.298"), %arg18: tensor<10240xbf16> {ttcore.argument_type = #ttcore.argument_type<parameter>, ttcore.local_shape = #ttcore<local_shape local_shape = tensor<10240xbf16>>, ttcore.shard_status = #ttcore.shard_status<unsharded>, ttir.name = "model.model.layers.0.mlp.fc1.bias"} loc("p18.313"), %arg19: tensor<10240x2560xbf16> {ttcore.argument_type = #ttcore.argument_type<parameter>, ttcore.local_shape = #ttcore<local_shape local_shape = tensor<10240x2560xbf16>>, ttcore.shard_status = #ttcore.shard_status<unsharded>, ttcore.weight_dtype = "bfp_bf8", ttir.name = "model.model.layers.0.mlp.fc1.parametrizations.weight.original"} loc("p19.317"), %arg20: tensor<2560xbf16> {ttcore.argument_type = #ttcore.argument_type<parameter>, ttcore.local_shape = #ttcore<local_shape local_shape = tensor<2560xbf16>>, ttcore.shard_status = #ttcore.shard_status<unsharded>, ttir.name = "model.model.layers.0.self_attn.dense.bias"} loc("p20.357"), %arg21: tensor<2560x2560xbf16> {ttcore.argument_type = #ttcore.argument_type<parameter>, ttcore.local_shape = #ttcore<local_shape local_shape = tensor<2560x2560xbf16>>, ttcore.shard_status = #ttcore.shard_status<unsharded>, ttcore.weight_dtype = "bfp_bf8", ttir.name = "model.model.layers.0.self_attn.dense.parametrizations.weight.original"} loc("p21.361"), %arg22: tensor<2560xbf16> {ttcore.argument_type = #ttcore.argument_type<parameter>, ttcore.local_shape = #ttcore<local_shape local_shape = tensor<2560xbf16>>, ttcore.shard_status = #ttcore.shard_status<unsharded>, ttir.name = "model.model.layers.0.self_attn.q_proj.bias"} loc("p22.417"), %arg23: tensor<2560x2560xbf16> {ttcore.argument_type = #ttcore.argument_type<parameter>, ttcore.local_shape = #ttcore<local_shape local_shape = tensor<2560x2560xbf16>>, ttcore.shard_status = #ttcore.shard_status<unsharded>, ttcore.weight_dtype = "bfp_bf8", ttir.name = "model.model.layers.0.self_attn.q_proj.parametrizations.weight.original"} loc("p23.421"), %arg24: tensor<2560xbf16> {ttcore.argument_type = #ttcore.argument_type<parameter>, ttcore.local_shape = #ttcore<local_shape local_shape = tensor<2560xbf16>>, ttcore.shard_status = #ttcore.shard_status<unsharded>, ttir.name = "model.model.final_layernorm.bias"} loc("p24.617")) -> (tensor<1xi64> {ttcore.local_shape = #ttcore<local_shape local_shape = tensor<1xi64>>, ttcore.shard_status = #ttcore.shard_status<presharded>}, tensor<1xi64> {ttcore.local_shape = #ttcore<local_shape local_shape = tensor<1xi64>>, ttcore.shard_status = #ttcore.shard_status<presharded>}, tensor<32x32x128x80xbf16> {ttcore.local_shape = #ttcore<local_shape local_shape = tensor<32x32x128x80xbf16>>, ttcore.shard_status = #ttcore.shard_status<presharded>}, tensor<32x32x128x80xbf16> {ttcore.local_shape = #ttcore<local_shape local_shape = tensor<32x32x128x80xbf16>>, ttcore.shard_status = #ttcore.shard_status<presharded>}, tensor<32x1x51200xbf16> {ttcore.local_shape = #ttcore<local_shape local_shape = tensor<32x1x51200xbf16>>, ttcore.shard_status = #ttcore.shard_status<presharded>}, tensor<32x1xi64> {ttcore.local_shape = #ttcore<local_shape local_shape = tensor<32x1xi64>>, ttcore.shard_status = #ttcore.shard_status<presharded>}) {
        %0 = "ttir.constant"() <{value = dense<1.000000e+00> : tensor<32x1x10240xbf16>}> : () -> tensor<32x1x10240xbf16> loc(#loc)
        %1 = "ttir.constant"() <{value = dense<7.968750e-01> : tensor<32x1x10240xbf16>}> : () -> tensor<32x1x10240xbf16> loc(#loc)
        %2 = "ttir.constant"() <{value = dense<4.467770e-02> : tensor<32x1x10240xbf16>}> : () -> tensor<32x1x10240xbf16> loc(#loc)
        %3 = "ttir.constant"() <{value = dense<3.000000e+00> : tensor<32x1x10240xbf16>}> : () -> tensor<32x1x10240xbf16> loc(#loc)
        %4 = "ttir.constant"() <{value = dense<5.000000e-01> : tensor<32x1x10240xbf16>}> : () -> tensor<32x1x10240xbf16> loc(#loc)
        %5 = "ttir.constant"() <{value = dense<0.000000e+00> : tensor<32x32x1x128xf32>}> : () -> tensor<32x32x1x128xf32> loc(#loc)
        %6 = "ttir.constant"() <{value = dense<0xFF80> : tensor<32x1x1x128xbf16>}> : () -> tensor<32x1x1x128xbf16> loc(#loc)
        %7 = "ttir.constant"() <{value = dense<0.000000e+00> : tensor<32x1x1x128xbf16>}> : () -> tensor<32x1x1x128xbf16> loc(#loc)
        %8 = "ttir.constant"() <{value = dense<"…"> : tensor<1x1x1x128xi64>}> : () -> tensor<1x1x1x128xi64> loc(#loc)
        %9 = "ttir.constant"() <{value = dense<0.334370166> : tensor<32x32x80x128xf32>}> : () -> tensor<32x32x80x128xf32> loc(#loc)
        %10 = "ttir.constant"() <{value = dense<0.334370166> : tensor<32x32x1x80xf32>}> : () -> tensor<32x32x1x80xf32> loc(#loc)
        %11 = "ttir.constant"() <{value = dense<9.99999974E-6> : tensor<1x32x1xf32>}> : () -> tensor<1x32x1xf32> loc(#loc)
        %12 = "ttir.constant"() <{value = dense<3.906250e-04> : tensor<32xf32>}> : () -> tensor<32xf32> loc(#loc)
        %13 = "ttir.constant"() <{value = dense<128> : tensor<1xi64>}> : () -> tensor<1xi64> loc(#loc)
        %14 = "ttir.constant"() <{value = dense<0> : tensor<1xi64>}> : () -> tensor<1xi64> loc(#loc)
        %15 = "ttir.constant"() <{value = dense<1> : tensor<1xi64>}> : () -> tensor<1xi64> loc(#loc)
        %16 = "ttir.reshape"(%arg0) <{shape = [1 : i32, 1 : i32, 1 : i32]}> : (tensor<1xi64>) -> tensor<1x1x1xi64> loc(#loc26)
        %17 = "ttir.add"(%arg0, %15) : (tensor<1xi64>, tensor<1xi64>) -> tensor<1xi64> loc(#loc27)
        %18 = "ttir.reshape"(%arg1) <{shape = [1 : i32, 1 : i32, 1 : i32]}> : (tensor<1xi64>) -> tensor<1x1x1xi64> loc(#loc28)
        %19 = "ttir.add"(%arg1, %15) : (tensor<1xi64>, tensor<1xi64>) -> tensor<1xi64> loc(#loc29)
        %20 = "ttir.lt"(%arg0, %14) : (tensor<1xi64>, tensor<1xi64>) -> tensor<1xi1> loc(#loc30)
        %21 = "ttir.add"(%arg0, %13) : (tensor<1xi64>, tensor<1xi64>) -> tensor<1xi64> loc(#loc31)
        %22 = "ttir.where"(%20, %21, %arg0) : (tensor<1xi1>, tensor<1xi64>, tensor<1xi64>) -> tensor<1xi64> loc(#loc32)
        %23 = "ttir.typecast"(%arg7) <{conservative_folding = false}> : (tensor<2560xbf16>) -> tensor<2560xf32> loc(#loc33)
        %24 = "ttir.reshape"(%23) <{shape = [1 : i32, 1 : i32, 2560 : i32]}> : (tensor<2560xf32>) -> tensor<1x1x2560xf32> loc(#loc34)
        %25 = "ttir.broadcast"(%24) <{broadcast_dimensions = array<i64: 32, 1, 1>}> : (tensor<1x1x2560xf32>) -> tensor<32x1x2560xf32> loc(#loc34)
        %26 = "ttir.reshape"(%arg5) <{shape = [32 : i32]}> : (tensor<32x1xi64>) -> tensor<32xi64> loc(#loc217)
        %27 = "ttir.typecast"(%26) <{conservative_folding = false}> : (tensor<32xi64>) -> tensor<32xui32> loc(#loc37)
        %28 = "ttir.permute"(%arg6) <{permutation = array<i64: 0, 1>}> : (tensor<51200x2560xbf16>) -> tensor<51200x2560xbf16> loc(#loc218)
        %29 = "ttir.reshape"(%28) <{shape = [51200 : i32, 2560 : i32]}> : (tensor<51200x2560xbf16>) -> tensor<51200x2560xbf16> loc(#loc219)
        %30 = "ttir.reshape"(%27) <{shape = [1 : i32, 32 : i32]}> : (tensor<32xui32>) -> tensor<1x32xui32> loc(#loc220)
        %31 = "ttir.embedding"(%30, %29) : (tensor<1x32xui32>, tensor<51200x2560xbf16>) -> tensor<1x32x2560xbf16> loc(#loc38)
        %32 = "ttir.reshape"(%31) <{shape = [32 : i32, 2560 : i32]}> : (tensor<1x32x2560xbf16>) -> tensor<32x2560xbf16> loc(#loc221)
        %33 = "ttir.permute"(%32) <{permutation = array<i64: 0, 1>}> : (tensor<32x2560xbf16>) -> tensor<32x2560xbf16> loc(#loc222)
        %34 = "ttir.reshape"(%33) <{shape = [32 : i32, 1 : i32, 2560 : i32]}> : (tensor<32x2560xbf16>) -> tensor<32x1x2560xbf16> loc(#loc39)
        %35 = "ttir.reshape"(%33) <{shape = [1 : i32, 32 : i32, 2560 : i32]}> : (tensor<32x2560xbf16>) -> tensor<1x32x2560xbf16> loc(#loc40)
        %36 = "ttir.typecast"(%35) <{conservative_folding = false}> : (tensor<1x32x2560xbf16>) -> tensor<1x32x2560xf32> loc(#loc41)
        %37 = "ttir.sum"(%36) <{dim_arg = [0 : i32, 2 : i32], keep_dim = false}> : (tensor<1x32x2560xf32>) -> tensor<32xf32> loc(#loc42)
        %38 = "ttir.multiply"(%37, %12) : (tensor<32xf32>, tensor<32xf32>) -> tensor<32xf32> loc(#loc43)
        %39 = "ttir.reshape"(%38) <{shape = [1 : i32, 32 : i32]}> : (tensor<32xf32>) -> tensor<1x32xf32> loc(#loc44)
        %40 = "ttir.reshape"(%39) <{shape = [1 : i32, 32 : i32, 1 : i32]}> : (tensor<1x32xf32>) -> tensor<1x32x1xf32> loc(#loc45)
        %41 = "ttir.broadcast"(%40) <{broadcast_dimensions = array<i64: 1, 1, 2560>}> : (tensor<1x32x1xf32>) -> tensor<1x32x2560xf32> loc(#loc45)
        %42 = "ttir.subtract"(%36, %41) : (tensor<1x32x2560xf32>, tensor<1x32x2560xf32>) -> tensor<1x32x2560xf32> loc(#loc46)
        %43 = "ttir.multiply"(%42, %42) : (tensor<1x32x2560xf32>, tensor<1x32x2560xf32>) -> tensor<1x32x2560xf32> loc(#loc47)
        %44 = "ttir.sum"(%43) <{dim_arg = [0 : i32, 2 : i32], keep_dim = false}> : (tensor<1x32x2560xf32>) -> tensor<32xf32> loc(#loc48)
        %45 = "ttir.multiply"(%44, %12) : (tensor<32xf32>, tensor<32xf32>) -> tensor<32xf32> loc(#loc49)
        %46 = "ttir.reshape"(%45) <{shape = [1 : i32, 32 : i32, 1 : i32]}> : (tensor<32xf32>) -> tensor<1x32x1xf32> loc(#loc50)
        %47 = "ttir.add"(%46, %11) : (tensor<1x32x1xf32>, tensor<1x32x1xf32>) -> tensor<1x32x1xf32> loc(#loc51)
        %48 = "ttir.rsqrt"(%47) : (tensor<1x32x1xf32>) -> tensor<1x32x1xf32> loc(#loc52)
        %49 = "ttir.reshape"(%48) <{shape = [1 : i32, 32 : i32]}> : (tensor<1x32x1xf32>) -> tensor<1x32xf32> loc(#loc53)
        %50 = "ttir.reshape"(%49) <{shape = [1 : i32, 32 : i32, 1 : i32]}> : (tensor<1x32xf32>) -> tensor<1x32x1xf32> loc(#loc54)
        %51 = "ttir.broadcast"(%50) <{broadcast_dimensions = array<i64: 1, 1, 2560>}> : (tensor<1x32x1xf32>) -> tensor<1x32x2560xf32> loc(#loc54)
        %52 = "ttir.multiply"(%42, %51) : (tensor<1x32x2560xf32>, tensor<1x32x2560xf32>) -> tensor<1x32x2560xf32> loc(#loc55)
        %53 = "ttir.typecast"(%52) <{conservative_folding = false}> : (tensor<1x32x2560xf32>) -> tensor<1x32x2560xbf16> loc(#loc56)
        %54 = "ttir.reshape"(%53) <{shape = [32 : i32, 1 : i32, 2560 : i32]}> : (tensor<1x32x2560xbf16>) -> tensor<32x1x2560xbf16> loc(#loc57)
        %55 = "ttir.typecast"(%54) <{conservative_folding = false}> : (tensor<32x1x2560xbf16>) -> tensor<32x1x2560xf32> loc(#loc58)
        %56 = "ttir.typecast"(%arg4) <{conservative_folding = false}> : (tensor<2560xbf16>) -> tensor<2560xf32> loc(#loc59)
        %57 = "ttir.reshape"(%56) <{shape = [1 : i32, 1 : i32, 2560 : i32]}> : (tensor<2560xf32>) -> tensor<1x1x2560xf32> loc(#loc60)
        %58 = "ttir.broadcast"(%57) <{broadcast_dimensions = array<i64: 32, 1, 1>}> : (tensor<1x1x2560xf32>) -> tensor<32x1x2560xf32> loc(#loc60)
        %59 = "ttir.multiply"(%55, %58) : (tensor<32x1x2560xf32>, tensor<32x1x2560xf32>) -> tensor<32x1x2560xf32> loc(#loc61)
        %60 = "ttir.add"(%25, %59) : (tensor<32x1x2560xf32>, tensor<32x1x2560xf32>) -> tensor<32x1x2560xf32> loc(#loc62)
        %61 = "ttir.typecast"(%60) <{conservative_folding = false}> : (tensor<32x1x2560xf32>) -> tensor<32x1x2560xbf16> loc(#loc63)
        %62 = "ttir.reshape"(%61) <{shape = [32 : i32, 2560 : i32]}> : (tensor<32x1x2560xbf16>) -> tensor<32x2560xbf16> loc(#loc64)
        %63 = "ttir.permute"(%arg3) <{permutation = array<i64: 1, 0>}> : (tensor<2560x2560xbf16>) -> tensor<2560x2560xbf16> loc(#loc65)
        %64 = "ttir.dot_general"(%62, %63) <{batch_dims_lhs = array<i64>, batch_dims_rhs = array<i64>, contract_dims_lhs = array<i64: 1>, contract_dims_rhs = array<i64: 0>}> : (tensor<32x2560xbf16>, tensor<2560x2560xbf16>) -> tensor<32x2560xbf16> loc(#loc66)
        %65 = "ttir.reshape"(%64) <{shape = [32 : i32, 1 : i32, 2560 : i32]}> : (tensor<32x2560xbf16>) -> tensor<32x1x2560xbf16> loc(#loc67)
        %66 = "ttir.reshape"(%arg2) <{shape = [1 : i32, 1 : i32, 2560 : i32]}> : (tensor<2560xbf16>) -> tensor<1x1x2560xbf16> loc(#loc68)
        %67 = "ttir.broadcast"(%66) <{broadcast_dimensions = array<i64: 32, 1, 1>}> : (tensor<1x1x2560xbf16>) -> tensor<32x1x2560xbf16> loc(#loc68)
        %68 = "ttir.add"(%65, %67) : (tensor<32x1x2560xbf16>, tensor<32x1x2560xbf16>) -> tensor<32x1x2560xbf16> loc(#loc69)
        %69 = "ttir.reshape"(%68) <{shape = [32 : i32, 32 : i32, 1 : i32, 80 : i32]}> : (tensor<32x1x2560xbf16>) -> tensor<32x32x1x80xbf16> loc(#loc70)
        %70 = "ttir.permute"(%69) <{permutation = array<i64: 2, 1, 0, 3>}> : (tensor<32x32x1x80xbf16>) -> tensor<1x32x32x80xbf16> loc(#loc71)
        "ttir.update_cache"(%arg8, %70, %arg0) <{batch_offset = 0 : i32}> : (tensor<32x32x128x80xbf16>, tensor<1x32x32x80xbf16>, tensor<1xi64>) -> () loc(#loc71)
        %71 = "ttir.permute"(%arg10) <{permutation = array<i64: 1, 0>}> : (tensor<2560x2560xbf16>) -> tensor<2560x2560xbf16> loc(#loc72)
        %72 = "ttir.dot_general"(%62, %71) <{batch_dims_lhs = array<i64>, batch_dims_rhs = array<i64>, contract_dims_lhs = array<i64: 1>, contract_dims_rhs = array<i64: 0>}> : (tensor<32x2560xbf16>, tensor<2560x2560xbf16>) -> tensor<32x2560xbf16> loc(#loc73)
        %73 = "ttir.reshape"(%72) <{shape = [32 : i32, 1 : i32, 2560 : i32]}> : (tensor<32x2560xbf16>) -> tensor<32x1x2560xbf16> loc(#loc74)
        %74 = "ttir.reshape"(%arg9) <{shape = [1 : i32, 1 : i32, 2560 : i32]}> : (tensor<2560xbf16>) -> tensor<1x1x2560xbf16> loc(#loc75)
        %75 = "ttir.broadcast"(%74) <{broadcast_dimensions = array<i64: 32, 1, 1>}> : (tensor<1x1x2560xbf16>) -> tensor<32x1x2560xbf16> loc(#loc75)
        %76 = "ttir.add"(%73, %75) : (tensor<32x1x2560xbf16>, tensor<32x1x2560xbf16>) -> tensor<32x1x2560xbf16> loc(#loc76)
        %77 = "ttir.reshape"(%76) <{shape = [32 : i32, 32 : i32, 1 : i32, 80 : i32]}> : (tensor<32x1x2560xbf16>) -> tensor<32x32x1x80xbf16> loc(#loc77)
        %78 = "ttir.slice_static"(%77) <{begins = [0 : i32, 0 : i32, 0 : i32, 0 : i32], ends = [32 : i32, 32 : i32, 1 : i32, 32 : i32], step = [1 : i32, 1 : i32, 1 : i32, 1 : i32]}> : (tensor<32x32x1x80xbf16>) -> tensor<32x32x1x32xbf16> loc(#loc78)
        %79 = "ttir.reshape"(%arg11) <{shape = [1 : i32, 16 : i32, 1 : i32]}> : (tensor<16xbf16>) -> tensor<1x16x1xbf16> loc(#loc223)
        %80 = "ttir.typecast"(%79) <{conservative_folding = false}> : (tensor<1x16x1xbf16>) -> tensor<1x16x1xf32> loc(#loc81)
        %81 = "ttir.typecast"(%18) <{conservative_folding = false}> : (tensor<1x1x1xi64>) -> tensor<1x1x1xf32> loc(#loc82)
        %82 = "ttir.dot_general"(%80, %81) <{batch_dims_lhs = array<i64: 0>, batch_dims_rhs = array<i64: 0>, contract_dims_lhs = array<i64: 2>, contract_dims_rhs = array<i64: 1>}> : (tensor<1x16x1xf32>, tensor<1x1x1xf32>) -> tensor<1x16x1xf32> loc(#loc83)
        %83 = "ttir.reshape"(%82) <{shape = [1 : i32, 1 : i32, 16 : i32]}> : (tensor<1x16x1xf32>) -> tensor<1x1x16xf32> loc(#loc84)
        %84 = "ttir.concat"(%83, %83) <{dim = 2 : si32}> : (tensor<1x1x16xf32>, tensor<1x1x16xf32>) -> tensor<1x1x32xf32> loc(#loc85)
        %85 = "ttir.cos"(%84) : (tensor<1x1x32xf32>) -> tensor<1x1x32xf32> loc(#loc86)
        %86 = "ttir.typecast"(%85) <{conservative_folding = false}> : (tensor<1x1x32xf32>) -> tensor<1x1x32xbf16> loc(#loc87)
        %87 = "ttir.reshape"(%86) <{shape = [1 : i32, 32 : i32]}> : (tensor<1x1x32xbf16>) -> tensor<1x32xbf16> loc(#loc88)
        %88 = "ttir.reshape"(%87) <{shape = [1 : i32, 1 : i32, 1 : i32, 32 : i32]}> : (tensor<1x32xbf16>) -> tensor<1x1x1x32xbf16> loc(#loc89)
        %89 = "ttir.broadcast"(%88) <{broadcast_dimensions = array<i64: 32, 32, 1, 1>}> : (tensor<1x1x1x32xbf16>) -> tensor<32x32x1x32xbf16> loc(#loc89)
        %90 = "ttir.multiply"(%78, %89) : (tensor<32x32x1x32xbf16>, tensor<32x32x1x32xbf16>) -> tensor<32x32x1x32xbf16> loc(#loc90)
        %91 = "ttir.slice_static"(%78) <{begins = [0 : i32, 0 : i32, 0 : i32, 16 : i32], ends = [32 : i32, 32 : i32, 1 : i32, 32 : i32], step = [1 : i32, 1 : i32, 1 : i32, 1 : i32]}> : (tensor<32x32x1x32xbf16>) -> tensor<32x32x1x16xbf16> loc(#loc91)
        %92 = "ttir.neg"(%91) : (tensor<32x32x1x16xbf16>) -> tensor<32x32x1x16xbf16> loc(#loc92)
        %93 = "ttir.slice_static"(%78) <{begins = [0 : i32, 0 : i32, 0 : i32, 0 : i32], ends = [32 : i32, 32 : i32, 1 : i32, 16 : i32], step = [1 : i32, 1 : i32, 1 : i32, 1 : i32]}> : (tensor<32x32x1x32xbf16>) -> tensor<32x32x1x16xbf16> loc(#loc93)
        %94 = "ttir.concat"(%92, %93) <{dim = 3 : si32}> : (tensor<32x32x1x16xbf16>, tensor<32x32x1x16xbf16>) -> tensor<32x32x1x32xbf16> loc(#loc94)
        %95 = "ttir.sin"(%84) : (tensor<1x1x32xf32>) -> tensor<1x1x32xf32> loc(#loc95)
        %96 = "ttir.typecast"(%95) <{conservative_folding = false}> : (tensor<1x1x32xf32>) -> tensor<1x1x32xbf16> loc(#loc96)
        %97 = "ttir.reshape"(%96) <{shape = [1 : i32, 32 : i32]}> : (tensor<1x1x32xbf16>) -> tensor<1x32xbf16> loc(#loc97)
        %98 = "ttir.reshape"(%97) <{shape = [1 : i32, 1 : i32, 1 : i32, 32 : i32]}> : (tensor<1x32xbf16>) -> tensor<1x1x1x32xbf16> loc(#loc98)
        %99 = "ttir.broadcast"(%98) <{broadcast_dimensions = array<i64: 32, 32, 1, 1>}> : (tensor<1x1x1x32xbf16>) -> tensor<32x32x1x32xbf16> loc(#loc98)
        %100 = "ttir.multiply"(%94, %99) : (tensor<32x32x1x32xbf16>, tensor<32x32x1x32xbf16>) -> tensor<32x32x1x32xbf16> loc(#loc99)
        %101 = "ttir.add"(%90, %100) : (tensor<32x32x1x32xbf16>, tensor<32x32x1x32xbf16>) -> tensor<32x32x1x32xbf16> loc(#loc100)
        %102 = "ttir.slice_static"(%77) <{begins = [0 : i32, 0 : i32, 0 : i32, 32 : i32], ends = [32 : i32, 32 : i32, 1 : i32, 80 : i32], step = [1 : i32, 1 : i32, 1 : i32, 1 : i32]}> : (tensor<32x32x1x80xbf16>) -> tensor<32x32x1x48xbf16> loc(#loc101)
        %103 = "ttir.concat"(%101, %102) <{dim = 3 : si32}> : (tensor<32x32x1x32xbf16>, tensor<32x32x1x48xbf16>) -> tensor<32x32x1x80xbf16> loc(#loc102)
        %104 = "ttir.permute"(%103) <{permutation = array<i64: 2, 1, 0, 3>}> : (tensor<32x32x1x80xbf16>) -> tensor<1x32x32x80xbf16> loc(#loc103)
        "ttir.update_cache"(%arg12, %104, %arg0) <{batch_offset = 0 : i32}> : (tensor<32x32x128x80xbf16>, tensor<1x32x32x80xbf16>, tensor<1xi64>) -> () loc(#loc103)
        %105 = "ttir.typecast"(%arg24) <{conservative_folding = false}> : (tensor<2560xbf16>) -> tensor<2560xf32> loc(#loc104)
        %106 = "ttir.reshape"(%105) <{shape = [1 : i32, 1 : i32, 2560 : i32]}> : (tensor<2560xf32>) -> tensor<1x1x2560xf32> loc(#loc105)
        %107 = "ttir.broadcast"(%106) <{broadcast_dimensions = array<i64: 32, 1, 1>}> : (tensor<1x1x2560xf32>) -> tensor<32x1x2560xf32> loc(#loc105)
        %108 = "ttir.permute"(%arg23) <{permutation = array<i64: 1, 0>}> : (tensor<2560x2560xbf16>) -> tensor<2560x2560xbf16> loc(#loc106)
        %109 = "ttir.dot_general"(%62, %108) <{batch_dims_lhs = array<i64>, batch_dims_rhs = array<i64>, contract_dims_lhs = array<i64: 1>, contract_dims_rhs = array<i64: 0>}> : (tensor<32x2560xbf16>, tensor<2560x2560xbf16>) -> tensor<32x2560xbf16> loc(#loc107)
        %110 = "ttir.reshape"(%109) <{shape = [32 : i32, 1 : i32, 2560 : i32]}> : (tensor<32x2560xbf16>) -> tensor<32x1x2560xbf16> loc(#loc108)
        %111 = "ttir.reshape"(%arg22) <{shape = [1 : i32, 1 : i32, 2560 : i32]}> : (tensor<2560xbf16>) -> tensor<1x1x2560xbf16> loc(#loc109)
        %112 = "ttir.broadcast"(%111) <{broadcast_dimensions = array<i64: 32, 1, 1>}> : (tensor<1x1x2560xbf16>) -> tensor<32x1x2560xbf16> loc(#loc109)
        %113 = "ttir.add"(%110, %112) : (tensor<32x1x2560xbf16>, tensor<32x1x2560xbf16>) -> tensor<32x1x2560xbf16> loc(#loc110)
        %114 = "ttir.reshape"(%113) <{shape = [32 : i32, 32 : i32, 1 : i32, 80 : i32]}> : (tensor<32x1x2560xbf16>) -> tensor<32x32x1x80xbf16> loc(#loc111)
        %115 = "ttir.slice_static"(%114) <{begins = [0 : i32, 0 : i32, 0 : i32, 0 : i32], ends = [32 : i32, 32 : i32, 1 : i32, 32 : i32], step = [1 : i32, 1 : i32, 1 : i32, 1 : i32]}> : (tensor<32x32x1x80xbf16>) -> tensor<32x32x1x32xbf16> loc(#loc112)
        %116 = "ttir.multiply"(%115, %89) : (tensor<32x32x1x32xbf16>, tensor<32x32x1x32xbf16>) -> tensor<32x32x1x32xbf16> loc(#loc113)
        %117 = "ttir.slice_static"(%115) <{begins = [0 : i32, 0 : i32, 0 : i32, 16 : i32], ends = [32 : i32, 32 : i32, 1 : i32, 32 : i32], step = [1 : i32, 1 : i32, 1 : i32, 1 : i32]}> : (tensor<32x32x1x32xbf16>) -> tensor<32x32x1x16xbf16> loc(#loc114)
        %118 = "ttir.neg"(%117) : (tensor<32x32x1x16xbf16>) -> tensor<32x32x1x16xbf16> loc(#loc115)
        %119 = "ttir.slice_static"(%115) <{begins = [0 : i32, 0 : i32, 0 : i32, 0 : i32], ends = [32 : i32, 32 : i32, 1 : i32, 16 : i32], step = [1 : i32, 1 : i32, 1 : i32, 1 : i32]}> : (tensor<32x32x1x32xbf16>) -> tensor<32x32x1x16xbf16> loc(#loc116)
        %120 = "ttir.concat"(%118, %119) <{dim = 3 : si32}> : (tensor<32x32x1x16xbf16>, tensor<32x32x1x16xbf16>) -> tensor<32x32x1x32xbf16> loc(#loc117)
        %121 = "ttir.multiply"(%120, %99) : (tensor<32x32x1x32xbf16>, tensor<32x32x1x32xbf16>) -> tensor<32x32x1x32xbf16> loc(#loc118)
        %122 = "ttir.add"(%116, %121) : (tensor<32x32x1x32xbf16>, tensor<32x32x1x32xbf16>) -> tensor<32x32x1x32xbf16> loc(#loc119)
        %123 = "ttir.slice_static"(%114) <{begins = [0 : i32, 0 : i32, 0 : i32, 32 : i32], ends = [32 : i32, 32 : i32, 1 : i32, 80 : i32], step = [1 : i32, 1 : i32, 1 : i32, 1 : i32]}> : (tensor<32x32x1x80xbf16>) -> tensor<32x32x1x48xbf16> loc(#loc120)
        %124 = "ttir.concat"(%122, %123) <{dim = 3 : si32}> : (tensor<32x32x1x32xbf16>, tensor<32x32x1x48xbf16>) -> tensor<32x32x1x80xbf16> loc(#loc121)
        %125 = "ttir.typecast"(%124) <{conservative_folding = false}> : (tensor<32x32x1x80xbf16>) -> tensor<32x32x1x80xf32> loc(#loc122)
        %126 = "ttir.multiply"(%125, %10) : (tensor<32x32x1x80xf32>, tensor<32x32x1x80xf32>) -> tensor<32x32x1x80xf32> loc(#loc123)
        %127 = "ttir.typecast"(%arg12) <{conservative_folding = false}> : (tensor<32x32x128x80xbf16>) -> tensor<32x32x128x80xf32> loc(#loc124)
        %128 = "ttir.permute"(%127) <{permutation = array<i64: 0, 1, 3, 2>}> : (tensor<32x32x128x80xf32>) -> tensor<32x32x80x128xf32> loc(#loc125)
        %129 = "ttir.multiply"(%128, %9) : (tensor<32x32x80x128xf32>, tensor<32x32x80x128xf32>) -> tensor<32x32x80x128xf32> loc(#loc126)
        %130 = "ttir.dot_general"(%126, %129) <{batch_dims_lhs = array<i64: 0, 1>, batch_dims_rhs = array<i64: 0, 1>, contract_dims_lhs = array<i64: 3>, contract_dims_rhs = array<i64: 2>}> : (tensor<32x32x1x80xf32>, tensor<32x32x80x128xf32>) -> tensor<32x32x1x128xf32> loc(#loc127)
        %131 = "ttir.reshape"(%16) <{shape = [1 : i32, 1 : i32, 1 : i32, 1 : i32]}> : (tensor<1x1x1xi64>) -> tensor<1x1x1x1xi64> loc(#loc128)
        %132 = "ttir.broadcast"(%131) <{broadcast_dimensions = array<i64: 1, 1, 1, 128>}> : (tensor<1x1x1x1xi64>) -> tensor<1x1x1x128xi64> loc(#loc128)
        %133 = "ttir.le"(%8, %132) : (tensor<1x1x1x128xi64>, tensor<1x1x1x128xi64>) -> tensor<1x1x1x128xi1> loc(#loc129)
        %134 = "ttir.reshape"(%133) <{shape = [1 : i32, 1 : i32, 128 : i32]}> : (tensor<1x1x1x128xi1>) -> tensor<1x1x128xi1> loc(#loc130)
        %135 = "ttir.reshape"(%134) <{shape = [1 : i32, 1 : i32, 1 : i32, 128 : i32]}> : (tensor<1x1x128xi1>) -> tensor<1x1x1x128xi1> loc(#loc131)
        %136 = "ttir.broadcast"(%135) <{broadcast_dimensions = array<i64: 32, 1, 1, 1>}> : (tensor<1x1x1x128xi1>) -> tensor<32x1x1x128xi1> loc(#loc131)
        %137 = "ttir.where"(%136, %7, %6) : (tensor<32x1x1x128xi1>, tensor<32x1x1x128xbf16>, tensor<32x1x1x128xbf16>) -> tensor<32x1x1x128xbf16> loc(#loc132)
        %138 = "ttir.typecast"(%137) <{conservative_folding = false}> : (tensor<32x1x1x128xbf16>) -> tensor<32x1x1x128xf32> loc(#loc133)
        %139 = "ttir.reshape"(%138) <{shape = [32 : i32, 1 : i32, 128 : i32]}> : (tensor<32x1x1x128xf32>) -> tensor<32x1x128xf32> loc(#loc134)
        %140 = "ttir.reshape"(%139) <{shape = [32 : i32, 1 : i32, 1 : i32, 128 : i32]}> : (tensor<32x1x128xf32>) -> tensor<32x1x1x128xf32> loc(#loc135)
        %141 = "ttir.broadcast"(%140) <{broadcast_dimensions = array<i64: 1, 32, 1, 1>}> : (tensor<32x1x1x128xf32>) -> tensor<32x32x1x128xf32> loc(#loc135)
        %142 = "ttir.add"(%130, %141) : (tensor<32x32x1x128xf32>, tensor<32x32x1x128xf32>) -> tensor<32x32x1x128xf32> loc(#loc136)
        %143 = "ttir.constant"() <{value = dense<0xFF800000> : tensor<32x32x1x128xf32>}> : () -> tensor<32x32x1x128xf32> loc(#loc)
        %144 = "ttir.eq"(%142, %143) : (tensor<32x32x1x128xf32>, tensor<32x32x1x128xf32>) -> tensor<32x32x1x128xi1> loc(#loc137)
        %145 = "ttir.logical_not"(%144) : (tensor<32x32x1x128xi1>) -> tensor<32x32x1x128xi1> loc(#loc138)
        %146 = "ttir.reduce_or"(%145) <{dim_arg = [3 : i32], keep_dim = false}> : (tensor<32x32x1x128xi1>) -> tensor<32x32x1xi1> loc(#loc139)
        %147 = "ttir.reshape"(%146) <{shape = [32 : i32, 32 : i32, 1 : i32, 1 : i32]}> : (tensor<32x32x1xi1>) -> tensor<32x32x1x1xi1> loc(#loc140)
        %148 = "ttir.logical_not"(%147) : (tensor<32x32x1x1xi1>) -> tensor<32x32x1x1xi1> loc(#loc141)
        %149 = "ttir.reshape"(%148) <{shape = [32 : i32, 32 : i32, 1 : i32]}> : (tensor<32x32x1x1xi1>) -> tensor<32x32x1xi1> loc(#loc142)
        %150 = "ttir.reshape"(%149) <{shape = [32 : i32, 32 : i32, 1 : i32, 1 : i32]}> : (tensor<32x32x1xi1>) -> tensor<32x32x1x1xi1> loc(#loc143)
        %151 = "ttir.broadcast"(%150) <{broadcast_dimensions = array<i64: 1, 1, 1, 128>}> : (tensor<32x32x1x1xi1>) -> tensor<32x32x1x128xi1> loc(#loc143)
        %152 = "ttir.max"(%142) <{dim_arg = [3 : i32], keep_dim = false}> : (tensor<32x32x1x128xf32>) -> tensor<32x32x1xf32> loc(#loc144)
        %153 = "ttir.reshape"(%152) <{shape = [32 : i32, 32 : i32, 1 : i32, 1 : i32]}> : (tensor<32x32x1xf32>) -> tensor<32x32x1x1xf32> loc(#loc145)
        %154 = "ttir.broadcast"(%153) <{broadcast_dimensions = array<i64: 1, 1, 1, 128>}> : (tensor<32x32x1x1xf32>) -> tensor<32x32x1x128xf32> loc(#loc145)
        %155 = "ttir.subtract"(%142, %154) : (tensor<32x32x1x128xf32>, tensor<32x32x1x128xf32>) -> tensor<32x32x1x128xf32> loc(#loc146)
        %156 = "ttir.exp"(%155) : (tensor<32x32x1x128xf32>) -> tensor<32x32x1x128xf32> loc(#loc147)
        %157 = "ttir.sum"(%156) <{dim_arg = [3 : i32], keep_dim = false}> : (tensor<32x32x1x128xf32>) -> tensor<32x32x1xf32> loc(#loc148)
        %158 = "ttir.reshape"(%157) <{shape = [32 : i32, 32 : i32, 1 : i32, 1 : i32]}> : (tensor<32x32x1xf32>) -> tensor<32x32x1x1xf32> loc(#loc149)
        %159 = "ttir.broadcast"(%158) <{broadcast_dimensions = array<i64: 1, 1, 1, 128>}> : (tensor<32x32x1x1xf32>) -> tensor<32x32x1x128xf32> loc(#loc149)
        %160 = "ttir.div"(%156, %159) : (tensor<32x32x1x128xf32>, tensor<32x32x1x128xf32>) -> tensor<32x32x1x128xf32> loc(#loc150)
        %161 = "ttir.where"(%151, %5, %160) : (tensor<32x32x1x128xi1>, tensor<32x32x1x128xf32>, tensor<32x32x1x128xf32>) -> tensor<32x32x1x128xf32> loc(#loc151)
        %162 = "ttir.typecast"(%arg8) <{conservative_folding = false}> : (tensor<32x32x128x80xbf16>) -> tensor<32x32x128x80xf32> loc(#loc152)
        %163 = "ttir.dot_general"(%161, %162) <{batch_dims_lhs = array<i64: 0, 1>, batch_dims_rhs = array<i64: 0, 1>, contract_dims_lhs = array<i64: 3>, contract_dims_rhs = array<i64: 2>}> : (tensor<32x32x1x128xf32>, tensor<32x32x128x80xf32>) -> tensor<32x32x1x80xf32> loc(#loc153)
        %164 = "ttir.typecast"(%163) <{conservative_folding = false}> : (tensor<32x32x1x80xf32>) -> tensor<32x32x1x80xbf16> loc(#loc154)
        %165 = "ttir.reshape"(%164) <{shape = [32 : i32, 2560 : i32]}> : (tensor<32x32x1x80xbf16>) -> tensor<32x2560xbf16> loc(#loc155)
        %166 = "ttir.permute"(%arg21) <{permutation = array<i64: 1, 0>}> : (tensor<2560x2560xbf16>) -> tensor<2560x2560xbf16> loc(#loc156)
        %167 = "ttir.dot_general"(%165, %166) <{batch_dims_lhs = array<i64>, batch_dims_rhs = array<i64>, contract_dims_lhs = array<i64: 1>, contract_dims_rhs = array<i64: 0>}> : (tensor<32x2560xbf16>, tensor<2560x2560xbf16>) -> tensor<32x2560xbf16> loc(#loc157)
        %168 = "ttir.reshape"(%167) <{shape = [32 : i32, 1 : i32, 2560 : i32]}> : (tensor<32x2560xbf16>) -> tensor<32x1x2560xbf16> loc(#loc158)
        %169 = "ttir.reshape"(%arg20) <{shape = [1 : i32, 1 : i32, 2560 : i32]}> : (tensor<2560xbf16>) -> tensor<1x1x2560xbf16> loc(#loc159)
        %170 = "ttir.broadcast"(%169) <{broadcast_dimensions = array<i64: 32, 1, 1>}> : (tensor<1x1x2560xbf16>) -> tensor<32x1x2560xbf16> loc(#loc159)
        %171 = "ttir.add"(%168, %170) : (tensor<32x1x2560xbf16>, tensor<32x1x2560xbf16>) -> tensor<32x1x2560xbf16> loc(#loc160)
        %172 = "ttir.permute"(%arg19) <{permutation = array<i64: 1, 0>}> : (tensor<10240x2560xbf16>) -> tensor<2560x10240xbf16> loc(#loc161)
        %173 = "ttir.dot_general"(%62, %172) <{batch_dims_lhs = array<i64>, batch_dims_rhs = array<i64>, contract_dims_lhs = array<i64: 1>, contract_dims_rhs = array<i64: 0>}> : (tensor<32x2560xbf16>, tensor<2560x10240xbf16>) -> tensor<32x10240xbf16> loc(#loc162)
        %174 = "ttir.reshape"(%173) <{shape = [32 : i32, 1 : i32, 10240 : i32]}> : (tensor<32x10240xbf16>) -> tensor<32x1x10240xbf16> loc(#loc163)
        %175 = "ttir.reshape"(%arg18) <{shape = [1 : i32, 1 : i32, 10240 : i32]}> : (tensor<10240xbf16>) -> tensor<1x1x10240xbf16> loc(#loc164)
        %176 = "ttir.broadcast"(%175) <{broadcast_dimensions = array<i64: 32, 1, 1>}> : (tensor<1x1x10240xbf16>) -> tensor<32x1x10240xbf16> loc(#loc164)
        %177 = "ttir.add"(%174, %176) : (tensor<32x1x10240xbf16>, tensor<32x1x10240xbf16>) -> tensor<32x1x10240xbf16> loc(#loc165)
        %178 = "ttir.multiply"(%177, %4) : (tensor<32x1x10240xbf16>, tensor<32x1x10240xbf16>) -> tensor<32x1x10240xbf16> loc(#loc166)
        %179 = "ttir.pow"(%177, %3) : (tensor<32x1x10240xbf16>, tensor<32x1x10240xbf16>) -> tensor<32x1x10240xbf16> loc(#loc167)
        %180 = "ttir.multiply"(%179, %2) : (tensor<32x1x10240xbf16>, tensor<32x1x10240xbf16>) -> tensor<32x1x10240xbf16> loc(#loc168)
        %181 = "ttir.add"(%177, %180) : (tensor<32x1x10240xbf16>, tensor<32x1x10240xbf16>) -> tensor<32x1x10240xbf16> loc(#loc169)
        %182 = "ttir.multiply"(%181, %1) : (tensor<32x1x10240xbf16>, tensor<32x1x10240xbf16>) -> tensor<32x1x10240xbf16> loc(#loc170)
        %183 = "ttir.tanh"(%182) : (tensor<32x1x10240xbf16>) -> tensor<32x1x10240xbf16> loc(#loc171)
        %184 = "ttir.add"(%183, %0) : (tensor<32x1x10240xbf16>, tensor<32x1x10240xbf16>) -> tensor<32x1x10240xbf16> loc(#loc172)
        %185 = "ttir.multiply"(%178, %184) : (tensor<32x1x10240xbf16>, tensor<32x1x10240xbf16>) -> tensor<32x1x10240xbf16> loc(#loc173)
        %186 = "ttir.reshape"(%185) <{shape = [32 : i32, 10240 : i32]}> : (tensor<32x1x10240xbf16>) -> tensor<32x10240xbf16> loc(#loc174)
        %187 = "ttir.permute"(%arg17) <{permutation = array<i64: 1, 0>}> : (tensor<2560x10240xbf16>) -> tensor<10240x2560xbf16> loc(#loc175)
        %188 = "ttir.dot_general"(%186, %187) <{batch_dims_lhs = array<i64>, batch_dims_rhs = array<i64>, contract_dims_lhs = array<i64: 1>, contract_dims_rhs = array<i64: 0>}> : (tensor<32x10240xbf16>, tensor<10240x2560xbf16>) -> tensor<32x2560xbf16> loc(#loc176)
        %189 = "ttir.reshape"(%188) <{shape = [32 : i32, 1 : i32, 2560 : i32]}> : (tensor<32x2560xbf16>) -> tensor<32x1x2560xbf16> loc(#loc177)
        %190 = "ttir.reshape"(%arg16) <{shape = [1 : i32, 1 : i32, 2560 : i32]}> : (tensor<2560xbf16>) -> tensor<1x1x2560xbf16> loc(#loc178)
        %191 = "ttir.broadcast"(%190) <{broadcast_dimensions = array<i64: 32, 1, 1>}> : (tensor<1x1x2560xbf16>) -> tensor<32x1x2560xbf16> loc(#loc178)
        %192 = "ttir.add"(%189, %191) : (tensor<32x1x2560xbf16>, tensor<32x1x2560xbf16>) -> tensor<32x1x2560xbf16> loc(#loc179)
        %193 = "ttir.add"(%171, %192) : (tensor<32x1x2560xbf16>, tensor<32x1x2560xbf16>) -> tensor<32x1x2560xbf16> loc(#loc180)
        %194 = "ttir.add"(%193, %34) : (tensor<32x1x2560xbf16>, tensor<32x1x2560xbf16>) -> tensor<32x1x2560xbf16> loc(#loc181)
        %195 = "ttir.reshape"(%194) <{shape = [1 : i32, 32 : i32, 2560 : i32]}> : (tensor<32x1x2560xbf16>) -> tensor<1x32x2560xbf16> loc(#loc182)
        %196 = "ttir.typecast"(%195) <{conservative_folding = false}> : (tensor<1x32x2560xbf16>) -> tensor<1x32x2560xf32> loc(#loc183)
        %197 = "ttir.sum"(%196) <{dim_arg = [0 : i32, 2 : i32], keep_dim = false}> : (tensor<1x32x2560xf32>) -> tensor<32xf32> loc(#loc184)
        %198 = "ttir.multiply"(%197, %12) : (tensor<32xf32>, tensor<32xf32>) -> tensor<32xf32> loc(#loc185)
        %199 = "ttir.reshape"(%198) <{shape = [1 : i32, 32 : i32]}> : (tensor<32xf32>) -> tensor<1x32xf32> loc(#loc186)
        %200 = "ttir.reshape"(%199) <{shape = [1 : i32, 32 : i32, 1 : i32]}> : (tensor<1x32xf32>) -> tensor<1x32x1xf32> loc(#loc187)
        %201 = "ttir.broadcast"(%200) <{broadcast_dimensions = array<i64: 1, 1, 2560>}> : (tensor<1x32x1xf32>) -> tensor<1x32x2560xf32> loc(#loc187)
        %202 = "ttir.subtract"(%196, %201) : (tensor<1x32x2560xf32>, tensor<1x32x2560xf32>) -> tensor<1x32x2560xf32> loc(#loc188)
        %203 = "ttir.multiply"(%202, %202) : (tensor<1x32x2560xf32>, tensor<1x32x2560xf32>) -> tensor<1x32x2560xf32> loc(#loc189)
        %204 = "ttir.sum"(%203) <{dim_arg = [0 : i32, 2 : i32], keep_dim = false}> : (tensor<1x32x2560xf32>) -> tensor<32xf32> loc(#loc190)
        %205 = "ttir.multiply"(%204, %12) : (tensor<32xf32>, tensor<32xf32>) -> tensor<32xf32> loc(#loc191)
        %206 = "ttir.reshape"(%205) <{shape = [1 : i32, 32 : i32, 1 : i32]}> : (tensor<32xf32>) -> tensor<1x32x1xf32> loc(#loc192)
        %207 = "ttir.add"(%206, %11) : (tensor<1x32x1xf32>, tensor<1x32x1xf32>) -> tensor<1x32x1xf32> loc(#loc193)
        %208 = "ttir.rsqrt"(%207) : (tensor<1x32x1xf32>) -> tensor<1x32x1xf32> loc(#loc194)
        %209 = "ttir.reshape"(%208) <{shape = [1 : i32, 32 : i32]}> : (tensor<1x32x1xf32>) -> tensor<1x32xf32> loc(#loc195)
        %210 = "ttir.reshape"(%209) <{shape = [1 : i32, 32 : i32, 1 : i32]}> : (tensor<1x32xf32>) -> tensor<1x32x1xf32> loc(#loc196)
        %211 = "ttir.broadcast"(%210) <{broadcast_dimensions = array<i64: 1, 1, 2560>}> : (tensor<1x32x1xf32>) -> tensor<1x32x2560xf32> loc(#loc196)
        %212 = "ttir.multiply"(%202, %211) : (tensor<1x32x2560xf32>, tensor<1x32x2560xf32>) -> tensor<1x32x2560xf32> loc(#loc197)
        %213 = "ttir.typecast"(%212) <{conservative_folding = false}> : (tensor<1x32x2560xf32>) -> tensor<1x32x2560xbf16> loc(#loc198)
        %214 = "ttir.reshape"(%213) <{shape = [32 : i32, 1 : i32, 2560 : i32]}> : (tensor<1x32x2560xbf16>) -> tensor<32x1x2560xbf16> loc(#loc199)
        %215 = "ttir.typecast"(%214) <{conservative_folding = false}> : (tensor<32x1x2560xbf16>) -> tensor<32x1x2560xf32> loc(#loc200)
        %216 = "ttir.typecast"(%arg15) <{conservative_folding = false}> : (tensor<2560xbf16>) -> tensor<2560xf32> loc(#loc201)
        %217 = "ttir.reshape"(%216) <{shape = [1 : i32, 1 : i32, 2560 : i32]}> : (tensor<2560xf32>) -> tensor<1x1x2560xf32> loc(#loc202)
        %218 = "ttir.broadcast"(%217) <{broadcast_dimensions = array<i64: 32, 1, 1>}> : (tensor<1x1x2560xf32>) -> tensor<32x1x2560xf32> loc(#loc202)
        %219 = "ttir.multiply"(%215, %218) : (tensor<32x1x2560xf32>, tensor<32x1x2560xf32>) -> tensor<32x1x2560xf32> loc(#loc203)
        %220 = "ttir.add"(%107, %219) : (tensor<32x1x2560xf32>, tensor<32x1x2560xf32>) -> tensor<32x1x2560xf32> loc(#loc204)
        %221 = "ttir.typecast"(%220) <{conservative_folding = false}> : (tensor<32x1x2560xf32>) -> tensor<32x1x2560xbf16> loc(#loc205)
        %222 = "ttir.reshape"(%221) <{shape = [32 : i32, 2560 : i32]}> : (tensor<32x1x2560xbf16>) -> tensor<32x2560xbf16> loc(#loc206)
        %223 = "ttir.permute"(%arg14) <{permutation = array<i64: 1, 0>}> : (tensor<51200x2560xbf16>) -> tensor<2560x51200xbf16> loc(#loc207)
        %224 = "ttir.dot_general"(%222, %223) <{batch_dims_lhs = array<i64>, batch_dims_rhs = array<i64>, contract_dims_lhs = array<i64: 1>, contract_dims_rhs = array<i64: 0>}> : (tensor<32x2560xbf16>, tensor<2560x51200xbf16>) -> tensor<32x51200xbf16> loc(#loc208)
        %225 = "ttir.reshape"(%224) <{shape = [32 : i32, 1 : i32, 51200 : i32]}> : (tensor<32x51200xbf16>) -> tensor<32x1x51200xbf16> loc(#loc209)
        %226 = "ttir.reshape"(%arg13) <{shape = [1 : i32, 1 : i32, 51200 : i32]}> : (tensor<51200xbf16>) -> tensor<1x1x51200xbf16> loc(#loc210)
        %227 = "ttir.broadcast"(%226) <{broadcast_dimensions = array<i64: 32, 1, 1>}> : (tensor<1x1x51200xbf16>) -> tensor<32x1x51200xbf16> loc(#loc210)
        %228 = "ttir.add"(%225, %227) : (tensor<32x1x51200xbf16>, tensor<32x1x51200xbf16>) -> tensor<32x1x51200xbf16> loc(#loc211)
        %229 = "ttir.reshape"(%228) <{shape = [32 : i32, 51200 : i32]}> : (tensor<32x1x51200xbf16>) -> tensor<32x51200xbf16> loc(#loc212)
        %230 = "ttir.arange"() <{arange_dimension = 0 : i64, end = 51200 : si64, start = 0 : si64, step = 1 : si64}> : () -> tensor<51200xi32> loc(#loc213)
        %231 = "ttir.reshape"(%230) <{shape = [1 : i32, 51200 : i32]}> : (tensor<51200xi32>) -> tensor<1x51200xi32> loc(#loc213)
        %232 = "ttir.argmax"(%229) <{dim_arg = [1 : i32], keep_dim = false}> : (tensor<32x51200xbf16>) -> tensor<32xi32> loc(#loc214)
        %233 = "ttir.typecast"(%232) <{conservative_folding = false}> : (tensor<32xi32>) -> tensor<32xi64> loc(#loc215)
        %234 = "ttir.reshape"(%233) <{shape = [32 : i32, 1 : i32]}> : (tensor<32xi64>) -> tensor<32x1xi64> loc(#loc216)
        return %17, %19, %arg8, %arg12, %228, %234 : tensor<1xi64>, tensor<1xi64>, tensor<32x32x128x80xbf16>, tensor<32x32x128x80xbf16>, tensor<32x1x51200xbf16>, tensor<32x1xi64> loc(#loc)
      } loc(#loc)
    } loc(#loc)
  } loc(#loc)
} loc(#loc)
#loc = loc(unknown)
#loc26 = loc("reshape.4")
#loc27 = loc("add.9")
#loc28 = loc("reshape.13")
#loc29 = loc("add.19")
#loc30 = loc("compare.169")
#loc31 = loc("add.166")
#loc32 = loc("select.170")
#loc33 = loc("convert.143")
#loc34 = loc("broadcast.146")
#loc35 = loc("reshape.49")
#loc36 = loc("reshape.46")
#loc37 = loc("convert.57")
#loc38 = loc("gather.58")
#loc39 = loc("reshape.59")
#loc40 = loc("reshape.60")
#loc41 = loc("convert.123")
#loc42 = loc("reduce.107")
#loc43 = loc("multiply.116")
#loc44 = loc("reshape.126")
#loc45 = loc("broadcast.127")
#loc46 = loc("subtract.128")
#loc47 = loc("multiply.83")
#loc48 = loc("reduce.90")
#loc49 = loc("multiply.99")
#loc50 = loc("reshape.100")
#loc51 = loc("add.120")
#loc52 = loc("rsqrt.121")
#loc53 = loc("reshape.129")
#loc54 = loc("broadcast.130")
#loc55 = loc("multiply.131")
#loc56 = loc("convert.132")
#loc57 = loc("reshape.133")
#loc58 = loc("convert.134")
#loc59 = loc("convert.41")
#loc60 = loc("broadcast.137")
#loc61 = loc("multiply.138")
#loc62 = loc("add.147")
#loc63 = loc("convert.148")
#loc64 = loc("reshape.149")
#loc65 = loc("transpose.32")
#loc66 = loc("dot.150")
#loc67 = loc("reshape.151")
#loc68 = loc("broadcast.154")
#loc69 = loc("add.155")
#loc70 = loc("transpose.157")
#loc71 = loc("scatter.179")
#loc72 = loc("transpose.193")
#loc73 = loc("dot.195")
#loc74 = loc("reshape.196")
#loc75 = loc("broadcast.199")
#loc76 = loc("add.200")
#loc77 = loc("transpose.202")
#loc78 = loc("slice.227")
#loc79 = loc("reshape.215")
#loc80 = loc("reshape.211")
#loc81 = loc("convert.216")
#loc82 = loc("convert.208")
#loc83 = loc("dot.219")
#loc84 = loc("transpose.220")
#loc85 = loc("concatenate.221")
#loc86 = loc("cosine.236")
#loc87 = loc("convert.239")
#loc88 = loc("reshape.241")
#loc89 = loc("broadcast.242")
#loc90 = loc("multiply.243")
#loc91 = loc("slice.229")
#loc92 = loc("negate.230")
#loc93 = loc("slice.228")
#loc94 = loc("concatenate.231")
#loc95 = loc("sine.222")
#loc96 = loc("convert.225")
#loc97 = loc("reshape.232")
#loc98 = loc("broadcast.233")
#loc99 = loc("multiply.234")
#loc100 = loc("add.246")
#loc101 = loc("slice.203")
#loc102 = loc("concatenate.247")
#loc103 = loc("scatter.264")
#loc104 = loc("convert.621")
#loc105 = loc("broadcast.624")
#loc106 = loc("transpose.428")
#loc107 = loc("dot.430")
#loc108 = loc("reshape.431")
#loc109 = loc("broadcast.434")
#loc110 = loc("add.435")
#loc111 = loc("transpose.437")
#loc112 = loc("slice.440")
#loc113 = loc("multiply.450")
#loc114 = loc("slice.442")
#loc115 = loc("negate.443")
#loc116 = loc("slice.441")
#loc117 = loc("concatenate.444")
#loc118 = loc("multiply.447")
#loc119 = loc("add.453")
#loc120 = loc("slice.438")
#loc121 = loc("concatenate.454")
#loc122 = loc("convert.455")
#loc123 = loc("multiply.457")
#loc124 = loc("convert.410")
#loc125 = loc("transpose.411")
#loc126 = loc("multiply.413")
#loc127 = loc("dot.459")
#loc128 = loc("broadcast.402")
#loc129 = loc("compare.403")
#loc130 = loc("reshape.405")
#loc131 = loc("broadcast.406")
#loc132 = loc("select.408")
#loc133 = loc("convert.461")
#loc134 = loc("reshape.464")
#loc135 = loc("broadcast.465")
#loc136 = loc("add.466")
#loc137 = loc("compare.494")
#loc138 = loc("not.496")
#loc139 = loc("reduce.508")
#loc140 = loc("reshape.512")
#loc141 = loc("not.514")
#loc142 = loc("reshape.516")
#loc143 = loc("broadcast.517")
#loc144 = loc("reduce.472")
#loc145 = loc("broadcast.473")
#loc146 = loc("subtract.474")
#loc147 = loc("exponential.475")
#loc148 = loc("reduce.481")
#loc149 = loc("broadcast.482")
#loc150 = loc("divide.483")
#loc151 = loc("select.518")
#loc152 = loc("convert.369")
#loc153 = loc("dot.520")
#loc154 = loc("convert.522")
#loc155 = loc("reshape.525")
#loc156 = loc("transpose.368")
#loc157 = loc("dot.526")
#loc158 = loc("reshape.527")
#loc159 = loc("broadcast.530")
#loc160 = loc("add.531")
#loc161 = loc("transpose.324")
#loc162 = loc("dot.326")
#loc163 = loc("reshape.327")
#loc164 = loc("broadcast.330")
#loc165 = loc("add.331")
#loc166 = loc("multiply.347")
#loc167 = loc("power.333")
#loc168 = loc("multiply.335")
#loc169 = loc("add.338")
#loc170 = loc("multiply.340")
#loc171 = loc("tanh.341")
#loc172 = loc("add.344")
#loc173 = loc("multiply.348")
#loc174 = loc("reshape.349")
#loc175 = loc("transpose.305")
#loc176 = loc("dot.350")
#loc177 = loc("reshape.351")
#loc178 = loc("broadcast.354")
#loc179 = loc("add.355")
#loc180 = loc("add.534")
#loc181 = loc("add.537")
#loc182 = loc("reshape.538")
#loc183 = loc("convert.601")
#loc184 = loc("reduce.585")
#loc185 = loc("multiply.594")
#loc186 = loc("reshape.604")
#loc187 = loc("broadcast.605")
#loc188 = loc("subtract.606")
#loc189 = loc("multiply.561")
#loc190 = loc("reduce.568")
#loc191 = loc("multiply.577")
#loc192 = loc("reshape.578")
#loc193 = loc("add.598")
#loc194 = loc("rsqrt.599")
#loc195 = loc("reshape.607")
#loc196 = loc("broadcast.608")
#loc197 = loc("multiply.609")
#loc198 = loc("convert.610")
#loc199 = loc("reshape.611")
#loc200 = loc("convert.612")
#loc201 = loc("convert.287")
#loc202 = loc("broadcast.615")
#loc203 = loc("multiply.616")
#loc204 = loc("add.625")
#loc205 = loc("convert.626")
#loc206 = loc("reshape.627")
#loc207 = loc("transpose.278")
#loc208 = loc("dot.628")
#loc209 = loc("reshape.629")
#loc210 = loc("broadcast.632")
#loc211 = loc("add.633")
#loc212 = loc("reshape.635")
#loc213 = loc("iota.638")
#loc214 = loc("reduce.663")
#loc215 = loc("convert.665")
#loc216 = loc("reshape.666")
#loc217 = loc(fused[#loc35, #loc36])
#loc218 = loc("gather.58_permuteInput"(#loc38))
#loc219 = loc("gather.58_reshapeInput"(#loc38))
#loc220 = loc("gather.58_reshapeStartIndices"(#loc38))
#loc221 = loc("gather.58_reshapeOutput"(#loc38))
#loc222 = loc("gather.58_permuteOutput"(#loc38))
#loc223 = loc(fused[#loc79, #loc80])
