#loc1 = loc("p0.2")
#loc2 = loc("p1.6")
#loc3 = loc("p2.12")
#loc4 = loc("p3.17")
#loc5 = loc("p4.25")
#loc6 = loc("p5.30")
#loc7 = loc("p6.129")
#loc8 = loc("p7.137")
#loc9 = loc("p8.187")
#loc10 = loc("p9.196")
#loc11 = loc("p10.200")
#loc12 = loc("p11.226")
#loc13 = loc("p12.235")
#loc14 = loc("p13.239")
#loc15 = loc("p14.245")
#loc16 = loc("p15.250")
#loc17 = loc("p16.261")
#loc18 = loc("p17.265")
#loc19 = loc("p18.277")
#loc20 = loc("p19.281")
#loc21 = loc("p20.318")
#loc22 = loc("p21.322")
#loc23 = loc("p22.367")
#loc24 = loc("p23.371")
module @SyncTensorsGraph.571 attributes {mhlo.cross_program_prefetches = [], mhlo.input_output_alias = [], mhlo.is_dynamic = false, mhlo.use_auto_spmd_partitioning = false, ttcore.meshes = #ttcore.meshes<[<"mesh" = 1x1>]>} {
  ttcore.device_module {
    builtin.module @SyncTensorsGraph.571 attributes {mhlo.cross_program_prefetches = [], mhlo.input_output_alias = [], mhlo.is_dynamic = false, mhlo.use_auto_spmd_partitioning = false, ttcore.meshes = #ttcore.meshes<[<"mesh" = 1x1>]>} {
      func.func @main(%arg0: tensor<2560xbf16> {ttcore.argument_type = #ttcore.argument_type<parameter>, ttcore.shard_status = #ttcore.shard_status<unsharded>, ttir.name = "l__self___model_layers__modules__0___self_attn_k_proj_bias"} loc("p0.2"), %arg1: tensor<2560x2560xbf16> {ttcore.argument_type = #ttcore.argument_type<parameter>, ttcore.shard_status = #ttcore.shard_status<unsharded>, ttir.name = "l__self___model_layers__modules__0___self_attn_k_proj_weight"} loc("p1.6"), %arg2: tensor<2560xbf16> {ttcore.argument_type = #ttcore.argument_type<parameter>, ttcore.shard_status = #ttcore.shard_status<unsharded>, ttir.name = "l__self___model_layers__modules__0___input_layernorm_bias"} loc("p2.12"), %arg3: tensor<2560xbf16> {ttcore.argument_type = #ttcore.argument_type<parameter>, ttcore.shard_status = #ttcore.shard_status<unsharded>, ttir.name = "l__self___model_layers__modules__0___input_layernorm_weight"} loc("p3.17"), %arg4: tensor<32x17xi64> {ttcore.argument_type = #ttcore.argument_type<input>, ttcore.shard_status = #ttcore.shard_status<unsharded>, ttir.name = "args_0"} loc("p4.25"), %arg5: tensor<51200x2560xbf16> {ttcore.argument_type = #ttcore.argument_type<parameter>, ttcore.shard_status = #ttcore.shard_status<unsharded>, ttir.name = "l__self___model_embed_tokens_weight"} loc("p5.30"), %arg6: tensor<17xi64> {ttcore.argument_type = #ttcore.argument_type<input>, ttcore.shard_status = #ttcore.shard_status<unsharded>, ttir.name = "args_1"} loc("p6.129"), %arg7: tensor<16xbf16> {ttcore.argument_type = #ttcore.argument_type<constant>, ttcore.shard_status = #ttcore.shard_status<unsharded>, ttir.name = "l__self___model_rotary_emb_inv_freq"} loc("p7.137"), %arg8: tensor<32x32x128x80xbf16> {ttcore.argument_type = #ttcore.argument_type<input>, ttcore.shard_status = #ttcore.shard_status<unsharded>, ttir.name = "args_2"} loc("p8.187"), %arg9: tensor<2560xbf16> {ttcore.argument_type = #ttcore.argument_type<parameter>, ttcore.shard_status = #ttcore.shard_status<unsharded>, ttir.name = "l__self___model_layers__modules__0___self_attn_v_proj_bias"} loc("p9.196"), %arg10: tensor<2560x2560xbf16> {ttcore.argument_type = #ttcore.argument_type<parameter>, ttcore.shard_status = #ttcore.shard_status<unsharded>, ttir.name = "l__self___model_layers__modules__0___self_attn_v_proj_weight"} loc("p10.200"), %arg11: tensor<32x32x128x80xbf16> {ttcore.argument_type = #ttcore.argument_type<input>, ttcore.shard_status = #ttcore.shard_status<unsharded>, ttir.name = "args_3"} loc("p11.226"), %arg12: tensor<51200xbf16> {ttcore.argument_type = #ttcore.argument_type<parameter>, ttcore.shard_status = #ttcore.shard_status<unsharded>, ttir.name = "l__self___lm_head_bias"} loc("p12.235"), %arg13: tensor<51200x2560xbf16> {ttcore.argument_type = #ttcore.argument_type<parameter>, ttcore.shard_status = #ttcore.shard_status<unsharded>, ttir.name = "l__self___lm_head_weight"} loc("p13.239"), %arg14: tensor<2560xbf16> {ttcore.argument_type = #ttcore.argument_type<parameter>, ttcore.shard_status = #ttcore.shard_status<unsharded>, ttir.name = "l__self___model_final_layernorm_bias"} loc("p14.245"), %arg15: tensor<2560xbf16> {ttcore.argument_type = #ttcore.argument_type<parameter>, ttcore.shard_status = #ttcore.shard_status<unsharded>, ttir.name = "l__self___model_final_layernorm_weight"} loc("p15.250"), %arg16: tensor<2560xbf16> {ttcore.argument_type = #ttcore.argument_type<parameter>, ttcore.shard_status = #ttcore.shard_status<unsharded>, ttir.name = "l__self___model_layers__modules__0___mlp_fc2_bias"} loc("p16.261"), %arg17: tensor<2560x10240xbf16> {ttcore.argument_type = #ttcore.argument_type<parameter>, ttcore.shard_status = #ttcore.shard_status<unsharded>, ttir.name = "l__self___model_layers__modules__0___mlp_fc2_weight"} loc("p17.265"), %arg18: tensor<10240xbf16> {ttcore.argument_type = #ttcore.argument_type<parameter>, ttcore.shard_status = #ttcore.shard_status<unsharded>, ttir.name = "l__self___model_layers__modules__0___mlp_fc1_bias"} loc("p18.277"), %arg19: tensor<10240x2560xbf16> {ttcore.argument_type = #ttcore.argument_type<parameter>, ttcore.shard_status = #ttcore.shard_status<unsharded>, ttir.name = "l__self___model_layers__modules__0___mlp_fc1_weight"} loc("p19.281"), %arg20: tensor<2560xbf16> {ttcore.argument_type = #ttcore.argument_type<parameter>, ttcore.shard_status = #ttcore.shard_status<unsharded>, ttir.name = "l__self___model_layers__modules__0___self_attn_dense_bias"} loc("p20.318"), %arg21: tensor<2560x2560xbf16> {ttcore.argument_type = #ttcore.argument_type<parameter>, ttcore.shard_status = #ttcore.shard_status<unsharded>, ttir.name = "l__self___model_layers__modules__0___self_attn_dense_weight"} loc("p21.322"), %arg22: tensor<2560xbf16> {ttcore.argument_type = #ttcore.argument_type<parameter>, ttcore.shard_status = #ttcore.shard_status<unsharded>, ttir.name = "l__self___model_layers__modules__0___self_attn_q_proj_bias"} loc("p22.367"), %arg23: tensor<2560x2560xbf16> {ttcore.argument_type = #ttcore.argument_type<parameter>, ttcore.shard_status = #ttcore.shard_status<unsharded>, ttir.name = "l__self___model_layers__modules__0___self_attn_q_proj_weight"} loc("p23.371")) -> (tensor<32x32x128x80xbf16> {ttcore.shard_status = #ttcore.shard_status<unsharded>}, tensor<32x32x128x80xbf16> {ttcore.shard_status = #ttcore.shard_status<unsharded>}, tensor<32x17x51200xbf16> {ttcore.shard_status = #ttcore.shard_status<unsharded>}) {
        %0 = "ttir.constant"() <{value = dense<1.000000e+00> : tensor<32x17x10240xbf16>}> : () -> tensor<32x17x10240xbf16> loc(#loc)
        %1 = "ttir.constant"() <{value = dense<7.968750e-01> : tensor<32x17x10240xbf16>}> : () -> tensor<32x17x10240xbf16> loc(#loc)
        %2 = "ttir.constant"() <{value = dense<4.467770e-02> : tensor<32x17x10240xbf16>}> : () -> tensor<32x17x10240xbf16> loc(#loc)
        %3 = "ttir.constant"() <{value = dense<3.000000e+00> : tensor<32x17x10240xbf16>}> : () -> tensor<32x17x10240xbf16> loc(#loc)
        %4 = "ttir.constant"() <{value = dense<5.000000e-01> : tensor<32x17x10240xbf16>}> : () -> tensor<32x17x10240xbf16> loc(#loc)
        %5 = "ttir.constant"() <{value = dense<0.000000e+00> : tensor<32x32x17x128xf32>}> : () -> tensor<32x32x17x128xf32> loc(#loc)
        %6 = "ttir.constant"() <{value = dense<0xFFF0000000000000> : tensor<32x32x17x128xf64>}> : () -> tensor<32x32x17x128xf64> loc(#loc)
        %7 = "ttir.constant"() <{value = dense<0xFF80> : tensor<32x1x17x128xbf16>}> : () -> tensor<32x1x17x128xbf16> loc(#loc)
        %8 = "ttir.constant"() <{value = dense<0.000000e+00> : tensor<32x1x17x128xbf16>}> : () -> tensor<32x1x17x128xbf16> loc(#loc)
        %9 = "ttir.constant"() <{value = dense<0.334370166> : tensor<32x32x80x128xf32>}> : () -> tensor<32x32x80x128xf32> loc(#loc)
        %10 = "ttir.constant"() <{value = dense<0.334370166> : tensor<32x32x17x80xf32>}> : () -> tensor<32x32x17x80xf32> loc(#loc)
        %11 = "ttir.constant"() <{value = dense<128> : tensor<17xi64>}> : () -> tensor<17xi64> loc(#loc)
        %12 = "ttir.constant"() <{value = dense<0> : tensor<17xi64>}> : () -> tensor<17xi64> loc(#loc)
        %13 = "ttir.constant"() <{value = dense<"…"> : tensor<128xi64>}> : () -> tensor<128xi64> loc(#loc)
        %14 = "ttir.reshape"(%arg6) <{shape = [1 : i32, 1 : i32, 17 : i32]}> : (tensor<17xi64>) -> tensor<1x1x17xi64> loc(#loc25)
        %15 = "ttir.reshape"(%14) <{shape = [17 : i32]}> : (tensor<1x1x17xi64>) -> tensor<17xi64> loc(#loc26)
        %16 = "ttir.lt"(%15, %12) : (tensor<17xi64>, tensor<17xi64>) -> tensor<17xi1> loc(#loc27)
        %17 = "ttir.add"(%15, %11) : (tensor<17xi64>, tensor<17xi64>) -> tensor<17xi64> loc(#loc28)
        %18 = "ttir.where"(%16, %17, %15) : (tensor<17xi1>, tensor<17xi64>, tensor<17xi64>) -> tensor<17xi64> loc(#loc29)
        %19 = "ttir.reshape"(%arg5) <{shape = [1 : i32, 51200 : i32, 2560 : i32]}> : (tensor<51200x2560xbf16>) -> tensor<1x51200x2560xbf16> loc(#loc30)
        %20 = "ttir.reshape"(%19) <{shape = [51200 : i32, 2560 : i32]}> : (tensor<1x51200x2560xbf16>) -> tensor<51200x2560xbf16> loc(#loc31)
        %21 = "ttir.reshape"(%arg4) <{shape = [1 : i32, 32 : i32, 17 : i32]}> : (tensor<32x17xi64>) -> tensor<1x32x17xi64> loc(#loc32)
        %22 = "ttir.reshape"(%21) <{shape = [544 : i32]}> : (tensor<1x32x17xi64>) -> tensor<544xi64> loc(#loc33)
        %23 = "ttir.typecast"(%22) <{conservative_folding = false}> : (tensor<544xi64>) -> tensor<544xui32> loc(#loc34)
        %24 = "ttir.gather"(%20, %23) <{collapsed_slice_dims = array<i64: 0>, index_vector_dim = 1 : si64, indices_are_sorted = false, offset_dims = array<i64: 1>, operand_batching_dims = array<i64>, slice_sizes = array<i64: 1, 2560>, start_index_map = array<i64: 0>, start_indices_batching_dims = array<i64>}> : (tensor<51200x2560xbf16>, tensor<544xui32>) -> tensor<544x2560xbf16> loc(#loc35)
        %25 = "ttir.reshape"(%24) <{shape = [32 : i32, 17 : i32, 2560 : i32]}> : (tensor<544x2560xbf16>) -> tensor<32x17x2560xbf16> loc(#loc36)
        %26 = "ttir.reshape"(%arg3) <{shape = [1 : i32, 1 : i32, 2560 : i32]}> : (tensor<2560xbf16>) -> tensor<1x1x2560xbf16> loc(#loc37)
        %27 = "ttir.reshape"(%26) <{shape = [2560 : i32]}> : (tensor<1x1x2560xbf16>) -> tensor<2560xbf16> loc(#loc38)
        %28 = "ttir.reshape"(%arg2) <{shape = [1 : i32, 1 : i32, 2560 : i32]}> : (tensor<2560xbf16>) -> tensor<1x1x2560xbf16> loc(#loc39)
        %29 = "ttir.reshape"(%28) <{shape = [2560 : i32]}> : (tensor<1x1x2560xbf16>) -> tensor<2560xbf16> loc(#loc40)
        %30 = "ttir.layer_norm"(%25, %27, %29) <{epsilon = 9.99999974E-6 : f32, normalized_shape = array<i64: 2560>, operandSegmentSizes = array<i32: 1, 1, 1>}> : (tensor<32x17x2560xbf16>, tensor<2560xbf16>, tensor<2560xbf16>) -> tensor<32x17x2560xbf16> loc(#loc41)
        %31 = "ttir.reshape"(%30) <{shape = [544 : i32, 2560 : i32]}> : (tensor<32x17x2560xbf16>) -> tensor<544x2560xbf16> loc(#loc42)
        %32 = "ttir.reshape"(%arg1) <{shape = [1 : i32, 2560 : i32, 2560 : i32]}> : (tensor<2560x2560xbf16>) -> tensor<1x2560x2560xbf16> loc(#loc43)
        %33 = "ttir.reshape"(%32) <{shape = [2560 : i32, 2560 : i32]}> : (tensor<1x2560x2560xbf16>) -> tensor<2560x2560xbf16> loc(#loc44)
        %34 = "ttir.permute"(%33) <{permutation = array<i64: 1, 0>}> : (tensor<2560x2560xbf16>) -> tensor<2560x2560xbf16> loc(#loc45)
        %35 = "ttir.dot_general"(%31, %34) <{batch_dims_lhs = array<i64>, batch_dims_rhs = array<i64>, contract_dims_lhs = array<i64: 1>, contract_dims_rhs = array<i64: 0>}> : (tensor<544x2560xbf16>, tensor<2560x2560xbf16>) -> tensor<544x2560xbf16> loc(#loc46)
        %36 = "ttir.reshape"(%35) <{shape = [32 : i32, 17 : i32, 2560 : i32]}> : (tensor<544x2560xbf16>) -> tensor<32x17x2560xbf16> loc(#loc47)
        %37 = "ttir.reshape"(%arg0) <{shape = [1 : i32, 1 : i32, 2560 : i32]}> : (tensor<2560xbf16>) -> tensor<1x1x2560xbf16> loc(#loc48)
        %38 = "ttir.reshape"(%37) <{shape = [2560 : i32]}> : (tensor<1x1x2560xbf16>) -> tensor<2560xbf16> loc(#loc49)
        %39 = "ttir.reshape"(%38) <{shape = [1 : i32, 1 : i32, 2560 : i32]}> : (tensor<2560xbf16>) -> tensor<1x1x2560xbf16> loc(#loc50)
        %40 = "ttir.broadcast"(%39) <{broadcast_dimensions = array<i64: 32, 17, 1>}> : (tensor<1x1x2560xbf16>) -> tensor<32x17x2560xbf16> loc(#loc50)
        %41 = "ttir.add"(%36, %40) : (tensor<32x17x2560xbf16>, tensor<32x17x2560xbf16>) -> tensor<32x17x2560xbf16> loc(#loc51)
        %42 = "ttir.reshape"(%41) <{shape = [32 : i32, 17 : i32, 32 : i32, 80 : i32]}> : (tensor<32x17x2560xbf16>) -> tensor<32x17x32x80xbf16> loc(#loc52)
        %43 = "ttir.permute"(%42) <{permutation = array<i64: 0, 2, 1, 3>}> : (tensor<32x17x32x80xbf16>) -> tensor<32x32x17x80xbf16> loc(#loc53)
        %44 = "ttir.slice_static"(%43) <{begins = [0 : i32, 0 : i32, 0 : i32, 0 : i32], ends = [32 : i32, 32 : i32, 17 : i32, 32 : i32], step = [1 : i32, 1 : i32, 1 : i32, 1 : i32]}> : (tensor<32x32x17x80xbf16>) -> tensor<32x32x17x32xbf16> loc(#loc54)
        %45 = "ttir.reshape"(%arg7) <{shape = [1 : i32, 1 : i32, 16 : i32]}> : (tensor<16xbf16>) -> tensor<1x1x16xbf16> loc(#loc55)
        %46 = "ttir.reshape"(%45) <{shape = [1 : i32, 16 : i32, 1 : i32]}> : (tensor<1x1x16xbf16>) -> tensor<1x16x1xbf16> loc(#loc56)
        %47 = "ttir.typecast"(%46) <{conservative_folding = false}> : (tensor<1x16x1xbf16>) -> tensor<1x16x1xf32> loc(#loc57)
        %48 = "ttir.typecast"(%14) <{conservative_folding = false}> : (tensor<1x1x17xi64>) -> tensor<1x1x17xf32> loc(#loc58)
        %49 = "ttir.dot_general"(%47, %48) <{batch_dims_lhs = array<i64: 0>, batch_dims_rhs = array<i64: 0>, contract_dims_lhs = array<i64: 2>, contract_dims_rhs = array<i64: 1>}> : (tensor<1x16x1xf32>, tensor<1x1x17xf32>) -> tensor<1x16x17xf32> loc(#loc59)
        %50 = "ttir.permute"(%49) <{permutation = array<i64: 0, 2, 1>}> : (tensor<1x16x17xf32>) -> tensor<1x17x16xf32> loc(#loc60)
        %51 = "ttir.concat"(%50, %50) <{dim = 2 : si32}> : (tensor<1x17x16xf32>, tensor<1x17x16xf32>) -> tensor<1x17x32xf32> loc(#loc61)
        %52 = "ttir.cos"(%51) : (tensor<1x17x32xf32>) -> tensor<1x17x32xf32> loc(#loc62)
        %53 = "ttir.typecast"(%52) <{conservative_folding = false}> : (tensor<1x17x32xf32>) -> tensor<1x17x32xbf16> loc(#loc63)
        %54 = "ttir.reshape"(%53) <{shape = [17 : i32, 32 : i32]}> : (tensor<1x17x32xbf16>) -> tensor<17x32xbf16> loc(#loc64)
        %55 = "ttir.reshape"(%54) <{shape = [1 : i32, 1 : i32, 17 : i32, 32 : i32]}> : (tensor<17x32xbf16>) -> tensor<1x1x17x32xbf16> loc(#loc65)
        %56 = "ttir.broadcast"(%55) <{broadcast_dimensions = array<i64: 32, 32, 1, 1>}> : (tensor<1x1x17x32xbf16>) -> tensor<32x32x17x32xbf16> loc(#loc65)
        %57 = "ttir.multiply"(%44, %56) : (tensor<32x32x17x32xbf16>, tensor<32x32x17x32xbf16>) -> tensor<32x32x17x32xbf16> loc(#loc66)
        %58 = "ttir.slice_static"(%44) <{begins = [0 : i32, 0 : i32, 0 : i32, 16 : i32], ends = [32 : i32, 32 : i32, 17 : i32, 32 : i32], step = [1 : i32, 1 : i32, 1 : i32, 1 : i32]}> : (tensor<32x32x17x32xbf16>) -> tensor<32x32x17x16xbf16> loc(#loc67)
        %59 = "ttir.neg"(%58) : (tensor<32x32x17x16xbf16>) -> tensor<32x32x17x16xbf16> loc(#loc68)
        %60 = "ttir.slice_static"(%44) <{begins = [0 : i32, 0 : i32, 0 : i32, 0 : i32], ends = [32 : i32, 32 : i32, 17 : i32, 16 : i32], step = [1 : i32, 1 : i32, 1 : i32, 1 : i32]}> : (tensor<32x32x17x32xbf16>) -> tensor<32x32x17x16xbf16> loc(#loc69)
        %61 = "ttir.concat"(%59, %60) <{dim = 3 : si32}> : (tensor<32x32x17x16xbf16>, tensor<32x32x17x16xbf16>) -> tensor<32x32x17x32xbf16> loc(#loc70)
        %62 = "ttir.sin"(%51) : (tensor<1x17x32xf32>) -> tensor<1x17x32xf32> loc(#loc71)
        %63 = "ttir.typecast"(%62) <{conservative_folding = false}> : (tensor<1x17x32xf32>) -> tensor<1x17x32xbf16> loc(#loc72)
        %64 = "ttir.reshape"(%63) <{shape = [17 : i32, 32 : i32]}> : (tensor<1x17x32xbf16>) -> tensor<17x32xbf16> loc(#loc73)
        %65 = "ttir.reshape"(%64) <{shape = [1 : i32, 1 : i32, 17 : i32, 32 : i32]}> : (tensor<17x32xbf16>) -> tensor<1x1x17x32xbf16> loc(#loc74)
        %66 = "ttir.broadcast"(%65) <{broadcast_dimensions = array<i64: 32, 32, 1, 1>}> : (tensor<1x1x17x32xbf16>) -> tensor<32x32x17x32xbf16> loc(#loc74)
        %67 = "ttir.multiply"(%61, %66) : (tensor<32x32x17x32xbf16>, tensor<32x32x17x32xbf16>) -> tensor<32x32x17x32xbf16> loc(#loc75)
        %68 = "ttir.add"(%57, %67) : (tensor<32x32x17x32xbf16>, tensor<32x32x17x32xbf16>) -> tensor<32x32x17x32xbf16> loc(#loc76)
        %69 = "ttir.slice_static"(%43) <{begins = [0 : i32, 0 : i32, 0 : i32, 32 : i32], ends = [32 : i32, 32 : i32, 17 : i32, 80 : i32], step = [1 : i32, 1 : i32, 1 : i32, 1 : i32]}> : (tensor<32x32x17x80xbf16>) -> tensor<32x32x17x48xbf16> loc(#loc77)
        %70 = "ttir.concat"(%68, %69) <{dim = 3 : si32}> : (tensor<32x32x17x32xbf16>, tensor<32x32x17x48xbf16>) -> tensor<32x32x17x80xbf16> loc(#loc78)
        %71 = "ttir.slice_static"(%70) <{begins = [0 : i32, 0 : i32, 0 : i32, 0 : i32], ends = [1 : i32, 32 : i32, 17 : i32, 80 : i32], step = [1 : i32, 1 : i32, 1 : i32, 1 : i32]}> : (tensor<32x32x17x80xbf16>) -> tensor<1x32x17x80xbf16> loc(#loc79)
        %72 = "ttir.fill_cache"(%arg8, %71) <{batch_offset = 0 : i32}> : (tensor<32x32x128x80xbf16>, tensor<1x32x17x80xbf16>) -> tensor<32x32x128x80xbf16> loc(#loc79)
        %73 = "ttir.slice_static"(%70) <{begins = [1 : i32, 0 : i32, 0 : i32, 0 : i32], ends = [2 : i32, 32 : i32, 17 : i32, 80 : i32], step = [1 : i32, 1 : i32, 1 : i32, 1 : i32]}> : (tensor<32x32x17x80xbf16>) -> tensor<1x32x17x80xbf16> loc(#loc79)
        %74 = "ttir.fill_cache"(%72, %73) <{batch_offset = 1 : i32}> : (tensor<32x32x128x80xbf16>, tensor<1x32x17x80xbf16>) -> tensor<32x32x128x80xbf16> loc(#loc79)
        %75 = "ttir.slice_static"(%70) <{begins = [2 : i32, 0 : i32, 0 : i32, 0 : i32], ends = [3 : i32, 32 : i32, 17 : i32, 80 : i32], step = [1 : i32, 1 : i32, 1 : i32, 1 : i32]}> : (tensor<32x32x17x80xbf16>) -> tensor<1x32x17x80xbf16> loc(#loc79)
        %76 = "ttir.fill_cache"(%74, %75) <{batch_offset = 2 : i32}> : (tensor<32x32x128x80xbf16>, tensor<1x32x17x80xbf16>) -> tensor<32x32x128x80xbf16> loc(#loc79)
        %77 = "ttir.slice_static"(%70) <{begins = [3 : i32, 0 : i32, 0 : i32, 0 : i32], ends = [4 : i32, 32 : i32, 17 : i32, 80 : i32], step = [1 : i32, 1 : i32, 1 : i32, 1 : i32]}> : (tensor<32x32x17x80xbf16>) -> tensor<1x32x17x80xbf16> loc(#loc79)
        %78 = "ttir.fill_cache"(%76, %77) <{batch_offset = 3 : i32}> : (tensor<32x32x128x80xbf16>, tensor<1x32x17x80xbf16>) -> tensor<32x32x128x80xbf16> loc(#loc79)
        %79 = "ttir.slice_static"(%70) <{begins = [4 : i32, 0 : i32, 0 : i32, 0 : i32], ends = [5 : i32, 32 : i32, 17 : i32, 80 : i32], step = [1 : i32, 1 : i32, 1 : i32, 1 : i32]}> : (tensor<32x32x17x80xbf16>) -> tensor<1x32x17x80xbf16> loc(#loc79)
        %80 = "ttir.fill_cache"(%78, %79) <{batch_offset = 4 : i32}> : (tensor<32x32x128x80xbf16>, tensor<1x32x17x80xbf16>) -> tensor<32x32x128x80xbf16> loc(#loc79)
        %81 = "ttir.slice_static"(%70) <{begins = [5 : i32, 0 : i32, 0 : i32, 0 : i32], ends = [6 : i32, 32 : i32, 17 : i32, 80 : i32], step = [1 : i32, 1 : i32, 1 : i32, 1 : i32]}> : (tensor<32x32x17x80xbf16>) -> tensor<1x32x17x80xbf16> loc(#loc79)
        %82 = "ttir.fill_cache"(%80, %81) <{batch_offset = 5 : i32}> : (tensor<32x32x128x80xbf16>, tensor<1x32x17x80xbf16>) -> tensor<32x32x128x80xbf16> loc(#loc79)
        %83 = "ttir.slice_static"(%70) <{begins = [6 : i32, 0 : i32, 0 : i32, 0 : i32], ends = [7 : i32, 32 : i32, 17 : i32, 80 : i32], step = [1 : i32, 1 : i32, 1 : i32, 1 : i32]}> : (tensor<32x32x17x80xbf16>) -> tensor<1x32x17x80xbf16> loc(#loc79)
        %84 = "ttir.fill_cache"(%82, %83) <{batch_offset = 6 : i32}> : (tensor<32x32x128x80xbf16>, tensor<1x32x17x80xbf16>) -> tensor<32x32x128x80xbf16> loc(#loc79)
        %85 = "ttir.slice_static"(%70) <{begins = [7 : i32, 0 : i32, 0 : i32, 0 : i32], ends = [8 : i32, 32 : i32, 17 : i32, 80 : i32], step = [1 : i32, 1 : i32, 1 : i32, 1 : i32]}> : (tensor<32x32x17x80xbf16>) -> tensor<1x32x17x80xbf16> loc(#loc79)
        %86 = "ttir.fill_cache"(%84, %85) <{batch_offset = 7 : i32}> : (tensor<32x32x128x80xbf16>, tensor<1x32x17x80xbf16>) -> tensor<32x32x128x80xbf16> loc(#loc79)
        %87 = "ttir.slice_static"(%70) <{begins = [8 : i32, 0 : i32, 0 : i32, 0 : i32], ends = [9 : i32, 32 : i32, 17 : i32, 80 : i32], step = [1 : i32, 1 : i32, 1 : i32, 1 : i32]}> : (tensor<32x32x17x80xbf16>) -> tensor<1x32x17x80xbf16> loc(#loc79)
        %88 = "ttir.fill_cache"(%86, %87) <{batch_offset = 8 : i32}> : (tensor<32x32x128x80xbf16>, tensor<1x32x17x80xbf16>) -> tensor<32x32x128x80xbf16> loc(#loc79)
        %89 = "ttir.slice_static"(%70) <{begins = [9 : i32, 0 : i32, 0 : i32, 0 : i32], ends = [10 : i32, 32 : i32, 17 : i32, 80 : i32], step = [1 : i32, 1 : i32, 1 : i32, 1 : i32]}> : (tensor<32x32x17x80xbf16>) -> tensor<1x32x17x80xbf16> loc(#loc79)
        %90 = "ttir.fill_cache"(%88, %89) <{batch_offset = 9 : i32}> : (tensor<32x32x128x80xbf16>, tensor<1x32x17x80xbf16>) -> tensor<32x32x128x80xbf16> loc(#loc79)
        %91 = "ttir.slice_static"(%70) <{begins = [10 : i32, 0 : i32, 0 : i32, 0 : i32], ends = [11 : i32, 32 : i32, 17 : i32, 80 : i32], step = [1 : i32, 1 : i32, 1 : i32, 1 : i32]}> : (tensor<32x32x17x80xbf16>) -> tensor<1x32x17x80xbf16> loc(#loc79)
        %92 = "ttir.fill_cache"(%90, %91) <{batch_offset = 10 : i32}> : (tensor<32x32x128x80xbf16>, tensor<1x32x17x80xbf16>) -> tensor<32x32x128x80xbf16> loc(#loc79)
        %93 = "ttir.slice_static"(%70) <{begins = [11 : i32, 0 : i32, 0 : i32, 0 : i32], ends = [12 : i32, 32 : i32, 17 : i32, 80 : i32], step = [1 : i32, 1 : i32, 1 : i32, 1 : i32]}> : (tensor<32x32x17x80xbf16>) -> tensor<1x32x17x80xbf16> loc(#loc79)
        %94 = "ttir.fill_cache"(%92, %93) <{batch_offset = 11 : i32}> : (tensor<32x32x128x80xbf16>, tensor<1x32x17x80xbf16>) -> tensor<32x32x128x80xbf16> loc(#loc79)
        %95 = "ttir.slice_static"(%70) <{begins = [12 : i32, 0 : i32, 0 : i32, 0 : i32], ends = [13 : i32, 32 : i32, 17 : i32, 80 : i32], step = [1 : i32, 1 : i32, 1 : i32, 1 : i32]}> : (tensor<32x32x17x80xbf16>) -> tensor<1x32x17x80xbf16> loc(#loc79)
        %96 = "ttir.fill_cache"(%94, %95) <{batch_offset = 12 : i32}> : (tensor<32x32x128x80xbf16>, tensor<1x32x17x80xbf16>) -> tensor<32x32x128x80xbf16> loc(#loc79)
        %97 = "ttir.slice_static"(%70) <{begins = [13 : i32, 0 : i32, 0 : i32, 0 : i32], ends = [14 : i32, 32 : i32, 17 : i32, 80 : i32], step = [1 : i32, 1 : i32, 1 : i32, 1 : i32]}> : (tensor<32x32x17x80xbf16>) -> tensor<1x32x17x80xbf16> loc(#loc79)
        %98 = "ttir.fill_cache"(%96, %97) <{batch_offset = 13 : i32}> : (tensor<32x32x128x80xbf16>, tensor<1x32x17x80xbf16>) -> tensor<32x32x128x80xbf16> loc(#loc79)
        %99 = "ttir.slice_static"(%70) <{begins = [14 : i32, 0 : i32, 0 : i32, 0 : i32], ends = [15 : i32, 32 : i32, 17 : i32, 80 : i32], step = [1 : i32, 1 : i32, 1 : i32, 1 : i32]}> : (tensor<32x32x17x80xbf16>) -> tensor<1x32x17x80xbf16> loc(#loc79)
        %100 = "ttir.fill_cache"(%98, %99) <{batch_offset = 14 : i32}> : (tensor<32x32x128x80xbf16>, tensor<1x32x17x80xbf16>) -> tensor<32x32x128x80xbf16> loc(#loc79)
        %101 = "ttir.slice_static"(%70) <{begins = [15 : i32, 0 : i32, 0 : i32, 0 : i32], ends = [16 : i32, 32 : i32, 17 : i32, 80 : i32], step = [1 : i32, 1 : i32, 1 : i32, 1 : i32]}> : (tensor<32x32x17x80xbf16>) -> tensor<1x32x17x80xbf16> loc(#loc79)
        %102 = "ttir.fill_cache"(%100, %101) <{batch_offset = 15 : i32}> : (tensor<32x32x128x80xbf16>, tensor<1x32x17x80xbf16>) -> tensor<32x32x128x80xbf16> loc(#loc79)
        %103 = "ttir.slice_static"(%70) <{begins = [16 : i32, 0 : i32, 0 : i32, 0 : i32], ends = [17 : i32, 32 : i32, 17 : i32, 80 : i32], step = [1 : i32, 1 : i32, 1 : i32, 1 : i32]}> : (tensor<32x32x17x80xbf16>) -> tensor<1x32x17x80xbf16> loc(#loc79)
        %104 = "ttir.fill_cache"(%102, %103) <{batch_offset = 16 : i32}> : (tensor<32x32x128x80xbf16>, tensor<1x32x17x80xbf16>) -> tensor<32x32x128x80xbf16> loc(#loc79)
        %105 = "ttir.slice_static"(%70) <{begins = [17 : i32, 0 : i32, 0 : i32, 0 : i32], ends = [18 : i32, 32 : i32, 17 : i32, 80 : i32], step = [1 : i32, 1 : i32, 1 : i32, 1 : i32]}> : (tensor<32x32x17x80xbf16>) -> tensor<1x32x17x80xbf16> loc(#loc79)
        %106 = "ttir.fill_cache"(%104, %105) <{batch_offset = 17 : i32}> : (tensor<32x32x128x80xbf16>, tensor<1x32x17x80xbf16>) -> tensor<32x32x128x80xbf16> loc(#loc79)
        %107 = "ttir.slice_static"(%70) <{begins = [18 : i32, 0 : i32, 0 : i32, 0 : i32], ends = [19 : i32, 32 : i32, 17 : i32, 80 : i32], step = [1 : i32, 1 : i32, 1 : i32, 1 : i32]}> : (tensor<32x32x17x80xbf16>) -> tensor<1x32x17x80xbf16> loc(#loc79)
        %108 = "ttir.fill_cache"(%106, %107) <{batch_offset = 18 : i32}> : (tensor<32x32x128x80xbf16>, tensor<1x32x17x80xbf16>) -> tensor<32x32x128x80xbf16> loc(#loc79)
        %109 = "ttir.slice_static"(%70) <{begins = [19 : i32, 0 : i32, 0 : i32, 0 : i32], ends = [20 : i32, 32 : i32, 17 : i32, 80 : i32], step = [1 : i32, 1 : i32, 1 : i32, 1 : i32]}> : (tensor<32x32x17x80xbf16>) -> tensor<1x32x17x80xbf16> loc(#loc79)
        %110 = "ttir.fill_cache"(%108, %109) <{batch_offset = 19 : i32}> : (tensor<32x32x128x80xbf16>, tensor<1x32x17x80xbf16>) -> tensor<32x32x128x80xbf16> loc(#loc79)
        %111 = "ttir.slice_static"(%70) <{begins = [20 : i32, 0 : i32, 0 : i32, 0 : i32], ends = [21 : i32, 32 : i32, 17 : i32, 80 : i32], step = [1 : i32, 1 : i32, 1 : i32, 1 : i32]}> : (tensor<32x32x17x80xbf16>) -> tensor<1x32x17x80xbf16> loc(#loc79)
        %112 = "ttir.fill_cache"(%110, %111) <{batch_offset = 20 : i32}> : (tensor<32x32x128x80xbf16>, tensor<1x32x17x80xbf16>) -> tensor<32x32x128x80xbf16> loc(#loc79)
        %113 = "ttir.slice_static"(%70) <{begins = [21 : i32, 0 : i32, 0 : i32, 0 : i32], ends = [22 : i32, 32 : i32, 17 : i32, 80 : i32], step = [1 : i32, 1 : i32, 1 : i32, 1 : i32]}> : (tensor<32x32x17x80xbf16>) -> tensor<1x32x17x80xbf16> loc(#loc79)
        %114 = "ttir.fill_cache"(%112, %113) <{batch_offset = 21 : i32}> : (tensor<32x32x128x80xbf16>, tensor<1x32x17x80xbf16>) -> tensor<32x32x128x80xbf16> loc(#loc79)
        %115 = "ttir.slice_static"(%70) <{begins = [22 : i32, 0 : i32, 0 : i32, 0 : i32], ends = [23 : i32, 32 : i32, 17 : i32, 80 : i32], step = [1 : i32, 1 : i32, 1 : i32, 1 : i32]}> : (tensor<32x32x17x80xbf16>) -> tensor<1x32x17x80xbf16> loc(#loc79)
        %116 = "ttir.fill_cache"(%114, %115) <{batch_offset = 22 : i32}> : (tensor<32x32x128x80xbf16>, tensor<1x32x17x80xbf16>) -> tensor<32x32x128x80xbf16> loc(#loc79)
        %117 = "ttir.slice_static"(%70) <{begins = [23 : i32, 0 : i32, 0 : i32, 0 : i32], ends = [24 : i32, 32 : i32, 17 : i32, 80 : i32], step = [1 : i32, 1 : i32, 1 : i32, 1 : i32]}> : (tensor<32x32x17x80xbf16>) -> tensor<1x32x17x80xbf16> loc(#loc79)
        %118 = "ttir.fill_cache"(%116, %117) <{batch_offset = 23 : i32}> : (tensor<32x32x128x80xbf16>, tensor<1x32x17x80xbf16>) -> tensor<32x32x128x80xbf16> loc(#loc79)
        %119 = "ttir.slice_static"(%70) <{begins = [24 : i32, 0 : i32, 0 : i32, 0 : i32], ends = [25 : i32, 32 : i32, 17 : i32, 80 : i32], step = [1 : i32, 1 : i32, 1 : i32, 1 : i32]}> : (tensor<32x32x17x80xbf16>) -> tensor<1x32x17x80xbf16> loc(#loc79)
        %120 = "ttir.fill_cache"(%118, %119) <{batch_offset = 24 : i32}> : (tensor<32x32x128x80xbf16>, tensor<1x32x17x80xbf16>) -> tensor<32x32x128x80xbf16> loc(#loc79)
        %121 = "ttir.slice_static"(%70) <{begins = [25 : i32, 0 : i32, 0 : i32, 0 : i32], ends = [26 : i32, 32 : i32, 17 : i32, 80 : i32], step = [1 : i32, 1 : i32, 1 : i32, 1 : i32]}> : (tensor<32x32x17x80xbf16>) -> tensor<1x32x17x80xbf16> loc(#loc79)
        %122 = "ttir.fill_cache"(%120, %121) <{batch_offset = 25 : i32}> : (tensor<32x32x128x80xbf16>, tensor<1x32x17x80xbf16>) -> tensor<32x32x128x80xbf16> loc(#loc79)
        %123 = "ttir.slice_static"(%70) <{begins = [26 : i32, 0 : i32, 0 : i32, 0 : i32], ends = [27 : i32, 32 : i32, 17 : i32, 80 : i32], step = [1 : i32, 1 : i32, 1 : i32, 1 : i32]}> : (tensor<32x32x17x80xbf16>) -> tensor<1x32x17x80xbf16> loc(#loc79)
        %124 = "ttir.fill_cache"(%122, %123) <{batch_offset = 26 : i32}> : (tensor<32x32x128x80xbf16>, tensor<1x32x17x80xbf16>) -> tensor<32x32x128x80xbf16> loc(#loc79)
        %125 = "ttir.slice_static"(%70) <{begins = [27 : i32, 0 : i32, 0 : i32, 0 : i32], ends = [28 : i32, 32 : i32, 17 : i32, 80 : i32], step = [1 : i32, 1 : i32, 1 : i32, 1 : i32]}> : (tensor<32x32x17x80xbf16>) -> tensor<1x32x17x80xbf16> loc(#loc79)
        %126 = "ttir.fill_cache"(%124, %125) <{batch_offset = 27 : i32}> : (tensor<32x32x128x80xbf16>, tensor<1x32x17x80xbf16>) -> tensor<32x32x128x80xbf16> loc(#loc79)
        %127 = "ttir.slice_static"(%70) <{begins = [28 : i32, 0 : i32, 0 : i32, 0 : i32], ends = [29 : i32, 32 : i32, 17 : i32, 80 : i32], step = [1 : i32, 1 : i32, 1 : i32, 1 : i32]}> : (tensor<32x32x17x80xbf16>) -> tensor<1x32x17x80xbf16> loc(#loc79)
        %128 = "ttir.fill_cache"(%126, %127) <{batch_offset = 28 : i32}> : (tensor<32x32x128x80xbf16>, tensor<1x32x17x80xbf16>) -> tensor<32x32x128x80xbf16> loc(#loc79)
        %129 = "ttir.slice_static"(%70) <{begins = [29 : i32, 0 : i32, 0 : i32, 0 : i32], ends = [30 : i32, 32 : i32, 17 : i32, 80 : i32], step = [1 : i32, 1 : i32, 1 : i32, 1 : i32]}> : (tensor<32x32x17x80xbf16>) -> tensor<1x32x17x80xbf16> loc(#loc79)
        %130 = "ttir.fill_cache"(%128, %129) <{batch_offset = 29 : i32}> : (tensor<32x32x128x80xbf16>, tensor<1x32x17x80xbf16>) -> tensor<32x32x128x80xbf16> loc(#loc79)
        %131 = "ttir.slice_static"(%70) <{begins = [30 : i32, 0 : i32, 0 : i32, 0 : i32], ends = [31 : i32, 32 : i32, 17 : i32, 80 : i32], step = [1 : i32, 1 : i32, 1 : i32, 1 : i32]}> : (tensor<32x32x17x80xbf16>) -> tensor<1x32x17x80xbf16> loc(#loc79)
        %132 = "ttir.fill_cache"(%130, %131) <{batch_offset = 30 : i32}> : (tensor<32x32x128x80xbf16>, tensor<1x32x17x80xbf16>) -> tensor<32x32x128x80xbf16> loc(#loc79)
        %133 = "ttir.slice_static"(%70) <{begins = [31 : i32, 0 : i32, 0 : i32, 0 : i32], ends = [32 : i32, 32 : i32, 17 : i32, 80 : i32], step = [1 : i32, 1 : i32, 1 : i32, 1 : i32]}> : (tensor<32x32x17x80xbf16>) -> tensor<1x32x17x80xbf16> loc(#loc79)
        %134 = "ttir.fill_cache"(%132, %133) <{batch_offset = 31 : i32}> : (tensor<32x32x128x80xbf16>, tensor<1x32x17x80xbf16>) -> tensor<32x32x128x80xbf16> loc(#loc79)
        %135 = "ttir.reshape"(%arg10) <{shape = [1 : i32, 2560 : i32, 2560 : i32]}> : (tensor<2560x2560xbf16>) -> tensor<1x2560x2560xbf16> loc(#loc80)
        %136 = "ttir.reshape"(%135) <{shape = [2560 : i32, 2560 : i32]}> : (tensor<1x2560x2560xbf16>) -> tensor<2560x2560xbf16> loc(#loc81)
        %137 = "ttir.permute"(%136) <{permutation = array<i64: 1, 0>}> : (tensor<2560x2560xbf16>) -> tensor<2560x2560xbf16> loc(#loc82)
        %138 = "ttir.dot_general"(%31, %137) <{batch_dims_lhs = array<i64>, batch_dims_rhs = array<i64>, contract_dims_lhs = array<i64: 1>, contract_dims_rhs = array<i64: 0>}> : (tensor<544x2560xbf16>, tensor<2560x2560xbf16>) -> tensor<544x2560xbf16> loc(#loc83)
        %139 = "ttir.reshape"(%138) <{shape = [32 : i32, 17 : i32, 2560 : i32]}> : (tensor<544x2560xbf16>) -> tensor<32x17x2560xbf16> loc(#loc84)
        %140 = "ttir.reshape"(%arg9) <{shape = [1 : i32, 1 : i32, 2560 : i32]}> : (tensor<2560xbf16>) -> tensor<1x1x2560xbf16> loc(#loc85)
        %141 = "ttir.reshape"(%140) <{shape = [2560 : i32]}> : (tensor<1x1x2560xbf16>) -> tensor<2560xbf16> loc(#loc86)
        %142 = "ttir.reshape"(%141) <{shape = [1 : i32, 1 : i32, 2560 : i32]}> : (tensor<2560xbf16>) -> tensor<1x1x2560xbf16> loc(#loc87)
        %143 = "ttir.broadcast"(%142) <{broadcast_dimensions = array<i64: 32, 17, 1>}> : (tensor<1x1x2560xbf16>) -> tensor<32x17x2560xbf16> loc(#loc87)
        %144 = "ttir.add"(%139, %143) : (tensor<32x17x2560xbf16>, tensor<32x17x2560xbf16>) -> tensor<32x17x2560xbf16> loc(#loc88)
        %145 = "ttir.reshape"(%144) <{shape = [32 : i32, 17 : i32, 32 : i32, 80 : i32]}> : (tensor<32x17x2560xbf16>) -> tensor<32x17x32x80xbf16> loc(#loc89)
        %146 = "ttir.permute"(%145) <{permutation = array<i64: 0, 2, 1, 3>}> : (tensor<32x17x32x80xbf16>) -> tensor<32x32x17x80xbf16> loc(#loc90)
        %147 = "ttir.slice_static"(%146) <{begins = [0 : i32, 0 : i32, 0 : i32, 0 : i32], ends = [1 : i32, 32 : i32, 17 : i32, 80 : i32], step = [1 : i32, 1 : i32, 1 : i32, 1 : i32]}> : (tensor<32x32x17x80xbf16>) -> tensor<1x32x17x80xbf16> loc(#loc91)
        %148 = "ttir.fill_cache"(%arg11, %147) <{batch_offset = 0 : i32}> : (tensor<32x32x128x80xbf16>, tensor<1x32x17x80xbf16>) -> tensor<32x32x128x80xbf16> loc(#loc91)
        %149 = "ttir.slice_static"(%146) <{begins = [1 : i32, 0 : i32, 0 : i32, 0 : i32], ends = [2 : i32, 32 : i32, 17 : i32, 80 : i32], step = [1 : i32, 1 : i32, 1 : i32, 1 : i32]}> : (tensor<32x32x17x80xbf16>) -> tensor<1x32x17x80xbf16> loc(#loc91)
        %150 = "ttir.fill_cache"(%148, %149) <{batch_offset = 1 : i32}> : (tensor<32x32x128x80xbf16>, tensor<1x32x17x80xbf16>) -> tensor<32x32x128x80xbf16> loc(#loc91)
        %151 = "ttir.slice_static"(%146) <{begins = [2 : i32, 0 : i32, 0 : i32, 0 : i32], ends = [3 : i32, 32 : i32, 17 : i32, 80 : i32], step = [1 : i32, 1 : i32, 1 : i32, 1 : i32]}> : (tensor<32x32x17x80xbf16>) -> tensor<1x32x17x80xbf16> loc(#loc91)
        %152 = "ttir.fill_cache"(%150, %151) <{batch_offset = 2 : i32}> : (tensor<32x32x128x80xbf16>, tensor<1x32x17x80xbf16>) -> tensor<32x32x128x80xbf16> loc(#loc91)
        %153 = "ttir.slice_static"(%146) <{begins = [3 : i32, 0 : i32, 0 : i32, 0 : i32], ends = [4 : i32, 32 : i32, 17 : i32, 80 : i32], step = [1 : i32, 1 : i32, 1 : i32, 1 : i32]}> : (tensor<32x32x17x80xbf16>) -> tensor<1x32x17x80xbf16> loc(#loc91)
        %154 = "ttir.fill_cache"(%152, %153) <{batch_offset = 3 : i32}> : (tensor<32x32x128x80xbf16>, tensor<1x32x17x80xbf16>) -> tensor<32x32x128x80xbf16> loc(#loc91)
        %155 = "ttir.slice_static"(%146) <{begins = [4 : i32, 0 : i32, 0 : i32, 0 : i32], ends = [5 : i32, 32 : i32, 17 : i32, 80 : i32], step = [1 : i32, 1 : i32, 1 : i32, 1 : i32]}> : (tensor<32x32x17x80xbf16>) -> tensor<1x32x17x80xbf16> loc(#loc91)
        %156 = "ttir.fill_cache"(%154, %155) <{batch_offset = 4 : i32}> : (tensor<32x32x128x80xbf16>, tensor<1x32x17x80xbf16>) -> tensor<32x32x128x80xbf16> loc(#loc91)
        %157 = "ttir.slice_static"(%146) <{begins = [5 : i32, 0 : i32, 0 : i32, 0 : i32], ends = [6 : i32, 32 : i32, 17 : i32, 80 : i32], step = [1 : i32, 1 : i32, 1 : i32, 1 : i32]}> : (tensor<32x32x17x80xbf16>) -> tensor<1x32x17x80xbf16> loc(#loc91)
        %158 = "ttir.fill_cache"(%156, %157) <{batch_offset = 5 : i32}> : (tensor<32x32x128x80xbf16>, tensor<1x32x17x80xbf16>) -> tensor<32x32x128x80xbf16> loc(#loc91)
        %159 = "ttir.slice_static"(%146) <{begins = [6 : i32, 0 : i32, 0 : i32, 0 : i32], ends = [7 : i32, 32 : i32, 17 : i32, 80 : i32], step = [1 : i32, 1 : i32, 1 : i32, 1 : i32]}> : (tensor<32x32x17x80xbf16>) -> tensor<1x32x17x80xbf16> loc(#loc91)
        %160 = "ttir.fill_cache"(%158, %159) <{batch_offset = 6 : i32}> : (tensor<32x32x128x80xbf16>, tensor<1x32x17x80xbf16>) -> tensor<32x32x128x80xbf16> loc(#loc91)
        %161 = "ttir.slice_static"(%146) <{begins = [7 : i32, 0 : i32, 0 : i32, 0 : i32], ends = [8 : i32, 32 : i32, 17 : i32, 80 : i32], step = [1 : i32, 1 : i32, 1 : i32, 1 : i32]}> : (tensor<32x32x17x80xbf16>) -> tensor<1x32x17x80xbf16> loc(#loc91)
        %162 = "ttir.fill_cache"(%160, %161) <{batch_offset = 7 : i32}> : (tensor<32x32x128x80xbf16>, tensor<1x32x17x80xbf16>) -> tensor<32x32x128x80xbf16> loc(#loc91)
        %163 = "ttir.slice_static"(%146) <{begins = [8 : i32, 0 : i32, 0 : i32, 0 : i32], ends = [9 : i32, 32 : i32, 17 : i32, 80 : i32], step = [1 : i32, 1 : i32, 1 : i32, 1 : i32]}> : (tensor<32x32x17x80xbf16>) -> tensor<1x32x17x80xbf16> loc(#loc91)
        %164 = "ttir.fill_cache"(%162, %163) <{batch_offset = 8 : i32}> : (tensor<32x32x128x80xbf16>, tensor<1x32x17x80xbf16>) -> tensor<32x32x128x80xbf16> loc(#loc91)
        %165 = "ttir.slice_static"(%146) <{begins = [9 : i32, 0 : i32, 0 : i32, 0 : i32], ends = [10 : i32, 32 : i32, 17 : i32, 80 : i32], step = [1 : i32, 1 : i32, 1 : i32, 1 : i32]}> : (tensor<32x32x17x80xbf16>) -> tensor<1x32x17x80xbf16> loc(#loc91)
        %166 = "ttir.fill_cache"(%164, %165) <{batch_offset = 9 : i32}> : (tensor<32x32x128x80xbf16>, tensor<1x32x17x80xbf16>) -> tensor<32x32x128x80xbf16> loc(#loc91)
        %167 = "ttir.slice_static"(%146) <{begins = [10 : i32, 0 : i32, 0 : i32, 0 : i32], ends = [11 : i32, 32 : i32, 17 : i32, 80 : i32], step = [1 : i32, 1 : i32, 1 : i32, 1 : i32]}> : (tensor<32x32x17x80xbf16>) -> tensor<1x32x17x80xbf16> loc(#loc91)
        %168 = "ttir.fill_cache"(%166, %167) <{batch_offset = 10 : i32}> : (tensor<32x32x128x80xbf16>, tensor<1x32x17x80xbf16>) -> tensor<32x32x128x80xbf16> loc(#loc91)
        %169 = "ttir.slice_static"(%146) <{begins = [11 : i32, 0 : i32, 0 : i32, 0 : i32], ends = [12 : i32, 32 : i32, 17 : i32, 80 : i32], step = [1 : i32, 1 : i32, 1 : i32, 1 : i32]}> : (tensor<32x32x17x80xbf16>) -> tensor<1x32x17x80xbf16> loc(#loc91)
        %170 = "ttir.fill_cache"(%168, %169) <{batch_offset = 11 : i32}> : (tensor<32x32x128x80xbf16>, tensor<1x32x17x80xbf16>) -> tensor<32x32x128x80xbf16> loc(#loc91)
        %171 = "ttir.slice_static"(%146) <{begins = [12 : i32, 0 : i32, 0 : i32, 0 : i32], ends = [13 : i32, 32 : i32, 17 : i32, 80 : i32], step = [1 : i32, 1 : i32, 1 : i32, 1 : i32]}> : (tensor<32x32x17x80xbf16>) -> tensor<1x32x17x80xbf16> loc(#loc91)
        %172 = "ttir.fill_cache"(%170, %171) <{batch_offset = 12 : i32}> : (tensor<32x32x128x80xbf16>, tensor<1x32x17x80xbf16>) -> tensor<32x32x128x80xbf16> loc(#loc91)
        %173 = "ttir.slice_static"(%146) <{begins = [13 : i32, 0 : i32, 0 : i32, 0 : i32], ends = [14 : i32, 32 : i32, 17 : i32, 80 : i32], step = [1 : i32, 1 : i32, 1 : i32, 1 : i32]}> : (tensor<32x32x17x80xbf16>) -> tensor<1x32x17x80xbf16> loc(#loc91)
        %174 = "ttir.fill_cache"(%172, %173) <{batch_offset = 13 : i32}> : (tensor<32x32x128x80xbf16>, tensor<1x32x17x80xbf16>) -> tensor<32x32x128x80xbf16> loc(#loc91)
        %175 = "ttir.slice_static"(%146) <{begins = [14 : i32, 0 : i32, 0 : i32, 0 : i32], ends = [15 : i32, 32 : i32, 17 : i32, 80 : i32], step = [1 : i32, 1 : i32, 1 : i32, 1 : i32]}> : (tensor<32x32x17x80xbf16>) -> tensor<1x32x17x80xbf16> loc(#loc91)
        %176 = "ttir.fill_cache"(%174, %175) <{batch_offset = 14 : i32}> : (tensor<32x32x128x80xbf16>, tensor<1x32x17x80xbf16>) -> tensor<32x32x128x80xbf16> loc(#loc91)
        %177 = "ttir.slice_static"(%146) <{begins = [15 : i32, 0 : i32, 0 : i32, 0 : i32], ends = [16 : i32, 32 : i32, 17 : i32, 80 : i32], step = [1 : i32, 1 : i32, 1 : i32, 1 : i32]}> : (tensor<32x32x17x80xbf16>) -> tensor<1x32x17x80xbf16> loc(#loc91)
        %178 = "ttir.fill_cache"(%176, %177) <{batch_offset = 15 : i32}> : (tensor<32x32x128x80xbf16>, tensor<1x32x17x80xbf16>) -> tensor<32x32x128x80xbf16> loc(#loc91)
        %179 = "ttir.slice_static"(%146) <{begins = [16 : i32, 0 : i32, 0 : i32, 0 : i32], ends = [17 : i32, 32 : i32, 17 : i32, 80 : i32], step = [1 : i32, 1 : i32, 1 : i32, 1 : i32]}> : (tensor<32x32x17x80xbf16>) -> tensor<1x32x17x80xbf16> loc(#loc91)
        %180 = "ttir.fill_cache"(%178, %179) <{batch_offset = 16 : i32}> : (tensor<32x32x128x80xbf16>, tensor<1x32x17x80xbf16>) -> tensor<32x32x128x80xbf16> loc(#loc91)
        %181 = "ttir.slice_static"(%146) <{begins = [17 : i32, 0 : i32, 0 : i32, 0 : i32], ends = [18 : i32, 32 : i32, 17 : i32, 80 : i32], step = [1 : i32, 1 : i32, 1 : i32, 1 : i32]}> : (tensor<32x32x17x80xbf16>) -> tensor<1x32x17x80xbf16> loc(#loc91)
        %182 = "ttir.fill_cache"(%180, %181) <{batch_offset = 17 : i32}> : (tensor<32x32x128x80xbf16>, tensor<1x32x17x80xbf16>) -> tensor<32x32x128x80xbf16> loc(#loc91)
        %183 = "ttir.slice_static"(%146) <{begins = [18 : i32, 0 : i32, 0 : i32, 0 : i32], ends = [19 : i32, 32 : i32, 17 : i32, 80 : i32], step = [1 : i32, 1 : i32, 1 : i32, 1 : i32]}> : (tensor<32x32x17x80xbf16>) -> tensor<1x32x17x80xbf16> loc(#loc91)
        %184 = "ttir.fill_cache"(%182, %183) <{batch_offset = 18 : i32}> : (tensor<32x32x128x80xbf16>, tensor<1x32x17x80xbf16>) -> tensor<32x32x128x80xbf16> loc(#loc91)
        %185 = "ttir.slice_static"(%146) <{begins = [19 : i32, 0 : i32, 0 : i32, 0 : i32], ends = [20 : i32, 32 : i32, 17 : i32, 80 : i32], step = [1 : i32, 1 : i32, 1 : i32, 1 : i32]}> : (tensor<32x32x17x80xbf16>) -> tensor<1x32x17x80xbf16> loc(#loc91)
        %186 = "ttir.fill_cache"(%184, %185) <{batch_offset = 19 : i32}> : (tensor<32x32x128x80xbf16>, tensor<1x32x17x80xbf16>) -> tensor<32x32x128x80xbf16> loc(#loc91)
        %187 = "ttir.slice_static"(%146) <{begins = [20 : i32, 0 : i32, 0 : i32, 0 : i32], ends = [21 : i32, 32 : i32, 17 : i32, 80 : i32], step = [1 : i32, 1 : i32, 1 : i32, 1 : i32]}> : (tensor<32x32x17x80xbf16>) -> tensor<1x32x17x80xbf16> loc(#loc91)
        %188 = "ttir.fill_cache"(%186, %187) <{batch_offset = 20 : i32}> : (tensor<32x32x128x80xbf16>, tensor<1x32x17x80xbf16>) -> tensor<32x32x128x80xbf16> loc(#loc91)
        %189 = "ttir.slice_static"(%146) <{begins = [21 : i32, 0 : i32, 0 : i32, 0 : i32], ends = [22 : i32, 32 : i32, 17 : i32, 80 : i32], step = [1 : i32, 1 : i32, 1 : i32, 1 : i32]}> : (tensor<32x32x17x80xbf16>) -> tensor<1x32x17x80xbf16> loc(#loc91)
        %190 = "ttir.fill_cache"(%188, %189) <{batch_offset = 21 : i32}> : (tensor<32x32x128x80xbf16>, tensor<1x32x17x80xbf16>) -> tensor<32x32x128x80xbf16> loc(#loc91)
        %191 = "ttir.slice_static"(%146) <{begins = [22 : i32, 0 : i32, 0 : i32, 0 : i32], ends = [23 : i32, 32 : i32, 17 : i32, 80 : i32], step = [1 : i32, 1 : i32, 1 : i32, 1 : i32]}> : (tensor<32x32x17x80xbf16>) -> tensor<1x32x17x80xbf16> loc(#loc91)
        %192 = "ttir.fill_cache"(%190, %191) <{batch_offset = 22 : i32}> : (tensor<32x32x128x80xbf16>, tensor<1x32x17x80xbf16>) -> tensor<32x32x128x80xbf16> loc(#loc91)
        %193 = "ttir.slice_static"(%146) <{begins = [23 : i32, 0 : i32, 0 : i32, 0 : i32], ends = [24 : i32, 32 : i32, 17 : i32, 80 : i32], step = [1 : i32, 1 : i32, 1 : i32, 1 : i32]}> : (tensor<32x32x17x80xbf16>) -> tensor<1x32x17x80xbf16> loc(#loc91)
        %194 = "ttir.fill_cache"(%192, %193) <{batch_offset = 23 : i32}> : (tensor<32x32x128x80xbf16>, tensor<1x32x17x80xbf16>) -> tensor<32x32x128x80xbf16> loc(#loc91)
        %195 = "ttir.slice_static"(%146) <{begins = [24 : i32, 0 : i32, 0 : i32, 0 : i32], ends = [25 : i32, 32 : i32, 17 : i32, 80 : i32], step = [1 : i32, 1 : i32, 1 : i32, 1 : i32]}> : (tensor<32x32x17x80xbf16>) -> tensor<1x32x17x80xbf16> loc(#loc91)
        %196 = "ttir.fill_cache"(%194, %195) <{batch_offset = 24 : i32}> : (tensor<32x32x128x80xbf16>, tensor<1x32x17x80xbf16>) -> tensor<32x32x128x80xbf16> loc(#loc91)
        %197 = "ttir.slice_static"(%146) <{begins = [25 : i32, 0 : i32, 0 : i32, 0 : i32], ends = [26 : i32, 32 : i32, 17 : i32, 80 : i32], step = [1 : i32, 1 : i32, 1 : i32, 1 : i32]}> : (tensor<32x32x17x80xbf16>) -> tensor<1x32x17x80xbf16> loc(#loc91)
        %198 = "ttir.fill_cache"(%196, %197) <{batch_offset = 25 : i32}> : (tensor<32x32x128x80xbf16>, tensor<1x32x17x80xbf16>) -> tensor<32x32x128x80xbf16> loc(#loc91)
        %199 = "ttir.slice_static"(%146) <{begins = [26 : i32, 0 : i32, 0 : i32, 0 : i32], ends = [27 : i32, 32 : i32, 17 : i32, 80 : i32], step = [1 : i32, 1 : i32, 1 : i32, 1 : i32]}> : (tensor<32x32x17x80xbf16>) -> tensor<1x32x17x80xbf16> loc(#loc91)
        %200 = "ttir.fill_cache"(%198, %199) <{batch_offset = 26 : i32}> : (tensor<32x32x128x80xbf16>, tensor<1x32x17x80xbf16>) -> tensor<32x32x128x80xbf16> loc(#loc91)
        %201 = "ttir.slice_static"(%146) <{begins = [27 : i32, 0 : i32, 0 : i32, 0 : i32], ends = [28 : i32, 32 : i32, 17 : i32, 80 : i32], step = [1 : i32, 1 : i32, 1 : i32, 1 : i32]}> : (tensor<32x32x17x80xbf16>) -> tensor<1x32x17x80xbf16> loc(#loc91)
        %202 = "ttir.fill_cache"(%200, %201) <{batch_offset = 27 : i32}> : (tensor<32x32x128x80xbf16>, tensor<1x32x17x80xbf16>) -> tensor<32x32x128x80xbf16> loc(#loc91)
        %203 = "ttir.slice_static"(%146) <{begins = [28 : i32, 0 : i32, 0 : i32, 0 : i32], ends = [29 : i32, 32 : i32, 17 : i32, 80 : i32], step = [1 : i32, 1 : i32, 1 : i32, 1 : i32]}> : (tensor<32x32x17x80xbf16>) -> tensor<1x32x17x80xbf16> loc(#loc91)
        %204 = "ttir.fill_cache"(%202, %203) <{batch_offset = 28 : i32}> : (tensor<32x32x128x80xbf16>, tensor<1x32x17x80xbf16>) -> tensor<32x32x128x80xbf16> loc(#loc91)
        %205 = "ttir.slice_static"(%146) <{begins = [29 : i32, 0 : i32, 0 : i32, 0 : i32], ends = [30 : i32, 32 : i32, 17 : i32, 80 : i32], step = [1 : i32, 1 : i32, 1 : i32, 1 : i32]}> : (tensor<32x32x17x80xbf16>) -> tensor<1x32x17x80xbf16> loc(#loc91)
        %206 = "ttir.fill_cache"(%204, %205) <{batch_offset = 29 : i32}> : (tensor<32x32x128x80xbf16>, tensor<1x32x17x80xbf16>) -> tensor<32x32x128x80xbf16> loc(#loc91)
        %207 = "ttir.slice_static"(%146) <{begins = [30 : i32, 0 : i32, 0 : i32, 0 : i32], ends = [31 : i32, 32 : i32, 17 : i32, 80 : i32], step = [1 : i32, 1 : i32, 1 : i32, 1 : i32]}> : (tensor<32x32x17x80xbf16>) -> tensor<1x32x17x80xbf16> loc(#loc91)
        %208 = "ttir.fill_cache"(%206, %207) <{batch_offset = 30 : i32}> : (tensor<32x32x128x80xbf16>, tensor<1x32x17x80xbf16>) -> tensor<32x32x128x80xbf16> loc(#loc91)
        %209 = "ttir.slice_static"(%146) <{begins = [31 : i32, 0 : i32, 0 : i32, 0 : i32], ends = [32 : i32, 32 : i32, 17 : i32, 80 : i32], step = [1 : i32, 1 : i32, 1 : i32, 1 : i32]}> : (tensor<32x32x17x80xbf16>) -> tensor<1x32x17x80xbf16> loc(#loc91)
        %210 = "ttir.fill_cache"(%208, %209) <{batch_offset = 31 : i32}> : (tensor<32x32x128x80xbf16>, tensor<1x32x17x80xbf16>) -> tensor<32x32x128x80xbf16> loc(#loc91)
        %211 = "ttir.reshape"(%arg23) <{shape = [1 : i32, 2560 : i32, 2560 : i32]}> : (tensor<2560x2560xbf16>) -> tensor<1x2560x2560xbf16> loc(#loc92)
        %212 = "ttir.reshape"(%211) <{shape = [2560 : i32, 2560 : i32]}> : (tensor<1x2560x2560xbf16>) -> tensor<2560x2560xbf16> loc(#loc93)
        %213 = "ttir.permute"(%212) <{permutation = array<i64: 1, 0>}> : (tensor<2560x2560xbf16>) -> tensor<2560x2560xbf16> loc(#loc94)
        %214 = "ttir.dot_general"(%31, %213) <{batch_dims_lhs = array<i64>, batch_dims_rhs = array<i64>, contract_dims_lhs = array<i64: 1>, contract_dims_rhs = array<i64: 0>}> : (tensor<544x2560xbf16>, tensor<2560x2560xbf16>) -> tensor<544x2560xbf16> loc(#loc95)
        %215 = "ttir.reshape"(%214) <{shape = [32 : i32, 17 : i32, 2560 : i32]}> : (tensor<544x2560xbf16>) -> tensor<32x17x2560xbf16> loc(#loc96)
        %216 = "ttir.reshape"(%arg22) <{shape = [1 : i32, 1 : i32, 2560 : i32]}> : (tensor<2560xbf16>) -> tensor<1x1x2560xbf16> loc(#loc97)
        %217 = "ttir.reshape"(%216) <{shape = [2560 : i32]}> : (tensor<1x1x2560xbf16>) -> tensor<2560xbf16> loc(#loc98)
        %218 = "ttir.reshape"(%217) <{shape = [1 : i32, 1 : i32, 2560 : i32]}> : (tensor<2560xbf16>) -> tensor<1x1x2560xbf16> loc(#loc99)
        %219 = "ttir.broadcast"(%218) <{broadcast_dimensions = array<i64: 32, 17, 1>}> : (tensor<1x1x2560xbf16>) -> tensor<32x17x2560xbf16> loc(#loc99)
        %220 = "ttir.add"(%215, %219) : (tensor<32x17x2560xbf16>, tensor<32x17x2560xbf16>) -> tensor<32x17x2560xbf16> loc(#loc100)
        %221 = "ttir.reshape"(%220) <{shape = [32 : i32, 17 : i32, 32 : i32, 80 : i32]}> : (tensor<32x17x2560xbf16>) -> tensor<32x17x32x80xbf16> loc(#loc101)
        %222 = "ttir.permute"(%221) <{permutation = array<i64: 0, 2, 1, 3>}> : (tensor<32x17x32x80xbf16>) -> tensor<32x32x17x80xbf16> loc(#loc102)
        %223 = "ttir.slice_static"(%222) <{begins = [0 : i32, 0 : i32, 0 : i32, 0 : i32], ends = [32 : i32, 32 : i32, 17 : i32, 32 : i32], step = [1 : i32, 1 : i32, 1 : i32, 1 : i32]}> : (tensor<32x32x17x80xbf16>) -> tensor<32x32x17x32xbf16> loc(#loc103)
        %224 = "ttir.multiply"(%223, %56) : (tensor<32x32x17x32xbf16>, tensor<32x32x17x32xbf16>) -> tensor<32x32x17x32xbf16> loc(#loc104)
        %225 = "ttir.slice_static"(%223) <{begins = [0 : i32, 0 : i32, 0 : i32, 16 : i32], ends = [32 : i32, 32 : i32, 17 : i32, 32 : i32], step = [1 : i32, 1 : i32, 1 : i32, 1 : i32]}> : (tensor<32x32x17x32xbf16>) -> tensor<32x32x17x16xbf16> loc(#loc105)
        %226 = "ttir.neg"(%225) : (tensor<32x32x17x16xbf16>) -> tensor<32x32x17x16xbf16> loc(#loc106)
        %227 = "ttir.slice_static"(%223) <{begins = [0 : i32, 0 : i32, 0 : i32, 0 : i32], ends = [32 : i32, 32 : i32, 17 : i32, 16 : i32], step = [1 : i32, 1 : i32, 1 : i32, 1 : i32]}> : (tensor<32x32x17x32xbf16>) -> tensor<32x32x17x16xbf16> loc(#loc107)
        %228 = "ttir.concat"(%226, %227) <{dim = 3 : si32}> : (tensor<32x32x17x16xbf16>, tensor<32x32x17x16xbf16>) -> tensor<32x32x17x32xbf16> loc(#loc108)
        %229 = "ttir.multiply"(%228, %66) : (tensor<32x32x17x32xbf16>, tensor<32x32x17x32xbf16>) -> tensor<32x32x17x32xbf16> loc(#loc109)
        %230 = "ttir.add"(%224, %229) : (tensor<32x32x17x32xbf16>, tensor<32x32x17x32xbf16>) -> tensor<32x32x17x32xbf16> loc(#loc110)
        %231 = "ttir.slice_static"(%222) <{begins = [0 : i32, 0 : i32, 0 : i32, 32 : i32], ends = [32 : i32, 32 : i32, 17 : i32, 80 : i32], step = [1 : i32, 1 : i32, 1 : i32, 1 : i32]}> : (tensor<32x32x17x80xbf16>) -> tensor<32x32x17x48xbf16> loc(#loc111)
        %232 = "ttir.concat"(%230, %231) <{dim = 3 : si32}> : (tensor<32x32x17x32xbf16>, tensor<32x32x17x48xbf16>) -> tensor<32x32x17x80xbf16> loc(#loc112)
        %233 = "ttir.typecast"(%232) <{conservative_folding = false}> : (tensor<32x32x17x80xbf16>) -> tensor<32x32x17x80xf32> loc(#loc113)
        %234 = "ttir.multiply"(%233, %10) : (tensor<32x32x17x80xf32>, tensor<32x32x17x80xf32>) -> tensor<32x32x17x80xf32> loc(#loc114)
        %235 = "ttir.typecast"(%134) <{conservative_folding = false}> : (tensor<32x32x128x80xbf16>) -> tensor<32x32x128x80xf32> loc(#loc115)
        %236 = "ttir.permute"(%235) <{permutation = array<i64: 0, 1, 3, 2>}> : (tensor<32x32x128x80xf32>) -> tensor<32x32x80x128xf32> loc(#loc116)
        %237 = "ttir.multiply"(%236, %9) : (tensor<32x32x80x128xf32>, tensor<32x32x80x128xf32>) -> tensor<32x32x80x128xf32> loc(#loc117)
        %238 = "ttir.dot_general"(%234, %237) <{batch_dims_lhs = array<i64: 0, 1>, batch_dims_rhs = array<i64: 0, 1>, contract_dims_lhs = array<i64: 3>, contract_dims_rhs = array<i64: 2>}> : (tensor<32x32x17x80xf32>, tensor<32x32x80x128xf32>) -> tensor<32x32x17x128xf32> loc(#loc118)
        %239 = "ttir.reshape"(%13) <{shape = [1 : i32, 128 : i32]}> : (tensor<128xi64>) -> tensor<1x128xi64> loc(#loc119)
        %240 = "ttir.broadcast"(%239) <{broadcast_dimensions = array<i64: 17, 1>}> : (tensor<1x128xi64>) -> tensor<17x128xi64> loc(#loc119)
        %241 = "ttir.reshape"(%15) <{shape = [17 : i32, 1 : i32]}> : (tensor<17xi64>) -> tensor<17x1xi64> loc(#loc120)
        %242 = "ttir.broadcast"(%241) <{broadcast_dimensions = array<i64: 1, 128>}> : (tensor<17x1xi64>) -> tensor<17x128xi64> loc(#loc120)
        %243 = "ttir.le"(%240, %242) : (tensor<17x128xi64>, tensor<17x128xi64>) -> tensor<17x128xi1> loc(#loc121)
        %244 = "ttir.reshape"(%243) <{shape = [1 : i32, 17 : i32, 128 : i32]}> : (tensor<17x128xi1>) -> tensor<1x17x128xi1> loc(#loc122)
        %245 = "ttir.reshape"(%244) <{shape = [1 : i32, 1 : i32, 17 : i32, 128 : i32]}> : (tensor<1x17x128xi1>) -> tensor<1x1x17x128xi1> loc(#loc123)
        %246 = "ttir.broadcast"(%245) <{broadcast_dimensions = array<i64: 32, 1, 1, 1>}> : (tensor<1x1x17x128xi1>) -> tensor<32x1x17x128xi1> loc(#loc123)
        %247 = "ttir.where"(%246, %8, %7) : (tensor<32x1x17x128xi1>, tensor<32x1x17x128xbf16>, tensor<32x1x17x128xbf16>) -> tensor<32x1x17x128xbf16> loc(#loc124)
        %248 = "ttir.typecast"(%247) <{conservative_folding = false}> : (tensor<32x1x17x128xbf16>) -> tensor<32x1x17x128xf32> loc(#loc125)
        %249 = "ttir.reshape"(%248) <{shape = [32 : i32, 17 : i32, 128 : i32]}> : (tensor<32x1x17x128xf32>) -> tensor<32x17x128xf32> loc(#loc126)
        %250 = "ttir.reshape"(%249) <{shape = [32 : i32, 1 : i32, 17 : i32, 128 : i32]}> : (tensor<32x17x128xf32>) -> tensor<32x1x17x128xf32> loc(#loc127)
        %251 = "ttir.broadcast"(%250) <{broadcast_dimensions = array<i64: 1, 32, 1, 1>}> : (tensor<32x1x17x128xf32>) -> tensor<32x32x17x128xf32> loc(#loc127)
        %252 = "ttir.add"(%238, %251) : (tensor<32x32x17x128xf32>, tensor<32x32x17x128xf32>) -> tensor<32x32x17x128xf32> loc(#loc128)
        %253 = "ttir.typecast"(%252) <{conservative_folding = false}> : (tensor<32x32x17x128xf32>) -> tensor<32x32x17x128xf64> loc(#loc129)
        %254 = "ttir.eq"(%253, %6) : (tensor<32x32x17x128xf64>, tensor<32x32x17x128xf64>) -> tensor<32x32x17x128xi1> loc(#loc130)
        %255 = "ttir.logical_not"(%254) : (tensor<32x32x17x128xi1>) -> tensor<32x32x17x128xi1> loc(#loc131)
        %256 = "ttir.reduce_or"(%255) <{dim_arg = [3 : i32], keep_dim = false}> : (tensor<32x32x17x128xi1>) -> tensor<32x32x17xi1> loc(#loc132)
        %257 = "ttir.reshape"(%256) <{shape = [32 : i32, 32 : i32, 17 : i32, 1 : i32]}> : (tensor<32x32x17xi1>) -> tensor<32x32x17x1xi1> loc(#loc133)
        %258 = "ttir.logical_not"(%257) : (tensor<32x32x17x1xi1>) -> tensor<32x32x17x1xi1> loc(#loc134)
        %259 = "ttir.reshape"(%258) <{shape = [32 : i32, 32 : i32, 17 : i32]}> : (tensor<32x32x17x1xi1>) -> tensor<32x32x17xi1> loc(#loc135)
        %260 = "ttir.reshape"(%259) <{shape = [32 : i32, 32 : i32, 17 : i32, 1 : i32]}> : (tensor<32x32x17xi1>) -> tensor<32x32x17x1xi1> loc(#loc136)
        %261 = "ttir.broadcast"(%260) <{broadcast_dimensions = array<i64: 1, 1, 1, 128>}> : (tensor<32x32x17x1xi1>) -> tensor<32x32x17x128xi1> loc(#loc136)
        %262 = "ttir.max"(%252) <{dim_arg = [3 : i32], keep_dim = false}> : (tensor<32x32x17x128xf32>) -> tensor<32x32x17xf32> loc(#loc137)
        %263 = "ttir.reshape"(%262) <{shape = [32 : i32, 32 : i32, 17 : i32, 1 : i32]}> : (tensor<32x32x17xf32>) -> tensor<32x32x17x1xf32> loc(#loc138)
        %264 = "ttir.broadcast"(%263) <{broadcast_dimensions = array<i64: 1, 1, 1, 128>}> : (tensor<32x32x17x1xf32>) -> tensor<32x32x17x128xf32> loc(#loc138)
        %265 = "ttir.subtract"(%252, %264) : (tensor<32x32x17x128xf32>, tensor<32x32x17x128xf32>) -> tensor<32x32x17x128xf32> loc(#loc139)
        %266 = "ttir.exp"(%265) : (tensor<32x32x17x128xf32>) -> tensor<32x32x17x128xf32> loc(#loc140)
        %267 = "ttir.sum"(%266) <{dim_arg = [3 : i32], keep_dim = false}> : (tensor<32x32x17x128xf32>) -> tensor<32x32x17xf32> loc(#loc141)
        %268 = "ttir.reshape"(%267) <{shape = [32 : i32, 32 : i32, 17 : i32, 1 : i32]}> : (tensor<32x32x17xf32>) -> tensor<32x32x17x1xf32> loc(#loc142)
        %269 = "ttir.broadcast"(%268) <{broadcast_dimensions = array<i64: 1, 1, 1, 128>}> : (tensor<32x32x17x1xf32>) -> tensor<32x32x17x128xf32> loc(#loc142)
        %270 = "ttir.div"(%266, %269) : (tensor<32x32x17x128xf32>, tensor<32x32x17x128xf32>) -> tensor<32x32x17x128xf32> loc(#loc143)
        %271 = "ttir.where"(%261, %5, %270) : (tensor<32x32x17x128xi1>, tensor<32x32x17x128xf32>, tensor<32x32x17x128xf32>) -> tensor<32x32x17x128xf32> loc(#loc144)
        %272 = "ttir.typecast"(%210) <{conservative_folding = false}> : (tensor<32x32x128x80xbf16>) -> tensor<32x32x128x80xf32> loc(#loc145)
        %273 = "ttir.dot_general"(%271, %272) <{batch_dims_lhs = array<i64: 0, 1>, batch_dims_rhs = array<i64: 0, 1>, contract_dims_lhs = array<i64: 3>, contract_dims_rhs = array<i64: 2>}> : (tensor<32x32x17x128xf32>, tensor<32x32x128x80xf32>) -> tensor<32x32x17x80xf32> loc(#loc146)
        %274 = "ttir.typecast"(%273) <{conservative_folding = false}> : (tensor<32x32x17x80xf32>) -> tensor<32x32x17x80xbf16> loc(#loc147)
        %275 = "ttir.permute"(%274) <{permutation = array<i64: 0, 2, 1, 3>}> : (tensor<32x32x17x80xbf16>) -> tensor<32x17x32x80xbf16> loc(#loc148)
        %276 = "ttir.reshape"(%275) <{shape = [544 : i32, 2560 : i32]}> : (tensor<32x17x32x80xbf16>) -> tensor<544x2560xbf16> loc(#loc149)
        %277 = "ttir.reshape"(%arg21) <{shape = [1 : i32, 2560 : i32, 2560 : i32]}> : (tensor<2560x2560xbf16>) -> tensor<1x2560x2560xbf16> loc(#loc150)
        %278 = "ttir.reshape"(%277) <{shape = [2560 : i32, 2560 : i32]}> : (tensor<1x2560x2560xbf16>) -> tensor<2560x2560xbf16> loc(#loc151)
        %279 = "ttir.permute"(%278) <{permutation = array<i64: 1, 0>}> : (tensor<2560x2560xbf16>) -> tensor<2560x2560xbf16> loc(#loc152)
        %280 = "ttir.dot_general"(%276, %279) <{batch_dims_lhs = array<i64>, batch_dims_rhs = array<i64>, contract_dims_lhs = array<i64: 1>, contract_dims_rhs = array<i64: 0>}> : (tensor<544x2560xbf16>, tensor<2560x2560xbf16>) -> tensor<544x2560xbf16> loc(#loc153)
        %281 = "ttir.reshape"(%280) <{shape = [32 : i32, 17 : i32, 2560 : i32]}> : (tensor<544x2560xbf16>) -> tensor<32x17x2560xbf16> loc(#loc154)
        %282 = "ttir.reshape"(%arg20) <{shape = [1 : i32, 1 : i32, 2560 : i32]}> : (tensor<2560xbf16>) -> tensor<1x1x2560xbf16> loc(#loc155)
        %283 = "ttir.reshape"(%282) <{shape = [2560 : i32]}> : (tensor<1x1x2560xbf16>) -> tensor<2560xbf16> loc(#loc156)
        %284 = "ttir.reshape"(%283) <{shape = [1 : i32, 1 : i32, 2560 : i32]}> : (tensor<2560xbf16>) -> tensor<1x1x2560xbf16> loc(#loc157)
        %285 = "ttir.broadcast"(%284) <{broadcast_dimensions = array<i64: 32, 17, 1>}> : (tensor<1x1x2560xbf16>) -> tensor<32x17x2560xbf16> loc(#loc157)
        %286 = "ttir.add"(%281, %285) : (tensor<32x17x2560xbf16>, tensor<32x17x2560xbf16>) -> tensor<32x17x2560xbf16> loc(#loc158)
        %287 = "ttir.reshape"(%arg19) <{shape = [1 : i32, 10240 : i32, 2560 : i32]}> : (tensor<10240x2560xbf16>) -> tensor<1x10240x2560xbf16> loc(#loc159)
        %288 = "ttir.reshape"(%287) <{shape = [10240 : i32, 2560 : i32]}> : (tensor<1x10240x2560xbf16>) -> tensor<10240x2560xbf16> loc(#loc160)
        %289 = "ttir.permute"(%288) <{permutation = array<i64: 1, 0>}> : (tensor<10240x2560xbf16>) -> tensor<2560x10240xbf16> loc(#loc161)
        %290 = "ttir.dot_general"(%31, %289) <{batch_dims_lhs = array<i64>, batch_dims_rhs = array<i64>, contract_dims_lhs = array<i64: 1>, contract_dims_rhs = array<i64: 0>}> : (tensor<544x2560xbf16>, tensor<2560x10240xbf16>) -> tensor<544x10240xbf16> loc(#loc162)
        %291 = "ttir.reshape"(%290) <{shape = [32 : i32, 17 : i32, 10240 : i32]}> : (tensor<544x10240xbf16>) -> tensor<32x17x10240xbf16> loc(#loc163)
        %292 = "ttir.reshape"(%arg18) <{shape = [1 : i32, 1 : i32, 10240 : i32]}> : (tensor<10240xbf16>) -> tensor<1x1x10240xbf16> loc(#loc164)
        %293 = "ttir.reshape"(%292) <{shape = [10240 : i32]}> : (tensor<1x1x10240xbf16>) -> tensor<10240xbf16> loc(#loc165)
        %294 = "ttir.reshape"(%293) <{shape = [1 : i32, 1 : i32, 10240 : i32]}> : (tensor<10240xbf16>) -> tensor<1x1x10240xbf16> loc(#loc166)
        %295 = "ttir.broadcast"(%294) <{broadcast_dimensions = array<i64: 32, 17, 1>}> : (tensor<1x1x10240xbf16>) -> tensor<32x17x10240xbf16> loc(#loc166)
        %296 = "ttir.add"(%291, %295) : (tensor<32x17x10240xbf16>, tensor<32x17x10240xbf16>) -> tensor<32x17x10240xbf16> loc(#loc167)
        %297 = "ttir.multiply"(%296, %4) : (tensor<32x17x10240xbf16>, tensor<32x17x10240xbf16>) -> tensor<32x17x10240xbf16> loc(#loc168)
        %298 = "ttir.pow"(%296, %3) : (tensor<32x17x10240xbf16>, tensor<32x17x10240xbf16>) -> tensor<32x17x10240xbf16> loc(#loc169)
        %299 = "ttir.multiply"(%298, %2) : (tensor<32x17x10240xbf16>, tensor<32x17x10240xbf16>) -> tensor<32x17x10240xbf16> loc(#loc170)
        %300 = "ttir.add"(%296, %299) : (tensor<32x17x10240xbf16>, tensor<32x17x10240xbf16>) -> tensor<32x17x10240xbf16> loc(#loc171)
        %301 = "ttir.multiply"(%300, %1) : (tensor<32x17x10240xbf16>, tensor<32x17x10240xbf16>) -> tensor<32x17x10240xbf16> loc(#loc172)
        %302 = "ttir.tanh"(%301) : (tensor<32x17x10240xbf16>) -> tensor<32x17x10240xbf16> loc(#loc173)
        %303 = "ttir.add"(%302, %0) : (tensor<32x17x10240xbf16>, tensor<32x17x10240xbf16>) -> tensor<32x17x10240xbf16> loc(#loc174)
        %304 = "ttir.multiply"(%297, %303) : (tensor<32x17x10240xbf16>, tensor<32x17x10240xbf16>) -> tensor<32x17x10240xbf16> loc(#loc175)
        %305 = "ttir.reshape"(%304) <{shape = [544 : i32, 10240 : i32]}> : (tensor<32x17x10240xbf16>) -> tensor<544x10240xbf16> loc(#loc176)
        %306 = "ttir.reshape"(%arg17) <{shape = [1 : i32, 2560 : i32, 10240 : i32]}> : (tensor<2560x10240xbf16>) -> tensor<1x2560x10240xbf16> loc(#loc177)
        %307 = "ttir.reshape"(%306) <{shape = [2560 : i32, 10240 : i32]}> : (tensor<1x2560x10240xbf16>) -> tensor<2560x10240xbf16> loc(#loc178)
        %308 = "ttir.permute"(%307) <{permutation = array<i64: 1, 0>}> : (tensor<2560x10240xbf16>) -> tensor<10240x2560xbf16> loc(#loc179)
        %309 = "ttir.dot_general"(%305, %308) <{batch_dims_lhs = array<i64>, batch_dims_rhs = array<i64>, contract_dims_lhs = array<i64: 1>, contract_dims_rhs = array<i64: 0>}> : (tensor<544x10240xbf16>, tensor<10240x2560xbf16>) -> tensor<544x2560xbf16> loc(#loc180)
        %310 = "ttir.reshape"(%309) <{shape = [32 : i32, 17 : i32, 2560 : i32]}> : (tensor<544x2560xbf16>) -> tensor<32x17x2560xbf16> loc(#loc181)
        %311 = "ttir.reshape"(%arg16) <{shape = [1 : i32, 1 : i32, 2560 : i32]}> : (tensor<2560xbf16>) -> tensor<1x1x2560xbf16> loc(#loc182)
        %312 = "ttir.reshape"(%311) <{shape = [2560 : i32]}> : (tensor<1x1x2560xbf16>) -> tensor<2560xbf16> loc(#loc183)
        %313 = "ttir.reshape"(%312) <{shape = [1 : i32, 1 : i32, 2560 : i32]}> : (tensor<2560xbf16>) -> tensor<1x1x2560xbf16> loc(#loc184)
        %314 = "ttir.broadcast"(%313) <{broadcast_dimensions = array<i64: 32, 17, 1>}> : (tensor<1x1x2560xbf16>) -> tensor<32x17x2560xbf16> loc(#loc184)
        %315 = "ttir.add"(%310, %314) : (tensor<32x17x2560xbf16>, tensor<32x17x2560xbf16>) -> tensor<32x17x2560xbf16> loc(#loc185)
        %316 = "ttir.add"(%286, %315) : (tensor<32x17x2560xbf16>, tensor<32x17x2560xbf16>) -> tensor<32x17x2560xbf16> loc(#loc186)
        %317 = "ttir.add"(%316, %25) : (tensor<32x17x2560xbf16>, tensor<32x17x2560xbf16>) -> tensor<32x17x2560xbf16> loc(#loc187)
        %318 = "ttir.reshape"(%arg15) <{shape = [1 : i32, 1 : i32, 2560 : i32]}> : (tensor<2560xbf16>) -> tensor<1x1x2560xbf16> loc(#loc188)
        %319 = "ttir.reshape"(%318) <{shape = [2560 : i32]}> : (tensor<1x1x2560xbf16>) -> tensor<2560xbf16> loc(#loc189)
        %320 = "ttir.reshape"(%arg14) <{shape = [1 : i32, 1 : i32, 2560 : i32]}> : (tensor<2560xbf16>) -> tensor<1x1x2560xbf16> loc(#loc190)
        %321 = "ttir.reshape"(%320) <{shape = [2560 : i32]}> : (tensor<1x1x2560xbf16>) -> tensor<2560xbf16> loc(#loc191)
        %322 = "ttir.layer_norm"(%317, %319, %321) <{epsilon = 9.99999974E-6 : f32, normalized_shape = array<i64: 2560>, operandSegmentSizes = array<i32: 1, 1, 1>}> : (tensor<32x17x2560xbf16>, tensor<2560xbf16>, tensor<2560xbf16>) -> tensor<32x17x2560xbf16> loc(#loc192)
        %323 = "ttir.reshape"(%322) <{shape = [544 : i32, 2560 : i32]}> : (tensor<32x17x2560xbf16>) -> tensor<544x2560xbf16> loc(#loc193)
        %324 = "ttir.reshape"(%arg13) <{shape = [1 : i32, 51200 : i32, 2560 : i32]}> : (tensor<51200x2560xbf16>) -> tensor<1x51200x2560xbf16> loc(#loc194)
        %325 = "ttir.reshape"(%324) <{shape = [51200 : i32, 2560 : i32]}> : (tensor<1x51200x2560xbf16>) -> tensor<51200x2560xbf16> loc(#loc195)
        %326 = "ttir.permute"(%325) <{permutation = array<i64: 1, 0>}> : (tensor<51200x2560xbf16>) -> tensor<2560x51200xbf16> loc(#loc196)
        %327 = "ttir.dot_general"(%323, %326) <{batch_dims_lhs = array<i64>, batch_dims_rhs = array<i64>, contract_dims_lhs = array<i64: 1>, contract_dims_rhs = array<i64: 0>}> : (tensor<544x2560xbf16>, tensor<2560x51200xbf16>) -> tensor<544x51200xbf16> loc(#loc197)
        %328 = "ttir.reshape"(%327) <{shape = [32 : i32, 17 : i32, 51200 : i32]}> : (tensor<544x51200xbf16>) -> tensor<32x17x51200xbf16> loc(#loc198)
        %329 = "ttir.reshape"(%arg12) <{shape = [1 : i32, 1 : i32, 51200 : i32]}> : (tensor<51200xbf16>) -> tensor<1x1x51200xbf16> loc(#loc199)
        %330 = "ttir.reshape"(%329) <{shape = [51200 : i32]}> : (tensor<1x1x51200xbf16>) -> tensor<51200xbf16> loc(#loc200)
        %331 = "ttir.reshape"(%330) <{shape = [1 : i32, 1 : i32, 51200 : i32]}> : (tensor<51200xbf16>) -> tensor<1x1x51200xbf16> loc(#loc201)
        %332 = "ttir.broadcast"(%331) <{broadcast_dimensions = array<i64: 32, 17, 1>}> : (tensor<1x1x51200xbf16>) -> tensor<32x17x51200xbf16> loc(#loc201)
        %333 = "ttir.add"(%328, %332) : (tensor<32x17x51200xbf16>, tensor<32x17x51200xbf16>) -> tensor<32x17x51200xbf16> loc(#loc202)
        return %134, %210, %333 : tensor<32x32x128x80xbf16>, tensor<32x32x128x80xbf16>, tensor<32x17x51200xbf16> loc(#loc)
      } loc(#loc)
    } loc(#loc)
  } loc(#loc)
} loc(#loc)
#loc = loc(unknown)
#loc25 = loc("reshape.130")
#loc26 = loc("reshape.132")
#loc27 = loc("compare.183")
#loc28 = loc("add.180")
#loc29 = loc("select.184")
#loc30 = loc("reshape.31")
#loc31 = loc("reshape.33")
#loc32 = loc("reshape.26")
#loc33 = loc("reshape.29")
#loc34 = loc("convert.34")
#loc35 = loc("gather.35")
#loc36 = loc("reshape.36")
#loc37 = loc("reshape.18")
#loc38 = loc("reshape.20")
#loc39 = loc("reshape.13")
#loc40 = loc("reshape.15")
#loc41 = loc("custom-call.116")
#loc42 = loc("reshape.117")
#loc43 = loc("reshape.7")
#loc44 = loc("reshape.9")
#loc45 = loc("transpose.10")
#loc46 = loc("dot.118")
#loc47 = loc("reshape.119")
#loc48 = loc("reshape.3")
#loc49 = loc("reshape.5")
#loc50 = loc("broadcast.122")
#loc51 = loc("add.123")
#loc52 = loc("reshape.124")
#loc53 = loc("transpose.125")
#loc54 = loc("slice.154")
#loc55 = loc("reshape.138")
#loc56 = loc("reshape.142")
#loc57 = loc("convert.143")
#loc58 = loc("convert.135")
#loc59 = loc("dot.146")
#loc60 = loc("transpose.147")
#loc61 = loc("concatenate.148")
#loc62 = loc("cosine.163")
#loc63 = loc("convert.166")
#loc64 = loc("reshape.168")
#loc65 = loc("broadcast.169")
#loc66 = loc("multiply.170")
#loc67 = loc("slice.156")
#loc68 = loc("negate.157")
#loc69 = loc("slice.155")
#loc70 = loc("concatenate.158")
#loc71 = loc("sine.149")
#loc72 = loc("convert.152")
#loc73 = loc("reshape.159")
#loc74 = loc("broadcast.160")
#loc75 = loc("multiply.161")
#loc76 = loc("add.173")
#loc77 = loc("slice.126")
#loc78 = loc("concatenate.174")
#loc79 = loc("scatter.193")
#loc80 = loc("reshape.201")
#loc81 = loc("reshape.203")
#loc82 = loc("transpose.204")
#loc83 = loc("dot.206")
#loc84 = loc("reshape.207")
#loc85 = loc("reshape.197")
#loc86 = loc("reshape.199")
#loc87 = loc("broadcast.210")
#loc88 = loc("add.211")
#loc89 = loc("reshape.212")
#loc90 = loc("transpose.213")
#loc91 = loc("scatter.232")
#loc92 = loc("reshape.372")
#loc93 = loc("reshape.374")
#loc94 = loc("transpose.375")
#loc95 = loc("dot.377")
#loc96 = loc("reshape.378")
#loc97 = loc("reshape.368")
#loc98 = loc("reshape.370")
#loc99 = loc("broadcast.381")
#loc100 = loc("add.382")
#loc101 = loc("reshape.383")
#loc102 = loc("transpose.384")
#loc103 = loc("slice.387")
#loc104 = loc("multiply.397")
#loc105 = loc("slice.389")
#loc106 = loc("negate.390")
#loc107 = loc("slice.388")
#loc108 = loc("concatenate.391")
#loc109 = loc("multiply.394")
#loc110 = loc("add.400")
#loc111 = loc("slice.385")
#loc112 = loc("concatenate.401")
#loc113 = loc("convert.402")
#loc114 = loc("multiply.404")
#loc115 = loc("convert.361")
#loc116 = loc("transpose.362")
#loc117 = loc("multiply.364")
#loc118 = loc("dot.405")
#loc119 = loc("broadcast.348")
#loc120 = loc("broadcast.350")
#loc121 = loc("compare.351")
#loc122 = loc("reshape.352")
#loc123 = loc("broadcast.357")
#loc124 = loc("select.359")
#loc125 = loc("convert.407")
#loc126 = loc("reshape.410")
#loc127 = loc("broadcast.411")
#loc128 = loc("add.412")
#loc129 = loc("convert.438")
#loc130 = loc("compare.440")
#loc131 = loc("not.442")
#loc132 = loc("reduce.454")
#loc133 = loc("reshape.458")
#loc134 = loc("not.460")
#loc135 = loc("reshape.462")
#loc136 = loc("broadcast.463")
#loc137 = loc("reduce.418")
#loc138 = loc("broadcast.419")
#loc139 = loc("subtract.420")
#loc140 = loc("exponential.421")
#loc141 = loc("reduce.427")
#loc142 = loc("broadcast.428")
#loc143 = loc("divide.429")
#loc144 = loc("select.464")
#loc145 = loc("convert.327")
#loc146 = loc("dot.465")
#loc147 = loc("convert.467")
#loc148 = loc("transpose.468")
#loc149 = loc("reshape.470")
#loc150 = loc("reshape.323")
#loc151 = loc("reshape.325")
#loc152 = loc("transpose.326")
#loc153 = loc("dot.471")
#loc154 = loc("reshape.472")
#loc155 = loc("reshape.319")
#loc156 = loc("reshape.321")
#loc157 = loc("broadcast.475")
#loc158 = loc("add.476")
#loc159 = loc("reshape.282")
#loc160 = loc("reshape.284")
#loc161 = loc("transpose.285")
#loc162 = loc("dot.287")
#loc163 = loc("reshape.288")
#loc164 = loc("reshape.278")
#loc165 = loc("reshape.280")
#loc166 = loc("broadcast.291")
#loc167 = loc("add.292")
#loc168 = loc("multiply.308")
#loc169 = loc("power.294")
#loc170 = loc("multiply.296")
#loc171 = loc("add.299")
#loc172 = loc("multiply.301")
#loc173 = loc("tanh.302")
#loc174 = loc("add.305")
#loc175 = loc("multiply.309")
#loc176 = loc("reshape.310")
#loc177 = loc("reshape.266")
#loc178 = loc("reshape.268")
#loc179 = loc("transpose.269")
#loc180 = loc("dot.311")
#loc181 = loc("reshape.312")
#loc182 = loc("reshape.262")
#loc183 = loc("reshape.264")
#loc184 = loc("broadcast.315")
#loc185 = loc("add.316")
#loc186 = loc("add.479")
#loc187 = loc("add.482")
#loc188 = loc("reshape.251")
#loc189 = loc("reshape.253")
#loc190 = loc("reshape.246")
#loc191 = loc("reshape.248")
#loc192 = loc("custom-call.562")
#loc193 = loc("reshape.563")
#loc194 = loc("reshape.240")
#loc195 = loc("reshape.242")
#loc196 = loc("transpose.243")
#loc197 = loc("dot.564")
#loc198 = loc("reshape.565")
#loc199 = loc("reshape.236")
#loc200 = loc("reshape.238")
#loc201 = loc("broadcast.568")
#loc202 = loc("add.569")
