#loc1 = loc("p0.2")
#loc2 = loc("p1.7")
#loc3 = loc("p2.16")
#loc4 = loc("p3.21")
#loc5 = loc("p4.29")
#loc6 = loc("p5.60")
#loc7 = loc("p6.88")
#loc8 = loc("p7.110")
#loc9 = loc("p8.148")
#loc10 = loc("p9.188")
#loc11 = loc("p10.226")
#loc12 = loc("p11.338")
#loc13 = loc("p12.347")
module @SyncTensorsGraph.367 attributes {mhlo.cross_program_prefetches = [], mhlo.input_output_alias = [], mhlo.is_dynamic = false, mhlo.use_auto_spmd_partitioning = false, ttcore.meshes = #ttcore.meshes<[<"mesh" = 1x1>]>} {
  ttcore.device_module {
    builtin.module @SyncTensorsGraph.367 attributes {mhlo.cross_program_prefetches = [], mhlo.input_output_alias = [], mhlo.is_dynamic = false, mhlo.use_auto_spmd_partitioning = false, ttcore.meshes = #ttcore.meshes<[<"mesh" = 1x1>]>} {
      func.func @main(%arg0: tensor<2048x6144xbf16> {ttcore.argument_type = #ttcore.argument_type<parameter>, ttcore.shard_status = #ttcore.shard_status<unsharded>, ttir.name = "l__self___block_mlp_down_proj_weight"} loc("p0.2"), %arg1: tensor<6144x2048xbf16> {ttcore.argument_type = #ttcore.argument_type<parameter>, ttcore.shard_status = #ttcore.shard_status<unsharded>, ttir.name = "l__self___block_mlp_up_proj_weight"} loc("p1.7"), %arg2: tensor<2048x2048xbf16> {ttcore.argument_type = #ttcore.argument_type<parameter>, ttcore.shard_status = #ttcore.shard_status<unsharded>, ttir.name = "l__self___block_self_attn_o_proj_weight"} loc("p2.16"), %arg3: tensor<1024x2048xbf16> {ttcore.argument_type = #ttcore.argument_type<parameter>, ttcore.shard_status = #ttcore.shard_status<unsharded>, ttir.name = "l__self___block_self_attn_v_proj_weight"} loc("p3.21"), %arg4: tensor<32x1x2048xbf16> {ttcore.argument_type = #ttcore.argument_type<input>, ttcore.shard_status = #ttcore.shard_status<unsharded>, ttir.name = "args_0"} loc("p4.29"), %arg5: tensor<2048xbf16> {ttcore.argument_type = #ttcore.argument_type<parameter>, ttcore.shard_status = #ttcore.shard_status<unsharded>, ttir.name = "l__self___block_input_layernorm_weight"} loc("p5.60"), %arg6: tensor<64xbf16> {ttcore.argument_type = #ttcore.argument_type<constant>, ttcore.shard_status = #ttcore.shard_status<unsharded>, ttir.name = "l__self___rotary_emb_inv_freq"} loc("p6.88"), %arg7: tensor<1024x2048xbf16> {ttcore.argument_type = #ttcore.argument_type<parameter>, ttcore.shard_status = #ttcore.shard_status<unsharded>, ttir.name = "l__self___block_self_attn_k_proj_weight"} loc("p7.110"), %arg8: tensor<128xbf16> {ttcore.argument_type = #ttcore.argument_type<parameter>, ttcore.shard_status = #ttcore.shard_status<unsharded>, ttir.name = "l__self___block_self_attn_k_norm_weight"} loc("p8.148"), %arg9: tensor<2048x2048xbf16> {ttcore.argument_type = #ttcore.argument_type<parameter>, ttcore.shard_status = #ttcore.shard_status<unsharded>, ttir.name = "l__self___block_self_attn_q_proj_weight"} loc("p9.188"), %arg10: tensor<128xbf16> {ttcore.argument_type = #ttcore.argument_type<parameter>, ttcore.shard_status = #ttcore.shard_status<unsharded>, ttir.name = "l__self___block_self_attn_q_norm_weight"} loc("p10.226"), %arg11: tensor<2048xbf16> {ttcore.argument_type = #ttcore.argument_type<parameter>, ttcore.shard_status = #ttcore.shard_status<unsharded>, ttir.name = "l__self___block_post_attention_layernorm_weight"} loc("p11.338"), %arg12: tensor<6144x2048xbf16> {ttcore.argument_type = #ttcore.argument_type<parameter>, ttcore.shard_status = #ttcore.shard_status<unsharded>, ttir.name = "l__self___block_mlp_gate_proj_weight"} loc("p12.347")) -> (tensor<32x1x2048xbf16> {ttcore.shard_status = #ttcore.shard_status<unsharded>}) {
        %0 = "ttir.constant"() <{value = dense<0.000000e+00> : tensor<32x16x1x1xf32>}> : () -> tensor<32x16x1x1xf32> loc(#loc)
        %1 = "ttir.constant"() <{value = dense<0xFFF0000000000000> : tensor<32x16x1x1xf64>}> : () -> tensor<32x16x1x1xf64> loc(#loc)
        %2 = "ttir.constant"() <{value = dense<0.297301769> : tensor<32x16x128x1xf32>}> : () -> tensor<32x16x128x1xf32> loc(#loc)
        %3 = "ttir.constant"() <{value = dense<9.99999997E-7> : tensor<32x1x8x1xf32>}> : () -> tensor<32x1x8x1xf32> loc(#loc)
        %4 = "ttir.constant"() <{value = dense<7.812500e-03> : tensor<32x1x8xf32>}> : () -> tensor<32x1x8xf32> loc(#loc)
        %5 = "ttir.constant"() <{value = dense<2.000000e+00> : tensor<32x1x8x128xf32>}> : () -> tensor<32x1x8x128xf32> loc(#loc)
        %6 = "ttir.constant"() <{value = dense<0.297301769> : tensor<32x16x1x128xf32>}> : () -> tensor<32x16x1x128xf32> loc(#loc)
        %7 = "ttir.constant"() <{value = dense<0.000000e+00> : tensor<32x1x1xf32>}> : () -> tensor<32x1x1xf32> loc(#loc)
        %8 = "ttir.constant"() <{value = dense<9.99999997E-7> : tensor<32x1x16x1xf32>}> : () -> tensor<32x1x16x1xf32> loc(#loc)
        %9 = "ttir.constant"() <{value = dense<7.812500e-03> : tensor<32x1x16xf32>}> : () -> tensor<32x1x16xf32> loc(#loc)
        %10 = "ttir.constant"() <{value = dense<2.000000e+00> : tensor<32x1x16x128xf32>}> : () -> tensor<32x1x16x128xf32> loc(#loc)
        %11 = "ttir.constant"() <{value = dense<9.99999997E-7> : tensor<32x1x1xf32>}> : () -> tensor<32x1x1xf32> loc(#loc)
        %12 = "ttir.constant"() <{value = dense<4.8828125E-4> : tensor<32x1xf32>}> : () -> tensor<32x1xf32> loc(#loc)
        %13 = "ttir.constant"() <{value = dense<2.000000e+00> : tensor<32x1x2048xf32>}> : () -> tensor<32x1x2048xf32> loc(#loc)
        %14 = "ttir.reshape"(%arg10) <{shape = [1 : i32, 1 : i32, 128 : i32]}> : (tensor<128xbf16>) -> tensor<1x1x128xbf16> loc(#loc14)
        %15 = "ttir.reshape"(%14) <{shape = [128 : i32]}> : (tensor<1x1x128xbf16>) -> tensor<128xbf16> loc(#loc15)
        %16 = "ttir.reshape"(%15) <{shape = [1 : i32, 1 : i32, 1 : i32, 128 : i32]}> : (tensor<128xbf16>) -> tensor<1x1x1x128xbf16> loc(#loc16)
        %17 = "ttir.broadcast"(%16) <{broadcast_dimensions = array<i64: 32, 1, 16, 1>}> : (tensor<1x1x1x128xbf16>) -> tensor<32x1x16x128xbf16> loc(#loc16)
        %18 = "ttir.reshape"(%arg5) <{shape = [1 : i32, 1 : i32, 2048 : i32]}> : (tensor<2048xbf16>) -> tensor<1x1x2048xbf16> loc(#loc17)
        %19 = "ttir.reshape"(%18) <{shape = [2048 : i32]}> : (tensor<1x1x2048xbf16>) -> tensor<2048xbf16> loc(#loc18)
        %20 = "ttir.reshape"(%19) <{shape = [1 : i32, 1 : i32, 2048 : i32]}> : (tensor<2048xbf16>) -> tensor<1x1x2048xbf16> loc(#loc19)
        %21 = "ttir.broadcast"(%20) <{broadcast_dimensions = array<i64: 32, 1, 1>}> : (tensor<1x1x2048xbf16>) -> tensor<32x1x2048xbf16> loc(#loc19)
        %22 = "ttir.typecast"(%arg4) <{conservative_folding = false}> : (tensor<32x1x2048xbf16>) -> tensor<32x1x2048xf32> loc(#loc20)
        %23 = "ttir.pow"(%22, %13) : (tensor<32x1x2048xf32>, tensor<32x1x2048xf32>) -> tensor<32x1x2048xf32> loc(#loc21)
        %24 = "ttir.sum"(%23) <{dim_arg = [2 : i32], keep_dim = false}> : (tensor<32x1x2048xf32>) -> tensor<32x1xf32> loc(#loc22)
        %25 = "ttir.multiply"(%24, %12) : (tensor<32x1xf32>, tensor<32x1xf32>) -> tensor<32x1xf32> loc(#loc23)
        %26 = "ttir.reshape"(%25) <{shape = [32 : i32, 1 : i32, 1 : i32]}> : (tensor<32x1xf32>) -> tensor<32x1x1xf32> loc(#loc24)
        %27 = "ttir.add"(%26, %11) : (tensor<32x1x1xf32>, tensor<32x1x1xf32>) -> tensor<32x1x1xf32> loc(#loc25)
        %28 = "ttir.rsqrt"(%27) : (tensor<32x1x1xf32>) -> tensor<32x1x1xf32> loc(#loc26)
        %29 = "ttir.reshape"(%28) <{shape = [32 : i32, 1 : i32]}> : (tensor<32x1x1xf32>) -> tensor<32x1xf32> loc(#loc27)
        %30 = "ttir.reshape"(%29) <{shape = [32 : i32, 1 : i32, 1 : i32]}> : (tensor<32x1xf32>) -> tensor<32x1x1xf32> loc(#loc28)
        %31 = "ttir.broadcast"(%30) <{broadcast_dimensions = array<i64: 1, 1, 2048>}> : (tensor<32x1x1xf32>) -> tensor<32x1x2048xf32> loc(#loc28)
        %32 = "ttir.multiply"(%22, %31) : (tensor<32x1x2048xf32>, tensor<32x1x2048xf32>) -> tensor<32x1x2048xf32> loc(#loc29)
        %33 = "ttir.typecast"(%32) <{conservative_folding = false}> : (tensor<32x1x2048xf32>) -> tensor<32x1x2048xbf16> loc(#loc30)
        %34 = "ttir.multiply"(%21, %33) : (tensor<32x1x2048xbf16>, tensor<32x1x2048xbf16>) -> tensor<32x1x2048xbf16> loc(#loc31)
        %35 = "ttir.reshape"(%34) <{shape = [32 : i32, 2048 : i32]}> : (tensor<32x1x2048xbf16>) -> tensor<32x2048xbf16> loc(#loc32)
        %36 = "ttir.reshape"(%arg9) <{shape = [1 : i32, 2048 : i32, 2048 : i32]}> : (tensor<2048x2048xbf16>) -> tensor<1x2048x2048xbf16> loc(#loc33)
        %37 = "ttir.reshape"(%36) <{shape = [2048 : i32, 2048 : i32]}> : (tensor<1x2048x2048xbf16>) -> tensor<2048x2048xbf16> loc(#loc34)
        %38 = "ttir.permute"(%37) <{permutation = array<i64: 1, 0>}> : (tensor<2048x2048xbf16>) -> tensor<2048x2048xbf16> loc(#loc35)
        %39 = "ttir.dot_general"(%35, %38) <{batch_dims_lhs = array<i64>, batch_dims_rhs = array<i64>, contract_dims_lhs = array<i64: 1>, contract_dims_rhs = array<i64: 0>}> : (tensor<32x2048xbf16>, tensor<2048x2048xbf16>) -> tensor<32x2048xbf16> loc(#loc36)
        %40 = "ttir.reshape"(%39) <{shape = [32 : i32, 1 : i32, 16 : i32, 128 : i32]}> : (tensor<32x2048xbf16>) -> tensor<32x1x16x128xbf16> loc(#loc37)
        %41 = "ttir.typecast"(%40) <{conservative_folding = false}> : (tensor<32x1x16x128xbf16>) -> tensor<32x1x16x128xf32> loc(#loc38)
        %42 = "ttir.pow"(%41, %10) : (tensor<32x1x16x128xf32>, tensor<32x1x16x128xf32>) -> tensor<32x1x16x128xf32> loc(#loc39)
        %43 = "ttir.sum"(%42) <{dim_arg = [3 : i32], keep_dim = false}> : (tensor<32x1x16x128xf32>) -> tensor<32x1x16xf32> loc(#loc40)
        %44 = "ttir.multiply"(%43, %9) : (tensor<32x1x16xf32>, tensor<32x1x16xf32>) -> tensor<32x1x16xf32> loc(#loc41)
        %45 = "ttir.reshape"(%44) <{shape = [32 : i32, 1 : i32, 16 : i32, 1 : i32]}> : (tensor<32x1x16xf32>) -> tensor<32x1x16x1xf32> loc(#loc42)
        %46 = "ttir.add"(%45, %8) : (tensor<32x1x16x1xf32>, tensor<32x1x16x1xf32>) -> tensor<32x1x16x1xf32> loc(#loc43)
        %47 = "ttir.rsqrt"(%46) : (tensor<32x1x16x1xf32>) -> tensor<32x1x16x1xf32> loc(#loc44)
        %48 = "ttir.reshape"(%47) <{shape = [32 : i32, 1 : i32, 16 : i32]}> : (tensor<32x1x16x1xf32>) -> tensor<32x1x16xf32> loc(#loc45)
        %49 = "ttir.reshape"(%48) <{shape = [32 : i32, 1 : i32, 16 : i32, 1 : i32]}> : (tensor<32x1x16xf32>) -> tensor<32x1x16x1xf32> loc(#loc46)
        %50 = "ttir.broadcast"(%49) <{broadcast_dimensions = array<i64: 1, 1, 1, 128>}> : (tensor<32x1x16x1xf32>) -> tensor<32x1x16x128xf32> loc(#loc46)
        %51 = "ttir.multiply"(%41, %50) : (tensor<32x1x16x128xf32>, tensor<32x1x16x128xf32>) -> tensor<32x1x16x128xf32> loc(#loc47)
        %52 = "ttir.typecast"(%51) <{conservative_folding = false}> : (tensor<32x1x16x128xf32>) -> tensor<32x1x16x128xbf16> loc(#loc48)
        %53 = "ttir.multiply"(%17, %52) : (tensor<32x1x16x128xbf16>, tensor<32x1x16x128xbf16>) -> tensor<32x1x16x128xbf16> loc(#loc49)
        %54 = "ttir.reshape"(%53) <{shape = [32 : i32, 16 : i32, 1 : i32, 128 : i32]}> : (tensor<32x1x16x128xbf16>) -> tensor<32x16x1x128xbf16> loc(#loc50)
        %55 = "ttir.reshape"(%arg6) <{shape = [1 : i32, 1 : i32, 64 : i32]}> : (tensor<64xbf16>) -> tensor<1x1x64xbf16> loc(#loc51)
        %56 = "ttir.reshape"(%55) <{shape = [1 : i32, 64 : i32, 1 : i32]}> : (tensor<1x1x64xbf16>) -> tensor<1x64x1xbf16> loc(#loc52)
        %57 = "ttir.typecast"(%56) <{conservative_folding = false}> : (tensor<1x64x1xbf16>) -> tensor<1x64x1xf32> loc(#loc53)
        %58 = "ttir.reshape"(%57) <{shape = [64 : i32, 1 : i32]}> : (tensor<1x64x1xf32>) -> tensor<64x1xf32> loc(#loc54)
        %59 = "ttir.reshape"(%58) <{shape = [1 : i32, 64 : i32, 1 : i32]}> : (tensor<64x1xf32>) -> tensor<1x64x1xf32> loc(#loc55)
        %60 = "ttir.broadcast"(%59) <{broadcast_dimensions = array<i64: 32, 1, 1>}> : (tensor<1x64x1xf32>) -> tensor<32x64x1xf32> loc(#loc55)
        %61 = "ttir.dot_general"(%60, %7) <{batch_dims_lhs = array<i64: 0>, batch_dims_rhs = array<i64: 0>, contract_dims_lhs = array<i64: 2>, contract_dims_rhs = array<i64: 1>}> : (tensor<32x64x1xf32>, tensor<32x1x1xf32>) -> tensor<32x64x1xf32> loc(#loc56)
        %62 = "ttir.reshape"(%61) <{shape = [32 : i32, 1 : i32, 64 : i32]}> : (tensor<32x64x1xf32>) -> tensor<32x1x64xf32> loc(#loc57)
        %63 = "ttir.concat"(%62, %62) <{dim = 2 : si32}> : (tensor<32x1x64xf32>, tensor<32x1x64xf32>) -> tensor<32x1x128xf32> loc(#loc58)
        %64 = "ttir.cos"(%63) : (tensor<32x1x128xf32>) -> tensor<32x1x128xf32> loc(#loc59)
        %65 = "ttir.typecast"(%64) <{conservative_folding = false}> : (tensor<32x1x128xf32>) -> tensor<32x1x128xbf16> loc(#loc60)
        %66 = "ttir.reshape"(%65) <{shape = [32 : i32, 1 : i32, 1 : i32, 128 : i32]}> : (tensor<32x1x128xbf16>) -> tensor<32x1x1x128xbf16> loc(#loc61)
        %67 = "ttir.broadcast"(%66) <{broadcast_dimensions = array<i64: 1, 16, 1, 1>}> : (tensor<32x1x1x128xbf16>) -> tensor<32x16x1x128xbf16> loc(#loc61)
        %68 = "ttir.multiply"(%54, %67) : (tensor<32x16x1x128xbf16>, tensor<32x16x1x128xbf16>) -> tensor<32x16x1x128xbf16> loc(#loc62)
        %69 = "ttir.slice_static"(%54) <{begins = [0 : i32, 0 : i32, 0 : i32, 64 : i32], ends = [32 : i32, 16 : i32, 1 : i32, 128 : i32], step = [1 : i32, 1 : i32, 1 : i32, 1 : i32]}> : (tensor<32x16x1x128xbf16>) -> tensor<32x16x1x64xbf16> loc(#loc63)
        %70 = "ttir.neg"(%69) : (tensor<32x16x1x64xbf16>) -> tensor<32x16x1x64xbf16> loc(#loc64)
        %71 = "ttir.slice_static"(%54) <{begins = [0 : i32, 0 : i32, 0 : i32, 0 : i32], ends = [32 : i32, 16 : i32, 1 : i32, 64 : i32], step = [1 : i32, 1 : i32, 1 : i32, 1 : i32]}> : (tensor<32x16x1x128xbf16>) -> tensor<32x16x1x64xbf16> loc(#loc65)
        %72 = "ttir.concat"(%70, %71) <{dim = 3 : si32}> : (tensor<32x16x1x64xbf16>, tensor<32x16x1x64xbf16>) -> tensor<32x16x1x128xbf16> loc(#loc66)
        %73 = "ttir.sin"(%63) : (tensor<32x1x128xf32>) -> tensor<32x1x128xf32> loc(#loc67)
        %74 = "ttir.typecast"(%73) <{conservative_folding = false}> : (tensor<32x1x128xf32>) -> tensor<32x1x128xbf16> loc(#loc68)
        %75 = "ttir.reshape"(%74) <{shape = [32 : i32, 1 : i32, 1 : i32, 128 : i32]}> : (tensor<32x1x128xbf16>) -> tensor<32x1x1x128xbf16> loc(#loc69)
        %76 = "ttir.broadcast"(%75) <{broadcast_dimensions = array<i64: 1, 16, 1, 1>}> : (tensor<32x1x1x128xbf16>) -> tensor<32x16x1x128xbf16> loc(#loc69)
        %77 = "ttir.multiply"(%72, %76) : (tensor<32x16x1x128xbf16>, tensor<32x16x1x128xbf16>) -> tensor<32x16x1x128xbf16> loc(#loc70)
        %78 = "ttir.add"(%68, %77) : (tensor<32x16x1x128xbf16>, tensor<32x16x1x128xbf16>) -> tensor<32x16x1x128xbf16> loc(#loc71)
        %79 = "ttir.typecast"(%78) <{conservative_folding = false}> : (tensor<32x16x1x128xbf16>) -> tensor<32x16x1x128xf32> loc(#loc72)
        %80 = "ttir.multiply"(%79, %6) : (tensor<32x16x1x128xf32>, tensor<32x16x1x128xf32>) -> tensor<32x16x1x128xf32> loc(#loc73)
        %81 = "ttir.reshape"(%arg8) <{shape = [1 : i32, 1 : i32, 128 : i32]}> : (tensor<128xbf16>) -> tensor<1x1x128xbf16> loc(#loc74)
        %82 = "ttir.reshape"(%81) <{shape = [128 : i32]}> : (tensor<1x1x128xbf16>) -> tensor<128xbf16> loc(#loc75)
        %83 = "ttir.reshape"(%82) <{shape = [1 : i32, 1 : i32, 1 : i32, 128 : i32]}> : (tensor<128xbf16>) -> tensor<1x1x1x128xbf16> loc(#loc76)
        %84 = "ttir.broadcast"(%83) <{broadcast_dimensions = array<i64: 32, 1, 8, 1>}> : (tensor<1x1x1x128xbf16>) -> tensor<32x1x8x128xbf16> loc(#loc76)
        %85 = "ttir.reshape"(%arg7) <{shape = [1 : i32, 1024 : i32, 2048 : i32]}> : (tensor<1024x2048xbf16>) -> tensor<1x1024x2048xbf16> loc(#loc77)
        %86 = "ttir.reshape"(%85) <{shape = [1024 : i32, 2048 : i32]}> : (tensor<1x1024x2048xbf16>) -> tensor<1024x2048xbf16> loc(#loc78)
        %87 = "ttir.permute"(%86) <{permutation = array<i64: 1, 0>}> : (tensor<1024x2048xbf16>) -> tensor<2048x1024xbf16> loc(#loc79)
        %88 = "ttir.dot_general"(%35, %87) <{batch_dims_lhs = array<i64>, batch_dims_rhs = array<i64>, contract_dims_lhs = array<i64: 1>, contract_dims_rhs = array<i64: 0>}> : (tensor<32x2048xbf16>, tensor<2048x1024xbf16>) -> tensor<32x1024xbf16> loc(#loc80)
        %89 = "ttir.reshape"(%88) <{shape = [32 : i32, 1 : i32, 8 : i32, 128 : i32]}> : (tensor<32x1024xbf16>) -> tensor<32x1x8x128xbf16> loc(#loc81)
        %90 = "ttir.typecast"(%89) <{conservative_folding = false}> : (tensor<32x1x8x128xbf16>) -> tensor<32x1x8x128xf32> loc(#loc82)
        %91 = "ttir.pow"(%90, %5) : (tensor<32x1x8x128xf32>, tensor<32x1x8x128xf32>) -> tensor<32x1x8x128xf32> loc(#loc83)
        %92 = "ttir.sum"(%91) <{dim_arg = [3 : i32], keep_dim = false}> : (tensor<32x1x8x128xf32>) -> tensor<32x1x8xf32> loc(#loc84)
        %93 = "ttir.multiply"(%92, %4) : (tensor<32x1x8xf32>, tensor<32x1x8xf32>) -> tensor<32x1x8xf32> loc(#loc85)
        %94 = "ttir.reshape"(%93) <{shape = [32 : i32, 1 : i32, 8 : i32, 1 : i32]}> : (tensor<32x1x8xf32>) -> tensor<32x1x8x1xf32> loc(#loc86)
        %95 = "ttir.add"(%94, %3) : (tensor<32x1x8x1xf32>, tensor<32x1x8x1xf32>) -> tensor<32x1x8x1xf32> loc(#loc87)
        %96 = "ttir.rsqrt"(%95) : (tensor<32x1x8x1xf32>) -> tensor<32x1x8x1xf32> loc(#loc88)
        %97 = "ttir.reshape"(%96) <{shape = [32 : i32, 1 : i32, 8 : i32]}> : (tensor<32x1x8x1xf32>) -> tensor<32x1x8xf32> loc(#loc89)
        %98 = "ttir.reshape"(%97) <{shape = [32 : i32, 1 : i32, 8 : i32, 1 : i32]}> : (tensor<32x1x8xf32>) -> tensor<32x1x8x1xf32> loc(#loc90)
        %99 = "ttir.broadcast"(%98) <{broadcast_dimensions = array<i64: 1, 1, 1, 128>}> : (tensor<32x1x8x1xf32>) -> tensor<32x1x8x128xf32> loc(#loc90)
        %100 = "ttir.multiply"(%90, %99) : (tensor<32x1x8x128xf32>, tensor<32x1x8x128xf32>) -> tensor<32x1x8x128xf32> loc(#loc91)
        %101 = "ttir.typecast"(%100) <{conservative_folding = false}> : (tensor<32x1x8x128xf32>) -> tensor<32x1x8x128xbf16> loc(#loc92)
        %102 = "ttir.multiply"(%84, %101) : (tensor<32x1x8x128xbf16>, tensor<32x1x8x128xbf16>) -> tensor<32x1x8x128xbf16> loc(#loc93)
        %103 = "ttir.reshape"(%102) <{shape = [32 : i32, 8 : i32, 1 : i32, 128 : i32]}> : (tensor<32x1x8x128xbf16>) -> tensor<32x8x1x128xbf16> loc(#loc94)
        %104 = "ttir.broadcast"(%66) <{broadcast_dimensions = array<i64: 1, 8, 1, 1>}> : (tensor<32x1x1x128xbf16>) -> tensor<32x8x1x128xbf16> loc(#loc95)
        %105 = "ttir.multiply"(%103, %104) : (tensor<32x8x1x128xbf16>, tensor<32x8x1x128xbf16>) -> tensor<32x8x1x128xbf16> loc(#loc96)
        %106 = "ttir.slice_static"(%103) <{begins = [0 : i32, 0 : i32, 0 : i32, 64 : i32], ends = [32 : i32, 8 : i32, 1 : i32, 128 : i32], step = [1 : i32, 1 : i32, 1 : i32, 1 : i32]}> : (tensor<32x8x1x128xbf16>) -> tensor<32x8x1x64xbf16> loc(#loc97)
        %107 = "ttir.neg"(%106) : (tensor<32x8x1x64xbf16>) -> tensor<32x8x1x64xbf16> loc(#loc98)
        %108 = "ttir.slice_static"(%103) <{begins = [0 : i32, 0 : i32, 0 : i32, 0 : i32], ends = [32 : i32, 8 : i32, 1 : i32, 64 : i32], step = [1 : i32, 1 : i32, 1 : i32, 1 : i32]}> : (tensor<32x8x1x128xbf16>) -> tensor<32x8x1x64xbf16> loc(#loc99)
        %109 = "ttir.concat"(%107, %108) <{dim = 3 : si32}> : (tensor<32x8x1x64xbf16>, tensor<32x8x1x64xbf16>) -> tensor<32x8x1x128xbf16> loc(#loc100)
        %110 = "ttir.broadcast"(%75) <{broadcast_dimensions = array<i64: 1, 8, 1, 1>}> : (tensor<32x1x1x128xbf16>) -> tensor<32x8x1x128xbf16> loc(#loc101)
        %111 = "ttir.multiply"(%109, %110) : (tensor<32x8x1x128xbf16>, tensor<32x8x1x128xbf16>) -> tensor<32x8x1x128xbf16> loc(#loc102)
        %112 = "ttir.add"(%105, %111) : (tensor<32x8x1x128xbf16>, tensor<32x8x1x128xbf16>) -> tensor<32x8x1x128xbf16> loc(#loc103)
        %113 = "ttir.typecast"(%112) <{conservative_folding = false}> : (tensor<32x8x1x128xbf16>) -> tensor<32x8x1x128xf32> loc(#loc104)
        %114 = "ttir.reshape"(%113) <{shape = [32 : i32, 8 : i32, 1 : i32, 1 : i32, 128 : i32]}> : (tensor<32x8x1x128xf32>) -> tensor<32x8x1x1x128xf32> loc(#loc105)
        %115 = "ttir.broadcast"(%114) <{broadcast_dimensions = array<i64: 1, 1, 2, 1, 1>}> : (tensor<32x8x1x1x128xf32>) -> tensor<32x8x2x1x128xf32> loc(#loc105)
        %116 = "ttir.reshape"(%115) <{shape = [32 : i32, 16 : i32, 128 : i32, 1 : i32]}> : (tensor<32x8x2x1x128xf32>) -> tensor<32x16x128x1xf32> loc(#loc106)
        %117 = "ttir.multiply"(%116, %2) : (tensor<32x16x128x1xf32>, tensor<32x16x128x1xf32>) -> tensor<32x16x128x1xf32> loc(#loc107)
        %118 = "ttir.dot_general"(%80, %117) <{batch_dims_lhs = array<i64: 0, 1>, batch_dims_rhs = array<i64: 0, 1>, contract_dims_lhs = array<i64: 3>, contract_dims_rhs = array<i64: 2>}> : (tensor<32x16x1x128xf32>, tensor<32x16x128x1xf32>) -> tensor<32x16x1x1xf32> loc(#loc108)
        %119 = "ttir.typecast"(%118) <{conservative_folding = false}> : (tensor<32x16x1x1xf32>) -> tensor<32x16x1x1xf64> loc(#loc109)
        %120 = "ttir.eq"(%119, %1) : (tensor<32x16x1x1xf64>, tensor<32x16x1x1xf64>) -> tensor<32x16x1x1xi1> loc(#loc110)
        %121 = "ttir.logical_not"(%120) : (tensor<32x16x1x1xi1>) -> tensor<32x16x1x1xi1> loc(#loc111)
        %122 = "ttir.reduce_or"(%121) <{dim_arg = [3 : i32], keep_dim = false}> : (tensor<32x16x1x1xi1>) -> tensor<32x16x1xi1> loc(#loc112)
        %123 = "ttir.reshape"(%122) <{shape = [32 : i32, 16 : i32, 1 : i32, 1 : i32]}> : (tensor<32x16x1xi1>) -> tensor<32x16x1x1xi1> loc(#loc113)
        %124 = "ttir.max"(%118) <{dim_arg = [3 : i32], keep_dim = false}> : (tensor<32x16x1x1xf32>) -> tensor<32x16x1xf32> loc(#loc114)
        %125 = "ttir.reshape"(%124) <{shape = [32 : i32, 16 : i32, 1 : i32, 1 : i32]}> : (tensor<32x16x1xf32>) -> tensor<32x16x1x1xf32> loc(#loc115)
        %126 = "ttir.subtract"(%118, %125) : (tensor<32x16x1x1xf32>, tensor<32x16x1x1xf32>) -> tensor<32x16x1x1xf32> loc(#loc116)
        %127 = "ttir.exp"(%126) : (tensor<32x16x1x1xf32>) -> tensor<32x16x1x1xf32> loc(#loc117)
        %128 = "ttir.sum"(%127) <{dim_arg = [3 : i32], keep_dim = false}> : (tensor<32x16x1x1xf32>) -> tensor<32x16x1xf32> loc(#loc118)
        %129 = "ttir.reshape"(%128) <{shape = [32 : i32, 16 : i32, 1 : i32, 1 : i32]}> : (tensor<32x16x1xf32>) -> tensor<32x16x1x1xf32> loc(#loc119)
        %130 = "ttir.div"(%127, %129) : (tensor<32x16x1x1xf32>, tensor<32x16x1x1xf32>) -> tensor<32x16x1x1xf32> loc(#loc120)
        %131 = "ttir.where"(%123, %130, %0) : (tensor<32x16x1x1xi1>, tensor<32x16x1x1xf32>, tensor<32x16x1x1xf32>) -> tensor<32x16x1x1xf32> loc(#loc178)
        %132 = "ttir.reshape"(%arg3) <{shape = [1 : i32, 1024 : i32, 2048 : i32]}> : (tensor<1024x2048xbf16>) -> tensor<1x1024x2048xbf16> loc(#loc123)
        %133 = "ttir.reshape"(%132) <{shape = [1024 : i32, 2048 : i32]}> : (tensor<1x1024x2048xbf16>) -> tensor<1024x2048xbf16> loc(#loc124)
        %134 = "ttir.permute"(%133) <{permutation = array<i64: 1, 0>}> : (tensor<1024x2048xbf16>) -> tensor<2048x1024xbf16> loc(#loc125)
        %135 = "ttir.dot_general"(%35, %134) <{batch_dims_lhs = array<i64>, batch_dims_rhs = array<i64>, contract_dims_lhs = array<i64: 1>, contract_dims_rhs = array<i64: 0>}> : (tensor<32x2048xbf16>, tensor<2048x1024xbf16>) -> tensor<32x1024xbf16> loc(#loc126)
        %136 = "ttir.reshape"(%135) <{shape = [32 : i32, 8 : i32, 1 : i32, 128 : i32]}> : (tensor<32x1024xbf16>) -> tensor<32x8x1x128xbf16> loc(#loc127)
        %137 = "ttir.typecast"(%136) <{conservative_folding = false}> : (tensor<32x8x1x128xbf16>) -> tensor<32x8x1x128xf32> loc(#loc128)
        %138 = "ttir.reshape"(%137) <{shape = [32 : i32, 8 : i32, 1 : i32, 1 : i32, 128 : i32]}> : (tensor<32x8x1x128xf32>) -> tensor<32x8x1x1x128xf32> loc(#loc129)
        %139 = "ttir.broadcast"(%138) <{broadcast_dimensions = array<i64: 1, 1, 2, 1, 1>}> : (tensor<32x8x1x1x128xf32>) -> tensor<32x8x2x1x128xf32> loc(#loc129)
        %140 = "ttir.reshape"(%139) <{shape = [32 : i32, 16 : i32, 1 : i32, 128 : i32]}> : (tensor<32x8x2x1x128xf32>) -> tensor<32x16x1x128xf32> loc(#loc130)
        %141 = "ttir.dot_general"(%131, %140) <{batch_dims_lhs = array<i64: 0, 1>, batch_dims_rhs = array<i64: 0, 1>, contract_dims_lhs = array<i64: 3>, contract_dims_rhs = array<i64: 2>}> : (tensor<32x16x1x1xf32>, tensor<32x16x1x128xf32>) -> tensor<32x16x1x128xf32> loc(#loc131)
        %142 = "ttir.typecast"(%141) <{conservative_folding = false}> : (tensor<32x16x1x128xf32>) -> tensor<32x16x1x128xbf16> loc(#loc132)
        %143 = "ttir.reshape"(%142) <{shape = [32 : i32, 2048 : i32]}> : (tensor<32x16x1x128xbf16>) -> tensor<32x2048xbf16> loc(#loc133)
        %144 = "ttir.reshape"(%arg2) <{shape = [1 : i32, 2048 : i32, 2048 : i32]}> : (tensor<2048x2048xbf16>) -> tensor<1x2048x2048xbf16> loc(#loc134)
        %145 = "ttir.reshape"(%144) <{shape = [2048 : i32, 2048 : i32]}> : (tensor<1x2048x2048xbf16>) -> tensor<2048x2048xbf16> loc(#loc135)
        %146 = "ttir.permute"(%145) <{permutation = array<i64: 1, 0>}> : (tensor<2048x2048xbf16>) -> tensor<2048x2048xbf16> loc(#loc136)
        %147 = "ttir.dot_general"(%143, %146) <{batch_dims_lhs = array<i64>, batch_dims_rhs = array<i64>, contract_dims_lhs = array<i64: 1>, contract_dims_rhs = array<i64: 0>}> : (tensor<32x2048xbf16>, tensor<2048x2048xbf16>) -> tensor<32x2048xbf16> loc(#loc137)
        %148 = "ttir.reshape"(%147) <{shape = [32 : i32, 1 : i32, 2048 : i32]}> : (tensor<32x2048xbf16>) -> tensor<32x1x2048xbf16> loc(#loc138)
        %149 = "ttir.add"(%arg4, %148) : (tensor<32x1x2048xbf16>, tensor<32x1x2048xbf16>) -> tensor<32x1x2048xbf16> loc(#loc139)
        %150 = "ttir.reshape"(%arg11) <{shape = [1 : i32, 1 : i32, 2048 : i32]}> : (tensor<2048xbf16>) -> tensor<1x1x2048xbf16> loc(#loc140)
        %151 = "ttir.reshape"(%150) <{shape = [2048 : i32]}> : (tensor<1x1x2048xbf16>) -> tensor<2048xbf16> loc(#loc141)
        %152 = "ttir.reshape"(%151) <{shape = [1 : i32, 1 : i32, 2048 : i32]}> : (tensor<2048xbf16>) -> tensor<1x1x2048xbf16> loc(#loc142)
        %153 = "ttir.broadcast"(%152) <{broadcast_dimensions = array<i64: 32, 1, 1>}> : (tensor<1x1x2048xbf16>) -> tensor<32x1x2048xbf16> loc(#loc142)
        %154 = "ttir.typecast"(%149) <{conservative_folding = false}> : (tensor<32x1x2048xbf16>) -> tensor<32x1x2048xf32> loc(#loc143)
        %155 = "ttir.pow"(%154, %13) : (tensor<32x1x2048xf32>, tensor<32x1x2048xf32>) -> tensor<32x1x2048xf32> loc(#loc144)
        %156 = "ttir.sum"(%155) <{dim_arg = [2 : i32], keep_dim = false}> : (tensor<32x1x2048xf32>) -> tensor<32x1xf32> loc(#loc145)
        %157 = "ttir.multiply"(%156, %12) : (tensor<32x1xf32>, tensor<32x1xf32>) -> tensor<32x1xf32> loc(#loc146)
        %158 = "ttir.reshape"(%157) <{shape = [32 : i32, 1 : i32, 1 : i32]}> : (tensor<32x1xf32>) -> tensor<32x1x1xf32> loc(#loc147)
        %159 = "ttir.add"(%158, %11) : (tensor<32x1x1xf32>, tensor<32x1x1xf32>) -> tensor<32x1x1xf32> loc(#loc148)
        %160 = "ttir.rsqrt"(%159) : (tensor<32x1x1xf32>) -> tensor<32x1x1xf32> loc(#loc149)
        %161 = "ttir.reshape"(%160) <{shape = [32 : i32, 1 : i32]}> : (tensor<32x1x1xf32>) -> tensor<32x1xf32> loc(#loc150)
        %162 = "ttir.reshape"(%161) <{shape = [32 : i32, 1 : i32, 1 : i32]}> : (tensor<32x1xf32>) -> tensor<32x1x1xf32> loc(#loc151)
        %163 = "ttir.broadcast"(%162) <{broadcast_dimensions = array<i64: 1, 1, 2048>}> : (tensor<32x1x1xf32>) -> tensor<32x1x2048xf32> loc(#loc151)
        %164 = "ttir.multiply"(%154, %163) : (tensor<32x1x2048xf32>, tensor<32x1x2048xf32>) -> tensor<32x1x2048xf32> loc(#loc152)
        %165 = "ttir.typecast"(%164) <{conservative_folding = false}> : (tensor<32x1x2048xf32>) -> tensor<32x1x2048xbf16> loc(#loc153)
        %166 = "ttir.multiply"(%153, %165) : (tensor<32x1x2048xbf16>, tensor<32x1x2048xbf16>) -> tensor<32x1x2048xbf16> loc(#loc154)
        %167 = "ttir.reshape"(%166) <{shape = [32 : i32, 2048 : i32]}> : (tensor<32x1x2048xbf16>) -> tensor<32x2048xbf16> loc(#loc155)
        %168 = "ttir.reshape"(%arg12) <{shape = [1 : i32, 6144 : i32, 2048 : i32]}> : (tensor<6144x2048xbf16>) -> tensor<1x6144x2048xbf16> loc(#loc156)
        %169 = "ttir.reshape"(%168) <{shape = [6144 : i32, 2048 : i32]}> : (tensor<1x6144x2048xbf16>) -> tensor<6144x2048xbf16> loc(#loc157)
        %170 = "ttir.permute"(%169) <{permutation = array<i64: 1, 0>}> : (tensor<6144x2048xbf16>) -> tensor<2048x6144xbf16> loc(#loc158)
        %171 = "ttir.dot_general"(%167, %170) <{batch_dims_lhs = array<i64>, batch_dims_rhs = array<i64>, contract_dims_lhs = array<i64: 1>, contract_dims_rhs = array<i64: 0>}> : (tensor<32x2048xbf16>, tensor<2048x6144xbf16>) -> tensor<32x6144xbf16> loc(#loc159)
        %172 = "ttir.reshape"(%171) <{shape = [32 : i32, 1 : i32, 6144 : i32]}> : (tensor<32x6144xbf16>) -> tensor<32x1x6144xbf16> loc(#loc160)
        %173 = "ttir.typecast"(%172) <{conservative_folding = false}> : (tensor<32x1x6144xbf16>) -> tensor<32x1x6144xf32> loc(#loc161)
        %174 = "ttir.sigmoid"(%173) : (tensor<32x1x6144xf32>) -> tensor<32x1x6144xf32> loc(#loc162)
        %175 = "ttir.multiply"(%173, %174) : (tensor<32x1x6144xf32>, tensor<32x1x6144xf32>) -> tensor<32x1x6144xf32> loc(#loc163)
        %176 = "ttir.typecast"(%175) <{conservative_folding = false}> : (tensor<32x1x6144xf32>) -> tensor<32x1x6144xbf16> loc(#loc164)
        %177 = "ttir.reshape"(%arg1) <{shape = [1 : i32, 6144 : i32, 2048 : i32]}> : (tensor<6144x2048xbf16>) -> tensor<1x6144x2048xbf16> loc(#loc165)
        %178 = "ttir.reshape"(%177) <{shape = [6144 : i32, 2048 : i32]}> : (tensor<1x6144x2048xbf16>) -> tensor<6144x2048xbf16> loc(#loc166)
        %179 = "ttir.permute"(%178) <{permutation = array<i64: 1, 0>}> : (tensor<6144x2048xbf16>) -> tensor<2048x6144xbf16> loc(#loc167)
        %180 = "ttir.dot_general"(%167, %179) <{batch_dims_lhs = array<i64>, batch_dims_rhs = array<i64>, contract_dims_lhs = array<i64: 1>, contract_dims_rhs = array<i64: 0>}> : (tensor<32x2048xbf16>, tensor<2048x6144xbf16>) -> tensor<32x6144xbf16> loc(#loc168)
        %181 = "ttir.reshape"(%180) <{shape = [32 : i32, 1 : i32, 6144 : i32]}> : (tensor<32x6144xbf16>) -> tensor<32x1x6144xbf16> loc(#loc169)
        %182 = "ttir.multiply"(%176, %181) : (tensor<32x1x6144xbf16>, tensor<32x1x6144xbf16>) -> tensor<32x1x6144xbf16> loc(#loc170)
        %183 = "ttir.reshape"(%182) <{shape = [32 : i32, 6144 : i32]}> : (tensor<32x1x6144xbf16>) -> tensor<32x6144xbf16> loc(#loc171)
        %184 = "ttir.reshape"(%arg0) <{shape = [1 : i32, 2048 : i32, 6144 : i32]}> : (tensor<2048x6144xbf16>) -> tensor<1x2048x6144xbf16> loc(#loc172)
        %185 = "ttir.reshape"(%184) <{shape = [2048 : i32, 6144 : i32]}> : (tensor<1x2048x6144xbf16>) -> tensor<2048x6144xbf16> loc(#loc173)
        %186 = "ttir.permute"(%185) <{permutation = array<i64: 1, 0>}> : (tensor<2048x6144xbf16>) -> tensor<6144x2048xbf16> loc(#loc174)
        %187 = "ttir.dot_general"(%183, %186) <{batch_dims_lhs = array<i64>, batch_dims_rhs = array<i64>, contract_dims_lhs = array<i64: 1>, contract_dims_rhs = array<i64: 0>}> : (tensor<32x6144xbf16>, tensor<6144x2048xbf16>) -> tensor<32x2048xbf16> loc(#loc175)
        %188 = "ttir.reshape"(%187) <{shape = [32 : i32, 1 : i32, 2048 : i32]}> : (tensor<32x2048xbf16>) -> tensor<32x1x2048xbf16> loc(#loc176)
        %189 = "ttir.add"(%149, %188) : (tensor<32x1x2048xbf16>, tensor<32x1x2048xbf16>) -> tensor<32x1x2048xbf16> loc(#loc177)
        return %189 : tensor<32x1x2048xbf16> loc(#loc)
      } loc(#loc)
    } loc(#loc)
  } loc(#loc)
} loc(#loc)
#loc = loc(unknown)
#loc14 = loc("reshape.227")
#loc15 = loc("reshape.229")
#loc16 = loc("broadcast.230")
#loc17 = loc("reshape.61")
#loc18 = loc("reshape.63")
#loc19 = loc("broadcast.64")
#loc20 = loc("convert.31")
#loc21 = loc("power.33")
#loc22 = loc("reduce.40")
#loc23 = loc("multiply.49")
#loc24 = loc("reshape.50")
#loc25 = loc("add.54")
#loc26 = loc("rsqrt.55")
#loc27 = loc("reshape.56")
#loc28 = loc("broadcast.57")
#loc29 = loc("multiply.58")
#loc30 = loc("convert.59")
#loc31 = loc("multiply.65")
#loc32 = loc("reshape.193")
#loc33 = loc("reshape.189")
#loc34 = loc("reshape.191")
#loc35 = loc("transpose.192")
#loc36 = loc("dot.194")
#loc37 = loc("reshape.196")
#loc38 = loc("convert.197")
#loc39 = loc("power.199")
#loc40 = loc("reduce.206")
#loc41 = loc("multiply.215")
#loc42 = loc("reshape.216")
#loc43 = loc("add.220")
#loc44 = loc("rsqrt.221")
#loc45 = loc("reshape.222")
#loc46 = loc("broadcast.223")
#loc47 = loc("multiply.224")
#loc48 = loc("convert.225")
#loc49 = loc("multiply.231")
#loc50 = loc("transpose.232")
#loc51 = loc("reshape.89")
#loc52 = loc("reshape.93")
#loc53 = loc("convert.94")
#loc54 = loc("reshape.96")
#loc55 = loc("broadcast.97")
#loc56 = loc("dot.99")
#loc57 = loc("transpose.100")
#loc58 = loc("concatenate.101")
#loc59 = loc("cosine.163")
#loc60 = loc("convert.166")
#loc61 = loc("broadcast.241")
#loc62 = loc("multiply.242")
#loc63 = loc("slice.234")
#loc64 = loc("negate.235")
#loc65 = loc("slice.233")
#loc66 = loc("concatenate.236")
#loc67 = loc("sine.102")
#loc68 = loc("convert.105")
#loc69 = loc("broadcast.238")
#loc70 = loc("multiply.239")
#loc71 = loc("add.245")
#loc72 = loc("convert.246")
#loc73 = loc("multiply.248")
#loc74 = loc("reshape.149")
#loc75 = loc("reshape.151")
#loc76 = loc("broadcast.152")
#loc77 = loc("reshape.111")
#loc78 = loc("reshape.113")
#loc79 = loc("transpose.114")
#loc80 = loc("dot.116")
#loc81 = loc("reshape.118")
#loc82 = loc("convert.119")
#loc83 = loc("power.121")
#loc84 = loc("reduce.128")
#loc85 = loc("multiply.137")
#loc86 = loc("reshape.138")
#loc87 = loc("add.142")
#loc88 = loc("rsqrt.143")
#loc89 = loc("reshape.144")
#loc90 = loc("broadcast.145")
#loc91 = loc("multiply.146")
#loc92 = loc("convert.147")
#loc93 = loc("multiply.153")
#loc94 = loc("transpose.154")
#loc95 = loc("broadcast.169")
#loc96 = loc("multiply.170")
#loc97 = loc("slice.156")
#loc98 = loc("negate.157")
#loc99 = loc("slice.155")
#loc100 = loc("concatenate.158")
#loc101 = loc("broadcast.160")
#loc102 = loc("multiply.161")
#loc103 = loc("add.173")
#loc104 = loc("convert.174")
#loc105 = loc("broadcast.178")
#loc106 = loc("transpose.180")
#loc107 = loc("multiply.182")
#loc108 = loc("dot.249")
#loc109 = loc("convert.274")
#loc110 = loc("compare.276")
#loc111 = loc("not.278")
#loc112 = loc("reduce.290")
#loc113 = loc("reshape.294")
#loc114 = loc("reduce.256")
#loc115 = loc("broadcast.257")
#loc116 = loc("subtract.258")
#loc117 = loc("exponential.259")
#loc118 = loc("reduce.265")
#loc119 = loc("broadcast.266")
#loc120 = loc("divide.267")
#loc121 = loc("select.297")
#loc122 = loc("not.296")
#loc123 = loc("reshape.22")
#loc124 = loc("reshape.24")
#loc125 = loc("transpose.25")
#loc126 = loc("dot.67")
#loc127 = loc("transpose.70")
#loc128 = loc("convert.71")
#loc129 = loc("broadcast.75")
#loc130 = loc("reshape.76")
#loc131 = loc("dot.298")
#loc132 = loc("convert.300")
#loc133 = loc("reshape.303")
#loc134 = loc("reshape.17")
#loc135 = loc("reshape.19")
#loc136 = loc("transpose.20")
#loc137 = loc("dot.304")
#loc138 = loc("reshape.305")
#loc139 = loc("add.308")
#loc140 = loc("reshape.339")
#loc141 = loc("reshape.341")
#loc142 = loc("broadcast.342")
#loc143 = loc("convert.309")
#loc144 = loc("power.311")
#loc145 = loc("reduce.318")
#loc146 = loc("multiply.327")
#loc147 = loc("reshape.328")
#loc148 = loc("add.332")
#loc149 = loc("rsqrt.333")
#loc150 = loc("reshape.334")
#loc151 = loc("broadcast.335")
#loc152 = loc("multiply.336")
#loc153 = loc("convert.337")
#loc154 = loc("multiply.343")
#loc155 = loc("reshape.352")
#loc156 = loc("reshape.348")
#loc157 = loc("reshape.350")
#loc158 = loc("transpose.351")
#loc159 = loc("dot.353")
#loc160 = loc("reshape.354")
#loc161 = loc("convert.355")
#loc162 = loc("logistic.356")
#loc163 = loc("multiply.357")
#loc164 = loc("convert.358")
#loc165 = loc("reshape.8")
#loc166 = loc("reshape.10")
#loc167 = loc("transpose.11")
#loc168 = loc("dot.345")
#loc169 = loc("reshape.346")
#loc170 = loc("multiply.359")
#loc171 = loc("reshape.360")
#loc172 = loc("reshape.3")
#loc173 = loc("reshape.5")
#loc174 = loc("transpose.6")
#loc175 = loc("dot.361")
#loc176 = loc("reshape.362")
#loc177 = loc("add.365")
#loc178 = loc(fused[#loc121, #loc122])
