#loc1 = loc("p0.3")
#loc2 = loc("p1.12")
#loc3 = loc("p2.20")
#loc4 = loc("p3.28")
#loc5 = loc("p4.40")
#loc6 = loc("p5.45")
#loc7 = loc("p6.108")
#loc8 = loc("p7.122")
#loc9 = loc("p8.139")
#loc10 = loc("p9.151")
#loc11 = loc("p10.226")
#loc12 = loc("p11.234")
#loc13 = loc("p12.242")
#loc14 = loc("p13.255")
#loc15 = loc("p14.263")
#loc16 = loc("p15.271")
#loc17 = loc("p16.284")
#loc18 = loc("p17.350")
#loc19 = loc("p18.362")
#loc20 = loc("p19.533")
module @SyncTensorsGraph.625 attributes {mhlo.cross_program_prefetches = [], mhlo.input_output_alias = [], mhlo.is_dynamic = false, mhlo.use_auto_spmd_partitioning = false, ttcore.meshes = #ttcore.meshes<[<"mesh" = 1x1>]>} {
  ttcore.device_module {
    builtin.module @SyncTensorsGraph.625 attributes {mhlo.cross_program_prefetches = [], mhlo.input_output_alias = [], mhlo.is_dynamic = false, mhlo.use_auto_spmd_partitioning = false, ttcore.meshes = #ttcore.meshes<[<"mesh" = 1x1>]>} {
      func.func @main(%arg0: tensor<1xi64> {ttcore.argument_type = #ttcore.argument_type<input>, ttcore.local_shape = #ttcore<local_shape local_shape = tensor<1xi64>>, ttcore.shard_status = #ttcore.shard_status<unsharded>, ttir.name = "arg17_1"} loc("p0.3"), %arg1: tensor<1xi64> {ttcore.argument_type = #ttcore.argument_type<input>, ttcore.local_shape = #ttcore<local_shape local_shape = tensor<1xi64>>, ttcore.shard_status = #ttcore.shard_status<unsharded>, ttir.name = "arg15_1"} loc("p1.12"), %arg2: tensor<1024x2048xbf16> {ttcore.argument_type = #ttcore.argument_type<parameter>, ttcore.local_shape = #ttcore<local_shape local_shape = tensor<1024x2048xbf16>>, ttcore.shard_status = #ttcore.shard_status<unsharded>, ttcore.weight_dtype = "bfp_bf8", ttir.name = "model.model.layers.0.self_attn.v_proj.parametrizations.weight.original"} loc("p2.20"), %arg3: tensor<2048xbf16> {ttcore.argument_type = #ttcore.argument_type<parameter>, ttcore.local_shape = #ttcore<local_shape local_shape = tensor<2048xbf16>>, ttcore.shard_status = #ttcore.shard_status<unsharded>, ttcore.weight_dtype = "bfp_bf8", ttir.name = "model.model.layers.0.input_layernorm.parametrizations.weight.original"} loc("p3.28"), %arg4: tensor<32x1xi64> {ttcore.argument_type = #ttcore.argument_type<input>, ttcore.local_shape = #ttcore<local_shape local_shape = tensor<32x1xi64>>, ttcore.shard_status = #ttcore.shard_status<unsharded>, ttir.name = "arg16_1"} loc("p4.40"), %arg5: tensor<151936x2048xbf16> {ttcore.argument_type = #ttcore.argument_type<parameter>, ttcore.local_shape = #ttcore<local_shape local_shape = tensor<151936x2048xbf16>>, ttcore.shard_status = #ttcore.shard_status<unsharded>, ttcore.weight_dtype = "bfp_bf8", ttir.name = "model.model.embed_tokens.parametrizations.weight.original"} loc("p5.45"), %arg6: tensor<32x8x128x128xbf16> {ttcore.argument_type = #ttcore.argument_type<input>, ttcore.local_shape = #ttcore<local_shape local_shape = tensor<32x8x128x128xbf16>>, ttcore.shard_status = #ttcore.shard_status<unsharded>, ttir.name = "arg19_1"} loc("p6.108"), %arg7: tensor<64xbf16> {ttcore.argument_type = #ttcore.argument_type<constant>, ttcore.local_shape = #ttcore<local_shape local_shape = tensor<64xbf16>>, ttcore.shard_status = #ttcore.shard_status<unsharded>, ttir.name = "model.model.rotary_emb.inv_freq"} loc("p7.122"), %arg8: tensor<128xbf16> {ttcore.argument_type = #ttcore.argument_type<parameter>, ttcore.local_shape = #ttcore<local_shape local_shape = tensor<128xbf16>>, ttcore.shard_status = #ttcore.shard_status<unsharded>, ttcore.weight_dtype = "bfp_bf8", ttir.name = "model.model.layers.0.self_attn.k_norm.parametrizations.weight.original"} loc("p8.139"), %arg9: tensor<1024x2048xbf16> {ttcore.argument_type = #ttcore.argument_type<parameter>, ttcore.local_shape = #ttcore<local_shape local_shape = tensor<1024x2048xbf16>>, ttcore.shard_status = #ttcore.shard_status<unsharded>, ttcore.weight_dtype = "bfp_bf8", ttir.name = "model.model.layers.0.self_attn.k_proj.parametrizations.weight.original"} loc("p9.151"), %arg10: tensor<32x8x128x128xbf16> {ttcore.argument_type = #ttcore.argument_type<input>, ttcore.local_shape = #ttcore<local_shape local_shape = tensor<32x8x128x128xbf16>>, ttcore.shard_status = #ttcore.shard_status<unsharded>, ttir.name = "arg18_1"} loc("p10.226"), %arg11: tensor<151936x2048xbf16> {ttcore.argument_type = #ttcore.argument_type<parameter>, ttcore.local_shape = #ttcore<local_shape local_shape = tensor<151936x2048xbf16>>, ttcore.shard_status = #ttcore.shard_status<unsharded>, ttcore.weight_dtype = "bfp_bf8", ttir.name = "model.lm_head.parametrizations.weight.original"} loc("p11.234"), %arg12: tensor<2048xbf16> {ttcore.argument_type = #ttcore.argument_type<parameter>, ttcore.local_shape = #ttcore<local_shape local_shape = tensor<2048xbf16>>, ttcore.shard_status = #ttcore.shard_status<unsharded>, ttcore.weight_dtype = "bfp_bf8", ttir.name = "model.model.norm.parametrizations.weight.original"} loc("p12.242"), %arg13: tensor<2048x6144xbf16> {ttcore.argument_type = #ttcore.argument_type<parameter>, ttcore.local_shape = #ttcore<local_shape local_shape = tensor<2048x6144xbf16>>, ttcore.shard_status = #ttcore.shard_status<unsharded>, ttcore.weight_dtype = "bfp_bf8", ttir.name = "model.model.layers.0.mlp.down_proj.parametrizations.weight.original"} loc("p13.255"), %arg14: tensor<6144x2048xbf16> {ttcore.argument_type = #ttcore.argument_type<parameter>, ttcore.local_shape = #ttcore<local_shape local_shape = tensor<6144x2048xbf16>>, ttcore.shard_status = #ttcore.shard_status<unsharded>, ttcore.weight_dtype = "bfp_bf8", ttir.name = "model.model.layers.0.mlp.up_proj.parametrizations.weight.original"} loc("p14.263"), %arg15: tensor<2048xbf16> {ttcore.argument_type = #ttcore.argument_type<parameter>, ttcore.local_shape = #ttcore<local_shape local_shape = tensor<2048xbf16>>, ttcore.shard_status = #ttcore.shard_status<unsharded>, ttcore.weight_dtype = "bfp_bf8", ttir.name = "model.model.layers.0.post_attention_layernorm.parametrizations.weight.original"} loc("p15.271"), %arg16: tensor<2048x2048xbf16> {ttcore.argument_type = #ttcore.argument_type<parameter>, ttcore.local_shape = #ttcore<local_shape local_shape = tensor<2048x2048xbf16>>, ttcore.shard_status = #ttcore.shard_status<unsharded>, ttcore.weight_dtype = "bfp_bf8", ttir.name = "model.model.layers.0.self_attn.o_proj.parametrizations.weight.original"} loc("p16.284"), %arg17: tensor<128xbf16> {ttcore.argument_type = #ttcore.argument_type<parameter>, ttcore.local_shape = #ttcore<local_shape local_shape = tensor<128xbf16>>, ttcore.shard_status = #ttcore.shard_status<unsharded>, ttcore.weight_dtype = "bfp_bf8", ttir.name = "model.model.layers.0.self_attn.q_norm.parametrizations.weight.original"} loc("p17.350"), %arg18: tensor<2048x2048xbf16> {ttcore.argument_type = #ttcore.argument_type<parameter>, ttcore.local_shape = #ttcore<local_shape local_shape = tensor<2048x2048xbf16>>, ttcore.shard_status = #ttcore.shard_status<unsharded>, ttcore.weight_dtype = "bfp_bf8", ttir.name = "model.model.layers.0.self_attn.q_proj.parametrizations.weight.original"} loc("p18.362"), %arg19: tensor<6144x2048xbf16> {ttcore.argument_type = #ttcore.argument_type<parameter>, ttcore.local_shape = #ttcore<local_shape local_shape = tensor<6144x2048xbf16>>, ttcore.shard_status = #ttcore.shard_status<unsharded>, ttcore.weight_dtype = "bfp_bf8", ttir.name = "model.model.layers.0.mlp.gate_proj.parametrizations.weight.original"} loc("p19.533")) -> (tensor<1xi64> {ttcore.local_shape = #ttcore<local_shape local_shape = tensor<1xi64>>, ttcore.shard_status = #ttcore.shard_status<presharded>}, tensor<1xi64> {ttcore.local_shape = #ttcore<local_shape local_shape = tensor<1xi64>>, ttcore.shard_status = #ttcore.shard_status<presharded>}, tensor<32x8x128x128xbf16> {ttcore.local_shape = #ttcore<local_shape local_shape = tensor<32x8x128x128xbf16>>, ttcore.shard_status = #ttcore.shard_status<presharded>}, tensor<32x8x128x128xbf16> {ttcore.local_shape = #ttcore<local_shape local_shape = tensor<32x8x128x128xbf16>>, ttcore.shard_status = #ttcore.shard_status<presharded>}, tensor<32x1x151936xbf16> {ttcore.local_shape = #ttcore<local_shape local_shape = tensor<32x1x151936xbf16>>, ttcore.shard_status = #ttcore.shard_status<presharded>}, tensor<32x1xi64> {ttcore.local_shape = #ttcore<local_shape local_shape = tensor<32x1xi64>>, ttcore.shard_status = #ttcore.shard_status<presharded>}) {
        %0 = "ttir.constant"() <{value = dense<0.000000e+00> : tensor<32x16x1x128xf32>}> : () -> tensor<32x16x1x128xf32> loc(#loc)
        %1 = "ttir.constant"() <{value = dense<0xFF80> : tensor<32x1x1x128xbf16>}> : () -> tensor<32x1x1x128xbf16> loc(#loc)
        %2 = "ttir.constant"() <{value = dense<0.000000e+00> : tensor<32x1x1x128xbf16>}> : () -> tensor<32x1x1x128xbf16> loc(#loc)
        %3 = "ttir.constant"() <{value = dense<"…"> : tensor<1x1x1x128xi64>}> : () -> tensor<1x1x1x128xi64> loc(#loc)
        %4 = "ttir.constant"() <{value = dense<0.297301769> : tensor<32x16x128x128xf32>}> : () -> tensor<32x16x128x128xf32> loc(#loc)
        %5 = "ttir.constant"() <{value = dense<0.297301769> : tensor<32x16x1x128xf32>}> : () -> tensor<32x16x1x128xf32> loc(#loc)
        %6 = "ttir.constant"() <{value = dense<128> : tensor<1xi64>}> : () -> tensor<1xi64> loc(#loc)
        %7 = "ttir.constant"() <{value = dense<0> : tensor<1xi64>}> : () -> tensor<1xi64> loc(#loc)
        %8 = "ttir.constant"() <{value = dense<1> : tensor<1xi64>}> : () -> tensor<1xi64> loc(#loc)
        %9 = "ttir.reshape"(%arg0) <{shape = [1 : i32, 1 : i32, 1 : i32]}> : (tensor<1xi64>) -> tensor<1x1x1xi64> loc(#loc21)
        %10 = "ttir.add"(%arg0, %8) : (tensor<1xi64>, tensor<1xi64>) -> tensor<1xi64> loc(#loc22)
        %11 = "ttir.reshape"(%arg1) <{shape = [1 : i32, 1 : i32, 1 : i32]}> : (tensor<1xi64>) -> tensor<1x1x1xi64> loc(#loc23)
        %12 = "ttir.add"(%arg1, %8) : (tensor<1xi64>, tensor<1xi64>) -> tensor<1xi64> loc(#loc24)
        %13 = "ttir.lt"(%arg0, %7) : (tensor<1xi64>, tensor<1xi64>) -> tensor<1xi1> loc(#loc25)
        %14 = "ttir.add"(%arg0, %6) : (tensor<1xi64>, tensor<1xi64>) -> tensor<1xi64> loc(#loc26)
        %15 = "ttir.where"(%13, %14, %arg0) : (tensor<1xi1>, tensor<1xi64>, tensor<1xi64>) -> tensor<1xi64> loc(#loc27)
        %16 = "ttir.reshape"(%arg4) <{shape = [32 : i32]}> : (tensor<32x1xi64>) -> tensor<32xi64> loc(#loc150)
        %17 = "ttir.typecast"(%16) <{conservative_folding = false}> : (tensor<32xi64>) -> tensor<32xui32> loc(#loc30)
        %18 = "ttir.permute"(%arg5) <{permutation = array<i64: 0, 1>}> : (tensor<151936x2048xbf16>) -> tensor<151936x2048xbf16> loc(#loc151)
        %19 = "ttir.reshape"(%18) <{shape = [151936 : i32, 2048 : i32]}> : (tensor<151936x2048xbf16>) -> tensor<151936x2048xbf16> loc(#loc152)
        %20 = "ttir.reshape"(%17) <{shape = [1 : i32, 32 : i32]}> : (tensor<32xui32>) -> tensor<1x32xui32> loc(#loc153)
        %21 = "ttir.embedding"(%20, %19) : (tensor<1x32xui32>, tensor<151936x2048xbf16>) -> tensor<1x32x2048xbf16> loc(#loc31)
        %22 = "ttir.reshape"(%21) <{shape = [32 : i32, 2048 : i32]}> : (tensor<1x32x2048xbf16>) -> tensor<32x2048xbf16> loc(#loc154)
        %23 = "ttir.permute"(%22) <{permutation = array<i64: 0, 1>}> : (tensor<32x2048xbf16>) -> tensor<32x2048xbf16> loc(#loc155)
        %24 = "ttir.reshape"(%23) <{shape = [32 : i32, 1 : i32, 2048 : i32]}> : (tensor<32x2048xbf16>) -> tensor<32x1x2048xbf16> loc(#loc32)
        %25 = "ttir.rms_norm"(%24, %arg3) <{epsilon = 9.99999997E-7 : f32, normalized_shape = array<i64: 2048>, operandSegmentSizes = array<i32: 1, 1, 0>}> : (tensor<32x1x2048xbf16>, tensor<2048xbf16>) -> tensor<32x1x2048xbf16> loc(#loc33)
        %26 = "ttir.reshape"(%25) <{shape = [32 : i32, 2048 : i32]}> : (tensor<32x1x2048xbf16>) -> tensor<32x2048xbf16> loc(#loc34)
        %27 = "ttir.permute"(%arg2) <{permutation = array<i64: 1, 0>}> : (tensor<1024x2048xbf16>) -> tensor<2048x1024xbf16> loc(#loc35)
        %28 = "ttir.dot_general"(%26, %27) <{batch_dims_lhs = array<i64>, batch_dims_rhs = array<i64>, contract_dims_lhs = array<i64: 1>, contract_dims_rhs = array<i64: 0>}> : (tensor<32x2048xbf16>, tensor<2048x1024xbf16>) -> tensor<32x1024xbf16> loc(#loc36)
        %29 = "ttir.reshape"(%28) <{shape = [32 : i32, 8 : i32, 1 : i32, 128 : i32]}> : (tensor<32x1024xbf16>) -> tensor<32x8x1x128xbf16> loc(#loc37)
        %30 = "ttir.permute"(%29) <{permutation = array<i64: 2, 1, 0, 3>}> : (tensor<32x8x1x128xbf16>) -> tensor<1x8x32x128xbf16> loc(#loc38)
        "ttir.update_cache"(%arg6, %30, %arg0) <{batch_offset = 0 : i32}> : (tensor<32x8x128x128xbf16>, tensor<1x8x32x128xbf16>, tensor<1xi64>) -> () loc(#loc38)
        %31 = "ttir.permute"(%arg9) <{permutation = array<i64: 1, 0>}> : (tensor<1024x2048xbf16>) -> tensor<2048x1024xbf16> loc(#loc39)
        %32 = "ttir.dot_general"(%26, %31) <{batch_dims_lhs = array<i64>, batch_dims_rhs = array<i64>, contract_dims_lhs = array<i64: 1>, contract_dims_rhs = array<i64: 0>}> : (tensor<32x2048xbf16>, tensor<2048x1024xbf16>) -> tensor<32x1024xbf16> loc(#loc40)
        %33 = "ttir.reshape"(%32) <{shape = [32 : i32, 1 : i32, 8 : i32, 128 : i32]}> : (tensor<32x1024xbf16>) -> tensor<32x1x8x128xbf16> loc(#loc41)
        %34 = "ttir.rms_norm"(%33, %arg8) <{epsilon = 9.99999997E-7 : f32, normalized_shape = array<i64: 128>, operandSegmentSizes = array<i32: 1, 1, 0>}> : (tensor<32x1x8x128xbf16>, tensor<128xbf16>) -> tensor<32x1x8x128xbf16> loc(#loc42)
        %35 = "ttir.reshape"(%34) <{shape = [32 : i32, 8 : i32, 1 : i32, 128 : i32]}> : (tensor<32x1x8x128xbf16>) -> tensor<32x8x1x128xbf16> loc(#loc43)
        %36 = "ttir.reshape"(%arg7) <{shape = [1 : i32, 64 : i32, 1 : i32]}> : (tensor<64xbf16>) -> tensor<1x64x1xbf16> loc(#loc156)
        %37 = "ttir.typecast"(%36) <{conservative_folding = false}> : (tensor<1x64x1xbf16>) -> tensor<1x64x1xf32> loc(#loc46)
        %38 = "ttir.typecast"(%11) <{conservative_folding = false}> : (tensor<1x1x1xi64>) -> tensor<1x1x1xf32> loc(#loc47)
        %39 = "ttir.dot_general"(%37, %38) <{batch_dims_lhs = array<i64: 0>, batch_dims_rhs = array<i64: 0>, contract_dims_lhs = array<i64: 2>, contract_dims_rhs = array<i64: 1>}> : (tensor<1x64x1xf32>, tensor<1x1x1xf32>) -> tensor<1x64x1xf32> loc(#loc48)
        %40 = "ttir.reshape"(%39) <{shape = [1 : i32, 1 : i32, 64 : i32]}> : (tensor<1x64x1xf32>) -> tensor<1x1x64xf32> loc(#loc49)
        %41 = "ttir.concat"(%40, %40) <{dim = 2 : si32}> : (tensor<1x1x64xf32>, tensor<1x1x64xf32>) -> tensor<1x1x128xf32> loc(#loc50)
        %42 = "ttir.cos"(%41) : (tensor<1x1x128xf32>) -> tensor<1x1x128xf32> loc(#loc51)
        %43 = "ttir.typecast"(%42) <{conservative_folding = false}> : (tensor<1x1x128xf32>) -> tensor<1x1x128xbf16> loc(#loc52)
        %44 = "ttir.reshape"(%43) <{shape = [1 : i32, 128 : i32]}> : (tensor<1x1x128xbf16>) -> tensor<1x128xbf16> loc(#loc53)
        %45 = "ttir.reshape"(%44) <{shape = [1 : i32, 1 : i32, 1 : i32, 128 : i32]}> : (tensor<1x128xbf16>) -> tensor<1x1x1x128xbf16> loc(#loc54)
        %46 = "ttir.broadcast"(%45) <{broadcast_dimensions = array<i64: 32, 8, 1, 1>}> : (tensor<1x1x1x128xbf16>) -> tensor<32x8x1x128xbf16> loc(#loc54)
        %47 = "ttir.multiply"(%35, %46) : (tensor<32x8x1x128xbf16>, tensor<32x8x1x128xbf16>) -> tensor<32x8x1x128xbf16> loc(#loc55)
        %48 = "ttir.slice_static"(%35) <{begins = [0 : i32, 0 : i32, 0 : i32, 64 : i32], ends = [32 : i32, 8 : i32, 1 : i32, 128 : i32], step = [1 : i32, 1 : i32, 1 : i32, 1 : i32]}> : (tensor<32x8x1x128xbf16>) -> tensor<32x8x1x64xbf16> loc(#loc56)
        %49 = "ttir.neg"(%48) : (tensor<32x8x1x64xbf16>) -> tensor<32x8x1x64xbf16> loc(#loc57)
        %50 = "ttir.slice_static"(%35) <{begins = [0 : i32, 0 : i32, 0 : i32, 0 : i32], ends = [32 : i32, 8 : i32, 1 : i32, 64 : i32], step = [1 : i32, 1 : i32, 1 : i32, 1 : i32]}> : (tensor<32x8x1x128xbf16>) -> tensor<32x8x1x64xbf16> loc(#loc58)
        %51 = "ttir.concat"(%49, %50) <{dim = 3 : si32}> : (tensor<32x8x1x64xbf16>, tensor<32x8x1x64xbf16>) -> tensor<32x8x1x128xbf16> loc(#loc59)
        %52 = "ttir.sin"(%41) : (tensor<1x1x128xf32>) -> tensor<1x1x128xf32> loc(#loc60)
        %53 = "ttir.typecast"(%52) <{conservative_folding = false}> : (tensor<1x1x128xf32>) -> tensor<1x1x128xbf16> loc(#loc61)
        %54 = "ttir.reshape"(%53) <{shape = [1 : i32, 128 : i32]}> : (tensor<1x1x128xbf16>) -> tensor<1x128xbf16> loc(#loc62)
        %55 = "ttir.reshape"(%54) <{shape = [1 : i32, 1 : i32, 1 : i32, 128 : i32]}> : (tensor<1x128xbf16>) -> tensor<1x1x1x128xbf16> loc(#loc63)
        %56 = "ttir.broadcast"(%55) <{broadcast_dimensions = array<i64: 32, 8, 1, 1>}> : (tensor<1x1x1x128xbf16>) -> tensor<32x8x1x128xbf16> loc(#loc63)
        %57 = "ttir.multiply"(%51, %56) : (tensor<32x8x1x128xbf16>, tensor<32x8x1x128xbf16>) -> tensor<32x8x1x128xbf16> loc(#loc64)
        %58 = "ttir.add"(%47, %57) : (tensor<32x8x1x128xbf16>, tensor<32x8x1x128xbf16>) -> tensor<32x8x1x128xbf16> loc(#loc65)
        %59 = "ttir.permute"(%58) <{permutation = array<i64: 2, 1, 0, 3>}> : (tensor<32x8x1x128xbf16>) -> tensor<1x8x32x128xbf16> loc(#loc66)
        "ttir.update_cache"(%arg10, %59, %arg0) <{batch_offset = 0 : i32}> : (tensor<32x8x128x128xbf16>, tensor<1x8x32x128xbf16>, tensor<1xi64>) -> () loc(#loc66)
        %60 = "ttir.permute"(%arg18) <{permutation = array<i64: 1, 0>}> : (tensor<2048x2048xbf16>) -> tensor<2048x2048xbf16> loc(#loc67)
        %61 = "ttir.dot_general"(%26, %60) <{batch_dims_lhs = array<i64>, batch_dims_rhs = array<i64>, contract_dims_lhs = array<i64: 1>, contract_dims_rhs = array<i64: 0>}> : (tensor<32x2048xbf16>, tensor<2048x2048xbf16>) -> tensor<32x2048xbf16> loc(#loc68)
        %62 = "ttir.reshape"(%61) <{shape = [32 : i32, 1 : i32, 16 : i32, 128 : i32]}> : (tensor<32x2048xbf16>) -> tensor<32x1x16x128xbf16> loc(#loc69)
        %63 = "ttir.rms_norm"(%62, %arg17) <{epsilon = 9.99999997E-7 : f32, normalized_shape = array<i64: 128>, operandSegmentSizes = array<i32: 1, 1, 0>}> : (tensor<32x1x16x128xbf16>, tensor<128xbf16>) -> tensor<32x1x16x128xbf16> loc(#loc70)
        %64 = "ttir.reshape"(%63) <{shape = [32 : i32, 16 : i32, 1 : i32, 128 : i32]}> : (tensor<32x1x16x128xbf16>) -> tensor<32x16x1x128xbf16> loc(#loc71)
        %65 = "ttir.broadcast"(%45) <{broadcast_dimensions = array<i64: 32, 16, 1, 1>}> : (tensor<1x1x1x128xbf16>) -> tensor<32x16x1x128xbf16> loc(#loc72)
        %66 = "ttir.multiply"(%64, %65) : (tensor<32x16x1x128xbf16>, tensor<32x16x1x128xbf16>) -> tensor<32x16x1x128xbf16> loc(#loc73)
        %67 = "ttir.slice_static"(%64) <{begins = [0 : i32, 0 : i32, 0 : i32, 64 : i32], ends = [32 : i32, 16 : i32, 1 : i32, 128 : i32], step = [1 : i32, 1 : i32, 1 : i32, 1 : i32]}> : (tensor<32x16x1x128xbf16>) -> tensor<32x16x1x64xbf16> loc(#loc74)
        %68 = "ttir.neg"(%67) : (tensor<32x16x1x64xbf16>) -> tensor<32x16x1x64xbf16> loc(#loc75)
        %69 = "ttir.slice_static"(%64) <{begins = [0 : i32, 0 : i32, 0 : i32, 0 : i32], ends = [32 : i32, 16 : i32, 1 : i32, 64 : i32], step = [1 : i32, 1 : i32, 1 : i32, 1 : i32]}> : (tensor<32x16x1x128xbf16>) -> tensor<32x16x1x64xbf16> loc(#loc76)
        %70 = "ttir.concat"(%68, %69) <{dim = 3 : si32}> : (tensor<32x16x1x64xbf16>, tensor<32x16x1x64xbf16>) -> tensor<32x16x1x128xbf16> loc(#loc77)
        %71 = "ttir.broadcast"(%55) <{broadcast_dimensions = array<i64: 32, 16, 1, 1>}> : (tensor<1x1x1x128xbf16>) -> tensor<32x16x1x128xbf16> loc(#loc78)
        %72 = "ttir.multiply"(%70, %71) : (tensor<32x16x1x128xbf16>, tensor<32x16x1x128xbf16>) -> tensor<32x16x1x128xbf16> loc(#loc79)
        %73 = "ttir.add"(%66, %72) : (tensor<32x16x1x128xbf16>, tensor<32x16x1x128xbf16>) -> tensor<32x16x1x128xbf16> loc(#loc80)
        %74 = "ttir.typecast"(%73) <{conservative_folding = false}> : (tensor<32x16x1x128xbf16>) -> tensor<32x16x1x128xf32> loc(#loc81)
        %75 = "ttir.multiply"(%74, %5) : (tensor<32x16x1x128xf32>, tensor<32x16x1x128xf32>) -> tensor<32x16x1x128xf32> loc(#loc82)
        %76 = "ttir.reshape"(%arg10) <{shape = [32 : i32, 8 : i32, 1 : i32, 128 : i32, 128 : i32]}> : (tensor<32x8x128x128xbf16>) -> tensor<32x8x1x128x128xbf16> loc(#loc83)
        %77 = "ttir.broadcast"(%76) <{broadcast_dimensions = array<i64: 1, 1, 2, 1, 1>}> : (tensor<32x8x1x128x128xbf16>) -> tensor<32x8x2x128x128xbf16> loc(#loc83)
        %78 = "ttir.reshape"(%77) <{shape = [32 : i32, 16 : i32, 128 : i32, 128 : i32]}> : (tensor<32x8x2x128x128xbf16>) -> tensor<32x16x128x128xbf16> loc(#loc84)
        %79 = "ttir.typecast"(%78) <{conservative_folding = false}> : (tensor<32x16x128x128xbf16>) -> tensor<32x16x128x128xf32> loc(#loc85)
        %80 = "ttir.permute"(%79) <{permutation = array<i64: 0, 1, 3, 2>}> : (tensor<32x16x128x128xf32>) -> tensor<32x16x128x128xf32> loc(#loc86)
        %81 = "ttir.multiply"(%80, %4) : (tensor<32x16x128x128xf32>, tensor<32x16x128x128xf32>) -> tensor<32x16x128x128xf32> loc(#loc87)
        %82 = "ttir.dot_general"(%75, %81) <{batch_dims_lhs = array<i64: 0, 1>, batch_dims_rhs = array<i64: 0, 1>, contract_dims_lhs = array<i64: 3>, contract_dims_rhs = array<i64: 2>}> : (tensor<32x16x1x128xf32>, tensor<32x16x128x128xf32>) -> tensor<32x16x1x128xf32> loc(#loc88)
        %83 = "ttir.reshape"(%9) <{shape = [1 : i32, 1 : i32, 1 : i32, 1 : i32]}> : (tensor<1x1x1xi64>) -> tensor<1x1x1x1xi64> loc(#loc89)
        %84 = "ttir.broadcast"(%83) <{broadcast_dimensions = array<i64: 1, 1, 1, 128>}> : (tensor<1x1x1x1xi64>) -> tensor<1x1x1x128xi64> loc(#loc89)
        %85 = "ttir.le"(%3, %84) : (tensor<1x1x1x128xi64>, tensor<1x1x1x128xi64>) -> tensor<1x1x1x128xi1> loc(#loc90)
        %86 = "ttir.reshape"(%85) <{shape = [1 : i32, 1 : i32, 128 : i32]}> : (tensor<1x1x1x128xi1>) -> tensor<1x1x128xi1> loc(#loc91)
        %87 = "ttir.reshape"(%86) <{shape = [1 : i32, 1 : i32, 1 : i32, 128 : i32]}> : (tensor<1x1x128xi1>) -> tensor<1x1x1x128xi1> loc(#loc92)
        %88 = "ttir.broadcast"(%87) <{broadcast_dimensions = array<i64: 32, 1, 1, 1>}> : (tensor<1x1x1x128xi1>) -> tensor<32x1x1x128xi1> loc(#loc92)
        %89 = "ttir.where"(%88, %2, %1) : (tensor<32x1x1x128xi1>, tensor<32x1x1x128xbf16>, tensor<32x1x1x128xbf16>) -> tensor<32x1x1x128xbf16> loc(#loc93)
        %90 = "ttir.typecast"(%89) <{conservative_folding = false}> : (tensor<32x1x1x128xbf16>) -> tensor<32x1x1x128xf32> loc(#loc94)
        %91 = "ttir.reshape"(%90) <{shape = [32 : i32, 1 : i32, 128 : i32]}> : (tensor<32x1x1x128xf32>) -> tensor<32x1x128xf32> loc(#loc95)
        %92 = "ttir.reshape"(%91) <{shape = [32 : i32, 1 : i32, 1 : i32, 128 : i32]}> : (tensor<32x1x128xf32>) -> tensor<32x1x1x128xf32> loc(#loc96)
        %93 = "ttir.broadcast"(%92) <{broadcast_dimensions = array<i64: 1, 16, 1, 1>}> : (tensor<32x1x1x128xf32>) -> tensor<32x16x1x128xf32> loc(#loc96)
        %94 = "ttir.add"(%82, %93) : (tensor<32x16x1x128xf32>, tensor<32x16x1x128xf32>) -> tensor<32x16x1x128xf32> loc(#loc97)
        %95 = "ttir.constant"() <{value = dense<0xFF800000> : tensor<32x16x1x128xf32>}> : () -> tensor<32x16x1x128xf32> loc(#loc)
        %96 = "ttir.eq"(%94, %95) : (tensor<32x16x1x128xf32>, tensor<32x16x1x128xf32>) -> tensor<32x16x1x128xi1> loc(#loc98)
        %97 = "ttir.logical_not"(%96) : (tensor<32x16x1x128xi1>) -> tensor<32x16x1x128xi1> loc(#loc99)
        %98 = "ttir.reduce_or"(%97) <{dim_arg = [3 : i32], keep_dim = false}> : (tensor<32x16x1x128xi1>) -> tensor<32x16x1xi1> loc(#loc100)
        %99 = "ttir.reshape"(%98) <{shape = [32 : i32, 16 : i32, 1 : i32, 1 : i32]}> : (tensor<32x16x1xi1>) -> tensor<32x16x1x1xi1> loc(#loc101)
        %100 = "ttir.logical_not"(%99) : (tensor<32x16x1x1xi1>) -> tensor<32x16x1x1xi1> loc(#loc102)
        %101 = "ttir.reshape"(%100) <{shape = [32 : i32, 16 : i32, 1 : i32]}> : (tensor<32x16x1x1xi1>) -> tensor<32x16x1xi1> loc(#loc103)
        %102 = "ttir.reshape"(%101) <{shape = [32 : i32, 16 : i32, 1 : i32, 1 : i32]}> : (tensor<32x16x1xi1>) -> tensor<32x16x1x1xi1> loc(#loc104)
        %103 = "ttir.broadcast"(%102) <{broadcast_dimensions = array<i64: 1, 1, 1, 128>}> : (tensor<32x16x1x1xi1>) -> tensor<32x16x1x128xi1> loc(#loc104)
        %104 = "ttir.max"(%94) <{dim_arg = [3 : i32], keep_dim = false}> : (tensor<32x16x1x128xf32>) -> tensor<32x16x1xf32> loc(#loc105)
        %105 = "ttir.reshape"(%104) <{shape = [32 : i32, 16 : i32, 1 : i32, 1 : i32]}> : (tensor<32x16x1xf32>) -> tensor<32x16x1x1xf32> loc(#loc106)
        %106 = "ttir.broadcast"(%105) <{broadcast_dimensions = array<i64: 1, 1, 1, 128>}> : (tensor<32x16x1x1xf32>) -> tensor<32x16x1x128xf32> loc(#loc106)
        %107 = "ttir.subtract"(%94, %106) : (tensor<32x16x1x128xf32>, tensor<32x16x1x128xf32>) -> tensor<32x16x1x128xf32> loc(#loc107)
        %108 = "ttir.exp"(%107) : (tensor<32x16x1x128xf32>) -> tensor<32x16x1x128xf32> loc(#loc108)
        %109 = "ttir.sum"(%108) <{dim_arg = [3 : i32], keep_dim = false}> : (tensor<32x16x1x128xf32>) -> tensor<32x16x1xf32> loc(#loc109)
        %110 = "ttir.reshape"(%109) <{shape = [32 : i32, 16 : i32, 1 : i32, 1 : i32]}> : (tensor<32x16x1xf32>) -> tensor<32x16x1x1xf32> loc(#loc110)
        %111 = "ttir.broadcast"(%110) <{broadcast_dimensions = array<i64: 1, 1, 1, 128>}> : (tensor<32x16x1x1xf32>) -> tensor<32x16x1x128xf32> loc(#loc110)
        %112 = "ttir.div"(%108, %111) : (tensor<32x16x1x128xf32>, tensor<32x16x1x128xf32>) -> tensor<32x16x1x128xf32> loc(#loc111)
        %113 = "ttir.where"(%103, %0, %112) : (tensor<32x16x1x128xi1>, tensor<32x16x1x128xf32>, tensor<32x16x1x128xf32>) -> tensor<32x16x1x128xf32> loc(#loc112)
        %114 = "ttir.reshape"(%arg6) <{shape = [32 : i32, 8 : i32, 1 : i32, 128 : i32, 128 : i32]}> : (tensor<32x8x128x128xbf16>) -> tensor<32x8x1x128x128xbf16> loc(#loc113)
        %115 = "ttir.broadcast"(%114) <{broadcast_dimensions = array<i64: 1, 1, 2, 1, 1>}> : (tensor<32x8x1x128x128xbf16>) -> tensor<32x8x2x128x128xbf16> loc(#loc113)
        %116 = "ttir.reshape"(%115) <{shape = [32 : i32, 16 : i32, 128 : i32, 128 : i32]}> : (tensor<32x8x2x128x128xbf16>) -> tensor<32x16x128x128xbf16> loc(#loc114)
        %117 = "ttir.typecast"(%116) <{conservative_folding = false}> : (tensor<32x16x128x128xbf16>) -> tensor<32x16x128x128xf32> loc(#loc115)
        %118 = "ttir.dot_general"(%113, %117) <{batch_dims_lhs = array<i64: 0, 1>, batch_dims_rhs = array<i64: 0, 1>, contract_dims_lhs = array<i64: 3>, contract_dims_rhs = array<i64: 2>}> : (tensor<32x16x1x128xf32>, tensor<32x16x128x128xf32>) -> tensor<32x16x1x128xf32> loc(#loc116)
        %119 = "ttir.typecast"(%118) <{conservative_folding = false}> : (tensor<32x16x1x128xf32>) -> tensor<32x16x1x128xbf16> loc(#loc117)
        %120 = "ttir.reshape"(%119) <{shape = [32 : i32, 2048 : i32]}> : (tensor<32x16x1x128xbf16>) -> tensor<32x2048xbf16> loc(#loc118)
        %121 = "ttir.permute"(%arg16) <{permutation = array<i64: 1, 0>}> : (tensor<2048x2048xbf16>) -> tensor<2048x2048xbf16> loc(#loc119)
        %122 = "ttir.dot_general"(%120, %121) <{batch_dims_lhs = array<i64>, batch_dims_rhs = array<i64>, contract_dims_lhs = array<i64: 1>, contract_dims_rhs = array<i64: 0>}> : (tensor<32x2048xbf16>, tensor<2048x2048xbf16>) -> tensor<32x2048xbf16> loc(#loc120)
        %123 = "ttir.reshape"(%122) <{shape = [32 : i32, 1 : i32, 2048 : i32]}> : (tensor<32x2048xbf16>) -> tensor<32x1x2048xbf16> loc(#loc121)
        %124 = "ttir.add"(%24, %123) : (tensor<32x1x2048xbf16>, tensor<32x1x2048xbf16>) -> tensor<32x1x2048xbf16> loc(#loc122)
        %125 = "ttir.rms_norm"(%124, %arg15) <{epsilon = 9.99999997E-7 : f32, normalized_shape = array<i64: 2048>, operandSegmentSizes = array<i32: 1, 1, 0>}> : (tensor<32x1x2048xbf16>, tensor<2048xbf16>) -> tensor<32x1x2048xbf16> loc(#loc123)
        %126 = "ttir.reshape"(%125) <{shape = [32 : i32, 2048 : i32]}> : (tensor<32x1x2048xbf16>) -> tensor<32x2048xbf16> loc(#loc124)
        %127 = "ttir.permute"(%arg19) <{permutation = array<i64: 1, 0>}> : (tensor<6144x2048xbf16>) -> tensor<2048x6144xbf16> loc(#loc125)
        %128 = "ttir.dot_general"(%126, %127) <{batch_dims_lhs = array<i64>, batch_dims_rhs = array<i64>, contract_dims_lhs = array<i64: 1>, contract_dims_rhs = array<i64: 0>}> : (tensor<32x2048xbf16>, tensor<2048x6144xbf16>) -> tensor<32x6144xbf16> loc(#loc126)
        %129 = "ttir.reshape"(%128) <{shape = [32 : i32, 1 : i32, 6144 : i32]}> : (tensor<32x6144xbf16>) -> tensor<32x1x6144xbf16> loc(#loc127)
        %130 = "ttir.typecast"(%129) <{conservative_folding = false}> : (tensor<32x1x6144xbf16>) -> tensor<32x1x6144xf32> loc(#loc128)
        %131 = "ttir.sigmoid"(%130) : (tensor<32x1x6144xf32>) -> tensor<32x1x6144xf32> loc(#loc129)
        %132 = "ttir.multiply"(%130, %131) : (tensor<32x1x6144xf32>, tensor<32x1x6144xf32>) -> tensor<32x1x6144xf32> loc(#loc130)
        %133 = "ttir.typecast"(%132) <{conservative_folding = false}> : (tensor<32x1x6144xf32>) -> tensor<32x1x6144xbf16> loc(#loc131)
        %134 = "ttir.permute"(%arg14) <{permutation = array<i64: 1, 0>}> : (tensor<6144x2048xbf16>) -> tensor<2048x6144xbf16> loc(#loc132)
        %135 = "ttir.dot_general"(%126, %134) <{batch_dims_lhs = array<i64>, batch_dims_rhs = array<i64>, contract_dims_lhs = array<i64: 1>, contract_dims_rhs = array<i64: 0>}> : (tensor<32x2048xbf16>, tensor<2048x6144xbf16>) -> tensor<32x6144xbf16> loc(#loc133)
        %136 = "ttir.reshape"(%135) <{shape = [32 : i32, 1 : i32, 6144 : i32]}> : (tensor<32x6144xbf16>) -> tensor<32x1x6144xbf16> loc(#loc134)
        %137 = "ttir.multiply"(%133, %136) : (tensor<32x1x6144xbf16>, tensor<32x1x6144xbf16>) -> tensor<32x1x6144xbf16> loc(#loc135)
        %138 = "ttir.reshape"(%137) <{shape = [32 : i32, 6144 : i32]}> : (tensor<32x1x6144xbf16>) -> tensor<32x6144xbf16> loc(#loc136)
        %139 = "ttir.permute"(%arg13) <{permutation = array<i64: 1, 0>}> : (tensor<2048x6144xbf16>) -> tensor<6144x2048xbf16> loc(#loc137)
        %140 = "ttir.dot_general"(%138, %139) <{batch_dims_lhs = array<i64>, batch_dims_rhs = array<i64>, contract_dims_lhs = array<i64: 1>, contract_dims_rhs = array<i64: 0>}> : (tensor<32x6144xbf16>, tensor<6144x2048xbf16>) -> tensor<32x2048xbf16> loc(#loc138)
        %141 = "ttir.reshape"(%140) <{shape = [32 : i32, 1 : i32, 2048 : i32]}> : (tensor<32x2048xbf16>) -> tensor<32x1x2048xbf16> loc(#loc139)
        %142 = "ttir.add"(%124, %141) : (tensor<32x1x2048xbf16>, tensor<32x1x2048xbf16>) -> tensor<32x1x2048xbf16> loc(#loc140)
        %143 = "ttir.rms_norm"(%142, %arg12) <{epsilon = 9.99999997E-7 : f32, normalized_shape = array<i64: 2048>, operandSegmentSizes = array<i32: 1, 1, 0>}> : (tensor<32x1x2048xbf16>, tensor<2048xbf16>) -> tensor<32x1x2048xbf16> loc(#loc141)
        %144 = "ttir.reshape"(%143) <{shape = [32 : i32, 2048 : i32]}> : (tensor<32x1x2048xbf16>) -> tensor<32x2048xbf16> loc(#loc142)
        %145 = "ttir.permute"(%arg11) <{permutation = array<i64: 1, 0>}> : (tensor<151936x2048xbf16>) -> tensor<2048x151936xbf16> loc(#loc143)
        %146 = "ttir.dot_general"(%144, %145) <{batch_dims_lhs = array<i64>, batch_dims_rhs = array<i64>, contract_dims_lhs = array<i64: 1>, contract_dims_rhs = array<i64: 0>}> : (tensor<32x2048xbf16>, tensor<2048x151936xbf16>) -> tensor<32x151936xbf16> loc(#loc144)
        %147 = "ttir.reshape"(%146) <{shape = [32 : i32, 1 : i32, 151936 : i32]}> : (tensor<32x151936xbf16>) -> tensor<32x1x151936xbf16> loc(#loc145)
        %148 = "ttir.arange"() <{arange_dimension = 0 : i64, end = 151936 : si64, start = 0 : si64, step = 1 : si64}> : () -> tensor<151936xi32> loc(#loc146)
        %149 = "ttir.reshape"(%148) <{shape = [1 : i32, 151936 : i32]}> : (tensor<151936xi32>) -> tensor<1x151936xi32> loc(#loc146)
        %150 = "ttir.argmax"(%146) <{dim_arg = [1 : i32], keep_dim = false}> : (tensor<32x151936xbf16>) -> tensor<32xi32> loc(#loc147)
        %151 = "ttir.typecast"(%150) <{conservative_folding = false}> : (tensor<32xi32>) -> tensor<32xi64> loc(#loc148)
        %152 = "ttir.reshape"(%151) <{shape = [32 : i32, 1 : i32]}> : (tensor<32xi64>) -> tensor<32x1xi64> loc(#loc149)
        return %10, %12, %arg6, %arg10, %147, %152 : tensor<1xi64>, tensor<1xi64>, tensor<32x8x128x128xbf16>, tensor<32x8x128x128xbf16>, tensor<32x1x151936xbf16>, tensor<32x1xi64> loc(#loc)
      } loc(#loc)
    } loc(#loc)
  } loc(#loc)
} loc(#loc)
#loc = loc(unknown)
#loc21 = loc("reshape.4")
#loc22 = loc("add.9")
#loc23 = loc("reshape.13")
#loc24 = loc("add.19")
#loc25 = loc("compare.104")
#loc26 = loc("add.101")
#loc27 = loc("select.105")
#loc28 = loc("reshape.44")
#loc29 = loc("reshape.41")
#loc30 = loc("convert.52")
#loc31 = loc("gather.53")
#loc32 = loc("reshape.54")
#loc33 = loc("custom-call.87")
#loc34 = loc("reshape.88")
#loc35 = loc("transpose.27")
#loc36 = loc("dot.89")
#loc37 = loc("transpose.92")
#loc38 = loc("scatter.114")
#loc39 = loc("transpose.158")
#loc40 = loc("dot.160")
#loc41 = loc("reshape.162")
#loc42 = loc("custom-call.195")
#loc43 = loc("transpose.196")
#loc44 = loc("reshape.127")
#loc45 = loc("reshape.123")
#loc46 = loc("convert.128")
#loc47 = loc("convert.120")
#loc48 = loc("dot.131")
#loc49 = loc("transpose.132")
#loc50 = loc("concatenate.133")
#loc51 = loc("cosine.205")
#loc52 = loc("convert.208")
#loc53 = loc("reshape.210")
#loc54 = loc("broadcast.211")
#loc55 = loc("multiply.212")
#loc56 = loc("slice.198")
#loc57 = loc("negate.199")
#loc58 = loc("slice.197")
#loc59 = loc("concatenate.200")
#loc60 = loc("sine.134")
#loc61 = loc("convert.137")
#loc62 = loc("reshape.201")
#loc63 = loc("broadcast.202")
#loc64 = loc("multiply.203")
#loc65 = loc("add.215")
#loc66 = loc("scatter.232")
#loc67 = loc("transpose.369")
#loc68 = loc("dot.371")
#loc69 = loc("reshape.373")
#loc70 = loc("custom-call.406")
#loc71 = loc("transpose.407")
#loc72 = loc("broadcast.416")
#loc73 = loc("multiply.417")
#loc74 = loc("slice.409")
#loc75 = loc("negate.410")
#loc76 = loc("slice.408")
#loc77 = loc("concatenate.411")
#loc78 = loc("broadcast.413")
#loc79 = loc("multiply.414")
#loc80 = loc("add.420")
#loc81 = loc("convert.421")
#loc82 = loc("multiply.423")
#loc83 = loc("broadcast.341")
#loc84 = loc("reshape.342")
#loc85 = loc("convert.343")
#loc86 = loc("transpose.344")
#loc87 = loc("multiply.346")
#loc88 = loc("dot.425")
#loc89 = loc("broadcast.330")
#loc90 = loc("compare.331")
#loc91 = loc("reshape.333")
#loc92 = loc("broadcast.334")
#loc93 = loc("select.336")
#loc94 = loc("convert.427")
#loc95 = loc("reshape.430")
#loc96 = loc("broadcast.431")
#loc97 = loc("add.432")
#loc98 = loc("compare.460")
#loc99 = loc("not.462")
#loc100 = loc("reduce.474")
#loc101 = loc("reshape.478")
#loc102 = loc("not.480")
#loc103 = loc("reshape.482")
#loc104 = loc("broadcast.483")
#loc105 = loc("reduce.438")
#loc106 = loc("broadcast.439")
#loc107 = loc("subtract.440")
#loc108 = loc("exponential.441")
#loc109 = loc("reduce.447")
#loc110 = loc("broadcast.448")
#loc111 = loc("divide.449")
#loc112 = loc("select.484")
#loc113 = loc("broadcast.295")
#loc114 = loc("reshape.296")
#loc115 = loc("convert.297")
#loc116 = loc("dot.486")
#loc117 = loc("convert.488")
#loc118 = loc("reshape.491")
#loc119 = loc("transpose.291")
#loc120 = loc("dot.492")
#loc121 = loc("reshape.493")
#loc122 = loc("add.496")
#loc123 = loc("custom-call.529")
#loc124 = loc("reshape.541")
#loc125 = loc("transpose.540")
#loc126 = loc("dot.542")
#loc127 = loc("reshape.543")
#loc128 = loc("convert.544")
#loc129 = loc("logistic.545")
#loc130 = loc("multiply.546")
#loc131 = loc("convert.547")
#loc132 = loc("transpose.270")
#loc133 = loc("dot.531")
#loc134 = loc("reshape.532")
#loc135 = loc("multiply.548")
#loc136 = loc("reshape.549")
#loc137 = loc("transpose.262")
#loc138 = loc("dot.550")
#loc139 = loc("reshape.551")
#loc140 = loc("add.554")
#loc141 = loc("custom-call.587")
#loc142 = loc("reshape.588")
#loc143 = loc("transpose.241")
#loc144 = loc("dot.589")
#loc145 = loc("reshape.590")
#loc146 = loc("iota.595")
#loc147 = loc("reduce.620")
#loc148 = loc("convert.622")
#loc149 = loc("reshape.623")
#loc150 = loc(fused[#loc28, #loc29])
#loc151 = loc("gather.53_permuteInput"(#loc31))
#loc152 = loc("gather.53_reshapeInput"(#loc31))
#loc153 = loc("gather.53_reshapeStartIndices"(#loc31))
#loc154 = loc("gather.53_reshapeOutput"(#loc31))
#loc155 = loc("gather.53_permuteOutput"(#loc31))
#loc156 = loc(fused[#loc44, #loc45])
