#loc1 = loc("p0.3")
#loc2 = loc("p1.12")
#loc3 = loc("p2.21")
#loc4 = loc("p3.25")
#loc5 = loc("p4.33")
#loc6 = loc("p5.45")
#loc7 = loc("p6.50")
#loc8 = loc("p7.117")
#loc9 = loc("p8.131")
#loc10 = loc("p9.149")
#loc11 = loc("p10.153")
#loc12 = loc("p11.199")
#loc13 = loc("p12.207")
#loc14 = loc("p13.215")
#loc15 = loc("p14.228")
#loc16 = loc("p15.236")
#loc17 = loc("p16.244")
#loc18 = loc("p17.257")
#loc19 = loc("p18.324")
#loc20 = loc("p19.328")
#loc21 = loc("p20.470")
module @SyncTensorsGraph.562 attributes {mhlo.cross_program_prefetches = [], mhlo.input_output_alias = [], mhlo.is_dynamic = false, mhlo.use_auto_spmd_partitioning = false, ttcore.meshes = #ttcore.meshes<[<"mesh" = 1x1>]>} {
  ttcore.device_module {
    builtin.module @SyncTensorsGraph.562 attributes {mhlo.cross_program_prefetches = [], mhlo.input_output_alias = [], mhlo.is_dynamic = false, mhlo.use_auto_spmd_partitioning = false, ttcore.meshes = #ttcore.meshes<[<"mesh" = 1x1>]>} {
      func.func @main(%arg0: tensor<1xi64> {ttcore.argument_type = #ttcore.argument_type<input>, ttcore.local_shape = #ttcore<local_shape local_shape = tensor<1xi64>>, ttcore.shard_status = #ttcore.shard_status<unsharded>, ttir.name = "arg18_1"} loc("p0.3"), %arg1: tensor<1xi64> {ttcore.argument_type = #ttcore.argument_type<input>, ttcore.local_shape = #ttcore<local_shape local_shape = tensor<1xi64>>, ttcore.shard_status = #ttcore.shard_status<unsharded>, ttir.name = "arg16_1"} loc("p1.12"), %arg2: tensor<256xbf16> {ttcore.argument_type = #ttcore.argument_type<parameter>, ttcore.local_shape = #ttcore<local_shape local_shape = tensor<256xbf16>>, ttcore.shard_status = #ttcore.shard_status<unsharded>, ttir.name = "model.model.layers.0.self_attn.v_proj.bias"} loc("p2.21"), %arg3: tensor<256x2048xbf16> {ttcore.argument_type = #ttcore.argument_type<parameter>, ttcore.local_shape = #ttcore<local_shape local_shape = tensor<256x2048xbf16>>, ttcore.shard_status = #ttcore.shard_status<unsharded>, ttcore.weight_dtype = "bfp_bf8", ttir.name = "model.model.layers.0.self_attn.v_proj.parametrizations.weight.original"} loc("p3.25"), %arg4: tensor<2048xbf16> {ttcore.argument_type = #ttcore.argument_type<parameter>, ttcore.local_shape = #ttcore<local_shape local_shape = tensor<2048xbf16>>, ttcore.shard_status = #ttcore.shard_status<unsharded>, ttcore.weight_dtype = "bfp_bf8", ttir.name = "model.model.layers.0.input_layernorm.parametrizations.weight.original"} loc("p4.33"), %arg5: tensor<32x1xi64> {ttcore.argument_type = #ttcore.argument_type<input>, ttcore.local_shape = #ttcore<local_shape local_shape = tensor<32x1xi64>>, ttcore.shard_status = #ttcore.shard_status<unsharded>, ttir.name = "arg17_1"} loc("p5.45"), %arg6: tensor<151936x2048xbf16> {ttcore.argument_type = #ttcore.argument_type<parameter>, ttcore.local_shape = #ttcore<local_shape local_shape = tensor<151936x2048xbf16>>, ttcore.shard_status = #ttcore.shard_status<unsharded>, ttcore.weight_dtype = "bfp_bf8", ttir.name = "model.model.embed_tokens.parametrizations.weight.original"} loc("p6.50"), %arg7: tensor<32x2x128x128xbf16> {ttcore.argument_type = #ttcore.argument_type<input>, ttcore.local_shape = #ttcore<local_shape local_shape = tensor<32x2x128x128xbf16>>, ttcore.shard_status = #ttcore.shard_status<unsharded>, ttir.name = "arg20_1"} loc("p7.117"), %arg8: tensor<64xbf16> {ttcore.argument_type = #ttcore.argument_type<constant>, ttcore.local_shape = #ttcore<local_shape local_shape = tensor<64xbf16>>, ttcore.shard_status = #ttcore.shard_status<unsharded>, ttir.name = "model.model.rotary_emb.inv_freq"} loc("p8.131"), %arg9: tensor<256xbf16> {ttcore.argument_type = #ttcore.argument_type<parameter>, ttcore.local_shape = #ttcore<local_shape local_shape = tensor<256xbf16>>, ttcore.shard_status = #ttcore.shard_status<unsharded>, ttir.name = "model.model.layers.0.self_attn.k_proj.bias"} loc("p9.149"), %arg10: tensor<256x2048xbf16> {ttcore.argument_type = #ttcore.argument_type<parameter>, ttcore.local_shape = #ttcore<local_shape local_shape = tensor<256x2048xbf16>>, ttcore.shard_status = #ttcore.shard_status<unsharded>, ttcore.weight_dtype = "bfp_bf8", ttir.name = "model.model.layers.0.self_attn.k_proj.parametrizations.weight.original"} loc("p10.153"), %arg11: tensor<32x2x128x128xbf16> {ttcore.argument_type = #ttcore.argument_type<input>, ttcore.local_shape = #ttcore<local_shape local_shape = tensor<32x2x128x128xbf16>>, ttcore.shard_status = #ttcore.shard_status<unsharded>, ttir.name = "arg19_1"} loc("p11.199"), %arg12: tensor<151936x2048xbf16> {ttcore.argument_type = #ttcore.argument_type<parameter>, ttcore.local_shape = #ttcore<local_shape local_shape = tensor<151936x2048xbf16>>, ttcore.shard_status = #ttcore.shard_status<unsharded>, ttcore.weight_dtype = "bfp_bf8", ttir.name = "model.lm_head.parametrizations.weight.original"} loc("p12.207"), %arg13: tensor<2048xbf16> {ttcore.argument_type = #ttcore.argument_type<parameter>, ttcore.local_shape = #ttcore<local_shape local_shape = tensor<2048xbf16>>, ttcore.shard_status = #ttcore.shard_status<unsharded>, ttcore.weight_dtype = "bfp_bf8", ttir.name = "model.model.norm.parametrizations.weight.original"} loc("p13.215"), %arg14: tensor<2048x11008xbf16> {ttcore.argument_type = #ttcore.argument_type<parameter>, ttcore.local_shape = #ttcore<local_shape local_shape = tensor<2048x11008xbf16>>, ttcore.shard_status = #ttcore.shard_status<unsharded>, ttcore.weight_dtype = "bfp_bf8", ttir.name = "model.model.layers.0.mlp.down_proj.parametrizations.weight.original"} loc("p14.228"), %arg15: tensor<11008x2048xbf16> {ttcore.argument_type = #ttcore.argument_type<parameter>, ttcore.local_shape = #ttcore<local_shape local_shape = tensor<11008x2048xbf16>>, ttcore.shard_status = #ttcore.shard_status<unsharded>, ttcore.weight_dtype = "bfp_bf8", ttir.name = "model.model.layers.0.mlp.up_proj.parametrizations.weight.original"} loc("p15.236"), %arg16: tensor<2048xbf16> {ttcore.argument_type = #ttcore.argument_type<parameter>, ttcore.local_shape = #ttcore<local_shape local_shape = tensor<2048xbf16>>, ttcore.shard_status = #ttcore.shard_status<unsharded>, ttcore.weight_dtype = "bfp_bf8", ttir.name = "model.model.layers.0.post_attention_layernorm.parametrizations.weight.original"} loc("p16.244"), %arg17: tensor<2048x2048xbf16> {ttcore.argument_type = #ttcore.argument_type<parameter>, ttcore.local_shape = #ttcore<local_shape local_shape = tensor<2048x2048xbf16>>, ttcore.shard_status = #ttcore.shard_status<unsharded>, ttcore.weight_dtype = "bfp_bf8", ttir.name = "model.model.layers.0.self_attn.o_proj.parametrizations.weight.original"} loc("p17.257"), %arg18: tensor<2048xbf16> {ttcore.argument_type = #ttcore.argument_type<parameter>, ttcore.local_shape = #ttcore<local_shape local_shape = tensor<2048xbf16>>, ttcore.shard_status = #ttcore.shard_status<unsharded>, ttir.name = "model.model.layers.0.self_attn.q_proj.bias"} loc("p18.324"), %arg19: tensor<2048x2048xbf16> {ttcore.argument_type = #ttcore.argument_type<parameter>, ttcore.local_shape = #ttcore<local_shape local_shape = tensor<2048x2048xbf16>>, ttcore.shard_status = #ttcore.shard_status<unsharded>, ttcore.weight_dtype = "bfp_bf8", ttir.name = "model.model.layers.0.self_attn.q_proj.parametrizations.weight.original"} loc("p19.328"), %arg20: tensor<11008x2048xbf16> {ttcore.argument_type = #ttcore.argument_type<parameter>, ttcore.local_shape = #ttcore<local_shape local_shape = tensor<11008x2048xbf16>>, ttcore.shard_status = #ttcore.shard_status<unsharded>, ttcore.weight_dtype = "bfp_bf8", ttir.name = "model.model.layers.0.mlp.gate_proj.parametrizations.weight.original"} loc("p20.470")) -> (tensor<1xi64> {ttcore.local_shape = #ttcore<local_shape local_shape = tensor<1xi64>>, ttcore.shard_status = #ttcore.shard_status<presharded>}, tensor<1xi64> {ttcore.local_shape = #ttcore<local_shape local_shape = tensor<1xi64>>, ttcore.shard_status = #ttcore.shard_status<presharded>}, tensor<32x2x128x128xbf16> {ttcore.local_shape = #ttcore<local_shape local_shape = tensor<32x2x128x128xbf16>>, ttcore.shard_status = #ttcore.shard_status<presharded>}, tensor<32x2x128x128xbf16> {ttcore.local_shape = #ttcore<local_shape local_shape = tensor<32x2x128x128xbf16>>, ttcore.shard_status = #ttcore.shard_status<presharded>}, tensor<32x1x151936xbf16> {ttcore.local_shape = #ttcore<local_shape local_shape = tensor<32x1x151936xbf16>>, ttcore.shard_status = #ttcore.shard_status<presharded>}, tensor<32x1xi64> {ttcore.local_shape = #ttcore<local_shape local_shape = tensor<32x1xi64>>, ttcore.shard_status = #ttcore.shard_status<presharded>}) {
        %0 = "ttir.constant"() <{value = dense<0.000000e+00> : tensor<32x16x1x128xf32>}> : () -> tensor<32x16x1x128xf32> loc(#loc)
        %1 = "ttir.constant"() <{value = dense<0xFF80> : tensor<32x1x1x128xbf16>}> : () -> tensor<32x1x1x128xbf16> loc(#loc)
        %2 = "ttir.constant"() <{value = dense<0.000000e+00> : tensor<32x1x1x128xbf16>}> : () -> tensor<32x1x1x128xbf16> loc(#loc)
        %3 = "ttir.constant"() <{value = dense<"…"> : tensor<1x1x1x128xi64>}> : () -> tensor<1x1x1x128xi64> loc(#loc)
        %4 = "ttir.constant"() <{value = dense<0.297301769> : tensor<32x16x128x128xf32>}> : () -> tensor<32x16x128x128xf32> loc(#loc)
        %5 = "ttir.constant"() <{value = dense<0.297301769> : tensor<32x16x1x128xf32>}> : () -> tensor<32x16x1x128xf32> loc(#loc)
        %6 = "ttir.constant"() <{value = dense<128> : tensor<1xi64>}> : () -> tensor<1xi64> loc(#loc)
        %7 = "ttir.constant"() <{value = dense<0> : tensor<1xi64>}> : () -> tensor<1xi64> loc(#loc)
        %8 = "ttir.constant"() <{value = dense<1> : tensor<1xi64>}> : () -> tensor<1xi64> loc(#loc)
        %9 = "ttir.reshape"(%arg0) <{shape = [1 : i32, 1 : i32, 1 : i32]}> : (tensor<1xi64>) -> tensor<1x1x1xi64> loc(#loc22)
        %10 = "ttir.add"(%arg0, %8) : (tensor<1xi64>, tensor<1xi64>) -> tensor<1xi64> loc(#loc23)
        %11 = "ttir.reshape"(%arg1) <{shape = [1 : i32, 1 : i32, 1 : i32]}> : (tensor<1xi64>) -> tensor<1x1x1xi64> loc(#loc24)
        %12 = "ttir.add"(%arg1, %8) : (tensor<1xi64>, tensor<1xi64>) -> tensor<1xi64> loc(#loc25)
        %13 = "ttir.lt"(%arg0, %7) : (tensor<1xi64>, tensor<1xi64>) -> tensor<1xi1> loc(#loc26)
        %14 = "ttir.add"(%arg0, %6) : (tensor<1xi64>, tensor<1xi64>) -> tensor<1xi64> loc(#loc27)
        %15 = "ttir.where"(%13, %14, %arg0) : (tensor<1xi1>, tensor<1xi64>, tensor<1xi64>) -> tensor<1xi64> loc(#loc28)
        %16 = "ttir.reshape"(%arg5) <{shape = [32 : i32]}> : (tensor<32x1xi64>) -> tensor<32xi64> loc(#loc156)
        %17 = "ttir.typecast"(%16) <{conservative_folding = false}> : (tensor<32xi64>) -> tensor<32xui32> loc(#loc31)
        %18 = "ttir.permute"(%arg6) <{permutation = array<i64: 0, 1>}> : (tensor<151936x2048xbf16>) -> tensor<151936x2048xbf16> loc(#loc157)
        %19 = "ttir.reshape"(%18) <{shape = [151936 : i32, 2048 : i32]}> : (tensor<151936x2048xbf16>) -> tensor<151936x2048xbf16> loc(#loc158)
        %20 = "ttir.reshape"(%17) <{shape = [1 : i32, 32 : i32]}> : (tensor<32xui32>) -> tensor<1x32xui32> loc(#loc159)
        %21 = "ttir.embedding"(%20, %19) : (tensor<1x32xui32>, tensor<151936x2048xbf16>) -> tensor<1x32x2048xbf16> loc(#loc32)
        %22 = "ttir.reshape"(%21) <{shape = [32 : i32, 2048 : i32]}> : (tensor<1x32x2048xbf16>) -> tensor<32x2048xbf16> loc(#loc160)
        %23 = "ttir.permute"(%22) <{permutation = array<i64: 0, 1>}> : (tensor<32x2048xbf16>) -> tensor<32x2048xbf16> loc(#loc161)
        %24 = "ttir.reshape"(%23) <{shape = [32 : i32, 1 : i32, 2048 : i32]}> : (tensor<32x2048xbf16>) -> tensor<32x1x2048xbf16> loc(#loc33)
        %25 = "ttir.rms_norm"(%24, %arg4) <{epsilon = 9.99999997E-7 : f32, normalized_shape = array<i64: 2048>, operandSegmentSizes = array<i32: 1, 1, 0>}> : (tensor<32x1x2048xbf16>, tensor<2048xbf16>) -> tensor<32x1x2048xbf16> loc(#loc34)
        %26 = "ttir.reshape"(%25) <{shape = [32 : i32, 2048 : i32]}> : (tensor<32x1x2048xbf16>) -> tensor<32x2048xbf16> loc(#loc35)
        %27 = "ttir.permute"(%arg3) <{permutation = array<i64: 1, 0>}> : (tensor<256x2048xbf16>) -> tensor<2048x256xbf16> loc(#loc36)
        %28 = "ttir.dot_general"(%26, %27) <{batch_dims_lhs = array<i64>, batch_dims_rhs = array<i64>, contract_dims_lhs = array<i64: 1>, contract_dims_rhs = array<i64: 0>}> : (tensor<32x2048xbf16>, tensor<2048x256xbf16>) -> tensor<32x256xbf16> loc(#loc37)
        %29 = "ttir.reshape"(%28) <{shape = [32 : i32, 1 : i32, 256 : i32]}> : (tensor<32x256xbf16>) -> tensor<32x1x256xbf16> loc(#loc38)
        %30 = "ttir.reshape"(%arg2) <{shape = [1 : i32, 1 : i32, 256 : i32]}> : (tensor<256xbf16>) -> tensor<1x1x256xbf16> loc(#loc39)
        %31 = "ttir.broadcast"(%30) <{broadcast_dimensions = array<i64: 32, 1, 1>}> : (tensor<1x1x256xbf16>) -> tensor<32x1x256xbf16> loc(#loc39)
        %32 = "ttir.add"(%29, %31) : (tensor<32x1x256xbf16>, tensor<32x1x256xbf16>) -> tensor<32x1x256xbf16> loc(#loc40)
        %33 = "ttir.reshape"(%32) <{shape = [32 : i32, 2 : i32, 1 : i32, 128 : i32]}> : (tensor<32x1x256xbf16>) -> tensor<32x2x1x128xbf16> loc(#loc41)
        %34 = "ttir.permute"(%33) <{permutation = array<i64: 2, 1, 0, 3>}> : (tensor<32x2x1x128xbf16>) -> tensor<1x2x32x128xbf16> loc(#loc42)
        "ttir.update_cache"(%arg7, %34, %arg0) <{batch_offset = 0 : i32}> : (tensor<32x2x128x128xbf16>, tensor<1x2x32x128xbf16>, tensor<1xi64>) -> () loc(#loc42)
        %35 = "ttir.permute"(%arg10) <{permutation = array<i64: 1, 0>}> : (tensor<256x2048xbf16>) -> tensor<2048x256xbf16> loc(#loc43)
        %36 = "ttir.dot_general"(%26, %35) <{batch_dims_lhs = array<i64>, batch_dims_rhs = array<i64>, contract_dims_lhs = array<i64: 1>, contract_dims_rhs = array<i64: 0>}> : (tensor<32x2048xbf16>, tensor<2048x256xbf16>) -> tensor<32x256xbf16> loc(#loc44)
        %37 = "ttir.reshape"(%36) <{shape = [32 : i32, 1 : i32, 256 : i32]}> : (tensor<32x256xbf16>) -> tensor<32x1x256xbf16> loc(#loc45)
        %38 = "ttir.reshape"(%arg9) <{shape = [1 : i32, 1 : i32, 256 : i32]}> : (tensor<256xbf16>) -> tensor<1x1x256xbf16> loc(#loc46)
        %39 = "ttir.broadcast"(%38) <{broadcast_dimensions = array<i64: 32, 1, 1>}> : (tensor<1x1x256xbf16>) -> tensor<32x1x256xbf16> loc(#loc46)
        %40 = "ttir.add"(%37, %39) : (tensor<32x1x256xbf16>, tensor<32x1x256xbf16>) -> tensor<32x1x256xbf16> loc(#loc47)
        %41 = "ttir.reshape"(%40) <{shape = [32 : i32, 2 : i32, 1 : i32, 128 : i32]}> : (tensor<32x1x256xbf16>) -> tensor<32x2x1x128xbf16> loc(#loc48)
        %42 = "ttir.reshape"(%arg8) <{shape = [1 : i32, 64 : i32, 1 : i32]}> : (tensor<64xbf16>) -> tensor<1x64x1xbf16> loc(#loc162)
        %43 = "ttir.typecast"(%42) <{conservative_folding = false}> : (tensor<1x64x1xbf16>) -> tensor<1x64x1xf32> loc(#loc51)
        %44 = "ttir.typecast"(%11) <{conservative_folding = false}> : (tensor<1x1x1xi64>) -> tensor<1x1x1xf32> loc(#loc52)
        %45 = "ttir.dot_general"(%43, %44) <{batch_dims_lhs = array<i64: 0>, batch_dims_rhs = array<i64: 0>, contract_dims_lhs = array<i64: 2>, contract_dims_rhs = array<i64: 1>}> : (tensor<1x64x1xf32>, tensor<1x1x1xf32>) -> tensor<1x64x1xf32> loc(#loc53)
        %46 = "ttir.reshape"(%45) <{shape = [1 : i32, 1 : i32, 64 : i32]}> : (tensor<1x64x1xf32>) -> tensor<1x1x64xf32> loc(#loc54)
        %47 = "ttir.concat"(%46, %46) <{dim = 2 : si32}> : (tensor<1x1x64xf32>, tensor<1x1x64xf32>) -> tensor<1x1x128xf32> loc(#loc55)
        %48 = "ttir.cos"(%47) : (tensor<1x1x128xf32>) -> tensor<1x1x128xf32> loc(#loc56)
        %49 = "ttir.typecast"(%48) <{conservative_folding = false}> : (tensor<1x1x128xf32>) -> tensor<1x1x128xbf16> loc(#loc57)
        %50 = "ttir.reshape"(%49) <{shape = [1 : i32, 128 : i32]}> : (tensor<1x1x128xbf16>) -> tensor<1x128xbf16> loc(#loc58)
        %51 = "ttir.reshape"(%50) <{shape = [1 : i32, 1 : i32, 1 : i32, 128 : i32]}> : (tensor<1x128xbf16>) -> tensor<1x1x1x128xbf16> loc(#loc59)
        %52 = "ttir.broadcast"(%51) <{broadcast_dimensions = array<i64: 32, 2, 1, 1>}> : (tensor<1x1x1x128xbf16>) -> tensor<32x2x1x128xbf16> loc(#loc59)
        %53 = "ttir.multiply"(%41, %52) : (tensor<32x2x1x128xbf16>, tensor<32x2x1x128xbf16>) -> tensor<32x2x1x128xbf16> loc(#loc60)
        %54 = "ttir.slice_static"(%41) <{begins = [0 : i32, 0 : i32, 0 : i32, 64 : i32], ends = [32 : i32, 2 : i32, 1 : i32, 128 : i32], step = [1 : i32, 1 : i32, 1 : i32, 1 : i32]}> : (tensor<32x2x1x128xbf16>) -> tensor<32x2x1x64xbf16> loc(#loc61)
        %55 = "ttir.neg"(%54) : (tensor<32x2x1x64xbf16>) -> tensor<32x2x1x64xbf16> loc(#loc62)
        %56 = "ttir.slice_static"(%41) <{begins = [0 : i32, 0 : i32, 0 : i32, 0 : i32], ends = [32 : i32, 2 : i32, 1 : i32, 64 : i32], step = [1 : i32, 1 : i32, 1 : i32, 1 : i32]}> : (tensor<32x2x1x128xbf16>) -> tensor<32x2x1x64xbf16> loc(#loc63)
        %57 = "ttir.concat"(%55, %56) <{dim = 3 : si32}> : (tensor<32x2x1x64xbf16>, tensor<32x2x1x64xbf16>) -> tensor<32x2x1x128xbf16> loc(#loc64)
        %58 = "ttir.sin"(%47) : (tensor<1x1x128xf32>) -> tensor<1x1x128xf32> loc(#loc65)
        %59 = "ttir.typecast"(%58) <{conservative_folding = false}> : (tensor<1x1x128xf32>) -> tensor<1x1x128xbf16> loc(#loc66)
        %60 = "ttir.reshape"(%59) <{shape = [1 : i32, 128 : i32]}> : (tensor<1x1x128xbf16>) -> tensor<1x128xbf16> loc(#loc67)
        %61 = "ttir.reshape"(%60) <{shape = [1 : i32, 1 : i32, 1 : i32, 128 : i32]}> : (tensor<1x128xbf16>) -> tensor<1x1x1x128xbf16> loc(#loc68)
        %62 = "ttir.broadcast"(%61) <{broadcast_dimensions = array<i64: 32, 2, 1, 1>}> : (tensor<1x1x1x128xbf16>) -> tensor<32x2x1x128xbf16> loc(#loc68)
        %63 = "ttir.multiply"(%57, %62) : (tensor<32x2x1x128xbf16>, tensor<32x2x1x128xbf16>) -> tensor<32x2x1x128xbf16> loc(#loc69)
        %64 = "ttir.add"(%53, %63) : (tensor<32x2x1x128xbf16>, tensor<32x2x1x128xbf16>) -> tensor<32x2x1x128xbf16> loc(#loc70)
        %65 = "ttir.permute"(%64) <{permutation = array<i64: 2, 1, 0, 3>}> : (tensor<32x2x1x128xbf16>) -> tensor<1x2x32x128xbf16> loc(#loc71)
        "ttir.update_cache"(%arg11, %65, %arg0) <{batch_offset = 0 : i32}> : (tensor<32x2x128x128xbf16>, tensor<1x2x32x128xbf16>, tensor<1xi64>) -> () loc(#loc71)
        %66 = "ttir.permute"(%arg19) <{permutation = array<i64: 1, 0>}> : (tensor<2048x2048xbf16>) -> tensor<2048x2048xbf16> loc(#loc72)
        %67 = "ttir.dot_general"(%26, %66) <{batch_dims_lhs = array<i64>, batch_dims_rhs = array<i64>, contract_dims_lhs = array<i64: 1>, contract_dims_rhs = array<i64: 0>}> : (tensor<32x2048xbf16>, tensor<2048x2048xbf16>) -> tensor<32x2048xbf16> loc(#loc73)
        %68 = "ttir.reshape"(%67) <{shape = [32 : i32, 1 : i32, 2048 : i32]}> : (tensor<32x2048xbf16>) -> tensor<32x1x2048xbf16> loc(#loc74)
        %69 = "ttir.reshape"(%arg18) <{shape = [1 : i32, 1 : i32, 2048 : i32]}> : (tensor<2048xbf16>) -> tensor<1x1x2048xbf16> loc(#loc75)
        %70 = "ttir.broadcast"(%69) <{broadcast_dimensions = array<i64: 32, 1, 1>}> : (tensor<1x1x2048xbf16>) -> tensor<32x1x2048xbf16> loc(#loc75)
        %71 = "ttir.add"(%68, %70) : (tensor<32x1x2048xbf16>, tensor<32x1x2048xbf16>) -> tensor<32x1x2048xbf16> loc(#loc76)
        %72 = "ttir.reshape"(%71) <{shape = [32 : i32, 16 : i32, 1 : i32, 128 : i32]}> : (tensor<32x1x2048xbf16>) -> tensor<32x16x1x128xbf16> loc(#loc77)
        %73 = "ttir.broadcast"(%51) <{broadcast_dimensions = array<i64: 32, 16, 1, 1>}> : (tensor<1x1x1x128xbf16>) -> tensor<32x16x1x128xbf16> loc(#loc78)
        %74 = "ttir.multiply"(%72, %73) : (tensor<32x16x1x128xbf16>, tensor<32x16x1x128xbf16>) -> tensor<32x16x1x128xbf16> loc(#loc79)
        %75 = "ttir.slice_static"(%72) <{begins = [0 : i32, 0 : i32, 0 : i32, 64 : i32], ends = [32 : i32, 16 : i32, 1 : i32, 128 : i32], step = [1 : i32, 1 : i32, 1 : i32, 1 : i32]}> : (tensor<32x16x1x128xbf16>) -> tensor<32x16x1x64xbf16> loc(#loc80)
        %76 = "ttir.neg"(%75) : (tensor<32x16x1x64xbf16>) -> tensor<32x16x1x64xbf16> loc(#loc81)
        %77 = "ttir.slice_static"(%72) <{begins = [0 : i32, 0 : i32, 0 : i32, 0 : i32], ends = [32 : i32, 16 : i32, 1 : i32, 64 : i32], step = [1 : i32, 1 : i32, 1 : i32, 1 : i32]}> : (tensor<32x16x1x128xbf16>) -> tensor<32x16x1x64xbf16> loc(#loc82)
        %78 = "ttir.concat"(%76, %77) <{dim = 3 : si32}> : (tensor<32x16x1x64xbf16>, tensor<32x16x1x64xbf16>) -> tensor<32x16x1x128xbf16> loc(#loc83)
        %79 = "ttir.broadcast"(%61) <{broadcast_dimensions = array<i64: 32, 16, 1, 1>}> : (tensor<1x1x1x128xbf16>) -> tensor<32x16x1x128xbf16> loc(#loc84)
        %80 = "ttir.multiply"(%78, %79) : (tensor<32x16x1x128xbf16>, tensor<32x16x1x128xbf16>) -> tensor<32x16x1x128xbf16> loc(#loc85)
        %81 = "ttir.add"(%74, %80) : (tensor<32x16x1x128xbf16>, tensor<32x16x1x128xbf16>) -> tensor<32x16x1x128xbf16> loc(#loc86)
        %82 = "ttir.typecast"(%81) <{conservative_folding = false}> : (tensor<32x16x1x128xbf16>) -> tensor<32x16x1x128xf32> loc(#loc87)
        %83 = "ttir.multiply"(%82, %5) : (tensor<32x16x1x128xf32>, tensor<32x16x1x128xf32>) -> tensor<32x16x1x128xf32> loc(#loc88)
        %84 = "ttir.reshape"(%arg11) <{shape = [32 : i32, 2 : i32, 1 : i32, 128 : i32, 128 : i32]}> : (tensor<32x2x128x128xbf16>) -> tensor<32x2x1x128x128xbf16> loc(#loc89)
        %85 = "ttir.broadcast"(%84) <{broadcast_dimensions = array<i64: 1, 1, 8, 1, 1>}> : (tensor<32x2x1x128x128xbf16>) -> tensor<32x2x8x128x128xbf16> loc(#loc89)
        %86 = "ttir.reshape"(%85) <{shape = [32 : i32, 16 : i32, 128 : i32, 128 : i32]}> : (tensor<32x2x8x128x128xbf16>) -> tensor<32x16x128x128xbf16> loc(#loc90)
        %87 = "ttir.typecast"(%86) <{conservative_folding = false}> : (tensor<32x16x128x128xbf16>) -> tensor<32x16x128x128xf32> loc(#loc91)
        %88 = "ttir.permute"(%87) <{permutation = array<i64: 0, 1, 3, 2>}> : (tensor<32x16x128x128xf32>) -> tensor<32x16x128x128xf32> loc(#loc92)
        %89 = "ttir.multiply"(%88, %4) : (tensor<32x16x128x128xf32>, tensor<32x16x128x128xf32>) -> tensor<32x16x128x128xf32> loc(#loc93)
        %90 = "ttir.dot_general"(%83, %89) <{batch_dims_lhs = array<i64: 0, 1>, batch_dims_rhs = array<i64: 0, 1>, contract_dims_lhs = array<i64: 3>, contract_dims_rhs = array<i64: 2>}> : (tensor<32x16x1x128xf32>, tensor<32x16x128x128xf32>) -> tensor<32x16x1x128xf32> loc(#loc94)
        %91 = "ttir.reshape"(%9) <{shape = [1 : i32, 1 : i32, 1 : i32, 1 : i32]}> : (tensor<1x1x1xi64>) -> tensor<1x1x1x1xi64> loc(#loc95)
        %92 = "ttir.broadcast"(%91) <{broadcast_dimensions = array<i64: 1, 1, 1, 128>}> : (tensor<1x1x1x1xi64>) -> tensor<1x1x1x128xi64> loc(#loc95)
        %93 = "ttir.le"(%3, %92) : (tensor<1x1x1x128xi64>, tensor<1x1x1x128xi64>) -> tensor<1x1x1x128xi1> loc(#loc96)
        %94 = "ttir.reshape"(%93) <{shape = [1 : i32, 1 : i32, 128 : i32]}> : (tensor<1x1x1x128xi1>) -> tensor<1x1x128xi1> loc(#loc97)
        %95 = "ttir.reshape"(%94) <{shape = [1 : i32, 1 : i32, 1 : i32, 128 : i32]}> : (tensor<1x1x128xi1>) -> tensor<1x1x1x128xi1> loc(#loc98)
        %96 = "ttir.broadcast"(%95) <{broadcast_dimensions = array<i64: 32, 1, 1, 1>}> : (tensor<1x1x1x128xi1>) -> tensor<32x1x1x128xi1> loc(#loc98)
        %97 = "ttir.where"(%96, %2, %1) : (tensor<32x1x1x128xi1>, tensor<32x1x1x128xbf16>, tensor<32x1x1x128xbf16>) -> tensor<32x1x1x128xbf16> loc(#loc99)
        %98 = "ttir.typecast"(%97) <{conservative_folding = false}> : (tensor<32x1x1x128xbf16>) -> tensor<32x1x1x128xf32> loc(#loc100)
        %99 = "ttir.reshape"(%98) <{shape = [32 : i32, 1 : i32, 128 : i32]}> : (tensor<32x1x1x128xf32>) -> tensor<32x1x128xf32> loc(#loc101)
        %100 = "ttir.reshape"(%99) <{shape = [32 : i32, 1 : i32, 1 : i32, 128 : i32]}> : (tensor<32x1x128xf32>) -> tensor<32x1x1x128xf32> loc(#loc102)
        %101 = "ttir.broadcast"(%100) <{broadcast_dimensions = array<i64: 1, 16, 1, 1>}> : (tensor<32x1x1x128xf32>) -> tensor<32x16x1x128xf32> loc(#loc102)
        %102 = "ttir.add"(%90, %101) : (tensor<32x16x1x128xf32>, tensor<32x16x1x128xf32>) -> tensor<32x16x1x128xf32> loc(#loc103)
        %103 = "ttir.constant"() <{value = dense<0xFF800000> : tensor<32x16x1x128xf32>}> : () -> tensor<32x16x1x128xf32> loc(#loc)
        %104 = "ttir.eq"(%102, %103) : (tensor<32x16x1x128xf32>, tensor<32x16x1x128xf32>) -> tensor<32x16x1x128xi1> loc(#loc104)
        %105 = "ttir.logical_not"(%104) : (tensor<32x16x1x128xi1>) -> tensor<32x16x1x128xi1> loc(#loc105)
        %106 = "ttir.reduce_or"(%105) <{dim_arg = [3 : i32], keep_dim = false}> : (tensor<32x16x1x128xi1>) -> tensor<32x16x1xi1> loc(#loc106)
        %107 = "ttir.reshape"(%106) <{shape = [32 : i32, 16 : i32, 1 : i32, 1 : i32]}> : (tensor<32x16x1xi1>) -> tensor<32x16x1x1xi1> loc(#loc107)
        %108 = "ttir.logical_not"(%107) : (tensor<32x16x1x1xi1>) -> tensor<32x16x1x1xi1> loc(#loc108)
        %109 = "ttir.reshape"(%108) <{shape = [32 : i32, 16 : i32, 1 : i32]}> : (tensor<32x16x1x1xi1>) -> tensor<32x16x1xi1> loc(#loc109)
        %110 = "ttir.reshape"(%109) <{shape = [32 : i32, 16 : i32, 1 : i32, 1 : i32]}> : (tensor<32x16x1xi1>) -> tensor<32x16x1x1xi1> loc(#loc110)
        %111 = "ttir.broadcast"(%110) <{broadcast_dimensions = array<i64: 1, 1, 1, 128>}> : (tensor<32x16x1x1xi1>) -> tensor<32x16x1x128xi1> loc(#loc110)
        %112 = "ttir.max"(%102) <{dim_arg = [3 : i32], keep_dim = false}> : (tensor<32x16x1x128xf32>) -> tensor<32x16x1xf32> loc(#loc111)
        %113 = "ttir.reshape"(%112) <{shape = [32 : i32, 16 : i32, 1 : i32, 1 : i32]}> : (tensor<32x16x1xf32>) -> tensor<32x16x1x1xf32> loc(#loc112)
        %114 = "ttir.broadcast"(%113) <{broadcast_dimensions = array<i64: 1, 1, 1, 128>}> : (tensor<32x16x1x1xf32>) -> tensor<32x16x1x128xf32> loc(#loc112)
        %115 = "ttir.subtract"(%102, %114) : (tensor<32x16x1x128xf32>, tensor<32x16x1x128xf32>) -> tensor<32x16x1x128xf32> loc(#loc113)
        %116 = "ttir.exp"(%115) : (tensor<32x16x1x128xf32>) -> tensor<32x16x1x128xf32> loc(#loc114)
        %117 = "ttir.sum"(%116) <{dim_arg = [3 : i32], keep_dim = false}> : (tensor<32x16x1x128xf32>) -> tensor<32x16x1xf32> loc(#loc115)
        %118 = "ttir.reshape"(%117) <{shape = [32 : i32, 16 : i32, 1 : i32, 1 : i32]}> : (tensor<32x16x1xf32>) -> tensor<32x16x1x1xf32> loc(#loc116)
        %119 = "ttir.broadcast"(%118) <{broadcast_dimensions = array<i64: 1, 1, 1, 128>}> : (tensor<32x16x1x1xf32>) -> tensor<32x16x1x128xf32> loc(#loc116)
        %120 = "ttir.div"(%116, %119) : (tensor<32x16x1x128xf32>, tensor<32x16x1x128xf32>) -> tensor<32x16x1x128xf32> loc(#loc117)
        %121 = "ttir.where"(%111, %0, %120) : (tensor<32x16x1x128xi1>, tensor<32x16x1x128xf32>, tensor<32x16x1x128xf32>) -> tensor<32x16x1x128xf32> loc(#loc118)
        %122 = "ttir.reshape"(%arg7) <{shape = [32 : i32, 2 : i32, 1 : i32, 128 : i32, 128 : i32]}> : (tensor<32x2x128x128xbf16>) -> tensor<32x2x1x128x128xbf16> loc(#loc119)
        %123 = "ttir.broadcast"(%122) <{broadcast_dimensions = array<i64: 1, 1, 8, 1, 1>}> : (tensor<32x2x1x128x128xbf16>) -> tensor<32x2x8x128x128xbf16> loc(#loc119)
        %124 = "ttir.reshape"(%123) <{shape = [32 : i32, 16 : i32, 128 : i32, 128 : i32]}> : (tensor<32x2x8x128x128xbf16>) -> tensor<32x16x128x128xbf16> loc(#loc120)
        %125 = "ttir.typecast"(%124) <{conservative_folding = false}> : (tensor<32x16x128x128xbf16>) -> tensor<32x16x128x128xf32> loc(#loc121)
        %126 = "ttir.dot_general"(%121, %125) <{batch_dims_lhs = array<i64: 0, 1>, batch_dims_rhs = array<i64: 0, 1>, contract_dims_lhs = array<i64: 3>, contract_dims_rhs = array<i64: 2>}> : (tensor<32x16x1x128xf32>, tensor<32x16x128x128xf32>) -> tensor<32x16x1x128xf32> loc(#loc122)
        %127 = "ttir.typecast"(%126) <{conservative_folding = false}> : (tensor<32x16x1x128xf32>) -> tensor<32x16x1x128xbf16> loc(#loc123)
        %128 = "ttir.reshape"(%127) <{shape = [32 : i32, 2048 : i32]}> : (tensor<32x16x1x128xbf16>) -> tensor<32x2048xbf16> loc(#loc124)
        %129 = "ttir.permute"(%arg17) <{permutation = array<i64: 1, 0>}> : (tensor<2048x2048xbf16>) -> tensor<2048x2048xbf16> loc(#loc125)
        %130 = "ttir.dot_general"(%128, %129) <{batch_dims_lhs = array<i64>, batch_dims_rhs = array<i64>, contract_dims_lhs = array<i64: 1>, contract_dims_rhs = array<i64: 0>}> : (tensor<32x2048xbf16>, tensor<2048x2048xbf16>) -> tensor<32x2048xbf16> loc(#loc126)
        %131 = "ttir.reshape"(%130) <{shape = [32 : i32, 1 : i32, 2048 : i32]}> : (tensor<32x2048xbf16>) -> tensor<32x1x2048xbf16> loc(#loc127)
        %132 = "ttir.add"(%24, %131) : (tensor<32x1x2048xbf16>, tensor<32x1x2048xbf16>) -> tensor<32x1x2048xbf16> loc(#loc128)
        %133 = "ttir.rms_norm"(%132, %arg16) <{epsilon = 9.99999997E-7 : f32, normalized_shape = array<i64: 2048>, operandSegmentSizes = array<i32: 1, 1, 0>}> : (tensor<32x1x2048xbf16>, tensor<2048xbf16>) -> tensor<32x1x2048xbf16> loc(#loc129)
        %134 = "ttir.reshape"(%133) <{shape = [32 : i32, 2048 : i32]}> : (tensor<32x1x2048xbf16>) -> tensor<32x2048xbf16> loc(#loc130)
        %135 = "ttir.permute"(%arg20) <{permutation = array<i64: 1, 0>}> : (tensor<11008x2048xbf16>) -> tensor<2048x11008xbf16> loc(#loc131)
        %136 = "ttir.dot_general"(%134, %135) <{batch_dims_lhs = array<i64>, batch_dims_rhs = array<i64>, contract_dims_lhs = array<i64: 1>, contract_dims_rhs = array<i64: 0>}> : (tensor<32x2048xbf16>, tensor<2048x11008xbf16>) -> tensor<32x11008xbf16> loc(#loc132)
        %137 = "ttir.reshape"(%136) <{shape = [32 : i32, 1 : i32, 11008 : i32]}> : (tensor<32x11008xbf16>) -> tensor<32x1x11008xbf16> loc(#loc133)
        %138 = "ttir.typecast"(%137) <{conservative_folding = false}> : (tensor<32x1x11008xbf16>) -> tensor<32x1x11008xf32> loc(#loc134)
        %139 = "ttir.sigmoid"(%138) : (tensor<32x1x11008xf32>) -> tensor<32x1x11008xf32> loc(#loc135)
        %140 = "ttir.multiply"(%138, %139) : (tensor<32x1x11008xf32>, tensor<32x1x11008xf32>) -> tensor<32x1x11008xf32> loc(#loc136)
        %141 = "ttir.typecast"(%140) <{conservative_folding = false}> : (tensor<32x1x11008xf32>) -> tensor<32x1x11008xbf16> loc(#loc137)
        %142 = "ttir.permute"(%arg15) <{permutation = array<i64: 1, 0>}> : (tensor<11008x2048xbf16>) -> tensor<2048x11008xbf16> loc(#loc138)
        %143 = "ttir.dot_general"(%134, %142) <{batch_dims_lhs = array<i64>, batch_dims_rhs = array<i64>, contract_dims_lhs = array<i64: 1>, contract_dims_rhs = array<i64: 0>}> : (tensor<32x2048xbf16>, tensor<2048x11008xbf16>) -> tensor<32x11008xbf16> loc(#loc139)
        %144 = "ttir.reshape"(%143) <{shape = [32 : i32, 1 : i32, 11008 : i32]}> : (tensor<32x11008xbf16>) -> tensor<32x1x11008xbf16> loc(#loc140)
        %145 = "ttir.multiply"(%141, %144) : (tensor<32x1x11008xbf16>, tensor<32x1x11008xbf16>) -> tensor<32x1x11008xbf16> loc(#loc141)
        %146 = "ttir.reshape"(%145) <{shape = [32 : i32, 11008 : i32]}> : (tensor<32x1x11008xbf16>) -> tensor<32x11008xbf16> loc(#loc142)
        %147 = "ttir.permute"(%arg14) <{permutation = array<i64: 1, 0>}> : (tensor<2048x11008xbf16>) -> tensor<11008x2048xbf16> loc(#loc143)
        %148 = "ttir.dot_general"(%146, %147) <{batch_dims_lhs = array<i64>, batch_dims_rhs = array<i64>, contract_dims_lhs = array<i64: 1>, contract_dims_rhs = array<i64: 0>}> : (tensor<32x11008xbf16>, tensor<11008x2048xbf16>) -> tensor<32x2048xbf16> loc(#loc144)
        %149 = "ttir.reshape"(%148) <{shape = [32 : i32, 1 : i32, 2048 : i32]}> : (tensor<32x2048xbf16>) -> tensor<32x1x2048xbf16> loc(#loc145)
        %150 = "ttir.add"(%132, %149) : (tensor<32x1x2048xbf16>, tensor<32x1x2048xbf16>) -> tensor<32x1x2048xbf16> loc(#loc146)
        %151 = "ttir.rms_norm"(%150, %arg13) <{epsilon = 9.99999997E-7 : f32, normalized_shape = array<i64: 2048>, operandSegmentSizes = array<i32: 1, 1, 0>}> : (tensor<32x1x2048xbf16>, tensor<2048xbf16>) -> tensor<32x1x2048xbf16> loc(#loc147)
        %152 = "ttir.reshape"(%151) <{shape = [32 : i32, 2048 : i32]}> : (tensor<32x1x2048xbf16>) -> tensor<32x2048xbf16> loc(#loc148)
        %153 = "ttir.permute"(%arg12) <{permutation = array<i64: 1, 0>}> : (tensor<151936x2048xbf16>) -> tensor<2048x151936xbf16> loc(#loc149)
        %154 = "ttir.dot_general"(%152, %153) <{batch_dims_lhs = array<i64>, batch_dims_rhs = array<i64>, contract_dims_lhs = array<i64: 1>, contract_dims_rhs = array<i64: 0>}> : (tensor<32x2048xbf16>, tensor<2048x151936xbf16>) -> tensor<32x151936xbf16> loc(#loc150)
        %155 = "ttir.reshape"(%154) <{shape = [32 : i32, 1 : i32, 151936 : i32]}> : (tensor<32x151936xbf16>) -> tensor<32x1x151936xbf16> loc(#loc151)
        %156 = "ttir.arange"() <{arange_dimension = 0 : i64, end = 151936 : si64, start = 0 : si64, step = 1 : si64}> : () -> tensor<151936xi32> loc(#loc152)
        %157 = "ttir.reshape"(%156) <{shape = [1 : i32, 151936 : i32]}> : (tensor<151936xi32>) -> tensor<1x151936xi32> loc(#loc152)
        %158 = "ttir.argmax"(%154) <{dim_arg = [1 : i32], keep_dim = false}> : (tensor<32x151936xbf16>) -> tensor<32xi32> loc(#loc153)
        %159 = "ttir.typecast"(%158) <{conservative_folding = false}> : (tensor<32xi32>) -> tensor<32xi64> loc(#loc154)
        %160 = "ttir.reshape"(%159) <{shape = [32 : i32, 1 : i32]}> : (tensor<32xi64>) -> tensor<32x1xi64> loc(#loc155)
        return %10, %12, %arg7, %arg11, %155, %160 : tensor<1xi64>, tensor<1xi64>, tensor<32x2x128x128xbf16>, tensor<32x2x128x128xbf16>, tensor<32x1x151936xbf16>, tensor<32x1xi64> loc(#loc)
      } loc(#loc)
    } loc(#loc)
  } loc(#loc)
} loc(#loc)
#loc = loc(unknown)
#loc22 = loc("reshape.4")
#loc23 = loc("add.9")
#loc24 = loc("reshape.13")
#loc25 = loc("add.19")
#loc26 = loc("compare.113")
#loc27 = loc("add.110")
#loc28 = loc("select.114")
#loc29 = loc("reshape.49")
#loc30 = loc("reshape.46")
#loc31 = loc("convert.57")
#loc32 = loc("gather.58")
#loc33 = loc("reshape.59")
#loc34 = loc("custom-call.92")
#loc35 = loc("reshape.93")
#loc36 = loc("transpose.32")
#loc37 = loc("dot.94")
#loc38 = loc("reshape.95")
#loc39 = loc("broadcast.98")
#loc40 = loc("add.99")
#loc41 = loc("transpose.101")
#loc42 = loc("scatter.123")
#loc43 = loc("transpose.160")
#loc44 = loc("dot.162")
#loc45 = loc("reshape.163")
#loc46 = loc("broadcast.166")
#loc47 = loc("add.167")
#loc48 = loc("transpose.169")
#loc49 = loc("reshape.136")
#loc50 = loc("reshape.132")
#loc51 = loc("convert.137")
#loc52 = loc("convert.129")
#loc53 = loc("dot.140")
#loc54 = loc("transpose.141")
#loc55 = loc("concatenate.142")
#loc56 = loc("cosine.178")
#loc57 = loc("convert.181")
#loc58 = loc("reshape.183")
#loc59 = loc("broadcast.184")
#loc60 = loc("multiply.185")
#loc61 = loc("slice.171")
#loc62 = loc("negate.172")
#loc63 = loc("slice.170")
#loc64 = loc("concatenate.173")
#loc65 = loc("sine.143")
#loc66 = loc("convert.146")
#loc67 = loc("reshape.174")
#loc68 = loc("broadcast.175")
#loc69 = loc("multiply.176")
#loc70 = loc("add.188")
#loc71 = loc("scatter.205")
#loc72 = loc("transpose.335")
#loc73 = loc("dot.337")
#loc74 = loc("reshape.338")
#loc75 = loc("broadcast.341")
#loc76 = loc("add.342")
#loc77 = loc("transpose.344")
#loc78 = loc("broadcast.353")
#loc79 = loc("multiply.354")
#loc80 = loc("slice.346")
#loc81 = loc("negate.347")
#loc82 = loc("slice.345")
#loc83 = loc("concatenate.348")
#loc84 = loc("broadcast.350")
#loc85 = loc("multiply.351")
#loc86 = loc("add.357")
#loc87 = loc("convert.358")
#loc88 = loc("multiply.360")
#loc89 = loc("broadcast.314")
#loc90 = loc("reshape.315")
#loc91 = loc("convert.316")
#loc92 = loc("transpose.317")
#loc93 = loc("multiply.319")
#loc94 = loc("dot.362")
#loc95 = loc("broadcast.303")
#loc96 = loc("compare.304")
#loc97 = loc("reshape.306")
#loc98 = loc("broadcast.307")
#loc99 = loc("select.309")
#loc100 = loc("convert.364")
#loc101 = loc("reshape.367")
#loc102 = loc("broadcast.368")
#loc103 = loc("add.369")
#loc104 = loc("compare.397")
#loc105 = loc("not.399")
#loc106 = loc("reduce.411")
#loc107 = loc("reshape.415")
#loc108 = loc("not.417")
#loc109 = loc("reshape.419")
#loc110 = loc("broadcast.420")
#loc111 = loc("reduce.375")
#loc112 = loc("broadcast.376")
#loc113 = loc("subtract.377")
#loc114 = loc("exponential.378")
#loc115 = loc("reduce.384")
#loc116 = loc("broadcast.385")
#loc117 = loc("divide.386")
#loc118 = loc("select.421")
#loc119 = loc("broadcast.268")
#loc120 = loc("reshape.269")
#loc121 = loc("convert.270")
#loc122 = loc("dot.423")
#loc123 = loc("convert.425")
#loc124 = loc("reshape.428")
#loc125 = loc("transpose.264")
#loc126 = loc("dot.429")
#loc127 = loc("reshape.430")
#loc128 = loc("add.433")
#loc129 = loc("custom-call.466")
#loc130 = loc("reshape.478")
#loc131 = loc("transpose.477")
#loc132 = loc("dot.479")
#loc133 = loc("reshape.480")
#loc134 = loc("convert.481")
#loc135 = loc("logistic.482")
#loc136 = loc("multiply.483")
#loc137 = loc("convert.484")
#loc138 = loc("transpose.243")
#loc139 = loc("dot.468")
#loc140 = loc("reshape.469")
#loc141 = loc("multiply.485")
#loc142 = loc("reshape.486")
#loc143 = loc("transpose.235")
#loc144 = loc("dot.487")
#loc145 = loc("reshape.488")
#loc146 = loc("add.491")
#loc147 = loc("custom-call.524")
#loc148 = loc("reshape.525")
#loc149 = loc("transpose.214")
#loc150 = loc("dot.526")
#loc151 = loc("reshape.527")
#loc152 = loc("iota.532")
#loc153 = loc("reduce.557")
#loc154 = loc("convert.559")
#loc155 = loc("reshape.560")
#loc156 = loc(fused[#loc29, #loc30])
#loc157 = loc("gather.58_permuteInput"(#loc32))
#loc158 = loc("gather.58_reshapeInput"(#loc32))
#loc159 = loc("gather.58_reshapeStartIndices"(#loc32))
#loc160 = loc("gather.58_reshapeOutput"(#loc32))
#loc161 = loc("gather.58_permuteOutput"(#loc32))
#loc162 = loc(fused[#loc49, #loc50])
