#loc1 = loc("p0.1")
#loc2 = loc("p1.9")
#loc3 = loc("p2.14")
#loc4 = loc("p3.50")
#loc5 = loc("p4.69")
#loc6 = loc("p5.89")
#loc7 = loc("p6.127")
#loc8 = loc("p7.158")
#loc9 = loc("p8.163")
#loc10 = loc("p9.172")
#loc11 = loc("p10.234")
#loc12 = loc("p11.246")
#loc13 = loc("p12.282")
#loc14 = loc("p13.320")
#loc15 = loc("p14.443")
#loc16 = loc("p15.452")
#loc17 = loc("p16.500")
module @SyncTensorsGraph.507 attributes {mhlo.cross_program_prefetches = [], mhlo.input_output_alias = [], mhlo.is_dynamic = false, mhlo.use_auto_spmd_partitioning = false, ttcore.meshes = #ttcore.meshes<[<"mesh" = 1x1>]>} {
  ttcore.device_module {
    builtin.module @SyncTensorsGraph.507 attributes {mhlo.cross_program_prefetches = [], mhlo.input_output_alias = [], mhlo.is_dynamic = false, mhlo.use_auto_spmd_partitioning = false, ttcore.meshes = #ttcore.meshes<[<"mesh" = 1x1>]>} {
      func.func @main(%arg0: tensor<1024x2560xbf16> {ttcore.argument_type = #ttcore.argument_type<parameter>, ttcore.shard_status = #ttcore.shard_status<unsharded>, ttir.name = "l__self___layers__modules__0___self_attn_v_proj_weight"} loc("p0.1"), %arg1: tensor<32x18xi64> {ttcore.argument_type = #ttcore.argument_type<input>, ttcore.shard_status = #ttcore.shard_status<unsharded>, ttir.name = "args_0"} loc("p1.9"), %arg2: tensor<151665x2560xbf16> {ttcore.argument_type = #ttcore.argument_type<parameter>, ttcore.shard_status = #ttcore.shard_status<unsharded>, ttir.name = "l__self___embed_tokens_weight"} loc("p2.14"), %arg3: tensor<2560xbf16> {ttcore.argument_type = #ttcore.argument_type<parameter>, ttcore.shard_status = #ttcore.shard_status<unsharded>, ttir.name = "l__self___layers__modules__0___input_layernorm_weight"} loc("p3.50"), %arg4: tensor<64xbf16> {ttcore.argument_type = #ttcore.argument_type<constant>, ttcore.shard_status = #ttcore.shard_status<unsharded>, ttir.name = "l__self___rotary_emb_inv_freq"} loc("p4.69"), %arg5: tensor<1024x2560xbf16> {ttcore.argument_type = #ttcore.argument_type<parameter>, ttcore.shard_status = #ttcore.shard_status<unsharded>, ttir.name = "l__self___layers__modules__0___self_attn_k_proj_weight"} loc("p5.89"), %arg6: tensor<128xbf16> {ttcore.argument_type = #ttcore.argument_type<parameter>, ttcore.shard_status = #ttcore.shard_status<unsharded>, ttir.name = "l__self___layers__modules__0___self_attn_k_norm_weight"} loc("p6.127"), %arg7: tensor<2560x9728xbf16> {ttcore.argument_type = #ttcore.argument_type<parameter>, ttcore.shard_status = #ttcore.shard_status<unsharded>, ttir.name = "l__self___layers__modules__0___mlp_down_proj_weight"} loc("p7.158"), %arg8: tensor<9728x2560xbf16> {ttcore.argument_type = #ttcore.argument_type<parameter>, ttcore.shard_status = #ttcore.shard_status<unsharded>, ttir.name = "l__self___layers__modules__0___mlp_up_proj_weight"} loc("p8.163"), %arg9: tensor<2560x4096xbf16> {ttcore.argument_type = #ttcore.argument_type<parameter>, ttcore.shard_status = #ttcore.shard_status<unsharded>, ttir.name = "l__self___layers__modules__0___self_attn_o_proj_weight"} loc("p9.172"), %arg10: tensor<32x18xi64> {ttcore.argument_type = #ttcore.argument_type<input>, ttcore.shard_status = #ttcore.shard_status<unsharded>, ttir.name = "args_1"} loc("p10.234"), %arg11: tensor<i1> {ttcore.argument_type = #ttcore.argument_type<input>, ttcore.shard_status = #ttcore.shard_status<unsharded>} loc("p11.246"), %arg12: tensor<4096x2560xbf16> {ttcore.argument_type = #ttcore.argument_type<parameter>, ttcore.shard_status = #ttcore.shard_status<unsharded>, ttir.name = "l__self___layers__modules__0___self_attn_q_proj_weight"} loc("p12.282"), %arg13: tensor<128xbf16> {ttcore.argument_type = #ttcore.argument_type<parameter>, ttcore.shard_status = #ttcore.shard_status<unsharded>, ttir.name = "l__self___layers__modules__0___self_attn_q_norm_weight"} loc("p13.320"), %arg14: tensor<2560xbf16> {ttcore.argument_type = #ttcore.argument_type<parameter>, ttcore.shard_status = #ttcore.shard_status<unsharded>, ttir.name = "l__self___layers__modules__0___post_attention_layernorm_weight"} loc("p14.443"), %arg15: tensor<9728x2560xbf16> {ttcore.argument_type = #ttcore.argument_type<parameter>, ttcore.shard_status = #ttcore.shard_status<unsharded>, ttir.name = "l__self___layers__modules__0___mlp_gate_proj_weight"} loc("p15.452"), %arg16: tensor<2560xbf16> {ttcore.argument_type = #ttcore.argument_type<parameter>, ttcore.shard_status = #ttcore.shard_status<unsharded>, ttir.name = "l__self___norm_weight"} loc("p16.500")) -> (tensor<32x8x18x128xbf16> {ttcore.shard_status = #ttcore.shard_status<unsharded>}, tensor<32x8x18x128xbf16> {ttcore.shard_status = #ttcore.shard_status<unsharded>}, tensor<32x18x2560xbf16> {ttcore.shard_status = #ttcore.shard_status<unsharded>}) {
        %0 = "ttir.constant"() <{value = dense<0.000000e+00> : tensor<32x32x18x18xf32>}> : () -> tensor<32x32x18x18xf32> loc(#loc)
        %1 = "ttir.constant"() <{value = dense<0xFFF0000000000000> : tensor<32x32x18x18xf64>}> : () -> tensor<32x32x18x18xf64> loc(#loc)
        %2 = "ttir.constant"() <{value = dense<0xFF80> : tensor<32x1x18x18xbf16>}> : () -> tensor<32x1x18x18xbf16> loc(#loc)
        %3 = "ttir.constant"() <{value = dense<0.000000e+00> : tensor<32x1x18x18xbf16>}> : () -> tensor<32x1x18x18xbf16> loc(#loc)
        %4 = "ttir.constant"() <{value = dense<18> : tensor<32x18xi64>}> : () -> tensor<32x18xi64> loc(#loc)
        %5 = "ttir.constant"() <{value = dense<32> : tensor<32x18xi64>}> : () -> tensor<32x18xi64> loc(#loc)
        %6 = "ttir.constant"() <{value = dense<0.297301769> : tensor<32x32x128x18xf32>}> : () -> tensor<32x32x128x18xf32> loc(#loc)
        %7 = "ttir.constant"() <{value = dense<0.297301769> : tensor<32x32x18x128xf32>}> : () -> tensor<32x32x18x128xf32> loc(#loc)
        %8 = "ttir.constant"() <{value = dense<9.99999997E-7> : tensor<32x18x32x1xf32>}> : () -> tensor<32x18x32x1xf32> loc(#loc)
        %9 = "ttir.constant"() <{value = dense<7.812500e-03> : tensor<32x18x32xf32>}> : () -> tensor<32x18x32xf32> loc(#loc)
        %10 = "ttir.constant"() <{value = dense<2.000000e+00> : tensor<32x18x32x128xf32>}> : () -> tensor<32x18x32x128xf32> loc(#loc)
        %11 = "ttir.constant"() <{value = dense<[[[… > : tensor<1x1x18xf32>}> : () -> tensor<1x1x18xf32> loc(#loc)
        %12 = "ttir.constant"() <{value = dense<9.99999997E-7> : tensor<32x18x8x1xf32>}> : () -> tensor<32x18x8x1xf32> loc(#loc)
        %13 = "ttir.constant"() <{value = dense<7.812500e-03> : tensor<32x18x8xf32>}> : () -> tensor<32x18x8xf32> loc(#loc)
        %14 = "ttir.constant"() <{value = dense<2.000000e+00> : tensor<32x18x8x128xf32>}> : () -> tensor<32x18x8x128xf32> loc(#loc)
        %15 = "ttir.constant"() <{value = dense<9.99999997E-7> : tensor<32x18x1xf32>}> : () -> tensor<32x18x1xf32> loc(#loc)
        %16 = "ttir.constant"() <{value = dense<3.906250e-04> : tensor<32x18xf32>}> : () -> tensor<32x18xf32> loc(#loc)
        %17 = "ttir.constant"() <{value = dense<2.000000e+00> : tensor<32x18x2560xf32>}> : () -> tensor<32x18x2560xf32> loc(#loc)
        %18 = "ttir.constant"() <{value = dense<[0, 1, 2, 3, 4, 5, 6, 7, 8, 9, 10, 11, 12, 13, 14, 15, 16, 17, 18, 19, 20, 21, 22, 23, 24, 25, 26, 27, 28, 29, 30, 31]> : tensor<32xi64>}> : () -> tensor<32xi64> loc(#loc)
        %19 = "ttir.constant"() <{value = dense<0> : tensor<32x18xi64>}> : () -> tensor<32x18xi64> loc(#loc)
        %20 = "ttir.constant"() <{value = dense<[0, 1, 2, 3, 4, 5, 6, 7, 8, 9, 10, 11, 12, 13, 14, 15, 16, 17]> : tensor<18xi64>}> : () -> tensor<18xi64> loc(#loc)
        %21 = "ttir.reshape"(%arg3) <{shape = [1 : i32, 1 : i32, 2560 : i32]}> : (tensor<2560xbf16>) -> tensor<1x1x2560xbf16> loc(#loc18)
        %22 = "ttir.reshape"(%21) <{shape = [2560 : i32]}> : (tensor<1x1x2560xbf16>) -> tensor<2560xbf16> loc(#loc19)
        %23 = "ttir.reshape"(%22) <{shape = [1 : i32, 1 : i32, 2560 : i32]}> : (tensor<2560xbf16>) -> tensor<1x1x2560xbf16> loc(#loc20)
        %24 = "ttir.broadcast"(%23) <{broadcast_dimensions = array<i64: 32, 18, 1>}> : (tensor<1x1x2560xbf16>) -> tensor<32x18x2560xbf16> loc(#loc20)
        %25 = "ttir.reshape"(%arg2) <{shape = [1 : i32, 151665 : i32, 2560 : i32]}> : (tensor<151665x2560xbf16>) -> tensor<1x151665x2560xbf16> loc(#loc21)
        %26 = "ttir.reshape"(%25) <{shape = [151665 : i32, 2560 : i32]}> : (tensor<1x151665x2560xbf16>) -> tensor<151665x2560xbf16> loc(#loc22)
        %27 = "ttir.reshape"(%arg1) <{shape = [1 : i32, 32 : i32, 18 : i32]}> : (tensor<32x18xi64>) -> tensor<1x32x18xi64> loc(#loc23)
        %28 = "ttir.reshape"(%27) <{shape = [576 : i32]}> : (tensor<1x32x18xi64>) -> tensor<576xi64> loc(#loc24)
        %29 = "ttir.typecast"(%28) <{conservative_folding = false}> : (tensor<576xi64>) -> tensor<576xui32> loc(#loc25)
        %30 = "ttir.gather"(%26, %29) <{collapsed_slice_dims = array<i64: 0>, index_vector_dim = 1 : si64, indices_are_sorted = false, offset_dims = array<i64: 1>, operand_batching_dims = array<i64>, slice_sizes = array<i64: 1, 2560>, start_index_map = array<i64: 0>, start_indices_batching_dims = array<i64>}> : (tensor<151665x2560xbf16>, tensor<576xui32>) -> tensor<576x2560xbf16> loc(#loc26)
        %31 = "ttir.reshape"(%30) <{shape = [32 : i32, 18 : i32, 2560 : i32]}> : (tensor<576x2560xbf16>) -> tensor<32x18x2560xbf16> loc(#loc27)
        %32 = "ttir.typecast"(%31) <{conservative_folding = false}> : (tensor<32x18x2560xbf16>) -> tensor<32x18x2560xf32> loc(#loc28)
        %33 = "ttir.pow"(%32, %17) : (tensor<32x18x2560xf32>, tensor<32x18x2560xf32>) -> tensor<32x18x2560xf32> loc(#loc29)
        %34 = "ttir.sum"(%33) <{dim_arg = [2 : i32], keep_dim = false}> : (tensor<32x18x2560xf32>) -> tensor<32x18xf32> loc(#loc30)
        %35 = "ttir.multiply"(%34, %16) : (tensor<32x18xf32>, tensor<32x18xf32>) -> tensor<32x18xf32> loc(#loc31)
        %36 = "ttir.reshape"(%35) <{shape = [32 : i32, 18 : i32, 1 : i32]}> : (tensor<32x18xf32>) -> tensor<32x18x1xf32> loc(#loc32)
        %37 = "ttir.add"(%36, %15) : (tensor<32x18x1xf32>, tensor<32x18x1xf32>) -> tensor<32x18x1xf32> loc(#loc33)
        %38 = "ttir.rsqrt"(%37) : (tensor<32x18x1xf32>) -> tensor<32x18x1xf32> loc(#loc34)
        %39 = "ttir.reshape"(%38) <{shape = [32 : i32, 18 : i32]}> : (tensor<32x18x1xf32>) -> tensor<32x18xf32> loc(#loc35)
        %40 = "ttir.reshape"(%39) <{shape = [32 : i32, 18 : i32, 1 : i32]}> : (tensor<32x18xf32>) -> tensor<32x18x1xf32> loc(#loc36)
        %41 = "ttir.broadcast"(%40) <{broadcast_dimensions = array<i64: 1, 1, 2560>}> : (tensor<32x18x1xf32>) -> tensor<32x18x2560xf32> loc(#loc36)
        %42 = "ttir.multiply"(%32, %41) : (tensor<32x18x2560xf32>, tensor<32x18x2560xf32>) -> tensor<32x18x2560xf32> loc(#loc37)
        %43 = "ttir.typecast"(%42) <{conservative_folding = false}> : (tensor<32x18x2560xf32>) -> tensor<32x18x2560xbf16> loc(#loc38)
        %44 = "ttir.multiply"(%24, %43) : (tensor<32x18x2560xbf16>, tensor<32x18x2560xbf16>) -> tensor<32x18x2560xbf16> loc(#loc39)
        %45 = "ttir.reshape"(%44) <{shape = [576 : i32, 2560 : i32]}> : (tensor<32x18x2560xbf16>) -> tensor<576x2560xbf16> loc(#loc40)
        %46 = "ttir.reshape"(%arg0) <{shape = [1 : i32, 1024 : i32, 2560 : i32]}> : (tensor<1024x2560xbf16>) -> tensor<1x1024x2560xbf16> loc(#loc41)
        %47 = "ttir.reshape"(%46) <{shape = [1024 : i32, 2560 : i32]}> : (tensor<1x1024x2560xbf16>) -> tensor<1024x2560xbf16> loc(#loc42)
        %48 = "ttir.permute"(%47) <{permutation = array<i64: 1, 0>}> : (tensor<1024x2560xbf16>) -> tensor<2560x1024xbf16> loc(#loc43)
        %49 = "ttir.dot_general"(%45, %48) <{batch_dims_lhs = array<i64>, batch_dims_rhs = array<i64>, contract_dims_lhs = array<i64: 1>, contract_dims_rhs = array<i64: 0>}> : (tensor<576x2560xbf16>, tensor<2560x1024xbf16>) -> tensor<576x1024xbf16> loc(#loc44)
        %50 = "ttir.reshape"(%49) <{shape = [32 : i32, 18 : i32, 8 : i32, 128 : i32]}> : (tensor<576x1024xbf16>) -> tensor<32x18x8x128xbf16> loc(#loc45)
        %51 = "ttir.permute"(%50) <{permutation = array<i64: 0, 2, 1, 3>}> : (tensor<32x18x8x128xbf16>) -> tensor<32x8x18x128xbf16> loc(#loc46)
        %52 = "ttir.reshape"(%arg6) <{shape = [1 : i32, 1 : i32, 128 : i32]}> : (tensor<128xbf16>) -> tensor<1x1x128xbf16> loc(#loc47)
        %53 = "ttir.reshape"(%52) <{shape = [128 : i32]}> : (tensor<1x1x128xbf16>) -> tensor<128xbf16> loc(#loc48)
        %54 = "ttir.reshape"(%53) <{shape = [1 : i32, 1 : i32, 1 : i32, 128 : i32]}> : (tensor<128xbf16>) -> tensor<1x1x1x128xbf16> loc(#loc49)
        %55 = "ttir.broadcast"(%54) <{broadcast_dimensions = array<i64: 32, 18, 8, 1>}> : (tensor<1x1x1x128xbf16>) -> tensor<32x18x8x128xbf16> loc(#loc49)
        %56 = "ttir.reshape"(%arg5) <{shape = [1 : i32, 1024 : i32, 2560 : i32]}> : (tensor<1024x2560xbf16>) -> tensor<1x1024x2560xbf16> loc(#loc50)
        %57 = "ttir.reshape"(%56) <{shape = [1024 : i32, 2560 : i32]}> : (tensor<1x1024x2560xbf16>) -> tensor<1024x2560xbf16> loc(#loc51)
        %58 = "ttir.permute"(%57) <{permutation = array<i64: 1, 0>}> : (tensor<1024x2560xbf16>) -> tensor<2560x1024xbf16> loc(#loc52)
        %59 = "ttir.dot_general"(%45, %58) <{batch_dims_lhs = array<i64>, batch_dims_rhs = array<i64>, contract_dims_lhs = array<i64: 1>, contract_dims_rhs = array<i64: 0>}> : (tensor<576x2560xbf16>, tensor<2560x1024xbf16>) -> tensor<576x1024xbf16> loc(#loc53)
        %60 = "ttir.reshape"(%59) <{shape = [32 : i32, 18 : i32, 8 : i32, 128 : i32]}> : (tensor<576x1024xbf16>) -> tensor<32x18x8x128xbf16> loc(#loc54)
        %61 = "ttir.typecast"(%60) <{conservative_folding = false}> : (tensor<32x18x8x128xbf16>) -> tensor<32x18x8x128xf32> loc(#loc55)
        %62 = "ttir.pow"(%61, %14) : (tensor<32x18x8x128xf32>, tensor<32x18x8x128xf32>) -> tensor<32x18x8x128xf32> loc(#loc56)
        %63 = "ttir.sum"(%62) <{dim_arg = [3 : i32], keep_dim = false}> : (tensor<32x18x8x128xf32>) -> tensor<32x18x8xf32> loc(#loc57)
        %64 = "ttir.multiply"(%63, %13) : (tensor<32x18x8xf32>, tensor<32x18x8xf32>) -> tensor<32x18x8xf32> loc(#loc58)
        %65 = "ttir.reshape"(%64) <{shape = [32 : i32, 18 : i32, 8 : i32, 1 : i32]}> : (tensor<32x18x8xf32>) -> tensor<32x18x8x1xf32> loc(#loc59)
        %66 = "ttir.add"(%65, %12) : (tensor<32x18x8x1xf32>, tensor<32x18x8x1xf32>) -> tensor<32x18x8x1xf32> loc(#loc60)
        %67 = "ttir.rsqrt"(%66) : (tensor<32x18x8x1xf32>) -> tensor<32x18x8x1xf32> loc(#loc61)
        %68 = "ttir.reshape"(%67) <{shape = [32 : i32, 18 : i32, 8 : i32]}> : (tensor<32x18x8x1xf32>) -> tensor<32x18x8xf32> loc(#loc62)
        %69 = "ttir.reshape"(%68) <{shape = [32 : i32, 18 : i32, 8 : i32, 1 : i32]}> : (tensor<32x18x8xf32>) -> tensor<32x18x8x1xf32> loc(#loc63)
        %70 = "ttir.broadcast"(%69) <{broadcast_dimensions = array<i64: 1, 1, 1, 128>}> : (tensor<32x18x8x1xf32>) -> tensor<32x18x8x128xf32> loc(#loc63)
        %71 = "ttir.multiply"(%61, %70) : (tensor<32x18x8x128xf32>, tensor<32x18x8x128xf32>) -> tensor<32x18x8x128xf32> loc(#loc64)
        %72 = "ttir.typecast"(%71) <{conservative_folding = false}> : (tensor<32x18x8x128xf32>) -> tensor<32x18x8x128xbf16> loc(#loc65)
        %73 = "ttir.multiply"(%55, %72) : (tensor<32x18x8x128xbf16>, tensor<32x18x8x128xbf16>) -> tensor<32x18x8x128xbf16> loc(#loc66)
        %74 = "ttir.permute"(%73) <{permutation = array<i64: 0, 2, 1, 3>}> : (tensor<32x18x8x128xbf16>) -> tensor<32x8x18x128xbf16> loc(#loc67)
        %75 = "ttir.reshape"(%arg4) <{shape = [1 : i32, 1 : i32, 64 : i32]}> : (tensor<64xbf16>) -> tensor<1x1x64xbf16> loc(#loc68)
        %76 = "ttir.reshape"(%75) <{shape = [1 : i32, 64 : i32, 1 : i32]}> : (tensor<1x1x64xbf16>) -> tensor<1x64x1xbf16> loc(#loc69)
        %77 = "ttir.typecast"(%76) <{conservative_folding = false}> : (tensor<1x64x1xbf16>) -> tensor<1x64x1xf32> loc(#loc70)
        %78 = "ttir.dot_general"(%77, %11) <{batch_dims_lhs = array<i64: 0>, batch_dims_rhs = array<i64: 0>, contract_dims_lhs = array<i64: 2>, contract_dims_rhs = array<i64: 1>}> : (tensor<1x64x1xf32>, tensor<1x1x18xf32>) -> tensor<1x64x18xf32> loc(#loc71)
        %79 = "ttir.permute"(%78) <{permutation = array<i64: 0, 2, 1>}> : (tensor<1x64x18xf32>) -> tensor<1x18x64xf32> loc(#loc72)
        %80 = "ttir.concat"(%79, %79) <{dim = 2 : si32}> : (tensor<1x18x64xf32>, tensor<1x18x64xf32>) -> tensor<1x18x128xf32> loc(#loc73)
        %81 = "ttir.cos"(%80) : (tensor<1x18x128xf32>) -> tensor<1x18x128xf32> loc(#loc74)
        %82 = "ttir.typecast"(%81) <{conservative_folding = false}> : (tensor<1x18x128xf32>) -> tensor<1x18x128xbf16> loc(#loc75)
        %83 = "ttir.reshape"(%82) <{shape = [18 : i32, 128 : i32]}> : (tensor<1x18x128xbf16>) -> tensor<18x128xbf16> loc(#loc76)
        %84 = "ttir.reshape"(%83) <{shape = [1 : i32, 1 : i32, 18 : i32, 128 : i32]}> : (tensor<18x128xbf16>) -> tensor<1x1x18x128xbf16> loc(#loc77)
        %85 = "ttir.broadcast"(%84) <{broadcast_dimensions = array<i64: 32, 8, 1, 1>}> : (tensor<1x1x18x128xbf16>) -> tensor<32x8x18x128xbf16> loc(#loc77)
        %86 = "ttir.multiply"(%74, %85) : (tensor<32x8x18x128xbf16>, tensor<32x8x18x128xbf16>) -> tensor<32x8x18x128xbf16> loc(#loc78)
        %87 = "ttir.slice_static"(%74) <{begins = [0 : i32, 0 : i32, 0 : i32, 64 : i32], ends = [32 : i32, 8 : i32, 18 : i32, 128 : i32], step = [1 : i32, 1 : i32, 1 : i32, 1 : i32]}> : (tensor<32x8x18x128xbf16>) -> tensor<32x8x18x64xbf16> loc(#loc79)
        %88 = "ttir.neg"(%87) : (tensor<32x8x18x64xbf16>) -> tensor<32x8x18x64xbf16> loc(#loc80)
        %89 = "ttir.slice_static"(%74) <{begins = [0 : i32, 0 : i32, 0 : i32, 0 : i32], ends = [32 : i32, 8 : i32, 18 : i32, 64 : i32], step = [1 : i32, 1 : i32, 1 : i32, 1 : i32]}> : (tensor<32x8x18x128xbf16>) -> tensor<32x8x18x64xbf16> loc(#loc81)
        %90 = "ttir.concat"(%88, %89) <{dim = 3 : si32}> : (tensor<32x8x18x64xbf16>, tensor<32x8x18x64xbf16>) -> tensor<32x8x18x128xbf16> loc(#loc82)
        %91 = "ttir.sin"(%80) : (tensor<1x18x128xf32>) -> tensor<1x18x128xf32> loc(#loc83)
        %92 = "ttir.typecast"(%91) <{conservative_folding = false}> : (tensor<1x18x128xf32>) -> tensor<1x18x128xbf16> loc(#loc84)
        %93 = "ttir.reshape"(%92) <{shape = [18 : i32, 128 : i32]}> : (tensor<1x18x128xbf16>) -> tensor<18x128xbf16> loc(#loc85)
        %94 = "ttir.reshape"(%93) <{shape = [1 : i32, 1 : i32, 18 : i32, 128 : i32]}> : (tensor<18x128xbf16>) -> tensor<1x1x18x128xbf16> loc(#loc86)
        %95 = "ttir.broadcast"(%94) <{broadcast_dimensions = array<i64: 32, 8, 1, 1>}> : (tensor<1x1x18x128xbf16>) -> tensor<32x8x18x128xbf16> loc(#loc86)
        %96 = "ttir.multiply"(%90, %95) : (tensor<32x8x18x128xbf16>, tensor<32x8x18x128xbf16>) -> tensor<32x8x18x128xbf16> loc(#loc87)
        %97 = "ttir.add"(%86, %96) : (tensor<32x8x18x128xbf16>, tensor<32x8x18x128xbf16>) -> tensor<32x8x18x128xbf16> loc(#loc88)
        %98 = "ttir.reshape"(%arg16) <{shape = [1 : i32, 1 : i32, 2560 : i32]}> : (tensor<2560xbf16>) -> tensor<1x1x2560xbf16> loc(#loc89)
        %99 = "ttir.reshape"(%98) <{shape = [2560 : i32]}> : (tensor<1x1x2560xbf16>) -> tensor<2560xbf16> loc(#loc90)
        %100 = "ttir.reshape"(%99) <{shape = [1 : i32, 1 : i32, 2560 : i32]}> : (tensor<2560xbf16>) -> tensor<1x1x2560xbf16> loc(#loc91)
        %101 = "ttir.broadcast"(%100) <{broadcast_dimensions = array<i64: 32, 18, 1>}> : (tensor<1x1x2560xbf16>) -> tensor<32x18x2560xbf16> loc(#loc91)
        %102 = "ttir.reshape"(%arg13) <{shape = [1 : i32, 1 : i32, 128 : i32]}> : (tensor<128xbf16>) -> tensor<1x1x128xbf16> loc(#loc92)
        %103 = "ttir.reshape"(%102) <{shape = [128 : i32]}> : (tensor<1x1x128xbf16>) -> tensor<128xbf16> loc(#loc93)
        %104 = "ttir.reshape"(%103) <{shape = [1 : i32, 1 : i32, 1 : i32, 128 : i32]}> : (tensor<128xbf16>) -> tensor<1x1x1x128xbf16> loc(#loc94)
        %105 = "ttir.broadcast"(%104) <{broadcast_dimensions = array<i64: 32, 18, 32, 1>}> : (tensor<1x1x1x128xbf16>) -> tensor<32x18x32x128xbf16> loc(#loc94)
        %106 = "ttir.reshape"(%arg12) <{shape = [1 : i32, 4096 : i32, 2560 : i32]}> : (tensor<4096x2560xbf16>) -> tensor<1x4096x2560xbf16> loc(#loc95)
        %107 = "ttir.reshape"(%106) <{shape = [4096 : i32, 2560 : i32]}> : (tensor<1x4096x2560xbf16>) -> tensor<4096x2560xbf16> loc(#loc96)
        %108 = "ttir.permute"(%107) <{permutation = array<i64: 1, 0>}> : (tensor<4096x2560xbf16>) -> tensor<2560x4096xbf16> loc(#loc97)
        %109 = "ttir.dot_general"(%45, %108) <{batch_dims_lhs = array<i64>, batch_dims_rhs = array<i64>, contract_dims_lhs = array<i64: 1>, contract_dims_rhs = array<i64: 0>}> : (tensor<576x2560xbf16>, tensor<2560x4096xbf16>) -> tensor<576x4096xbf16> loc(#loc98)
        %110 = "ttir.reshape"(%109) <{shape = [32 : i32, 18 : i32, 32 : i32, 128 : i32]}> : (tensor<576x4096xbf16>) -> tensor<32x18x32x128xbf16> loc(#loc99)
        %111 = "ttir.typecast"(%110) <{conservative_folding = false}> : (tensor<32x18x32x128xbf16>) -> tensor<32x18x32x128xf32> loc(#loc100)
        %112 = "ttir.pow"(%111, %10) : (tensor<32x18x32x128xf32>, tensor<32x18x32x128xf32>) -> tensor<32x18x32x128xf32> loc(#loc101)
        %113 = "ttir.sum"(%112) <{dim_arg = [3 : i32], keep_dim = false}> : (tensor<32x18x32x128xf32>) -> tensor<32x18x32xf32> loc(#loc102)
        %114 = "ttir.multiply"(%113, %9) : (tensor<32x18x32xf32>, tensor<32x18x32xf32>) -> tensor<32x18x32xf32> loc(#loc103)
        %115 = "ttir.reshape"(%114) <{shape = [32 : i32, 18 : i32, 32 : i32, 1 : i32]}> : (tensor<32x18x32xf32>) -> tensor<32x18x32x1xf32> loc(#loc104)
        %116 = "ttir.add"(%115, %8) : (tensor<32x18x32x1xf32>, tensor<32x18x32x1xf32>) -> tensor<32x18x32x1xf32> loc(#loc105)
        %117 = "ttir.rsqrt"(%116) : (tensor<32x18x32x1xf32>) -> tensor<32x18x32x1xf32> loc(#loc106)
        %118 = "ttir.reshape"(%117) <{shape = [32 : i32, 18 : i32, 32 : i32]}> : (tensor<32x18x32x1xf32>) -> tensor<32x18x32xf32> loc(#loc107)
        %119 = "ttir.reshape"(%118) <{shape = [32 : i32, 18 : i32, 32 : i32, 1 : i32]}> : (tensor<32x18x32xf32>) -> tensor<32x18x32x1xf32> loc(#loc108)
        %120 = "ttir.broadcast"(%119) <{broadcast_dimensions = array<i64: 1, 1, 1, 128>}> : (tensor<32x18x32x1xf32>) -> tensor<32x18x32x128xf32> loc(#loc108)
        %121 = "ttir.multiply"(%111, %120) : (tensor<32x18x32x128xf32>, tensor<32x18x32x128xf32>) -> tensor<32x18x32x128xf32> loc(#loc109)
        %122 = "ttir.typecast"(%121) <{conservative_folding = false}> : (tensor<32x18x32x128xf32>) -> tensor<32x18x32x128xbf16> loc(#loc110)
        %123 = "ttir.multiply"(%105, %122) : (tensor<32x18x32x128xbf16>, tensor<32x18x32x128xbf16>) -> tensor<32x18x32x128xbf16> loc(#loc111)
        %124 = "ttir.permute"(%123) <{permutation = array<i64: 0, 2, 1, 3>}> : (tensor<32x18x32x128xbf16>) -> tensor<32x32x18x128xbf16> loc(#loc112)
        %125 = "ttir.broadcast"(%84) <{broadcast_dimensions = array<i64: 32, 32, 1, 1>}> : (tensor<1x1x18x128xbf16>) -> tensor<32x32x18x128xbf16> loc(#loc113)
        %126 = "ttir.multiply"(%124, %125) : (tensor<32x32x18x128xbf16>, tensor<32x32x18x128xbf16>) -> tensor<32x32x18x128xbf16> loc(#loc114)
        %127 = "ttir.slice_static"(%124) <{begins = [0 : i32, 0 : i32, 0 : i32, 64 : i32], ends = [32 : i32, 32 : i32, 18 : i32, 128 : i32], step = [1 : i32, 1 : i32, 1 : i32, 1 : i32]}> : (tensor<32x32x18x128xbf16>) -> tensor<32x32x18x64xbf16> loc(#loc115)
        %128 = "ttir.neg"(%127) : (tensor<32x32x18x64xbf16>) -> tensor<32x32x18x64xbf16> loc(#loc116)
        %129 = "ttir.slice_static"(%124) <{begins = [0 : i32, 0 : i32, 0 : i32, 0 : i32], ends = [32 : i32, 32 : i32, 18 : i32, 64 : i32], step = [1 : i32, 1 : i32, 1 : i32, 1 : i32]}> : (tensor<32x32x18x128xbf16>) -> tensor<32x32x18x64xbf16> loc(#loc117)
        %130 = "ttir.concat"(%128, %129) <{dim = 3 : si32}> : (tensor<32x32x18x64xbf16>, tensor<32x32x18x64xbf16>) -> tensor<32x32x18x128xbf16> loc(#loc118)
        %131 = "ttir.broadcast"(%94) <{broadcast_dimensions = array<i64: 32, 32, 1, 1>}> : (tensor<1x1x18x128xbf16>) -> tensor<32x32x18x128xbf16> loc(#loc119)
        %132 = "ttir.multiply"(%130, %131) : (tensor<32x32x18x128xbf16>, tensor<32x32x18x128xbf16>) -> tensor<32x32x18x128xbf16> loc(#loc120)
        %133 = "ttir.add"(%126, %132) : (tensor<32x32x18x128xbf16>, tensor<32x32x18x128xbf16>) -> tensor<32x32x18x128xbf16> loc(#loc121)
        %134 = "ttir.typecast"(%133) <{conservative_folding = false}> : (tensor<32x32x18x128xbf16>) -> tensor<32x32x18x128xf32> loc(#loc122)
        %135 = "ttir.multiply"(%134, %7) : (tensor<32x32x18x128xf32>, tensor<32x32x18x128xf32>) -> tensor<32x32x18x128xf32> loc(#loc123)
        %136 = "ttir.reshape"(%97) <{shape = [32 : i32, 8 : i32, 1 : i32, 18 : i32, 128 : i32]}> : (tensor<32x8x18x128xbf16>) -> tensor<32x8x1x18x128xbf16> loc(#loc124)
        %137 = "ttir.broadcast"(%136) <{broadcast_dimensions = array<i64: 1, 1, 4, 1, 1>}> : (tensor<32x8x1x18x128xbf16>) -> tensor<32x8x4x18x128xbf16> loc(#loc124)
        %138 = "ttir.reshape"(%137) <{shape = [32 : i32, 32 : i32, 18 : i32, 128 : i32]}> : (tensor<32x8x4x18x128xbf16>) -> tensor<32x32x18x128xbf16> loc(#loc125)
        %139 = "ttir.typecast"(%138) <{conservative_folding = false}> : (tensor<32x32x18x128xbf16>) -> tensor<32x32x18x128xf32> loc(#loc126)
        %140 = "ttir.permute"(%139) <{permutation = array<i64: 0, 1, 3, 2>}> : (tensor<32x32x18x128xf32>) -> tensor<32x32x128x18xf32> loc(#loc127)
        %141 = "ttir.multiply"(%140, %6) : (tensor<32x32x128x18xf32>, tensor<32x32x128x18xf32>) -> tensor<32x32x128x18xf32> loc(#loc128)
        %142 = "ttir.dot_general"(%135, %141) <{batch_dims_lhs = array<i64: 0, 1>, batch_dims_rhs = array<i64: 0, 1>, contract_dims_lhs = array<i64: 3>, contract_dims_rhs = array<i64: 2>}> : (tensor<32x32x18x128xf32>, tensor<32x32x128x18xf32>) -> tensor<32x32x18x18xf32> loc(#loc129)
        %143 = "ttir.reshape"(%arg11) <{shape = [1 : i32, 1 : i32]}> : (tensor<i1>) -> tensor<1x1xi1> loc(#loc130)
        %144 = "ttir.broadcast"(%143) <{broadcast_dimensions = array<i64: 18, 18>}> : (tensor<1x1xi1>) -> tensor<18x18xi1> loc(#loc130)
        %145 = "ttir.reshape"(%20) <{shape = [1 : i32, 18 : i32]}> : (tensor<18xi64>) -> tensor<1x18xi64> loc(#loc131)
        %146 = "ttir.broadcast"(%145) <{broadcast_dimensions = array<i64: 18, 1>}> : (tensor<1x18xi64>) -> tensor<18x18xi64> loc(#loc131)
        %147 = "ttir.reshape"(%20) <{shape = [18 : i32, 1 : i32]}> : (tensor<18xi64>) -> tensor<18x1xi64> loc(#loc132)
        %148 = "ttir.broadcast"(%147) <{broadcast_dimensions = array<i64: 1, 18>}> : (tensor<18x1xi64>) -> tensor<18x18xi64> loc(#loc132)
        %149 = "ttir.le"(%146, %148) : (tensor<18x18xi64>, tensor<18x18xi64>) -> tensor<18x18xi1> loc(#loc133)
        %150 = "ttir.logical_and"(%144, %149) : (tensor<18x18xi1>, tensor<18x18xi1>) -> tensor<18x18xi1> loc(#loc134)
        %151 = "ttir.reshape"(%150) <{shape = [1 : i32, 18 : i32, 18 : i32]}> : (tensor<18x18xi1>) -> tensor<1x18x18xi1> loc(#loc135)
        %152 = "ttir.broadcast"(%151) <{broadcast_dimensions = array<i64: 32, 1, 1>}> : (tensor<1x18x18xi1>) -> tensor<32x18x18xi1> loc(#loc135)
        %153 = "ttir.reshape"(%arg10) <{shape = [1 : i32, 32 : i32, 18 : i32]}> : (tensor<32x18xi64>) -> tensor<1x32x18xi64> loc(#loc136)
        %154 = "ttir.reshape"(%153) <{shape = [32 : i32, 18 : i32]}> : (tensor<1x32x18xi64>) -> tensor<32x18xi64> loc(#loc137)
        %155 = "ttir.ne"(%154, %19) : (tensor<32x18xi64>, tensor<32x18xi64>) -> tensor<32x18xi1> loc(#loc138)
        %156 = "ttir.reshape"(%18) <{shape = [32 : i32, 1 : i32]}> : (tensor<32xi64>) -> tensor<32x1xi64> loc(#loc139)
        %157 = "ttir.broadcast"(%156) <{broadcast_dimensions = array<i64: 1, 18>}> : (tensor<32x1xi64>) -> tensor<32x18xi64> loc(#loc139)
        %158 = "ttir.lt"(%157, %19) : (tensor<32x18xi64>, tensor<32x18xi64>) -> tensor<32x18xi1> loc(#loc140)
        %159 = "ttir.add"(%157, %5) : (tensor<32x18xi64>, tensor<32x18xi64>) -> tensor<32x18xi64> loc(#loc141)
        %160 = "ttir.where"(%158, %159, %157) : (tensor<32x18xi1>, tensor<32x18xi64>, tensor<32x18xi64>) -> tensor<32x18xi64> loc(#loc142)
        %161 = "ttir.reshape"(%160) <{shape = [32 : i32, 18 : i32, 1 : i32]}> : (tensor<32x18xi64>) -> tensor<32x18x1xi64> loc(#loc143)
        %162 = "ttir.broadcast"(%145) <{broadcast_dimensions = array<i64: 32, 1>}> : (tensor<1x18xi64>) -> tensor<32x18xi64> loc(#loc144)
        %163 = "ttir.lt"(%162, %19) : (tensor<32x18xi64>, tensor<32x18xi64>) -> tensor<32x18xi1> loc(#loc145)
        %164 = "ttir.add"(%162, %4) : (tensor<32x18xi64>, tensor<32x18xi64>) -> tensor<32x18xi64> loc(#loc146)
        %165 = "ttir.where"(%163, %164, %162) : (tensor<32x18xi1>, tensor<32x18xi64>, tensor<32x18xi64>) -> tensor<32x18xi64> loc(#loc147)
        %166 = "ttir.reshape"(%165) <{shape = [32 : i32, 18 : i32, 1 : i32]}> : (tensor<32x18xi64>) -> tensor<32x18x1xi64> loc(#loc148)
        %167 = "ttir.concat"(%161, %166) <{dim = 2 : si32}> : (tensor<32x18x1xi64>, tensor<32x18x1xi64>) -> tensor<32x18x2xi64> loc(#loc149)
        %168 = "ttir.gather"(%155, %167) <{collapsed_slice_dims = array<i64: 0, 1>, index_vector_dim = 2 : si64, indices_are_sorted = false, offset_dims = array<i64>, operand_batching_dims = array<i64>, slice_sizes = array<i64: 1, 1>, start_index_map = array<i64: 0, 1>, start_indices_batching_dims = array<i64>}> : (tensor<32x18xi1>, tensor<32x18x2xi64>) -> tensor<32x18xi1> loc(#loc150)
        %169 = "ttir.reshape"(%168) <{shape = [32 : i32, 1 : i32, 18 : i32]}> : (tensor<32x18xi1>) -> tensor<32x1x18xi1> loc(#loc151)
        %170 = "ttir.broadcast"(%169) <{broadcast_dimensions = array<i64: 1, 18, 1>}> : (tensor<32x1x18xi1>) -> tensor<32x18x18xi1> loc(#loc151)
        %171 = "ttir.logical_and"(%152, %170) : (tensor<32x18x18xi1>, tensor<32x18x18xi1>) -> tensor<32x18x18xi1> loc(#loc152)
        %172 = "ttir.reshape"(%171) <{shape = [32 : i32, 1 : i32, 18 : i32, 18 : i32]}> : (tensor<32x18x18xi1>) -> tensor<32x1x18x18xi1> loc(#loc153)
        %173 = "ttir.where"(%172, %3, %2) : (tensor<32x1x18x18xi1>, tensor<32x1x18x18xbf16>, tensor<32x1x18x18xbf16>) -> tensor<32x1x18x18xbf16> loc(#loc154)
        %174 = "ttir.typecast"(%173) <{conservative_folding = false}> : (tensor<32x1x18x18xbf16>) -> tensor<32x1x18x18xf32> loc(#loc155)
        %175 = "ttir.reshape"(%174) <{shape = [32 : i32, 18 : i32, 18 : i32]}> : (tensor<32x1x18x18xf32>) -> tensor<32x18x18xf32> loc(#loc156)
        %176 = "ttir.reshape"(%175) <{shape = [32 : i32, 1 : i32, 18 : i32, 18 : i32]}> : (tensor<32x18x18xf32>) -> tensor<32x1x18x18xf32> loc(#loc157)
        %177 = "ttir.broadcast"(%176) <{broadcast_dimensions = array<i64: 1, 32, 1, 1>}> : (tensor<32x1x18x18xf32>) -> tensor<32x32x18x18xf32> loc(#loc157)
        %178 = "ttir.add"(%142, %177) : (tensor<32x32x18x18xf32>, tensor<32x32x18x18xf32>) -> tensor<32x32x18x18xf32> loc(#loc158)
        %179 = "ttir.typecast"(%178) <{conservative_folding = false}> : (tensor<32x32x18x18xf32>) -> tensor<32x32x18x18xf64> loc(#loc159)
        %180 = "ttir.eq"(%179, %1) : (tensor<32x32x18x18xf64>, tensor<32x32x18x18xf64>) -> tensor<32x32x18x18xi1> loc(#loc160)
        %181 = "ttir.logical_not"(%180) : (tensor<32x32x18x18xi1>) -> tensor<32x32x18x18xi1> loc(#loc161)
        %182 = "ttir.reduce_or"(%181) <{dim_arg = [3 : i32], keep_dim = false}> : (tensor<32x32x18x18xi1>) -> tensor<32x32x18xi1> loc(#loc162)
        %183 = "ttir.reshape"(%182) <{shape = [32 : i32, 32 : i32, 18 : i32, 1 : i32]}> : (tensor<32x32x18xi1>) -> tensor<32x32x18x1xi1> loc(#loc163)
        %184 = "ttir.logical_not"(%183) : (tensor<32x32x18x1xi1>) -> tensor<32x32x18x1xi1> loc(#loc164)
        %185 = "ttir.reshape"(%184) <{shape = [32 : i32, 32 : i32, 18 : i32]}> : (tensor<32x32x18x1xi1>) -> tensor<32x32x18xi1> loc(#loc165)
        %186 = "ttir.reshape"(%185) <{shape = [32 : i32, 32 : i32, 18 : i32, 1 : i32]}> : (tensor<32x32x18xi1>) -> tensor<32x32x18x1xi1> loc(#loc166)
        %187 = "ttir.broadcast"(%186) <{broadcast_dimensions = array<i64: 1, 1, 1, 18>}> : (tensor<32x32x18x1xi1>) -> tensor<32x32x18x18xi1> loc(#loc166)
        %188 = "ttir.max"(%178) <{dim_arg = [3 : i32], keep_dim = false}> : (tensor<32x32x18x18xf32>) -> tensor<32x32x18xf32> loc(#loc167)
        %189 = "ttir.reshape"(%188) <{shape = [32 : i32, 32 : i32, 18 : i32, 1 : i32]}> : (tensor<32x32x18xf32>) -> tensor<32x32x18x1xf32> loc(#loc168)
        %190 = "ttir.broadcast"(%189) <{broadcast_dimensions = array<i64: 1, 1, 1, 18>}> : (tensor<32x32x18x1xf32>) -> tensor<32x32x18x18xf32> loc(#loc168)
        %191 = "ttir.subtract"(%178, %190) : (tensor<32x32x18x18xf32>, tensor<32x32x18x18xf32>) -> tensor<32x32x18x18xf32> loc(#loc169)
        %192 = "ttir.exp"(%191) : (tensor<32x32x18x18xf32>) -> tensor<32x32x18x18xf32> loc(#loc170)
        %193 = "ttir.sum"(%192) <{dim_arg = [3 : i32], keep_dim = false}> : (tensor<32x32x18x18xf32>) -> tensor<32x32x18xf32> loc(#loc171)
        %194 = "ttir.reshape"(%193) <{shape = [32 : i32, 32 : i32, 18 : i32, 1 : i32]}> : (tensor<32x32x18xf32>) -> tensor<32x32x18x1xf32> loc(#loc172)
        %195 = "ttir.broadcast"(%194) <{broadcast_dimensions = array<i64: 1, 1, 1, 18>}> : (tensor<32x32x18x1xf32>) -> tensor<32x32x18x18xf32> loc(#loc172)
        %196 = "ttir.div"(%192, %195) : (tensor<32x32x18x18xf32>, tensor<32x32x18x18xf32>) -> tensor<32x32x18x18xf32> loc(#loc173)
        %197 = "ttir.where"(%187, %0, %196) : (tensor<32x32x18x18xi1>, tensor<32x32x18x18xf32>, tensor<32x32x18x18xf32>) -> tensor<32x32x18x18xf32> loc(#loc174)
        %198 = "ttir.reshape"(%51) <{shape = [32 : i32, 8 : i32, 1 : i32, 18 : i32, 128 : i32]}> : (tensor<32x8x18x128xbf16>) -> tensor<32x8x1x18x128xbf16> loc(#loc175)
        %199 = "ttir.broadcast"(%198) <{broadcast_dimensions = array<i64: 1, 1, 4, 1, 1>}> : (tensor<32x8x1x18x128xbf16>) -> tensor<32x8x4x18x128xbf16> loc(#loc175)
        %200 = "ttir.reshape"(%199) <{shape = [32 : i32, 32 : i32, 18 : i32, 128 : i32]}> : (tensor<32x8x4x18x128xbf16>) -> tensor<32x32x18x128xbf16> loc(#loc176)
        %201 = "ttir.typecast"(%200) <{conservative_folding = false}> : (tensor<32x32x18x128xbf16>) -> tensor<32x32x18x128xf32> loc(#loc177)
        %202 = "ttir.dot_general"(%197, %201) <{batch_dims_lhs = array<i64: 0, 1>, batch_dims_rhs = array<i64: 0, 1>, contract_dims_lhs = array<i64: 3>, contract_dims_rhs = array<i64: 2>}> : (tensor<32x32x18x18xf32>, tensor<32x32x18x128xf32>) -> tensor<32x32x18x128xf32> loc(#loc178)
        %203 = "ttir.typecast"(%202) <{conservative_folding = false}> : (tensor<32x32x18x128xf32>) -> tensor<32x32x18x128xbf16> loc(#loc179)
        %204 = "ttir.permute"(%203) <{permutation = array<i64: 0, 2, 1, 3>}> : (tensor<32x32x18x128xbf16>) -> tensor<32x18x32x128xbf16> loc(#loc180)
        %205 = "ttir.reshape"(%204) <{shape = [576 : i32, 4096 : i32]}> : (tensor<32x18x32x128xbf16>) -> tensor<576x4096xbf16> loc(#loc181)
        %206 = "ttir.reshape"(%arg9) <{shape = [1 : i32, 2560 : i32, 4096 : i32]}> : (tensor<2560x4096xbf16>) -> tensor<1x2560x4096xbf16> loc(#loc182)
        %207 = "ttir.reshape"(%206) <{shape = [2560 : i32, 4096 : i32]}> : (tensor<1x2560x4096xbf16>) -> tensor<2560x4096xbf16> loc(#loc183)
        %208 = "ttir.permute"(%207) <{permutation = array<i64: 1, 0>}> : (tensor<2560x4096xbf16>) -> tensor<4096x2560xbf16> loc(#loc184)
        %209 = "ttir.dot_general"(%205, %208) <{batch_dims_lhs = array<i64>, batch_dims_rhs = array<i64>, contract_dims_lhs = array<i64: 1>, contract_dims_rhs = array<i64: 0>}> : (tensor<576x4096xbf16>, tensor<4096x2560xbf16>) -> tensor<576x2560xbf16> loc(#loc185)
        %210 = "ttir.reshape"(%209) <{shape = [32 : i32, 18 : i32, 2560 : i32]}> : (tensor<576x2560xbf16>) -> tensor<32x18x2560xbf16> loc(#loc186)
        %211 = "ttir.add"(%31, %210) : (tensor<32x18x2560xbf16>, tensor<32x18x2560xbf16>) -> tensor<32x18x2560xbf16> loc(#loc187)
        %212 = "ttir.reshape"(%arg14) <{shape = [1 : i32, 1 : i32, 2560 : i32]}> : (tensor<2560xbf16>) -> tensor<1x1x2560xbf16> loc(#loc188)
        %213 = "ttir.reshape"(%212) <{shape = [2560 : i32]}> : (tensor<1x1x2560xbf16>) -> tensor<2560xbf16> loc(#loc189)
        %214 = "ttir.reshape"(%213) <{shape = [1 : i32, 1 : i32, 2560 : i32]}> : (tensor<2560xbf16>) -> tensor<1x1x2560xbf16> loc(#loc190)
        %215 = "ttir.broadcast"(%214) <{broadcast_dimensions = array<i64: 32, 18, 1>}> : (tensor<1x1x2560xbf16>) -> tensor<32x18x2560xbf16> loc(#loc190)
        %216 = "ttir.typecast"(%211) <{conservative_folding = false}> : (tensor<32x18x2560xbf16>) -> tensor<32x18x2560xf32> loc(#loc191)
        %217 = "ttir.pow"(%216, %17) : (tensor<32x18x2560xf32>, tensor<32x18x2560xf32>) -> tensor<32x18x2560xf32> loc(#loc192)
        %218 = "ttir.sum"(%217) <{dim_arg = [2 : i32], keep_dim = false}> : (tensor<32x18x2560xf32>) -> tensor<32x18xf32> loc(#loc193)
        %219 = "ttir.multiply"(%218, %16) : (tensor<32x18xf32>, tensor<32x18xf32>) -> tensor<32x18xf32> loc(#loc194)
        %220 = "ttir.reshape"(%219) <{shape = [32 : i32, 18 : i32, 1 : i32]}> : (tensor<32x18xf32>) -> tensor<32x18x1xf32> loc(#loc195)
        %221 = "ttir.add"(%220, %15) : (tensor<32x18x1xf32>, tensor<32x18x1xf32>) -> tensor<32x18x1xf32> loc(#loc196)
        %222 = "ttir.rsqrt"(%221) : (tensor<32x18x1xf32>) -> tensor<32x18x1xf32> loc(#loc197)
        %223 = "ttir.reshape"(%222) <{shape = [32 : i32, 18 : i32]}> : (tensor<32x18x1xf32>) -> tensor<32x18xf32> loc(#loc198)
        %224 = "ttir.reshape"(%223) <{shape = [32 : i32, 18 : i32, 1 : i32]}> : (tensor<32x18xf32>) -> tensor<32x18x1xf32> loc(#loc199)
        %225 = "ttir.broadcast"(%224) <{broadcast_dimensions = array<i64: 1, 1, 2560>}> : (tensor<32x18x1xf32>) -> tensor<32x18x2560xf32> loc(#loc199)
        %226 = "ttir.multiply"(%216, %225) : (tensor<32x18x2560xf32>, tensor<32x18x2560xf32>) -> tensor<32x18x2560xf32> loc(#loc200)
        %227 = "ttir.typecast"(%226) <{conservative_folding = false}> : (tensor<32x18x2560xf32>) -> tensor<32x18x2560xbf16> loc(#loc201)
        %228 = "ttir.multiply"(%215, %227) : (tensor<32x18x2560xbf16>, tensor<32x18x2560xbf16>) -> tensor<32x18x2560xbf16> loc(#loc202)
        %229 = "ttir.reshape"(%228) <{shape = [576 : i32, 2560 : i32]}> : (tensor<32x18x2560xbf16>) -> tensor<576x2560xbf16> loc(#loc203)
        %230 = "ttir.reshape"(%arg15) <{shape = [1 : i32, 9728 : i32, 2560 : i32]}> : (tensor<9728x2560xbf16>) -> tensor<1x9728x2560xbf16> loc(#loc204)
        %231 = "ttir.reshape"(%230) <{shape = [9728 : i32, 2560 : i32]}> : (tensor<1x9728x2560xbf16>) -> tensor<9728x2560xbf16> loc(#loc205)
        %232 = "ttir.permute"(%231) <{permutation = array<i64: 1, 0>}> : (tensor<9728x2560xbf16>) -> tensor<2560x9728xbf16> loc(#loc206)
        %233 = "ttir.dot_general"(%229, %232) <{batch_dims_lhs = array<i64>, batch_dims_rhs = array<i64>, contract_dims_lhs = array<i64: 1>, contract_dims_rhs = array<i64: 0>}> : (tensor<576x2560xbf16>, tensor<2560x9728xbf16>) -> tensor<576x9728xbf16> loc(#loc207)
        %234 = "ttir.reshape"(%233) <{shape = [32 : i32, 18 : i32, 9728 : i32]}> : (tensor<576x9728xbf16>) -> tensor<32x18x9728xbf16> loc(#loc208)
        %235 = "ttir.typecast"(%234) <{conservative_folding = false}> : (tensor<32x18x9728xbf16>) -> tensor<32x18x9728xf32> loc(#loc209)
        %236 = "ttir.sigmoid"(%235) : (tensor<32x18x9728xf32>) -> tensor<32x18x9728xf32> loc(#loc210)
        %237 = "ttir.multiply"(%235, %236) : (tensor<32x18x9728xf32>, tensor<32x18x9728xf32>) -> tensor<32x18x9728xf32> loc(#loc211)
        %238 = "ttir.typecast"(%237) <{conservative_folding = false}> : (tensor<32x18x9728xf32>) -> tensor<32x18x9728xbf16> loc(#loc212)
        %239 = "ttir.reshape"(%arg8) <{shape = [1 : i32, 9728 : i32, 2560 : i32]}> : (tensor<9728x2560xbf16>) -> tensor<1x9728x2560xbf16> loc(#loc213)
        %240 = "ttir.reshape"(%239) <{shape = [9728 : i32, 2560 : i32]}> : (tensor<1x9728x2560xbf16>) -> tensor<9728x2560xbf16> loc(#loc214)
        %241 = "ttir.permute"(%240) <{permutation = array<i64: 1, 0>}> : (tensor<9728x2560xbf16>) -> tensor<2560x9728xbf16> loc(#loc215)
        %242 = "ttir.dot_general"(%229, %241) <{batch_dims_lhs = array<i64>, batch_dims_rhs = array<i64>, contract_dims_lhs = array<i64: 1>, contract_dims_rhs = array<i64: 0>}> : (tensor<576x2560xbf16>, tensor<2560x9728xbf16>) -> tensor<576x9728xbf16> loc(#loc216)
        %243 = "ttir.reshape"(%242) <{shape = [32 : i32, 18 : i32, 9728 : i32]}> : (tensor<576x9728xbf16>) -> tensor<32x18x9728xbf16> loc(#loc217)
        %244 = "ttir.multiply"(%238, %243) : (tensor<32x18x9728xbf16>, tensor<32x18x9728xbf16>) -> tensor<32x18x9728xbf16> loc(#loc218)
        %245 = "ttir.reshape"(%244) <{shape = [576 : i32, 9728 : i32]}> : (tensor<32x18x9728xbf16>) -> tensor<576x9728xbf16> loc(#loc219)
        %246 = "ttir.reshape"(%arg7) <{shape = [1 : i32, 2560 : i32, 9728 : i32]}> : (tensor<2560x9728xbf16>) -> tensor<1x2560x9728xbf16> loc(#loc220)
        %247 = "ttir.reshape"(%246) <{shape = [2560 : i32, 9728 : i32]}> : (tensor<1x2560x9728xbf16>) -> tensor<2560x9728xbf16> loc(#loc221)
        %248 = "ttir.permute"(%247) <{permutation = array<i64: 1, 0>}> : (tensor<2560x9728xbf16>) -> tensor<9728x2560xbf16> loc(#loc222)
        %249 = "ttir.dot_general"(%245, %248) <{batch_dims_lhs = array<i64>, batch_dims_rhs = array<i64>, contract_dims_lhs = array<i64: 1>, contract_dims_rhs = array<i64: 0>}> : (tensor<576x9728xbf16>, tensor<9728x2560xbf16>) -> tensor<576x2560xbf16> loc(#loc223)
        %250 = "ttir.reshape"(%249) <{shape = [32 : i32, 18 : i32, 2560 : i32]}> : (tensor<576x2560xbf16>) -> tensor<32x18x2560xbf16> loc(#loc224)
        %251 = "ttir.add"(%211, %250) : (tensor<32x18x2560xbf16>, tensor<32x18x2560xbf16>) -> tensor<32x18x2560xbf16> loc(#loc225)
        %252 = "ttir.typecast"(%251) <{conservative_folding = false}> : (tensor<32x18x2560xbf16>) -> tensor<32x18x2560xf32> loc(#loc226)
        %253 = "ttir.pow"(%252, %17) : (tensor<32x18x2560xf32>, tensor<32x18x2560xf32>) -> tensor<32x18x2560xf32> loc(#loc227)
        %254 = "ttir.sum"(%253) <{dim_arg = [2 : i32], keep_dim = false}> : (tensor<32x18x2560xf32>) -> tensor<32x18xf32> loc(#loc228)
        %255 = "ttir.multiply"(%254, %16) : (tensor<32x18xf32>, tensor<32x18xf32>) -> tensor<32x18xf32> loc(#loc229)
        %256 = "ttir.reshape"(%255) <{shape = [32 : i32, 18 : i32, 1 : i32]}> : (tensor<32x18xf32>) -> tensor<32x18x1xf32> loc(#loc230)
        %257 = "ttir.add"(%256, %15) : (tensor<32x18x1xf32>, tensor<32x18x1xf32>) -> tensor<32x18x1xf32> loc(#loc231)
        %258 = "ttir.rsqrt"(%257) : (tensor<32x18x1xf32>) -> tensor<32x18x1xf32> loc(#loc232)
        %259 = "ttir.reshape"(%258) <{shape = [32 : i32, 18 : i32]}> : (tensor<32x18x1xf32>) -> tensor<32x18xf32> loc(#loc233)
        %260 = "ttir.reshape"(%259) <{shape = [32 : i32, 18 : i32, 1 : i32]}> : (tensor<32x18xf32>) -> tensor<32x18x1xf32> loc(#loc234)
        %261 = "ttir.broadcast"(%260) <{broadcast_dimensions = array<i64: 1, 1, 2560>}> : (tensor<32x18x1xf32>) -> tensor<32x18x2560xf32> loc(#loc234)
        %262 = "ttir.multiply"(%252, %261) : (tensor<32x18x2560xf32>, tensor<32x18x2560xf32>) -> tensor<32x18x2560xf32> loc(#loc235)
        %263 = "ttir.typecast"(%262) <{conservative_folding = false}> : (tensor<32x18x2560xf32>) -> tensor<32x18x2560xbf16> loc(#loc236)
        %264 = "ttir.multiply"(%101, %263) : (tensor<32x18x2560xbf16>, tensor<32x18x2560xbf16>) -> tensor<32x18x2560xbf16> loc(#loc237)
        return %51, %97, %264 : tensor<32x8x18x128xbf16>, tensor<32x8x18x128xbf16>, tensor<32x18x2560xbf16> loc(#loc)
      } loc(#loc)
    } loc(#loc)
  } loc(#loc)
} loc(#loc)
#loc = loc(unknown)
#loc18 = loc("reshape.51")
#loc19 = loc("reshape.53")
#loc20 = loc("broadcast.54")
#loc21 = loc("reshape.15")
#loc22 = loc("reshape.17")
#loc23 = loc("reshape.10")
#loc24 = loc("reshape.13")
#loc25 = loc("convert.18")
#loc26 = loc("gather.19")
#loc27 = loc("reshape.20")
#loc28 = loc("convert.21")
#loc29 = loc("power.23")
#loc30 = loc("reduce.30")
#loc31 = loc("multiply.39")
#loc32 = loc("reshape.40")
#loc33 = loc("add.44")
#loc34 = loc("rsqrt.45")
#loc35 = loc("reshape.46")
#loc36 = loc("broadcast.47")
#loc37 = loc("multiply.48")
#loc38 = loc("convert.49")
#loc39 = loc("multiply.55")
#loc40 = loc("reshape.56")
#loc41 = loc("reshape.2")
#loc42 = loc("reshape.4")
#loc43 = loc("transpose.5")
#loc44 = loc("dot.57")
#loc45 = loc("reshape.59")
#loc46 = loc("transpose.60")
#loc47 = loc("reshape.128")
#loc48 = loc("reshape.130")
#loc49 = loc("broadcast.131")
#loc50 = loc("reshape.90")
#loc51 = loc("reshape.92")
#loc52 = loc("transpose.93")
#loc53 = loc("dot.95")
#loc54 = loc("reshape.97")
#loc55 = loc("convert.98")
#loc56 = loc("power.100")
#loc57 = loc("reduce.107")
#loc58 = loc("multiply.116")
#loc59 = loc("reshape.117")
#loc60 = loc("add.121")
#loc61 = loc("rsqrt.122")
#loc62 = loc("reshape.123")
#loc63 = loc("broadcast.124")
#loc64 = loc("multiply.125")
#loc65 = loc("convert.126")
#loc66 = loc("multiply.132")
#loc67 = loc("transpose.133")
#loc68 = loc("reshape.70")
#loc69 = loc("reshape.74")
#loc70 = loc("convert.75")
#loc71 = loc("dot.78")
#loc72 = loc("transpose.79")
#loc73 = loc("concatenate.80")
#loc74 = loc("cosine.142")
#loc75 = loc("convert.145")
#loc76 = loc("reshape.147")
#loc77 = loc("broadcast.148")
#loc78 = loc("multiply.149")
#loc79 = loc("slice.135")
#loc80 = loc("negate.136")
#loc81 = loc("slice.134")
#loc82 = loc("concatenate.137")
#loc83 = loc("sine.81")
#loc84 = loc("convert.84")
#loc85 = loc("reshape.138")
#loc86 = loc("broadcast.139")
#loc87 = loc("multiply.140")
#loc88 = loc("add.152")
#loc89 = loc("reshape.501")
#loc90 = loc("reshape.503")
#loc91 = loc("broadcast.504")
#loc92 = loc("reshape.321")
#loc93 = loc("reshape.323")
#loc94 = loc("broadcast.324")
#loc95 = loc("reshape.283")
#loc96 = loc("reshape.285")
#loc97 = loc("transpose.286")
#loc98 = loc("dot.288")
#loc99 = loc("reshape.290")
#loc100 = loc("convert.291")
#loc101 = loc("power.293")
#loc102 = loc("reduce.300")
#loc103 = loc("multiply.309")
#loc104 = loc("reshape.310")
#loc105 = loc("add.314")
#loc106 = loc("rsqrt.315")
#loc107 = loc("reshape.316")
#loc108 = loc("broadcast.317")
#loc109 = loc("multiply.318")
#loc110 = loc("convert.319")
#loc111 = loc("multiply.325")
#loc112 = loc("transpose.326")
#loc113 = loc("broadcast.335")
#loc114 = loc("multiply.336")
#loc115 = loc("slice.328")
#loc116 = loc("negate.329")
#loc117 = loc("slice.327")
#loc118 = loc("concatenate.330")
#loc119 = loc("broadcast.332")
#loc120 = loc("multiply.333")
#loc121 = loc("add.339")
#loc122 = loc("convert.340")
#loc123 = loc("multiply.342")
#loc124 = loc("broadcast.271")
#loc125 = loc("reshape.272")
#loc126 = loc("convert.273")
#loc127 = loc("transpose.274")
#loc128 = loc("multiply.276")
#loc129 = loc("dot.343")
#loc130 = loc("broadcast.255")
#loc131 = loc("broadcast.242")
#loc132 = loc("broadcast.244")
#loc133 = loc("compare.245")
#loc134 = loc("and.256")
#loc135 = loc("broadcast.259")
#loc136 = loc("reshape.235")
#loc137 = loc("reshape.237")
#loc138 = loc("convert.238")
#loc139 = loc("broadcast.220")
#loc140 = loc("compare.229")
#loc141 = loc("add.226")
#loc142 = loc("select.230")
#loc143 = loc("reshape.231")
#loc144 = loc("broadcast.205")
#loc145 = loc("compare.214")
#loc146 = loc("add.211")
#loc147 = loc("select.215")
#loc148 = loc("reshape.232")
#loc149 = loc("concatenate.233")
#loc150 = loc("gather.239")
#loc151 = loc("broadcast.261")
#loc152 = loc("and.262")
#loc153 = loc("reshape.263")
#loc154 = loc("select.266")
#loc155 = loc("convert.345")
#loc156 = loc("reshape.348")
#loc157 = loc("broadcast.349")
#loc158 = loc("add.350")
#loc159 = loc("convert.376")
#loc160 = loc("compare.378")
#loc161 = loc("not.380")
#loc162 = loc("reduce.392")
#loc163 = loc("reshape.396")
#loc164 = loc("not.398")
#loc165 = loc("reshape.400")
#loc166 = loc("broadcast.401")
#loc167 = loc("reduce.356")
#loc168 = loc("broadcast.357")
#loc169 = loc("subtract.358")
#loc170 = loc("exponential.359")
#loc171 = loc("reduce.365")
#loc172 = loc("broadcast.366")
#loc173 = loc("divide.367")
#loc174 = loc("select.402")
#loc175 = loc("broadcast.180")
#loc176 = loc("reshape.181")
#loc177 = loc("convert.182")
#loc178 = loc("dot.403")
#loc179 = loc("convert.405")
#loc180 = loc("transpose.406")
#loc181 = loc("reshape.408")
#loc182 = loc("reshape.173")
#loc183 = loc("reshape.175")
#loc184 = loc("transpose.176")
#loc185 = loc("dot.409")
#loc186 = loc("reshape.410")
#loc187 = loc("add.413")
#loc188 = loc("reshape.444")
#loc189 = loc("reshape.446")
#loc190 = loc("broadcast.447")
#loc191 = loc("convert.414")
#loc192 = loc("power.416")
#loc193 = loc("reduce.423")
#loc194 = loc("multiply.432")
#loc195 = loc("reshape.433")
#loc196 = loc("add.437")
#loc197 = loc("rsqrt.438")
#loc198 = loc("reshape.439")
#loc199 = loc("broadcast.440")
#loc200 = loc("multiply.441")
#loc201 = loc("convert.442")
#loc202 = loc("multiply.448")
#loc203 = loc("reshape.457")
#loc204 = loc("reshape.453")
#loc205 = loc("reshape.455")
#loc206 = loc("transpose.456")
#loc207 = loc("dot.458")
#loc208 = loc("reshape.459")
#loc209 = loc("convert.460")
#loc210 = loc("logistic.461")
#loc211 = loc("multiply.462")
#loc212 = loc("convert.463")
#loc213 = loc("reshape.164")
#loc214 = loc("reshape.166")
#loc215 = loc("transpose.167")
#loc216 = loc("dot.450")
#loc217 = loc("reshape.451")
#loc218 = loc("multiply.464")
#loc219 = loc("reshape.465")
#loc220 = loc("reshape.159")
#loc221 = loc("reshape.161")
#loc222 = loc("transpose.162")
#loc223 = loc("dot.466")
#loc224 = loc("reshape.467")
#loc225 = loc("add.470")
#loc226 = loc("convert.471")
#loc227 = loc("power.473")
#loc228 = loc("reduce.480")
#loc229 = loc("multiply.489")
#loc230 = loc("reshape.490")
#loc231 = loc("add.494")
#loc232 = loc("rsqrt.495")
#loc233 = loc("reshape.496")
#loc234 = loc("broadcast.497")
#loc235 = loc("multiply.498")
#loc236 = loc("convert.499")
#loc237 = loc("multiply.505")
