#loc1 = loc("p0.3")
#loc2 = loc("p1.12")
#loc3 = loc("p2.21")
#loc4 = loc("p3.25")
#loc5 = loc("p4.33")
#loc6 = loc("p5.45")
#loc7 = loc("p6.50")
#loc8 = loc("p7.121")
#loc9 = loc("p8.135")
#loc10 = loc("p9.153")
#loc11 = loc("p10.157")
#loc12 = loc("p11.205")
#loc13 = loc("p12.213")
#loc14 = loc("p13.221")
#loc15 = loc("p14.234")
#loc16 = loc("p15.242")
#loc17 = loc("p16.250")
#loc18 = loc("p17.263")
#loc19 = loc("p18.334")
#loc20 = loc("p19.338")
#loc21 = loc("p20.480")
module @SyncTensorsGraph.572 attributes {mhlo.cross_program_prefetches = [], mhlo.input_output_alias = [], mhlo.is_dynamic = false, mhlo.use_auto_spmd_partitioning = false, ttcore.meshes = #ttcore.meshes<[<"mesh" = 1x1>]>} {
  ttcore.device_module {
    builtin.module @SyncTensorsGraph.572 attributes {mhlo.cross_program_prefetches = [], mhlo.input_output_alias = [], mhlo.is_dynamic = false, mhlo.use_auto_spmd_partitioning = false, ttcore.meshes = #ttcore.meshes<[<"mesh" = 1x1>]>} {
      func.func @main(%arg0: tensor<1xi64> {ttcore.argument_type = #ttcore.argument_type<input>, ttcore.local_shape = #ttcore<local_shape local_shape = tensor<1xi64>>, ttcore.shard_status = #ttcore.shard_status<unsharded>, ttir.name = "arg18_1"} loc("p0.3"), %arg1: tensor<17xi64> {ttcore.argument_type = #ttcore.argument_type<input>, ttcore.local_shape = #ttcore<local_shape local_shape = tensor<17xi64>>, ttcore.shard_status = #ttcore.shard_status<unsharded>, ttir.name = "arg16_1"} loc("p1.12"), %arg2: tensor<256xbf16> {ttcore.argument_type = #ttcore.argument_type<parameter>, ttcore.local_shape = #ttcore<local_shape local_shape = tensor<256xbf16>>, ttcore.shard_status = #ttcore.shard_status<unsharded>, ttir.name = "model.model.layers.0.self_attn.v_proj.bias"} loc("p2.21"), %arg3: tensor<256x1536xbf16> {ttcore.argument_type = #ttcore.argument_type<parameter>, ttcore.local_shape = #ttcore<local_shape local_shape = tensor<256x1536xbf16>>, ttcore.shard_status = #ttcore.shard_status<unsharded>, ttcore.weight_dtype = "bfp_bf8", ttir.name = "model.model.layers.0.self_attn.v_proj.parametrizations.weight.original"} loc("p3.25"), %arg4: tensor<1536xbf16> {ttcore.argument_type = #ttcore.argument_type<parameter>, ttcore.local_shape = #ttcore<local_shape local_shape = tensor<1536xbf16>>, ttcore.shard_status = #ttcore.shard_status<unsharded>, ttcore.weight_dtype = "bfp_bf8", ttir.name = "model.model.layers.0.input_layernorm.parametrizations.weight.original"} loc("p4.33"), %arg5: tensor<32x17xi64> {ttcore.argument_type = #ttcore.argument_type<input>, ttcore.local_shape = #ttcore<local_shape local_shape = tensor<32x17xi64>>, ttcore.shard_status = #ttcore.shard_status<unsharded>, ttir.name = "arg17_1"} loc("p5.45"), %arg6: tensor<151936x1536xbf16> {ttcore.argument_type = #ttcore.argument_type<parameter>, ttcore.local_shape = #ttcore<local_shape local_shape = tensor<151936x1536xbf16>>, ttcore.shard_status = #ttcore.shard_status<unsharded>, ttcore.weight_dtype = "bfp_bf8", ttir.name = "model.model.embed_tokens.parametrizations.weight.original"} loc("p6.50"), %arg7: tensor<32x2x128x128xbf16> {ttcore.argument_type = #ttcore.argument_type<input>, ttcore.local_shape = #ttcore<local_shape local_shape = tensor<32x2x128x128xbf16>>, ttcore.shard_status = #ttcore.shard_status<unsharded>, ttir.name = "arg20_1"} loc("p7.121"), %arg8: tensor<64xbf16> {ttcore.argument_type = #ttcore.argument_type<constant>, ttcore.local_shape = #ttcore<local_shape local_shape = tensor<64xbf16>>, ttcore.shard_status = #ttcore.shard_status<unsharded>, ttir.name = "model.model.rotary_emb.inv_freq"} loc("p8.135"), %arg9: tensor<256xbf16> {ttcore.argument_type = #ttcore.argument_type<parameter>, ttcore.local_shape = #ttcore<local_shape local_shape = tensor<256xbf16>>, ttcore.shard_status = #ttcore.shard_status<unsharded>, ttir.name = "model.model.layers.0.self_attn.k_proj.bias"} loc("p9.153"), %arg10: tensor<256x1536xbf16> {ttcore.argument_type = #ttcore.argument_type<parameter>, ttcore.local_shape = #ttcore<local_shape local_shape = tensor<256x1536xbf16>>, ttcore.shard_status = #ttcore.shard_status<unsharded>, ttcore.weight_dtype = "bfp_bf8", ttir.name = "model.model.layers.0.self_attn.k_proj.parametrizations.weight.original"} loc("p10.157"), %arg11: tensor<32x2x128x128xbf16> {ttcore.argument_type = #ttcore.argument_type<input>, ttcore.local_shape = #ttcore<local_shape local_shape = tensor<32x2x128x128xbf16>>, ttcore.shard_status = #ttcore.shard_status<unsharded>, ttir.name = "arg19_1"} loc("p11.205"), %arg12: tensor<151936x1536xbf16> {ttcore.argument_type = #ttcore.argument_type<parameter>, ttcore.local_shape = #ttcore<local_shape local_shape = tensor<151936x1536xbf16>>, ttcore.shard_status = #ttcore.shard_status<unsharded>, ttcore.weight_dtype = "bfp_bf8", ttir.name = "model.lm_head.parametrizations.weight.original"} loc("p12.213"), %arg13: tensor<1536xbf16> {ttcore.argument_type = #ttcore.argument_type<parameter>, ttcore.local_shape = #ttcore<local_shape local_shape = tensor<1536xbf16>>, ttcore.shard_status = #ttcore.shard_status<unsharded>, ttcore.weight_dtype = "bfp_bf8", ttir.name = "model.model.norm.parametrizations.weight.original"} loc("p13.221"), %arg14: tensor<1536x8960xbf16> {ttcore.argument_type = #ttcore.argument_type<parameter>, ttcore.local_shape = #ttcore<local_shape local_shape = tensor<1536x8960xbf16>>, ttcore.shard_status = #ttcore.shard_status<unsharded>, ttcore.weight_dtype = "bfp_bf8", ttir.name = "model.model.layers.0.mlp.down_proj.parametrizations.weight.original"} loc("p14.234"), %arg15: tensor<8960x1536xbf16> {ttcore.argument_type = #ttcore.argument_type<parameter>, ttcore.local_shape = #ttcore<local_shape local_shape = tensor<8960x1536xbf16>>, ttcore.shard_status = #ttcore.shard_status<unsharded>, ttcore.weight_dtype = "bfp_bf8", ttir.name = "model.model.layers.0.mlp.up_proj.parametrizations.weight.original"} loc("p15.242"), %arg16: tensor<1536xbf16> {ttcore.argument_type = #ttcore.argument_type<parameter>, ttcore.local_shape = #ttcore<local_shape local_shape = tensor<1536xbf16>>, ttcore.shard_status = #ttcore.shard_status<unsharded>, ttcore.weight_dtype = "bfp_bf8", ttir.name = "model.model.layers.0.post_attention_layernorm.parametrizations.weight.original"} loc("p16.250"), %arg17: tensor<1536x1536xbf16> {ttcore.argument_type = #ttcore.argument_type<parameter>, ttcore.local_shape = #ttcore<local_shape local_shape = tensor<1536x1536xbf16>>, ttcore.shard_status = #ttcore.shard_status<unsharded>, ttcore.weight_dtype = "bfp_bf8", ttir.name = "model.model.layers.0.self_attn.o_proj.parametrizations.weight.original"} loc("p17.263"), %arg18: tensor<1536xbf16> {ttcore.argument_type = #ttcore.argument_type<parameter>, ttcore.local_shape = #ttcore<local_shape local_shape = tensor<1536xbf16>>, ttcore.shard_status = #ttcore.shard_status<unsharded>, ttir.name = "model.model.layers.0.self_attn.q_proj.bias"} loc("p18.334"), %arg19: tensor<1536x1536xbf16> {ttcore.argument_type = #ttcore.argument_type<parameter>, ttcore.local_shape = #ttcore<local_shape local_shape = tensor<1536x1536xbf16>>, ttcore.shard_status = #ttcore.shard_status<unsharded>, ttcore.weight_dtype = "bfp_bf8", ttir.name = "model.model.layers.0.self_attn.q_proj.parametrizations.weight.original"} loc("p19.338"), %arg20: tensor<8960x1536xbf16> {ttcore.argument_type = #ttcore.argument_type<parameter>, ttcore.local_shape = #ttcore<local_shape local_shape = tensor<8960x1536xbf16>>, ttcore.shard_status = #ttcore.shard_status<unsharded>, ttcore.weight_dtype = "bfp_bf8", ttir.name = "model.model.layers.0.mlp.gate_proj.parametrizations.weight.original"} loc("p20.480")) -> (tensor<1xi64> {ttcore.local_shape = #ttcore<local_shape local_shape = tensor<1xi64>>, ttcore.shard_status = #ttcore.shard_status<presharded>}, tensor<1xi64> {ttcore.local_shape = #ttcore<local_shape local_shape = tensor<1xi64>>, ttcore.shard_status = #ttcore.shard_status<presharded>}, tensor<32x2x128x128xbf16> {ttcore.local_shape = #ttcore<local_shape local_shape = tensor<32x2x128x128xbf16>>, ttcore.shard_status = #ttcore.shard_status<presharded>}, tensor<32x2x128x128xbf16> {ttcore.local_shape = #ttcore<local_shape local_shape = tensor<32x2x128x128xbf16>>, ttcore.shard_status = #ttcore.shard_status<presharded>}, tensor<32x17x151936xbf16> {ttcore.local_shape = #ttcore<local_shape local_shape = tensor<32x17x151936xbf16>>, ttcore.shard_status = #ttcore.shard_status<presharded>}, tensor<32x1xi64> {ttcore.local_shape = #ttcore<local_shape local_shape = tensor<32x1xi64>>, ttcore.shard_status = #ttcore.shard_status<presharded>}) {
        %0 = "ttir.constant"() <{value = dense<0.000000e+00> : tensor<32x12x17x128xf32>}> : () -> tensor<32x12x17x128xf32> loc(#loc)
        %1 = "ttir.constant"() <{value = dense<0xFF80> : tensor<32x1x17x128xbf16>}> : () -> tensor<32x1x17x128xbf16> loc(#loc)
        %2 = "ttir.constant"() <{value = dense<0.000000e+00> : tensor<32x1x17x128xbf16>}> : () -> tensor<32x1x17x128xbf16> loc(#loc)
        %3 = "ttir.constant"() <{value = dense<"…"> : tensor<1x1x128xi64>}> : () -> tensor<1x1x128xi64> loc(#loc)
        %4 = "ttir.constant"() <{value = dense<0.297301769> : tensor<32x12x128x128xf32>}> : () -> tensor<32x12x128x128xf32> loc(#loc)
        %5 = "ttir.constant"() <{value = dense<0.297301769> : tensor<32x12x17x128xf32>}> : () -> tensor<32x12x17x128xf32> loc(#loc)
        %6 = "ttir.constant"() <{value = dense<128> : tensor<17xi64>}> : () -> tensor<17xi64> loc(#loc)
        %7 = "ttir.constant"() <{value = dense<0> : tensor<17xi64>}> : () -> tensor<17xi64> loc(#loc)
        %8 = "ttir.constant"() <{value = dense<1> : tensor<1xi64>}> : () -> tensor<1xi64> loc(#loc)
        %9 = "ttir.constant"() <{value = dense<17> : tensor<1xi64>}> : () -> tensor<1xi64> loc(#loc)
        %10 = "ttir.constant"() <{value = dense<[0, 1, 2, 3, 4, 5, 6, 7, 8, 9, 10, 11, 12, 13, 14, 15, 16]> : tensor<17xi64>}> : () -> tensor<17xi64> loc(#loc)
        %11 = "ttir.add"(%arg0, %9) : (tensor<1xi64>, tensor<1xi64>) -> tensor<1xi64> loc(#loc22)
        %12 = "ttir.reshape"(%arg1) <{shape = [1 : i32, 1 : i32, 17 : i32]}> : (tensor<17xi64>) -> tensor<1x1x17xi64> loc(#loc23)
        %13 = "ttir.slice_static"(%arg1) <{begins = [16 : i32], ends = [17 : i32], step = [1 : i32]}> : (tensor<17xi64>) -> tensor<1xi64> loc(#loc24)
        %14 = "ttir.add"(%13, %8) : (tensor<1xi64>, tensor<1xi64>) -> tensor<1xi64> loc(#loc25)
        %15 = "ttir.reshape"(%arg0) <{shape = []}> : (tensor<1xi64>) -> tensor<i64> loc(#loc168)
        %16 = "ttir.reshape"(%15) <{shape = [1 : i32]}> : (tensor<i64>) -> tensor<1xi64> loc(#loc28)
        %17 = "ttir.broadcast"(%16) <{broadcast_dimensions = array<i64: 17>}> : (tensor<1xi64>) -> tensor<17xi64> loc(#loc28)
        %18 = "ttir.add"(%17, %10) : (tensor<17xi64>, tensor<17xi64>) -> tensor<17xi64> loc(#loc29)
        %19 = "ttir.lt"(%18, %7) : (tensor<17xi64>, tensor<17xi64>) -> tensor<17xi1> loc(#loc30)
        %20 = "ttir.add"(%18, %6) : (tensor<17xi64>, tensor<17xi64>) -> tensor<17xi64> loc(#loc31)
        %21 = "ttir.where"(%19, %20, %18) : (tensor<17xi1>, tensor<17xi64>, tensor<17xi64>) -> tensor<17xi64> loc(#loc32)
        %22 = "ttir.reshape"(%arg5) <{shape = [544 : i32]}> : (tensor<32x17xi64>) -> tensor<544xi64> loc(#loc169)
        %23 = "ttir.typecast"(%22) <{conservative_folding = false}> : (tensor<544xi64>) -> tensor<544xui32> loc(#loc35)
        %24 = "ttir.permute"(%arg6) <{permutation = array<i64: 0, 1>}> : (tensor<151936x1536xbf16>) -> tensor<151936x1536xbf16> loc(#loc170)
        %25 = "ttir.reshape"(%24) <{shape = [151936 : i32, 1536 : i32]}> : (tensor<151936x1536xbf16>) -> tensor<151936x1536xbf16> loc(#loc171)
        %26 = "ttir.reshape"(%23) <{shape = [1 : i32, 544 : i32]}> : (tensor<544xui32>) -> tensor<1x544xui32> loc(#loc172)
        %27 = "ttir.embedding"(%26, %25) : (tensor<1x544xui32>, tensor<151936x1536xbf16>) -> tensor<1x544x1536xbf16> loc(#loc36)
        %28 = "ttir.reshape"(%27) <{shape = [544 : i32, 1536 : i32]}> : (tensor<1x544x1536xbf16>) -> tensor<544x1536xbf16> loc(#loc173)
        %29 = "ttir.permute"(%28) <{permutation = array<i64: 0, 1>}> : (tensor<544x1536xbf16>) -> tensor<544x1536xbf16> loc(#loc174)
        %30 = "ttir.reshape"(%29) <{shape = [32 : i32, 17 : i32, 1536 : i32]}> : (tensor<544x1536xbf16>) -> tensor<32x17x1536xbf16> loc(#loc37)
        %31 = "ttir.rms_norm"(%30, %arg4) <{epsilon = 9.99999997E-7 : f32, normalized_shape = array<i64: 1536>, operandSegmentSizes = array<i32: 1, 1, 0>}> : (tensor<32x17x1536xbf16>, tensor<1536xbf16>) -> tensor<32x17x1536xbf16> loc(#loc38)
        %32 = "ttir.reshape"(%31) <{shape = [544 : i32, 1536 : i32]}> : (tensor<32x17x1536xbf16>) -> tensor<544x1536xbf16> loc(#loc39)
        %33 = "ttir.permute"(%arg3) <{permutation = array<i64: 1, 0>}> : (tensor<256x1536xbf16>) -> tensor<1536x256xbf16> loc(#loc40)
        %34 = "ttir.dot_general"(%32, %33) <{batch_dims_lhs = array<i64>, batch_dims_rhs = array<i64>, contract_dims_lhs = array<i64: 1>, contract_dims_rhs = array<i64: 0>}> : (tensor<544x1536xbf16>, tensor<1536x256xbf16>) -> tensor<544x256xbf16> loc(#loc41)
        %35 = "ttir.reshape"(%34) <{shape = [32 : i32, 17 : i32, 256 : i32]}> : (tensor<544x256xbf16>) -> tensor<32x17x256xbf16> loc(#loc42)
        %36 = "ttir.reshape"(%arg2) <{shape = [1 : i32, 1 : i32, 256 : i32]}> : (tensor<256xbf16>) -> tensor<1x1x256xbf16> loc(#loc43)
        %37 = "ttir.broadcast"(%36) <{broadcast_dimensions = array<i64: 32, 17, 1>}> : (tensor<1x1x256xbf16>) -> tensor<32x17x256xbf16> loc(#loc43)
        %38 = "ttir.add"(%35, %37) : (tensor<32x17x256xbf16>, tensor<32x17x256xbf16>) -> tensor<32x17x256xbf16> loc(#loc44)
        %39 = "ttir.reshape"(%38) <{shape = [32 : i32, 17 : i32, 2 : i32, 128 : i32]}> : (tensor<32x17x256xbf16>) -> tensor<32x17x2x128xbf16> loc(#loc45)
        %40 = "ttir.permute"(%39) <{permutation = array<i64: 0, 2, 1, 3>}> : (tensor<32x17x2x128xbf16>) -> tensor<32x2x17x128xbf16> loc(#loc46)
        %41 = "ttir.slice_static"(%40) <{begins = [0 : i32, 0 : i32, 0 : i32, 0 : i32], ends = [1 : i32, 2 : i32, 17 : i32, 128 : i32], step = [1 : i32, 1 : i32, 1 : i32, 1 : i32]}> : (tensor<32x2x17x128xbf16>) -> tensor<1x2x17x128xbf16> loc(#loc47)
        "ttir.fill_cache"(%arg7, %41) <{batch_offset = 0 : i32}> : (tensor<32x2x128x128xbf16>, tensor<1x2x17x128xbf16>) -> () loc(#loc47)
        %42 = "ttir.slice_static"(%40) <{begins = [1 : i32, 0 : i32, 0 : i32, 0 : i32], ends = [2 : i32, 2 : i32, 17 : i32, 128 : i32], step = [1 : i32, 1 : i32, 1 : i32, 1 : i32]}> : (tensor<32x2x17x128xbf16>) -> tensor<1x2x17x128xbf16> loc(#loc47)
        "ttir.fill_cache"(%arg7, %42) <{batch_offset = 1 : i32}> : (tensor<32x2x128x128xbf16>, tensor<1x2x17x128xbf16>) -> () loc(#loc47)
        %43 = "ttir.slice_static"(%40) <{begins = [2 : i32, 0 : i32, 0 : i32, 0 : i32], ends = [3 : i32, 2 : i32, 17 : i32, 128 : i32], step = [1 : i32, 1 : i32, 1 : i32, 1 : i32]}> : (tensor<32x2x17x128xbf16>) -> tensor<1x2x17x128xbf16> loc(#loc47)
        "ttir.fill_cache"(%arg7, %43) <{batch_offset = 2 : i32}> : (tensor<32x2x128x128xbf16>, tensor<1x2x17x128xbf16>) -> () loc(#loc47)
        %44 = "ttir.slice_static"(%40) <{begins = [3 : i32, 0 : i32, 0 : i32, 0 : i32], ends = [4 : i32, 2 : i32, 17 : i32, 128 : i32], step = [1 : i32, 1 : i32, 1 : i32, 1 : i32]}> : (tensor<32x2x17x128xbf16>) -> tensor<1x2x17x128xbf16> loc(#loc47)
        "ttir.fill_cache"(%arg7, %44) <{batch_offset = 3 : i32}> : (tensor<32x2x128x128xbf16>, tensor<1x2x17x128xbf16>) -> () loc(#loc47)
        %45 = "ttir.slice_static"(%40) <{begins = [4 : i32, 0 : i32, 0 : i32, 0 : i32], ends = [5 : i32, 2 : i32, 17 : i32, 128 : i32], step = [1 : i32, 1 : i32, 1 : i32, 1 : i32]}> : (tensor<32x2x17x128xbf16>) -> tensor<1x2x17x128xbf16> loc(#loc47)
        "ttir.fill_cache"(%arg7, %45) <{batch_offset = 4 : i32}> : (tensor<32x2x128x128xbf16>, tensor<1x2x17x128xbf16>) -> () loc(#loc47)
        %46 = "ttir.slice_static"(%40) <{begins = [5 : i32, 0 : i32, 0 : i32, 0 : i32], ends = [6 : i32, 2 : i32, 17 : i32, 128 : i32], step = [1 : i32, 1 : i32, 1 : i32, 1 : i32]}> : (tensor<32x2x17x128xbf16>) -> tensor<1x2x17x128xbf16> loc(#loc47)
        "ttir.fill_cache"(%arg7, %46) <{batch_offset = 5 : i32}> : (tensor<32x2x128x128xbf16>, tensor<1x2x17x128xbf16>) -> () loc(#loc47)
        %47 = "ttir.slice_static"(%40) <{begins = [6 : i32, 0 : i32, 0 : i32, 0 : i32], ends = [7 : i32, 2 : i32, 17 : i32, 128 : i32], step = [1 : i32, 1 : i32, 1 : i32, 1 : i32]}> : (tensor<32x2x17x128xbf16>) -> tensor<1x2x17x128xbf16> loc(#loc47)
        "ttir.fill_cache"(%arg7, %47) <{batch_offset = 6 : i32}> : (tensor<32x2x128x128xbf16>, tensor<1x2x17x128xbf16>) -> () loc(#loc47)
        %48 = "ttir.slice_static"(%40) <{begins = [7 : i32, 0 : i32, 0 : i32, 0 : i32], ends = [8 : i32, 2 : i32, 17 : i32, 128 : i32], step = [1 : i32, 1 : i32, 1 : i32, 1 : i32]}> : (tensor<32x2x17x128xbf16>) -> tensor<1x2x17x128xbf16> loc(#loc47)
        "ttir.fill_cache"(%arg7, %48) <{batch_offset = 7 : i32}> : (tensor<32x2x128x128xbf16>, tensor<1x2x17x128xbf16>) -> () loc(#loc47)
        %49 = "ttir.slice_static"(%40) <{begins = [8 : i32, 0 : i32, 0 : i32, 0 : i32], ends = [9 : i32, 2 : i32, 17 : i32, 128 : i32], step = [1 : i32, 1 : i32, 1 : i32, 1 : i32]}> : (tensor<32x2x17x128xbf16>) -> tensor<1x2x17x128xbf16> loc(#loc47)
        "ttir.fill_cache"(%arg7, %49) <{batch_offset = 8 : i32}> : (tensor<32x2x128x128xbf16>, tensor<1x2x17x128xbf16>) -> () loc(#loc47)
        %50 = "ttir.slice_static"(%40) <{begins = [9 : i32, 0 : i32, 0 : i32, 0 : i32], ends = [10 : i32, 2 : i32, 17 : i32, 128 : i32], step = [1 : i32, 1 : i32, 1 : i32, 1 : i32]}> : (tensor<32x2x17x128xbf16>) -> tensor<1x2x17x128xbf16> loc(#loc47)
        "ttir.fill_cache"(%arg7, %50) <{batch_offset = 9 : i32}> : (tensor<32x2x128x128xbf16>, tensor<1x2x17x128xbf16>) -> () loc(#loc47)
        %51 = "ttir.slice_static"(%40) <{begins = [10 : i32, 0 : i32, 0 : i32, 0 : i32], ends = [11 : i32, 2 : i32, 17 : i32, 128 : i32], step = [1 : i32, 1 : i32, 1 : i32, 1 : i32]}> : (tensor<32x2x17x128xbf16>) -> tensor<1x2x17x128xbf16> loc(#loc47)
        "ttir.fill_cache"(%arg7, %51) <{batch_offset = 10 : i32}> : (tensor<32x2x128x128xbf16>, tensor<1x2x17x128xbf16>) -> () loc(#loc47)
        %52 = "ttir.slice_static"(%40) <{begins = [11 : i32, 0 : i32, 0 : i32, 0 : i32], ends = [12 : i32, 2 : i32, 17 : i32, 128 : i32], step = [1 : i32, 1 : i32, 1 : i32, 1 : i32]}> : (tensor<32x2x17x128xbf16>) -> tensor<1x2x17x128xbf16> loc(#loc47)
        "ttir.fill_cache"(%arg7, %52) <{batch_offset = 11 : i32}> : (tensor<32x2x128x128xbf16>, tensor<1x2x17x128xbf16>) -> () loc(#loc47)
        %53 = "ttir.slice_static"(%40) <{begins = [12 : i32, 0 : i32, 0 : i32, 0 : i32], ends = [13 : i32, 2 : i32, 17 : i32, 128 : i32], step = [1 : i32, 1 : i32, 1 : i32, 1 : i32]}> : (tensor<32x2x17x128xbf16>) -> tensor<1x2x17x128xbf16> loc(#loc47)
        "ttir.fill_cache"(%arg7, %53) <{batch_offset = 12 : i32}> : (tensor<32x2x128x128xbf16>, tensor<1x2x17x128xbf16>) -> () loc(#loc47)
        %54 = "ttir.slice_static"(%40) <{begins = [13 : i32, 0 : i32, 0 : i32, 0 : i32], ends = [14 : i32, 2 : i32, 17 : i32, 128 : i32], step = [1 : i32, 1 : i32, 1 : i32, 1 : i32]}> : (tensor<32x2x17x128xbf16>) -> tensor<1x2x17x128xbf16> loc(#loc47)
        "ttir.fill_cache"(%arg7, %54) <{batch_offset = 13 : i32}> : (tensor<32x2x128x128xbf16>, tensor<1x2x17x128xbf16>) -> () loc(#loc47)
        %55 = "ttir.slice_static"(%40) <{begins = [14 : i32, 0 : i32, 0 : i32, 0 : i32], ends = [15 : i32, 2 : i32, 17 : i32, 128 : i32], step = [1 : i32, 1 : i32, 1 : i32, 1 : i32]}> : (tensor<32x2x17x128xbf16>) -> tensor<1x2x17x128xbf16> loc(#loc47)
        "ttir.fill_cache"(%arg7, %55) <{batch_offset = 14 : i32}> : (tensor<32x2x128x128xbf16>, tensor<1x2x17x128xbf16>) -> () loc(#loc47)
        %56 = "ttir.slice_static"(%40) <{begins = [15 : i32, 0 : i32, 0 : i32, 0 : i32], ends = [16 : i32, 2 : i32, 17 : i32, 128 : i32], step = [1 : i32, 1 : i32, 1 : i32, 1 : i32]}> : (tensor<32x2x17x128xbf16>) -> tensor<1x2x17x128xbf16> loc(#loc47)
        "ttir.fill_cache"(%arg7, %56) <{batch_offset = 15 : i32}> : (tensor<32x2x128x128xbf16>, tensor<1x2x17x128xbf16>) -> () loc(#loc47)
        %57 = "ttir.slice_static"(%40) <{begins = [16 : i32, 0 : i32, 0 : i32, 0 : i32], ends = [17 : i32, 2 : i32, 17 : i32, 128 : i32], step = [1 : i32, 1 : i32, 1 : i32, 1 : i32]}> : (tensor<32x2x17x128xbf16>) -> tensor<1x2x17x128xbf16> loc(#loc47)
        "ttir.fill_cache"(%arg7, %57) <{batch_offset = 16 : i32}> : (tensor<32x2x128x128xbf16>, tensor<1x2x17x128xbf16>) -> () loc(#loc47)
        %58 = "ttir.slice_static"(%40) <{begins = [17 : i32, 0 : i32, 0 : i32, 0 : i32], ends = [18 : i32, 2 : i32, 17 : i32, 128 : i32], step = [1 : i32, 1 : i32, 1 : i32, 1 : i32]}> : (tensor<32x2x17x128xbf16>) -> tensor<1x2x17x128xbf16> loc(#loc47)
        "ttir.fill_cache"(%arg7, %58) <{batch_offset = 17 : i32}> : (tensor<32x2x128x128xbf16>, tensor<1x2x17x128xbf16>) -> () loc(#loc47)
        %59 = "ttir.slice_static"(%40) <{begins = [18 : i32, 0 : i32, 0 : i32, 0 : i32], ends = [19 : i32, 2 : i32, 17 : i32, 128 : i32], step = [1 : i32, 1 : i32, 1 : i32, 1 : i32]}> : (tensor<32x2x17x128xbf16>) -> tensor<1x2x17x128xbf16> loc(#loc47)
        "ttir.fill_cache"(%arg7, %59) <{batch_offset = 18 : i32}> : (tensor<32x2x128x128xbf16>, tensor<1x2x17x128xbf16>) -> () loc(#loc47)
        %60 = "ttir.slice_static"(%40) <{begins = [19 : i32, 0 : i32, 0 : i32, 0 : i32], ends = [20 : i32, 2 : i32, 17 : i32, 128 : i32], step = [1 : i32, 1 : i32, 1 : i32, 1 : i32]}> : (tensor<32x2x17x128xbf16>) -> tensor<1x2x17x128xbf16> loc(#loc47)
        "ttir.fill_cache"(%arg7, %60) <{batch_offset = 19 : i32}> : (tensor<32x2x128x128xbf16>, tensor<1x2x17x128xbf16>) -> () loc(#loc47)
        %61 = "ttir.slice_static"(%40) <{begins = [20 : i32, 0 : i32, 0 : i32, 0 : i32], ends = [21 : i32, 2 : i32, 17 : i32, 128 : i32], step = [1 : i32, 1 : i32, 1 : i32, 1 : i32]}> : (tensor<32x2x17x128xbf16>) -> tensor<1x2x17x128xbf16> loc(#loc47)
        "ttir.fill_cache"(%arg7, %61) <{batch_offset = 20 : i32}> : (tensor<32x2x128x128xbf16>, tensor<1x2x17x128xbf16>) -> () loc(#loc47)
        %62 = "ttir.slice_static"(%40) <{begins = [21 : i32, 0 : i32, 0 : i32, 0 : i32], ends = [22 : i32, 2 : i32, 17 : i32, 128 : i32], step = [1 : i32, 1 : i32, 1 : i32, 1 : i32]}> : (tensor<32x2x17x128xbf16>) -> tensor<1x2x17x128xbf16> loc(#loc47)
        "ttir.fill_cache"(%arg7, %62) <{batch_offset = 21 : i32}> : (tensor<32x2x128x128xbf16>, tensor<1x2x17x128xbf16>) -> () loc(#loc47)
        %63 = "ttir.slice_static"(%40) <{begins = [22 : i32, 0 : i32, 0 : i32, 0 : i32], ends = [23 : i32, 2 : i32, 17 : i32, 128 : i32], step = [1 : i32, 1 : i32, 1 : i32, 1 : i32]}> : (tensor<32x2x17x128xbf16>) -> tensor<1x2x17x128xbf16> loc(#loc47)
        "ttir.fill_cache"(%arg7, %63) <{batch_offset = 22 : i32}> : (tensor<32x2x128x128xbf16>, tensor<1x2x17x128xbf16>) -> () loc(#loc47)
        %64 = "ttir.slice_static"(%40) <{begins = [23 : i32, 0 : i32, 0 : i32, 0 : i32], ends = [24 : i32, 2 : i32, 17 : i32, 128 : i32], step = [1 : i32, 1 : i32, 1 : i32, 1 : i32]}> : (tensor<32x2x17x128xbf16>) -> tensor<1x2x17x128xbf16> loc(#loc47)
        "ttir.fill_cache"(%arg7, %64) <{batch_offset = 23 : i32}> : (tensor<32x2x128x128xbf16>, tensor<1x2x17x128xbf16>) -> () loc(#loc47)
        %65 = "ttir.slice_static"(%40) <{begins = [24 : i32, 0 : i32, 0 : i32, 0 : i32], ends = [25 : i32, 2 : i32, 17 : i32, 128 : i32], step = [1 : i32, 1 : i32, 1 : i32, 1 : i32]}> : (tensor<32x2x17x128xbf16>) -> tensor<1x2x17x128xbf16> loc(#loc47)
        "ttir.fill_cache"(%arg7, %65) <{batch_offset = 24 : i32}> : (tensor<32x2x128x128xbf16>, tensor<1x2x17x128xbf16>) -> () loc(#loc47)
        %66 = "ttir.slice_static"(%40) <{begins = [25 : i32, 0 : i32, 0 : i32, 0 : i32], ends = [26 : i32, 2 : i32, 17 : i32, 128 : i32], step = [1 : i32, 1 : i32, 1 : i32, 1 : i32]}> : (tensor<32x2x17x128xbf16>) -> tensor<1x2x17x128xbf16> loc(#loc47)
        "ttir.fill_cache"(%arg7, %66) <{batch_offset = 25 : i32}> : (tensor<32x2x128x128xbf16>, tensor<1x2x17x128xbf16>) -> () loc(#loc47)
        %67 = "ttir.slice_static"(%40) <{begins = [26 : i32, 0 : i32, 0 : i32, 0 : i32], ends = [27 : i32, 2 : i32, 17 : i32, 128 : i32], step = [1 : i32, 1 : i32, 1 : i32, 1 : i32]}> : (tensor<32x2x17x128xbf16>) -> tensor<1x2x17x128xbf16> loc(#loc47)
        "ttir.fill_cache"(%arg7, %67) <{batch_offset = 26 : i32}> : (tensor<32x2x128x128xbf16>, tensor<1x2x17x128xbf16>) -> () loc(#loc47)
        %68 = "ttir.slice_static"(%40) <{begins = [27 : i32, 0 : i32, 0 : i32, 0 : i32], ends = [28 : i32, 2 : i32, 17 : i32, 128 : i32], step = [1 : i32, 1 : i32, 1 : i32, 1 : i32]}> : (tensor<32x2x17x128xbf16>) -> tensor<1x2x17x128xbf16> loc(#loc47)
        "ttir.fill_cache"(%arg7, %68) <{batch_offset = 27 : i32}> : (tensor<32x2x128x128xbf16>, tensor<1x2x17x128xbf16>) -> () loc(#loc47)
        %69 = "ttir.slice_static"(%40) <{begins = [28 : i32, 0 : i32, 0 : i32, 0 : i32], ends = [29 : i32, 2 : i32, 17 : i32, 128 : i32], step = [1 : i32, 1 : i32, 1 : i32, 1 : i32]}> : (tensor<32x2x17x128xbf16>) -> tensor<1x2x17x128xbf16> loc(#loc47)
        "ttir.fill_cache"(%arg7, %69) <{batch_offset = 28 : i32}> : (tensor<32x2x128x128xbf16>, tensor<1x2x17x128xbf16>) -> () loc(#loc47)
        %70 = "ttir.slice_static"(%40) <{begins = [29 : i32, 0 : i32, 0 : i32, 0 : i32], ends = [30 : i32, 2 : i32, 17 : i32, 128 : i32], step = [1 : i32, 1 : i32, 1 : i32, 1 : i32]}> : (tensor<32x2x17x128xbf16>) -> tensor<1x2x17x128xbf16> loc(#loc47)
        "ttir.fill_cache"(%arg7, %70) <{batch_offset = 29 : i32}> : (tensor<32x2x128x128xbf16>, tensor<1x2x17x128xbf16>) -> () loc(#loc47)
        %71 = "ttir.slice_static"(%40) <{begins = [30 : i32, 0 : i32, 0 : i32, 0 : i32], ends = [31 : i32, 2 : i32, 17 : i32, 128 : i32], step = [1 : i32, 1 : i32, 1 : i32, 1 : i32]}> : (tensor<32x2x17x128xbf16>) -> tensor<1x2x17x128xbf16> loc(#loc47)
        "ttir.fill_cache"(%arg7, %71) <{batch_offset = 30 : i32}> : (tensor<32x2x128x128xbf16>, tensor<1x2x17x128xbf16>) -> () loc(#loc47)
        %72 = "ttir.slice_static"(%40) <{begins = [31 : i32, 0 : i32, 0 : i32, 0 : i32], ends = [32 : i32, 2 : i32, 17 : i32, 128 : i32], step = [1 : i32, 1 : i32, 1 : i32, 1 : i32]}> : (tensor<32x2x17x128xbf16>) -> tensor<1x2x17x128xbf16> loc(#loc47)
        "ttir.fill_cache"(%arg7, %72) <{batch_offset = 31 : i32}> : (tensor<32x2x128x128xbf16>, tensor<1x2x17x128xbf16>) -> () loc(#loc47)
        %73 = "ttir.permute"(%arg10) <{permutation = array<i64: 1, 0>}> : (tensor<256x1536xbf16>) -> tensor<1536x256xbf16> loc(#loc48)
        %74 = "ttir.dot_general"(%32, %73) <{batch_dims_lhs = array<i64>, batch_dims_rhs = array<i64>, contract_dims_lhs = array<i64: 1>, contract_dims_rhs = array<i64: 0>}> : (tensor<544x1536xbf16>, tensor<1536x256xbf16>) -> tensor<544x256xbf16> loc(#loc49)
        %75 = "ttir.reshape"(%74) <{shape = [32 : i32, 17 : i32, 256 : i32]}> : (tensor<544x256xbf16>) -> tensor<32x17x256xbf16> loc(#loc50)
        %76 = "ttir.reshape"(%arg9) <{shape = [1 : i32, 1 : i32, 256 : i32]}> : (tensor<256xbf16>) -> tensor<1x1x256xbf16> loc(#loc51)
        %77 = "ttir.broadcast"(%76) <{broadcast_dimensions = array<i64: 32, 17, 1>}> : (tensor<1x1x256xbf16>) -> tensor<32x17x256xbf16> loc(#loc51)
        %78 = "ttir.add"(%75, %77) : (tensor<32x17x256xbf16>, tensor<32x17x256xbf16>) -> tensor<32x17x256xbf16> loc(#loc52)
        %79 = "ttir.reshape"(%78) <{shape = [32 : i32, 17 : i32, 2 : i32, 128 : i32]}> : (tensor<32x17x256xbf16>) -> tensor<32x17x2x128xbf16> loc(#loc53)
        %80 = "ttir.permute"(%79) <{permutation = array<i64: 0, 2, 1, 3>}> : (tensor<32x17x2x128xbf16>) -> tensor<32x2x17x128xbf16> loc(#loc54)
        %81 = "ttir.reshape"(%arg8) <{shape = [1 : i32, 64 : i32, 1 : i32]}> : (tensor<64xbf16>) -> tensor<1x64x1xbf16> loc(#loc175)
        %82 = "ttir.typecast"(%81) <{conservative_folding = false}> : (tensor<1x64x1xbf16>) -> tensor<1x64x1xf32> loc(#loc57)
        %83 = "ttir.typecast"(%12) <{conservative_folding = false}> : (tensor<1x1x17xi64>) -> tensor<1x1x17xf32> loc(#loc58)
        %84 = "ttir.dot_general"(%82, %83) <{batch_dims_lhs = array<i64: 0>, batch_dims_rhs = array<i64: 0>, contract_dims_lhs = array<i64: 2>, contract_dims_rhs = array<i64: 1>}> : (tensor<1x64x1xf32>, tensor<1x1x17xf32>) -> tensor<1x64x17xf32> loc(#loc59)
        %85 = "ttir.permute"(%84) <{permutation = array<i64: 0, 2, 1>}> : (tensor<1x64x17xf32>) -> tensor<1x17x64xf32> loc(#loc60)
        %86 = "ttir.concat"(%85, %85) <{dim = 2 : si32}> : (tensor<1x17x64xf32>, tensor<1x17x64xf32>) -> tensor<1x17x128xf32> loc(#loc61)
        %87 = "ttir.cos"(%86) : (tensor<1x17x128xf32>) -> tensor<1x17x128xf32> loc(#loc62)
        %88 = "ttir.typecast"(%87) <{conservative_folding = false}> : (tensor<1x17x128xf32>) -> tensor<1x17x128xbf16> loc(#loc63)
        %89 = "ttir.reshape"(%88) <{shape = [17 : i32, 128 : i32]}> : (tensor<1x17x128xbf16>) -> tensor<17x128xbf16> loc(#loc64)
        %90 = "ttir.reshape"(%89) <{shape = [1 : i32, 1 : i32, 17 : i32, 128 : i32]}> : (tensor<17x128xbf16>) -> tensor<1x1x17x128xbf16> loc(#loc65)
        %91 = "ttir.broadcast"(%90) <{broadcast_dimensions = array<i64: 32, 2, 1, 1>}> : (tensor<1x1x17x128xbf16>) -> tensor<32x2x17x128xbf16> loc(#loc65)
        %92 = "ttir.multiply"(%80, %91) : (tensor<32x2x17x128xbf16>, tensor<32x2x17x128xbf16>) -> tensor<32x2x17x128xbf16> loc(#loc66)
        %93 = "ttir.slice_static"(%80) <{begins = [0 : i32, 0 : i32, 0 : i32, 64 : i32], ends = [32 : i32, 2 : i32, 17 : i32, 128 : i32], step = [1 : i32, 1 : i32, 1 : i32, 1 : i32]}> : (tensor<32x2x17x128xbf16>) -> tensor<32x2x17x64xbf16> loc(#loc67)
        %94 = "ttir.neg"(%93) : (tensor<32x2x17x64xbf16>) -> tensor<32x2x17x64xbf16> loc(#loc68)
        %95 = "ttir.slice_static"(%80) <{begins = [0 : i32, 0 : i32, 0 : i32, 0 : i32], ends = [32 : i32, 2 : i32, 17 : i32, 64 : i32], step = [1 : i32, 1 : i32, 1 : i32, 1 : i32]}> : (tensor<32x2x17x128xbf16>) -> tensor<32x2x17x64xbf16> loc(#loc69)
        %96 = "ttir.concat"(%94, %95) <{dim = 3 : si32}> : (tensor<32x2x17x64xbf16>, tensor<32x2x17x64xbf16>) -> tensor<32x2x17x128xbf16> loc(#loc70)
        %97 = "ttir.sin"(%86) : (tensor<1x17x128xf32>) -> tensor<1x17x128xf32> loc(#loc71)
        %98 = "ttir.typecast"(%97) <{conservative_folding = false}> : (tensor<1x17x128xf32>) -> tensor<1x17x128xbf16> loc(#loc72)
        %99 = "ttir.reshape"(%98) <{shape = [17 : i32, 128 : i32]}> : (tensor<1x17x128xbf16>) -> tensor<17x128xbf16> loc(#loc73)
        %100 = "ttir.reshape"(%99) <{shape = [1 : i32, 1 : i32, 17 : i32, 128 : i32]}> : (tensor<17x128xbf16>) -> tensor<1x1x17x128xbf16> loc(#loc74)
        %101 = "ttir.broadcast"(%100) <{broadcast_dimensions = array<i64: 32, 2, 1, 1>}> : (tensor<1x1x17x128xbf16>) -> tensor<32x2x17x128xbf16> loc(#loc74)
        %102 = "ttir.multiply"(%96, %101) : (tensor<32x2x17x128xbf16>, tensor<32x2x17x128xbf16>) -> tensor<32x2x17x128xbf16> loc(#loc75)
        %103 = "ttir.add"(%92, %102) : (tensor<32x2x17x128xbf16>, tensor<32x2x17x128xbf16>) -> tensor<32x2x17x128xbf16> loc(#loc76)
        %104 = "ttir.slice_static"(%103) <{begins = [0 : i32, 0 : i32, 0 : i32, 0 : i32], ends = [1 : i32, 2 : i32, 17 : i32, 128 : i32], step = [1 : i32, 1 : i32, 1 : i32, 1 : i32]}> : (tensor<32x2x17x128xbf16>) -> tensor<1x2x17x128xbf16> loc(#loc77)
        "ttir.fill_cache"(%arg11, %104) <{batch_offset = 0 : i32}> : (tensor<32x2x128x128xbf16>, tensor<1x2x17x128xbf16>) -> () loc(#loc77)
        %105 = "ttir.slice_static"(%103) <{begins = [1 : i32, 0 : i32, 0 : i32, 0 : i32], ends = [2 : i32, 2 : i32, 17 : i32, 128 : i32], step = [1 : i32, 1 : i32, 1 : i32, 1 : i32]}> : (tensor<32x2x17x128xbf16>) -> tensor<1x2x17x128xbf16> loc(#loc77)
        "ttir.fill_cache"(%arg11, %105) <{batch_offset = 1 : i32}> : (tensor<32x2x128x128xbf16>, tensor<1x2x17x128xbf16>) -> () loc(#loc77)
        %106 = "ttir.slice_static"(%103) <{begins = [2 : i32, 0 : i32, 0 : i32, 0 : i32], ends = [3 : i32, 2 : i32, 17 : i32, 128 : i32], step = [1 : i32, 1 : i32, 1 : i32, 1 : i32]}> : (tensor<32x2x17x128xbf16>) -> tensor<1x2x17x128xbf16> loc(#loc77)
        "ttir.fill_cache"(%arg11, %106) <{batch_offset = 2 : i32}> : (tensor<32x2x128x128xbf16>, tensor<1x2x17x128xbf16>) -> () loc(#loc77)
        %107 = "ttir.slice_static"(%103) <{begins = [3 : i32, 0 : i32, 0 : i32, 0 : i32], ends = [4 : i32, 2 : i32, 17 : i32, 128 : i32], step = [1 : i32, 1 : i32, 1 : i32, 1 : i32]}> : (tensor<32x2x17x128xbf16>) -> tensor<1x2x17x128xbf16> loc(#loc77)
        "ttir.fill_cache"(%arg11, %107) <{batch_offset = 3 : i32}> : (tensor<32x2x128x128xbf16>, tensor<1x2x17x128xbf16>) -> () loc(#loc77)
        %108 = "ttir.slice_static"(%103) <{begins = [4 : i32, 0 : i32, 0 : i32, 0 : i32], ends = [5 : i32, 2 : i32, 17 : i32, 128 : i32], step = [1 : i32, 1 : i32, 1 : i32, 1 : i32]}> : (tensor<32x2x17x128xbf16>) -> tensor<1x2x17x128xbf16> loc(#loc77)
        "ttir.fill_cache"(%arg11, %108) <{batch_offset = 4 : i32}> : (tensor<32x2x128x128xbf16>, tensor<1x2x17x128xbf16>) -> () loc(#loc77)
        %109 = "ttir.slice_static"(%103) <{begins = [5 : i32, 0 : i32, 0 : i32, 0 : i32], ends = [6 : i32, 2 : i32, 17 : i32, 128 : i32], step = [1 : i32, 1 : i32, 1 : i32, 1 : i32]}> : (tensor<32x2x17x128xbf16>) -> tensor<1x2x17x128xbf16> loc(#loc77)
        "ttir.fill_cache"(%arg11, %109) <{batch_offset = 5 : i32}> : (tensor<32x2x128x128xbf16>, tensor<1x2x17x128xbf16>) -> () loc(#loc77)
        %110 = "ttir.slice_static"(%103) <{begins = [6 : i32, 0 : i32, 0 : i32, 0 : i32], ends = [7 : i32, 2 : i32, 17 : i32, 128 : i32], step = [1 : i32, 1 : i32, 1 : i32, 1 : i32]}> : (tensor<32x2x17x128xbf16>) -> tensor<1x2x17x128xbf16> loc(#loc77)
        "ttir.fill_cache"(%arg11, %110) <{batch_offset = 6 : i32}> : (tensor<32x2x128x128xbf16>, tensor<1x2x17x128xbf16>) -> () loc(#loc77)
        %111 = "ttir.slice_static"(%103) <{begins = [7 : i32, 0 : i32, 0 : i32, 0 : i32], ends = [8 : i32, 2 : i32, 17 : i32, 128 : i32], step = [1 : i32, 1 : i32, 1 : i32, 1 : i32]}> : (tensor<32x2x17x128xbf16>) -> tensor<1x2x17x128xbf16> loc(#loc77)
        "ttir.fill_cache"(%arg11, %111) <{batch_offset = 7 : i32}> : (tensor<32x2x128x128xbf16>, tensor<1x2x17x128xbf16>) -> () loc(#loc77)
        %112 = "ttir.slice_static"(%103) <{begins = [8 : i32, 0 : i32, 0 : i32, 0 : i32], ends = [9 : i32, 2 : i32, 17 : i32, 128 : i32], step = [1 : i32, 1 : i32, 1 : i32, 1 : i32]}> : (tensor<32x2x17x128xbf16>) -> tensor<1x2x17x128xbf16> loc(#loc77)
        "ttir.fill_cache"(%arg11, %112) <{batch_offset = 8 : i32}> : (tensor<32x2x128x128xbf16>, tensor<1x2x17x128xbf16>) -> () loc(#loc77)
        %113 = "ttir.slice_static"(%103) <{begins = [9 : i32, 0 : i32, 0 : i32, 0 : i32], ends = [10 : i32, 2 : i32, 17 : i32, 128 : i32], step = [1 : i32, 1 : i32, 1 : i32, 1 : i32]}> : (tensor<32x2x17x128xbf16>) -> tensor<1x2x17x128xbf16> loc(#loc77)
        "ttir.fill_cache"(%arg11, %113) <{batch_offset = 9 : i32}> : (tensor<32x2x128x128xbf16>, tensor<1x2x17x128xbf16>) -> () loc(#loc77)
        %114 = "ttir.slice_static"(%103) <{begins = [10 : i32, 0 : i32, 0 : i32, 0 : i32], ends = [11 : i32, 2 : i32, 17 : i32, 128 : i32], step = [1 : i32, 1 : i32, 1 : i32, 1 : i32]}> : (tensor<32x2x17x128xbf16>) -> tensor<1x2x17x128xbf16> loc(#loc77)
        "ttir.fill_cache"(%arg11, %114) <{batch_offset = 10 : i32}> : (tensor<32x2x128x128xbf16>, tensor<1x2x17x128xbf16>) -> () loc(#loc77)
        %115 = "ttir.slice_static"(%103) <{begins = [11 : i32, 0 : i32, 0 : i32, 0 : i32], ends = [12 : i32, 2 : i32, 17 : i32, 128 : i32], step = [1 : i32, 1 : i32, 1 : i32, 1 : i32]}> : (tensor<32x2x17x128xbf16>) -> tensor<1x2x17x128xbf16> loc(#loc77)
        "ttir.fill_cache"(%arg11, %115) <{batch_offset = 11 : i32}> : (tensor<32x2x128x128xbf16>, tensor<1x2x17x128xbf16>) -> () loc(#loc77)
        %116 = "ttir.slice_static"(%103) <{begins = [12 : i32, 0 : i32, 0 : i32, 0 : i32], ends = [13 : i32, 2 : i32, 17 : i32, 128 : i32], step = [1 : i32, 1 : i32, 1 : i32, 1 : i32]}> : (tensor<32x2x17x128xbf16>) -> tensor<1x2x17x128xbf16> loc(#loc77)
        "ttir.fill_cache"(%arg11, %116) <{batch_offset = 12 : i32}> : (tensor<32x2x128x128xbf16>, tensor<1x2x17x128xbf16>) -> () loc(#loc77)
        %117 = "ttir.slice_static"(%103) <{begins = [13 : i32, 0 : i32, 0 : i32, 0 : i32], ends = [14 : i32, 2 : i32, 17 : i32, 128 : i32], step = [1 : i32, 1 : i32, 1 : i32, 1 : i32]}> : (tensor<32x2x17x128xbf16>) -> tensor<1x2x17x128xbf16> loc(#loc77)
        "ttir.fill_cache"(%arg11, %117) <{batch_offset = 13 : i32}> : (tensor<32x2x128x128xbf16>, tensor<1x2x17x128xbf16>) -> () loc(#loc77)
        %118 = "ttir.slice_static"(%103) <{begins = [14 : i32, 0 : i32, 0 : i32, 0 : i32], ends = [15 : i32, 2 : i32, 17 : i32, 128 : i32], step = [1 : i32, 1 : i32, 1 : i32, 1 : i32]}> : (tensor<32x2x17x128xbf16>) -> tensor<1x2x17x128xbf16> loc(#loc77)
        "ttir.fill_cache"(%arg11, %118) <{batch_offset = 14 : i32}> : (tensor<32x2x128x128xbf16>, tensor<1x2x17x128xbf16>) -> () loc(#loc77)
        %119 = "ttir.slice_static"(%103) <{begins = [15 : i32, 0 : i32, 0 : i32, 0 : i32], ends = [16 : i32, 2 : i32, 17 : i32, 128 : i32], step = [1 : i32, 1 : i32, 1 : i32, 1 : i32]}> : (tensor<32x2x17x128xbf16>) -> tensor<1x2x17x128xbf16> loc(#loc77)
        "ttir.fill_cache"(%arg11, %119) <{batch_offset = 15 : i32}> : (tensor<32x2x128x128xbf16>, tensor<1x2x17x128xbf16>) -> () loc(#loc77)
        %120 = "ttir.slice_static"(%103) <{begins = [16 : i32, 0 : i32, 0 : i32, 0 : i32], ends = [17 : i32, 2 : i32, 17 : i32, 128 : i32], step = [1 : i32, 1 : i32, 1 : i32, 1 : i32]}> : (tensor<32x2x17x128xbf16>) -> tensor<1x2x17x128xbf16> loc(#loc77)
        "ttir.fill_cache"(%arg11, %120) <{batch_offset = 16 : i32}> : (tensor<32x2x128x128xbf16>, tensor<1x2x17x128xbf16>) -> () loc(#loc77)
        %121 = "ttir.slice_static"(%103) <{begins = [17 : i32, 0 : i32, 0 : i32, 0 : i32], ends = [18 : i32, 2 : i32, 17 : i32, 128 : i32], step = [1 : i32, 1 : i32, 1 : i32, 1 : i32]}> : (tensor<32x2x17x128xbf16>) -> tensor<1x2x17x128xbf16> loc(#loc77)
        "ttir.fill_cache"(%arg11, %121) <{batch_offset = 17 : i32}> : (tensor<32x2x128x128xbf16>, tensor<1x2x17x128xbf16>) -> () loc(#loc77)
        %122 = "ttir.slice_static"(%103) <{begins = [18 : i32, 0 : i32, 0 : i32, 0 : i32], ends = [19 : i32, 2 : i32, 17 : i32, 128 : i32], step = [1 : i32, 1 : i32, 1 : i32, 1 : i32]}> : (tensor<32x2x17x128xbf16>) -> tensor<1x2x17x128xbf16> loc(#loc77)
        "ttir.fill_cache"(%arg11, %122) <{batch_offset = 18 : i32}> : (tensor<32x2x128x128xbf16>, tensor<1x2x17x128xbf16>) -> () loc(#loc77)
        %123 = "ttir.slice_static"(%103) <{begins = [19 : i32, 0 : i32, 0 : i32, 0 : i32], ends = [20 : i32, 2 : i32, 17 : i32, 128 : i32], step = [1 : i32, 1 : i32, 1 : i32, 1 : i32]}> : (tensor<32x2x17x128xbf16>) -> tensor<1x2x17x128xbf16> loc(#loc77)
        "ttir.fill_cache"(%arg11, %123) <{batch_offset = 19 : i32}> : (tensor<32x2x128x128xbf16>, tensor<1x2x17x128xbf16>) -> () loc(#loc77)
        %124 = "ttir.slice_static"(%103) <{begins = [20 : i32, 0 : i32, 0 : i32, 0 : i32], ends = [21 : i32, 2 : i32, 17 : i32, 128 : i32], step = [1 : i32, 1 : i32, 1 : i32, 1 : i32]}> : (tensor<32x2x17x128xbf16>) -> tensor<1x2x17x128xbf16> loc(#loc77)
        "ttir.fill_cache"(%arg11, %124) <{batch_offset = 20 : i32}> : (tensor<32x2x128x128xbf16>, tensor<1x2x17x128xbf16>) -> () loc(#loc77)
        %125 = "ttir.slice_static"(%103) <{begins = [21 : i32, 0 : i32, 0 : i32, 0 : i32], ends = [22 : i32, 2 : i32, 17 : i32, 128 : i32], step = [1 : i32, 1 : i32, 1 : i32, 1 : i32]}> : (tensor<32x2x17x128xbf16>) -> tensor<1x2x17x128xbf16> loc(#loc77)
        "ttir.fill_cache"(%arg11, %125) <{batch_offset = 21 : i32}> : (tensor<32x2x128x128xbf16>, tensor<1x2x17x128xbf16>) -> () loc(#loc77)
        %126 = "ttir.slice_static"(%103) <{begins = [22 : i32, 0 : i32, 0 : i32, 0 : i32], ends = [23 : i32, 2 : i32, 17 : i32, 128 : i32], step = [1 : i32, 1 : i32, 1 : i32, 1 : i32]}> : (tensor<32x2x17x128xbf16>) -> tensor<1x2x17x128xbf16> loc(#loc77)
        "ttir.fill_cache"(%arg11, %126) <{batch_offset = 22 : i32}> : (tensor<32x2x128x128xbf16>, tensor<1x2x17x128xbf16>) -> () loc(#loc77)
        %127 = "ttir.slice_static"(%103) <{begins = [23 : i32, 0 : i32, 0 : i32, 0 : i32], ends = [24 : i32, 2 : i32, 17 : i32, 128 : i32], step = [1 : i32, 1 : i32, 1 : i32, 1 : i32]}> : (tensor<32x2x17x128xbf16>) -> tensor<1x2x17x128xbf16> loc(#loc77)
        "ttir.fill_cache"(%arg11, %127) <{batch_offset = 23 : i32}> : (tensor<32x2x128x128xbf16>, tensor<1x2x17x128xbf16>) -> () loc(#loc77)
        %128 = "ttir.slice_static"(%103) <{begins = [24 : i32, 0 : i32, 0 : i32, 0 : i32], ends = [25 : i32, 2 : i32, 17 : i32, 128 : i32], step = [1 : i32, 1 : i32, 1 : i32, 1 : i32]}> : (tensor<32x2x17x128xbf16>) -> tensor<1x2x17x128xbf16> loc(#loc77)
        "ttir.fill_cache"(%arg11, %128) <{batch_offset = 24 : i32}> : (tensor<32x2x128x128xbf16>, tensor<1x2x17x128xbf16>) -> () loc(#loc77)
        %129 = "ttir.slice_static"(%103) <{begins = [25 : i32, 0 : i32, 0 : i32, 0 : i32], ends = [26 : i32, 2 : i32, 17 : i32, 128 : i32], step = [1 : i32, 1 : i32, 1 : i32, 1 : i32]}> : (tensor<32x2x17x128xbf16>) -> tensor<1x2x17x128xbf16> loc(#loc77)
        "ttir.fill_cache"(%arg11, %129) <{batch_offset = 25 : i32}> : (tensor<32x2x128x128xbf16>, tensor<1x2x17x128xbf16>) -> () loc(#loc77)
        %130 = "ttir.slice_static"(%103) <{begins = [26 : i32, 0 : i32, 0 : i32, 0 : i32], ends = [27 : i32, 2 : i32, 17 : i32, 128 : i32], step = [1 : i32, 1 : i32, 1 : i32, 1 : i32]}> : (tensor<32x2x17x128xbf16>) -> tensor<1x2x17x128xbf16> loc(#loc77)
        "ttir.fill_cache"(%arg11, %130) <{batch_offset = 26 : i32}> : (tensor<32x2x128x128xbf16>, tensor<1x2x17x128xbf16>) -> () loc(#loc77)
        %131 = "ttir.slice_static"(%103) <{begins = [27 : i32, 0 : i32, 0 : i32, 0 : i32], ends = [28 : i32, 2 : i32, 17 : i32, 128 : i32], step = [1 : i32, 1 : i32, 1 : i32, 1 : i32]}> : (tensor<32x2x17x128xbf16>) -> tensor<1x2x17x128xbf16> loc(#loc77)
        "ttir.fill_cache"(%arg11, %131) <{batch_offset = 27 : i32}> : (tensor<32x2x128x128xbf16>, tensor<1x2x17x128xbf16>) -> () loc(#loc77)
        %132 = "ttir.slice_static"(%103) <{begins = [28 : i32, 0 : i32, 0 : i32, 0 : i32], ends = [29 : i32, 2 : i32, 17 : i32, 128 : i32], step = [1 : i32, 1 : i32, 1 : i32, 1 : i32]}> : (tensor<32x2x17x128xbf16>) -> tensor<1x2x17x128xbf16> loc(#loc77)
        "ttir.fill_cache"(%arg11, %132) <{batch_offset = 28 : i32}> : (tensor<32x2x128x128xbf16>, tensor<1x2x17x128xbf16>) -> () loc(#loc77)
        %133 = "ttir.slice_static"(%103) <{begins = [29 : i32, 0 : i32, 0 : i32, 0 : i32], ends = [30 : i32, 2 : i32, 17 : i32, 128 : i32], step = [1 : i32, 1 : i32, 1 : i32, 1 : i32]}> : (tensor<32x2x17x128xbf16>) -> tensor<1x2x17x128xbf16> loc(#loc77)
        "ttir.fill_cache"(%arg11, %133) <{batch_offset = 29 : i32}> : (tensor<32x2x128x128xbf16>, tensor<1x2x17x128xbf16>) -> () loc(#loc77)
        %134 = "ttir.slice_static"(%103) <{begins = [30 : i32, 0 : i32, 0 : i32, 0 : i32], ends = [31 : i32, 2 : i32, 17 : i32, 128 : i32], step = [1 : i32, 1 : i32, 1 : i32, 1 : i32]}> : (tensor<32x2x17x128xbf16>) -> tensor<1x2x17x128xbf16> loc(#loc77)
        "ttir.fill_cache"(%arg11, %134) <{batch_offset = 30 : i32}> : (tensor<32x2x128x128xbf16>, tensor<1x2x17x128xbf16>) -> () loc(#loc77)
        %135 = "ttir.slice_static"(%103) <{begins = [31 : i32, 0 : i32, 0 : i32, 0 : i32], ends = [32 : i32, 2 : i32, 17 : i32, 128 : i32], step = [1 : i32, 1 : i32, 1 : i32, 1 : i32]}> : (tensor<32x2x17x128xbf16>) -> tensor<1x2x17x128xbf16> loc(#loc77)
        "ttir.fill_cache"(%arg11, %135) <{batch_offset = 31 : i32}> : (tensor<32x2x128x128xbf16>, tensor<1x2x17x128xbf16>) -> () loc(#loc77)
        %136 = "ttir.permute"(%arg19) <{permutation = array<i64: 1, 0>}> : (tensor<1536x1536xbf16>) -> tensor<1536x1536xbf16> loc(#loc78)
        %137 = "ttir.dot_general"(%32, %136) <{batch_dims_lhs = array<i64>, batch_dims_rhs = array<i64>, contract_dims_lhs = array<i64: 1>, contract_dims_rhs = array<i64: 0>}> : (tensor<544x1536xbf16>, tensor<1536x1536xbf16>) -> tensor<544x1536xbf16> loc(#loc79)
        %138 = "ttir.reshape"(%137) <{shape = [32 : i32, 17 : i32, 1536 : i32]}> : (tensor<544x1536xbf16>) -> tensor<32x17x1536xbf16> loc(#loc80)
        %139 = "ttir.reshape"(%arg18) <{shape = [1 : i32, 1 : i32, 1536 : i32]}> : (tensor<1536xbf16>) -> tensor<1x1x1536xbf16> loc(#loc81)
        %140 = "ttir.broadcast"(%139) <{broadcast_dimensions = array<i64: 32, 17, 1>}> : (tensor<1x1x1536xbf16>) -> tensor<32x17x1536xbf16> loc(#loc81)
        %141 = "ttir.add"(%138, %140) : (tensor<32x17x1536xbf16>, tensor<32x17x1536xbf16>) -> tensor<32x17x1536xbf16> loc(#loc82)
        %142 = "ttir.reshape"(%141) <{shape = [32 : i32, 17 : i32, 12 : i32, 128 : i32]}> : (tensor<32x17x1536xbf16>) -> tensor<32x17x12x128xbf16> loc(#loc83)
        %143 = "ttir.permute"(%142) <{permutation = array<i64: 0, 2, 1, 3>}> : (tensor<32x17x12x128xbf16>) -> tensor<32x12x17x128xbf16> loc(#loc84)
        %144 = "ttir.broadcast"(%90) <{broadcast_dimensions = array<i64: 32, 12, 1, 1>}> : (tensor<1x1x17x128xbf16>) -> tensor<32x12x17x128xbf16> loc(#loc85)
        %145 = "ttir.multiply"(%143, %144) : (tensor<32x12x17x128xbf16>, tensor<32x12x17x128xbf16>) -> tensor<32x12x17x128xbf16> loc(#loc86)
        %146 = "ttir.slice_static"(%143) <{begins = [0 : i32, 0 : i32, 0 : i32, 64 : i32], ends = [32 : i32, 12 : i32, 17 : i32, 128 : i32], step = [1 : i32, 1 : i32, 1 : i32, 1 : i32]}> : (tensor<32x12x17x128xbf16>) -> tensor<32x12x17x64xbf16> loc(#loc87)
        %147 = "ttir.neg"(%146) : (tensor<32x12x17x64xbf16>) -> tensor<32x12x17x64xbf16> loc(#loc88)
        %148 = "ttir.slice_static"(%143) <{begins = [0 : i32, 0 : i32, 0 : i32, 0 : i32], ends = [32 : i32, 12 : i32, 17 : i32, 64 : i32], step = [1 : i32, 1 : i32, 1 : i32, 1 : i32]}> : (tensor<32x12x17x128xbf16>) -> tensor<32x12x17x64xbf16> loc(#loc89)
        %149 = "ttir.concat"(%147, %148) <{dim = 3 : si32}> : (tensor<32x12x17x64xbf16>, tensor<32x12x17x64xbf16>) -> tensor<32x12x17x128xbf16> loc(#loc90)
        %150 = "ttir.broadcast"(%100) <{broadcast_dimensions = array<i64: 32, 12, 1, 1>}> : (tensor<1x1x17x128xbf16>) -> tensor<32x12x17x128xbf16> loc(#loc91)
        %151 = "ttir.multiply"(%149, %150) : (tensor<32x12x17x128xbf16>, tensor<32x12x17x128xbf16>) -> tensor<32x12x17x128xbf16> loc(#loc92)
        %152 = "ttir.add"(%145, %151) : (tensor<32x12x17x128xbf16>, tensor<32x12x17x128xbf16>) -> tensor<32x12x17x128xbf16> loc(#loc93)
        %153 = "ttir.typecast"(%152) <{conservative_folding = false}> : (tensor<32x12x17x128xbf16>) -> tensor<32x12x17x128xf32> loc(#loc94)
        %154 = "ttir.multiply"(%153, %5) : (tensor<32x12x17x128xf32>, tensor<32x12x17x128xf32>) -> tensor<32x12x17x128xf32> loc(#loc95)
        %155 = "ttir.reshape"(%arg11) <{shape = [32 : i32, 2 : i32, 1 : i32, 128 : i32, 128 : i32]}> : (tensor<32x2x128x128xbf16>) -> tensor<32x2x1x128x128xbf16> loc(#loc96)
        %156 = "ttir.broadcast"(%155) <{broadcast_dimensions = array<i64: 1, 1, 6, 1, 1>}> : (tensor<32x2x1x128x128xbf16>) -> tensor<32x2x6x128x128xbf16> loc(#loc96)
        %157 = "ttir.reshape"(%156) <{shape = [32 : i32, 12 : i32, 128 : i32, 128 : i32]}> : (tensor<32x2x6x128x128xbf16>) -> tensor<32x12x128x128xbf16> loc(#loc97)
        %158 = "ttir.typecast"(%157) <{conservative_folding = false}> : (tensor<32x12x128x128xbf16>) -> tensor<32x12x128x128xf32> loc(#loc98)
        %159 = "ttir.permute"(%158) <{permutation = array<i64: 0, 1, 3, 2>}> : (tensor<32x12x128x128xf32>) -> tensor<32x12x128x128xf32> loc(#loc99)
        %160 = "ttir.multiply"(%159, %4) : (tensor<32x12x128x128xf32>, tensor<32x12x128x128xf32>) -> tensor<32x12x128x128xf32> loc(#loc100)
        %161 = "ttir.dot_general"(%154, %160) <{batch_dims_lhs = array<i64: 0, 1>, batch_dims_rhs = array<i64: 0, 1>, contract_dims_lhs = array<i64: 3>, contract_dims_rhs = array<i64: 2>}> : (tensor<32x12x17x128xf32>, tensor<32x12x128x128xf32>) -> tensor<32x12x17x128xf32> loc(#loc101)
        %162 = "ttir.reshape"(%3) <{shape = [1 : i32, 1 : i32, 1 : i32, 128 : i32]}> : (tensor<1x1x128xi64>) -> tensor<1x1x1x128xi64> loc(#loc102)
        %163 = "ttir.broadcast"(%162) <{broadcast_dimensions = array<i64: 1, 1, 17, 1>}> : (tensor<1x1x1x128xi64>) -> tensor<1x1x17x128xi64> loc(#loc102)
        %164 = "ttir.reshape"(%18) <{shape = [1 : i32, 1 : i32, 17 : i32]}> : (tensor<17xi64>) -> tensor<1x1x17xi64> loc(#loc103)
        %165 = "ttir.reshape"(%164) <{shape = [1 : i32, 1 : i32, 17 : i32, 1 : i32]}> : (tensor<1x1x17xi64>) -> tensor<1x1x17x1xi64> loc(#loc104)
        %166 = "ttir.broadcast"(%165) <{broadcast_dimensions = array<i64: 1, 1, 1, 128>}> : (tensor<1x1x17x1xi64>) -> tensor<1x1x17x128xi64> loc(#loc104)
        %167 = "ttir.le"(%163, %166) : (tensor<1x1x17x128xi64>, tensor<1x1x17x128xi64>) -> tensor<1x1x17x128xi1> loc(#loc105)
        %168 = "ttir.reshape"(%167) <{shape = [1 : i32, 17 : i32, 128 : i32]}> : (tensor<1x1x17x128xi1>) -> tensor<1x17x128xi1> loc(#loc106)
        %169 = "ttir.reshape"(%168) <{shape = [1 : i32, 1 : i32, 17 : i32, 128 : i32]}> : (tensor<1x17x128xi1>) -> tensor<1x1x17x128xi1> loc(#loc107)
        %170 = "ttir.broadcast"(%169) <{broadcast_dimensions = array<i64: 32, 1, 1, 1>}> : (tensor<1x1x17x128xi1>) -> tensor<32x1x17x128xi1> loc(#loc107)
        %171 = "ttir.where"(%170, %2, %1) : (tensor<32x1x17x128xi1>, tensor<32x1x17x128xbf16>, tensor<32x1x17x128xbf16>) -> tensor<32x1x17x128xbf16> loc(#loc108)
        %172 = "ttir.typecast"(%171) <{conservative_folding = false}> : (tensor<32x1x17x128xbf16>) -> tensor<32x1x17x128xf32> loc(#loc109)
        %173 = "ttir.reshape"(%172) <{shape = [32 : i32, 17 : i32, 128 : i32]}> : (tensor<32x1x17x128xf32>) -> tensor<32x17x128xf32> loc(#loc110)
        %174 = "ttir.reshape"(%173) <{shape = [32 : i32, 1 : i32, 17 : i32, 128 : i32]}> : (tensor<32x17x128xf32>) -> tensor<32x1x17x128xf32> loc(#loc111)
        %175 = "ttir.broadcast"(%174) <{broadcast_dimensions = array<i64: 1, 12, 1, 1>}> : (tensor<32x1x17x128xf32>) -> tensor<32x12x17x128xf32> loc(#loc111)
        %176 = "ttir.add"(%161, %175) : (tensor<32x12x17x128xf32>, tensor<32x12x17x128xf32>) -> tensor<32x12x17x128xf32> loc(#loc112)
        %177 = "ttir.constant"() <{value = dense<0xFF800000> : tensor<32x12x17x128xf32>}> : () -> tensor<32x12x17x128xf32> loc(#loc)
        %178 = "ttir.eq"(%176, %177) : (tensor<32x12x17x128xf32>, tensor<32x12x17x128xf32>) -> tensor<32x12x17x128xi1> loc(#loc113)
        %179 = "ttir.logical_not"(%178) : (tensor<32x12x17x128xi1>) -> tensor<32x12x17x128xi1> loc(#loc114)
        %180 = "ttir.reduce_or"(%179) <{dim_arg = [3 : i32], keep_dim = false}> : (tensor<32x12x17x128xi1>) -> tensor<32x12x17xi1> loc(#loc115)
        %181 = "ttir.reshape"(%180) <{shape = [32 : i32, 12 : i32, 17 : i32, 1 : i32]}> : (tensor<32x12x17xi1>) -> tensor<32x12x17x1xi1> loc(#loc116)
        %182 = "ttir.logical_not"(%181) : (tensor<32x12x17x1xi1>) -> tensor<32x12x17x1xi1> loc(#loc117)
        %183 = "ttir.reshape"(%182) <{shape = [32 : i32, 12 : i32, 17 : i32]}> : (tensor<32x12x17x1xi1>) -> tensor<32x12x17xi1> loc(#loc118)
        %184 = "ttir.reshape"(%183) <{shape = [32 : i32, 12 : i32, 17 : i32, 1 : i32]}> : (tensor<32x12x17xi1>) -> tensor<32x12x17x1xi1> loc(#loc119)
        %185 = "ttir.broadcast"(%184) <{broadcast_dimensions = array<i64: 1, 1, 1, 128>}> : (tensor<32x12x17x1xi1>) -> tensor<32x12x17x128xi1> loc(#loc119)
        %186 = "ttir.max"(%176) <{dim_arg = [3 : i32], keep_dim = false}> : (tensor<32x12x17x128xf32>) -> tensor<32x12x17xf32> loc(#loc120)
        %187 = "ttir.reshape"(%186) <{shape = [32 : i32, 12 : i32, 17 : i32, 1 : i32]}> : (tensor<32x12x17xf32>) -> tensor<32x12x17x1xf32> loc(#loc121)
        %188 = "ttir.broadcast"(%187) <{broadcast_dimensions = array<i64: 1, 1, 1, 128>}> : (tensor<32x12x17x1xf32>) -> tensor<32x12x17x128xf32> loc(#loc121)
        %189 = "ttir.subtract"(%176, %188) : (tensor<32x12x17x128xf32>, tensor<32x12x17x128xf32>) -> tensor<32x12x17x128xf32> loc(#loc122)
        %190 = "ttir.exp"(%189) : (tensor<32x12x17x128xf32>) -> tensor<32x12x17x128xf32> loc(#loc123)
        %191 = "ttir.sum"(%190) <{dim_arg = [3 : i32], keep_dim = false}> : (tensor<32x12x17x128xf32>) -> tensor<32x12x17xf32> loc(#loc124)
        %192 = "ttir.reshape"(%191) <{shape = [32 : i32, 12 : i32, 17 : i32, 1 : i32]}> : (tensor<32x12x17xf32>) -> tensor<32x12x17x1xf32> loc(#loc125)
        %193 = "ttir.broadcast"(%192) <{broadcast_dimensions = array<i64: 1, 1, 1, 128>}> : (tensor<32x12x17x1xf32>) -> tensor<32x12x17x128xf32> loc(#loc125)
        %194 = "ttir.div"(%190, %193) : (tensor<32x12x17x128xf32>, tensor<32x12x17x128xf32>) -> tensor<32x12x17x128xf32> loc(#loc126)
        %195 = "ttir.where"(%185, %0, %194) : (tensor<32x12x17x128xi1>, tensor<32x12x17x128xf32>, tensor<32x12x17x128xf32>) -> tensor<32x12x17x128xf32> loc(#loc127)
        %196 = "ttir.reshape"(%arg7) <{shape = [32 : i32, 2 : i32, 1 : i32, 128 : i32, 128 : i32]}> : (tensor<32x2x128x128xbf16>) -> tensor<32x2x1x128x128xbf16> loc(#loc128)
        %197 = "ttir.broadcast"(%196) <{broadcast_dimensions = array<i64: 1, 1, 6, 1, 1>}> : (tensor<32x2x1x128x128xbf16>) -> tensor<32x2x6x128x128xbf16> loc(#loc128)
        %198 = "ttir.reshape"(%197) <{shape = [32 : i32, 12 : i32, 128 : i32, 128 : i32]}> : (tensor<32x2x6x128x128xbf16>) -> tensor<32x12x128x128xbf16> loc(#loc129)
        %199 = "ttir.typecast"(%198) <{conservative_folding = false}> : (tensor<32x12x128x128xbf16>) -> tensor<32x12x128x128xf32> loc(#loc130)
        %200 = "ttir.dot_general"(%195, %199) <{batch_dims_lhs = array<i64: 0, 1>, batch_dims_rhs = array<i64: 0, 1>, contract_dims_lhs = array<i64: 3>, contract_dims_rhs = array<i64: 2>}> : (tensor<32x12x17x128xf32>, tensor<32x12x128x128xf32>) -> tensor<32x12x17x128xf32> loc(#loc131)
        %201 = "ttir.typecast"(%200) <{conservative_folding = false}> : (tensor<32x12x17x128xf32>) -> tensor<32x12x17x128xbf16> loc(#loc132)
        %202 = "ttir.permute"(%201) <{permutation = array<i64: 0, 2, 1, 3>}> : (tensor<32x12x17x128xbf16>) -> tensor<32x17x12x128xbf16> loc(#loc133)
        %203 = "ttir.reshape"(%202) <{shape = [544 : i32, 1536 : i32]}> : (tensor<32x17x12x128xbf16>) -> tensor<544x1536xbf16> loc(#loc134)
        %204 = "ttir.permute"(%arg17) <{permutation = array<i64: 1, 0>}> : (tensor<1536x1536xbf16>) -> tensor<1536x1536xbf16> loc(#loc135)
        %205 = "ttir.dot_general"(%203, %204) <{batch_dims_lhs = array<i64>, batch_dims_rhs = array<i64>, contract_dims_lhs = array<i64: 1>, contract_dims_rhs = array<i64: 0>}> : (tensor<544x1536xbf16>, tensor<1536x1536xbf16>) -> tensor<544x1536xbf16> loc(#loc136)
        %206 = "ttir.reshape"(%205) <{shape = [32 : i32, 17 : i32, 1536 : i32]}> : (tensor<544x1536xbf16>) -> tensor<32x17x1536xbf16> loc(#loc137)
        %207 = "ttir.add"(%30, %206) : (tensor<32x17x1536xbf16>, tensor<32x17x1536xbf16>) -> tensor<32x17x1536xbf16> loc(#loc138)
        %208 = "ttir.rms_norm"(%207, %arg16) <{epsilon = 9.99999997E-7 : f32, normalized_shape = array<i64: 1536>, operandSegmentSizes = array<i32: 1, 1, 0>}> : (tensor<32x17x1536xbf16>, tensor<1536xbf16>) -> tensor<32x17x1536xbf16> loc(#loc139)
        %209 = "ttir.reshape"(%208) <{shape = [544 : i32, 1536 : i32]}> : (tensor<32x17x1536xbf16>) -> tensor<544x1536xbf16> loc(#loc140)
        %210 = "ttir.permute"(%arg20) <{permutation = array<i64: 1, 0>}> : (tensor<8960x1536xbf16>) -> tensor<1536x8960xbf16> loc(#loc141)
        %211 = "ttir.dot_general"(%209, %210) <{batch_dims_lhs = array<i64>, batch_dims_rhs = array<i64>, contract_dims_lhs = array<i64: 1>, contract_dims_rhs = array<i64: 0>}> : (tensor<544x1536xbf16>, tensor<1536x8960xbf16>) -> tensor<544x8960xbf16> loc(#loc142)
        %212 = "ttir.reshape"(%211) <{shape = [32 : i32, 17 : i32, 8960 : i32]}> : (tensor<544x8960xbf16>) -> tensor<32x17x8960xbf16> loc(#loc143)
        %213 = "ttir.typecast"(%212) <{conservative_folding = false}> : (tensor<32x17x8960xbf16>) -> tensor<32x17x8960xf32> loc(#loc144)
        %214 = "ttir.sigmoid"(%213) : (tensor<32x17x8960xf32>) -> tensor<32x17x8960xf32> loc(#loc145)
        %215 = "ttir.multiply"(%213, %214) : (tensor<32x17x8960xf32>, tensor<32x17x8960xf32>) -> tensor<32x17x8960xf32> loc(#loc146)
        %216 = "ttir.typecast"(%215) <{conservative_folding = false}> : (tensor<32x17x8960xf32>) -> tensor<32x17x8960xbf16> loc(#loc147)
        %217 = "ttir.permute"(%arg15) <{permutation = array<i64: 1, 0>}> : (tensor<8960x1536xbf16>) -> tensor<1536x8960xbf16> loc(#loc148)
        %218 = "ttir.dot_general"(%209, %217) <{batch_dims_lhs = array<i64>, batch_dims_rhs = array<i64>, contract_dims_lhs = array<i64: 1>, contract_dims_rhs = array<i64: 0>}> : (tensor<544x1536xbf16>, tensor<1536x8960xbf16>) -> tensor<544x8960xbf16> loc(#loc149)
        %219 = "ttir.reshape"(%218) <{shape = [32 : i32, 17 : i32, 8960 : i32]}> : (tensor<544x8960xbf16>) -> tensor<32x17x8960xbf16> loc(#loc150)
        %220 = "ttir.multiply"(%216, %219) : (tensor<32x17x8960xbf16>, tensor<32x17x8960xbf16>) -> tensor<32x17x8960xbf16> loc(#loc151)
        %221 = "ttir.reshape"(%220) <{shape = [544 : i32, 8960 : i32]}> : (tensor<32x17x8960xbf16>) -> tensor<544x8960xbf16> loc(#loc152)
        %222 = "ttir.permute"(%arg14) <{permutation = array<i64: 1, 0>}> : (tensor<1536x8960xbf16>) -> tensor<8960x1536xbf16> loc(#loc153)
        %223 = "ttir.dot_general"(%221, %222) <{batch_dims_lhs = array<i64>, batch_dims_rhs = array<i64>, contract_dims_lhs = array<i64: 1>, contract_dims_rhs = array<i64: 0>}> : (tensor<544x8960xbf16>, tensor<8960x1536xbf16>) -> tensor<544x1536xbf16> loc(#loc154)
        %224 = "ttir.reshape"(%223) <{shape = [32 : i32, 17 : i32, 1536 : i32]}> : (tensor<544x1536xbf16>) -> tensor<32x17x1536xbf16> loc(#loc155)
        %225 = "ttir.add"(%207, %224) : (tensor<32x17x1536xbf16>, tensor<32x17x1536xbf16>) -> tensor<32x17x1536xbf16> loc(#loc156)
        %226 = "ttir.rms_norm"(%225, %arg13) <{epsilon = 9.99999997E-7 : f32, normalized_shape = array<i64: 1536>, operandSegmentSizes = array<i32: 1, 1, 0>}> : (tensor<32x17x1536xbf16>, tensor<1536xbf16>) -> tensor<32x17x1536xbf16> loc(#loc157)
        %227 = "ttir.reshape"(%226) <{shape = [544 : i32, 1536 : i32]}> : (tensor<32x17x1536xbf16>) -> tensor<544x1536xbf16> loc(#loc158)
        %228 = "ttir.permute"(%arg12) <{permutation = array<i64: 1, 0>}> : (tensor<151936x1536xbf16>) -> tensor<1536x151936xbf16> loc(#loc159)
        %229 = "ttir.dot_general"(%227, %228) <{batch_dims_lhs = array<i64>, batch_dims_rhs = array<i64>, contract_dims_lhs = array<i64: 1>, contract_dims_rhs = array<i64: 0>}> : (tensor<544x1536xbf16>, tensor<1536x151936xbf16>) -> tensor<544x151936xbf16> loc(#loc160)
        %230 = "ttir.reshape"(%229) <{shape = [32 : i32, 17 : i32, 151936 : i32]}> : (tensor<544x151936xbf16>) -> tensor<32x17x151936xbf16> loc(#loc161)
        %231 = "ttir.slice_static"(%230) <{begins = [0 : i32, 16 : i32, 0 : i32], ends = [32 : i32, 17 : i32, 151936 : i32], step = [1 : i32, 1 : i32, 1 : i32]}> : (tensor<32x17x151936xbf16>) -> tensor<32x1x151936xbf16> loc(#loc162)
        %232 = "ttir.reshape"(%231) <{shape = [32 : i32, 151936 : i32]}> : (tensor<32x1x151936xbf16>) -> tensor<32x151936xbf16> loc(#loc163)
        %233 = "ttir.arange"() <{arange_dimension = 0 : i64, end = 151936 : si64, start = 0 : si64, step = 1 : si64}> : () -> tensor<151936xi32> loc(#loc164)
        %234 = "ttir.reshape"(%233) <{shape = [1 : i32, 151936 : i32]}> : (tensor<151936xi32>) -> tensor<1x151936xi32> loc(#loc164)
        %235 = "ttir.argmax"(%232) <{dim_arg = [1 : i32], keep_dim = false}> : (tensor<32x151936xbf16>) -> tensor<32xi32> loc(#loc165)
        %236 = "ttir.typecast"(%235) <{conservative_folding = false}> : (tensor<32xi32>) -> tensor<32xi64> loc(#loc166)
        %237 = "ttir.reshape"(%236) <{shape = [32 : i32, 1 : i32]}> : (tensor<32xi64>) -> tensor<32x1xi64> loc(#loc167)
        return %11, %14, %arg7, %arg11, %230, %237 : tensor<1xi64>, tensor<1xi64>, tensor<32x2x128x128xbf16>, tensor<32x2x128x128xbf16>, tensor<32x17x151936xbf16>, tensor<32x1xi64> loc(#loc)
      } loc(#loc)
    } loc(#loc)
  } loc(#loc)
} loc(#loc)
#loc = loc(unknown)
#loc22 = loc("add.9")
#loc23 = loc("reshape.13")
#loc24 = loc("slice.16")
#loc25 = loc("add.19")
#loc26 = loc("reshape.106")
#loc27 = loc("reshape.4")
#loc28 = loc("broadcast.107")
#loc29 = loc("add.108")
#loc30 = loc("compare.117")
#loc31 = loc("add.114")
#loc32 = loc("select.118")
#loc33 = loc("reshape.49")
#loc34 = loc("reshape.46")
#loc35 = loc("convert.57")
#loc36 = loc("gather.58")
#loc37 = loc("reshape.59")
#loc38 = loc("custom-call.92")
#loc39 = loc("reshape.93")
#loc40 = loc("transpose.32")
#loc41 = loc("dot.94")
#loc42 = loc("reshape.95")
#loc43 = loc("broadcast.98")
#loc44 = loc("add.99")
#loc45 = loc("reshape.100")
#loc46 = loc("transpose.101")
#loc47 = loc("scatter.127")
#loc48 = loc("transpose.164")
#loc49 = loc("dot.166")
#loc50 = loc("reshape.167")
#loc51 = loc("broadcast.170")
#loc52 = loc("add.171")
#loc53 = loc("reshape.172")
#loc54 = loc("transpose.173")
#loc55 = loc("reshape.140")
#loc56 = loc("reshape.136")
#loc57 = loc("convert.141")
#loc58 = loc("convert.133")
#loc59 = loc("dot.144")
#loc60 = loc("transpose.145")
#loc61 = loc("concatenate.146")
#loc62 = loc("cosine.182")
#loc63 = loc("convert.185")
#loc64 = loc("reshape.187")
#loc65 = loc("broadcast.188")
#loc66 = loc("multiply.189")
#loc67 = loc("slice.175")
#loc68 = loc("negate.176")
#loc69 = loc("slice.174")
#loc70 = loc("concatenate.177")
#loc71 = loc("sine.147")
#loc72 = loc("convert.150")
#loc73 = loc("reshape.178")
#loc74 = loc("broadcast.179")
#loc75 = loc("multiply.180")
#loc76 = loc("add.192")
#loc77 = loc("scatter.211")
#loc78 = loc("transpose.345")
#loc79 = loc("dot.347")
#loc80 = loc("reshape.348")
#loc81 = loc("broadcast.351")
#loc82 = loc("add.352")
#loc83 = loc("reshape.353")
#loc84 = loc("transpose.354")
#loc85 = loc("broadcast.363")
#loc86 = loc("multiply.364")
#loc87 = loc("slice.356")
#loc88 = loc("negate.357")
#loc89 = loc("slice.355")
#loc90 = loc("concatenate.358")
#loc91 = loc("broadcast.360")
#loc92 = loc("multiply.361")
#loc93 = loc("add.367")
#loc94 = loc("convert.368")
#loc95 = loc("multiply.370")
#loc96 = loc("broadcast.324")
#loc97 = loc("reshape.325")
#loc98 = loc("convert.326")
#loc99 = loc("transpose.327")
#loc100 = loc("multiply.329")
#loc101 = loc("dot.372")
#loc102 = loc("broadcast.311")
#loc103 = loc("reshape.299")
#loc104 = loc("broadcast.313")
#loc105 = loc("compare.314")
#loc106 = loc("reshape.316")
#loc107 = loc("broadcast.317")
#loc108 = loc("select.319")
#loc109 = loc("convert.374")
#loc110 = loc("reshape.377")
#loc111 = loc("broadcast.378")
#loc112 = loc("add.379")
#loc113 = loc("compare.407")
#loc114 = loc("not.409")
#loc115 = loc("reduce.421")
#loc116 = loc("reshape.425")
#loc117 = loc("not.427")
#loc118 = loc("reshape.429")
#loc119 = loc("broadcast.430")
#loc120 = loc("reduce.385")
#loc121 = loc("broadcast.386")
#loc122 = loc("subtract.387")
#loc123 = loc("exponential.388")
#loc124 = loc("reduce.394")
#loc125 = loc("broadcast.395")
#loc126 = loc("divide.396")
#loc127 = loc("select.431")
#loc128 = loc("broadcast.274")
#loc129 = loc("reshape.275")
#loc130 = loc("convert.276")
#loc131 = loc("dot.433")
#loc132 = loc("convert.435")
#loc133 = loc("transpose.436")
#loc134 = loc("reshape.438")
#loc135 = loc("transpose.270")
#loc136 = loc("dot.439")
#loc137 = loc("reshape.440")
#loc138 = loc("add.443")
#loc139 = loc("custom-call.476")
#loc140 = loc("reshape.488")
#loc141 = loc("transpose.487")
#loc142 = loc("dot.489")
#loc143 = loc("reshape.490")
#loc144 = loc("convert.491")
#loc145 = loc("logistic.492")
#loc146 = loc("multiply.493")
#loc147 = loc("convert.494")
#loc148 = loc("transpose.249")
#loc149 = loc("dot.478")
#loc150 = loc("reshape.479")
#loc151 = loc("multiply.495")
#loc152 = loc("reshape.496")
#loc153 = loc("transpose.241")
#loc154 = loc("dot.497")
#loc155 = loc("reshape.498")
#loc156 = loc("add.501")
#loc157 = loc("custom-call.534")
#loc158 = loc("reshape.535")
#loc159 = loc("transpose.220")
#loc160 = loc("dot.536")
#loc161 = loc("reshape.537")
#loc162 = loc("slice.538")
#loc163 = loc("reshape.539")
#loc164 = loc("iota.542")
#loc165 = loc("reduce.567")
#loc166 = loc("convert.569")
#loc167 = loc("reshape.570")
#loc168 = loc(fused[#loc26, #loc27])
#loc169 = loc(fused[#loc33, #loc34])
#loc170 = loc("gather.58_permuteInput"(#loc36))
#loc171 = loc("gather.58_reshapeInput"(#loc36))
#loc172 = loc("gather.58_reshapeStartIndices"(#loc36))
#loc173 = loc("gather.58_reshapeOutput"(#loc36))
#loc174 = loc("gather.58_permuteOutput"(#loc36))
#loc175 = loc(fused[#loc55, #loc56])
