#loc1 = loc("p0.3")
#loc2 = loc("p1.11")
#loc3 = loc("p2.28")
#loc4 = loc("p3.37")
#loc5 = loc("p4.42")
#loc6 = loc("p5.51")
#loc7 = loc("p6.56")
#loc8 = loc("p7.165")
#loc9 = loc("p8.173")
#loc10 = loc("p9.195")
#loc11 = loc("p10.209")
#loc12 = loc("p11.214")
#loc13 = loc("p12.224")
#loc14 = loc("p13.229")
#loc15 = loc("p14.234")
#loc16 = loc("p15.244")
#loc17 = loc("p16.299")
#loc18 = loc("p17.308")
#loc19 = loc("p18.474")
module @SyncTensorsGraph.563 attributes {mhlo.cross_program_prefetches = [], mhlo.input_output_alias = [], mhlo.is_dynamic = false, mhlo.use_auto_spmd_partitioning = false, ttcore.meshes = #ttcore.meshes<[<"mesh" = 1x1>]>} {
  ttcore.device_module {
    builtin.module @SyncTensorsGraph.563 attributes {mhlo.cross_program_prefetches = [], mhlo.input_output_alias = [], mhlo.is_dynamic = false, mhlo.use_auto_spmd_partitioning = false, ttcore.meshes = #ttcore.meshes<[<"mesh" = 1x1>]>} {
      func.func @main(%arg0: tensor<17xi64> {ttcore.argument_type = #ttcore.argument_type<input>, ttcore.local_shape = #ttcore<local_shape local_shape = tensor<17xi64>>, ttcore.shard_status = #ttcore.shard_status<unsharded>, ttir.name = "args_1"} loc("p0.3"), %arg1: tensor<64xbf16> {ttcore.argument_type = #ttcore.argument_type<constant>, ttcore.local_shape = #ttcore<local_shape local_shape = tensor<64xbf16>>, ttcore.shard_status = #ttcore.shard_status<unsharded>, ttir.name = "L__self___model_model_rotary_emb_inv_freq"} loc("p1.11"), %arg2: tensor<128xbf16> {ttcore.argument_type = #ttcore.argument_type<parameter>, ttcore.local_shape = #ttcore<local_shape local_shape = tensor<128xbf16>>, ttcore.shard_status = #ttcore.shard_status<unsharded>, ttir.name = "L__self___model_model_layers__modules__0___self_attn_k_norm_weight"} loc("p2.28"), %arg3: tensor<1024x2048xbf16> {ttcore.argument_type = #ttcore.argument_type<parameter>, ttcore.local_shape = #ttcore<local_shape local_shape = tensor<1024x2048xbf16>>, ttcore.shard_status = #ttcore.shard_status<unsharded>, ttir.name = "L__self___model_model_layers__modules__0___self_attn_k_proj.weight"} loc("p3.37"), %arg4: tensor<2048xbf16> {ttcore.argument_type = #ttcore.argument_type<parameter>, ttcore.local_shape = #ttcore<local_shape local_shape = tensor<2048xbf16>>, ttcore.shard_status = #ttcore.shard_status<unsharded>, ttir.name = "L__self___model_model_layers__modules__0___input_layernorm_weight"} loc("p4.42"), %arg5: tensor<32x17xi64> {ttcore.argument_type = #ttcore.argument_type<input>, ttcore.local_shape = #ttcore<local_shape local_shape = tensor<32x17xi64>>, ttcore.shard_status = #ttcore.shard_status<unsharded>, ttir.name = "args_0"} loc("p5.51"), %arg6: tensor<151936x2048xbf16> {ttcore.argument_type = #ttcore.argument_type<parameter>, ttcore.local_shape = #ttcore<local_shape local_shape = tensor<151936x2048xbf16>>, ttcore.shard_status = #ttcore.shard_status<unsharded>, ttir.name = "L__self___model_model_embed_tokens.weight"} loc("p6.56"), %arg7: tensor<32x8x128x128xbf16> {ttcore.argument_type = #ttcore.argument_type<input>, ttcore.local_shape = #ttcore<local_shape local_shape = tensor<32x8x128x128xbf16>>, ttcore.shard_status = #ttcore.shard_status<unsharded>, ttir.name = "args_2"} loc("p7.165"), %arg8: tensor<1024x2048xbf16> {ttcore.argument_type = #ttcore.argument_type<parameter>, ttcore.local_shape = #ttcore<local_shape local_shape = tensor<1024x2048xbf16>>, ttcore.shard_status = #ttcore.shard_status<unsharded>, ttir.name = "L__self___model_model_layers__modules__0___self_attn_v_proj.weight"} loc("p8.173"), %arg9: tensor<32x8x128x128xbf16> {ttcore.argument_type = #ttcore.argument_type<input>, ttcore.local_shape = #ttcore<local_shape local_shape = tensor<32x8x128x128xbf16>>, ttcore.shard_status = #ttcore.shard_status<unsharded>, ttir.name = "args_3"} loc("p9.195"), %arg10: tensor<151936x2048xbf16> {ttcore.argument_type = #ttcore.argument_type<parameter>, ttcore.local_shape = #ttcore<local_shape local_shape = tensor<151936x2048xbf16>>, ttcore.shard_status = #ttcore.shard_status<unsharded>, ttir.name = "L__self___model_lm_head.weight"} loc("p10.209"), %arg11: tensor<2048xbf16> {ttcore.argument_type = #ttcore.argument_type<parameter>, ttcore.local_shape = #ttcore<local_shape local_shape = tensor<2048xbf16>>, ttcore.shard_status = #ttcore.shard_status<unsharded>, ttir.name = "L__self___model_model_norm_weight"} loc("p11.214"), %arg12: tensor<2048x6144xbf16> {ttcore.argument_type = #ttcore.argument_type<parameter>, ttcore.local_shape = #ttcore<local_shape local_shape = tensor<2048x6144xbf16>>, ttcore.shard_status = #ttcore.shard_status<unsharded>, ttir.name = "L__self___model_model_layers__modules__0___mlp_down_proj.weight"} loc("p12.224"), %arg13: tensor<6144x2048xbf16> {ttcore.argument_type = #ttcore.argument_type<parameter>, ttcore.local_shape = #ttcore<local_shape local_shape = tensor<6144x2048xbf16>>, ttcore.shard_status = #ttcore.shard_status<unsharded>, ttir.name = "L__self___model_model_layers__modules__0___mlp_up_proj.weight"} loc("p13.229"), %arg14: tensor<2048xbf16> {ttcore.argument_type = #ttcore.argument_type<parameter>, ttcore.local_shape = #ttcore<local_shape local_shape = tensor<2048xbf16>>, ttcore.shard_status = #ttcore.shard_status<unsharded>, ttir.name = "L__self___model_model_layers__modules__0___post_attention_layernorm_weight"} loc("p14.234"), %arg15: tensor<2048x2048xbf16> {ttcore.argument_type = #ttcore.argument_type<parameter>, ttcore.local_shape = #ttcore<local_shape local_shape = tensor<2048x2048xbf16>>, ttcore.shard_status = #ttcore.shard_status<unsharded>, ttir.name = "L__self___model_model_layers__modules__0___self_attn_o_proj.weight"} loc("p15.244"), %arg16: tensor<128xbf16> {ttcore.argument_type = #ttcore.argument_type<parameter>, ttcore.local_shape = #ttcore<local_shape local_shape = tensor<128xbf16>>, ttcore.shard_status = #ttcore.shard_status<unsharded>, ttir.name = "L__self___model_model_layers__modules__0___self_attn_q_norm_weight"} loc("p16.299"), %arg17: tensor<2048x2048xbf16> {ttcore.argument_type = #ttcore.argument_type<parameter>, ttcore.local_shape = #ttcore<local_shape local_shape = tensor<2048x2048xbf16>>, ttcore.shard_status = #ttcore.shard_status<unsharded>, ttir.name = "L__self___model_model_layers__modules__0___self_attn_q_proj.weight"} loc("p17.308"), %arg18: tensor<6144x2048xbf16> {ttcore.argument_type = #ttcore.argument_type<parameter>, ttcore.local_shape = #ttcore<local_shape local_shape = tensor<6144x2048xbf16>>, ttcore.shard_status = #ttcore.shard_status<unsharded>, ttir.name = "L__self___model_model_layers__modules__0___mlp_gate_proj.weight"} loc("p18.474")) -> (tensor<32x8x128x128xbf16> {ttcore.local_shape = #ttcore<local_shape local_shape = tensor<32x8x128x128xbf16>>, ttcore.shard_status = #ttcore.shard_status<presharded>}, tensor<32x8x128x128xbf16> {ttcore.local_shape = #ttcore<local_shape local_shape = tensor<32x8x128x128xbf16>>, ttcore.shard_status = #ttcore.shard_status<presharded>}, tensor<1xi64> {ttcore.local_shape = #ttcore<local_shape local_shape = tensor<1xi64>>, ttcore.shard_status = #ttcore.shard_status<presharded>}, tensor<32x1xi64> {ttcore.local_shape = #ttcore<local_shape local_shape = tensor<32x1xi64>>, ttcore.shard_status = #ttcore.shard_status<presharded>}) {
        %0 = "ttir.constant"() <{value = dense<0.000000e+00> : tensor<32x16x17x128xf32>}> : () -> tensor<32x16x17x128xf32> loc(#loc)
        %1 = "ttir.constant"() <{value = dense<0xFFF0000000000000> : tensor<32x16x17x128xf64>}> : () -> tensor<32x16x17x128xf64> loc(#loc)
        %2 = "ttir.constant"() <{value = dense<0xFF80> : tensor<32x1x17x128xbf16>}> : () -> tensor<32x1x17x128xbf16> loc(#loc)
        %3 = "ttir.constant"() <{value = dense<0.000000e+00> : tensor<32x1x17x128xbf16>}> : () -> tensor<32x1x17x128xbf16> loc(#loc)
        %4 = "ttir.constant"() <{value = dense<0.297301769> : tensor<32x16x128x128xf32>}> : () -> tensor<32x16x128x128xf32> loc(#loc)
        %5 = "ttir.constant"() <{value = dense<0.297301769> : tensor<32x16x17x128xf32>}> : () -> tensor<32x16x17x128xf32> loc(#loc)
        %6 = "ttir.constant"() <{value = dense<1> : tensor<1xi64>}> : () -> tensor<1xi64> loc(#loc)
        %7 = "ttir.constant"() <{value = dense<128> : tensor<17xi64>}> : () -> tensor<17xi64> loc(#loc)
        %8 = "ttir.constant"() <{value = dense<0> : tensor<17xi64>}> : () -> tensor<17xi64> loc(#loc)
        %9 = "ttir.constant"() <{value = dense<"…"> : tensor<128xi64>}> : () -> tensor<128xi64> loc(#loc)
        %10 = "ttir.reshape"(%arg0) <{shape = [1 : i32, 1 : i32, 17 : i32]}> : (tensor<17xi64>) -> tensor<1x1x17xi64> loc(#loc20)
        %11 = "ttir.reshape"(%10) <{shape = [17 : i32]}> : (tensor<1x1x17xi64>) -> tensor<17xi64> loc(#loc21)
        %12 = "ttir.lt"(%11, %8) : (tensor<17xi64>, tensor<17xi64>) -> tensor<17xi1> loc(#loc22)
        %13 = "ttir.add"(%11, %7) : (tensor<17xi64>, tensor<17xi64>) -> tensor<17xi64> loc(#loc23)
        %14 = "ttir.where"(%12, %13, %11) : (tensor<17xi1>, tensor<17xi64>, tensor<17xi64>) -> tensor<17xi64> loc(#loc24)
        %15 = "ttir.reshape"(%arg6) <{shape = [1 : i32, 151936 : i32, 2048 : i32]}> : (tensor<151936x2048xbf16>) -> tensor<1x151936x2048xbf16> loc(#loc25)
        %16 = "ttir.reshape"(%15) <{shape = [151936 : i32, 2048 : i32]}> : (tensor<1x151936x2048xbf16>) -> tensor<151936x2048xbf16> loc(#loc26)
        %17 = "ttir.reshape"(%arg5) <{shape = [1 : i32, 32 : i32, 17 : i32]}> : (tensor<32x17xi64>) -> tensor<1x32x17xi64> loc(#loc27)
        %18 = "ttir.reshape"(%17) <{shape = [544 : i32]}> : (tensor<1x32x17xi64>) -> tensor<544xi64> loc(#loc28)
        %19 = "ttir.typecast"(%18) <{conservative_folding = false}> : (tensor<544xi64>) -> tensor<544xui32> loc(#loc29)
        %20 = "ttir.permute"(%16) <{permutation = array<i64: 0, 1>}> : (tensor<151936x2048xbf16>) -> tensor<151936x2048xbf16> loc(#loc183)
        %21 = "ttir.reshape"(%20) <{shape = [151936 : i32, 2048 : i32]}> : (tensor<151936x2048xbf16>) -> tensor<151936x2048xbf16> loc(#loc184)
        %22 = "ttir.reshape"(%19) <{shape = [1 : i32, 544 : i32]}> : (tensor<544xui32>) -> tensor<1x544xui32> loc(#loc185)
        %23 = "ttir.embedding"(%22, %21) : (tensor<1x544xui32>, tensor<151936x2048xbf16>) -> tensor<1x544x2048xbf16> loc(#loc30)
        %24 = "ttir.reshape"(%23) <{shape = [544 : i32, 2048 : i32]}> : (tensor<1x544x2048xbf16>) -> tensor<544x2048xbf16> loc(#loc186)
        %25 = "ttir.permute"(%24) <{permutation = array<i64: 0, 1>}> : (tensor<544x2048xbf16>) -> tensor<544x2048xbf16> loc(#loc187)
        %26 = "ttir.reshape"(%25) <{shape = [32 : i32, 17 : i32, 2048 : i32]}> : (tensor<544x2048xbf16>) -> tensor<32x17x2048xbf16> loc(#loc31)
        %27 = "ttir.reshape"(%arg4) <{shape = [1 : i32, 1 : i32, 2048 : i32]}> : (tensor<2048xbf16>) -> tensor<1x1x2048xbf16> loc(#loc32)
        %28 = "ttir.reshape"(%27) <{shape = [2048 : i32]}> : (tensor<1x1x2048xbf16>) -> tensor<2048xbf16> loc(#loc33)
        %29 = "ttir.rms_norm"(%26, %28) <{epsilon = 9.99999997E-7 : f32, normalized_shape = array<i64: 2048>, operandSegmentSizes = array<i32: 1, 1, 0>}> : (tensor<32x17x2048xbf16>, tensor<2048xbf16>) -> tensor<32x17x2048xbf16> loc(#loc34)
        %30 = "ttir.reshape"(%29) <{shape = [544 : i32, 2048 : i32]}> : (tensor<32x17x2048xbf16>) -> tensor<544x2048xbf16> loc(#loc35)
        %31 = "ttir.reshape"(%arg3) <{shape = [1 : i32, 1024 : i32, 2048 : i32]}> : (tensor<1024x2048xbf16>) -> tensor<1x1024x2048xbf16> loc(#loc36)
        %32 = "ttir.reshape"(%31) <{shape = [1024 : i32, 2048 : i32]}> : (tensor<1x1024x2048xbf16>) -> tensor<1024x2048xbf16> loc(#loc37)
        %33 = "ttir.permute"(%32) <{permutation = array<i64: 1, 0>}> : (tensor<1024x2048xbf16>) -> tensor<2048x1024xbf16> loc(#loc38)
        %34 = "ttir.dot_general"(%30, %33) <{batch_dims_lhs = array<i64>, batch_dims_rhs = array<i64>, contract_dims_lhs = array<i64: 1>, contract_dims_rhs = array<i64: 0>}> : (tensor<544x2048xbf16>, tensor<2048x1024xbf16>) -> tensor<544x1024xbf16> loc(#loc39)
        %35 = "ttir.reshape"(%34) <{shape = [32 : i32, 17 : i32, 8 : i32, 128 : i32]}> : (tensor<544x1024xbf16>) -> tensor<32x17x8x128xbf16> loc(#loc40)
        %36 = "ttir.reshape"(%arg2) <{shape = [1 : i32, 1 : i32, 128 : i32]}> : (tensor<128xbf16>) -> tensor<1x1x128xbf16> loc(#loc41)
        %37 = "ttir.reshape"(%36) <{shape = [128 : i32]}> : (tensor<1x1x128xbf16>) -> tensor<128xbf16> loc(#loc42)
        %38 = "ttir.rms_norm"(%35, %37) <{epsilon = 9.99999997E-7 : f32, normalized_shape = array<i64: 128>, operandSegmentSizes = array<i32: 1, 1, 0>}> : (tensor<32x17x8x128xbf16>, tensor<128xbf16>) -> tensor<32x17x8x128xbf16> loc(#loc43)
        %39 = "ttir.permute"(%38) <{permutation = array<i64: 0, 2, 1, 3>}> : (tensor<32x17x8x128xbf16>) -> tensor<32x8x17x128xbf16> loc(#loc44)
        %40 = "ttir.reshape"(%arg1) <{shape = [1 : i32, 1 : i32, 64 : i32]}> : (tensor<64xbf16>) -> tensor<1x1x64xbf16> loc(#loc45)
        %41 = "ttir.reshape"(%40) <{shape = [1 : i32, 64 : i32, 1 : i32]}> : (tensor<1x1x64xbf16>) -> tensor<1x64x1xbf16> loc(#loc46)
        %42 = "ttir.typecast"(%41) <{conservative_folding = false}> : (tensor<1x64x1xbf16>) -> tensor<1x64x1xf32> loc(#loc47)
        %43 = "ttir.typecast"(%10) <{conservative_folding = false}> : (tensor<1x1x17xi64>) -> tensor<1x1x17xf32> loc(#loc48)
        %44 = "ttir.dot_general"(%42, %43) <{batch_dims_lhs = array<i64: 0>, batch_dims_rhs = array<i64: 0>, contract_dims_lhs = array<i64: 2>, contract_dims_rhs = array<i64: 1>}> : (tensor<1x64x1xf32>, tensor<1x1x17xf32>) -> tensor<1x64x17xf32> loc(#loc49)
        %45 = "ttir.permute"(%44) <{permutation = array<i64: 0, 2, 1>}> : (tensor<1x64x17xf32>) -> tensor<1x17x64xf32> loc(#loc50)
        %46 = "ttir.concat"(%45, %45) <{dim = 2 : si32}> : (tensor<1x17x64xf32>, tensor<1x17x64xf32>) -> tensor<1x17x128xf32> loc(#loc51)
        %47 = "ttir.cos"(%46) : (tensor<1x17x128xf32>) -> tensor<1x17x128xf32> loc(#loc52)
        %48 = "ttir.typecast"(%47) <{conservative_folding = false}> : (tensor<1x17x128xf32>) -> tensor<1x17x128xbf16> loc(#loc53)
        %49 = "ttir.reshape"(%48) <{shape = [17 : i32, 128 : i32]}> : (tensor<1x17x128xbf16>) -> tensor<17x128xbf16> loc(#loc54)
        %50 = "ttir.reshape"(%49) <{shape = [1 : i32, 1 : i32, 17 : i32, 128 : i32]}> : (tensor<17x128xbf16>) -> tensor<1x1x17x128xbf16> loc(#loc55)
        %51 = "ttir.broadcast"(%50) <{broadcast_dimensions = array<i64: 32, 8, 1, 1>}> : (tensor<1x1x17x128xbf16>) -> tensor<32x8x17x128xbf16> loc(#loc55)
        %52 = "ttir.multiply"(%39, %51) : (tensor<32x8x17x128xbf16>, tensor<32x8x17x128xbf16>) -> tensor<32x8x17x128xbf16> loc(#loc56)
        %53 = "ttir.slice_static"(%39) <{begins = [0 : i32, 0 : i32, 0 : i32, 64 : i32], ends = [32 : i32, 8 : i32, 17 : i32, 128 : i32], step = [1 : i32, 1 : i32, 1 : i32, 1 : i32]}> : (tensor<32x8x17x128xbf16>) -> tensor<32x8x17x64xbf16> loc(#loc57)
        %54 = "ttir.neg"(%53) : (tensor<32x8x17x64xbf16>) -> tensor<32x8x17x64xbf16> loc(#loc58)
        %55 = "ttir.slice_static"(%39) <{begins = [0 : i32, 0 : i32, 0 : i32, 0 : i32], ends = [32 : i32, 8 : i32, 17 : i32, 64 : i32], step = [1 : i32, 1 : i32, 1 : i32, 1 : i32]}> : (tensor<32x8x17x128xbf16>) -> tensor<32x8x17x64xbf16> loc(#loc59)
        %56 = "ttir.concat"(%54, %55) <{dim = 3 : si32}> : (tensor<32x8x17x64xbf16>, tensor<32x8x17x64xbf16>) -> tensor<32x8x17x128xbf16> loc(#loc60)
        %57 = "ttir.sin"(%46) : (tensor<1x17x128xf32>) -> tensor<1x17x128xf32> loc(#loc61)
        %58 = "ttir.typecast"(%57) <{conservative_folding = false}> : (tensor<1x17x128xf32>) -> tensor<1x17x128xbf16> loc(#loc62)
        %59 = "ttir.reshape"(%58) <{shape = [17 : i32, 128 : i32]}> : (tensor<1x17x128xbf16>) -> tensor<17x128xbf16> loc(#loc63)
        %60 = "ttir.reshape"(%59) <{shape = [1 : i32, 1 : i32, 17 : i32, 128 : i32]}> : (tensor<17x128xbf16>) -> tensor<1x1x17x128xbf16> loc(#loc64)
        %61 = "ttir.broadcast"(%60) <{broadcast_dimensions = array<i64: 32, 8, 1, 1>}> : (tensor<1x1x17x128xbf16>) -> tensor<32x8x17x128xbf16> loc(#loc64)
        %62 = "ttir.multiply"(%56, %61) : (tensor<32x8x17x128xbf16>, tensor<32x8x17x128xbf16>) -> tensor<32x8x17x128xbf16> loc(#loc65)
        %63 = "ttir.add"(%52, %62) : (tensor<32x8x17x128xbf16>, tensor<32x8x17x128xbf16>) -> tensor<32x8x17x128xbf16> loc(#loc66)
        %64 = "ttir.slice_static"(%63) <{begins = [0 : i32, 0 : i32, 0 : i32, 0 : i32], ends = [1 : i32, 8 : i32, 17 : i32, 128 : i32], step = [1 : i32, 1 : i32, 1 : i32, 1 : i32]}> : (tensor<32x8x17x128xbf16>) -> tensor<1x8x17x128xbf16> loc(#loc67)
        %65 = "ttir.fill_cache"(%arg7, %64) <{batch_offset = 0 : i32}> : (tensor<32x8x128x128xbf16>, tensor<1x8x17x128xbf16>) -> tensor<32x8x128x128xbf16> loc(#loc67)
        %66 = "ttir.slice_static"(%63) <{begins = [1 : i32, 0 : i32, 0 : i32, 0 : i32], ends = [2 : i32, 8 : i32, 17 : i32, 128 : i32], step = [1 : i32, 1 : i32, 1 : i32, 1 : i32]}> : (tensor<32x8x17x128xbf16>) -> tensor<1x8x17x128xbf16> loc(#loc67)
        %67 = "ttir.fill_cache"(%65, %66) <{batch_offset = 1 : i32}> : (tensor<32x8x128x128xbf16>, tensor<1x8x17x128xbf16>) -> tensor<32x8x128x128xbf16> loc(#loc67)
        %68 = "ttir.slice_static"(%63) <{begins = [2 : i32, 0 : i32, 0 : i32, 0 : i32], ends = [3 : i32, 8 : i32, 17 : i32, 128 : i32], step = [1 : i32, 1 : i32, 1 : i32, 1 : i32]}> : (tensor<32x8x17x128xbf16>) -> tensor<1x8x17x128xbf16> loc(#loc67)
        %69 = "ttir.fill_cache"(%67, %68) <{batch_offset = 2 : i32}> : (tensor<32x8x128x128xbf16>, tensor<1x8x17x128xbf16>) -> tensor<32x8x128x128xbf16> loc(#loc67)
        %70 = "ttir.slice_static"(%63) <{begins = [3 : i32, 0 : i32, 0 : i32, 0 : i32], ends = [4 : i32, 8 : i32, 17 : i32, 128 : i32], step = [1 : i32, 1 : i32, 1 : i32, 1 : i32]}> : (tensor<32x8x17x128xbf16>) -> tensor<1x8x17x128xbf16> loc(#loc67)
        %71 = "ttir.fill_cache"(%69, %70) <{batch_offset = 3 : i32}> : (tensor<32x8x128x128xbf16>, tensor<1x8x17x128xbf16>) -> tensor<32x8x128x128xbf16> loc(#loc67)
        %72 = "ttir.slice_static"(%63) <{begins = [4 : i32, 0 : i32, 0 : i32, 0 : i32], ends = [5 : i32, 8 : i32, 17 : i32, 128 : i32], step = [1 : i32, 1 : i32, 1 : i32, 1 : i32]}> : (tensor<32x8x17x128xbf16>) -> tensor<1x8x17x128xbf16> loc(#loc67)
        %73 = "ttir.fill_cache"(%71, %72) <{batch_offset = 4 : i32}> : (tensor<32x8x128x128xbf16>, tensor<1x8x17x128xbf16>) -> tensor<32x8x128x128xbf16> loc(#loc67)
        %74 = "ttir.slice_static"(%63) <{begins = [5 : i32, 0 : i32, 0 : i32, 0 : i32], ends = [6 : i32, 8 : i32, 17 : i32, 128 : i32], step = [1 : i32, 1 : i32, 1 : i32, 1 : i32]}> : (tensor<32x8x17x128xbf16>) -> tensor<1x8x17x128xbf16> loc(#loc67)
        %75 = "ttir.fill_cache"(%73, %74) <{batch_offset = 5 : i32}> : (tensor<32x8x128x128xbf16>, tensor<1x8x17x128xbf16>) -> tensor<32x8x128x128xbf16> loc(#loc67)
        %76 = "ttir.slice_static"(%63) <{begins = [6 : i32, 0 : i32, 0 : i32, 0 : i32], ends = [7 : i32, 8 : i32, 17 : i32, 128 : i32], step = [1 : i32, 1 : i32, 1 : i32, 1 : i32]}> : (tensor<32x8x17x128xbf16>) -> tensor<1x8x17x128xbf16> loc(#loc67)
        %77 = "ttir.fill_cache"(%75, %76) <{batch_offset = 6 : i32}> : (tensor<32x8x128x128xbf16>, tensor<1x8x17x128xbf16>) -> tensor<32x8x128x128xbf16> loc(#loc67)
        %78 = "ttir.slice_static"(%63) <{begins = [7 : i32, 0 : i32, 0 : i32, 0 : i32], ends = [8 : i32, 8 : i32, 17 : i32, 128 : i32], step = [1 : i32, 1 : i32, 1 : i32, 1 : i32]}> : (tensor<32x8x17x128xbf16>) -> tensor<1x8x17x128xbf16> loc(#loc67)
        %79 = "ttir.fill_cache"(%77, %78) <{batch_offset = 7 : i32}> : (tensor<32x8x128x128xbf16>, tensor<1x8x17x128xbf16>) -> tensor<32x8x128x128xbf16> loc(#loc67)
        %80 = "ttir.slice_static"(%63) <{begins = [8 : i32, 0 : i32, 0 : i32, 0 : i32], ends = [9 : i32, 8 : i32, 17 : i32, 128 : i32], step = [1 : i32, 1 : i32, 1 : i32, 1 : i32]}> : (tensor<32x8x17x128xbf16>) -> tensor<1x8x17x128xbf16> loc(#loc67)
        %81 = "ttir.fill_cache"(%79, %80) <{batch_offset = 8 : i32}> : (tensor<32x8x128x128xbf16>, tensor<1x8x17x128xbf16>) -> tensor<32x8x128x128xbf16> loc(#loc67)
        %82 = "ttir.slice_static"(%63) <{begins = [9 : i32, 0 : i32, 0 : i32, 0 : i32], ends = [10 : i32, 8 : i32, 17 : i32, 128 : i32], step = [1 : i32, 1 : i32, 1 : i32, 1 : i32]}> : (tensor<32x8x17x128xbf16>) -> tensor<1x8x17x128xbf16> loc(#loc67)
        %83 = "ttir.fill_cache"(%81, %82) <{batch_offset = 9 : i32}> : (tensor<32x8x128x128xbf16>, tensor<1x8x17x128xbf16>) -> tensor<32x8x128x128xbf16> loc(#loc67)
        %84 = "ttir.slice_static"(%63) <{begins = [10 : i32, 0 : i32, 0 : i32, 0 : i32], ends = [11 : i32, 8 : i32, 17 : i32, 128 : i32], step = [1 : i32, 1 : i32, 1 : i32, 1 : i32]}> : (tensor<32x8x17x128xbf16>) -> tensor<1x8x17x128xbf16> loc(#loc67)
        %85 = "ttir.fill_cache"(%83, %84) <{batch_offset = 10 : i32}> : (tensor<32x8x128x128xbf16>, tensor<1x8x17x128xbf16>) -> tensor<32x8x128x128xbf16> loc(#loc67)
        %86 = "ttir.slice_static"(%63) <{begins = [11 : i32, 0 : i32, 0 : i32, 0 : i32], ends = [12 : i32, 8 : i32, 17 : i32, 128 : i32], step = [1 : i32, 1 : i32, 1 : i32, 1 : i32]}> : (tensor<32x8x17x128xbf16>) -> tensor<1x8x17x128xbf16> loc(#loc67)
        %87 = "ttir.fill_cache"(%85, %86) <{batch_offset = 11 : i32}> : (tensor<32x8x128x128xbf16>, tensor<1x8x17x128xbf16>) -> tensor<32x8x128x128xbf16> loc(#loc67)
        %88 = "ttir.slice_static"(%63) <{begins = [12 : i32, 0 : i32, 0 : i32, 0 : i32], ends = [13 : i32, 8 : i32, 17 : i32, 128 : i32], step = [1 : i32, 1 : i32, 1 : i32, 1 : i32]}> : (tensor<32x8x17x128xbf16>) -> tensor<1x8x17x128xbf16> loc(#loc67)
        %89 = "ttir.fill_cache"(%87, %88) <{batch_offset = 12 : i32}> : (tensor<32x8x128x128xbf16>, tensor<1x8x17x128xbf16>) -> tensor<32x8x128x128xbf16> loc(#loc67)
        %90 = "ttir.slice_static"(%63) <{begins = [13 : i32, 0 : i32, 0 : i32, 0 : i32], ends = [14 : i32, 8 : i32, 17 : i32, 128 : i32], step = [1 : i32, 1 : i32, 1 : i32, 1 : i32]}> : (tensor<32x8x17x128xbf16>) -> tensor<1x8x17x128xbf16> loc(#loc67)
        %91 = "ttir.fill_cache"(%89, %90) <{batch_offset = 13 : i32}> : (tensor<32x8x128x128xbf16>, tensor<1x8x17x128xbf16>) -> tensor<32x8x128x128xbf16> loc(#loc67)
        %92 = "ttir.slice_static"(%63) <{begins = [14 : i32, 0 : i32, 0 : i32, 0 : i32], ends = [15 : i32, 8 : i32, 17 : i32, 128 : i32], step = [1 : i32, 1 : i32, 1 : i32, 1 : i32]}> : (tensor<32x8x17x128xbf16>) -> tensor<1x8x17x128xbf16> loc(#loc67)
        %93 = "ttir.fill_cache"(%91, %92) <{batch_offset = 14 : i32}> : (tensor<32x8x128x128xbf16>, tensor<1x8x17x128xbf16>) -> tensor<32x8x128x128xbf16> loc(#loc67)
        %94 = "ttir.slice_static"(%63) <{begins = [15 : i32, 0 : i32, 0 : i32, 0 : i32], ends = [16 : i32, 8 : i32, 17 : i32, 128 : i32], step = [1 : i32, 1 : i32, 1 : i32, 1 : i32]}> : (tensor<32x8x17x128xbf16>) -> tensor<1x8x17x128xbf16> loc(#loc67)
        %95 = "ttir.fill_cache"(%93, %94) <{batch_offset = 15 : i32}> : (tensor<32x8x128x128xbf16>, tensor<1x8x17x128xbf16>) -> tensor<32x8x128x128xbf16> loc(#loc67)
        %96 = "ttir.slice_static"(%63) <{begins = [16 : i32, 0 : i32, 0 : i32, 0 : i32], ends = [17 : i32, 8 : i32, 17 : i32, 128 : i32], step = [1 : i32, 1 : i32, 1 : i32, 1 : i32]}> : (tensor<32x8x17x128xbf16>) -> tensor<1x8x17x128xbf16> loc(#loc67)
        %97 = "ttir.fill_cache"(%95, %96) <{batch_offset = 16 : i32}> : (tensor<32x8x128x128xbf16>, tensor<1x8x17x128xbf16>) -> tensor<32x8x128x128xbf16> loc(#loc67)
        %98 = "ttir.slice_static"(%63) <{begins = [17 : i32, 0 : i32, 0 : i32, 0 : i32], ends = [18 : i32, 8 : i32, 17 : i32, 128 : i32], step = [1 : i32, 1 : i32, 1 : i32, 1 : i32]}> : (tensor<32x8x17x128xbf16>) -> tensor<1x8x17x128xbf16> loc(#loc67)
        %99 = "ttir.fill_cache"(%97, %98) <{batch_offset = 17 : i32}> : (tensor<32x8x128x128xbf16>, tensor<1x8x17x128xbf16>) -> tensor<32x8x128x128xbf16> loc(#loc67)
        %100 = "ttir.slice_static"(%63) <{begins = [18 : i32, 0 : i32, 0 : i32, 0 : i32], ends = [19 : i32, 8 : i32, 17 : i32, 128 : i32], step = [1 : i32, 1 : i32, 1 : i32, 1 : i32]}> : (tensor<32x8x17x128xbf16>) -> tensor<1x8x17x128xbf16> loc(#loc67)
        %101 = "ttir.fill_cache"(%99, %100) <{batch_offset = 18 : i32}> : (tensor<32x8x128x128xbf16>, tensor<1x8x17x128xbf16>) -> tensor<32x8x128x128xbf16> loc(#loc67)
        %102 = "ttir.slice_static"(%63) <{begins = [19 : i32, 0 : i32, 0 : i32, 0 : i32], ends = [20 : i32, 8 : i32, 17 : i32, 128 : i32], step = [1 : i32, 1 : i32, 1 : i32, 1 : i32]}> : (tensor<32x8x17x128xbf16>) -> tensor<1x8x17x128xbf16> loc(#loc67)
        %103 = "ttir.fill_cache"(%101, %102) <{batch_offset = 19 : i32}> : (tensor<32x8x128x128xbf16>, tensor<1x8x17x128xbf16>) -> tensor<32x8x128x128xbf16> loc(#loc67)
        %104 = "ttir.slice_static"(%63) <{begins = [20 : i32, 0 : i32, 0 : i32, 0 : i32], ends = [21 : i32, 8 : i32, 17 : i32, 128 : i32], step = [1 : i32, 1 : i32, 1 : i32, 1 : i32]}> : (tensor<32x8x17x128xbf16>) -> tensor<1x8x17x128xbf16> loc(#loc67)
        %105 = "ttir.fill_cache"(%103, %104) <{batch_offset = 20 : i32}> : (tensor<32x8x128x128xbf16>, tensor<1x8x17x128xbf16>) -> tensor<32x8x128x128xbf16> loc(#loc67)
        %106 = "ttir.slice_static"(%63) <{begins = [21 : i32, 0 : i32, 0 : i32, 0 : i32], ends = [22 : i32, 8 : i32, 17 : i32, 128 : i32], step = [1 : i32, 1 : i32, 1 : i32, 1 : i32]}> : (tensor<32x8x17x128xbf16>) -> tensor<1x8x17x128xbf16> loc(#loc67)
        %107 = "ttir.fill_cache"(%105, %106) <{batch_offset = 21 : i32}> : (tensor<32x8x128x128xbf16>, tensor<1x8x17x128xbf16>) -> tensor<32x8x128x128xbf16> loc(#loc67)
        %108 = "ttir.slice_static"(%63) <{begins = [22 : i32, 0 : i32, 0 : i32, 0 : i32], ends = [23 : i32, 8 : i32, 17 : i32, 128 : i32], step = [1 : i32, 1 : i32, 1 : i32, 1 : i32]}> : (tensor<32x8x17x128xbf16>) -> tensor<1x8x17x128xbf16> loc(#loc67)
        %109 = "ttir.fill_cache"(%107, %108) <{batch_offset = 22 : i32}> : (tensor<32x8x128x128xbf16>, tensor<1x8x17x128xbf16>) -> tensor<32x8x128x128xbf16> loc(#loc67)
        %110 = "ttir.slice_static"(%63) <{begins = [23 : i32, 0 : i32, 0 : i32, 0 : i32], ends = [24 : i32, 8 : i32, 17 : i32, 128 : i32], step = [1 : i32, 1 : i32, 1 : i32, 1 : i32]}> : (tensor<32x8x17x128xbf16>) -> tensor<1x8x17x128xbf16> loc(#loc67)
        %111 = "ttir.fill_cache"(%109, %110) <{batch_offset = 23 : i32}> : (tensor<32x8x128x128xbf16>, tensor<1x8x17x128xbf16>) -> tensor<32x8x128x128xbf16> loc(#loc67)
        %112 = "ttir.slice_static"(%63) <{begins = [24 : i32, 0 : i32, 0 : i32, 0 : i32], ends = [25 : i32, 8 : i32, 17 : i32, 128 : i32], step = [1 : i32, 1 : i32, 1 : i32, 1 : i32]}> : (tensor<32x8x17x128xbf16>) -> tensor<1x8x17x128xbf16> loc(#loc67)
        %113 = "ttir.fill_cache"(%111, %112) <{batch_offset = 24 : i32}> : (tensor<32x8x128x128xbf16>, tensor<1x8x17x128xbf16>) -> tensor<32x8x128x128xbf16> loc(#loc67)
        %114 = "ttir.slice_static"(%63) <{begins = [25 : i32, 0 : i32, 0 : i32, 0 : i32], ends = [26 : i32, 8 : i32, 17 : i32, 128 : i32], step = [1 : i32, 1 : i32, 1 : i32, 1 : i32]}> : (tensor<32x8x17x128xbf16>) -> tensor<1x8x17x128xbf16> loc(#loc67)
        %115 = "ttir.fill_cache"(%113, %114) <{batch_offset = 25 : i32}> : (tensor<32x8x128x128xbf16>, tensor<1x8x17x128xbf16>) -> tensor<32x8x128x128xbf16> loc(#loc67)
        %116 = "ttir.slice_static"(%63) <{begins = [26 : i32, 0 : i32, 0 : i32, 0 : i32], ends = [27 : i32, 8 : i32, 17 : i32, 128 : i32], step = [1 : i32, 1 : i32, 1 : i32, 1 : i32]}> : (tensor<32x8x17x128xbf16>) -> tensor<1x8x17x128xbf16> loc(#loc67)
        %117 = "ttir.fill_cache"(%115, %116) <{batch_offset = 26 : i32}> : (tensor<32x8x128x128xbf16>, tensor<1x8x17x128xbf16>) -> tensor<32x8x128x128xbf16> loc(#loc67)
        %118 = "ttir.slice_static"(%63) <{begins = [27 : i32, 0 : i32, 0 : i32, 0 : i32], ends = [28 : i32, 8 : i32, 17 : i32, 128 : i32], step = [1 : i32, 1 : i32, 1 : i32, 1 : i32]}> : (tensor<32x8x17x128xbf16>) -> tensor<1x8x17x128xbf16> loc(#loc67)
        %119 = "ttir.fill_cache"(%117, %118) <{batch_offset = 27 : i32}> : (tensor<32x8x128x128xbf16>, tensor<1x8x17x128xbf16>) -> tensor<32x8x128x128xbf16> loc(#loc67)
        %120 = "ttir.slice_static"(%63) <{begins = [28 : i32, 0 : i32, 0 : i32, 0 : i32], ends = [29 : i32, 8 : i32, 17 : i32, 128 : i32], step = [1 : i32, 1 : i32, 1 : i32, 1 : i32]}> : (tensor<32x8x17x128xbf16>) -> tensor<1x8x17x128xbf16> loc(#loc67)
        %121 = "ttir.fill_cache"(%119, %120) <{batch_offset = 28 : i32}> : (tensor<32x8x128x128xbf16>, tensor<1x8x17x128xbf16>) -> tensor<32x8x128x128xbf16> loc(#loc67)
        %122 = "ttir.slice_static"(%63) <{begins = [29 : i32, 0 : i32, 0 : i32, 0 : i32], ends = [30 : i32, 8 : i32, 17 : i32, 128 : i32], step = [1 : i32, 1 : i32, 1 : i32, 1 : i32]}> : (tensor<32x8x17x128xbf16>) -> tensor<1x8x17x128xbf16> loc(#loc67)
        %123 = "ttir.fill_cache"(%121, %122) <{batch_offset = 29 : i32}> : (tensor<32x8x128x128xbf16>, tensor<1x8x17x128xbf16>) -> tensor<32x8x128x128xbf16> loc(#loc67)
        %124 = "ttir.slice_static"(%63) <{begins = [30 : i32, 0 : i32, 0 : i32, 0 : i32], ends = [31 : i32, 8 : i32, 17 : i32, 128 : i32], step = [1 : i32, 1 : i32, 1 : i32, 1 : i32]}> : (tensor<32x8x17x128xbf16>) -> tensor<1x8x17x128xbf16> loc(#loc67)
        %125 = "ttir.fill_cache"(%123, %124) <{batch_offset = 30 : i32}> : (tensor<32x8x128x128xbf16>, tensor<1x8x17x128xbf16>) -> tensor<32x8x128x128xbf16> loc(#loc67)
        %126 = "ttir.slice_static"(%63) <{begins = [31 : i32, 0 : i32, 0 : i32, 0 : i32], ends = [32 : i32, 8 : i32, 17 : i32, 128 : i32], step = [1 : i32, 1 : i32, 1 : i32, 1 : i32]}> : (tensor<32x8x17x128xbf16>) -> tensor<1x8x17x128xbf16> loc(#loc67)
        %127 = "ttir.fill_cache"(%125, %126) <{batch_offset = 31 : i32}> : (tensor<32x8x128x128xbf16>, tensor<1x8x17x128xbf16>) -> tensor<32x8x128x128xbf16> loc(#loc67)
        %128 = "ttir.reshape"(%arg8) <{shape = [1 : i32, 1024 : i32, 2048 : i32]}> : (tensor<1024x2048xbf16>) -> tensor<1x1024x2048xbf16> loc(#loc68)
        %129 = "ttir.reshape"(%128) <{shape = [1024 : i32, 2048 : i32]}> : (tensor<1x1024x2048xbf16>) -> tensor<1024x2048xbf16> loc(#loc69)
        %130 = "ttir.permute"(%129) <{permutation = array<i64: 1, 0>}> : (tensor<1024x2048xbf16>) -> tensor<2048x1024xbf16> loc(#loc70)
        %131 = "ttir.dot_general"(%30, %130) <{batch_dims_lhs = array<i64>, batch_dims_rhs = array<i64>, contract_dims_lhs = array<i64: 1>, contract_dims_rhs = array<i64: 0>}> : (tensor<544x2048xbf16>, tensor<2048x1024xbf16>) -> tensor<544x1024xbf16> loc(#loc71)
        %132 = "ttir.reshape"(%131) <{shape = [32 : i32, 17 : i32, 8 : i32, 128 : i32]}> : (tensor<544x1024xbf16>) -> tensor<32x17x8x128xbf16> loc(#loc72)
        %133 = "ttir.permute"(%132) <{permutation = array<i64: 0, 2, 1, 3>}> : (tensor<32x17x8x128xbf16>) -> tensor<32x8x17x128xbf16> loc(#loc73)
        %134 = "ttir.slice_static"(%133) <{begins = [0 : i32, 0 : i32, 0 : i32, 0 : i32], ends = [1 : i32, 8 : i32, 17 : i32, 128 : i32], step = [1 : i32, 1 : i32, 1 : i32, 1 : i32]}> : (tensor<32x8x17x128xbf16>) -> tensor<1x8x17x128xbf16> loc(#loc74)
        %135 = "ttir.fill_cache"(%arg9, %134) <{batch_offset = 0 : i32}> : (tensor<32x8x128x128xbf16>, tensor<1x8x17x128xbf16>) -> tensor<32x8x128x128xbf16> loc(#loc74)
        %136 = "ttir.slice_static"(%133) <{begins = [1 : i32, 0 : i32, 0 : i32, 0 : i32], ends = [2 : i32, 8 : i32, 17 : i32, 128 : i32], step = [1 : i32, 1 : i32, 1 : i32, 1 : i32]}> : (tensor<32x8x17x128xbf16>) -> tensor<1x8x17x128xbf16> loc(#loc74)
        %137 = "ttir.fill_cache"(%135, %136) <{batch_offset = 1 : i32}> : (tensor<32x8x128x128xbf16>, tensor<1x8x17x128xbf16>) -> tensor<32x8x128x128xbf16> loc(#loc74)
        %138 = "ttir.slice_static"(%133) <{begins = [2 : i32, 0 : i32, 0 : i32, 0 : i32], ends = [3 : i32, 8 : i32, 17 : i32, 128 : i32], step = [1 : i32, 1 : i32, 1 : i32, 1 : i32]}> : (tensor<32x8x17x128xbf16>) -> tensor<1x8x17x128xbf16> loc(#loc74)
        %139 = "ttir.fill_cache"(%137, %138) <{batch_offset = 2 : i32}> : (tensor<32x8x128x128xbf16>, tensor<1x8x17x128xbf16>) -> tensor<32x8x128x128xbf16> loc(#loc74)
        %140 = "ttir.slice_static"(%133) <{begins = [3 : i32, 0 : i32, 0 : i32, 0 : i32], ends = [4 : i32, 8 : i32, 17 : i32, 128 : i32], step = [1 : i32, 1 : i32, 1 : i32, 1 : i32]}> : (tensor<32x8x17x128xbf16>) -> tensor<1x8x17x128xbf16> loc(#loc74)
        %141 = "ttir.fill_cache"(%139, %140) <{batch_offset = 3 : i32}> : (tensor<32x8x128x128xbf16>, tensor<1x8x17x128xbf16>) -> tensor<32x8x128x128xbf16> loc(#loc74)
        %142 = "ttir.slice_static"(%133) <{begins = [4 : i32, 0 : i32, 0 : i32, 0 : i32], ends = [5 : i32, 8 : i32, 17 : i32, 128 : i32], step = [1 : i32, 1 : i32, 1 : i32, 1 : i32]}> : (tensor<32x8x17x128xbf16>) -> tensor<1x8x17x128xbf16> loc(#loc74)
        %143 = "ttir.fill_cache"(%141, %142) <{batch_offset = 4 : i32}> : (tensor<32x8x128x128xbf16>, tensor<1x8x17x128xbf16>) -> tensor<32x8x128x128xbf16> loc(#loc74)
        %144 = "ttir.slice_static"(%133) <{begins = [5 : i32, 0 : i32, 0 : i32, 0 : i32], ends = [6 : i32, 8 : i32, 17 : i32, 128 : i32], step = [1 : i32, 1 : i32, 1 : i32, 1 : i32]}> : (tensor<32x8x17x128xbf16>) -> tensor<1x8x17x128xbf16> loc(#loc74)
        %145 = "ttir.fill_cache"(%143, %144) <{batch_offset = 5 : i32}> : (tensor<32x8x128x128xbf16>, tensor<1x8x17x128xbf16>) -> tensor<32x8x128x128xbf16> loc(#loc74)
        %146 = "ttir.slice_static"(%133) <{begins = [6 : i32, 0 : i32, 0 : i32, 0 : i32], ends = [7 : i32, 8 : i32, 17 : i32, 128 : i32], step = [1 : i32, 1 : i32, 1 : i32, 1 : i32]}> : (tensor<32x8x17x128xbf16>) -> tensor<1x8x17x128xbf16> loc(#loc74)
        %147 = "ttir.fill_cache"(%145, %146) <{batch_offset = 6 : i32}> : (tensor<32x8x128x128xbf16>, tensor<1x8x17x128xbf16>) -> tensor<32x8x128x128xbf16> loc(#loc74)
        %148 = "ttir.slice_static"(%133) <{begins = [7 : i32, 0 : i32, 0 : i32, 0 : i32], ends = [8 : i32, 8 : i32, 17 : i32, 128 : i32], step = [1 : i32, 1 : i32, 1 : i32, 1 : i32]}> : (tensor<32x8x17x128xbf16>) -> tensor<1x8x17x128xbf16> loc(#loc74)
        %149 = "ttir.fill_cache"(%147, %148) <{batch_offset = 7 : i32}> : (tensor<32x8x128x128xbf16>, tensor<1x8x17x128xbf16>) -> tensor<32x8x128x128xbf16> loc(#loc74)
        %150 = "ttir.slice_static"(%133) <{begins = [8 : i32, 0 : i32, 0 : i32, 0 : i32], ends = [9 : i32, 8 : i32, 17 : i32, 128 : i32], step = [1 : i32, 1 : i32, 1 : i32, 1 : i32]}> : (tensor<32x8x17x128xbf16>) -> tensor<1x8x17x128xbf16> loc(#loc74)
        %151 = "ttir.fill_cache"(%149, %150) <{batch_offset = 8 : i32}> : (tensor<32x8x128x128xbf16>, tensor<1x8x17x128xbf16>) -> tensor<32x8x128x128xbf16> loc(#loc74)
        %152 = "ttir.slice_static"(%133) <{begins = [9 : i32, 0 : i32, 0 : i32, 0 : i32], ends = [10 : i32, 8 : i32, 17 : i32, 128 : i32], step = [1 : i32, 1 : i32, 1 : i32, 1 : i32]}> : (tensor<32x8x17x128xbf16>) -> tensor<1x8x17x128xbf16> loc(#loc74)
        %153 = "ttir.fill_cache"(%151, %152) <{batch_offset = 9 : i32}> : (tensor<32x8x128x128xbf16>, tensor<1x8x17x128xbf16>) -> tensor<32x8x128x128xbf16> loc(#loc74)
        %154 = "ttir.slice_static"(%133) <{begins = [10 : i32, 0 : i32, 0 : i32, 0 : i32], ends = [11 : i32, 8 : i32, 17 : i32, 128 : i32], step = [1 : i32, 1 : i32, 1 : i32, 1 : i32]}> : (tensor<32x8x17x128xbf16>) -> tensor<1x8x17x128xbf16> loc(#loc74)
        %155 = "ttir.fill_cache"(%153, %154) <{batch_offset = 10 : i32}> : (tensor<32x8x128x128xbf16>, tensor<1x8x17x128xbf16>) -> tensor<32x8x128x128xbf16> loc(#loc74)
        %156 = "ttir.slice_static"(%133) <{begins = [11 : i32, 0 : i32, 0 : i32, 0 : i32], ends = [12 : i32, 8 : i32, 17 : i32, 128 : i32], step = [1 : i32, 1 : i32, 1 : i32, 1 : i32]}> : (tensor<32x8x17x128xbf16>) -> tensor<1x8x17x128xbf16> loc(#loc74)
        %157 = "ttir.fill_cache"(%155, %156) <{batch_offset = 11 : i32}> : (tensor<32x8x128x128xbf16>, tensor<1x8x17x128xbf16>) -> tensor<32x8x128x128xbf16> loc(#loc74)
        %158 = "ttir.slice_static"(%133) <{begins = [12 : i32, 0 : i32, 0 : i32, 0 : i32], ends = [13 : i32, 8 : i32, 17 : i32, 128 : i32], step = [1 : i32, 1 : i32, 1 : i32, 1 : i32]}> : (tensor<32x8x17x128xbf16>) -> tensor<1x8x17x128xbf16> loc(#loc74)
        %159 = "ttir.fill_cache"(%157, %158) <{batch_offset = 12 : i32}> : (tensor<32x8x128x128xbf16>, tensor<1x8x17x128xbf16>) -> tensor<32x8x128x128xbf16> loc(#loc74)
        %160 = "ttir.slice_static"(%133) <{begins = [13 : i32, 0 : i32, 0 : i32, 0 : i32], ends = [14 : i32, 8 : i32, 17 : i32, 128 : i32], step = [1 : i32, 1 : i32, 1 : i32, 1 : i32]}> : (tensor<32x8x17x128xbf16>) -> tensor<1x8x17x128xbf16> loc(#loc74)
        %161 = "ttir.fill_cache"(%159, %160) <{batch_offset = 13 : i32}> : (tensor<32x8x128x128xbf16>, tensor<1x8x17x128xbf16>) -> tensor<32x8x128x128xbf16> loc(#loc74)
        %162 = "ttir.slice_static"(%133) <{begins = [14 : i32, 0 : i32, 0 : i32, 0 : i32], ends = [15 : i32, 8 : i32, 17 : i32, 128 : i32], step = [1 : i32, 1 : i32, 1 : i32, 1 : i32]}> : (tensor<32x8x17x128xbf16>) -> tensor<1x8x17x128xbf16> loc(#loc74)
        %163 = "ttir.fill_cache"(%161, %162) <{batch_offset = 14 : i32}> : (tensor<32x8x128x128xbf16>, tensor<1x8x17x128xbf16>) -> tensor<32x8x128x128xbf16> loc(#loc74)
        %164 = "ttir.slice_static"(%133) <{begins = [15 : i32, 0 : i32, 0 : i32, 0 : i32], ends = [16 : i32, 8 : i32, 17 : i32, 128 : i32], step = [1 : i32, 1 : i32, 1 : i32, 1 : i32]}> : (tensor<32x8x17x128xbf16>) -> tensor<1x8x17x128xbf16> loc(#loc74)
        %165 = "ttir.fill_cache"(%163, %164) <{batch_offset = 15 : i32}> : (tensor<32x8x128x128xbf16>, tensor<1x8x17x128xbf16>) -> tensor<32x8x128x128xbf16> loc(#loc74)
        %166 = "ttir.slice_static"(%133) <{begins = [16 : i32, 0 : i32, 0 : i32, 0 : i32], ends = [17 : i32, 8 : i32, 17 : i32, 128 : i32], step = [1 : i32, 1 : i32, 1 : i32, 1 : i32]}> : (tensor<32x8x17x128xbf16>) -> tensor<1x8x17x128xbf16> loc(#loc74)
        %167 = "ttir.fill_cache"(%165, %166) <{batch_offset = 16 : i32}> : (tensor<32x8x128x128xbf16>, tensor<1x8x17x128xbf16>) -> tensor<32x8x128x128xbf16> loc(#loc74)
        %168 = "ttir.slice_static"(%133) <{begins = [17 : i32, 0 : i32, 0 : i32, 0 : i32], ends = [18 : i32, 8 : i32, 17 : i32, 128 : i32], step = [1 : i32, 1 : i32, 1 : i32, 1 : i32]}> : (tensor<32x8x17x128xbf16>) -> tensor<1x8x17x128xbf16> loc(#loc74)
        %169 = "ttir.fill_cache"(%167, %168) <{batch_offset = 17 : i32}> : (tensor<32x8x128x128xbf16>, tensor<1x8x17x128xbf16>) -> tensor<32x8x128x128xbf16> loc(#loc74)
        %170 = "ttir.slice_static"(%133) <{begins = [18 : i32, 0 : i32, 0 : i32, 0 : i32], ends = [19 : i32, 8 : i32, 17 : i32, 128 : i32], step = [1 : i32, 1 : i32, 1 : i32, 1 : i32]}> : (tensor<32x8x17x128xbf16>) -> tensor<1x8x17x128xbf16> loc(#loc74)
        %171 = "ttir.fill_cache"(%169, %170) <{batch_offset = 18 : i32}> : (tensor<32x8x128x128xbf16>, tensor<1x8x17x128xbf16>) -> tensor<32x8x128x128xbf16> loc(#loc74)
        %172 = "ttir.slice_static"(%133) <{begins = [19 : i32, 0 : i32, 0 : i32, 0 : i32], ends = [20 : i32, 8 : i32, 17 : i32, 128 : i32], step = [1 : i32, 1 : i32, 1 : i32, 1 : i32]}> : (tensor<32x8x17x128xbf16>) -> tensor<1x8x17x128xbf16> loc(#loc74)
        %173 = "ttir.fill_cache"(%171, %172) <{batch_offset = 19 : i32}> : (tensor<32x8x128x128xbf16>, tensor<1x8x17x128xbf16>) -> tensor<32x8x128x128xbf16> loc(#loc74)
        %174 = "ttir.slice_static"(%133) <{begins = [20 : i32, 0 : i32, 0 : i32, 0 : i32], ends = [21 : i32, 8 : i32, 17 : i32, 128 : i32], step = [1 : i32, 1 : i32, 1 : i32, 1 : i32]}> : (tensor<32x8x17x128xbf16>) -> tensor<1x8x17x128xbf16> loc(#loc74)
        %175 = "ttir.fill_cache"(%173, %174) <{batch_offset = 20 : i32}> : (tensor<32x8x128x128xbf16>, tensor<1x8x17x128xbf16>) -> tensor<32x8x128x128xbf16> loc(#loc74)
        %176 = "ttir.slice_static"(%133) <{begins = [21 : i32, 0 : i32, 0 : i32, 0 : i32], ends = [22 : i32, 8 : i32, 17 : i32, 128 : i32], step = [1 : i32, 1 : i32, 1 : i32, 1 : i32]}> : (tensor<32x8x17x128xbf16>) -> tensor<1x8x17x128xbf16> loc(#loc74)
        %177 = "ttir.fill_cache"(%175, %176) <{batch_offset = 21 : i32}> : (tensor<32x8x128x128xbf16>, tensor<1x8x17x128xbf16>) -> tensor<32x8x128x128xbf16> loc(#loc74)
        %178 = "ttir.slice_static"(%133) <{begins = [22 : i32, 0 : i32, 0 : i32, 0 : i32], ends = [23 : i32, 8 : i32, 17 : i32, 128 : i32], step = [1 : i32, 1 : i32, 1 : i32, 1 : i32]}> : (tensor<32x8x17x128xbf16>) -> tensor<1x8x17x128xbf16> loc(#loc74)
        %179 = "ttir.fill_cache"(%177, %178) <{batch_offset = 22 : i32}> : (tensor<32x8x128x128xbf16>, tensor<1x8x17x128xbf16>) -> tensor<32x8x128x128xbf16> loc(#loc74)
        %180 = "ttir.slice_static"(%133) <{begins = [23 : i32, 0 : i32, 0 : i32, 0 : i32], ends = [24 : i32, 8 : i32, 17 : i32, 128 : i32], step = [1 : i32, 1 : i32, 1 : i32, 1 : i32]}> : (tensor<32x8x17x128xbf16>) -> tensor<1x8x17x128xbf16> loc(#loc74)
        %181 = "ttir.fill_cache"(%179, %180) <{batch_offset = 23 : i32}> : (tensor<32x8x128x128xbf16>, tensor<1x8x17x128xbf16>) -> tensor<32x8x128x128xbf16> loc(#loc74)
        %182 = "ttir.slice_static"(%133) <{begins = [24 : i32, 0 : i32, 0 : i32, 0 : i32], ends = [25 : i32, 8 : i32, 17 : i32, 128 : i32], step = [1 : i32, 1 : i32, 1 : i32, 1 : i32]}> : (tensor<32x8x17x128xbf16>) -> tensor<1x8x17x128xbf16> loc(#loc74)
        %183 = "ttir.fill_cache"(%181, %182) <{batch_offset = 24 : i32}> : (tensor<32x8x128x128xbf16>, tensor<1x8x17x128xbf16>) -> tensor<32x8x128x128xbf16> loc(#loc74)
        %184 = "ttir.slice_static"(%133) <{begins = [25 : i32, 0 : i32, 0 : i32, 0 : i32], ends = [26 : i32, 8 : i32, 17 : i32, 128 : i32], step = [1 : i32, 1 : i32, 1 : i32, 1 : i32]}> : (tensor<32x8x17x128xbf16>) -> tensor<1x8x17x128xbf16> loc(#loc74)
        %185 = "ttir.fill_cache"(%183, %184) <{batch_offset = 25 : i32}> : (tensor<32x8x128x128xbf16>, tensor<1x8x17x128xbf16>) -> tensor<32x8x128x128xbf16> loc(#loc74)
        %186 = "ttir.slice_static"(%133) <{begins = [26 : i32, 0 : i32, 0 : i32, 0 : i32], ends = [27 : i32, 8 : i32, 17 : i32, 128 : i32], step = [1 : i32, 1 : i32, 1 : i32, 1 : i32]}> : (tensor<32x8x17x128xbf16>) -> tensor<1x8x17x128xbf16> loc(#loc74)
        %187 = "ttir.fill_cache"(%185, %186) <{batch_offset = 26 : i32}> : (tensor<32x8x128x128xbf16>, tensor<1x8x17x128xbf16>) -> tensor<32x8x128x128xbf16> loc(#loc74)
        %188 = "ttir.slice_static"(%133) <{begins = [27 : i32, 0 : i32, 0 : i32, 0 : i32], ends = [28 : i32, 8 : i32, 17 : i32, 128 : i32], step = [1 : i32, 1 : i32, 1 : i32, 1 : i32]}> : (tensor<32x8x17x128xbf16>) -> tensor<1x8x17x128xbf16> loc(#loc74)
        %189 = "ttir.fill_cache"(%187, %188) <{batch_offset = 27 : i32}> : (tensor<32x8x128x128xbf16>, tensor<1x8x17x128xbf16>) -> tensor<32x8x128x128xbf16> loc(#loc74)
        %190 = "ttir.slice_static"(%133) <{begins = [28 : i32, 0 : i32, 0 : i32, 0 : i32], ends = [29 : i32, 8 : i32, 17 : i32, 128 : i32], step = [1 : i32, 1 : i32, 1 : i32, 1 : i32]}> : (tensor<32x8x17x128xbf16>) -> tensor<1x8x17x128xbf16> loc(#loc74)
        %191 = "ttir.fill_cache"(%189, %190) <{batch_offset = 28 : i32}> : (tensor<32x8x128x128xbf16>, tensor<1x8x17x128xbf16>) -> tensor<32x8x128x128xbf16> loc(#loc74)
        %192 = "ttir.slice_static"(%133) <{begins = [29 : i32, 0 : i32, 0 : i32, 0 : i32], ends = [30 : i32, 8 : i32, 17 : i32, 128 : i32], step = [1 : i32, 1 : i32, 1 : i32, 1 : i32]}> : (tensor<32x8x17x128xbf16>) -> tensor<1x8x17x128xbf16> loc(#loc74)
        %193 = "ttir.fill_cache"(%191, %192) <{batch_offset = 29 : i32}> : (tensor<32x8x128x128xbf16>, tensor<1x8x17x128xbf16>) -> tensor<32x8x128x128xbf16> loc(#loc74)
        %194 = "ttir.slice_static"(%133) <{begins = [30 : i32, 0 : i32, 0 : i32, 0 : i32], ends = [31 : i32, 8 : i32, 17 : i32, 128 : i32], step = [1 : i32, 1 : i32, 1 : i32, 1 : i32]}> : (tensor<32x8x17x128xbf16>) -> tensor<1x8x17x128xbf16> loc(#loc74)
        %195 = "ttir.fill_cache"(%193, %194) <{batch_offset = 30 : i32}> : (tensor<32x8x128x128xbf16>, tensor<1x8x17x128xbf16>) -> tensor<32x8x128x128xbf16> loc(#loc74)
        %196 = "ttir.slice_static"(%133) <{begins = [31 : i32, 0 : i32, 0 : i32, 0 : i32], ends = [32 : i32, 8 : i32, 17 : i32, 128 : i32], step = [1 : i32, 1 : i32, 1 : i32, 1 : i32]}> : (tensor<32x8x17x128xbf16>) -> tensor<1x8x17x128xbf16> loc(#loc74)
        %197 = "ttir.fill_cache"(%195, %196) <{batch_offset = 31 : i32}> : (tensor<32x8x128x128xbf16>, tensor<1x8x17x128xbf16>) -> tensor<32x8x128x128xbf16> loc(#loc74)
        %198 = "ttir.slice_static"(%11) <{begins = [16 : i32], ends = [17 : i32], step = [1 : i32]}> : (tensor<17xi64>) -> tensor<1xi64> loc(#loc75)
        %199 = "ttir.add"(%198, %6) : (tensor<1xi64>, tensor<1xi64>) -> tensor<1xi64> loc(#loc76)
        %200 = "ttir.reshape"(%arg17) <{shape = [1 : i32, 2048 : i32, 2048 : i32]}> : (tensor<2048x2048xbf16>) -> tensor<1x2048x2048xbf16> loc(#loc77)
        %201 = "ttir.reshape"(%200) <{shape = [2048 : i32, 2048 : i32]}> : (tensor<1x2048x2048xbf16>) -> tensor<2048x2048xbf16> loc(#loc78)
        %202 = "ttir.permute"(%201) <{permutation = array<i64: 1, 0>}> : (tensor<2048x2048xbf16>) -> tensor<2048x2048xbf16> loc(#loc79)
        %203 = "ttir.dot_general"(%30, %202) <{batch_dims_lhs = array<i64>, batch_dims_rhs = array<i64>, contract_dims_lhs = array<i64: 1>, contract_dims_rhs = array<i64: 0>}> : (tensor<544x2048xbf16>, tensor<2048x2048xbf16>) -> tensor<544x2048xbf16> loc(#loc80)
        %204 = "ttir.reshape"(%203) <{shape = [32 : i32, 17 : i32, 16 : i32, 128 : i32]}> : (tensor<544x2048xbf16>) -> tensor<32x17x16x128xbf16> loc(#loc81)
        %205 = "ttir.reshape"(%arg16) <{shape = [1 : i32, 1 : i32, 128 : i32]}> : (tensor<128xbf16>) -> tensor<1x1x128xbf16> loc(#loc82)
        %206 = "ttir.reshape"(%205) <{shape = [128 : i32]}> : (tensor<1x1x128xbf16>) -> tensor<128xbf16> loc(#loc83)
        %207 = "ttir.rms_norm"(%204, %206) <{epsilon = 9.99999997E-7 : f32, normalized_shape = array<i64: 128>, operandSegmentSizes = array<i32: 1, 1, 0>}> : (tensor<32x17x16x128xbf16>, tensor<128xbf16>) -> tensor<32x17x16x128xbf16> loc(#loc84)
        %208 = "ttir.permute"(%207) <{permutation = array<i64: 0, 2, 1, 3>}> : (tensor<32x17x16x128xbf16>) -> tensor<32x16x17x128xbf16> loc(#loc85)
        %209 = "ttir.broadcast"(%50) <{broadcast_dimensions = array<i64: 32, 16, 1, 1>}> : (tensor<1x1x17x128xbf16>) -> tensor<32x16x17x128xbf16> loc(#loc86)
        %210 = "ttir.multiply"(%208, %209) : (tensor<32x16x17x128xbf16>, tensor<32x16x17x128xbf16>) -> tensor<32x16x17x128xbf16> loc(#loc87)
        %211 = "ttir.slice_static"(%208) <{begins = [0 : i32, 0 : i32, 0 : i32, 64 : i32], ends = [32 : i32, 16 : i32, 17 : i32, 128 : i32], step = [1 : i32, 1 : i32, 1 : i32, 1 : i32]}> : (tensor<32x16x17x128xbf16>) -> tensor<32x16x17x64xbf16> loc(#loc88)
        %212 = "ttir.neg"(%211) : (tensor<32x16x17x64xbf16>) -> tensor<32x16x17x64xbf16> loc(#loc89)
        %213 = "ttir.slice_static"(%208) <{begins = [0 : i32, 0 : i32, 0 : i32, 0 : i32], ends = [32 : i32, 16 : i32, 17 : i32, 64 : i32], step = [1 : i32, 1 : i32, 1 : i32, 1 : i32]}> : (tensor<32x16x17x128xbf16>) -> tensor<32x16x17x64xbf16> loc(#loc90)
        %214 = "ttir.concat"(%212, %213) <{dim = 3 : si32}> : (tensor<32x16x17x64xbf16>, tensor<32x16x17x64xbf16>) -> tensor<32x16x17x128xbf16> loc(#loc91)
        %215 = "ttir.broadcast"(%60) <{broadcast_dimensions = array<i64: 32, 16, 1, 1>}> : (tensor<1x1x17x128xbf16>) -> tensor<32x16x17x128xbf16> loc(#loc92)
        %216 = "ttir.multiply"(%214, %215) : (tensor<32x16x17x128xbf16>, tensor<32x16x17x128xbf16>) -> tensor<32x16x17x128xbf16> loc(#loc93)
        %217 = "ttir.add"(%210, %216) : (tensor<32x16x17x128xbf16>, tensor<32x16x17x128xbf16>) -> tensor<32x16x17x128xbf16> loc(#loc94)
        %218 = "ttir.typecast"(%217) <{conservative_folding = false}> : (tensor<32x16x17x128xbf16>) -> tensor<32x16x17x128xf32> loc(#loc95)
        %219 = "ttir.multiply"(%218, %5) : (tensor<32x16x17x128xf32>, tensor<32x16x17x128xf32>) -> tensor<32x16x17x128xf32> loc(#loc96)
        %220 = "ttir.reshape"(%127) <{shape = [32 : i32, 8 : i32, 1 : i32, 128 : i32, 128 : i32]}> : (tensor<32x8x128x128xbf16>) -> tensor<32x8x1x128x128xbf16> loc(#loc97)
        %221 = "ttir.broadcast"(%220) <{broadcast_dimensions = array<i64: 1, 1, 2, 1, 1>}> : (tensor<32x8x1x128x128xbf16>) -> tensor<32x8x2x128x128xbf16> loc(#loc97)
        %222 = "ttir.reshape"(%221) <{shape = [32 : i32, 16 : i32, 128 : i32, 128 : i32]}> : (tensor<32x8x2x128x128xbf16>) -> tensor<32x16x128x128xbf16> loc(#loc98)
        %223 = "ttir.typecast"(%222) <{conservative_folding = false}> : (tensor<32x16x128x128xbf16>) -> tensor<32x16x128x128xf32> loc(#loc99)
        %224 = "ttir.permute"(%223) <{permutation = array<i64: 0, 1, 3, 2>}> : (tensor<32x16x128x128xf32>) -> tensor<32x16x128x128xf32> loc(#loc100)
        %225 = "ttir.multiply"(%224, %4) : (tensor<32x16x128x128xf32>, tensor<32x16x128x128xf32>) -> tensor<32x16x128x128xf32> loc(#loc101)
        %226 = "ttir.dot_general"(%219, %225) <{batch_dims_lhs = array<i64: 0, 1>, batch_dims_rhs = array<i64: 0, 1>, contract_dims_lhs = array<i64: 3>, contract_dims_rhs = array<i64: 2>}> : (tensor<32x16x17x128xf32>, tensor<32x16x128x128xf32>) -> tensor<32x16x17x128xf32> loc(#loc102)
        %227 = "ttir.reshape"(%9) <{shape = [1 : i32, 128 : i32]}> : (tensor<128xi64>) -> tensor<1x128xi64> loc(#loc103)
        %228 = "ttir.broadcast"(%227) <{broadcast_dimensions = array<i64: 17, 1>}> : (tensor<1x128xi64>) -> tensor<17x128xi64> loc(#loc103)
        %229 = "ttir.reshape"(%11) <{shape = [17 : i32, 1 : i32]}> : (tensor<17xi64>) -> tensor<17x1xi64> loc(#loc104)
        %230 = "ttir.broadcast"(%229) <{broadcast_dimensions = array<i64: 1, 128>}> : (tensor<17x1xi64>) -> tensor<17x128xi64> loc(#loc104)
        %231 = "ttir.le"(%228, %230) : (tensor<17x128xi64>, tensor<17x128xi64>) -> tensor<17x128xi1> loc(#loc105)
        %232 = "ttir.reshape"(%231) <{shape = [1 : i32, 17 : i32, 128 : i32]}> : (tensor<17x128xi1>) -> tensor<1x17x128xi1> loc(#loc106)
        %233 = "ttir.reshape"(%232) <{shape = [1 : i32, 1 : i32, 17 : i32, 128 : i32]}> : (tensor<1x17x128xi1>) -> tensor<1x1x17x128xi1> loc(#loc107)
        %234 = "ttir.broadcast"(%233) <{broadcast_dimensions = array<i64: 32, 1, 1, 1>}> : (tensor<1x1x17x128xi1>) -> tensor<32x1x17x128xi1> loc(#loc107)
        %235 = "ttir.where"(%234, %3, %2) : (tensor<32x1x17x128xi1>, tensor<32x1x17x128xbf16>, tensor<32x1x17x128xbf16>) -> tensor<32x1x17x128xbf16> loc(#loc108)
        %236 = "ttir.typecast"(%235) <{conservative_folding = false}> : (tensor<32x1x17x128xbf16>) -> tensor<32x1x17x128xf32> loc(#loc109)
        %237 = "ttir.reshape"(%236) <{shape = [32 : i32, 17 : i32, 128 : i32]}> : (tensor<32x1x17x128xf32>) -> tensor<32x17x128xf32> loc(#loc110)
        %238 = "ttir.reshape"(%237) <{shape = [32 : i32, 1 : i32, 17 : i32, 128 : i32]}> : (tensor<32x17x128xf32>) -> tensor<32x1x17x128xf32> loc(#loc111)
        %239 = "ttir.broadcast"(%238) <{broadcast_dimensions = array<i64: 1, 16, 1, 1>}> : (tensor<32x1x17x128xf32>) -> tensor<32x16x17x128xf32> loc(#loc111)
        %240 = "ttir.add"(%226, %239) : (tensor<32x16x17x128xf32>, tensor<32x16x17x128xf32>) -> tensor<32x16x17x128xf32> loc(#loc112)
        %241 = "ttir.typecast"(%240) <{conservative_folding = false}> : (tensor<32x16x17x128xf32>) -> tensor<32x16x17x128xf64> loc(#loc113)
        %242 = "ttir.eq"(%241, %1) : (tensor<32x16x17x128xf64>, tensor<32x16x17x128xf64>) -> tensor<32x16x17x128xi1> loc(#loc114)
        %243 = "ttir.logical_not"(%242) : (tensor<32x16x17x128xi1>) -> tensor<32x16x17x128xi1> loc(#loc115)
        %244 = "ttir.reduce_or"(%243) <{dim_arg = [3 : i32], keep_dim = false}> : (tensor<32x16x17x128xi1>) -> tensor<32x16x17xi1> loc(#loc116)
        %245 = "ttir.reshape"(%244) <{shape = [32 : i32, 16 : i32, 17 : i32, 1 : i32]}> : (tensor<32x16x17xi1>) -> tensor<32x16x17x1xi1> loc(#loc117)
        %246 = "ttir.logical_not"(%245) : (tensor<32x16x17x1xi1>) -> tensor<32x16x17x1xi1> loc(#loc118)
        %247 = "ttir.reshape"(%246) <{shape = [32 : i32, 16 : i32, 17 : i32]}> : (tensor<32x16x17x1xi1>) -> tensor<32x16x17xi1> loc(#loc119)
        %248 = "ttir.reshape"(%247) <{shape = [32 : i32, 16 : i32, 17 : i32, 1 : i32]}> : (tensor<32x16x17xi1>) -> tensor<32x16x17x1xi1> loc(#loc120)
        %249 = "ttir.broadcast"(%248) <{broadcast_dimensions = array<i64: 1, 1, 1, 128>}> : (tensor<32x16x17x1xi1>) -> tensor<32x16x17x128xi1> loc(#loc120)
        %250 = "ttir.max"(%240) <{dim_arg = [3 : i32], keep_dim = false}> : (tensor<32x16x17x128xf32>) -> tensor<32x16x17xf32> loc(#loc121)
        %251 = "ttir.reshape"(%250) <{shape = [32 : i32, 16 : i32, 17 : i32, 1 : i32]}> : (tensor<32x16x17xf32>) -> tensor<32x16x17x1xf32> loc(#loc122)
        %252 = "ttir.broadcast"(%251) <{broadcast_dimensions = array<i64: 1, 1, 1, 128>}> : (tensor<32x16x17x1xf32>) -> tensor<32x16x17x128xf32> loc(#loc122)
        %253 = "ttir.subtract"(%240, %252) : (tensor<32x16x17x128xf32>, tensor<32x16x17x128xf32>) -> tensor<32x16x17x128xf32> loc(#loc123)
        %254 = "ttir.exp"(%253) : (tensor<32x16x17x128xf32>) -> tensor<32x16x17x128xf32> loc(#loc124)
        %255 = "ttir.sum"(%254) <{dim_arg = [3 : i32], keep_dim = false}> : (tensor<32x16x17x128xf32>) -> tensor<32x16x17xf32> loc(#loc125)
        %256 = "ttir.reshape"(%255) <{shape = [32 : i32, 16 : i32, 17 : i32, 1 : i32]}> : (tensor<32x16x17xf32>) -> tensor<32x16x17x1xf32> loc(#loc126)
        %257 = "ttir.broadcast"(%256) <{broadcast_dimensions = array<i64: 1, 1, 1, 128>}> : (tensor<32x16x17x1xf32>) -> tensor<32x16x17x128xf32> loc(#loc126)
        %258 = "ttir.div"(%254, %257) : (tensor<32x16x17x128xf32>, tensor<32x16x17x128xf32>) -> tensor<32x16x17x128xf32> loc(#loc127)
        %259 = "ttir.where"(%249, %0, %258) : (tensor<32x16x17x128xi1>, tensor<32x16x17x128xf32>, tensor<32x16x17x128xf32>) -> tensor<32x16x17x128xf32> loc(#loc128)
        %260 = "ttir.reshape"(%197) <{shape = [32 : i32, 8 : i32, 1 : i32, 128 : i32, 128 : i32]}> : (tensor<32x8x128x128xbf16>) -> tensor<32x8x1x128x128xbf16> loc(#loc129)
        %261 = "ttir.broadcast"(%260) <{broadcast_dimensions = array<i64: 1, 1, 2, 1, 1>}> : (tensor<32x8x1x128x128xbf16>) -> tensor<32x8x2x128x128xbf16> loc(#loc129)
        %262 = "ttir.reshape"(%261) <{shape = [32 : i32, 16 : i32, 128 : i32, 128 : i32]}> : (tensor<32x8x2x128x128xbf16>) -> tensor<32x16x128x128xbf16> loc(#loc130)
        %263 = "ttir.typecast"(%262) <{conservative_folding = false}> : (tensor<32x16x128x128xbf16>) -> tensor<32x16x128x128xf32> loc(#loc131)
        %264 = "ttir.dot_general"(%259, %263) <{batch_dims_lhs = array<i64: 0, 1>, batch_dims_rhs = array<i64: 0, 1>, contract_dims_lhs = array<i64: 3>, contract_dims_rhs = array<i64: 2>}> : (tensor<32x16x17x128xf32>, tensor<32x16x128x128xf32>) -> tensor<32x16x17x128xf32> loc(#loc132)
        %265 = "ttir.typecast"(%264) <{conservative_folding = false}> : (tensor<32x16x17x128xf32>) -> tensor<32x16x17x128xbf16> loc(#loc133)
        %266 = "ttir.permute"(%265) <{permutation = array<i64: 0, 2, 1, 3>}> : (tensor<32x16x17x128xbf16>) -> tensor<32x17x16x128xbf16> loc(#loc134)
        %267 = "ttir.reshape"(%266) <{shape = [544 : i32, 2048 : i32]}> : (tensor<32x17x16x128xbf16>) -> tensor<544x2048xbf16> loc(#loc135)
        %268 = "ttir.reshape"(%arg15) <{shape = [1 : i32, 2048 : i32, 2048 : i32]}> : (tensor<2048x2048xbf16>) -> tensor<1x2048x2048xbf16> loc(#loc136)
        %269 = "ttir.reshape"(%268) <{shape = [2048 : i32, 2048 : i32]}> : (tensor<1x2048x2048xbf16>) -> tensor<2048x2048xbf16> loc(#loc137)
        %270 = "ttir.permute"(%269) <{permutation = array<i64: 1, 0>}> : (tensor<2048x2048xbf16>) -> tensor<2048x2048xbf16> loc(#loc138)
        %271 = "ttir.dot_general"(%267, %270) <{batch_dims_lhs = array<i64>, batch_dims_rhs = array<i64>, contract_dims_lhs = array<i64: 1>, contract_dims_rhs = array<i64: 0>}> : (tensor<544x2048xbf16>, tensor<2048x2048xbf16>) -> tensor<544x2048xbf16> loc(#loc139)
        %272 = "ttir.reshape"(%271) <{shape = [32 : i32, 17 : i32, 2048 : i32]}> : (tensor<544x2048xbf16>) -> tensor<32x17x2048xbf16> loc(#loc140)
        %273 = "ttir.add"(%26, %272) : (tensor<32x17x2048xbf16>, tensor<32x17x2048xbf16>) -> tensor<32x17x2048xbf16> loc(#loc141)
        %274 = "ttir.reshape"(%arg14) <{shape = [1 : i32, 1 : i32, 2048 : i32]}> : (tensor<2048xbf16>) -> tensor<1x1x2048xbf16> loc(#loc142)
        %275 = "ttir.reshape"(%274) <{shape = [2048 : i32]}> : (tensor<1x1x2048xbf16>) -> tensor<2048xbf16> loc(#loc143)
        %276 = "ttir.rms_norm"(%273, %275) <{epsilon = 9.99999997E-7 : f32, normalized_shape = array<i64: 2048>, operandSegmentSizes = array<i32: 1, 1, 0>}> : (tensor<32x17x2048xbf16>, tensor<2048xbf16>) -> tensor<32x17x2048xbf16> loc(#loc144)
        %277 = "ttir.reshape"(%276) <{shape = [544 : i32, 2048 : i32]}> : (tensor<32x17x2048xbf16>) -> tensor<544x2048xbf16> loc(#loc145)
        %278 = "ttir.reshape"(%arg18) <{shape = [1 : i32, 6144 : i32, 2048 : i32]}> : (tensor<6144x2048xbf16>) -> tensor<1x6144x2048xbf16> loc(#loc146)
        %279 = "ttir.reshape"(%278) <{shape = [6144 : i32, 2048 : i32]}> : (tensor<1x6144x2048xbf16>) -> tensor<6144x2048xbf16> loc(#loc147)
        %280 = "ttir.permute"(%279) <{permutation = array<i64: 1, 0>}> : (tensor<6144x2048xbf16>) -> tensor<2048x6144xbf16> loc(#loc148)
        %281 = "ttir.dot_general"(%277, %280) <{batch_dims_lhs = array<i64>, batch_dims_rhs = array<i64>, contract_dims_lhs = array<i64: 1>, contract_dims_rhs = array<i64: 0>}> : (tensor<544x2048xbf16>, tensor<2048x6144xbf16>) -> tensor<544x6144xbf16> loc(#loc149)
        %282 = "ttir.reshape"(%281) <{shape = [32 : i32, 17 : i32, 6144 : i32]}> : (tensor<544x6144xbf16>) -> tensor<32x17x6144xbf16> loc(#loc150)
        %283 = "ttir.typecast"(%282) <{conservative_folding = false}> : (tensor<32x17x6144xbf16>) -> tensor<32x17x6144xf32> loc(#loc151)
        %284 = "ttir.sigmoid"(%283) : (tensor<32x17x6144xf32>) -> tensor<32x17x6144xf32> loc(#loc152)
        %285 = "ttir.multiply"(%283, %284) : (tensor<32x17x6144xf32>, tensor<32x17x6144xf32>) -> tensor<32x17x6144xf32> loc(#loc153)
        %286 = "ttir.typecast"(%285) <{conservative_folding = false}> : (tensor<32x17x6144xf32>) -> tensor<32x17x6144xbf16> loc(#loc154)
        %287 = "ttir.reshape"(%arg13) <{shape = [1 : i32, 6144 : i32, 2048 : i32]}> : (tensor<6144x2048xbf16>) -> tensor<1x6144x2048xbf16> loc(#loc155)
        %288 = "ttir.reshape"(%287) <{shape = [6144 : i32, 2048 : i32]}> : (tensor<1x6144x2048xbf16>) -> tensor<6144x2048xbf16> loc(#loc156)
        %289 = "ttir.permute"(%288) <{permutation = array<i64: 1, 0>}> : (tensor<6144x2048xbf16>) -> tensor<2048x6144xbf16> loc(#loc157)
        %290 = "ttir.dot_general"(%277, %289) <{batch_dims_lhs = array<i64>, batch_dims_rhs = array<i64>, contract_dims_lhs = array<i64: 1>, contract_dims_rhs = array<i64: 0>}> : (tensor<544x2048xbf16>, tensor<2048x6144xbf16>) -> tensor<544x6144xbf16> loc(#loc158)
        %291 = "ttir.reshape"(%290) <{shape = [32 : i32, 17 : i32, 6144 : i32]}> : (tensor<544x6144xbf16>) -> tensor<32x17x6144xbf16> loc(#loc159)
        %292 = "ttir.multiply"(%286, %291) : (tensor<32x17x6144xbf16>, tensor<32x17x6144xbf16>) -> tensor<32x17x6144xbf16> loc(#loc160)
        %293 = "ttir.reshape"(%292) <{shape = [544 : i32, 6144 : i32]}> : (tensor<32x17x6144xbf16>) -> tensor<544x6144xbf16> loc(#loc161)
        %294 = "ttir.reshape"(%arg12) <{shape = [1 : i32, 2048 : i32, 6144 : i32]}> : (tensor<2048x6144xbf16>) -> tensor<1x2048x6144xbf16> loc(#loc162)
        %295 = "ttir.reshape"(%294) <{shape = [2048 : i32, 6144 : i32]}> : (tensor<1x2048x6144xbf16>) -> tensor<2048x6144xbf16> loc(#loc163)
        %296 = "ttir.permute"(%295) <{permutation = array<i64: 1, 0>}> : (tensor<2048x6144xbf16>) -> tensor<6144x2048xbf16> loc(#loc164)
        %297 = "ttir.dot_general"(%293, %296) <{batch_dims_lhs = array<i64>, batch_dims_rhs = array<i64>, contract_dims_lhs = array<i64: 1>, contract_dims_rhs = array<i64: 0>}> : (tensor<544x6144xbf16>, tensor<6144x2048xbf16>) -> tensor<544x2048xbf16> loc(#loc165)
        %298 = "ttir.reshape"(%297) <{shape = [32 : i32, 17 : i32, 2048 : i32]}> : (tensor<544x2048xbf16>) -> tensor<32x17x2048xbf16> loc(#loc166)
        %299 = "ttir.add"(%273, %298) : (tensor<32x17x2048xbf16>, tensor<32x17x2048xbf16>) -> tensor<32x17x2048xbf16> loc(#loc167)
        %300 = "ttir.reshape"(%arg11) <{shape = [1 : i32, 1 : i32, 2048 : i32]}> : (tensor<2048xbf16>) -> tensor<1x1x2048xbf16> loc(#loc168)
        %301 = "ttir.reshape"(%300) <{shape = [2048 : i32]}> : (tensor<1x1x2048xbf16>) -> tensor<2048xbf16> loc(#loc169)
        %302 = "ttir.rms_norm"(%299, %301) <{epsilon = 9.99999997E-7 : f32, normalized_shape = array<i64: 2048>, operandSegmentSizes = array<i32: 1, 1, 0>}> : (tensor<32x17x2048xbf16>, tensor<2048xbf16>) -> tensor<32x17x2048xbf16> loc(#loc170)
        %303 = "ttir.reshape"(%302) <{shape = [544 : i32, 2048 : i32]}> : (tensor<32x17x2048xbf16>) -> tensor<544x2048xbf16> loc(#loc171)
        %304 = "ttir.reshape"(%arg10) <{shape = [1 : i32, 151936 : i32, 2048 : i32]}> : (tensor<151936x2048xbf16>) -> tensor<1x151936x2048xbf16> loc(#loc172)
        %305 = "ttir.reshape"(%304) <{shape = [151936 : i32, 2048 : i32]}> : (tensor<1x151936x2048xbf16>) -> tensor<151936x2048xbf16> loc(#loc173)
        %306 = "ttir.permute"(%305) <{permutation = array<i64: 1, 0>}> : (tensor<151936x2048xbf16>) -> tensor<2048x151936xbf16> loc(#loc174)
        %307 = "ttir.dot_general"(%303, %306) <{batch_dims_lhs = array<i64>, batch_dims_rhs = array<i64>, contract_dims_lhs = array<i64: 1>, contract_dims_rhs = array<i64: 0>}> : (tensor<544x2048xbf16>, tensor<2048x151936xbf16>) -> tensor<544x151936xbf16> loc(#loc175)
        %308 = "ttir.reshape"(%307) <{shape = [32 : i32, 17 : i32, 151936 : i32]}> : (tensor<544x151936xbf16>) -> tensor<32x17x151936xbf16> loc(#loc176)
        %309 = "ttir.slice_static"(%308) <{begins = [0 : i32, 16 : i32, 0 : i32], ends = [32 : i32, 17 : i32, 151936 : i32], step = [1 : i32, 1 : i32, 1 : i32]}> : (tensor<32x17x151936xbf16>) -> tensor<32x1x151936xbf16> loc(#loc177)
        %310 = "ttir.reshape"(%309) <{shape = [32 : i32, 151936 : i32]}> : (tensor<32x1x151936xbf16>) -> tensor<32x151936xbf16> loc(#loc178)
        %311 = "ttir.arange"() <{arange_dimension = 0 : i64, end = 151936 : si64, start = 0 : si64, step = 1 : si64}> : () -> tensor<151936xi32> loc(#loc179)
        %312 = "ttir.reshape"(%311) <{shape = [1 : i32, 151936 : i32]}> : (tensor<151936xi32>) -> tensor<1x151936xi32> loc(#loc179)
        %313 = "ttir.argmax"(%310) <{dim_arg = [1 : i32], keep_dim = false}> : (tensor<32x151936xbf16>) -> tensor<32xi32> loc(#loc180)
        %314 = "ttir.typecast"(%313) <{conservative_folding = false}> : (tensor<32xi32>) -> tensor<32xi64> loc(#loc181)
        %315 = "ttir.reshape"(%314) <{shape = [32 : i32, 1 : i32]}> : (tensor<32xi64>) -> tensor<32x1xi64> loc(#loc182)
        return %127, %197, %199, %315 : tensor<32x8x128x128xbf16>, tensor<32x8x128x128xbf16>, tensor<1xi64>, tensor<32x1xi64> loc(#loc)
      } loc(#loc)
    } loc(#loc)
  } loc(#loc)
} loc(#loc)
#loc = loc(unknown)
#loc20 = loc("reshape.4")
#loc21 = loc("reshape.6")
#loc22 = loc("compare.161")
#loc23 = loc("add.158")
#loc24 = loc("select.162")
#loc25 = loc("reshape.57")
#loc26 = loc("reshape.59")
#loc27 = loc("reshape.52")
#loc28 = loc("reshape.55")
#loc29 = loc("convert.60")
#loc30 = loc("gather.61")
#loc31 = loc("reshape.62")
#loc32 = loc("reshape.43")
#loc33 = loc("reshape.45")
#loc34 = loc("custom-call.95")
#loc35 = loc("reshape.96")
#loc36 = loc("reshape.38")
#loc37 = loc("reshape.40")
#loc38 = loc("transpose.41")
#loc39 = loc("dot.97")
#loc40 = loc("reshape.99")
#loc41 = loc("reshape.29")
#loc42 = loc("reshape.31")
#loc43 = loc("custom-call.132")
#loc44 = loc("transpose.133")
#loc45 = loc("reshape.12")
#loc46 = loc("reshape.16")
#loc47 = loc("convert.17")
#loc48 = loc("convert.9")
#loc49 = loc("dot.20")
#loc50 = loc("transpose.21")
#loc51 = loc("concatenate.22")
#loc52 = loc("cosine.142")
#loc53 = loc("convert.145")
#loc54 = loc("reshape.147")
#loc55 = loc("broadcast.148")
#loc56 = loc("multiply.149")
#loc57 = loc("slice.135")
#loc58 = loc("negate.136")
#loc59 = loc("slice.134")
#loc60 = loc("concatenate.137")
#loc61 = loc("sine.23")
#loc62 = loc("convert.26")
#loc63 = loc("reshape.138")
#loc64 = loc("broadcast.139")
#loc65 = loc("multiply.140")
#loc66 = loc("add.152")
#loc67 = loc("scatter.171")
#loc68 = loc("reshape.174")
#loc69 = loc("reshape.176")
#loc70 = loc("transpose.177")
#loc71 = loc("dot.179")
#loc72 = loc("reshape.181")
#loc73 = loc("transpose.182")
#loc74 = loc("scatter.201")
#loc75 = loc("slice.205")
#loc76 = loc("add.208")
#loc77 = loc("reshape.309")
#loc78 = loc("reshape.311")
#loc79 = loc("transpose.312")
#loc80 = loc("dot.314")
#loc81 = loc("reshape.316")
#loc82 = loc("reshape.300")
#loc83 = loc("reshape.302")
#loc84 = loc("custom-call.349")
#loc85 = loc("transpose.350")
#loc86 = loc("broadcast.359")
#loc87 = loc("multiply.360")
#loc88 = loc("slice.352")
#loc89 = loc("negate.353")
#loc90 = loc("slice.351")
#loc91 = loc("concatenate.354")
#loc92 = loc("broadcast.356")
#loc93 = loc("multiply.357")
#loc94 = loc("add.363")
#loc95 = loc("convert.364")
#loc96 = loc("multiply.366")
#loc97 = loc("broadcast.291")
#loc98 = loc("reshape.292")
#loc99 = loc("convert.293")
#loc100 = loc("transpose.294")
#loc101 = loc("multiply.296")
#loc102 = loc("dot.367")
#loc103 = loc("broadcast.275")
#loc104 = loc("broadcast.277")
#loc105 = loc("compare.278")
#loc106 = loc("reshape.279")
#loc107 = loc("broadcast.284")
#loc108 = loc("select.286")
#loc109 = loc("convert.369")
#loc110 = loc("reshape.372")
#loc111 = loc("broadcast.373")
#loc112 = loc("add.374")
#loc113 = loc("convert.400")
#loc114 = loc("compare.402")
#loc115 = loc("not.404")
#loc116 = loc("reduce.416")
#loc117 = loc("reshape.420")
#loc118 = loc("not.422")
#loc119 = loc("reshape.424")
#loc120 = loc("broadcast.425")
#loc121 = loc("reduce.380")
#loc122 = loc("broadcast.381")
#loc123 = loc("subtract.382")
#loc124 = loc("exponential.383")
#loc125 = loc("reduce.389")
#loc126 = loc("broadcast.390")
#loc127 = loc("divide.391")
#loc128 = loc("select.426")
#loc129 = loc("broadcast.252")
#loc130 = loc("reshape.253")
#loc131 = loc("convert.254")
#loc132 = loc("dot.427")
#loc133 = loc("convert.429")
#loc134 = loc("transpose.430")
#loc135 = loc("reshape.432")
#loc136 = loc("reshape.245")
#loc137 = loc("reshape.247")
#loc138 = loc("transpose.248")
#loc139 = loc("dot.433")
#loc140 = loc("reshape.434")
#loc141 = loc("add.437")
#loc142 = loc("reshape.235")
#loc143 = loc("reshape.237")
#loc144 = loc("custom-call.470")
#loc145 = loc("reshape.479")
#loc146 = loc("reshape.475")
#loc147 = loc("reshape.477")
#loc148 = loc("transpose.478")
#loc149 = loc("dot.480")
#loc150 = loc("reshape.481")
#loc151 = loc("convert.482")
#loc152 = loc("logistic.483")
#loc153 = loc("multiply.484")
#loc154 = loc("convert.485")
#loc155 = loc("reshape.230")
#loc156 = loc("reshape.232")
#loc157 = loc("transpose.233")
#loc158 = loc("dot.472")
#loc159 = loc("reshape.473")
#loc160 = loc("multiply.486")
#loc161 = loc("reshape.487")
#loc162 = loc("reshape.225")
#loc163 = loc("reshape.227")
#loc164 = loc("transpose.228")
#loc165 = loc("dot.488")
#loc166 = loc("reshape.489")
#loc167 = loc("add.492")
#loc168 = loc("reshape.215")
#loc169 = loc("reshape.217")
#loc170 = loc("custom-call.525")
#loc171 = loc("reshape.526")
#loc172 = loc("reshape.210")
#loc173 = loc("reshape.212")
#loc174 = loc("transpose.213")
#loc175 = loc("dot.527")
#loc176 = loc("reshape.528")
#loc177 = loc("slice.529")
#loc178 = loc("reshape.530")
#loc179 = loc("iota.533")
#loc180 = loc("reduce.558")
#loc181 = loc("convert.560")
#loc182 = loc("reshape.561")
#loc183 = loc("gather.61_permuteInput"(#loc30))
#loc184 = loc("gather.61_reshapeInput"(#loc30))
#loc185 = loc("gather.61_reshapeStartIndices"(#loc30))
#loc186 = loc("gather.61_reshapeOutput"(#loc30))
#loc187 = loc("gather.61_permuteOutput"(#loc30))
