#loc1 = loc("p0.3")
#loc2 = loc("p1.7")
#loc3 = loc("p2.13")
#loc4 = loc("p3.17")
#loc5 = loc("p4.23")
#loc6 = loc("p5.28")
#loc7 = loc("p6.38")
#loc8 = loc("p7.42")
#loc9 = loc("p8.48")
#loc10 = loc("p9.52")
#loc11 = loc("p10.58")
#loc12 = loc("p11.63")
#loc13 = loc("p12.71")
#loc14 = loc("p13.171")
#loc15 = loc("p14.187")
module @SyncTensorsGraph.354 attributes {mhlo.cross_program_prefetches = [], mhlo.input_output_alias = [], mhlo.is_dynamic = false, mhlo.use_auto_spmd_partitioning = false, ttcore.meshes = #ttcore.meshes<[<"mesh" = 1x1>]>} {
  ttcore.device_module {
    builtin.module @SyncTensorsGraph.354 attributes {mhlo.cross_program_prefetches = [], mhlo.input_output_alias = [], mhlo.is_dynamic = false, mhlo.use_auto_spmd_partitioning = false, ttcore.meshes = #ttcore.meshes<[<"mesh" = 1x1>]>} {
      func.func @main(%arg0: tensor<96xbf16> {ttcore.argument_type = #ttcore.argument_type<parameter>, ttcore.shard_status = #ttcore.shard_status<unsharded>, ttir.name = "l__self___block_mlp_3_bias"} loc("p0.3"), %arg1: tensor<96x384xbf16> {ttcore.argument_type = #ttcore.argument_type<parameter>, ttcore.shard_status = #ttcore.shard_status<unsharded>, ttir.name = "l__self___block_mlp_3_weight"} loc("p1.7"), %arg2: tensor<384xbf16> {ttcore.argument_type = #ttcore.argument_type<parameter>, ttcore.shard_status = #ttcore.shard_status<unsharded>, ttir.name = "l__self___block_mlp_0_bias"} loc("p2.13"), %arg3: tensor<384x96xbf16> {ttcore.argument_type = #ttcore.argument_type<parameter>, ttcore.shard_status = #ttcore.shard_status<unsharded>, ttir.name = "l__self___block_mlp_0_weight"} loc("p3.17"), %arg4: tensor<96xbf16> {ttcore.argument_type = #ttcore.argument_type<parameter>, ttcore.shard_status = #ttcore.shard_status<unsharded>, ttir.name = "l__self___block_norm2_bias"} loc("p4.23"), %arg5: tensor<96xbf16> {ttcore.argument_type = #ttcore.argument_type<parameter>, ttcore.shard_status = #ttcore.shard_status<unsharded>, ttir.name = "l__self___block_norm2_weight"} loc("p5.28"), %arg6: tensor<96xbf16> {ttcore.argument_type = #ttcore.argument_type<parameter>, ttcore.shard_status = #ttcore.shard_status<unsharded>, ttir.name = "l__self___block_attn_proj_bias"} loc("p6.38"), %arg7: tensor<96x96xbf16> {ttcore.argument_type = #ttcore.argument_type<parameter>, ttcore.shard_status = #ttcore.shard_status<unsharded>, ttir.name = "l__self___block_attn_proj_weight"} loc("p7.42"), %arg8: tensor<288xbf16> {ttcore.argument_type = #ttcore.argument_type<parameter>, ttcore.shard_status = #ttcore.shard_status<unsharded>, ttir.name = "l__self___block_attn_qkv_bias"} loc("p8.48"), %arg9: tensor<288x96xbf16> {ttcore.argument_type = #ttcore.argument_type<parameter>, ttcore.shard_status = #ttcore.shard_status<unsharded>, ttir.name = "l__self___block_attn_qkv_weight"} loc("p9.52"), %arg10: tensor<96xbf16> {ttcore.argument_type = #ttcore.argument_type<parameter>, ttcore.shard_status = #ttcore.shard_status<unsharded>, ttir.name = "l__self___block_norm1_bias"} loc("p10.58"), %arg11: tensor<96xbf16> {ttcore.argument_type = #ttcore.argument_type<parameter>, ttcore.shard_status = #ttcore.shard_status<unsharded>, ttir.name = "l__self___block_norm1_weight"} loc("p11.63"), %arg12: tensor<1x256x96xbf16> {ttcore.argument_type = #ttcore.argument_type<input>, ttcore.shard_status = #ttcore.shard_status<unsharded>, ttir.name = "args_0"} loc("p12.71"), %arg13: tensor<2401xi64> {ttcore.argument_type = #ttcore.argument_type<constant>, ttcore.shard_status = #ttcore.shard_status<unsharded>, ttir.name = "l__self___block_attn_relative_position_index"} loc("p13.171"), %arg14: tensor<169x3xbf16> {ttcore.argument_type = #ttcore.argument_type<parameter>, ttcore.shard_status = #ttcore.shard_status<unsharded>, ttir.name = "l__self___block_attn_relative_position_bias_table"} loc("p14.187")) -> (tensor<1x256x96xbf16> {ttcore.shard_status = #ttcore.shard_status<unsharded>}) {
        %0 = "ttir.constant"() <{value = dense<1.000000e+00> : tensor<1x16x16x384xbf16>}> : () -> tensor<1x16x16x384xbf16> loc(#loc)
        %1 = "ttir.constant"() <{value = dense<7.070310e-01> : tensor<1x16x16x384xbf16>}> : () -> tensor<1x16x16x384xbf16> loc(#loc)
        %2 = "ttir.constant"() <{value = dense<5.000000e-01> : tensor<1x16x16x384xbf16>}> : () -> tensor<1x16x16x384xbf16> loc(#loc)
        %3 = "ttir.constant"() <{value = dense<169> : tensor<2401xi64>}> : () -> tensor<2401xi64> loc(#loc)
        %4 = "ttir.constant"() <{value = dense<0> : tensor<2401xi64>}> : () -> tensor<2401xi64> loc(#loc)
        %5 = "ttir.constant"() <{value = dense<1.767580e-01> : tensor<9x3x49x32xbf16>}> : () -> tensor<9x3x49x32xbf16> loc(#loc)
        %6 = "ttir.reshape"(%arg12) <{shape = [1 : i32, 16 : i32, 16 : i32, 96 : i32]}> : (tensor<1x256x96xbf16>) -> tensor<1x16x16x96xbf16> loc(#loc16)
        %7 = "ttir.reshape"(%arg11) <{shape = [1 : i32, 1 : i32, 96 : i32]}> : (tensor<96xbf16>) -> tensor<1x1x96xbf16> loc(#loc17)
        %8 = "ttir.reshape"(%7) <{shape = [96 : i32]}> : (tensor<1x1x96xbf16>) -> tensor<96xbf16> loc(#loc18)
        %9 = "ttir.reshape"(%arg10) <{shape = [1 : i32, 1 : i32, 96 : i32]}> : (tensor<96xbf16>) -> tensor<1x1x96xbf16> loc(#loc19)
        %10 = "ttir.reshape"(%9) <{shape = [96 : i32]}> : (tensor<1x1x96xbf16>) -> tensor<96xbf16> loc(#loc20)
        %11 = "ttir.layer_norm"(%6, %8, %10) <{epsilon = 9.99999974E-6 : f32, normalized_shape = array<i64: 96>, operandSegmentSizes = array<i32: 1, 1, 1>}> : (tensor<1x16x16x96xbf16>, tensor<96xbf16>, tensor<96xbf16>) -> tensor<1x16x16x96xbf16> loc(#loc21)
        %12 = "ttir.pad"(%11) <{padding = array<i32: 0, 0, 0, 5, 0, 5, 0, 0>, value = 0.000000e+00 : f32}> : (tensor<1x16x16x96xbf16>) -> tensor<1x21x21x96xbf16> loc(#loc22)
        %13 = "ttir.reshape"(%12) <{shape = [1 : i32, 3 : i32, 7 : i32, 3 : i32, 7 : i32, 96 : i32]}> : (tensor<1x21x21x96xbf16>) -> tensor<1x3x7x3x7x96xbf16> loc(#loc23)
        %14 = "ttir.permute"(%13) <{permutation = array<i64: 0, 1, 3, 2, 4, 5>}> : (tensor<1x3x7x3x7x96xbf16>) -> tensor<1x3x3x7x7x96xbf16> loc(#loc24)
        %15 = "ttir.reshape"(%14) <{shape = [441 : i32, 96 : i32]}> : (tensor<1x3x3x7x7x96xbf16>) -> tensor<441x96xbf16> loc(#loc25)
        %16 = "ttir.reshape"(%arg9) <{shape = [1 : i32, 288 : i32, 96 : i32]}> : (tensor<288x96xbf16>) -> tensor<1x288x96xbf16> loc(#loc26)
        %17 = "ttir.reshape"(%16) <{shape = [288 : i32, 96 : i32]}> : (tensor<1x288x96xbf16>) -> tensor<288x96xbf16> loc(#loc27)
        %18 = "ttir.permute"(%17) <{permutation = array<i64: 1, 0>}> : (tensor<288x96xbf16>) -> tensor<96x288xbf16> loc(#loc28)
        %19 = "ttir.dot_general"(%15, %18) <{batch_dims_lhs = array<i64>, batch_dims_rhs = array<i64>, contract_dims_lhs = array<i64: 1>, contract_dims_rhs = array<i64: 0>}> : (tensor<441x96xbf16>, tensor<96x288xbf16>) -> tensor<441x288xbf16> loc(#loc29)
        %20 = "ttir.reshape"(%19) <{shape = [9 : i32, 49 : i32, 288 : i32]}> : (tensor<441x288xbf16>) -> tensor<9x49x288xbf16> loc(#loc30)
        %21 = "ttir.reshape"(%arg8) <{shape = [1 : i32, 1 : i32, 288 : i32]}> : (tensor<288xbf16>) -> tensor<1x1x288xbf16> loc(#loc31)
        %22 = "ttir.reshape"(%21) <{shape = [288 : i32]}> : (tensor<1x1x288xbf16>) -> tensor<288xbf16> loc(#loc32)
        %23 = "ttir.reshape"(%22) <{shape = [1 : i32, 1 : i32, 288 : i32]}> : (tensor<288xbf16>) -> tensor<1x1x288xbf16> loc(#loc33)
        %24 = "ttir.broadcast"(%23) <{broadcast_dimensions = array<i64: 9, 49, 1>}> : (tensor<1x1x288xbf16>) -> tensor<9x49x288xbf16> loc(#loc33)
        %25 = "ttir.add"(%20, %24) : (tensor<9x49x288xbf16>, tensor<9x49x288xbf16>) -> tensor<9x49x288xbf16> loc(#loc34)
        %26 = "ttir.reshape"(%25) <{shape = [9 : i32, 49 : i32, 3 : i32, 3 : i32, 32 : i32]}> : (tensor<9x49x288xbf16>) -> tensor<9x49x3x3x32xbf16> loc(#loc35)
        %27 = "ttir.permute"(%26) <{permutation = array<i64: 2, 0, 3, 1, 4>}> : (tensor<9x49x3x3x32xbf16>) -> tensor<3x9x3x49x32xbf16> loc(#loc36)
        %28 = "ttir.slice_static"(%27) <{begins = [0 : i32, 0 : i32, 0 : i32, 0 : i32, 0 : i32], ends = [1 : i32, 9 : i32, 3 : i32, 49 : i32, 32 : i32], step = [1 : i32, 1 : i32, 1 : i32, 1 : i32, 1 : i32]}> : (tensor<3x9x3x49x32xbf16>) -> tensor<1x9x3x49x32xbf16> loc(#loc37)
        %29 = "ttir.reshape"(%28) <{shape = [9 : i32, 3 : i32, 49 : i32, 32 : i32]}> : (tensor<1x9x3x49x32xbf16>) -> tensor<9x3x49x32xbf16> loc(#loc38)
        %30 = "ttir.multiply"(%29, %5) : (tensor<9x3x49x32xbf16>, tensor<9x3x49x32xbf16>) -> tensor<9x3x49x32xbf16> loc(#loc39)
        %31 = "ttir.slice_static"(%27) <{begins = [1 : i32, 0 : i32, 0 : i32, 0 : i32, 0 : i32], ends = [2 : i32, 9 : i32, 3 : i32, 49 : i32, 32 : i32], step = [1 : i32, 1 : i32, 1 : i32, 1 : i32, 1 : i32]}> : (tensor<3x9x3x49x32xbf16>) -> tensor<1x9x3x49x32xbf16> loc(#loc40)
        %32 = "ttir.reshape"(%31) <{shape = [9 : i32, 3 : i32, 49 : i32, 32 : i32]}> : (tensor<1x9x3x49x32xbf16>) -> tensor<9x3x49x32xbf16> loc(#loc41)
        %33 = "ttir.permute"(%32) <{permutation = array<i64: 0, 1, 3, 2>}> : (tensor<9x3x49x32xbf16>) -> tensor<9x3x32x49xbf16> loc(#loc42)
        %34 = "ttir.dot_general"(%30, %33) <{batch_dims_lhs = array<i64: 0, 1>, batch_dims_rhs = array<i64: 0, 1>, contract_dims_lhs = array<i64: 3>, contract_dims_rhs = array<i64: 2>}> : (tensor<9x3x49x32xbf16>, tensor<9x3x32x49xbf16>) -> tensor<9x3x49x49xbf16> loc(#loc43)
        %35 = "ttir.reshape"(%arg14) <{shape = [1 : i32, 169 : i32, 3 : i32]}> : (tensor<169x3xbf16>) -> tensor<1x169x3xbf16> loc(#loc44)
        %36 = "ttir.reshape"(%35) <{shape = [169 : i32, 3 : i32]}> : (tensor<1x169x3xbf16>) -> tensor<169x3xbf16> loc(#loc45)
        %37 = "ttir.reshape"(%arg13) <{shape = [1 : i32, 1 : i32, 2401 : i32]}> : (tensor<2401xi64>) -> tensor<1x1x2401xi64> loc(#loc46)
        %38 = "ttir.reshape"(%37) <{shape = [2401 : i32]}> : (tensor<1x1x2401xi64>) -> tensor<2401xi64> loc(#loc47)
        %39 = "ttir.lt"(%38, %4) : (tensor<2401xi64>, tensor<2401xi64>) -> tensor<2401xi1> loc(#loc48)
        %40 = "ttir.add"(%38, %3) : (tensor<2401xi64>, tensor<2401xi64>) -> tensor<2401xi64> loc(#loc49)
        %41 = "ttir.where"(%39, %40, %38) : (tensor<2401xi1>, tensor<2401xi64>, tensor<2401xi64>) -> tensor<2401xi64> loc(#loc50)
        %42 = "ttir.reshape"(%41) <{shape = [2401 : i32, 1 : i32]}> : (tensor<2401xi64>) -> tensor<2401x1xi64> loc(#loc51)
        %43 = "ttir.gather"(%36, %42) <{collapsed_slice_dims = array<i64: 0>, index_vector_dim = 1 : si64, indices_are_sorted = false, offset_dims = array<i64: 1>, operand_batching_dims = array<i64>, slice_sizes = array<i64: 1, 3>, start_index_map = array<i64: 0>, start_indices_batching_dims = array<i64>}> : (tensor<169x3xbf16>, tensor<2401x1xi64>) -> tensor<2401x3xbf16> loc(#loc52)
        %44 = "ttir.reshape"(%43) <{shape = [49 : i32, 49 : i32, 3 : i32]}> : (tensor<2401x3xbf16>) -> tensor<49x49x3xbf16> loc(#loc53)
        %45 = "ttir.permute"(%44) <{permutation = array<i64: 2, 0, 1>}> : (tensor<49x49x3xbf16>) -> tensor<3x49x49xbf16> loc(#loc54)
        %46 = "ttir.reshape"(%45) <{shape = [1 : i32, 3 : i32, 49 : i32, 49 : i32]}> : (tensor<3x49x49xbf16>) -> tensor<1x3x49x49xbf16> loc(#loc55)
        %47 = "ttir.broadcast"(%46) <{broadcast_dimensions = array<i64: 9, 1, 1, 1>}> : (tensor<1x3x49x49xbf16>) -> tensor<9x3x49x49xbf16> loc(#loc55)
        %48 = "ttir.add"(%34, %47) : (tensor<9x3x49x49xbf16>, tensor<9x3x49x49xbf16>) -> tensor<9x3x49x49xbf16> loc(#loc56)
        %49 = "ttir.max"(%48) <{dim_arg = [3 : i32], keep_dim = false}> : (tensor<9x3x49x49xbf16>) -> tensor<9x3x49xbf16> loc(#loc57)
        %50 = "ttir.reshape"(%49) <{shape = [9 : i32, 3 : i32, 49 : i32, 1 : i32]}> : (tensor<9x3x49xbf16>) -> tensor<9x3x49x1xbf16> loc(#loc58)
        %51 = "ttir.broadcast"(%50) <{broadcast_dimensions = array<i64: 1, 1, 1, 49>}> : (tensor<9x3x49x1xbf16>) -> tensor<9x3x49x49xbf16> loc(#loc58)
        %52 = "ttir.subtract"(%48, %51) : (tensor<9x3x49x49xbf16>, tensor<9x3x49x49xbf16>) -> tensor<9x3x49x49xbf16> loc(#loc59)
        %53 = "ttir.exp"(%52) : (tensor<9x3x49x49xbf16>) -> tensor<9x3x49x49xbf16> loc(#loc60)
        %54 = "ttir.sum"(%53) <{dim_arg = [3 : i32], keep_dim = false}> : (tensor<9x3x49x49xbf16>) -> tensor<9x3x49xbf16> loc(#loc61)
        %55 = "ttir.reshape"(%54) <{shape = [9 : i32, 3 : i32, 49 : i32, 1 : i32]}> : (tensor<9x3x49xbf16>) -> tensor<9x3x49x1xbf16> loc(#loc62)
        %56 = "ttir.broadcast"(%55) <{broadcast_dimensions = array<i64: 1, 1, 1, 49>}> : (tensor<9x3x49x1xbf16>) -> tensor<9x3x49x49xbf16> loc(#loc62)
        %57 = "ttir.div"(%53, %56) : (tensor<9x3x49x49xbf16>, tensor<9x3x49x49xbf16>) -> tensor<9x3x49x49xbf16> loc(#loc63)
        %58 = "ttir.slice_static"(%27) <{begins = [2 : i32, 0 : i32, 0 : i32, 0 : i32, 0 : i32], ends = [3 : i32, 9 : i32, 3 : i32, 49 : i32, 32 : i32], step = [1 : i32, 1 : i32, 1 : i32, 1 : i32, 1 : i32]}> : (tensor<3x9x3x49x32xbf16>) -> tensor<1x9x3x49x32xbf16> loc(#loc64)
        %59 = "ttir.reshape"(%58) <{shape = [9 : i32, 3 : i32, 49 : i32, 32 : i32]}> : (tensor<1x9x3x49x32xbf16>) -> tensor<9x3x49x32xbf16> loc(#loc65)
        %60 = "ttir.dot_general"(%57, %59) <{batch_dims_lhs = array<i64: 0, 1>, batch_dims_rhs = array<i64: 0, 1>, contract_dims_lhs = array<i64: 3>, contract_dims_rhs = array<i64: 2>}> : (tensor<9x3x49x49xbf16>, tensor<9x3x49x32xbf16>) -> tensor<9x3x49x32xbf16> loc(#loc66)
        %61 = "ttir.permute"(%60) <{permutation = array<i64: 0, 2, 1, 3>}> : (tensor<9x3x49x32xbf16>) -> tensor<9x49x3x32xbf16> loc(#loc67)
        %62 = "ttir.reshape"(%61) <{shape = [441 : i32, 96 : i32]}> : (tensor<9x49x3x32xbf16>) -> tensor<441x96xbf16> loc(#loc68)
        %63 = "ttir.reshape"(%arg7) <{shape = [1 : i32, 96 : i32, 96 : i32]}> : (tensor<96x96xbf16>) -> tensor<1x96x96xbf16> loc(#loc69)
        %64 = "ttir.reshape"(%63) <{shape = [96 : i32, 96 : i32]}> : (tensor<1x96x96xbf16>) -> tensor<96x96xbf16> loc(#loc70)
        %65 = "ttir.permute"(%64) <{permutation = array<i64: 1, 0>}> : (tensor<96x96xbf16>) -> tensor<96x96xbf16> loc(#loc71)
        %66 = "ttir.dot_general"(%62, %65) <{batch_dims_lhs = array<i64>, batch_dims_rhs = array<i64>, contract_dims_lhs = array<i64: 1>, contract_dims_rhs = array<i64: 0>}> : (tensor<441x96xbf16>, tensor<96x96xbf16>) -> tensor<441x96xbf16> loc(#loc72)
        %67 = "ttir.reshape"(%66) <{shape = [9 : i32, 49 : i32, 96 : i32]}> : (tensor<441x96xbf16>) -> tensor<9x49x96xbf16> loc(#loc73)
        %68 = "ttir.reshape"(%arg6) <{shape = [1 : i32, 1 : i32, 96 : i32]}> : (tensor<96xbf16>) -> tensor<1x1x96xbf16> loc(#loc74)
        %69 = "ttir.reshape"(%68) <{shape = [96 : i32]}> : (tensor<1x1x96xbf16>) -> tensor<96xbf16> loc(#loc75)
        %70 = "ttir.reshape"(%69) <{shape = [1 : i32, 1 : i32, 96 : i32]}> : (tensor<96xbf16>) -> tensor<1x1x96xbf16> loc(#loc76)
        %71 = "ttir.broadcast"(%70) <{broadcast_dimensions = array<i64: 9, 49, 1>}> : (tensor<1x1x96xbf16>) -> tensor<9x49x96xbf16> loc(#loc76)
        %72 = "ttir.add"(%67, %71) : (tensor<9x49x96xbf16>, tensor<9x49x96xbf16>) -> tensor<9x49x96xbf16> loc(#loc77)
        %73 = "ttir.reshape"(%72) <{shape = [1 : i32, 3 : i32, 3 : i32, 7 : i32, 7 : i32, 96 : i32]}> : (tensor<9x49x96xbf16>) -> tensor<1x3x3x7x7x96xbf16> loc(#loc78)
        %74 = "ttir.permute"(%73) <{permutation = array<i64: 0, 1, 3, 2, 4, 5>}> : (tensor<1x3x3x7x7x96xbf16>) -> tensor<1x3x7x3x7x96xbf16> loc(#loc79)
        %75 = "ttir.reshape"(%74) <{shape = [1 : i32, 21 : i32, 21 : i32, 96 : i32]}> : (tensor<1x3x7x3x7x96xbf16>) -> tensor<1x21x21x96xbf16> loc(#loc80)
        %76 = "ttir.slice_static"(%75) <{begins = [0 : i32, 0 : i32, 0 : i32, 0 : i32], ends = [1 : i32, 16 : i32, 21 : i32, 96 : i32], step = [1 : i32, 1 : i32, 1 : i32, 1 : i32]}> : (tensor<1x21x21x96xbf16>) -> tensor<1x16x21x96xbf16> loc(#loc81)
        %77 = "ttir.slice_static"(%76) <{begins = [0 : i32, 0 : i32, 0 : i32, 0 : i32], ends = [1 : i32, 16 : i32, 16 : i32, 96 : i32], step = [1 : i32, 1 : i32, 1 : i32, 1 : i32]}> : (tensor<1x16x21x96xbf16>) -> tensor<1x16x16x96xbf16> loc(#loc82)
        %78 = "ttir.add"(%6, %77) : (tensor<1x16x16x96xbf16>, tensor<1x16x16x96xbf16>) -> tensor<1x16x16x96xbf16> loc(#loc83)
        %79 = "ttir.reshape"(%arg5) <{shape = [1 : i32, 1 : i32, 96 : i32]}> : (tensor<96xbf16>) -> tensor<1x1x96xbf16> loc(#loc84)
        %80 = "ttir.reshape"(%79) <{shape = [96 : i32]}> : (tensor<1x1x96xbf16>) -> tensor<96xbf16> loc(#loc85)
        %81 = "ttir.reshape"(%arg4) <{shape = [1 : i32, 1 : i32, 96 : i32]}> : (tensor<96xbf16>) -> tensor<1x1x96xbf16> loc(#loc86)
        %82 = "ttir.reshape"(%81) <{shape = [96 : i32]}> : (tensor<1x1x96xbf16>) -> tensor<96xbf16> loc(#loc87)
        %83 = "ttir.layer_norm"(%78, %80, %82) <{epsilon = 9.99999974E-6 : f32, normalized_shape = array<i64: 96>, operandSegmentSizes = array<i32: 1, 1, 1>}> : (tensor<1x16x16x96xbf16>, tensor<96xbf16>, tensor<96xbf16>) -> tensor<1x16x16x96xbf16> loc(#loc88)
        %84 = "ttir.reshape"(%arg3) <{shape = [1 : i32, 384 : i32, 96 : i32]}> : (tensor<384x96xbf16>) -> tensor<1x384x96xbf16> loc(#loc89)
        %85 = "ttir.reshape"(%84) <{shape = [384 : i32, 96 : i32]}> : (tensor<1x384x96xbf16>) -> tensor<384x96xbf16> loc(#loc90)
        %86 = "ttir.permute"(%85) <{permutation = array<i64: 1, 0>}> : (tensor<384x96xbf16>) -> tensor<96x384xbf16> loc(#loc91)
        %87 = "ttir.dot_general"(%83, %86) <{batch_dims_lhs = array<i64>, batch_dims_rhs = array<i64>, contract_dims_lhs = array<i64: 3>, contract_dims_rhs = array<i64: 0>}> : (tensor<1x16x16x96xbf16>, tensor<96x384xbf16>) -> tensor<1x16x16x384xbf16> loc(#loc92)
        %88 = "ttir.reshape"(%arg2) <{shape = [1 : i32, 1 : i32, 384 : i32]}> : (tensor<384xbf16>) -> tensor<1x1x384xbf16> loc(#loc93)
        %89 = "ttir.reshape"(%88) <{shape = [384 : i32]}> : (tensor<1x1x384xbf16>) -> tensor<384xbf16> loc(#loc94)
        %90 = "ttir.reshape"(%89) <{shape = [1 : i32, 1 : i32, 1 : i32, 384 : i32]}> : (tensor<384xbf16>) -> tensor<1x1x1x384xbf16> loc(#loc95)
        %91 = "ttir.broadcast"(%90) <{broadcast_dimensions = array<i64: 1, 16, 16, 1>}> : (tensor<1x1x1x384xbf16>) -> tensor<1x16x16x384xbf16> loc(#loc95)
        %92 = "ttir.add"(%87, %91) : (tensor<1x16x16x384xbf16>, tensor<1x16x16x384xbf16>) -> tensor<1x16x16x384xbf16> loc(#loc96)
        %93 = "ttir.multiply"(%92, %2) : (tensor<1x16x16x384xbf16>, tensor<1x16x16x384xbf16>) -> tensor<1x16x16x384xbf16> loc(#loc97)
        %94 = "ttir.multiply"(%92, %1) : (tensor<1x16x16x384xbf16>, tensor<1x16x16x384xbf16>) -> tensor<1x16x16x384xbf16> loc(#loc98)
        %95 = "ttir.erf"(%94) : (tensor<1x16x16x384xbf16>) -> tensor<1x16x16x384xbf16> loc(#loc99)
        %96 = "ttir.add"(%95, %0) : (tensor<1x16x16x384xbf16>, tensor<1x16x16x384xbf16>) -> tensor<1x16x16x384xbf16> loc(#loc100)
        %97 = "ttir.multiply"(%93, %96) : (tensor<1x16x16x384xbf16>, tensor<1x16x16x384xbf16>) -> tensor<1x16x16x384xbf16> loc(#loc101)
        %98 = "ttir.reshape"(%arg1) <{shape = [1 : i32, 96 : i32, 384 : i32]}> : (tensor<96x384xbf16>) -> tensor<1x96x384xbf16> loc(#loc102)
        %99 = "ttir.reshape"(%98) <{shape = [96 : i32, 384 : i32]}> : (tensor<1x96x384xbf16>) -> tensor<96x384xbf16> loc(#loc103)
        %100 = "ttir.permute"(%99) <{permutation = array<i64: 1, 0>}> : (tensor<96x384xbf16>) -> tensor<384x96xbf16> loc(#loc104)
        %101 = "ttir.dot_general"(%97, %100) <{batch_dims_lhs = array<i64>, batch_dims_rhs = array<i64>, contract_dims_lhs = array<i64: 3>, contract_dims_rhs = array<i64: 0>}> : (tensor<1x16x16x384xbf16>, tensor<384x96xbf16>) -> tensor<1x16x16x96xbf16> loc(#loc105)
        %102 = "ttir.reshape"(%arg0) <{shape = [1 : i32, 1 : i32, 96 : i32]}> : (tensor<96xbf16>) -> tensor<1x1x96xbf16> loc(#loc106)
        %103 = "ttir.reshape"(%102) <{shape = [96 : i32]}> : (tensor<1x1x96xbf16>) -> tensor<96xbf16> loc(#loc107)
        %104 = "ttir.reshape"(%103) <{shape = [1 : i32, 1 : i32, 1 : i32, 96 : i32]}> : (tensor<96xbf16>) -> tensor<1x1x1x96xbf16> loc(#loc108)
        %105 = "ttir.broadcast"(%104) <{broadcast_dimensions = array<i64: 1, 16, 16, 1>}> : (tensor<1x1x1x96xbf16>) -> tensor<1x16x16x96xbf16> loc(#loc108)
        %106 = "ttir.add"(%101, %105) : (tensor<1x16x16x96xbf16>, tensor<1x16x16x96xbf16>) -> tensor<1x16x16x96xbf16> loc(#loc109)
        %107 = "ttir.add"(%78, %106) : (tensor<1x16x16x96xbf16>, tensor<1x16x16x96xbf16>) -> tensor<1x16x16x96xbf16> loc(#loc110)
        %108 = "ttir.reshape"(%107) <{shape = [1 : i32, 256 : i32, 96 : i32]}> : (tensor<1x16x16x96xbf16>) -> tensor<1x256x96xbf16> loc(#loc111)
        return %108 : tensor<1x256x96xbf16> loc(#loc)
      } loc(#loc)
    } loc(#loc)
  } loc(#loc)
} loc(#loc)
#loc = loc(unknown)
#loc16 = loc("reshape.73")
#loc17 = loc("reshape.64")
#loc18 = loc("reshape.66")
#loc19 = loc("reshape.59")
#loc20 = loc("reshape.61")
#loc21 = loc("custom-call.153")
#loc22 = loc("pad.155")
#loc23 = loc("reshape.156")
#loc24 = loc("transpose.157")
#loc25 = loc("reshape.159")
#loc26 = loc("reshape.53")
#loc27 = loc("reshape.55")
#loc28 = loc("transpose.56")
#loc29 = loc("dot.160")
#loc30 = loc("reshape.161")
#loc31 = loc("reshape.49")
#loc32 = loc("reshape.51")
#loc33 = loc("broadcast.164")
#loc34 = loc("add.165")
#loc35 = loc("reshape.166")
#loc36 = loc("transpose.167")
#loc37 = loc("slice.199")
#loc38 = loc("reshape.200")
#loc39 = loc("multiply.202")
#loc40 = loc("slice.195")
#loc41 = loc("reshape.196")
#loc42 = loc("transpose.197")
#loc43 = loc("dot.203")
#loc44 = loc("reshape.188")
#loc45 = loc("reshape.190")
#loc46 = loc("reshape.172")
#loc47 = loc("reshape.174")
#loc48 = loc("compare.183")
#loc49 = loc("add.180")
#loc50 = loc("select.184")
#loc51 = loc("reshape.185")
#loc52 = loc("gather.191")
#loc53 = loc("reshape.192")
#loc54 = loc("transpose.193")
#loc55 = loc("broadcast.208")
#loc56 = loc("add.209")
#loc57 = loc("reduce.215")
#loc58 = loc("broadcast.216")
#loc59 = loc("subtract.217")
#loc60 = loc("exponential.218")
#loc61 = loc("reduce.224")
#loc62 = loc("broadcast.225")
#loc63 = loc("divide.226")
#loc64 = loc("slice.168")
#loc65 = loc("reshape.169")
#loc66 = loc("dot.227")
#loc67 = loc("transpose.229")
#loc68 = loc("reshape.231")
#loc69 = loc("reshape.43")
#loc70 = loc("reshape.45")
#loc71 = loc("transpose.46")
#loc72 = loc("dot.232")
#loc73 = loc("reshape.233")
#loc74 = loc("reshape.39")
#loc75 = loc("reshape.41")
#loc76 = loc("broadcast.236")
#loc77 = loc("add.237")
#loc78 = loc("reshape.238")
#loc79 = loc("transpose.239")
#loc80 = loc("reshape.240")
#loc81 = loc("slice.241")
#loc82 = loc("slice.242")
#loc83 = loc("add.245")
#loc84 = loc("reshape.29")
#loc85 = loc("reshape.31")
#loc86 = loc("reshape.24")
#loc87 = loc("reshape.26")
#loc88 = loc("custom-call.325")
#loc89 = loc("reshape.18")
#loc90 = loc("reshape.20")
#loc91 = loc("transpose.21")
#loc92 = loc("dot.326")
#loc93 = loc("reshape.14")
#loc94 = loc("reshape.16")
#loc95 = loc("broadcast.330")
#loc96 = loc("add.331")
#loc97 = loc("multiply.341")
#loc98 = loc("multiply.336")
#loc99 = loc("erf.337")
#loc100 = loc("add.339")
#loc101 = loc("multiply.342")
#loc102 = loc("reshape.8")
#loc103 = loc("reshape.10")
#loc104 = loc("transpose.11")
#loc105 = loc("dot.343")
#loc106 = loc("reshape.4")
#loc107 = loc("reshape.6")
#loc108 = loc("broadcast.347")
#loc109 = loc("add.348")
#loc110 = loc("add.351")
#loc111 = loc("reshape.352")
