#loc1 = loc("p0.3")
#loc2 = loc("p1.7")
#loc3 = loc("p2.13")
#loc4 = loc("p3.17")
#loc5 = loc("p4.23")
#loc6 = loc("p5.28")
#loc7 = loc("p6.37")
#loc8 = loc("p7.41")
#loc9 = loc("p8.47")
#loc10 = loc("p9.51")
#loc11 = loc("p10.57")
#loc12 = loc("p11.62")
#loc13 = loc("p12.70")
#loc14 = loc("p13.75")
#loc15 = loc("p14.82")
#loc16 = loc("p15.86")
#loc17 = loc("p16.88")
#loc18 = loc("p17.266")
#loc19 = loc("p18.282")
module @SyncTensorsGraph.445 attributes {mhlo.cross_program_prefetches = [], mhlo.input_output_alias = [], mhlo.is_dynamic = false, mhlo.use_auto_spmd_partitioning = false, ttcore.meshes = #ttcore.meshes<[<"mesh" = 1x1>]>} {
  ttcore.device_module {
    builtin.module @SyncTensorsGraph.445 attributes {mhlo.cross_program_prefetches = [], mhlo.input_output_alias = [], mhlo.is_dynamic = false, mhlo.use_auto_spmd_partitioning = false, ttcore.meshes = #ttcore.meshes<[<"mesh" = 1x1>]>} {
      func.func @main(%arg0: tensor<96xbf16> {ttcore.argument_type = #ttcore.argument_type<parameter>, ttcore.shard_status = #ttcore.shard_status<unsharded>, ttir.name = "getattr_getattr_l__self___features___1_____0___mlp_3_bias"} loc("p0.3"), %arg1: tensor<96x384xbf16> {ttcore.argument_type = #ttcore.argument_type<parameter>, ttcore.shard_status = #ttcore.shard_status<unsharded>, ttir.name = "getattr_getattr_l__self___features___1_____0___mlp_3_weight"} loc("p1.7"), %arg2: tensor<384xbf16> {ttcore.argument_type = #ttcore.argument_type<parameter>, ttcore.shard_status = #ttcore.shard_status<unsharded>, ttir.name = "getattr_getattr_l__self___features___1_____0___mlp_0_bias"} loc("p2.13"), %arg3: tensor<384x96xbf16> {ttcore.argument_type = #ttcore.argument_type<parameter>, ttcore.shard_status = #ttcore.shard_status<unsharded>, ttir.name = "getattr_getattr_l__self___features___1_____0___mlp_0_weight"} loc("p3.17"), %arg4: tensor<96xbf16> {ttcore.argument_type = #ttcore.argument_type<parameter>, ttcore.shard_status = #ttcore.shard_status<unsharded>, ttir.name = "getattr_getattr_l__self___features___1_____0___norm2_bias"} loc("p4.23"), %arg5: tensor<96xbf16> {ttcore.argument_type = #ttcore.argument_type<parameter>, ttcore.shard_status = #ttcore.shard_status<unsharded>, ttir.name = "getattr_getattr_l__self___features___1_____0___norm2_weight"} loc("p5.28"), %arg6: tensor<96xbf16> {ttcore.argument_type = #ttcore.argument_type<parameter>, ttcore.shard_status = #ttcore.shard_status<unsharded>, ttir.name = "getattr_getattr_l__self___features___1_____0___attn_proj_bias"} loc("p6.37"), %arg7: tensor<96x96xbf16> {ttcore.argument_type = #ttcore.argument_type<parameter>, ttcore.shard_status = #ttcore.shard_status<unsharded>, ttir.name = "getattr_getattr_l__self___features___1_____0___attn_proj_weight"} loc("p7.41"), %arg8: tensor<288xbf16> {ttcore.argument_type = #ttcore.argument_type<parameter>, ttcore.shard_status = #ttcore.shard_status<unsharded>, ttir.name = "getattr_getattr_l__self___features___1_____0___attn_qkv_bias"} loc("p8.47"), %arg9: tensor<288x96xbf16> {ttcore.argument_type = #ttcore.argument_type<parameter>, ttcore.shard_status = #ttcore.shard_status<unsharded>, ttir.name = "getattr_getattr_l__self___features___1_____0___attn_qkv_weight"} loc("p9.51"), %arg10: tensor<96xbf16> {ttcore.argument_type = #ttcore.argument_type<parameter>, ttcore.shard_status = #ttcore.shard_status<unsharded>, ttir.name = "getattr_getattr_l__self___features___1_____0___norm1_bias"} loc("p10.57"), %arg11: tensor<96xbf16> {ttcore.argument_type = #ttcore.argument_type<parameter>, ttcore.shard_status = #ttcore.shard_status<unsharded>, ttir.name = "getattr_getattr_l__self___features___1_____0___norm1_weight"} loc("p11.62"), %arg12: tensor<96xbf16> {ttcore.argument_type = #ttcore.argument_type<parameter>, ttcore.shard_status = #ttcore.shard_status<unsharded>, ttir.name = "l__self___features_0_2_bias"} loc("p12.70"), %arg13: tensor<96xbf16> {ttcore.argument_type = #ttcore.argument_type<parameter>, ttcore.shard_status = #ttcore.shard_status<unsharded>, ttir.name = "l__self___features_0_2_weight"} loc("p13.75"), %arg14: tensor<96xbf16> {ttcore.argument_type = #ttcore.argument_type<parameter>, ttcore.shard_status = #ttcore.shard_status<unsharded>, ttir.name = "l__self___features_0_0_bias"} loc("p14.82"), %arg15: tensor<96x3x4x4xbf16> {ttcore.argument_type = #ttcore.argument_type<parameter>, ttcore.shard_status = #ttcore.shard_status<unsharded>, ttir.name = "l__self___features_0_0_weight"} loc("p15.86"), %arg16: tensor<1x3x512x512xbf16> {ttcore.argument_type = #ttcore.argument_type<input>, ttcore.shard_status = #ttcore.shard_status<unsharded>, ttir.name = "args_0"} loc("p16.88"), %arg17: tensor<2401xi64> {ttcore.argument_type = #ttcore.argument_type<constant>, ttcore.shard_status = #ttcore.shard_status<unsharded>, ttir.name = "getattr_getattr_l__self___features___1_____0___attn_relative_position_index"} loc("p17.266"), %arg18: tensor<169x3xbf16> {ttcore.argument_type = #ttcore.argument_type<parameter>, ttcore.shard_status = #ttcore.shard_status<unsharded>, ttir.name = "getattr_getattr_l__self___features___1_____0___attn_relative_position_bias_table"} loc("p18.282")) -> (tensor<1x128x128x96xbf16> {ttcore.shard_status = #ttcore.shard_status<unsharded>}) {
        %0 = "ttir.constant"() <{value = dense<1.000000e+00> : tensor<1x128x128x384xbf16>}> : () -> tensor<1x128x128x384xbf16> loc(#loc)
        %1 = "ttir.constant"() <{value = dense<7.070310e-01> : tensor<1x128x128x384xbf16>}> : () -> tensor<1x128x128x384xbf16> loc(#loc)
        %2 = "ttir.constant"() <{value = dense<5.000000e-01> : tensor<1x128x128x384xbf16>}> : () -> tensor<1x128x128x384xbf16> loc(#loc)
        %3 = "ttir.constant"() <{value = dense<169> : tensor<2401xi64>}> : () -> tensor<2401xi64> loc(#loc)
        %4 = "ttir.constant"() <{value = dense<0> : tensor<2401xi64>}> : () -> tensor<2401xi64> loc(#loc)
        %5 = "ttir.constant"() <{value = dense<1.767580e-01> : tensor<361x3x49x32xbf16>}> : () -> tensor<361x3x49x32xbf16> loc(#loc)
        %6 = "ttir.convolution"(%arg16, %arg15) <{batch_group_count = 1 : i64, convolution_layout = #ttir<convolution_layout input_batch = 0, input_feature = 1, input_spatial_dimensions = 2x3, kernel_output_feature = 0, kernel_input_feature = 1, kernel_spatial_dimensions = 2x3, output_batch = 0, output_feature = 1, output_spatial_dimensions = 2x3>, feature_group_count = 1 : i64, input_dilation = array<i64: 1, 1>, padding = array<i64: 0, 0, 0, 0>, weight_dilation = array<i64: 1, 1>, window_reversal = array<i1: false, false>, window_strides = array<i64: 4, 4>}> : (tensor<1x3x512x512xbf16>, tensor<96x3x4x4xbf16>) -> tensor<1x96x128x128xbf16> loc(#loc20)
        %7 = "ttir.reshape"(%arg14) <{shape = [1 : i32, 1 : i32, 96 : i32]}> : (tensor<96xbf16>) -> tensor<1x1x96xbf16> loc(#loc21)
        %8 = "ttir.reshape"(%7) <{shape = [96 : i32]}> : (tensor<1x1x96xbf16>) -> tensor<96xbf16> loc(#loc22)
        %9 = "ttir.reshape"(%8) <{shape = [1 : i32, 96 : i32, 1 : i32, 1 : i32]}> : (tensor<96xbf16>) -> tensor<1x96x1x1xbf16> loc(#loc23)
        %10 = "ttir.broadcast"(%9) <{broadcast_dimensions = array<i64: 1, 1, 128, 128>}> : (tensor<1x96x1x1xbf16>) -> tensor<1x96x128x128xbf16> loc(#loc23)
        %11 = "ttir.add"(%6, %10) : (tensor<1x96x128x128xbf16>, tensor<1x96x128x128xbf16>) -> tensor<1x96x128x128xbf16> loc(#loc24)
        %12 = "ttir.permute"(%11) <{permutation = array<i64: 0, 2, 3, 1>}> : (tensor<1x96x128x128xbf16>) -> tensor<1x128x128x96xbf16> loc(#loc25)
        %13 = "ttir.reshape"(%arg13) <{shape = [1 : i32, 1 : i32, 96 : i32]}> : (tensor<96xbf16>) -> tensor<1x1x96xbf16> loc(#loc26)
        %14 = "ttir.reshape"(%13) <{shape = [96 : i32]}> : (tensor<1x1x96xbf16>) -> tensor<96xbf16> loc(#loc27)
        %15 = "ttir.reshape"(%arg12) <{shape = [1 : i32, 1 : i32, 96 : i32]}> : (tensor<96xbf16>) -> tensor<1x1x96xbf16> loc(#loc28)
        %16 = "ttir.reshape"(%15) <{shape = [96 : i32]}> : (tensor<1x1x96xbf16>) -> tensor<96xbf16> loc(#loc29)
        %17 = "ttir.layer_norm"(%12, %14, %16) <{epsilon = 9.99999974E-6 : f32, normalized_shape = array<i64: 96>, operandSegmentSizes = array<i32: 1, 1, 1>}> : (tensor<1x128x128x96xbf16>, tensor<96xbf16>, tensor<96xbf16>) -> tensor<1x128x128x96xbf16> loc(#loc30)
        %18 = "ttir.reshape"(%arg11) <{shape = [1 : i32, 1 : i32, 96 : i32]}> : (tensor<96xbf16>) -> tensor<1x1x96xbf16> loc(#loc31)
        %19 = "ttir.reshape"(%18) <{shape = [96 : i32]}> : (tensor<1x1x96xbf16>) -> tensor<96xbf16> loc(#loc32)
        %20 = "ttir.reshape"(%arg10) <{shape = [1 : i32, 1 : i32, 96 : i32]}> : (tensor<96xbf16>) -> tensor<1x1x96xbf16> loc(#loc33)
        %21 = "ttir.reshape"(%20) <{shape = [96 : i32]}> : (tensor<1x1x96xbf16>) -> tensor<96xbf16> loc(#loc34)
        %22 = "ttir.layer_norm"(%17, %19, %21) <{epsilon = 9.99999974E-6 : f32, normalized_shape = array<i64: 96>, operandSegmentSizes = array<i32: 1, 1, 1>}> : (tensor<1x128x128x96xbf16>, tensor<96xbf16>, tensor<96xbf16>) -> tensor<1x128x128x96xbf16> loc(#loc35)
        %23 = "ttir.pad"(%22) <{padding = array<i32: 0, 0, 0, 5, 0, 5, 0, 0>, value = 0.000000e+00 : f32}> : (tensor<1x128x128x96xbf16>) -> tensor<1x133x133x96xbf16> loc(#loc36)
        %24 = "ttir.reshape"(%23) <{shape = [1 : i32, 19 : i32, 7 : i32, 19 : i32, 7 : i32, 96 : i32]}> : (tensor<1x133x133x96xbf16>) -> tensor<1x19x7x19x7x96xbf16> loc(#loc37)
        %25 = "ttir.permute"(%24) <{permutation = array<i64: 0, 1, 3, 2, 4, 5>}> : (tensor<1x19x7x19x7x96xbf16>) -> tensor<1x19x19x7x7x96xbf16> loc(#loc38)
        %26 = "ttir.reshape"(%25) <{shape = [17689 : i32, 96 : i32]}> : (tensor<1x19x19x7x7x96xbf16>) -> tensor<17689x96xbf16> loc(#loc39)
        %27 = "ttir.reshape"(%arg9) <{shape = [1 : i32, 288 : i32, 96 : i32]}> : (tensor<288x96xbf16>) -> tensor<1x288x96xbf16> loc(#loc40)
        %28 = "ttir.reshape"(%27) <{shape = [288 : i32, 96 : i32]}> : (tensor<1x288x96xbf16>) -> tensor<288x96xbf16> loc(#loc41)
        %29 = "ttir.permute"(%28) <{permutation = array<i64: 1, 0>}> : (tensor<288x96xbf16>) -> tensor<96x288xbf16> loc(#loc42)
        %30 = "ttir.dot_general"(%26, %29) <{batch_dims_lhs = array<i64>, batch_dims_rhs = array<i64>, contract_dims_lhs = array<i64: 1>, contract_dims_rhs = array<i64: 0>}> : (tensor<17689x96xbf16>, tensor<96x288xbf16>) -> tensor<17689x288xbf16> loc(#loc43)
        %31 = "ttir.reshape"(%30) <{shape = [361 : i32, 49 : i32, 288 : i32]}> : (tensor<17689x288xbf16>) -> tensor<361x49x288xbf16> loc(#loc44)
        %32 = "ttir.reshape"(%arg8) <{shape = [1 : i32, 1 : i32, 288 : i32]}> : (tensor<288xbf16>) -> tensor<1x1x288xbf16> loc(#loc45)
        %33 = "ttir.reshape"(%32) <{shape = [288 : i32]}> : (tensor<1x1x288xbf16>) -> tensor<288xbf16> loc(#loc46)
        %34 = "ttir.reshape"(%33) <{shape = [1 : i32, 1 : i32, 288 : i32]}> : (tensor<288xbf16>) -> tensor<1x1x288xbf16> loc(#loc47)
        %35 = "ttir.broadcast"(%34) <{broadcast_dimensions = array<i64: 361, 49, 1>}> : (tensor<1x1x288xbf16>) -> tensor<361x49x288xbf16> loc(#loc47)
        %36 = "ttir.add"(%31, %35) : (tensor<361x49x288xbf16>, tensor<361x49x288xbf16>) -> tensor<361x49x288xbf16> loc(#loc48)
        %37 = "ttir.reshape"(%36) <{shape = [361 : i32, 49 : i32, 3 : i32, 3 : i32, 32 : i32]}> : (tensor<361x49x288xbf16>) -> tensor<361x49x3x3x32xbf16> loc(#loc49)
        %38 = "ttir.permute"(%37) <{permutation = array<i64: 2, 0, 3, 1, 4>}> : (tensor<361x49x3x3x32xbf16>) -> tensor<3x361x3x49x32xbf16> loc(#loc50)
        %39 = "ttir.slice_static"(%38) <{begins = [0 : i32, 0 : i32, 0 : i32, 0 : i32, 0 : i32], ends = [1 : i32, 361 : i32, 3 : i32, 49 : i32, 32 : i32], step = [1 : i32, 1 : i32, 1 : i32, 1 : i32, 1 : i32]}> : (tensor<3x361x3x49x32xbf16>) -> tensor<1x361x3x49x32xbf16> loc(#loc51)
        %40 = "ttir.reshape"(%39) <{shape = [361 : i32, 3 : i32, 49 : i32, 32 : i32]}> : (tensor<1x361x3x49x32xbf16>) -> tensor<361x3x49x32xbf16> loc(#loc52)
        %41 = "ttir.multiply"(%40, %5) : (tensor<361x3x49x32xbf16>, tensor<361x3x49x32xbf16>) -> tensor<361x3x49x32xbf16> loc(#loc53)
        %42 = "ttir.slice_static"(%38) <{begins = [1 : i32, 0 : i32, 0 : i32, 0 : i32, 0 : i32], ends = [2 : i32, 361 : i32, 3 : i32, 49 : i32, 32 : i32], step = [1 : i32, 1 : i32, 1 : i32, 1 : i32, 1 : i32]}> : (tensor<3x361x3x49x32xbf16>) -> tensor<1x361x3x49x32xbf16> loc(#loc54)
        %43 = "ttir.reshape"(%42) <{shape = [361 : i32, 3 : i32, 49 : i32, 32 : i32]}> : (tensor<1x361x3x49x32xbf16>) -> tensor<361x3x49x32xbf16> loc(#loc55)
        %44 = "ttir.permute"(%43) <{permutation = array<i64: 0, 1, 3, 2>}> : (tensor<361x3x49x32xbf16>) -> tensor<361x3x32x49xbf16> loc(#loc56)
        %45 = "ttir.dot_general"(%41, %44) <{batch_dims_lhs = array<i64: 0, 1>, batch_dims_rhs = array<i64: 0, 1>, contract_dims_lhs = array<i64: 3>, contract_dims_rhs = array<i64: 2>}> : (tensor<361x3x49x32xbf16>, tensor<361x3x32x49xbf16>) -> tensor<361x3x49x49xbf16> loc(#loc57)
        %46 = "ttir.reshape"(%arg18) <{shape = [1 : i32, 169 : i32, 3 : i32]}> : (tensor<169x3xbf16>) -> tensor<1x169x3xbf16> loc(#loc58)
        %47 = "ttir.reshape"(%46) <{shape = [169 : i32, 3 : i32]}> : (tensor<1x169x3xbf16>) -> tensor<169x3xbf16> loc(#loc59)
        %48 = "ttir.reshape"(%arg17) <{shape = [1 : i32, 1 : i32, 2401 : i32]}> : (tensor<2401xi64>) -> tensor<1x1x2401xi64> loc(#loc60)
        %49 = "ttir.reshape"(%48) <{shape = [2401 : i32]}> : (tensor<1x1x2401xi64>) -> tensor<2401xi64> loc(#loc61)
        %50 = "ttir.lt"(%49, %4) : (tensor<2401xi64>, tensor<2401xi64>) -> tensor<2401xi1> loc(#loc62)
        %51 = "ttir.add"(%49, %3) : (tensor<2401xi64>, tensor<2401xi64>) -> tensor<2401xi64> loc(#loc63)
        %52 = "ttir.where"(%50, %51, %49) : (tensor<2401xi1>, tensor<2401xi64>, tensor<2401xi64>) -> tensor<2401xi64> loc(#loc64)
        %53 = "ttir.reshape"(%52) <{shape = [2401 : i32, 1 : i32]}> : (tensor<2401xi64>) -> tensor<2401x1xi64> loc(#loc65)
        %54 = "ttir.gather"(%47, %53) <{collapsed_slice_dims = array<i64: 0>, index_vector_dim = 1 : si64, indices_are_sorted = false, offset_dims = array<i64: 1>, operand_batching_dims = array<i64>, slice_sizes = array<i64: 1, 3>, start_index_map = array<i64: 0>, start_indices_batching_dims = array<i64>}> : (tensor<169x3xbf16>, tensor<2401x1xi64>) -> tensor<2401x3xbf16> loc(#loc66)
        %55 = "ttir.reshape"(%54) <{shape = [49 : i32, 49 : i32, 3 : i32]}> : (tensor<2401x3xbf16>) -> tensor<49x49x3xbf16> loc(#loc67)
        %56 = "ttir.permute"(%55) <{permutation = array<i64: 2, 0, 1>}> : (tensor<49x49x3xbf16>) -> tensor<3x49x49xbf16> loc(#loc68)
        %57 = "ttir.reshape"(%56) <{shape = [1 : i32, 3 : i32, 49 : i32, 49 : i32]}> : (tensor<3x49x49xbf16>) -> tensor<1x3x49x49xbf16> loc(#loc69)
        %58 = "ttir.broadcast"(%57) <{broadcast_dimensions = array<i64: 361, 1, 1, 1>}> : (tensor<1x3x49x49xbf16>) -> tensor<361x3x49x49xbf16> loc(#loc69)
        %59 = "ttir.add"(%45, %58) : (tensor<361x3x49x49xbf16>, tensor<361x3x49x49xbf16>) -> tensor<361x3x49x49xbf16> loc(#loc70)
        %60 = "ttir.max"(%59) <{dim_arg = [3 : i32], keep_dim = false}> : (tensor<361x3x49x49xbf16>) -> tensor<361x3x49xbf16> loc(#loc71)
        %61 = "ttir.reshape"(%60) <{shape = [361 : i32, 3 : i32, 49 : i32, 1 : i32]}> : (tensor<361x3x49xbf16>) -> tensor<361x3x49x1xbf16> loc(#loc72)
        %62 = "ttir.broadcast"(%61) <{broadcast_dimensions = array<i64: 1, 1, 1, 49>}> : (tensor<361x3x49x1xbf16>) -> tensor<361x3x49x49xbf16> loc(#loc72)
        %63 = "ttir.subtract"(%59, %62) : (tensor<361x3x49x49xbf16>, tensor<361x3x49x49xbf16>) -> tensor<361x3x49x49xbf16> loc(#loc73)
        %64 = "ttir.exp"(%63) : (tensor<361x3x49x49xbf16>) -> tensor<361x3x49x49xbf16> loc(#loc74)
        %65 = "ttir.sum"(%64) <{dim_arg = [3 : i32], keep_dim = false}> : (tensor<361x3x49x49xbf16>) -> tensor<361x3x49xbf16> loc(#loc75)
        %66 = "ttir.reshape"(%65) <{shape = [361 : i32, 3 : i32, 49 : i32, 1 : i32]}> : (tensor<361x3x49xbf16>) -> tensor<361x3x49x1xbf16> loc(#loc76)
        %67 = "ttir.broadcast"(%66) <{broadcast_dimensions = array<i64: 1, 1, 1, 49>}> : (tensor<361x3x49x1xbf16>) -> tensor<361x3x49x49xbf16> loc(#loc76)
        %68 = "ttir.div"(%64, %67) : (tensor<361x3x49x49xbf16>, tensor<361x3x49x49xbf16>) -> tensor<361x3x49x49xbf16> loc(#loc77)
        %69 = "ttir.slice_static"(%38) <{begins = [2 : i32, 0 : i32, 0 : i32, 0 : i32, 0 : i32], ends = [3 : i32, 361 : i32, 3 : i32, 49 : i32, 32 : i32], step = [1 : i32, 1 : i32, 1 : i32, 1 : i32, 1 : i32]}> : (tensor<3x361x3x49x32xbf16>) -> tensor<1x361x3x49x32xbf16> loc(#loc78)
        %70 = "ttir.reshape"(%69) <{shape = [361 : i32, 3 : i32, 49 : i32, 32 : i32]}> : (tensor<1x361x3x49x32xbf16>) -> tensor<361x3x49x32xbf16> loc(#loc79)
        %71 = "ttir.dot_general"(%68, %70) <{batch_dims_lhs = array<i64: 0, 1>, batch_dims_rhs = array<i64: 0, 1>, contract_dims_lhs = array<i64: 3>, contract_dims_rhs = array<i64: 2>}> : (tensor<361x3x49x49xbf16>, tensor<361x3x49x32xbf16>) -> tensor<361x3x49x32xbf16> loc(#loc80)
        %72 = "ttir.permute"(%71) <{permutation = array<i64: 0, 2, 1, 3>}> : (tensor<361x3x49x32xbf16>) -> tensor<361x49x3x32xbf16> loc(#loc81)
        %73 = "ttir.reshape"(%72) <{shape = [17689 : i32, 96 : i32]}> : (tensor<361x49x3x32xbf16>) -> tensor<17689x96xbf16> loc(#loc82)
        %74 = "ttir.reshape"(%arg7) <{shape = [1 : i32, 96 : i32, 96 : i32]}> : (tensor<96x96xbf16>) -> tensor<1x96x96xbf16> loc(#loc83)
        %75 = "ttir.reshape"(%74) <{shape = [96 : i32, 96 : i32]}> : (tensor<1x96x96xbf16>) -> tensor<96x96xbf16> loc(#loc84)
        %76 = "ttir.permute"(%75) <{permutation = array<i64: 1, 0>}> : (tensor<96x96xbf16>) -> tensor<96x96xbf16> loc(#loc85)
        %77 = "ttir.dot_general"(%73, %76) <{batch_dims_lhs = array<i64>, batch_dims_rhs = array<i64>, contract_dims_lhs = array<i64: 1>, contract_dims_rhs = array<i64: 0>}> : (tensor<17689x96xbf16>, tensor<96x96xbf16>) -> tensor<17689x96xbf16> loc(#loc86)
        %78 = "ttir.reshape"(%77) <{shape = [361 : i32, 49 : i32, 96 : i32]}> : (tensor<17689x96xbf16>) -> tensor<361x49x96xbf16> loc(#loc87)
        %79 = "ttir.reshape"(%arg6) <{shape = [1 : i32, 1 : i32, 96 : i32]}> : (tensor<96xbf16>) -> tensor<1x1x96xbf16> loc(#loc88)
        %80 = "ttir.reshape"(%79) <{shape = [96 : i32]}> : (tensor<1x1x96xbf16>) -> tensor<96xbf16> loc(#loc89)
        %81 = "ttir.reshape"(%80) <{shape = [1 : i32, 1 : i32, 96 : i32]}> : (tensor<96xbf16>) -> tensor<1x1x96xbf16> loc(#loc90)
        %82 = "ttir.broadcast"(%81) <{broadcast_dimensions = array<i64: 361, 49, 1>}> : (tensor<1x1x96xbf16>) -> tensor<361x49x96xbf16> loc(#loc90)
        %83 = "ttir.add"(%78, %82) : (tensor<361x49x96xbf16>, tensor<361x49x96xbf16>) -> tensor<361x49x96xbf16> loc(#loc91)
        %84 = "ttir.reshape"(%83) <{shape = [1 : i32, 19 : i32, 19 : i32, 7 : i32, 7 : i32, 96 : i32]}> : (tensor<361x49x96xbf16>) -> tensor<1x19x19x7x7x96xbf16> loc(#loc92)
        %85 = "ttir.permute"(%84) <{permutation = array<i64: 0, 1, 3, 2, 4, 5>}> : (tensor<1x19x19x7x7x96xbf16>) -> tensor<1x19x7x19x7x96xbf16> loc(#loc93)
        %86 = "ttir.reshape"(%85) <{shape = [1 : i32, 133 : i32, 133 : i32, 96 : i32]}> : (tensor<1x19x7x19x7x96xbf16>) -> tensor<1x133x133x96xbf16> loc(#loc94)
        %87 = "ttir.slice_static"(%86) <{begins = [0 : i32, 0 : i32, 0 : i32, 0 : i32], ends = [1 : i32, 128 : i32, 133 : i32, 96 : i32], step = [1 : i32, 1 : i32, 1 : i32, 1 : i32]}> : (tensor<1x133x133x96xbf16>) -> tensor<1x128x133x96xbf16> loc(#loc95)
        %88 = "ttir.slice_static"(%87) <{begins = [0 : i32, 0 : i32, 0 : i32, 0 : i32], ends = [1 : i32, 128 : i32, 128 : i32, 96 : i32], step = [1 : i32, 1 : i32, 1 : i32, 1 : i32]}> : (tensor<1x128x133x96xbf16>) -> tensor<1x128x128x96xbf16> loc(#loc96)
        %89 = "ttir.add"(%17, %88) : (tensor<1x128x128x96xbf16>, tensor<1x128x128x96xbf16>) -> tensor<1x128x128x96xbf16> loc(#loc97)
        %90 = "ttir.reshape"(%arg5) <{shape = [1 : i32, 1 : i32, 96 : i32]}> : (tensor<96xbf16>) -> tensor<1x1x96xbf16> loc(#loc98)
        %91 = "ttir.reshape"(%90) <{shape = [96 : i32]}> : (tensor<1x1x96xbf16>) -> tensor<96xbf16> loc(#loc99)
        %92 = "ttir.reshape"(%arg4) <{shape = [1 : i32, 1 : i32, 96 : i32]}> : (tensor<96xbf16>) -> tensor<1x1x96xbf16> loc(#loc100)
        %93 = "ttir.reshape"(%92) <{shape = [96 : i32]}> : (tensor<1x1x96xbf16>) -> tensor<96xbf16> loc(#loc101)
        %94 = "ttir.layer_norm"(%89, %91, %93) <{epsilon = 9.99999974E-6 : f32, normalized_shape = array<i64: 96>, operandSegmentSizes = array<i32: 1, 1, 1>}> : (tensor<1x128x128x96xbf16>, tensor<96xbf16>, tensor<96xbf16>) -> tensor<1x128x128x96xbf16> loc(#loc102)
        %95 = "ttir.reshape"(%arg3) <{shape = [1 : i32, 384 : i32, 96 : i32]}> : (tensor<384x96xbf16>) -> tensor<1x384x96xbf16> loc(#loc103)
        %96 = "ttir.reshape"(%95) <{shape = [384 : i32, 96 : i32]}> : (tensor<1x384x96xbf16>) -> tensor<384x96xbf16> loc(#loc104)
        %97 = "ttir.permute"(%96) <{permutation = array<i64: 1, 0>}> : (tensor<384x96xbf16>) -> tensor<96x384xbf16> loc(#loc105)
        %98 = "ttir.dot_general"(%94, %97) <{batch_dims_lhs = array<i64>, batch_dims_rhs = array<i64>, contract_dims_lhs = array<i64: 3>, contract_dims_rhs = array<i64: 0>}> : (tensor<1x128x128x96xbf16>, tensor<96x384xbf16>) -> tensor<1x128x128x384xbf16> loc(#loc106)
        %99 = "ttir.reshape"(%arg2) <{shape = [1 : i32, 1 : i32, 384 : i32]}> : (tensor<384xbf16>) -> tensor<1x1x384xbf16> loc(#loc107)
        %100 = "ttir.reshape"(%99) <{shape = [384 : i32]}> : (tensor<1x1x384xbf16>) -> tensor<384xbf16> loc(#loc108)
        %101 = "ttir.reshape"(%100) <{shape = [1 : i32, 1 : i32, 1 : i32, 384 : i32]}> : (tensor<384xbf16>) -> tensor<1x1x1x384xbf16> loc(#loc109)
        %102 = "ttir.broadcast"(%101) <{broadcast_dimensions = array<i64: 1, 128, 128, 1>}> : (tensor<1x1x1x384xbf16>) -> tensor<1x128x128x384xbf16> loc(#loc109)
        %103 = "ttir.add"(%98, %102) : (tensor<1x128x128x384xbf16>, tensor<1x128x128x384xbf16>) -> tensor<1x128x128x384xbf16> loc(#loc110)
        %104 = "ttir.multiply"(%103, %2) : (tensor<1x128x128x384xbf16>, tensor<1x128x128x384xbf16>) -> tensor<1x128x128x384xbf16> loc(#loc111)
        %105 = "ttir.multiply"(%103, %1) : (tensor<1x128x128x384xbf16>, tensor<1x128x128x384xbf16>) -> tensor<1x128x128x384xbf16> loc(#loc112)
        %106 = "ttir.erf"(%105) : (tensor<1x128x128x384xbf16>) -> tensor<1x128x128x384xbf16> loc(#loc113)
        %107 = "ttir.add"(%106, %0) : (tensor<1x128x128x384xbf16>, tensor<1x128x128x384xbf16>) -> tensor<1x128x128x384xbf16> loc(#loc114)
        %108 = "ttir.multiply"(%104, %107) : (tensor<1x128x128x384xbf16>, tensor<1x128x128x384xbf16>) -> tensor<1x128x128x384xbf16> loc(#loc115)
        %109 = "ttir.reshape"(%arg1) <{shape = [1 : i32, 96 : i32, 384 : i32]}> : (tensor<96x384xbf16>) -> tensor<1x96x384xbf16> loc(#loc116)
        %110 = "ttir.reshape"(%109) <{shape = [96 : i32, 384 : i32]}> : (tensor<1x96x384xbf16>) -> tensor<96x384xbf16> loc(#loc117)
        %111 = "ttir.permute"(%110) <{permutation = array<i64: 1, 0>}> : (tensor<96x384xbf16>) -> tensor<384x96xbf16> loc(#loc118)
        %112 = "ttir.dot_general"(%108, %111) <{batch_dims_lhs = array<i64>, batch_dims_rhs = array<i64>, contract_dims_lhs = array<i64: 3>, contract_dims_rhs = array<i64: 0>}> : (tensor<1x128x128x384xbf16>, tensor<384x96xbf16>) -> tensor<1x128x128x96xbf16> loc(#loc119)
        %113 = "ttir.reshape"(%arg0) <{shape = [1 : i32, 1 : i32, 96 : i32]}> : (tensor<96xbf16>) -> tensor<1x1x96xbf16> loc(#loc120)
        %114 = "ttir.reshape"(%113) <{shape = [96 : i32]}> : (tensor<1x1x96xbf16>) -> tensor<96xbf16> loc(#loc121)
        %115 = "ttir.reshape"(%114) <{shape = [1 : i32, 1 : i32, 1 : i32, 96 : i32]}> : (tensor<96xbf16>) -> tensor<1x1x1x96xbf16> loc(#loc122)
        %116 = "ttir.broadcast"(%115) <{broadcast_dimensions = array<i64: 1, 128, 128, 1>}> : (tensor<1x1x1x96xbf16>) -> tensor<1x128x128x96xbf16> loc(#loc122)
        %117 = "ttir.add"(%112, %116) : (tensor<1x128x128x96xbf16>, tensor<1x128x128x96xbf16>) -> tensor<1x128x128x96xbf16> loc(#loc123)
        %118 = "ttir.add"(%89, %117) : (tensor<1x128x128x96xbf16>, tensor<1x128x128x96xbf16>) -> tensor<1x128x128x96xbf16> loc(#loc124)
        return %118 : tensor<1x128x128x96xbf16> loc(#loc)
      } loc(#loc)
    } loc(#loc)
  } loc(#loc)
} loc(#loc)
#loc = loc(unknown)
#loc20 = loc("convolution.90")
#loc21 = loc("reshape.83")
#loc22 = loc("reshape.85")
#loc23 = loc("transpose.92")
#loc24 = loc("add.93")
#loc25 = loc("transpose.94")
#loc26 = loc("reshape.76")
#loc27 = loc("reshape.78")
#loc28 = loc("reshape.71")
#loc29 = loc("reshape.73")
#loc30 = loc("custom-call.171")
#loc31 = loc("reshape.63")
#loc32 = loc("reshape.65")
#loc33 = loc("reshape.58")
#loc34 = loc("reshape.60")
#loc35 = loc("custom-call.248")
#loc36 = loc("pad.250")
#loc37 = loc("reshape.251")
#loc38 = loc("transpose.252")
#loc39 = loc("reshape.254")
#loc40 = loc("reshape.52")
#loc41 = loc("reshape.54")
#loc42 = loc("transpose.55")
#loc43 = loc("dot.255")
#loc44 = loc("reshape.256")
#loc45 = loc("reshape.48")
#loc46 = loc("reshape.50")
#loc47 = loc("broadcast.259")
#loc48 = loc("add.260")
#loc49 = loc("reshape.261")
#loc50 = loc("transpose.262")
#loc51 = loc("slice.294")
#loc52 = loc("reshape.295")
#loc53 = loc("multiply.297")
#loc54 = loc("slice.290")
#loc55 = loc("reshape.291")
#loc56 = loc("transpose.292")
#loc57 = loc("dot.298")
#loc58 = loc("reshape.283")
#loc59 = loc("reshape.285")
#loc60 = loc("reshape.267")
#loc61 = loc("reshape.269")
#loc62 = loc("compare.278")
#loc63 = loc("add.275")
#loc64 = loc("select.279")
#loc65 = loc("reshape.280")
#loc66 = loc("gather.286")
#loc67 = loc("reshape.287")
#loc68 = loc("transpose.288")
#loc69 = loc("broadcast.303")
#loc70 = loc("add.304")
#loc71 = loc("reduce.310")
#loc72 = loc("broadcast.311")
#loc73 = loc("subtract.312")
#loc74 = loc("exponential.313")
#loc75 = loc("reduce.319")
#loc76 = loc("broadcast.320")
#loc77 = loc("divide.321")
#loc78 = loc("slice.263")
#loc79 = loc("reshape.264")
#loc80 = loc("dot.322")
#loc81 = loc("transpose.324")
#loc82 = loc("reshape.326")
#loc83 = loc("reshape.42")
#loc84 = loc("reshape.44")
#loc85 = loc("transpose.45")
#loc86 = loc("dot.327")
#loc87 = loc("reshape.328")
#loc88 = loc("reshape.38")
#loc89 = loc("reshape.40")
#loc90 = loc("broadcast.331")
#loc91 = loc("add.332")
#loc92 = loc("reshape.333")
#loc93 = loc("transpose.334")
#loc94 = loc("reshape.335")
#loc95 = loc("slice.336")
#loc96 = loc("slice.337")
#loc97 = loc("add.340")
#loc98 = loc("reshape.29")
#loc99 = loc("reshape.31")
#loc100 = loc("reshape.24")
#loc101 = loc("reshape.26")
#loc102 = loc("custom-call.417")
#loc103 = loc("reshape.18")
#loc104 = loc("reshape.20")
#loc105 = loc("transpose.21")
#loc106 = loc("dot.418")
#loc107 = loc("reshape.14")
#loc108 = loc("reshape.16")
#loc109 = loc("broadcast.422")
#loc110 = loc("add.423")
#loc111 = loc("multiply.433")
#loc112 = loc("multiply.428")
#loc113 = loc("erf.429")
#loc114 = loc("add.431")
#loc115 = loc("multiply.434")
#loc116 = loc("reshape.8")
#loc117 = loc("reshape.10")
#loc118 = loc("transpose.11")
#loc119 = loc("dot.435")
#loc120 = loc("reshape.4")
#loc121 = loc("reshape.6")
#loc122 = loc("broadcast.439")
#loc123 = loc("add.440")
#loc124 = loc("add.443")
