#loc1 = loc("p0.3")
#loc2 = loc("p1.10")
#loc3 = loc("p2.16")
#loc4 = loc("p3.21")
#loc5 = loc("p4.31")
#loc6 = loc("p5.33")
#loc7 = loc("p6.37")
#loc8 = loc("p7.39")
#loc9 = loc("p8.47")
#loc10 = loc("p9.59")
#loc11 = loc("p10.63")
#loc12 = loc("p11.69")
#loc13 = loc("p12.73")
#loc14 = loc("p13.79")
#loc15 = loc("p14.84")
#loc16 = loc("p15.180")
#loc17 = loc("p16.184")
#loc18 = loc("p17.204")
#loc19 = loc("p18.208")
#loc20 = loc("p19.295")
#loc21 = loc("p20.299")
#loc22 = loc("p21.305")
#loc23 = loc("p22.309")
#loc24 = loc("p23.315")
#loc25 = loc("p24.320")
module @SyncTensorsGraph.521 attributes {mhlo.cross_program_prefetches = [], mhlo.input_output_alias = [], mhlo.is_dynamic = false, mhlo.use_auto_spmd_partitioning = false, ttcore.meshes = #ttcore.meshes<[<"mesh" = 1x1>]>} {
  ttcore.device_module {
    builtin.module @SyncTensorsGraph.521 attributes {mhlo.cross_program_prefetches = [], mhlo.input_output_alias = [], mhlo.is_dynamic = false, mhlo.use_auto_spmd_partitioning = false, ttcore.meshes = #ttcore.meshes<[<"mesh" = 1x1>]>} {
      func.func @main(%arg0: tensor<1000xbf16> {ttcore.argument_type = #ttcore.argument_type<parameter>, ttcore.shard_status = #ttcore.shard_status<unsharded>, ttir.name = "l__self___model_classifier_bias"} loc("p0.3"), %arg1: tensor<1000x768xbf16> {ttcore.argument_type = #ttcore.argument_type<parameter>, ttcore.shard_status = #ttcore.shard_status<unsharded>, ttir.name = "l__self___model_classifier_weight"} loc("p1.10"), %arg2: tensor<768xbf16> {ttcore.argument_type = #ttcore.argument_type<parameter>, ttcore.shard_status = #ttcore.shard_status<unsharded>, ttir.name = "l__self___model_vit_layernorm_bias"} loc("p2.16"), %arg3: tensor<768xbf16> {ttcore.argument_type = #ttcore.argument_type<parameter>, ttcore.shard_status = #ttcore.shard_status<unsharded>, ttir.name = "l__self___model_vit_layernorm_weight"} loc("p3.21"), %arg4: tensor<1x197x768xbf16> {ttcore.argument_type = #ttcore.argument_type<parameter>, ttcore.shard_status = #ttcore.shard_status<unsharded>, ttir.name = "l__self___model_vit_embeddings_position_embeddings"} loc("p4.31"), %arg5: tensor<768xbf16> {ttcore.argument_type = #ttcore.argument_type<parameter>, ttcore.shard_status = #ttcore.shard_status<unsharded>, ttir.name = "l__self___model_vit_embeddings_patch_embeddings_projection_bias"} loc("p5.33"), %arg6: tensor<768x3x16x16xbf16> {ttcore.argument_type = #ttcore.argument_type<parameter>, ttcore.shard_status = #ttcore.shard_status<unsharded>, ttir.name = "l__self___model_vit_embeddings_patch_embeddings_projection_weight"} loc("p6.37"), %arg7: tensor<8x3x224x224xbf16> {ttcore.argument_type = #ttcore.argument_type<input>, ttcore.shard_status = #ttcore.shard_status<unsharded>, ttir.name = "args_0"} loc("p7.39"), %arg8: tensor<1x1x768xbf16> {ttcore.argument_type = #ttcore.argument_type<parameter>, ttcore.shard_status = #ttcore.shard_status<unsharded>, ttir.name = "l__self___model_vit_embeddings_cls_token"} loc("p8.47"), %arg9: tensor<768xbf16> {ttcore.argument_type = #ttcore.argument_type<parameter>, ttcore.shard_status = #ttcore.shard_status<unsharded>, ttir.name = "l__self___model_vit_encoder_layer_0_attention_output_dense_bias"} loc("p9.59"), %arg10: tensor<768x768xbf16> {ttcore.argument_type = #ttcore.argument_type<parameter>, ttcore.shard_status = #ttcore.shard_status<unsharded>, ttir.name = "l__self___model_vit_encoder_layer_0_attention_output_dense_weight"} loc("p10.63"), %arg11: tensor<768xbf16> {ttcore.argument_type = #ttcore.argument_type<parameter>, ttcore.shard_status = #ttcore.shard_status<unsharded>, ttir.name = "l__self___model_vit_encoder_layer_0_attention_attention_value_bias"} loc("p11.69"), %arg12: tensor<768x768xbf16> {ttcore.argument_type = #ttcore.argument_type<parameter>, ttcore.shard_status = #ttcore.shard_status<unsharded>, ttir.name = "l__self___model_vit_encoder_layer_0_attention_attention_value_weight"} loc("p12.73"), %arg13: tensor<768xbf16> {ttcore.argument_type = #ttcore.argument_type<parameter>, ttcore.shard_status = #ttcore.shard_status<unsharded>, ttir.name = "l__self___model_vit_encoder_layer_0_layernorm_before_bias"} loc("p13.79"), %arg14: tensor<768xbf16> {ttcore.argument_type = #ttcore.argument_type<parameter>, ttcore.shard_status = #ttcore.shard_status<unsharded>, ttir.name = "l__self___model_vit_encoder_layer_0_layernorm_before_weight"} loc("p14.84"), %arg15: tensor<768xbf16> {ttcore.argument_type = #ttcore.argument_type<parameter>, ttcore.shard_status = #ttcore.shard_status<unsharded>, ttir.name = "l__self___model_vit_encoder_layer_0_attention_attention_key_bias"} loc("p15.180"), %arg16: tensor<768x768xbf16> {ttcore.argument_type = #ttcore.argument_type<parameter>, ttcore.shard_status = #ttcore.shard_status<unsharded>, ttir.name = "l__self___model_vit_encoder_layer_0_attention_attention_key_weight"} loc("p16.184"), %arg17: tensor<768xbf16> {ttcore.argument_type = #ttcore.argument_type<parameter>, ttcore.shard_status = #ttcore.shard_status<unsharded>, ttir.name = "l__self___model_vit_encoder_layer_0_attention_attention_query_bias"} loc("p17.204"), %arg18: tensor<768x768xbf16> {ttcore.argument_type = #ttcore.argument_type<parameter>, ttcore.shard_status = #ttcore.shard_status<unsharded>, ttir.name = "l__self___model_vit_encoder_layer_0_attention_attention_query_weight"} loc("p18.208"), %arg19: tensor<768xbf16> {ttcore.argument_type = #ttcore.argument_type<parameter>, ttcore.shard_status = #ttcore.shard_status<unsharded>, ttir.name = "l__self___model_vit_encoder_layer_0_output_dense_bias"} loc("p19.295"), %arg20: tensor<768x3072xbf16> {ttcore.argument_type = #ttcore.argument_type<parameter>, ttcore.shard_status = #ttcore.shard_status<unsharded>, ttir.name = "l__self___model_vit_encoder_layer_0_output_dense_weight"} loc("p20.299"), %arg21: tensor<3072xbf16> {ttcore.argument_type = #ttcore.argument_type<parameter>, ttcore.shard_status = #ttcore.shard_status<unsharded>, ttir.name = "l__self___model_vit_encoder_layer_0_intermediate_dense_bias"} loc("p21.305"), %arg22: tensor<3072x768xbf16> {ttcore.argument_type = #ttcore.argument_type<parameter>, ttcore.shard_status = #ttcore.shard_status<unsharded>, ttir.name = "l__self___model_vit_encoder_layer_0_intermediate_dense_weight"} loc("p22.309"), %arg23: tensor<768xbf16> {ttcore.argument_type = #ttcore.argument_type<parameter>, ttcore.shard_status = #ttcore.shard_status<unsharded>, ttir.name = "l__self___model_vit_encoder_layer_0_layernorm_after_bias"} loc("p23.315"), %arg24: tensor<768xbf16> {ttcore.argument_type = #ttcore.argument_type<parameter>, ttcore.shard_status = #ttcore.shard_status<unsharded>, ttir.name = "l__self___model_vit_encoder_layer_0_layernorm_after_weight"} loc("p24.320")) -> (tensor<8x1000xbf16> {ttcore.shard_status = #ttcore.shard_status<unsharded>}) {
        %0 = "ttir.constant"() <{value = dense<0.000000e+00> : tensor<8x12x197x197xf32>}> : () -> tensor<8x12x197x197xf32> loc(#loc)
        %1 = "ttir.constant"() <{value = dense<0xFFF0000000000000> : tensor<8x12x197x197xf64>}> : () -> tensor<8x12x197x197xf64> loc(#loc)
        %2 = "ttir.constant"() <{value = dense<0.353553385> : tensor<8x12x64x197xf32>}> : () -> tensor<8x12x64x197xf32> loc(#loc)
        %3 = "ttir.constant"() <{value = dense<0.353553385> : tensor<8x12x197x64xf32>}> : () -> tensor<8x12x197x64xf32> loc(#loc)
        %4 = "ttir.reshape"(%arg8) <{shape = [1 : i32, 768 : i32]}> : (tensor<1x1x768xbf16>) -> tensor<1x768xbf16> loc(#loc26)
        %5 = "ttir.reshape"(%4) <{shape = [1 : i32, 1 : i32, 768 : i32]}> : (tensor<1x768xbf16>) -> tensor<1x1x768xbf16> loc(#loc27)
        %6 = "ttir.broadcast"(%5) <{broadcast_dimensions = array<i64: 8, 1, 1>}> : (tensor<1x1x768xbf16>) -> tensor<8x1x768xbf16> loc(#loc27)
        %7 = "ttir.convolution"(%arg7, %arg6) <{batch_group_count = 1 : i64, convolution_layout = #ttir<convolution_layout input_batch = 0, input_feature = 1, input_spatial_dimensions = 2x3, kernel_output_feature = 0, kernel_input_feature = 1, kernel_spatial_dimensions = 2x3, output_batch = 0, output_feature = 1, output_spatial_dimensions = 2x3>, feature_group_count = 1 : i64, input_dilation = array<i64: 1, 1>, padding = array<i64: 0, 0, 0, 0>, weight_dilation = array<i64: 1, 1>, window_reversal = array<i1: false, false>, window_strides = array<i64: 16, 16>}> : (tensor<8x3x224x224xbf16>, tensor<768x3x16x16xbf16>) -> tensor<8x768x14x14xbf16> loc(#loc28)
        %8 = "ttir.reshape"(%arg5) <{shape = [1 : i32, 1 : i32, 768 : i32]}> : (tensor<768xbf16>) -> tensor<1x1x768xbf16> loc(#loc29)
        %9 = "ttir.reshape"(%8) <{shape = [768 : i32]}> : (tensor<1x1x768xbf16>) -> tensor<768xbf16> loc(#loc30)
        %10 = "ttir.reshape"(%9) <{shape = [1 : i32, 768 : i32, 1 : i32, 1 : i32]}> : (tensor<768xbf16>) -> tensor<1x768x1x1xbf16> loc(#loc31)
        %11 = "ttir.broadcast"(%10) <{broadcast_dimensions = array<i64: 8, 1, 14, 14>}> : (tensor<1x768x1x1xbf16>) -> tensor<8x768x14x14xbf16> loc(#loc31)
        %12 = "ttir.add"(%7, %11) : (tensor<8x768x14x14xbf16>, tensor<8x768x14x14xbf16>) -> tensor<8x768x14x14xbf16> loc(#loc32)
        %13 = "ttir.reshape"(%12) <{shape = [8 : i32, 768 : i32, 196 : i32]}> : (tensor<8x768x14x14xbf16>) -> tensor<8x768x196xbf16> loc(#loc33)
        %14 = "ttir.permute"(%13) <{permutation = array<i64: 0, 2, 1>}> : (tensor<8x768x196xbf16>) -> tensor<8x196x768xbf16> loc(#loc34)
        %15 = "ttir.concat"(%6, %14) <{dim = 1 : si32}> : (tensor<8x1x768xbf16>, tensor<8x196x768xbf16>) -> tensor<8x197x768xbf16> loc(#loc35)
        %16 = "ttir.reshape"(%arg4) <{shape = [197 : i32, 768 : i32]}> : (tensor<1x197x768xbf16>) -> tensor<197x768xbf16> loc(#loc36)
        %17 = "ttir.reshape"(%16) <{shape = [1 : i32, 197 : i32, 768 : i32]}> : (tensor<197x768xbf16>) -> tensor<1x197x768xbf16> loc(#loc37)
        %18 = "ttir.broadcast"(%17) <{broadcast_dimensions = array<i64: 8, 1, 1>}> : (tensor<1x197x768xbf16>) -> tensor<8x197x768xbf16> loc(#loc37)
        %19 = "ttir.add"(%15, %18) : (tensor<8x197x768xbf16>, tensor<8x197x768xbf16>) -> tensor<8x197x768xbf16> loc(#loc38)
        %20 = "ttir.reshape"(%arg14) <{shape = [1 : i32, 1 : i32, 768 : i32]}> : (tensor<768xbf16>) -> tensor<1x1x768xbf16> loc(#loc39)
        %21 = "ttir.reshape"(%20) <{shape = [768 : i32]}> : (tensor<1x1x768xbf16>) -> tensor<768xbf16> loc(#loc40)
        %22 = "ttir.reshape"(%arg13) <{shape = [1 : i32, 1 : i32, 768 : i32]}> : (tensor<768xbf16>) -> tensor<1x1x768xbf16> loc(#loc41)
        %23 = "ttir.reshape"(%22) <{shape = [768 : i32]}> : (tensor<1x1x768xbf16>) -> tensor<768xbf16> loc(#loc42)
        %24 = "ttir.layer_norm"(%19, %21, %23) <{epsilon = 9.99999996E-13 : f32, normalized_shape = array<i64: 768>, operandSegmentSizes = array<i32: 1, 1, 1>}> : (tensor<8x197x768xbf16>, tensor<768xbf16>, tensor<768xbf16>) -> tensor<8x197x768xbf16> loc(#loc43)
        %25 = "ttir.reshape"(%24) <{shape = [1576 : i32, 768 : i32]}> : (tensor<8x197x768xbf16>) -> tensor<1576x768xbf16> loc(#loc44)
        %26 = "ttir.reshape"(%arg18) <{shape = [1 : i32, 768 : i32, 768 : i32]}> : (tensor<768x768xbf16>) -> tensor<1x768x768xbf16> loc(#loc45)
        %27 = "ttir.reshape"(%26) <{shape = [768 : i32, 768 : i32]}> : (tensor<1x768x768xbf16>) -> tensor<768x768xbf16> loc(#loc46)
        %28 = "ttir.permute"(%27) <{permutation = array<i64: 1, 0>}> : (tensor<768x768xbf16>) -> tensor<768x768xbf16> loc(#loc47)
        %29 = "ttir.dot_general"(%25, %28) <{batch_dims_lhs = array<i64>, batch_dims_rhs = array<i64>, contract_dims_lhs = array<i64: 1>, contract_dims_rhs = array<i64: 0>}> : (tensor<1576x768xbf16>, tensor<768x768xbf16>) -> tensor<1576x768xbf16> loc(#loc48)
        %30 = "ttir.reshape"(%29) <{shape = [8 : i32, 197 : i32, 768 : i32]}> : (tensor<1576x768xbf16>) -> tensor<8x197x768xbf16> loc(#loc49)
        %31 = "ttir.reshape"(%arg17) <{shape = [1 : i32, 1 : i32, 768 : i32]}> : (tensor<768xbf16>) -> tensor<1x1x768xbf16> loc(#loc50)
        %32 = "ttir.reshape"(%31) <{shape = [768 : i32]}> : (tensor<1x1x768xbf16>) -> tensor<768xbf16> loc(#loc51)
        %33 = "ttir.reshape"(%32) <{shape = [1 : i32, 1 : i32, 768 : i32]}> : (tensor<768xbf16>) -> tensor<1x1x768xbf16> loc(#loc52)
        %34 = "ttir.broadcast"(%33) <{broadcast_dimensions = array<i64: 8, 197, 1>}> : (tensor<1x1x768xbf16>) -> tensor<8x197x768xbf16> loc(#loc52)
        %35 = "ttir.add"(%30, %34) : (tensor<8x197x768xbf16>, tensor<8x197x768xbf16>) -> tensor<8x197x768xbf16> loc(#loc53)
        %36 = "ttir.reshape"(%35) <{shape = [8 : i32, 197 : i32, 12 : i32, 64 : i32]}> : (tensor<8x197x768xbf16>) -> tensor<8x197x12x64xbf16> loc(#loc54)
        %37 = "ttir.permute"(%36) <{permutation = array<i64: 0, 2, 1, 3>}> : (tensor<8x197x12x64xbf16>) -> tensor<8x12x197x64xbf16> loc(#loc55)
        %38 = "ttir.typecast"(%37) <{conservative_folding = false}> : (tensor<8x12x197x64xbf16>) -> tensor<8x12x197x64xf32> loc(#loc56)
        %39 = "ttir.multiply"(%38, %3) : (tensor<8x12x197x64xf32>, tensor<8x12x197x64xf32>) -> tensor<8x12x197x64xf32> loc(#loc57)
        %40 = "ttir.reshape"(%arg16) <{shape = [1 : i32, 768 : i32, 768 : i32]}> : (tensor<768x768xbf16>) -> tensor<1x768x768xbf16> loc(#loc58)
        %41 = "ttir.reshape"(%40) <{shape = [768 : i32, 768 : i32]}> : (tensor<1x768x768xbf16>) -> tensor<768x768xbf16> loc(#loc59)
        %42 = "ttir.permute"(%41) <{permutation = array<i64: 1, 0>}> : (tensor<768x768xbf16>) -> tensor<768x768xbf16> loc(#loc60)
        %43 = "ttir.dot_general"(%25, %42) <{batch_dims_lhs = array<i64>, batch_dims_rhs = array<i64>, contract_dims_lhs = array<i64: 1>, contract_dims_rhs = array<i64: 0>}> : (tensor<1576x768xbf16>, tensor<768x768xbf16>) -> tensor<1576x768xbf16> loc(#loc61)
        %44 = "ttir.reshape"(%43) <{shape = [8 : i32, 197 : i32, 768 : i32]}> : (tensor<1576x768xbf16>) -> tensor<8x197x768xbf16> loc(#loc62)
        %45 = "ttir.reshape"(%arg15) <{shape = [1 : i32, 1 : i32, 768 : i32]}> : (tensor<768xbf16>) -> tensor<1x1x768xbf16> loc(#loc63)
        %46 = "ttir.reshape"(%45) <{shape = [768 : i32]}> : (tensor<1x1x768xbf16>) -> tensor<768xbf16> loc(#loc64)
        %47 = "ttir.reshape"(%46) <{shape = [1 : i32, 1 : i32, 768 : i32]}> : (tensor<768xbf16>) -> tensor<1x1x768xbf16> loc(#loc65)
        %48 = "ttir.broadcast"(%47) <{broadcast_dimensions = array<i64: 8, 197, 1>}> : (tensor<1x1x768xbf16>) -> tensor<8x197x768xbf16> loc(#loc65)
        %49 = "ttir.add"(%44, %48) : (tensor<8x197x768xbf16>, tensor<8x197x768xbf16>) -> tensor<8x197x768xbf16> loc(#loc66)
        %50 = "ttir.reshape"(%49) <{shape = [8 : i32, 197 : i32, 12 : i32, 64 : i32]}> : (tensor<8x197x768xbf16>) -> tensor<8x197x12x64xbf16> loc(#loc67)
        %51 = "ttir.permute"(%50) <{permutation = array<i64: 0, 2, 1, 3>}> : (tensor<8x197x12x64xbf16>) -> tensor<8x12x197x64xbf16> loc(#loc68)
        %52 = "ttir.typecast"(%51) <{conservative_folding = false}> : (tensor<8x12x197x64xbf16>) -> tensor<8x12x197x64xf32> loc(#loc69)
        %53 = "ttir.permute"(%52) <{permutation = array<i64: 0, 1, 3, 2>}> : (tensor<8x12x197x64xf32>) -> tensor<8x12x64x197xf32> loc(#loc70)
        %54 = "ttir.multiply"(%53, %2) : (tensor<8x12x64x197xf32>, tensor<8x12x64x197xf32>) -> tensor<8x12x64x197xf32> loc(#loc71)
        %55 = "ttir.dot_general"(%39, %54) <{batch_dims_lhs = array<i64: 0, 1>, batch_dims_rhs = array<i64: 0, 1>, contract_dims_lhs = array<i64: 3>, contract_dims_rhs = array<i64: 2>}> : (tensor<8x12x197x64xf32>, tensor<8x12x64x197xf32>) -> tensor<8x12x197x197xf32> loc(#loc72)
        %56 = "ttir.typecast"(%55) <{conservative_folding = false}> : (tensor<8x12x197x197xf32>) -> tensor<8x12x197x197xf64> loc(#loc73)
        %57 = "ttir.eq"(%56, %1) : (tensor<8x12x197x197xf64>, tensor<8x12x197x197xf64>) -> tensor<8x12x197x197xi1> loc(#loc74)
        %58 = "ttir.logical_not"(%57) : (tensor<8x12x197x197xi1>) -> tensor<8x12x197x197xi1> loc(#loc75)
        %59 = "ttir.reduce_or"(%58) <{dim_arg = [3 : i32], keep_dim = false}> : (tensor<8x12x197x197xi1>) -> tensor<8x12x197xi1> loc(#loc76)
        %60 = "ttir.reshape"(%59) <{shape = [8 : i32, 12 : i32, 197 : i32, 1 : i32]}> : (tensor<8x12x197xi1>) -> tensor<8x12x197x1xi1> loc(#loc77)
        %61 = "ttir.logical_not"(%60) : (tensor<8x12x197x1xi1>) -> tensor<8x12x197x1xi1> loc(#loc78)
        %62 = "ttir.reshape"(%61) <{shape = [8 : i32, 12 : i32, 197 : i32]}> : (tensor<8x12x197x1xi1>) -> tensor<8x12x197xi1> loc(#loc79)
        %63 = "ttir.reshape"(%62) <{shape = [8 : i32, 12 : i32, 197 : i32, 1 : i32]}> : (tensor<8x12x197xi1>) -> tensor<8x12x197x1xi1> loc(#loc80)
        %64 = "ttir.broadcast"(%63) <{broadcast_dimensions = array<i64: 1, 1, 1, 197>}> : (tensor<8x12x197x1xi1>) -> tensor<8x12x197x197xi1> loc(#loc80)
        %65 = "ttir.max"(%55) <{dim_arg = [3 : i32], keep_dim = false}> : (tensor<8x12x197x197xf32>) -> tensor<8x12x197xf32> loc(#loc81)
        %66 = "ttir.reshape"(%65) <{shape = [8 : i32, 12 : i32, 197 : i32, 1 : i32]}> : (tensor<8x12x197xf32>) -> tensor<8x12x197x1xf32> loc(#loc82)
        %67 = "ttir.broadcast"(%66) <{broadcast_dimensions = array<i64: 1, 1, 1, 197>}> : (tensor<8x12x197x1xf32>) -> tensor<8x12x197x197xf32> loc(#loc82)
        %68 = "ttir.subtract"(%55, %67) : (tensor<8x12x197x197xf32>, tensor<8x12x197x197xf32>) -> tensor<8x12x197x197xf32> loc(#loc83)
        %69 = "ttir.exp"(%68) : (tensor<8x12x197x197xf32>) -> tensor<8x12x197x197xf32> loc(#loc84)
        %70 = "ttir.sum"(%69) <{dim_arg = [3 : i32], keep_dim = false}> : (tensor<8x12x197x197xf32>) -> tensor<8x12x197xf32> loc(#loc85)
        %71 = "ttir.reshape"(%70) <{shape = [8 : i32, 12 : i32, 197 : i32, 1 : i32]}> : (tensor<8x12x197xf32>) -> tensor<8x12x197x1xf32> loc(#loc86)
        %72 = "ttir.broadcast"(%71) <{broadcast_dimensions = array<i64: 1, 1, 1, 197>}> : (tensor<8x12x197x1xf32>) -> tensor<8x12x197x197xf32> loc(#loc86)
        %73 = "ttir.div"(%69, %72) : (tensor<8x12x197x197xf32>, tensor<8x12x197x197xf32>) -> tensor<8x12x197x197xf32> loc(#loc87)
        %74 = "ttir.where"(%64, %0, %73) : (tensor<8x12x197x197xi1>, tensor<8x12x197x197xf32>, tensor<8x12x197x197xf32>) -> tensor<8x12x197x197xf32> loc(#loc88)
        %75 = "ttir.reshape"(%arg12) <{shape = [1 : i32, 768 : i32, 768 : i32]}> : (tensor<768x768xbf16>) -> tensor<1x768x768xbf16> loc(#loc89)
        %76 = "ttir.reshape"(%75) <{shape = [768 : i32, 768 : i32]}> : (tensor<1x768x768xbf16>) -> tensor<768x768xbf16> loc(#loc90)
        %77 = "ttir.permute"(%76) <{permutation = array<i64: 1, 0>}> : (tensor<768x768xbf16>) -> tensor<768x768xbf16> loc(#loc91)
        %78 = "ttir.dot_general"(%25, %77) <{batch_dims_lhs = array<i64>, batch_dims_rhs = array<i64>, contract_dims_lhs = array<i64: 1>, contract_dims_rhs = array<i64: 0>}> : (tensor<1576x768xbf16>, tensor<768x768xbf16>) -> tensor<1576x768xbf16> loc(#loc92)
        %79 = "ttir.reshape"(%78) <{shape = [8 : i32, 197 : i32, 768 : i32]}> : (tensor<1576x768xbf16>) -> tensor<8x197x768xbf16> loc(#loc93)
        %80 = "ttir.reshape"(%arg11) <{shape = [1 : i32, 1 : i32, 768 : i32]}> : (tensor<768xbf16>) -> tensor<1x1x768xbf16> loc(#loc94)
        %81 = "ttir.reshape"(%80) <{shape = [768 : i32]}> : (tensor<1x1x768xbf16>) -> tensor<768xbf16> loc(#loc95)
        %82 = "ttir.reshape"(%81) <{shape = [1 : i32, 1 : i32, 768 : i32]}> : (tensor<768xbf16>) -> tensor<1x1x768xbf16> loc(#loc96)
        %83 = "ttir.broadcast"(%82) <{broadcast_dimensions = array<i64: 8, 197, 1>}> : (tensor<1x1x768xbf16>) -> tensor<8x197x768xbf16> loc(#loc96)
        %84 = "ttir.add"(%79, %83) : (tensor<8x197x768xbf16>, tensor<8x197x768xbf16>) -> tensor<8x197x768xbf16> loc(#loc97)
        %85 = "ttir.reshape"(%84) <{shape = [8 : i32, 197 : i32, 12 : i32, 64 : i32]}> : (tensor<8x197x768xbf16>) -> tensor<8x197x12x64xbf16> loc(#loc98)
        %86 = "ttir.permute"(%85) <{permutation = array<i64: 0, 2, 1, 3>}> : (tensor<8x197x12x64xbf16>) -> tensor<8x12x197x64xbf16> loc(#loc99)
        %87 = "ttir.typecast"(%86) <{conservative_folding = false}> : (tensor<8x12x197x64xbf16>) -> tensor<8x12x197x64xf32> loc(#loc100)
        %88 = "ttir.dot_general"(%74, %87) <{batch_dims_lhs = array<i64: 0, 1>, batch_dims_rhs = array<i64: 0, 1>, contract_dims_lhs = array<i64: 3>, contract_dims_rhs = array<i64: 2>}> : (tensor<8x12x197x197xf32>, tensor<8x12x197x64xf32>) -> tensor<8x12x197x64xf32> loc(#loc101)
        %89 = "ttir.typecast"(%88) <{conservative_folding = false}> : (tensor<8x12x197x64xf32>) -> tensor<8x12x197x64xbf16> loc(#loc102)
        %90 = "ttir.permute"(%89) <{permutation = array<i64: 0, 2, 1, 3>}> : (tensor<8x12x197x64xbf16>) -> tensor<8x197x12x64xbf16> loc(#loc103)
        %91 = "ttir.reshape"(%90) <{shape = [1576 : i32, 768 : i32]}> : (tensor<8x197x12x64xbf16>) -> tensor<1576x768xbf16> loc(#loc104)
        %92 = "ttir.reshape"(%arg10) <{shape = [1 : i32, 768 : i32, 768 : i32]}> : (tensor<768x768xbf16>) -> tensor<1x768x768xbf16> loc(#loc105)
        %93 = "ttir.reshape"(%92) <{shape = [768 : i32, 768 : i32]}> : (tensor<1x768x768xbf16>) -> tensor<768x768xbf16> loc(#loc106)
        %94 = "ttir.permute"(%93) <{permutation = array<i64: 1, 0>}> : (tensor<768x768xbf16>) -> tensor<768x768xbf16> loc(#loc107)
        %95 = "ttir.dot_general"(%91, %94) <{batch_dims_lhs = array<i64>, batch_dims_rhs = array<i64>, contract_dims_lhs = array<i64: 1>, contract_dims_rhs = array<i64: 0>}> : (tensor<1576x768xbf16>, tensor<768x768xbf16>) -> tensor<1576x768xbf16> loc(#loc108)
        %96 = "ttir.reshape"(%95) <{shape = [8 : i32, 197 : i32, 768 : i32]}> : (tensor<1576x768xbf16>) -> tensor<8x197x768xbf16> loc(#loc109)
        %97 = "ttir.reshape"(%arg9) <{shape = [1 : i32, 1 : i32, 768 : i32]}> : (tensor<768xbf16>) -> tensor<1x1x768xbf16> loc(#loc110)
        %98 = "ttir.reshape"(%97) <{shape = [768 : i32]}> : (tensor<1x1x768xbf16>) -> tensor<768xbf16> loc(#loc111)
        %99 = "ttir.reshape"(%98) <{shape = [1 : i32, 1 : i32, 768 : i32]}> : (tensor<768xbf16>) -> tensor<1x1x768xbf16> loc(#loc112)
        %100 = "ttir.broadcast"(%99) <{broadcast_dimensions = array<i64: 8, 197, 1>}> : (tensor<1x1x768xbf16>) -> tensor<8x197x768xbf16> loc(#loc112)
        %101 = "ttir.add"(%96, %100) : (tensor<8x197x768xbf16>, tensor<8x197x768xbf16>) -> tensor<8x197x768xbf16> loc(#loc113)
        %102 = "ttir.add"(%101, %19) : (tensor<8x197x768xbf16>, tensor<8x197x768xbf16>) -> tensor<8x197x768xbf16> loc(#loc114)
        %103 = "ttir.reshape"(%arg24) <{shape = [1 : i32, 1 : i32, 768 : i32]}> : (tensor<768xbf16>) -> tensor<1x1x768xbf16> loc(#loc115)
        %104 = "ttir.reshape"(%103) <{shape = [768 : i32]}> : (tensor<1x1x768xbf16>) -> tensor<768xbf16> loc(#loc116)
        %105 = "ttir.reshape"(%arg23) <{shape = [1 : i32, 1 : i32, 768 : i32]}> : (tensor<768xbf16>) -> tensor<1x1x768xbf16> loc(#loc117)
        %106 = "ttir.reshape"(%105) <{shape = [768 : i32]}> : (tensor<1x1x768xbf16>) -> tensor<768xbf16> loc(#loc118)
        %107 = "ttir.layer_norm"(%102, %104, %106) <{epsilon = 9.99999996E-13 : f32, normalized_shape = array<i64: 768>, operandSegmentSizes = array<i32: 1, 1, 1>}> : (tensor<8x197x768xbf16>, tensor<768xbf16>, tensor<768xbf16>) -> tensor<8x197x768xbf16> loc(#loc119)
        %108 = "ttir.reshape"(%107) <{shape = [1576 : i32, 768 : i32]}> : (tensor<8x197x768xbf16>) -> tensor<1576x768xbf16> loc(#loc120)
        %109 = "ttir.reshape"(%arg22) <{shape = [1 : i32, 3072 : i32, 768 : i32]}> : (tensor<3072x768xbf16>) -> tensor<1x3072x768xbf16> loc(#loc121)
        %110 = "ttir.reshape"(%109) <{shape = [3072 : i32, 768 : i32]}> : (tensor<1x3072x768xbf16>) -> tensor<3072x768xbf16> loc(#loc122)
        %111 = "ttir.permute"(%110) <{permutation = array<i64: 1, 0>}> : (tensor<3072x768xbf16>) -> tensor<768x3072xbf16> loc(#loc123)
        %112 = "ttir.dot_general"(%108, %111) <{batch_dims_lhs = array<i64>, batch_dims_rhs = array<i64>, contract_dims_lhs = array<i64: 1>, contract_dims_rhs = array<i64: 0>}> : (tensor<1576x768xbf16>, tensor<768x3072xbf16>) -> tensor<1576x3072xbf16> loc(#loc124)
        %113 = "ttir.reshape"(%112) <{shape = [8 : i32, 197 : i32, 3072 : i32]}> : (tensor<1576x3072xbf16>) -> tensor<8x197x3072xbf16> loc(#loc125)
        %114 = "ttir.reshape"(%arg21) <{shape = [1 : i32, 1 : i32, 3072 : i32]}> : (tensor<3072xbf16>) -> tensor<1x1x3072xbf16> loc(#loc126)
        %115 = "ttir.reshape"(%114) <{shape = [3072 : i32]}> : (tensor<1x1x3072xbf16>) -> tensor<3072xbf16> loc(#loc127)
        %116 = "ttir.reshape"(%115) <{shape = [1 : i32, 1 : i32, 3072 : i32]}> : (tensor<3072xbf16>) -> tensor<1x1x3072xbf16> loc(#loc128)
        %117 = "ttir.broadcast"(%116) <{broadcast_dimensions = array<i64: 8, 197, 1>}> : (tensor<1x1x3072xbf16>) -> tensor<8x197x3072xbf16> loc(#loc128)
        %118 = "ttir.add"(%113, %117) : (tensor<8x197x3072xbf16>, tensor<8x197x3072xbf16>) -> tensor<8x197x3072xbf16> loc(#loc129)
        %119 = "ttir.gelu"(%118) : (tensor<8x197x3072xbf16>) -> tensor<8x197x3072xbf16> loc(#loc130)
        %120 = "ttir.reshape"(%119) <{shape = [1576 : i32, 3072 : i32]}> : (tensor<8x197x3072xbf16>) -> tensor<1576x3072xbf16> loc(#loc131)
        %121 = "ttir.reshape"(%arg20) <{shape = [1 : i32, 768 : i32, 3072 : i32]}> : (tensor<768x3072xbf16>) -> tensor<1x768x3072xbf16> loc(#loc132)
        %122 = "ttir.reshape"(%121) <{shape = [768 : i32, 3072 : i32]}> : (tensor<1x768x3072xbf16>) -> tensor<768x3072xbf16> loc(#loc133)
        %123 = "ttir.permute"(%122) <{permutation = array<i64: 1, 0>}> : (tensor<768x3072xbf16>) -> tensor<3072x768xbf16> loc(#loc134)
        %124 = "ttir.dot_general"(%120, %123) <{batch_dims_lhs = array<i64>, batch_dims_rhs = array<i64>, contract_dims_lhs = array<i64: 1>, contract_dims_rhs = array<i64: 0>}> : (tensor<1576x3072xbf16>, tensor<3072x768xbf16>) -> tensor<1576x768xbf16> loc(#loc135)
        %125 = "ttir.reshape"(%124) <{shape = [8 : i32, 197 : i32, 768 : i32]}> : (tensor<1576x768xbf16>) -> tensor<8x197x768xbf16> loc(#loc136)
        %126 = "ttir.reshape"(%arg19) <{shape = [1 : i32, 1 : i32, 768 : i32]}> : (tensor<768xbf16>) -> tensor<1x1x768xbf16> loc(#loc137)
        %127 = "ttir.reshape"(%126) <{shape = [768 : i32]}> : (tensor<1x1x768xbf16>) -> tensor<768xbf16> loc(#loc138)
        %128 = "ttir.reshape"(%127) <{shape = [1 : i32, 1 : i32, 768 : i32]}> : (tensor<768xbf16>) -> tensor<1x1x768xbf16> loc(#loc139)
        %129 = "ttir.broadcast"(%128) <{broadcast_dimensions = array<i64: 8, 197, 1>}> : (tensor<1x1x768xbf16>) -> tensor<8x197x768xbf16> loc(#loc139)
        %130 = "ttir.add"(%125, %129) : (tensor<8x197x768xbf16>, tensor<8x197x768xbf16>) -> tensor<8x197x768xbf16> loc(#loc140)
        %131 = "ttir.add"(%130, %102) : (tensor<8x197x768xbf16>, tensor<8x197x768xbf16>) -> tensor<8x197x768xbf16> loc(#loc141)
        %132 = "ttir.reshape"(%arg3) <{shape = [1 : i32, 1 : i32, 768 : i32]}> : (tensor<768xbf16>) -> tensor<1x1x768xbf16> loc(#loc142)
        %133 = "ttir.reshape"(%132) <{shape = [768 : i32]}> : (tensor<1x1x768xbf16>) -> tensor<768xbf16> loc(#loc143)
        %134 = "ttir.reshape"(%arg2) <{shape = [1 : i32, 1 : i32, 768 : i32]}> : (tensor<768xbf16>) -> tensor<1x1x768xbf16> loc(#loc144)
        %135 = "ttir.reshape"(%134) <{shape = [768 : i32]}> : (tensor<1x1x768xbf16>) -> tensor<768xbf16> loc(#loc145)
        %136 = "ttir.layer_norm"(%131, %133, %135) <{epsilon = 9.99999996E-13 : f32, normalized_shape = array<i64: 768>, operandSegmentSizes = array<i32: 1, 1, 1>}> : (tensor<8x197x768xbf16>, tensor<768xbf16>, tensor<768xbf16>) -> tensor<8x197x768xbf16> loc(#loc146)
        %137 = "ttir.slice_static"(%136) <{begins = [0 : i32, 0 : i32, 0 : i32], ends = [8 : i32, 1 : i32, 768 : i32], step = [1 : i32, 1 : i32, 1 : i32]}> : (tensor<8x197x768xbf16>) -> tensor<8x1x768xbf16> loc(#loc147)
        %138 = "ttir.reshape"(%137) <{shape = [8 : i32, 768 : i32]}> : (tensor<8x1x768xbf16>) -> tensor<8x768xbf16> loc(#loc148)
        %139 = "ttir.reshape"(%arg1) <{shape = [1 : i32, 1000 : i32, 768 : i32]}> : (tensor<1000x768xbf16>) -> tensor<1x1000x768xbf16> loc(#loc149)
        %140 = "ttir.reshape"(%139) <{shape = [1000 : i32, 768 : i32]}> : (tensor<1x1000x768xbf16>) -> tensor<1000x768xbf16> loc(#loc150)
        %141 = "ttir.permute"(%140) <{permutation = array<i64: 1, 0>}> : (tensor<1000x768xbf16>) -> tensor<768x1000xbf16> loc(#loc151)
        %142 = "ttir.dot_general"(%138, %141) <{batch_dims_lhs = array<i64>, batch_dims_rhs = array<i64>, contract_dims_lhs = array<i64: 1>, contract_dims_rhs = array<i64: 0>}> : (tensor<8x768xbf16>, tensor<768x1000xbf16>) -> tensor<8x1000xbf16> loc(#loc152)
        %143 = "ttir.reshape"(%arg0) <{shape = [1 : i32, 1 : i32, 1000 : i32]}> : (tensor<1000xbf16>) -> tensor<1x1x1000xbf16> loc(#loc153)
        %144 = "ttir.reshape"(%143) <{shape = [1000 : i32]}> : (tensor<1x1x1000xbf16>) -> tensor<1000xbf16> loc(#loc154)
        %145 = "ttir.reshape"(%144) <{shape = [1 : i32, 1000 : i32]}> : (tensor<1000xbf16>) -> tensor<1x1000xbf16> loc(#loc155)
        %146 = "ttir.broadcast"(%145) <{broadcast_dimensions = array<i64: 8, 1>}> : (tensor<1x1000xbf16>) -> tensor<8x1000xbf16> loc(#loc155)
        %147 = "ttir.add"(%142, %146) : (tensor<8x1000xbf16>, tensor<8x1000xbf16>) -> tensor<8x1000xbf16> loc(#loc156)
        return %147 : tensor<8x1000xbf16> loc(#loc)
      } loc(#loc)
    } loc(#loc)
  } loc(#loc)
} loc(#loc)
#loc = loc(unknown)
#loc26 = loc("reshape.50")
#loc27 = loc("broadcast.51")
#loc28 = loc("convolution.41")
#loc29 = loc("reshape.34")
#loc30 = loc("reshape.36")
#loc31 = loc("transpose.43")
#loc32 = loc("add.44")
#loc33 = loc("reshape.45")
#loc34 = loc("transpose.46")
#loc35 = loc("concatenate.52")
#loc36 = loc("reshape.55")
#loc37 = loc("broadcast.56")
#loc38 = loc("add.57")
#loc39 = loc("reshape.85")
#loc40 = loc("reshape.87")
#loc41 = loc("reshape.80")
#loc42 = loc("reshape.82")
#loc43 = loc("custom-call.167")
#loc44 = loc("reshape.213")
#loc45 = loc("reshape.209")
#loc46 = loc("reshape.211")
#loc47 = loc("transpose.212")
#loc48 = loc("dot.214")
#loc49 = loc("reshape.215")
#loc50 = loc("reshape.205")
#loc51 = loc("reshape.207")
#loc52 = loc("broadcast.218")
#loc53 = loc("add.219")
#loc54 = loc("reshape.220")
#loc55 = loc("transpose.221")
#loc56 = loc("convert.222")
#loc57 = loc("multiply.224")
#loc58 = loc("reshape.185")
#loc59 = loc("reshape.187")
#loc60 = loc("transpose.188")
#loc61 = loc("dot.190")
#loc62 = loc("reshape.191")
#loc63 = loc("reshape.181")
#loc64 = loc("reshape.183")
#loc65 = loc("broadcast.194")
#loc66 = loc("add.195")
#loc67 = loc("reshape.196")
#loc68 = loc("transpose.197")
#loc69 = loc("convert.198")
#loc70 = loc("transpose.199")
#loc71 = loc("multiply.201")
#loc72 = loc("dot.225")
#loc73 = loc("convert.252")
#loc74 = loc("compare.254")
#loc75 = loc("not.256")
#loc76 = loc("reduce.268")
#loc77 = loc("reshape.272")
#loc78 = loc("not.274")
#loc79 = loc("reshape.276")
#loc80 = loc("broadcast.277")
#loc81 = loc("reduce.232")
#loc82 = loc("broadcast.233")
#loc83 = loc("subtract.234")
#loc84 = loc("exponential.235")
#loc85 = loc("reduce.241")
#loc86 = loc("broadcast.242")
#loc87 = loc("divide.243")
#loc88 = loc("select.278")
#loc89 = loc("reshape.74")
#loc90 = loc("reshape.76")
#loc91 = loc("transpose.77")
#loc92 = loc("dot.169")
#loc93 = loc("reshape.170")
#loc94 = loc("reshape.70")
#loc95 = loc("reshape.72")
#loc96 = loc("broadcast.173")
#loc97 = loc("add.174")
#loc98 = loc("reshape.175")
#loc99 = loc("transpose.176")
#loc100 = loc("convert.177")
#loc101 = loc("dot.279")
#loc102 = loc("convert.281")
#loc103 = loc("transpose.282")
#loc104 = loc("reshape.284")
#loc105 = loc("reshape.64")
#loc106 = loc("reshape.66")
#loc107 = loc("transpose.67")
#loc108 = loc("dot.285")
#loc109 = loc("reshape.286")
#loc110 = loc("reshape.60")
#loc111 = loc("reshape.62")
#loc112 = loc("broadcast.289")
#loc113 = loc("add.290")
#loc114 = loc("add.293")
#loc115 = loc("reshape.321")
#loc116 = loc("reshape.323")
#loc117 = loc("reshape.316")
#loc118 = loc("reshape.318")
#loc119 = loc("custom-call.403")
#loc120 = loc("reshape.404")
#loc121 = loc("reshape.310")
#loc122 = loc("reshape.312")
#loc123 = loc("transpose.313")
#loc124 = loc("dot.405")
#loc125 = loc("reshape.406")
#loc126 = loc("reshape.306")
#loc127 = loc("reshape.308")
#loc128 = loc("broadcast.409")
#loc129 = loc("add.410")
#loc130 = loc("custom-call.423")
#loc131 = loc("reshape.424")
#loc132 = loc("reshape.300")
#loc133 = loc("reshape.302")
#loc134 = loc("transpose.303")
#loc135 = loc("dot.425")
#loc136 = loc("reshape.426")
#loc137 = loc("reshape.296")
#loc138 = loc("reshape.298")
#loc139 = loc("broadcast.429")
#loc140 = loc("add.430")
#loc141 = loc("add.433")
#loc142 = loc("reshape.22")
#loc143 = loc("reshape.24")
#loc144 = loc("reshape.17")
#loc145 = loc("reshape.19")
#loc146 = loc("custom-call.510")
#loc147 = loc("slice.511")
#loc148 = loc("reshape.512")
#loc149 = loc("reshape.11")
#loc150 = loc("reshape.13")
#loc151 = loc("transpose.14")
#loc152 = loc("dot.513")
#loc153 = loc("reshape.4")
#loc154 = loc("reshape.6")
#loc155 = loc("broadcast.518")
#loc156 = loc("add.519")
