#loc1 = loc("p0.3")
#loc2 = loc("p1.6")
#loc3 = loc("p2.10")
#loc4 = loc("p3.16")
#loc5 = loc("p4.20")
#loc6 = loc("p5.26")
#loc7 = loc("p6.31")
#loc8 = loc("p7.131")
#loc9 = loc("p8.135")
#loc10 = loc("p9.155")
#loc11 = loc("p10.159")
#loc12 = loc("p11.246")
#loc13 = loc("p12.250")
#loc14 = loc("p13.256")
#loc15 = loc("p14.260")
#loc16 = loc("p15.266")
#loc17 = loc("p16.271")
module @SyncTensorsGraph.390 attributes {mhlo.cross_program_prefetches = [], mhlo.input_output_alias = [], mhlo.is_dynamic = false, mhlo.use_auto_spmd_partitioning = false, ttcore.meshes = #ttcore.meshes<[<"mesh" = 1x1>]>} {
  ttcore.device_module {
    builtin.module @SyncTensorsGraph.390 attributes {mhlo.cross_program_prefetches = [], mhlo.input_output_alias = [], mhlo.is_dynamic = false, mhlo.use_auto_spmd_partitioning = false, ttcore.meshes = #ttcore.meshes<[<"mesh" = 1x1>]>} {
      func.func @main(%arg0: tensor<8x197x768xbf16> {ttcore.argument_type = #ttcore.argument_type<input>, ttcore.shard_status = #ttcore.shard_status<unsharded>, ttir.name = "args_0"} loc("p0.3"), %arg1: tensor<768xbf16> {ttcore.argument_type = #ttcore.argument_type<parameter>, ttcore.shard_status = #ttcore.shard_status<unsharded>, ttir.name = "l__self___block_attention_output_dense_bias"} loc("p1.6"), %arg2: tensor<768x768xbf16> {ttcore.argument_type = #ttcore.argument_type<parameter>, ttcore.shard_status = #ttcore.shard_status<unsharded>, ttir.name = "l__self___block_attention_output_dense_weight"} loc("p2.10"), %arg3: tensor<768xbf16> {ttcore.argument_type = #ttcore.argument_type<parameter>, ttcore.shard_status = #ttcore.shard_status<unsharded>, ttir.name = "l__self___block_attention_attention_value_bias"} loc("p3.16"), %arg4: tensor<768x768xbf16> {ttcore.argument_type = #ttcore.argument_type<parameter>, ttcore.shard_status = #ttcore.shard_status<unsharded>, ttir.name = "l__self___block_attention_attention_value_weight"} loc("p4.20"), %arg5: tensor<768xbf16> {ttcore.argument_type = #ttcore.argument_type<parameter>, ttcore.shard_status = #ttcore.shard_status<unsharded>, ttir.name = "l__self___block_layernorm_before_bias"} loc("p5.26"), %arg6: tensor<768xbf16> {ttcore.argument_type = #ttcore.argument_type<parameter>, ttcore.shard_status = #ttcore.shard_status<unsharded>, ttir.name = "l__self___block_layernorm_before_weight"} loc("p6.31"), %arg7: tensor<768xbf16> {ttcore.argument_type = #ttcore.argument_type<parameter>, ttcore.shard_status = #ttcore.shard_status<unsharded>, ttir.name = "l__self___block_attention_attention_key_bias"} loc("p7.131"), %arg8: tensor<768x768xbf16> {ttcore.argument_type = #ttcore.argument_type<parameter>, ttcore.shard_status = #ttcore.shard_status<unsharded>, ttir.name = "l__self___block_attention_attention_key_weight"} loc("p8.135"), %arg9: tensor<768xbf16> {ttcore.argument_type = #ttcore.argument_type<parameter>, ttcore.shard_status = #ttcore.shard_status<unsharded>, ttir.name = "l__self___block_attention_attention_query_bias"} loc("p9.155"), %arg10: tensor<768x768xbf16> {ttcore.argument_type = #ttcore.argument_type<parameter>, ttcore.shard_status = #ttcore.shard_status<unsharded>, ttir.name = "l__self___block_attention_attention_query_weight"} loc("p10.159"), %arg11: tensor<768xbf16> {ttcore.argument_type = #ttcore.argument_type<parameter>, ttcore.shard_status = #ttcore.shard_status<unsharded>, ttir.name = "l__self___block_output_dense_bias"} loc("p11.246"), %arg12: tensor<768x3072xbf16> {ttcore.argument_type = #ttcore.argument_type<parameter>, ttcore.shard_status = #ttcore.shard_status<unsharded>, ttir.name = "l__self___block_output_dense_weight"} loc("p12.250"), %arg13: tensor<3072xbf16> {ttcore.argument_type = #ttcore.argument_type<parameter>, ttcore.shard_status = #ttcore.shard_status<unsharded>, ttir.name = "l__self___block_intermediate_dense_bias"} loc("p13.256"), %arg14: tensor<3072x768xbf16> {ttcore.argument_type = #ttcore.argument_type<parameter>, ttcore.shard_status = #ttcore.shard_status<unsharded>, ttir.name = "l__self___block_intermediate_dense_weight"} loc("p14.260"), %arg15: tensor<768xbf16> {ttcore.argument_type = #ttcore.argument_type<parameter>, ttcore.shard_status = #ttcore.shard_status<unsharded>, ttir.name = "l__self___block_layernorm_after_bias"} loc("p15.266"), %arg16: tensor<768xbf16> {ttcore.argument_type = #ttcore.argument_type<parameter>, ttcore.shard_status = #ttcore.shard_status<unsharded>, ttir.name = "l__self___block_layernorm_after_weight"} loc("p16.271")) -> (tensor<8x197x768xbf16> {ttcore.shard_status = #ttcore.shard_status<unsharded>}) {
        %0 = "ttir.constant"() <{value = dense<0.000000e+00> : tensor<8x12x197x197xf32>}> : () -> tensor<8x12x197x197xf32> loc(#loc)
        %1 = "ttir.constant"() <{value = dense<0xFFF0000000000000> : tensor<8x12x197x197xf64>}> : () -> tensor<8x12x197x197xf64> loc(#loc)
        %2 = "ttir.constant"() <{value = dense<0.353553385> : tensor<8x12x64x197xf32>}> : () -> tensor<8x12x64x197xf32> loc(#loc)
        %3 = "ttir.constant"() <{value = dense<0.353553385> : tensor<8x12x197x64xf32>}> : () -> tensor<8x12x197x64xf32> loc(#loc)
        %4 = "ttir.reshape"(%arg6) <{shape = [1 : i32, 1 : i32, 768 : i32]}> : (tensor<768xbf16>) -> tensor<1x1x768xbf16> loc(#loc18)
        %5 = "ttir.reshape"(%4) <{shape = [768 : i32]}> : (tensor<1x1x768xbf16>) -> tensor<768xbf16> loc(#loc19)
        %6 = "ttir.reshape"(%arg5) <{shape = [1 : i32, 1 : i32, 768 : i32]}> : (tensor<768xbf16>) -> tensor<1x1x768xbf16> loc(#loc20)
        %7 = "ttir.reshape"(%6) <{shape = [768 : i32]}> : (tensor<1x1x768xbf16>) -> tensor<768xbf16> loc(#loc21)
        %8 = "ttir.layer_norm"(%arg0, %5, %7) <{epsilon = 9.99999996E-13 : f32, normalized_shape = array<i64: 768>, operandSegmentSizes = array<i32: 1, 1, 1>}> : (tensor<8x197x768xbf16>, tensor<768xbf16>, tensor<768xbf16>) -> tensor<8x197x768xbf16> loc(#loc22)
        %9 = "ttir.reshape"(%8) <{shape = [1576 : i32, 768 : i32]}> : (tensor<8x197x768xbf16>) -> tensor<1576x768xbf16> loc(#loc23)
        %10 = "ttir.reshape"(%arg10) <{shape = [1 : i32, 768 : i32, 768 : i32]}> : (tensor<768x768xbf16>) -> tensor<1x768x768xbf16> loc(#loc24)
        %11 = "ttir.reshape"(%10) <{shape = [768 : i32, 768 : i32]}> : (tensor<1x768x768xbf16>) -> tensor<768x768xbf16> loc(#loc25)
        %12 = "ttir.permute"(%11) <{permutation = array<i64: 1, 0>}> : (tensor<768x768xbf16>) -> tensor<768x768xbf16> loc(#loc26)
        %13 = "ttir.dot_general"(%9, %12) <{batch_dims_lhs = array<i64>, batch_dims_rhs = array<i64>, contract_dims_lhs = array<i64: 1>, contract_dims_rhs = array<i64: 0>}> : (tensor<1576x768xbf16>, tensor<768x768xbf16>) -> tensor<1576x768xbf16> loc(#loc27)
        %14 = "ttir.reshape"(%13) <{shape = [8 : i32, 197 : i32, 768 : i32]}> : (tensor<1576x768xbf16>) -> tensor<8x197x768xbf16> loc(#loc28)
        %15 = "ttir.reshape"(%arg9) <{shape = [1 : i32, 1 : i32, 768 : i32]}> : (tensor<768xbf16>) -> tensor<1x1x768xbf16> loc(#loc29)
        %16 = "ttir.reshape"(%15) <{shape = [768 : i32]}> : (tensor<1x1x768xbf16>) -> tensor<768xbf16> loc(#loc30)
        %17 = "ttir.reshape"(%16) <{shape = [1 : i32, 1 : i32, 768 : i32]}> : (tensor<768xbf16>) -> tensor<1x1x768xbf16> loc(#loc31)
        %18 = "ttir.broadcast"(%17) <{broadcast_dimensions = array<i64: 8, 197, 1>}> : (tensor<1x1x768xbf16>) -> tensor<8x197x768xbf16> loc(#loc31)
        %19 = "ttir.add"(%14, %18) : (tensor<8x197x768xbf16>, tensor<8x197x768xbf16>) -> tensor<8x197x768xbf16> loc(#loc32)
        %20 = "ttir.reshape"(%19) <{shape = [8 : i32, 197 : i32, 12 : i32, 64 : i32]}> : (tensor<8x197x768xbf16>) -> tensor<8x197x12x64xbf16> loc(#loc33)
        %21 = "ttir.permute"(%20) <{permutation = array<i64: 0, 2, 1, 3>}> : (tensor<8x197x12x64xbf16>) -> tensor<8x12x197x64xbf16> loc(#loc34)
        %22 = "ttir.typecast"(%21) <{conservative_folding = false}> : (tensor<8x12x197x64xbf16>) -> tensor<8x12x197x64xf32> loc(#loc35)
        %23 = "ttir.multiply"(%22, %3) : (tensor<8x12x197x64xf32>, tensor<8x12x197x64xf32>) -> tensor<8x12x197x64xf32> loc(#loc36)
        %24 = "ttir.reshape"(%arg8) <{shape = [1 : i32, 768 : i32, 768 : i32]}> : (tensor<768x768xbf16>) -> tensor<1x768x768xbf16> loc(#loc37)
        %25 = "ttir.reshape"(%24) <{shape = [768 : i32, 768 : i32]}> : (tensor<1x768x768xbf16>) -> tensor<768x768xbf16> loc(#loc38)
        %26 = "ttir.permute"(%25) <{permutation = array<i64: 1, 0>}> : (tensor<768x768xbf16>) -> tensor<768x768xbf16> loc(#loc39)
        %27 = "ttir.dot_general"(%9, %26) <{batch_dims_lhs = array<i64>, batch_dims_rhs = array<i64>, contract_dims_lhs = array<i64: 1>, contract_dims_rhs = array<i64: 0>}> : (tensor<1576x768xbf16>, tensor<768x768xbf16>) -> tensor<1576x768xbf16> loc(#loc40)
        %28 = "ttir.reshape"(%27) <{shape = [8 : i32, 197 : i32, 768 : i32]}> : (tensor<1576x768xbf16>) -> tensor<8x197x768xbf16> loc(#loc41)
        %29 = "ttir.reshape"(%arg7) <{shape = [1 : i32, 1 : i32, 768 : i32]}> : (tensor<768xbf16>) -> tensor<1x1x768xbf16> loc(#loc42)
        %30 = "ttir.reshape"(%29) <{shape = [768 : i32]}> : (tensor<1x1x768xbf16>) -> tensor<768xbf16> loc(#loc43)
        %31 = "ttir.reshape"(%30) <{shape = [1 : i32, 1 : i32, 768 : i32]}> : (tensor<768xbf16>) -> tensor<1x1x768xbf16> loc(#loc44)
        %32 = "ttir.broadcast"(%31) <{broadcast_dimensions = array<i64: 8, 197, 1>}> : (tensor<1x1x768xbf16>) -> tensor<8x197x768xbf16> loc(#loc44)
        %33 = "ttir.add"(%28, %32) : (tensor<8x197x768xbf16>, tensor<8x197x768xbf16>) -> tensor<8x197x768xbf16> loc(#loc45)
        %34 = "ttir.reshape"(%33) <{shape = [8 : i32, 197 : i32, 12 : i32, 64 : i32]}> : (tensor<8x197x768xbf16>) -> tensor<8x197x12x64xbf16> loc(#loc46)
        %35 = "ttir.permute"(%34) <{permutation = array<i64: 0, 2, 1, 3>}> : (tensor<8x197x12x64xbf16>) -> tensor<8x12x197x64xbf16> loc(#loc47)
        %36 = "ttir.typecast"(%35) <{conservative_folding = false}> : (tensor<8x12x197x64xbf16>) -> tensor<8x12x197x64xf32> loc(#loc48)
        %37 = "ttir.permute"(%36) <{permutation = array<i64: 0, 1, 3, 2>}> : (tensor<8x12x197x64xf32>) -> tensor<8x12x64x197xf32> loc(#loc49)
        %38 = "ttir.multiply"(%37, %2) : (tensor<8x12x64x197xf32>, tensor<8x12x64x197xf32>) -> tensor<8x12x64x197xf32> loc(#loc50)
        %39 = "ttir.dot_general"(%23, %38) <{batch_dims_lhs = array<i64: 0, 1>, batch_dims_rhs = array<i64: 0, 1>, contract_dims_lhs = array<i64: 3>, contract_dims_rhs = array<i64: 2>}> : (tensor<8x12x197x64xf32>, tensor<8x12x64x197xf32>) -> tensor<8x12x197x197xf32> loc(#loc51)
        %40 = "ttir.typecast"(%39) <{conservative_folding = false}> : (tensor<8x12x197x197xf32>) -> tensor<8x12x197x197xf64> loc(#loc52)
        %41 = "ttir.eq"(%40, %1) : (tensor<8x12x197x197xf64>, tensor<8x12x197x197xf64>) -> tensor<8x12x197x197xi1> loc(#loc53)
        %42 = "ttir.logical_not"(%41) : (tensor<8x12x197x197xi1>) -> tensor<8x12x197x197xi1> loc(#loc54)
        %43 = "ttir.reduce_or"(%42) <{dim_arg = [3 : i32], keep_dim = false}> : (tensor<8x12x197x197xi1>) -> tensor<8x12x197xi1> loc(#loc55)
        %44 = "ttir.reshape"(%43) <{shape = [8 : i32, 12 : i32, 197 : i32, 1 : i32]}> : (tensor<8x12x197xi1>) -> tensor<8x12x197x1xi1> loc(#loc56)
        %45 = "ttir.logical_not"(%44) : (tensor<8x12x197x1xi1>) -> tensor<8x12x197x1xi1> loc(#loc57)
        %46 = "ttir.reshape"(%45) <{shape = [8 : i32, 12 : i32, 197 : i32]}> : (tensor<8x12x197x1xi1>) -> tensor<8x12x197xi1> loc(#loc58)
        %47 = "ttir.reshape"(%46) <{shape = [8 : i32, 12 : i32, 197 : i32, 1 : i32]}> : (tensor<8x12x197xi1>) -> tensor<8x12x197x1xi1> loc(#loc59)
        %48 = "ttir.broadcast"(%47) <{broadcast_dimensions = array<i64: 1, 1, 1, 197>}> : (tensor<8x12x197x1xi1>) -> tensor<8x12x197x197xi1> loc(#loc59)
        %49 = "ttir.max"(%39) <{dim_arg = [3 : i32], keep_dim = false}> : (tensor<8x12x197x197xf32>) -> tensor<8x12x197xf32> loc(#loc60)
        %50 = "ttir.reshape"(%49) <{shape = [8 : i32, 12 : i32, 197 : i32, 1 : i32]}> : (tensor<8x12x197xf32>) -> tensor<8x12x197x1xf32> loc(#loc61)
        %51 = "ttir.broadcast"(%50) <{broadcast_dimensions = array<i64: 1, 1, 1, 197>}> : (tensor<8x12x197x1xf32>) -> tensor<8x12x197x197xf32> loc(#loc61)
        %52 = "ttir.subtract"(%39, %51) : (tensor<8x12x197x197xf32>, tensor<8x12x197x197xf32>) -> tensor<8x12x197x197xf32> loc(#loc62)
        %53 = "ttir.exp"(%52) : (tensor<8x12x197x197xf32>) -> tensor<8x12x197x197xf32> loc(#loc63)
        %54 = "ttir.sum"(%53) <{dim_arg = [3 : i32], keep_dim = false}> : (tensor<8x12x197x197xf32>) -> tensor<8x12x197xf32> loc(#loc64)
        %55 = "ttir.reshape"(%54) <{shape = [8 : i32, 12 : i32, 197 : i32, 1 : i32]}> : (tensor<8x12x197xf32>) -> tensor<8x12x197x1xf32> loc(#loc65)
        %56 = "ttir.broadcast"(%55) <{broadcast_dimensions = array<i64: 1, 1, 1, 197>}> : (tensor<8x12x197x1xf32>) -> tensor<8x12x197x197xf32> loc(#loc65)
        %57 = "ttir.div"(%53, %56) : (tensor<8x12x197x197xf32>, tensor<8x12x197x197xf32>) -> tensor<8x12x197x197xf32> loc(#loc66)
        %58 = "ttir.where"(%48, %0, %57) : (tensor<8x12x197x197xi1>, tensor<8x12x197x197xf32>, tensor<8x12x197x197xf32>) -> tensor<8x12x197x197xf32> loc(#loc67)
        %59 = "ttir.reshape"(%arg4) <{shape = [1 : i32, 768 : i32, 768 : i32]}> : (tensor<768x768xbf16>) -> tensor<1x768x768xbf16> loc(#loc68)
        %60 = "ttir.reshape"(%59) <{shape = [768 : i32, 768 : i32]}> : (tensor<1x768x768xbf16>) -> tensor<768x768xbf16> loc(#loc69)
        %61 = "ttir.permute"(%60) <{permutation = array<i64: 1, 0>}> : (tensor<768x768xbf16>) -> tensor<768x768xbf16> loc(#loc70)
        %62 = "ttir.dot_general"(%9, %61) <{batch_dims_lhs = array<i64>, batch_dims_rhs = array<i64>, contract_dims_lhs = array<i64: 1>, contract_dims_rhs = array<i64: 0>}> : (tensor<1576x768xbf16>, tensor<768x768xbf16>) -> tensor<1576x768xbf16> loc(#loc71)
        %63 = "ttir.reshape"(%62) <{shape = [8 : i32, 197 : i32, 768 : i32]}> : (tensor<1576x768xbf16>) -> tensor<8x197x768xbf16> loc(#loc72)
        %64 = "ttir.reshape"(%arg3) <{shape = [1 : i32, 1 : i32, 768 : i32]}> : (tensor<768xbf16>) -> tensor<1x1x768xbf16> loc(#loc73)
        %65 = "ttir.reshape"(%64) <{shape = [768 : i32]}> : (tensor<1x1x768xbf16>) -> tensor<768xbf16> loc(#loc74)
        %66 = "ttir.reshape"(%65) <{shape = [1 : i32, 1 : i32, 768 : i32]}> : (tensor<768xbf16>) -> tensor<1x1x768xbf16> loc(#loc75)
        %67 = "ttir.broadcast"(%66) <{broadcast_dimensions = array<i64: 8, 197, 1>}> : (tensor<1x1x768xbf16>) -> tensor<8x197x768xbf16> loc(#loc75)
        %68 = "ttir.add"(%63, %67) : (tensor<8x197x768xbf16>, tensor<8x197x768xbf16>) -> tensor<8x197x768xbf16> loc(#loc76)
        %69 = "ttir.reshape"(%68) <{shape = [8 : i32, 197 : i32, 12 : i32, 64 : i32]}> : (tensor<8x197x768xbf16>) -> tensor<8x197x12x64xbf16> loc(#loc77)
        %70 = "ttir.permute"(%69) <{permutation = array<i64: 0, 2, 1, 3>}> : (tensor<8x197x12x64xbf16>) -> tensor<8x12x197x64xbf16> loc(#loc78)
        %71 = "ttir.typecast"(%70) <{conservative_folding = false}> : (tensor<8x12x197x64xbf16>) -> tensor<8x12x197x64xf32> loc(#loc79)
        %72 = "ttir.dot_general"(%58, %71) <{batch_dims_lhs = array<i64: 0, 1>, batch_dims_rhs = array<i64: 0, 1>, contract_dims_lhs = array<i64: 3>, contract_dims_rhs = array<i64: 2>}> : (tensor<8x12x197x197xf32>, tensor<8x12x197x64xf32>) -> tensor<8x12x197x64xf32> loc(#loc80)
        %73 = "ttir.typecast"(%72) <{conservative_folding = false}> : (tensor<8x12x197x64xf32>) -> tensor<8x12x197x64xbf16> loc(#loc81)
        %74 = "ttir.permute"(%73) <{permutation = array<i64: 0, 2, 1, 3>}> : (tensor<8x12x197x64xbf16>) -> tensor<8x197x12x64xbf16> loc(#loc82)
        %75 = "ttir.reshape"(%74) <{shape = [1576 : i32, 768 : i32]}> : (tensor<8x197x12x64xbf16>) -> tensor<1576x768xbf16> loc(#loc83)
        %76 = "ttir.reshape"(%arg2) <{shape = [1 : i32, 768 : i32, 768 : i32]}> : (tensor<768x768xbf16>) -> tensor<1x768x768xbf16> loc(#loc84)
        %77 = "ttir.reshape"(%76) <{shape = [768 : i32, 768 : i32]}> : (tensor<1x768x768xbf16>) -> tensor<768x768xbf16> loc(#loc85)
        %78 = "ttir.permute"(%77) <{permutation = array<i64: 1, 0>}> : (tensor<768x768xbf16>) -> tensor<768x768xbf16> loc(#loc86)
        %79 = "ttir.dot_general"(%75, %78) <{batch_dims_lhs = array<i64>, batch_dims_rhs = array<i64>, contract_dims_lhs = array<i64: 1>, contract_dims_rhs = array<i64: 0>}> : (tensor<1576x768xbf16>, tensor<768x768xbf16>) -> tensor<1576x768xbf16> loc(#loc87)
        %80 = "ttir.reshape"(%79) <{shape = [8 : i32, 197 : i32, 768 : i32]}> : (tensor<1576x768xbf16>) -> tensor<8x197x768xbf16> loc(#loc88)
        %81 = "ttir.reshape"(%arg1) <{shape = [1 : i32, 1 : i32, 768 : i32]}> : (tensor<768xbf16>) -> tensor<1x1x768xbf16> loc(#loc89)
        %82 = "ttir.reshape"(%81) <{shape = [768 : i32]}> : (tensor<1x1x768xbf16>) -> tensor<768xbf16> loc(#loc90)
        %83 = "ttir.reshape"(%82) <{shape = [1 : i32, 1 : i32, 768 : i32]}> : (tensor<768xbf16>) -> tensor<1x1x768xbf16> loc(#loc91)
        %84 = "ttir.broadcast"(%83) <{broadcast_dimensions = array<i64: 8, 197, 1>}> : (tensor<1x1x768xbf16>) -> tensor<8x197x768xbf16> loc(#loc91)
        %85 = "ttir.add"(%80, %84) : (tensor<8x197x768xbf16>, tensor<8x197x768xbf16>) -> tensor<8x197x768xbf16> loc(#loc92)
        %86 = "ttir.add"(%85, %arg0) : (tensor<8x197x768xbf16>, tensor<8x197x768xbf16>) -> tensor<8x197x768xbf16> loc(#loc93)
        %87 = "ttir.reshape"(%arg16) <{shape = [1 : i32, 1 : i32, 768 : i32]}> : (tensor<768xbf16>) -> tensor<1x1x768xbf16> loc(#loc94)
        %88 = "ttir.reshape"(%87) <{shape = [768 : i32]}> : (tensor<1x1x768xbf16>) -> tensor<768xbf16> loc(#loc95)
        %89 = "ttir.reshape"(%arg15) <{shape = [1 : i32, 1 : i32, 768 : i32]}> : (tensor<768xbf16>) -> tensor<1x1x768xbf16> loc(#loc96)
        %90 = "ttir.reshape"(%89) <{shape = [768 : i32]}> : (tensor<1x1x768xbf16>) -> tensor<768xbf16> loc(#loc97)
        %91 = "ttir.layer_norm"(%86, %88, %90) <{epsilon = 9.99999996E-13 : f32, normalized_shape = array<i64: 768>, operandSegmentSizes = array<i32: 1, 1, 1>}> : (tensor<8x197x768xbf16>, tensor<768xbf16>, tensor<768xbf16>) -> tensor<8x197x768xbf16> loc(#loc98)
        %92 = "ttir.reshape"(%91) <{shape = [1576 : i32, 768 : i32]}> : (tensor<8x197x768xbf16>) -> tensor<1576x768xbf16> loc(#loc99)
        %93 = "ttir.reshape"(%arg14) <{shape = [1 : i32, 3072 : i32, 768 : i32]}> : (tensor<3072x768xbf16>) -> tensor<1x3072x768xbf16> loc(#loc100)
        %94 = "ttir.reshape"(%93) <{shape = [3072 : i32, 768 : i32]}> : (tensor<1x3072x768xbf16>) -> tensor<3072x768xbf16> loc(#loc101)
        %95 = "ttir.permute"(%94) <{permutation = array<i64: 1, 0>}> : (tensor<3072x768xbf16>) -> tensor<768x3072xbf16> loc(#loc102)
        %96 = "ttir.dot_general"(%92, %95) <{batch_dims_lhs = array<i64>, batch_dims_rhs = array<i64>, contract_dims_lhs = array<i64: 1>, contract_dims_rhs = array<i64: 0>}> : (tensor<1576x768xbf16>, tensor<768x3072xbf16>) -> tensor<1576x3072xbf16> loc(#loc103)
        %97 = "ttir.reshape"(%96) <{shape = [8 : i32, 197 : i32, 3072 : i32]}> : (tensor<1576x3072xbf16>) -> tensor<8x197x3072xbf16> loc(#loc104)
        %98 = "ttir.reshape"(%arg13) <{shape = [1 : i32, 1 : i32, 3072 : i32]}> : (tensor<3072xbf16>) -> tensor<1x1x3072xbf16> loc(#loc105)
        %99 = "ttir.reshape"(%98) <{shape = [3072 : i32]}> : (tensor<1x1x3072xbf16>) -> tensor<3072xbf16> loc(#loc106)
        %100 = "ttir.reshape"(%99) <{shape = [1 : i32, 1 : i32, 3072 : i32]}> : (tensor<3072xbf16>) -> tensor<1x1x3072xbf16> loc(#loc107)
        %101 = "ttir.broadcast"(%100) <{broadcast_dimensions = array<i64: 8, 197, 1>}> : (tensor<1x1x3072xbf16>) -> tensor<8x197x3072xbf16> loc(#loc107)
        %102 = "ttir.add"(%97, %101) : (tensor<8x197x3072xbf16>, tensor<8x197x3072xbf16>) -> tensor<8x197x3072xbf16> loc(#loc108)
        %103 = "ttir.gelu"(%102) : (tensor<8x197x3072xbf16>) -> tensor<8x197x3072xbf16> loc(#loc109)
        %104 = "ttir.reshape"(%103) <{shape = [1576 : i32, 3072 : i32]}> : (tensor<8x197x3072xbf16>) -> tensor<1576x3072xbf16> loc(#loc110)
        %105 = "ttir.reshape"(%arg12) <{shape = [1 : i32, 768 : i32, 3072 : i32]}> : (tensor<768x3072xbf16>) -> tensor<1x768x3072xbf16> loc(#loc111)
        %106 = "ttir.reshape"(%105) <{shape = [768 : i32, 3072 : i32]}> : (tensor<1x768x3072xbf16>) -> tensor<768x3072xbf16> loc(#loc112)
        %107 = "ttir.permute"(%106) <{permutation = array<i64: 1, 0>}> : (tensor<768x3072xbf16>) -> tensor<3072x768xbf16> loc(#loc113)
        %108 = "ttir.dot_general"(%104, %107) <{batch_dims_lhs = array<i64>, batch_dims_rhs = array<i64>, contract_dims_lhs = array<i64: 1>, contract_dims_rhs = array<i64: 0>}> : (tensor<1576x3072xbf16>, tensor<3072x768xbf16>) -> tensor<1576x768xbf16> loc(#loc114)
        %109 = "ttir.reshape"(%108) <{shape = [8 : i32, 197 : i32, 768 : i32]}> : (tensor<1576x768xbf16>) -> tensor<8x197x768xbf16> loc(#loc115)
        %110 = "ttir.reshape"(%arg11) <{shape = [1 : i32, 1 : i32, 768 : i32]}> : (tensor<768xbf16>) -> tensor<1x1x768xbf16> loc(#loc116)
        %111 = "ttir.reshape"(%110) <{shape = [768 : i32]}> : (tensor<1x1x768xbf16>) -> tensor<768xbf16> loc(#loc117)
        %112 = "ttir.reshape"(%111) <{shape = [1 : i32, 1 : i32, 768 : i32]}> : (tensor<768xbf16>) -> tensor<1x1x768xbf16> loc(#loc118)
        %113 = "ttir.broadcast"(%112) <{broadcast_dimensions = array<i64: 8, 197, 1>}> : (tensor<1x1x768xbf16>) -> tensor<8x197x768xbf16> loc(#loc118)
        %114 = "ttir.add"(%109, %113) : (tensor<8x197x768xbf16>, tensor<8x197x768xbf16>) -> tensor<8x197x768xbf16> loc(#loc119)
        %115 = "ttir.add"(%114, %86) : (tensor<8x197x768xbf16>, tensor<8x197x768xbf16>) -> tensor<8x197x768xbf16> loc(#loc120)
        return %115 : tensor<8x197x768xbf16> loc(#loc)
      } loc(#loc)
    } loc(#loc)
  } loc(#loc)
} loc(#loc)
#loc = loc(unknown)
#loc18 = loc("reshape.32")
#loc19 = loc("reshape.34")
#loc20 = loc("reshape.27")
#loc21 = loc("reshape.29")
#loc22 = loc("custom-call.118")
#loc23 = loc("reshape.164")
#loc24 = loc("reshape.160")
#loc25 = loc("reshape.162")
#loc26 = loc("transpose.163")
#loc27 = loc("dot.165")
#loc28 = loc("reshape.166")
#loc29 = loc("reshape.156")
#loc30 = loc("reshape.158")
#loc31 = loc("broadcast.169")
#loc32 = loc("add.170")
#loc33 = loc("reshape.171")
#loc34 = loc("transpose.172")
#loc35 = loc("convert.173")
#loc36 = loc("multiply.175")
#loc37 = loc("reshape.136")
#loc38 = loc("reshape.138")
#loc39 = loc("transpose.139")
#loc40 = loc("dot.141")
#loc41 = loc("reshape.142")
#loc42 = loc("reshape.132")
#loc43 = loc("reshape.134")
#loc44 = loc("broadcast.145")
#loc45 = loc("add.146")
#loc46 = loc("reshape.147")
#loc47 = loc("transpose.148")
#loc48 = loc("convert.149")
#loc49 = loc("transpose.150")
#loc50 = loc("multiply.152")
#loc51 = loc("dot.176")
#loc52 = loc("convert.203")
#loc53 = loc("compare.205")
#loc54 = loc("not.207")
#loc55 = loc("reduce.219")
#loc56 = loc("reshape.223")
#loc57 = loc("not.225")
#loc58 = loc("reshape.227")
#loc59 = loc("broadcast.228")
#loc60 = loc("reduce.183")
#loc61 = loc("broadcast.184")
#loc62 = loc("subtract.185")
#loc63 = loc("exponential.186")
#loc64 = loc("reduce.192")
#loc65 = loc("broadcast.193")
#loc66 = loc("divide.194")
#loc67 = loc("select.229")
#loc68 = loc("reshape.21")
#loc69 = loc("reshape.23")
#loc70 = loc("transpose.24")
#loc71 = loc("dot.120")
#loc72 = loc("reshape.121")
#loc73 = loc("reshape.17")
#loc74 = loc("reshape.19")
#loc75 = loc("broadcast.124")
#loc76 = loc("add.125")
#loc77 = loc("reshape.126")
#loc78 = loc("transpose.127")
#loc79 = loc("convert.128")
#loc80 = loc("dot.230")
#loc81 = loc("convert.232")
#loc82 = loc("transpose.233")
#loc83 = loc("reshape.235")
#loc84 = loc("reshape.11")
#loc85 = loc("reshape.13")
#loc86 = loc("transpose.14")
#loc87 = loc("dot.236")
#loc88 = loc("reshape.237")
#loc89 = loc("reshape.7")
#loc90 = loc("reshape.9")
#loc91 = loc("broadcast.240")
#loc92 = loc("add.241")
#loc93 = loc("add.244")
#loc94 = loc("reshape.272")
#loc95 = loc("reshape.274")
#loc96 = loc("reshape.267")
#loc97 = loc("reshape.269")
#loc98 = loc("custom-call.358")
#loc99 = loc("reshape.359")
#loc100 = loc("reshape.261")
#loc101 = loc("reshape.263")
#loc102 = loc("transpose.264")
#loc103 = loc("dot.360")
#loc104 = loc("reshape.361")
#loc105 = loc("reshape.257")
#loc106 = loc("reshape.259")
#loc107 = loc("broadcast.364")
#loc108 = loc("add.365")
#loc109 = loc("custom-call.378")
#loc110 = loc("reshape.379")
#loc111 = loc("reshape.251")
#loc112 = loc("reshape.253")
#loc113 = loc("transpose.254")
#loc114 = loc("dot.380")
#loc115 = loc("reshape.381")
#loc116 = loc("reshape.247")
#loc117 = loc("reshape.249")
#loc118 = loc("broadcast.384")
#loc119 = loc("add.385")
#loc120 = loc("add.388")
