#loc1 = loc("p0.2")
#loc2 = loc("p1.7")
#loc3 = loc("p2.16")
#loc4 = loc("p3.22")
#loc5 = loc("p4.26")
#loc6 = loc("p5.34")
#loc7 = loc("p6.65")
#loc8 = loc("p7.102")
#loc9 = loc("p8.123")
#loc10 = loc("p9.127")
#loc11 = loc("p10.172")
#loc12 = loc("p11.176")
#loc13 = loc("p12.265")
#loc14 = loc("p13.274")
module @SyncTensorsGraph.292 attributes {mhlo.cross_program_prefetches = [], mhlo.input_output_alias = [], mhlo.is_dynamic = false, mhlo.use_auto_spmd_partitioning = false, ttcore.meshes = #ttcore.meshes<[<"mesh" = 1x1>]>} {
  ttcore.device_module {
    builtin.module @SyncTensorsGraph.292 attributes {mhlo.cross_program_prefetches = [], mhlo.input_output_alias = [], mhlo.is_dynamic = false, mhlo.use_auto_spmd_partitioning = false, ttcore.meshes = #ttcore.meshes<[<"mesh" = 1x1>]>} {
      func.func @main(%arg0: tensor<1536x8960xbf16> {ttcore.argument_type = #ttcore.argument_type<parameter>, ttcore.shard_status = #ttcore.shard_status<unsharded>, ttir.name = "l__self___layer_mlp_down_proj_weight"} loc("p0.2"), %arg1: tensor<8960x1536xbf16> {ttcore.argument_type = #ttcore.argument_type<parameter>, ttcore.shard_status = #ttcore.shard_status<unsharded>, ttir.name = "l__self___layer_mlp_up_proj_weight"} loc("p1.7"), %arg2: tensor<1536x1536xbf16> {ttcore.argument_type = #ttcore.argument_type<parameter>, ttcore.shard_status = #ttcore.shard_status<unsharded>, ttir.name = "l__self___layer_self_attn_o_proj_weight"} loc("p2.16"), %arg3: tensor<256xbf16> {ttcore.argument_type = #ttcore.argument_type<parameter>, ttcore.shard_status = #ttcore.shard_status<unsharded>, ttir.name = "l__self___layer_self_attn_v_proj_bias"} loc("p3.22"), %arg4: tensor<256x1536xbf16> {ttcore.argument_type = #ttcore.argument_type<parameter>, ttcore.shard_status = #ttcore.shard_status<unsharded>, ttir.name = "l__self___layer_self_attn_v_proj_weight"} loc("p4.26"), %arg5: tensor<32x18x1536xbf16> {ttcore.argument_type = #ttcore.argument_type<input>, ttcore.shard_status = #ttcore.shard_status<unsharded>, ttir.name = "args_0"} loc("p5.34"), %arg6: tensor<1536xbf16> {ttcore.argument_type = #ttcore.argument_type<parameter>, ttcore.shard_status = #ttcore.shard_status<unsharded>, ttir.name = "l__self___layer_input_layernorm_weight"} loc("p6.65"), %arg7: tensor<64xbf16> {ttcore.argument_type = #ttcore.argument_type<constant>, ttcore.shard_status = #ttcore.shard_status<unsharded>, ttir.name = "l__self___rotary_emb_inv_freq"} loc("p7.102"), %arg8: tensor<256xbf16> {ttcore.argument_type = #ttcore.argument_type<parameter>, ttcore.shard_status = #ttcore.shard_status<unsharded>, ttir.name = "l__self___layer_self_attn_k_proj_bias"} loc("p8.123"), %arg9: tensor<256x1536xbf16> {ttcore.argument_type = #ttcore.argument_type<parameter>, ttcore.shard_status = #ttcore.shard_status<unsharded>, ttir.name = "l__self___layer_self_attn_k_proj_weight"} loc("p9.127"), %arg10: tensor<1536xbf16> {ttcore.argument_type = #ttcore.argument_type<parameter>, ttcore.shard_status = #ttcore.shard_status<unsharded>, ttir.name = "l__self___layer_self_attn_q_proj_bias"} loc("p10.172"), %arg11: tensor<1536x1536xbf16> {ttcore.argument_type = #ttcore.argument_type<parameter>, ttcore.shard_status = #ttcore.shard_status<unsharded>, ttir.name = "l__self___layer_self_attn_q_proj_weight"} loc("p11.176"), %arg12: tensor<1536xbf16> {ttcore.argument_type = #ttcore.argument_type<parameter>, ttcore.shard_status = #ttcore.shard_status<unsharded>, ttir.name = "l__self___layer_post_attention_layernorm_weight"} loc("p12.265"), %arg13: tensor<8960x1536xbf16> {ttcore.argument_type = #ttcore.argument_type<parameter>, ttcore.shard_status = #ttcore.shard_status<unsharded>, ttir.name = "l__self___layer_mlp_gate_proj_weight"} loc("p13.274")) -> (tensor<32x18x1536xbf16> {ttcore.shard_status = #ttcore.shard_status<unsharded>}) {
        %0 = "ttir.constant"() <{value = dense<8.837890e-02> : tensor<32x12x18x18xbf16>}> : () -> tensor<32x12x18x18xbf16> loc(#loc)
        %1 = "ttir.constant"() <{value = dense<9.99999997E-7> : tensor<32x18x1xf32>}> : () -> tensor<32x18x1xf32> loc(#loc)
        %2 = "ttir.constant"() <{value = dense<6.51041686E-4> : tensor<32x18xf32>}> : () -> tensor<32x18xf32> loc(#loc)
        %3 = "ttir.constant"() <{value = dense<2.000000e+00> : tensor<32x18x1536xf32>}> : () -> tensor<32x18x1536xf32> loc(#loc)
        %4 = "ttir.constant"() <{value = dense<[0, 1, 2, 3, 4, 5, 6, 7, 8, 9, 10, 11, 12, 13, 14, 15, 16, 17]> : tensor<18xi64>}> : () -> tensor<18xi64> loc(#loc)
        %5 = "ttir.reshape"(%arg6) <{shape = [1 : i32, 1 : i32, 1536 : i32]}> : (tensor<1536xbf16>) -> tensor<1x1x1536xbf16> loc(#loc15)
        %6 = "ttir.reshape"(%5) <{shape = [1536 : i32]}> : (tensor<1x1x1536xbf16>) -> tensor<1536xbf16> loc(#loc16)
        %7 = "ttir.reshape"(%6) <{shape = [1 : i32, 1 : i32, 1536 : i32]}> : (tensor<1536xbf16>) -> tensor<1x1x1536xbf16> loc(#loc17)
        %8 = "ttir.broadcast"(%7) <{broadcast_dimensions = array<i64: 32, 18, 1>}> : (tensor<1x1x1536xbf16>) -> tensor<32x18x1536xbf16> loc(#loc17)
        %9 = "ttir.typecast"(%arg5) <{conservative_folding = false}> : (tensor<32x18x1536xbf16>) -> tensor<32x18x1536xf32> loc(#loc18)
        %10 = "ttir.pow"(%9, %3) : (tensor<32x18x1536xf32>, tensor<32x18x1536xf32>) -> tensor<32x18x1536xf32> loc(#loc19)
        %11 = "ttir.sum"(%10) <{dim_arg = [2 : i32], keep_dim = false}> : (tensor<32x18x1536xf32>) -> tensor<32x18xf32> loc(#loc20)
        %12 = "ttir.multiply"(%11, %2) : (tensor<32x18xf32>, tensor<32x18xf32>) -> tensor<32x18xf32> loc(#loc21)
        %13 = "ttir.reshape"(%12) <{shape = [32 : i32, 18 : i32, 1 : i32]}> : (tensor<32x18xf32>) -> tensor<32x18x1xf32> loc(#loc22)
        %14 = "ttir.add"(%13, %1) : (tensor<32x18x1xf32>, tensor<32x18x1xf32>) -> tensor<32x18x1xf32> loc(#loc23)
        %15 = "ttir.rsqrt"(%14) : (tensor<32x18x1xf32>) -> tensor<32x18x1xf32> loc(#loc24)
        %16 = "ttir.reshape"(%15) <{shape = [32 : i32, 18 : i32]}> : (tensor<32x18x1xf32>) -> tensor<32x18xf32> loc(#loc25)
        %17 = "ttir.reshape"(%16) <{shape = [32 : i32, 18 : i32, 1 : i32]}> : (tensor<32x18xf32>) -> tensor<32x18x1xf32> loc(#loc26)
        %18 = "ttir.broadcast"(%17) <{broadcast_dimensions = array<i64: 1, 1, 1536>}> : (tensor<32x18x1xf32>) -> tensor<32x18x1536xf32> loc(#loc26)
        %19 = "ttir.multiply"(%9, %18) : (tensor<32x18x1536xf32>, tensor<32x18x1536xf32>) -> tensor<32x18x1536xf32> loc(#loc27)
        %20 = "ttir.typecast"(%19) <{conservative_folding = false}> : (tensor<32x18x1536xf32>) -> tensor<32x18x1536xbf16> loc(#loc28)
        %21 = "ttir.multiply"(%8, %20) : (tensor<32x18x1536xbf16>, tensor<32x18x1536xbf16>) -> tensor<32x18x1536xbf16> loc(#loc29)
        %22 = "ttir.reshape"(%21) <{shape = [576 : i32, 1536 : i32]}> : (tensor<32x18x1536xbf16>) -> tensor<576x1536xbf16> loc(#loc30)
        %23 = "ttir.reshape"(%arg11) <{shape = [1 : i32, 1536 : i32, 1536 : i32]}> : (tensor<1536x1536xbf16>) -> tensor<1x1536x1536xbf16> loc(#loc31)
        %24 = "ttir.reshape"(%23) <{shape = [1536 : i32, 1536 : i32]}> : (tensor<1x1536x1536xbf16>) -> tensor<1536x1536xbf16> loc(#loc32)
        %25 = "ttir.permute"(%24) <{permutation = array<i64: 1, 0>}> : (tensor<1536x1536xbf16>) -> tensor<1536x1536xbf16> loc(#loc33)
        %26 = "ttir.dot_general"(%22, %25) <{batch_dims_lhs = array<i64>, batch_dims_rhs = array<i64>, contract_dims_lhs = array<i64: 1>, contract_dims_rhs = array<i64: 0>}> : (tensor<576x1536xbf16>, tensor<1536x1536xbf16>) -> tensor<576x1536xbf16> loc(#loc34)
        %27 = "ttir.reshape"(%26) <{shape = [32 : i32, 18 : i32, 1536 : i32]}> : (tensor<576x1536xbf16>) -> tensor<32x18x1536xbf16> loc(#loc35)
        %28 = "ttir.reshape"(%arg10) <{shape = [1 : i32, 1 : i32, 1536 : i32]}> : (tensor<1536xbf16>) -> tensor<1x1x1536xbf16> loc(#loc36)
        %29 = "ttir.reshape"(%28) <{shape = [1536 : i32]}> : (tensor<1x1x1536xbf16>) -> tensor<1536xbf16> loc(#loc37)
        %30 = "ttir.reshape"(%29) <{shape = [1 : i32, 1 : i32, 1536 : i32]}> : (tensor<1536xbf16>) -> tensor<1x1x1536xbf16> loc(#loc38)
        %31 = "ttir.broadcast"(%30) <{broadcast_dimensions = array<i64: 32, 18, 1>}> : (tensor<1x1x1536xbf16>) -> tensor<32x18x1536xbf16> loc(#loc38)
        %32 = "ttir.add"(%27, %31) : (tensor<32x18x1536xbf16>, tensor<32x18x1536xbf16>) -> tensor<32x18x1536xbf16> loc(#loc39)
        %33 = "ttir.reshape"(%32) <{shape = [32 : i32, 18 : i32, 12 : i32, 128 : i32]}> : (tensor<32x18x1536xbf16>) -> tensor<32x18x12x128xbf16> loc(#loc40)
        %34 = "ttir.permute"(%33) <{permutation = array<i64: 0, 2, 1, 3>}> : (tensor<32x18x12x128xbf16>) -> tensor<32x12x18x128xbf16> loc(#loc41)
        %35 = "ttir.reshape"(%arg7) <{shape = [1 : i32, 1 : i32, 64 : i32]}> : (tensor<64xbf16>) -> tensor<1x1x64xbf16> loc(#loc42)
        %36 = "ttir.reshape"(%35) <{shape = [1 : i32, 64 : i32, 1 : i32]}> : (tensor<1x1x64xbf16>) -> tensor<1x64x1xbf16> loc(#loc43)
        %37 = "ttir.typecast"(%36) <{conservative_folding = false}> : (tensor<1x64x1xbf16>) -> tensor<1x64x1xf32> loc(#loc44)
        %38 = "ttir.reshape"(%37) <{shape = [64 : i32, 1 : i32]}> : (tensor<1x64x1xf32>) -> tensor<64x1xf32> loc(#loc45)
        %39 = "ttir.reshape"(%38) <{shape = [1 : i32, 64 : i32, 1 : i32]}> : (tensor<64x1xf32>) -> tensor<1x64x1xf32> loc(#loc46)
        %40 = "ttir.broadcast"(%39) <{broadcast_dimensions = array<i64: 32, 1, 1>}> : (tensor<1x64x1xf32>) -> tensor<32x64x1xf32> loc(#loc46)
        %41 = "ttir.reshape"(%4) <{shape = [1 : i32, 18 : i32]}> : (tensor<18xi64>) -> tensor<1x18xi64> loc(#loc47)
        %42 = "ttir.broadcast"(%41) <{broadcast_dimensions = array<i64: 32, 1>}> : (tensor<1x18xi64>) -> tensor<32x18xi64> loc(#loc47)
        %43 = "ttir.reshape"(%42) <{shape = [32 : i32, 1 : i32, 18 : i32]}> : (tensor<32x18xi64>) -> tensor<32x1x18xi64> loc(#loc48)
        %44 = "ttir.typecast"(%43) <{conservative_folding = false}> : (tensor<32x1x18xi64>) -> tensor<32x1x18xf32> loc(#loc49)
        %45 = "ttir.dot_general"(%40, %44) <{batch_dims_lhs = array<i64: 0>, batch_dims_rhs = array<i64: 0>, contract_dims_lhs = array<i64: 2>, contract_dims_rhs = array<i64: 1>}> : (tensor<32x64x1xf32>, tensor<32x1x18xf32>) -> tensor<32x64x18xf32> loc(#loc50)
        %46 = "ttir.permute"(%45) <{permutation = array<i64: 0, 2, 1>}> : (tensor<32x64x18xf32>) -> tensor<32x18x64xf32> loc(#loc51)
        %47 = "ttir.concat"(%46, %46) <{dim = 2 : si32}> : (tensor<32x18x64xf32>, tensor<32x18x64xf32>) -> tensor<32x18x128xf32> loc(#loc52)
        %48 = "ttir.cos"(%47) : (tensor<32x18x128xf32>) -> tensor<32x18x128xf32> loc(#loc53)
        %49 = "ttir.typecast"(%48) <{conservative_folding = false}> : (tensor<32x18x128xf32>) -> tensor<32x18x128xbf16> loc(#loc54)
        %50 = "ttir.reshape"(%49) <{shape = [32 : i32, 1 : i32, 18 : i32, 128 : i32]}> : (tensor<32x18x128xbf16>) -> tensor<32x1x18x128xbf16> loc(#loc55)
        %51 = "ttir.broadcast"(%50) <{broadcast_dimensions = array<i64: 1, 12, 1, 1>}> : (tensor<32x1x18x128xbf16>) -> tensor<32x12x18x128xbf16> loc(#loc55)
        %52 = "ttir.multiply"(%34, %51) : (tensor<32x12x18x128xbf16>, tensor<32x12x18x128xbf16>) -> tensor<32x12x18x128xbf16> loc(#loc56)
        %53 = "ttir.slice_static"(%34) <{begins = [0 : i32, 0 : i32, 0 : i32, 64 : i32], ends = [32 : i32, 12 : i32, 18 : i32, 128 : i32], step = [1 : i32, 1 : i32, 1 : i32, 1 : i32]}> : (tensor<32x12x18x128xbf16>) -> tensor<32x12x18x64xbf16> loc(#loc57)
        %54 = "ttir.neg"(%53) : (tensor<32x12x18x64xbf16>) -> tensor<32x12x18x64xbf16> loc(#loc58)
        %55 = "ttir.slice_static"(%34) <{begins = [0 : i32, 0 : i32, 0 : i32, 0 : i32], ends = [32 : i32, 12 : i32, 18 : i32, 64 : i32], step = [1 : i32, 1 : i32, 1 : i32, 1 : i32]}> : (tensor<32x12x18x128xbf16>) -> tensor<32x12x18x64xbf16> loc(#loc59)
        %56 = "ttir.concat"(%54, %55) <{dim = 3 : si32}> : (tensor<32x12x18x64xbf16>, tensor<32x12x18x64xbf16>) -> tensor<32x12x18x128xbf16> loc(#loc60)
        %57 = "ttir.sin"(%47) : (tensor<32x18x128xf32>) -> tensor<32x18x128xf32> loc(#loc61)
        %58 = "ttir.typecast"(%57) <{conservative_folding = false}> : (tensor<32x18x128xf32>) -> tensor<32x18x128xbf16> loc(#loc62)
        %59 = "ttir.reshape"(%58) <{shape = [32 : i32, 1 : i32, 18 : i32, 128 : i32]}> : (tensor<32x18x128xbf16>) -> tensor<32x1x18x128xbf16> loc(#loc63)
        %60 = "ttir.broadcast"(%59) <{broadcast_dimensions = array<i64: 1, 12, 1, 1>}> : (tensor<32x1x18x128xbf16>) -> tensor<32x12x18x128xbf16> loc(#loc63)
        %61 = "ttir.multiply"(%56, %60) : (tensor<32x12x18x128xbf16>, tensor<32x12x18x128xbf16>) -> tensor<32x12x18x128xbf16> loc(#loc64)
        %62 = "ttir.add"(%52, %61) : (tensor<32x12x18x128xbf16>, tensor<32x12x18x128xbf16>) -> tensor<32x12x18x128xbf16> loc(#loc65)
        %63 = "ttir.reshape"(%arg9) <{shape = [1 : i32, 256 : i32, 1536 : i32]}> : (tensor<256x1536xbf16>) -> tensor<1x256x1536xbf16> loc(#loc66)
        %64 = "ttir.reshape"(%63) <{shape = [256 : i32, 1536 : i32]}> : (tensor<1x256x1536xbf16>) -> tensor<256x1536xbf16> loc(#loc67)
        %65 = "ttir.permute"(%64) <{permutation = array<i64: 1, 0>}> : (tensor<256x1536xbf16>) -> tensor<1536x256xbf16> loc(#loc68)
        %66 = "ttir.dot_general"(%22, %65) <{batch_dims_lhs = array<i64>, batch_dims_rhs = array<i64>, contract_dims_lhs = array<i64: 1>, contract_dims_rhs = array<i64: 0>}> : (tensor<576x1536xbf16>, tensor<1536x256xbf16>) -> tensor<576x256xbf16> loc(#loc69)
        %67 = "ttir.reshape"(%66) <{shape = [32 : i32, 18 : i32, 256 : i32]}> : (tensor<576x256xbf16>) -> tensor<32x18x256xbf16> loc(#loc70)
        %68 = "ttir.reshape"(%arg8) <{shape = [1 : i32, 1 : i32, 256 : i32]}> : (tensor<256xbf16>) -> tensor<1x1x256xbf16> loc(#loc71)
        %69 = "ttir.reshape"(%68) <{shape = [256 : i32]}> : (tensor<1x1x256xbf16>) -> tensor<256xbf16> loc(#loc72)
        %70 = "ttir.reshape"(%69) <{shape = [1 : i32, 1 : i32, 256 : i32]}> : (tensor<256xbf16>) -> tensor<1x1x256xbf16> loc(#loc73)
        %71 = "ttir.broadcast"(%70) <{broadcast_dimensions = array<i64: 32, 18, 1>}> : (tensor<1x1x256xbf16>) -> tensor<32x18x256xbf16> loc(#loc73)
        %72 = "ttir.add"(%67, %71) : (tensor<32x18x256xbf16>, tensor<32x18x256xbf16>) -> tensor<32x18x256xbf16> loc(#loc74)
        %73 = "ttir.reshape"(%72) <{shape = [32 : i32, 18 : i32, 2 : i32, 128 : i32]}> : (tensor<32x18x256xbf16>) -> tensor<32x18x2x128xbf16> loc(#loc75)
        %74 = "ttir.permute"(%73) <{permutation = array<i64: 0, 2, 1, 3>}> : (tensor<32x18x2x128xbf16>) -> tensor<32x2x18x128xbf16> loc(#loc76)
        %75 = "ttir.broadcast"(%50) <{broadcast_dimensions = array<i64: 1, 2, 1, 1>}> : (tensor<32x1x18x128xbf16>) -> tensor<32x2x18x128xbf16> loc(#loc77)
        %76 = "ttir.multiply"(%74, %75) : (tensor<32x2x18x128xbf16>, tensor<32x2x18x128xbf16>) -> tensor<32x2x18x128xbf16> loc(#loc78)
        %77 = "ttir.slice_static"(%74) <{begins = [0 : i32, 0 : i32, 0 : i32, 64 : i32], ends = [32 : i32, 2 : i32, 18 : i32, 128 : i32], step = [1 : i32, 1 : i32, 1 : i32, 1 : i32]}> : (tensor<32x2x18x128xbf16>) -> tensor<32x2x18x64xbf16> loc(#loc79)
        %78 = "ttir.neg"(%77) : (tensor<32x2x18x64xbf16>) -> tensor<32x2x18x64xbf16> loc(#loc80)
        %79 = "ttir.slice_static"(%74) <{begins = [0 : i32, 0 : i32, 0 : i32, 0 : i32], ends = [32 : i32, 2 : i32, 18 : i32, 64 : i32], step = [1 : i32, 1 : i32, 1 : i32, 1 : i32]}> : (tensor<32x2x18x128xbf16>) -> tensor<32x2x18x64xbf16> loc(#loc81)
        %80 = "ttir.concat"(%78, %79) <{dim = 3 : si32}> : (tensor<32x2x18x64xbf16>, tensor<32x2x18x64xbf16>) -> tensor<32x2x18x128xbf16> loc(#loc82)
        %81 = "ttir.broadcast"(%59) <{broadcast_dimensions = array<i64: 1, 2, 1, 1>}> : (tensor<32x1x18x128xbf16>) -> tensor<32x2x18x128xbf16> loc(#loc83)
        %82 = "ttir.multiply"(%80, %81) : (tensor<32x2x18x128xbf16>, tensor<32x2x18x128xbf16>) -> tensor<32x2x18x128xbf16> loc(#loc84)
        %83 = "ttir.add"(%76, %82) : (tensor<32x2x18x128xbf16>, tensor<32x2x18x128xbf16>) -> tensor<32x2x18x128xbf16> loc(#loc85)
        %84 = "ttir.reshape"(%83) <{shape = [32 : i32, 2 : i32, 1 : i32, 18 : i32, 128 : i32]}> : (tensor<32x2x18x128xbf16>) -> tensor<32x2x1x18x128xbf16> loc(#loc86)
        %85 = "ttir.broadcast"(%84) <{broadcast_dimensions = array<i64: 1, 1, 6, 1, 1>}> : (tensor<32x2x1x18x128xbf16>) -> tensor<32x2x6x18x128xbf16> loc(#loc86)
        %86 = "ttir.reshape"(%85) <{shape = [32 : i32, 12 : i32, 18 : i32, 128 : i32]}> : (tensor<32x2x6x18x128xbf16>) -> tensor<32x12x18x128xbf16> loc(#loc87)
        %87 = "ttir.permute"(%86) <{permutation = array<i64: 0, 1, 3, 2>}> : (tensor<32x12x18x128xbf16>) -> tensor<32x12x128x18xbf16> loc(#loc88)
        %88 = "ttir.dot_general"(%62, %87) <{batch_dims_lhs = array<i64: 0, 1>, batch_dims_rhs = array<i64: 0, 1>, contract_dims_lhs = array<i64: 3>, contract_dims_rhs = array<i64: 2>}> : (tensor<32x12x18x128xbf16>, tensor<32x12x128x18xbf16>) -> tensor<32x12x18x18xbf16> loc(#loc89)
        %89 = "ttir.multiply"(%88, %0) : (tensor<32x12x18x18xbf16>, tensor<32x12x18x18xbf16>) -> tensor<32x12x18x18xbf16> loc(#loc90)
        %90 = "ttir.typecast"(%89) <{conservative_folding = false}> : (tensor<32x12x18x18xbf16>) -> tensor<32x12x18x18xf32> loc(#loc91)
        %91 = "ttir.max"(%90) <{dim_arg = [3 : i32], keep_dim = false}> : (tensor<32x12x18x18xf32>) -> tensor<32x12x18xf32> loc(#loc92)
        %92 = "ttir.reshape"(%91) <{shape = [32 : i32, 12 : i32, 18 : i32, 1 : i32]}> : (tensor<32x12x18xf32>) -> tensor<32x12x18x1xf32> loc(#loc93)
        %93 = "ttir.broadcast"(%92) <{broadcast_dimensions = array<i64: 1, 1, 1, 18>}> : (tensor<32x12x18x1xf32>) -> tensor<32x12x18x18xf32> loc(#loc93)
        %94 = "ttir.subtract"(%90, %93) : (tensor<32x12x18x18xf32>, tensor<32x12x18x18xf32>) -> tensor<32x12x18x18xf32> loc(#loc94)
        %95 = "ttir.exp"(%94) : (tensor<32x12x18x18xf32>) -> tensor<32x12x18x18xf32> loc(#loc95)
        %96 = "ttir.sum"(%95) <{dim_arg = [3 : i32], keep_dim = false}> : (tensor<32x12x18x18xf32>) -> tensor<32x12x18xf32> loc(#loc96)
        %97 = "ttir.reshape"(%96) <{shape = [32 : i32, 12 : i32, 18 : i32, 1 : i32]}> : (tensor<32x12x18xf32>) -> tensor<32x12x18x1xf32> loc(#loc97)
        %98 = "ttir.broadcast"(%97) <{broadcast_dimensions = array<i64: 1, 1, 1, 18>}> : (tensor<32x12x18x1xf32>) -> tensor<32x12x18x18xf32> loc(#loc97)
        %99 = "ttir.div"(%95, %98) : (tensor<32x12x18x18xf32>, tensor<32x12x18x18xf32>) -> tensor<32x12x18x18xf32> loc(#loc98)
        %100 = "ttir.typecast"(%99) <{conservative_folding = false}> : (tensor<32x12x18x18xf32>) -> tensor<32x12x18x18xbf16> loc(#loc99)
        %101 = "ttir.reshape"(%arg4) <{shape = [1 : i32, 256 : i32, 1536 : i32]}> : (tensor<256x1536xbf16>) -> tensor<1x256x1536xbf16> loc(#loc100)
        %102 = "ttir.reshape"(%101) <{shape = [256 : i32, 1536 : i32]}> : (tensor<1x256x1536xbf16>) -> tensor<256x1536xbf16> loc(#loc101)
        %103 = "ttir.permute"(%102) <{permutation = array<i64: 1, 0>}> : (tensor<256x1536xbf16>) -> tensor<1536x256xbf16> loc(#loc102)
        %104 = "ttir.dot_general"(%22, %103) <{batch_dims_lhs = array<i64>, batch_dims_rhs = array<i64>, contract_dims_lhs = array<i64: 1>, contract_dims_rhs = array<i64: 0>}> : (tensor<576x1536xbf16>, tensor<1536x256xbf16>) -> tensor<576x256xbf16> loc(#loc103)
        %105 = "ttir.reshape"(%104) <{shape = [32 : i32, 18 : i32, 256 : i32]}> : (tensor<576x256xbf16>) -> tensor<32x18x256xbf16> loc(#loc104)
        %106 = "ttir.reshape"(%arg3) <{shape = [1 : i32, 1 : i32, 256 : i32]}> : (tensor<256xbf16>) -> tensor<1x1x256xbf16> loc(#loc105)
        %107 = "ttir.reshape"(%106) <{shape = [256 : i32]}> : (tensor<1x1x256xbf16>) -> tensor<256xbf16> loc(#loc106)
        %108 = "ttir.reshape"(%107) <{shape = [1 : i32, 1 : i32, 256 : i32]}> : (tensor<256xbf16>) -> tensor<1x1x256xbf16> loc(#loc107)
        %109 = "ttir.broadcast"(%108) <{broadcast_dimensions = array<i64: 32, 18, 1>}> : (tensor<1x1x256xbf16>) -> tensor<32x18x256xbf16> loc(#loc107)
        %110 = "ttir.add"(%105, %109) : (tensor<32x18x256xbf16>, tensor<32x18x256xbf16>) -> tensor<32x18x256xbf16> loc(#loc108)
        %111 = "ttir.reshape"(%110) <{shape = [32 : i32, 18 : i32, 2 : i32, 128 : i32]}> : (tensor<32x18x256xbf16>) -> tensor<32x18x2x128xbf16> loc(#loc109)
        %112 = "ttir.permute"(%111) <{permutation = array<i64: 0, 2, 1, 3>}> : (tensor<32x18x2x128xbf16>) -> tensor<32x2x18x128xbf16> loc(#loc110)
        %113 = "ttir.reshape"(%112) <{shape = [32 : i32, 2 : i32, 1 : i32, 18 : i32, 128 : i32]}> : (tensor<32x2x18x128xbf16>) -> tensor<32x2x1x18x128xbf16> loc(#loc111)
        %114 = "ttir.broadcast"(%113) <{broadcast_dimensions = array<i64: 1, 1, 6, 1, 1>}> : (tensor<32x2x1x18x128xbf16>) -> tensor<32x2x6x18x128xbf16> loc(#loc111)
        %115 = "ttir.reshape"(%114) <{shape = [32 : i32, 12 : i32, 18 : i32, 128 : i32]}> : (tensor<32x2x6x18x128xbf16>) -> tensor<32x12x18x128xbf16> loc(#loc112)
        %116 = "ttir.dot_general"(%100, %115) <{batch_dims_lhs = array<i64: 0, 1>, batch_dims_rhs = array<i64: 0, 1>, contract_dims_lhs = array<i64: 3>, contract_dims_rhs = array<i64: 2>}> : (tensor<32x12x18x18xbf16>, tensor<32x12x18x128xbf16>) -> tensor<32x12x18x128xbf16> loc(#loc113)
        %117 = "ttir.permute"(%116) <{permutation = array<i64: 0, 2, 1, 3>}> : (tensor<32x12x18x128xbf16>) -> tensor<32x18x12x128xbf16> loc(#loc114)
        %118 = "ttir.reshape"(%117) <{shape = [576 : i32, 1536 : i32]}> : (tensor<32x18x12x128xbf16>) -> tensor<576x1536xbf16> loc(#loc115)
        %119 = "ttir.reshape"(%arg2) <{shape = [1 : i32, 1536 : i32, 1536 : i32]}> : (tensor<1536x1536xbf16>) -> tensor<1x1536x1536xbf16> loc(#loc116)
        %120 = "ttir.reshape"(%119) <{shape = [1536 : i32, 1536 : i32]}> : (tensor<1x1536x1536xbf16>) -> tensor<1536x1536xbf16> loc(#loc117)
        %121 = "ttir.permute"(%120) <{permutation = array<i64: 1, 0>}> : (tensor<1536x1536xbf16>) -> tensor<1536x1536xbf16> loc(#loc118)
        %122 = "ttir.dot_general"(%118, %121) <{batch_dims_lhs = array<i64>, batch_dims_rhs = array<i64>, contract_dims_lhs = array<i64: 1>, contract_dims_rhs = array<i64: 0>}> : (tensor<576x1536xbf16>, tensor<1536x1536xbf16>) -> tensor<576x1536xbf16> loc(#loc119)
        %123 = "ttir.reshape"(%122) <{shape = [32 : i32, 18 : i32, 1536 : i32]}> : (tensor<576x1536xbf16>) -> tensor<32x18x1536xbf16> loc(#loc120)
        %124 = "ttir.add"(%arg5, %123) : (tensor<32x18x1536xbf16>, tensor<32x18x1536xbf16>) -> tensor<32x18x1536xbf16> loc(#loc121)
        %125 = "ttir.reshape"(%arg12) <{shape = [1 : i32, 1 : i32, 1536 : i32]}> : (tensor<1536xbf16>) -> tensor<1x1x1536xbf16> loc(#loc122)
        %126 = "ttir.reshape"(%125) <{shape = [1536 : i32]}> : (tensor<1x1x1536xbf16>) -> tensor<1536xbf16> loc(#loc123)
        %127 = "ttir.reshape"(%126) <{shape = [1 : i32, 1 : i32, 1536 : i32]}> : (tensor<1536xbf16>) -> tensor<1x1x1536xbf16> loc(#loc124)
        %128 = "ttir.broadcast"(%127) <{broadcast_dimensions = array<i64: 32, 18, 1>}> : (tensor<1x1x1536xbf16>) -> tensor<32x18x1536xbf16> loc(#loc124)
        %129 = "ttir.typecast"(%124) <{conservative_folding = false}> : (tensor<32x18x1536xbf16>) -> tensor<32x18x1536xf32> loc(#loc125)
        %130 = "ttir.pow"(%129, %3) : (tensor<32x18x1536xf32>, tensor<32x18x1536xf32>) -> tensor<32x18x1536xf32> loc(#loc126)
        %131 = "ttir.sum"(%130) <{dim_arg = [2 : i32], keep_dim = false}> : (tensor<32x18x1536xf32>) -> tensor<32x18xf32> loc(#loc127)
        %132 = "ttir.multiply"(%131, %2) : (tensor<32x18xf32>, tensor<32x18xf32>) -> tensor<32x18xf32> loc(#loc128)
        %133 = "ttir.reshape"(%132) <{shape = [32 : i32, 18 : i32, 1 : i32]}> : (tensor<32x18xf32>) -> tensor<32x18x1xf32> loc(#loc129)
        %134 = "ttir.add"(%133, %1) : (tensor<32x18x1xf32>, tensor<32x18x1xf32>) -> tensor<32x18x1xf32> loc(#loc130)
        %135 = "ttir.rsqrt"(%134) : (tensor<32x18x1xf32>) -> tensor<32x18x1xf32> loc(#loc131)
        %136 = "ttir.reshape"(%135) <{shape = [32 : i32, 18 : i32]}> : (tensor<32x18x1xf32>) -> tensor<32x18xf32> loc(#loc132)
        %137 = "ttir.reshape"(%136) <{shape = [32 : i32, 18 : i32, 1 : i32]}> : (tensor<32x18xf32>) -> tensor<32x18x1xf32> loc(#loc133)
        %138 = "ttir.broadcast"(%137) <{broadcast_dimensions = array<i64: 1, 1, 1536>}> : (tensor<32x18x1xf32>) -> tensor<32x18x1536xf32> loc(#loc133)
        %139 = "ttir.multiply"(%129, %138) : (tensor<32x18x1536xf32>, tensor<32x18x1536xf32>) -> tensor<32x18x1536xf32> loc(#loc134)
        %140 = "ttir.typecast"(%139) <{conservative_folding = false}> : (tensor<32x18x1536xf32>) -> tensor<32x18x1536xbf16> loc(#loc135)
        %141 = "ttir.multiply"(%128, %140) : (tensor<32x18x1536xbf16>, tensor<32x18x1536xbf16>) -> tensor<32x18x1536xbf16> loc(#loc136)
        %142 = "ttir.reshape"(%141) <{shape = [576 : i32, 1536 : i32]}> : (tensor<32x18x1536xbf16>) -> tensor<576x1536xbf16> loc(#loc137)
        %143 = "ttir.reshape"(%arg13) <{shape = [1 : i32, 8960 : i32, 1536 : i32]}> : (tensor<8960x1536xbf16>) -> tensor<1x8960x1536xbf16> loc(#loc138)
        %144 = "ttir.reshape"(%143) <{shape = [8960 : i32, 1536 : i32]}> : (tensor<1x8960x1536xbf16>) -> tensor<8960x1536xbf16> loc(#loc139)
        %145 = "ttir.permute"(%144) <{permutation = array<i64: 1, 0>}> : (tensor<8960x1536xbf16>) -> tensor<1536x8960xbf16> loc(#loc140)
        %146 = "ttir.dot_general"(%142, %145) <{batch_dims_lhs = array<i64>, batch_dims_rhs = array<i64>, contract_dims_lhs = array<i64: 1>, contract_dims_rhs = array<i64: 0>}> : (tensor<576x1536xbf16>, tensor<1536x8960xbf16>) -> tensor<576x8960xbf16> loc(#loc141)
        %147 = "ttir.reshape"(%146) <{shape = [32 : i32, 18 : i32, 8960 : i32]}> : (tensor<576x8960xbf16>) -> tensor<32x18x8960xbf16> loc(#loc142)
        %148 = "ttir.sigmoid"(%147) : (tensor<32x18x8960xbf16>) -> tensor<32x18x8960xbf16> loc(#loc143)
        %149 = "ttir.multiply"(%147, %148) : (tensor<32x18x8960xbf16>, tensor<32x18x8960xbf16>) -> tensor<32x18x8960xbf16> loc(#loc144)
        %150 = "ttir.reshape"(%arg1) <{shape = [1 : i32, 8960 : i32, 1536 : i32]}> : (tensor<8960x1536xbf16>) -> tensor<1x8960x1536xbf16> loc(#loc145)
        %151 = "ttir.reshape"(%150) <{shape = [8960 : i32, 1536 : i32]}> : (tensor<1x8960x1536xbf16>) -> tensor<8960x1536xbf16> loc(#loc146)
        %152 = "ttir.permute"(%151) <{permutation = array<i64: 1, 0>}> : (tensor<8960x1536xbf16>) -> tensor<1536x8960xbf16> loc(#loc147)
        %153 = "ttir.dot_general"(%142, %152) <{batch_dims_lhs = array<i64>, batch_dims_rhs = array<i64>, contract_dims_lhs = array<i64: 1>, contract_dims_rhs = array<i64: 0>}> : (tensor<576x1536xbf16>, tensor<1536x8960xbf16>) -> tensor<576x8960xbf16> loc(#loc148)
        %154 = "ttir.reshape"(%153) <{shape = [32 : i32, 18 : i32, 8960 : i32]}> : (tensor<576x8960xbf16>) -> tensor<32x18x8960xbf16> loc(#loc149)
        %155 = "ttir.multiply"(%149, %154) : (tensor<32x18x8960xbf16>, tensor<32x18x8960xbf16>) -> tensor<32x18x8960xbf16> loc(#loc150)
        %156 = "ttir.reshape"(%155) <{shape = [576 : i32, 8960 : i32]}> : (tensor<32x18x8960xbf16>) -> tensor<576x8960xbf16> loc(#loc151)
        %157 = "ttir.reshape"(%arg0) <{shape = [1 : i32, 1536 : i32, 8960 : i32]}> : (tensor<1536x8960xbf16>) -> tensor<1x1536x8960xbf16> loc(#loc152)
        %158 = "ttir.reshape"(%157) <{shape = [1536 : i32, 8960 : i32]}> : (tensor<1x1536x8960xbf16>) -> tensor<1536x8960xbf16> loc(#loc153)
        %159 = "ttir.permute"(%158) <{permutation = array<i64: 1, 0>}> : (tensor<1536x8960xbf16>) -> tensor<8960x1536xbf16> loc(#loc154)
        %160 = "ttir.dot_general"(%156, %159) <{batch_dims_lhs = array<i64>, batch_dims_rhs = array<i64>, contract_dims_lhs = array<i64: 1>, contract_dims_rhs = array<i64: 0>}> : (tensor<576x8960xbf16>, tensor<8960x1536xbf16>) -> tensor<576x1536xbf16> loc(#loc155)
        %161 = "ttir.reshape"(%160) <{shape = [32 : i32, 18 : i32, 1536 : i32]}> : (tensor<576x1536xbf16>) -> tensor<32x18x1536xbf16> loc(#loc156)
        %162 = "ttir.add"(%124, %161) : (tensor<32x18x1536xbf16>, tensor<32x18x1536xbf16>) -> tensor<32x18x1536xbf16> loc(#loc157)
        return %162 : tensor<32x18x1536xbf16> loc(#loc)
      } loc(#loc)
    } loc(#loc)
  } loc(#loc)
} loc(#loc)
#loc = loc(unknown)
#loc15 = loc("reshape.66")
#loc16 = loc("reshape.68")
#loc17 = loc("broadcast.69")
#loc18 = loc("convert.36")
#loc19 = loc("power.38")
#loc20 = loc("reduce.45")
#loc21 = loc("multiply.54")
#loc22 = loc("reshape.55")
#loc23 = loc("add.59")
#loc24 = loc("rsqrt.60")
#loc25 = loc("reshape.61")
#loc26 = loc("broadcast.62")
#loc27 = loc("multiply.63")
#loc28 = loc("convert.64")
#loc29 = loc("multiply.70")
#loc30 = loc("reshape.181")
#loc31 = loc("reshape.177")
#loc32 = loc("reshape.179")
#loc33 = loc("transpose.180")
#loc34 = loc("dot.182")
#loc35 = loc("reshape.183")
#loc36 = loc("reshape.173")
#loc37 = loc("reshape.175")
#loc38 = loc("broadcast.186")
#loc39 = loc("add.187")
#loc40 = loc("reshape.188")
#loc41 = loc("transpose.189")
#loc42 = loc("reshape.103")
#loc43 = loc("reshape.108")
#loc44 = loc("convert.109")
#loc45 = loc("reshape.111")
#loc46 = loc("broadcast.112")
#loc47 = loc("broadcast.96")
#loc48 = loc("reshape.98")
#loc49 = loc("convert.100")
#loc50 = loc("dot.114")
#loc51 = loc("transpose.115")
#loc52 = loc("concatenate.116")
#loc53 = loc("cosine.149")
#loc54 = loc("convert.152")
#loc55 = loc("broadcast.198")
#loc56 = loc("multiply.199")
#loc57 = loc("slice.191")
#loc58 = loc("negate.192")
#loc59 = loc("slice.190")
#loc60 = loc("concatenate.193")
#loc61 = loc("sine.117")
#loc62 = loc("convert.120")
#loc63 = loc("broadcast.195")
#loc64 = loc("multiply.196")
#loc65 = loc("add.202")
#loc66 = loc("reshape.128")
#loc67 = loc("reshape.130")
#loc68 = loc("transpose.131")
#loc69 = loc("dot.133")
#loc70 = loc("reshape.134")
#loc71 = loc("reshape.124")
#loc72 = loc("reshape.126")
#loc73 = loc("broadcast.137")
#loc74 = loc("add.138")
#loc75 = loc("reshape.139")
#loc76 = loc("transpose.140")
#loc77 = loc("broadcast.155")
#loc78 = loc("multiply.156")
#loc79 = loc("slice.142")
#loc80 = loc("negate.143")
#loc81 = loc("slice.141")
#loc82 = loc("concatenate.144")
#loc83 = loc("broadcast.146")
#loc84 = loc("multiply.147")
#loc85 = loc("add.159")
#loc86 = loc("broadcast.167")
#loc87 = loc("reshape.168")
#loc88 = loc("transpose.169")
#loc89 = loc("dot.203")
#loc90 = loc("multiply.206")
#loc91 = loc("convert.207")
#loc92 = loc("reduce.213")
#loc93 = loc("broadcast.214")
#loc94 = loc("subtract.215")
#loc95 = loc("exponential.216")
#loc96 = loc("reduce.222")
#loc97 = loc("broadcast.223")
#loc98 = loc("divide.224")
#loc99 = loc("convert.225")
#loc100 = loc("reshape.27")
#loc101 = loc("reshape.29")
#loc102 = loc("transpose.30")
#loc103 = loc("dot.72")
#loc104 = loc("reshape.73")
#loc105 = loc("reshape.23")
#loc106 = loc("reshape.25")
#loc107 = loc("broadcast.76")
#loc108 = loc("add.77")
#loc109 = loc("reshape.78")
#loc110 = loc("transpose.79")
#loc111 = loc("broadcast.87")
#loc112 = loc("reshape.88")
#loc113 = loc("dot.226")
#loc114 = loc("transpose.228")
#loc115 = loc("reshape.230")
#loc116 = loc("reshape.17")
#loc117 = loc("reshape.19")
#loc118 = loc("transpose.20")
#loc119 = loc("dot.231")
#loc120 = loc("reshape.232")
#loc121 = loc("add.235")
#loc122 = loc("reshape.266")
#loc123 = loc("reshape.268")
#loc124 = loc("broadcast.269")
#loc125 = loc("convert.236")
#loc126 = loc("power.238")
#loc127 = loc("reduce.245")
#loc128 = loc("multiply.254")
#loc129 = loc("reshape.255")
#loc130 = loc("add.259")
#loc131 = loc("rsqrt.260")
#loc132 = loc("reshape.261")
#loc133 = loc("broadcast.262")
#loc134 = loc("multiply.263")
#loc135 = loc("convert.264")
#loc136 = loc("multiply.270")
#loc137 = loc("reshape.279")
#loc138 = loc("reshape.275")
#loc139 = loc("reshape.277")
#loc140 = loc("transpose.278")
#loc141 = loc("dot.280")
#loc142 = loc("reshape.281")
#loc143 = loc("logistic.282")
#loc144 = loc("multiply.283")
#loc145 = loc("reshape.8")
#loc146 = loc("reshape.10")
#loc147 = loc("transpose.11")
#loc148 = loc("dot.272")
#loc149 = loc("reshape.273")
#loc150 = loc("multiply.284")
#loc151 = loc("reshape.285")
#loc152 = loc("reshape.3")
#loc153 = loc("reshape.5")
#loc154 = loc("transpose.6")
#loc155 = loc("dot.286")
#loc156 = loc("reshape.287")
#loc157 = loc("add.290")
