#loc1 = loc("p0.2")
#loc2 = loc("p1.7")
#loc3 = loc("p2.16")
#loc4 = loc("p3.21")
#loc5 = loc("p4.29")
#loc6 = loc("p5.60")
#loc7 = loc("p6.93")
#loc8 = loc("p7.116")
#loc9 = loc("p8.154")
#loc10 = loc("p9.194")
#loc11 = loc("p10.232")
#loc12 = loc("p11.314")
#loc13 = loc("p12.323")
module @SyncTensorsGraph.341 attributes {mhlo.cross_program_prefetches = [], mhlo.input_output_alias = [], mhlo.is_dynamic = false, mhlo.use_auto_spmd_partitioning = false, ttcore.meshes = #ttcore.meshes<[<"mesh" = 1x1>]>} {
  ttcore.device_module {
    builtin.module @SyncTensorsGraph.341 attributes {mhlo.cross_program_prefetches = [], mhlo.input_output_alias = [], mhlo.is_dynamic = false, mhlo.use_auto_spmd_partitioning = false, ttcore.meshes = #ttcore.meshes<[<"mesh" = 1x1>]>} {
      func.func @main(%arg0: tensor<2560x9728xbf16> {ttcore.argument_type = #ttcore.argument_type<parameter>, ttcore.shard_status = #ttcore.shard_status<unsharded>, ttir.name = "l__self___layer_mlp_down_proj_weight"} loc("p0.2"), %arg1: tensor<9728x2560xbf16> {ttcore.argument_type = #ttcore.argument_type<parameter>, ttcore.shard_status = #ttcore.shard_status<unsharded>, ttir.name = "l__self___layer_mlp_up_proj_weight"} loc("p1.7"), %arg2: tensor<2560x4096xbf16> {ttcore.argument_type = #ttcore.argument_type<parameter>, ttcore.shard_status = #ttcore.shard_status<unsharded>, ttir.name = "l__self___layer_self_attn_o_proj_weight"} loc("p2.16"), %arg3: tensor<1024x2560xbf16> {ttcore.argument_type = #ttcore.argument_type<parameter>, ttcore.shard_status = #ttcore.shard_status<unsharded>, ttir.name = "l__self___layer_self_attn_v_proj_weight"} loc("p3.21"), %arg4: tensor<32x18x2560xbf16> {ttcore.argument_type = #ttcore.argument_type<input>, ttcore.shard_status = #ttcore.shard_status<unsharded>, ttir.name = "args_0"} loc("p4.29"), %arg5: tensor<2560xbf16> {ttcore.argument_type = #ttcore.argument_type<parameter>, ttcore.shard_status = #ttcore.shard_status<unsharded>, ttir.name = "l__self___layer_input_layernorm_weight"} loc("p5.60"), %arg6: tensor<64xbf16> {ttcore.argument_type = #ttcore.argument_type<constant>, ttcore.shard_status = #ttcore.shard_status<unsharded>, ttir.name = "l__self___rotary_emb_inv_freq"} loc("p6.93"), %arg7: tensor<1024x2560xbf16> {ttcore.argument_type = #ttcore.argument_type<parameter>, ttcore.shard_status = #ttcore.shard_status<unsharded>, ttir.name = "l__self___layer_self_attn_k_proj_weight"} loc("p7.116"), %arg8: tensor<128xbf16> {ttcore.argument_type = #ttcore.argument_type<parameter>, ttcore.shard_status = #ttcore.shard_status<unsharded>, ttir.name = "l__self___layer_self_attn_k_norm_weight"} loc("p8.154"), %arg9: tensor<4096x2560xbf16> {ttcore.argument_type = #ttcore.argument_type<parameter>, ttcore.shard_status = #ttcore.shard_status<unsharded>, ttir.name = "l__self___layer_self_attn_q_proj_weight"} loc("p9.194"), %arg10: tensor<128xbf16> {ttcore.argument_type = #ttcore.argument_type<parameter>, ttcore.shard_status = #ttcore.shard_status<unsharded>, ttir.name = "l__self___layer_self_attn_q_norm_weight"} loc("p10.232"), %arg11: tensor<2560xbf16> {ttcore.argument_type = #ttcore.argument_type<parameter>, ttcore.shard_status = #ttcore.shard_status<unsharded>, ttir.name = "l__self___layer_post_attention_layernorm_weight"} loc("p11.314"), %arg12: tensor<9728x2560xbf16> {ttcore.argument_type = #ttcore.argument_type<parameter>, ttcore.shard_status = #ttcore.shard_status<unsharded>, ttir.name = "l__self___layer_mlp_gate_proj_weight"} loc("p12.323")) -> (tensor<32x18x2560xbf16> {ttcore.shard_status = #ttcore.shard_status<unsharded>}) {
        %0 = "ttir.constant"() <{value = dense<8.837890e-02> : tensor<32x32x18x18xbf16>}> : () -> tensor<32x32x18x18xbf16> loc(#loc)
        %1 = "ttir.constant"() <{value = dense<9.99999997E-7> : tensor<32x18x8x1xf32>}> : () -> tensor<32x18x8x1xf32> loc(#loc)
        %2 = "ttir.constant"() <{value = dense<7.812500e-03> : tensor<32x18x8xf32>}> : () -> tensor<32x18x8xf32> loc(#loc)
        %3 = "ttir.constant"() <{value = dense<2.000000e+00> : tensor<32x18x8x128xf32>}> : () -> tensor<32x18x8x128xf32> loc(#loc)
        %4 = "ttir.constant"() <{value = dense<9.99999997E-7> : tensor<32x18x32x1xf32>}> : () -> tensor<32x18x32x1xf32> loc(#loc)
        %5 = "ttir.constant"() <{value = dense<7.812500e-03> : tensor<32x18x32xf32>}> : () -> tensor<32x18x32xf32> loc(#loc)
        %6 = "ttir.constant"() <{value = dense<2.000000e+00> : tensor<32x18x32x128xf32>}> : () -> tensor<32x18x32x128xf32> loc(#loc)
        %7 = "ttir.constant"() <{value = dense<9.99999997E-7> : tensor<32x18x1xf32>}> : () -> tensor<32x18x1xf32> loc(#loc)
        %8 = "ttir.constant"() <{value = dense<3.906250e-04> : tensor<32x18xf32>}> : () -> tensor<32x18xf32> loc(#loc)
        %9 = "ttir.constant"() <{value = dense<2.000000e+00> : tensor<32x18x2560xf32>}> : () -> tensor<32x18x2560xf32> loc(#loc)
        %10 = "ttir.constant"() <{value = dense<[0, 1, 2, 3, 4, 5, 6, 7, 8, 9, 10, 11, 12, 13, 14, 15, 16, 17]> : tensor<18xi64>}> : () -> tensor<18xi64> loc(#loc)
        %11 = "ttir.reshape"(%arg10) <{shape = [1 : i32, 1 : i32, 128 : i32]}> : (tensor<128xbf16>) -> tensor<1x1x128xbf16> loc(#loc14)
        %12 = "ttir.reshape"(%11) <{shape = [128 : i32]}> : (tensor<1x1x128xbf16>) -> tensor<128xbf16> loc(#loc15)
        %13 = "ttir.reshape"(%12) <{shape = [1 : i32, 1 : i32, 1 : i32, 128 : i32]}> : (tensor<128xbf16>) -> tensor<1x1x1x128xbf16> loc(#loc16)
        %14 = "ttir.broadcast"(%13) <{broadcast_dimensions = array<i64: 32, 18, 32, 1>}> : (tensor<1x1x1x128xbf16>) -> tensor<32x18x32x128xbf16> loc(#loc16)
        %15 = "ttir.reshape"(%arg5) <{shape = [1 : i32, 1 : i32, 2560 : i32]}> : (tensor<2560xbf16>) -> tensor<1x1x2560xbf16> loc(#loc17)
        %16 = "ttir.reshape"(%15) <{shape = [2560 : i32]}> : (tensor<1x1x2560xbf16>) -> tensor<2560xbf16> loc(#loc18)
        %17 = "ttir.reshape"(%16) <{shape = [1 : i32, 1 : i32, 2560 : i32]}> : (tensor<2560xbf16>) -> tensor<1x1x2560xbf16> loc(#loc19)
        %18 = "ttir.broadcast"(%17) <{broadcast_dimensions = array<i64: 32, 18, 1>}> : (tensor<1x1x2560xbf16>) -> tensor<32x18x2560xbf16> loc(#loc19)
        %19 = "ttir.typecast"(%arg4) <{conservative_folding = false}> : (tensor<32x18x2560xbf16>) -> tensor<32x18x2560xf32> loc(#loc20)
        %20 = "ttir.pow"(%19, %9) : (tensor<32x18x2560xf32>, tensor<32x18x2560xf32>) -> tensor<32x18x2560xf32> loc(#loc21)
        %21 = "ttir.sum"(%20) <{dim_arg = [2 : i32], keep_dim = false}> : (tensor<32x18x2560xf32>) -> tensor<32x18xf32> loc(#loc22)
        %22 = "ttir.multiply"(%21, %8) : (tensor<32x18xf32>, tensor<32x18xf32>) -> tensor<32x18xf32> loc(#loc23)
        %23 = "ttir.reshape"(%22) <{shape = [32 : i32, 18 : i32, 1 : i32]}> : (tensor<32x18xf32>) -> tensor<32x18x1xf32> loc(#loc24)
        %24 = "ttir.add"(%23, %7) : (tensor<32x18x1xf32>, tensor<32x18x1xf32>) -> tensor<32x18x1xf32> loc(#loc25)
        %25 = "ttir.rsqrt"(%24) : (tensor<32x18x1xf32>) -> tensor<32x18x1xf32> loc(#loc26)
        %26 = "ttir.reshape"(%25) <{shape = [32 : i32, 18 : i32]}> : (tensor<32x18x1xf32>) -> tensor<32x18xf32> loc(#loc27)
        %27 = "ttir.reshape"(%26) <{shape = [32 : i32, 18 : i32, 1 : i32]}> : (tensor<32x18xf32>) -> tensor<32x18x1xf32> loc(#loc28)
        %28 = "ttir.broadcast"(%27) <{broadcast_dimensions = array<i64: 1, 1, 2560>}> : (tensor<32x18x1xf32>) -> tensor<32x18x2560xf32> loc(#loc28)
        %29 = "ttir.multiply"(%19, %28) : (tensor<32x18x2560xf32>, tensor<32x18x2560xf32>) -> tensor<32x18x2560xf32> loc(#loc29)
        %30 = "ttir.typecast"(%29) <{conservative_folding = false}> : (tensor<32x18x2560xf32>) -> tensor<32x18x2560xbf16> loc(#loc30)
        %31 = "ttir.multiply"(%18, %30) : (tensor<32x18x2560xbf16>, tensor<32x18x2560xbf16>) -> tensor<32x18x2560xbf16> loc(#loc31)
        %32 = "ttir.reshape"(%31) <{shape = [576 : i32, 2560 : i32]}> : (tensor<32x18x2560xbf16>) -> tensor<576x2560xbf16> loc(#loc32)
        %33 = "ttir.reshape"(%arg9) <{shape = [1 : i32, 4096 : i32, 2560 : i32]}> : (tensor<4096x2560xbf16>) -> tensor<1x4096x2560xbf16> loc(#loc33)
        %34 = "ttir.reshape"(%33) <{shape = [4096 : i32, 2560 : i32]}> : (tensor<1x4096x2560xbf16>) -> tensor<4096x2560xbf16> loc(#loc34)
        %35 = "ttir.permute"(%34) <{permutation = array<i64: 1, 0>}> : (tensor<4096x2560xbf16>) -> tensor<2560x4096xbf16> loc(#loc35)
        %36 = "ttir.dot_general"(%32, %35) <{batch_dims_lhs = array<i64>, batch_dims_rhs = array<i64>, contract_dims_lhs = array<i64: 1>, contract_dims_rhs = array<i64: 0>}> : (tensor<576x2560xbf16>, tensor<2560x4096xbf16>) -> tensor<576x4096xbf16> loc(#loc36)
        %37 = "ttir.reshape"(%36) <{shape = [32 : i32, 18 : i32, 32 : i32, 128 : i32]}> : (tensor<576x4096xbf16>) -> tensor<32x18x32x128xbf16> loc(#loc37)
        %38 = "ttir.typecast"(%37) <{conservative_folding = false}> : (tensor<32x18x32x128xbf16>) -> tensor<32x18x32x128xf32> loc(#loc38)
        %39 = "ttir.pow"(%38, %6) : (tensor<32x18x32x128xf32>, tensor<32x18x32x128xf32>) -> tensor<32x18x32x128xf32> loc(#loc39)
        %40 = "ttir.sum"(%39) <{dim_arg = [3 : i32], keep_dim = false}> : (tensor<32x18x32x128xf32>) -> tensor<32x18x32xf32> loc(#loc40)
        %41 = "ttir.multiply"(%40, %5) : (tensor<32x18x32xf32>, tensor<32x18x32xf32>) -> tensor<32x18x32xf32> loc(#loc41)
        %42 = "ttir.reshape"(%41) <{shape = [32 : i32, 18 : i32, 32 : i32, 1 : i32]}> : (tensor<32x18x32xf32>) -> tensor<32x18x32x1xf32> loc(#loc42)
        %43 = "ttir.add"(%42, %4) : (tensor<32x18x32x1xf32>, tensor<32x18x32x1xf32>) -> tensor<32x18x32x1xf32> loc(#loc43)
        %44 = "ttir.rsqrt"(%43) : (tensor<32x18x32x1xf32>) -> tensor<32x18x32x1xf32> loc(#loc44)
        %45 = "ttir.reshape"(%44) <{shape = [32 : i32, 18 : i32, 32 : i32]}> : (tensor<32x18x32x1xf32>) -> tensor<32x18x32xf32> loc(#loc45)
        %46 = "ttir.reshape"(%45) <{shape = [32 : i32, 18 : i32, 32 : i32, 1 : i32]}> : (tensor<32x18x32xf32>) -> tensor<32x18x32x1xf32> loc(#loc46)
        %47 = "ttir.broadcast"(%46) <{broadcast_dimensions = array<i64: 1, 1, 1, 128>}> : (tensor<32x18x32x1xf32>) -> tensor<32x18x32x128xf32> loc(#loc46)
        %48 = "ttir.multiply"(%38, %47) : (tensor<32x18x32x128xf32>, tensor<32x18x32x128xf32>) -> tensor<32x18x32x128xf32> loc(#loc47)
        %49 = "ttir.typecast"(%48) <{conservative_folding = false}> : (tensor<32x18x32x128xf32>) -> tensor<32x18x32x128xbf16> loc(#loc48)
        %50 = "ttir.multiply"(%14, %49) : (tensor<32x18x32x128xbf16>, tensor<32x18x32x128xbf16>) -> tensor<32x18x32x128xbf16> loc(#loc49)
        %51 = "ttir.permute"(%50) <{permutation = array<i64: 0, 2, 1, 3>}> : (tensor<32x18x32x128xbf16>) -> tensor<32x32x18x128xbf16> loc(#loc50)
        %52 = "ttir.reshape"(%arg6) <{shape = [1 : i32, 1 : i32, 64 : i32]}> : (tensor<64xbf16>) -> tensor<1x1x64xbf16> loc(#loc51)
        %53 = "ttir.reshape"(%52) <{shape = [1 : i32, 64 : i32, 1 : i32]}> : (tensor<1x1x64xbf16>) -> tensor<1x64x1xbf16> loc(#loc52)
        %54 = "ttir.typecast"(%53) <{conservative_folding = false}> : (tensor<1x64x1xbf16>) -> tensor<1x64x1xf32> loc(#loc53)
        %55 = "ttir.reshape"(%54) <{shape = [64 : i32, 1 : i32]}> : (tensor<1x64x1xf32>) -> tensor<64x1xf32> loc(#loc54)
        %56 = "ttir.reshape"(%55) <{shape = [1 : i32, 64 : i32, 1 : i32]}> : (tensor<64x1xf32>) -> tensor<1x64x1xf32> loc(#loc55)
        %57 = "ttir.broadcast"(%56) <{broadcast_dimensions = array<i64: 32, 1, 1>}> : (tensor<1x64x1xf32>) -> tensor<32x64x1xf32> loc(#loc55)
        %58 = "ttir.reshape"(%10) <{shape = [1 : i32, 18 : i32]}> : (tensor<18xi64>) -> tensor<1x18xi64> loc(#loc56)
        %59 = "ttir.broadcast"(%58) <{broadcast_dimensions = array<i64: 32, 1>}> : (tensor<1x18xi64>) -> tensor<32x18xi64> loc(#loc56)
        %60 = "ttir.reshape"(%59) <{shape = [32 : i32, 1 : i32, 18 : i32]}> : (tensor<32x18xi64>) -> tensor<32x1x18xi64> loc(#loc57)
        %61 = "ttir.typecast"(%60) <{conservative_folding = false}> : (tensor<32x1x18xi64>) -> tensor<32x1x18xf32> loc(#loc58)
        %62 = "ttir.dot_general"(%57, %61) <{batch_dims_lhs = array<i64: 0>, batch_dims_rhs = array<i64: 0>, contract_dims_lhs = array<i64: 2>, contract_dims_rhs = array<i64: 1>}> : (tensor<32x64x1xf32>, tensor<32x1x18xf32>) -> tensor<32x64x18xf32> loc(#loc59)
        %63 = "ttir.permute"(%62) <{permutation = array<i64: 0, 2, 1>}> : (tensor<32x64x18xf32>) -> tensor<32x18x64xf32> loc(#loc60)
        %64 = "ttir.concat"(%63, %63) <{dim = 2 : si32}> : (tensor<32x18x64xf32>, tensor<32x18x64xf32>) -> tensor<32x18x128xf32> loc(#loc61)
        %65 = "ttir.cos"(%64) : (tensor<32x18x128xf32>) -> tensor<32x18x128xf32> loc(#loc62)
        %66 = "ttir.typecast"(%65) <{conservative_folding = false}> : (tensor<32x18x128xf32>) -> tensor<32x18x128xbf16> loc(#loc63)
        %67 = "ttir.reshape"(%66) <{shape = [32 : i32, 1 : i32, 18 : i32, 128 : i32]}> : (tensor<32x18x128xbf16>) -> tensor<32x1x18x128xbf16> loc(#loc64)
        %68 = "ttir.broadcast"(%67) <{broadcast_dimensions = array<i64: 1, 32, 1, 1>}> : (tensor<32x1x18x128xbf16>) -> tensor<32x32x18x128xbf16> loc(#loc64)
        %69 = "ttir.multiply"(%51, %68) : (tensor<32x32x18x128xbf16>, tensor<32x32x18x128xbf16>) -> tensor<32x32x18x128xbf16> loc(#loc65)
        %70 = "ttir.slice_static"(%51) <{begins = [0 : i32, 0 : i32, 0 : i32, 64 : i32], ends = [32 : i32, 32 : i32, 18 : i32, 128 : i32], step = [1 : i32, 1 : i32, 1 : i32, 1 : i32]}> : (tensor<32x32x18x128xbf16>) -> tensor<32x32x18x64xbf16> loc(#loc66)
        %71 = "ttir.neg"(%70) : (tensor<32x32x18x64xbf16>) -> tensor<32x32x18x64xbf16> loc(#loc67)
        %72 = "ttir.slice_static"(%51) <{begins = [0 : i32, 0 : i32, 0 : i32, 0 : i32], ends = [32 : i32, 32 : i32, 18 : i32, 64 : i32], step = [1 : i32, 1 : i32, 1 : i32, 1 : i32]}> : (tensor<32x32x18x128xbf16>) -> tensor<32x32x18x64xbf16> loc(#loc68)
        %73 = "ttir.concat"(%71, %72) <{dim = 3 : si32}> : (tensor<32x32x18x64xbf16>, tensor<32x32x18x64xbf16>) -> tensor<32x32x18x128xbf16> loc(#loc69)
        %74 = "ttir.sin"(%64) : (tensor<32x18x128xf32>) -> tensor<32x18x128xf32> loc(#loc70)
        %75 = "ttir.typecast"(%74) <{conservative_folding = false}> : (tensor<32x18x128xf32>) -> tensor<32x18x128xbf16> loc(#loc71)
        %76 = "ttir.reshape"(%75) <{shape = [32 : i32, 1 : i32, 18 : i32, 128 : i32]}> : (tensor<32x18x128xbf16>) -> tensor<32x1x18x128xbf16> loc(#loc72)
        %77 = "ttir.broadcast"(%76) <{broadcast_dimensions = array<i64: 1, 32, 1, 1>}> : (tensor<32x1x18x128xbf16>) -> tensor<32x32x18x128xbf16> loc(#loc72)
        %78 = "ttir.multiply"(%73, %77) : (tensor<32x32x18x128xbf16>, tensor<32x32x18x128xbf16>) -> tensor<32x32x18x128xbf16> loc(#loc73)
        %79 = "ttir.add"(%69, %78) : (tensor<32x32x18x128xbf16>, tensor<32x32x18x128xbf16>) -> tensor<32x32x18x128xbf16> loc(#loc74)
        %80 = "ttir.reshape"(%arg8) <{shape = [1 : i32, 1 : i32, 128 : i32]}> : (tensor<128xbf16>) -> tensor<1x1x128xbf16> loc(#loc75)
        %81 = "ttir.reshape"(%80) <{shape = [128 : i32]}> : (tensor<1x1x128xbf16>) -> tensor<128xbf16> loc(#loc76)
        %82 = "ttir.reshape"(%81) <{shape = [1 : i32, 1 : i32, 1 : i32, 128 : i32]}> : (tensor<128xbf16>) -> tensor<1x1x1x128xbf16> loc(#loc77)
        %83 = "ttir.broadcast"(%82) <{broadcast_dimensions = array<i64: 32, 18, 8, 1>}> : (tensor<1x1x1x128xbf16>) -> tensor<32x18x8x128xbf16> loc(#loc77)
        %84 = "ttir.reshape"(%arg7) <{shape = [1 : i32, 1024 : i32, 2560 : i32]}> : (tensor<1024x2560xbf16>) -> tensor<1x1024x2560xbf16> loc(#loc78)
        %85 = "ttir.reshape"(%84) <{shape = [1024 : i32, 2560 : i32]}> : (tensor<1x1024x2560xbf16>) -> tensor<1024x2560xbf16> loc(#loc79)
        %86 = "ttir.permute"(%85) <{permutation = array<i64: 1, 0>}> : (tensor<1024x2560xbf16>) -> tensor<2560x1024xbf16> loc(#loc80)
        %87 = "ttir.dot_general"(%32, %86) <{batch_dims_lhs = array<i64>, batch_dims_rhs = array<i64>, contract_dims_lhs = array<i64: 1>, contract_dims_rhs = array<i64: 0>}> : (tensor<576x2560xbf16>, tensor<2560x1024xbf16>) -> tensor<576x1024xbf16> loc(#loc81)
        %88 = "ttir.reshape"(%87) <{shape = [32 : i32, 18 : i32, 8 : i32, 128 : i32]}> : (tensor<576x1024xbf16>) -> tensor<32x18x8x128xbf16> loc(#loc82)
        %89 = "ttir.typecast"(%88) <{conservative_folding = false}> : (tensor<32x18x8x128xbf16>) -> tensor<32x18x8x128xf32> loc(#loc83)
        %90 = "ttir.pow"(%89, %3) : (tensor<32x18x8x128xf32>, tensor<32x18x8x128xf32>) -> tensor<32x18x8x128xf32> loc(#loc84)
        %91 = "ttir.sum"(%90) <{dim_arg = [3 : i32], keep_dim = false}> : (tensor<32x18x8x128xf32>) -> tensor<32x18x8xf32> loc(#loc85)
        %92 = "ttir.multiply"(%91, %2) : (tensor<32x18x8xf32>, tensor<32x18x8xf32>) -> tensor<32x18x8xf32> loc(#loc86)
        %93 = "ttir.reshape"(%92) <{shape = [32 : i32, 18 : i32, 8 : i32, 1 : i32]}> : (tensor<32x18x8xf32>) -> tensor<32x18x8x1xf32> loc(#loc87)
        %94 = "ttir.add"(%93, %1) : (tensor<32x18x8x1xf32>, tensor<32x18x8x1xf32>) -> tensor<32x18x8x1xf32> loc(#loc88)
        %95 = "ttir.rsqrt"(%94) : (tensor<32x18x8x1xf32>) -> tensor<32x18x8x1xf32> loc(#loc89)
        %96 = "ttir.reshape"(%95) <{shape = [32 : i32, 18 : i32, 8 : i32]}> : (tensor<32x18x8x1xf32>) -> tensor<32x18x8xf32> loc(#loc90)
        %97 = "ttir.reshape"(%96) <{shape = [32 : i32, 18 : i32, 8 : i32, 1 : i32]}> : (tensor<32x18x8xf32>) -> tensor<32x18x8x1xf32> loc(#loc91)
        %98 = "ttir.broadcast"(%97) <{broadcast_dimensions = array<i64: 1, 1, 1, 128>}> : (tensor<32x18x8x1xf32>) -> tensor<32x18x8x128xf32> loc(#loc91)
        %99 = "ttir.multiply"(%89, %98) : (tensor<32x18x8x128xf32>, tensor<32x18x8x128xf32>) -> tensor<32x18x8x128xf32> loc(#loc92)
        %100 = "ttir.typecast"(%99) <{conservative_folding = false}> : (tensor<32x18x8x128xf32>) -> tensor<32x18x8x128xbf16> loc(#loc93)
        %101 = "ttir.multiply"(%83, %100) : (tensor<32x18x8x128xbf16>, tensor<32x18x8x128xbf16>) -> tensor<32x18x8x128xbf16> loc(#loc94)
        %102 = "ttir.permute"(%101) <{permutation = array<i64: 0, 2, 1, 3>}> : (tensor<32x18x8x128xbf16>) -> tensor<32x8x18x128xbf16> loc(#loc95)
        %103 = "ttir.broadcast"(%67) <{broadcast_dimensions = array<i64: 1, 8, 1, 1>}> : (tensor<32x1x18x128xbf16>) -> tensor<32x8x18x128xbf16> loc(#loc96)
        %104 = "ttir.multiply"(%102, %103) : (tensor<32x8x18x128xbf16>, tensor<32x8x18x128xbf16>) -> tensor<32x8x18x128xbf16> loc(#loc97)
        %105 = "ttir.slice_static"(%102) <{begins = [0 : i32, 0 : i32, 0 : i32, 64 : i32], ends = [32 : i32, 8 : i32, 18 : i32, 128 : i32], step = [1 : i32, 1 : i32, 1 : i32, 1 : i32]}> : (tensor<32x8x18x128xbf16>) -> tensor<32x8x18x64xbf16> loc(#loc98)
        %106 = "ttir.neg"(%105) : (tensor<32x8x18x64xbf16>) -> tensor<32x8x18x64xbf16> loc(#loc99)
        %107 = "ttir.slice_static"(%102) <{begins = [0 : i32, 0 : i32, 0 : i32, 0 : i32], ends = [32 : i32, 8 : i32, 18 : i32, 64 : i32], step = [1 : i32, 1 : i32, 1 : i32, 1 : i32]}> : (tensor<32x8x18x128xbf16>) -> tensor<32x8x18x64xbf16> loc(#loc100)
        %108 = "ttir.concat"(%106, %107) <{dim = 3 : si32}> : (tensor<32x8x18x64xbf16>, tensor<32x8x18x64xbf16>) -> tensor<32x8x18x128xbf16> loc(#loc101)
        %109 = "ttir.broadcast"(%76) <{broadcast_dimensions = array<i64: 1, 8, 1, 1>}> : (tensor<32x1x18x128xbf16>) -> tensor<32x8x18x128xbf16> loc(#loc102)
        %110 = "ttir.multiply"(%108, %109) : (tensor<32x8x18x128xbf16>, tensor<32x8x18x128xbf16>) -> tensor<32x8x18x128xbf16> loc(#loc103)
        %111 = "ttir.add"(%104, %110) : (tensor<32x8x18x128xbf16>, tensor<32x8x18x128xbf16>) -> tensor<32x8x18x128xbf16> loc(#loc104)
        %112 = "ttir.reshape"(%111) <{shape = [32 : i32, 8 : i32, 1 : i32, 18 : i32, 128 : i32]}> : (tensor<32x8x18x128xbf16>) -> tensor<32x8x1x18x128xbf16> loc(#loc105)
        %113 = "ttir.broadcast"(%112) <{broadcast_dimensions = array<i64: 1, 1, 4, 1, 1>}> : (tensor<32x8x1x18x128xbf16>) -> tensor<32x8x4x18x128xbf16> loc(#loc105)
        %114 = "ttir.reshape"(%113) <{shape = [32 : i32, 32 : i32, 18 : i32, 128 : i32]}> : (tensor<32x8x4x18x128xbf16>) -> tensor<32x32x18x128xbf16> loc(#loc106)
        %115 = "ttir.permute"(%114) <{permutation = array<i64: 0, 1, 3, 2>}> : (tensor<32x32x18x128xbf16>) -> tensor<32x32x128x18xbf16> loc(#loc107)
        %116 = "ttir.dot_general"(%79, %115) <{batch_dims_lhs = array<i64: 0, 1>, batch_dims_rhs = array<i64: 0, 1>, contract_dims_lhs = array<i64: 3>, contract_dims_rhs = array<i64: 2>}> : (tensor<32x32x18x128xbf16>, tensor<32x32x128x18xbf16>) -> tensor<32x32x18x18xbf16> loc(#loc108)
        %117 = "ttir.multiply"(%116, %0) : (tensor<32x32x18x18xbf16>, tensor<32x32x18x18xbf16>) -> tensor<32x32x18x18xbf16> loc(#loc109)
        %118 = "ttir.typecast"(%117) <{conservative_folding = false}> : (tensor<32x32x18x18xbf16>) -> tensor<32x32x18x18xf32> loc(#loc110)
        %119 = "ttir.max"(%118) <{dim_arg = [3 : i32], keep_dim = false}> : (tensor<32x32x18x18xf32>) -> tensor<32x32x18xf32> loc(#loc111)
        %120 = "ttir.reshape"(%119) <{shape = [32 : i32, 32 : i32, 18 : i32, 1 : i32]}> : (tensor<32x32x18xf32>) -> tensor<32x32x18x1xf32> loc(#loc112)
        %121 = "ttir.broadcast"(%120) <{broadcast_dimensions = array<i64: 1, 1, 1, 18>}> : (tensor<32x32x18x1xf32>) -> tensor<32x32x18x18xf32> loc(#loc112)
        %122 = "ttir.subtract"(%118, %121) : (tensor<32x32x18x18xf32>, tensor<32x32x18x18xf32>) -> tensor<32x32x18x18xf32> loc(#loc113)
        %123 = "ttir.exp"(%122) : (tensor<32x32x18x18xf32>) -> tensor<32x32x18x18xf32> loc(#loc114)
        %124 = "ttir.sum"(%123) <{dim_arg = [3 : i32], keep_dim = false}> : (tensor<32x32x18x18xf32>) -> tensor<32x32x18xf32> loc(#loc115)
        %125 = "ttir.reshape"(%124) <{shape = [32 : i32, 32 : i32, 18 : i32, 1 : i32]}> : (tensor<32x32x18xf32>) -> tensor<32x32x18x1xf32> loc(#loc116)
        %126 = "ttir.broadcast"(%125) <{broadcast_dimensions = array<i64: 1, 1, 1, 18>}> : (tensor<32x32x18x1xf32>) -> tensor<32x32x18x18xf32> loc(#loc116)
        %127 = "ttir.div"(%123, %126) : (tensor<32x32x18x18xf32>, tensor<32x32x18x18xf32>) -> tensor<32x32x18x18xf32> loc(#loc117)
        %128 = "ttir.typecast"(%127) <{conservative_folding = false}> : (tensor<32x32x18x18xf32>) -> tensor<32x32x18x18xbf16> loc(#loc118)
        %129 = "ttir.reshape"(%arg3) <{shape = [1 : i32, 1024 : i32, 2560 : i32]}> : (tensor<1024x2560xbf16>) -> tensor<1x1024x2560xbf16> loc(#loc119)
        %130 = "ttir.reshape"(%129) <{shape = [1024 : i32, 2560 : i32]}> : (tensor<1x1024x2560xbf16>) -> tensor<1024x2560xbf16> loc(#loc120)
        %131 = "ttir.permute"(%130) <{permutation = array<i64: 1, 0>}> : (tensor<1024x2560xbf16>) -> tensor<2560x1024xbf16> loc(#loc121)
        %132 = "ttir.dot_general"(%32, %131) <{batch_dims_lhs = array<i64>, batch_dims_rhs = array<i64>, contract_dims_lhs = array<i64: 1>, contract_dims_rhs = array<i64: 0>}> : (tensor<576x2560xbf16>, tensor<2560x1024xbf16>) -> tensor<576x1024xbf16> loc(#loc122)
        %133 = "ttir.reshape"(%132) <{shape = [32 : i32, 18 : i32, 8 : i32, 128 : i32]}> : (tensor<576x1024xbf16>) -> tensor<32x18x8x128xbf16> loc(#loc123)
        %134 = "ttir.permute"(%133) <{permutation = array<i64: 0, 2, 1, 3>}> : (tensor<32x18x8x128xbf16>) -> tensor<32x8x18x128xbf16> loc(#loc124)
        %135 = "ttir.reshape"(%134) <{shape = [32 : i32, 8 : i32, 1 : i32, 18 : i32, 128 : i32]}> : (tensor<32x8x18x128xbf16>) -> tensor<32x8x1x18x128xbf16> loc(#loc125)
        %136 = "ttir.broadcast"(%135) <{broadcast_dimensions = array<i64: 1, 1, 4, 1, 1>}> : (tensor<32x8x1x18x128xbf16>) -> tensor<32x8x4x18x128xbf16> loc(#loc125)
        %137 = "ttir.reshape"(%136) <{shape = [32 : i32, 32 : i32, 18 : i32, 128 : i32]}> : (tensor<32x8x4x18x128xbf16>) -> tensor<32x32x18x128xbf16> loc(#loc126)
        %138 = "ttir.dot_general"(%128, %137) <{batch_dims_lhs = array<i64: 0, 1>, batch_dims_rhs = array<i64: 0, 1>, contract_dims_lhs = array<i64: 3>, contract_dims_rhs = array<i64: 2>}> : (tensor<32x32x18x18xbf16>, tensor<32x32x18x128xbf16>) -> tensor<32x32x18x128xbf16> loc(#loc127)
        %139 = "ttir.permute"(%138) <{permutation = array<i64: 0, 2, 1, 3>}> : (tensor<32x32x18x128xbf16>) -> tensor<32x18x32x128xbf16> loc(#loc128)
        %140 = "ttir.reshape"(%139) <{shape = [576 : i32, 4096 : i32]}> : (tensor<32x18x32x128xbf16>) -> tensor<576x4096xbf16> loc(#loc129)
        %141 = "ttir.reshape"(%arg2) <{shape = [1 : i32, 2560 : i32, 4096 : i32]}> : (tensor<2560x4096xbf16>) -> tensor<1x2560x4096xbf16> loc(#loc130)
        %142 = "ttir.reshape"(%141) <{shape = [2560 : i32, 4096 : i32]}> : (tensor<1x2560x4096xbf16>) -> tensor<2560x4096xbf16> loc(#loc131)
        %143 = "ttir.permute"(%142) <{permutation = array<i64: 1, 0>}> : (tensor<2560x4096xbf16>) -> tensor<4096x2560xbf16> loc(#loc132)
        %144 = "ttir.dot_general"(%140, %143) <{batch_dims_lhs = array<i64>, batch_dims_rhs = array<i64>, contract_dims_lhs = array<i64: 1>, contract_dims_rhs = array<i64: 0>}> : (tensor<576x4096xbf16>, tensor<4096x2560xbf16>) -> tensor<576x2560xbf16> loc(#loc133)
        %145 = "ttir.reshape"(%144) <{shape = [32 : i32, 18 : i32, 2560 : i32]}> : (tensor<576x2560xbf16>) -> tensor<32x18x2560xbf16> loc(#loc134)
        %146 = "ttir.add"(%arg4, %145) : (tensor<32x18x2560xbf16>, tensor<32x18x2560xbf16>) -> tensor<32x18x2560xbf16> loc(#loc135)
        %147 = "ttir.reshape"(%arg11) <{shape = [1 : i32, 1 : i32, 2560 : i32]}> : (tensor<2560xbf16>) -> tensor<1x1x2560xbf16> loc(#loc136)
        %148 = "ttir.reshape"(%147) <{shape = [2560 : i32]}> : (tensor<1x1x2560xbf16>) -> tensor<2560xbf16> loc(#loc137)
        %149 = "ttir.reshape"(%148) <{shape = [1 : i32, 1 : i32, 2560 : i32]}> : (tensor<2560xbf16>) -> tensor<1x1x2560xbf16> loc(#loc138)
        %150 = "ttir.broadcast"(%149) <{broadcast_dimensions = array<i64: 32, 18, 1>}> : (tensor<1x1x2560xbf16>) -> tensor<32x18x2560xbf16> loc(#loc138)
        %151 = "ttir.typecast"(%146) <{conservative_folding = false}> : (tensor<32x18x2560xbf16>) -> tensor<32x18x2560xf32> loc(#loc139)
        %152 = "ttir.pow"(%151, %9) : (tensor<32x18x2560xf32>, tensor<32x18x2560xf32>) -> tensor<32x18x2560xf32> loc(#loc140)
        %153 = "ttir.sum"(%152) <{dim_arg = [2 : i32], keep_dim = false}> : (tensor<32x18x2560xf32>) -> tensor<32x18xf32> loc(#loc141)
        %154 = "ttir.multiply"(%153, %8) : (tensor<32x18xf32>, tensor<32x18xf32>) -> tensor<32x18xf32> loc(#loc142)
        %155 = "ttir.reshape"(%154) <{shape = [32 : i32, 18 : i32, 1 : i32]}> : (tensor<32x18xf32>) -> tensor<32x18x1xf32> loc(#loc143)
        %156 = "ttir.add"(%155, %7) : (tensor<32x18x1xf32>, tensor<32x18x1xf32>) -> tensor<32x18x1xf32> loc(#loc144)
        %157 = "ttir.rsqrt"(%156) : (tensor<32x18x1xf32>) -> tensor<32x18x1xf32> loc(#loc145)
        %158 = "ttir.reshape"(%157) <{shape = [32 : i32, 18 : i32]}> : (tensor<32x18x1xf32>) -> tensor<32x18xf32> loc(#loc146)
        %159 = "ttir.reshape"(%158) <{shape = [32 : i32, 18 : i32, 1 : i32]}> : (tensor<32x18xf32>) -> tensor<32x18x1xf32> loc(#loc147)
        %160 = "ttir.broadcast"(%159) <{broadcast_dimensions = array<i64: 1, 1, 2560>}> : (tensor<32x18x1xf32>) -> tensor<32x18x2560xf32> loc(#loc147)
        %161 = "ttir.multiply"(%151, %160) : (tensor<32x18x2560xf32>, tensor<32x18x2560xf32>) -> tensor<32x18x2560xf32> loc(#loc148)
        %162 = "ttir.typecast"(%161) <{conservative_folding = false}> : (tensor<32x18x2560xf32>) -> tensor<32x18x2560xbf16> loc(#loc149)
        %163 = "ttir.multiply"(%150, %162) : (tensor<32x18x2560xbf16>, tensor<32x18x2560xbf16>) -> tensor<32x18x2560xbf16> loc(#loc150)
        %164 = "ttir.reshape"(%163) <{shape = [576 : i32, 2560 : i32]}> : (tensor<32x18x2560xbf16>) -> tensor<576x2560xbf16> loc(#loc151)
        %165 = "ttir.reshape"(%arg12) <{shape = [1 : i32, 9728 : i32, 2560 : i32]}> : (tensor<9728x2560xbf16>) -> tensor<1x9728x2560xbf16> loc(#loc152)
        %166 = "ttir.reshape"(%165) <{shape = [9728 : i32, 2560 : i32]}> : (tensor<1x9728x2560xbf16>) -> tensor<9728x2560xbf16> loc(#loc153)
        %167 = "ttir.permute"(%166) <{permutation = array<i64: 1, 0>}> : (tensor<9728x2560xbf16>) -> tensor<2560x9728xbf16> loc(#loc154)
        %168 = "ttir.dot_general"(%164, %167) <{batch_dims_lhs = array<i64>, batch_dims_rhs = array<i64>, contract_dims_lhs = array<i64: 1>, contract_dims_rhs = array<i64: 0>}> : (tensor<576x2560xbf16>, tensor<2560x9728xbf16>) -> tensor<576x9728xbf16> loc(#loc155)
        %169 = "ttir.reshape"(%168) <{shape = [32 : i32, 18 : i32, 9728 : i32]}> : (tensor<576x9728xbf16>) -> tensor<32x18x9728xbf16> loc(#loc156)
        %170 = "ttir.sigmoid"(%169) : (tensor<32x18x9728xbf16>) -> tensor<32x18x9728xbf16> loc(#loc157)
        %171 = "ttir.multiply"(%169, %170) : (tensor<32x18x9728xbf16>, tensor<32x18x9728xbf16>) -> tensor<32x18x9728xbf16> loc(#loc158)
        %172 = "ttir.reshape"(%arg1) <{shape = [1 : i32, 9728 : i32, 2560 : i32]}> : (tensor<9728x2560xbf16>) -> tensor<1x9728x2560xbf16> loc(#loc159)
        %173 = "ttir.reshape"(%172) <{shape = [9728 : i32, 2560 : i32]}> : (tensor<1x9728x2560xbf16>) -> tensor<9728x2560xbf16> loc(#loc160)
        %174 = "ttir.permute"(%173) <{permutation = array<i64: 1, 0>}> : (tensor<9728x2560xbf16>) -> tensor<2560x9728xbf16> loc(#loc161)
        %175 = "ttir.dot_general"(%164, %174) <{batch_dims_lhs = array<i64>, batch_dims_rhs = array<i64>, contract_dims_lhs = array<i64: 1>, contract_dims_rhs = array<i64: 0>}> : (tensor<576x2560xbf16>, tensor<2560x9728xbf16>) -> tensor<576x9728xbf16> loc(#loc162)
        %176 = "ttir.reshape"(%175) <{shape = [32 : i32, 18 : i32, 9728 : i32]}> : (tensor<576x9728xbf16>) -> tensor<32x18x9728xbf16> loc(#loc163)
        %177 = "ttir.multiply"(%171, %176) : (tensor<32x18x9728xbf16>, tensor<32x18x9728xbf16>) -> tensor<32x18x9728xbf16> loc(#loc164)
        %178 = "ttir.reshape"(%177) <{shape = [576 : i32, 9728 : i32]}> : (tensor<32x18x9728xbf16>) -> tensor<576x9728xbf16> loc(#loc165)
        %179 = "ttir.reshape"(%arg0) <{shape = [1 : i32, 2560 : i32, 9728 : i32]}> : (tensor<2560x9728xbf16>) -> tensor<1x2560x9728xbf16> loc(#loc166)
        %180 = "ttir.reshape"(%179) <{shape = [2560 : i32, 9728 : i32]}> : (tensor<1x2560x9728xbf16>) -> tensor<2560x9728xbf16> loc(#loc167)
        %181 = "ttir.permute"(%180) <{permutation = array<i64: 1, 0>}> : (tensor<2560x9728xbf16>) -> tensor<9728x2560xbf16> loc(#loc168)
        %182 = "ttir.dot_general"(%178, %181) <{batch_dims_lhs = array<i64>, batch_dims_rhs = array<i64>, contract_dims_lhs = array<i64: 1>, contract_dims_rhs = array<i64: 0>}> : (tensor<576x9728xbf16>, tensor<9728x2560xbf16>) -> tensor<576x2560xbf16> loc(#loc169)
        %183 = "ttir.reshape"(%182) <{shape = [32 : i32, 18 : i32, 2560 : i32]}> : (tensor<576x2560xbf16>) -> tensor<32x18x2560xbf16> loc(#loc170)
        %184 = "ttir.add"(%146, %183) : (tensor<32x18x2560xbf16>, tensor<32x18x2560xbf16>) -> tensor<32x18x2560xbf16> loc(#loc171)
        return %184 : tensor<32x18x2560xbf16> loc(#loc)
      } loc(#loc)
    } loc(#loc)
  } loc(#loc)
} loc(#loc)
#loc = loc(unknown)
#loc14 = loc("reshape.233")
#loc15 = loc("reshape.235")
#loc16 = loc("broadcast.236")
#loc17 = loc("reshape.61")
#loc18 = loc("reshape.63")
#loc19 = loc("broadcast.64")
#loc20 = loc("convert.31")
#loc21 = loc("power.33")
#loc22 = loc("reduce.40")
#loc23 = loc("multiply.49")
#loc24 = loc("reshape.50")
#loc25 = loc("add.54")
#loc26 = loc("rsqrt.55")
#loc27 = loc("reshape.56")
#loc28 = loc("broadcast.57")
#loc29 = loc("multiply.58")
#loc30 = loc("convert.59")
#loc31 = loc("multiply.65")
#loc32 = loc("reshape.199")
#loc33 = loc("reshape.195")
#loc34 = loc("reshape.197")
#loc35 = loc("transpose.198")
#loc36 = loc("dot.200")
#loc37 = loc("reshape.202")
#loc38 = loc("convert.203")
#loc39 = loc("power.205")
#loc40 = loc("reduce.212")
#loc41 = loc("multiply.221")
#loc42 = loc("reshape.222")
#loc43 = loc("add.226")
#loc44 = loc("rsqrt.227")
#loc45 = loc("reshape.228")
#loc46 = loc("broadcast.229")
#loc47 = loc("multiply.230")
#loc48 = loc("convert.231")
#loc49 = loc("multiply.237")
#loc50 = loc("transpose.238")
#loc51 = loc("reshape.94")
#loc52 = loc("reshape.99")
#loc53 = loc("convert.100")
#loc54 = loc("reshape.102")
#loc55 = loc("broadcast.103")
#loc56 = loc("broadcast.87")
#loc57 = loc("reshape.89")
#loc58 = loc("convert.91")
#loc59 = loc("dot.105")
#loc60 = loc("transpose.106")
#loc61 = loc("concatenate.107")
#loc62 = loc("cosine.169")
#loc63 = loc("convert.172")
#loc64 = loc("broadcast.247")
#loc65 = loc("multiply.248")
#loc66 = loc("slice.240")
#loc67 = loc("negate.241")
#loc68 = loc("slice.239")
#loc69 = loc("concatenate.242")
#loc70 = loc("sine.108")
#loc71 = loc("convert.111")
#loc72 = loc("broadcast.244")
#loc73 = loc("multiply.245")
#loc74 = loc("add.251")
#loc75 = loc("reshape.155")
#loc76 = loc("reshape.157")
#loc77 = loc("broadcast.158")
#loc78 = loc("reshape.117")
#loc79 = loc("reshape.119")
#loc80 = loc("transpose.120")
#loc81 = loc("dot.122")
#loc82 = loc("reshape.124")
#loc83 = loc("convert.125")
#loc84 = loc("power.127")
#loc85 = loc("reduce.134")
#loc86 = loc("multiply.143")
#loc87 = loc("reshape.144")
#loc88 = loc("add.148")
#loc89 = loc("rsqrt.149")
#loc90 = loc("reshape.150")
#loc91 = loc("broadcast.151")
#loc92 = loc("multiply.152")
#loc93 = loc("convert.153")
#loc94 = loc("multiply.159")
#loc95 = loc("transpose.160")
#loc96 = loc("broadcast.175")
#loc97 = loc("multiply.176")
#loc98 = loc("slice.162")
#loc99 = loc("negate.163")
#loc100 = loc("slice.161")
#loc101 = loc("concatenate.164")
#loc102 = loc("broadcast.166")
#loc103 = loc("multiply.167")
#loc104 = loc("add.179")
#loc105 = loc("broadcast.187")
#loc106 = loc("reshape.188")
#loc107 = loc("transpose.189")
#loc108 = loc("dot.252")
#loc109 = loc("multiply.255")
#loc110 = loc("convert.256")
#loc111 = loc("reduce.262")
#loc112 = loc("broadcast.263")
#loc113 = loc("subtract.264")
#loc114 = loc("exponential.265")
#loc115 = loc("reduce.271")
#loc116 = loc("broadcast.272")
#loc117 = loc("divide.273")
#loc118 = loc("convert.274")
#loc119 = loc("reshape.22")
#loc120 = loc("reshape.24")
#loc121 = loc("transpose.25")
#loc122 = loc("dot.67")
#loc123 = loc("reshape.69")
#loc124 = loc("transpose.70")
#loc125 = loc("broadcast.78")
#loc126 = loc("reshape.79")
#loc127 = loc("dot.275")
#loc128 = loc("transpose.277")
#loc129 = loc("reshape.279")
#loc130 = loc("reshape.17")
#loc131 = loc("reshape.19")
#loc132 = loc("transpose.20")
#loc133 = loc("dot.280")
#loc134 = loc("reshape.281")
#loc135 = loc("add.284")
#loc136 = loc("reshape.315")
#loc137 = loc("reshape.317")
#loc138 = loc("broadcast.318")
#loc139 = loc("convert.285")
#loc140 = loc("power.287")
#loc141 = loc("reduce.294")
#loc142 = loc("multiply.303")
#loc143 = loc("reshape.304")
#loc144 = loc("add.308")
#loc145 = loc("rsqrt.309")
#loc146 = loc("reshape.310")
#loc147 = loc("broadcast.311")
#loc148 = loc("multiply.312")
#loc149 = loc("convert.313")
#loc150 = loc("multiply.319")
#loc151 = loc("reshape.328")
#loc152 = loc("reshape.324")
#loc153 = loc("reshape.326")
#loc154 = loc("transpose.327")
#loc155 = loc("dot.329")
#loc156 = loc("reshape.330")
#loc157 = loc("logistic.331")
#loc158 = loc("multiply.332")
#loc159 = loc("reshape.8")
#loc160 = loc("reshape.10")
#loc161 = loc("transpose.11")
#loc162 = loc("dot.321")
#loc163 = loc("reshape.322")
#loc164 = loc("multiply.333")
#loc165 = loc("reshape.334")
#loc166 = loc("reshape.3")
#loc167 = loc("reshape.5")
#loc168 = loc("transpose.6")
#loc169 = loc("dot.335")
#loc170 = loc("reshape.336")
#loc171 = loc("add.339")
