#loc1 = loc("p0.3")
#loc2 = loc("p1.13")
#loc3 = loc("p2.31")
#loc4 = loc("p3.39")
#loc5 = loc("p4.44")
#loc6 = loc("p5.80")
#loc7 = loc("p6.122")
#loc8 = loc("p7.130")
#loc9 = loc("p8.152")
#loc10 = loc("p9.160")
#loc11 = loc("p10.169")
#loc12 = loc("p11.174")
#loc13 = loc("p12.183")
#loc14 = loc("p13.257")
#loc15 = loc("p14.347")
#loc16 = loc("p15.356")
#loc17 = loc("p16.402")
module @SyncTensorsGraph.415 attributes {mhlo.cross_program_prefetches = [], mhlo.input_output_alias = [], mhlo.is_dynamic = false, mhlo.use_auto_spmd_partitioning = false, ttcore.meshes = #ttcore.meshes<[<"mesh" = 1x1>]>} {
  ttcore.device_module {
    builtin.module @SyncTensorsGraph.415 attributes {mhlo.cross_program_prefetches = [], mhlo.input_output_alias = [], mhlo.is_dynamic = false, mhlo.use_auto_spmd_partitioning = false, ttcore.meshes = #ttcore.meshes<[<"mesh" = 1x1>]>} {
      func.func @main(%arg0: tensor<17xi64> {ttcore.argument_type = #ttcore.argument_type<input>, ttcore.shard_status = #ttcore.shard_status<unsharded>, ttir.name = "args_1"} loc("p0.3"), %arg1: tensor<128xbf16> {ttcore.argument_type = #ttcore.argument_type<constant>, ttcore.shard_status = #ttcore.shard_status<unsharded>, ttir.name = "l__self___model_rotary_emb_inv_freq"} loc("p1.13"), %arg2: tensor<1024x2048xbf16> {ttcore.argument_type = #ttcore.argument_type<parameter>, ttcore.shard_status = #ttcore.shard_status<unsharded>, ttir.name = "l__self___model_layers__modules__0___self_attn_k_proj_weight"} loc("p2.31"), %arg3: tensor<32x17xi64> {ttcore.argument_type = #ttcore.argument_type<input>, ttcore.shard_status = #ttcore.shard_status<unsharded>, ttir.name = "args_0"} loc("p3.39"), %arg4: tensor<131072x2048xbf16> {ttcore.argument_type = #ttcore.argument_type<parameter>, ttcore.shard_status = #ttcore.shard_status<unsharded>, ttir.name = "l__self___model_embed_tokens_weight"} loc("p4.44"), %arg5: tensor<2048xbf16> {ttcore.argument_type = #ttcore.argument_type<parameter>, ttcore.shard_status = #ttcore.shard_status<unsharded>, ttir.name = "l__self___model_layers__modules__0___input_layernorm_weight"} loc("p5.80"), %arg6: tensor<32x4x128x256xbf16> {ttcore.argument_type = #ttcore.argument_type<input>, ttcore.shard_status = #ttcore.shard_status<unsharded>, ttir.name = "args_2"} loc("p6.122"), %arg7: tensor<1024x2048xbf16> {ttcore.argument_type = #ttcore.argument_type<parameter>, ttcore.shard_status = #ttcore.shard_status<unsharded>, ttir.name = "l__self___model_layers__modules__0___self_attn_v_proj_weight"} loc("p7.130"), %arg8: tensor<32x4x128x256xbf16> {ttcore.argument_type = #ttcore.argument_type<input>, ttcore.shard_status = #ttcore.shard_status<unsharded>, ttir.name = "args_3"} loc("p8.152"), %arg9: tensor<131072x2048xbf16> {ttcore.argument_type = #ttcore.argument_type<parameter>, ttcore.shard_status = #ttcore.shard_status<unsharded>, ttir.name = "l__self___lm_head_weight"} loc("p9.160"), %arg10: tensor<2048x8192xbf16> {ttcore.argument_type = #ttcore.argument_type<parameter>, ttcore.shard_status = #ttcore.shard_status<unsharded>, ttir.name = "l__self___model_layers__modules__0___mlp_down_proj_weight"} loc("p10.169"), %arg11: tensor<8192x2048xbf16> {ttcore.argument_type = #ttcore.argument_type<parameter>, ttcore.shard_status = #ttcore.shard_status<unsharded>, ttir.name = "l__self___model_layers__modules__0___mlp_up_proj_weight"} loc("p11.174"), %arg12: tensor<2048x2048xbf16> {ttcore.argument_type = #ttcore.argument_type<parameter>, ttcore.shard_status = #ttcore.shard_status<unsharded>, ttir.name = "l__self___model_layers__modules__0___self_attn_o_proj_weight"} loc("p12.183"), %arg13: tensor<2048x2048xbf16> {ttcore.argument_type = #ttcore.argument_type<parameter>, ttcore.shard_status = #ttcore.shard_status<unsharded>, ttir.name = "l__self___model_layers__modules__0___self_attn_q_proj_weight"} loc("p13.257"), %arg14: tensor<2048xbf16> {ttcore.argument_type = #ttcore.argument_type<parameter>, ttcore.shard_status = #ttcore.shard_status<unsharded>, ttir.name = "l__self___model_layers__modules__0___post_attention_layernorm_weight"} loc("p14.347"), %arg15: tensor<8192x2048xbf16> {ttcore.argument_type = #ttcore.argument_type<parameter>, ttcore.shard_status = #ttcore.shard_status<unsharded>, ttir.name = "l__self___model_layers__modules__0___mlp_gate_proj_weight"} loc("p15.356"), %arg16: tensor<2048xbf16> {ttcore.argument_type = #ttcore.argument_type<parameter>, ttcore.shard_status = #ttcore.shard_status<unsharded>, ttir.name = "l__self___model_norm_weight"} loc("p16.402")) -> (tensor<32x4x128x256xbf16> {ttcore.shard_status = #ttcore.shard_status<unsharded>}, tensor<32x4x128x256xbf16> {ttcore.shard_status = #ttcore.shard_status<unsharded>}, tensor<32x17x131072xbf16> {ttcore.shard_status = #ttcore.shard_status<unsharded>}) {
        %0 = "ttir.constant"() <{value = dense<0.000000e+00> : tensor<17x128xbf16>}> : () -> tensor<17x128xbf16> loc(#loc)
        %1 = "ttir.constant"() <{value = dense<-3.389530e+38> : tensor<17x128xbf16>}> : () -> tensor<17x128xbf16> loc(#loc)
        %2 = "ttir.constant"() <{value = dense<1> : tensor<17x128xi64>}> : () -> tensor<17x128xi64> loc(#loc)
        %3 = "ttir.constant"() <{value = dense<6.250000e-02> : tensor<32x8x17x128xbf16>}> : () -> tensor<32x8x17x128xbf16> loc(#loc)
        %4 = "ttir.constant"() <{value = dense<9.99999997E-7> : tensor<32x17x1xf32>}> : () -> tensor<32x17x1xf32> loc(#loc)
        %5 = "ttir.constant"() <{value = dense<4.8828125E-4> : tensor<32x17xf32>}> : () -> tensor<32x17xf32> loc(#loc)
        %6 = "ttir.constant"() <{value = dense<2.000000e+00> : tensor<32x17x2048xf32>}> : () -> tensor<32x17x2048xf32> loc(#loc)
        %7 = "ttir.constant"() <{value = dense<128> : tensor<17xi64>}> : () -> tensor<17xi64> loc(#loc)
        %8 = "ttir.constant"() <{value = dense<0> : tensor<17xi64>}> : () -> tensor<17xi64> loc(#loc)
        %9 = "ttir.constant"() <{value = dense<[0, 1, 2, 3, 4, 5, 6, 7, 8, 9, 10, 11, 12, 13, 14, 15, 16]> : tensor<17xi64>}> : () -> tensor<17xi64> loc(#loc)
        %10 = "ttir.constant"() <{value = dense<"…"> : tensor<128xi64>}> : () -> tensor<128xi64> loc(#loc)
        %11 = "ttir.reshape"(%arg0) <{shape = [1 : i32, 1 : i32, 17 : i32]}> : (tensor<17xi64>) -> tensor<1x1x17xi64> loc(#loc18)
        %12 = "ttir.reshape"(%11) <{shape = [17 : i32]}> : (tensor<1x1x17xi64>) -> tensor<17xi64> loc(#loc19)
        %13 = "ttir.lt"(%12, %8) : (tensor<17xi64>, tensor<17xi64>) -> tensor<17xi1> loc(#loc20)
        %14 = "ttir.add"(%12, %7) : (tensor<17xi64>, tensor<17xi64>) -> tensor<17xi64> loc(#loc21)
        %15 = "ttir.where"(%13, %14, %12) : (tensor<17xi1>, tensor<17xi64>, tensor<17xi64>) -> tensor<17xi64> loc(#loc22)
        %16 = "ttir.reshape"(%arg5) <{shape = [1 : i32, 1 : i32, 2048 : i32]}> : (tensor<2048xbf16>) -> tensor<1x1x2048xbf16> loc(#loc23)
        %17 = "ttir.reshape"(%16) <{shape = [2048 : i32]}> : (tensor<1x1x2048xbf16>) -> tensor<2048xbf16> loc(#loc24)
        %18 = "ttir.reshape"(%17) <{shape = [1 : i32, 1 : i32, 2048 : i32]}> : (tensor<2048xbf16>) -> tensor<1x1x2048xbf16> loc(#loc25)
        %19 = "ttir.broadcast"(%18) <{broadcast_dimensions = array<i64: 32, 17, 1>}> : (tensor<1x1x2048xbf16>) -> tensor<32x17x2048xbf16> loc(#loc25)
        %20 = "ttir.reshape"(%arg4) <{shape = [1 : i32, 131072 : i32, 2048 : i32]}> : (tensor<131072x2048xbf16>) -> tensor<1x131072x2048xbf16> loc(#loc26)
        %21 = "ttir.reshape"(%20) <{shape = [131072 : i32, 2048 : i32]}> : (tensor<1x131072x2048xbf16>) -> tensor<131072x2048xbf16> loc(#loc27)
        %22 = "ttir.reshape"(%arg3) <{shape = [1 : i32, 32 : i32, 17 : i32]}> : (tensor<32x17xi64>) -> tensor<1x32x17xi64> loc(#loc28)
        %23 = "ttir.reshape"(%22) <{shape = [544 : i32]}> : (tensor<1x32x17xi64>) -> tensor<544xi64> loc(#loc29)
        %24 = "ttir.typecast"(%23) <{conservative_folding = false}> : (tensor<544xi64>) -> tensor<544xui32> loc(#loc30)
        %25 = "ttir.gather"(%21, %24) <{collapsed_slice_dims = array<i64: 0>, index_vector_dim = 1 : si64, indices_are_sorted = false, offset_dims = array<i64: 1>, operand_batching_dims = array<i64>, slice_sizes = array<i64: 1, 2048>, start_index_map = array<i64: 0>, start_indices_batching_dims = array<i64>}> : (tensor<131072x2048xbf16>, tensor<544xui32>) -> tensor<544x2048xbf16> loc(#loc31)
        %26 = "ttir.reshape"(%25) <{shape = [32 : i32, 17 : i32, 2048 : i32]}> : (tensor<544x2048xbf16>) -> tensor<32x17x2048xbf16> loc(#loc32)
        %27 = "ttir.typecast"(%26) <{conservative_folding = false}> : (tensor<32x17x2048xbf16>) -> tensor<32x17x2048xf32> loc(#loc33)
        %28 = "ttir.pow"(%27, %6) : (tensor<32x17x2048xf32>, tensor<32x17x2048xf32>) -> tensor<32x17x2048xf32> loc(#loc34)
        %29 = "ttir.sum"(%28) <{dim_arg = [2 : i32], keep_dim = false}> : (tensor<32x17x2048xf32>) -> tensor<32x17xf32> loc(#loc35)
        %30 = "ttir.multiply"(%29, %5) : (tensor<32x17xf32>, tensor<32x17xf32>) -> tensor<32x17xf32> loc(#loc36)
        %31 = "ttir.reshape"(%30) <{shape = [32 : i32, 17 : i32, 1 : i32]}> : (tensor<32x17xf32>) -> tensor<32x17x1xf32> loc(#loc37)
        %32 = "ttir.add"(%31, %4) : (tensor<32x17x1xf32>, tensor<32x17x1xf32>) -> tensor<32x17x1xf32> loc(#loc38)
        %33 = "ttir.rsqrt"(%32) : (tensor<32x17x1xf32>) -> tensor<32x17x1xf32> loc(#loc39)
        %34 = "ttir.reshape"(%33) <{shape = [32 : i32, 17 : i32]}> : (tensor<32x17x1xf32>) -> tensor<32x17xf32> loc(#loc40)
        %35 = "ttir.reshape"(%34) <{shape = [32 : i32, 17 : i32, 1 : i32]}> : (tensor<32x17xf32>) -> tensor<32x17x1xf32> loc(#loc41)
        %36 = "ttir.broadcast"(%35) <{broadcast_dimensions = array<i64: 1, 1, 2048>}> : (tensor<32x17x1xf32>) -> tensor<32x17x2048xf32> loc(#loc41)
        %37 = "ttir.multiply"(%27, %36) : (tensor<32x17x2048xf32>, tensor<32x17x2048xf32>) -> tensor<32x17x2048xf32> loc(#loc42)
        %38 = "ttir.typecast"(%37) <{conservative_folding = false}> : (tensor<32x17x2048xf32>) -> tensor<32x17x2048xbf16> loc(#loc43)
        %39 = "ttir.multiply"(%19, %38) : (tensor<32x17x2048xbf16>, tensor<32x17x2048xbf16>) -> tensor<32x17x2048xbf16> loc(#loc44)
        %40 = "ttir.reshape"(%39) <{shape = [544 : i32, 2048 : i32]}> : (tensor<32x17x2048xbf16>) -> tensor<544x2048xbf16> loc(#loc45)
        %41 = "ttir.reshape"(%arg2) <{shape = [1 : i32, 1024 : i32, 2048 : i32]}> : (tensor<1024x2048xbf16>) -> tensor<1x1024x2048xbf16> loc(#loc46)
        %42 = "ttir.reshape"(%41) <{shape = [1024 : i32, 2048 : i32]}> : (tensor<1x1024x2048xbf16>) -> tensor<1024x2048xbf16> loc(#loc47)
        %43 = "ttir.permute"(%42) <{permutation = array<i64: 1, 0>}> : (tensor<1024x2048xbf16>) -> tensor<2048x1024xbf16> loc(#loc48)
        %44 = "ttir.dot_general"(%40, %43) <{batch_dims_lhs = array<i64>, batch_dims_rhs = array<i64>, contract_dims_lhs = array<i64: 1>, contract_dims_rhs = array<i64: 0>}> : (tensor<544x2048xbf16>, tensor<2048x1024xbf16>) -> tensor<544x1024xbf16> loc(#loc49)
        %45 = "ttir.reshape"(%44) <{shape = [32 : i32, 17 : i32, 4 : i32, 256 : i32]}> : (tensor<544x1024xbf16>) -> tensor<32x17x4x256xbf16> loc(#loc50)
        %46 = "ttir.permute"(%45) <{permutation = array<i64: 0, 2, 1, 3>}> : (tensor<32x17x4x256xbf16>) -> tensor<32x4x17x256xbf16> loc(#loc51)
        %47 = "ttir.reshape"(%arg1) <{shape = [1 : i32, 1 : i32, 128 : i32]}> : (tensor<128xbf16>) -> tensor<1x1x128xbf16> loc(#loc52)
        %48 = "ttir.reshape"(%47) <{shape = [1 : i32, 128 : i32, 1 : i32]}> : (tensor<1x1x128xbf16>) -> tensor<1x128x1xbf16> loc(#loc53)
        %49 = "ttir.typecast"(%48) <{conservative_folding = false}> : (tensor<1x128x1xbf16>) -> tensor<1x128x1xf32> loc(#loc54)
        %50 = "ttir.typecast"(%11) <{conservative_folding = false}> : (tensor<1x1x17xi64>) -> tensor<1x1x17xf32> loc(#loc55)
        %51 = "ttir.dot_general"(%49, %50) <{batch_dims_lhs = array<i64: 0>, batch_dims_rhs = array<i64: 0>, contract_dims_lhs = array<i64: 2>, contract_dims_rhs = array<i64: 1>}> : (tensor<1x128x1xf32>, tensor<1x1x17xf32>) -> tensor<1x128x17xf32> loc(#loc56)
        %52 = "ttir.permute"(%51) <{permutation = array<i64: 0, 2, 1>}> : (tensor<1x128x17xf32>) -> tensor<1x17x128xf32> loc(#loc57)
        %53 = "ttir.concat"(%52, %52) <{dim = 2 : si32}> : (tensor<1x17x128xf32>, tensor<1x17x128xf32>) -> tensor<1x17x256xf32> loc(#loc58)
        %54 = "ttir.cos"(%53) : (tensor<1x17x256xf32>) -> tensor<1x17x256xf32> loc(#loc59)
        %55 = "ttir.typecast"(%54) <{conservative_folding = false}> : (tensor<1x17x256xf32>) -> tensor<1x17x256xbf16> loc(#loc60)
        %56 = "ttir.reshape"(%55) <{shape = [17 : i32, 256 : i32]}> : (tensor<1x17x256xbf16>) -> tensor<17x256xbf16> loc(#loc61)
        %57 = "ttir.reshape"(%56) <{shape = [1 : i32, 1 : i32, 17 : i32, 256 : i32]}> : (tensor<17x256xbf16>) -> tensor<1x1x17x256xbf16> loc(#loc62)
        %58 = "ttir.broadcast"(%57) <{broadcast_dimensions = array<i64: 32, 4, 1, 1>}> : (tensor<1x1x17x256xbf16>) -> tensor<32x4x17x256xbf16> loc(#loc62)
        %59 = "ttir.multiply"(%46, %58) : (tensor<32x4x17x256xbf16>, tensor<32x4x17x256xbf16>) -> tensor<32x4x17x256xbf16> loc(#loc63)
        %60 = "ttir.slice_static"(%46) <{begins = [0 : i32, 0 : i32, 0 : i32, 128 : i32], ends = [32 : i32, 4 : i32, 17 : i32, 256 : i32], step = [1 : i32, 1 : i32, 1 : i32, 1 : i32]}> : (tensor<32x4x17x256xbf16>) -> tensor<32x4x17x128xbf16> loc(#loc64)
        %61 = "ttir.neg"(%60) : (tensor<32x4x17x128xbf16>) -> tensor<32x4x17x128xbf16> loc(#loc65)
        %62 = "ttir.slice_static"(%46) <{begins = [0 : i32, 0 : i32, 0 : i32, 0 : i32], ends = [32 : i32, 4 : i32, 17 : i32, 128 : i32], step = [1 : i32, 1 : i32, 1 : i32, 1 : i32]}> : (tensor<32x4x17x256xbf16>) -> tensor<32x4x17x128xbf16> loc(#loc66)
        %63 = "ttir.concat"(%61, %62) <{dim = 3 : si32}> : (tensor<32x4x17x128xbf16>, tensor<32x4x17x128xbf16>) -> tensor<32x4x17x256xbf16> loc(#loc67)
        %64 = "ttir.sin"(%53) : (tensor<1x17x256xf32>) -> tensor<1x17x256xf32> loc(#loc68)
        %65 = "ttir.typecast"(%64) <{conservative_folding = false}> : (tensor<1x17x256xf32>) -> tensor<1x17x256xbf16> loc(#loc69)
        %66 = "ttir.reshape"(%65) <{shape = [17 : i32, 256 : i32]}> : (tensor<1x17x256xbf16>) -> tensor<17x256xbf16> loc(#loc70)
        %67 = "ttir.reshape"(%66) <{shape = [1 : i32, 1 : i32, 17 : i32, 256 : i32]}> : (tensor<17x256xbf16>) -> tensor<1x1x17x256xbf16> loc(#loc71)
        %68 = "ttir.broadcast"(%67) <{broadcast_dimensions = array<i64: 32, 4, 1, 1>}> : (tensor<1x1x17x256xbf16>) -> tensor<32x4x17x256xbf16> loc(#loc71)
        %69 = "ttir.multiply"(%63, %68) : (tensor<32x4x17x256xbf16>, tensor<32x4x17x256xbf16>) -> tensor<32x4x17x256xbf16> loc(#loc72)
        %70 = "ttir.add"(%59, %69) : (tensor<32x4x17x256xbf16>, tensor<32x4x17x256xbf16>) -> tensor<32x4x17x256xbf16> loc(#loc73)
        %71 = "ttir.slice_static"(%70) <{begins = [0 : i32, 0 : i32, 0 : i32, 0 : i32], ends = [1 : i32, 4 : i32, 17 : i32, 256 : i32], step = [1 : i32, 1 : i32, 1 : i32, 1 : i32]}> : (tensor<32x4x17x256xbf16>) -> tensor<1x4x17x256xbf16> loc(#loc74)
        %72 = "ttir.fill_cache"(%arg6, %71) <{batch_offset = 0 : i32}> : (tensor<32x4x128x256xbf16>, tensor<1x4x17x256xbf16>) -> tensor<32x4x128x256xbf16> loc(#loc74)
        %73 = "ttir.slice_static"(%70) <{begins = [1 : i32, 0 : i32, 0 : i32, 0 : i32], ends = [2 : i32, 4 : i32, 17 : i32, 256 : i32], step = [1 : i32, 1 : i32, 1 : i32, 1 : i32]}> : (tensor<32x4x17x256xbf16>) -> tensor<1x4x17x256xbf16> loc(#loc74)
        %74 = "ttir.fill_cache"(%72, %73) <{batch_offset = 1 : i32}> : (tensor<32x4x128x256xbf16>, tensor<1x4x17x256xbf16>) -> tensor<32x4x128x256xbf16> loc(#loc74)
        %75 = "ttir.slice_static"(%70) <{begins = [2 : i32, 0 : i32, 0 : i32, 0 : i32], ends = [3 : i32, 4 : i32, 17 : i32, 256 : i32], step = [1 : i32, 1 : i32, 1 : i32, 1 : i32]}> : (tensor<32x4x17x256xbf16>) -> tensor<1x4x17x256xbf16> loc(#loc74)
        %76 = "ttir.fill_cache"(%74, %75) <{batch_offset = 2 : i32}> : (tensor<32x4x128x256xbf16>, tensor<1x4x17x256xbf16>) -> tensor<32x4x128x256xbf16> loc(#loc74)
        %77 = "ttir.slice_static"(%70) <{begins = [3 : i32, 0 : i32, 0 : i32, 0 : i32], ends = [4 : i32, 4 : i32, 17 : i32, 256 : i32], step = [1 : i32, 1 : i32, 1 : i32, 1 : i32]}> : (tensor<32x4x17x256xbf16>) -> tensor<1x4x17x256xbf16> loc(#loc74)
        %78 = "ttir.fill_cache"(%76, %77) <{batch_offset = 3 : i32}> : (tensor<32x4x128x256xbf16>, tensor<1x4x17x256xbf16>) -> tensor<32x4x128x256xbf16> loc(#loc74)
        %79 = "ttir.slice_static"(%70) <{begins = [4 : i32, 0 : i32, 0 : i32, 0 : i32], ends = [5 : i32, 4 : i32, 17 : i32, 256 : i32], step = [1 : i32, 1 : i32, 1 : i32, 1 : i32]}> : (tensor<32x4x17x256xbf16>) -> tensor<1x4x17x256xbf16> loc(#loc74)
        %80 = "ttir.fill_cache"(%78, %79) <{batch_offset = 4 : i32}> : (tensor<32x4x128x256xbf16>, tensor<1x4x17x256xbf16>) -> tensor<32x4x128x256xbf16> loc(#loc74)
        %81 = "ttir.slice_static"(%70) <{begins = [5 : i32, 0 : i32, 0 : i32, 0 : i32], ends = [6 : i32, 4 : i32, 17 : i32, 256 : i32], step = [1 : i32, 1 : i32, 1 : i32, 1 : i32]}> : (tensor<32x4x17x256xbf16>) -> tensor<1x4x17x256xbf16> loc(#loc74)
        %82 = "ttir.fill_cache"(%80, %81) <{batch_offset = 5 : i32}> : (tensor<32x4x128x256xbf16>, tensor<1x4x17x256xbf16>) -> tensor<32x4x128x256xbf16> loc(#loc74)
        %83 = "ttir.slice_static"(%70) <{begins = [6 : i32, 0 : i32, 0 : i32, 0 : i32], ends = [7 : i32, 4 : i32, 17 : i32, 256 : i32], step = [1 : i32, 1 : i32, 1 : i32, 1 : i32]}> : (tensor<32x4x17x256xbf16>) -> tensor<1x4x17x256xbf16> loc(#loc74)
        %84 = "ttir.fill_cache"(%82, %83) <{batch_offset = 6 : i32}> : (tensor<32x4x128x256xbf16>, tensor<1x4x17x256xbf16>) -> tensor<32x4x128x256xbf16> loc(#loc74)
        %85 = "ttir.slice_static"(%70) <{begins = [7 : i32, 0 : i32, 0 : i32, 0 : i32], ends = [8 : i32, 4 : i32, 17 : i32, 256 : i32], step = [1 : i32, 1 : i32, 1 : i32, 1 : i32]}> : (tensor<32x4x17x256xbf16>) -> tensor<1x4x17x256xbf16> loc(#loc74)
        %86 = "ttir.fill_cache"(%84, %85) <{batch_offset = 7 : i32}> : (tensor<32x4x128x256xbf16>, tensor<1x4x17x256xbf16>) -> tensor<32x4x128x256xbf16> loc(#loc74)
        %87 = "ttir.slice_static"(%70) <{begins = [8 : i32, 0 : i32, 0 : i32, 0 : i32], ends = [9 : i32, 4 : i32, 17 : i32, 256 : i32], step = [1 : i32, 1 : i32, 1 : i32, 1 : i32]}> : (tensor<32x4x17x256xbf16>) -> tensor<1x4x17x256xbf16> loc(#loc74)
        %88 = "ttir.fill_cache"(%86, %87) <{batch_offset = 8 : i32}> : (tensor<32x4x128x256xbf16>, tensor<1x4x17x256xbf16>) -> tensor<32x4x128x256xbf16> loc(#loc74)
        %89 = "ttir.slice_static"(%70) <{begins = [9 : i32, 0 : i32, 0 : i32, 0 : i32], ends = [10 : i32, 4 : i32, 17 : i32, 256 : i32], step = [1 : i32, 1 : i32, 1 : i32, 1 : i32]}> : (tensor<32x4x17x256xbf16>) -> tensor<1x4x17x256xbf16> loc(#loc74)
        %90 = "ttir.fill_cache"(%88, %89) <{batch_offset = 9 : i32}> : (tensor<32x4x128x256xbf16>, tensor<1x4x17x256xbf16>) -> tensor<32x4x128x256xbf16> loc(#loc74)
        %91 = "ttir.slice_static"(%70) <{begins = [10 : i32, 0 : i32, 0 : i32, 0 : i32], ends = [11 : i32, 4 : i32, 17 : i32, 256 : i32], step = [1 : i32, 1 : i32, 1 : i32, 1 : i32]}> : (tensor<32x4x17x256xbf16>) -> tensor<1x4x17x256xbf16> loc(#loc74)
        %92 = "ttir.fill_cache"(%90, %91) <{batch_offset = 10 : i32}> : (tensor<32x4x128x256xbf16>, tensor<1x4x17x256xbf16>) -> tensor<32x4x128x256xbf16> loc(#loc74)
        %93 = "ttir.slice_static"(%70) <{begins = [11 : i32, 0 : i32, 0 : i32, 0 : i32], ends = [12 : i32, 4 : i32, 17 : i32, 256 : i32], step = [1 : i32, 1 : i32, 1 : i32, 1 : i32]}> : (tensor<32x4x17x256xbf16>) -> tensor<1x4x17x256xbf16> loc(#loc74)
        %94 = "ttir.fill_cache"(%92, %93) <{batch_offset = 11 : i32}> : (tensor<32x4x128x256xbf16>, tensor<1x4x17x256xbf16>) -> tensor<32x4x128x256xbf16> loc(#loc74)
        %95 = "ttir.slice_static"(%70) <{begins = [12 : i32, 0 : i32, 0 : i32, 0 : i32], ends = [13 : i32, 4 : i32, 17 : i32, 256 : i32], step = [1 : i32, 1 : i32, 1 : i32, 1 : i32]}> : (tensor<32x4x17x256xbf16>) -> tensor<1x4x17x256xbf16> loc(#loc74)
        %96 = "ttir.fill_cache"(%94, %95) <{batch_offset = 12 : i32}> : (tensor<32x4x128x256xbf16>, tensor<1x4x17x256xbf16>) -> tensor<32x4x128x256xbf16> loc(#loc74)
        %97 = "ttir.slice_static"(%70) <{begins = [13 : i32, 0 : i32, 0 : i32, 0 : i32], ends = [14 : i32, 4 : i32, 17 : i32, 256 : i32], step = [1 : i32, 1 : i32, 1 : i32, 1 : i32]}> : (tensor<32x4x17x256xbf16>) -> tensor<1x4x17x256xbf16> loc(#loc74)
        %98 = "ttir.fill_cache"(%96, %97) <{batch_offset = 13 : i32}> : (tensor<32x4x128x256xbf16>, tensor<1x4x17x256xbf16>) -> tensor<32x4x128x256xbf16> loc(#loc74)
        %99 = "ttir.slice_static"(%70) <{begins = [14 : i32, 0 : i32, 0 : i32, 0 : i32], ends = [15 : i32, 4 : i32, 17 : i32, 256 : i32], step = [1 : i32, 1 : i32, 1 : i32, 1 : i32]}> : (tensor<32x4x17x256xbf16>) -> tensor<1x4x17x256xbf16> loc(#loc74)
        %100 = "ttir.fill_cache"(%98, %99) <{batch_offset = 14 : i32}> : (tensor<32x4x128x256xbf16>, tensor<1x4x17x256xbf16>) -> tensor<32x4x128x256xbf16> loc(#loc74)
        %101 = "ttir.slice_static"(%70) <{begins = [15 : i32, 0 : i32, 0 : i32, 0 : i32], ends = [16 : i32, 4 : i32, 17 : i32, 256 : i32], step = [1 : i32, 1 : i32, 1 : i32, 1 : i32]}> : (tensor<32x4x17x256xbf16>) -> tensor<1x4x17x256xbf16> loc(#loc74)
        %102 = "ttir.fill_cache"(%100, %101) <{batch_offset = 15 : i32}> : (tensor<32x4x128x256xbf16>, tensor<1x4x17x256xbf16>) -> tensor<32x4x128x256xbf16> loc(#loc74)
        %103 = "ttir.slice_static"(%70) <{begins = [16 : i32, 0 : i32, 0 : i32, 0 : i32], ends = [17 : i32, 4 : i32, 17 : i32, 256 : i32], step = [1 : i32, 1 : i32, 1 : i32, 1 : i32]}> : (tensor<32x4x17x256xbf16>) -> tensor<1x4x17x256xbf16> loc(#loc74)
        %104 = "ttir.fill_cache"(%102, %103) <{batch_offset = 16 : i32}> : (tensor<32x4x128x256xbf16>, tensor<1x4x17x256xbf16>) -> tensor<32x4x128x256xbf16> loc(#loc74)
        %105 = "ttir.slice_static"(%70) <{begins = [17 : i32, 0 : i32, 0 : i32, 0 : i32], ends = [18 : i32, 4 : i32, 17 : i32, 256 : i32], step = [1 : i32, 1 : i32, 1 : i32, 1 : i32]}> : (tensor<32x4x17x256xbf16>) -> tensor<1x4x17x256xbf16> loc(#loc74)
        %106 = "ttir.fill_cache"(%104, %105) <{batch_offset = 17 : i32}> : (tensor<32x4x128x256xbf16>, tensor<1x4x17x256xbf16>) -> tensor<32x4x128x256xbf16> loc(#loc74)
        %107 = "ttir.slice_static"(%70) <{begins = [18 : i32, 0 : i32, 0 : i32, 0 : i32], ends = [19 : i32, 4 : i32, 17 : i32, 256 : i32], step = [1 : i32, 1 : i32, 1 : i32, 1 : i32]}> : (tensor<32x4x17x256xbf16>) -> tensor<1x4x17x256xbf16> loc(#loc74)
        %108 = "ttir.fill_cache"(%106, %107) <{batch_offset = 18 : i32}> : (tensor<32x4x128x256xbf16>, tensor<1x4x17x256xbf16>) -> tensor<32x4x128x256xbf16> loc(#loc74)
        %109 = "ttir.slice_static"(%70) <{begins = [19 : i32, 0 : i32, 0 : i32, 0 : i32], ends = [20 : i32, 4 : i32, 17 : i32, 256 : i32], step = [1 : i32, 1 : i32, 1 : i32, 1 : i32]}> : (tensor<32x4x17x256xbf16>) -> tensor<1x4x17x256xbf16> loc(#loc74)
        %110 = "ttir.fill_cache"(%108, %109) <{batch_offset = 19 : i32}> : (tensor<32x4x128x256xbf16>, tensor<1x4x17x256xbf16>) -> tensor<32x4x128x256xbf16> loc(#loc74)
        %111 = "ttir.slice_static"(%70) <{begins = [20 : i32, 0 : i32, 0 : i32, 0 : i32], ends = [21 : i32, 4 : i32, 17 : i32, 256 : i32], step = [1 : i32, 1 : i32, 1 : i32, 1 : i32]}> : (tensor<32x4x17x256xbf16>) -> tensor<1x4x17x256xbf16> loc(#loc74)
        %112 = "ttir.fill_cache"(%110, %111) <{batch_offset = 20 : i32}> : (tensor<32x4x128x256xbf16>, tensor<1x4x17x256xbf16>) -> tensor<32x4x128x256xbf16> loc(#loc74)
        %113 = "ttir.slice_static"(%70) <{begins = [21 : i32, 0 : i32, 0 : i32, 0 : i32], ends = [22 : i32, 4 : i32, 17 : i32, 256 : i32], step = [1 : i32, 1 : i32, 1 : i32, 1 : i32]}> : (tensor<32x4x17x256xbf16>) -> tensor<1x4x17x256xbf16> loc(#loc74)
        %114 = "ttir.fill_cache"(%112, %113) <{batch_offset = 21 : i32}> : (tensor<32x4x128x256xbf16>, tensor<1x4x17x256xbf16>) -> tensor<32x4x128x256xbf16> loc(#loc74)
        %115 = "ttir.slice_static"(%70) <{begins = [22 : i32, 0 : i32, 0 : i32, 0 : i32], ends = [23 : i32, 4 : i32, 17 : i32, 256 : i32], step = [1 : i32, 1 : i32, 1 : i32, 1 : i32]}> : (tensor<32x4x17x256xbf16>) -> tensor<1x4x17x256xbf16> loc(#loc74)
        %116 = "ttir.fill_cache"(%114, %115) <{batch_offset = 22 : i32}> : (tensor<32x4x128x256xbf16>, tensor<1x4x17x256xbf16>) -> tensor<32x4x128x256xbf16> loc(#loc74)
        %117 = "ttir.slice_static"(%70) <{begins = [23 : i32, 0 : i32, 0 : i32, 0 : i32], ends = [24 : i32, 4 : i32, 17 : i32, 256 : i32], step = [1 : i32, 1 : i32, 1 : i32, 1 : i32]}> : (tensor<32x4x17x256xbf16>) -> tensor<1x4x17x256xbf16> loc(#loc74)
        %118 = "ttir.fill_cache"(%116, %117) <{batch_offset = 23 : i32}> : (tensor<32x4x128x256xbf16>, tensor<1x4x17x256xbf16>) -> tensor<32x4x128x256xbf16> loc(#loc74)
        %119 = "ttir.slice_static"(%70) <{begins = [24 : i32, 0 : i32, 0 : i32, 0 : i32], ends = [25 : i32, 4 : i32, 17 : i32, 256 : i32], step = [1 : i32, 1 : i32, 1 : i32, 1 : i32]}> : (tensor<32x4x17x256xbf16>) -> tensor<1x4x17x256xbf16> loc(#loc74)
        %120 = "ttir.fill_cache"(%118, %119) <{batch_offset = 24 : i32}> : (tensor<32x4x128x256xbf16>, tensor<1x4x17x256xbf16>) -> tensor<32x4x128x256xbf16> loc(#loc74)
        %121 = "ttir.slice_static"(%70) <{begins = [25 : i32, 0 : i32, 0 : i32, 0 : i32], ends = [26 : i32, 4 : i32, 17 : i32, 256 : i32], step = [1 : i32, 1 : i32, 1 : i32, 1 : i32]}> : (tensor<32x4x17x256xbf16>) -> tensor<1x4x17x256xbf16> loc(#loc74)
        %122 = "ttir.fill_cache"(%120, %121) <{batch_offset = 25 : i32}> : (tensor<32x4x128x256xbf16>, tensor<1x4x17x256xbf16>) -> tensor<32x4x128x256xbf16> loc(#loc74)
        %123 = "ttir.slice_static"(%70) <{begins = [26 : i32, 0 : i32, 0 : i32, 0 : i32], ends = [27 : i32, 4 : i32, 17 : i32, 256 : i32], step = [1 : i32, 1 : i32, 1 : i32, 1 : i32]}> : (tensor<32x4x17x256xbf16>) -> tensor<1x4x17x256xbf16> loc(#loc74)
        %124 = "ttir.fill_cache"(%122, %123) <{batch_offset = 26 : i32}> : (tensor<32x4x128x256xbf16>, tensor<1x4x17x256xbf16>) -> tensor<32x4x128x256xbf16> loc(#loc74)
        %125 = "ttir.slice_static"(%70) <{begins = [27 : i32, 0 : i32, 0 : i32, 0 : i32], ends = [28 : i32, 4 : i32, 17 : i32, 256 : i32], step = [1 : i32, 1 : i32, 1 : i32, 1 : i32]}> : (tensor<32x4x17x256xbf16>) -> tensor<1x4x17x256xbf16> loc(#loc74)
        %126 = "ttir.fill_cache"(%124, %125) <{batch_offset = 27 : i32}> : (tensor<32x4x128x256xbf16>, tensor<1x4x17x256xbf16>) -> tensor<32x4x128x256xbf16> loc(#loc74)
        %127 = "ttir.slice_static"(%70) <{begins = [28 : i32, 0 : i32, 0 : i32, 0 : i32], ends = [29 : i32, 4 : i32, 17 : i32, 256 : i32], step = [1 : i32, 1 : i32, 1 : i32, 1 : i32]}> : (tensor<32x4x17x256xbf16>) -> tensor<1x4x17x256xbf16> loc(#loc74)
        %128 = "ttir.fill_cache"(%126, %127) <{batch_offset = 28 : i32}> : (tensor<32x4x128x256xbf16>, tensor<1x4x17x256xbf16>) -> tensor<32x4x128x256xbf16> loc(#loc74)
        %129 = "ttir.slice_static"(%70) <{begins = [29 : i32, 0 : i32, 0 : i32, 0 : i32], ends = [30 : i32, 4 : i32, 17 : i32, 256 : i32], step = [1 : i32, 1 : i32, 1 : i32, 1 : i32]}> : (tensor<32x4x17x256xbf16>) -> tensor<1x4x17x256xbf16> loc(#loc74)
        %130 = "ttir.fill_cache"(%128, %129) <{batch_offset = 29 : i32}> : (tensor<32x4x128x256xbf16>, tensor<1x4x17x256xbf16>) -> tensor<32x4x128x256xbf16> loc(#loc74)
        %131 = "ttir.slice_static"(%70) <{begins = [30 : i32, 0 : i32, 0 : i32, 0 : i32], ends = [31 : i32, 4 : i32, 17 : i32, 256 : i32], step = [1 : i32, 1 : i32, 1 : i32, 1 : i32]}> : (tensor<32x4x17x256xbf16>) -> tensor<1x4x17x256xbf16> loc(#loc74)
        %132 = "ttir.fill_cache"(%130, %131) <{batch_offset = 30 : i32}> : (tensor<32x4x128x256xbf16>, tensor<1x4x17x256xbf16>) -> tensor<32x4x128x256xbf16> loc(#loc74)
        %133 = "ttir.slice_static"(%70) <{begins = [31 : i32, 0 : i32, 0 : i32, 0 : i32], ends = [32 : i32, 4 : i32, 17 : i32, 256 : i32], step = [1 : i32, 1 : i32, 1 : i32, 1 : i32]}> : (tensor<32x4x17x256xbf16>) -> tensor<1x4x17x256xbf16> loc(#loc74)
        %134 = "ttir.fill_cache"(%132, %133) <{batch_offset = 31 : i32}> : (tensor<32x4x128x256xbf16>, tensor<1x4x17x256xbf16>) -> tensor<32x4x128x256xbf16> loc(#loc74)
        %135 = "ttir.reshape"(%arg7) <{shape = [1 : i32, 1024 : i32, 2048 : i32]}> : (tensor<1024x2048xbf16>) -> tensor<1x1024x2048xbf16> loc(#loc75)
        %136 = "ttir.reshape"(%135) <{shape = [1024 : i32, 2048 : i32]}> : (tensor<1x1024x2048xbf16>) -> tensor<1024x2048xbf16> loc(#loc76)
        %137 = "ttir.permute"(%136) <{permutation = array<i64: 1, 0>}> : (tensor<1024x2048xbf16>) -> tensor<2048x1024xbf16> loc(#loc77)
        %138 = "ttir.dot_general"(%40, %137) <{batch_dims_lhs = array<i64>, batch_dims_rhs = array<i64>, contract_dims_lhs = array<i64: 1>, contract_dims_rhs = array<i64: 0>}> : (tensor<544x2048xbf16>, tensor<2048x1024xbf16>) -> tensor<544x1024xbf16> loc(#loc78)
        %139 = "ttir.reshape"(%138) <{shape = [32 : i32, 17 : i32, 4 : i32, 256 : i32]}> : (tensor<544x1024xbf16>) -> tensor<32x17x4x256xbf16> loc(#loc79)
        %140 = "ttir.permute"(%139) <{permutation = array<i64: 0, 2, 1, 3>}> : (tensor<32x17x4x256xbf16>) -> tensor<32x4x17x256xbf16> loc(#loc80)
        %141 = "ttir.slice_static"(%140) <{begins = [0 : i32, 0 : i32, 0 : i32, 0 : i32], ends = [1 : i32, 4 : i32, 17 : i32, 256 : i32], step = [1 : i32, 1 : i32, 1 : i32, 1 : i32]}> : (tensor<32x4x17x256xbf16>) -> tensor<1x4x17x256xbf16> loc(#loc81)
        %142 = "ttir.fill_cache"(%arg8, %141) <{batch_offset = 0 : i32}> : (tensor<32x4x128x256xbf16>, tensor<1x4x17x256xbf16>) -> tensor<32x4x128x256xbf16> loc(#loc81)
        %143 = "ttir.slice_static"(%140) <{begins = [1 : i32, 0 : i32, 0 : i32, 0 : i32], ends = [2 : i32, 4 : i32, 17 : i32, 256 : i32], step = [1 : i32, 1 : i32, 1 : i32, 1 : i32]}> : (tensor<32x4x17x256xbf16>) -> tensor<1x4x17x256xbf16> loc(#loc81)
        %144 = "ttir.fill_cache"(%142, %143) <{batch_offset = 1 : i32}> : (tensor<32x4x128x256xbf16>, tensor<1x4x17x256xbf16>) -> tensor<32x4x128x256xbf16> loc(#loc81)
        %145 = "ttir.slice_static"(%140) <{begins = [2 : i32, 0 : i32, 0 : i32, 0 : i32], ends = [3 : i32, 4 : i32, 17 : i32, 256 : i32], step = [1 : i32, 1 : i32, 1 : i32, 1 : i32]}> : (tensor<32x4x17x256xbf16>) -> tensor<1x4x17x256xbf16> loc(#loc81)
        %146 = "ttir.fill_cache"(%144, %145) <{batch_offset = 2 : i32}> : (tensor<32x4x128x256xbf16>, tensor<1x4x17x256xbf16>) -> tensor<32x4x128x256xbf16> loc(#loc81)
        %147 = "ttir.slice_static"(%140) <{begins = [3 : i32, 0 : i32, 0 : i32, 0 : i32], ends = [4 : i32, 4 : i32, 17 : i32, 256 : i32], step = [1 : i32, 1 : i32, 1 : i32, 1 : i32]}> : (tensor<32x4x17x256xbf16>) -> tensor<1x4x17x256xbf16> loc(#loc81)
        %148 = "ttir.fill_cache"(%146, %147) <{batch_offset = 3 : i32}> : (tensor<32x4x128x256xbf16>, tensor<1x4x17x256xbf16>) -> tensor<32x4x128x256xbf16> loc(#loc81)
        %149 = "ttir.slice_static"(%140) <{begins = [4 : i32, 0 : i32, 0 : i32, 0 : i32], ends = [5 : i32, 4 : i32, 17 : i32, 256 : i32], step = [1 : i32, 1 : i32, 1 : i32, 1 : i32]}> : (tensor<32x4x17x256xbf16>) -> tensor<1x4x17x256xbf16> loc(#loc81)
        %150 = "ttir.fill_cache"(%148, %149) <{batch_offset = 4 : i32}> : (tensor<32x4x128x256xbf16>, tensor<1x4x17x256xbf16>) -> tensor<32x4x128x256xbf16> loc(#loc81)
        %151 = "ttir.slice_static"(%140) <{begins = [5 : i32, 0 : i32, 0 : i32, 0 : i32], ends = [6 : i32, 4 : i32, 17 : i32, 256 : i32], step = [1 : i32, 1 : i32, 1 : i32, 1 : i32]}> : (tensor<32x4x17x256xbf16>) -> tensor<1x4x17x256xbf16> loc(#loc81)
        %152 = "ttir.fill_cache"(%150, %151) <{batch_offset = 5 : i32}> : (tensor<32x4x128x256xbf16>, tensor<1x4x17x256xbf16>) -> tensor<32x4x128x256xbf16> loc(#loc81)
        %153 = "ttir.slice_static"(%140) <{begins = [6 : i32, 0 : i32, 0 : i32, 0 : i32], ends = [7 : i32, 4 : i32, 17 : i32, 256 : i32], step = [1 : i32, 1 : i32, 1 : i32, 1 : i32]}> : (tensor<32x4x17x256xbf16>) -> tensor<1x4x17x256xbf16> loc(#loc81)
        %154 = "ttir.fill_cache"(%152, %153) <{batch_offset = 6 : i32}> : (tensor<32x4x128x256xbf16>, tensor<1x4x17x256xbf16>) -> tensor<32x4x128x256xbf16> loc(#loc81)
        %155 = "ttir.slice_static"(%140) <{begins = [7 : i32, 0 : i32, 0 : i32, 0 : i32], ends = [8 : i32, 4 : i32, 17 : i32, 256 : i32], step = [1 : i32, 1 : i32, 1 : i32, 1 : i32]}> : (tensor<32x4x17x256xbf16>) -> tensor<1x4x17x256xbf16> loc(#loc81)
        %156 = "ttir.fill_cache"(%154, %155) <{batch_offset = 7 : i32}> : (tensor<32x4x128x256xbf16>, tensor<1x4x17x256xbf16>) -> tensor<32x4x128x256xbf16> loc(#loc81)
        %157 = "ttir.slice_static"(%140) <{begins = [8 : i32, 0 : i32, 0 : i32, 0 : i32], ends = [9 : i32, 4 : i32, 17 : i32, 256 : i32], step = [1 : i32, 1 : i32, 1 : i32, 1 : i32]}> : (tensor<32x4x17x256xbf16>) -> tensor<1x4x17x256xbf16> loc(#loc81)
        %158 = "ttir.fill_cache"(%156, %157) <{batch_offset = 8 : i32}> : (tensor<32x4x128x256xbf16>, tensor<1x4x17x256xbf16>) -> tensor<32x4x128x256xbf16> loc(#loc81)
        %159 = "ttir.slice_static"(%140) <{begins = [9 : i32, 0 : i32, 0 : i32, 0 : i32], ends = [10 : i32, 4 : i32, 17 : i32, 256 : i32], step = [1 : i32, 1 : i32, 1 : i32, 1 : i32]}> : (tensor<32x4x17x256xbf16>) -> tensor<1x4x17x256xbf16> loc(#loc81)
        %160 = "ttir.fill_cache"(%158, %159) <{batch_offset = 9 : i32}> : (tensor<32x4x128x256xbf16>, tensor<1x4x17x256xbf16>) -> tensor<32x4x128x256xbf16> loc(#loc81)
        %161 = "ttir.slice_static"(%140) <{begins = [10 : i32, 0 : i32, 0 : i32, 0 : i32], ends = [11 : i32, 4 : i32, 17 : i32, 256 : i32], step = [1 : i32, 1 : i32, 1 : i32, 1 : i32]}> : (tensor<32x4x17x256xbf16>) -> tensor<1x4x17x256xbf16> loc(#loc81)
        %162 = "ttir.fill_cache"(%160, %161) <{batch_offset = 10 : i32}> : (tensor<32x4x128x256xbf16>, tensor<1x4x17x256xbf16>) -> tensor<32x4x128x256xbf16> loc(#loc81)
        %163 = "ttir.slice_static"(%140) <{begins = [11 : i32, 0 : i32, 0 : i32, 0 : i32], ends = [12 : i32, 4 : i32, 17 : i32, 256 : i32], step = [1 : i32, 1 : i32, 1 : i32, 1 : i32]}> : (tensor<32x4x17x256xbf16>) -> tensor<1x4x17x256xbf16> loc(#loc81)
        %164 = "ttir.fill_cache"(%162, %163) <{batch_offset = 11 : i32}> : (tensor<32x4x128x256xbf16>, tensor<1x4x17x256xbf16>) -> tensor<32x4x128x256xbf16> loc(#loc81)
        %165 = "ttir.slice_static"(%140) <{begins = [12 : i32, 0 : i32, 0 : i32, 0 : i32], ends = [13 : i32, 4 : i32, 17 : i32, 256 : i32], step = [1 : i32, 1 : i32, 1 : i32, 1 : i32]}> : (tensor<32x4x17x256xbf16>) -> tensor<1x4x17x256xbf16> loc(#loc81)
        %166 = "ttir.fill_cache"(%164, %165) <{batch_offset = 12 : i32}> : (tensor<32x4x128x256xbf16>, tensor<1x4x17x256xbf16>) -> tensor<32x4x128x256xbf16> loc(#loc81)
        %167 = "ttir.slice_static"(%140) <{begins = [13 : i32, 0 : i32, 0 : i32, 0 : i32], ends = [14 : i32, 4 : i32, 17 : i32, 256 : i32], step = [1 : i32, 1 : i32, 1 : i32, 1 : i32]}> : (tensor<32x4x17x256xbf16>) -> tensor<1x4x17x256xbf16> loc(#loc81)
        %168 = "ttir.fill_cache"(%166, %167) <{batch_offset = 13 : i32}> : (tensor<32x4x128x256xbf16>, tensor<1x4x17x256xbf16>) -> tensor<32x4x128x256xbf16> loc(#loc81)
        %169 = "ttir.slice_static"(%140) <{begins = [14 : i32, 0 : i32, 0 : i32, 0 : i32], ends = [15 : i32, 4 : i32, 17 : i32, 256 : i32], step = [1 : i32, 1 : i32, 1 : i32, 1 : i32]}> : (tensor<32x4x17x256xbf16>) -> tensor<1x4x17x256xbf16> loc(#loc81)
        %170 = "ttir.fill_cache"(%168, %169) <{batch_offset = 14 : i32}> : (tensor<32x4x128x256xbf16>, tensor<1x4x17x256xbf16>) -> tensor<32x4x128x256xbf16> loc(#loc81)
        %171 = "ttir.slice_static"(%140) <{begins = [15 : i32, 0 : i32, 0 : i32, 0 : i32], ends = [16 : i32, 4 : i32, 17 : i32, 256 : i32], step = [1 : i32, 1 : i32, 1 : i32, 1 : i32]}> : (tensor<32x4x17x256xbf16>) -> tensor<1x4x17x256xbf16> loc(#loc81)
        %172 = "ttir.fill_cache"(%170, %171) <{batch_offset = 15 : i32}> : (tensor<32x4x128x256xbf16>, tensor<1x4x17x256xbf16>) -> tensor<32x4x128x256xbf16> loc(#loc81)
        %173 = "ttir.slice_static"(%140) <{begins = [16 : i32, 0 : i32, 0 : i32, 0 : i32], ends = [17 : i32, 4 : i32, 17 : i32, 256 : i32], step = [1 : i32, 1 : i32, 1 : i32, 1 : i32]}> : (tensor<32x4x17x256xbf16>) -> tensor<1x4x17x256xbf16> loc(#loc81)
        %174 = "ttir.fill_cache"(%172, %173) <{batch_offset = 16 : i32}> : (tensor<32x4x128x256xbf16>, tensor<1x4x17x256xbf16>) -> tensor<32x4x128x256xbf16> loc(#loc81)
        %175 = "ttir.slice_static"(%140) <{begins = [17 : i32, 0 : i32, 0 : i32, 0 : i32], ends = [18 : i32, 4 : i32, 17 : i32, 256 : i32], step = [1 : i32, 1 : i32, 1 : i32, 1 : i32]}> : (tensor<32x4x17x256xbf16>) -> tensor<1x4x17x256xbf16> loc(#loc81)
        %176 = "ttir.fill_cache"(%174, %175) <{batch_offset = 17 : i32}> : (tensor<32x4x128x256xbf16>, tensor<1x4x17x256xbf16>) -> tensor<32x4x128x256xbf16> loc(#loc81)
        %177 = "ttir.slice_static"(%140) <{begins = [18 : i32, 0 : i32, 0 : i32, 0 : i32], ends = [19 : i32, 4 : i32, 17 : i32, 256 : i32], step = [1 : i32, 1 : i32, 1 : i32, 1 : i32]}> : (tensor<32x4x17x256xbf16>) -> tensor<1x4x17x256xbf16> loc(#loc81)
        %178 = "ttir.fill_cache"(%176, %177) <{batch_offset = 18 : i32}> : (tensor<32x4x128x256xbf16>, tensor<1x4x17x256xbf16>) -> tensor<32x4x128x256xbf16> loc(#loc81)
        %179 = "ttir.slice_static"(%140) <{begins = [19 : i32, 0 : i32, 0 : i32, 0 : i32], ends = [20 : i32, 4 : i32, 17 : i32, 256 : i32], step = [1 : i32, 1 : i32, 1 : i32, 1 : i32]}> : (tensor<32x4x17x256xbf16>) -> tensor<1x4x17x256xbf16> loc(#loc81)
        %180 = "ttir.fill_cache"(%178, %179) <{batch_offset = 19 : i32}> : (tensor<32x4x128x256xbf16>, tensor<1x4x17x256xbf16>) -> tensor<32x4x128x256xbf16> loc(#loc81)
        %181 = "ttir.slice_static"(%140) <{begins = [20 : i32, 0 : i32, 0 : i32, 0 : i32], ends = [21 : i32, 4 : i32, 17 : i32, 256 : i32], step = [1 : i32, 1 : i32, 1 : i32, 1 : i32]}> : (tensor<32x4x17x256xbf16>) -> tensor<1x4x17x256xbf16> loc(#loc81)
        %182 = "ttir.fill_cache"(%180, %181) <{batch_offset = 20 : i32}> : (tensor<32x4x128x256xbf16>, tensor<1x4x17x256xbf16>) -> tensor<32x4x128x256xbf16> loc(#loc81)
        %183 = "ttir.slice_static"(%140) <{begins = [21 : i32, 0 : i32, 0 : i32, 0 : i32], ends = [22 : i32, 4 : i32, 17 : i32, 256 : i32], step = [1 : i32, 1 : i32, 1 : i32, 1 : i32]}> : (tensor<32x4x17x256xbf16>) -> tensor<1x4x17x256xbf16> loc(#loc81)
        %184 = "ttir.fill_cache"(%182, %183) <{batch_offset = 21 : i32}> : (tensor<32x4x128x256xbf16>, tensor<1x4x17x256xbf16>) -> tensor<32x4x128x256xbf16> loc(#loc81)
        %185 = "ttir.slice_static"(%140) <{begins = [22 : i32, 0 : i32, 0 : i32, 0 : i32], ends = [23 : i32, 4 : i32, 17 : i32, 256 : i32], step = [1 : i32, 1 : i32, 1 : i32, 1 : i32]}> : (tensor<32x4x17x256xbf16>) -> tensor<1x4x17x256xbf16> loc(#loc81)
        %186 = "ttir.fill_cache"(%184, %185) <{batch_offset = 22 : i32}> : (tensor<32x4x128x256xbf16>, tensor<1x4x17x256xbf16>) -> tensor<32x4x128x256xbf16> loc(#loc81)
        %187 = "ttir.slice_static"(%140) <{begins = [23 : i32, 0 : i32, 0 : i32, 0 : i32], ends = [24 : i32, 4 : i32, 17 : i32, 256 : i32], step = [1 : i32, 1 : i32, 1 : i32, 1 : i32]}> : (tensor<32x4x17x256xbf16>) -> tensor<1x4x17x256xbf16> loc(#loc81)
        %188 = "ttir.fill_cache"(%186, %187) <{batch_offset = 23 : i32}> : (tensor<32x4x128x256xbf16>, tensor<1x4x17x256xbf16>) -> tensor<32x4x128x256xbf16> loc(#loc81)
        %189 = "ttir.slice_static"(%140) <{begins = [24 : i32, 0 : i32, 0 : i32, 0 : i32], ends = [25 : i32, 4 : i32, 17 : i32, 256 : i32], step = [1 : i32, 1 : i32, 1 : i32, 1 : i32]}> : (tensor<32x4x17x256xbf16>) -> tensor<1x4x17x256xbf16> loc(#loc81)
        %190 = "ttir.fill_cache"(%188, %189) <{batch_offset = 24 : i32}> : (tensor<32x4x128x256xbf16>, tensor<1x4x17x256xbf16>) -> tensor<32x4x128x256xbf16> loc(#loc81)
        %191 = "ttir.slice_static"(%140) <{begins = [25 : i32, 0 : i32, 0 : i32, 0 : i32], ends = [26 : i32, 4 : i32, 17 : i32, 256 : i32], step = [1 : i32, 1 : i32, 1 : i32, 1 : i32]}> : (tensor<32x4x17x256xbf16>) -> tensor<1x4x17x256xbf16> loc(#loc81)
        %192 = "ttir.fill_cache"(%190, %191) <{batch_offset = 25 : i32}> : (tensor<32x4x128x256xbf16>, tensor<1x4x17x256xbf16>) -> tensor<32x4x128x256xbf16> loc(#loc81)
        %193 = "ttir.slice_static"(%140) <{begins = [26 : i32, 0 : i32, 0 : i32, 0 : i32], ends = [27 : i32, 4 : i32, 17 : i32, 256 : i32], step = [1 : i32, 1 : i32, 1 : i32, 1 : i32]}> : (tensor<32x4x17x256xbf16>) -> tensor<1x4x17x256xbf16> loc(#loc81)
        %194 = "ttir.fill_cache"(%192, %193) <{batch_offset = 26 : i32}> : (tensor<32x4x128x256xbf16>, tensor<1x4x17x256xbf16>) -> tensor<32x4x128x256xbf16> loc(#loc81)
        %195 = "ttir.slice_static"(%140) <{begins = [27 : i32, 0 : i32, 0 : i32, 0 : i32], ends = [28 : i32, 4 : i32, 17 : i32, 256 : i32], step = [1 : i32, 1 : i32, 1 : i32, 1 : i32]}> : (tensor<32x4x17x256xbf16>) -> tensor<1x4x17x256xbf16> loc(#loc81)
        %196 = "ttir.fill_cache"(%194, %195) <{batch_offset = 27 : i32}> : (tensor<32x4x128x256xbf16>, tensor<1x4x17x256xbf16>) -> tensor<32x4x128x256xbf16> loc(#loc81)
        %197 = "ttir.slice_static"(%140) <{begins = [28 : i32, 0 : i32, 0 : i32, 0 : i32], ends = [29 : i32, 4 : i32, 17 : i32, 256 : i32], step = [1 : i32, 1 : i32, 1 : i32, 1 : i32]}> : (tensor<32x4x17x256xbf16>) -> tensor<1x4x17x256xbf16> loc(#loc81)
        %198 = "ttir.fill_cache"(%196, %197) <{batch_offset = 28 : i32}> : (tensor<32x4x128x256xbf16>, tensor<1x4x17x256xbf16>) -> tensor<32x4x128x256xbf16> loc(#loc81)
        %199 = "ttir.slice_static"(%140) <{begins = [29 : i32, 0 : i32, 0 : i32, 0 : i32], ends = [30 : i32, 4 : i32, 17 : i32, 256 : i32], step = [1 : i32, 1 : i32, 1 : i32, 1 : i32]}> : (tensor<32x4x17x256xbf16>) -> tensor<1x4x17x256xbf16> loc(#loc81)
        %200 = "ttir.fill_cache"(%198, %199) <{batch_offset = 29 : i32}> : (tensor<32x4x128x256xbf16>, tensor<1x4x17x256xbf16>) -> tensor<32x4x128x256xbf16> loc(#loc81)
        %201 = "ttir.slice_static"(%140) <{begins = [30 : i32, 0 : i32, 0 : i32, 0 : i32], ends = [31 : i32, 4 : i32, 17 : i32, 256 : i32], step = [1 : i32, 1 : i32, 1 : i32, 1 : i32]}> : (tensor<32x4x17x256xbf16>) -> tensor<1x4x17x256xbf16> loc(#loc81)
        %202 = "ttir.fill_cache"(%200, %201) <{batch_offset = 30 : i32}> : (tensor<32x4x128x256xbf16>, tensor<1x4x17x256xbf16>) -> tensor<32x4x128x256xbf16> loc(#loc81)
        %203 = "ttir.slice_static"(%140) <{begins = [31 : i32, 0 : i32, 0 : i32, 0 : i32], ends = [32 : i32, 4 : i32, 17 : i32, 256 : i32], step = [1 : i32, 1 : i32, 1 : i32, 1 : i32]}> : (tensor<32x4x17x256xbf16>) -> tensor<1x4x17x256xbf16> loc(#loc81)
        %204 = "ttir.fill_cache"(%202, %203) <{batch_offset = 31 : i32}> : (tensor<32x4x128x256xbf16>, tensor<1x4x17x256xbf16>) -> tensor<32x4x128x256xbf16> loc(#loc81)
        %205 = "ttir.reshape"(%arg16) <{shape = [1 : i32, 1 : i32, 2048 : i32]}> : (tensor<2048xbf16>) -> tensor<1x1x2048xbf16> loc(#loc82)
        %206 = "ttir.reshape"(%205) <{shape = [2048 : i32]}> : (tensor<1x1x2048xbf16>) -> tensor<2048xbf16> loc(#loc83)
        %207 = "ttir.reshape"(%206) <{shape = [1 : i32, 1 : i32, 2048 : i32]}> : (tensor<2048xbf16>) -> tensor<1x1x2048xbf16> loc(#loc84)
        %208 = "ttir.broadcast"(%207) <{broadcast_dimensions = array<i64: 32, 17, 1>}> : (tensor<1x1x2048xbf16>) -> tensor<32x17x2048xbf16> loc(#loc84)
        %209 = "ttir.reshape"(%arg13) <{shape = [1 : i32, 2048 : i32, 2048 : i32]}> : (tensor<2048x2048xbf16>) -> tensor<1x2048x2048xbf16> loc(#loc85)
        %210 = "ttir.reshape"(%209) <{shape = [2048 : i32, 2048 : i32]}> : (tensor<1x2048x2048xbf16>) -> tensor<2048x2048xbf16> loc(#loc86)
        %211 = "ttir.permute"(%210) <{permutation = array<i64: 1, 0>}> : (tensor<2048x2048xbf16>) -> tensor<2048x2048xbf16> loc(#loc87)
        %212 = "ttir.dot_general"(%40, %211) <{batch_dims_lhs = array<i64>, batch_dims_rhs = array<i64>, contract_dims_lhs = array<i64: 1>, contract_dims_rhs = array<i64: 0>}> : (tensor<544x2048xbf16>, tensor<2048x2048xbf16>) -> tensor<544x2048xbf16> loc(#loc88)
        %213 = "ttir.reshape"(%212) <{shape = [32 : i32, 17 : i32, 8 : i32, 256 : i32]}> : (tensor<544x2048xbf16>) -> tensor<32x17x8x256xbf16> loc(#loc89)
        %214 = "ttir.permute"(%213) <{permutation = array<i64: 0, 2, 1, 3>}> : (tensor<32x17x8x256xbf16>) -> tensor<32x8x17x256xbf16> loc(#loc90)
        %215 = "ttir.broadcast"(%57) <{broadcast_dimensions = array<i64: 32, 8, 1, 1>}> : (tensor<1x1x17x256xbf16>) -> tensor<32x8x17x256xbf16> loc(#loc91)
        %216 = "ttir.multiply"(%214, %215) : (tensor<32x8x17x256xbf16>, tensor<32x8x17x256xbf16>) -> tensor<32x8x17x256xbf16> loc(#loc92)
        %217 = "ttir.slice_static"(%214) <{begins = [0 : i32, 0 : i32, 0 : i32, 128 : i32], ends = [32 : i32, 8 : i32, 17 : i32, 256 : i32], step = [1 : i32, 1 : i32, 1 : i32, 1 : i32]}> : (tensor<32x8x17x256xbf16>) -> tensor<32x8x17x128xbf16> loc(#loc93)
        %218 = "ttir.neg"(%217) : (tensor<32x8x17x128xbf16>) -> tensor<32x8x17x128xbf16> loc(#loc94)
        %219 = "ttir.slice_static"(%214) <{begins = [0 : i32, 0 : i32, 0 : i32, 0 : i32], ends = [32 : i32, 8 : i32, 17 : i32, 128 : i32], step = [1 : i32, 1 : i32, 1 : i32, 1 : i32]}> : (tensor<32x8x17x256xbf16>) -> tensor<32x8x17x128xbf16> loc(#loc95)
        %220 = "ttir.concat"(%218, %219) <{dim = 3 : si32}> : (tensor<32x8x17x128xbf16>, tensor<32x8x17x128xbf16>) -> tensor<32x8x17x256xbf16> loc(#loc96)
        %221 = "ttir.broadcast"(%67) <{broadcast_dimensions = array<i64: 32, 8, 1, 1>}> : (tensor<1x1x17x256xbf16>) -> tensor<32x8x17x256xbf16> loc(#loc97)
        %222 = "ttir.multiply"(%220, %221) : (tensor<32x8x17x256xbf16>, tensor<32x8x17x256xbf16>) -> tensor<32x8x17x256xbf16> loc(#loc98)
        %223 = "ttir.add"(%216, %222) : (tensor<32x8x17x256xbf16>, tensor<32x8x17x256xbf16>) -> tensor<32x8x17x256xbf16> loc(#loc99)
        %224 = "ttir.reshape"(%134) <{shape = [32 : i32, 4 : i32, 1 : i32, 128 : i32, 256 : i32]}> : (tensor<32x4x128x256xbf16>) -> tensor<32x4x1x128x256xbf16> loc(#loc100)
        %225 = "ttir.broadcast"(%224) <{broadcast_dimensions = array<i64: 1, 1, 2, 1, 1>}> : (tensor<32x4x1x128x256xbf16>) -> tensor<32x4x2x128x256xbf16> loc(#loc100)
        %226 = "ttir.reshape"(%225) <{shape = [32 : i32, 8 : i32, 128 : i32, 256 : i32]}> : (tensor<32x4x2x128x256xbf16>) -> tensor<32x8x128x256xbf16> loc(#loc101)
        %227 = "ttir.permute"(%226) <{permutation = array<i64: 0, 1, 3, 2>}> : (tensor<32x8x128x256xbf16>) -> tensor<32x8x256x128xbf16> loc(#loc102)
        %228 = "ttir.dot_general"(%223, %227) <{batch_dims_lhs = array<i64: 0, 1>, batch_dims_rhs = array<i64: 0, 1>, contract_dims_lhs = array<i64: 3>, contract_dims_rhs = array<i64: 2>}> : (tensor<32x8x17x256xbf16>, tensor<32x8x256x128xbf16>) -> tensor<32x8x17x128xbf16> loc(#loc103)
        %229 = "ttir.multiply"(%228, %3) : (tensor<32x8x17x128xbf16>, tensor<32x8x17x128xbf16>) -> tensor<32x8x17x128xbf16> loc(#loc104)
        %230 = "ttir.reshape"(%10) <{shape = [1 : i32, 128 : i32]}> : (tensor<128xi64>) -> tensor<1x128xi64> loc(#loc105)
        %231 = "ttir.broadcast"(%230) <{broadcast_dimensions = array<i64: 17, 1>}> : (tensor<1x128xi64>) -> tensor<17x128xi64> loc(#loc105)
        %232 = "ttir.reshape"(%9) <{shape = [17 : i32, 1 : i32]}> : (tensor<17xi64>) -> tensor<17x1xi64> loc(#loc106)
        %233 = "ttir.broadcast"(%232) <{broadcast_dimensions = array<i64: 1, 128>}> : (tensor<17x1xi64>) -> tensor<17x128xi64> loc(#loc106)
        %234 = "ttir.subtract"(%231, %233) : (tensor<17x128xi64>, tensor<17x128xi64>) -> tensor<17x128xi64> loc(#loc107)
        %235 = "ttir.ge"(%234, %2) : (tensor<17x128xi64>, tensor<17x128xi64>) -> tensor<17x128xi1> loc(#loc108)
        %236 = "ttir.where"(%235, %1, %0) : (tensor<17x128xi1>, tensor<17x128xbf16>, tensor<17x128xbf16>) -> tensor<17x128xbf16> loc(#loc109)
        %237 = "ttir.reshape"(%12) <{shape = [17 : i32, 1 : i32]}> : (tensor<17xi64>) -> tensor<17x1xi64> loc(#loc110)
        %238 = "ttir.broadcast"(%237) <{broadcast_dimensions = array<i64: 1, 128>}> : (tensor<17x1xi64>) -> tensor<17x128xi64> loc(#loc110)
        %239 = "ttir.gt"(%231, %238) : (tensor<17x128xi64>, tensor<17x128xi64>) -> tensor<17x128xi1> loc(#loc111)
        %240 = "ttir.typecast"(%239) <{conservative_folding = false}> : (tensor<17x128xi1>) -> tensor<17x128xbf16> loc(#loc112)
        %241 = "ttir.multiply"(%236, %240) : (tensor<17x128xbf16>, tensor<17x128xbf16>) -> tensor<17x128xbf16> loc(#loc113)
        %242 = "ttir.reshape"(%241) <{shape = [1 : i32, 17 : i32, 128 : i32]}> : (tensor<17x128xbf16>) -> tensor<1x17x128xbf16> loc(#loc114)
        %243 = "ttir.reshape"(%242) <{shape = [1 : i32, 1 : i32, 17 : i32, 128 : i32]}> : (tensor<1x17x128xbf16>) -> tensor<1x1x17x128xbf16> loc(#loc115)
        %244 = "ttir.broadcast"(%243) <{broadcast_dimensions = array<i64: 32, 1, 1, 1>}> : (tensor<1x1x17x128xbf16>) -> tensor<32x1x17x128xbf16> loc(#loc115)
        %245 = "ttir.reshape"(%244) <{shape = [32 : i32, 17 : i32, 128 : i32]}> : (tensor<32x1x17x128xbf16>) -> tensor<32x17x128xbf16> loc(#loc116)
        %246 = "ttir.reshape"(%245) <{shape = [32 : i32, 1 : i32, 17 : i32, 128 : i32]}> : (tensor<32x17x128xbf16>) -> tensor<32x1x17x128xbf16> loc(#loc117)
        %247 = "ttir.broadcast"(%246) <{broadcast_dimensions = array<i64: 1, 8, 1, 1>}> : (tensor<32x1x17x128xbf16>) -> tensor<32x8x17x128xbf16> loc(#loc117)
        %248 = "ttir.add"(%229, %247) : (tensor<32x8x17x128xbf16>, tensor<32x8x17x128xbf16>) -> tensor<32x8x17x128xbf16> loc(#loc118)
        %249 = "ttir.typecast"(%248) <{conservative_folding = false}> : (tensor<32x8x17x128xbf16>) -> tensor<32x8x17x128xf32> loc(#loc119)
        %250 = "ttir.max"(%249) <{dim_arg = [3 : i32], keep_dim = false}> : (tensor<32x8x17x128xf32>) -> tensor<32x8x17xf32> loc(#loc120)
        %251 = "ttir.reshape"(%250) <{shape = [32 : i32, 8 : i32, 17 : i32, 1 : i32]}> : (tensor<32x8x17xf32>) -> tensor<32x8x17x1xf32> loc(#loc121)
        %252 = "ttir.broadcast"(%251) <{broadcast_dimensions = array<i64: 1, 1, 1, 128>}> : (tensor<32x8x17x1xf32>) -> tensor<32x8x17x128xf32> loc(#loc121)
        %253 = "ttir.subtract"(%249, %252) : (tensor<32x8x17x128xf32>, tensor<32x8x17x128xf32>) -> tensor<32x8x17x128xf32> loc(#loc122)
        %254 = "ttir.exp"(%253) : (tensor<32x8x17x128xf32>) -> tensor<32x8x17x128xf32> loc(#loc123)
        %255 = "ttir.sum"(%254) <{dim_arg = [3 : i32], keep_dim = false}> : (tensor<32x8x17x128xf32>) -> tensor<32x8x17xf32> loc(#loc124)
        %256 = "ttir.reshape"(%255) <{shape = [32 : i32, 8 : i32, 17 : i32, 1 : i32]}> : (tensor<32x8x17xf32>) -> tensor<32x8x17x1xf32> loc(#loc125)
        %257 = "ttir.broadcast"(%256) <{broadcast_dimensions = array<i64: 1, 1, 1, 128>}> : (tensor<32x8x17x1xf32>) -> tensor<32x8x17x128xf32> loc(#loc125)
        %258 = "ttir.div"(%254, %257) : (tensor<32x8x17x128xf32>, tensor<32x8x17x128xf32>) -> tensor<32x8x17x128xf32> loc(#loc126)
        %259 = "ttir.typecast"(%258) <{conservative_folding = false}> : (tensor<32x8x17x128xf32>) -> tensor<32x8x17x128xbf16> loc(#loc127)
        %260 = "ttir.reshape"(%204) <{shape = [32 : i32, 4 : i32, 1 : i32, 128 : i32, 256 : i32]}> : (tensor<32x4x128x256xbf16>) -> tensor<32x4x1x128x256xbf16> loc(#loc128)
        %261 = "ttir.broadcast"(%260) <{broadcast_dimensions = array<i64: 1, 1, 2, 1, 1>}> : (tensor<32x4x1x128x256xbf16>) -> tensor<32x4x2x128x256xbf16> loc(#loc128)
        %262 = "ttir.reshape"(%261) <{shape = [32 : i32, 8 : i32, 128 : i32, 256 : i32]}> : (tensor<32x4x2x128x256xbf16>) -> tensor<32x8x128x256xbf16> loc(#loc129)
        %263 = "ttir.dot_general"(%259, %262) <{batch_dims_lhs = array<i64: 0, 1>, batch_dims_rhs = array<i64: 0, 1>, contract_dims_lhs = array<i64: 3>, contract_dims_rhs = array<i64: 2>}> : (tensor<32x8x17x128xbf16>, tensor<32x8x128x256xbf16>) -> tensor<32x8x17x256xbf16> loc(#loc130)
        %264 = "ttir.permute"(%263) <{permutation = array<i64: 0, 2, 1, 3>}> : (tensor<32x8x17x256xbf16>) -> tensor<32x17x8x256xbf16> loc(#loc131)
        %265 = "ttir.reshape"(%264) <{shape = [544 : i32, 2048 : i32]}> : (tensor<32x17x8x256xbf16>) -> tensor<544x2048xbf16> loc(#loc132)
        %266 = "ttir.reshape"(%arg12) <{shape = [1 : i32, 2048 : i32, 2048 : i32]}> : (tensor<2048x2048xbf16>) -> tensor<1x2048x2048xbf16> loc(#loc133)
        %267 = "ttir.reshape"(%266) <{shape = [2048 : i32, 2048 : i32]}> : (tensor<1x2048x2048xbf16>) -> tensor<2048x2048xbf16> loc(#loc134)
        %268 = "ttir.permute"(%267) <{permutation = array<i64: 1, 0>}> : (tensor<2048x2048xbf16>) -> tensor<2048x2048xbf16> loc(#loc135)
        %269 = "ttir.dot_general"(%265, %268) <{batch_dims_lhs = array<i64>, batch_dims_rhs = array<i64>, contract_dims_lhs = array<i64: 1>, contract_dims_rhs = array<i64: 0>}> : (tensor<544x2048xbf16>, tensor<2048x2048xbf16>) -> tensor<544x2048xbf16> loc(#loc136)
        %270 = "ttir.reshape"(%269) <{shape = [32 : i32, 17 : i32, 2048 : i32]}> : (tensor<544x2048xbf16>) -> tensor<32x17x2048xbf16> loc(#loc137)
        %271 = "ttir.add"(%26, %270) : (tensor<32x17x2048xbf16>, tensor<32x17x2048xbf16>) -> tensor<32x17x2048xbf16> loc(#loc138)
        %272 = "ttir.reshape"(%arg14) <{shape = [1 : i32, 1 : i32, 2048 : i32]}> : (tensor<2048xbf16>) -> tensor<1x1x2048xbf16> loc(#loc139)
        %273 = "ttir.reshape"(%272) <{shape = [2048 : i32]}> : (tensor<1x1x2048xbf16>) -> tensor<2048xbf16> loc(#loc140)
        %274 = "ttir.reshape"(%273) <{shape = [1 : i32, 1 : i32, 2048 : i32]}> : (tensor<2048xbf16>) -> tensor<1x1x2048xbf16> loc(#loc141)
        %275 = "ttir.broadcast"(%274) <{broadcast_dimensions = array<i64: 32, 17, 1>}> : (tensor<1x1x2048xbf16>) -> tensor<32x17x2048xbf16> loc(#loc141)
        %276 = "ttir.typecast"(%271) <{conservative_folding = false}> : (tensor<32x17x2048xbf16>) -> tensor<32x17x2048xf32> loc(#loc142)
        %277 = "ttir.pow"(%276, %6) : (tensor<32x17x2048xf32>, tensor<32x17x2048xf32>) -> tensor<32x17x2048xf32> loc(#loc143)
        %278 = "ttir.sum"(%277) <{dim_arg = [2 : i32], keep_dim = false}> : (tensor<32x17x2048xf32>) -> tensor<32x17xf32> loc(#loc144)
        %279 = "ttir.multiply"(%278, %5) : (tensor<32x17xf32>, tensor<32x17xf32>) -> tensor<32x17xf32> loc(#loc145)
        %280 = "ttir.reshape"(%279) <{shape = [32 : i32, 17 : i32, 1 : i32]}> : (tensor<32x17xf32>) -> tensor<32x17x1xf32> loc(#loc146)
        %281 = "ttir.add"(%280, %4) : (tensor<32x17x1xf32>, tensor<32x17x1xf32>) -> tensor<32x17x1xf32> loc(#loc147)
        %282 = "ttir.rsqrt"(%281) : (tensor<32x17x1xf32>) -> tensor<32x17x1xf32> loc(#loc148)
        %283 = "ttir.reshape"(%282) <{shape = [32 : i32, 17 : i32]}> : (tensor<32x17x1xf32>) -> tensor<32x17xf32> loc(#loc149)
        %284 = "ttir.reshape"(%283) <{shape = [32 : i32, 17 : i32, 1 : i32]}> : (tensor<32x17xf32>) -> tensor<32x17x1xf32> loc(#loc150)
        %285 = "ttir.broadcast"(%284) <{broadcast_dimensions = array<i64: 1, 1, 2048>}> : (tensor<32x17x1xf32>) -> tensor<32x17x2048xf32> loc(#loc150)
        %286 = "ttir.multiply"(%276, %285) : (tensor<32x17x2048xf32>, tensor<32x17x2048xf32>) -> tensor<32x17x2048xf32> loc(#loc151)
        %287 = "ttir.typecast"(%286) <{conservative_folding = false}> : (tensor<32x17x2048xf32>) -> tensor<32x17x2048xbf16> loc(#loc152)
        %288 = "ttir.multiply"(%275, %287) : (tensor<32x17x2048xbf16>, tensor<32x17x2048xbf16>) -> tensor<32x17x2048xbf16> loc(#loc153)
        %289 = "ttir.reshape"(%288) <{shape = [544 : i32, 2048 : i32]}> : (tensor<32x17x2048xbf16>) -> tensor<544x2048xbf16> loc(#loc154)
        %290 = "ttir.reshape"(%arg15) <{shape = [1 : i32, 8192 : i32, 2048 : i32]}> : (tensor<8192x2048xbf16>) -> tensor<1x8192x2048xbf16> loc(#loc155)
        %291 = "ttir.reshape"(%290) <{shape = [8192 : i32, 2048 : i32]}> : (tensor<1x8192x2048xbf16>) -> tensor<8192x2048xbf16> loc(#loc156)
        %292 = "ttir.permute"(%291) <{permutation = array<i64: 1, 0>}> : (tensor<8192x2048xbf16>) -> tensor<2048x8192xbf16> loc(#loc157)
        %293 = "ttir.dot_general"(%289, %292) <{batch_dims_lhs = array<i64>, batch_dims_rhs = array<i64>, contract_dims_lhs = array<i64: 1>, contract_dims_rhs = array<i64: 0>}> : (tensor<544x2048xbf16>, tensor<2048x8192xbf16>) -> tensor<544x8192xbf16> loc(#loc158)
        %294 = "ttir.reshape"(%293) <{shape = [32 : i32, 17 : i32, 8192 : i32]}> : (tensor<544x8192xbf16>) -> tensor<32x17x8192xbf16> loc(#loc159)
        %295 = "ttir.sigmoid"(%294) : (tensor<32x17x8192xbf16>) -> tensor<32x17x8192xbf16> loc(#loc160)
        %296 = "ttir.multiply"(%294, %295) : (tensor<32x17x8192xbf16>, tensor<32x17x8192xbf16>) -> tensor<32x17x8192xbf16> loc(#loc161)
        %297 = "ttir.reshape"(%arg11) <{shape = [1 : i32, 8192 : i32, 2048 : i32]}> : (tensor<8192x2048xbf16>) -> tensor<1x8192x2048xbf16> loc(#loc162)
        %298 = "ttir.reshape"(%297) <{shape = [8192 : i32, 2048 : i32]}> : (tensor<1x8192x2048xbf16>) -> tensor<8192x2048xbf16> loc(#loc163)
        %299 = "ttir.permute"(%298) <{permutation = array<i64: 1, 0>}> : (tensor<8192x2048xbf16>) -> tensor<2048x8192xbf16> loc(#loc164)
        %300 = "ttir.dot_general"(%289, %299) <{batch_dims_lhs = array<i64>, batch_dims_rhs = array<i64>, contract_dims_lhs = array<i64: 1>, contract_dims_rhs = array<i64: 0>}> : (tensor<544x2048xbf16>, tensor<2048x8192xbf16>) -> tensor<544x8192xbf16> loc(#loc165)
        %301 = "ttir.reshape"(%300) <{shape = [32 : i32, 17 : i32, 8192 : i32]}> : (tensor<544x8192xbf16>) -> tensor<32x17x8192xbf16> loc(#loc166)
        %302 = "ttir.multiply"(%296, %301) : (tensor<32x17x8192xbf16>, tensor<32x17x8192xbf16>) -> tensor<32x17x8192xbf16> loc(#loc167)
        %303 = "ttir.reshape"(%302) <{shape = [544 : i32, 8192 : i32]}> : (tensor<32x17x8192xbf16>) -> tensor<544x8192xbf16> loc(#loc168)
        %304 = "ttir.reshape"(%arg10) <{shape = [1 : i32, 2048 : i32, 8192 : i32]}> : (tensor<2048x8192xbf16>) -> tensor<1x2048x8192xbf16> loc(#loc169)
        %305 = "ttir.reshape"(%304) <{shape = [2048 : i32, 8192 : i32]}> : (tensor<1x2048x8192xbf16>) -> tensor<2048x8192xbf16> loc(#loc170)
        %306 = "ttir.permute"(%305) <{permutation = array<i64: 1, 0>}> : (tensor<2048x8192xbf16>) -> tensor<8192x2048xbf16> loc(#loc171)
        %307 = "ttir.dot_general"(%303, %306) <{batch_dims_lhs = array<i64>, batch_dims_rhs = array<i64>, contract_dims_lhs = array<i64: 1>, contract_dims_rhs = array<i64: 0>}> : (tensor<544x8192xbf16>, tensor<8192x2048xbf16>) -> tensor<544x2048xbf16> loc(#loc172)
        %308 = "ttir.reshape"(%307) <{shape = [32 : i32, 17 : i32, 2048 : i32]}> : (tensor<544x2048xbf16>) -> tensor<32x17x2048xbf16> loc(#loc173)
        %309 = "ttir.add"(%271, %308) : (tensor<32x17x2048xbf16>, tensor<32x17x2048xbf16>) -> tensor<32x17x2048xbf16> loc(#loc174)
        %310 = "ttir.typecast"(%309) <{conservative_folding = false}> : (tensor<32x17x2048xbf16>) -> tensor<32x17x2048xf32> loc(#loc175)
        %311 = "ttir.pow"(%310, %6) : (tensor<32x17x2048xf32>, tensor<32x17x2048xf32>) -> tensor<32x17x2048xf32> loc(#loc176)
        %312 = "ttir.sum"(%311) <{dim_arg = [2 : i32], keep_dim = false}> : (tensor<32x17x2048xf32>) -> tensor<32x17xf32> loc(#loc177)
        %313 = "ttir.multiply"(%312, %5) : (tensor<32x17xf32>, tensor<32x17xf32>) -> tensor<32x17xf32> loc(#loc178)
        %314 = "ttir.reshape"(%313) <{shape = [32 : i32, 17 : i32, 1 : i32]}> : (tensor<32x17xf32>) -> tensor<32x17x1xf32> loc(#loc179)
        %315 = "ttir.add"(%314, %4) : (tensor<32x17x1xf32>, tensor<32x17x1xf32>) -> tensor<32x17x1xf32> loc(#loc180)
        %316 = "ttir.rsqrt"(%315) : (tensor<32x17x1xf32>) -> tensor<32x17x1xf32> loc(#loc181)
        %317 = "ttir.reshape"(%316) <{shape = [32 : i32, 17 : i32]}> : (tensor<32x17x1xf32>) -> tensor<32x17xf32> loc(#loc182)
        %318 = "ttir.reshape"(%317) <{shape = [32 : i32, 17 : i32, 1 : i32]}> : (tensor<32x17xf32>) -> tensor<32x17x1xf32> loc(#loc183)
        %319 = "ttir.broadcast"(%318) <{broadcast_dimensions = array<i64: 1, 1, 2048>}> : (tensor<32x17x1xf32>) -> tensor<32x17x2048xf32> loc(#loc183)
        %320 = "ttir.multiply"(%310, %319) : (tensor<32x17x2048xf32>, tensor<32x17x2048xf32>) -> tensor<32x17x2048xf32> loc(#loc184)
        %321 = "ttir.typecast"(%320) <{conservative_folding = false}> : (tensor<32x17x2048xf32>) -> tensor<32x17x2048xbf16> loc(#loc185)
        %322 = "ttir.multiply"(%208, %321) : (tensor<32x17x2048xbf16>, tensor<32x17x2048xbf16>) -> tensor<32x17x2048xbf16> loc(#loc186)
        %323 = "ttir.reshape"(%322) <{shape = [544 : i32, 2048 : i32]}> : (tensor<32x17x2048xbf16>) -> tensor<544x2048xbf16> loc(#loc187)
        %324 = "ttir.reshape"(%arg9) <{shape = [1 : i32, 131072 : i32, 2048 : i32]}> : (tensor<131072x2048xbf16>) -> tensor<1x131072x2048xbf16> loc(#loc188)
        %325 = "ttir.reshape"(%324) <{shape = [131072 : i32, 2048 : i32]}> : (tensor<1x131072x2048xbf16>) -> tensor<131072x2048xbf16> loc(#loc189)
        %326 = "ttir.permute"(%325) <{permutation = array<i64: 1, 0>}> : (tensor<131072x2048xbf16>) -> tensor<2048x131072xbf16> loc(#loc190)
        %327 = "ttir.dot_general"(%323, %326) <{batch_dims_lhs = array<i64>, batch_dims_rhs = array<i64>, contract_dims_lhs = array<i64: 1>, contract_dims_rhs = array<i64: 0>}> : (tensor<544x2048xbf16>, tensor<2048x131072xbf16>) -> tensor<544x131072xbf16> loc(#loc191)
        %328 = "ttir.reshape"(%327) <{shape = [32 : i32, 17 : i32, 131072 : i32]}> : (tensor<544x131072xbf16>) -> tensor<32x17x131072xbf16> loc(#loc192)
        return %134, %204, %328 : tensor<32x4x128x256xbf16>, tensor<32x4x128x256xbf16>, tensor<32x17x131072xbf16> loc(#loc)
      } loc(#loc)
    } loc(#loc)
  } loc(#loc)
} loc(#loc)
#loc = loc(unknown)
#loc18 = loc("reshape.4")
#loc19 = loc("reshape.6")
#loc20 = loc("compare.118")
#loc21 = loc("add.115")
#loc22 = loc("select.119")
#loc23 = loc("reshape.81")
#loc24 = loc("reshape.83")
#loc25 = loc("broadcast.84")
#loc26 = loc("reshape.45")
#loc27 = loc("reshape.47")
#loc28 = loc("reshape.40")
#loc29 = loc("reshape.43")
#loc30 = loc("convert.48")
#loc31 = loc("gather.49")
#loc32 = loc("reshape.50")
#loc33 = loc("convert.51")
#loc34 = loc("power.53")
#loc35 = loc("reduce.60")
#loc36 = loc("multiply.69")
#loc37 = loc("reshape.70")
#loc38 = loc("add.74")
#loc39 = loc("rsqrt.75")
#loc40 = loc("reshape.76")
#loc41 = loc("broadcast.77")
#loc42 = loc("multiply.78")
#loc43 = loc("convert.79")
#loc44 = loc("multiply.85")
#loc45 = loc("reshape.86")
#loc46 = loc("reshape.32")
#loc47 = loc("reshape.34")
#loc48 = loc("transpose.35")
#loc49 = loc("dot.87")
#loc50 = loc("reshape.89")
#loc51 = loc("transpose.90")
#loc52 = loc("reshape.14")
#loc53 = loc("reshape.19")
#loc54 = loc("convert.20")
#loc55 = loc("convert.11")
#loc56 = loc("dot.23")
#loc57 = loc("transpose.24")
#loc58 = loc("concatenate.25")
#loc59 = loc("cosine.99")
#loc60 = loc("convert.102")
#loc61 = loc("reshape.104")
#loc62 = loc("broadcast.105")
#loc63 = loc("multiply.106")
#loc64 = loc("slice.92")
#loc65 = loc("negate.93")
#loc66 = loc("slice.91")
#loc67 = loc("concatenate.94")
#loc68 = loc("sine.26")
#loc69 = loc("convert.29")
#loc70 = loc("reshape.95")
#loc71 = loc("broadcast.96")
#loc72 = loc("multiply.97")
#loc73 = loc("add.109")
#loc74 = loc("scatter.128")
#loc75 = loc("reshape.131")
#loc76 = loc("reshape.133")
#loc77 = loc("transpose.134")
#loc78 = loc("dot.136")
#loc79 = loc("reshape.138")
#loc80 = loc("transpose.139")
#loc81 = loc("scatter.158")
#loc82 = loc("reshape.403")
#loc83 = loc("reshape.405")
#loc84 = loc("broadcast.406")
#loc85 = loc("reshape.258")
#loc86 = loc("reshape.260")
#loc87 = loc("transpose.261")
#loc88 = loc("dot.263")
#loc89 = loc("reshape.265")
#loc90 = loc("transpose.266")
#loc91 = loc("broadcast.275")
#loc92 = loc("multiply.276")
#loc93 = loc("slice.268")
#loc94 = loc("negate.269")
#loc95 = loc("slice.267")
#loc96 = loc("concatenate.270")
#loc97 = loc("broadcast.272")
#loc98 = loc("multiply.273")
#loc99 = loc("add.279")
#loc100 = loc("broadcast.253")
#loc101 = loc("reshape.254")
#loc102 = loc("transpose.255")
#loc103 = loc("dot.280")
#loc104 = loc("multiply.283")
#loc105 = loc("broadcast.226")
#loc106 = loc("broadcast.228")
#loc107 = loc("subtract.229")
#loc108 = loc("compare.231")
#loc109 = loc("select.233")
#loc110 = loc("broadcast.202")
#loc111 = loc("compare.203")
#loc112 = loc("convert.204")
#loc113 = loc("multiply.234")
#loc114 = loc("reshape.235")
#loc115 = loc("broadcast.241")
#loc116 = loc("reshape.286")
#loc117 = loc("broadcast.287")
#loc118 = loc("add.288")
#loc119 = loc("convert.289")
#loc120 = loc("reduce.295")
#loc121 = loc("broadcast.296")
#loc122 = loc("subtract.297")
#loc123 = loc("exponential.298")
#loc124 = loc("reduce.304")
#loc125 = loc("broadcast.305")
#loc126 = loc("divide.306")
#loc127 = loc("convert.307")
#loc128 = loc("broadcast.195")
#loc129 = loc("reshape.196")
#loc130 = loc("dot.308")
#loc131 = loc("transpose.310")
#loc132 = loc("reshape.312")
#loc133 = loc("reshape.184")
#loc134 = loc("reshape.186")
#loc135 = loc("transpose.187")
#loc136 = loc("dot.313")
#loc137 = loc("reshape.314")
#loc138 = loc("add.317")
#loc139 = loc("reshape.348")
#loc140 = loc("reshape.350")
#loc141 = loc("broadcast.351")
#loc142 = loc("convert.318")
#loc143 = loc("power.320")
#loc144 = loc("reduce.327")
#loc145 = loc("multiply.336")
#loc146 = loc("reshape.337")
#loc147 = loc("add.341")
#loc148 = loc("rsqrt.342")
#loc149 = loc("reshape.343")
#loc150 = loc("broadcast.344")
#loc151 = loc("multiply.345")
#loc152 = loc("convert.346")
#loc153 = loc("multiply.352")
#loc154 = loc("reshape.361")
#loc155 = loc("reshape.357")
#loc156 = loc("reshape.359")
#loc157 = loc("transpose.360")
#loc158 = loc("dot.362")
#loc159 = loc("reshape.363")
#loc160 = loc("logistic.364")
#loc161 = loc("multiply.365")
#loc162 = loc("reshape.175")
#loc163 = loc("reshape.177")
#loc164 = loc("transpose.178")
#loc165 = loc("dot.354")
#loc166 = loc("reshape.355")
#loc167 = loc("multiply.366")
#loc168 = loc("reshape.367")
#loc169 = loc("reshape.170")
#loc170 = loc("reshape.172")
#loc171 = loc("transpose.173")
#loc172 = loc("dot.368")
#loc173 = loc("reshape.369")
#loc174 = loc("add.372")
#loc175 = loc("convert.373")
#loc176 = loc("power.375")
#loc177 = loc("reduce.382")
#loc178 = loc("multiply.391")
#loc179 = loc("reshape.392")
#loc180 = loc("add.396")
#loc181 = loc("rsqrt.397")
#loc182 = loc("reshape.398")
#loc183 = loc("broadcast.399")
#loc184 = loc("multiply.400")
#loc185 = loc("convert.401")
#loc186 = loc("multiply.407")
#loc187 = loc("reshape.411")
#loc188 = loc("reshape.161")
#loc189 = loc("reshape.163")
#loc190 = loc("transpose.164")
#loc191 = loc("dot.412")
#loc192 = loc("reshape.413")
