#loc1 = loc("p0.1")
#loc2 = loc("p1.12")
#loc3 = loc("p2.19")
#loc4 = loc("p3.29")
#loc5 = loc("p4.33")
#loc6 = loc("p5.39")
#loc7 = loc("p6.43")
#loc8 = loc("p7.54")
#loc9 = loc("p8.61")
#loc10 = loc("p9.71")
#loc11 = loc("p10.75")
#loc12 = loc("p11.81")
#loc13 = loc("p12.85")
#loc14 = loc("p13.96")
#loc15 = loc("p14.103")
#loc16 = loc("p15.113")
#loc17 = loc("p16.117")
#loc18 = loc("p17.123")
#loc19 = loc("p18.127")
#loc20 = loc("p19.138")
#loc21 = loc("p20.145")
#loc22 = loc("p21.155")
#loc23 = loc("p22.159")
#loc24 = loc("p23.165")
#loc25 = loc("p24.169")
#loc26 = loc("p25.180")
#loc27 = loc("p26.187")
#loc28 = loc("p27.197")
#loc29 = loc("p28.201")
#loc30 = loc("p29.207")
#loc31 = loc("p30.211")
#loc32 = loc("p31.222")
#loc33 = loc("p32.229")
#loc34 = loc("p33.239")
#loc35 = loc("p34.243")
#loc36 = loc("p35.249")
#loc37 = loc("p36.253")
#loc38 = loc("p37.264")
#loc39 = loc("p38.271")
#loc40 = loc("p39.281")
#loc41 = loc("p40.285")
#loc42 = loc("p41.291")
#loc43 = loc("p42.295")
#loc44 = loc("p43.306")
#loc45 = loc("p44.313")
#loc46 = loc("p45.323")
#loc47 = loc("p46.327")
#loc48 = loc("p47.333")
#loc49 = loc("p48.337")
#loc50 = loc("p49.348")
#loc51 = loc("p50.355")
#loc52 = loc("p51.365")
#loc53 = loc("p52.369")
#loc54 = loc("p53.375")
#loc55 = loc("p54.379")
#loc56 = loc("p55.390")
#loc57 = loc("p56.397")
#loc58 = loc("p57.407")
#loc59 = loc("p58.411")
#loc60 = loc("p59.417")
#loc61 = loc("p60.421")
#loc62 = loc("p61.432")
#loc63 = loc("p62.439")
#loc64 = loc("p63.449")
#loc65 = loc("p64.453")
#loc66 = loc("p65.459")
#loc67 = loc("p66.463")
#loc68 = loc("p67.474")
#loc69 = loc("p68.481")
#loc70 = loc("p69.491")
#loc71 = loc("p70.495")
#loc72 = loc("p71.501")
#loc73 = loc("p72.505")
#loc74 = loc("p73.516")
#loc75 = loc("p74.523")
#loc76 = loc("p75.533")
#loc77 = loc("p76.537")
#loc78 = loc("p77.543")
#loc79 = loc("p78.547")
#loc80 = loc("p79.558")
#loc81 = loc("p80.565")
#loc82 = loc("p81.575")
#loc83 = loc("p82.579")
#loc84 = loc("p83.585")
#loc85 = loc("p84.589")
#loc86 = loc("p85.600")
#loc87 = loc("p86.607")
#loc88 = loc("p87.617")
#loc89 = loc("p88.621")
#loc90 = loc("p89.627")
#loc91 = loc("p90.631")
#loc92 = loc("p91.642")
#loc93 = loc("p92.649")
#loc94 = loc("p93.659")
#loc95 = loc("p94.663")
#loc96 = loc("p95.669")
#loc97 = loc("p96.673")
#loc98 = loc("p97.684")
#loc99 = loc("p98.691")
#loc100 = loc("p99.701")
#loc101 = loc("p100.705")
#loc102 = loc("p101.711")
#loc103 = loc("p102.715")
#loc104 = loc("p103.726")
#loc105 = loc("p104.733")
#loc106 = loc("p105.743")
#loc107 = loc("p106.747")
#loc108 = loc("p107.753")
#loc109 = loc("p108.757")
#loc110 = loc("p109.768")
#loc111 = loc("p110.775")
#loc112 = loc("p111.785")
#loc113 = loc("p112.789")
#loc114 = loc("p113.795")
#loc115 = loc("p114.799")
#loc116 = loc("p115.810")
#loc117 = loc("p116.817")
#loc118 = loc("p117.827")
#loc119 = loc("p118.831")
#loc120 = loc("p119.837")
#loc121 = loc("p120.841")
#loc122 = loc("p121.852")
#loc123 = loc("p122.859")
#loc124 = loc("p123.869")
#loc125 = loc("p124.873")
#loc126 = loc("p125.879")
#loc127 = loc("p126.883")
#loc128 = loc("p127.894")
#loc129 = loc("p128.901")
#loc130 = loc("p129.911")
#loc131 = loc("p130.915")
#loc132 = loc("p131.921")
#loc133 = loc("p132.925")
#loc134 = loc("p133.936")
#loc135 = loc("p134.943")
#loc136 = loc("p135.953")
#loc137 = loc("p136.957")
#loc138 = loc("p137.963")
#loc139 = loc("p138.967")
#loc140 = loc("p139.978")
#loc141 = loc("p140.985")
#loc142 = loc("p141.995")
#loc143 = loc("p142.999")
#loc144 = loc("p143.1005")
#loc145 = loc("p144.1009")
#loc146 = loc("p145.1017")
#loc147 = loc("p146.1022")
#loc148 = loc("p147.1057")
#loc149 = loc("p148.1080")
#loc150 = loc("p149.1136")
#loc151 = loc("p150.1159")
#loc152 = loc("p151.1200")
#loc153 = loc("p152.1216")
#loc154 = loc("p153.1220")
#loc155 = loc("p154.1270")
#loc156 = loc("p155.1274")
#loc157 = loc("p156.1424")
#loc158 = loc("p157.1492")
#loc159 = loc("p158.1497")
#loc160 = loc("p159.1503")
#loc161 = loc("p160.1508")
#loc162 = loc("p161.1591")
#loc163 = loc("p162.1614")
#loc164 = loc("p163.1702")
#loc165 = loc("p164.1706")
#loc166 = loc("p165.1751")
#loc167 = loc("p166.1755")
#loc168 = loc("p167.1905")
#loc169 = loc("p168.1973")
#loc170 = loc("p169.1978")
#loc171 = loc("p170.1984")
#loc172 = loc("p171.1989")
#loc173 = loc("p172.2072")
#loc174 = loc("p173.2095")
#loc175 = loc("p174.2108")
#loc176 = loc("p175.2112")
#loc177 = loc("p176.2157")
#loc178 = loc("p177.2161")
#loc179 = loc("p178.2311")
#loc180 = loc("p179.2379")
#loc181 = loc("p180.2384")
#loc182 = loc("p181.2390")
#loc183 = loc("p182.2395")
#loc184 = loc("p183.2478")
#loc185 = loc("p184.2501")
#loc186 = loc("p185.2514")
#loc187 = loc("p186.2518")
#loc188 = loc("p187.2563")
#loc189 = loc("p188.2567")
#loc190 = loc("p189.2717")
#loc191 = loc("p190.2785")
#loc192 = loc("p191.2790")
#loc193 = loc("p192.2796")
#loc194 = loc("p193.2801")
#loc195 = loc("p194.2884")
#loc196 = loc("p195.2907")
#loc197 = loc("p196.2920")
#loc198 = loc("p197.2924")
#loc199 = loc("p198.2969")
#loc200 = loc("p199.2973")
#loc201 = loc("p200.3123")
#loc202 = loc("p201.3191")
#loc203 = loc("p202.3196")
#loc204 = loc("p203.3202")
#loc205 = loc("p204.3207")
#loc206 = loc("p205.3290")
#loc207 = loc("p206.3313")
#loc208 = loc("p207.3326")
#loc209 = loc("p208.3330")
#loc210 = loc("p209.3375")
#loc211 = loc("p210.3379")
#loc212 = loc("p211.3529")
#loc213 = loc("p212.3597")
#loc214 = loc("p213.3602")
#loc215 = loc("p214.3608")
#loc216 = loc("p215.3613")
#loc217 = loc("p216.3696")
#loc218 = loc("p217.3719")
#loc219 = loc("p218.3732")
#loc220 = loc("p219.3736")
#loc221 = loc("p220.3781")
#loc222 = loc("p221.3785")
#loc223 = loc("p222.3935")
#loc224 = loc("p223.4003")
#loc225 = loc("p224.4008")
#loc226 = loc("p225.4014")
#loc227 = loc("p226.4019")
#loc228 = loc("p227.4102")
#loc229 = loc("p228.4125")
#loc230 = loc("p229.4138")
#loc231 = loc("p230.4142")
#loc232 = loc("p231.4187")
#loc233 = loc("p232.4191")
#loc234 = loc("p233.4341")
#loc235 = loc("p234.4409")
#loc236 = loc("p235.4414")
#loc237 = loc("p236.4420")
#loc238 = loc("p237.4425")
#loc239 = loc("p238.4508")
#loc240 = loc("p239.4531")
#loc241 = loc("p240.4544")
#loc242 = loc("p241.4548")
#loc243 = loc("p242.4593")
#loc244 = loc("p243.4597")
#loc245 = loc("p244.4747")
#loc246 = loc("p245.4815")
#loc247 = loc("p246.4820")
#loc248 = loc("p247.4826")
#loc249 = loc("p248.4831")
#loc250 = loc("p249.4914")
#loc251 = loc("p250.4937")
#loc252 = loc("p251.4950")
#loc253 = loc("p252.4954")
#loc254 = loc("p253.4999")
#loc255 = loc("p254.5003")
#loc256 = loc("p255.5153")
#loc257 = loc("p256.5221")
#loc258 = loc("p257.5226")
#loc259 = loc("p258.5232")
#loc260 = loc("p259.5237")
#loc261 = loc("p260.5320")
#loc262 = loc("p261.5343")
#loc263 = loc("p262.5356")
#loc264 = loc("p263.5360")
#loc265 = loc("p264.5405")
#loc266 = loc("p265.5409")
#loc267 = loc("p266.5559")
#loc268 = loc("p267.5627")
#loc269 = loc("p268.5632")
#loc270 = loc("p269.5638")
#loc271 = loc("p270.5643")
#loc272 = loc("p271.5726")
#loc273 = loc("p272.5749")
#loc274 = loc("p273.5762")
#loc275 = loc("p274.5766")
#loc276 = loc("p275.5811")
#loc277 = loc("p276.5815")
#loc278 = loc("p277.5965")
#loc279 = loc("p278.6033")
#loc280 = loc("p279.6038")
#loc281 = loc("p280.6044")
#loc282 = loc("p281.6049")
#loc283 = loc("p282.6132")
#loc284 = loc("p283.6155")
#loc285 = loc("p284.6168")
#loc286 = loc("p285.6172")
#loc287 = loc("p286.6217")
#loc288 = loc("p287.6221")
#loc289 = loc("p288.6371")
#loc290 = loc("p289.6439")
#loc291 = loc("p290.6444")
#loc292 = loc("p291.6450")
#loc293 = loc("p292.6455")
#loc294 = loc("p293.6538")
#loc295 = loc("p294.6561")
#loc296 = loc("p295.6574")
#loc297 = loc("p296.6578")
#loc298 = loc("p297.6623")
#loc299 = loc("p298.6627")
#loc300 = loc("p299.6777")
#loc301 = loc("p300.6845")
#loc302 = loc("p301.6850")
#loc303 = loc("p302.6856")
#loc304 = loc("p303.6861")
#loc305 = loc("p304.6944")
#loc306 = loc("p305.6967")
#loc307 = loc("p306.6980")
#loc308 = loc("p307.6984")
#loc309 = loc("p308.7029")
#loc310 = loc("p309.7033")
#loc311 = loc("p310.7183")
#loc312 = loc("p311.7251")
#loc313 = loc("p312.7256")
#loc314 = loc("p313.7262")
#loc315 = loc("p314.7267")
#loc316 = loc("p315.7350")
#loc317 = loc("p316.7373")
#loc318 = loc("p317.7386")
#loc319 = loc("p318.7390")
#loc320 = loc("p319.7435")
#loc321 = loc("p320.7439")
#loc322 = loc("p321.7589")
#loc323 = loc("p322.7657")
#loc324 = loc("p323.7662")
#loc325 = loc("p324.7668")
#loc326 = loc("p325.7673")
#loc327 = loc("p326.7756")
#loc328 = loc("p327.7779")
#loc329 = loc("p328.7792")
#loc330 = loc("p329.7796")
#loc331 = loc("p330.7841")
#loc332 = loc("p331.7845")
#loc333 = loc("p332.7995")
#loc334 = loc("p333.8063")
#loc335 = loc("p334.8068")
#loc336 = loc("p335.8074")
#loc337 = loc("p336.8079")
#loc338 = loc("p337.8162")
#loc339 = loc("p338.8185")
#loc340 = loc("p339.8198")
#loc341 = loc("p340.8202")
#loc342 = loc("p341.8247")
#loc343 = loc("p342.8251")
#loc344 = loc("p343.8401")
#loc345 = loc("p344.8469")
#loc346 = loc("p345.8474")
#loc347 = loc("p346.8480")
#loc348 = loc("p347.8485")
#loc349 = loc("p348.8568")
#loc350 = loc("p349.8591")
#loc351 = loc("p350.8604")
#loc352 = loc("p351.8608")
#loc353 = loc("p352.8653")
#loc354 = loc("p353.8657")
#loc355 = loc("p354.8807")
#loc356 = loc("p355.8875")
#loc357 = loc("p356.8880")
#loc358 = loc("p357.8886")
#loc359 = loc("p358.8891")
#loc360 = loc("p359.8974")
#loc361 = loc("p360.8997")
#loc362 = loc("p361.9010")
#loc363 = loc("p362.9014")
#loc364 = loc("p363.9059")
#loc365 = loc("p364.9063")
#loc366 = loc("p365.9213")
#loc367 = loc("p366.9281")
#loc368 = loc("p367.9286")
#loc369 = loc("p368.9292")
#loc370 = loc("p369.9297")
#loc371 = loc("p370.9380")
#loc372 = loc("p371.9403")
#loc373 = loc("p372.9416")
#loc374 = loc("p373.9420")
#loc375 = loc("p374.9465")
#loc376 = loc("p375.9469")
#loc377 = loc("p376.9619")
#loc378 = loc("p377.9687")
#loc379 = loc("p378.9692")
#loc380 = loc("p379.9698")
#loc381 = loc("p380.9703")
#loc382 = loc("p381.9786")
#loc383 = loc("p382.9809")
#loc384 = loc("p383.9822")
#loc385 = loc("p384.9826")
#loc386 = loc("p385.9871")
#loc387 = loc("p386.9875")
#loc388 = loc("p387.10025")
#loc389 = loc("p388.10093")
#loc390 = loc("p389.10098")
#loc391 = loc("p390.10104")
#loc392 = loc("p391.10109")
#loc393 = loc("p392.10192")
#loc394 = loc("p393.10215")
#loc395 = loc("p394.10228")
#loc396 = loc("p395.10232")
#loc397 = loc("p396.10277")
#loc398 = loc("p397.10281")
#loc399 = loc("p398.10431")
#loc400 = loc("p399.10499")
#loc401 = loc("p400.10504")
#loc402 = loc("p401.10510")
#loc403 = loc("p402.10515")
#loc404 = loc("p403.10598")
#loc405 = loc("p404.10621")
#loc406 = loc("p405.10634")
#loc407 = loc("p406.10638")
#loc408 = loc("p407.10683")
#loc409 = loc("p408.10687")
#loc410 = loc("p409.10837")
#loc411 = loc("p410.10905")
#loc412 = loc("p411.10910")
#loc413 = loc("p412.10916")
#loc414 = loc("p413.10921")
#loc415 = loc("p414.11004")
#loc558 = loc("dot.1387")
#loc613 = loc("sort.1453")
#loc627 = loc("scatter.1487")
#loc632 = loc("reduce.1559")
#loc738 = loc("dot.1868")
#loc791 = loc("sort.1934")
#loc805 = loc("scatter.1968")
#loc810 = loc("reduce.2040")
#loc909 = loc("dot.2274")
#loc962 = loc("sort.2340")
#loc976 = loc("scatter.2374")
#loc981 = loc("reduce.2446")
#loc1080 = loc("dot.2680")
#loc1133 = loc("sort.2746")
#loc1147 = loc("scatter.2780")
#loc1152 = loc("reduce.2852")
#loc1251 = loc("dot.3086")
#loc1304 = loc("sort.3152")
#loc1318 = loc("scatter.3186")
#loc1323 = loc("reduce.3258")
#loc1422 = loc("dot.3492")
#loc1475 = loc("sort.3558")
#loc1489 = loc("scatter.3592")
#loc1494 = loc("reduce.3664")
#loc1593 = loc("dot.3898")
#loc1646 = loc("sort.3964")
#loc1660 = loc("scatter.3998")
#loc1665 = loc("reduce.4070")
#loc1764 = loc("dot.4304")
#loc1817 = loc("sort.4370")
#loc1831 = loc("scatter.4404")
#loc1836 = loc("reduce.4476")
#loc1935 = loc("dot.4710")
#loc1988 = loc("sort.4776")
#loc2002 = loc("scatter.4810")
#loc2007 = loc("reduce.4882")
#loc2106 = loc("dot.5116")
#loc2159 = loc("sort.5182")
#loc2173 = loc("scatter.5216")
#loc2178 = loc("reduce.5288")
#loc2277 = loc("dot.5522")
#loc2330 = loc("sort.5588")
#loc2344 = loc("scatter.5622")
#loc2349 = loc("reduce.5694")
#loc2448 = loc("dot.5928")
#loc2501 = loc("sort.5994")
#loc2515 = loc("scatter.6028")
#loc2520 = loc("reduce.6100")
#loc2619 = loc("dot.6334")
#loc2672 = loc("sort.6400")
#loc2686 = loc("scatter.6434")
#loc2691 = loc("reduce.6506")
#loc2790 = loc("dot.6740")
#loc2843 = loc("sort.6806")
#loc2857 = loc("scatter.6840")
#loc2862 = loc("reduce.6912")
#loc2961 = loc("dot.7146")
#loc3014 = loc("sort.7212")
#loc3028 = loc("scatter.7246")
#loc3033 = loc("reduce.7318")
#loc3132 = loc("dot.7552")
#loc3185 = loc("sort.7618")
#loc3199 = loc("scatter.7652")
#loc3204 = loc("reduce.7724")
#loc3303 = loc("dot.7958")
#loc3356 = loc("sort.8024")
#loc3370 = loc("scatter.8058")
#loc3375 = loc("reduce.8130")
#loc3474 = loc("dot.8364")
#loc3527 = loc("sort.8430")
#loc3541 = loc("scatter.8464")
#loc3546 = loc("reduce.8536")
#loc3645 = loc("dot.8770")
#loc3698 = loc("sort.8836")
#loc3712 = loc("scatter.8870")
#loc3717 = loc("reduce.8942")
#loc3816 = loc("dot.9176")
#loc3869 = loc("sort.9242")
#loc3883 = loc("scatter.9276")
#loc3888 = loc("reduce.9348")
#loc3987 = loc("dot.9582")
#loc4040 = loc("sort.9648")
#loc4054 = loc("scatter.9682")
#loc4059 = loc("reduce.9754")
#loc4158 = loc("dot.9988")
#loc4211 = loc("sort.10054")
#loc4225 = loc("scatter.10088")
#loc4230 = loc("reduce.10160")
#loc4329 = loc("dot.10394")
#loc4382 = loc("sort.10460")
#loc4396 = loc("scatter.10494")
#loc4401 = loc("reduce.10566")
#loc4500 = loc("dot.10800")
#loc4553 = loc("sort.10866")
#loc4567 = loc("scatter.10900")
#loc4572 = loc("reduce.10972")
module @SyncTensorsGraph.11016 attributes {mhlo.cross_program_prefetches = [], mhlo.input_output_alias = [], mhlo.is_dynamic = false, mhlo.use_auto_spmd_partitioning = false} {
  sdy.mesh @mesh = <["_axis_0_updated"=1, "_axis_0"=8]> loc(#loc)
  func.func @main(%arg0: tensor<201088x2880xbf16> {ttcore.argument_type = #ttcore.argument_type<parameter>, ttcore.shard_status = #ttcore.shard_status<presharded>, ttir.name = "l__self___lm_head_weight"} loc("p0.1"), %arg1: tensor<32xbf16> {ttcore.argument_type = #ttcore.argument_type<parameter>, ttcore.shard_status = #ttcore.shard_status<presharded>, ttir.name = "l__self___model_layers_23_mlp_router_bias"} loc("p1.12"), %arg2: tensor<32x2880xbf16> {ttcore.argument_type = #ttcore.argument_type<parameter>, ttcore.shard_status = #ttcore.shard_status<presharded>, ttir.name = "l__self___model_layers_23_mlp_router_weight"} loc("p2.19"), %arg3: tensor<2880xbf16> {ttcore.argument_type = #ttcore.argument_type<parameter>, ttcore.shard_status = #ttcore.shard_status<presharded>, ttir.name = "l__self___model_layers_23_self_attn_o_proj_bias"} loc("p3.29"), %arg4: tensor<2880x4096xbf16> {ttcore.argument_type = #ttcore.argument_type<parameter>, ttcore.shard_status = #ttcore.shard_status<presharded>, ttir.name = "l__self___model_layers_23_self_attn_o_proj_weight"} loc("p4.33"), %arg5: tensor<512xbf16> {ttcore.argument_type = #ttcore.argument_type<parameter>, ttcore.shard_status = #ttcore.shard_status<presharded>, ttir.name = "l__self___model_layers_23_self_attn_v_proj_bias"} loc("p5.39"), %arg6: tensor<512x2880xbf16> {ttcore.argument_type = #ttcore.argument_type<parameter>, ttcore.shard_status = #ttcore.shard_status<presharded>, ttir.name = "l__self___model_layers_23_self_attn_v_proj_weight"} loc("p6.43"), %arg7: tensor<32xbf16> {ttcore.argument_type = #ttcore.argument_type<parameter>, ttcore.shard_status = #ttcore.shard_status<presharded>, ttir.name = "l__self___model_layers_22_mlp_router_bias"} loc("p7.54"), %arg8: tensor<32x2880xbf16> {ttcore.argument_type = #ttcore.argument_type<parameter>, ttcore.shard_status = #ttcore.shard_status<presharded>, ttir.name = "l__self___model_layers_22_mlp_router_weight"} loc("p8.61"), %arg9: tensor<2880xbf16> {ttcore.argument_type = #ttcore.argument_type<parameter>, ttcore.shard_status = #ttcore.shard_status<presharded>, ttir.name = "l__self___model_layers_22_self_attn_o_proj_bias"} loc("p9.71"), %arg10: tensor<2880x4096xbf16> {ttcore.argument_type = #ttcore.argument_type<parameter>, ttcore.shard_status = #ttcore.shard_status<presharded>, ttir.name = "l__self___model_layers_22_self_attn_o_proj_weight"} loc("p10.75"), %arg11: tensor<512xbf16> {ttcore.argument_type = #ttcore.argument_type<parameter>, ttcore.shard_status = #ttcore.shard_status<presharded>, ttir.name = "l__self___model_layers_22_self_attn_v_proj_bias"} loc("p11.81"), %arg12: tensor<512x2880xbf16> {ttcore.argument_type = #ttcore.argument_type<parameter>, ttcore.shard_status = #ttcore.shard_status<presharded>, ttir.name = "l__self___model_layers_22_self_attn_v_proj_weight"} loc("p12.85"), %arg13: tensor<32xbf16> {ttcore.argument_type = #ttcore.argument_type<parameter>, ttcore.shard_status = #ttcore.shard_status<presharded>, ttir.name = "l__self___model_layers_21_mlp_router_bias"} loc("p13.96"), %arg14: tensor<32x2880xbf16> {ttcore.argument_type = #ttcore.argument_type<parameter>, ttcore.shard_status = #ttcore.shard_status<presharded>, ttir.name = "l__self___model_layers_21_mlp_router_weight"} loc("p14.103"), %arg15: tensor<2880xbf16> {ttcore.argument_type = #ttcore.argument_type<parameter>, ttcore.shard_status = #ttcore.shard_status<presharded>, ttir.name = "l__self___model_layers_21_self_attn_o_proj_bias"} loc("p15.113"), %arg16: tensor<2880x4096xbf16> {ttcore.argument_type = #ttcore.argument_type<parameter>, ttcore.shard_status = #ttcore.shard_status<presharded>, ttir.name = "l__self___model_layers_21_self_attn_o_proj_weight"} loc("p16.117"), %arg17: tensor<512xbf16> {ttcore.argument_type = #ttcore.argument_type<parameter>, ttcore.shard_status = #ttcore.shard_status<presharded>, ttir.name = "l__self___model_layers_21_self_attn_v_proj_bias"} loc("p17.123"), %arg18: tensor<512x2880xbf16> {ttcore.argument_type = #ttcore.argument_type<parameter>, ttcore.shard_status = #ttcore.shard_status<presharded>, ttir.name = "l__self___model_layers_21_self_attn_v_proj_weight"} loc("p18.127"), %arg19: tensor<32xbf16> {ttcore.argument_type = #ttcore.argument_type<parameter>, ttcore.shard_status = #ttcore.shard_status<presharded>, ttir.name = "l__self___model_layers_20_mlp_router_bias"} loc("p19.138"), %arg20: tensor<32x2880xbf16> {ttcore.argument_type = #ttcore.argument_type<parameter>, ttcore.shard_status = #ttcore.shard_status<presharded>, ttir.name = "l__self___model_layers_20_mlp_router_weight"} loc("p20.145"), %arg21: tensor<2880xbf16> {ttcore.argument_type = #ttcore.argument_type<parameter>, ttcore.shard_status = #ttcore.shard_status<presharded>, ttir.name = "l__self___model_layers_20_self_attn_o_proj_bias"} loc("p21.155"), %arg22: tensor<2880x4096xbf16> {ttcore.argument_type = #ttcore.argument_type<parameter>, ttcore.shard_status = #ttcore.shard_status<presharded>, ttir.name = "l__self___model_layers_20_self_attn_o_proj_weight"} loc("p22.159"), %arg23: tensor<512xbf16> {ttcore.argument_type = #ttcore.argument_type<parameter>, ttcore.shard_status = #ttcore.shard_status<presharded>, ttir.name = "l__self___model_layers_20_self_attn_v_proj_bias"} loc("p23.165"), %arg24: tensor<512x2880xbf16> {ttcore.argument_type = #ttcore.argument_type<parameter>, ttcore.shard_status = #ttcore.shard_status<presharded>, ttir.name = "l__self___model_layers_20_self_attn_v_proj_weight"} loc("p24.169"), %arg25: tensor<32xbf16> {ttcore.argument_type = #ttcore.argument_type<parameter>, ttcore.shard_status = #ttcore.shard_status<presharded>, ttir.name = "l__self___model_layers_19_mlp_router_bias"} loc("p25.180"), %arg26: tensor<32x2880xbf16> {ttcore.argument_type = #ttcore.argument_type<parameter>, ttcore.shard_status = #ttcore.shard_status<presharded>, ttir.name = "l__self___model_layers_19_mlp_router_weight"} loc("p26.187"), %arg27: tensor<2880xbf16> {ttcore.argument_type = #ttcore.argument_type<parameter>, ttcore.shard_status = #ttcore.shard_status<presharded>, ttir.name = "l__self___model_layers_19_self_attn_o_proj_bias"} loc("p27.197"), %arg28: tensor<2880x4096xbf16> {ttcore.argument_type = #ttcore.argument_type<parameter>, ttcore.shard_status = #ttcore.shard_status<presharded>, ttir.name = "l__self___model_layers_19_self_attn_o_proj_weight"} loc("p28.201"), %arg29: tensor<512xbf16> {ttcore.argument_type = #ttcore.argument_type<parameter>, ttcore.shard_status = #ttcore.shard_status<presharded>, ttir.name = "l__self___model_layers_19_self_attn_v_proj_bias"} loc("p29.207"), %arg30: tensor<512x2880xbf16> {ttcore.argument_type = #ttcore.argument_type<parameter>, ttcore.shard_status = #ttcore.shard_status<presharded>, ttir.name = "l__self___model_layers_19_self_attn_v_proj_weight"} loc("p30.211"), %arg31: tensor<32xbf16> {ttcore.argument_type = #ttcore.argument_type<parameter>, ttcore.shard_status = #ttcore.shard_status<presharded>, ttir.name = "l__self___model_layers_18_mlp_router_bias"} loc("p31.222"), %arg32: tensor<32x2880xbf16> {ttcore.argument_type = #ttcore.argument_type<parameter>, ttcore.shard_status = #ttcore.shard_status<presharded>, ttir.name = "l__self___model_layers_18_mlp_router_weight"} loc("p32.229"), %arg33: tensor<2880xbf16> {ttcore.argument_type = #ttcore.argument_type<parameter>, ttcore.shard_status = #ttcore.shard_status<presharded>, ttir.name = "l__self___model_layers_18_self_attn_o_proj_bias"} loc("p33.239"), %arg34: tensor<2880x4096xbf16> {ttcore.argument_type = #ttcore.argument_type<parameter>, ttcore.shard_status = #ttcore.shard_status<presharded>, ttir.name = "l__self___model_layers_18_self_attn_o_proj_weight"} loc("p34.243"), %arg35: tensor<512xbf16> {ttcore.argument_type = #ttcore.argument_type<parameter>, ttcore.shard_status = #ttcore.shard_status<presharded>, ttir.name = "l__self___model_layers_18_self_attn_v_proj_bias"} loc("p35.249"), %arg36: tensor<512x2880xbf16> {ttcore.argument_type = #ttcore.argument_type<parameter>, ttcore.shard_status = #ttcore.shard_status<presharded>, ttir.name = "l__self___model_layers_18_self_attn_v_proj_weight"} loc("p36.253"), %arg37: tensor<32xbf16> {ttcore.argument_type = #ttcore.argument_type<parameter>, ttcore.shard_status = #ttcore.shard_status<presharded>, ttir.name = "l__self___model_layers_17_mlp_router_bias"} loc("p37.264"), %arg38: tensor<32x2880xbf16> {ttcore.argument_type = #ttcore.argument_type<parameter>, ttcore.shard_status = #ttcore.shard_status<presharded>, ttir.name = "l__self___model_layers_17_mlp_router_weight"} loc("p38.271"), %arg39: tensor<2880xbf16> {ttcore.argument_type = #ttcore.argument_type<parameter>, ttcore.shard_status = #ttcore.shard_status<presharded>, ttir.name = "l__self___model_layers_17_self_attn_o_proj_bias"} loc("p39.281"), %arg40: tensor<2880x4096xbf16> {ttcore.argument_type = #ttcore.argument_type<parameter>, ttcore.shard_status = #ttcore.shard_status<presharded>, ttir.name = "l__self___model_layers_17_self_attn_o_proj_weight"} loc("p40.285"), %arg41: tensor<512xbf16> {ttcore.argument_type = #ttcore.argument_type<parameter>, ttcore.shard_status = #ttcore.shard_status<presharded>, ttir.name = "l__self___model_layers_17_self_attn_v_proj_bias"} loc("p41.291"), %arg42: tensor<512x2880xbf16> {ttcore.argument_type = #ttcore.argument_type<parameter>, ttcore.shard_status = #ttcore.shard_status<presharded>, ttir.name = "l__self___model_layers_17_self_attn_v_proj_weight"} loc("p42.295"), %arg43: tensor<32xbf16> {ttcore.argument_type = #ttcore.argument_type<parameter>, ttcore.shard_status = #ttcore.shard_status<presharded>, ttir.name = "l__self___model_layers_16_mlp_router_bias"} loc("p43.306"), %arg44: tensor<32x2880xbf16> {ttcore.argument_type = #ttcore.argument_type<parameter>, ttcore.shard_status = #ttcore.shard_status<presharded>, ttir.name = "l__self___model_layers_16_mlp_router_weight"} loc("p44.313"), %arg45: tensor<2880xbf16> {ttcore.argument_type = #ttcore.argument_type<parameter>, ttcore.shard_status = #ttcore.shard_status<presharded>, ttir.name = "l__self___model_layers_16_self_attn_o_proj_bias"} loc("p45.323"), %arg46: tensor<2880x4096xbf16> {ttcore.argument_type = #ttcore.argument_type<parameter>, ttcore.shard_status = #ttcore.shard_status<presharded>, ttir.name = "l__self___model_layers_16_self_attn_o_proj_weight"} loc("p46.327"), %arg47: tensor<512xbf16> {ttcore.argument_type = #ttcore.argument_type<parameter>, ttcore.shard_status = #ttcore.shard_status<presharded>, ttir.name = "l__self___model_layers_16_self_attn_v_proj_bias"} loc("p47.333"), %arg48: tensor<512x2880xbf16> {ttcore.argument_type = #ttcore.argument_type<parameter>, ttcore.shard_status = #ttcore.shard_status<presharded>, ttir.name = "l__self___model_layers_16_self_attn_v_proj_weight"} loc("p48.337"), %arg49: tensor<32xbf16> {ttcore.argument_type = #ttcore.argument_type<parameter>, ttcore.shard_status = #ttcore.shard_status<presharded>, ttir.name = "l__self___model_layers_15_mlp_router_bias"} loc("p49.348"), %arg50: tensor<32x2880xbf16> {ttcore.argument_type = #ttcore.argument_type<parameter>, ttcore.shard_status = #ttcore.shard_status<presharded>, ttir.name = "l__self___model_layers_15_mlp_router_weight"} loc("p50.355"), %arg51: tensor<2880xbf16> {ttcore.argument_type = #ttcore.argument_type<parameter>, ttcore.shard_status = #ttcore.shard_status<presharded>, ttir.name = "l__self___model_layers_15_self_attn_o_proj_bias"} loc("p51.365"), %arg52: tensor<2880x4096xbf16> {ttcore.argument_type = #ttcore.argument_type<parameter>, ttcore.shard_status = #ttcore.shard_status<presharded>, ttir.name = "l__self___model_layers_15_self_attn_o_proj_weight"} loc("p52.369"), %arg53: tensor<512xbf16> {ttcore.argument_type = #ttcore.argument_type<parameter>, ttcore.shard_status = #ttcore.shard_status<presharded>, ttir.name = "l__self___model_layers_15_self_attn_v_proj_bias"} loc("p53.375"), %arg54: tensor<512x2880xbf16> {ttcore.argument_type = #ttcore.argument_type<parameter>, ttcore.shard_status = #ttcore.shard_status<presharded>, ttir.name = "l__self___model_layers_15_self_attn_v_proj_weight"} loc("p54.379"), %arg55: tensor<32xbf16> {ttcore.argument_type = #ttcore.argument_type<parameter>, ttcore.shard_status = #ttcore.shard_status<presharded>, ttir.name = "l__self___model_layers_14_mlp_router_bias"} loc("p55.390"), %arg56: tensor<32x2880xbf16> {ttcore.argument_type = #ttcore.argument_type<parameter>, ttcore.shard_status = #ttcore.shard_status<presharded>, ttir.name = "l__self___model_layers_14_mlp_router_weight"} loc("p56.397"), %arg57: tensor<2880xbf16> {ttcore.argument_type = #ttcore.argument_type<parameter>, ttcore.shard_status = #ttcore.shard_status<presharded>, ttir.name = "l__self___model_layers_14_self_attn_o_proj_bias"} loc("p57.407"), %arg58: tensor<2880x4096xbf16> {ttcore.argument_type = #ttcore.argument_type<parameter>, ttcore.shard_status = #ttcore.shard_status<presharded>, ttir.name = "l__self___model_layers_14_self_attn_o_proj_weight"} loc("p58.411"), %arg59: tensor<512xbf16> {ttcore.argument_type = #ttcore.argument_type<parameter>, ttcore.shard_status = #ttcore.shard_status<presharded>, ttir.name = "l__self___model_layers_14_self_attn_v_proj_bias"} loc("p59.417"), %arg60: tensor<512x2880xbf16> {ttcore.argument_type = #ttcore.argument_type<parameter>, ttcore.shard_status = #ttcore.shard_status<presharded>, ttir.name = "l__self___model_layers_14_self_attn_v_proj_weight"} loc("p60.421"), %arg61: tensor<32xbf16> {ttcore.argument_type = #ttcore.argument_type<parameter>, ttcore.shard_status = #ttcore.shard_status<presharded>, ttir.name = "l__self___model_layers_13_mlp_router_bias"} loc("p61.432"), %arg62: tensor<32x2880xbf16> {ttcore.argument_type = #ttcore.argument_type<parameter>, ttcore.shard_status = #ttcore.shard_status<presharded>, ttir.name = "l__self___model_layers_13_mlp_router_weight"} loc("p62.439"), %arg63: tensor<2880xbf16> {ttcore.argument_type = #ttcore.argument_type<parameter>, ttcore.shard_status = #ttcore.shard_status<presharded>, ttir.name = "l__self___model_layers_13_self_attn_o_proj_bias"} loc("p63.449"), %arg64: tensor<2880x4096xbf16> {ttcore.argument_type = #ttcore.argument_type<parameter>, ttcore.shard_status = #ttcore.shard_status<presharded>, ttir.name = "l__self___model_layers_13_self_attn_o_proj_weight"} loc("p64.453"), %arg65: tensor<512xbf16> {ttcore.argument_type = #ttcore.argument_type<parameter>, ttcore.shard_status = #ttcore.shard_status<presharded>, ttir.name = "l__self___model_layers_13_self_attn_v_proj_bias"} loc("p65.459"), %arg66: tensor<512x2880xbf16> {ttcore.argument_type = #ttcore.argument_type<parameter>, ttcore.shard_status = #ttcore.shard_status<presharded>, ttir.name = "l__self___model_layers_13_self_attn_v_proj_weight"} loc("p66.463"), %arg67: tensor<32xbf16> {ttcore.argument_type = #ttcore.argument_type<parameter>, ttcore.shard_status = #ttcore.shard_status<presharded>, ttir.name = "l__self___model_layers_12_mlp_router_bias"} loc("p67.474"), %arg68: tensor<32x2880xbf16> {ttcore.argument_type = #ttcore.argument_type<parameter>, ttcore.shard_status = #ttcore.shard_status<presharded>, ttir.name = "l__self___model_layers_12_mlp_router_weight"} loc("p68.481"), %arg69: tensor<2880xbf16> {ttcore.argument_type = #ttcore.argument_type<parameter>, ttcore.shard_status = #ttcore.shard_status<presharded>, ttir.name = "l__self___model_layers_12_self_attn_o_proj_bias"} loc("p69.491"), %arg70: tensor<2880x4096xbf16> {ttcore.argument_type = #ttcore.argument_type<parameter>, ttcore.shard_status = #ttcore.shard_status<presharded>, ttir.name = "l__self___model_layers_12_self_attn_o_proj_weight"} loc("p70.495"), %arg71: tensor<512xbf16> {ttcore.argument_type = #ttcore.argument_type<parameter>, ttcore.shard_status = #ttcore.shard_status<presharded>, ttir.name = "l__self___model_layers_12_self_attn_v_proj_bias"} loc("p71.501"), %arg72: tensor<512x2880xbf16> {ttcore.argument_type = #ttcore.argument_type<parameter>, ttcore.shard_status = #ttcore.shard_status<presharded>, ttir.name = "l__self___model_layers_12_self_attn_v_proj_weight"} loc("p72.505"), %arg73: tensor<32xbf16> {ttcore.argument_type = #ttcore.argument_type<parameter>, ttcore.shard_status = #ttcore.shard_status<presharded>, ttir.name = "l__self___model_layers_11_mlp_router_bias"} loc("p73.516"), %arg74: tensor<32x2880xbf16> {ttcore.argument_type = #ttcore.argument_type<parameter>, ttcore.shard_status = #ttcore.shard_status<presharded>, ttir.name = "l__self___model_layers_11_mlp_router_weight"} loc("p74.523"), %arg75: tensor<2880xbf16> {ttcore.argument_type = #ttcore.argument_type<parameter>, ttcore.shard_status = #ttcore.shard_status<presharded>, ttir.name = "l__self___model_layers_11_self_attn_o_proj_bias"} loc("p75.533"), %arg76: tensor<2880x4096xbf16> {ttcore.argument_type = #ttcore.argument_type<parameter>, ttcore.shard_status = #ttcore.shard_status<presharded>, ttir.name = "l__self___model_layers_11_self_attn_o_proj_weight"} loc("p76.537"), %arg77: tensor<512xbf16> {ttcore.argument_type = #ttcore.argument_type<parameter>, ttcore.shard_status = #ttcore.shard_status<presharded>, ttir.name = "l__self___model_layers_11_self_attn_v_proj_bias"} loc("p77.543"), %arg78: tensor<512x2880xbf16> {ttcore.argument_type = #ttcore.argument_type<parameter>, ttcore.shard_status = #ttcore.shard_status<presharded>, ttir.name = "l__self___model_layers_11_self_attn_v_proj_weight"} loc("p78.547"), %arg79: tensor<32xbf16> {ttcore.argument_type = #ttcore.argument_type<parameter>, ttcore.shard_status = #ttcore.shard_status<presharded>, ttir.name = "l__self___model_layers_10_mlp_router_bias"} loc("p79.558"), %arg80: tensor<32x2880xbf16> {ttcore.argument_type = #ttcore.argument_type<parameter>, ttcore.shard_status = #ttcore.shard_status<presharded>, ttir.name = "l__self___model_layers_10_mlp_router_weight"} loc("p80.565"), %arg81: tensor<2880xbf16> {ttcore.argument_type = #ttcore.argument_type<parameter>, ttcore.shard_status = #ttcore.shard_status<presharded>, ttir.name = "l__self___model_layers_10_self_attn_o_proj_bias"} loc("p81.575"), %arg82: tensor<2880x4096xbf16> {ttcore.argument_type = #ttcore.argument_type<parameter>, ttcore.shard_status = #ttcore.shard_status<presharded>, ttir.name = "l__self___model_layers_10_self_attn_o_proj_weight"} loc("p82.579"), %arg83: tensor<512xbf16> {ttcore.argument_type = #ttcore.argument_type<parameter>, ttcore.shard_status = #ttcore.shard_status<presharded>, ttir.name = "l__self___model_layers_10_self_attn_v_proj_bias"} loc("p83.585"), %arg84: tensor<512x2880xbf16> {ttcore.argument_type = #ttcore.argument_type<parameter>, ttcore.shard_status = #ttcore.shard_status<presharded>, ttir.name = "l__self___model_layers_10_self_attn_v_proj_weight"} loc("p84.589"), %arg85: tensor<32xbf16> {ttcore.argument_type = #ttcore.argument_type<parameter>, ttcore.shard_status = #ttcore.shard_status<presharded>, ttir.name = "l__self___model_layers_9_mlp_router_bias"} loc("p85.600"), %arg86: tensor<32x2880xbf16> {ttcore.argument_type = #ttcore.argument_type<parameter>, ttcore.shard_status = #ttcore.shard_status<presharded>, ttir.name = "l__self___model_layers_9_mlp_router_weight"} loc("p86.607"), %arg87: tensor<2880xbf16> {ttcore.argument_type = #ttcore.argument_type<parameter>, ttcore.shard_status = #ttcore.shard_status<presharded>, ttir.name = "l__self___model_layers_9_self_attn_o_proj_bias"} loc("p87.617"), %arg88: tensor<2880x4096xbf16> {ttcore.argument_type = #ttcore.argument_type<parameter>, ttcore.shard_status = #ttcore.shard_status<presharded>, ttir.name = "l__self___model_layers_9_self_attn_o_proj_weight"} loc("p88.621"), %arg89: tensor<512xbf16> {ttcore.argument_type = #ttcore.argument_type<parameter>, ttcore.shard_status = #ttcore.shard_status<presharded>, ttir.name = "l__self___model_layers_9_self_attn_v_proj_bias"} loc("p89.627"), %arg90: tensor<512x2880xbf16> {ttcore.argument_type = #ttcore.argument_type<parameter>, ttcore.shard_status = #ttcore.shard_status<presharded>, ttir.name = "l__self___model_layers_9_self_attn_v_proj_weight"} loc("p90.631"), %arg91: tensor<32xbf16> {ttcore.argument_type = #ttcore.argument_type<parameter>, ttcore.shard_status = #ttcore.shard_status<presharded>, ttir.name = "l__self___model_layers_8_mlp_router_bias"} loc("p91.642"), %arg92: tensor<32x2880xbf16> {ttcore.argument_type = #ttcore.argument_type<parameter>, ttcore.shard_status = #ttcore.shard_status<presharded>, ttir.name = "l__self___model_layers_8_mlp_router_weight"} loc("p92.649"), %arg93: tensor<2880xbf16> {ttcore.argument_type = #ttcore.argument_type<parameter>, ttcore.shard_status = #ttcore.shard_status<presharded>, ttir.name = "l__self___model_layers_8_self_attn_o_proj_bias"} loc("p93.659"), %arg94: tensor<2880x4096xbf16> {ttcore.argument_type = #ttcore.argument_type<parameter>, ttcore.shard_status = #ttcore.shard_status<presharded>, ttir.name = "l__self___model_layers_8_self_attn_o_proj_weight"} loc("p94.663"), %arg95: tensor<512xbf16> {ttcore.argument_type = #ttcore.argument_type<parameter>, ttcore.shard_status = #ttcore.shard_status<presharded>, ttir.name = "l__self___model_layers_8_self_attn_v_proj_bias"} loc("p95.669"), %arg96: tensor<512x2880xbf16> {ttcore.argument_type = #ttcore.argument_type<parameter>, ttcore.shard_status = #ttcore.shard_status<presharded>, ttir.name = "l__self___model_layers_8_self_attn_v_proj_weight"} loc("p96.673"), %arg97: tensor<32xbf16> {ttcore.argument_type = #ttcore.argument_type<parameter>, ttcore.shard_status = #ttcore.shard_status<presharded>, ttir.name = "l__self___model_layers_7_mlp_router_bias"} loc("p97.684"), %arg98: tensor<32x2880xbf16> {ttcore.argument_type = #ttcore.argument_type<parameter>, ttcore.shard_status = #ttcore.shard_status<presharded>, ttir.name = "l__self___model_layers_7_mlp_router_weight"} loc("p98.691"), %arg99: tensor<2880xbf16> {ttcore.argument_type = #ttcore.argument_type<parameter>, ttcore.shard_status = #ttcore.shard_status<presharded>, ttir.name = "l__self___model_layers_7_self_attn_o_proj_bias"} loc("p99.701"), %arg100: tensor<2880x4096xbf16> {ttcore.argument_type = #ttcore.argument_type<parameter>, ttcore.shard_status = #ttcore.shard_status<presharded>, ttir.name = "l__self___model_layers_7_self_attn_o_proj_weight"} loc("p100.705"), %arg101: tensor<512xbf16> {ttcore.argument_type = #ttcore.argument_type<parameter>, ttcore.shard_status = #ttcore.shard_status<presharded>, ttir.name = "l__self___model_layers_7_self_attn_v_proj_bias"} loc("p101.711"), %arg102: tensor<512x2880xbf16> {ttcore.argument_type = #ttcore.argument_type<parameter>, ttcore.shard_status = #ttcore.shard_status<presharded>, ttir.name = "l__self___model_layers_7_self_attn_v_proj_weight"} loc("p102.715"), %arg103: tensor<32xbf16> {ttcore.argument_type = #ttcore.argument_type<parameter>, ttcore.shard_status = #ttcore.shard_status<presharded>, ttir.name = "l__self___model_layers_6_mlp_router_bias"} loc("p103.726"), %arg104: tensor<32x2880xbf16> {ttcore.argument_type = #ttcore.argument_type<parameter>, ttcore.shard_status = #ttcore.shard_status<presharded>, ttir.name = "l__self___model_layers_6_mlp_router_weight"} loc("p104.733"), %arg105: tensor<2880xbf16> {ttcore.argument_type = #ttcore.argument_type<parameter>, ttcore.shard_status = #ttcore.shard_status<presharded>, ttir.name = "l__self___model_layers_6_self_attn_o_proj_bias"} loc("p105.743"), %arg106: tensor<2880x4096xbf16> {ttcore.argument_type = #ttcore.argument_type<parameter>, ttcore.shard_status = #ttcore.shard_status<presharded>, ttir.name = "l__self___model_layers_6_self_attn_o_proj_weight"} loc("p106.747"), %arg107: tensor<512xbf16> {ttcore.argument_type = #ttcore.argument_type<parameter>, ttcore.shard_status = #ttcore.shard_status<presharded>, ttir.name = "l__self___model_layers_6_self_attn_v_proj_bias"} loc("p107.753"), %arg108: tensor<512x2880xbf16> {ttcore.argument_type = #ttcore.argument_type<parameter>, ttcore.shard_status = #ttcore.shard_status<presharded>, ttir.name = "l__self___model_layers_6_self_attn_v_proj_weight"} loc("p108.757"), %arg109: tensor<32xbf16> {ttcore.argument_type = #ttcore.argument_type<parameter>, ttcore.shard_status = #ttcore.shard_status<presharded>, ttir.name = "l__self___model_layers_5_mlp_router_bias"} loc("p109.768"), %arg110: tensor<32x2880xbf16> {ttcore.argument_type = #ttcore.argument_type<parameter>, ttcore.shard_status = #ttcore.shard_status<presharded>, ttir.name = "l__self___model_layers_5_mlp_router_weight"} loc("p110.775"), %arg111: tensor<2880xbf16> {ttcore.argument_type = #ttcore.argument_type<parameter>, ttcore.shard_status = #ttcore.shard_status<presharded>, ttir.name = "l__self___model_layers_5_self_attn_o_proj_bias"} loc("p111.785"), %arg112: tensor<2880x4096xbf16> {ttcore.argument_type = #ttcore.argument_type<parameter>, ttcore.shard_status = #ttcore.shard_status<presharded>, ttir.name = "l__self___model_layers_5_self_attn_o_proj_weight"} loc("p112.789"), %arg113: tensor<512xbf16> {ttcore.argument_type = #ttcore.argument_type<parameter>, ttcore.shard_status = #ttcore.shard_status<presharded>, ttir.name = "l__self___model_layers_5_self_attn_v_proj_bias"} loc("p113.795"), %arg114: tensor<512x2880xbf16> {ttcore.argument_type = #ttcore.argument_type<parameter>, ttcore.shard_status = #ttcore.shard_status<presharded>, ttir.name = "l__self___model_layers_5_self_attn_v_proj_weight"} loc("p114.799"), %arg115: tensor<32xbf16> {ttcore.argument_type = #ttcore.argument_type<parameter>, ttcore.shard_status = #ttcore.shard_status<presharded>, ttir.name = "l__self___model_layers_4_mlp_router_bias"} loc("p115.810"), %arg116: tensor<32x2880xbf16> {ttcore.argument_type = #ttcore.argument_type<parameter>, ttcore.shard_status = #ttcore.shard_status<presharded>, ttir.name = "l__self___model_layers_4_mlp_router_weight"} loc("p116.817"), %arg117: tensor<2880xbf16> {ttcore.argument_type = #ttcore.argument_type<parameter>, ttcore.shard_status = #ttcore.shard_status<presharded>, ttir.name = "l__self___model_layers_4_self_attn_o_proj_bias"} loc("p117.827"), %arg118: tensor<2880x4096xbf16> {ttcore.argument_type = #ttcore.argument_type<parameter>, ttcore.shard_status = #ttcore.shard_status<presharded>, ttir.name = "l__self___model_layers_4_self_attn_o_proj_weight"} loc("p118.831"), %arg119: tensor<512xbf16> {ttcore.argument_type = #ttcore.argument_type<parameter>, ttcore.shard_status = #ttcore.shard_status<presharded>, ttir.name = "l__self___model_layers_4_self_attn_v_proj_bias"} loc("p119.837"), %arg120: tensor<512x2880xbf16> {ttcore.argument_type = #ttcore.argument_type<parameter>, ttcore.shard_status = #ttcore.shard_status<presharded>, ttir.name = "l__self___model_layers_4_self_attn_v_proj_weight"} loc("p120.841"), %arg121: tensor<32xbf16> {ttcore.argument_type = #ttcore.argument_type<parameter>, ttcore.shard_status = #ttcore.shard_status<presharded>, ttir.name = "l__self___model_layers_3_mlp_router_bias"} loc("p121.852"), %arg122: tensor<32x2880xbf16> {ttcore.argument_type = #ttcore.argument_type<parameter>, ttcore.shard_status = #ttcore.shard_status<presharded>, ttir.name = "l__self___model_layers_3_mlp_router_weight"} loc("p122.859"), %arg123: tensor<2880xbf16> {ttcore.argument_type = #ttcore.argument_type<parameter>, ttcore.shard_status = #ttcore.shard_status<presharded>, ttir.name = "l__self___model_layers_3_self_attn_o_proj_bias"} loc("p123.869"), %arg124: tensor<2880x4096xbf16> {ttcore.argument_type = #ttcore.argument_type<parameter>, ttcore.shard_status = #ttcore.shard_status<presharded>, ttir.name = "l__self___model_layers_3_self_attn_o_proj_weight"} loc("p124.873"), %arg125: tensor<512xbf16> {ttcore.argument_type = #ttcore.argument_type<parameter>, ttcore.shard_status = #ttcore.shard_status<presharded>, ttir.name = "l__self___model_layers_3_self_attn_v_proj_bias"} loc("p125.879"), %arg126: tensor<512x2880xbf16> {ttcore.argument_type = #ttcore.argument_type<parameter>, ttcore.shard_status = #ttcore.shard_status<presharded>, ttir.name = "l__self___model_layers_3_self_attn_v_proj_weight"} loc("p126.883"), %arg127: tensor<32xbf16> {ttcore.argument_type = #ttcore.argument_type<parameter>, ttcore.shard_status = #ttcore.shard_status<presharded>, ttir.name = "l__self___model_layers_2_mlp_router_bias"} loc("p127.894"), %arg128: tensor<32x2880xbf16> {ttcore.argument_type = #ttcore.argument_type<parameter>, ttcore.shard_status = #ttcore.shard_status<presharded>, ttir.name = "l__self___model_layers_2_mlp_router_weight"} loc("p128.901"), %arg129: tensor<2880xbf16> {ttcore.argument_type = #ttcore.argument_type<parameter>, ttcore.shard_status = #ttcore.shard_status<presharded>, ttir.name = "l__self___model_layers_2_self_attn_o_proj_bias"} loc("p129.911"), %arg130: tensor<2880x4096xbf16> {ttcore.argument_type = #ttcore.argument_type<parameter>, ttcore.shard_status = #ttcore.shard_status<presharded>, ttir.name = "l__self___model_layers_2_self_attn_o_proj_weight"} loc("p130.915"), %arg131: tensor<512xbf16> {ttcore.argument_type = #ttcore.argument_type<parameter>, ttcore.shard_status = #ttcore.shard_status<presharded>, ttir.name = "l__self___model_layers_2_self_attn_v_proj_bias"} loc("p131.921"), %arg132: tensor<512x2880xbf16> {ttcore.argument_type = #ttcore.argument_type<parameter>, ttcore.shard_status = #ttcore.shard_status<presharded>, ttir.name = "l__self___model_layers_2_self_attn_v_proj_weight"} loc("p132.925"), %arg133: tensor<32xbf16> {ttcore.argument_type = #ttcore.argument_type<parameter>, ttcore.shard_status = #ttcore.shard_status<presharded>, ttir.name = "l__self___model_layers_1_mlp_router_bias"} loc("p133.936"), %arg134: tensor<32x2880xbf16> {ttcore.argument_type = #ttcore.argument_type<parameter>, ttcore.shard_status = #ttcore.shard_status<presharded>, ttir.name = "l__self___model_layers_1_mlp_router_weight"} loc("p134.943"), %arg135: tensor<2880xbf16> {ttcore.argument_type = #ttcore.argument_type<parameter>, ttcore.shard_status = #ttcore.shard_status<presharded>, ttir.name = "l__self___model_layers_1_self_attn_o_proj_bias"} loc("p135.953"), %arg136: tensor<2880x4096xbf16> {ttcore.argument_type = #ttcore.argument_type<parameter>, ttcore.shard_status = #ttcore.shard_status<presharded>, ttir.name = "l__self___model_layers_1_self_attn_o_proj_weight"} loc("p136.957"), %arg137: tensor<512xbf16> {ttcore.argument_type = #ttcore.argument_type<parameter>, ttcore.shard_status = #ttcore.shard_status<presharded>, ttir.name = "l__self___model_layers_1_self_attn_v_proj_bias"} loc("p137.963"), %arg138: tensor<512x2880xbf16> {ttcore.argument_type = #ttcore.argument_type<parameter>, ttcore.shard_status = #ttcore.shard_status<presharded>, ttir.name = "l__self___model_layers_1_self_attn_v_proj_weight"} loc("p138.967"), %arg139: tensor<32xbf16> {ttcore.argument_type = #ttcore.argument_type<parameter>, ttcore.shard_status = #ttcore.shard_status<presharded>, ttir.name = "l__self___model_layers_0_mlp_router_bias"} loc("p139.978"), %arg140: tensor<32x2880xbf16> {ttcore.argument_type = #ttcore.argument_type<parameter>, ttcore.shard_status = #ttcore.shard_status<presharded>, ttir.name = "l__self___model_layers_0_mlp_router_weight"} loc("p140.985"), %arg141: tensor<2880xbf16> {ttcore.argument_type = #ttcore.argument_type<parameter>, ttcore.shard_status = #ttcore.shard_status<presharded>, ttir.name = "l__self___model_layers_0_self_attn_o_proj_bias"} loc("p141.995"), %arg142: tensor<2880x4096xbf16> {ttcore.argument_type = #ttcore.argument_type<parameter>, ttcore.shard_status = #ttcore.shard_status<presharded>, ttir.name = "l__self___model_layers_0_self_attn_o_proj_weight"} loc("p142.999"), %arg143: tensor<512xbf16> {ttcore.argument_type = #ttcore.argument_type<parameter>, ttcore.shard_status = #ttcore.shard_status<presharded>, ttir.name = "l__self___model_layers_0_self_attn_v_proj_bias"} loc("p143.1005"), %arg144: tensor<512x2880xbf16> {ttcore.argument_type = #ttcore.argument_type<parameter>, ttcore.shard_status = #ttcore.shard_status<presharded>, ttir.name = "l__self___model_layers_0_self_attn_v_proj_weight"} loc("p144.1009"), %arg145: tensor<1x128xi64> {ttcore.argument_type = #ttcore.argument_type<input>, ttcore.shard_status = #ttcore.shard_status<presharded>, ttir.name = "args_0"} loc("p145.1017"), %arg146: tensor<201088x2880xbf16> {ttcore.argument_type = #ttcore.argument_type<parameter>, ttcore.shard_status = #ttcore.shard_status<presharded>, ttir.name = "l__self___model_embed_tokens_weight"} loc("p146.1022"), %arg147: tensor<2880xbf16> {ttcore.argument_type = #ttcore.argument_type<parameter>, ttcore.shard_status = #ttcore.shard_status<presharded>, ttir.name = "l__self___model_layers_0_input_layernorm_weight"} loc("p147.1057"), %arg148: tensor<64xbf16> {ttcore.argument_type = #ttcore.argument_type<parameter>, ttcore.shard_status = #ttcore.shard_status<presharded>, ttir.name = "l__self___model_layers_0_self_attn_sinks"} loc("p148.1080"), %arg149: tensor<1x128xi64> {ttcore.argument_type = #ttcore.argument_type<input>, ttcore.shard_status = #ttcore.shard_status<presharded>, ttir.name = "args_1"} loc("p149.1136"), %arg150: tensor<i1> {ttcore.argument_type = #ttcore.argument_type<input>, ttcore.shard_status = #ttcore.shard_status<presharded>} loc("p150.1159"), %arg151: tensor<32xf32> {ttcore.argument_type = #ttcore.argument_type<constant>, ttcore.shard_status = #ttcore.shard_status<presharded>, ttir.name = "l__self___model_rotary_emb_inv_freq"} loc("p151.1200"), %arg152: tensor<512xbf16> {ttcore.argument_type = #ttcore.argument_type<parameter>, ttcore.shard_status = #ttcore.shard_status<presharded>, ttir.name = "l__self___model_layers_0_self_attn_k_proj_bias"} loc("p152.1216"), %arg153: tensor<512x2880xbf16> {ttcore.argument_type = #ttcore.argument_type<parameter>, ttcore.shard_status = #ttcore.shard_status<presharded>, ttir.name = "l__self___model_layers_0_self_attn_k_proj_weight"} loc("p153.1220"), %arg154: tensor<4096xbf16> {ttcore.argument_type = #ttcore.argument_type<parameter>, ttcore.shard_status = #ttcore.shard_status<presharded>, ttir.name = "l__self___model_layers_0_self_attn_q_proj_bias"} loc("p154.1270"), %arg155: tensor<4096x2880xbf16> {ttcore.argument_type = #ttcore.argument_type<parameter>, ttcore.shard_status = #ttcore.shard_status<presharded>, ttir.name = "l__self___model_layers_0_self_attn_q_proj_weight"} loc("p155.1274"), %arg156: tensor<2880xbf16> {ttcore.argument_type = #ttcore.argument_type<parameter>, ttcore.shard_status = #ttcore.shard_status<presharded>, ttir.name = "l__self___model_layers_0_post_attention_layernorm_weight"} loc("p156.1424"), %arg157: tensor<32x2880xbf16> {ttcore.argument_type = #ttcore.argument_type<parameter>, ttcore.shard_status = #ttcore.shard_status<presharded>, ttir.name = "l__self___model_layers_0_mlp_experts_down_proj_bias"} loc("p157.1492"), %arg158: tensor<32x2880x2880xbf16> {ttcore.argument_type = #ttcore.argument_type<parameter>, ttcore.shard_status = #ttcore.shard_status<presharded>, ttir.name = "l__self___model_layers_0_mlp_experts_down_proj"} loc("p158.1497"), %arg159: tensor<32x5760xbf16> {ttcore.argument_type = #ttcore.argument_type<parameter>, ttcore.shard_status = #ttcore.shard_status<presharded>, ttir.name = "l__self___model_layers_0_mlp_experts_gate_up_proj_bias"} loc("p159.1503"), %arg160: tensor<32x2880x5760xbf16> {ttcore.argument_type = #ttcore.argument_type<parameter>, ttcore.shard_status = #ttcore.shard_status<presharded>, ttir.name = "l__self___model_layers_0_mlp_experts_gate_up_proj"} loc("p160.1508"), %arg161: tensor<2880xbf16> {ttcore.argument_type = #ttcore.argument_type<parameter>, ttcore.shard_status = #ttcore.shard_status<presharded>, ttir.name = "l__self___model_layers_1_input_layernorm_weight"} loc("p161.1591"), %arg162: tensor<64xbf16> {ttcore.argument_type = #ttcore.argument_type<parameter>, ttcore.shard_status = #ttcore.shard_status<presharded>, ttir.name = "l__self___model_layers_1_self_attn_sinks"} loc("p162.1614"), %arg163: tensor<512xbf16> {ttcore.argument_type = #ttcore.argument_type<parameter>, ttcore.shard_status = #ttcore.shard_status<presharded>, ttir.name = "l__self___model_layers_1_self_attn_k_proj_bias"} loc("p163.1702"), %arg164: tensor<512x2880xbf16> {ttcore.argument_type = #ttcore.argument_type<parameter>, ttcore.shard_status = #ttcore.shard_status<presharded>, ttir.name = "l__self___model_layers_1_self_attn_k_proj_weight"} loc("p164.1706"), %arg165: tensor<4096xbf16> {ttcore.argument_type = #ttcore.argument_type<parameter>, ttcore.shard_status = #ttcore.shard_status<presharded>, ttir.name = "l__self___model_layers_1_self_attn_q_proj_bias"} loc("p165.1751"), %arg166: tensor<4096x2880xbf16> {ttcore.argument_type = #ttcore.argument_type<parameter>, ttcore.shard_status = #ttcore.shard_status<presharded>, ttir.name = "l__self___model_layers_1_self_attn_q_proj_weight"} loc("p166.1755"), %arg167: tensor<2880xbf16> {ttcore.argument_type = #ttcore.argument_type<parameter>, ttcore.shard_status = #ttcore.shard_status<presharded>, ttir.name = "l__self___model_layers_1_post_attention_layernorm_weight"} loc("p167.1905"), %arg168: tensor<32x2880xbf16> {ttcore.argument_type = #ttcore.argument_type<parameter>, ttcore.shard_status = #ttcore.shard_status<presharded>, ttir.name = "l__self___model_layers_1_mlp_experts_down_proj_bias"} loc("p168.1973"), %arg169: tensor<32x2880x2880xbf16> {ttcore.argument_type = #ttcore.argument_type<parameter>, ttcore.shard_status = #ttcore.shard_status<presharded>, ttir.name = "l__self___model_layers_1_mlp_experts_down_proj"} loc("p169.1978"), %arg170: tensor<32x5760xbf16> {ttcore.argument_type = #ttcore.argument_type<parameter>, ttcore.shard_status = #ttcore.shard_status<presharded>, ttir.name = "l__self___model_layers_1_mlp_experts_gate_up_proj_bias"} loc("p170.1984"), %arg171: tensor<32x2880x5760xbf16> {ttcore.argument_type = #ttcore.argument_type<parameter>, ttcore.shard_status = #ttcore.shard_status<presharded>, ttir.name = "l__self___model_layers_1_mlp_experts_gate_up_proj"} loc("p171.1989"), %arg172: tensor<2880xbf16> {ttcore.argument_type = #ttcore.argument_type<parameter>, ttcore.shard_status = #ttcore.shard_status<presharded>, ttir.name = "l__self___model_layers_2_input_layernorm_weight"} loc("p172.2072"), %arg173: tensor<64xbf16> {ttcore.argument_type = #ttcore.argument_type<parameter>, ttcore.shard_status = #ttcore.shard_status<presharded>, ttir.name = "l__self___model_layers_2_self_attn_sinks"} loc("p173.2095"), %arg174: tensor<512xbf16> {ttcore.argument_type = #ttcore.argument_type<parameter>, ttcore.shard_status = #ttcore.shard_status<presharded>, ttir.name = "l__self___model_layers_2_self_attn_k_proj_bias"} loc("p174.2108"), %arg175: tensor<512x2880xbf16> {ttcore.argument_type = #ttcore.argument_type<parameter>, ttcore.shard_status = #ttcore.shard_status<presharded>, ttir.name = "l__self___model_layers_2_self_attn_k_proj_weight"} loc("p175.2112"), %arg176: tensor<4096xbf16> {ttcore.argument_type = #ttcore.argument_type<parameter>, ttcore.shard_status = #ttcore.shard_status<presharded>, ttir.name = "l__self___model_layers_2_self_attn_q_proj_bias"} loc("p176.2157"), %arg177: tensor<4096x2880xbf16> {ttcore.argument_type = #ttcore.argument_type<parameter>, ttcore.shard_status = #ttcore.shard_status<presharded>, ttir.name = "l__self___model_layers_2_self_attn_q_proj_weight"} loc("p177.2161"), %arg178: tensor<2880xbf16> {ttcore.argument_type = #ttcore.argument_type<parameter>, ttcore.shard_status = #ttcore.shard_status<presharded>, ttir.name = "l__self___model_layers_2_post_attention_layernorm_weight"} loc("p178.2311"), %arg179: tensor<32x2880xbf16> {ttcore.argument_type = #ttcore.argument_type<parameter>, ttcore.shard_status = #ttcore.shard_status<presharded>, ttir.name = "l__self___model_layers_2_mlp_experts_down_proj_bias"} loc("p179.2379"), %arg180: tensor<32x2880x2880xbf16> {ttcore.argument_type = #ttcore.argument_type<parameter>, ttcore.shard_status = #ttcore.shard_status<presharded>, ttir.name = "l__self___model_layers_2_mlp_experts_down_proj"} loc("p180.2384"), %arg181: tensor<32x5760xbf16> {ttcore.argument_type = #ttcore.argument_type<parameter>, ttcore.shard_status = #ttcore.shard_status<presharded>, ttir.name = "l__self___model_layers_2_mlp_experts_gate_up_proj_bias"} loc("p181.2390"), %arg182: tensor<32x2880x5760xbf16> {ttcore.argument_type = #ttcore.argument_type<parameter>, ttcore.shard_status = #ttcore.shard_status<presharded>, ttir.name = "l__self___model_layers_2_mlp_experts_gate_up_proj"} loc("p182.2395"), %arg183: tensor<2880xbf16> {ttcore.argument_type = #ttcore.argument_type<parameter>, ttcore.shard_status = #ttcore.shard_status<presharded>, ttir.name = "l__self___model_layers_3_input_layernorm_weight"} loc("p183.2478"), %arg184: tensor<64xbf16> {ttcore.argument_type = #ttcore.argument_type<parameter>, ttcore.shard_status = #ttcore.shard_status<presharded>, ttir.name = "l__self___model_layers_3_self_attn_sinks"} loc("p184.2501"), %arg185: tensor<512xbf16> {ttcore.argument_type = #ttcore.argument_type<parameter>, ttcore.shard_status = #ttcore.shard_status<presharded>, ttir.name = "l__self___model_layers_3_self_attn_k_proj_bias"} loc("p185.2514"), %arg186: tensor<512x2880xbf16> {ttcore.argument_type = #ttcore.argument_type<parameter>, ttcore.shard_status = #ttcore.shard_status<presharded>, ttir.name = "l__self___model_layers_3_self_attn_k_proj_weight"} loc("p186.2518"), %arg187: tensor<4096xbf16> {ttcore.argument_type = #ttcore.argument_type<parameter>, ttcore.shard_status = #ttcore.shard_status<presharded>, ttir.name = "l__self___model_layers_3_self_attn_q_proj_bias"} loc("p187.2563"), %arg188: tensor<4096x2880xbf16> {ttcore.argument_type = #ttcore.argument_type<parameter>, ttcore.shard_status = #ttcore.shard_status<presharded>, ttir.name = "l__self___model_layers_3_self_attn_q_proj_weight"} loc("p188.2567"), %arg189: tensor<2880xbf16> {ttcore.argument_type = #ttcore.argument_type<parameter>, ttcore.shard_status = #ttcore.shard_status<presharded>, ttir.name = "l__self___model_layers_3_post_attention_layernorm_weight"} loc("p189.2717"), %arg190: tensor<32x2880xbf16> {ttcore.argument_type = #ttcore.argument_type<parameter>, ttcore.shard_status = #ttcore.shard_status<presharded>, ttir.name = "l__self___model_layers_3_mlp_experts_down_proj_bias"} loc("p190.2785"), %arg191: tensor<32x2880x2880xbf16> {ttcore.argument_type = #ttcore.argument_type<parameter>, ttcore.shard_status = #ttcore.shard_status<presharded>, ttir.name = "l__self___model_layers_3_mlp_experts_down_proj"} loc("p191.2790"), %arg192: tensor<32x5760xbf16> {ttcore.argument_type = #ttcore.argument_type<parameter>, ttcore.shard_status = #ttcore.shard_status<presharded>, ttir.name = "l__self___model_layers_3_mlp_experts_gate_up_proj_bias"} loc("p192.2796"), %arg193: tensor<32x2880x5760xbf16> {ttcore.argument_type = #ttcore.argument_type<parameter>, ttcore.shard_status = #ttcore.shard_status<presharded>, ttir.name = "l__self___model_layers_3_mlp_experts_gate_up_proj"} loc("p193.2801"), %arg194: tensor<2880xbf16> {ttcore.argument_type = #ttcore.argument_type<parameter>, ttcore.shard_status = #ttcore.shard_status<presharded>, ttir.name = "l__self___model_layers_4_input_layernorm_weight"} loc("p194.2884"), %arg195: tensor<64xbf16> {ttcore.argument_type = #ttcore.argument_type<parameter>, ttcore.shard_status = #ttcore.shard_status<presharded>, ttir.name = "l__self___model_layers_4_self_attn_sinks"} loc("p195.2907"), %arg196: tensor<512xbf16> {ttcore.argument_type = #ttcore.argument_type<parameter>, ttcore.shard_status = #ttcore.shard_status<presharded>, ttir.name = "l__self___model_layers_4_self_attn_k_proj_bias"} loc("p196.2920"), %arg197: tensor<512x2880xbf16> {ttcore.argument_type = #ttcore.argument_type<parameter>, ttcore.shard_status = #ttcore.shard_status<presharded>, ttir.name = "l__self___model_layers_4_self_attn_k_proj_weight"} loc("p197.2924"), %arg198: tensor<4096xbf16> {ttcore.argument_type = #ttcore.argument_type<parameter>, ttcore.shard_status = #ttcore.shard_status<presharded>, ttir.name = "l__self___model_layers_4_self_attn_q_proj_bias"} loc("p198.2969"), %arg199: tensor<4096x2880xbf16> {ttcore.argument_type = #ttcore.argument_type<parameter>, ttcore.shard_status = #ttcore.shard_status<presharded>, ttir.name = "l__self___model_layers_4_self_attn_q_proj_weight"} loc("p199.2973"), %arg200: tensor<2880xbf16> {ttcore.argument_type = #ttcore.argument_type<parameter>, ttcore.shard_status = #ttcore.shard_status<presharded>, ttir.name = "l__self___model_layers_4_post_attention_layernorm_weight"} loc("p200.3123"), %arg201: tensor<32x2880xbf16> {ttcore.argument_type = #ttcore.argument_type<parameter>, ttcore.shard_status = #ttcore.shard_status<presharded>, ttir.name = "l__self___model_layers_4_mlp_experts_down_proj_bias"} loc("p201.3191"), %arg202: tensor<32x2880x2880xbf16> {ttcore.argument_type = #ttcore.argument_type<parameter>, ttcore.shard_status = #ttcore.shard_status<presharded>, ttir.name = "l__self___model_layers_4_mlp_experts_down_proj"} loc("p202.3196"), %arg203: tensor<32x5760xbf16> {ttcore.argument_type = #ttcore.argument_type<parameter>, ttcore.shard_status = #ttcore.shard_status<presharded>, ttir.name = "l__self___model_layers_4_mlp_experts_gate_up_proj_bias"} loc("p203.3202"), %arg204: tensor<32x2880x5760xbf16> {ttcore.argument_type = #ttcore.argument_type<parameter>, ttcore.shard_status = #ttcore.shard_status<presharded>, ttir.name = "l__self___model_layers_4_mlp_experts_gate_up_proj"} loc("p204.3207"), %arg205: tensor<2880xbf16> {ttcore.argument_type = #ttcore.argument_type<parameter>, ttcore.shard_status = #ttcore.shard_status<presharded>, ttir.name = "l__self___model_layers_5_input_layernorm_weight"} loc("p205.3290"), %arg206: tensor<64xbf16> {ttcore.argument_type = #ttcore.argument_type<parameter>, ttcore.shard_status = #ttcore.shard_status<presharded>, ttir.name = "l__self___model_layers_5_self_attn_sinks"} loc("p206.3313"), %arg207: tensor<512xbf16> {ttcore.argument_type = #ttcore.argument_type<parameter>, ttcore.shard_status = #ttcore.shard_status<presharded>, ttir.name = "l__self___model_layers_5_self_attn_k_proj_bias"} loc("p207.3326"), %arg208: tensor<512x2880xbf16> {ttcore.argument_type = #ttcore.argument_type<parameter>, ttcore.shard_status = #ttcore.shard_status<presharded>, ttir.name = "l__self___model_layers_5_self_attn_k_proj_weight"} loc("p208.3330"), %arg209: tensor<4096xbf16> {ttcore.argument_type = #ttcore.argument_type<parameter>, ttcore.shard_status = #ttcore.shard_status<presharded>, ttir.name = "l__self___model_layers_5_self_attn_q_proj_bias"} loc("p209.3375"), %arg210: tensor<4096x2880xbf16> {ttcore.argument_type = #ttcore.argument_type<parameter>, ttcore.shard_status = #ttcore.shard_status<presharded>, ttir.name = "l__self___model_layers_5_self_attn_q_proj_weight"} loc("p210.3379"), %arg211: tensor<2880xbf16> {ttcore.argument_type = #ttcore.argument_type<parameter>, ttcore.shard_status = #ttcore.shard_status<presharded>, ttir.name = "l__self___model_layers_5_post_attention_layernorm_weight"} loc("p211.3529"), %arg212: tensor<32x2880xbf16> {ttcore.argument_type = #ttcore.argument_type<parameter>, ttcore.shard_status = #ttcore.shard_status<presharded>, ttir.name = "l__self___model_layers_5_mlp_experts_down_proj_bias"} loc("p212.3597"), %arg213: tensor<32x2880x2880xbf16> {ttcore.argument_type = #ttcore.argument_type<parameter>, ttcore.shard_status = #ttcore.shard_status<presharded>, ttir.name = "l__self___model_layers_5_mlp_experts_down_proj"} loc("p213.3602"), %arg214: tensor<32x5760xbf16> {ttcore.argument_type = #ttcore.argument_type<parameter>, ttcore.shard_status = #ttcore.shard_status<presharded>, ttir.name = "l__self___model_layers_5_mlp_experts_gate_up_proj_bias"} loc("p214.3608"), %arg215: tensor<32x2880x5760xbf16> {ttcore.argument_type = #ttcore.argument_type<parameter>, ttcore.shard_status = #ttcore.shard_status<presharded>, ttir.name = "l__self___model_layers_5_mlp_experts_gate_up_proj"} loc("p215.3613"), %arg216: tensor<2880xbf16> {ttcore.argument_type = #ttcore.argument_type<parameter>, ttcore.shard_status = #ttcore.shard_status<presharded>, ttir.name = "l__self___model_layers_6_input_layernorm_weight"} loc("p216.3696"), %arg217: tensor<64xbf16> {ttcore.argument_type = #ttcore.argument_type<parameter>, ttcore.shard_status = #ttcore.shard_status<presharded>, ttir.name = "l__self___model_layers_6_self_attn_sinks"} loc("p217.3719"), %arg218: tensor<512xbf16> {ttcore.argument_type = #ttcore.argument_type<parameter>, ttcore.shard_status = #ttcore.shard_status<presharded>, ttir.name = "l__self___model_layers_6_self_attn_k_proj_bias"} loc("p218.3732"), %arg219: tensor<512x2880xbf16> {ttcore.argument_type = #ttcore.argument_type<parameter>, ttcore.shard_status = #ttcore.shard_status<presharded>, ttir.name = "l__self___model_layers_6_self_attn_k_proj_weight"} loc("p219.3736"), %arg220: tensor<4096xbf16> {ttcore.argument_type = #ttcore.argument_type<parameter>, ttcore.shard_status = #ttcore.shard_status<presharded>, ttir.name = "l__self___model_layers_6_self_attn_q_proj_bias"} loc("p220.3781"), %arg221: tensor<4096x2880xbf16> {ttcore.argument_type = #ttcore.argument_type<parameter>, ttcore.shard_status = #ttcore.shard_status<presharded>, ttir.name = "l__self___model_layers_6_self_attn_q_proj_weight"} loc("p221.3785"), %arg222: tensor<2880xbf16> {ttcore.argument_type = #ttcore.argument_type<parameter>, ttcore.shard_status = #ttcore.shard_status<presharded>, ttir.name = "l__self___model_layers_6_post_attention_layernorm_weight"} loc("p222.3935"), %arg223: tensor<32x2880xbf16> {ttcore.argument_type = #ttcore.argument_type<parameter>, ttcore.shard_status = #ttcore.shard_status<presharded>, ttir.name = "l__self___model_layers_6_mlp_experts_down_proj_bias"} loc("p223.4003"), %arg224: tensor<32x2880x2880xbf16> {ttcore.argument_type = #ttcore.argument_type<parameter>, ttcore.shard_status = #ttcore.shard_status<presharded>, ttir.name = "l__self___model_layers_6_mlp_experts_down_proj"} loc("p224.4008"), %arg225: tensor<32x5760xbf16> {ttcore.argument_type = #ttcore.argument_type<parameter>, ttcore.shard_status = #ttcore.shard_status<presharded>, ttir.name = "l__self___model_layers_6_mlp_experts_gate_up_proj_bias"} loc("p225.4014"), %arg226: tensor<32x2880x5760xbf16> {ttcore.argument_type = #ttcore.argument_type<parameter>, ttcore.shard_status = #ttcore.shard_status<presharded>, ttir.name = "l__self___model_layers_6_mlp_experts_gate_up_proj"} loc("p226.4019"), %arg227: tensor<2880xbf16> {ttcore.argument_type = #ttcore.argument_type<parameter>, ttcore.shard_status = #ttcore.shard_status<presharded>, ttir.name = "l__self___model_layers_7_input_layernorm_weight"} loc("p227.4102"), %arg228: tensor<64xbf16> {ttcore.argument_type = #ttcore.argument_type<parameter>, ttcore.shard_status = #ttcore.shard_status<presharded>, ttir.name = "l__self___model_layers_7_self_attn_sinks"} loc("p228.4125"), %arg229: tensor<512xbf16> {ttcore.argument_type = #ttcore.argument_type<parameter>, ttcore.shard_status = #ttcore.shard_status<presharded>, ttir.name = "l__self___model_layers_7_self_attn_k_proj_bias"} loc("p229.4138"), %arg230: tensor<512x2880xbf16> {ttcore.argument_type = #ttcore.argument_type<parameter>, ttcore.shard_status = #ttcore.shard_status<presharded>, ttir.name = "l__self___model_layers_7_self_attn_k_proj_weight"} loc("p230.4142"), %arg231: tensor<4096xbf16> {ttcore.argument_type = #ttcore.argument_type<parameter>, ttcore.shard_status = #ttcore.shard_status<presharded>, ttir.name = "l__self___model_layers_7_self_attn_q_proj_bias"} loc("p231.4187"), %arg232: tensor<4096x2880xbf16> {ttcore.argument_type = #ttcore.argument_type<parameter>, ttcore.shard_status = #ttcore.shard_status<presharded>, ttir.name = "l__self___model_layers_7_self_attn_q_proj_weight"} loc("p232.4191"), %arg233: tensor<2880xbf16> {ttcore.argument_type = #ttcore.argument_type<parameter>, ttcore.shard_status = #ttcore.shard_status<presharded>, ttir.name = "l__self___model_layers_7_post_attention_layernorm_weight"} loc("p233.4341"), %arg234: tensor<32x2880xbf16> {ttcore.argument_type = #ttcore.argument_type<parameter>, ttcore.shard_status = #ttcore.shard_status<presharded>, ttir.name = "l__self___model_layers_7_mlp_experts_down_proj_bias"} loc("p234.4409"), %arg235: tensor<32x2880x2880xbf16> {ttcore.argument_type = #ttcore.argument_type<parameter>, ttcore.shard_status = #ttcore.shard_status<presharded>, ttir.name = "l__self___model_layers_7_mlp_experts_down_proj"} loc("p235.4414"), %arg236: tensor<32x5760xbf16> {ttcore.argument_type = #ttcore.argument_type<parameter>, ttcore.shard_status = #ttcore.shard_status<presharded>, ttir.name = "l__self___model_layers_7_mlp_experts_gate_up_proj_bias"} loc("p236.4420"), %arg237: tensor<32x2880x5760xbf16> {ttcore.argument_type = #ttcore.argument_type<parameter>, ttcore.shard_status = #ttcore.shard_status<presharded>, ttir.name = "l__self___model_layers_7_mlp_experts_gate_up_proj"} loc("p237.4425"), %arg238: tensor<2880xbf16> {ttcore.argument_type = #ttcore.argument_type<parameter>, ttcore.shard_status = #ttcore.shard_status<presharded>, ttir.name = "l__self___model_layers_8_input_layernorm_weight"} loc("p238.4508"), %arg239: tensor<64xbf16> {ttcore.argument_type = #ttcore.argument_type<parameter>, ttcore.shard_status = #ttcore.shard_status<presharded>, ttir.name = "l__self___model_layers_8_self_attn_sinks"} loc("p239.4531"), %arg240: tensor<512xbf16> {ttcore.argument_type = #ttcore.argument_type<parameter>, ttcore.shard_status = #ttcore.shard_status<presharded>, ttir.name = "l__self___model_layers_8_self_attn_k_proj_bias"} loc("p240.4544"), %arg241: tensor<512x2880xbf16> {ttcore.argument_type = #ttcore.argument_type<parameter>, ttcore.shard_status = #ttcore.shard_status<presharded>, ttir.name = "l__self___model_layers_8_self_attn_k_proj_weight"} loc("p241.4548"), %arg242: tensor<4096xbf16> {ttcore.argument_type = #ttcore.argument_type<parameter>, ttcore.shard_status = #ttcore.shard_status<presharded>, ttir.name = "l__self___model_layers_8_self_attn_q_proj_bias"} loc("p242.4593"), %arg243: tensor<4096x2880xbf16> {ttcore.argument_type = #ttcore.argument_type<parameter>, ttcore.shard_status = #ttcore.shard_status<presharded>, ttir.name = "l__self___model_layers_8_self_attn_q_proj_weight"} loc("p243.4597"), %arg244: tensor<2880xbf16> {ttcore.argument_type = #ttcore.argument_type<parameter>, ttcore.shard_status = #ttcore.shard_status<presharded>, ttir.name = "l__self___model_layers_8_post_attention_layernorm_weight"} loc("p244.4747"), %arg245: tensor<32x2880xbf16> {ttcore.argument_type = #ttcore.argument_type<parameter>, ttcore.shard_status = #ttcore.shard_status<presharded>, ttir.name = "l__self___model_layers_8_mlp_experts_down_proj_bias"} loc("p245.4815"), %arg246: tensor<32x2880x2880xbf16> {ttcore.argument_type = #ttcore.argument_type<parameter>, ttcore.shard_status = #ttcore.shard_status<presharded>, ttir.name = "l__self___model_layers_8_mlp_experts_down_proj"} loc("p246.4820"), %arg247: tensor<32x5760xbf16> {ttcore.argument_type = #ttcore.argument_type<parameter>, ttcore.shard_status = #ttcore.shard_status<presharded>, ttir.name = "l__self___model_layers_8_mlp_experts_gate_up_proj_bias"} loc("p247.4826"), %arg248: tensor<32x2880x5760xbf16> {ttcore.argument_type = #ttcore.argument_type<parameter>, ttcore.shard_status = #ttcore.shard_status<presharded>, ttir.name = "l__self___model_layers_8_mlp_experts_gate_up_proj"} loc("p248.4831"), %arg249: tensor<2880xbf16> {ttcore.argument_type = #ttcore.argument_type<parameter>, ttcore.shard_status = #ttcore.shard_status<presharded>, ttir.name = "l__self___model_layers_9_input_layernorm_weight"} loc("p249.4914"), %arg250: tensor<64xbf16> {ttcore.argument_type = #ttcore.argument_type<parameter>, ttcore.shard_status = #ttcore.shard_status<presharded>, ttir.name = "l__self___model_layers_9_self_attn_sinks"} loc("p250.4937"), %arg251: tensor<512xbf16> {ttcore.argument_type = #ttcore.argument_type<parameter>, ttcore.shard_status = #ttcore.shard_status<presharded>, ttir.name = "l__self___model_layers_9_self_attn_k_proj_bias"} loc("p251.4950"), %arg252: tensor<512x2880xbf16> {ttcore.argument_type = #ttcore.argument_type<parameter>, ttcore.shard_status = #ttcore.shard_status<presharded>, ttir.name = "l__self___model_layers_9_self_attn_k_proj_weight"} loc("p252.4954"), %arg253: tensor<4096xbf16> {ttcore.argument_type = #ttcore.argument_type<parameter>, ttcore.shard_status = #ttcore.shard_status<presharded>, ttir.name = "l__self___model_layers_9_self_attn_q_proj_bias"} loc("p253.4999"), %arg254: tensor<4096x2880xbf16> {ttcore.argument_type = #ttcore.argument_type<parameter>, ttcore.shard_status = #ttcore.shard_status<presharded>, ttir.name = "l__self___model_layers_9_self_attn_q_proj_weight"} loc("p254.5003"), %arg255: tensor<2880xbf16> {ttcore.argument_type = #ttcore.argument_type<parameter>, ttcore.shard_status = #ttcore.shard_status<presharded>, ttir.name = "l__self___model_layers_9_post_attention_layernorm_weight"} loc("p255.5153"), %arg256: tensor<32x2880xbf16> {ttcore.argument_type = #ttcore.argument_type<parameter>, ttcore.shard_status = #ttcore.shard_status<presharded>, ttir.name = "l__self___model_layers_9_mlp_experts_down_proj_bias"} loc("p256.5221"), %arg257: tensor<32x2880x2880xbf16> {ttcore.argument_type = #ttcore.argument_type<parameter>, ttcore.shard_status = #ttcore.shard_status<presharded>, ttir.name = "l__self___model_layers_9_mlp_experts_down_proj"} loc("p257.5226"), %arg258: tensor<32x5760xbf16> {ttcore.argument_type = #ttcore.argument_type<parameter>, ttcore.shard_status = #ttcore.shard_status<presharded>, ttir.name = "l__self___model_layers_9_mlp_experts_gate_up_proj_bias"} loc("p258.5232"), %arg259: tensor<32x2880x5760xbf16> {ttcore.argument_type = #ttcore.argument_type<parameter>, ttcore.shard_status = #ttcore.shard_status<presharded>, ttir.name = "l__self___model_layers_9_mlp_experts_gate_up_proj"} loc("p259.5237"), %arg260: tensor<2880xbf16> {ttcore.argument_type = #ttcore.argument_type<parameter>, ttcore.shard_status = #ttcore.shard_status<presharded>, ttir.name = "l__self___model_layers_10_input_layernorm_weight"} loc("p260.5320"), %arg261: tensor<64xbf16> {ttcore.argument_type = #ttcore.argument_type<parameter>, ttcore.shard_status = #ttcore.shard_status<presharded>, ttir.name = "l__self___model_layers_10_self_attn_sinks"} loc("p261.5343"), %arg262: tensor<512xbf16> {ttcore.argument_type = #ttcore.argument_type<parameter>, ttcore.shard_status = #ttcore.shard_status<presharded>, ttir.name = "l__self___model_layers_10_self_attn_k_proj_bias"} loc("p262.5356"), %arg263: tensor<512x2880xbf16> {ttcore.argument_type = #ttcore.argument_type<parameter>, ttcore.shard_status = #ttcore.shard_status<presharded>, ttir.name = "l__self___model_layers_10_self_attn_k_proj_weight"} loc("p263.5360"), %arg264: tensor<4096xbf16> {ttcore.argument_type = #ttcore.argument_type<parameter>, ttcore.shard_status = #ttcore.shard_status<presharded>, ttir.name = "l__self___model_layers_10_self_attn_q_proj_bias"} loc("p264.5405"), %arg265: tensor<4096x2880xbf16> {ttcore.argument_type = #ttcore.argument_type<parameter>, ttcore.shard_status = #ttcore.shard_status<presharded>, ttir.name = "l__self___model_layers_10_self_attn_q_proj_weight"} loc("p265.5409"), %arg266: tensor<2880xbf16> {ttcore.argument_type = #ttcore.argument_type<parameter>, ttcore.shard_status = #ttcore.shard_status<presharded>, ttir.name = "l__self___model_layers_10_post_attention_layernorm_weight"} loc("p266.5559"), %arg267: tensor<32x2880xbf16> {ttcore.argument_type = #ttcore.argument_type<parameter>, ttcore.shard_status = #ttcore.shard_status<presharded>, ttir.name = "l__self___model_layers_10_mlp_experts_down_proj_bias"} loc("p267.5627"), %arg268: tensor<32x2880x2880xbf16> {ttcore.argument_type = #ttcore.argument_type<parameter>, ttcore.shard_status = #ttcore.shard_status<presharded>, ttir.name = "l__self___model_layers_10_mlp_experts_down_proj"} loc("p268.5632"), %arg269: tensor<32x5760xbf16> {ttcore.argument_type = #ttcore.argument_type<parameter>, ttcore.shard_status = #ttcore.shard_status<presharded>, ttir.name = "l__self___model_layers_10_mlp_experts_gate_up_proj_bias"} loc("p269.5638"), %arg270: tensor<32x2880x5760xbf16> {ttcore.argument_type = #ttcore.argument_type<parameter>, ttcore.shard_status = #ttcore.shard_status<presharded>, ttir.name = "l__self___model_layers_10_mlp_experts_gate_up_proj"} loc("p270.5643"), %arg271: tensor<2880xbf16> {ttcore.argument_type = #ttcore.argument_type<parameter>, ttcore.shard_status = #ttcore.shard_status<presharded>, ttir.name = "l__self___model_layers_11_input_layernorm_weight"} loc("p271.5726"), %arg272: tensor<64xbf16> {ttcore.argument_type = #ttcore.argument_type<parameter>, ttcore.shard_status = #ttcore.shard_status<presharded>, ttir.name = "l__self___model_layers_11_self_attn_sinks"} loc("p272.5749"), %arg273: tensor<512xbf16> {ttcore.argument_type = #ttcore.argument_type<parameter>, ttcore.shard_status = #ttcore.shard_status<presharded>, ttir.name = "l__self___model_layers_11_self_attn_k_proj_bias"} loc("p273.5762"), %arg274: tensor<512x2880xbf16> {ttcore.argument_type = #ttcore.argument_type<parameter>, ttcore.shard_status = #ttcore.shard_status<presharded>, ttir.name = "l__self___model_layers_11_self_attn_k_proj_weight"} loc("p274.5766"), %arg275: tensor<4096xbf16> {ttcore.argument_type = #ttcore.argument_type<parameter>, ttcore.shard_status = #ttcore.shard_status<presharded>, ttir.name = "l__self___model_layers_11_self_attn_q_proj_bias"} loc("p275.5811"), %arg276: tensor<4096x2880xbf16> {ttcore.argument_type = #ttcore.argument_type<parameter>, ttcore.shard_status = #ttcore.shard_status<presharded>, ttir.name = "l__self___model_layers_11_self_attn_q_proj_weight"} loc("p276.5815"), %arg277: tensor<2880xbf16> {ttcore.argument_type = #ttcore.argument_type<parameter>, ttcore.shard_status = #ttcore.shard_status<presharded>, ttir.name = "l__self___model_layers_11_post_attention_layernorm_weight"} loc("p277.5965"), %arg278: tensor<32x2880xbf16> {ttcore.argument_type = #ttcore.argument_type<parameter>, ttcore.shard_status = #ttcore.shard_status<presharded>, ttir.name = "l__self___model_layers_11_mlp_experts_down_proj_bias"} loc("p278.6033"), %arg279: tensor<32x2880x2880xbf16> {ttcore.argument_type = #ttcore.argument_type<parameter>, ttcore.shard_status = #ttcore.shard_status<presharded>, ttir.name = "l__self___model_layers_11_mlp_experts_down_proj"} loc("p279.6038"), %arg280: tensor<32x5760xbf16> {ttcore.argument_type = #ttcore.argument_type<parameter>, ttcore.shard_status = #ttcore.shard_status<presharded>, ttir.name = "l__self___model_layers_11_mlp_experts_gate_up_proj_bias"} loc("p280.6044"), %arg281: tensor<32x2880x5760xbf16> {ttcore.argument_type = #ttcore.argument_type<parameter>, ttcore.shard_status = #ttcore.shard_status<presharded>, ttir.name = "l__self___model_layers_11_mlp_experts_gate_up_proj"} loc("p281.6049"), %arg282: tensor<2880xbf16> {ttcore.argument_type = #ttcore.argument_type<parameter>, ttcore.shard_status = #ttcore.shard_status<presharded>, ttir.name = "l__self___model_layers_12_input_layernorm_weight"} loc("p282.6132"), %arg283: tensor<64xbf16> {ttcore.argument_type = #ttcore.argument_type<parameter>, ttcore.shard_status = #ttcore.shard_status<presharded>, ttir.name = "l__self___model_layers_12_self_attn_sinks"} loc("p283.6155"), %arg284: tensor<512xbf16> {ttcore.argument_type = #ttcore.argument_type<parameter>, ttcore.shard_status = #ttcore.shard_status<presharded>, ttir.name = "l__self___model_layers_12_self_attn_k_proj_bias"} loc("p284.6168"), %arg285: tensor<512x2880xbf16> {ttcore.argument_type = #ttcore.argument_type<parameter>, ttcore.shard_status = #ttcore.shard_status<presharded>, ttir.name = "l__self___model_layers_12_self_attn_k_proj_weight"} loc("p285.6172"), %arg286: tensor<4096xbf16> {ttcore.argument_type = #ttcore.argument_type<parameter>, ttcore.shard_status = #ttcore.shard_status<presharded>, ttir.name = "l__self___model_layers_12_self_attn_q_proj_bias"} loc("p286.6217"), %arg287: tensor<4096x2880xbf16> {ttcore.argument_type = #ttcore.argument_type<parameter>, ttcore.shard_status = #ttcore.shard_status<presharded>, ttir.name = "l__self___model_layers_12_self_attn_q_proj_weight"} loc("p287.6221"), %arg288: tensor<2880xbf16> {ttcore.argument_type = #ttcore.argument_type<parameter>, ttcore.shard_status = #ttcore.shard_status<presharded>, ttir.name = "l__self___model_layers_12_post_attention_layernorm_weight"} loc("p288.6371"), %arg289: tensor<32x2880xbf16> {ttcore.argument_type = #ttcore.argument_type<parameter>, ttcore.shard_status = #ttcore.shard_status<presharded>, ttir.name = "l__self___model_layers_12_mlp_experts_down_proj_bias"} loc("p289.6439"), %arg290: tensor<32x2880x2880xbf16> {ttcore.argument_type = #ttcore.argument_type<parameter>, ttcore.shard_status = #ttcore.shard_status<presharded>, ttir.name = "l__self___model_layers_12_mlp_experts_down_proj"} loc("p290.6444"), %arg291: tensor<32x5760xbf16> {ttcore.argument_type = #ttcore.argument_type<parameter>, ttcore.shard_status = #ttcore.shard_status<presharded>, ttir.name = "l__self___model_layers_12_mlp_experts_gate_up_proj_bias"} loc("p291.6450"), %arg292: tensor<32x2880x5760xbf16> {ttcore.argument_type = #ttcore.argument_type<parameter>, ttcore.shard_status = #ttcore.shard_status<presharded>, ttir.name = "l__self___model_layers_12_mlp_experts_gate_up_proj"} loc("p292.6455"), %arg293: tensor<2880xbf16> {ttcore.argument_type = #ttcore.argument_type<parameter>, ttcore.shard_status = #ttcore.shard_status<presharded>, ttir.name = "l__self___model_layers_13_input_layernorm_weight"} loc("p293.6538"), %arg294: tensor<64xbf16> {ttcore.argument_type = #ttcore.argument_type<parameter>, ttcore.shard_status = #ttcore.shard_status<presharded>, ttir.name = "l__self___model_layers_13_self_attn_sinks"} loc("p294.6561"), %arg295: tensor<512xbf16> {ttcore.argument_type = #ttcore.argument_type<parameter>, ttcore.shard_status = #ttcore.shard_status<presharded>, ttir.name = "l__self___model_layers_13_self_attn_k_proj_bias"} loc("p295.6574"), %arg296: tensor<512x2880xbf16> {ttcore.argument_type = #ttcore.argument_type<parameter>, ttcore.shard_status = #ttcore.shard_status<presharded>, ttir.name = "l__self___model_layers_13_self_attn_k_proj_weight"} loc("p296.6578"), %arg297: tensor<4096xbf16> {ttcore.argument_type = #ttcore.argument_type<parameter>, ttcore.shard_status = #ttcore.shard_status<presharded>, ttir.name = "l__self___model_layers_13_self_attn_q_proj_bias"} loc("p297.6623"), %arg298: tensor<4096x2880xbf16> {ttcore.argument_type = #ttcore.argument_type<parameter>, ttcore.shard_status = #ttcore.shard_status<presharded>, ttir.name = "l__self___model_layers_13_self_attn_q_proj_weight"} loc("p298.6627"), %arg299: tensor<2880xbf16> {ttcore.argument_type = #ttcore.argument_type<parameter>, ttcore.shard_status = #ttcore.shard_status<presharded>, ttir.name = "l__self___model_layers_13_post_attention_layernorm_weight"} loc("p299.6777"), %arg300: tensor<32x2880xbf16> {ttcore.argument_type = #ttcore.argument_type<parameter>, ttcore.shard_status = #ttcore.shard_status<presharded>, ttir.name = "l__self___model_layers_13_mlp_experts_down_proj_bias"} loc("p300.6845"), %arg301: tensor<32x2880x2880xbf16> {ttcore.argument_type = #ttcore.argument_type<parameter>, ttcore.shard_status = #ttcore.shard_status<presharded>, ttir.name = "l__self___model_layers_13_mlp_experts_down_proj"} loc("p301.6850"), %arg302: tensor<32x5760xbf16> {ttcore.argument_type = #ttcore.argument_type<parameter>, ttcore.shard_status = #ttcore.shard_status<presharded>, ttir.name = "l__self___model_layers_13_mlp_experts_gate_up_proj_bias"} loc("p302.6856"), %arg303: tensor<32x2880x5760xbf16> {ttcore.argument_type = #ttcore.argument_type<parameter>, ttcore.shard_status = #ttcore.shard_status<presharded>, ttir.name = "l__self___model_layers_13_mlp_experts_gate_up_proj"} loc("p303.6861"), %arg304: tensor<2880xbf16> {ttcore.argument_type = #ttcore.argument_type<parameter>, ttcore.shard_status = #ttcore.shard_status<presharded>, ttir.name = "l__self___model_layers_14_input_layernorm_weight"} loc("p304.6944"), %arg305: tensor<64xbf16> {ttcore.argument_type = #ttcore.argument_type<parameter>, ttcore.shard_status = #ttcore.shard_status<presharded>, ttir.name = "l__self___model_layers_14_self_attn_sinks"} loc("p305.6967"), %arg306: tensor<512xbf16> {ttcore.argument_type = #ttcore.argument_type<parameter>, ttcore.shard_status = #ttcore.shard_status<presharded>, ttir.name = "l__self___model_layers_14_self_attn_k_proj_bias"} loc("p306.6980"), %arg307: tensor<512x2880xbf16> {ttcore.argument_type = #ttcore.argument_type<parameter>, ttcore.shard_status = #ttcore.shard_status<presharded>, ttir.name = "l__self___model_layers_14_self_attn_k_proj_weight"} loc("p307.6984"), %arg308: tensor<4096xbf16> {ttcore.argument_type = #ttcore.argument_type<parameter>, ttcore.shard_status = #ttcore.shard_status<presharded>, ttir.name = "l__self___model_layers_14_self_attn_q_proj_bias"} loc("p308.7029"), %arg309: tensor<4096x2880xbf16> {ttcore.argument_type = #ttcore.argument_type<parameter>, ttcore.shard_status = #ttcore.shard_status<presharded>, ttir.name = "l__self___model_layers_14_self_attn_q_proj_weight"} loc("p309.7033"), %arg310: tensor<2880xbf16> {ttcore.argument_type = #ttcore.argument_type<parameter>, ttcore.shard_status = #ttcore.shard_status<presharded>, ttir.name = "l__self___model_layers_14_post_attention_layernorm_weight"} loc("p310.7183"), %arg311: tensor<32x2880xbf16> {ttcore.argument_type = #ttcore.argument_type<parameter>, ttcore.shard_status = #ttcore.shard_status<presharded>, ttir.name = "l__self___model_layers_14_mlp_experts_down_proj_bias"} loc("p311.7251"), %arg312: tensor<32x2880x2880xbf16> {ttcore.argument_type = #ttcore.argument_type<parameter>, ttcore.shard_status = #ttcore.shard_status<presharded>, ttir.name = "l__self___model_layers_14_mlp_experts_down_proj"} loc("p312.7256"), %arg313: tensor<32x5760xbf16> {ttcore.argument_type = #ttcore.argument_type<parameter>, ttcore.shard_status = #ttcore.shard_status<presharded>, ttir.name = "l__self___model_layers_14_mlp_experts_gate_up_proj_bias"} loc("p313.7262"), %arg314: tensor<32x2880x5760xbf16> {ttcore.argument_type = #ttcore.argument_type<parameter>, ttcore.shard_status = #ttcore.shard_status<presharded>, ttir.name = "l__self___model_layers_14_mlp_experts_gate_up_proj"} loc("p314.7267"), %arg315: tensor<2880xbf16> {ttcore.argument_type = #ttcore.argument_type<parameter>, ttcore.shard_status = #ttcore.shard_status<presharded>, ttir.name = "l__self___model_layers_15_input_layernorm_weight"} loc("p315.7350"), %arg316: tensor<64xbf16> {ttcore.argument_type = #ttcore.argument_type<parameter>, ttcore.shard_status = #ttcore.shard_status<presharded>, ttir.name = "l__self___model_layers_15_self_attn_sinks"} loc("p316.7373"), %arg317: tensor<512xbf16> {ttcore.argument_type = #ttcore.argument_type<parameter>, ttcore.shard_status = #ttcore.shard_status<presharded>, ttir.name = "l__self___model_layers_15_self_attn_k_proj_bias"} loc("p317.7386"), %arg318: tensor<512x2880xbf16> {ttcore.argument_type = #ttcore.argument_type<parameter>, ttcore.shard_status = #ttcore.shard_status<presharded>, ttir.name = "l__self___model_layers_15_self_attn_k_proj_weight"} loc("p318.7390"), %arg319: tensor<4096xbf16> {ttcore.argument_type = #ttcore.argument_type<parameter>, ttcore.shard_status = #ttcore.shard_status<presharded>, ttir.name = "l__self___model_layers_15_self_attn_q_proj_bias"} loc("p319.7435"), %arg320: tensor<4096x2880xbf16> {ttcore.argument_type = #ttcore.argument_type<parameter>, ttcore.shard_status = #ttcore.shard_status<presharded>, ttir.name = "l__self___model_layers_15_self_attn_q_proj_weight"} loc("p320.7439"), %arg321: tensor<2880xbf16> {ttcore.argument_type = #ttcore.argument_type<parameter>, ttcore.shard_status = #ttcore.shard_status<presharded>, ttir.name = "l__self___model_layers_15_post_attention_layernorm_weight"} loc("p321.7589"), %arg322: tensor<32x2880xbf16> {ttcore.argument_type = #ttcore.argument_type<parameter>, ttcore.shard_status = #ttcore.shard_status<presharded>, ttir.name = "l__self___model_layers_15_mlp_experts_down_proj_bias"} loc("p322.7657"), %arg323: tensor<32x2880x2880xbf16> {ttcore.argument_type = #ttcore.argument_type<parameter>, ttcore.shard_status = #ttcore.shard_status<presharded>, ttir.name = "l__self___model_layers_15_mlp_experts_down_proj"} loc("p323.7662"), %arg324: tensor<32x5760xbf16> {ttcore.argument_type = #ttcore.argument_type<parameter>, ttcore.shard_status = #ttcore.shard_status<presharded>, ttir.name = "l__self___model_layers_15_mlp_experts_gate_up_proj_bias"} loc("p324.7668"), %arg325: tensor<32x2880x5760xbf16> {ttcore.argument_type = #ttcore.argument_type<parameter>, ttcore.shard_status = #ttcore.shard_status<presharded>, ttir.name = "l__self___model_layers_15_mlp_experts_gate_up_proj"} loc("p325.7673"), %arg326: tensor<2880xbf16> {ttcore.argument_type = #ttcore.argument_type<parameter>, ttcore.shard_status = #ttcore.shard_status<presharded>, ttir.name = "l__self___model_layers_16_input_layernorm_weight"} loc("p326.7756"), %arg327: tensor<64xbf16> {ttcore.argument_type = #ttcore.argument_type<parameter>, ttcore.shard_status = #ttcore.shard_status<presharded>, ttir.name = "l__self___model_layers_16_self_attn_sinks"} loc("p327.7779"), %arg328: tensor<512xbf16> {ttcore.argument_type = #ttcore.argument_type<parameter>, ttcore.shard_status = #ttcore.shard_status<presharded>, ttir.name = "l__self___model_layers_16_self_attn_k_proj_bias"} loc("p328.7792"), %arg329: tensor<512x2880xbf16> {ttcore.argument_type = #ttcore.argument_type<parameter>, ttcore.shard_status = #ttcore.shard_status<presharded>, ttir.name = "l__self___model_layers_16_self_attn_k_proj_weight"} loc("p329.7796"), %arg330: tensor<4096xbf16> {ttcore.argument_type = #ttcore.argument_type<parameter>, ttcore.shard_status = #ttcore.shard_status<presharded>, ttir.name = "l__self___model_layers_16_self_attn_q_proj_bias"} loc("p330.7841"), %arg331: tensor<4096x2880xbf16> {ttcore.argument_type = #ttcore.argument_type<parameter>, ttcore.shard_status = #ttcore.shard_status<presharded>, ttir.name = "l__self___model_layers_16_self_attn_q_proj_weight"} loc("p331.7845"), %arg332: tensor<2880xbf16> {ttcore.argument_type = #ttcore.argument_type<parameter>, ttcore.shard_status = #ttcore.shard_status<presharded>, ttir.name = "l__self___model_layers_16_post_attention_layernorm_weight"} loc("p332.7995"), %arg333: tensor<32x2880xbf16> {ttcore.argument_type = #ttcore.argument_type<parameter>, ttcore.shard_status = #ttcore.shard_status<presharded>, ttir.name = "l__self___model_layers_16_mlp_experts_down_proj_bias"} loc("p333.8063"), %arg334: tensor<32x2880x2880xbf16> {ttcore.argument_type = #ttcore.argument_type<parameter>, ttcore.shard_status = #ttcore.shard_status<presharded>, ttir.name = "l__self___model_layers_16_mlp_experts_down_proj"} loc("p334.8068"), %arg335: tensor<32x5760xbf16> {ttcore.argument_type = #ttcore.argument_type<parameter>, ttcore.shard_status = #ttcore.shard_status<presharded>, ttir.name = "l__self___model_layers_16_mlp_experts_gate_up_proj_bias"} loc("p335.8074"), %arg336: tensor<32x2880x5760xbf16> {ttcore.argument_type = #ttcore.argument_type<parameter>, ttcore.shard_status = #ttcore.shard_status<presharded>, ttir.name = "l__self___model_layers_16_mlp_experts_gate_up_proj"} loc("p336.8079"), %arg337: tensor<2880xbf16> {ttcore.argument_type = #ttcore.argument_type<parameter>, ttcore.shard_status = #ttcore.shard_status<presharded>, ttir.name = "l__self___model_layers_17_input_layernorm_weight"} loc("p337.8162"), %arg338: tensor<64xbf16> {ttcore.argument_type = #ttcore.argument_type<parameter>, ttcore.shard_status = #ttcore.shard_status<presharded>, ttir.name = "l__self___model_layers_17_self_attn_sinks"} loc("p338.8185"), %arg339: tensor<512xbf16> {ttcore.argument_type = #ttcore.argument_type<parameter>, ttcore.shard_status = #ttcore.shard_status<presharded>, ttir.name = "l__self___model_layers_17_self_attn_k_proj_bias"} loc("p339.8198"), %arg340: tensor<512x2880xbf16> {ttcore.argument_type = #ttcore.argument_type<parameter>, ttcore.shard_status = #ttcore.shard_status<presharded>, ttir.name = "l__self___model_layers_17_self_attn_k_proj_weight"} loc("p340.8202"), %arg341: tensor<4096xbf16> {ttcore.argument_type = #ttcore.argument_type<parameter>, ttcore.shard_status = #ttcore.shard_status<presharded>, ttir.name = "l__self___model_layers_17_self_attn_q_proj_bias"} loc("p341.8247"), %arg342: tensor<4096x2880xbf16> {ttcore.argument_type = #ttcore.argument_type<parameter>, ttcore.shard_status = #ttcore.shard_status<presharded>, ttir.name = "l__self___model_layers_17_self_attn_q_proj_weight"} loc("p342.8251"), %arg343: tensor<2880xbf16> {ttcore.argument_type = #ttcore.argument_type<parameter>, ttcore.shard_status = #ttcore.shard_status<presharded>, ttir.name = "l__self___model_layers_17_post_attention_layernorm_weight"} loc("p343.8401"), %arg344: tensor<32x2880xbf16> {ttcore.argument_type = #ttcore.argument_type<parameter>, ttcore.shard_status = #ttcore.shard_status<presharded>, ttir.name = "l__self___model_layers_17_mlp_experts_down_proj_bias"} loc("p344.8469"), %arg345: tensor<32x2880x2880xbf16> {ttcore.argument_type = #ttcore.argument_type<parameter>, ttcore.shard_status = #ttcore.shard_status<presharded>, ttir.name = "l__self___model_layers_17_mlp_experts_down_proj"} loc("p345.8474"), %arg346: tensor<32x5760xbf16> {ttcore.argument_type = #ttcore.argument_type<parameter>, ttcore.shard_status = #ttcore.shard_status<presharded>, ttir.name = "l__self___model_layers_17_mlp_experts_gate_up_proj_bias"} loc("p346.8480"), %arg347: tensor<32x2880x5760xbf16> {ttcore.argument_type = #ttcore.argument_type<parameter>, ttcore.shard_status = #ttcore.shard_status<presharded>, ttir.name = "l__self___model_layers_17_mlp_experts_gate_up_proj"} loc("p347.8485"), %arg348: tensor<2880xbf16> {ttcore.argument_type = #ttcore.argument_type<parameter>, ttcore.shard_status = #ttcore.shard_status<presharded>, ttir.name = "l__self___model_layers_18_input_layernorm_weight"} loc("p348.8568"), %arg349: tensor<64xbf16> {ttcore.argument_type = #ttcore.argument_type<parameter>, ttcore.shard_status = #ttcore.shard_status<presharded>, ttir.name = "l__self___model_layers_18_self_attn_sinks"} loc("p349.8591"), %arg350: tensor<512xbf16> {ttcore.argument_type = #ttcore.argument_type<parameter>, ttcore.shard_status = #ttcore.shard_status<presharded>, ttir.name = "l__self___model_layers_18_self_attn_k_proj_bias"} loc("p350.8604"), %arg351: tensor<512x2880xbf16> {ttcore.argument_type = #ttcore.argument_type<parameter>, ttcore.shard_status = #ttcore.shard_status<presharded>, ttir.name = "l__self___model_layers_18_self_attn_k_proj_weight"} loc("p351.8608"), %arg352: tensor<4096xbf16> {ttcore.argument_type = #ttcore.argument_type<parameter>, ttcore.shard_status = #ttcore.shard_status<presharded>, ttir.name = "l__self___model_layers_18_self_attn_q_proj_bias"} loc("p352.8653"), %arg353: tensor<4096x2880xbf16> {ttcore.argument_type = #ttcore.argument_type<parameter>, ttcore.shard_status = #ttcore.shard_status<presharded>, ttir.name = "l__self___model_layers_18_self_attn_q_proj_weight"} loc("p353.8657"), %arg354: tensor<2880xbf16> {ttcore.argument_type = #ttcore.argument_type<parameter>, ttcore.shard_status = #ttcore.shard_status<presharded>, ttir.name = "l__self___model_layers_18_post_attention_layernorm_weight"} loc("p354.8807"), %arg355: tensor<32x2880xbf16> {ttcore.argument_type = #ttcore.argument_type<parameter>, ttcore.shard_status = #ttcore.shard_status<presharded>, ttir.name = "l__self___model_layers_18_mlp_experts_down_proj_bias"} loc("p355.8875"), %arg356: tensor<32x2880x2880xbf16> {ttcore.argument_type = #ttcore.argument_type<parameter>, ttcore.shard_status = #ttcore.shard_status<presharded>, ttir.name = "l__self___model_layers_18_mlp_experts_down_proj"} loc("p356.8880"), %arg357: tensor<32x5760xbf16> {ttcore.argument_type = #ttcore.argument_type<parameter>, ttcore.shard_status = #ttcore.shard_status<presharded>, ttir.name = "l__self___model_layers_18_mlp_experts_gate_up_proj_bias"} loc("p357.8886"), %arg358: tensor<32x2880x5760xbf16> {ttcore.argument_type = #ttcore.argument_type<parameter>, ttcore.shard_status = #ttcore.shard_status<presharded>, ttir.name = "l__self___model_layers_18_mlp_experts_gate_up_proj"} loc("p358.8891"), %arg359: tensor<2880xbf16> {ttcore.argument_type = #ttcore.argument_type<parameter>, ttcore.shard_status = #ttcore.shard_status<presharded>, ttir.name = "l__self___model_layers_19_input_layernorm_weight"} loc("p359.8974"), %arg360: tensor<64xbf16> {ttcore.argument_type = #ttcore.argument_type<parameter>, ttcore.shard_status = #ttcore.shard_status<presharded>, ttir.name = "l__self___model_layers_19_self_attn_sinks"} loc("p360.8997"), %arg361: tensor<512xbf16> {ttcore.argument_type = #ttcore.argument_type<parameter>, ttcore.shard_status = #ttcore.shard_status<presharded>, ttir.name = "l__self___model_layers_19_self_attn_k_proj_bias"} loc("p361.9010"), %arg362: tensor<512x2880xbf16> {ttcore.argument_type = #ttcore.argument_type<parameter>, ttcore.shard_status = #ttcore.shard_status<presharded>, ttir.name = "l__self___model_layers_19_self_attn_k_proj_weight"} loc("p362.9014"), %arg363: tensor<4096xbf16> {ttcore.argument_type = #ttcore.argument_type<parameter>, ttcore.shard_status = #ttcore.shard_status<presharded>, ttir.name = "l__self___model_layers_19_self_attn_q_proj_bias"} loc("p363.9059"), %arg364: tensor<4096x2880xbf16> {ttcore.argument_type = #ttcore.argument_type<parameter>, ttcore.shard_status = #ttcore.shard_status<presharded>, ttir.name = "l__self___model_layers_19_self_attn_q_proj_weight"} loc("p364.9063"), %arg365: tensor<2880xbf16> {ttcore.argument_type = #ttcore.argument_type<parameter>, ttcore.shard_status = #ttcore.shard_status<presharded>, ttir.name = "l__self___model_layers_19_post_attention_layernorm_weight"} loc("p365.9213"), %arg366: tensor<32x2880xbf16> {ttcore.argument_type = #ttcore.argument_type<parameter>, ttcore.shard_status = #ttcore.shard_status<presharded>, ttir.name = "l__self___model_layers_19_mlp_experts_down_proj_bias"} loc("p366.9281"), %arg367: tensor<32x2880x2880xbf16> {ttcore.argument_type = #ttcore.argument_type<parameter>, ttcore.shard_status = #ttcore.shard_status<presharded>, ttir.name = "l__self___model_layers_19_mlp_experts_down_proj"} loc("p367.9286"), %arg368: tensor<32x5760xbf16> {ttcore.argument_type = #ttcore.argument_type<parameter>, ttcore.shard_status = #ttcore.shard_status<presharded>, ttir.name = "l__self___model_layers_19_mlp_experts_gate_up_proj_bias"} loc("p368.9292"), %arg369: tensor<32x2880x5760xbf16> {ttcore.argument_type = #ttcore.argument_type<parameter>, ttcore.shard_status = #ttcore.shard_status<presharded>, ttir.name = "l__self___model_layers_19_mlp_experts_gate_up_proj"} loc("p369.9297"), %arg370: tensor<2880xbf16> {ttcore.argument_type = #ttcore.argument_type<parameter>, ttcore.shard_status = #ttcore.shard_status<presharded>, ttir.name = "l__self___model_layers_20_input_layernorm_weight"} loc("p370.9380"), %arg371: tensor<64xbf16> {ttcore.argument_type = #ttcore.argument_type<parameter>, ttcore.shard_status = #ttcore.shard_status<presharded>, ttir.name = "l__self___model_layers_20_self_attn_sinks"} loc("p371.9403"), %arg372: tensor<512xbf16> {ttcore.argument_type = #ttcore.argument_type<parameter>, ttcore.shard_status = #ttcore.shard_status<presharded>, ttir.name = "l__self___model_layers_20_self_attn_k_proj_bias"} loc("p372.9416"), %arg373: tensor<512x2880xbf16> {ttcore.argument_type = #ttcore.argument_type<parameter>, ttcore.shard_status = #ttcore.shard_status<presharded>, ttir.name = "l__self___model_layers_20_self_attn_k_proj_weight"} loc("p373.9420"), %arg374: tensor<4096xbf16> {ttcore.argument_type = #ttcore.argument_type<parameter>, ttcore.shard_status = #ttcore.shard_status<presharded>, ttir.name = "l__self___model_layers_20_self_attn_q_proj_bias"} loc("p374.9465"), %arg375: tensor<4096x2880xbf16> {ttcore.argument_type = #ttcore.argument_type<parameter>, ttcore.shard_status = #ttcore.shard_status<presharded>, ttir.name = "l__self___model_layers_20_self_attn_q_proj_weight"} loc("p375.9469"), %arg376: tensor<2880xbf16> {ttcore.argument_type = #ttcore.argument_type<parameter>, ttcore.shard_status = #ttcore.shard_status<presharded>, ttir.name = "l__self___model_layers_20_post_attention_layernorm_weight"} loc("p376.9619"), %arg377: tensor<32x2880xbf16> {ttcore.argument_type = #ttcore.argument_type<parameter>, ttcore.shard_status = #ttcore.shard_status<presharded>, ttir.name = "l__self___model_layers_20_mlp_experts_down_proj_bias"} loc("p377.9687"), %arg378: tensor<32x2880x2880xbf16> {ttcore.argument_type = #ttcore.argument_type<parameter>, ttcore.shard_status = #ttcore.shard_status<presharded>, ttir.name = "l__self___model_layers_20_mlp_experts_down_proj"} loc("p378.9692"), %arg379: tensor<32x5760xbf16> {ttcore.argument_type = #ttcore.argument_type<parameter>, ttcore.shard_status = #ttcore.shard_status<presharded>, ttir.name = "l__self___model_layers_20_mlp_experts_gate_up_proj_bias"} loc("p379.9698"), %arg380: tensor<32x2880x5760xbf16> {ttcore.argument_type = #ttcore.argument_type<parameter>, ttcore.shard_status = #ttcore.shard_status<presharded>, ttir.name = "l__self___model_layers_20_mlp_experts_gate_up_proj"} loc("p380.9703"), %arg381: tensor<2880xbf16> {ttcore.argument_type = #ttcore.argument_type<parameter>, ttcore.shard_status = #ttcore.shard_status<presharded>, ttir.name = "l__self___model_layers_21_input_layernorm_weight"} loc("p381.9786"), %arg382: tensor<64xbf16> {ttcore.argument_type = #ttcore.argument_type<parameter>, ttcore.shard_status = #ttcore.shard_status<presharded>, ttir.name = "l__self___model_layers_21_self_attn_sinks"} loc("p382.9809"), %arg383: tensor<512xbf16> {ttcore.argument_type = #ttcore.argument_type<parameter>, ttcore.shard_status = #ttcore.shard_status<presharded>, ttir.name = "l__self___model_layers_21_self_attn_k_proj_bias"} loc("p383.9822"), %arg384: tensor<512x2880xbf16> {ttcore.argument_type = #ttcore.argument_type<parameter>, ttcore.shard_status = #ttcore.shard_status<presharded>, ttir.name = "l__self___model_layers_21_self_attn_k_proj_weight"} loc("p384.9826"), %arg385: tensor<4096xbf16> {ttcore.argument_type = #ttcore.argument_type<parameter>, ttcore.shard_status = #ttcore.shard_status<presharded>, ttir.name = "l__self___model_layers_21_self_attn_q_proj_bias"} loc("p385.9871"), %arg386: tensor<4096x2880xbf16> {ttcore.argument_type = #ttcore.argument_type<parameter>, ttcore.shard_status = #ttcore.shard_status<presharded>, ttir.name = "l__self___model_layers_21_self_attn_q_proj_weight"} loc("p386.9875"), %arg387: tensor<2880xbf16> {ttcore.argument_type = #ttcore.argument_type<parameter>, ttcore.shard_status = #ttcore.shard_status<presharded>, ttir.name = "l__self___model_layers_21_post_attention_layernorm_weight"} loc("p387.10025"), %arg388: tensor<32x2880xbf16> {ttcore.argument_type = #ttcore.argument_type<parameter>, ttcore.shard_status = #ttcore.shard_status<presharded>, ttir.name = "l__self___model_layers_21_mlp_experts_down_proj_bias"} loc("p388.10093"), %arg389: tensor<32x2880x2880xbf16> {ttcore.argument_type = #ttcore.argument_type<parameter>, ttcore.shard_status = #ttcore.shard_status<presharded>, ttir.name = "l__self___model_layers_21_mlp_experts_down_proj"} loc("p389.10098"), %arg390: tensor<32x5760xbf16> {ttcore.argument_type = #ttcore.argument_type<parameter>, ttcore.shard_status = #ttcore.shard_status<presharded>, ttir.name = "l__self___model_layers_21_mlp_experts_gate_up_proj_bias"} loc("p390.10104"), %arg391: tensor<32x2880x5760xbf16> {ttcore.argument_type = #ttcore.argument_type<parameter>, ttcore.shard_status = #ttcore.shard_status<presharded>, ttir.name = "l__self___model_layers_21_mlp_experts_gate_up_proj"} loc("p391.10109"), %arg392: tensor<2880xbf16> {ttcore.argument_type = #ttcore.argument_type<parameter>, ttcore.shard_status = #ttcore.shard_status<presharded>, ttir.name = "l__self___model_layers_22_input_layernorm_weight"} loc("p392.10192"), %arg393: tensor<64xbf16> {ttcore.argument_type = #ttcore.argument_type<parameter>, ttcore.shard_status = #ttcore.shard_status<presharded>, ttir.name = "l__self___model_layers_22_self_attn_sinks"} loc("p393.10215"), %arg394: tensor<512xbf16> {ttcore.argument_type = #ttcore.argument_type<parameter>, ttcore.shard_status = #ttcore.shard_status<presharded>, ttir.name = "l__self___model_layers_22_self_attn_k_proj_bias"} loc("p394.10228"), %arg395: tensor<512x2880xbf16> {ttcore.argument_type = #ttcore.argument_type<parameter>, ttcore.shard_status = #ttcore.shard_status<presharded>, ttir.name = "l__self___model_layers_22_self_attn_k_proj_weight"} loc("p395.10232"), %arg396: tensor<4096xbf16> {ttcore.argument_type = #ttcore.argument_type<parameter>, ttcore.shard_status = #ttcore.shard_status<presharded>, ttir.name = "l__self___model_layers_22_self_attn_q_proj_bias"} loc("p396.10277"), %arg397: tensor<4096x2880xbf16> {ttcore.argument_type = #ttcore.argument_type<parameter>, ttcore.shard_status = #ttcore.shard_status<presharded>, ttir.name = "l__self___model_layers_22_self_attn_q_proj_weight"} loc("p397.10281"), %arg398: tensor<2880xbf16> {ttcore.argument_type = #ttcore.argument_type<parameter>, ttcore.shard_status = #ttcore.shard_status<presharded>, ttir.name = "l__self___model_layers_22_post_attention_layernorm_weight"} loc("p398.10431"), %arg399: tensor<32x2880xbf16> {ttcore.argument_type = #ttcore.argument_type<parameter>, ttcore.shard_status = #ttcore.shard_status<presharded>, ttir.name = "l__self___model_layers_22_mlp_experts_down_proj_bias"} loc("p399.10499"), %arg400: tensor<32x2880x2880xbf16> {ttcore.argument_type = #ttcore.argument_type<parameter>, ttcore.shard_status = #ttcore.shard_status<presharded>, ttir.name = "l__self___model_layers_22_mlp_experts_down_proj"} loc("p400.10504"), %arg401: tensor<32x5760xbf16> {ttcore.argument_type = #ttcore.argument_type<parameter>, ttcore.shard_status = #ttcore.shard_status<presharded>, ttir.name = "l__self___model_layers_22_mlp_experts_gate_up_proj_bias"} loc("p401.10510"), %arg402: tensor<32x2880x5760xbf16> {ttcore.argument_type = #ttcore.argument_type<parameter>, ttcore.shard_status = #ttcore.shard_status<presharded>, ttir.name = "l__self___model_layers_22_mlp_experts_gate_up_proj"} loc("p402.10515"), %arg403: tensor<2880xbf16> {ttcore.argument_type = #ttcore.argument_type<parameter>, ttcore.shard_status = #ttcore.shard_status<presharded>, ttir.name = "l__self___model_layers_23_input_layernorm_weight"} loc("p403.10598"), %arg404: tensor<64xbf16> {ttcore.argument_type = #ttcore.argument_type<parameter>, ttcore.shard_status = #ttcore.shard_status<presharded>, ttir.name = "l__self___model_layers_23_self_attn_sinks"} loc("p404.10621"), %arg405: tensor<512xbf16> {ttcore.argument_type = #ttcore.argument_type<parameter>, ttcore.shard_status = #ttcore.shard_status<presharded>, ttir.name = "l__self___model_layers_23_self_attn_k_proj_bias"} loc("p405.10634"), %arg406: tensor<512x2880xbf16> {ttcore.argument_type = #ttcore.argument_type<parameter>, ttcore.shard_status = #ttcore.shard_status<presharded>, ttir.name = "l__self___model_layers_23_self_attn_k_proj_weight"} loc("p406.10638"), %arg407: tensor<4096xbf16> {ttcore.argument_type = #ttcore.argument_type<parameter>, ttcore.shard_status = #ttcore.shard_status<presharded>, ttir.name = "l__self___model_layers_23_self_attn_q_proj_bias"} loc("p407.10683"), %arg408: tensor<4096x2880xbf16> {ttcore.argument_type = #ttcore.argument_type<parameter>, ttcore.shard_status = #ttcore.shard_status<presharded>, ttir.name = "l__self___model_layers_23_self_attn_q_proj_weight"} loc("p408.10687"), %arg409: tensor<2880xbf16> {ttcore.argument_type = #ttcore.argument_type<parameter>, ttcore.shard_status = #ttcore.shard_status<presharded>, ttir.name = "l__self___model_layers_23_post_attention_layernorm_weight"} loc("p409.10837"), %arg410: tensor<32x2880xbf16> {ttcore.argument_type = #ttcore.argument_type<parameter>, ttcore.shard_status = #ttcore.shard_status<presharded>, ttir.name = "l__self___model_layers_23_mlp_experts_down_proj_bias"} loc("p410.10905"), %arg411: tensor<32x2880x2880xbf16> {ttcore.argument_type = #ttcore.argument_type<parameter>, ttcore.shard_status = #ttcore.shard_status<presharded>, ttir.name = "l__self___model_layers_23_mlp_experts_down_proj"} loc("p411.10910"), %arg412: tensor<32x5760xbf16> {ttcore.argument_type = #ttcore.argument_type<parameter>, ttcore.shard_status = #ttcore.shard_status<presharded>, ttir.name = "l__self___model_layers_23_mlp_experts_gate_up_proj_bias"} loc("p412.10916"), %arg413: tensor<32x2880x5760xbf16> {ttcore.argument_type = #ttcore.argument_type<parameter>, ttcore.shard_status = #ttcore.shard_status<presharded>, ttir.name = "l__self___model_layers_23_mlp_experts_gate_up_proj"} loc("p413.10921"), %arg414: tensor<2880xbf16> {ttcore.argument_type = #ttcore.argument_type<parameter>, ttcore.shard_status = #ttcore.shard_status<presharded>, ttir.name = "l__self___model_norm_weight"} loc("p414.11004")) -> (tensor<1x128x201088xbf16> {ttcore.shard_status = #ttcore.shard_status<unsharded>}) {
    %0 = sdy.manual_computation(%arg0, %arg1, %arg2, %arg3, %arg4, %arg5, %arg6, %arg7, %arg8, %arg9, %arg10, %arg11, %arg12, %arg13, %arg14, %arg15, %arg16, %arg17, %arg18, %arg19, %arg20, %arg21, %arg22, %arg23, %arg24, %arg25, %arg26, %arg27, %arg28, %arg29, %arg30, %arg31, %arg32, %arg33, %arg34, %arg35, %arg36, %arg37, %arg38, %arg39, %arg40, %arg41, %arg42, %arg43, %arg44, %arg45, %arg46, %arg47, %arg48, %arg49, %arg50, %arg51, %arg52, %arg53, %arg54, %arg55, %arg56, %arg57, %arg58, %arg59, %arg60, %arg61, %arg62, %arg63, %arg64, %arg65, %arg66, %arg67, %arg68, %arg69, %arg70, %arg71, %arg72, %arg73, %arg74, %arg75, %arg76, %arg77, %arg78, %arg79, %arg80, %arg81, %arg82, %arg83, %arg84, %arg85, %arg86, %arg87, %arg88, %arg89, %arg90, %arg91, %arg92, %arg93, %arg94, %arg95, %arg96, %arg97, %arg98, %arg99, %arg100, %arg101, %arg102, %arg103, %arg104, %arg105, %arg106, %arg107, %arg108, %arg109, %arg110, %arg111, %arg112, %arg113, %arg114, %arg115, %arg116, %arg117, %arg118, %arg119, %arg120, %arg121, %arg122, %arg123, %arg124, %arg125, %arg126, %arg127, %arg128, %arg129, %arg130, %arg131, %arg132, %arg133, %arg134, %arg135, %arg136, %arg137, %arg138, %arg139, %arg140, %arg141, %arg142, %arg143, %arg144, %arg145, %arg146, %arg147, %arg148, %arg149, %arg150, %arg151, %arg152, %arg153, %arg154, %arg155, %arg156, %arg157, %arg158, %arg159, %arg160, %arg161, %arg162, %arg163, %arg164, %arg165, %arg166, %arg167, %arg168, %arg169, %arg170, %arg171, %arg172, %arg173, %arg174, %arg175, %arg176, %arg177, %arg178, %arg179, %arg180, %arg181, %arg182, %arg183, %arg184, %arg185, %arg186, %arg187, %arg188, %arg189, %arg190, %arg191, %arg192, %arg193, %arg194, %arg195, %arg196, %arg197, %arg198, %arg199, %arg200, %arg201, %arg202, %arg203, %arg204, %arg205, %arg206, %arg207, %arg208, %arg209, %arg210, %arg211, %arg212, %arg213, %arg214, %arg215, %arg216, %arg217, %arg218, %arg219, %arg220, %arg221, %arg222, %arg223, %arg224, %arg225, %arg226, %arg227, %arg228, %arg229, %arg230, %arg231, %arg232, %arg233, %arg234, %arg235, %arg236, %arg237, %arg238, %arg239, %arg240, %arg241, %arg242, %arg243, %arg244, %arg245, %arg246, %arg247, %arg248, %arg249, %arg250, %arg251, %arg252, %arg253, %arg254, %arg255, %arg256, %arg257, %arg258, %arg259, %arg260, %arg261, %arg262, %arg263, %arg264, %arg265, %arg266, %arg267, %arg268, %arg269, %arg270, %arg271, %arg272, %arg273, %arg274, %arg275, %arg276, %arg277, %arg278, %arg279, %arg280, %arg281, %arg282, %arg283, %arg284, %arg285, %arg286, %arg287, %arg288, %arg289, %arg290, %arg291, %arg292, %arg293, %arg294, %arg295, %arg296, %arg297, %arg298, %arg299, %arg300, %arg301, %arg302, %arg303, %arg304, %arg305, %arg306, %arg307, %arg308, %arg309, %arg310, %arg311, %arg312, %arg313, %arg314, %arg315, %arg316, %arg317, %arg318, %arg319, %arg320, %arg321, %arg322, %arg323, %arg324, %arg325, %arg326, %arg327, %arg328, %arg329, %arg330, %arg331, %arg332, %arg333, %arg334, %arg335, %arg336, %arg337, %arg338, %arg339, %arg340, %arg341, %arg342, %arg343, %arg344, %arg345, %arg346, %arg347, %arg348, %arg349, %arg350, %arg351, %arg352, %arg353, %arg354, %arg355, %arg356, %arg357, %arg358, %arg359, %arg360, %arg361, %arg362, %arg363, %arg364, %arg365, %arg366, %arg367, %arg368, %arg369, %arg370, %arg371, %arg372, %arg373, %arg374, %arg375, %arg376, %arg377, %arg378, %arg379, %arg380, %arg381, %arg382, %arg383, %arg384, %arg385, %arg386, %arg387, %arg388, %arg389, %arg390, %arg391, %arg392, %arg393, %arg394, %arg395, %arg396, %arg397, %arg398, %arg399, %arg400, %arg401, %arg402, %arg403, %arg404, %arg405, %arg406, %arg407, %arg408, %arg409, %arg410, %arg411, %arg412, %arg413, %arg414) in_shardings=[<@mesh, [{}, {}]>, <@mesh, [{}]>, <@mesh, [{}, {}]>, <@mesh, [{}]>, <@mesh, [{}, {"_axis_0"}]>, <@mesh, [{}]>, <@mesh, [{"_axis_0"}, {}]>, <@mesh, [{}]>, <@mesh, [{}, {}]>, <@mesh, [{}]>, <@mesh, [{}, {"_axis_0"}]>, <@mesh, [{}]>, <@mesh, [{"_axis_0"}, {}]>, <@mesh, [{}]>, <@mesh, [{}, {}]>, <@mesh, [{}]>, <@mesh, [{}, {"_axis_0"}]>, <@mesh, [{}]>, <@mesh, [{"_axis_0"}, {}]>, <@mesh, [{}]>, <@mesh, [{}, {}]>, <@mesh, [{}]>, <@mesh, [{}, {"_axis_0"}]>, <@mesh, [{}]>, <@mesh, [{"_axis_0"}, {}]>, <@mesh, [{}]>, <@mesh, [{}, {}]>, <@mesh, [{}]>, <@mesh, [{}, {"_axis_0"}]>, <@mesh, [{}]>, <@mesh, [{"_axis_0"}, {}]>, <@mesh, [{}]>, <@mesh, [{}, {}]>, <@mesh, [{}]>, <@mesh, [{}, {"_axis_0"}]>, <@mesh, [{}]>, <@mesh, [{"_axis_0"}, {}]>, <@mesh, [{}]>, <@mesh, [{}, {}]>, <@mesh, [{}]>, <@mesh, [{}, {"_axis_0"}]>, <@mesh, [{}]>, <@mesh, [{"_axis_0"}, {}]>, <@mesh, [{}]>, <@mesh, [{}, {}]>, <@mesh, [{}]>, <@mesh, [{}, {"_axis_0"}]>, <@mesh, [{}]>, <@mesh, [{"_axis_0"}, {}]>, <@mesh, [{}]>, <@mesh, [{}, {}]>, <@mesh, [{}]>, <@mesh, [{}, {"_axis_0"}]>, <@mesh, [{}]>, <@mesh, [{"_axis_0"}, {}]>, <@mesh, [{}]>, <@mesh, [{}, {}]>, <@mesh, [{}]>, <@mesh, [{}, {"_axis_0"}]>, <@mesh, [{}]>, <@mesh, [{"_axis_0"}, {}]>, <@mesh, [{}]>, <@mesh, [{}, {}]>, <@mesh, [{}]>, <@mesh, [{}, {"_axis_0"}]>, <@mesh, [{}]>, <@mesh, [{"_axis_0"}, {}]>, <@mesh, [{}]>, <@mesh, [{}, {}]>, <@mesh, [{}]>, <@mesh, [{}, {"_axis_0"}]>, <@mesh, [{}]>, <@mesh, [{"_axis_0"}, {}]>, <@mesh, [{}]>, <@mesh, [{}, {}]>, <@mesh, [{}]>, <@mesh, [{}, {"_axis_0"}]>, <@mesh, [{}]>, <@mesh, [{"_axis_0"}, {}]>, <@mesh, [{}]>, <@mesh, [{}, {}]>, <@mesh, [{}]>, <@mesh, [{}, {"_axis_0"}]>, <@mesh, [{}]>, <@mesh, [{"_axis_0"}, {}]>, <@mesh, [{}]>, <@mesh, [{}, {}]>, <@mesh, [{}]>, <@mesh, [{}, {"_axis_0"}]>, <@mesh, [{}]>, <@mesh, [{"_axis_0"}, {}]>, <@mesh, [{}]>, <@mesh, [{}, {}]>, <@mesh, [{}]>, <@mesh, [{}, {"_axis_0"}]>, <@mesh, [{}]>, <@mesh, [{"_axis_0"}, {}]>, <@mesh, [{}]>, <@mesh, [{}, {}]>, <@mesh, [{}]>, <@mesh, [{}, {"_axis_0"}]>, <@mesh, [{}]>, <@mesh, [{"_axis_0"}, {}]>, <@mesh, [{}]>, <@mesh, [{}, {}]>, <@mesh, [{}]>, <@mesh, [{}, {"_axis_0"}]>, <@mesh, [{}]>, <@mesh, [{"_axis_0"}, {}]>, <@mesh, [{}]>, <@mesh, [{}, {}]>, <@mesh, [{}]>, <@mesh, [{}, {"_axis_0"}]>, <@mesh, [{}]>, <@mesh, [{"_axis_0"}, {}]>, <@mesh, [{}]>, <@mesh, [{}, {}]>, <@mesh, [{}]>, <@mesh, [{}, {"_axis_0"}]>, <@mesh, [{}]>, <@mesh, [{"_axis_0"}, {}]>, <@mesh, [{}]>, <@mesh, [{}, {}]>, <@mesh, [{}]>, <@mesh, [{}, {"_axis_0"}]>, <@mesh, [{}]>, <@mesh, [{"_axis_0"}, {}]>, <@mesh, [{}]>, <@mesh, [{}, {}]>, <@mesh, [{}]>, <@mesh, [{}, {"_axis_0"}]>, <@mesh, [{}]>, <@mesh, [{"_axis_0"}, {}]>, <@mesh, [{}]>, <@mesh, [{}, {}]>, <@mesh, [{}]>, <@mesh, [{}, {"_axis_0"}]>, <@mesh, [{}]>, <@mesh, [{"_axis_0"}, {}]>, <@mesh, [{}]>, <@mesh, [{}, {}]>, <@mesh, [{}]>, <@mesh, [{}, {"_axis_0"}]>, <@mesh, [{}]>, <@mesh, [{"_axis_0"}, {}]>, <@mesh, [{}, {}]>, <@mesh, [{}, {}]>, <@mesh, [{}]>, <@mesh, [{}]>, <@mesh, [{}, {}]>, <@mesh, []>, <@mesh, [{}]>, <@mesh, [{}]>, <@mesh, [{"_axis_0"}, {}]>, <@mesh, [{}]>, <@mesh, [{"_axis_0"}, {}]>, <@mesh, [{}]>, <@mesh, [{"_axis_0"}, {}]>, <@mesh, [{"_axis_0"}, {}, {}]>, <@mesh, [{"_axis_0"}, {}]>, <@mesh, [{"_axis_0"}, {}, {}]>, <@mesh, [{}]>, <@mesh, [{}]>, <@mesh, [{}]>, <@mesh, [{"_axis_0"}, {}]>, <@mesh, [{}]>, <@mesh, [{"_axis_0"}, {}]>, <@mesh, [{}]>, <@mesh, [{"_axis_0"}, {}]>, <@mesh, [{"_axis_0"}, {}, {}]>, <@mesh, [{"_axis_0"}, {}]>, <@mesh, [{"_axis_0"}, {}, {}]>, <@mesh, [{}]>, <@mesh, [{}]>, <@mesh, [{}]>, <@mesh, [{"_axis_0"}, {}]>, <@mesh, [{}]>, <@mesh, [{"_axis_0"}, {}]>, <@mesh, [{}]>, <@mesh, [{"_axis_0"}, {}]>, <@mesh, [{"_axis_0"}, {}, {}]>, <@mesh, [{"_axis_0"}, {}]>, <@mesh, [{"_axis_0"}, {}, {}]>, <@mesh, [{}]>, <@mesh, [{}]>, <@mesh, [{}]>, <@mesh, [{"_axis_0"}, {}]>, <@mesh, [{}]>, <@mesh, [{"_axis_0"}, {}]>, <@mesh, [{}]>, <@mesh, [{"_axis_0"}, {}]>, <@mesh, [{"_axis_0"}, {}, {}]>, <@mesh, [{"_axis_0"}, {}]>, <@mesh, [{"_axis_0"}, {}, {}]>, <@mesh, [{}]>, <@mesh, [{}]>, <@mesh, [{}]>, <@mesh, [{"_axis_0"}, {}]>, <@mesh, [{}]>, <@mesh, [{"_axis_0"}, {}]>, <@mesh, [{}]>, <@mesh, [{"_axis_0"}, {}]>, <@mesh, [{"_axis_0"}, {}, {}]>, <@mesh, [{"_axis_0"}, {}]>, <@mesh, [{"_axis_0"}, {}, {}]>, <@mesh, [{}]>, <@mesh, [{}]>, <@mesh, [{}]>, <@mesh, [{"_axis_0"}, {}]>, <@mesh, [{}]>, <@mesh, [{"_axis_0"}, {}]>, <@mesh, [{}]>, <@mesh, [{"_axis_0"}, {}]>, <@mesh, [{"_axis_0"}, {}, {}]>, <@mesh, [{"_axis_0"}, {}]>, <@mesh, [{"_axis_0"}, {}, {}]>, <@mesh, [{}]>, <@mesh, [{}]>, <@mesh, [{}]>, <@mesh, [{"_axis_0"}, {}]>, <@mesh, [{}]>, <@mesh, [{"_axis_0"}, {}]>, <@mesh, [{}]>, <@mesh, [{"_axis_0"}, {}]>, <@mesh, [{"_axis_0"}, {}, {}]>, <@mesh, [{"_axis_0"}, {}]>, <@mesh, [{"_axis_0"}, {}, {}]>, <@mesh, [{}]>, <@mesh, [{}]>, <@mesh, [{}]>, <@mesh, [{"_axis_0"}, {}]>, <@mesh, [{}]>, <@mesh, [{"_axis_0"}, {}]>, <@mesh, [{}]>, <@mesh, [{"_axis_0"}, {}]>, <@mesh, [{"_axis_0"}, {}, {}]>, <@mesh, [{"_axis_0"}, {}]>, <@mesh, [{"_axis_0"}, {}, {}]>, <@mesh, [{}]>, <@mesh, [{}]>, <@mesh, [{}]>, <@mesh, [{"_axis_0"}, {}]>, <@mesh, [{}]>, <@mesh, [{"_axis_0"}, {}]>, <@mesh, [{}]>, <@mesh, [{"_axis_0"}, {}]>, <@mesh, [{"_axis_0"}, {}, {}]>, <@mesh, [{"_axis_0"}, {}]>, <@mesh, [{"_axis_0"}, {}, {}]>, <@mesh, [{}]>, <@mesh, [{}]>, <@mesh, [{}]>, <@mesh, [{"_axis_0"}, {}]>, <@mesh, [{}]>, <@mesh, [{"_axis_0"}, {}]>, <@mesh, [{}]>, <@mesh, [{"_axis_0"}, {}]>, <@mesh, [{"_axis_0"}, {}, {}]>, <@mesh, [{"_axis_0"}, {}]>, <@mesh, [{"_axis_0"}, {}, {}]>, <@mesh, [{}]>, <@mesh, [{}]>, <@mesh, [{}]>, <@mesh, [{"_axis_0"}, {}]>, <@mesh, [{}]>, <@mesh, [{"_axis_0"}, {}]>, <@mesh, [{}]>, <@mesh, [{"_axis_0"}, {}]>, <@mesh, [{"_axis_0"}, {}, {}]>, <@mesh, [{"_axis_0"}, {}]>, <@mesh, [{"_axis_0"}, {}, {}]>, <@mesh, [{}]>, <@mesh, [{}]>, <@mesh, [{}]>, <@mesh, [{"_axis_0"}, {}]>, <@mesh, [{}]>, <@mesh, [{"_axis_0"}, {}]>, <@mesh, [{}]>, <@mesh, [{"_axis_0"}, {}]>, <@mesh, [{"_axis_0"}, {}, {}]>, <@mesh, [{"_axis_0"}, {}]>, <@mesh, [{"_axis_0"}, {}, {}]>, <@mesh, [{}]>, <@mesh, [{}]>, <@mesh, [{}]>, <@mesh, [{"_axis_0"}, {}]>, <@mesh, [{}]>, <@mesh, [{"_axis_0"}, {}]>, <@mesh, [{}]>, <@mesh, [{"_axis_0"}, {}]>, <@mesh, [{"_axis_0"}, {}, {}]>, <@mesh, [{"_axis_0"}, {}]>, <@mesh, [{"_axis_0"}, {}, {}]>, <@mesh, [{}]>, <@mesh, [{}]>, <@mesh, [{}]>, <@mesh, [{"_axis_0"}, {}]>, <@mesh, [{}]>, <@mesh, [{"_axis_0"}, {}]>, <@mesh, [{}]>, <@mesh, [{"_axis_0"}, {}]>, <@mesh, [{"_axis_0"}, {}, {}]>, <@mesh, [{"_axis_0"}, {}]>, <@mesh, [{"_axis_0"}, {}, {}]>, <@mesh, [{}]>, <@mesh, [{}]>, <@mesh, [{}]>, <@mesh, [{"_axis_0"}, {}]>, <@mesh, [{}]>, <@mesh, [{"_axis_0"}, {}]>, <@mesh, [{}]>, <@mesh, [{"_axis_0"}, {}]>, <@mesh, [{"_axis_0"}, {}, {}]>, <@mesh, [{"_axis_0"}, {}]>, <@mesh, [{"_axis_0"}, {}, {}]>, <@mesh, [{}]>, <@mesh, [{}]>, <@mesh, [{}]>, <@mesh, [{"_axis_0"}, {}]>, <@mesh, [{}]>, <@mesh, [{"_axis_0"}, {}]>, <@mesh, [{}]>, <@mesh, [{"_axis_0"}, {}]>, <@mesh, [{"_axis_0"}, {}, {}]>, <@mesh, [{"_axis_0"}, {}]>, <@mesh, [{"_axis_0"}, {}, {}]>, <@mesh, [{}]>, <@mesh, [{}]>, <@mesh, [{}]>, <@mesh, [{"_axis_0"}, {}]>, <@mesh, [{}]>, <@mesh, [{"_axis_0"}, {}]>, <@mesh, [{}]>, <@mesh, [{"_axis_0"}, {}]>, <@mesh, [{"_axis_0"}, {}, {}]>, <@mesh, [{"_axis_0"}, {}]>, <@mesh, [{"_axis_0"}, {}, {}]>, <@mesh, [{}]>, <@mesh, [{}]>, <@mesh, [{}]>, <@mesh, [{"_axis_0"}, {}]>, <@mesh, [{}]>, <@mesh, [{"_axis_0"}, {}]>, <@mesh, [{}]>, <@mesh, [{"_axis_0"}, {}]>, <@mesh, [{"_axis_0"}, {}, {}]>, <@mesh, [{"_axis_0"}, {}]>, <@mesh, [{"_axis_0"}, {}, {}]>, <@mesh, [{}]>, <@mesh, [{}]>, <@mesh, [{}]>, <@mesh, [{"_axis_0"}, {}]>, <@mesh, [{}]>, <@mesh, [{"_axis_0"}, {}]>, <@mesh, [{}]>, <@mesh, [{"_axis_0"}, {}]>, <@mesh, [{"_axis_0"}, {}, {}]>, <@mesh, [{"_axis_0"}, {}]>, <@mesh, [{"_axis_0"}, {}, {}]>, <@mesh, [{}]>, <@mesh, [{}]>, <@mesh, [{}]>, <@mesh, [{"_axis_0"}, {}]>, <@mesh, [{}]>, <@mesh, [{"_axis_0"}, {}]>, <@mesh, [{}]>, <@mesh, [{"_axis_0"}, {}]>, <@mesh, [{"_axis_0"}, {}, {}]>, <@mesh, [{"_axis_0"}, {}]>, <@mesh, [{"_axis_0"}, {}, {}]>, <@mesh, [{}]>, <@mesh, [{}]>, <@mesh, [{}]>, <@mesh, [{"_axis_0"}, {}]>, <@mesh, [{}]>, <@mesh, [{"_axis_0"}, {}]>, <@mesh, [{}]>, <@mesh, [{"_axis_0"}, {}]>, <@mesh, [{"_axis_0"}, {}, {}]>, <@mesh, [{"_axis_0"}, {}]>, <@mesh, [{"_axis_0"}, {}, {}]>, <@mesh, [{}]>, <@mesh, [{}]>, <@mesh, [{}]>, <@mesh, [{"_axis_0"}, {}]>, <@mesh, [{}]>, <@mesh, [{"_axis_0"}, {}]>, <@mesh, [{}]>, <@mesh, [{"_axis_0"}, {}]>, <@mesh, [{"_axis_0"}, {}, {}]>, <@mesh, [{"_axis_0"}, {}]>, <@mesh, [{"_axis_0"}, {}, {}]>, <@mesh, [{}]>, <@mesh, [{}]>, <@mesh, [{}]>, <@mesh, [{"_axis_0"}, {}]>, <@mesh, [{}]>, <@mesh, [{"_axis_0"}, {}]>, <@mesh, [{}]>, <@mesh, [{"_axis_0"}, {}]>, <@mesh, [{"_axis_0"}, {}, {}]>, <@mesh, [{"_axis_0"}, {}]>, <@mesh, [{"_axis_0"}, {}, {}]>, <@mesh, [{}]>, <@mesh, [{}]>, <@mesh, [{}]>, <@mesh, [{"_axis_0"}, {}]>, <@mesh, [{}]>, <@mesh, [{"_axis_0"}, {}]>, <@mesh, [{}]>, <@mesh, [{"_axis_0"}, {}]>, <@mesh, [{"_axis_0"}, {}, {}]>, <@mesh, [{"_axis_0"}, {}]>, <@mesh, [{"_axis_0"}, {}, {}]>, <@mesh, [{}]>] out_shardings=[<@mesh, [{}, {}, {}]>] manual_axes={"_axis_0_updated", "_axis_0"} (%arg415: tensor<201088x2880xbf16> loc("p0.1"), %arg416: tensor<32xbf16> loc("p1.12"), %arg417: tensor<32x2880xbf16> loc("p2.19"), %arg418: tensor<2880xbf16> loc("p3.29"), %arg419: tensor<2880x512xbf16> loc("p4.33"), %arg420: tensor<512xbf16> loc("p5.39"), %arg421: tensor<64x2880xbf16> loc("p6.43"), %arg422: tensor<32xbf16> loc("p7.54"), %arg423: tensor<32x2880xbf16> loc("p8.61"), %arg424: tensor<2880xbf16> loc("p9.71"), %arg425: tensor<2880x512xbf16> loc("p10.75"), %arg426: tensor<512xbf16> loc("p11.81"), %arg427: tensor<64x2880xbf16> loc("p12.85"), %arg428: tensor<32xbf16> loc("p13.96"), %arg429: tensor<32x2880xbf16> loc("p14.103"), %arg430: tensor<2880xbf16> loc("p15.113"), %arg431: tensor<2880x512xbf16> loc("p16.117"), %arg432: tensor<512xbf16> loc("p17.123"), %arg433: tensor<64x2880xbf16> loc("p18.127"), %arg434: tensor<32xbf16> loc("p19.138"), %arg435: tensor<32x2880xbf16> loc("p20.145"), %arg436: tensor<2880xbf16> loc("p21.155"), %arg437: tensor<2880x512xbf16> loc("p22.159"), %arg438: tensor<512xbf16> loc("p23.165"), %arg439: tensor<64x2880xbf16> loc("p24.169"), %arg440: tensor<32xbf16> loc("p25.180"), %arg441: tensor<32x2880xbf16> loc("p26.187"), %arg442: tensor<2880xbf16> loc("p27.197"), %arg443: tensor<2880x512xbf16> loc("p28.201"), %arg444: tensor<512xbf16> loc("p29.207"), %arg445: tensor<64x2880xbf16> loc("p30.211"), %arg446: tensor<32xbf16> loc("p31.222"), %arg447: tensor<32x2880xbf16> loc("p32.229"), %arg448: tensor<2880xbf16> loc("p33.239"), %arg449: tensor<2880x512xbf16> loc("p34.243"), %arg450: tensor<512xbf16> loc("p35.249"), %arg451: tensor<64x2880xbf16> loc("p36.253"), %arg452: tensor<32xbf16> loc("p37.264"), %arg453: tensor<32x2880xbf16> loc("p38.271"), %arg454: tensor<2880xbf16> loc("p39.281"), %arg455: tensor<2880x512xbf16> loc("p40.285"), %arg456: tensor<512xbf16> loc("p41.291"), %arg457: tensor<64x2880xbf16> loc("p42.295"), %arg458: tensor<32xbf16> loc("p43.306"), %arg459: tensor<32x2880xbf16> loc("p44.313"), %arg460: tensor<2880xbf16> loc("p45.323"), %arg461: tensor<2880x512xbf16> loc("p46.327"), %arg462: tensor<512xbf16> loc("p47.333"), %arg463: tensor<64x2880xbf16> loc("p48.337"), %arg464: tensor<32xbf16> loc("p49.348"), %arg465: tensor<32x2880xbf16> loc("p50.355"), %arg466: tensor<2880xbf16> loc("p51.365"), %arg467: tensor<2880x512xbf16> loc("p52.369"), %arg468: tensor<512xbf16> loc("p53.375"), %arg469: tensor<64x2880xbf16> loc("p54.379"), %arg470: tensor<32xbf16> loc("p55.390"), %arg471: tensor<32x2880xbf16> loc("p56.397"), %arg472: tensor<2880xbf16> loc("p57.407"), %arg473: tensor<2880x512xbf16> loc("p58.411"), %arg474: tensor<512xbf16> loc("p59.417"), %arg475: tensor<64x2880xbf16> loc("p60.421"), %arg476: tensor<32xbf16> loc("p61.432"), %arg477: tensor<32x2880xbf16> loc("p62.439"), %arg478: tensor<2880xbf16> loc("p63.449"), %arg479: tensor<2880x512xbf16> loc("p64.453"), %arg480: tensor<512xbf16> loc("p65.459"), %arg481: tensor<64x2880xbf16> loc("p66.463"), %arg482: tensor<32xbf16> loc("p67.474"), %arg483: tensor<32x2880xbf16> loc("p68.481"), %arg484: tensor<2880xbf16> loc("p69.491"), %arg485: tensor<2880x512xbf16> loc("p70.495"), %arg486: tensor<512xbf16> loc("p71.501"), %arg487: tensor<64x2880xbf16> loc("p72.505"), %arg488: tensor<32xbf16> loc("p73.516"), %arg489: tensor<32x2880xbf16> loc("p74.523"), %arg490: tensor<2880xbf16> loc("p75.533"), %arg491: tensor<2880x512xbf16> loc("p76.537"), %arg492: tensor<512xbf16> loc("p77.543"), %arg493: tensor<64x2880xbf16> loc("p78.547"), %arg494: tensor<32xbf16> loc("p79.558"), %arg495: tensor<32x2880xbf16> loc("p80.565"), %arg496: tensor<2880xbf16> loc("p81.575"), %arg497: tensor<2880x512xbf16> loc("p82.579"), %arg498: tensor<512xbf16> loc("p83.585"), %arg499: tensor<64x2880xbf16> loc("p84.589"), %arg500: tensor<32xbf16> loc("p85.600"), %arg501: tensor<32x2880xbf16> loc("p86.607"), %arg502: tensor<2880xbf16> loc("p87.617"), %arg503: tensor<2880x512xbf16> loc("p88.621"), %arg504: tensor<512xbf16> loc("p89.627"), %arg505: tensor<64x2880xbf16> loc("p90.631"), %arg506: tensor<32xbf16> loc("p91.642"), %arg507: tensor<32x2880xbf16> loc("p92.649"), %arg508: tensor<2880xbf16> loc("p93.659"), %arg509: tensor<2880x512xbf16> loc("p94.663"), %arg510: tensor<512xbf16> loc("p95.669"), %arg511: tensor<64x2880xbf16> loc("p96.673"), %arg512: tensor<32xbf16> loc("p97.684"), %arg513: tensor<32x2880xbf16> loc("p98.691"), %arg514: tensor<2880xbf16> loc("p99.701"), %arg515: tensor<2880x512xbf16> loc("p100.705"), %arg516: tensor<512xbf16> loc("p101.711"), %arg517: tensor<64x2880xbf16> loc("p102.715"), %arg518: tensor<32xbf16> loc("p103.726"), %arg519: tensor<32x2880xbf16> loc("p104.733"), %arg520: tensor<2880xbf16> loc("p105.743"), %arg521: tensor<2880x512xbf16> loc("p106.747"), %arg522: tensor<512xbf16> loc("p107.753"), %arg523: tensor<64x2880xbf16> loc("p108.757"), %arg524: tensor<32xbf16> loc("p109.768"), %arg525: tensor<32x2880xbf16> loc("p110.775"), %arg526: tensor<2880xbf16> loc("p111.785"), %arg527: tensor<2880x512xbf16> loc("p112.789"), %arg528: tensor<512xbf16> loc("p113.795"), %arg529: tensor<64x2880xbf16> loc("p114.799"), %arg530: tensor<32xbf16> loc("p115.810"), %arg531: tensor<32x2880xbf16> loc("p116.817"), %arg532: tensor<2880xbf16> loc("p117.827"), %arg533: tensor<2880x512xbf16> loc("p118.831"), %arg534: tensor<512xbf16> loc("p119.837"), %arg535: tensor<64x2880xbf16> loc("p120.841"), %arg536: tensor<32xbf16> loc("p121.852"), %arg537: tensor<32x2880xbf16> loc("p122.859"), %arg538: tensor<2880xbf16> loc("p123.869"), %arg539: tensor<2880x512xbf16> loc("p124.873"), %arg540: tensor<512xbf16> loc("p125.879"), %arg541: tensor<64x2880xbf16> loc("p126.883"), %arg542: tensor<32xbf16> loc("p127.894"), %arg543: tensor<32x2880xbf16> loc("p128.901"), %arg544: tensor<2880xbf16> loc("p129.911"), %arg545: tensor<2880x512xbf16> loc("p130.915"), %arg546: tensor<512xbf16> loc("p131.921"), %arg547: tensor<64x2880xbf16> loc("p132.925"), %arg548: tensor<32xbf16> loc("p133.936"), %arg549: tensor<32x2880xbf16> loc("p134.943"), %arg550: tensor<2880xbf16> loc("p135.953"), %arg551: tensor<2880x512xbf16> loc("p136.957"), %arg552: tensor<512xbf16> loc("p137.963"), %arg553: tensor<64x2880xbf16> loc("p138.967"), %arg554: tensor<32xbf16> loc("p139.978"), %arg555: tensor<32x2880xbf16> loc("p140.985"), %arg556: tensor<2880xbf16> loc("p141.995"), %arg557: tensor<2880x512xbf16> loc("p142.999"), %arg558: tensor<512xbf16> loc("p143.1005"), %arg559: tensor<64x2880xbf16> loc("p144.1009"), %arg560: tensor<1x128xi64> loc("p145.1017"), %arg561: tensor<201088x2880xbf16> loc("p146.1022"), %arg562: tensor<2880xbf16> loc("p147.1057"), %arg563: tensor<64xbf16> loc("p148.1080"), %arg564: tensor<1x128xi64> loc("p149.1136"), %arg565: tensor<i1> loc("p150.1159"), %arg566: tensor<32xf32> loc("p151.1200"), %arg567: tensor<512xbf16> loc("p152.1216"), %arg568: tensor<64x2880xbf16> loc("p153.1220"), %arg569: tensor<4096xbf16> loc("p154.1270"), %arg570: tensor<512x2880xbf16> loc("p155.1274"), %arg571: tensor<2880xbf16> loc("p156.1424"), %arg572: tensor<4x2880xbf16> loc("p157.1492"), %arg573: tensor<4x2880x2880xbf16> loc("p158.1497"), %arg574: tensor<4x5760xbf16> loc("p159.1503"), %arg575: tensor<4x2880x5760xbf16> loc("p160.1508"), %arg576: tensor<2880xbf16> loc("p161.1591"), %arg577: tensor<64xbf16> loc("p162.1614"), %arg578: tensor<512xbf16> loc("p163.1702"), %arg579: tensor<64x2880xbf16> loc("p164.1706"), %arg580: tensor<4096xbf16> loc("p165.1751"), %arg581: tensor<512x2880xbf16> loc("p166.1755"), %arg582: tensor<2880xbf16> loc("p167.1905"), %arg583: tensor<4x2880xbf16> loc("p168.1973"), %arg584: tensor<4x2880x2880xbf16> loc("p169.1978"), %arg585: tensor<4x5760xbf16> loc("p170.1984"), %arg586: tensor<4x2880x5760xbf16> loc("p171.1989"), %arg587: tensor<2880xbf16> loc("p172.2072"), %arg588: tensor<64xbf16> loc("p173.2095"), %arg589: tensor<512xbf16> loc("p174.2108"), %arg590: tensor<64x2880xbf16> loc("p175.2112"), %arg591: tensor<4096xbf16> loc("p176.2157"), %arg592: tensor<512x2880xbf16> loc("p177.2161"), %arg593: tensor<2880xbf16> loc("p178.2311"), %arg594: tensor<4x2880xbf16> loc("p179.2379"), %arg595: tensor<4x2880x2880xbf16> loc("p180.2384"), %arg596: tensor<4x5760xbf16> loc("p181.2390"), %arg597: tensor<4x2880x5760xbf16> loc("p182.2395"), %arg598: tensor<2880xbf16> loc("p183.2478"), %arg599: tensor<64xbf16> loc("p184.2501"), %arg600: tensor<512xbf16> loc("p185.2514"), %arg601: tensor<64x2880xbf16> loc("p186.2518"), %arg602: tensor<4096xbf16> loc("p187.2563"), %arg603: tensor<512x2880xbf16> loc("p188.2567"), %arg604: tensor<2880xbf16> loc("p189.2717"), %arg605: tensor<4x2880xbf16> loc("p190.2785"), %arg606: tensor<4x2880x2880xbf16> loc("p191.2790"), %arg607: tensor<4x5760xbf16> loc("p192.2796"), %arg608: tensor<4x2880x5760xbf16> loc("p193.2801"), %arg609: tensor<2880xbf16> loc("p194.2884"), %arg610: tensor<64xbf16> loc("p195.2907"), %arg611: tensor<512xbf16> loc("p196.2920"), %arg612: tensor<64x2880xbf16> loc("p197.2924"), %arg613: tensor<4096xbf16> loc("p198.2969"), %arg614: tensor<512x2880xbf16> loc("p199.2973"), %arg615: tensor<2880xbf16> loc("p200.3123"), %arg616: tensor<4x2880xbf16> loc("p201.3191"), %arg617: tensor<4x2880x2880xbf16> loc("p202.3196"), %arg618: tensor<4x5760xbf16> loc("p203.3202"), %arg619: tensor<4x2880x5760xbf16> loc("p204.3207"), %arg620: tensor<2880xbf16> loc("p205.3290"), %arg621: tensor<64xbf16> loc("p206.3313"), %arg622: tensor<512xbf16> loc("p207.3326"), %arg623: tensor<64x2880xbf16> loc("p208.3330"), %arg624: tensor<4096xbf16> loc("p209.3375"), %arg625: tensor<512x2880xbf16> loc("p210.3379"), %arg626: tensor<2880xbf16> loc("p211.3529"), %arg627: tensor<4x2880xbf16> loc("p212.3597"), %arg628: tensor<4x2880x2880xbf16> loc("p213.3602"), %arg629: tensor<4x5760xbf16> loc("p214.3608"), %arg630: tensor<4x2880x5760xbf16> loc("p215.3613"), %arg631: tensor<2880xbf16> loc("p216.3696"), %arg632: tensor<64xbf16> loc("p217.3719"), %arg633: tensor<512xbf16> loc("p218.3732"), %arg634: tensor<64x2880xbf16> loc("p219.3736"), %arg635: tensor<4096xbf16> loc("p220.3781"), %arg636: tensor<512x2880xbf16> loc("p221.3785"), %arg637: tensor<2880xbf16> loc("p222.3935"), %arg638: tensor<4x2880xbf16> loc("p223.4003"), %arg639: tensor<4x2880x2880xbf16> loc("p224.4008"), %arg640: tensor<4x5760xbf16> loc("p225.4014"), %arg641: tensor<4x2880x5760xbf16> loc("p226.4019"), %arg642: tensor<2880xbf16> loc("p227.4102"), %arg643: tensor<64xbf16> loc("p228.4125"), %arg644: tensor<512xbf16> loc("p229.4138"), %arg645: tensor<64x2880xbf16> loc("p230.4142"), %arg646: tensor<4096xbf16> loc("p231.4187"), %arg647: tensor<512x2880xbf16> loc("p232.4191"), %arg648: tensor<2880xbf16> loc("p233.4341"), %arg649: tensor<4x2880xbf16> loc("p234.4409"), %arg650: tensor<4x2880x2880xbf16> loc("p235.4414"), %arg651: tensor<4x5760xbf16> loc("p236.4420"), %arg652: tensor<4x2880x5760xbf16> loc("p237.4425"), %arg653: tensor<2880xbf16> loc("p238.4508"), %arg654: tensor<64xbf16> loc("p239.4531"), %arg655: tensor<512xbf16> loc("p240.4544"), %arg656: tensor<64x2880xbf16> loc("p241.4548"), %arg657: tensor<4096xbf16> loc("p242.4593"), %arg658: tensor<512x2880xbf16> loc("p243.4597"), %arg659: tensor<2880xbf16> loc("p244.4747"), %arg660: tensor<4x2880xbf16> loc("p245.4815"), %arg661: tensor<4x2880x2880xbf16> loc("p246.4820"), %arg662: tensor<4x5760xbf16> loc("p247.4826"), %arg663: tensor<4x2880x5760xbf16> loc("p248.4831"), %arg664: tensor<2880xbf16> loc("p249.4914"), %arg665: tensor<64xbf16> loc("p250.4937"), %arg666: tensor<512xbf16> loc("p251.4950"), %arg667: tensor<64x2880xbf16> loc("p252.4954"), %arg668: tensor<4096xbf16> loc("p253.4999"), %arg669: tensor<512x2880xbf16> loc("p254.5003"), %arg670: tensor<2880xbf16> loc("p255.5153"), %arg671: tensor<4x2880xbf16> loc("p256.5221"), %arg672: tensor<4x2880x2880xbf16> loc("p257.5226"), %arg673: tensor<4x5760xbf16> loc("p258.5232"), %arg674: tensor<4x2880x5760xbf16> loc("p259.5237"), %arg675: tensor<2880xbf16> loc("p260.5320"), %arg676: tensor<64xbf16> loc("p261.5343"), %arg677: tensor<512xbf16> loc("p262.5356"), %arg678: tensor<64x2880xbf16> loc("p263.5360"), %arg679: tensor<4096xbf16> loc("p264.5405"), %arg680: tensor<512x2880xbf16> loc("p265.5409"), %arg681: tensor<2880xbf16> loc("p266.5559"), %arg682: tensor<4x2880xbf16> loc("p267.5627"), %arg683: tensor<4x2880x2880xbf16> loc("p268.5632"), %arg684: tensor<4x5760xbf16> loc("p269.5638"), %arg685: tensor<4x2880x5760xbf16> loc("p270.5643"), %arg686: tensor<2880xbf16> loc("p271.5726"), %arg687: tensor<64xbf16> loc("p272.5749"), %arg688: tensor<512xbf16> loc("p273.5762"), %arg689: tensor<64x2880xbf16> loc("p274.5766"), %arg690: tensor<4096xbf16> loc("p275.5811"), %arg691: tensor<512x2880xbf16> loc("p276.5815"), %arg692: tensor<2880xbf16> loc("p277.5965"), %arg693: tensor<4x2880xbf16> loc("p278.6033"), %arg694: tensor<4x2880x2880xbf16> loc("p279.6038"), %arg695: tensor<4x5760xbf16> loc("p280.6044"), %arg696: tensor<4x2880x5760xbf16> loc("p281.6049"), %arg697: tensor<2880xbf16> loc("p282.6132"), %arg698: tensor<64xbf16> loc("p283.6155"), %arg699: tensor<512xbf16> loc("p284.6168"), %arg700: tensor<64x2880xbf16> loc("p285.6172"), %arg701: tensor<4096xbf16> loc("p286.6217"), %arg702: tensor<512x2880xbf16> loc("p287.6221"), %arg703: tensor<2880xbf16> loc("p288.6371"), %arg704: tensor<4x2880xbf16> loc("p289.6439"), %arg705: tensor<4x2880x2880xbf16> loc("p290.6444"), %arg706: tensor<4x5760xbf16> loc("p291.6450"), %arg707: tensor<4x2880x5760xbf16> loc("p292.6455"), %arg708: tensor<2880xbf16> loc("p293.6538"), %arg709: tensor<64xbf16> loc("p294.6561"), %arg710: tensor<512xbf16> loc("p295.6574"), %arg711: tensor<64x2880xbf16> loc("p296.6578"), %arg712: tensor<4096xbf16> loc("p297.6623"), %arg713: tensor<512x2880xbf16> loc("p298.6627"), %arg714: tensor<2880xbf16> loc("p299.6777"), %arg715: tensor<4x2880xbf16> loc("p300.6845"), %arg716: tensor<4x2880x2880xbf16> loc("p301.6850"), %arg717: tensor<4x5760xbf16> loc("p302.6856"), %arg718: tensor<4x2880x5760xbf16> loc("p303.6861"), %arg719: tensor<2880xbf16> loc("p304.6944"), %arg720: tensor<64xbf16> loc("p305.6967"), %arg721: tensor<512xbf16> loc("p306.6980"), %arg722: tensor<64x2880xbf16> loc("p307.6984"), %arg723: tensor<4096xbf16> loc("p308.7029"), %arg724: tensor<512x2880xbf16> loc("p309.7033"), %arg725: tensor<2880xbf16> loc("p310.7183"), %arg726: tensor<4x2880xbf16> loc("p311.7251"), %arg727: tensor<4x2880x2880xbf16> loc("p312.7256"), %arg728: tensor<4x5760xbf16> loc("p313.7262"), %arg729: tensor<4x2880x5760xbf16> loc("p314.7267"), %arg730: tensor<2880xbf16> loc("p315.7350"), %arg731: tensor<64xbf16> loc("p316.7373"), %arg732: tensor<512xbf16> loc("p317.7386"), %arg733: tensor<64x2880xbf16> loc("p318.7390"), %arg734: tensor<4096xbf16> loc("p319.7435"), %arg735: tensor<512x2880xbf16> loc("p320.7439"), %arg736: tensor<2880xbf16> loc("p321.7589"), %arg737: tensor<4x2880xbf16> loc("p322.7657"), %arg738: tensor<4x2880x2880xbf16> loc("p323.7662"), %arg739: tensor<4x5760xbf16> loc("p324.7668"), %arg740: tensor<4x2880x5760xbf16> loc("p325.7673"), %arg741: tensor<2880xbf16> loc("p326.7756"), %arg742: tensor<64xbf16> loc("p327.7779"), %arg743: tensor<512xbf16> loc("p328.7792"), %arg744: tensor<64x2880xbf16> loc("p329.7796"), %arg745: tensor<4096xbf16> loc("p330.7841"), %arg746: tensor<512x2880xbf16> loc("p331.7845"), %arg747: tensor<2880xbf16> loc("p332.7995"), %arg748: tensor<4x2880xbf16> loc("p333.8063"), %arg749: tensor<4x2880x2880xbf16> loc("p334.8068"), %arg750: tensor<4x5760xbf16> loc("p335.8074"), %arg751: tensor<4x2880x5760xbf16> loc("p336.8079"), %arg752: tensor<2880xbf16> loc("p337.8162"), %arg753: tensor<64xbf16> loc("p338.8185"), %arg754: tensor<512xbf16> loc("p339.8198"), %arg755: tensor<64x2880xbf16> loc("p340.8202"), %arg756: tensor<4096xbf16> loc("p341.8247"), %arg757: tensor<512x2880xbf16> loc("p342.8251"), %arg758: tensor<2880xbf16> loc("p343.8401"), %arg759: tensor<4x2880xbf16> loc("p344.8469"), %arg760: tensor<4x2880x2880xbf16> loc("p345.8474"), %arg761: tensor<4x5760xbf16> loc("p346.8480"), %arg762: tensor<4x2880x5760xbf16> loc("p347.8485"), %arg763: tensor<2880xbf16> loc("p348.8568"), %arg764: tensor<64xbf16> loc("p349.8591"), %arg765: tensor<512xbf16> loc("p350.8604"), %arg766: tensor<64x2880xbf16> loc("p351.8608"), %arg767: tensor<4096xbf16> loc("p352.8653"), %arg768: tensor<512x2880xbf16> loc("p353.8657"), %arg769: tensor<2880xbf16> loc("p354.8807"), %arg770: tensor<4x2880xbf16> loc("p355.8875"), %arg771: tensor<4x2880x2880xbf16> loc("p356.8880"), %arg772: tensor<4x5760xbf16> loc("p357.8886"), %arg773: tensor<4x2880x5760xbf16> loc("p358.8891"), %arg774: tensor<2880xbf16> loc("p359.8974"), %arg775: tensor<64xbf16> loc("p360.8997"), %arg776: tensor<512xbf16> loc("p361.9010"), %arg777: tensor<64x2880xbf16> loc("p362.9014"), %arg778: tensor<4096xbf16> loc("p363.9059"), %arg779: tensor<512x2880xbf16> loc("p364.9063"), %arg780: tensor<2880xbf16> loc("p365.9213"), %arg781: tensor<4x2880xbf16> loc("p366.9281"), %arg782: tensor<4x2880x2880xbf16> loc("p367.9286"), %arg783: tensor<4x5760xbf16> loc("p368.9292"), %arg784: tensor<4x2880x5760xbf16> loc("p369.9297"), %arg785: tensor<2880xbf16> loc("p370.9380"), %arg786: tensor<64xbf16> loc("p371.9403"), %arg787: tensor<512xbf16> loc("p372.9416"), %arg788: tensor<64x2880xbf16> loc("p373.9420"), %arg789: tensor<4096xbf16> loc("p374.9465"), %arg790: tensor<512x2880xbf16> loc("p375.9469"), %arg791: tensor<2880xbf16> loc("p376.9619"), %arg792: tensor<4x2880xbf16> loc("p377.9687"), %arg793: tensor<4x2880x2880xbf16> loc("p378.9692"), %arg794: tensor<4x5760xbf16> loc("p379.9698"), %arg795: tensor<4x2880x5760xbf16> loc("p380.9703"), %arg796: tensor<2880xbf16> loc("p381.9786"), %arg797: tensor<64xbf16> loc("p382.9809"), %arg798: tensor<512xbf16> loc("p383.9822"), %arg799: tensor<64x2880xbf16> loc("p384.9826"), %arg800: tensor<4096xbf16> loc("p385.9871"), %arg801: tensor<512x2880xbf16> loc("p386.9875"), %arg802: tensor<2880xbf16> loc("p387.10025"), %arg803: tensor<4x2880xbf16> loc("p388.10093"), %arg804: tensor<4x2880x2880xbf16> loc("p389.10098"), %arg805: tensor<4x5760xbf16> loc("p390.10104"), %arg806: tensor<4x2880x5760xbf16> loc("p391.10109"), %arg807: tensor<2880xbf16> loc("p392.10192"), %arg808: tensor<64xbf16> loc("p393.10215"), %arg809: tensor<512xbf16> loc("p394.10228"), %arg810: tensor<64x2880xbf16> loc("p395.10232"), %arg811: tensor<4096xbf16> loc("p396.10277"), %arg812: tensor<512x2880xbf16> loc("p397.10281"), %arg813: tensor<2880xbf16> loc("p398.10431"), %arg814: tensor<4x2880xbf16> loc("p399.10499"), %arg815: tensor<4x2880x2880xbf16> loc("p400.10504"), %arg816: tensor<4x5760xbf16> loc("p401.10510"), %arg817: tensor<4x2880x5760xbf16> loc("p402.10515"), %arg818: tensor<2880xbf16> loc("p403.10598"), %arg819: tensor<64xbf16> loc("p404.10621"), %arg820: tensor<512xbf16> loc("p405.10634"), %arg821: tensor<64x2880xbf16> loc("p406.10638"), %arg822: tensor<4096xbf16> loc("p407.10683"), %arg823: tensor<512x2880xbf16> loc("p408.10687"), %arg824: tensor<2880xbf16> loc("p409.10837"), %arg825: tensor<4x2880xbf16> loc("p410.10905"), %arg826: tensor<4x2880x2880xbf16> loc("p411.10910"), %arg827: tensor<4x5760xbf16> loc("p412.10916"), %arg828: tensor<4x2880x5760xbf16> loc("p413.10921"), %arg829: tensor<2880xbf16> loc("p414.11004")) {
      %cst = stablehlo.constant dense<0.000000e+00> : tensor<f32> loc(#loc)
      %c = stablehlo.constant dense<"…"> : tensor<128xi64> loc(#loc)
      %c_0 = stablehlo.constant dense<0> : tensor<i64> loc(#loc)
      %cst_1 = stablehlo.constant dense<2.000000e+00> : tensor<f32> loc(#loc)
      %cst_2 = stablehlo.constant dense<3.47222231E-4> : tensor<f32> loc(#loc)
      %cst_3 = stablehlo.constant dense<9.99999974E-6> : tensor<f32> loc(#loc)
      %cst_4 = stablehlo.constant dense<"…"> : tensor<1x1x128xf32> loc(#loc)
      %cst_5 = stablehlo.constant dense<1.34657359> : tensor<f32> loc(#loc)
      %cst_6 = stablehlo.constant dense<1.250000e-01> : tensor<bf16> loc(#loc)
      %c_7 = stablehlo.constant dense<"…"> : tensor<128xi64> loc(#loc)
      %c_8 = stablehlo.constant dense<"…"> : tensor<1x128x2xi64> loc(#loc)
      %cst_9 = stablehlo.constant dense<-3.389530e+38> : tensor<bf16> loc(#loc)
      %cst_10 = stablehlo.constant dense<-7.000000e+00> : tensor<bf16> loc(#loc)
      %cst_11 = stablehlo.constant dense<7.000000e+00> : tensor<bf16> loc(#loc)
      %cst_12 = stablehlo.constant dense<1.000000e+00> : tensor<bf16> loc(#loc)
      %cst_13 = stablehlo.constant dense<0xFF80> : tensor<bf16> loc(#loc)
      %cst_14 = stablehlo.constant dense<1.703130e+00> : tensor<bf16> loc(#loc)
      %cst_15 = stablehlo.constant dense<0.000000e+00> : tensor<bf16> loc(#loc)
      %1 = stablehlo.broadcast_in_dim %cst_15, dims = [] : (tensor<bf16>) -> tensor<128x4xbf16> loc(#loc)
      %2 = stablehlo.broadcast_in_dim %cst_14, dims = [] : (tensor<bf16>) -> tensor<4x128x2880xbf16> loc(#loc)
      %3 = stablehlo.broadcast_in_dim %cst_13, dims = [] : (tensor<bf16>) -> tensor<4x128x2880xbf16> loc(#loc)
      %4 = stablehlo.broadcast_in_dim %cst_12, dims = [] : (tensor<bf16>) -> tensor<4x128x2880xbf16> loc(#loc)
      %5 = stablehlo.broadcast_in_dim %cst_11, dims = [] : (tensor<bf16>) -> tensor<4x128x2880xbf16> loc(#loc)
      %6 = stablehlo.broadcast_in_dim %cst_10, dims = [] : (tensor<bf16>) -> tensor<4x128x2880xbf16> loc(#loc)
      %7 = stablehlo.broadcast_in_dim %cst_9, dims = [] : (tensor<bf16>) -> tensor<1x1x128x128xbf16> loc(#loc)
      %8 = stablehlo.broadcast_in_dim %cst_15, dims = [] : (tensor<bf16>) -> tensor<1x1x128x128xbf16> loc(#loc)
      %9 = stablehlo.broadcast_in_dim %cst_6, dims = [] : (tensor<bf16>) -> tensor<1x8x128x128xbf16> loc(#loc)
      %10 = stablehlo.broadcast_in_dim %cst_5, dims = [] : (tensor<f32>) -> tensor<1x128x32xf32> loc(#loc)
      %11 = stablehlo.broadcast_in_dim %cst_3, dims = [] : (tensor<f32>) -> tensor<1x128x1xf32> loc(#loc)
      %12 = stablehlo.broadcast_in_dim %cst_2, dims = [] : (tensor<f32>) -> tensor<1x128xf32> loc(#loc)
      %13 = stablehlo.broadcast_in_dim %cst_1, dims = [] : (tensor<f32>) -> tensor<1x128x2880xf32> loc(#loc)
      %14 = stablehlo.broadcast_in_dim %c_0, dims = [] : (tensor<i64>) -> tensor<1x128xi64> loc(#loc)
      %15 = stablehlo.reshape %arg562 : (tensor<2880xbf16>) -> tensor<1x1x2880xbf16> loc(#loc416)
      %16 = stablehlo.reshape %15 : (tensor<1x1x2880xbf16>) -> tensor<2880xbf16> loc(#loc417)
      %17 = stablehlo.convert %16 : (tensor<2880xbf16>) -> tensor<2880xf32> loc(#loc418)
      %18 = stablehlo.broadcast_in_dim %17, dims = [2] : (tensor<2880xf32>) -> tensor<1x128x2880xf32> loc(#loc419)
      %19 = stablehlo.reshape %arg561 : (tensor<201088x2880xbf16>) -> tensor<1x201088x2880xbf16> loc(#loc420)
      %20 = stablehlo.reshape %19 : (tensor<1x201088x2880xbf16>) -> tensor<201088x2880xbf16> loc(#loc421)
      %21 = stablehlo.reshape %arg560 : (tensor<1x128xi64>) -> tensor<1x1x128xi64> loc(#loc422)
      %22 = stablehlo.reshape %21 : (tensor<1x1x128xi64>) -> tensor<128xi64> loc(#loc423)
      %23 = stablehlo.convert %22 : (tensor<128xi64>) -> tensor<128xui32> loc(#loc424)
      %24 = "stablehlo.gather"(%20, %23) <{dimension_numbers = #stablehlo.gather<offset_dims = [1], collapsed_slice_dims = [0], start_index_map = [0], index_vector_dim = 1>, slice_sizes = array<i64: 1, 2880>}> : (tensor<201088x2880xbf16>, tensor<128xui32>) -> tensor<128x2880xbf16> loc(#loc425)
      %25 = stablehlo.reshape %24 : (tensor<128x2880xbf16>) -> tensor<1x128x2880xbf16> loc(#loc426)
      %26 = stablehlo.convert %25 : (tensor<1x128x2880xbf16>) -> tensor<1x128x2880xf32> loc(#loc427)
      %27 = stablehlo.broadcast_in_dim %cst_1, dims = [] : (tensor<f32>) -> tensor<1x128x2880xf32> loc(#loc)
      %28 = stablehlo.power %26, %27 : tensor<1x128x2880xf32> loc(#loc428)
      %29 = stablehlo.reduce(%28 init: %cst) applies stablehlo.add across dimensions = [2] : (tensor<1x128x2880xf32>, tensor<f32>) -> tensor<1x128xf32> loc(#loc429)
      %30 = stablehlo.broadcast_in_dim %cst_2, dims = [] : (tensor<f32>) -> tensor<1x128xf32> loc(#loc)
      %31 = stablehlo.multiply %29, %30 : tensor<1x128xf32> loc(#loc430)
      %32 = stablehlo.reshape %31 : (tensor<1x128xf32>) -> tensor<1x128x1xf32> loc(#loc431)
      %33 = stablehlo.broadcast_in_dim %cst_3, dims = [] : (tensor<f32>) -> tensor<1x128x1xf32> loc(#loc)
      %34 = stablehlo.add %32, %33 : tensor<1x128x1xf32> loc(#loc432)
      %35 = stablehlo.rsqrt %34 : tensor<1x128x1xf32> loc(#loc433)
      %36 = stablehlo.reshape %35 : (tensor<1x128x1xf32>) -> tensor<1x128xf32> loc(#loc434)
      %37 = stablehlo.broadcast_in_dim %36, dims = [0, 1] : (tensor<1x128xf32>) -> tensor<1x128x2880xf32> loc(#loc435)
      %38 = stablehlo.multiply %26, %37 : tensor<1x128x2880xf32> loc(#loc436)
      %39 = stablehlo.multiply %18, %38 : tensor<1x128x2880xf32> loc(#loc437)
      %40 = stablehlo.convert %39 : (tensor<1x128x2880xf32>) -> tensor<1x128x2880xbf16> loc(#loc438)
      %41 = stablehlo.reshape %40 : (tensor<1x128x2880xbf16>) -> tensor<128x2880xbf16> loc(#loc439)
      %42 = stablehlo.reshape %arg570 : (tensor<512x2880xbf16>) -> tensor<1x512x2880xbf16> loc(#loc440)
      %43 = stablehlo.reshape %42 : (tensor<1x512x2880xbf16>) -> tensor<512x2880xbf16> loc(#loc441)
      %44 = stablehlo.transpose %43, dims = [1, 0] {result_layout = dense<[0, 1]> : tensor<2xindex>, xla_shape = "bf16[2880,4096]{0,1}"} : (tensor<512x2880xbf16>) -> tensor<2880x512xbf16> loc(#loc442)
      %45 = stablehlo.dot_general %41, %44, contracting_dims = [1] x [0] : (tensor<128x2880xbf16>, tensor<2880x512xbf16>) -> tensor<128x512xbf16> loc(#loc443)
      %46 = stablehlo.reshape %45 : (tensor<128x512xbf16>) -> tensor<1x128x512xbf16> loc(#loc444)
      %47 = stablehlo.reshape %arg569 : (tensor<4096xbf16>) -> tensor<8x512xbf16> loc(#loc155)
      %48 = "stablehlo.all_to_all"(%47) <{channel_handle = #stablehlo.channel_handle<handle = 1, type = 1>, concat_dimension = 0 : i64, replica_groups = dense<[[0, 1, 2, 3, 4, 5, 6, 7]]> : tensor<1x8xi64>, split_count = 8 : i64, split_dimension = 0 : i64}> : (tensor<8x512xbf16>) -> tensor<8x512xbf16> loc(#loc155)
      %49 = stablehlo.slice %48 [0:1, 0:512] : (tensor<8x512xbf16>) -> tensor<1x512xbf16> loc(#loc155)
      %50 = stablehlo.reshape %49 : (tensor<1x512xbf16>) -> tensor<512xbf16> loc(#loc155)
      %51 = stablehlo.reshape %50 : (tensor<512xbf16>) -> tensor<1x1x512xbf16> loc(#loc445)
      %52 = stablehlo.reshape %51 : (tensor<1x1x512xbf16>) -> tensor<512xbf16> loc(#loc446)
      %53 = stablehlo.broadcast_in_dim %52, dims = [2] : (tensor<512xbf16>) -> tensor<1x128x512xbf16> loc(#loc447)
      %54 = stablehlo.add %46, %53 : tensor<1x128x512xbf16> loc(#loc448)
      %55 = stablehlo.reshape %54 : (tensor<1x128x512xbf16>) -> tensor<1x128x8x64xbf16> loc(#loc449)
      %56 = stablehlo.transpose %55, dims = [0, 2, 1, 3] {result_layout = dense<[3, 1, 2, 0]> : tensor<4xindex>, xla_shape = "bf16[1,64,128,64]{3,1,2,0}"} : (tensor<1x128x8x64xbf16>) -> tensor<1x8x128x64xbf16> loc(#loc450)
      %57 = stablehlo.slice %56 [0:1, 0:8, 0:128, 0:32] : (tensor<1x8x128x64xbf16>) -> tensor<1x8x128x32xbf16> loc(#loc451)
      %58 = stablehlo.reshape %arg566 : (tensor<32xf32>) -> tensor<1x1x32xf32> loc(#loc452)
      %59 = stablehlo.reshape %58 : (tensor<1x1x32xf32>) -> tensor<1x32x1xf32> loc(#loc453)
      %60 = stablehlo.dot_general %59, %cst_4, batching_dims = [0] x [0], contracting_dims = [2] x [1] : (tensor<1x32x1xf32>, tensor<1x1x128xf32>) -> tensor<1x32x128xf32> loc(#loc454)
      %61 = stablehlo.transpose %60, dims = [0, 2, 1] {result_layout = dense<[1, 2, 0]> : tensor<3xindex>, xla_shape = "f32[1,128,32]{1,2,0}"} : (tensor<1x32x128xf32>) -> tensor<1x128x32xf32> loc(#loc455)
      %62 = stablehlo.cosine %61 {result_layout = dense<[1, 2, 0]> : tensor<3xindex>, xla_shape = "f32[1,128,32]{1,2,0}"} : tensor<1x128x32xf32> loc(#loc456)
      %63 = stablehlo.broadcast_in_dim %cst_5, dims = [] : (tensor<f32>) -> tensor<1x128x32xf32> loc(#loc)
      %64 = stablehlo.multiply %62, %63 : tensor<1x128x32xf32> loc(#loc457)
      %65 = stablehlo.convert %64 : (tensor<1x128x32xf32>) -> tensor<1x128x32xbf16> loc(#loc458)
      %66 = stablehlo.broadcast_in_dim %65, dims = [0, 2, 3] : (tensor<1x128x32xbf16>) -> tensor<1x8x128x32xbf16> loc(#loc459)
      %67 = stablehlo.multiply %57, %66 : tensor<1x8x128x32xbf16> loc(#loc460)
      %68 = stablehlo.slice %56 [0:1, 0:8, 0:128, 32:64] : (tensor<1x8x128x64xbf16>) -> tensor<1x8x128x32xbf16> loc(#loc461)
      %69 = stablehlo.sine %61 {result_layout = dense<[1, 2, 0]> : tensor<3xindex>, xla_shape = "f32[1,128,32]{1,2,0}"} : tensor<1x128x32xf32> loc(#loc462)
      %70 = stablehlo.multiply %69, %10 : tensor<1x128x32xf32> loc(#loc463)
      %71 = stablehlo.convert %70 : (tensor<1x128x32xf32>) -> tensor<1x128x32xbf16> loc(#loc464)
      %72 = stablehlo.broadcast_in_dim %71, dims = [0, 2, 3] : (tensor<1x128x32xbf16>) -> tensor<1x8x128x32xbf16> loc(#loc465)
      %73 = stablehlo.multiply %68, %72 : tensor<1x8x128x32xbf16> loc(#loc466)
      %74 = stablehlo.subtract %67, %73 : tensor<1x8x128x32xbf16> loc(#loc467)
      %75 = stablehlo.multiply %68, %66 : tensor<1x8x128x32xbf16> loc(#loc468)
      %76 = stablehlo.multiply %57, %72 : tensor<1x8x128x32xbf16> loc(#loc469)
      %77 = stablehlo.add %75, %76 : tensor<1x8x128x32xbf16> loc(#loc470)
      %78 = stablehlo.concatenate %74, %77, dim = 3 : (tensor<1x8x128x32xbf16>, tensor<1x8x128x32xbf16>) -> tensor<1x8x128x64xbf16> loc(#loc471)
      %79 = stablehlo.reshape %arg568 : (tensor<64x2880xbf16>) -> tensor<1x64x2880xbf16> loc(#loc472)
      %80 = stablehlo.reshape %79 : (tensor<1x64x2880xbf16>) -> tensor<64x2880xbf16> loc(#loc473)
      %81 = stablehlo.transpose %80, dims = [1, 0] {result_layout = dense<[0, 1]> : tensor<2xindex>, xla_shape = "bf16[2880,512]{0,1}"} : (tensor<64x2880xbf16>) -> tensor<2880x64xbf16> loc(#loc474)
      %82 = stablehlo.dot_general %41, %81, contracting_dims = [1] x [0] : (tensor<128x2880xbf16>, tensor<2880x64xbf16>) -> tensor<128x64xbf16> loc(#loc475)
      %83 = stablehlo.reshape %82 : (tensor<128x64xbf16>) -> tensor<1x128x64xbf16> loc(#loc476)
      %84 = stablehlo.reshape %arg567 : (tensor<512xbf16>) -> tensor<8x64xbf16> loc(#loc153)
      %85 = "stablehlo.all_to_all"(%84) <{channel_handle = #stablehlo.channel_handle<handle = 1, type = 1>, concat_dimension = 0 : i64, replica_groups = dense<[[0, 1, 2, 3, 4, 5, 6, 7]]> : tensor<1x8xi64>, split_count = 8 : i64, split_dimension = 0 : i64}> : (tensor<8x64xbf16>) -> tensor<8x64xbf16> loc(#loc153)
      %86 = stablehlo.slice %85 [0:1, 0:64] : (tensor<8x64xbf16>) -> tensor<1x64xbf16> loc(#loc153)
…
#loc2940 = loc("divide.7139")
#loc2941 = loc("slice.7140")
#loc2942 = loc("reshape.422")
#loc2943 = loc("reshape.424")
#loc2944 = loc("transpose.425")
#loc2945 = loc("dot.6953")
#loc2946 = loc("reshape.6954")
#loc2947 = loc("reshape.418")
#loc2948 = loc("reshape.420")
#loc2949 = loc("broadcast.6957")
#loc2950 = loc("add.6958")
#loc2951 = loc("reshape.6959")
#loc2952 = loc("transpose.6960")
#loc2953 = loc("broadcast.6964")
#loc2954 = loc("reshape.6965")
#loc2955 = loc("dot.7141")
#loc2956 = loc("transpose.7143")
#loc2957 = loc("reshape.7145")
#loc2958 = loc("reshape.412")
#loc2959 = loc("reshape.414")
#loc2960 = loc("transpose.415")
#loc2962 = loc("reshape.7147")
#loc2963 = loc("reshape.408")
#loc2964 = loc("reshape.410")
#loc2965 = loc("broadcast.7150")
#loc2966 = loc("add.7151")
#loc2967 = loc("add.7154")
#loc2968 = loc("reshape.7184")
#loc2969 = loc("reshape.7186")
#loc2970 = loc("convert.7187")
#loc2971 = loc("broadcast.7188")
#loc2972 = loc("convert.7155")
#loc2973 = loc("power.7157")
#loc2974 = loc("reduce.7164")
#loc2975 = loc("multiply.7173")
#loc2976 = loc("reshape.7174")
#loc2977 = loc("add.7178")
#loc2978 = loc("rsqrt.7179")
#loc2979 = loc("reshape.7180")
#loc2980 = loc("broadcast.7181")
#loc2981 = loc("multiply.7182")
#loc2982 = loc("multiply.7189")
#loc2983 = loc("convert.7190")
#loc2984 = loc("reshape.7269")
#loc2985 = loc("broadcast.7273")
#loc2986 = loc("dot.7276")
#loc2987 = loc("reshape.7263")
#loc2988 = loc("reshape.7265")
#loc2989 = loc("broadcast.7280")
#loc2990 = loc("add.7281")
#loc2991 = loc("slice.7294")
#loc2992 = loc("clamp.7297")
#loc2993 = loc("add.7300")
#loc2994 = loc("slice.7282")
#loc2995 = loc("clamp.7285")
#loc2996 = loc("multiply.7287")
#loc2997 = loc("logistic.7288")
#loc2998 = loc("multiply.7289")
#loc2999 = loc("multiply.7301")
#loc3000 = loc("dot.7302")
#loc3001 = loc("reshape.7252")
#loc3002 = loc("reshape.7254")
#loc3003 = loc("broadcast.7306")
#loc3004 = loc("add.7307")
#loc3005 = loc("reshape.7308")
#loc3006 = loc("reshape.398")
#loc3007 = loc("reshape.400")
#loc3008 = loc("transpose.401")
#loc3009 = loc("dot.7192")
#loc3010 = loc("reshape.391")
#loc3011 = loc("reshape.393")
#loc3012 = loc("broadcast.7197")
#loc3013 = loc("add.7198")
#loc3015 = loc("compare.7211")
#loc3016 = loc("slice.7216")
#loc3017 = loc("convert.7217")
#loc3018 = loc("reshape.7241")
#loc3019 = loc("concatenate.7242")
#loc3020 = loc("slice.7214")
#loc3021 = loc("reduce.7223")
#loc3022 = loc("broadcast.7224")
#loc3023 = loc("subtract.7225")
#loc3024 = loc("exponential.7226")
#loc3025 = loc("reduce.7232")
#loc3026 = loc("broadcast.7233")
#loc3027 = loc("divide.7234")
#loc3029 = loc("transpose.7247")
#loc3030 = loc("reshape.7248")
#loc3031 = loc("broadcast.7310")
#loc3032 = loc("multiply.7311")
#loc3034 = loc("add.7321")
#loc3035 = loc("convert.7322")
#loc3036 = loc("power.7324")
#loc3037 = loc("reduce.7331")
#loc3038 = loc("multiply.7340")
#loc3039 = loc("reshape.7341")
#loc3040 = loc("add.7345")
#loc3041 = loc("rsqrt.7346")
#loc3042 = loc("reshape.7347")
#loc3043 = loc("broadcast.7348")
#loc3044 = loc("multiply.7349")
#loc3045 = loc("multiply.7356")
#loc3046 = loc("convert.7357")
#loc3047 = loc("reshape.7444")
#loc3048 = loc("reshape.7440")
#loc3049 = loc("reshape.7442")
#loc3050 = loc("transpose.7443")
#loc3051 = loc("dot.7445")
#loc3052 = loc("reshape.7446")
#loc3053 = loc("reshape.7436")
#loc3054 = loc("reshape.7438")
#loc3055 = loc("broadcast.7449")
#loc3056 = loc("add.7450")
#loc3057 = loc("reshape.7451")
#loc3058 = loc("transpose.7452")
#loc3059 = loc("slice.7453")
#loc3060 = loc("multiply.7470")
#loc3061 = loc("slice.7457")
#loc3062 = loc("multiply.7467")
#loc3063 = loc("subtract.7473")
#loc3064 = loc("multiply.7460")
#loc3065 = loc("multiply.7456")
#loc3066 = loc("add.7463")
#loc3067 = loc("concatenate.7474")
#loc3068 = loc("reshape.7391")
#loc3069 = loc("reshape.7393")
#loc3070 = loc("transpose.7394")
#loc3071 = loc("dot.7396")
#loc3072 = loc("reshape.7397")
#loc3073 = loc("reshape.7387")
#loc3074 = loc("reshape.7389")
#loc3075 = loc("broadcast.7400")
#loc3076 = loc("add.7401")
#loc3077 = loc("reshape.7402")
#loc3078 = loc("transpose.7403")
#loc3079 = loc("slice.7404")
#loc3080 = loc("multiply.7422")
#loc3081 = loc("slice.7409")
#loc3082 = loc("multiply.7419")
#loc3083 = loc("subtract.7425")
#loc3084 = loc("multiply.7412")
#loc3085 = loc("multiply.7407")
#loc3086 = loc("add.7415")
#loc3087 = loc("concatenate.7426")
#loc3088 = loc("broadcast.7430")
#loc3089 = loc("reshape.7431")
#loc3090 = loc("transpose.7432")
#loc3091 = loc("dot.7475")
#loc3092 = loc("multiply.7478")
#loc3093 = loc("add.7483")
#loc3094 = loc("reshape.7374")
#loc3095 = loc("reshape.7379")
#loc3096 = loc("broadcast.7380")
#loc3097 = loc("concatenate.7484")
#loc3098 = loc("reshape.7757")
#loc3099 = loc("reshape.7759")
#loc3100 = loc("convert.7760")
#loc3101 = loc("broadcast.7761")
#loc3102 = loc("reduce.7491")
#loc3103 = loc("broadcast.7527")
#loc3104 = loc("subtract.7528")
#loc3105 = loc("reduce.7534")
#loc3106 = loc("broadcast.7535")
#loc3107 = loc("subtract.7536")
#loc3108 = loc("exponential.7537")
#loc3109 = loc("reduce.7543")
#loc3110 = loc("broadcast.7544")
#loc3111 = loc("divide.7545")
#loc3112 = loc("slice.7546")
#loc3113 = loc("reshape.380")
#loc3114 = loc("reshape.382")
#loc3115 = loc("transpose.383")
#loc3116 = loc("dot.7359")
#loc3117 = loc("reshape.7360")
#loc3118 = loc("reshape.376")
#loc3119 = loc("reshape.378")
#loc3120 = loc("broadcast.7363")
#loc3121 = loc("add.7364")
#loc3122 = loc("reshape.7365")
#loc3123 = loc("transpose.7366")
#loc3124 = loc("broadcast.7370")
#loc3125 = loc("reshape.7371")
#loc3126 = loc("dot.7547")
#loc3127 = loc("transpose.7549")
#loc3128 = loc("reshape.7551")
#loc3129 = loc("reshape.370")
#loc3130 = loc("reshape.372")
#loc3131 = loc("transpose.373")
#loc3133 = loc("reshape.7553")
#loc3134 = loc("reshape.366")
#loc3135 = loc("reshape.368")
#loc3136 = loc("broadcast.7556")
#loc3137 = loc("add.7557")
#loc3138 = loc("add.7560")
#loc3139 = loc("reshape.7590")
#loc3140 = loc("reshape.7592")
#loc3141 = loc("convert.7593")
#loc3142 = loc("broadcast.7594")
#loc3143 = loc("convert.7561")
#loc3144 = loc("power.7563")
#loc3145 = loc("reduce.7570")
#loc3146 = loc("multiply.7579")
#loc3147 = loc("reshape.7580")
#loc3148 = loc("add.7584")
#loc3149 = loc("rsqrt.7585")
#loc3150 = loc("reshape.7586")
#loc3151 = loc("broadcast.7587")
#loc3152 = loc("multiply.7588")
#loc3153 = loc("multiply.7595")
#loc3154 = loc("convert.7596")
#loc3155 = loc("reshape.7675")
#loc3156 = loc("broadcast.7679")
#loc3157 = loc("dot.7682")
#loc3158 = loc("reshape.7669")
#loc3159 = loc("reshape.7671")
#loc3160 = loc("broadcast.7686")
#loc3161 = loc("add.7687")
#loc3162 = loc("slice.7700")
#loc3163 = loc("clamp.7703")
#loc3164 = loc("add.7706")
#loc3165 = loc("slice.7688")
#loc3166 = loc("clamp.7691")
#loc3167 = loc("multiply.7693")
#loc3168 = loc("logistic.7694")
#loc3169 = loc("multiply.7695")
#loc3170 = loc("multiply.7707")
#loc3171 = loc("dot.7708")
#loc3172 = loc("reshape.7658")
#loc3173 = loc("reshape.7660")
#loc3174 = loc("broadcast.7712")
#loc3175 = loc("add.7713")
#loc3176 = loc("reshape.7714")
#loc3177 = loc("reshape.356")
#loc3178 = loc("reshape.358")
#loc3179 = loc("transpose.359")
#loc3180 = loc("dot.7598")
#loc3181 = loc("reshape.349")
#loc3182 = loc("reshape.351")
#loc3183 = loc("broadcast.7603")
#loc3184 = loc("add.7604")
#loc3186 = loc("compare.7617")
#loc3187 = loc("slice.7622")
#loc3188 = loc("convert.7623")
#loc3189 = loc("reshape.7647")
#loc3190 = loc("concatenate.7648")
#loc3191 = loc("slice.7620")
#loc3192 = loc("reduce.7629")
#loc3193 = loc("broadcast.7630")
#loc3194 = loc("subtract.7631")
#loc3195 = loc("exponential.7632")
#loc3196 = loc("reduce.7638")
#loc3197 = loc("broadcast.7639")
#loc3198 = loc("divide.7640")
#loc3200 = loc("transpose.7653")
#loc3201 = loc("reshape.7654")
#loc3202 = loc("broadcast.7716")
#loc3203 = loc("multiply.7717")
#loc3205 = loc("add.7727")
#loc3206 = loc("convert.7728")
#loc3207 = loc("power.7730")
#loc3208 = loc("reduce.7737")
#loc3209 = loc("multiply.7746")
#loc3210 = loc("reshape.7747")
#loc3211 = loc("add.7751")
#loc3212 = loc("rsqrt.7752")
#loc3213 = loc("reshape.7753")
#loc3214 = loc("broadcast.7754")
#loc3215 = loc("multiply.7755")
#loc3216 = loc("multiply.7762")
#loc3217 = loc("convert.7763")
#loc3218 = loc("reshape.7850")
#loc3219 = loc("reshape.7846")
#loc3220 = loc("reshape.7848")
#loc3221 = loc("transpose.7849")
#loc3222 = loc("dot.7851")
#loc3223 = loc("reshape.7852")
#loc3224 = loc("reshape.7842")
#loc3225 = loc("reshape.7844")
#loc3226 = loc("broadcast.7855")
#loc3227 = loc("add.7856")
#loc3228 = loc("reshape.7857")
#loc3229 = loc("transpose.7858")
#loc3230 = loc("slice.7859")
#loc3231 = loc("multiply.7876")
#loc3232 = loc("slice.7863")
#loc3233 = loc("multiply.7873")
#loc3234 = loc("subtract.7879")
#loc3235 = loc("multiply.7866")
#loc3236 = loc("multiply.7862")
#loc3237 = loc("add.7869")
#loc3238 = loc("concatenate.7880")
#loc3239 = loc("reshape.7797")
#loc3240 = loc("reshape.7799")
#loc3241 = loc("transpose.7800")
#loc3242 = loc("dot.7802")
#loc3243 = loc("reshape.7803")
#loc3244 = loc("reshape.7793")
#loc3245 = loc("reshape.7795")
#loc3246 = loc("broadcast.7806")
#loc3247 = loc("add.7807")
#loc3248 = loc("reshape.7808")
#loc3249 = loc("transpose.7809")
#loc3250 = loc("slice.7810")
#loc3251 = loc("multiply.7828")
#loc3252 = loc("slice.7815")
#loc3253 = loc("multiply.7825")
#loc3254 = loc("subtract.7831")
#loc3255 = loc("multiply.7818")
#loc3256 = loc("multiply.7813")
#loc3257 = loc("add.7821")
#loc3258 = loc("concatenate.7832")
#loc3259 = loc("broadcast.7836")
#loc3260 = loc("reshape.7837")
#loc3261 = loc("transpose.7838")
#loc3262 = loc("dot.7881")
#loc3263 = loc("multiply.7884")
#loc3264 = loc("add.7889")
#loc3265 = loc("reshape.7780")
#loc3266 = loc("reshape.7785")
#loc3267 = loc("broadcast.7786")
#loc3268 = loc("concatenate.7890")
#loc3269 = loc("reshape.8163")
#loc3270 = loc("reshape.8165")
#loc3271 = loc("convert.8166")
#loc3272 = loc("broadcast.8167")
#loc3273 = loc("reduce.7897")
#loc3274 = loc("broadcast.7933")
#loc3275 = loc("subtract.7934")
#loc3276 = loc("reduce.7940")
#loc3277 = loc("broadcast.7941")
#loc3278 = loc("subtract.7942")
#loc3279 = loc("exponential.7943")
#loc3280 = loc("reduce.7949")
#loc3281 = loc("broadcast.7950")
#loc3282 = loc("divide.7951")
#loc3283 = loc("slice.7952")
#loc3284 = loc("reshape.338")
#loc3285 = loc("reshape.340")
#loc3286 = loc("transpose.341")
#loc3287 = loc("dot.7765")
#loc3288 = loc("reshape.7766")
#loc3289 = loc("reshape.334")
#loc3290 = loc("reshape.336")
#loc3291 = loc("broadcast.7769")
#loc3292 = loc("add.7770")
#loc3293 = loc("reshape.7771")
#loc3294 = loc("transpose.7772")
#loc3295 = loc("broadcast.7776")
#loc3296 = loc("reshape.7777")
#loc3297 = loc("dot.7953")
#loc3298 = loc("transpose.7955")
#loc3299 = loc("reshape.7957")
#loc3300 = loc("reshape.328")
#loc3301 = loc("reshape.330")
#loc3302 = loc("transpose.331")
#loc3304 = loc("reshape.7959")
#loc3305 = loc("reshape.324")
#loc3306 = loc("reshape.326")
#loc3307 = loc("broadcast.7962")
#loc3308 = loc("add.7963")
#loc3309 = loc("add.7966")
#loc3310 = loc("reshape.7996")
#loc3311 = loc("reshape.7998")
#loc3312 = loc("convert.7999")
#loc3313 = loc("broadcast.8000")
#loc3314 = loc("convert.7967")
#loc3315 = loc("power.7969")
#loc3316 = loc("reduce.7976")
#loc3317 = loc("multiply.7985")
#loc3318 = loc("reshape.7986")
#loc3319 = loc("add.7990")
#loc3320 = loc("rsqrt.7991")
#loc3321 = loc("reshape.7992")
#loc3322 = loc("broadcast.7993")
#loc3323 = loc("multiply.7994")
#loc3324 = loc("multiply.8001")
#loc3325 = loc("convert.8002")
#loc3326 = loc("reshape.8081")
#loc3327 = loc("broadcast.8085")
#loc3328 = loc("dot.8088")
#loc3329 = loc("reshape.8075")
#loc3330 = loc("reshape.8077")
#loc3331 = loc("broadcast.8092")
#loc3332 = loc("add.8093")
#loc3333 = loc("slice.8106")
#loc3334 = loc("clamp.8109")
#loc3335 = loc("add.8112")
#loc3336 = loc("slice.8094")
#loc3337 = loc("clamp.8097")
#loc3338 = loc("multiply.8099")
#loc3339 = loc("logistic.8100")
#loc3340 = loc("multiply.8101")
#loc3341 = loc("multiply.8113")
#loc3342 = loc("dot.8114")
#loc3343 = loc("reshape.8064")
#loc3344 = loc("reshape.8066")
#loc3345 = loc("broadcast.8118")
#loc3346 = loc("add.8119")
#loc3347 = loc("reshape.8120")
#loc3348 = loc("reshape.314")
#loc3349 = loc("reshape.316")
#loc3350 = loc("transpose.317")
#loc3351 = loc("dot.8004")
#loc3352 = loc("reshape.307")
#loc3353 = loc("reshape.309")
#loc3354 = loc("broadcast.8009")
#loc3355 = loc("add.8010")
#loc3357 = loc("compare.8023")
#loc3358 = loc("slice.8028")
#loc3359 = loc("convert.8029")
#loc3360 = loc("reshape.8053")
#loc3361 = loc("concatenate.8054")
#loc3362 = loc("slice.8026")
#loc3363 = loc("reduce.8035")
#loc3364 = loc("broadcast.8036")
#loc3365 = loc("subtract.8037")
#loc3366 = loc("exponential.8038")
#loc3367 = loc("reduce.8044")
#loc3368 = loc("broadcast.8045")
#loc3369 = loc("divide.8046")
#loc3371 = loc("transpose.8059")
#loc3372 = loc("reshape.8060")
#loc3373 = loc("broadcast.8122")
#loc3374 = loc("multiply.8123")
#loc3376 = loc("add.8133")
#loc3377 = loc("convert.8134")
#loc3378 = loc("power.8136")
#loc3379 = loc("reduce.8143")
#loc3380 = loc("multiply.8152")
#loc3381 = loc("reshape.8153")
#loc3382 = loc("add.8157")
#loc3383 = loc("rsqrt.8158")
#loc3384 = loc("reshape.8159")
#loc3385 = loc("broadcast.8160")
#loc3386 = loc("multiply.8161")
#loc3387 = loc("multiply.8168")
#loc3388 = loc("convert.8169")
#loc3389 = loc("reshape.8256")
#loc3390 = loc("reshape.8252")
#loc3391 = loc("reshape.8254")
#loc3392 = loc("transpose.8255")
#loc3393 = loc("dot.8257")
#loc3394 = loc("reshape.8258")
#loc3395 = loc("reshape.8248")
#loc3396 = loc("reshape.8250")
#loc3397 = loc("broadcast.8261")
#loc3398 = loc("add.8262")
#loc3399 = loc("reshape.8263")
#loc3400 = loc("transpose.8264")
#loc3401 = loc("slice.8265")
#loc3402 = loc("multiply.8282")
#loc3403 = loc("slice.8269")
#loc3404 = loc("multiply.8279")
#loc3405 = loc("subtract.8285")
#loc3406 = loc("multiply.8272")
#loc3407 = loc("multiply.8268")
#loc3408 = loc("add.8275")
#loc3409 = loc("concatenate.8286")
#loc3410 = loc("reshape.8203")
#loc3411 = loc("reshape.8205")
#loc3412 = loc("transpose.8206")
#loc3413 = loc("dot.8208")
#loc3414 = loc("reshape.8209")
#loc3415 = loc("reshape.8199")
#loc3416 = loc("reshape.8201")
#loc3417 = loc("broadcast.8212")
#loc3418 = loc("add.8213")
#loc3419 = loc("reshape.8214")
#loc3420 = loc("transpose.8215")
#loc3421 = loc("slice.8216")
#loc3422 = loc("multiply.8234")
#loc3423 = loc("slice.8221")
#loc3424 = loc("multiply.8231")
#loc3425 = loc("subtract.8237")
#loc3426 = loc("multiply.8224")
#loc3427 = loc("multiply.8219")
#loc3428 = loc("add.8227")
#loc3429 = loc("concatenate.8238")
#loc3430 = loc("broadcast.8242")
#loc3431 = loc("reshape.8243")
#loc3432 = loc("transpose.8244")
#loc3433 = loc("dot.8287")
#loc3434 = loc("multiply.8290")
#loc3435 = loc("add.8295")
#loc3436 = loc("reshape.8186")
#loc3437 = loc("reshape.8191")
#loc3438 = loc("broadcast.8192")
#loc3439 = loc("concatenate.8296")
#loc3440 = loc("reshape.8569")
#loc3441 = loc("reshape.8571")
#loc3442 = loc("convert.8572")
#loc3443 = loc("broadcast.8573")
#loc3444 = loc("reduce.8303")
#loc3445 = loc("broadcast.8339")
#loc3446 = loc("subtract.8340")
#loc3447 = loc("reduce.8346")
#loc3448 = loc("broadcast.8347")
#loc3449 = loc("subtract.8348")
#loc3450 = loc("exponential.8349")
#loc3451 = loc("reduce.8355")
#loc3452 = loc("broadcast.8356")
#loc3453 = loc("divide.8357")
#loc3454 = loc("slice.8358")
#loc3455 = loc("reshape.296")
#loc3456 = loc("reshape.298")
#loc3457 = loc("transpose.299")
#loc3458 = loc("dot.8171")
#loc3459 = loc("reshape.8172")
#loc3460 = loc("reshape.292")
#loc3461 = loc("reshape.294")
#loc3462 = loc("broadcast.8175")
#loc3463 = loc("add.8176")
#loc3464 = loc("reshape.8177")
#loc3465 = loc("transpose.8178")
#loc3466 = loc("broadcast.8182")
#loc3467 = loc("reshape.8183")
#loc3468 = loc("dot.8359")
#loc3469 = loc("transpose.8361")
#loc3470 = loc("reshape.8363")
#loc3471 = loc("reshape.286")
#loc3472 = loc("reshape.288")
#loc3473 = loc("transpose.289")
#loc3475 = loc("reshape.8365")
#loc3476 = loc("reshape.282")
#loc3477 = loc("reshape.284")
#loc3478 = loc("broadcast.8368")
#loc3479 = loc("add.8369")
#loc3480 = loc("add.8372")
#loc3481 = loc("reshape.8402")
#loc3482 = loc("reshape.8404")
#loc3483 = loc("convert.8405")
#loc3484 = loc("broadcast.8406")
#loc3485 = loc("convert.8373")
#loc3486 = loc("power.8375")
#loc3487 = loc("reduce.8382")
#loc3488 = loc("multiply.8391")
#loc3489 = loc("reshape.8392")
#loc3490 = loc("add.8396")
#loc3491 = loc("rsqrt.8397")
#loc3492 = loc("reshape.8398")
#loc3493 = loc("broadcast.8399")
#loc3494 = loc("multiply.8400")
#loc3495 = loc("multiply.8407")
#loc3496 = loc("convert.8408")
#loc3497 = loc("reshape.8487")
#loc3498 = loc("broadcast.8491")
#loc3499 = loc("dot.8494")
#loc3500 = loc("reshape.8481")
#loc3501 = loc("reshape.8483")
#loc3502 = loc("broadcast.8498")
#loc3503 = loc("add.8499")
#loc3504 = loc("slice.8512")
#loc3505 = loc("clamp.8515")
#loc3506 = loc("add.8518")
#loc3507 = loc("slice.8500")
#loc3508 = loc("clamp.8503")
#loc3509 = loc("multiply.8505")
#loc3510 = loc("logistic.8506")
#loc3511 = loc("multiply.8507")
#loc3512 = loc("multiply.8519")
#loc3513 = loc("dot.8520")
#loc3514 = loc("reshape.8470")
#loc3515 = loc("reshape.8472")
#loc3516 = loc("broadcast.8524")
#loc3517 = loc("add.8525")
#loc3518 = loc("reshape.8526")
#loc3519 = loc("reshape.272")
#loc3520 = loc("reshape.274")
#loc3521 = loc("transpose.275")
#loc3522 = loc("dot.8410")
#loc3523 = loc("reshape.265")
#loc3524 = loc("reshape.267")
#loc3525 = loc("broadcast.8415")
#loc3526 = loc("add.8416")
#loc3528 = loc("compare.8429")
#loc3529 = loc("slice.8434")
#loc3530 = loc("convert.8435")
#loc3531 = loc("reshape.8459")
#loc3532 = loc("concatenate.8460")
#loc3533 = loc("slice.8432")
#loc3534 = loc("reduce.8441")
#loc3535 = loc("broadcast.8442")
#loc3536 = loc("subtract.8443")
#loc3537 = loc("exponential.8444")
#loc3538 = loc("reduce.8450")
#loc3539 = loc("broadcast.8451")
#loc3540 = loc("divide.8452")
#loc3542 = loc("transpose.8465")
#loc3543 = loc("reshape.8466")
#loc3544 = loc("broadcast.8528")
#loc3545 = loc("multiply.8529")
#loc3547 = loc("add.8539")
#loc3548 = loc("convert.8540")
#loc3549 = loc("power.8542")
#loc3550 = loc("reduce.8549")
#loc3551 = loc("multiply.8558")
#loc3552 = loc("reshape.8559")
#loc3553 = loc("add.8563")
#loc3554 = loc("rsqrt.8564")
#loc3555 = loc("reshape.8565")
#loc3556 = loc("broadcast.8566")
#loc3557 = loc("multiply.8567")
#loc3558 = loc("multiply.8574")
#loc3559 = loc("convert.8575")
#loc3560 = loc("reshape.8662")
#loc3561 = loc("reshape.8658")
#loc3562 = loc("reshape.8660")
#loc3563 = loc("transpose.8661")
#loc3564 = loc("dot.8663")
#loc3565 = loc("reshape.8664")
#loc3566 = loc("reshape.8654")
#loc3567 = loc("reshape.8656")
#loc3568 = loc("broadcast.8667")
#loc3569 = loc("add.8668")
#loc3570 = loc("reshape.8669")
#loc3571 = loc("transpose.8670")
#loc3572 = loc("slice.8671")
#loc3573 = loc("multiply.8688")
#loc3574 = loc("slice.8675")
#loc3575 = loc("multiply.8685")
#loc3576 = loc("subtract.8691")
#loc3577 = loc("multiply.8678")
#loc3578 = loc("multiply.8674")
#loc3579 = loc("add.8681")
#loc3580 = loc("concatenate.8692")
#loc3581 = loc("reshape.8609")
#loc3582 = loc("reshape.8611")
#loc3583 = loc("transpose.8612")
#loc3584 = loc("dot.8614")
#loc3585 = loc("reshape.8615")
#loc3586 = loc("reshape.8605")
#loc3587 = loc("reshape.8607")
#loc3588 = loc("broadcast.8618")
#loc3589 = loc("add.8619")
#loc3590 = loc("reshape.8620")
#loc3591 = loc("transpose.8621")
#loc3592 = loc("slice.8622")
#loc3593 = loc("multiply.8640")
#loc3594 = loc("slice.8627")
#loc3595 = loc("multiply.8637")
#loc3596 = loc("subtract.8643")
#loc3597 = loc("multiply.8630")
#loc3598 = loc("multiply.8625")
#loc3599 = loc("add.8633")
#loc3600 = loc("concatenate.8644")
#loc3601 = loc("broadcast.8648")
#loc3602 = loc("reshape.8649")
#loc3603 = loc("transpose.8650")
#loc3604 = loc("dot.8693")
#loc3605 = loc("multiply.8696")
#loc3606 = loc("add.8701")
#loc3607 = loc("reshape.8592")
#loc3608 = loc("reshape.8597")
#loc3609 = loc("broadcast.8598")
#loc3610 = loc("concatenate.8702")
#loc3611 = loc("reshape.8975")
#loc3612 = loc("reshape.8977")
#loc3613 = loc("convert.8978")
#loc3614 = loc("broadcast.8979")
#loc3615 = loc("reduce.8709")
#loc3616 = loc("broadcast.8745")
#loc3617 = loc("subtract.8746")
#loc3618 = loc("reduce.8752")
#loc3619 = loc("broadcast.8753")
#loc3620 = loc("subtract.8754")
#loc3621 = loc("exponential.8755")
#loc3622 = loc("reduce.8761")
#loc3623 = loc("broadcast.8762")
#loc3624 = loc("divide.8763")
#loc3625 = loc("slice.8764")
#loc3626 = loc("reshape.254")
#loc3627 = loc("reshape.256")
#loc3628 = loc("transpose.257")
#loc3629 = loc("dot.8577")
#loc3630 = loc("reshape.8578")
#loc3631 = loc("reshape.250")
#loc3632 = loc("reshape.252")
#loc3633 = loc("broadcast.8581")
#loc3634 = loc("add.8582")
#loc3635 = loc("reshape.8583")
#loc3636 = loc("transpose.8584")
#loc3637 = loc("broadcast.8588")
#loc3638 = loc("reshape.8589")
#loc3639 = loc("dot.8765")
#loc3640 = loc("transpose.8767")
#loc3641 = loc("reshape.8769")
#loc3642 = loc("reshape.244")
#loc3643 = loc("reshape.246")
#loc3644 = loc("transpose.247")
#loc3646 = loc("reshape.8771")
#loc3647 = loc("reshape.240")
#loc3648 = loc("reshape.242")
#loc3649 = loc("broadcast.8774")
#loc3650 = loc("add.8775")
#loc3651 = loc("add.8778")
#loc3652 = loc("reshape.8808")
#loc3653 = loc("reshape.8810")
#loc3654 = loc("convert.8811")
#loc3655 = loc("broadcast.8812")
#loc3656 = loc("convert.8779")
#loc3657 = loc("power.8781")
#loc3658 = loc("reduce.8788")
#loc3659 = loc("multiply.8797")
#loc3660 = loc("reshape.8798")
#loc3661 = loc("add.8802")
#loc3662 = loc("rsqrt.8803")
#loc3663 = loc("reshape.8804")
#loc3664 = loc("broadcast.8805")
#loc3665 = loc("multiply.8806")
#loc3666 = loc("multiply.8813")
#loc3667 = loc("convert.8814")
#loc3668 = loc("reshape.8893")
#loc3669 = loc("broadcast.8897")
#loc3670 = loc("dot.8900")
#loc3671 = loc("reshape.8887")
#loc3672 = loc("reshape.8889")
#loc3673 = loc("broadcast.8904")
#loc3674 = loc("add.8905")
#loc3675 = loc("slice.8918")
#loc3676 = loc("clamp.8921")
#loc3677 = loc("add.8924")
#loc3678 = loc("slice.8906")
#loc3679 = loc("clamp.8909")
#loc3680 = loc("multiply.8911")
#loc3681 = loc("logistic.8912")
#loc3682 = loc("multiply.8913")
#loc3683 = loc("multiply.8925")
#loc3684 = loc("dot.8926")
#loc3685 = loc("reshape.8876")
#loc3686 = loc("reshape.8878")
#loc3687 = loc("broadcast.8930")
#loc3688 = loc("add.8931")
#loc3689 = loc("reshape.8932")
#loc3690 = loc("reshape.230")
#loc3691 = loc("reshape.232")
#loc3692 = loc("transpose.233")
#loc3693 = loc("dot.8816")
#loc3694 = loc("reshape.223")
#loc3695 = loc("reshape.225")
#loc3696 = loc("broadcast.8821")
#loc3697 = loc("add.8822")
#loc3699 = loc("compare.8835")
#loc3700 = loc("slice.8840")
#loc3701 = loc("convert.8841")
#loc3702 = loc("reshape.8865")
#loc3703 = loc("concatenate.8866")
#loc3704 = loc("slice.8838")
#loc3705 = loc("reduce.8847")
#loc3706 = loc("broadcast.8848")
#loc3707 = loc("subtract.8849")
#loc3708 = loc("exponential.8850")
#loc3709 = loc("reduce.8856")
#loc3710 = loc("broadcast.8857")
#loc3711 = loc("divide.8858")
#loc3713 = loc("transpose.8871")
#loc3714 = loc("reshape.8872")
#loc3715 = loc("broadcast.8934")
#loc3716 = loc("multiply.8935")
#loc3718 = loc("add.8945")
#loc3719 = loc("convert.8946")
#loc3720 = loc("power.8948")
#loc3721 = loc("reduce.8955")
#loc3722 = loc("multiply.8964")
#loc3723 = loc("reshape.8965")
#loc3724 = loc("add.8969")
#loc3725 = loc("rsqrt.8970")
#loc3726 = loc("reshape.8971")
#loc3727 = loc("broadcast.8972")
#loc3728 = loc("multiply.8973")
#loc3729 = loc("multiply.8980")
#loc3730 = loc("convert.8981")
#loc3731 = loc("reshape.9068")
#loc3732 = loc("reshape.9064")
#loc3733 = loc("reshape.9066")
#loc3734 = loc("transpose.9067")
#loc3735 = loc("dot.9069")
#loc3736 = loc("reshape.9070")
#loc3737 = loc("reshape.9060")
#loc3738 = loc("reshape.9062")
#loc3739 = loc("broadcast.9073")
#loc3740 = loc("add.9074")
#loc3741 = loc("reshape.9075")
#loc3742 = loc("transpose.9076")
#loc3743 = loc("slice.9077")
#loc3744 = loc("multiply.9094")
#loc3745 = loc("slice.9081")
#loc3746 = loc("multiply.9091")
#loc3747 = loc("subtract.9097")
#loc3748 = loc("multiply.9084")
#loc3749 = loc("multiply.9080")
#loc3750 = loc("add.9087")
#loc3751 = loc("concatenate.9098")
#loc3752 = loc("reshape.9015")
#loc3753 = loc("reshape.9017")
#loc3754 = loc("transpose.9018")
#loc3755 = loc("dot.9020")
#loc3756 = loc("reshape.9021")
#loc3757 = loc("reshape.9011")
#loc3758 = loc("reshape.9013")
#loc3759 = loc("broadcast.9024")
#loc3760 = loc("add.9025")
#loc3761 = loc("reshape.9026")
#loc3762 = loc("transpose.9027")
#loc3763 = loc("slice.9028")
#loc3764 = loc("multiply.9046")
#loc3765 = loc("slice.9033")
#loc3766 = loc("multiply.9043")
#loc3767 = loc("subtract.9049")
#loc3768 = loc("multiply.9036")
#loc3769 = loc("multiply.9031")
#loc3770 = loc("add.9039")
#loc3771 = loc("concatenate.9050")
#loc3772 = loc("broadcast.9054")
#loc3773 = loc("reshape.9055")
#loc3774 = loc("transpose.9056")
#loc3775 = loc("dot.9099")
#loc3776 = loc("multiply.9102")
#loc3777 = loc("add.9107")
#loc3778 = loc("reshape.8998")
#loc3779 = loc("reshape.9003")
#loc3780 = loc("broadcast.9004")
#loc3781 = loc("concatenate.9108")
#loc3782 = loc("reshape.9381")
#loc3783 = loc("reshape.9383")
#loc3784 = loc("convert.9384")
#loc3785 = loc("broadcast.9385")
#loc3786 = loc("reduce.9115")
#loc3787 = loc("broadcast.9151")
#loc3788 = loc("subtract.9152")
#loc3789 = loc("reduce.9158")
#loc3790 = loc("broadcast.9159")
#loc3791 = loc("subtract.9160")
#loc3792 = loc("exponential.9161")
#loc3793 = loc("reduce.9167")
#loc3794 = loc("broadcast.9168")
#loc3795 = loc("divide.9169")
#loc3796 = loc("slice.9170")
#loc3797 = loc("reshape.212")
#loc3798 = loc("reshape.214")
#loc3799 = loc("transpose.215")
#loc3800 = loc("dot.8983")
#loc3801 = loc("reshape.8984")
#loc3802 = loc("reshape.208")
#loc3803 = loc("reshape.210")
#loc3804 = loc("broadcast.8987")
#loc3805 = loc("add.8988")
#loc3806 = loc("reshape.8989")
#loc3807 = loc("transpose.8990")
#loc3808 = loc("broadcast.8994")
#loc3809 = loc("reshape.8995")
#loc3810 = loc("dot.9171")
#loc3811 = loc("transpose.9173")
#loc3812 = loc("reshape.9175")
#loc3813 = loc("reshape.202")
#loc3814 = loc("reshape.204")
#loc3815 = loc("transpose.205")
#loc3817 = loc("reshape.9177")
#loc3818 = loc("reshape.198")
#loc3819 = loc("reshape.200")
#loc3820 = loc("broadcast.9180")
#loc3821 = loc("add.9181")
#loc3822 = loc("add.9184")
#loc3823 = loc("reshape.9214")
#loc3824 = loc("reshape.9216")
#loc3825 = loc("convert.9217")
#loc3826 = loc("broadcast.9218")
#loc3827 = loc("convert.9185")
#loc3828 = loc("power.9187")
#loc3829 = loc("reduce.9194")
#loc3830 = loc("multiply.9203")
#loc3831 = loc("reshape.9204")
#loc3832 = loc("add.9208")
#loc3833 = loc("rsqrt.9209")
#loc3834 = loc("reshape.9210")
#loc3835 = loc("broadcast.9211")
#loc3836 = loc("multiply.9212")
#loc3837 = loc("multiply.9219")
#loc3838 = loc("convert.9220")
#loc3839 = loc("reshape.9299")
#loc3840 = loc("broadcast.9303")
#loc3841 = loc("dot.9306")
#loc3842 = loc("reshape.9293")
#loc3843 = loc("reshape.9295")
#loc3844 = loc("broadcast.9310")
#loc3845 = loc("add.9311")
#loc3846 = loc("slice.9324")
#loc3847 = loc("clamp.9327")
#loc3848 = loc("add.9330")
#loc3849 = loc("slice.9312")
#loc3850 = loc("clamp.9315")
#loc3851 = loc("multiply.9317")
#loc3852 = loc("logistic.9318")
#loc3853 = loc("multiply.9319")
#loc3854 = loc("multiply.9331")
#loc3855 = loc("dot.9332")
#loc3856 = loc("reshape.9282")
#loc3857 = loc("reshape.9284")
#loc3858 = loc("broadcast.9336")
#loc3859 = loc("add.9337")
#loc3860 = loc("reshape.9338")
#loc3861 = loc("reshape.188")
#loc3862 = loc("reshape.190")
#loc3863 = loc("transpose.191")
#loc3864 = loc("dot.9222")
#loc3865 = loc("reshape.181")
#loc3866 = loc("reshape.183")
#loc3867 = loc("broadcast.9227")
#loc3868 = loc("add.9228")
#loc3870 = loc("compare.9241")
#loc3871 = loc("slice.9246")
#loc3872 = loc("convert.9247")
#loc3873 = loc("reshape.9271")
#loc3874 = loc("concatenate.9272")
#loc3875 = loc("slice.9244")
#loc3876 = loc("reduce.9253")
#loc3877 = loc("broadcast.9254")
#loc3878 = loc("subtract.9255")
#loc3879 = loc("exponential.9256")
#loc3880 = loc("reduce.9262")
#loc3881 = loc("broadcast.9263")
#loc3882 = loc("divide.9264")
#loc3884 = loc("transpose.9277")
#loc3885 = loc("reshape.9278")
#loc3886 = loc("broadcast.9340")
#loc3887 = loc("multiply.9341")
#loc3889 = loc("add.9351")
#loc3890 = loc("convert.9352")
#loc3891 = loc("power.9354")
#loc3892 = loc("reduce.9361")
#loc3893 = loc("multiply.9370")
#loc3894 = loc("reshape.9371")
#loc3895 = loc("add.9375")
#loc3896 = loc("rsqrt.9376")
#loc3897 = loc("reshape.9377")
#loc3898 = loc("broadcast.9378")
#loc3899 = loc("multiply.9379")
#loc3900 = loc("multiply.9386")
#loc3901 = loc("convert.9387")
#loc3902 = loc("reshape.9474")
#loc3903 = loc("reshape.9470")
#loc3904 = loc("reshape.9472")
#loc3905 = loc("transpose.9473")
#loc3906 = loc("dot.9475")
#loc3907 = loc("reshape.9476")
#loc3908 = loc("reshape.9466")
#loc3909 = loc("reshape.9468")
#loc3910 = loc("broadcast.9479")
#loc3911 = loc("add.9480")
#loc3912 = loc("reshape.9481")
#loc3913 = loc("transpose.9482")
#loc3914 = loc("slice.9483")
#loc3915 = loc("multiply.9500")
#loc3916 = loc("slice.9487")
#loc3917 = loc("multiply.9497")
#loc3918 = loc("subtract.9503")
#loc3919 = loc("multiply.9490")
#loc3920 = loc("multiply.9486")
#loc3921 = loc("add.9493")
#loc3922 = loc("concatenate.9504")
#loc3923 = loc("reshape.9421")
#loc3924 = loc("reshape.9423")
#loc3925 = loc("transpose.9424")
#loc3926 = loc("dot.9426")
#loc3927 = loc("reshape.9427")
#loc3928 = loc("reshape.9417")
#loc3929 = loc("reshape.9419")
#loc3930 = loc("broadcast.9430")
#loc3931 = loc("add.9431")
#loc3932 = loc("reshape.9432")
#loc3933 = loc("transpose.9433")
#loc3934 = loc("slice.9434")
#loc3935 = loc("multiply.9452")
#loc3936 = loc("slice.9439")
#loc3937 = loc("multiply.9449")
#loc3938 = loc("subtract.9455")
#loc3939 = loc("multiply.9442")
#loc3940 = loc("multiply.9437")
#loc3941 = loc("add.9445")
#loc3942 = loc("concatenate.9456")
#loc3943 = loc("broadcast.9460")
#loc3944 = loc("reshape.9461")
#loc3945 = loc("transpose.9462")
#loc3946 = loc("dot.9505")
#loc3947 = loc("multiply.9508")
#loc3948 = loc("add.9513")
#loc3949 = loc("reshape.9404")
#loc3950 = loc("reshape.9409")
#loc3951 = loc("broadcast.9410")
#loc3952 = loc("concatenate.9514")
#loc3953 = loc("reshape.9787")
#loc3954 = loc("reshape.9789")
#loc3955 = loc("convert.9790")
#loc3956 = loc("broadcast.9791")
#loc3957 = loc("reduce.9521")
#loc3958 = loc("broadcast.9557")
#loc3959 = loc("subtract.9558")
#loc3960 = loc("reduce.9564")
#loc3961 = loc("broadcast.9565")
#loc3962 = loc("subtract.9566")
#loc3963 = loc("exponential.9567")
#loc3964 = loc("reduce.9573")
#loc3965 = loc("broadcast.9574")
#loc3966 = loc("divide.9575")
#loc3967 = loc("slice.9576")
#loc3968 = loc("reshape.170")
#loc3969 = loc("reshape.172")
#loc3970 = loc("transpose.173")
#loc3971 = loc("dot.9389")
#loc3972 = loc("reshape.9390")
#loc3973 = loc("reshape.166")
#loc3974 = loc("reshape.168")
#loc3975 = loc("broadcast.9393")
#loc3976 = loc("add.9394")
#loc3977 = loc("reshape.9395")
#loc3978 = loc("transpose.9396")
#loc3979 = loc("broadcast.9400")
#loc3980 = loc("reshape.9401")
#loc3981 = loc("dot.9577")
#loc3982 = loc("transpose.9579")
#loc3983 = loc("reshape.9581")
#loc3984 = loc("reshape.160")
#loc3985 = loc("reshape.162")
#loc3986 = loc("transpose.163")
#loc3988 = loc("reshape.9583")
#loc3989 = loc("reshape.156")
#loc3990 = loc("reshape.158")
#loc3991 = loc("broadcast.9586")
#loc3992 = loc("add.9587")
#loc3993 = loc("add.9590")
#loc3994 = loc("reshape.9620")
#loc3995 = loc("reshape.9622")
#loc3996 = loc("convert.9623")
#loc3997 = loc("broadcast.9624")
#loc3998 = loc("convert.9591")
#loc3999 = loc("power.9593")
#loc4000 = loc("reduce.9600")
#loc4001 = loc("multiply.9609")
#loc4002 = loc("reshape.9610")
#loc4003 = loc("add.9614")
#loc4004 = loc("rsqrt.9615")
#loc4005 = loc("reshape.9616")
#loc4006 = loc("broadcast.9617")
#loc4007 = loc("multiply.9618")
#loc4008 = loc("multiply.9625")
#loc4009 = loc("convert.9626")
#loc4010 = loc("reshape.9705")
#loc4011 = loc("broadcast.9709")
#loc4012 = loc("dot.9712")
#loc4013 = loc("reshape.9699")
#loc4014 = loc("reshape.9701")
#loc4015 = loc("broadcast.9716")
#loc4016 = loc("add.9717")
#loc4017 = loc("slice.9730")
#loc4018 = loc("clamp.9733")
#loc4019 = loc("add.9736")
#loc4020 = loc("slice.9718")
#loc4021 = loc("clamp.9721")
#loc4022 = loc("multiply.9723")
#loc4023 = loc("logistic.9724")
#loc4024 = loc("multiply.9725")
#loc4025 = loc("multiply.9737")
#loc4026 = loc("dot.9738")
#loc4027 = loc("reshape.9688")
#loc4028 = loc("reshape.9690")
#loc4029 = loc("broadcast.9742")
#loc4030 = loc("add.9743")
#loc4031 = loc("reshape.9744")
#loc4032 = loc("reshape.146")
#loc4033 = loc("reshape.148")
#loc4034 = loc("transpose.149")
#loc4035 = loc("dot.9628")
#loc4036 = loc("reshape.139")
#loc4037 = loc("reshape.141")
#loc4038 = loc("broadcast.9633")
#loc4039 = loc("add.9634")
#loc4041 = loc("compare.9647")
#loc4042 = loc("slice.9652")
#loc4043 = loc("convert.9653")
#loc4044 = loc("reshape.9677")
#loc4045 = loc("concatenate.9678")
#loc4046 = loc("slice.9650")
#loc4047 = loc("reduce.9659")
#loc4048 = loc("broadcast.9660")
#loc4049 = loc("subtract.9661")
#loc4050 = loc("exponential.9662")
#loc4051 = loc("reduce.9668")
#loc4052 = loc("broadcast.9669")
#loc4053 = loc("divide.9670")
#loc4055 = loc("transpose.9683")
#loc4056 = loc("reshape.9684")
#loc4057 = loc("broadcast.9746")
#loc4058 = loc("multiply.9747")
#loc4060 = loc("add.9757")
#loc4061 = loc("convert.9758")
#loc4062 = loc("power.9760")
#loc4063 = loc("reduce.9767")
#loc4064 = loc("multiply.9776")
#loc4065 = loc("reshape.9777")
#loc4066 = loc("add.9781")
#loc4067 = loc("rsqrt.9782")
#loc4068 = loc("reshape.9783")
#loc4069 = loc("broadcast.9784")
#loc4070 = loc("multiply.9785")
#loc4071 = loc("multiply.9792")
#loc4072 = loc("convert.9793")
#loc4073 = loc("reshape.9880")
#loc4074 = loc("reshape.9876")
#loc4075 = loc("reshape.9878")
#loc4076 = loc("transpose.9879")
#loc4077 = loc("dot.9881")
#loc4078 = loc("reshape.9882")
#loc4079 = loc("reshape.9872")
#loc4080 = loc("reshape.9874")
#loc4081 = loc("broadcast.9885")
#loc4082 = loc("add.9886")
#loc4083 = loc("reshape.9887")
#loc4084 = loc("transpose.9888")
#loc4085 = loc("slice.9889")
#loc4086 = loc("multiply.9906")
#loc4087 = loc("slice.9893")
#loc4088 = loc("multiply.9903")
#loc4089 = loc("subtract.9909")
#loc4090 = loc("multiply.9896")
#loc4091 = loc("multiply.9892")
#loc4092 = loc("add.9899")
#loc4093 = loc("concatenate.9910")
#loc4094 = loc("reshape.9827")
#loc4095 = loc("reshape.9829")
#loc4096 = loc("transpose.9830")
#loc4097 = loc("dot.9832")
#loc4098 = loc("reshape.9833")
#loc4099 = loc("reshape.9823")
#loc4100 = loc("reshape.9825")
#loc4101 = loc("broadcast.9836")
#loc4102 = loc("add.9837")
#loc4103 = loc("reshape.9838")
#loc4104 = loc("transpose.9839")
#loc4105 = loc("slice.9840")
#loc4106 = loc("multiply.9858")
#loc4107 = loc("slice.9845")
#loc4108 = loc("multiply.9855")
#loc4109 = loc("subtract.9861")
#loc4110 = loc("multiply.9848")
#loc4111 = loc("multiply.9843")
#loc4112 = loc("add.9851")
#loc4113 = loc("concatenate.9862")
#loc4114 = loc("broadcast.9866")
#loc4115 = loc("reshape.9867")
#loc4116 = loc("transpose.9868")
#loc4117 = loc("dot.9911")
#loc4118 = loc("multiply.9914")
#loc4119 = loc("add.9919")
#loc4120 = loc("reshape.9810")
#loc4121 = loc("reshape.9815")
#loc4122 = loc("broadcast.9816")
#loc4123 = loc("concatenate.9920")
#loc4124 = loc("reshape.10193")
#loc4125 = loc("reshape.10195")
#loc4126 = loc("convert.10196")
#loc4127 = loc("broadcast.10197")
#loc4128 = loc("reduce.9927")
#loc4129 = loc("broadcast.9963")
#loc4130 = loc("subtract.9964")
#loc4131 = loc("reduce.9970")
#loc4132 = loc("broadcast.9971")
#loc4133 = loc("subtract.9972")
#loc4134 = loc("exponential.9973")
#loc4135 = loc("reduce.9979")
#loc4136 = loc("broadcast.9980")
#loc4137 = loc("divide.9981")
#loc4138 = loc("slice.9982")
#loc4139 = loc("reshape.128")
#loc4140 = loc("reshape.130")
#loc4141 = loc("transpose.131")
#loc4142 = loc("dot.9795")
#loc4143 = loc("reshape.9796")
#loc4144 = loc("reshape.124")
#loc4145 = loc("reshape.126")
#loc4146 = loc("broadcast.9799")
#loc4147 = loc("add.9800")
#loc4148 = loc("reshape.9801")
#loc4149 = loc("transpose.9802")
#loc4150 = loc("broadcast.9806")
#loc4151 = loc("reshape.9807")
#loc4152 = loc("dot.9983")
#loc4153 = loc("transpose.9985")
#loc4154 = loc("reshape.9987")
#loc4155 = loc("reshape.118")
#loc4156 = loc("reshape.120")
#loc4157 = loc("transpose.121")
#loc4159 = loc("reshape.9989")
#loc4160 = loc("reshape.114")
#loc4161 = loc("reshape.116")
#loc4162 = loc("broadcast.9992")
#loc4163 = loc("add.9993")
#loc4164 = loc("add.9996")
#loc4165 = loc("reshape.10026")
#loc4166 = loc("reshape.10028")
#loc4167 = loc("convert.10029")
#loc4168 = loc("broadcast.10030")
#loc4169 = loc("convert.9997")
#loc4170 = loc("power.9999")
#loc4171 = loc("reduce.10006")
#loc4172 = loc("multiply.10015")
#loc4173 = loc("reshape.10016")
#loc4174 = loc("add.10020")
#loc4175 = loc("rsqrt.10021")
#loc4176 = loc("reshape.10022")
#loc4177 = loc("broadcast.10023")
#loc4178 = loc("multiply.10024")
#loc4179 = loc("multiply.10031")
#loc4180 = loc("convert.10032")
#loc4181 = loc("reshape.10111")
#loc4182 = loc("broadcast.10115")
#loc4183 = loc("dot.10118")
#loc4184 = loc("reshape.10105")
#loc4185 = loc("reshape.10107")
#loc4186 = loc("broadcast.10122")
#loc4187 = loc("add.10123")
#loc4188 = loc("slice.10136")
#loc4189 = loc("clamp.10139")
#loc4190 = loc("add.10142")
#loc4191 = loc("slice.10124")
#loc4192 = loc("clamp.10127")
#loc4193 = loc("multiply.10129")
#loc4194 = loc("logistic.10130")
#loc4195 = loc("multiply.10131")
#loc4196 = loc("multiply.10143")
#loc4197 = loc("dot.10144")
#loc4198 = loc("reshape.10094")
#loc4199 = loc("reshape.10096")
#loc4200 = loc("broadcast.10148")
#loc4201 = loc("add.10149")
#loc4202 = loc("reshape.10150")
#loc4203 = loc("reshape.104")
#loc4204 = loc("reshape.106")
#loc4205 = loc("transpose.107")
#loc4206 = loc("dot.10034")
#loc4207 = loc("reshape.97")
#loc4208 = loc("reshape.99")
#loc4209 = loc("broadcast.10039")
#loc4210 = loc("add.10040")
#loc4212 = loc("compare.10053")
#loc4213 = loc("slice.10058")
#loc4214 = loc("convert.10059")
#loc4215 = loc("reshape.10083")
#loc4216 = loc("concatenate.10084")
#loc4217 = loc("slice.10056")
#loc4218 = loc("reduce.10065")
#loc4219 = loc("broadcast.10066")
#loc4220 = loc("subtract.10067")
#loc4221 = loc("exponential.10068")
#loc4222 = loc("reduce.10074")
#loc4223 = loc("broadcast.10075")
#loc4224 = loc("divide.10076")
#loc4226 = loc("transpose.10089")
#loc4227 = loc("reshape.10090")
#loc4228 = loc("broadcast.10152")
#loc4229 = loc("multiply.10153")
#loc4231 = loc("add.10163")
#loc4232 = loc("convert.10164")
#loc4233 = loc("power.10166")
#loc4234 = loc("reduce.10173")
#loc4235 = loc("multiply.10182")
#loc4236 = loc("reshape.10183")
#loc4237 = loc("add.10187")
#loc4238 = loc("rsqrt.10188")
#loc4239 = loc("reshape.10189")
#loc4240 = loc("broadcast.10190")
#loc4241 = loc("multiply.10191")
#loc4242 = loc("multiply.10198")
#loc4243 = loc("convert.10199")
#loc4244 = loc("reshape.10286")
#loc4245 = loc("reshape.10282")
#loc4246 = loc("reshape.10284")
#loc4247 = loc("transpose.10285")
#loc4248 = loc("dot.10287")
#loc4249 = loc("reshape.10288")
#loc4250 = loc("reshape.10278")
#loc4251 = loc("reshape.10280")
#loc4252 = loc("broadcast.10291")
#loc4253 = loc("add.10292")
#loc4254 = loc("reshape.10293")
#loc4255 = loc("transpose.10294")
#loc4256 = loc("slice.10295")
#loc4257 = loc("multiply.10312")
#loc4258 = loc("slice.10299")
#loc4259 = loc("multiply.10309")
#loc4260 = loc("subtract.10315")
#loc4261 = loc("multiply.10302")
#loc4262 = loc("multiply.10298")
#loc4263 = loc("add.10305")
#loc4264 = loc("concatenate.10316")
#loc4265 = loc("reshape.10233")
#loc4266 = loc("reshape.10235")
#loc4267 = loc("transpose.10236")
#loc4268 = loc("dot.10238")
#loc4269 = loc("reshape.10239")
#loc4270 = loc("reshape.10229")
#loc4271 = loc("reshape.10231")
#loc4272 = loc("broadcast.10242")
#loc4273 = loc("add.10243")
#loc4274 = loc("reshape.10244")
#loc4275 = loc("transpose.10245")
#loc4276 = loc("slice.10246")
#loc4277 = loc("multiply.10264")
#loc4278 = loc("slice.10251")
#loc4279 = loc("multiply.10261")
#loc4280 = loc("subtract.10267")
#loc4281 = loc("multiply.10254")
#loc4282 = loc("multiply.10249")
#loc4283 = loc("add.10257")
#loc4284 = loc("concatenate.10268")
#loc4285 = loc("broadcast.10272")
#loc4286 = loc("reshape.10273")
#loc4287 = loc("transpose.10274")
#loc4288 = loc("dot.10317")
#loc4289 = loc("multiply.10320")
#loc4290 = loc("add.10325")
#loc4291 = loc("reshape.10216")
#loc4292 = loc("reshape.10221")
#loc4293 = loc("broadcast.10222")
#loc4294 = loc("concatenate.10326")
#loc4295 = loc("reshape.10599")
#loc4296 = loc("reshape.10601")
#loc4297 = loc("convert.10602")
#loc4298 = loc("broadcast.10603")
#loc4299 = loc("reduce.10333")
#loc4300 = loc("broadcast.10369")
#loc4301 = loc("subtract.10370")
#loc4302 = loc("reduce.10376")
#loc4303 = loc("broadcast.10377")
#loc4304 = loc("subtract.10378")
#loc4305 = loc("exponential.10379")
#loc4306 = loc("reduce.10385")
#loc4307 = loc("broadcast.10386")
#loc4308 = loc("divide.10387")
#loc4309 = loc("slice.10388")
#loc4310 = loc("reshape.86")
#loc4311 = loc("reshape.88")
#loc4312 = loc("transpose.89")
#loc4313 = loc("dot.10201")
#loc4314 = loc("reshape.10202")
#loc4315 = loc("reshape.82")
#loc4316 = loc("reshape.84")
#loc4317 = loc("broadcast.10205")
#loc4318 = loc("add.10206")
#loc4319 = loc("reshape.10207")
#loc4320 = loc("transpose.10208")
#loc4321 = loc("broadcast.10212")
#loc4322 = loc("reshape.10213")
#loc4323 = loc("dot.10389")
#loc4324 = loc("transpose.10391")
#loc4325 = loc("reshape.10393")
#loc4326 = loc("reshape.76")
#loc4327 = loc("reshape.78")
#loc4328 = loc("transpose.79")
#loc4330 = loc("reshape.10395")
#loc4331 = loc("reshape.72")
#loc4332 = loc("reshape.74")
#loc4333 = loc("broadcast.10398")
#loc4334 = loc("add.10399")
#loc4335 = loc("add.10402")
#loc4336 = loc("reshape.10432")
#loc4337 = loc("reshape.10434")
#loc4338 = loc("convert.10435")
#loc4339 = loc("broadcast.10436")
#loc4340 = loc("convert.10403")
#loc4341 = loc("power.10405")
#loc4342 = loc("reduce.10412")
#loc4343 = loc("multiply.10421")
#loc4344 = loc("reshape.10422")
#loc4345 = loc("add.10426")
#loc4346 = loc("rsqrt.10427")
#loc4347 = loc("reshape.10428")
#loc4348 = loc("broadcast.10429")
#loc4349 = loc("multiply.10430")
#loc4350 = loc("multiply.10437")
#loc4351 = loc("convert.10438")
#loc4352 = loc("reshape.10517")
#loc4353 = loc("broadcast.10521")
#loc4354 = loc("dot.10524")
#loc4355 = loc("reshape.10511")
#loc4356 = loc("reshape.10513")
#loc4357 = loc("broadcast.10528")
#loc4358 = loc("add.10529")
#loc4359 = loc("slice.10542")
#loc4360 = loc("clamp.10545")
#loc4361 = loc("add.10548")
#loc4362 = loc("slice.10530")
#loc4363 = loc("clamp.10533")
#loc4364 = loc("multiply.10535")
#loc4365 = loc("logistic.10536")
#loc4366 = loc("multiply.10537")
#loc4367 = loc("multiply.10549")
#loc4368 = loc("dot.10550")
#loc4369 = loc("reshape.10500")
#loc4370 = loc("reshape.10502")
#loc4371 = loc("broadcast.10554")
#loc4372 = loc("add.10555")
#loc4373 = loc("reshape.10556")
#loc4374 = loc("reshape.62")
#loc4375 = loc("reshape.64")
#loc4376 = loc("transpose.65")
#loc4377 = loc("dot.10440")
#loc4378 = loc("reshape.55")
#loc4379 = loc("reshape.57")
#loc4380 = loc("broadcast.10445")
#loc4381 = loc("add.10446")
#loc4383 = loc("compare.10459")
#loc4384 = loc("slice.10464")
#loc4385 = loc("convert.10465")
#loc4386 = loc("reshape.10489")
#loc4387 = loc("concatenate.10490")
#loc4388 = loc("slice.10462")
#loc4389 = loc("reduce.10471")
#loc4390 = loc("broadcast.10472")
#loc4391 = loc("subtract.10473")
#loc4392 = loc("exponential.10474")
#loc4393 = loc("reduce.10480")
#loc4394 = loc("broadcast.10481")
#loc4395 = loc("divide.10482")
#loc4397 = loc("transpose.10495")
#loc4398 = loc("reshape.10496")
#loc4399 = loc("broadcast.10558")
#loc4400 = loc("multiply.10559")
#loc4402 = loc("add.10569")
#loc4403 = loc("convert.10570")
#loc4404 = loc("power.10572")
#loc4405 = loc("reduce.10579")
#loc4406 = loc("multiply.10588")
#loc4407 = loc("reshape.10589")
#loc4408 = loc("add.10593")
#loc4409 = loc("rsqrt.10594")
#loc4410 = loc("reshape.10595")
#loc4411 = loc("broadcast.10596")
#loc4412 = loc("multiply.10597")
#loc4413 = loc("multiply.10604")
#loc4414 = loc("convert.10605")
#loc4415 = loc("reshape.10692")
#loc4416 = loc("reshape.10688")
#loc4417 = loc("reshape.10690")
#loc4418 = loc("transpose.10691")
#loc4419 = loc("dot.10693")
#loc4420 = loc("reshape.10694")
#loc4421 = loc("reshape.10684")
#loc4422 = loc("reshape.10686")
#loc4423 = loc("broadcast.10697")
#loc4424 = loc("add.10698")
#loc4425 = loc("reshape.10699")
#loc4426 = loc("transpose.10700")
#loc4427 = loc("slice.10701")
#loc4428 = loc("multiply.10718")
#loc4429 = loc("slice.10705")
#loc4430 = loc("multiply.10715")
#loc4431 = loc("subtract.10721")
#loc4432 = loc("multiply.10708")
#loc4433 = loc("multiply.10704")
#loc4434 = loc("add.10711")
#loc4435 = loc("concatenate.10722")
#loc4436 = loc("reshape.10639")
#loc4437 = loc("reshape.10641")
#loc4438 = loc("transpose.10642")
#loc4439 = loc("dot.10644")
#loc4440 = loc("reshape.10645")
#loc4441 = loc("reshape.10635")
#loc4442 = loc("reshape.10637")
#loc4443 = loc("broadcast.10648")
#loc4444 = loc("add.10649")
#loc4445 = loc("reshape.10650")
#loc4446 = loc("transpose.10651")
#loc4447 = loc("slice.10652")
#loc4448 = loc("multiply.10670")
#loc4449 = loc("slice.10657")
#loc4450 = loc("multiply.10667")
#loc4451 = loc("subtract.10673")
#loc4452 = loc("multiply.10660")
#loc4453 = loc("multiply.10655")
#loc4454 = loc("add.10663")
#loc4455 = loc("concatenate.10674")
#loc4456 = loc("broadcast.10678")
#loc4457 = loc("reshape.10679")
#loc4458 = loc("transpose.10680")
#loc4459 = loc("dot.10723")
#loc4460 = loc("multiply.10726")
#loc4461 = loc("add.10731")
#loc4462 = loc("reshape.10622")
#loc4463 = loc("reshape.10627")
#loc4464 = loc("broadcast.10628")
#loc4465 = loc("concatenate.10732")
#loc4466 = loc("reshape.11005")
#loc4467 = loc("reshape.11007")
#loc4468 = loc("convert.11008")
#loc4469 = loc("broadcast.11009")
#loc4470 = loc("reduce.10739")
#loc4471 = loc("broadcast.10775")
#loc4472 = loc("subtract.10776")
#loc4473 = loc("reduce.10782")
#loc4474 = loc("broadcast.10783")
#loc4475 = loc("subtract.10784")
#loc4476 = loc("exponential.10785")
#loc4477 = loc("reduce.10791")
#loc4478 = loc("broadcast.10792")
#loc4479 = loc("divide.10793")
#loc4480 = loc("slice.10794")
#loc4481 = loc("reshape.44")
#loc4482 = loc("reshape.46")
#loc4483 = loc("transpose.47")
#loc4484 = loc("dot.10607")
#loc4485 = loc("reshape.10608")
#loc4486 = loc("reshape.40")
#loc4487 = loc("reshape.42")
#loc4488 = loc("broadcast.10611")
#loc4489 = loc("add.10612")
#loc4490 = loc("reshape.10613")
#loc4491 = loc("transpose.10614")
#loc4492 = loc("broadcast.10618")
#loc4493 = loc("reshape.10619")
#loc4494 = loc("dot.10795")
#loc4495 = loc("transpose.10797")
#loc4496 = loc("reshape.10799")
#loc4497 = loc("reshape.34")
#loc4498 = loc("reshape.36")
#loc4499 = loc("transpose.37")
#loc4501 = loc("reshape.10801")
#loc4502 = loc("reshape.30")
#loc4503 = loc("reshape.32")
#loc4504 = loc("broadcast.10804")
#loc4505 = loc("add.10805")
#loc4506 = loc("add.10808")
#loc4507 = loc("reshape.10838")
#loc4508 = loc("reshape.10840")
#loc4509 = loc("convert.10841")
#loc4510 = loc("broadcast.10842")
#loc4511 = loc("convert.10809")
#loc4512 = loc("power.10811")
#loc4513 = loc("reduce.10818")
#loc4514 = loc("multiply.10827")
#loc4515 = loc("reshape.10828")
#loc4516 = loc("add.10832")
#loc4517 = loc("rsqrt.10833")
#loc4518 = loc("reshape.10834")
#loc4519 = loc("broadcast.10835")
#loc4520 = loc("multiply.10836")
#loc4521 = loc("multiply.10843")
#loc4522 = loc("convert.10844")
#loc4523 = loc("reshape.10923")
#loc4524 = loc("broadcast.10927")
#loc4525 = loc("dot.10930")
#loc4526 = loc("reshape.10917")
#loc4527 = loc("reshape.10919")
#loc4528 = loc("broadcast.10934")
#loc4529 = loc("add.10935")
#loc4530 = loc("slice.10948")
#loc4531 = loc("clamp.10951")
#loc4532 = loc("add.10954")
#loc4533 = loc("slice.10936")
#loc4534 = loc("clamp.10939")
#loc4535 = loc("multiply.10941")
#loc4536 = loc("logistic.10942")
#loc4537 = loc("multiply.10943")
#loc4538 = loc("multiply.10955")
#loc4539 = loc("dot.10956")
#loc4540 = loc("reshape.10906")
#loc4541 = loc("reshape.10908")
#loc4542 = loc("broadcast.10960")
#loc4543 = loc("add.10961")
#loc4544 = loc("reshape.10962")
#loc4545 = loc("reshape.20")
#loc4546 = loc("reshape.22")
#loc4547 = loc("transpose.23")
#loc4548 = loc("dot.10846")
#loc4549 = loc("reshape.13")
#loc4550 = loc("reshape.15")
#loc4551 = loc("broadcast.10851")
#loc4552 = loc("add.10852")
#loc4554 = loc("compare.10865")
#loc4555 = loc("slice.10870")
#loc4556 = loc("convert.10871")
#loc4557 = loc("reshape.10895")
#loc4558 = loc("concatenate.10896")
#loc4559 = loc("slice.10868")
#loc4560 = loc("reduce.10877")
#loc4561 = loc("broadcast.10878")
#loc4562 = loc("subtract.10879")
#loc4563 = loc("exponential.10880")
#loc4564 = loc("reduce.10886")
#loc4565 = loc("broadcast.10887")
#loc4566 = loc("divide.10888")
#loc4568 = loc("transpose.10901")
#loc4569 = loc("reshape.10902")
#loc4570 = loc("broadcast.10964")
#loc4571 = loc("multiply.10965")
#loc4573 = loc("add.10975")
#loc4574 = loc("convert.10976")
#loc4575 = loc("power.10978")
#loc4576 = loc("reduce.10985")
#loc4577 = loc("multiply.10994")
#loc4578 = loc("reshape.10995")
#loc4579 = loc("add.10999")
#loc4580 = loc("rsqrt.11000")
#loc4581 = loc("reshape.11001")
#loc4582 = loc("broadcast.11002")
#loc4583 = loc("multiply.11003")
#loc4584 = loc("multiply.11010")
#loc4585 = loc("convert.11011")
#loc4586 = loc("reshape.11012")
#loc4587 = loc("reshape.2")
#loc4588 = loc("reshape.4")
#loc4589 = loc("transpose.5")
#loc4590 = loc("dot.11013")
#loc4591 = loc("reshape.11014")
------------------ END OF MLIR MODULE ------------------
