#loc1 = loc("p0.1")
#loc2 = loc("p1.12")
#loc3 = loc("p2.19")
#loc4 = loc("p3.29")
#loc5 = loc("p4.33")
#loc6 = loc("p5.39")
#loc7 = loc("p6.43")
#loc8 = loc("p7.54")
#loc9 = loc("p8.61")
#loc10 = loc("p9.71")
#loc11 = loc("p10.75")
#loc12 = loc("p11.81")
#loc13 = loc("p12.85")
#loc14 = loc("p13.96")
#loc15 = loc("p14.103")
#loc16 = loc("p15.113")
#loc17 = loc("p16.117")
#loc18 = loc("p17.123")
#loc19 = loc("p18.127")
#loc20 = loc("p19.138")
#loc21 = loc("p20.145")
#loc22 = loc("p21.155")
#loc23 = loc("p22.159")
#loc24 = loc("p23.165")
#loc25 = loc("p24.169")
#loc26 = loc("p25.180")
#loc27 = loc("p26.187")
#loc28 = loc("p27.197")
#loc29 = loc("p28.201")
#loc30 = loc("p29.207")
#loc31 = loc("p30.211")
#loc32 = loc("p31.222")
#loc33 = loc("p32.229")
#loc34 = loc("p33.239")
#loc35 = loc("p34.243")
#loc36 = loc("p35.249")
#loc37 = loc("p36.253")
#loc38 = loc("p37.264")
#loc39 = loc("p38.271")
#loc40 = loc("p39.281")
#loc41 = loc("p40.285")
#loc42 = loc("p41.291")
#loc43 = loc("p42.295")
#loc44 = loc("p43.306")
#loc45 = loc("p44.313")
#loc46 = loc("p45.323")
#loc47 = loc("p46.327")
#loc48 = loc("p47.333")
#loc49 = loc("p48.337")
#loc50 = loc("p49.348")
#loc51 = loc("p50.355")
#loc52 = loc("p51.365")
#loc53 = loc("p52.369")
#loc54 = loc("p53.375")
#loc55 = loc("p54.379")
#loc56 = loc("p55.390")
#loc57 = loc("p56.397")
#loc58 = loc("p57.407")
#loc59 = loc("p58.411")
#loc60 = loc("p59.417")
#loc61 = loc("p60.421")
#loc62 = loc("p61.432")
#loc63 = loc("p62.439")
#loc64 = loc("p63.449")
#loc65 = loc("p64.453")
#loc66 = loc("p65.459")
#loc67 = loc("p66.463")
#loc68 = loc("p67.474")
#loc69 = loc("p68.481")
#loc70 = loc("p69.491")
#loc71 = loc("p70.495")
#loc72 = loc("p71.501")
#loc73 = loc("p72.505")
#loc74 = loc("p73.516")
#loc75 = loc("p74.523")
#loc76 = loc("p75.533")
#loc77 = loc("p76.537")
#loc78 = loc("p77.543")
#loc79 = loc("p78.547")
#loc80 = loc("p79.558")
#loc81 = loc("p80.565")
#loc82 = loc("p81.575")
#loc83 = loc("p82.579")
#loc84 = loc("p83.585")
#loc85 = loc("p84.589")
#loc86 = loc("p85.600")
#loc87 = loc("p86.607")
#loc88 = loc("p87.617")
#loc89 = loc("p88.621")
#loc90 = loc("p89.627")
#loc91 = loc("p90.631")
#loc92 = loc("p91.642")
#loc93 = loc("p92.649")
#loc94 = loc("p93.659")
#loc95 = loc("p94.663")
#loc96 = loc("p95.669")
#loc97 = loc("p96.673")
#loc98 = loc("p97.684")
#loc99 = loc("p98.691")
#loc100 = loc("p99.701")
#loc101 = loc("p100.705")
#loc102 = loc("p101.711")
#loc103 = loc("p102.715")
#loc104 = loc("p103.726")
#loc105 = loc("p104.733")
#loc106 = loc("p105.743")
#loc107 = loc("p106.747")
#loc108 = loc("p107.753")
#loc109 = loc("p108.757")
#loc110 = loc("p109.768")
#loc111 = loc("p110.775")
#loc112 = loc("p111.785")
#loc113 = loc("p112.789")
#loc114 = loc("p113.795")
#loc115 = loc("p114.799")
#loc116 = loc("p115.810")
#loc117 = loc("p116.817")
#loc118 = loc("p117.827")
#loc119 = loc("p118.831")
#loc120 = loc("p119.837")
#loc121 = loc("p120.841")
#loc122 = loc("p121.852")
#loc123 = loc("p122.859")
#loc124 = loc("p123.869")
#loc125 = loc("p124.873")
#loc126 = loc("p125.879")
#loc127 = loc("p126.883")
#loc128 = loc("p127.894")
#loc129 = loc("p128.901")
#loc130 = loc("p129.911")
#loc131 = loc("p130.915")
#loc132 = loc("p131.921")
#loc133 = loc("p132.925")
#loc134 = loc("p133.936")
#loc135 = loc("p134.943")
#loc136 = loc("p135.953")
#loc137 = loc("p136.957")
#loc138 = loc("p137.963")
#loc139 = loc("p138.967")
#loc140 = loc("p139.978")
#loc141 = loc("p140.985")
#loc142 = loc("p141.995")
#loc143 = loc("p142.999")
#loc144 = loc("p143.1005")
#loc145 = loc("p144.1009")
#loc146 = loc("p145.1020")
#loc147 = loc("p146.1027")
#loc148 = loc("p147.1037")
#loc149 = loc("p148.1041")
#loc150 = loc("p149.1047")
#loc151 = loc("p150.1051")
#loc152 = loc("p151.1062")
#loc153 = loc("p152.1069")
#loc154 = loc("p153.1079")
#loc155 = loc("p154.1083")
#loc156 = loc("p155.1089")
#loc157 = loc("p156.1093")
#loc158 = loc("p157.1104")
#loc159 = loc("p158.1111")
#loc160 = loc("p159.1121")
#loc161 = loc("p160.1125")
#loc162 = loc("p161.1131")
#loc163 = loc("p162.1135")
#loc164 = loc("p163.1146")
#loc165 = loc("p164.1153")
#loc166 = loc("p165.1163")
#loc167 = loc("p166.1167")
#loc168 = loc("p167.1173")
#loc169 = loc("p168.1177")
#loc170 = loc("p169.1188")
#loc171 = loc("p170.1195")
#loc172 = loc("p171.1205")
#loc173 = loc("p172.1209")
#loc174 = loc("p173.1215")
#loc175 = loc("p174.1219")
#loc176 = loc("p175.1230")
#loc177 = loc("p176.1237")
#loc178 = loc("p177.1247")
#loc179 = loc("p178.1251")
#loc180 = loc("p179.1257")
#loc181 = loc("p180.1261")
#loc182 = loc("p181.1272")
#loc183 = loc("p182.1279")
#loc184 = loc("p183.1289")
#loc185 = loc("p184.1293")
#loc186 = loc("p185.1299")
#loc187 = loc("p186.1303")
#loc188 = loc("p187.1314")
#loc189 = loc("p188.1321")
#loc190 = loc("p189.1331")
#loc191 = loc("p190.1335")
#loc192 = loc("p191.1341")
#loc193 = loc("p192.1345")
#loc194 = loc("p193.1356")
#loc195 = loc("p194.1363")
#loc196 = loc("p195.1373")
#loc197 = loc("p196.1377")
#loc198 = loc("p197.1383")
#loc199 = loc("p198.1387")
#loc200 = loc("p199.1398")
#loc201 = loc("p200.1405")
#loc202 = loc("p201.1415")
#loc203 = loc("p202.1419")
#loc204 = loc("p203.1425")
#loc205 = loc("p204.1429")
#loc206 = loc("p205.1440")
#loc207 = loc("p206.1447")
#loc208 = loc("p207.1457")
#loc209 = loc("p208.1461")
#loc210 = loc("p209.1467")
#loc211 = loc("p210.1471")
#loc212 = loc("p211.1482")
#loc213 = loc("p212.1489")
#loc214 = loc("p213.1499")
#loc215 = loc("p214.1503")
#loc216 = loc("p215.1509")
#loc217 = loc("p216.1513")
#loc218 = loc("p217.1521")
#loc219 = loc("p218.1526")
#loc220 = loc("p219.1561")
#loc221 = loc("p220.1584")
#loc222 = loc("p221.1640")
#loc223 = loc("p222.1663")
#loc224 = loc("p223.1704")
#loc225 = loc("p224.1720")
#loc226 = loc("p225.1724")
#loc227 = loc("p226.1774")
#loc228 = loc("p227.1778")
#loc229 = loc("p228.1928")
#loc230 = loc("p229.1996")
#loc231 = loc("p230.2001")
#loc232 = loc("p231.2007")
#loc233 = loc("p232.2012")
#loc234 = loc("p233.2095")
#loc235 = loc("p234.2118")
#loc236 = loc("p235.2206")
#loc237 = loc("p236.2210")
#loc238 = loc("p237.2255")
#loc239 = loc("p238.2259")
#loc240 = loc("p239.2409")
#loc241 = loc("p240.2477")
#loc242 = loc("p241.2482")
#loc243 = loc("p242.2488")
#loc244 = loc("p243.2493")
#loc245 = loc("p244.2576")
#loc246 = loc("p245.2599")
#loc247 = loc("p246.2612")
#loc248 = loc("p247.2616")
#loc249 = loc("p248.2661")
#loc250 = loc("p249.2665")
#loc251 = loc("p250.2815")
#loc252 = loc("p251.2883")
#loc253 = loc("p252.2888")
#loc254 = loc("p253.2894")
#loc255 = loc("p254.2899")
#loc256 = loc("p255.2982")
#loc257 = loc("p256.3005")
#loc258 = loc("p257.3018")
#loc259 = loc("p258.3022")
#loc260 = loc("p259.3067")
#loc261 = loc("p260.3071")
#loc262 = loc("p261.3221")
#loc263 = loc("p262.3289")
#loc264 = loc("p263.3294")
#loc265 = loc("p264.3300")
#loc266 = loc("p265.3305")
#loc267 = loc("p266.3388")
#loc268 = loc("p267.3411")
#loc269 = loc("p268.3424")
#loc270 = loc("p269.3428")
#loc271 = loc("p270.3473")
#loc272 = loc("p271.3477")
#loc273 = loc("p272.3627")
#loc274 = loc("p273.3695")
#loc275 = loc("p274.3700")
#loc276 = loc("p275.3706")
#loc277 = loc("p276.3711")
#loc278 = loc("p277.3794")
#loc279 = loc("p278.3817")
#loc280 = loc("p279.3830")
#loc281 = loc("p280.3834")
#loc282 = loc("p281.3879")
#loc283 = loc("p282.3883")
#loc284 = loc("p283.4033")
#loc285 = loc("p284.4101")
#loc286 = loc("p285.4106")
#loc287 = loc("p286.4112")
#loc288 = loc("p287.4117")
#loc289 = loc("p288.4200")
#loc290 = loc("p289.4223")
#loc291 = loc("p290.4236")
#loc292 = loc("p291.4240")
#loc293 = loc("p292.4285")
#loc294 = loc("p293.4289")
#loc295 = loc("p294.4439")
#loc296 = loc("p295.4507")
#loc297 = loc("p296.4512")
#loc298 = loc("p297.4518")
#loc299 = loc("p298.4523")
#loc300 = loc("p299.4606")
#loc301 = loc("p300.4629")
#loc302 = loc("p301.4642")
#loc303 = loc("p302.4646")
#loc304 = loc("p303.4691")
#loc305 = loc("p304.4695")
#loc306 = loc("p305.4845")
#loc307 = loc("p306.4913")
#loc308 = loc("p307.4918")
#loc309 = loc("p308.4924")
#loc310 = loc("p309.4929")
#loc311 = loc("p310.5012")
#loc312 = loc("p311.5035")
#loc313 = loc("p312.5048")
#loc314 = loc("p313.5052")
#loc315 = loc("p314.5097")
#loc316 = loc("p315.5101")
#loc317 = loc("p316.5251")
#loc318 = loc("p317.5319")
#loc319 = loc("p318.5324")
#loc320 = loc("p319.5330")
#loc321 = loc("p320.5335")
#loc322 = loc("p321.5418")
#loc323 = loc("p322.5441")
#loc324 = loc("p323.5454")
#loc325 = loc("p324.5458")
#loc326 = loc("p325.5503")
#loc327 = loc("p326.5507")
#loc328 = loc("p327.5657")
#loc329 = loc("p328.5725")
#loc330 = loc("p329.5730")
#loc331 = loc("p330.5736")
#loc332 = loc("p331.5741")
#loc333 = loc("p332.5824")
#loc334 = loc("p333.5847")
#loc335 = loc("p334.5860")
#loc336 = loc("p335.5864")
#loc337 = loc("p336.5909")
#loc338 = loc("p337.5913")
#loc339 = loc("p338.6063")
#loc340 = loc("p339.6131")
#loc341 = loc("p340.6136")
#loc342 = loc("p341.6142")
#loc343 = loc("p342.6147")
#loc344 = loc("p343.6230")
#loc345 = loc("p344.6253")
#loc346 = loc("p345.6266")
#loc347 = loc("p346.6270")
#loc348 = loc("p347.6315")
#loc349 = loc("p348.6319")
#loc350 = loc("p349.6469")
#loc351 = loc("p350.6537")
#loc352 = loc("p351.6542")
#loc353 = loc("p352.6548")
#loc354 = loc("p353.6553")
#loc355 = loc("p354.6636")
#loc356 = loc("p355.6659")
#loc357 = loc("p356.6672")
#loc358 = loc("p357.6676")
#loc359 = loc("p358.6721")
#loc360 = loc("p359.6725")
#loc361 = loc("p360.6875")
#loc362 = loc("p361.6943")
#loc363 = loc("p362.6948")
#loc364 = loc("p363.6954")
#loc365 = loc("p364.6959")
#loc366 = loc("p365.7042")
#loc367 = loc("p366.7065")
#loc368 = loc("p367.7078")
#loc369 = loc("p368.7082")
#loc370 = loc("p369.7127")
#loc371 = loc("p370.7131")
#loc372 = loc("p371.7281")
#loc373 = loc("p372.7349")
#loc374 = loc("p373.7354")
#loc375 = loc("p374.7360")
#loc376 = loc("p375.7365")
#loc377 = loc("p376.7448")
#loc378 = loc("p377.7471")
#loc379 = loc("p378.7484")
#loc380 = loc("p379.7488")
#loc381 = loc("p380.7533")
#loc382 = loc("p381.7537")
#loc383 = loc("p382.7687")
#loc384 = loc("p383.7755")
#loc385 = loc("p384.7760")
#loc386 = loc("p385.7766")
#loc387 = loc("p386.7771")
#loc388 = loc("p387.7854")
#loc389 = loc("p388.7877")
#loc390 = loc("p389.7890")
#loc391 = loc("p390.7894")
#loc392 = loc("p391.7939")
#loc393 = loc("p392.7943")
#loc394 = loc("p393.8093")
#loc395 = loc("p394.8161")
#loc396 = loc("p395.8166")
#loc397 = loc("p396.8172")
#loc398 = loc("p397.8177")
#loc399 = loc("p398.8260")
#loc400 = loc("p399.8283")
#loc401 = loc("p400.8296")
#loc402 = loc("p401.8300")
#loc403 = loc("p402.8345")
#loc404 = loc("p403.8349")
#loc405 = loc("p404.8499")
#loc406 = loc("p405.8567")
#loc407 = loc("p406.8572")
#loc408 = loc("p407.8578")
#loc409 = loc("p408.8583")
#loc410 = loc("p409.8666")
#loc411 = loc("p410.8689")
#loc412 = loc("p411.8702")
#loc413 = loc("p412.8706")
#loc414 = loc("p413.8751")
#loc415 = loc("p414.8755")
#loc416 = loc("p415.8905")
#loc417 = loc("p416.8973")
#loc418 = loc("p417.8978")
#loc419 = loc("p418.8984")
#loc420 = loc("p419.8989")
#loc421 = loc("p420.9072")
#loc422 = loc("p421.9095")
#loc423 = loc("p422.9108")
#loc424 = loc("p423.9112")
#loc425 = loc("p424.9157")
#loc426 = loc("p425.9161")
#loc427 = loc("p426.9311")
#loc428 = loc("p427.9379")
#loc429 = loc("p428.9384")
#loc430 = loc("p429.9390")
#loc431 = loc("p430.9395")
#loc432 = loc("p431.9478")
#loc433 = loc("p432.9501")
#loc434 = loc("p433.9514")
#loc435 = loc("p434.9518")
#loc436 = loc("p435.9563")
#loc437 = loc("p436.9567")
#loc438 = loc("p437.9717")
#loc439 = loc("p438.9785")
#loc440 = loc("p439.9790")
#loc441 = loc("p440.9796")
#loc442 = loc("p441.9801")
#loc443 = loc("p442.9884")
#loc444 = loc("p443.9907")
#loc445 = loc("p444.9920")
#loc446 = loc("p445.9924")
#loc447 = loc("p446.9969")
#loc448 = loc("p447.9973")
#loc449 = loc("p448.10123")
#loc450 = loc("p449.10191")
#loc451 = loc("p450.10196")
#loc452 = loc("p451.10202")
#loc453 = loc("p452.10207")
#loc454 = loc("p453.10290")
#loc455 = loc("p454.10313")
#loc456 = loc("p455.10326")
#loc457 = loc("p456.10330")
#loc458 = loc("p457.10375")
#loc459 = loc("p458.10379")
#loc460 = loc("p459.10529")
#loc461 = loc("p460.10597")
#loc462 = loc("p461.10602")
#loc463 = loc("p462.10608")
#loc464 = loc("p463.10613")
#loc465 = loc("p464.10696")
#loc466 = loc("p465.10719")
#loc467 = loc("p466.10732")
#loc468 = loc("p467.10736")
#loc469 = loc("p468.10781")
#loc470 = loc("p469.10785")
#loc471 = loc("p470.10935")
#loc472 = loc("p471.11003")
#loc473 = loc("p472.11008")
#loc474 = loc("p473.11014")
#loc475 = loc("p474.11019")
#loc476 = loc("p475.11102")
#loc477 = loc("p476.11125")
#loc478 = loc("p477.11138")
#loc479 = loc("p478.11142")
#loc480 = loc("p479.11187")
#loc481 = loc("p480.11191")
#loc482 = loc("p481.11341")
#loc483 = loc("p482.11409")
#loc484 = loc("p483.11414")
#loc485 = loc("p484.11420")
#loc486 = loc("p485.11425")
#loc487 = loc("p486.11508")
#loc488 = loc("p487.11531")
#loc489 = loc("p488.11544")
#loc490 = loc("p489.11548")
#loc491 = loc("p490.11593")
#loc492 = loc("p491.11597")
#loc493 = loc("p492.11747")
#loc494 = loc("p493.11815")
#loc495 = loc("p494.11820")
#loc496 = loc("p495.11826")
#loc497 = loc("p496.11831")
#loc498 = loc("p497.11914")
#loc499 = loc("p498.11937")
#loc500 = loc("p499.11950")
#loc501 = loc("p500.11954")
#loc502 = loc("p501.11999")
#loc503 = loc("p502.12003")
#loc504 = loc("p503.12153")
#loc505 = loc("p504.12221")
#loc506 = loc("p505.12226")
#loc507 = loc("p506.12232")
#loc508 = loc("p507.12237")
#loc509 = loc("p508.12320")
#loc510 = loc("p509.12343")
#loc511 = loc("p510.12356")
#loc512 = loc("p511.12360")
#loc513 = loc("p512.12405")
#loc514 = loc("p513.12409")
#loc515 = loc("p514.12559")
#loc516 = loc("p515.12627")
#loc517 = loc("p516.12632")
#loc518 = loc("p517.12638")
#loc519 = loc("p518.12643")
#loc520 = loc("p519.12726")
#loc521 = loc("p520.12749")
#loc522 = loc("p521.12762")
#loc523 = loc("p522.12766")
#loc524 = loc("p523.12811")
#loc525 = loc("p524.12815")
#loc526 = loc("p525.12965")
#loc527 = loc("p526.13033")
#loc528 = loc("p527.13038")
#loc529 = loc("p528.13044")
#loc530 = loc("p529.13049")
#loc531 = loc("p530.13132")
#loc532 = loc("p531.13155")
#loc533 = loc("p532.13168")
#loc534 = loc("p533.13172")
#loc535 = loc("p534.13217")
#loc536 = loc("p535.13221")
#loc537 = loc("p536.13371")
#loc538 = loc("p537.13439")
#loc539 = loc("p538.13444")
#loc540 = loc("p539.13450")
#loc541 = loc("p540.13455")
#loc542 = loc("p541.13538")
#loc543 = loc("p542.13561")
#loc544 = loc("p543.13574")
#loc545 = loc("p544.13578")
#loc546 = loc("p545.13623")
#loc547 = loc("p546.13627")
#loc548 = loc("p547.13777")
#loc549 = loc("p548.13845")
#loc550 = loc("p549.13850")
#loc551 = loc("p550.13856")
#loc552 = loc("p551.13861")
#loc553 = loc("p552.13944")
#loc554 = loc("p553.13967")
#loc555 = loc("p554.13980")
#loc556 = loc("p555.13984")
#loc557 = loc("p556.14029")
#loc558 = loc("p557.14033")
#loc559 = loc("p558.14183")
#loc560 = loc("p559.14251")
#loc561 = loc("p560.14256")
#loc562 = loc("p561.14262")
#loc563 = loc("p562.14267")
#loc564 = loc("p563.14350")
#loc565 = loc("p564.14373")
#loc566 = loc("p565.14386")
#loc567 = loc("p566.14390")
#loc568 = loc("p567.14435")
#loc569 = loc("p568.14439")
#loc570 = loc("p569.14589")
#loc571 = loc("p570.14657")
#loc572 = loc("p571.14662")
#loc573 = loc("p572.14668")
#loc574 = loc("p573.14673")
#loc575 = loc("p574.14756")
#loc576 = loc("p575.14779")
#loc577 = loc("p576.14792")
#loc578 = loc("p577.14796")
#loc579 = loc("p578.14841")
#loc580 = loc("p579.14845")
#loc581 = loc("p580.14995")
#loc582 = loc("p581.15063")
#loc583 = loc("p582.15068")
#loc584 = loc("p583.15074")
#loc585 = loc("p584.15079")
#loc586 = loc("p585.15162")
#loc587 = loc("p586.15185")
#loc588 = loc("p587.15198")
#loc589 = loc("p588.15202")
#loc590 = loc("p589.15247")
#loc591 = loc("p590.15251")
#loc592 = loc("p591.15401")
#loc593 = loc("p592.15469")
#loc594 = loc("p593.15474")
#loc595 = loc("p594.15480")
#loc596 = loc("p595.15485")
#loc597 = loc("p596.15568")
#loc598 = loc("p597.15591")
#loc599 = loc("p598.15604")
#loc600 = loc("p599.15608")
#loc601 = loc("p600.15653")
#loc602 = loc("p601.15657")
#loc603 = loc("p602.15807")
#loc604 = loc("p603.15875")
#loc605 = loc("p604.15880")
#loc606 = loc("p605.15886")
#loc607 = loc("p606.15891")
#loc608 = loc("p607.15974")
#loc609 = loc("p608.15997")
#loc610 = loc("p609.16010")
#loc611 = loc("p610.16014")
#loc612 = loc("p611.16059")
#loc613 = loc("p612.16063")
#loc614 = loc("p613.16213")
#loc615 = loc("p614.16281")
#loc616 = loc("p615.16286")
#loc617 = loc("p616.16292")
#loc618 = loc("p617.16297")
#loc619 = loc("p618.16380")
#loc633 = loc("reduce.1542")
#loc647 = loc("dot.1784")
#loc679 = loc("dot.1730")
#loc746 = loc("dot.1570")
#loc762 = loc("dot.1891")
#loc775 = loc("reduce.1909")
#loc787 = loc("dot.2021")
#loc811 = loc("dot.1937")
#loc817 = loc("sort.1957")
#loc831 = loc("scatter.1991")
#loc836 = loc("reduce.2063")
#loc840 = loc("reduce.2076")
#loc854 = loc("dot.2265")
#loc874 = loc("dot.2216")
#loc926 = loc("dot.2104")
#loc942 = loc("dot.2372")
#loc955 = loc("reduce.2390")
#loc967 = loc("dot.2502")
#loc990 = loc("dot.2418")
#loc995 = loc("sort.2438")
#loc1009 = loc("scatter.2472")
#loc1014 = loc("reduce.2544")
#loc1018 = loc("reduce.2557")
#loc1032 = loc("dot.2671")
#loc1052 = loc("dot.2622")
#loc1097 = loc("dot.2585")
#loc1113 = loc("dot.2778")
#loc1126 = loc("reduce.2796")
#loc1138 = loc("dot.2908")
#loc1161 = loc("dot.2824")
#loc1166 = loc("sort.2844")
#loc1180 = loc("scatter.2878")
#loc1185 = loc("reduce.2950")
#loc1189 = loc("reduce.2963")
#loc1203 = loc("dot.3077")
#loc1223 = loc("dot.3028")
#loc1268 = loc("dot.2991")
#loc1284 = loc("dot.3184")
#loc1297 = loc("reduce.3202")
#loc1309 = loc("dot.3314")
#loc1332 = loc("dot.3230")
#loc1337 = loc("sort.3250")
#loc1351 = loc("scatter.3284")
#loc1356 = loc("reduce.3356")
#loc1360 = loc("reduce.3369")
#loc1374 = loc("dot.3483")
#loc1394 = loc("dot.3434")
#loc1439 = loc("dot.3397")
#loc1455 = loc("dot.3590")
#loc1468 = loc("reduce.3608")
#loc1480 = loc("dot.3720")
#loc1503 = loc("dot.3636")
#loc1508 = loc("sort.3656")
#loc1522 = loc("scatter.3690")
#loc1527 = loc("reduce.3762")
#loc1531 = loc("reduce.3775")
#loc1545 = loc("dot.3889")
#loc1565 = loc("dot.3840")
#loc1610 = loc("dot.3803")
#loc1626 = loc("dot.3996")
#loc1639 = loc("reduce.4014")
#loc1651 = loc("dot.4126")
#loc1674 = loc("dot.4042")
#loc1679 = loc("sort.4062")
#loc1693 = loc("scatter.4096")
#loc1698 = loc("reduce.4168")
#loc1702 = loc("reduce.4181")
#loc1716 = loc("dot.4295")
#loc1736 = loc("dot.4246")
#loc1781 = loc("dot.4209")
#loc1797 = loc("dot.4402")
#loc1810 = loc("reduce.4420")
#loc1822 = loc("dot.4532")
#loc1845 = loc("dot.4448")
#loc1850 = loc("sort.4468")
#loc1864 = loc("scatter.4502")
#loc1869 = loc("reduce.4574")
#loc1873 = loc("reduce.4587")
#loc1887 = loc("dot.4701")
#loc1907 = loc("dot.4652")
#loc1952 = loc("dot.4615")
#loc1968 = loc("dot.4808")
#loc1981 = loc("reduce.4826")
#loc1993 = loc("dot.4938")
#loc2016 = loc("dot.4854")
#loc2021 = loc("sort.4874")
#loc2035 = loc("scatter.4908")
#loc2040 = loc("reduce.4980")
#loc2044 = loc("reduce.4993")
#loc2058 = loc("dot.5107")
#loc2078 = loc("dot.5058")
#loc2123 = loc("dot.5021")
#loc2139 = loc("dot.5214")
#loc2152 = loc("reduce.5232")
#loc2164 = loc("dot.5344")
#loc2187 = loc("dot.5260")
#loc2192 = loc("sort.5280")
#loc2206 = loc("scatter.5314")
#loc2211 = loc("reduce.5386")
#loc2215 = loc("reduce.5399")
#loc2229 = loc("dot.5513")
#loc2249 = loc("dot.5464")
#loc2294 = loc("dot.5427")
#loc2310 = loc("dot.5620")
#loc2323 = loc("reduce.5638")
#loc2335 = loc("dot.5750")
#loc2358 = loc("dot.5666")
#loc2363 = loc("sort.5686")
#loc2377 = loc("scatter.5720")
#loc2382 = loc("reduce.5792")
#loc2386 = loc("reduce.5805")
#loc2400 = loc("dot.5919")
#loc2420 = loc("dot.5870")
#loc2465 = loc("dot.5833")
#loc2481 = loc("dot.6026")
#loc2494 = loc("reduce.6044")
#loc2506 = loc("dot.6156")
#loc2529 = loc("dot.6072")
#loc2534 = loc("sort.6092")
#loc2548 = loc("scatter.6126")
#loc2553 = loc("reduce.6198")
#loc2557 = loc("reduce.6211")
#loc2571 = loc("dot.6325")
#loc2591 = loc("dot.6276")
#loc2636 = loc("dot.6239")
#loc2652 = loc("dot.6432")
#loc2665 = loc("reduce.6450")
#loc2677 = loc("dot.6562")
#loc2700 = loc("dot.6478")
#loc2705 = loc("sort.6498")
#loc2719 = loc("scatter.6532")
#loc2724 = loc("reduce.6604")
#loc2728 = loc("reduce.6617")
#loc2742 = loc("dot.6731")
#loc2762 = loc("dot.6682")
#loc2807 = loc("dot.6645")
#loc2823 = loc("dot.6838")
#loc2836 = loc("reduce.6856")
#loc2848 = loc("dot.6968")
#loc2871 = loc("dot.6884")
#loc2876 = loc("sort.6904")
#loc2890 = loc("scatter.6938")
#loc2895 = loc("reduce.7010")
#loc2899 = loc("reduce.7023")
#loc2913 = loc("dot.7137")
#loc2933 = loc("dot.7088")
#loc2978 = loc("dot.7051")
#loc2994 = loc("dot.7244")
#loc3007 = loc("reduce.7262")
#loc3019 = loc("dot.7374")
#loc3042 = loc("dot.7290")
#loc3047 = loc("sort.7310")
#loc3061 = loc("scatter.7344")
#loc3066 = loc("reduce.7416")
#loc3070 = loc("reduce.7429")
#loc3084 = loc("dot.7543")
#loc3104 = loc("dot.7494")
#loc3149 = loc("dot.7457")
#loc3165 = loc("dot.7650")
#loc3178 = loc("reduce.7668")
#loc3190 = loc("dot.7780")
#loc3213 = loc("dot.7696")
#loc3218 = loc("sort.7716")
#loc3232 = loc("scatter.7750")
#loc3237 = loc("reduce.7822")
#loc3241 = loc("reduce.7835")
#loc3255 = loc("dot.7949")
#loc3275 = loc("dot.7900")
#loc3320 = loc("dot.7863")
#loc3336 = loc("dot.8056")
#loc3349 = loc("reduce.8074")
#loc3361 = loc("dot.8186")
#loc3384 = loc("dot.8102")
#loc3389 = loc("sort.8122")
#loc3403 = loc("scatter.8156")
#loc3408 = loc("reduce.8228")
#loc3412 = loc("reduce.8241")
#loc3426 = loc("dot.8355")
#loc3446 = loc("dot.8306")
#loc3491 = loc("dot.8269")
#loc3507 = loc("dot.8462")
#loc3520 = loc("reduce.8480")
#loc3532 = loc("dot.8592")
#loc3555 = loc("dot.8508")
#loc3560 = loc("sort.8528")
#loc3574 = loc("scatter.8562")
#loc3579 = loc("reduce.8634")
#loc3583 = loc("reduce.8647")
#loc3597 = loc("dot.8761")
#loc3617 = loc("dot.8712")
#loc3662 = loc("dot.8675")
#loc3678 = loc("dot.8868")
#loc3691 = loc("reduce.8886")
#loc3703 = loc("dot.8998")
#loc3726 = loc("dot.8914")
#loc3731 = loc("sort.8934")
#loc3745 = loc("scatter.8968")
#loc3750 = loc("reduce.9040")
#loc3754 = loc("reduce.9053")
#loc3768 = loc("dot.9167")
#loc3788 = loc("dot.9118")
#loc3833 = loc("dot.9081")
#loc3849 = loc("dot.9274")
#loc3862 = loc("reduce.9292")
#loc3874 = loc("dot.9404")
#loc3897 = loc("dot.9320")
#loc3902 = loc("sort.9340")
#loc3916 = loc("scatter.9374")
#loc3921 = loc("reduce.9446")
#loc3925 = loc("reduce.9459")
#loc3939 = loc("dot.9573")
#loc3959 = loc("dot.9524")
#loc4004 = loc("dot.9487")
#loc4020 = loc("dot.9680")
#loc4033 = loc("reduce.9698")
#loc4045 = loc("dot.9810")
#loc4068 = loc("dot.9726")
#loc4073 = loc("sort.9746")
#loc4087 = loc("scatter.9780")
#loc4092 = loc("reduce.9852")
#loc4096 = loc("reduce.9865")
#loc4110 = loc("dot.9979")
#loc4130 = loc("dot.9930")
#loc4175 = loc("dot.9893")
#loc4191 = loc("dot.10086")
#loc4204 = loc("reduce.10104")
#loc4216 = loc("dot.10216")
#loc4239 = loc("dot.10132")
#loc4244 = loc("sort.10152")
#loc4258 = loc("scatter.10186")
#loc4263 = loc("reduce.10258")
#loc4267 = loc("reduce.10271")
#loc4281 = loc("dot.10385")
#loc4301 = loc("dot.10336")
#loc4346 = loc("dot.10299")
#loc4362 = loc("dot.10492")
#loc4375 = loc("reduce.10510")
#loc4387 = loc("dot.10622")
#loc4410 = loc("dot.10538")
#loc4415 = loc("sort.10558")
#loc4429 = loc("scatter.10592")
#loc4434 = loc("reduce.10664")
#loc4438 = loc("reduce.10677")
#loc4452 = loc("dot.10791")
#loc4472 = loc("dot.10742")
#loc4517 = loc("dot.10705")
#loc4533 = loc("dot.10898")
#loc4546 = loc("reduce.10916")
#loc4558 = loc("dot.11028")
#loc4581 = loc("dot.10944")
#loc4586 = loc("sort.10964")
#loc4600 = loc("scatter.10998")
#loc4605 = loc("reduce.11070")
#loc4609 = loc("reduce.11083")
#loc4623 = loc("dot.11197")
#loc4643 = loc("dot.11148")
#loc4688 = loc("dot.11111")
#loc4704 = loc("dot.11304")
#loc4717 = loc("reduce.11322")
#loc4729 = loc("dot.11434")
#loc4752 = loc("dot.11350")
#loc4757 = loc("sort.11370")
#loc4771 = loc("scatter.11404")
#loc4776 = loc("reduce.11476")
#loc4780 = loc("reduce.11489")
#loc4794 = loc("dot.11603")
#loc4814 = loc("dot.11554")
#loc4859 = loc("dot.11517")
#loc4875 = loc("dot.11710")
#loc4888 = loc("reduce.11728")
#loc4900 = loc("dot.11840")
#loc4923 = loc("dot.11756")
#loc4928 = loc("sort.11776")
#loc4942 = loc("scatter.11810")
#loc4947 = loc("reduce.11882")
#loc4951 = loc("reduce.11895")
#loc4965 = loc("dot.12009")
#loc4985 = loc("dot.11960")
#loc5030 = loc("dot.11923")
#loc5046 = loc("dot.12116")
#loc5059 = loc("reduce.12134")
#loc5071 = loc("dot.12246")
#loc5094 = loc("dot.12162")
#loc5099 = loc("sort.12182")
#loc5113 = loc("scatter.12216")
#loc5118 = loc("reduce.12288")
#loc5122 = loc("reduce.12301")
#loc5136 = loc("dot.12415")
#loc5156 = loc("dot.12366")
#loc5201 = loc("dot.12329")
#loc5217 = loc("dot.12522")
#loc5230 = loc("reduce.12540")
#loc5242 = loc("dot.12652")
#loc5265 = loc("dot.12568")
#loc5270 = loc("sort.12588")
#loc5284 = loc("scatter.12622")
#loc5289 = loc("reduce.12694")
#loc5293 = loc("reduce.12707")
#loc5307 = loc("dot.12821")
#loc5327 = loc("dot.12772")
#loc5372 = loc("dot.12735")
#loc5388 = loc("dot.12928")
#loc5401 = loc("reduce.12946")
#loc5413 = loc("dot.13058")
#loc5436 = loc("dot.12974")
#loc5441 = loc("sort.12994")
#loc5455 = loc("scatter.13028")
#loc5460 = loc("reduce.13100")
#loc5464 = loc("reduce.13113")
#loc5478 = loc("dot.13227")
#loc5498 = loc("dot.13178")
#loc5543 = loc("dot.13141")
#loc5559 = loc("dot.13334")
#loc5572 = loc("reduce.13352")
#loc5584 = loc("dot.13464")
#loc5607 = loc("dot.13380")
#loc5612 = loc("sort.13400")
#loc5626 = loc("scatter.13434")
#loc5631 = loc("reduce.13506")
#loc5635 = loc("reduce.13519")
#loc5649 = loc("dot.13633")
#loc5669 = loc("dot.13584")
#loc5714 = loc("dot.13547")
#loc5730 = loc("dot.13740")
#loc5743 = loc("reduce.13758")
#loc5755 = loc("dot.13870")
#loc5778 = loc("dot.13786")
#loc5783 = loc("sort.13806")
#loc5797 = loc("scatter.13840")
#loc5802 = loc("reduce.13912")
#loc5806 = loc("reduce.13925")
#loc5820 = loc("dot.14039")
#loc5840 = loc("dot.13990")
#loc5885 = loc("dot.13953")
#loc5901 = loc("dot.14146")
#loc5914 = loc("reduce.14164")
#loc5926 = loc("dot.14276")
#loc5949 = loc("dot.14192")
#loc5954 = loc("sort.14212")
#loc5968 = loc("scatter.14246")
#loc5973 = loc("reduce.14318")
#loc5977 = loc("reduce.14331")
#loc5991 = loc("dot.14445")
#loc6011 = loc("dot.14396")
#loc6056 = loc("dot.14359")
#loc6072 = loc("dot.14552")
#loc6085 = loc("reduce.14570")
#loc6097 = loc("dot.14682")
#loc6120 = loc("dot.14598")
#loc6125 = loc("sort.14618")
#loc6139 = loc("scatter.14652")
#loc6144 = loc("reduce.14724")
#loc6148 = loc("reduce.14737")
#loc6162 = loc("dot.14851")
#loc6182 = loc("dot.14802")
#loc6227 = loc("dot.14765")
#loc6243 = loc("dot.14958")
#loc6256 = loc("reduce.14976")
#loc6268 = loc("dot.15088")
#loc6291 = loc("dot.15004")
#loc6296 = loc("sort.15024")
#loc6310 = loc("scatter.15058")
#loc6315 = loc("reduce.15130")
#loc6319 = loc("reduce.15143")
#loc6333 = loc("dot.15257")
#loc6353 = loc("dot.15208")
#loc6398 = loc("dot.15171")
#loc6414 = loc("dot.15364")
#loc6427 = loc("reduce.15382")
#loc6439 = loc("dot.15494")
#loc6462 = loc("dot.15410")
#loc6467 = loc("sort.15430")
#loc6481 = loc("scatter.15464")
#loc6486 = loc("reduce.15536")
#loc6490 = loc("reduce.15549")
#loc6504 = loc("dot.15663")
#loc6524 = loc("dot.15614")
#loc6569 = loc("dot.15577")
#loc6585 = loc("dot.15770")
#loc6598 = loc("reduce.15788")
#loc6610 = loc("dot.15900")
#loc6633 = loc("dot.15816")
#loc6638 = loc("sort.15836")
#loc6652 = loc("scatter.15870")
#loc6657 = loc("reduce.15942")
#loc6661 = loc("reduce.15955")
#loc6675 = loc("dot.16069")
#loc6695 = loc("dot.16020")
#loc6740 = loc("dot.15983")
#loc6756 = loc("dot.16176")
#loc6769 = loc("reduce.16194")
#loc6781 = loc("dot.16306")
#loc6804 = loc("dot.16222")
#loc6809 = loc("sort.16242")
#loc6823 = loc("scatter.16276")
#loc6828 = loc("reduce.16348")
#loc6832 = loc("reduce.16361")
#loc6846 = loc("dot.16389")
module @SyncTensorsGraph.16392 attributes {mhlo.cross_program_prefetches = [], mhlo.input_output_alias = [], mhlo.is_dynamic = false, mhlo.use_auto_spmd_partitioning = false} {
  sdy.mesh @mesh = <["_axis_0"=8, "_axis_1"=4]> loc(#loc)
  func.func @main(%arg0: tensor<201088x2880xbf16> {ttcore.argument_type = #ttcore.argument_type<parameter>, ttcore.shard_status = #ttcore.shard_status<presharded>, ttir.name = "l__self___lm_head_weight"} loc("p0.1"), %arg1: tensor<128xbf16> {ttcore.argument_type = #ttcore.argument_type<parameter>, ttcore.shard_status = #ttcore.shard_status<presharded>, ttir.name = "l__self___model_layers_35_mlp_router_bias"} loc("p1.12"), %arg2: tensor<128x2880xbf16> {ttcore.argument_type = #ttcore.argument_type<parameter>, ttcore.shard_status = #ttcore.shard_status<presharded>, ttir.name = "l__self___model_layers_35_mlp_router_weight"} loc("p2.19"), %arg3: tensor<2880xbf16> {ttcore.argument_type = #ttcore.argument_type<parameter>, ttcore.shard_status = #ttcore.shard_status<presharded>, ttir.name = "l__self___model_layers_35_self_attn_o_proj_bias"} loc("p3.29"), %arg4: tensor<2880x4096xbf16> {ttcore.argument_type = #ttcore.argument_type<parameter>, ttcore.shard_status = #ttcore.shard_status<presharded>, ttir.name = "l__self___model_layers_35_self_attn_o_proj_weight"} loc("p4.33"), %arg5: tensor<512xbf16> {ttcore.argument_type = #ttcore.argument_type<parameter>, ttcore.shard_status = #ttcore.shard_status<presharded>, ttir.name = "l__self___model_layers_35_self_attn_v_proj_bias"} loc("p5.39"), %arg6: tensor<512x2880xbf16> {ttcore.argument_type = #ttcore.argument_type<parameter>, ttcore.shard_status = #ttcore.shard_status<presharded>, ttir.name = "l__self___model_layers_35_self_attn_v_proj_weight"} loc("p6.43"), %arg7: tensor<128xbf16> {ttcore.argument_type = #ttcore.argument_type<parameter>, ttcore.shard_status = #ttcore.shard_status<presharded>, ttir.name = "l__self___model_layers_34_mlp_router_bias"} loc("p7.54"), %arg8: tensor<128x2880xbf16> {ttcore.argument_type = #ttcore.argument_type<parameter>, ttcore.shard_status = #ttcore.shard_status<presharded>, ttir.name = "l__self___model_layers_34_mlp_router_weight"} loc("p8.61"), %arg9: tensor<2880xbf16> {ttcore.argument_type = #ttcore.argument_type<parameter>, ttcore.shard_status = #ttcore.shard_status<presharded>, ttir.name = "l__self___model_layers_34_self_attn_o_proj_bias"} loc("p9.71"), %arg10: tensor<2880x4096xbf16> {ttcore.argument_type = #ttcore.argument_type<parameter>, ttcore.shard_status = #ttcore.shard_status<presharded>, ttir.name = "l__self___model_layers_34_self_attn_o_proj_weight"} loc("p10.75"), %arg11: tensor<512xbf16> {ttcore.argument_type = #ttcore.argument_type<parameter>, ttcore.shard_status = #ttcore.shard_status<presharded>, ttir.name = "l__self___model_layers_34_self_attn_v_proj_bias"} loc("p11.81"), %arg12: tensor<512x2880xbf16> {ttcore.argument_type = #ttcore.argument_type<parameter>, ttcore.shard_status = #ttcore.shard_status<presharded>, ttir.name = "l__self___model_layers_34_self_attn_v_proj_weight"} loc("p12.85"), %arg13: tensor<128xbf16> {ttcore.argument_type = #ttcore.argument_type<parameter>, ttcore.shard_status = #ttcore.shard_status<presharded>, ttir.name = "l__self___model_layers_33_mlp_router_bias"} loc("p13.96"), %arg14: tensor<128x2880xbf16> {ttcore.argument_type = #ttcore.argument_type<parameter>, ttcore.shard_status = #ttcore.shard_status<presharded>, ttir.name = "l__self___model_layers_33_mlp_router_weight"} loc("p14.103"), %arg15: tensor<2880xbf16> {ttcore.argument_type = #ttcore.argument_type<parameter>, ttcore.shard_status = #ttcore.shard_status<presharded>, ttir.name = "l__self___model_layers_33_self_attn_o_proj_bias"} loc("p15.113"), %arg16: tensor<2880x4096xbf16> {ttcore.argument_type = #ttcore.argument_type<parameter>, ttcore.shard_status = #ttcore.shard_status<presharded>, ttir.name = "l__self___model_layers_33_self_attn_o_proj_weight"} loc("p16.117"), %arg17: tensor<512xbf16> {ttcore.argument_type = #ttcore.argument_type<parameter>, ttcore.shard_status = #ttcore.shard_status<presharded>, ttir.name = "l__self___model_layers_33_self_attn_v_proj_bias"} loc("p17.123"), %arg18: tensor<512x2880xbf16> {ttcore.argument_type = #ttcore.argument_type<parameter>, ttcore.shard_status = #ttcore.shard_status<presharded>, ttir.name = "l__self___model_layers_33_self_attn_v_proj_weight"} loc("p18.127"), %arg19: tensor<128xbf16> {ttcore.argument_type = #ttcore.argument_type<parameter>, ttcore.shard_status = #ttcore.shard_status<presharded>, ttir.name = "l__self___model_layers_32_mlp_router_bias"} loc("p19.138"), %arg20: tensor<128x2880xbf16> {ttcore.argument_type = #ttcore.argument_type<parameter>, ttcore.shard_status = #ttcore.shard_status<presharded>, ttir.name = "l__self___model_layers_32_mlp_router_weight"} loc("p20.145"), %arg21: tensor<2880xbf16> {ttcore.argument_type = #ttcore.argument_type<parameter>, ttcore.shard_status = #ttcore.shard_status<presharded>, ttir.name = "l__self___model_layers_32_self_attn_o_proj_bias"} loc("p21.155"), %arg22: tensor<2880x4096xbf16> {ttcore.argument_type = #ttcore.argument_type<parameter>, ttcore.shard_status = #ttcore.shard_status<presharded>, ttir.name = "l__self___model_layers_32_self_attn_o_proj_weight"} loc("p22.159"), %arg23: tensor<512xbf16> {ttcore.argument_type = #ttcore.argument_type<parameter>, ttcore.shard_status = #ttcore.shard_status<presharded>, ttir.name = "l__self___model_layers_32_self_attn_v_proj_bias"} loc("p23.165"), %arg24: tensor<512x2880xbf16> {ttcore.argument_type = #ttcore.argument_type<parameter>, ttcore.shard_status = #ttcore.shard_status<presharded>, ttir.name = "l__self___model_layers_32_self_attn_v_proj_weight"} loc("p24.169"), %arg25: tensor<128xbf16> {ttcore.argument_type = #ttcore.argument_type<parameter>, ttcore.shard_status = #ttcore.shard_status<presharded>, ttir.name = "l__self___model_layers_31_mlp_router_bias"} loc("p25.180"), %arg26: tensor<128x2880xbf16> {ttcore.argument_type = #ttcore.argument_type<parameter>, ttcore.shard_status = #ttcore.shard_status<presharded>, ttir.name = "l__self___model_layers_31_mlp_router_weight"} loc("p26.187"), %arg27: tensor<2880xbf16> {ttcore.argument_type = #ttcore.argument_type<parameter>, ttcore.shard_status = #ttcore.shard_status<presharded>, ttir.name = "l__self___model_layers_31_self_attn_o_proj_bias"} loc("p27.197"), %arg28: tensor<2880x4096xbf16> {ttcore.argument_type = #ttcore.argument_type<parameter>, ttcore.shard_status = #ttcore.shard_status<presharded>, ttir.name = "l__self___model_layers_31_self_attn_o_proj_weight"} loc("p28.201"), %arg29: tensor<512xbf16> {ttcore.argument_type = #ttcore.argument_type<parameter>, ttcore.shard_status = #ttcore.shard_status<presharded>, ttir.name = "l__self___model_layers_31_self_attn_v_proj_bias"} loc("p29.207"), %arg30: tensor<512x2880xbf16> {ttcore.argument_type = #ttcore.argument_type<parameter>, ttcore.shard_status = #ttcore.shard_status<presharded>, ttir.name = "l__self___model_layers_31_self_attn_v_proj_weight"} loc("p30.211"), %arg31: tensor<128xbf16> {ttcore.argument_type = #ttcore.argument_type<parameter>, ttcore.shard_status = #ttcore.shard_status<presharded>, ttir.name = "l__self___model_layers_30_mlp_router_bias"} loc("p31.222"), %arg32: tensor<128x2880xbf16> {ttcore.argument_type = #ttcore.argument_type<parameter>, ttcore.shard_status = #ttcore.shard_status<presharded>, ttir.name = "l__self___model_layers_30_mlp_router_weight"} loc("p32.229"), %arg33: tensor<2880xbf16> {ttcore.argument_type = #ttcore.argument_type<parameter>, ttcore.shard_status = #ttcore.shard_status<presharded>, ttir.name = "l__self___model_layers_30_self_attn_o_proj_bias"} loc("p33.239"), %arg34: tensor<2880x4096xbf16> {ttcore.argument_type = #ttcore.argument_type<parameter>, ttcore.shard_status = #ttcore.shard_status<presharded>, ttir.name = "l__self___model_layers_30_self_attn_o_proj_weight"} loc("p34.243"), %arg35: tensor<512xbf16> {ttcore.argument_type = #ttcore.argument_type<parameter>, ttcore.shard_status = #ttcore.shard_status<presharded>, ttir.name = "l__self___model_layers_30_self_attn_v_proj_bias"} loc("p35.249"), %arg36: tensor<512x2880xbf16> {ttcore.argument_type = #ttcore.argument_type<parameter>, ttcore.shard_status = #ttcore.shard_status<presharded>, ttir.name = "l__self___model_layers_30_self_attn_v_proj_weight"} loc("p36.253"), %arg37: tensor<128xbf16> {ttcore.argument_type = #ttcore.argument_type<parameter>, ttcore.shard_status = #ttcore.shard_status<presharded>, ttir.name = "l__self___model_layers_29_mlp_router_bias"} loc("p37.264"), %arg38: tensor<128x2880xbf16> {ttcore.argument_type = #ttcore.argument_type<parameter>, ttcore.shard_status = #ttcore.shard_status<presharded>, ttir.name = "l__self___model_layers_29_mlp_router_weight"} loc("p38.271"), %arg39: tensor<2880xbf16> {ttcore.argument_type = #ttcore.argument_type<parameter>, ttcore.shard_status = #ttcore.shard_status<presharded>, ttir.name = "l__self___model_layers_29_self_attn_o_proj_bias"} loc("p39.281"), %arg40: tensor<2880x4096xbf16> {ttcore.argument_type = #ttcore.argument_type<parameter>, ttcore.shard_status = #ttcore.shard_status<presharded>, ttir.name = "l__self___model_layers_29_self_attn_o_proj_weight"} loc("p40.285"), %arg41: tensor<512xbf16> {ttcore.argument_type = #ttcore.argument_type<parameter>, ttcore.shard_status = #ttcore.shard_status<presharded>, ttir.name = "l__self___model_layers_29_self_attn_v_proj_bias"} loc("p41.291"), %arg42: tensor<512x2880xbf16> {ttcore.argument_type = #ttcore.argument_type<parameter>, ttcore.shard_status = #ttcore.shard_status<presharded>, ttir.name = "l__self___model_layers_29_self_attn_v_proj_weight"} loc("p42.295"), %arg43: tensor<128xbf16> {ttcore.argument_type = #ttcore.argument_type<parameter>, ttcore.shard_status = #ttcore.shard_status<presharded>, ttir.name = "l__self___model_layers_28_mlp_router_bias"} loc("p43.306"), %arg44: tensor<128x2880xbf16> {ttcore.argument_type = #ttcore.argument_type<parameter>, ttcore.shard_status = #ttcore.shard_status<presharded>, ttir.name = "l__self___model_layers_28_mlp_router_weight"} loc("p44.313"), %arg45: tensor<2880xbf16> {ttcore.argument_type = #ttcore.argument_type<parameter>, ttcore.shard_status = #ttcore.shard_status<presharded>, ttir.name = "l__self___model_layers_28_self_attn_o_proj_bias"} loc("p45.323"), %arg46: tensor<2880x4096xbf16> {ttcore.argument_type = #ttcore.argument_type<parameter>, ttcore.shard_status = #ttcore.shard_status<presharded>, ttir.name = "l__self___model_layers_28_self_attn_o_proj_weight"} loc("p46.327"), %arg47: tensor<512xbf16> {ttcore.argument_type = #ttcore.argument_type<parameter>, ttcore.shard_status = #ttcore.shard_status<presharded>, ttir.name = "l__self___model_layers_28_self_attn_v_proj_bias"} loc("p47.333"), %arg48: tensor<512x2880xbf16> {ttcore.argument_type = #ttcore.argument_type<parameter>, ttcore.shard_status = #ttcore.shard_status<presharded>, ttir.name = "l__self___model_layers_28_self_attn_v_proj_weight"} loc("p48.337"), %arg49: tensor<128xbf16> {ttcore.argument_type = #ttcore.argument_type<parameter>, ttcore.shard_status = #ttcore.shard_status<presharded>, ttir.name = "l__self___model_layers_27_mlp_router_bias"} loc("p49.348"), %arg50: tensor<128x2880xbf16> {ttcore.argument_type = #ttcore.argument_type<parameter>, ttcore.shard_status = #ttcore.shard_status<presharded>, ttir.name = "l__self___model_layers_27_mlp_router_weight"} loc("p50.355"), %arg51: tensor<2880xbf16> {ttcore.argument_type = #ttcore.argument_type<parameter>, ttcore.shard_status = #ttcore.shard_status<presharded>, ttir.name = "l__self___model_layers_27_self_attn_o_proj_bias"} loc("p51.365"), %arg52: tensor<2880x4096xbf16> {ttcore.argument_type = #ttcore.argument_type<parameter>, ttcore.shard_status = #ttcore.shard_status<presharded>, ttir.name = "l__self___model_layers_27_self_attn_o_proj_weight"} loc("p52.369"), %arg53: tensor<512xbf16> {ttcore.argument_type = #ttcore.argument_type<parameter>, ttcore.shard_status = #ttcore.shard_status<presharded>, ttir.name = "l__self___model_layers_27_self_attn_v_proj_bias"} loc("p53.375"), %arg54: tensor<512x2880xbf16> {ttcore.argument_type = #ttcore.argument_type<parameter>, ttcore.shard_status = #ttcore.shard_status<presharded>, ttir.name = "l__self___model_layers_27_self_attn_v_proj_weight"} loc("p54.379"), %arg55: tensor<128xbf16> {ttcore.argument_type = #ttcore.argument_type<parameter>, ttcore.shard_status = #ttcore.shard_status<presharded>, ttir.name = "l__self___model_layers_26_mlp_router_bias"} loc("p55.390"), %arg56: tensor<128x2880xbf16> {ttcore.argument_type = #ttcore.argument_type<parameter>, ttcore.shard_status = #ttcore.shard_status<presharded>, ttir.name = "l__self___model_layers_26_mlp_router_weight"} loc("p56.397"), %arg57: tensor<2880xbf16> {ttcore.argument_type = #ttcore.argument_type<parameter>, ttcore.shard_status = #ttcore.shard_status<presharded>, ttir.name = "l__self___model_layers_26_self_attn_o_proj_bias"} loc("p57.407"), %arg58: tensor<2880x4096xbf16> {ttcore.argument_type = #ttcore.argument_type<parameter>, ttcore.shard_status = #ttcore.shard_status<presharded>, ttir.name = "l__self___model_layers_26_self_attn_o_proj_weight"} loc("p58.411"), %arg59: tensor<512xbf16> {ttcore.argument_type = #ttcore.argument_type<parameter>, ttcore.shard_status = #ttcore.shard_status<presharded>, ttir.name = "l__self___model_layers_26_self_attn_v_proj_bias"} loc("p59.417"), %arg60: tensor<512x2880xbf16> {ttcore.argument_type = #ttcore.argument_type<parameter>, ttcore.shard_status = #ttcore.shard_status<presharded>, ttir.name = "l__self___model_layers_26_self_attn_v_proj_weight"} loc("p60.421"), %arg61: tensor<128xbf16> {ttcore.argument_type = #ttcore.argument_type<parameter>, ttcore.shard_status = #ttcore.shard_status<presharded>, ttir.name = "l__self___model_layers_25_mlp_router_bias"} loc("p61.432"), %arg62: tensor<128x2880xbf16> {ttcore.argument_type = #ttcore.argument_type<parameter>, ttcore.shard_status = #ttcore.shard_status<presharded>, ttir.name = "l__self___model_layers_25_mlp_router_weight"} loc("p62.439"), %arg63: tensor<2880xbf16> {ttcore.argument_type = #ttcore.argument_type<parameter>, ttcore.shard_status = #ttcore.shard_status<presharded>, ttir.name = "l__self___model_layers_25_self_attn_o_proj_bias"} loc("p63.449"), %arg64: tensor<2880x4096xbf16> {ttcore.argument_type = #ttcore.argument_type<parameter>, ttcore.shard_status = #ttcore.shard_status<presharded>, ttir.name = "l__self___model_layers_25_self_attn_o_proj_weight"} loc("p64.453"), %arg65: tensor<512xbf16> {ttcore.argument_type = #ttcore.argument_type<parameter>, ttcore.shard_status = #ttcore.shard_status<presharded>, ttir.name = "l__self___model_layers_25_self_attn_v_proj_bias"} loc("p65.459"), %arg66: tensor<512x2880xbf16> {ttcore.argument_type = #ttcore.argument_type<parameter>, ttcore.shard_status = #ttcore.shard_status<presharded>, ttir.name = "l__self___model_layers_25_self_attn_v_proj_weight"} loc("p66.463"), %arg67: tensor<128xbf16> {ttcore.argument_type = #ttcore.argument_type<parameter>, ttcore.shard_status = #ttcore.shard_status<presharded>, ttir.name = "l__self___model_layers_24_mlp_router_bias"} loc("p67.474"), %arg68: tensor<128x2880xbf16> {ttcore.argument_type = #ttcore.argument_type<parameter>, ttcore.shard_status = #ttcore.shard_status<presharded>, ttir.name = "l__self___model_layers_24_mlp_router_weight"} loc("p68.481"), %arg69: tensor<2880xbf16> {ttcore.argument_type = #ttcore.argument_type<parameter>, ttcore.shard_status = #ttcore.shard_status<presharded>, ttir.name = "l__self___model_layers_24_self_attn_o_proj_bias"} loc("p69.491"), %arg70: tensor<2880x4096xbf16> {ttcore.argument_type = #ttcore.argument_type<parameter>, ttcore.shard_status = #ttcore.shard_status<presharded>, ttir.name = "l__self___model_layers_24_self_attn_o_proj_weight"} loc("p70.495"), %arg71: tensor<512xbf16> {ttcore.argument_type = #ttcore.argument_type<parameter>, ttcore.shard_status = #ttcore.shard_status<presharded>, ttir.name = "l__self___model_layers_24_self_attn_v_proj_bias"} loc("p71.501"), %arg72: tensor<512x2880xbf16> {ttcore.argument_type = #ttcore.argument_type<parameter>, ttcore.shard_status = #ttcore.shard_status<presharded>, ttir.name = "l__self___model_layers_24_self_attn_v_proj_weight"} loc("p72.505"), %arg73: tensor<128xbf16> {ttcore.argument_type = #ttcore.argument_type<parameter>, ttcore.shard_status = #ttcore.shard_status<presharded>, ttir.name = "l__self___model_layers_23_mlp_router_bias"} loc("p73.516"), %arg74: tensor<128x2880xbf16> {ttcore.argument_type = #ttcore.argument_type<parameter>, ttcore.shard_status = #ttcore.shard_status<presharded>, ttir.name = "l__self___model_layers_23_mlp_router_weight"} loc("p74.523"), %arg75: tensor<2880xbf16> {ttcore.argument_type = #ttcore.argument_type<parameter>, ttcore.shard_status = #ttcore.shard_status<presharded>, ttir.name = "l__self___model_layers_23_self_attn_o_proj_bias"} loc("p75.533"), %arg76: tensor<2880x4096xbf16> {ttcore.argument_type = #ttcore.argument_type<parameter>, ttcore.shard_status = #ttcore.shard_status<presharded>, ttir.name = "l__self___model_layers_23_self_attn_o_proj_weight"} loc("p76.537"), %arg77: tensor<512xbf16> {ttcore.argument_type = #ttcore.argument_type<parameter>, ttcore.shard_status = #ttcore.shard_status<presharded>, ttir.name = "l__self___model_layers_23_self_attn_v_proj_bias"} loc("p77.543"), %arg78: tensor<512x2880xbf16> {ttcore.argument_type = #ttcore.argument_type<parameter>, ttcore.shard_status = #ttcore.shard_status<presharded>, ttir.name = "l__self___model_layers_23_self_attn_v_proj_weight"} loc("p78.547"), %arg79: tensor<128xbf16> {ttcore.argument_type = #ttcore.argument_type<parameter>, ttcore.shard_status = #ttcore.shard_status<presharded>, ttir.name = "l__self___model_layers_22_mlp_router_bias"} loc("p79.558"), %arg80: tensor<128x2880xbf16> {ttcore.argument_type = #ttcore.argument_type<parameter>, ttcore.shard_status = #ttcore.shard_status<presharded>, ttir.name = "l__self___model_layers_22_mlp_router_weight"} loc("p80.565"), %arg81: tensor<2880xbf16> {ttcore.argument_type = #ttcore.argument_type<parameter>, ttcore.shard_status = #ttcore.shard_status<presharded>, ttir.name = "l__self___model_layers_22_self_attn_o_proj_bias"} loc("p81.575"), %arg82: tensor<2880x4096xbf16> {ttcore.argument_type = #ttcore.argument_type<parameter>, ttcore.shard_status = #ttcore.shard_status<presharded>, ttir.name = "l__self___model_layers_22_self_attn_o_proj_weight"} loc("p82.579"), %arg83: tensor<512xbf16> {ttcore.argument_type = #ttcore.argument_type<parameter>, ttcore.shard_status = #ttcore.shard_status<presharded>, ttir.name = "l__self___model_layers_22_self_attn_v_proj_bias"} loc("p83.585"), %arg84: tensor<512x2880xbf16> {ttcore.argument_type = #ttcore.argument_type<parameter>, ttcore.shard_status = #ttcore.shard_status<presharded>, ttir.name = "l__self___model_layers_22_self_attn_v_proj_weight"} loc("p84.589"), %arg85: tensor<128xbf16> {ttcore.argument_type = #ttcore.argument_type<parameter>, ttcore.shard_status = #ttcore.shard_status<presharded>, ttir.name = "l__self___model_layers_21_mlp_router_bias"} loc("p85.600"), %arg86: tensor<128x2880xbf16> {ttcore.argument_type = #ttcore.argument_type<parameter>, ttcore.shard_status = #ttcore.shard_status<presharded>, ttir.name = "l__self___model_layers_21_mlp_router_weight"} loc("p86.607"), %arg87: tensor<2880xbf16> {ttcore.argument_type = #ttcore.argument_type<parameter>, ttcore.shard_status = #ttcore.shard_status<presharded>, ttir.name = "l__self___model_layers_21_self_attn_o_proj_bias"} loc("p87.617"), %arg88: tensor<2880x4096xbf16> {ttcore.argument_type = #ttcore.argument_type<parameter>, ttcore.shard_status = #ttcore.shard_status<presharded>, ttir.name = "l__self___model_layers_21_self_attn_o_proj_weight"} loc("p88.621"), %arg89: tensor<512xbf16> {ttcore.argument_type = #ttcore.argument_type<parameter>, ttcore.shard_status = #ttcore.shard_status<presharded>, ttir.name = "l__self___model_layers_21_self_attn_v_proj_bias"} loc("p89.627"), %arg90: tensor<512x2880xbf16> {ttcore.argument_type = #ttcore.argument_type<parameter>, ttcore.shard_status = #ttcore.shard_status<presharded>, ttir.name = "l__self___model_layers_21_self_attn_v_proj_weight"} loc("p90.631"), %arg91: tensor<128xbf16> {ttcore.argument_type = #ttcore.argument_type<parameter>, ttcore.shard_status = #ttcore.shard_status<presharded>, ttir.name = "l__self___model_layers_20_mlp_router_bias"} loc("p91.642"), %arg92: tensor<128x2880xbf16> {ttcore.argument_type = #ttcore.argument_type<parameter>, ttcore.shard_status = #ttcore.shard_status<presharded>, ttir.name = "l__self___model_layers_20_mlp_router_weight"} loc("p92.649"), %arg93: tensor<2880xbf16> {ttcore.argument_type = #ttcore.argument_type<parameter>, ttcore.shard_status = #ttcore.shard_status<presharded>, ttir.name = "l__self___model_layers_20_self_attn_o_proj_bias"} loc("p93.659"), %arg94: tensor<2880x4096xbf16> {ttcore.argument_type = #ttcore.argument_type<parameter>, ttcore.shard_status = #ttcore.shard_status<presharded>, ttir.name = "l__self___model_layers_20_self_attn_o_proj_weight"} loc("p94.663"), %arg95: tensor<512xbf16> {ttcore.argument_type = #ttcore.argument_type<parameter>, ttcore.shard_status = #ttcore.shard_status<presharded>, ttir.name = "l__self___model_layers_20_self_attn_v_proj_bias"} loc("p95.669"), %arg96: tensor<512x2880xbf16> {ttcore.argument_type = #ttcore.argument_type<parameter>, ttcore.shard_status = #ttcore.shard_status<presharded>, ttir.name = "l__self___model_layers_20_self_attn_v_proj_weight"} loc("p96.673"), %arg97: tensor<128xbf16> {ttcore.argument_type = #ttcore.argument_type<parameter>, ttcore.shard_status = #ttcore.shard_status<presharded>, ttir.name = "l__self___model_layers_19_mlp_router_bias"} loc("p97.684"), %arg98: tensor<128x2880xbf16> {ttcore.argument_type = #ttcore.argument_type<parameter>, ttcore.shard_status = #ttcore.shard_status<presharded>, ttir.name = "l__self___model_layers_19_mlp_router_weight"} loc("p98.691"), %arg99: tensor<2880xbf16> {ttcore.argument_type = #ttcore.argument_type<parameter>, ttcore.shard_status = #ttcore.shard_status<presharded>, ttir.name = "l__self___model_layers_19_self_attn_o_proj_bias"} loc("p99.701"), %arg100: tensor<2880x4096xbf16> {ttcore.argument_type = #ttcore.argument_type<parameter>, ttcore.shard_status = #ttcore.shard_status<presharded>, ttir.name = "l__self___model_layers_19_self_attn_o_proj_weight"} loc("p100.705"), %arg101: tensor<512xbf16> {ttcore.argument_type = #ttcore.argument_type<parameter>, ttcore.shard_status = #ttcore.shard_status<presharded>, ttir.name = "l__self___model_layers_19_self_attn_v_proj_bias"} loc("p101.711"), %arg102: tensor<512x2880xbf16> {ttcore.argument_type = #ttcore.argument_type<parameter>, ttcore.shard_status = #ttcore.shard_status<presharded>, ttir.name = "l__self___model_layers_19_self_attn_v_proj_weight"} loc("p102.715"), %arg103: tensor<128xbf16> {ttcore.argument_type = #ttcore.argument_type<parameter>, ttcore.shard_status = #ttcore.shard_status<presharded>, ttir.name = "l__self___model_layers_18_mlp_router_bias"} loc("p103.726"), %arg104: tensor<128x2880xbf16> {ttcore.argument_type = #ttcore.argument_type<parameter>, ttcore.shard_status = #ttcore.shard_status<presharded>, ttir.name = "l__self___model_layers_18_mlp_router_weight"} loc("p104.733"), %arg105: tensor<2880xbf16> {ttcore.argument_type = #ttcore.argument_type<parameter>, ttcore.shard_status = #ttcore.shard_status<presharded>, ttir.name = "l__self___model_layers_18_self_attn_o_proj_bias"} loc("p105.743"), %arg106: tensor<2880x4096xbf16> {ttcore.argument_type = #ttcore.argument_type<parameter>, ttcore.shard_status = #ttcore.shard_status<presharded>, ttir.name = "l__self___model_layers_18_self_attn_o_proj_weight"} loc("p106.747"), %arg107: tensor<512xbf16> {ttcore.argument_type = #ttcore.argument_type<parameter>, ttcore.shard_status = #ttcore.shard_status<presharded>, ttir.name = "l__self___model_layers_18_self_attn_v_proj_bias"} loc("p107.753"), %arg108: tensor<512x2880xbf16> {ttcore.argument_type = #ttcore.argument_type<parameter>, ttcore.shard_status = #ttcore.shard_status<presharded>, ttir.name = "l__self___model_layers_18_self_attn_v_proj_weight"} loc("p108.757"), %arg109: tensor<128xbf16> {ttcore.argument_type = #ttcore.argument_type<parameter>, ttcore.shard_status = #ttcore.shard_status<presharded>, ttir.name = "l__self___model_layers_17_mlp_router_bias"} loc("p109.768"), %arg110: tensor<128x2880xbf16> {ttcore.argument_type = #ttcore.argument_type<parameter>, ttcore.shard_status = #ttcore.shard_status<presharded>, ttir.name = "l__self___model_layers_17_mlp_router_weight"} loc("p110.775"), %arg111: tensor<2880xbf16> {ttcore.argument_type = #ttcore.argument_type<parameter>, ttcore.shard_status = #ttcore.shard_status<presharded>, ttir.name = "l__self___model_layers_17_self_attn_o_proj_bias"} loc("p111.785"), %arg112: tensor<2880x4096xbf16> {ttcore.argument_type = #ttcore.argument_type<parameter>, ttcore.shard_status = #ttcore.shard_status<presharded>, ttir.name = "l__self___model_layers_17_self_attn_o_proj_weight"} loc("p112.789"), %arg113: tensor<512xbf16> {ttcore.argument_type = #ttcore.argument_type<parameter>, ttcore.shard_status = #ttcore.shard_status<presharded>, ttir.name = "l__self___model_layers_17_self_attn_v_proj_bias"} loc("p113.795"), %arg114: tensor<512x2880xbf16> {ttcore.argument_type = #ttcore.argument_type<parameter>, ttcore.shard_status = #ttcore.shard_status<presharded>, ttir.name = "l__self___model_layers_17_self_attn_v_proj_weight"} loc("p114.799"), %arg115: tensor<128xbf16> {ttcore.argument_type = #ttcore.argument_type<parameter>, ttcore.shard_status = #ttcore.shard_status<presharded>, ttir.name = "l__self___model_layers_16_mlp_router_bias"} loc("p115.810"), %arg116: tensor<128x2880xbf16> {ttcore.argument_type = #ttcore.argument_type<parameter>, ttcore.shard_status = #ttcore.shard_status<presharded>, ttir.name = "l__self___model_layers_16_mlp_router_weight"} loc("p116.817"), %arg117: tensor<2880xbf16> {ttcore.argument_type = #ttcore.argument_type<parameter>, ttcore.shard_status = #ttcore.shard_status<presharded>, ttir.name = "l__self___model_layers_16_self_attn_o_proj_bias"} loc("p117.827"), %arg118: tensor<2880x4096xbf16> {ttcore.argument_type = #ttcore.argument_type<parameter>, ttcore.shard_status = #ttcore.shard_status<presharded>, ttir.name = "l__self___model_layers_16_self_attn_o_proj_weight"} loc("p118.831"), %arg119: tensor<512xbf16> {ttcore.argument_type = #ttcore.argument_type<parameter>, ttcore.shard_status = #ttcore.shard_status<presharded>, ttir.name = "l__self___model_layers_16_self_attn_v_proj_bias"} loc("p119.837"), %arg120: tensor<512x2880xbf16> {ttcore.argument_type = #ttcore.argument_type<parameter>, ttcore.shard_status = #ttcore.shard_status<presharded>, ttir.name = "l__self___model_layers_16_self_attn_v_proj_weight"} loc("p120.841"), %arg121: tensor<128xbf16> {ttcore.argument_type = #ttcore.argument_type<parameter>, ttcore.shard_status = #ttcore.shard_status<presharded>, ttir.name = "l__self___model_layers_15_mlp_router_bias"} loc("p121.852"), %arg122: tensor<128x2880xbf16> {ttcore.argument_type = #ttcore.argument_type<parameter>, ttcore.shard_status = #ttcore.shard_status<presharded>, ttir.name = "l__self___model_layers_15_mlp_router_weight"} loc("p122.859"), %arg123: tensor<2880xbf16> {ttcore.argument_type = #ttcore.argument_type<parameter>, ttcore.shard_status = #ttcore.shard_status<presharded>, ttir.name = "l__self___model_layers_15_self_attn_o_proj_bias"} loc("p123.869"), %arg124: tensor<2880x4096xbf16> {ttcore.argument_type = #ttcore.argument_type<parameter>, ttcore.shard_status = #ttcore.shard_status<presharded>, ttir.name = "l__self___model_layers_15_self_attn_o_proj_weight"} loc("p124.873"), %arg125: tensor<512xbf16> {ttcore.argument_type = #ttcore.argument_type<parameter>, ttcore.shard_status = #ttcore.shard_status<presharded>, ttir.name = "l__self___model_layers_15_self_attn_v_proj_bias"} loc("p125.879"), %arg126: tensor<512x2880xbf16> {ttcore.argument_type = #ttcore.argument_type<parameter>, ttcore.shard_status = #ttcore.shard_status<presharded>, ttir.name = "l__self___model_layers_15_self_attn_v_proj_weight"} loc("p126.883"), %arg127: tensor<128xbf16> {ttcore.argument_type = #ttcore.argument_type<parameter>, ttcore.shard_status = #ttcore.shard_status<presharded>, ttir.name = "l__self___model_layers_14_mlp_router_bias"} loc("p127.894"), %arg128: tensor<128x2880xbf16> {ttcore.argument_type = #ttcore.argument_type<parameter>, ttcore.shard_status = #ttcore.shard_status<presharded>, ttir.name = "l__self___model_layers_14_mlp_router_weight"} loc("p128.901"), %arg129: tensor<2880xbf16> {ttcore.argument_type = #ttcore.argument_type<parameter>, ttcore.shard_status = #ttcore.shard_status<presharded>, ttir.name = "l__self___model_layers_14_self_attn_o_proj_bias"} loc("p129.911"), %arg130: tensor<2880x4096xbf16> {ttcore.argument_type = #ttcore.argument_type<parameter>, ttcore.shard_status = #ttcore.shard_status<presharded>, ttir.name = "l__self___model_layers_14_self_attn_o_proj_weight"} loc("p130.915"), %arg131: tensor<512xbf16> {ttcore.argument_type = #ttcore.argument_type<parameter>, ttcore.shard_status = #ttcore.shard_status<presharded>, ttir.name = "l__self___model_layers_14_self_attn_v_proj_bias"} loc("p131.921"), %arg132: tensor<512x2880xbf16> {ttcore.argument_type = #ttcore.argument_type<parameter>, ttcore.shard_status = #ttcore.shard_status<presharded>, ttir.name = "l__self___model_layers_14_self_attn_v_proj_weight"} loc("p132.925"), %arg133: tensor<128xbf16> {ttcore.argument_type = #ttcore.argument_type<parameter>, ttcore.shard_status = #ttcore.shard_status<presharded>, ttir.name = "l__self___model_layers_13_mlp_router_bias"} loc("p133.936"), %arg134: tensor<128x2880xbf16> {ttcore.argument_type = #ttcore.argument_type<parameter>, ttcore.shard_status = #ttcore.shard_status<presharded>, ttir.name = "l__self___model_layers_13_mlp_router_weight"} loc("p134.943"), %arg135: tensor<2880xbf16> {ttcore.argument_type = #ttcore.argument_type<parameter>, ttcore.shard_status = #ttcore.shard_status<presharded>, ttir.name = "l__self___model_layers_13_self_attn_o_proj_bias"} loc("p135.953"), %arg136: tensor<2880x4096xbf16> {ttcore.argument_type = #ttcore.argument_type<parameter>, ttcore.shard_status = #ttcore.shard_status<presharded>, ttir.name = "l__self___model_layers_13_self_attn_o_proj_weight"} loc("p136.957"), %arg137: tensor<512xbf16> {ttcore.argument_type = #ttcore.argument_type<parameter>, ttcore.shard_status = #ttcore.shard_status<presharded>, ttir.name = "l__self___model_layers_13_self_attn_v_proj_bias"} loc("p137.963"), %arg138: tensor<512x2880xbf16> {ttcore.argument_type = #ttcore.argument_type<parameter>, ttcore.shard_status = #ttcore.shard_status<presharded>, ttir.name = "l__self___model_layers_13_self_attn_v_proj_weight"} loc("p138.967"), %arg139: tensor<128xbf16> {ttcore.argument_type = #ttcore.argument_type<parameter>, ttcore.shard_status = #ttcore.shard_status<presharded>, ttir.name = "l__self___model_layers_12_mlp_router_bias"} loc("p139.978"), %arg140: tensor<128x2880xbf16> {ttcore.argument_type = #ttcore.argument_type<parameter>, ttcore.shard_status = #ttcore.shard_status<presharded>, ttir.name = "l__self___model_layers_12_mlp_router_weight"} loc("p140.985"), %arg141: tensor<2880xbf16> {ttcore.argument_type = #ttcore.argument_type<parameter>, ttcore.shard_status = #ttcore.shard_status<presharded>, ttir.name = "l__self___model_layers_12_self_attn_o_proj_bias"} loc("p141.995"), %arg142: tensor<2880x4096xbf16> {ttcore.argument_type = #ttcore.argument_type<parameter>, ttcore.shard_status = #ttcore.shard_status<presharded>, ttir.name = "l__self___model_layers_12_self_attn_o_proj_weight"} loc("p142.999"), %arg143: tensor<512xbf16> {ttcore.argument_type = #ttcore.argument_type<parameter>, ttcore.shard_status = #ttcore.shard_status<presharded>, ttir.name = "l__self___model_layers_12_self_attn_v_proj_bias"} loc("p143.1005"), %arg144: tensor<512x2880xbf16> {ttcore.argument_type = #ttcore.argument_type<parameter>, ttcore.shard_status = #ttcore.shard_status<presharded>, ttir.name = "l__self___model_layers_12_self_attn_v_proj_weight"} loc("p144.1009"), %arg145: tensor<128xbf16> {ttcore.argument_type = #ttcore.argument_type<parameter>, ttcore.shard_status = #ttcore.shard_status<presharded>, ttir.name = "l__self___model_layers_11_mlp_router_bias"} loc("p145.1020"), %arg146: tensor<128x2880xbf16> {ttcore.argument_type = #ttcore.argument_type<parameter>, ttcore.shard_status = #ttcore.shard_status<presharded>, ttir.name = "l__self___model_layers_11_mlp_router_weight"} loc("p146.1027"), %arg147: tensor<2880xbf16> {ttcore.argument_type = #ttcore.argument_type<parameter>, ttcore.shard_status = #ttcore.shard_status<presharded>, ttir.name = "l__self___model_layers_11_self_attn_o_proj_bias"} loc("p147.1037"), %arg148: tensor<2880x4096xbf16> {ttcore.argument_type = #ttcore.argument_type<parameter>, ttcore.shard_status = #ttcore.shard_status<presharded>, ttir.name = "l__self___model_layers_11_self_attn_o_proj_weight"} loc("p148.1041"), %arg149: tensor<512xbf16> {ttcore.argument_type = #ttcore.argument_type<parameter>, ttcore.shard_status = #ttcore.shard_status<presharded>, ttir.name = "l__self___model_layers_11_self_attn_v_proj_bias"} loc("p149.1047"), %arg150: tensor<512x2880xbf16> {ttcore.argument_type = #ttcore.argument_type<parameter>, ttcore.shard_status = #ttcore.shard_status<presharded>, ttir.name = "l__self___model_layers_11_self_attn_v_proj_weight"} loc("p150.1051"), %arg151: tensor<128xbf16> {ttcore.argument_type = #ttcore.argument_type<parameter>, ttcore.shard_status = #ttcore.shard_status<presharded>, ttir.name = "l__self___model_layers_10_mlp_router_bias"} loc("p151.1062"), %arg152: tensor<128x2880xbf16> {ttcore.argument_type = #ttcore.argument_type<parameter>, ttcore.shard_status = #ttcore.shard_status<presharded>, ttir.name = "l__self___model_layers_10_mlp_router_weight"} loc("p152.1069"), %arg153: tensor<2880xbf16> {ttcore.argument_type = #ttcore.argument_type<parameter>, ttcore.shard_status = #ttcore.shard_status<presharded>, ttir.name = "l__self___model_layers_10_self_attn_o_proj_bias"} loc("p153.1079"), %arg154: tensor<2880x4096xbf16> {ttcore.argument_type = #ttcore.argument_type<parameter>, ttcore.shard_status = #ttcore.shard_status<presharded>, ttir.name = "l__self___model_layers_10_self_attn_o_proj_weight"} loc("p154.1083"), %arg155: tensor<512xbf16> {ttcore.argument_type = #ttcore.argument_type<parameter>, ttcore.shard_status = #ttcore.shard_status<presharded>, ttir.name = "l__self___model_layers_10_self_attn_v_proj_bias"} loc("p155.1089"), %arg156: tensor<512x2880xbf16> {ttcore.argument_type = #ttcore.argument_type<parameter>, ttcore.shard_status = #ttcore.shard_status<presharded>, ttir.name = "l__self___model_layers_10_self_attn_v_proj_weight"} loc("p156.1093"), %arg157: tensor<128xbf16> {ttcore.argument_type = #ttcore.argument_type<parameter>, ttcore.shard_status = #ttcore.shard_status<presharded>, ttir.name = "l__self___model_layers_9_mlp_router_bias"} loc("p157.1104"), %arg158: tensor<128x2880xbf16> {ttcore.argument_type = #ttcore.argument_type<parameter>, ttcore.shard_status = #ttcore.shard_status<presharded>, ttir.name = "l__self___model_layers_9_mlp_router_weight"} loc("p158.1111"), %arg159: tensor<2880xbf16> {ttcore.argument_type = #ttcore.argument_type<parameter>, ttcore.shard_status = #ttcore.shard_status<presharded>, ttir.name = "l__self___model_layers_9_self_attn_o_proj_bias"} loc("p159.1121"), %arg160: tensor<2880x4096xbf16> {ttcore.argument_type = #ttcore.argument_type<parameter>, ttcore.shard_status = #ttcore.shard_status<presharded>, ttir.name = "l__self___model_layers_9_self_attn_o_proj_weight"} loc("p160.1125"), %arg161: tensor<512xbf16> {ttcore.argument_type = #ttcore.argument_type<parameter>, ttcore.shard_status = #ttcore.shard_status<presharded>, ttir.name = "l__self___model_layers_9_self_attn_v_proj_bias"} loc("p161.1131"), %arg162: tensor<512x2880xbf16> {ttcore.argument_type = #ttcore.argument_type<parameter>, ttcore.shard_status = #ttcore.shard_status<presharded>, ttir.name = "l__self___model_layers_9_self_attn_v_proj_weight"} loc("p162.1135"), %arg163: tensor<128xbf16> {ttcore.argument_type = #ttcore.argument_type<parameter>, ttcore.shard_status = #ttcore.shard_status<presharded>, ttir.name = "l__self___model_layers_8_mlp_router_bias"} loc("p163.1146"), %arg164: tensor<128x2880xbf16> {ttcore.argument_type = #ttcore.argument_type<parameter>, ttcore.shard_status = #ttcore.shard_status<presharded>, ttir.name = "l__self___model_layers_8_mlp_router_weight"} loc("p164.1153"), %arg165: tensor<2880xbf16> {ttcore.argument_type = #ttcore.argument_type<parameter>, ttcore.shard_status = #ttcore.shard_status<presharded>, ttir.name = "l__self___model_layers_8_self_attn_o_proj_bias"} loc("p165.1163"), %arg166: tensor<2880x4096xbf16> {ttcore.argument_type = #ttcore.argument_type<parameter>, ttcore.shard_status = #ttcore.shard_status<presharded>, ttir.name = "l__self___model_layers_8_self_attn_o_proj_weight"} loc("p166.1167"), %arg167: tensor<512xbf16> {ttcore.argument_type = #ttcore.argument_type<parameter>, ttcore.shard_status = #ttcore.shard_status<presharded>, ttir.name = "l__self___model_layers_8_self_attn_v_proj_bias"} loc("p167.1173"), %arg168: tensor<512x2880xbf16> {ttcore.argument_type = #ttcore.argument_type<parameter>, ttcore.shard_status = #ttcore.shard_status<presharded>, ttir.name = "l__self___model_layers_8_self_attn_v_proj_weight"} loc("p168.1177"), %arg169: tensor<128xbf16> {ttcore.argument_type = #ttcore.argument_type<parameter>, ttcore.shard_status = #ttcore.shard_status<presharded>, ttir.name = "l__self___model_layers_7_mlp_router_bias"} loc("p169.1188"), %arg170: tensor<128x2880xbf16> {ttcore.argument_type = #ttcore.argument_type<parameter>, ttcore.shard_status = #ttcore.shard_status<presharded>, ttir.name = "l__self___model_layers_7_mlp_router_weight"} loc("p170.1195"), %arg171: tensor<2880xbf16> {ttcore.argument_type = #ttcore.argument_type<parameter>, ttcore.shard_status = #ttcore.shard_status<presharded>, ttir.name = "l__self___model_layers_7_self_attn_o_proj_bias"} loc("p171.1205"), %arg172: tensor<2880x4096xbf16> {ttcore.argument_type = #ttcore.argument_type<parameter>, ttcore.shard_status = #ttcore.shard_status<presharded>, ttir.name = "l__self___model_layers_7_self_attn_o_proj_weight"} loc("p172.1209"), %arg173: tensor<512xbf16> {ttcore.argument_type = #ttcore.argument_type<parameter>, ttcore.shard_status = #ttcore.shard_status<presharded>, ttir.name = "l__self___model_layers_7_self_attn_v_proj_bias"} loc("p173.1215"), %arg174: tensor<512x2880xbf16> {ttcore.argument_type = #ttcore.argument_type<parameter>, ttcore.shard_status = #ttcore.shard_status<presharded>, ttir.name = "l__self___model_layers_7_self_attn_v_proj_weight"} loc("p174.1219"), %arg175: tensor<128xbf16> {ttcore.argument_type = #ttcore.argument_type<parameter>, ttcore.shard_status = #ttcore.shard_status<presharded>, ttir.name = "l__self___model_layers_6_mlp_router_bias"} loc("p175.1230"), %arg176: tensor<128x2880xbf16> {ttcore.argument_type = #ttcore.argument_type<parameter>, ttcore.shard_status = #ttcore.shard_status<presharded>, ttir.name = "l__self___model_layers_6_mlp_router_weight"} loc("p176.1237"), %arg177: tensor<2880xbf16> {ttcore.argument_type = #ttcore.argument_type<parameter>, ttcore.shard_status = #ttcore.shard_status<presharded>, ttir.name = "l__self___model_layers_6_self_attn_o_proj_bias"} loc("p177.1247"), %arg178: tensor<2880x4096xbf16> {ttcore.argument_type = #ttcore.argument_type<parameter>, ttcore.shard_status = #ttcore.shard_status<presharded>, ttir.name = "l__self___model_layers_6_self_attn_o_proj_weight"} loc("p178.1251"), %arg179: tensor<512xbf16> {ttcore.argument_type = #ttcore.argument_type<parameter>, ttcore.shard_status = #ttcore.shard_status<presharded>, ttir.name = "l__self___model_layers_6_self_attn_v_proj_bias"} loc("p179.1257"), %arg180: tensor<512x2880xbf16> {ttcore.argument_type = #ttcore.argument_type<parameter>, ttcore.shard_status = #ttcore.shard_status<presharded>, ttir.name = "l__self___model_layers_6_self_attn_v_proj_weight"} loc("p180.1261"), %arg181: tensor<128xbf16> {ttcore.argument_type = #ttcore.argument_type<parameter>, ttcore.shard_status = #ttcore.shard_status<presharded>, ttir.name = "l__self___model_layers_5_mlp_router_bias"} loc("p181.1272"), %arg182: tensor<128x2880xbf16> {ttcore.argument_type = #ttcore.argument_type<parameter>, ttcore.shard_status = #ttcore.shard_status<presharded>, ttir.name = "l__self___model_layers_5_mlp_router_weight"} loc("p182.1279"), %arg183: tensor<2880xbf16> {ttcore.argument_type = #ttcore.argument_type<parameter>, ttcore.shard_status = #ttcore.shard_status<presharded>, ttir.name = "l__self___model_layers_5_self_attn_o_proj_bias"} loc("p183.1289"), %arg184: tensor<2880x4096xbf16> {ttcore.argument_type = #ttcore.argument_type<parameter>, ttcore.shard_status = #ttcore.shard_status<presharded>, ttir.name = "l__self___model_layers_5_self_attn_o_proj_weight"} loc("p184.1293"), %arg185: tensor<512xbf16> {ttcore.argument_type = #ttcore.argument_type<parameter>, ttcore.shard_status = #ttcore.shard_status<presharded>, ttir.name = "l__self___model_layers_5_self_attn_v_proj_bias"} loc("p185.1299"), %arg186: tensor<512x2880xbf16> {ttcore.argument_type = #ttcore.argument_type<parameter>, ttcore.shard_status = #ttcore.shard_status<presharded>, ttir.name = "l__self___model_layers_5_self_attn_v_proj_weight"} loc("p186.1303"), %arg187: tensor<128xbf16> {ttcore.argument_type = #ttcore.argument_type<parameter>, ttcore.shard_status = #ttcore.shard_status<presharded>, ttir.name = "l__self___model_layers_4_mlp_router_bias"} loc("p187.1314"), %arg188: tensor<128x2880xbf16> {ttcore.argument_type = #ttcore.argument_type<parameter>, ttcore.shard_status = #ttcore.shard_status<presharded>, ttir.name = "l__self___model_layers_4_mlp_router_weight"} loc("p188.1321"), %arg189: tensor<2880xbf16> {ttcore.argument_type = #ttcore.argument_type<parameter>, ttcore.shard_status = #ttcore.shard_status<presharded>, ttir.name = "l__self___model_layers_4_self_attn_o_proj_bias"} loc("p189.1331"), %arg190: tensor<2880x4096xbf16> {ttcore.argument_type = #ttcore.argument_type<parameter>, ttcore.shard_status = #ttcore.shard_status<presharded>, ttir.name = "l__self___model_layers_4_self_attn_o_proj_weight"} loc("p190.1335"), %arg191: tensor<512xbf16> {ttcore.argument_type = #ttcore.argument_type<parameter>, ttcore.shard_status = #ttcore.shard_status<presharded>, ttir.name = "l__self___model_layers_4_self_attn_v_proj_bias"} loc("p191.1341"), %arg192: tensor<512x2880xbf16> {ttcore.argument_type = #ttcore.argument_type<parameter>, ttcore.shard_status = #ttcore.shard_status<presharded>, ttir.name = "l__self___model_layers_4_self_attn_v_proj_weight"} loc("p192.1345"), %arg193: tensor<128xbf16> {ttcore.argument_type = #ttcore.argument_type<parameter>, ttcore.shard_status = #ttcore.shard_status<presharded>, ttir.name = "l__self___model_layers_3_mlp_router_bias"} loc("p193.1356"), %arg194: tensor<128x2880xbf16> {ttcore.argument_type = #ttcore.argument_type<parameter>, ttcore.shard_status = #ttcore.shard_status<presharded>, ttir.name = "l__self___model_layers_3_mlp_router_weight"} loc("p194.1363"), %arg195: tensor<2880xbf16> {ttcore.argument_type = #ttcore.argument_type<parameter>, ttcore.shard_status = #ttcore.shard_status<presharded>, ttir.name = "l__self___model_layers_3_self_attn_o_proj_bias"} loc("p195.1373"), %arg196: tensor<2880x4096xbf16> {ttcore.argument_type = #ttcore.argument_type<parameter>, ttcore.shard_status = #ttcore.shard_status<presharded>, ttir.name = "l__self___model_layers_3_self_attn_o_proj_weight"} loc("p196.1377"), %arg197: tensor<512xbf16> {ttcore.argument_type = #ttcore.argument_type<parameter>, ttcore.shard_status = #ttcore.shard_status<presharded>, ttir.name = "l__self___model_layers_3_self_attn_v_proj_bias"} loc("p197.1383"), %arg198: tensor<512x2880xbf16> {ttcore.argument_type = #ttcore.argument_type<parameter>, ttcore.shard_status = #ttcore.shard_status<presharded>, ttir.name = "l__self___model_layers_3_self_attn_v_proj_weight"} loc("p198.1387"), %arg199: tensor<128xbf16> {ttcore.argument_type = #ttcore.argument_type<parameter>, ttcore.shard_status = #ttcore.shard_status<presharded>, ttir.name = "l__self___model_layers_2_mlp_router_bias"} loc("p199.1398"), %arg200: tensor<128x2880xbf16> {ttcore.argument_type = #ttcore.argument_type<parameter>, ttcore.shard_status = #ttcore.shard_status<presharded>, ttir.name = "l__self___model_layers_2_mlp_router_weight"} loc("p200.1405"), %arg201: tensor<2880xbf16> {ttcore.argument_type = #ttcore.argument_type<parameter>, ttcore.shard_status = #ttcore.shard_status<presharded>, ttir.name = "l__self___model_layers_2_self_attn_o_proj_bias"} loc("p201.1415"), %arg202: tensor<2880x4096xbf16> {ttcore.argument_type = #ttcore.argument_type<parameter>, ttcore.shard_status = #ttcore.shard_status<presharded>, ttir.name = "l__self___model_layers_2_self_attn_o_proj_weight"} loc("p202.1419"), %arg203: tensor<512xbf16> {ttcore.argument_type = #ttcore.argument_type<parameter>, ttcore.shard_status = #ttcore.shard_status<presharded>, ttir.name = "l__self___model_layers_2_self_attn_v_proj_bias"} loc("p203.1425"), %arg204: tensor<512x2880xbf16> {ttcore.argument_type = #ttcore.argument_type<parameter>, ttcore.shard_status = #ttcore.shard_status<presharded>, ttir.name = "l__self___model_layers_2_self_attn_v_proj_weight"} loc("p204.1429"), %arg205: tensor<128xbf16> {ttcore.argument_type = #ttcore.argument_type<parameter>, ttcore.shard_status = #ttcore.shard_status<presharded>, ttir.name = "l__self___model_layers_1_mlp_router_bias"} loc("p205.1440"), %arg206: tensor<128x2880xbf16> {ttcore.argument_type = #ttcore.argument_type<parameter>, ttcore.shard_status = #ttcore.shard_status<presharded>, ttir.name = "l__self___model_layers_1_mlp_router_weight"} loc("p206.1447"), %arg207: tensor<2880xbf16> {ttcore.argument_type = #ttcore.argument_type<parameter>, ttcore.shard_status = #ttcore.shard_status<presharded>, ttir.name = "l__self___model_layers_1_self_attn_o_proj_bias"} loc("p207.1457"), %arg208: tensor<2880x4096xbf16> {ttcore.argument_type = #ttcore.argument_type<parameter>, ttcore.shard_status = #ttcore.shard_status<presharded>, ttir.name = "l__self___model_layers_1_self_attn_o_proj_weight"} loc("p208.1461"), %arg209: tensor<512xbf16> {ttcore.argument_type = #ttcore.argument_type<parameter>, ttcore.shard_status = #ttcore.shard_status<presharded>, ttir.name = "l__self___model_layers_1_self_attn_v_proj_bias"} loc("p209.1467"), %arg210: tensor<512x2880xbf16> {ttcore.argument_type = #ttcore.argument_type<parameter>, ttcore.shard_status = #ttcore.shard_status<presharded>, ttir.name = "l__self___model_layers_1_self_attn_v_proj_weight"} loc("p210.1471"), %arg211: tensor<128xbf16> {ttcore.argument_type = #ttcore.argument_type<parameter>, ttcore.shard_status = #ttcore.shard_status<presharded>, ttir.name = "l__self___model_layers_0_mlp_router_bias"} loc("p211.1482"), %arg212: tensor<128x2880xbf16> {ttcore.argument_type = #ttcore.argument_type<parameter>, ttcore.shard_status = #ttcore.shard_status<presharded>, ttir.name = "l__self___model_layers_0_mlp_router_weight"} loc("p212.1489"), %arg213: tensor<2880xbf16> {ttcore.argument_type = #ttcore.argument_type<parameter>, ttcore.shard_status = #ttcore.shard_status<presharded>, ttir.name = "l__self___model_layers_0_self_attn_o_proj_bias"} loc("p213.1499"), %arg214: tensor<2880x4096xbf16> {ttcore.argument_type = #ttcore.argument_type<parameter>, ttcore.shard_status = #ttcore.shard_status<presharded>, ttir.name = "l__self___model_layers_0_self_attn_o_proj_weight"} loc("p214.1503"), %arg215: tensor<512xbf16> {ttcore.argument_type = #ttcore.argument_type<parameter>, ttcore.shard_status = #ttcore.shard_status<presharded>, ttir.name = "l__self___model_layers_0_self_attn_v_proj_bias"} loc("p215.1509"), %arg216: tensor<512x2880xbf16> {ttcore.argument_type = #ttcore.argument_type<parameter>, ttcore.shard_status = #ttcore.shard_status<presharded>, ttir.name = "l__self___model_layers_0_self_attn_v_proj_weight"} loc("p216.1513"), %arg217: tensor<1x128xi64> {ttcore.argument_type = #ttcore.argument_type<input>, ttcore.shard_status = #ttcore.shard_status<presharded>, ttir.name = "args_0"} loc("p217.1521"), %arg218: tensor<201088x2880xbf16> {ttcore.argument_type = #ttcore.argument_type<parameter>, ttcore.shard_status = #ttcore.shard_status<presharded>, ttir.name = "l__self___model_embed_tokens_weight"} loc("p218.1526"), %arg219: tensor<2880xbf16> {ttcore.argument_type = #ttcore.argument_type<parameter>, ttcore.shard_status = #ttcore.shard_status<presharded>, ttir.name = "l__self___model_layers_0_input_layernorm_weight"} loc("p219.1561"), %arg220: tensor<64xbf16> {ttcore.argument_type = #ttcore.argument_type<parameter>, ttcore.shard_status = #ttcore.shard_status<presharded>, ttir.name = "l__self___model_layers_0_self_attn_sinks"} loc("p220.1584"), %arg221: tensor<1x128xi64> {ttcore.argument_type = #ttcore.argument_type<input>, ttcore.shard_status = #ttcore.shard_status<presharded>, ttir.name = "args_1"} loc("p221.1640"), %arg222: tensor<i1> {ttcore.argument_type = #ttcore.argument_type<input>, ttcore.shard_status = #ttcore.shard_status<presharded>} loc("p222.1663"), %arg223: tensor<32xf32> {ttcore.argument_type = #ttcore.argument_type<constant>, ttcore.shard_status = #ttcore.shard_status<presharded>, ttir.name = "l__self___model_rotary_emb_inv_freq"} loc("p223.1704"), %arg224: tensor<512xbf16> {ttcore.argument_type = #ttcore.argument_type<parameter>, ttcore.shard_status = #ttcore.shard_status<presharded>, ttir.name = "l__self___model_layers_0_self_attn_k_proj_bias"} loc("p224.1720"), %arg225: tensor<512x2880xbf16> {ttcore.argument_type = #ttcore.argument_type<parameter>, ttcore.shard_status = #ttcore.shard_status<presharded>, ttir.name = "l__self___model_layers_0_self_attn_k_proj_weight"} loc("p225.1724"), %arg226: tensor<4096xbf16> {ttcore.argument_type = #ttcore.argument_type<parameter>, ttcore.shard_status = #ttcore.shard_status<presharded>, ttir.name = "l__self___model_layers_0_self_attn_q_proj_bias"} loc("p226.1774"), %arg227: tensor<4096x2880xbf16> {ttcore.argument_type = #ttcore.argument_type<parameter>, ttcore.shard_status = #ttcore.shard_status<presharded>, ttir.name = "l__self___model_layers_0_self_attn_q_proj_weight"} loc("p227.1778"), %arg228: tensor<2880xbf16> {ttcore.argument_type = #ttcore.argument_type<parameter>, ttcore.shard_status = #ttcore.shard_status<presharded>, ttir.name = "l__self___model_layers_0_post_attention_layernorm_weight"} loc("p228.1928"), %arg229: tensor<128x2880xbf16> {ttcore.argument_type = #ttcore.argument_type<parameter>, ttcore.shard_status = #ttcore.shard_status<presharded>, ttir.name = "l__self___model_layers_0_mlp_experts_down_proj_bias"} loc("p229.1996"), %arg230: tensor<128x2880x2880xbf16> {ttcore.argument_type = #ttcore.argument_type<parameter>, ttcore.shard_status = #ttcore.shard_status<presharded>, ttir.name = "l__self___model_layers_0_mlp_experts_down_proj"} loc("p230.2001"), %arg231: tensor<128x5760xbf16> {ttcore.argument_type = #ttcore.argument_type<parameter>, ttcore.shard_status = #ttcore.shard_status<presharded>, ttir.name = "l__self___model_layers_0_mlp_experts_gate_up_proj_bias"} loc("p231.2007"), %arg232: tensor<128x2880x5760xbf16> {ttcore.argument_type = #ttcore.argument_type<parameter>, ttcore.shard_status = #ttcore.shard_status<presharded>, ttir.name = "l__self___model_layers_0_mlp_experts_gate_up_proj"} loc("p232.2012"), %arg233: tensor<2880xbf16> {ttcore.argument_type = #ttcore.argument_type<parameter>, ttcore.shard_status = #ttcore.shard_status<presharded>, ttir.name = "l__self___model_layers_1_input_layernorm_weight"} loc("p233.2095"), %arg234: tensor<64xbf16> {ttcore.argument_type = #ttcore.argument_type<parameter>, ttcore.shard_status = #ttcore.shard_status<presharded>, ttir.name = "l__self___model_layers_1_self_attn_sinks"} loc("p234.2118"), %arg235: tensor<512xbf16> {ttcore.argument_type = #ttcore.argument_type<parameter>, ttcore.shard_status = #ttcore.shard_status<presharded>, ttir.name = "l__self___model_layers_1_self_attn_k_proj_bias"} loc("p235.2206"), %arg236: tensor<512x2880xbf16> {ttcore.argument_type = #ttcore.argument_type<parameter>, ttcore.shard_status = #ttcore.shard_status<presharded>, ttir.name = "l__self___model_layers_1_self_attn_k_proj_weight"} loc("p236.2210"), %arg237: tensor<4096xbf16> {ttcore.argument_type = #ttcore.argument_type<parameter>, ttcore.shard_status = #ttcore.shard_status<presharded>, ttir.name = "l__self___model_layers_1_self_attn_q_proj_bias"} loc("p237.2255"), %arg238: tensor<4096x2880xbf16> {ttcore.argument_type = #ttcore.argument_type<parameter>, ttcore.shard_status = #ttcore.shard_status<presharded>, ttir.name = "l__self___model_layers_1_self_attn_q_proj_weight"} loc("p238.2259"), %arg239: tensor<2880xbf16> {ttcore.argument_type = #ttcore.argument_type<parameter>, ttcore.shard_status = #ttcore.shard_status<presharded>, ttir.name = "l__self___model_layers_1_post_attention_layernorm_weight"} loc("p239.2409"), %arg240: tensor<128x2880xbf16> {ttcore.argument_type = #ttcore.argument_type<parameter>, ttcore.shard_status = #ttcore.shard_status<presharded>, ttir.name = "l__self___model_layers_1_mlp_experts_down_proj_bias"} loc("p240.2477"), %arg241: tensor<128x2880x2880xbf16> {ttcore.argument_type = #ttcore.argument_type<parameter>, ttcore.shard_status = #ttcore.shard_status<presharded>, ttir.name = "l__self___model_layers_1_mlp_experts_down_proj"} loc("p241.2482"), %arg242: tensor<128x5760xbf16> {ttcore.argument_type = #ttcore.argument_type<parameter>, ttcore.shard_status = #ttcore.shard_status<presharded>, ttir.name = "l__self___model_layers_1_mlp_experts_gate_up_proj_bias"} loc("p242.2488"), %arg243: tensor<128x2880x5760xbf16> {ttcore.argument_type = #ttcore.argument_type<parameter>, ttcore.shard_status = #ttcore.shard_status<presharded>, ttir.name = "l__self___model_layers_1_mlp_experts_gate_up_proj"} loc("p243.2493"), %arg244: tensor<2880xbf16> {ttcore.argument_type = #ttcore.argument_type<parameter>, ttcore.shard_status = #ttcore.shard_status<presharded>, ttir.name = "l__self___model_layers_2_input_layernorm_weight"} loc("p244.2576"), %arg245: tensor<64xbf16> {ttcore.argument_type = #ttcore.argument_type<parameter>, ttcore.shard_status = #ttcore.shard_status<presharded>, ttir.name = "l__self___model_layers_2_self_attn_sinks"} loc("p245.2599"), %arg246: tensor<512xbf16> {ttcore.argument_type = #ttcore.argument_type<parameter>, ttcore.shard_status = #ttcore.shard_status<presharded>, ttir.name = "l__self___model_layers_2_self_attn_k_proj_bias"} loc("p246.2612"), %arg247: tensor<512x2880xbf16> {ttcore.argument_type = #ttcore.argument_type<parameter>, ttcore.shard_status = #ttcore.shard_status<presharded>, ttir.name = "l__self___model_layers_2_self_attn_k_proj_weight"} loc("p247.2616"), %arg248: tensor<4096xbf16> {ttcore.argument_type = #ttcore.argument_type<parameter>, ttcore.shard_status = #ttcore.shard_status<presharded>, ttir.name = "l__self___model_layers_2_self_attn_q_proj_bias"} loc("p248.2661"), %arg249: tensor<4096x2880xbf16> {ttcore.argument_type = #ttcore.argument_type<parameter>, ttcore.shard_status = #ttcore.shard_status<presharded>, ttir.name = "l__self___model_layers_2_self_attn_q_proj_weight"} loc("p249.2665"), %arg250: tensor<2880xbf16> {ttcore.argument_type = #ttcore.argument_type<parameter>, ttcore.shard_status = #ttcore.shard_status<presharded>, ttir.name = "l__self___model_layers_2_post_attention_layernorm_weight"} loc("p250.2815"), %arg251: tensor<128x2880xbf16> {ttcore.argument_type = #ttcore.argument_type<parameter>, ttcore.shard_status = #ttcore.shard_status<presharded>, ttir.name = "l__self___model_layers_2_mlp_experts_down_proj_bias"} loc("p251.2883"), %arg252: tensor<128x2880x2880xbf16> {ttcore.argument_type = #ttcore.argument_type<parameter>, ttcore.shard_status = #ttcore.shard_status<presharded>, ttir.name = "l__self___model_layers_2_mlp_experts_down_proj"} loc("p252.2888"), %arg253: tensor<128x5760xbf16> {ttcore.argument_type = #ttcore.argument_type<parameter>, ttcore.shard_status = #ttcore.shard_status<presharded>, ttir.name = "l__self___model_layers_2_mlp_experts_gate_up_proj_bias"} loc("p253.2894"), %arg254: tensor<128x2880x5760xbf16> {ttcore.argument_type = #ttcore.argument_type<parameter>, ttcore.shard_status = #ttcore.shard_status<presharded>, ttir.name = "l__self___model_layers_2_mlp_experts_gate_up_proj"} loc("p254.2899"), %arg255: tensor<2880xbf16> {ttcore.argument_type = #ttcore.argument_type<parameter>, ttcore.shard_status = #ttcore.shard_status<presharded>, ttir.name = "l__self___model_layers_3_input_layernorm_weight"} loc("p255.2982"), %arg256: tensor<64xbf16> {ttcore.argument_type = #ttcore.argument_type<parameter>, ttcore.shard_status = #ttcore.shard_status<presharded>, ttir.name = "l__self___model_layers_3_self_attn_sinks"} loc("p256.3005"), %arg257: tensor<512xbf16> {ttcore.argument_type = #ttcore.argument_type<parameter>, ttcore.shard_status = #ttcore.shard_status<presharded>, ttir.name = "l__self___model_layers_3_self_attn_k_proj_bias"} loc("p257.3018"), %arg258: tensor<512x2880xbf16> {ttcore.argument_type = #ttcore.argument_type<parameter>, ttcore.shard_status = #ttcore.shard_status<presharded>, ttir.name = "l__self___model_layers_3_self_attn_k_proj_weight"} loc("p258.3022"), %arg259: tensor<4096xbf16> {ttcore.argument_type = #ttcore.argument_type<parameter>, ttcore.shard_status = #ttcore.shard_status<presharded>, ttir.name = "l__self___model_layers_3_self_attn_q_proj_bias"} loc("p259.3067"), %arg260: tensor<4096x2880xbf16> {ttcore.argument_type = #ttcore.argument_type<parameter>, ttcore.shard_status = #ttcore.shard_status<presharded>, ttir.name = "l__self___model_layers_3_self_attn_q_proj_weight"} loc("p260.3071"), %arg261: tensor<2880xbf16> {ttcore.argument_type = #ttcore.argument_type<parameter>, ttcore.shard_status = #ttcore.shard_status<presharded>, ttir.name = "l__self___model_layers_3_post_attention_layernorm_weight"} loc("p261.3221"), %arg262: tensor<128x2880xbf16> {ttcore.argument_type = #ttcore.argument_type<parameter>, ttcore.shard_status = #ttcore.shard_status<presharded>, ttir.name = "l__self___model_layers_3_mlp_experts_down_proj_bias"} loc("p262.3289"), %arg263: tensor<128x2880x2880xbf16> {ttcore.argument_type = #ttcore.argument_type<parameter>, ttcore.shard_status = #ttcore.shard_status<presharded>, ttir.name = "l__self___model_layers_3_mlp_experts_down_proj"} loc("p263.3294"), %arg264: tensor<128x5760xbf16> {ttcore.argument_type = #ttcore.argument_type<parameter>, ttcore.shard_status = #ttcore.shard_status<presharded>, ttir.name = "l__self___model_layers_3_mlp_experts_gate_up_proj_bias"} loc("p264.3300"), %arg265: tensor<128x2880x5760xbf16> {ttcore.argument_type = #ttcore.argument_type<parameter>, ttcore.shard_status = #ttcore.shard_status<presharded>, ttir.name = "l__self___model_layers_3_mlp_experts_gate_up_proj"} loc("p265.3305"), %arg266: tensor<2880xbf16> {ttcore.argument_type = #ttcore.argument_type<parameter>, ttcore.shard_status = #ttcore.shard_status<presharded>, ttir.name = "l__self___model_layers_4_input_layernorm_weight"} loc("p266.3388"), %arg267: tensor<64xbf16> {ttcore.argument_type = #ttcore.argument_type<parameter>, ttcore.shard_status = #ttcore.shard_status<presharded>, ttir.name = "l__self___model_layers_4_self_attn_sinks"} loc("p267.3411"), %arg268: tensor<512xbf16> {ttcore.argument_type = #ttcore.argument_type<parameter>, ttcore.shard_status = #ttcore.shard_status<presharded>, ttir.name = "l__self___model_layers_4_self_attn_k_proj_bias"} loc("p268.3424"), %arg269: tensor<512x2880xbf16> {ttcore.argument_type = #ttcore.argument_type<parameter>, ttcore.shard_status = #ttcore.shard_status<presharded>, ttir.name = "l__self___model_layers_4_self_attn_k_proj_weight"} loc("p269.3428"), %arg270: tensor<4096xbf16> {ttcore.argument_type = #ttcore.argument_type<parameter>, ttcore.shard_status = #ttcore.shard_status<presharded>, ttir.name = "l__self___model_layers_4_self_attn_q_proj_bias"} loc("p270.3473"), %arg271: tensor<4096x2880xbf16> {ttcore.argument_type = #ttcore.argument_type<parameter>, ttcore.shard_status = #ttcore.shard_status<presharded>, ttir.name = "l__self___model_layers_4_self_attn_q_proj_weight"} loc("p271.3477"), %arg272: tensor<2880xbf16> {ttcore.argument_type = #ttcore.argument_type<parameter>, ttcore.shard_status = #ttcore.shard_status<presharded>, ttir.name = "l__self___model_layers_4_post_attention_layernorm_weight"} loc("p272.3627"), %arg273: tensor<128x2880xbf16> {ttcore.argument_type = #ttcore.argument_type<parameter>, ttcore.shard_status = #ttcore.shard_status<presharded>, ttir.name = "l__self___model_layers_4_mlp_experts_down_proj_bias"} loc("p273.3695"), %arg274: tensor<128x2880x2880xbf16> {ttcore.argument_type = #ttcore.argument_type<parameter>, ttcore.shard_status = #ttcore.shard_status<presharded>, ttir.name = "l__self___model_layers_4_mlp_experts_down_proj"} loc("p274.3700"), %arg275: tensor<128x5760xbf16> {ttcore.argument_type = #ttcore.argument_type<parameter>, ttcore.shard_status = #ttcore.shard_status<presharded>, ttir.name = "l__self___model_layers_4_mlp_experts_gate_up_proj_bias"} loc("p275.3706"), %arg276: tensor<128x2880x5760xbf16> {ttcore.argument_type = #ttcore.argument_type<parameter>, ttcore.shard_status = #ttcore.shard_status<presharded>, ttir.name = "l__self___model_layers_4_mlp_experts_gate_up_proj"} loc("p276.3711"), %arg277: tensor<2880xbf16> {ttcore.argument_type = #ttcore.argument_type<parameter>, ttcore.shard_status = #ttcore.shard_status<presharded>, ttir.name = "l__self___model_layers_5_input_layernorm_weight"} loc("p277.3794"), %arg278: tensor<64xbf16> {ttcore.argument_type = #ttcore.argument_type<parameter>, ttcore.shard_status = #ttcore.shard_status<presharded>, ttir.name = "l__self___model_layers_5_self_attn_sinks"} loc("p278.3817"), %arg279: tensor<512xbf16> {ttcore.argument_type = #ttcore.argument_type<parameter>, ttcore.shard_status = #ttcore.shard_status<presharded>, ttir.name = "l__self___model_layers_5_self_attn_k_proj_bias"} loc("p279.3830"), %arg280: tensor<512x2880xbf16> {ttcore.argument_type = #ttcore.argument_type<parameter>, ttcore.shard_status = #ttcore.shard_status<presharded>, ttir.name = "l__self___model_layers_5_self_attn_k_proj_weight"} loc("p280.3834"), %arg281: tensor<4096xbf16> {ttcore.argument_type = #ttcore.argument_type<parameter>, ttcore.shard_status = #ttcore.shard_status<presharded>, ttir.name = "l__self___model_layers_5_self_attn_q_proj_bias"} loc("p281.3879"), %arg282: tensor<4096x2880xbf16> {ttcore.argument_type = #ttcore.argument_type<parameter>, ttcore.shard_status = #ttcore.shard_status<presharded>, ttir.name = "l__self___model_layers_5_self_attn_q_proj_weight"} loc("p282.3883"), %arg283: tensor<2880xbf16> {ttcore.argument_type = #ttcore.argument_type<parameter>, ttcore.shard_status = #ttcore.shard_status<presharded>, ttir.name = "l__self___model_layers_5_post_attention_layernorm_weight"} loc("p283.4033"), %arg284: tensor<128x2880xbf16> {ttcore.argument_type = #ttcore.argument_type<parameter>, ttcore.shard_status = #ttcore.shard_status<presharded>, ttir.name = "l__self___model_layers_5_mlp_experts_down_proj_bias"} loc("p284.4101"), %arg285: tensor<128x2880x2880xbf16> {ttcore.argument_type = #ttcore.argument_type<parameter>, ttcore.shard_status = #ttcore.shard_status<presharded>, ttir.name = "l__self___model_layers_5_mlp_experts_down_proj"} loc("p285.4106"), %arg286: tensor<128x5760xbf16> {ttcore.argument_type = #ttcore.argument_type<parameter>, ttcore.shard_status = #ttcore.shard_status<presharded>, ttir.name = "l__self___model_layers_5_mlp_experts_gate_up_proj_bias"} loc("p286.4112"), %arg287: tensor<128x2880x5760xbf16> {ttcore.argument_type = #ttcore.argument_type<parameter>, ttcore.shard_status = #ttcore.shard_status<presharded>, ttir.name = "l__self___model_layers_5_mlp_experts_gate_up_proj"} loc("p287.4117"), %arg288: tensor<2880xbf16> {ttcore.argument_type = #ttcore.argument_type<parameter>, ttcore.shard_status = #ttcore.shard_status<presharded>, ttir.name = "l__self___model_layers_6_input_layernorm_weight"} loc("p288.4200"), %arg289: tensor<64xbf16> {ttcore.argument_type = #ttcore.argument_type<parameter>, ttcore.shard_status = #ttcore.shard_status<presharded>, ttir.name = "l__self___model_layers_6_self_attn_sinks"} loc("p289.4223"), %arg290: tensor<512xbf16> {ttcore.argument_type = #ttcore.argument_type<parameter>, ttcore.shard_status = #ttcore.shard_status<presharded>, ttir.name = "l__self___model_layers_6_self_attn_k_proj_bias"} loc("p290.4236"), %arg291: tensor<512x2880xbf16> {ttcore.argument_type = #ttcore.argument_type<parameter>, ttcore.shard_status = #ttcore.shard_status<presharded>, ttir.name = "l__self___model_layers_6_self_attn_k_proj_weight"} loc("p291.4240"), %arg292: tensor<4096xbf16> {ttcore.argument_type = #ttcore.argument_type<parameter>, ttcore.shard_status = #ttcore.shard_status<presharded>, ttir.name = "l__self___model_layers_6_self_attn_q_proj_bias"} loc("p292.4285"), %arg293: tensor<4096x2880xbf16> {ttcore.argument_type = #ttcore.argument_type<parameter>, ttcore.shard_status = #ttcore.shard_status<presharded>, ttir.name = "l__self___model_layers_6_self_attn_q_proj_weight"} loc("p293.4289"), %arg294: tensor<2880xbf16> {ttcore.argument_type = #ttcore.argument_type<parameter>, ttcore.shard_status = #ttcore.shard_status<presharded>, ttir.name = "l__self___model_layers_6_post_attention_layernorm_weight"} loc("p294.4439"), %arg295: tensor<128x2880xbf16> {ttcore.argument_type = #ttcore.argument_type<parameter>, ttcore.shard_status = #ttcore.shard_status<presharded>, ttir.name = "l__self___model_layers_6_mlp_experts_down_proj_bias"} loc("p295.4507"), %arg296: tensor<128x2880x2880xbf16> {ttcore.argument_type = #ttcore.argument_type<parameter>, ttcore.shard_status = #ttcore.shard_status<presharded>, ttir.name = "l__self___model_layers_6_mlp_experts_down_proj"} loc("p296.4512"), %arg297: tensor<128x5760xbf16> {ttcore.argument_type = #ttcore.argument_type<parameter>, ttcore.shard_status = #ttcore.shard_status<presharded>, ttir.name = "l__self___model_layers_6_mlp_experts_gate_up_proj_bias"} loc("p297.4518"), %arg298: tensor<128x2880x5760xbf16> {ttcore.argument_type = #ttcore.argument_type<parameter>, ttcore.shard_status = #ttcore.shard_status<presharded>, ttir.name = "l__self___model_layers_6_mlp_experts_gate_up_proj"} loc("p298.4523"), %arg299: tensor<2880xbf16> {ttcore.argument_type = #ttcore.argument_type<parameter>, ttcore.shard_status = #ttcore.shard_status<presharded>, ttir.name = "l__self___model_layers_7_input_layernorm_weight"} loc("p299.4606"), %arg300: tensor<64xbf16> {ttcore.argument_type = #ttcore.argument_type<parameter>, ttcore.shard_status = #ttcore.shard_status<presharded>, ttir.name = "l__self___model_layers_7_self_attn_sinks"} loc("p300.4629"), %arg301: tensor<512xbf16> {ttcore.argument_type = #ttcore.argument_type<parameter>, ttcore.shard_status = #ttcore.shard_status<presharded>, ttir.name = "l__self___model_layers_7_self_attn_k_proj_bias"} loc("p301.4642"), %arg302: tensor<512x2880xbf16> {ttcore.argument_type = #ttcore.argument_type<parameter>, ttcore.shard_status = #ttcore.shard_status<presharded>, ttir.name = "l__self___model_layers_7_self_attn_k_proj_weight"} loc("p302.4646"), %arg303: tensor<4096xbf16> {ttcore.argument_type = #ttcore.argument_type<parameter>, ttcore.shard_status = #ttcore.shard_status<presharded>, ttir.name = "l__self___model_layers_7_self_attn_q_proj_bias"} loc("p303.4691"), %arg304: tensor<4096x2880xbf16> {ttcore.argument_type = #ttcore.argument_type<parameter>, ttcore.shard_status = #ttcore.shard_status<presharded>, ttir.name = "l__self___model_layers_7_self_attn_q_proj_weight"} loc("p304.4695"), %arg305: tensor<2880xbf16> {ttcore.argument_type = #ttcore.argument_type<parameter>, ttcore.shard_status = #ttcore.shard_status<presharded>, ttir.name = "l__self___model_layers_7_post_attention_layernorm_weight"} loc("p305.4845"), %arg306: tensor<128x2880xbf16> {ttcore.argument_type = #ttcore.argument_type<parameter>, ttcore.shard_status = #ttcore.shard_status<presharded>, ttir.name = "l__self___model_layers_7_mlp_experts_down_proj_bias"} loc("p306.4913"), %arg307: tensor<128x2880x2880xbf16> {ttcore.argument_type = #ttcore.argument_type<parameter>, ttcore.shard_status = #ttcore.shard_status<presharded>, ttir.name = "l__self___model_layers_7_mlp_experts_down_proj"} loc("p307.4918"), %arg308: tensor<128x5760xbf16> {ttcore.argument_type = #ttcore.argument_type<parameter>, ttcore.shard_status = #ttcore.shard_status<presharded>, ttir.name = "l__self___model_layers_7_mlp_experts_gate_up_proj_bias"} loc("p308.4924"), %arg309: tensor<128x2880x5760xbf16> {ttcore.argument_type = #ttcore.argument_type<parameter>, ttcore.shard_status = #ttcore.shard_status<presharded>, ttir.name = "l__self___model_layers_7_mlp_experts_gate_up_proj"} loc("p309.4929"), %arg310: tensor<2880xbf16> {ttcore.argument_type = #ttcore.argument_type<parameter>, ttcore.shard_status = #ttcore.shard_status<presharded>, ttir.name = "l__self___model_layers_8_input_layernorm_weight"} loc("p310.5012"), %arg311: tensor<64xbf16> {ttcore.argument_type = #ttcore.argument_type<parameter>, ttcore.shard_status = #ttcore.shard_status<presharded>, ttir.name = "l__self___model_layers_8_self_attn_sinks"} loc("p311.5035"), %arg312: tensor<512xbf16> {ttcore.argument_type = #ttcore.argument_type<parameter>, ttcore.shard_status = #ttcore.shard_status<presharded>, ttir.name = "l__self___model_layers_8_self_attn_k_proj_bias"} loc("p312.5048"), %arg313: tensor<512x2880xbf16> {ttcore.argument_type = #ttcore.argument_type<parameter>, ttcore.shard_status = #ttcore.shard_status<presharded>, ttir.name = "l__self___model_layers_8_self_attn_k_proj_weight"} loc("p313.5052"), %arg314: tensor<4096xbf16> {ttcore.argument_type = #ttcore.argument_type<parameter>, ttcore.shard_status = #ttcore.shard_status<presharded>, ttir.name = "l__self___model_layers_8_self_attn_q_proj_bias"} loc("p314.5097"), %arg315: tensor<4096x2880xbf16> {ttcore.argument_type = #ttcore.argument_type<parameter>, ttcore.shard_status = #ttcore.shard_status<presharded>, ttir.name = "l__self___model_layers_8_self_attn_q_proj_weight"} loc("p315.5101"), %arg316: tensor<2880xbf16> {ttcore.argument_type = #ttcore.argument_type<parameter>, ttcore.shard_status = #ttcore.shard_status<presharded>, ttir.name = "l__self___model_layers_8_post_attention_layernorm_weight"} loc("p316.5251"), %arg317: tensor<128x2880xbf16> {ttcore.argument_type = #ttcore.argument_type<parameter>, ttcore.shard_status = #ttcore.shard_status<presharded>, ttir.name = "l__self___model_layers_8_mlp_experts_down_proj_bias"} loc("p317.5319"), %arg318: tensor<128x2880x2880xbf16> {ttcore.argument_type = #ttcore.argument_type<parameter>, ttcore.shard_status = #ttcore.shard_status<presharded>, ttir.name = "l__self___model_layers_8_mlp_experts_down_proj"} loc("p318.5324"), %arg319: tensor<128x5760xbf16> {ttcore.argument_type = #ttcore.argument_type<parameter>, ttcore.shard_status = #ttcore.shard_status<presharded>, ttir.name = "l__self___model_layers_8_mlp_experts_gate_up_proj_bias"} loc("p319.5330"), %arg320: tensor<128x2880x5760xbf16> {ttcore.argument_type = #ttcore.argument_type<parameter>, ttcore.shard_status = #ttcore.shard_status<presharded>, ttir.name = "l__self___model_layers_8_mlp_experts_gate_up_proj"} loc("p320.5335"), %arg321: tensor<2880xbf16> {ttcore.argument_type = #ttcore.argument_type<parameter>, ttcore.shard_status = #ttcore.shard_status<presharded>, ttir.name = "l__self___model_layers_9_input_layernorm_weight"} loc("p321.5418"), %arg322: tensor<64xbf16> {ttcore.argument_type = #ttcore.argument_type<parameter>, ttcore.shard_status = #ttcore.shard_status<presharded>, ttir.name = "l__self___model_layers_9_self_attn_sinks"} loc("p322.5441"), %arg323: tensor<512xbf16> {ttcore.argument_type = #ttcore.argument_type<parameter>, ttcore.shard_status = #ttcore.shard_status<presharded>, ttir.name = "l__self___model_layers_9_self_attn_k_proj_bias"} loc("p323.5454"), %arg324: tensor<512x2880xbf16> {ttcore.argument_type = #ttcore.argument_type<parameter>, ttcore.shard_status = #ttcore.shard_status<presharded>, ttir.name = "l__self___model_layers_9_self_attn_k_proj_weight"} loc("p324.5458"), %arg325: tensor<4096xbf16> {ttcore.argument_type = #ttcore.argument_type<parameter>, ttcore.shard_status = #ttcore.shard_status<presharded>, ttir.name = "l__self___model_layers_9_self_attn_q_proj_bias"} loc("p325.5503"), %arg326: tensor<4096x2880xbf16> {ttcore.argument_type = #ttcore.argument_type<parameter>, ttcore.shard_status = #ttcore.shard_status<presharded>, ttir.name = "l__self___model_layers_9_self_attn_q_proj_weight"} loc("p326.5507"), %arg327: tensor<2880xbf16> {ttcore.argument_type = #ttcore.argument_type<parameter>, ttcore.shard_status = #ttcore.shard_status<presharded>, ttir.name = "l__self___model_layers_9_post_attention_layernorm_weight"} loc("p327.5657"), %arg328: tensor<128x2880xbf16> {ttcore.argument_type = #ttcore.argument_type<parameter>, ttcore.shard_status = #ttcore.shard_status<presharded>, ttir.name = "l__self___model_layers_9_mlp_experts_down_proj_bias"} loc("p328.5725"), %arg329: tensor<128x2880x2880xbf16> {ttcore.argument_type = #ttcore.argument_type<parameter>, ttcore.shard_status = #ttcore.shard_status<presharded>, ttir.name = "l__self___model_layers_9_mlp_experts_down_proj"} loc("p329.5730"), %arg330: tensor<128x5760xbf16> {ttcore.argument_type = #ttcore.argument_type<parameter>, ttcore.shard_status = #ttcore.shard_status<presharded>, ttir.name = "l__self___model_layers_9_mlp_experts_gate_up_proj_bias"} loc("p330.5736"), %arg331: tensor<128x2880x5760xbf16> {ttcore.argument_type = #ttcore.argument_type<parameter>, ttcore.shard_status = #ttcore.shard_status<presharded>, ttir.name = "l__self___model_layers_9_mlp_experts_gate_up_proj"} loc("p331.5741"), %arg332: tensor<2880xbf16> {ttcore.argument_type = #ttcore.argument_type<parameter>, ttcore.shard_status = #ttcore.shard_status<presharded>, ttir.name = "l__self___model_layers_10_input_layernorm_weight"} loc("p332.5824"), %arg333: tensor<64xbf16> {ttcore.argument_type = #ttcore.argument_type<parameter>, ttcore.shard_status = #ttcore.shard_status<presharded>, ttir.name = "l__self___model_layers_10_self_attn_sinks"} loc("p333.5847"), %arg334: tensor<512xbf16> {ttcore.argument_type = #ttcore.argument_type<parameter>, ttcore.shard_status = #ttcore.shard_status<presharded>, ttir.name = "l__self___model_layers_10_self_attn_k_proj_bias"} loc("p334.5860"), %arg335: tensor<512x2880xbf16> {ttcore.argument_type = #ttcore.argument_type<parameter>, ttcore.shard_status = #ttcore.shard_status<presharded>, ttir.name = "l__self___model_layers_10_self_attn_k_proj_weight"} loc("p335.5864"), %arg336: tensor<4096xbf16> {ttcore.argument_type = #ttcore.argument_type<parameter>, ttcore.shard_status = #ttcore.shard_status<presharded>, ttir.name = "l__self___model_layers_10_self_attn_q_proj_bias"} loc("p336.5909"), %arg337: tensor<4096x2880xbf16> {ttcore.argument_type = #ttcore.argument_type<parameter>, ttcore.shard_status = #ttcore.shard_status<presharded>, ttir.name = "l__self___model_layers_10_self_attn_q_proj_weight"} loc("p337.5913"), %arg338: tensor<2880xbf16> {ttcore.argument_type = #ttcore.argument_type<parameter>, ttcore.shard_status = #ttcore.shard_status<presharded>, ttir.name = "l__self___model_layers_10_post_attention_layernorm_weight"} loc("p338.6063"), %arg339: tensor<128x2880xbf16> {ttcore.argument_type = #ttcore.argument_type<parameter>, ttcore.shard_status = #ttcore.shard_status<presharded>, ttir.name = "l__self___model_layers_10_mlp_experts_down_proj_bias"} loc("p339.6131"), %arg340: tensor<128x2880x2880xbf16> {ttcore.argument_type = #ttcore.argument_type<parameter>, ttcore.shard_status = #ttcore.shard_status<presharded>, ttir.name = "l__self___model_layers_10_mlp_experts_down_proj"} loc("p340.6136"), %arg341: tensor<128x5760xbf16> {ttcore.argument_type = #ttcore.argument_type<parameter>, ttcore.shard_status = #ttcore.shard_status<presharded>, ttir.name = "l__self___model_layers_10_mlp_experts_gate_up_proj_bias"} loc("p341.6142"), %arg342: tensor<128x2880x5760xbf16> {ttcore.argument_type = #ttcore.argument_type<parameter>, ttcore.shard_status = #ttcore.shard_status<presharded>, ttir.name = "l__self___model_layers_10_mlp_experts_gate_up_proj"} loc("p342.6147"), %arg343: tensor<2880xbf16> {ttcore.argument_type = #ttcore.argument_type<parameter>, ttcore.shard_status = #ttcore.shard_status<presharded>, ttir.name = "l__self___model_layers_11_input_layernorm_weight"} loc("p343.6230"), %arg344: tensor<64xbf16> {ttcore.argument_type = #ttcore.argument_type<parameter>, ttcore.shard_status = #ttcore.shard_status<presharded>, ttir.name = "l__self___model_layers_11_self_attn_sinks"} loc("p344.6253"), %arg345: tensor<512xbf16> {ttcore.argument_type = #ttcore.argument_type<parameter>, ttcore.shard_status = #ttcore.shard_status<presharded>, ttir.name = "l__self___model_layers_11_self_attn_k_proj_bias"} loc("p345.6266"), %arg346: tensor<512x2880xbf16> {ttcore.argument_type = #ttcore.argument_type<parameter>, ttcore.shard_status = #ttcore.shard_status<presharded>, ttir.name = "l__self___model_layers_11_self_attn_k_proj_weight"} loc("p346.6270"), %arg347: tensor<4096xbf16> {ttcore.argument_type = #ttcore.argument_type<parameter>, ttcore.shard_status = #ttcore.shard_status<presharded>, ttir.name = "l__self___model_layers_11_self_attn_q_proj_bias"} loc("p347.6315"), %arg348: tensor<4096x2880xbf16> {ttcore.argument_type = #ttcore.argument_type<parameter>, ttcore.shard_status = #ttcore.shard_status<presharded>, ttir.name = "l__self___model_layers_11_self_attn_q_proj_weight"} loc("p348.6319"), %arg349: tensor<2880xbf16> {ttcore.argument_type = #ttcore.argument_type<parameter>, ttcore.shard_status = #ttcore.shard_status<presharded>, ttir.name = "l__self___model_layers_11_post_attention_layernorm_weight"} loc("p349.6469"), %arg350: tensor<128x2880xbf16> {ttcore.argument_type = #ttcore.argument_type<parameter>, ttcore.shard_status = #ttcore.shard_status<presharded>, ttir.name = "l__self___model_layers_11_mlp_experts_down_proj_bias"} loc("p350.6537"), %arg351: tensor<128x2880x2880xbf16> {ttcore.argument_type = #ttcore.argument_type<parameter>, ttcore.shard_status = #ttcore.shard_status<presharded>, ttir.name = "l__self___model_layers_11_mlp_experts_down_proj"} loc("p351.6542"), %arg352: tensor<128x5760xbf16> {ttcore.argument_type = #ttcore.argument_type<parameter>, ttcore.shard_status = #ttcore.shard_status<presharded>, ttir.name = "l__self___model_layers_11_mlp_experts_gate_up_proj_bias"} loc("p352.6548"), %arg353: tensor<128x2880x5760xbf16> {ttcore.argument_type = #ttcore.argument_type<parameter>, ttcore.shard_status = #ttcore.shard_status<presharded>, ttir.name = "l__self___model_layers_11_mlp_experts_gate_up_proj"} loc("p353.6553"), %arg354: tensor<2880xbf16> {ttcore.argument_type = #ttcore.argument_type<parameter>, ttcore.shard_status = #ttcore.shard_status<presharded>, ttir.name = "l__self___model_layers_12_input_layernorm_weight"} loc("p354.6636"), %arg355: tensor<64xbf16> {ttcore.argument_type = #ttcore.argument_type<parameter>, ttcore.shard_status = #ttcore.shard_status<presharded>, ttir.name = "l__self___model_layers_12_self_attn_sinks"} loc("p355.6659"), %arg356: tensor<512xbf16> {ttcore.argument_type = #ttcore.argument_type<parameter>, ttcore.shard_status = #ttcore.shard_status<presharded>, ttir.name = "l__self___model_layers_12_self_attn_k_proj_bias"} loc("p356.6672"), %arg357: tensor<512x2880xbf16> {ttcore.argument_type = #ttcore.argument_type<parameter>, ttcore.shard_status = #ttcore.shard_status<presharded>, ttir.name = "l__self___model_layers_12_self_attn_k_proj_weight"} loc("p357.6676"), %arg358: tensor<4096xbf16> {ttcore.argument_type = #ttcore.argument_type<parameter>, ttcore.shard_status = #ttcore.shard_status<presharded>, ttir.name = "l__self___model_layers_12_self_attn_q_proj_bias"} loc("p358.6721"), %arg359: tensor<4096x2880xbf16> {ttcore.argument_type = #ttcore.argument_type<parameter>, ttcore.shard_status = #ttcore.shard_status<presharded>, ttir.name = "l__self___model_layers_12_self_attn_q_proj_weight"} loc("p359.6725"), %arg360: tensor<2880xbf16> {ttcore.argument_type = #ttcore.argument_type<parameter>, ttcore.shard_status = #ttcore.shard_status<presharded>, ttir.name = "l__self___model_layers_12_post_attention_layernorm_weight"} loc("p360.6875"), %arg361: tensor<128x2880xbf16> {ttcore.argument_type = #ttcore.argument_type<parameter>, ttcore.shard_status = #ttcore.shard_status<presharded>, ttir.name = "l__self___model_layers_12_mlp_experts_down_proj_bias"} loc("p361.6943"), %arg362: tensor<128x2880x2880xbf16> {ttcore.argument_type = #ttcore.argument_type<parameter>, ttcore.shard_status = #ttcore.shard_status<presharded>, ttir.name = "l__self___model_layers_12_mlp_experts_down_proj"} loc("p362.6948"), %arg363: tensor<128x5760xbf16> {ttcore.argument_type = #ttcore.argument_type<parameter>, ttcore.shard_status = #ttcore.shard_status<presharded>, ttir.name = "l__self___model_layers_12_mlp_experts_gate_up_proj_bias"} loc("p363.6954"), %arg364: tensor<128x2880x5760xbf16> {ttcore.argument_type = #ttcore.argument_type<parameter>, ttcore.shard_status = #ttcore.shard_status<presharded>, ttir.name = "l__self___model_layers_12_mlp_experts_gate_up_proj"} loc("p364.6959"), %arg365: tensor<2880xbf16> {ttcore.argument_type = #ttcore.argument_type<parameter>, ttcore.shard_status = #ttcore.shard_status<presharded>, ttir.name = "l__self___model_layers_13_input_layernorm_weight"} loc("p365.7042"), %arg366: tensor<64xbf16> {ttcore.argument_type = #ttcore.argument_type<parameter>, ttcore.shard_status = #ttcore.shard_status<presharded>, ttir.name = "l__self___model_layers_13_self_attn_sinks"} loc("p366.7065"), %arg367: tensor<512xbf16> {ttcore.argument_type = #ttcore.argument_type<parameter>, ttcore.shard_status = #ttcore.shard_status<presharded>, ttir.name = "l__self___model_layers_13_self_attn_k_proj_bias"} loc("p367.7078"), %arg368: tensor<512x2880xbf16> {ttcore.argument_type = #ttcore.argument_type<parameter>, ttcore.shard_status = #ttcore.shard_status<presharded>, ttir.name = "l__self___model_layers_13_self_attn_k_proj_weight"} loc("p368.7082"), %arg369: tensor<4096xbf16> {ttcore.argument_type = #ttcore.argument_type<parameter>, ttcore.shard_status = #ttcore.shard_status<presharded>, ttir.name = "l__self___model_layers_13_self_attn_q_proj_bias"} loc("p369.7127"), %arg370: tensor<4096x2880xbf16> {ttcore.argument_type = #ttcore.argument_type<parameter>, ttcore.shard_status = #ttcore.shard_status<presharded>, ttir.name = "l__self___model_layers_13_self_attn_q_proj_weight"} loc("p370.7131"), %arg371: tensor<2880xbf16> {ttcore.argument_type = #ttcore.argument_type<parameter>, ttcore.shard_status = #ttcore.shard_status<presharded>, ttir.name = "l__self___model_layers_13_post_attention_layernorm_weight"} loc("p371.7281"), %arg372: tensor<128x2880xbf16> {ttcore.argument_type = #ttcore.argument_type<parameter>, ttcore.shard_status = #ttcore.shard_status<presharded>, ttir.name = "l__self___model_layers_13_mlp_experts_down_proj_bias"} loc("p372.7349"), %arg373: tensor<128x2880x2880xbf16> {ttcore.argument_type = #ttcore.argument_type<parameter>, ttcore.shard_status = #ttcore.shard_status<presharded>, ttir.name = "l__self___model_layers_13_mlp_experts_down_proj"} loc("p373.7354"), %arg374: tensor<128x5760xbf16> {ttcore.argument_type = #ttcore.argument_type<parameter>, ttcore.shard_status = #ttcore.shard_status<presharded>, ttir.name = "l__self___model_layers_13_mlp_experts_gate_up_proj_bias"} loc("p374.7360"), %arg375: tensor<128x2880x5760xbf16> {ttcore.argument_type = #ttcore.argument_type<parameter>, ttcore.shard_status = #ttcore.shard_status<presharded>, ttir.name = "l__self___model_layers_13_mlp_experts_gate_up_proj"} loc("p375.7365"), %arg376: tensor<2880xbf16> {ttcore.argument_type = #ttcore.argument_type<parameter>, ttcore.shard_status = #ttcore.shard_status<presharded>, ttir.name = "l__self___model_layers_14_input_layernorm_weight"} loc("p376.7448"), %arg377: tensor<64xbf16> {ttcore.argument_type = #ttcore.argument_type<parameter>, ttcore.shard_status = #ttcore.shard_status<presharded>, ttir.name = "l__self___model_layers_14_self_attn_sinks"} loc("p377.7471"), %arg378: tensor<512xbf16> {ttcore.argument_type = #ttcore.argument_type<parameter>, ttcore.shard_status = #ttcore.shard_status<presharded>, ttir.name = "l__self___model_layers_14_self_attn_k_proj_bias"} loc("p378.7484"), %arg379: tensor<512x2880xbf16> {ttcore.argument_type = #ttcore.argument_type<parameter>, ttcore.shard_status = #ttcore.shard_status<presharded>, ttir.name = "l__self___model_layers_14_self_attn_k_proj_weight"} loc("p379.7488"), %arg380: tensor<4096xbf16> {ttcore.argument_type = #ttcore.argument_type<parameter>, ttcore.shard_status = #ttcore.shard_status<presharded>, ttir.name = "l__self___model_layers_14_self_attn_q_proj_bias"} loc("p380.7533"), %arg381: tensor<4096x2880xbf16> {ttcore.argument_type = #ttcore.argument_type<parameter>, ttcore.shard_status = #ttcore.shard_status<presharded>, ttir.name = "l__self___model_layers_14_self_attn_q_proj_weight"} loc("p381.7537"), %arg382: tensor<2880xbf16> {ttcore.argument_type = #ttcore.argument_type<parameter>, ttcore.shard_status = #ttcore.shard_status<presharded>, ttir.name = "l__self___model_layers_14_post_attention_layernorm_weight"} loc("p382.7687"), %arg383: tensor<128x2880xbf16> {ttcore.argument_type = #ttcore.argument_type<parameter>, ttcore.shard_status = #ttcore.shard_status<presharded>, ttir.name = "l__self___model_layers_14_mlp_experts_down_proj_bias"} loc("p383.7755"), %arg384: tensor<128x2880x2880xbf16> {ttcore.argument_type = #ttcore.argument_type<parameter>, ttcore.shard_status = #ttcore.shard_status<presharded>, ttir.name = "l__self___model_layers_14_mlp_experts_down_proj"} loc("p384.7760"), %arg385: tensor<128x5760xbf16> {ttcore.argument_type = #ttcore.argument_type<parameter>, ttcore.shard_status = #ttcore.shard_status<presharded>, ttir.name = "l__self___model_layers_14_mlp_experts_gate_up_proj_bias"} loc("p385.7766"), %arg386: tensor<128x2880x5760xbf16> {ttcore.argument_type = #ttcore.argument_type<parameter>, ttcore.shard_status = #ttcore.shard_status<presharded>, ttir.name = "l__self___model_layers_14_mlp_experts_gate_up_proj"} loc("p386.7771"), %arg387: tensor<2880xbf16> {ttcore.argument_type = #ttcore.argument_type<parameter>, ttcore.shard_status = #ttcore.shard_status<presharded>, ttir.name = "l__self___model_layers_15_input_layernorm_weight"} loc("p387.7854"), %arg388: tensor<64xbf16> {ttcore.argument_type = #ttcore.argument_type<parameter>, ttcore.shard_status = #ttcore.shard_status<presharded>, ttir.name = "l__self___model_layers_15_self_attn_sinks"} loc("p388.7877"), %arg389: tensor<512xbf16> {ttcore.argument_type = #ttcore.argument_type<parameter>, ttcore.shard_status = #ttcore.shard_status<presharded>, ttir.name = "l__self___model_layers_15_self_attn_k_proj_bias"} loc("p389.7890"), %arg390: tensor<512x2880xbf16> {ttcore.argument_type = #ttcore.argument_type<parameter>, ttcore.shard_status = #ttcore.shard_status<presharded>, ttir.name = "l__self___model_layers_15_self_attn_k_proj_weight"} loc("p390.7894"), %arg391: tensor<4096xbf16> {ttcore.argument_type = #ttcore.argument_type<parameter>, ttcore.shard_status = #ttcore.shard_status<presharded>, ttir.name = "l__self___model_layers_15_self_attn_q_proj_bias"} loc("p391.7939"), %arg392: tensor<4096x2880xbf16> {ttcore.argument_type = #ttcore.argument_type<parameter>, ttcore.shard_status = #ttcore.shard_status<presharded>, ttir.name = "l__self___model_layers_15_self_attn_q_proj_weight"} loc("p392.7943"), %arg393: tensor<2880xbf16> {ttcore.argument_type = #ttcore.argument_type<parameter>, ttcore.shard_status = #ttcore.shard_status<presharded>, ttir.name = "l__self___model_layers_15_post_attention_layernorm_weight"} loc("p393.8093"), %arg394: tensor<128x2880xbf16> {ttcore.argument_type = #ttcore.argument_type<parameter>, ttcore.shard_status = #ttcore.shard_status<presharded>, ttir.name = "l__self___model_layers_15_mlp_experts_down_proj_bias"} loc("p394.8161"), %arg395: tensor<128x2880x2880xbf16> {ttcore.argument_type = #ttcore.argument_type<parameter>, ttcore.shard_status = #ttcore.shard_status<presharded>, ttir.name = "l__self___model_layers_15_mlp_experts_down_proj"} loc("p395.8166"), %arg396: tensor<128x5760xbf16> {ttcore.argument_type = #ttcore.argument_type<parameter>, ttcore.shard_status = #ttcore.shard_status<presharded>, ttir.name = "l__self___model_layers_15_mlp_experts_gate_up_proj_bias"} loc("p396.8172"), %arg397: tensor<128x2880x5760xbf16> {ttcore.argument_type = #ttcore.argument_type<parameter>, ttcore.shard_status = #ttcore.shard_status<presharded>, ttir.name = "l__self___model_layers_15_mlp_experts_gate_up_proj"} loc("p397.8177"), %arg398: tensor<2880xbf16> {ttcore.argument_type = #ttcore.argument_type<parameter>, ttcore.shard_status = #ttcore.shard_status<presharded>, ttir.name = "l__self___model_layers_16_input_layernorm_weight"} loc("p398.8260"), %arg399: tensor<64xbf16> {ttcore.argument_type = #ttcore.argument_type<parameter>, ttcore.shard_status = #ttcore.shard_status<presharded>, ttir.name = "l__self___model_layers_16_self_attn_sinks"} loc("p399.8283"), %arg400: tensor<512xbf16> {ttcore.argument_type = #ttcore.argument_type<parameter>, ttcore.shard_status = #ttcore.shard_status<presharded>, ttir.name = "l__self___model_layers_16_self_attn_k_proj_bias"} loc("p400.8296"), %arg401: tensor<512x2880xbf16> {ttcore.argument_type = #ttcore.argument_type<parameter>, ttcore.shard_status = #ttcore.shard_status<presharded>, ttir.name = "l__self___model_layers_16_self_attn_k_proj_weight"} loc("p401.8300"), %arg402: tensor<4096xbf16> {ttcore.argument_type = #ttcore.argument_type<parameter>, ttcore.shard_status = #ttcore.shard_status<presharded>, ttir.name = "l__self___model_layers_16_self_attn_q_proj_bias"} loc("p402.8345"), %arg403: tensor<4096x2880xbf16> {ttcore.argument_type = #ttcore.argument_type<parameter>, ttcore.shard_status = #ttcore.shard_status<presharded>, ttir.name = "l__self___model_layers_16_self_attn_q_proj_weight"} loc("p403.8349"), %arg404: tensor<2880xbf16> {ttcore.argument_type = #ttcore.argument_type<parameter>, ttcore.shard_status = #ttcore.shard_status<presharded>, ttir.name = "l__self___model_layers_16_post_attention_layernorm_weight"} loc("p404.8499"), %arg405: tensor<128x2880xbf16> {ttcore.argument_type = #ttcore.argument_type<parameter>, ttcore.shard_status = #ttcore.shard_status<presharded>, ttir.name = "l__self___model_layers_16_mlp_experts_down_proj_bias"} loc("p405.8567"), %arg406: tensor<128x2880x2880xbf16> {ttcore.argument_type = #ttcore.argument_type<parameter>, ttcore.shard_status = #ttcore.shard_status<presharded>, ttir.name = "l__self___model_layers_16_mlp_experts_down_proj"} loc("p406.8572"), %arg407: tensor<128x5760xbf16> {ttcore.argument_type = #ttcore.argument_type<parameter>, ttcore.shard_status = #ttcore.shard_status<presharded>, ttir.name = "l__self___model_layers_16_mlp_experts_gate_up_proj_bias"} loc("p407.8578"), %arg408: tensor<128x2880x5760xbf16> {ttcore.argument_type = #ttcore.argument_type<parameter>, ttcore.shard_status = #ttcore.shard_status<presharded>, ttir.name = "l__self___model_layers_16_mlp_experts_gate_up_proj"} loc("p408.8583"), %arg409: tensor<2880xbf16> {ttcore.argument_type = #ttcore.argument_type<parameter>, ttcore.shard_status = #ttcore.shard_status<presharded>, ttir.name = "l__self___model_layers_17_input_layernorm_weight"} loc("p409.8666"), %arg410: tensor<64xbf16> {ttcore.argument_type = #ttcore.argument_type<parameter>, ttcore.shard_status = #ttcore.shard_status<presharded>, ttir.name = "l__self___model_layers_17_self_attn_sinks"} loc("p410.8689"), %arg411: tensor<512xbf16> {ttcore.argument_type = #ttcore.argument_type<parameter>, ttcore.shard_status = #ttcore.shard_status<presharded>, ttir.name = "l__self___model_layers_17_self_attn_k_proj_bias"} loc("p411.8702"), %arg412: tensor<512x2880xbf16> {ttcore.argument_type = #ttcore.argument_type<parameter>, ttcore.shard_status = #ttcore.shard_status<presharded>, ttir.name = "l__self___model_layers_17_self_attn_k_proj_weight"} loc("p412.8706"), %arg413: tensor<4096xbf16> {ttcore.argument_type = #ttcore.argument_type<parameter>, ttcore.shard_status = #ttcore.shard_status<presharded>, ttir.name = "l__self___model_layers_17_self_attn_q_proj_bias"} loc("p413.8751"), %arg414: tensor<4096x2880xbf16> {ttcore.argument_type = #ttcore.argument_type<parameter>, ttcore.shard_status = #ttcore.shard_status<presharded>, ttir.name = "l__self___model_layers_17_self_attn_q_proj_weight"} loc("p414.8755"), %arg415: tensor<2880xbf16> {ttcore.argument_type = #ttcore.argument_type<parameter>, ttcore.shard_status = #ttcore.shard_status<presharded>, ttir.name = "l__self___model_layers_17_post_attention_layernorm_weight"} loc("p415.8905"), %arg416: tensor<128x2880xbf16> {ttcore.argument_type = #ttcore.argument_type<parameter>, ttcore.shard_status = #ttcore.shard_status<presharded>, ttir.name = "l__self___model_layers_17_mlp_experts_down_proj_bias"} loc("p416.8973"), %arg417: tensor<128x2880x2880xbf16> {ttcore.argument_type = #ttcore.argument_type<parameter>, ttcore.shard_status = #ttcore.shard_status<presharded>, ttir.name = "l__self___model_layers_17_mlp_experts_down_proj"} loc("p417.8978"), %arg418: tensor<128x5760xbf16> {ttcore.argument_type = #ttcore.argument_type<parameter>, ttcore.shard_status = #ttcore.shard_status<presharded>, ttir.name = "l__self___model_layers_17_mlp_experts_gate_up_proj_bias"} loc("p418.8984"), %arg419: tensor<128x2880x5760xbf16> {ttcore.argument_type = #ttcore.argument_type<parameter>, ttcore.shard_status = #ttcore.shard_status<presharded>, ttir.name = "l__self___model_layers_17_mlp_experts_gate_up_proj"} loc("p419.8989"), %arg420: tensor<2880xbf16> {ttcore.argument_type = #ttcore.argument_type<parameter>, ttcore.shard_status = #ttcore.shard_status<presharded>, ttir.name = "l__self___model_layers_18_input_layernorm_weight"} loc("p420.9072"), %arg421: tensor<64xbf16> {ttcore.argument_type = #ttcore.argument_type<parameter>, ttcore.shard_status = #ttcore.shard_status<presharded>, ttir.name = "l__self___model_layers_18_self_attn_sinks"} loc("p421.9095"), %arg422: tensor<512xbf16> {ttcore.argument_type = #ttcore.argument_type<parameter>, ttcore.shard_status = #ttcore.shard_status<presharded>, ttir.name = "l__self___model_layers_18_self_attn_k_proj_bias"} loc("p422.9108"), %arg423: tensor<512x2880xbf16> {ttcore.argument_type = #ttcore.argument_type<parameter>, ttcore.shard_status = #ttcore.shard_status<presharded>, ttir.name = "l__self___model_layers_18_self_attn_k_proj_weight"} loc("p423.9112"), %arg424: tensor<4096xbf16> {ttcore.argument_type = #ttcore.argument_type<parameter>, ttcore.shard_status = #ttcore.shard_status<presharded>, ttir.name = "l__self___model_layers_18_self_attn_q_proj_bias"} loc("p424.9157"), %arg425: tensor<4096x2880xbf16> {ttcore.argument_type = #ttcore.argument_type<parameter>, ttcore.shard_status = #ttcore.shard_status<presharded>, ttir.name = "l__self___model_layers_18_self_attn_q_proj_weight"} loc("p425.9161"), %arg426: tensor<2880xbf16> {ttcore.argument_type = #ttcore.argument_type<parameter>, ttcore.shard_status = #ttcore.shard_status<presharded>, ttir.name = "l__self___model_layers_18_post_attention_layernorm_weight"} loc("p426.9311"), %arg427: tensor<128x2880xbf16> {ttcore.argument_type = #ttcore.argument_type<parameter>, ttcore.shard_status = #ttcore.shard_status<presharded>, ttir.name = "l__self___model_layers_18_mlp_experts_down_proj_bias"} loc("p427.9379"), %arg428: tensor<128x2880x2880xbf16> {ttcore.argument_type = #ttcore.argument_type<parameter>, ttcore.shard_status = #ttcore.shard_status<presharded>, ttir.name = "l__self___model_layers_18_mlp_experts_down_proj"} loc("p428.9384"), %arg429: tensor<128x5760xbf16> {ttcore.argument_type = #ttcore.argument_type<parameter>, ttcore.shard_status = #ttcore.shard_status<presharded>, ttir.name = "l__self___model_layers_18_mlp_experts_gate_up_proj_bias"} loc("p429.9390"), %arg430: tensor<128x2880x5760xbf16> {ttcore.argument_type = #ttcore.argument_type<parameter>, ttcore.shard_status = #ttcore.shard_status<presharded>, ttir.name = "l__self___model_layers_18_mlp_experts_gate_up_proj"} loc("p430.9395"), %arg431: tensor<2880xbf16> {ttcore.argument_type = #ttcore.argument_type<parameter>, ttcore.shard_status = #ttcore.shard_status<presharded>, ttir.name = "l__self___model_layers_19_input_layernorm_weight"} loc("p431.9478"), %arg432: tensor<64xbf16> {ttcore.argument_type = #ttcore.argument_type<parameter>, ttcore.shard_status = #ttcore.shard_status<presharded>, ttir.name = "l__self___model_layers_19_self_attn_sinks"} loc("p432.9501"), %arg433: tensor<512xbf16> {ttcore.argument_type = #ttcore.argument_type<parameter>, ttcore.shard_status = #ttcore.shard_status<presharded>, ttir.name = "l__self___model_layers_19_self_attn_k_proj_bias"} loc("p433.9514"), %arg434: tensor<512x2880xbf16> {ttcore.argument_type = #ttcore.argument_type<parameter>, ttcore.shard_status = #ttcore.shard_status<presharded>, ttir.name = "l__self___model_layers_19_self_attn_k_proj_weight"} loc("p434.9518"), %arg435: tensor<4096xbf16> {ttcore.argument_type = #ttcore.argument_type<parameter>, ttcore.shard_status = #ttcore.shard_status<presharded>, ttir.name = "l__self___model_layers_19_self_attn_q_proj_bias"} loc("p435.9563"), %arg436: tensor<4096x2880xbf16> {ttcore.argument_type = #ttcore.argument_type<parameter>, ttcore.shard_status = #ttcore.shard_status<presharded>, ttir.name = "l__self___model_layers_19_self_attn_q_proj_weight"} loc("p436.9567"), %arg437: tensor<2880xbf16> {ttcore.argument_type = #ttcore.argument_type<parameter>, ttcore.shard_status = #ttcore.shard_status<presharded>, ttir.name = "l__self___model_layers_19_post_attention_layernorm_weight"} loc("p437.9717"), %arg438: tensor<128x2880xbf16> {ttcore.argument_type = #ttcore.argument_type<parameter>, ttcore.shard_status = #ttcore.shard_status<presharded>, ttir.name = "l__self___model_layers_19_mlp_experts_down_proj_bias"} loc("p438.9785"), %arg439: tensor<128x2880x2880xbf16> {ttcore.argument_type = #ttcore.argument_type<parameter>, ttcore.shard_status = #ttcore.shard_status<presharded>, ttir.name = "l__self___model_layers_19_mlp_experts_down_proj"} loc("p439.9790"), %arg440: tensor<128x5760xbf16> {ttcore.argument_type = #ttcore.argument_type<parameter>, ttcore.shard_status = #ttcore.shard_status<presharded>, ttir.name = "l__self___model_layers_19_mlp_experts_gate_up_proj_bias"} loc("p440.9796"), %arg441: tensor<128x2880x5760xbf16> {ttcore.argument_type = #ttcore.argument_type<parameter>, ttcore.shard_status = #ttcore.shard_status<presharded>, ttir.name = "l__self___model_layers_19_mlp_experts_gate_up_proj"} loc("p441.9801"), %arg442: tensor<2880xbf16> {ttcore.argument_type = #ttcore.argument_type<parameter>, ttcore.shard_status = #ttcore.shard_status<presharded>, ttir.name = "l__self___model_layers_20_input_layernorm_weight"} loc("p442.9884"), %arg443: tensor<64xbf16> {ttcore.argument_type = #ttcore.argument_type<parameter>, ttcore.shard_status = #ttcore.shard_status<presharded>, ttir.name = "l__self___model_layers_20_self_attn_sinks"} loc("p443.9907"), %arg444: tensor<512xbf16> {ttcore.argument_type = #ttcore.argument_type<parameter>, ttcore.shard_status = #ttcore.shard_status<presharded>, ttir.name = "l__self___model_layers_20_self_attn_k_proj_bias"} loc("p444.9920"), %arg445: tensor<512x2880xbf16> {ttcore.argument_type = #ttcore.argument_type<parameter>, ttcore.shard_status = #ttcore.shard_status<presharded>, ttir.name = "l__self___model_layers_20_self_attn_k_proj_weight"} loc("p445.9924"), %arg446: tensor<4096xbf16> {ttcore.argument_type = #ttcore.argument_type<parameter>, ttcore.shard_status = #ttcore.shard_status<presharded>, ttir.name = "l__self___model_layers_20_self_attn_q_proj_bias"} loc("p446.9969"), %arg447: tensor<4096x2880xbf16> {ttcore.argument_type = #ttcore.argument_type<parameter>, ttcore.shard_status = #ttcore.shard_status<presharded>, ttir.name = "l__self___model_layers_20_self_attn_q_proj_weight"} loc("p447.9973"), %arg448: tensor<2880xbf16> {ttcore.argument_type = #ttcore.argument_type<parameter>, ttcore.shard_status = #ttcore.shard_status<presharded>, ttir.name = "l__self___model_layers_20_post_attention_layernorm_weight"} loc("p448.10123"), %arg449: tensor<128x2880xbf16> {ttcore.argument_type = #ttcore.argument_type<parameter>, ttcore.shard_status = #ttcore.shard_status<presharded>, ttir.name = "l__self___model_layers_20_mlp_experts_down_proj_bias"} loc("p449.10191"), %arg450: tensor<128x2880x2880xbf16> {ttcore.argument_type = #ttcore.argument_type<parameter>, ttcore.shard_status = #ttcore.shard_status<presharded>, ttir.name = "l__self___model_layers_20_mlp_experts_down_proj"} loc("p450.10196"), %arg451: tensor<128x5760xbf16> {ttcore.argument_type = #ttcore.argument_type<parameter>, ttcore.shard_status = #ttcore.shard_status<presharded>, ttir.name = "l__self___model_layers_20_mlp_experts_gate_up_proj_bias"} loc("p451.10202"), %arg452: tensor<128x2880x5760xbf16> {ttcore.argument_type = #ttcore.argument_type<parameter>, ttcore.shard_status = #ttcore.shard_status<presharded>, ttir.name = "l__self___model_layers_20_mlp_experts_gate_up_proj"} loc("p452.10207"), %arg453: tensor<2880xbf16> {ttcore.argument_type = #ttcore.argument_type<parameter>, ttcore.shard_status = #ttcore.shard_status<presharded>, ttir.name = "l__self___model_layers_21_input_layernorm_weight"} loc("p453.10290"), %arg454: tensor<64xbf16> {ttcore.argument_type = #ttcore.argument_type<parameter>, ttcore.shard_status = #ttcore.shard_status<presharded>, ttir.name = "l__self___model_layers_21_self_attn_sinks"} loc("p454.10313"), %arg455: tensor<512xbf16> {ttcore.argument_type = #ttcore.argument_type<parameter>, ttcore.shard_status = #ttcore.shard_status<presharded>, ttir.name = "l__self___model_layers_21_self_attn_k_proj_bias"} loc("p455.10326"), %arg456: tensor<512x2880xbf16> {ttcore.argument_type = #ttcore.argument_type<parameter>, ttcore.shard_status = #ttcore.shard_status<presharded>, ttir.name = "l__self___model_layers_21_self_attn_k_proj_weight"} loc("p456.10330"), %arg457: tensor<4096xbf16> {ttcore.argument_type = #ttcore.argument_type<parameter>, ttcore.shard_status = #ttcore.shard_status<presharded>, ttir.name = "l__self___model_layers_21_self_attn_q_proj_bias"} loc("p457.10375"), %arg458: tensor<4096x2880xbf16> {ttcore.argument_type = #ttcore.argument_type<parameter>, ttcore.shard_status = #ttcore.shard_status<presharded>, ttir.name = "l__self___model_layers_21_self_attn_q_proj_weight"} loc("p458.10379"), %arg459: tensor<2880xbf16> {ttcore.argument_type = #ttcore.argument_type<parameter>, ttcore.shard_status = #ttcore.shard_status<presharded>, ttir.name = "l__self___model_layers_21_post_attention_layernorm_weight"} loc("p459.10529"), %arg460: tensor<128x2880xbf16> {ttcore.argument_type = #ttcore.argument_type<parameter>, ttcore.shard_status = #ttcore.shard_status<presharded>, ttir.name = "l__self___model_layers_21_mlp_experts_down_proj_bias"} loc("p460.10597"), %arg461: tensor<128x2880x2880xbf16> {ttcore.argument_type = #ttcore.argument_type<parameter>, ttcore.shard_status = #ttcore.shard_status<presharded>, ttir.name = "l__self___model_layers_21_mlp_experts_down_proj"} loc("p461.10602"), %arg462: tensor<128x5760xbf16> {ttcore.argument_type = #ttcore.argument_type<parameter>, ttcore.shard_status = #ttcore.shard_status<presharded>, ttir.name = "l__self___model_layers_21_mlp_experts_gate_up_proj_bias"} loc("p462.10608"), %arg463: tensor<128x2880x5760xbf16> {ttcore.argument_type = #ttcore.argument_type<parameter>, ttcore.shard_status = #ttcore.shard_status<presharded>, ttir.name = "l__self___model_layers_21_mlp_experts_gate_up_proj"} loc("p463.10613"), %arg464: tensor<2880xbf16> {ttcore.argument_type = #ttcore.argument_type<parameter>, ttcore.shard_status = #ttcore.shard_status<presharded>, ttir.name = "l__self___model_layers_22_input_layernorm_weight"} loc("p464.10696"), %arg465: tensor<64xbf16> {ttcore.argument_type = #ttcore.argument_type<parameter>, ttcore.shard_status = #ttcore.shard_status<presharded>, ttir.name = "l__self___model_layers_22_self_attn_sinks"} loc("p465.10719"), %arg466: tensor<512xbf16> {ttcore.argument_type = #ttcore.argument_type<parameter>, ttcore.shard_status = #ttcore.shard_status<presharded>, ttir.name = "l__self___model_layers_22_self_attn_k_proj_bias"} loc("p466.10732"), %arg467: tensor<512x2880xbf16> {ttcore.argument_type = #ttcore.argument_type<parameter>, ttcore.shard_status = #ttcore.shard_status<presharded>, ttir.name = "l__self___model_layers_22_self_attn_k_proj_weight"} loc("p467.10736"), %arg468: tensor<4096xbf16> {ttcore.argument_type = #ttcore.argument_type<parameter>, ttcore.shard_status = #ttcore.shard_status<presharded>, ttir.name = "l__self___model_layers_22_self_attn_q_proj_bias"} loc("p468.10781"), %arg469: tensor<4096x2880xbf16> {ttcore.argument_type = #ttcore.argument_type<parameter>, ttcore.shard_status = #ttcore.shard_status<presharded>, ttir.name = "l__self___model_layers_22_self_attn_q_proj_weight"} loc("p469.10785"), %arg470: tensor<2880xbf16> {ttcore.argument_type = #ttcore.argument_type<parameter>, ttcore.shard_status = #ttcore.shard_status<presharded>, ttir.name = "l__self___model_layers_22_post_attention_layernorm_weight"} loc("p470.10935"), %arg471: tensor<128x2880xbf16> {ttcore.argument_type = #ttcore.argument_type<parameter>, ttcore.shard_status = #ttcore.shard_status<presharded>, ttir.name = "l__self___model_layers_22_mlp_experts_down_proj_bias"} loc("p471.11003"), %arg472: tensor<128x2880x2880xbf16> {ttcore.argument_type = #ttcore.argument_type<parameter>, ttcore.shard_status = #ttcore.shard_status<presharded>, ttir.name = "l__self___model_layers_22_mlp_experts_down_proj"} loc("p472.11008"), %arg473: tensor<128x5760xbf16> {ttcore.argument_type = #ttcore.argument_type<parameter>, ttcore.shard_status = #ttcore.shard_status<presharded>, ttir.name = "l__self___model_layers_22_mlp_experts_gate_up_proj_bias"} loc("p473.11014"), %arg474: tensor<128x2880x5760xbf16> {ttcore.argument_type = #ttcore.argument_type<parameter>, ttcore.shard_status = #ttcore.shard_status<presharded>, ttir.name = "l__self___model_layers_22_mlp_experts_gate_up_proj"} loc("p474.11019"), %arg475: tensor<2880xbf16> {ttcore.argument_type = #ttcore.argument_type<parameter>, ttcore.shard_status = #ttcore.shard_status<presharded>, ttir.name = "l__self___model_layers_23_input_layernorm_weight"} loc("p475.11102"), %arg476: tensor<64xbf16> {ttcore.argument_type = #ttcore.argument_type<parameter>, ttcore.shard_status = #ttcore.shard_status<presharded>, ttir.name = "l__self___model_layers_23_self_attn_sinks"} loc("p476.11125"), %arg477: tensor<512xbf16> {ttcore.argument_type = #ttcore.argument_type<parameter>, ttcore.shard_status = #ttcore.shard_status<presharded>, ttir.name = "l__self___model_layers_23_self_attn_k_proj_bias"} loc("p477.11138"), %arg478: tensor<512x2880xbf16> {ttcore.argument_type = #ttcore.argument_type<parameter>, ttcore.shard_status = #ttcore.shard_status<presharded>, ttir.name = "l__self___model_layers_23_self_attn_k_proj_weight"} loc("p478.11142"), %arg479: tensor<4096xbf16> {ttcore.argument_type = #ttcore.argument_type<parameter>, ttcore.shard_status = #ttcore.shard_status<presharded>, ttir.name = "l__self___model_layers_23_self_attn_q_proj_bias"} loc("p479.11187"), %arg480: tensor<4096x2880xbf16> {ttcore.argument_type = #ttcore.argument_type<parameter>, ttcore.shard_status = #ttcore.shard_status<presharded>, ttir.name = "l__self___model_layers_23_self_attn_q_proj_weight"} loc("p480.11191"), %arg481: tensor<2880xbf16> {ttcore.argument_type = #ttcore.argument_type<parameter>, ttcore.shard_status = #ttcore.shard_status<presharded>, ttir.name = "l__self___model_layers_23_post_attention_layernorm_weight"} loc("p481.11341"), %arg482: tensor<128x2880xbf16> {ttcore.argument_type = #ttcore.argument_type<parameter>, ttcore.shard_status = #ttcore.shard_status<presharded>, ttir.name = "l__self___model_layers_23_mlp_experts_down_proj_bias"} loc("p482.11409"), %arg483: tensor<128x2880x2880xbf16> {ttcore.argument_type = #ttcore.argument_type<parameter>, ttcore.shard_status = #ttcore.shard_status<presharded>, ttir.name = "l__self___model_layers_23_mlp_experts_down_proj"} loc("p483.11414"), %arg484: tensor<128x5760xbf16> {ttcore.argument_type = #ttcore.argument_type<parameter>, ttcore.shard_status = #ttcore.shard_status<presharded>, ttir.name = "l__self___model_layers_23_mlp_experts_gate_up_proj_bias"} loc("p484.11420"), %arg485: tensor<128x2880x5760xbf16> {ttcore.argument_type = #ttcore.argument_type<parameter>, ttcore.shard_status = #ttcore.shard_status<presharded>, ttir.name = "l__self___model_layers_23_mlp_experts_gate_up_proj"} loc("p485.11425"), %arg486: tensor<2880xbf16> {ttcore.argument_type = #ttcore.argument_type<parameter>, ttcore.shard_status = #ttcore.shard_status<presharded>, ttir.name = "l__self___model_layers_24_input_layernorm_weight"} loc("p486.11508"), %arg487: tensor<64xbf16> {ttcore.argument_type = #ttcore.argument_type<parameter>, ttcore.shard_status = #ttcore.shard_status<presharded>, ttir.name = "l__self___model_layers_24_self_attn_sinks"} loc("p487.11531"), %arg488: tensor<512xbf16> {ttcore.argument_type = #ttcore.argument_type<parameter>, ttcore.shard_status = #ttcore.shard_status<presharded>, ttir.name = "l__self___model_layers_24_self_attn_k_proj_bias"} loc("p488.11544"), %arg489: tensor<512x2880xbf16> {ttcore.argument_type = #ttcore.argument_type<parameter>, ttcore.shard_status = #ttcore.shard_status<presharded>, ttir.name = "l__self___model_layers_24_self_attn_k_proj_weight"} loc("p489.11548"), %arg490: tensor<4096xbf16> {ttcore.argument_type = #ttcore.argument_type<parameter>, ttcore.shard_status = #ttcore.shard_status<presharded>, ttir.name = "l__self___model_layers_24_self_attn_q_proj_bias"} loc("p490.11593"), %arg491: tensor<4096x2880xbf16> {ttcore.argument_type = #ttcore.argument_type<parameter>, ttcore.shard_status = #ttcore.shard_status<presharded>, ttir.name = "l__self___model_layers_24_self_attn_q_proj_weight"} loc("p491.11597"), %arg492: tensor<2880xbf16> {ttcore.argument_type = #ttcore.argument_type<parameter>, ttcore.shard_status = #ttcore.shard_status<presharded>, ttir.name = "l__self___model_layers_24_post_attention_layernorm_weight"} loc("p492.11747"), %arg493: tensor<128x2880xbf16> {ttcore.argument_type = #ttcore.argument_type<parameter>, ttcore.shard_status = #ttcore.shard_status<presharded>, ttir.name = "l__self___model_layers_24_mlp_experts_down_proj_bias"} loc("p493.11815"), %arg494: tensor<128x2880x2880xbf16> {ttcore.argument_type = #ttcore.argument_type<parameter>, ttcore.shard_status = #ttcore.shard_status<presharded>, ttir.name = "l__self___model_layers_24_mlp_experts_down_proj"} loc("p494.11820"), %arg495: tensor<128x5760xbf16> {ttcore.argument_type = #ttcore.argument_type<parameter>, ttcore.shard_status = #ttcore.shard_status<presharded>, ttir.name = "l__self___model_layers_24_mlp_experts_gate_up_proj_bias"} loc("p495.11826"), %arg496: tensor<128x2880x5760xbf16> {ttcore.argument_type = #ttcore.argument_type<parameter>, ttcore.shard_status = #ttcore.shard_status<presharded>, ttir.name = "l__self___model_layers_24_mlp_experts_gate_up_proj"} loc("p496.11831"), %arg497: tensor<2880xbf16> {ttcore.argument_type = #ttcore.argument_type<parameter>, ttcore.shard_status = #ttcore.shard_status<presharded>, ttir.name = "l__self___model_layers_25_input_layernorm_weight"} loc("p497.11914"), %arg498: tensor<64xbf16> {ttcore.argument_type = #ttcore.argument_type<parameter>, ttcore.shard_status = #ttcore.shard_status<presharded>, ttir.name = "l__self___model_layers_25_self_attn_sinks"} loc("p498.11937"), %arg499: tensor<512xbf16> {ttcore.argument_type = #ttcore.argument_type<parameter>, ttcore.shard_status = #ttcore.shard_status<presharded>, ttir.name = "l__self___model_layers_25_self_attn_k_proj_bias"} loc("p499.11950"), %arg500: tensor<512x2880xbf16> {ttcore.argument_type = #ttcore.argument_type<parameter>, ttcore.shard_status = #ttcore.shard_status<presharded>, ttir.name = "l__self___model_layers_25_self_attn_k_proj_weight"} loc("p500.11954"), %arg501: tensor<4096xbf16> {ttcore.argument_type = #ttcore.argument_type<parameter>, ttcore.shard_status = #ttcore.shard_status<presharded>, ttir.name = "l__self___model_layers_25_self_attn_q_proj_bias"} loc("p501.11999"), %arg502: tensor<4096x2880xbf16> {ttcore.argument_type = #ttcore.argument_type<parameter>, ttcore.shard_status = #ttcore.shard_status<presharded>, ttir.name = "l__self___model_layers_25_self_attn_q_proj_weight"} loc("p502.12003"), %arg503: tensor<2880xbf16> {ttcore.argument_type = #ttcore.argument_type<parameter>, ttcore.shard_status = #ttcore.shard_status<presharded>, ttir.name = "l__self___model_layers_25_post_attention_layernorm_weight"} loc("p503.12153"), %arg504: tensor<128x2880xbf16> {ttcore.argument_type = #ttcore.argument_type<parameter>, ttcore.shard_status = #ttcore.shard_status<presharded>, ttir.name = "l__self___model_layers_25_mlp_experts_down_proj_bias"} loc("p504.12221"), %arg505: tensor<128x2880x2880xbf16> {ttcore.argument_type = #ttcore.argument_type<parameter>, ttcore.shard_status = #ttcore.shard_status<presharded>, ttir.name = "l__self___model_layers_25_mlp_experts_down_proj"} loc("p505.12226"), %arg506: tensor<128x5760xbf16> {ttcore.argument_type = #ttcore.argument_type<parameter>, ttcore.shard_status = #ttcore.shard_status<presharded>, ttir.name = "l__self___model_layers_25_mlp_experts_gate_up_proj_bias"} loc("p506.12232"), %arg507: tensor<128x2880x5760xbf16> {ttcore.argument_type = #ttcore.argument_type<parameter>, ttcore.shard_status = #ttcore.shard_status<presharded>, ttir.name = "l__self___model_layers_25_mlp_experts_gate_up_proj"} loc("p507.12237"), %arg508: tensor<2880xbf16> {ttcore.argument_type = #ttcore.argument_type<parameter>, ttcore.shard_status = #ttcore.shard_status<presharded>, ttir.name = "l__self___model_layers_26_input_layernorm_weight"} loc("p508.12320"), %arg509: tensor<64xbf16> {ttcore.argument_type = #ttcore.argument_type<parameter>, ttcore.shard_status = #ttcore.shard_status<presharded>, ttir.name = "l__self___model_layers_26_self_attn_sinks"} loc("p509.12343"), %arg510: tensor<512xbf16> {ttcore.argument_type = #ttcore.argument_type<parameter>, ttcore.shard_status = #ttcore.shard_status<presharded>, ttir.name = "l__self___model_layers_26_self_attn_k_proj_bias"} loc("p510.12356"), %arg511: tensor<512x2880xbf16> {ttcore.argument_type = #ttcore.argument_type<parameter>, ttcore.shard_status = #ttcore.shard_status<presharded>, ttir.name = "l__self___model_layers_26_self_attn_k_proj_weight"} loc("p511.12360"), %arg512: tensor<4096xbf16> {ttcore.argument_type = #ttcore.argument_type<parameter>, ttcore.shard_status = #ttcore.shard_status<presharded>, ttir.name = "l__self___model_layers_26_self_attn_q_proj_bias"} loc("p512.12405"), %arg513: tensor<4096x2880xbf16> {ttcore.argument_type = #ttcore.argument_type<parameter>, ttcore.shard_status = #ttcore.shard_status<presharded>, ttir.name = "l__self___model_layers_26_self_attn_q_proj_weight"} loc("p513.12409"), %arg514: tensor<2880xbf16> {ttcore.argument_type = #ttcore.argument_type<parameter>, ttcore.shard_status = #ttcore.shard_status<presharded>, ttir.name = "l__self___model_layers_26_post_attention_layernorm_weight"} loc("p514.12559"), %arg515: tensor<128x2880xbf16> {ttcore.argument_type = #ttcore.argument_type<parameter>, ttcore.shard_status = #ttcore.shard_status<presharded>, ttir.name = "l__self___model_layers_26_mlp_experts_down_proj_bias"} loc("p515.12627"), %arg516: tensor<128x2880x2880xbf16> {ttcore.argument_type = #ttcore.argument_type<parameter>, ttcore.shard_status = #ttcore.shard_status<presharded>, ttir.name = "l__self___model_layers_26_mlp_experts_down_proj"} loc("p516.12632"), %arg517: tensor<128x5760xbf16> {ttcore.argument_type = #ttcore.argument_type<parameter>, ttcore.shard_status = #ttcore.shard_status<presharded>, ttir.name = "l__self___model_layers_26_mlp_experts_gate_up_proj_bias"} loc("p517.12638"), %arg518: tensor<128x2880x5760xbf16> {ttcore.argument_type = #ttcore.argument_type<parameter>, ttcore.shard_status = #ttcore.shard_status<presharded>, ttir.name = "l__self___model_layers_26_mlp_experts_gate_up_proj"} loc("p518.12643"), %arg519: tensor<2880xbf16> {ttcore.argument_type = #ttcore.argument_type<parameter>, ttcore.shard_status = #ttcore.shard_status<presharded>, ttir.name = "l__self___model_layers_27_input_layernorm_weight"} loc("p519.12726"), %arg520: tensor<64xbf16> {ttcore.argument_type = #ttcore.argument_type<parameter>, ttcore.shard_status = #ttcore.shard_status<presharded>, ttir.name = "l__self___model_layers_27_self_attn_sinks"} loc("p520.12749"), %arg521: tensor<512xbf16> {ttcore.argument_type = #ttcore.argument_type<parameter>, ttcore.shard_status = #ttcore.shard_status<presharded>, ttir.name = "l__self___model_layers_27_self_attn_k_proj_bias"} loc("p521.12762"), %arg522: tensor<512x2880xbf16> {ttcore.argument_type = #ttcore.argument_type<parameter>, ttcore.shard_status = #ttcore.shard_status<presharded>, ttir.name = "l__self___model_layers_27_self_attn_k_proj_weight"} loc("p522.12766"), %arg523: tensor<4096xbf16> {ttcore.argument_type = #ttcore.argument_type<parameter>, ttcore.shard_status = #ttcore.shard_status<presharded>, ttir.name = "l__self___model_layers_27_self_attn_q_proj_bias"} loc("p523.12811"), %arg524: tensor<4096x2880xbf16> {ttcore.argument_type = #ttcore.argument_type<parameter>, ttcore.shard_status = #ttcore.shard_status<presharded>, ttir.name = "l__self___model_layers_27_self_attn_q_proj_weight"} loc("p524.12815"), %arg525: tensor<2880xbf16> {ttcore.argument_type = #ttcore.argument_type<parameter>, ttcore.shard_status = #ttcore.shard_status<presharded>, ttir.name = "l__self___model_layers_27_post_attention_layernorm_weight"} loc("p525.12965"), %arg526: tensor<128x2880xbf16> {ttcore.argument_type = #ttcore.argument_type<parameter>, ttcore.shard_status = #ttcore.shard_status<presharded>, ttir.name = "l__self___model_layers_27_mlp_experts_down_proj_bias"} loc("p526.13033"), %arg527: tensor<128x2880x2880xbf16> {ttcore.argument_type = #ttcore.argument_type<parameter>, ttcore.shard_status = #ttcore.shard_status<presharded>, ttir.name = "l__self___model_layers_27_mlp_experts_down_proj"} loc("p527.13038"), %arg528: tensor<128x5760xbf16> {ttcore.argument_type = #ttcore.argument_type<parameter>, ttcore.shard_status = #ttcore.shard_status<presharded>, ttir.name = "l__self___model_layers_27_mlp_experts_gate_up_proj_bias"} loc("p528.13044"), %arg529: tensor<128x2880x5760xbf16> {ttcore.argument_type = #ttcore.argument_type<parameter>, ttcore.shard_status = #ttcore.shard_status<presharded>, ttir.name = "l__self___model_layers_27_mlp_experts_gate_up_proj"} loc("p529.13049"), %arg530: tensor<2880xbf16> {ttcore.argument_type = #ttcore.argument_type<parameter>, ttcore.shard_status = #ttcore.shard_status<presharded>, ttir.name = "l__self___model_layers_28_input_layernorm_weight"} loc("p530.13132"), %arg531: tensor<64xbf16> {ttcore.argument_type = #ttcore.argument_type<parameter>, ttcore.shard_status = #ttcore.shard_status<presharded>, ttir.name = "l__self___model_layers_28_self_attn_sinks"} loc("p531.13155"), %arg532: tensor<512xbf16> {ttcore.argument_type = #ttcore.argument_type<parameter>, ttcore.shard_status = #ttcore.shard_status<presharded>, ttir.name = "l__self___model_layers_28_self_attn_k_proj_bias"} loc("p532.13168"), %arg533: tensor<512x2880xbf16> {ttcore.argument_type = #ttcore.argument_type<parameter>, ttcore.shard_status = #ttcore.shard_status<presharded>, ttir.name = "l__self___model_layers_28_self_attn_k_proj_weight"} loc("p533.13172"), %arg534: tensor<4096xbf16> {ttcore.argument_type = #ttcore.argument_type<parameter>, ttcore.shard_status = #ttcore.shard_status<presharded>, ttir.name = "l__self___model_layers_28_self_attn_q_proj_bias"} loc("p534.13217"), %arg535: tensor<4096x2880xbf16> {ttcore.argument_type = #ttcore.argument_type<parameter>, ttcore.shard_status = #ttcore.shard_status<presharded>, ttir.name = "l__self___model_layers_28_self_attn_q_proj_weight"} loc("p535.13221"), %arg536: tensor<2880xbf16> {ttcore.argument_type = #ttcore.argument_type<parameter>, ttcore.shard_status = #ttcore.shard_status<presharded>, ttir.name = "l__self___model_layers_28_post_attention_layernorm_weight"} loc("p536.13371"), %arg537: tensor<128x2880xbf16> {ttcore.argument_type = #ttcore.argument_type<parameter>, ttcore.shard_status = #ttcore.shard_status<presharded>, ttir.name = "l__self___model_layers_28_mlp_experts_down_proj_bias"} loc("p537.13439"), %arg538: tensor<128x2880x2880xbf16> {ttcore.argument_type = #ttcore.argument_type<parameter>, ttcore.shard_status = #ttcore.shard_status<presharded>, ttir.name = "l__self___model_layers_28_mlp_experts_down_proj"} loc("p538.13444"), %arg539: tensor<128x5760xbf16> {ttcore.argument_type = #ttcore.argument_type<parameter>, ttcore.shard_status = #ttcore.shard_status<presharded>, ttir.name = "l__self___model_layers_28_mlp_experts_gate_up_proj_bias"} loc("p539.13450"), %arg540: tensor<128x2880x5760xbf16> {ttcore.argument_type = #ttcore.argument_type<parameter>, ttcore.shard_status = #ttcore.shard_status<presharded>, ttir.name = "l__self___model_layers_28_mlp_experts_gate_up_proj"} loc("p540.13455"), %arg541: tensor<2880xbf16> {ttcore.argument_type = #ttcore.argument_type<parameter>, ttcore.shard_status = #ttcore.shard_status<presharded>, ttir.name = "l__self___model_layers_29_input_layernorm_weight"} loc("p541.13538"), %arg542: tensor<64xbf16> {ttcore.argument_type = #ttcore.argument_type<parameter>, ttcore.shard_status = #ttcore.shard_status<presharded>, ttir.name = "l__self___model_layers_29_self_attn_sinks"} loc("p542.13561"), %arg543: tensor<512xbf16> {ttcore.argument_type = #ttcore.argument_type<parameter>, ttcore.shard_status = #ttcore.…
#loc5168 = loc("subtract.12395")
#loc5169 = loc("multiply.12382")
#loc5170 = loc("multiply.12377")
#loc5171 = loc("add.12385")
#loc5172 = loc("concatenate.12396")
#loc5173 = loc("broadcast.12400")
#loc5174 = loc("reshape.12401")
#loc5175 = loc("transpose.12402")
#loc5176 = loc("dot.12445")
#loc5177 = loc("multiply.12448")
#loc5178 = loc("add.12453")
#loc5179 = loc("reshape.12344")
#loc5180 = loc("reshape.12349")
#loc5181 = loc("broadcast.12350")
#loc5182 = loc("concatenate.12454")
#loc5183 = loc("reshape.12727")
#loc5184 = loc("reshape.12729")
#loc5185 = loc("convert.12730")
#loc5186 = loc("broadcast.12731")
#loc5187 = loc("reduce.12461")
#loc5188 = loc("broadcast.12497")
#loc5189 = loc("subtract.12498")
#loc5190 = loc("reduce.12504")
#loc5191 = loc("broadcast.12505")
#loc5192 = loc("subtract.12506")
#loc5193 = loc("exponential.12507")
#loc5194 = loc("reduce.12513")
#loc5195 = loc("broadcast.12514")
#loc5196 = loc("divide.12515")
#loc5197 = loc("slice.12516")
#loc5198 = loc("reshape.422")
#loc5199 = loc("reshape.424")
#loc5200 = loc("transpose.425")
#loc5202 = loc("reshape.12330")
#loc5203 = loc("reshape.418")
#loc5204 = loc("reshape.420")
#loc5205 = loc("broadcast.12333")
#loc5206 = loc("add.12334")
#loc5207 = loc("reshape.12335")
#loc5208 = loc("transpose.12336")
#loc5209 = loc("broadcast.12340")
#loc5210 = loc("reshape.12341")
#loc5211 = loc("dot.12517")
#loc5212 = loc("transpose.12519")
#loc5213 = loc("reshape.12521")
#loc5214 = loc("reshape.412")
#loc5215 = loc("reshape.414")
#loc5216 = loc("transpose.415")
#loc5218 = loc("reshape.12523")
#loc5219 = loc("reshape.408")
#loc5220 = loc("reshape.410")
#loc5221 = loc("broadcast.12526")
#loc5222 = loc("add.12527")
#loc5223 = loc("add.12530")
#loc5224 = loc("reshape.12560")
#loc5225 = loc("reshape.12562")
#loc5226 = loc("convert.12563")
#loc5227 = loc("broadcast.12564")
#loc5228 = loc("convert.12531")
#loc5229 = loc("power.12533")
#loc5231 = loc("multiply.12549")
#loc5232 = loc("reshape.12550")
#loc5233 = loc("add.12554")
#loc5234 = loc("rsqrt.12555")
#loc5235 = loc("reshape.12556")
#loc5236 = loc("broadcast.12557")
#loc5237 = loc("multiply.12558")
#loc5238 = loc("multiply.12565")
#loc5239 = loc("convert.12566")
#loc5240 = loc("reshape.12645")
#loc5241 = loc("broadcast.12649")
#loc5243 = loc("reshape.12639")
#loc5244 = loc("reshape.12641")
#loc5245 = loc("broadcast.12656")
#loc5246 = loc("add.12657")
#loc5247 = loc("slice.12670")
#loc5248 = loc("clamp.12673")
#loc5249 = loc("add.12676")
#loc5250 = loc("slice.12658")
#loc5251 = loc("clamp.12661")
#loc5252 = loc("multiply.12663")
#loc5253 = loc("logistic.12664")
#loc5254 = loc("multiply.12665")
#loc5255 = loc("multiply.12677")
#loc5256 = loc("dot.12678")
#loc5257 = loc("reshape.12628")
#loc5258 = loc("reshape.12630")
#loc5259 = loc("broadcast.12682")
#loc5260 = loc("add.12683")
#loc5261 = loc("reshape.12684")
#loc5262 = loc("reshape.398")
#loc5263 = loc("reshape.400")
#loc5264 = loc("transpose.401")
#loc5266 = loc("reshape.391")
#loc5267 = loc("reshape.393")
#loc5268 = loc("broadcast.12573")
#loc5269 = loc("add.12574")
#loc5271 = loc("compare.12587")
#loc5272 = loc("slice.12592")
#loc5273 = loc("convert.12593")
#loc5274 = loc("reshape.12617")
#loc5275 = loc("concatenate.12618")
#loc5276 = loc("slice.12590")
#loc5277 = loc("reduce.12599")
#loc5278 = loc("broadcast.12600")
#loc5279 = loc("subtract.12601")
#loc5280 = loc("exponential.12602")
#loc5281 = loc("reduce.12608")
#loc5282 = loc("broadcast.12609")
#loc5283 = loc("divide.12610")
#loc5285 = loc("transpose.12623")
#loc5286 = loc("reshape.12624")
#loc5287 = loc("broadcast.12686")
#loc5288 = loc("multiply.12687")
#loc5290 = loc("add.12697")
#loc5291 = loc("convert.12698")
#loc5292 = loc("power.12700")
#loc5294 = loc("multiply.12716")
#loc5295 = loc("reshape.12717")
#loc5296 = loc("add.12721")
#loc5297 = loc("rsqrt.12722")
#loc5298 = loc("reshape.12723")
#loc5299 = loc("broadcast.12724")
#loc5300 = loc("multiply.12725")
#loc5301 = loc("multiply.12732")
#loc5302 = loc("convert.12733")
#loc5303 = loc("reshape.12820")
#loc5304 = loc("reshape.12816")
#loc5305 = loc("reshape.12818")
#loc5306 = loc("transpose.12819")
#loc5308 = loc("reshape.12822")
#loc5309 = loc("reshape.12812")
#loc5310 = loc("reshape.12814")
#loc5311 = loc("broadcast.12825")
#loc5312 = loc("add.12826")
#loc5313 = loc("reshape.12827")
#loc5314 = loc("transpose.12828")
#loc5315 = loc("slice.12829")
#loc5316 = loc("multiply.12846")
#loc5317 = loc("slice.12833")
#loc5318 = loc("multiply.12843")
#loc5319 = loc("subtract.12849")
#loc5320 = loc("multiply.12836")
#loc5321 = loc("multiply.12832")
#loc5322 = loc("add.12839")
#loc5323 = loc("concatenate.12850")
#loc5324 = loc("reshape.12767")
#loc5325 = loc("reshape.12769")
#loc5326 = loc("transpose.12770")
#loc5328 = loc("reshape.12773")
#loc5329 = loc("reshape.12763")
#loc5330 = loc("reshape.12765")
#loc5331 = loc("broadcast.12776")
#loc5332 = loc("add.12777")
#loc5333 = loc("reshape.12778")
#loc5334 = loc("transpose.12779")
#loc5335 = loc("slice.12780")
#loc5336 = loc("multiply.12798")
#loc5337 = loc("slice.12785")
#loc5338 = loc("multiply.12795")
#loc5339 = loc("subtract.12801")
#loc5340 = loc("multiply.12788")
#loc5341 = loc("multiply.12783")
#loc5342 = loc("add.12791")
#loc5343 = loc("concatenate.12802")
#loc5344 = loc("broadcast.12806")
#loc5345 = loc("reshape.12807")
#loc5346 = loc("transpose.12808")
#loc5347 = loc("dot.12851")
#loc5348 = loc("multiply.12854")
#loc5349 = loc("add.12859")
#loc5350 = loc("reshape.12750")
#loc5351 = loc("reshape.12755")
#loc5352 = loc("broadcast.12756")
#loc5353 = loc("concatenate.12860")
#loc5354 = loc("reshape.13133")
#loc5355 = loc("reshape.13135")
#loc5356 = loc("convert.13136")
#loc5357 = loc("broadcast.13137")
#loc5358 = loc("reduce.12867")
#loc5359 = loc("broadcast.12903")
#loc5360 = loc("subtract.12904")
#loc5361 = loc("reduce.12910")
#loc5362 = loc("broadcast.12911")
#loc5363 = loc("subtract.12912")
#loc5364 = loc("exponential.12913")
#loc5365 = loc("reduce.12919")
#loc5366 = loc("broadcast.12920")
#loc5367 = loc("divide.12921")
#loc5368 = loc("slice.12922")
#loc5369 = loc("reshape.380")
#loc5370 = loc("reshape.382")
#loc5371 = loc("transpose.383")
#loc5373 = loc("reshape.12736")
#loc5374 = loc("reshape.376")
#loc5375 = loc("reshape.378")
#loc5376 = loc("broadcast.12739")
#loc5377 = loc("add.12740")
#loc5378 = loc("reshape.12741")
#loc5379 = loc("transpose.12742")
#loc5380 = loc("broadcast.12746")
#loc5381 = loc("reshape.12747")
#loc5382 = loc("dot.12923")
#loc5383 = loc("transpose.12925")
#loc5384 = loc("reshape.12927")
#loc5385 = loc("reshape.370")
#loc5386 = loc("reshape.372")
#loc5387 = loc("transpose.373")
#loc5389 = loc("reshape.12929")
#loc5390 = loc("reshape.366")
#loc5391 = loc("reshape.368")
#loc5392 = loc("broadcast.12932")
#loc5393 = loc("add.12933")
#loc5394 = loc("add.12936")
#loc5395 = loc("reshape.12966")
#loc5396 = loc("reshape.12968")
#loc5397 = loc("convert.12969")
#loc5398 = loc("broadcast.12970")
#loc5399 = loc("convert.12937")
#loc5400 = loc("power.12939")
#loc5402 = loc("multiply.12955")
#loc5403 = loc("reshape.12956")
#loc5404 = loc("add.12960")
#loc5405 = loc("rsqrt.12961")
#loc5406 = loc("reshape.12962")
#loc5407 = loc("broadcast.12963")
#loc5408 = loc("multiply.12964")
#loc5409 = loc("multiply.12971")
#loc5410 = loc("convert.12972")
#loc5411 = loc("reshape.13051")
#loc5412 = loc("broadcast.13055")
#loc5414 = loc("reshape.13045")
#loc5415 = loc("reshape.13047")
#loc5416 = loc("broadcast.13062")
#loc5417 = loc("add.13063")
#loc5418 = loc("slice.13076")
#loc5419 = loc("clamp.13079")
#loc5420 = loc("add.13082")
#loc5421 = loc("slice.13064")
#loc5422 = loc("clamp.13067")
#loc5423 = loc("multiply.13069")
#loc5424 = loc("logistic.13070")
#loc5425 = loc("multiply.13071")
#loc5426 = loc("multiply.13083")
#loc5427 = loc("dot.13084")
#loc5428 = loc("reshape.13034")
#loc5429 = loc("reshape.13036")
#loc5430 = loc("broadcast.13088")
#loc5431 = loc("add.13089")
#loc5432 = loc("reshape.13090")
#loc5433 = loc("reshape.356")
#loc5434 = loc("reshape.358")
#loc5435 = loc("transpose.359")
#loc5437 = loc("reshape.349")
#loc5438 = loc("reshape.351")
#loc5439 = loc("broadcast.12979")
#loc5440 = loc("add.12980")
#loc5442 = loc("compare.12993")
#loc5443 = loc("slice.12998")
#loc5444 = loc("convert.12999")
#loc5445 = loc("reshape.13023")
#loc5446 = loc("concatenate.13024")
#loc5447 = loc("slice.12996")
#loc5448 = loc("reduce.13005")
#loc5449 = loc("broadcast.13006")
#loc5450 = loc("subtract.13007")
#loc5451 = loc("exponential.13008")
#loc5452 = loc("reduce.13014")
#loc5453 = loc("broadcast.13015")
#loc5454 = loc("divide.13016")
#loc5456 = loc("transpose.13029")
#loc5457 = loc("reshape.13030")
#loc5458 = loc("broadcast.13092")
#loc5459 = loc("multiply.13093")
#loc5461 = loc("add.13103")
#loc5462 = loc("convert.13104")
#loc5463 = loc("power.13106")
#loc5465 = loc("multiply.13122")
#loc5466 = loc("reshape.13123")
#loc5467 = loc("add.13127")
#loc5468 = loc("rsqrt.13128")
#loc5469 = loc("reshape.13129")
#loc5470 = loc("broadcast.13130")
#loc5471 = loc("multiply.13131")
#loc5472 = loc("multiply.13138")
#loc5473 = loc("convert.13139")
#loc5474 = loc("reshape.13226")
#loc5475 = loc("reshape.13222")
#loc5476 = loc("reshape.13224")
#loc5477 = loc("transpose.13225")
#loc5479 = loc("reshape.13228")
#loc5480 = loc("reshape.13218")
#loc5481 = loc("reshape.13220")
#loc5482 = loc("broadcast.13231")
#loc5483 = loc("add.13232")
#loc5484 = loc("reshape.13233")
#loc5485 = loc("transpose.13234")
#loc5486 = loc("slice.13235")
#loc5487 = loc("multiply.13252")
#loc5488 = loc("slice.13239")
#loc5489 = loc("multiply.13249")
#loc5490 = loc("subtract.13255")
#loc5491 = loc("multiply.13242")
#loc5492 = loc("multiply.13238")
#loc5493 = loc("add.13245")
#loc5494 = loc("concatenate.13256")
#loc5495 = loc("reshape.13173")
#loc5496 = loc("reshape.13175")
#loc5497 = loc("transpose.13176")
#loc5499 = loc("reshape.13179")
#loc5500 = loc("reshape.13169")
#loc5501 = loc("reshape.13171")
#loc5502 = loc("broadcast.13182")
#loc5503 = loc("add.13183")
#loc5504 = loc("reshape.13184")
#loc5505 = loc("transpose.13185")
#loc5506 = loc("slice.13186")
#loc5507 = loc("multiply.13204")
#loc5508 = loc("slice.13191")
#loc5509 = loc("multiply.13201")
#loc5510 = loc("subtract.13207")
#loc5511 = loc("multiply.13194")
#loc5512 = loc("multiply.13189")
#loc5513 = loc("add.13197")
#loc5514 = loc("concatenate.13208")
#loc5515 = loc("broadcast.13212")
#loc5516 = loc("reshape.13213")
#loc5517 = loc("transpose.13214")
#loc5518 = loc("dot.13257")
#loc5519 = loc("multiply.13260")
#loc5520 = loc("add.13265")
#loc5521 = loc("reshape.13156")
#loc5522 = loc("reshape.13161")
#loc5523 = loc("broadcast.13162")
#loc5524 = loc("concatenate.13266")
#loc5525 = loc("reshape.13539")
#loc5526 = loc("reshape.13541")
#loc5527 = loc("convert.13542")
#loc5528 = loc("broadcast.13543")
#loc5529 = loc("reduce.13273")
#loc5530 = loc("broadcast.13309")
#loc5531 = loc("subtract.13310")
#loc5532 = loc("reduce.13316")
#loc5533 = loc("broadcast.13317")
#loc5534 = loc("subtract.13318")
#loc5535 = loc("exponential.13319")
#loc5536 = loc("reduce.13325")
#loc5537 = loc("broadcast.13326")
#loc5538 = loc("divide.13327")
#loc5539 = loc("slice.13328")
#loc5540 = loc("reshape.338")
#loc5541 = loc("reshape.340")
#loc5542 = loc("transpose.341")
#loc5544 = loc("reshape.13142")
#loc5545 = loc("reshape.334")
#loc5546 = loc("reshape.336")
#loc5547 = loc("broadcast.13145")
#loc5548 = loc("add.13146")
#loc5549 = loc("reshape.13147")
#loc5550 = loc("transpose.13148")
#loc5551 = loc("broadcast.13152")
#loc5552 = loc("reshape.13153")
#loc5553 = loc("dot.13329")
#loc5554 = loc("transpose.13331")
#loc5555 = loc("reshape.13333")
#loc5556 = loc("reshape.328")
#loc5557 = loc("reshape.330")
#loc5558 = loc("transpose.331")
#loc5560 = loc("reshape.13335")
#loc5561 = loc("reshape.324")
#loc5562 = loc("reshape.326")
#loc5563 = loc("broadcast.13338")
#loc5564 = loc("add.13339")
#loc5565 = loc("add.13342")
#loc5566 = loc("reshape.13372")
#loc5567 = loc("reshape.13374")
#loc5568 = loc("convert.13375")
#loc5569 = loc("broadcast.13376")
#loc5570 = loc("convert.13343")
#loc5571 = loc("power.13345")
#loc5573 = loc("multiply.13361")
#loc5574 = loc("reshape.13362")
#loc5575 = loc("add.13366")
#loc5576 = loc("rsqrt.13367")
#loc5577 = loc("reshape.13368")
#loc5578 = loc("broadcast.13369")
#loc5579 = loc("multiply.13370")
#loc5580 = loc("multiply.13377")
#loc5581 = loc("convert.13378")
#loc5582 = loc("reshape.13457")
#loc5583 = loc("broadcast.13461")
#loc5585 = loc("reshape.13451")
#loc5586 = loc("reshape.13453")
#loc5587 = loc("broadcast.13468")
#loc5588 = loc("add.13469")
#loc5589 = loc("slice.13482")
#loc5590 = loc("clamp.13485")
#loc5591 = loc("add.13488")
#loc5592 = loc("slice.13470")
#loc5593 = loc("clamp.13473")
#loc5594 = loc("multiply.13475")
#loc5595 = loc("logistic.13476")
#loc5596 = loc("multiply.13477")
#loc5597 = loc("multiply.13489")
#loc5598 = loc("dot.13490")
#loc5599 = loc("reshape.13440")
#loc5600 = loc("reshape.13442")
#loc5601 = loc("broadcast.13494")
#loc5602 = loc("add.13495")
#loc5603 = loc("reshape.13496")
#loc5604 = loc("reshape.314")
#loc5605 = loc("reshape.316")
#loc5606 = loc("transpose.317")
#loc5608 = loc("reshape.307")
#loc5609 = loc("reshape.309")
#loc5610 = loc("broadcast.13385")
#loc5611 = loc("add.13386")
#loc5613 = loc("compare.13399")
#loc5614 = loc("slice.13404")
#loc5615 = loc("convert.13405")
#loc5616 = loc("reshape.13429")
#loc5617 = loc("concatenate.13430")
#loc5618 = loc("slice.13402")
#loc5619 = loc("reduce.13411")
#loc5620 = loc("broadcast.13412")
#loc5621 = loc("subtract.13413")
#loc5622 = loc("exponential.13414")
#loc5623 = loc("reduce.13420")
#loc5624 = loc("broadcast.13421")
#loc5625 = loc("divide.13422")
#loc5627 = loc("transpose.13435")
#loc5628 = loc("reshape.13436")
#loc5629 = loc("broadcast.13498")
#loc5630 = loc("multiply.13499")
#loc5632 = loc("add.13509")
#loc5633 = loc("convert.13510")
#loc5634 = loc("power.13512")
#loc5636 = loc("multiply.13528")
#loc5637 = loc("reshape.13529")
#loc5638 = loc("add.13533")
#loc5639 = loc("rsqrt.13534")
#loc5640 = loc("reshape.13535")
#loc5641 = loc("broadcast.13536")
#loc5642 = loc("multiply.13537")
#loc5643 = loc("multiply.13544")
#loc5644 = loc("convert.13545")
#loc5645 = loc("reshape.13632")
#loc5646 = loc("reshape.13628")
#loc5647 = loc("reshape.13630")
#loc5648 = loc("transpose.13631")
#loc5650 = loc("reshape.13634")
#loc5651 = loc("reshape.13624")
#loc5652 = loc("reshape.13626")
#loc5653 = loc("broadcast.13637")
#loc5654 = loc("add.13638")
#loc5655 = loc("reshape.13639")
#loc5656 = loc("transpose.13640")
#loc5657 = loc("slice.13641")
#loc5658 = loc("multiply.13658")
#loc5659 = loc("slice.13645")
#loc5660 = loc("multiply.13655")
#loc5661 = loc("subtract.13661")
#loc5662 = loc("multiply.13648")
#loc5663 = loc("multiply.13644")
#loc5664 = loc("add.13651")
#loc5665 = loc("concatenate.13662")
#loc5666 = loc("reshape.13579")
#loc5667 = loc("reshape.13581")
#loc5668 = loc("transpose.13582")
#loc5670 = loc("reshape.13585")
#loc5671 = loc("reshape.13575")
#loc5672 = loc("reshape.13577")
#loc5673 = loc("broadcast.13588")
#loc5674 = loc("add.13589")
#loc5675 = loc("reshape.13590")
#loc5676 = loc("transpose.13591")
#loc5677 = loc("slice.13592")
#loc5678 = loc("multiply.13610")
#loc5679 = loc("slice.13597")
#loc5680 = loc("multiply.13607")
#loc5681 = loc("subtract.13613")
#loc5682 = loc("multiply.13600")
#loc5683 = loc("multiply.13595")
#loc5684 = loc("add.13603")
#loc5685 = loc("concatenate.13614")
#loc5686 = loc("broadcast.13618")
#loc5687 = loc("reshape.13619")
#loc5688 = loc("transpose.13620")
#loc5689 = loc("dot.13663")
#loc5690 = loc("multiply.13666")
#loc5691 = loc("add.13671")
#loc5692 = loc("reshape.13562")
#loc5693 = loc("reshape.13567")
#loc5694 = loc("broadcast.13568")
#loc5695 = loc("concatenate.13672")
#loc5696 = loc("reshape.13945")
#loc5697 = loc("reshape.13947")
#loc5698 = loc("convert.13948")
#loc5699 = loc("broadcast.13949")
#loc5700 = loc("reduce.13679")
#loc5701 = loc("broadcast.13715")
#loc5702 = loc("subtract.13716")
#loc5703 = loc("reduce.13722")
#loc5704 = loc("broadcast.13723")
#loc5705 = loc("subtract.13724")
#loc5706 = loc("exponential.13725")
#loc5707 = loc("reduce.13731")
#loc5708 = loc("broadcast.13732")
#loc5709 = loc("divide.13733")
#loc5710 = loc("slice.13734")
#loc5711 = loc("reshape.296")
#loc5712 = loc("reshape.298")
#loc5713 = loc("transpose.299")
#loc5715 = loc("reshape.13548")
#loc5716 = loc("reshape.292")
#loc5717 = loc("reshape.294")
#loc5718 = loc("broadcast.13551")
#loc5719 = loc("add.13552")
#loc5720 = loc("reshape.13553")
#loc5721 = loc("transpose.13554")
#loc5722 = loc("broadcast.13558")
#loc5723 = loc("reshape.13559")
#loc5724 = loc("dot.13735")
#loc5725 = loc("transpose.13737")
#loc5726 = loc("reshape.13739")
#loc5727 = loc("reshape.286")
#loc5728 = loc("reshape.288")
#loc5729 = loc("transpose.289")
#loc5731 = loc("reshape.13741")
#loc5732 = loc("reshape.282")
#loc5733 = loc("reshape.284")
#loc5734 = loc("broadcast.13744")
#loc5735 = loc("add.13745")
#loc5736 = loc("add.13748")
#loc5737 = loc("reshape.13778")
#loc5738 = loc("reshape.13780")
#loc5739 = loc("convert.13781")
#loc5740 = loc("broadcast.13782")
#loc5741 = loc("convert.13749")
#loc5742 = loc("power.13751")
#loc5744 = loc("multiply.13767")
#loc5745 = loc("reshape.13768")
#loc5746 = loc("add.13772")
#loc5747 = loc("rsqrt.13773")
#loc5748 = loc("reshape.13774")
#loc5749 = loc("broadcast.13775")
#loc5750 = loc("multiply.13776")
#loc5751 = loc("multiply.13783")
#loc5752 = loc("convert.13784")
#loc5753 = loc("reshape.13863")
#loc5754 = loc("broadcast.13867")
#loc5756 = loc("reshape.13857")
#loc5757 = loc("reshape.13859")
#loc5758 = loc("broadcast.13874")
#loc5759 = loc("add.13875")
#loc5760 = loc("slice.13888")
#loc5761 = loc("clamp.13891")
#loc5762 = loc("add.13894")
#loc5763 = loc("slice.13876")
#loc5764 = loc("clamp.13879")
#loc5765 = loc("multiply.13881")
#loc5766 = loc("logistic.13882")
#loc5767 = loc("multiply.13883")
#loc5768 = loc("multiply.13895")
#loc5769 = loc("dot.13896")
#loc5770 = loc("reshape.13846")
#loc5771 = loc("reshape.13848")
#loc5772 = loc("broadcast.13900")
#loc5773 = loc("add.13901")
#loc5774 = loc("reshape.13902")
#loc5775 = loc("reshape.272")
#loc5776 = loc("reshape.274")
#loc5777 = loc("transpose.275")
#loc5779 = loc("reshape.265")
#loc5780 = loc("reshape.267")
#loc5781 = loc("broadcast.13791")
#loc5782 = loc("add.13792")
#loc5784 = loc("compare.13805")
#loc5785 = loc("slice.13810")
#loc5786 = loc("convert.13811")
#loc5787 = loc("reshape.13835")
#loc5788 = loc("concatenate.13836")
#loc5789 = loc("slice.13808")
#loc5790 = loc("reduce.13817")
#loc5791 = loc("broadcast.13818")
#loc5792 = loc("subtract.13819")
#loc5793 = loc("exponential.13820")
#loc5794 = loc("reduce.13826")
#loc5795 = loc("broadcast.13827")
#loc5796 = loc("divide.13828")
#loc5798 = loc("transpose.13841")
#loc5799 = loc("reshape.13842")
#loc5800 = loc("broadcast.13904")
#loc5801 = loc("multiply.13905")
#loc5803 = loc("add.13915")
#loc5804 = loc("convert.13916")
#loc5805 = loc("power.13918")
#loc5807 = loc("multiply.13934")
#loc5808 = loc("reshape.13935")
#loc5809 = loc("add.13939")
#loc5810 = loc("rsqrt.13940")
#loc5811 = loc("reshape.13941")
#loc5812 = loc("broadcast.13942")
#loc5813 = loc("multiply.13943")
#loc5814 = loc("multiply.13950")
#loc5815 = loc("convert.13951")
#loc5816 = loc("reshape.14038")
#loc5817 = loc("reshape.14034")
#loc5818 = loc("reshape.14036")
#loc5819 = loc("transpose.14037")
#loc5821 = loc("reshape.14040")
#loc5822 = loc("reshape.14030")
#loc5823 = loc("reshape.14032")
#loc5824 = loc("broadcast.14043")
#loc5825 = loc("add.14044")
#loc5826 = loc("reshape.14045")
#loc5827 = loc("transpose.14046")
#loc5828 = loc("slice.14047")
#loc5829 = loc("multiply.14064")
#loc5830 = loc("slice.14051")
#loc5831 = loc("multiply.14061")
#loc5832 = loc("subtract.14067")
#loc5833 = loc("multiply.14054")
#loc5834 = loc("multiply.14050")
#loc5835 = loc("add.14057")
#loc5836 = loc("concatenate.14068")
#loc5837 = loc("reshape.13985")
#loc5838 = loc("reshape.13987")
#loc5839 = loc("transpose.13988")
#loc5841 = loc("reshape.13991")
#loc5842 = loc("reshape.13981")
#loc5843 = loc("reshape.13983")
#loc5844 = loc("broadcast.13994")
#loc5845 = loc("add.13995")
#loc5846 = loc("reshape.13996")
#loc5847 = loc("transpose.13997")
#loc5848 = loc("slice.13998")
#loc5849 = loc("multiply.14016")
#loc5850 = loc("slice.14003")
#loc5851 = loc("multiply.14013")
#loc5852 = loc("subtract.14019")
#loc5853 = loc("multiply.14006")
#loc5854 = loc("multiply.14001")
#loc5855 = loc("add.14009")
#loc5856 = loc("concatenate.14020")
#loc5857 = loc("broadcast.14024")
#loc5858 = loc("reshape.14025")
#loc5859 = loc("transpose.14026")
#loc5860 = loc("dot.14069")
#loc5861 = loc("multiply.14072")
#loc5862 = loc("add.14077")
#loc5863 = loc("reshape.13968")
#loc5864 = loc("reshape.13973")
#loc5865 = loc("broadcast.13974")
#loc5866 = loc("concatenate.14078")
#loc5867 = loc("reshape.14351")
#loc5868 = loc("reshape.14353")
#loc5869 = loc("convert.14354")
#loc5870 = loc("broadcast.14355")
#loc5871 = loc("reduce.14085")
#loc5872 = loc("broadcast.14121")
#loc5873 = loc("subtract.14122")
#loc5874 = loc("reduce.14128")
#loc5875 = loc("broadcast.14129")
#loc5876 = loc("subtract.14130")
#loc5877 = loc("exponential.14131")
#loc5878 = loc("reduce.14137")
#loc5879 = loc("broadcast.14138")
#loc5880 = loc("divide.14139")
#loc5881 = loc("slice.14140")
#loc5882 = loc("reshape.254")
#loc5883 = loc("reshape.256")
#loc5884 = loc("transpose.257")
#loc5886 = loc("reshape.13954")
#loc5887 = loc("reshape.250")
#loc5888 = loc("reshape.252")
#loc5889 = loc("broadcast.13957")
#loc5890 = loc("add.13958")
#loc5891 = loc("reshape.13959")
#loc5892 = loc("transpose.13960")
#loc5893 = loc("broadcast.13964")
#loc5894 = loc("reshape.13965")
#loc5895 = loc("dot.14141")
#loc5896 = loc("transpose.14143")
#loc5897 = loc("reshape.14145")
#loc5898 = loc("reshape.244")
#loc5899 = loc("reshape.246")
#loc5900 = loc("transpose.247")
#loc5902 = loc("reshape.14147")
#loc5903 = loc("reshape.240")
#loc5904 = loc("reshape.242")
#loc5905 = loc("broadcast.14150")
#loc5906 = loc("add.14151")
#loc5907 = loc("add.14154")
#loc5908 = loc("reshape.14184")
#loc5909 = loc("reshape.14186")
#loc5910 = loc("convert.14187")
#loc5911 = loc("broadcast.14188")
#loc5912 = loc("convert.14155")
#loc5913 = loc("power.14157")
#loc5915 = loc("multiply.14173")
#loc5916 = loc("reshape.14174")
#loc5917 = loc("add.14178")
#loc5918 = loc("rsqrt.14179")
#loc5919 = loc("reshape.14180")
#loc5920 = loc("broadcast.14181")
#loc5921 = loc("multiply.14182")
#loc5922 = loc("multiply.14189")
#loc5923 = loc("convert.14190")
#loc5924 = loc("reshape.14269")
#loc5925 = loc("broadcast.14273")
#loc5927 = loc("reshape.14263")
#loc5928 = loc("reshape.14265")
#loc5929 = loc("broadcast.14280")
#loc5930 = loc("add.14281")
#loc5931 = loc("slice.14294")
#loc5932 = loc("clamp.14297")
#loc5933 = loc("add.14300")
#loc5934 = loc("slice.14282")
#loc5935 = loc("clamp.14285")
#loc5936 = loc("multiply.14287")
#loc5937 = loc("logistic.14288")
#loc5938 = loc("multiply.14289")
#loc5939 = loc("multiply.14301")
#loc5940 = loc("dot.14302")
#loc5941 = loc("reshape.14252")
#loc5942 = loc("reshape.14254")
#loc5943 = loc("broadcast.14306")
#loc5944 = loc("add.14307")
#loc5945 = loc("reshape.14308")
#loc5946 = loc("reshape.230")
#loc5947 = loc("reshape.232")
#loc5948 = loc("transpose.233")
#loc5950 = loc("reshape.223")
#loc5951 = loc("reshape.225")
#loc5952 = loc("broadcast.14197")
#loc5953 = loc("add.14198")
#loc5955 = loc("compare.14211")
#loc5956 = loc("slice.14216")
#loc5957 = loc("convert.14217")
#loc5958 = loc("reshape.14241")
#loc5959 = loc("concatenate.14242")
#loc5960 = loc("slice.14214")
#loc5961 = loc("reduce.14223")
#loc5962 = loc("broadcast.14224")
#loc5963 = loc("subtract.14225")
#loc5964 = loc("exponential.14226")
#loc5965 = loc("reduce.14232")
#loc5966 = loc("broadcast.14233")
#loc5967 = loc("divide.14234")
#loc5969 = loc("transpose.14247")
#loc5970 = loc("reshape.14248")
#loc5971 = loc("broadcast.14310")
#loc5972 = loc("multiply.14311")
#loc5974 = loc("add.14321")
#loc5975 = loc("convert.14322")
#loc5976 = loc("power.14324")
#loc5978 = loc("multiply.14340")
#loc5979 = loc("reshape.14341")
#loc5980 = loc("add.14345")
#loc5981 = loc("rsqrt.14346")
#loc5982 = loc("reshape.14347")
#loc5983 = loc("broadcast.14348")
#loc5984 = loc("multiply.14349")
#loc5985 = loc("multiply.14356")
#loc5986 = loc("convert.14357")
#loc5987 = loc("reshape.14444")
#loc5988 = loc("reshape.14440")
#loc5989 = loc("reshape.14442")
#loc5990 = loc("transpose.14443")
#loc5992 = loc("reshape.14446")
#loc5993 = loc("reshape.14436")
#loc5994 = loc("reshape.14438")
#loc5995 = loc("broadcast.14449")
#loc5996 = loc("add.14450")
#loc5997 = loc("reshape.14451")
#loc5998 = loc("transpose.14452")
#loc5999 = loc("slice.14453")
#loc6000 = loc("multiply.14470")
#loc6001 = loc("slice.14457")
#loc6002 = loc("multiply.14467")
#loc6003 = loc("subtract.14473")
#loc6004 = loc("multiply.14460")
#loc6005 = loc("multiply.14456")
#loc6006 = loc("add.14463")
#loc6007 = loc("concatenate.14474")
#loc6008 = loc("reshape.14391")
#loc6009 = loc("reshape.14393")
#loc6010 = loc("transpose.14394")
#loc6012 = loc("reshape.14397")
#loc6013 = loc("reshape.14387")
#loc6014 = loc("reshape.14389")
#loc6015 = loc("broadcast.14400")
#loc6016 = loc("add.14401")
#loc6017 = loc("reshape.14402")
#loc6018 = loc("transpose.14403")
#loc6019 = loc("slice.14404")
#loc6020 = loc("multiply.14422")
#loc6021 = loc("slice.14409")
#loc6022 = loc("multiply.14419")
#loc6023 = loc("subtract.14425")
#loc6024 = loc("multiply.14412")
#loc6025 = loc("multiply.14407")
#loc6026 = loc("add.14415")
#loc6027 = loc("concatenate.14426")
#loc6028 = loc("broadcast.14430")
#loc6029 = loc("reshape.14431")
#loc6030 = loc("transpose.14432")
#loc6031 = loc("dot.14475")
#loc6032 = loc("multiply.14478")
#loc6033 = loc("add.14483")
#loc6034 = loc("reshape.14374")
#loc6035 = loc("reshape.14379")
#loc6036 = loc("broadcast.14380")
#loc6037 = loc("concatenate.14484")
#loc6038 = loc("reshape.14757")
#loc6039 = loc("reshape.14759")
#loc6040 = loc("convert.14760")
#loc6041 = loc("broadcast.14761")
#loc6042 = loc("reduce.14491")
#loc6043 = loc("broadcast.14527")
#loc6044 = loc("subtract.14528")
#loc6045 = loc("reduce.14534")
#loc6046 = loc("broadcast.14535")
#loc6047 = loc("subtract.14536")
#loc6048 = loc("exponential.14537")
#loc6049 = loc("reduce.14543")
#loc6050 = loc("broadcast.14544")
#loc6051 = loc("divide.14545")
#loc6052 = loc("slice.14546")
#loc6053 = loc("reshape.212")
#loc6054 = loc("reshape.214")
#loc6055 = loc("transpose.215")
#loc6057 = loc("reshape.14360")
#loc6058 = loc("reshape.208")
#loc6059 = loc("reshape.210")
#loc6060 = loc("broadcast.14363")
#loc6061 = loc("add.14364")
#loc6062 = loc("reshape.14365")
#loc6063 = loc("transpose.14366")
#loc6064 = loc("broadcast.14370")
#loc6065 = loc("reshape.14371")
#loc6066 = loc("dot.14547")
#loc6067 = loc("transpose.14549")
#loc6068 = loc("reshape.14551")
#loc6069 = loc("reshape.202")
#loc6070 = loc("reshape.204")
#loc6071 = loc("transpose.205")
#loc6073 = loc("reshape.14553")
#loc6074 = loc("reshape.198")
#loc6075 = loc("reshape.200")
#loc6076 = loc("broadcast.14556")
#loc6077 = loc("add.14557")
#loc6078 = loc("add.14560")
#loc6079 = loc("reshape.14590")
#loc6080 = loc("reshape.14592")
#loc6081 = loc("convert.14593")
#loc6082 = loc("broadcast.14594")
#loc6083 = loc("convert.14561")
#loc6084 = loc("power.14563")
#loc6086 = loc("multiply.14579")
#loc6087 = loc("reshape.14580")
#loc6088 = loc("add.14584")
#loc6089 = loc("rsqrt.14585")
#loc6090 = loc("reshape.14586")
#loc6091 = loc("broadcast.14587")
#loc6092 = loc("multiply.14588")
#loc6093 = loc("multiply.14595")
#loc6094 = loc("convert.14596")
#loc6095 = loc("reshape.14675")
#loc6096 = loc("broadcast.14679")
#loc6098 = loc("reshape.14669")
#loc6099 = loc("reshape.14671")
#loc6100 = loc("broadcast.14686")
#loc6101 = loc("add.14687")
#loc6102 = loc("slice.14700")
#loc6103 = loc("clamp.14703")
#loc6104 = loc("add.14706")
#loc6105 = loc("slice.14688")
#loc6106 = loc("clamp.14691")
#loc6107 = loc("multiply.14693")
#loc6108 = loc("logistic.14694")
#loc6109 = loc("multiply.14695")
#loc6110 = loc("multiply.14707")
#loc6111 = loc("dot.14708")
#loc6112 = loc("reshape.14658")
#loc6113 = loc("reshape.14660")
#loc6114 = loc("broadcast.14712")
#loc6115 = loc("add.14713")
#loc6116 = loc("reshape.14714")
#loc6117 = loc("reshape.188")
#loc6118 = loc("reshape.190")
#loc6119 = loc("transpose.191")
#loc6121 = loc("reshape.181")
#loc6122 = loc("reshape.183")
#loc6123 = loc("broadcast.14603")
#loc6124 = loc("add.14604")
#loc6126 = loc("compare.14617")
#loc6127 = loc("slice.14622")
#loc6128 = loc("convert.14623")
#loc6129 = loc("reshape.14647")
#loc6130 = loc("concatenate.14648")
#loc6131 = loc("slice.14620")
#loc6132 = loc("reduce.14629")
#loc6133 = loc("broadcast.14630")
#loc6134 = loc("subtract.14631")
#loc6135 = loc("exponential.14632")
#loc6136 = loc("reduce.14638")
#loc6137 = loc("broadcast.14639")
#loc6138 = loc("divide.14640")
#loc6140 = loc("transpose.14653")
#loc6141 = loc("reshape.14654")
#loc6142 = loc("broadcast.14716")
#loc6143 = loc("multiply.14717")
#loc6145 = loc("add.14727")
#loc6146 = loc("convert.14728")
#loc6147 = loc("power.14730")
#loc6149 = loc("multiply.14746")
#loc6150 = loc("reshape.14747")
#loc6151 = loc("add.14751")
#loc6152 = loc("rsqrt.14752")
#loc6153 = loc("reshape.14753")
#loc6154 = loc("broadcast.14754")
#loc6155 = loc("multiply.14755")
#loc6156 = loc("multiply.14762")
#loc6157 = loc("convert.14763")
#loc6158 = loc("reshape.14850")
#loc6159 = loc("reshape.14846")
#loc6160 = loc("reshape.14848")
#loc6161 = loc("transpose.14849")
#loc6163 = loc("reshape.14852")
#loc6164 = loc("reshape.14842")
#loc6165 = loc("reshape.14844")
#loc6166 = loc("broadcast.14855")
#loc6167 = loc("add.14856")
#loc6168 = loc("reshape.14857")
#loc6169 = loc("transpose.14858")
#loc6170 = loc("slice.14859")
#loc6171 = loc("multiply.14876")
#loc6172 = loc("slice.14863")
#loc6173 = loc("multiply.14873")
#loc6174 = loc("subtract.14879")
#loc6175 = loc("multiply.14866")
#loc6176 = loc("multiply.14862")
#loc6177 = loc("add.14869")
#loc6178 = loc("concatenate.14880")
#loc6179 = loc("reshape.14797")
#loc6180 = loc("reshape.14799")
#loc6181 = loc("transpose.14800")
#loc6183 = loc("reshape.14803")
#loc6184 = loc("reshape.14793")
#loc6185 = loc("reshape.14795")
#loc6186 = loc("broadcast.14806")
#loc6187 = loc("add.14807")
#loc6188 = loc("reshape.14808")
#loc6189 = loc("transpose.14809")
#loc6190 = loc("slice.14810")
#loc6191 = loc("multiply.14828")
#loc6192 = loc("slice.14815")
#loc6193 = loc("multiply.14825")
#loc6194 = loc("subtract.14831")
#loc6195 = loc("multiply.14818")
#loc6196 = loc("multiply.14813")
#loc6197 = loc("add.14821")
#loc6198 = loc("concatenate.14832")
#loc6199 = loc("broadcast.14836")
#loc6200 = loc("reshape.14837")
#loc6201 = loc("transpose.14838")
#loc6202 = loc("dot.14881")
#loc6203 = loc("multiply.14884")
#loc6204 = loc("add.14889")
#loc6205 = loc("reshape.14780")
#loc6206 = loc("reshape.14785")
#loc6207 = loc("broadcast.14786")
#loc6208 = loc("concatenate.14890")
#loc6209 = loc("reshape.15163")
#loc6210 = loc("reshape.15165")
#loc6211 = loc("convert.15166")
#loc6212 = loc("broadcast.15167")
#loc6213 = loc("reduce.14897")
#loc6214 = loc("broadcast.14933")
#loc6215 = loc("subtract.14934")
#loc6216 = loc("reduce.14940")
#loc6217 = loc("broadcast.14941")
#loc6218 = loc("subtract.14942")
#loc6219 = loc("exponential.14943")
#loc6220 = loc("reduce.14949")
#loc6221 = loc("broadcast.14950")
#loc6222 = loc("divide.14951")
#loc6223 = loc("slice.14952")
#loc6224 = loc("reshape.170")
#loc6225 = loc("reshape.172")
#loc6226 = loc("transpose.173")
#loc6228 = loc("reshape.14766")
#loc6229 = loc("reshape.166")
#loc6230 = loc("reshape.168")
#loc6231 = loc("broadcast.14769")
#loc6232 = loc("add.14770")
#loc6233 = loc("reshape.14771")
#loc6234 = loc("transpose.14772")
#loc6235 = loc("broadcast.14776")
#loc6236 = loc("reshape.14777")
#loc6237 = loc("dot.14953")
#loc6238 = loc("transpose.14955")
#loc6239 = loc("reshape.14957")
#loc6240 = loc("reshape.160")
#loc6241 = loc("reshape.162")
#loc6242 = loc("transpose.163")
#loc6244 = loc("reshape.14959")
#loc6245 = loc("reshape.156")
#loc6246 = loc("reshape.158")
#loc6247 = loc("broadcast.14962")
#loc6248 = loc("add.14963")
#loc6249 = loc("add.14966")
#loc6250 = loc("reshape.14996")
#loc6251 = loc("reshape.14998")
#loc6252 = loc("convert.14999")
#loc6253 = loc("broadcast.15000")
#loc6254 = loc("convert.14967")
#loc6255 = loc("power.14969")
#loc6257 = loc("multiply.14985")
#loc6258 = loc("reshape.14986")
#loc6259 = loc("add.14990")
#loc6260 = loc("rsqrt.14991")
#loc6261 = loc("reshape.14992")
#loc6262 = loc("broadcast.14993")
#loc6263 = loc("multiply.14994")
#loc6264 = loc("multiply.15001")
#loc6265 = loc("convert.15002")
#loc6266 = loc("reshape.15081")
#loc6267 = loc("broadcast.15085")
#loc6269 = loc("reshape.15075")
#loc6270 = loc("reshape.15077")
#loc6271 = loc("broadcast.15092")
#loc6272 = loc("add.15093")
#loc6273 = loc("slice.15106")
#loc6274 = loc("clamp.15109")
#loc6275 = loc("add.15112")
#loc6276 = loc("slice.15094")
#loc6277 = loc("clamp.15097")
#loc6278 = loc("multiply.15099")
#loc6279 = loc("logistic.15100")
#loc6280 = loc("multiply.15101")
#loc6281 = loc("multiply.15113")
#loc6282 = loc("dot.15114")
#loc6283 = loc("reshape.15064")
#loc6284 = loc("reshape.15066")
#loc6285 = loc("broadcast.15118")
#loc6286 = loc("add.15119")
#loc6287 = loc("reshape.15120")
#loc6288 = loc("reshape.146")
#loc6289 = loc("reshape.148")
#loc6290 = loc("transpose.149")
#loc6292 = loc("reshape.139")
#loc6293 = loc("reshape.141")
#loc6294 = loc("broadcast.15009")
#loc6295 = loc("add.15010")
#loc6297 = loc("compare.15023")
#loc6298 = loc("slice.15028")
#loc6299 = loc("convert.15029")
#loc6300 = loc("reshape.15053")
#loc6301 = loc("concatenate.15054")
#loc6302 = loc("slice.15026")
#loc6303 = loc("reduce.15035")
#loc6304 = loc("broadcast.15036")
#loc6305 = loc("subtract.15037")
#loc6306 = loc("exponential.15038")
#loc6307 = loc("reduce.15044")
#loc6308 = loc("broadcast.15045")
#loc6309 = loc("divide.15046")
#loc6311 = loc("transpose.15059")
#loc6312 = loc("reshape.15060")
#loc6313 = loc("broadcast.15122")
#loc6314 = loc("multiply.15123")
#loc6316 = loc("add.15133")
#loc6317 = loc("convert.15134")
#loc6318 = loc("power.15136")
#loc6320 = loc("multiply.15152")
#loc6321 = loc("reshape.15153")
#loc6322 = loc("add.15157")
#loc6323 = loc("rsqrt.15158")
#loc6324 = loc("reshape.15159")
#loc6325 = loc("broadcast.15160")
#loc6326 = loc("multiply.15161")
#loc6327 = loc("multiply.15168")
#loc6328 = loc("convert.15169")
#loc6329 = loc("reshape.15256")
#loc6330 = loc("reshape.15252")
#loc6331 = loc("reshape.15254")
#loc6332 = loc("transpose.15255")
#loc6334 = loc("reshape.15258")
#loc6335 = loc("reshape.15248")
#loc6336 = loc("reshape.15250")
#loc6337 = loc("broadcast.15261")
#loc6338 = loc("add.15262")
#loc6339 = loc("reshape.15263")
#loc6340 = loc("transpose.15264")
#loc6341 = loc("slice.15265")
#loc6342 = loc("multiply.15282")
#loc6343 = loc("slice.15269")
#loc6344 = loc("multiply.15279")
#loc6345 = loc("subtract.15285")
#loc6346 = loc("multiply.15272")
#loc6347 = loc("multiply.15268")
#loc6348 = loc("add.15275")
#loc6349 = loc("concatenate.15286")
#loc6350 = loc("reshape.15203")
#loc6351 = loc("reshape.15205")
#loc6352 = loc("transpose.15206")
#loc6354 = loc("reshape.15209")
#loc6355 = loc("reshape.15199")
#loc6356 = loc("reshape.15201")
#loc6357 = loc("broadcast.15212")
#loc6358 = loc("add.15213")
#loc6359 = loc("reshape.15214")
#loc6360 = loc("transpose.15215")
#loc6361 = loc("slice.15216")
#loc6362 = loc("multiply.15234")
#loc6363 = loc("slice.15221")
#loc6364 = loc("multiply.15231")
#loc6365 = loc("subtract.15237")
#loc6366 = loc("multiply.15224")
#loc6367 = loc("multiply.15219")
#loc6368 = loc("add.15227")
#loc6369 = loc("concatenate.15238")
#loc6370 = loc("broadcast.15242")
#loc6371 = loc("reshape.15243")
#loc6372 = loc("transpose.15244")
#loc6373 = loc("dot.15287")
#loc6374 = loc("multiply.15290")
#loc6375 = loc("add.15295")
#loc6376 = loc("reshape.15186")
#loc6377 = loc("reshape.15191")
#loc6378 = loc("broadcast.15192")
#loc6379 = loc("concatenate.15296")
#loc6380 = loc("reshape.15569")
#loc6381 = loc("reshape.15571")
#loc6382 = loc("convert.15572")
#loc6383 = loc("broadcast.15573")
#loc6384 = loc("reduce.15303")
#loc6385 = loc("broadcast.15339")
#loc6386 = loc("subtract.15340")
#loc6387 = loc("reduce.15346")
#loc6388 = loc("broadcast.15347")
#loc6389 = loc("subtract.15348")
#loc6390 = loc("exponential.15349")
#loc6391 = loc("reduce.15355")
#loc6392 = loc("broadcast.15356")
#loc6393 = loc("divide.15357")
#loc6394 = loc("slice.15358")
#loc6395 = loc("reshape.128")
#loc6396 = loc("reshape.130")
#loc6397 = loc("transpose.131")
#loc6399 = loc("reshape.15172")
#loc6400 = loc("reshape.124")
#loc6401 = loc("reshape.126")
#loc6402 = loc("broadcast.15175")
#loc6403 = loc("add.15176")
#loc6404 = loc("reshape.15177")
#loc6405 = loc("transpose.15178")
#loc6406 = loc("broadcast.15182")
#loc6407 = loc("reshape.15183")
#loc6408 = loc("dot.15359")
#loc6409 = loc("transpose.15361")
#loc6410 = loc("reshape.15363")
#loc6411 = loc("reshape.118")
#loc6412 = loc("reshape.120")
#loc6413 = loc("transpose.121")
#loc6415 = loc("reshape.15365")
#loc6416 = loc("reshape.114")
#loc6417 = loc("reshape.116")
#loc6418 = loc("broadcast.15368")
#loc6419 = loc("add.15369")
#loc6420 = loc("add.15372")
#loc6421 = loc("reshape.15402")
#loc6422 = loc("reshape.15404")
#loc6423 = loc("convert.15405")
#loc6424 = loc("broadcast.15406")
#loc6425 = loc("convert.15373")
#loc6426 = loc("power.15375")
#loc6428 = loc("multiply.15391")
#loc6429 = loc("reshape.15392")
#loc6430 = loc("add.15396")
#loc6431 = loc("rsqrt.15397")
#loc6432 = loc("reshape.15398")
#loc6433 = loc("broadcast.15399")
#loc6434 = loc("multiply.15400")
#loc6435 = loc("multiply.15407")
#loc6436 = loc("convert.15408")
#loc6437 = loc("reshape.15487")
#loc6438 = loc("broadcast.15491")
#loc6440 = loc("reshape.15481")
#loc6441 = loc("reshape.15483")
#loc6442 = loc("broadcast.15498")
#loc6443 = loc("add.15499")
#loc6444 = loc("slice.15512")
#loc6445 = loc("clamp.15515")
#loc6446 = loc("add.15518")
#loc6447 = loc("slice.15500")
#loc6448 = loc("clamp.15503")
#loc6449 = loc("multiply.15505")
#loc6450 = loc("logistic.15506")
#loc6451 = loc("multiply.15507")
#loc6452 = loc("multiply.15519")
#loc6453 = loc("dot.15520")
#loc6454 = loc("reshape.15470")
#loc6455 = loc("reshape.15472")
#loc6456 = loc("broadcast.15524")
#loc6457 = loc("add.15525")
#loc6458 = loc("reshape.15526")
#loc6459 = loc("reshape.104")
#loc6460 = loc("reshape.106")
#loc6461 = loc("transpose.107")
#loc6463 = loc("reshape.97")
#loc6464 = loc("reshape.99")
#loc6465 = loc("broadcast.15415")
#loc6466 = loc("add.15416")
#loc6468 = loc("compare.15429")
#loc6469 = loc("slice.15434")
#loc6470 = loc("convert.15435")
#loc6471 = loc("reshape.15459")
#loc6472 = loc("concatenate.15460")
#loc6473 = loc("slice.15432")
#loc6474 = loc("reduce.15441")
#loc6475 = loc("broadcast.15442")
#loc6476 = loc("subtract.15443")
#loc6477 = loc("exponential.15444")
#loc6478 = loc("reduce.15450")
#loc6479 = loc("broadcast.15451")
#loc6480 = loc("divide.15452")
#loc6482 = loc("transpose.15465")
#loc6483 = loc("reshape.15466")
#loc6484 = loc("broadcast.15528")
#loc6485 = loc("multiply.15529")
#loc6487 = loc("add.15539")
#loc6488 = loc("convert.15540")
#loc6489 = loc("power.15542")
#loc6491 = loc("multiply.15558")
#loc6492 = loc("reshape.15559")
#loc6493 = loc("add.15563")
#loc6494 = loc("rsqrt.15564")
#loc6495 = loc("reshape.15565")
#loc6496 = loc("broadcast.15566")
#loc6497 = loc("multiply.15567")
#loc6498 = loc("multiply.15574")
#loc6499 = loc("convert.15575")
#loc6500 = loc("reshape.15662")
#loc6501 = loc("reshape.15658")
#loc6502 = loc("reshape.15660")
#loc6503 = loc("transpose.15661")
#loc6505 = loc("reshape.15664")
#loc6506 = loc("reshape.15654")
#loc6507 = loc("reshape.15656")
#loc6508 = loc("broadcast.15667")
#loc6509 = loc("add.15668")
#loc6510 = loc("reshape.15669")
#loc6511 = loc("transpose.15670")
#loc6512 = loc("slice.15671")
#loc6513 = loc("multiply.15688")
#loc6514 = loc("slice.15675")
#loc6515 = loc("multiply.15685")
#loc6516 = loc("subtract.15691")
#loc6517 = loc("multiply.15678")
#loc6518 = loc("multiply.15674")
#loc6519 = loc("add.15681")
#loc6520 = loc("concatenate.15692")
#loc6521 = loc("reshape.15609")
#loc6522 = loc("reshape.15611")
#loc6523 = loc("transpose.15612")
#loc6525 = loc("reshape.15615")
#loc6526 = loc("reshape.15605")
#loc6527 = loc("reshape.15607")
#loc6528 = loc("broadcast.15618")
#loc6529 = loc("add.15619")
#loc6530 = loc("reshape.15620")
#loc6531 = loc("transpose.15621")
#loc6532 = loc("slice.15622")
#loc6533 = loc("multiply.15640")
#loc6534 = loc("slice.15627")
#loc6535 = loc("multiply.15637")
#loc6536 = loc("subtract.15643")
#loc6537 = loc("multiply.15630")
#loc6538 = loc("multiply.15625")
#loc6539 = loc("add.15633")
#loc6540 = loc("concatenate.15644")
#loc6541 = loc("broadcast.15648")
#loc6542 = loc("reshape.15649")
#loc6543 = loc("transpose.15650")
#loc6544 = loc("dot.15693")
#loc6545 = loc("multiply.15696")
#loc6546 = loc("add.15701")
#loc6547 = loc("reshape.15592")
#loc6548 = loc("reshape.15597")
#loc6549 = loc("broadcast.15598")
#loc6550 = loc("concatenate.15702")
#loc6551 = loc("reshape.15975")
#loc6552 = loc("reshape.15977")
#loc6553 = loc("convert.15978")
#loc6554 = loc("broadcast.15979")
#loc6555 = loc("reduce.15709")
#loc6556 = loc("broadcast.15745")
#loc6557 = loc("subtract.15746")
#loc6558 = loc("reduce.15752")
#loc6559 = loc("broadcast.15753")
#loc6560 = loc("subtract.15754")
#loc6561 = loc("exponential.15755")
#loc6562 = loc("reduce.15761")
#loc6563 = loc("broadcast.15762")
#loc6564 = loc("divide.15763")
#loc6565 = loc("slice.15764")
#loc6566 = loc("reshape.86")
#loc6567 = loc("reshape.88")
#loc6568 = loc("transpose.89")
#loc6570 = loc("reshape.15578")
#loc6571 = loc("reshape.82")
#loc6572 = loc("reshape.84")
#loc6573 = loc("broadcast.15581")
#loc6574 = loc("add.15582")
#loc6575 = loc("reshape.15583")
#loc6576 = loc("transpose.15584")
#loc6577 = loc("broadcast.15588")
#loc6578 = loc("reshape.15589")
#loc6579 = loc("dot.15765")
#loc6580 = loc("transpose.15767")
#loc6581 = loc("reshape.15769")
#loc6582 = loc("reshape.76")
#loc6583 = loc("reshape.78")
#loc6584 = loc("transpose.79")
#loc6586 = loc("reshape.15771")
#loc6587 = loc("reshape.72")
#loc6588 = loc("reshape.74")
#loc6589 = loc("broadcast.15774")
#loc6590 = loc("add.15775")
#loc6591 = loc("add.15778")
#loc6592 = loc("reshape.15808")
#loc6593 = loc("reshape.15810")
#loc6594 = loc("convert.15811")
#loc6595 = loc("broadcast.15812")
#loc6596 = loc("convert.15779")
#loc6597 = loc("power.15781")
#loc6599 = loc("multiply.15797")
#loc6600 = loc("reshape.15798")
#loc6601 = loc("add.15802")
#loc6602 = loc("rsqrt.15803")
#loc6603 = loc("reshape.15804")
#loc6604 = loc("broadcast.15805")
#loc6605 = loc("multiply.15806")
#loc6606 = loc("multiply.15813")
#loc6607 = loc("convert.15814")
#loc6608 = loc("reshape.15893")
#loc6609 = loc("broadcast.15897")
#loc6611 = loc("reshape.15887")
#loc6612 = loc("reshape.15889")
#loc6613 = loc("broadcast.15904")
#loc6614 = loc("add.15905")
#loc6615 = loc("slice.15918")
#loc6616 = loc("clamp.15921")
#loc6617 = loc("add.15924")
#loc6618 = loc("slice.15906")
#loc6619 = loc("clamp.15909")
#loc6620 = loc("multiply.15911")
#loc6621 = loc("logistic.15912")
#loc6622 = loc("multiply.15913")
#loc6623 = loc("multiply.15925")
#loc6624 = loc("dot.15926")
#loc6625 = loc("reshape.15876")
#loc6626 = loc("reshape.15878")
#loc6627 = loc("broadcast.15930")
#loc6628 = loc("add.15931")
#loc6629 = loc("reshape.15932")
#loc6630 = loc("reshape.62")
#loc6631 = loc("reshape.64")
#loc6632 = loc("transpose.65")
#loc6634 = loc("reshape.55")
#loc6635 = loc("reshape.57")
#loc6636 = loc("broadcast.15821")
#loc6637 = loc("add.15822")
#loc6639 = loc("compare.15835")
#loc6640 = loc("slice.15840")
#loc6641 = loc("convert.15841")
#loc6642 = loc("reshape.15865")
#loc6643 = loc("concatenate.15866")
#loc6644 = loc("slice.15838")
#loc6645 = loc("reduce.15847")
#loc6646 = loc("broadcast.15848")
#loc6647 = loc("subtract.15849")
#loc6648 = loc("exponential.15850")
#loc6649 = loc("reduce.15856")
#loc6650 = loc("broadcast.15857")
#loc6651 = loc("divide.15858")
#loc6653 = loc("transpose.15871")
#loc6654 = loc("reshape.15872")
#loc6655 = loc("broadcast.15934")
#loc6656 = loc("multiply.15935")
#loc6658 = loc("add.15945")
#loc6659 = loc("convert.15946")
#loc6660 = loc("power.15948")
#loc6662 = loc("multiply.15964")
#loc6663 = loc("reshape.15965")
#loc6664 = loc("add.15969")
#loc6665 = loc("rsqrt.15970")
#loc6666 = loc("reshape.15971")
#loc6667 = loc("broadcast.15972")
#loc6668 = loc("multiply.15973")
#loc6669 = loc("multiply.15980")
#loc6670 = loc("convert.15981")
#loc6671 = loc("reshape.16068")
#loc6672 = loc("reshape.16064")
#loc6673 = loc("reshape.16066")
#loc6674 = loc("transpose.16067")
#loc6676 = loc("reshape.16070")
#loc6677 = loc("reshape.16060")
#loc6678 = loc("reshape.16062")
#loc6679 = loc("broadcast.16073")
#loc6680 = loc("add.16074")
#loc6681 = loc("reshape.16075")
#loc6682 = loc("transpose.16076")
#loc6683 = loc("slice.16077")
#loc6684 = loc("multiply.16094")
#loc6685 = loc("slice.16081")
#loc6686 = loc("multiply.16091")
#loc6687 = loc("subtract.16097")
#loc6688 = loc("multiply.16084")
#loc6689 = loc("multiply.16080")
#loc6690 = loc("add.16087")
#loc6691 = loc("concatenate.16098")
#loc6692 = loc("reshape.16015")
#loc6693 = loc("reshape.16017")
#loc6694 = loc("transpose.16018")
#loc6696 = loc("reshape.16021")
#loc6697 = loc("reshape.16011")
#loc6698 = loc("reshape.16013")
#loc6699 = loc("broadcast.16024")
#loc6700 = loc("add.16025")
#loc6701 = loc("reshape.16026")
#loc6702 = loc("transpose.16027")
#loc6703 = loc("slice.16028")
#loc6704 = loc("multiply.16046")
#loc6705 = loc("slice.16033")
#loc6706 = loc("multiply.16043")
#loc6707 = loc("subtract.16049")
#loc6708 = loc("multiply.16036")
#loc6709 = loc("multiply.16031")
#loc6710 = loc("add.16039")
#loc6711 = loc("concatenate.16050")
#loc6712 = loc("broadcast.16054")
#loc6713 = loc("reshape.16055")
#loc6714 = loc("transpose.16056")
#loc6715 = loc("dot.16099")
#loc6716 = loc("multiply.16102")
#loc6717 = loc("add.16107")
#loc6718 = loc("reshape.15998")
#loc6719 = loc("reshape.16003")
#loc6720 = loc("broadcast.16004")
#loc6721 = loc("concatenate.16108")
#loc6722 = loc("reshape.16381")
#loc6723 = loc("reshape.16383")
#loc6724 = loc("convert.16384")
#loc6725 = loc("broadcast.16385")
#loc6726 = loc("reduce.16115")
#loc6727 = loc("broadcast.16151")
#loc6728 = loc("subtract.16152")
#loc6729 = loc("reduce.16158")
#loc6730 = loc("broadcast.16159")
#loc6731 = loc("subtract.16160")
#loc6732 = loc("exponential.16161")
#loc6733 = loc("reduce.16167")
#loc6734 = loc("broadcast.16168")
#loc6735 = loc("divide.16169")
#loc6736 = loc("slice.16170")
#loc6737 = loc("reshape.44")
#loc6738 = loc("reshape.46")
#loc6739 = loc("transpose.47")
#loc6741 = loc("reshape.15984")
#loc6742 = loc("reshape.40")
#loc6743 = loc("reshape.42")
#loc6744 = loc("broadcast.15987")
#loc6745 = loc("add.15988")
#loc6746 = loc("reshape.15989")
#loc6747 = loc("transpose.15990")
#loc6748 = loc("broadcast.15994")
#loc6749 = loc("reshape.15995")
#loc6750 = loc("dot.16171")
#loc6751 = loc("transpose.16173")
#loc6752 = loc("reshape.16175")
#loc6753 = loc("reshape.34")
#loc6754 = loc("reshape.36")
#loc6755 = loc("transpose.37")
#loc6757 = loc("reshape.16177")
#loc6758 = loc("reshape.30")
#loc6759 = loc("reshape.32")
#loc6760 = loc("broadcast.16180")
#loc6761 = loc("add.16181")
#loc6762 = loc("add.16184")
#loc6763 = loc("reshape.16214")
#loc6764 = loc("reshape.16216")
#loc6765 = loc("convert.16217")
#loc6766 = loc("broadcast.16218")
#loc6767 = loc("convert.16185")
#loc6768 = loc("power.16187")
#loc6770 = loc("multiply.16203")
#loc6771 = loc("reshape.16204")
#loc6772 = loc("add.16208")
#loc6773 = loc("rsqrt.16209")
#loc6774 = loc("reshape.16210")
#loc6775 = loc("broadcast.16211")
#loc6776 = loc("multiply.16212")
#loc6777 = loc("multiply.16219")
#loc6778 = loc("convert.16220")
#loc6779 = loc("reshape.16299")
#loc6780 = loc("broadcast.16303")
#loc6782 = loc("reshape.16293")
#loc6783 = loc("reshape.16295")
#loc6784 = loc("broadcast.16310")
#loc6785 = loc("add.16311")
#loc6786 = loc("slice.16324")
#loc6787 = loc("clamp.16327")
#loc6788 = loc("add.16330")
#loc6789 = loc("slice.16312")
#loc6790 = loc("clamp.16315")
#loc6791 = loc("multiply.16317")
#loc6792 = loc("logistic.16318")
#loc6793 = loc("multiply.16319")
#loc6794 = loc("multiply.16331")
#loc6795 = loc("dot.16332")
#loc6796 = loc("reshape.16282")
#loc6797 = loc("reshape.16284")
#loc6798 = loc("broadcast.16336")
#loc6799 = loc("add.16337")
#loc6800 = loc("reshape.16338")
#loc6801 = loc("reshape.20")
#loc6802 = loc("reshape.22")
#loc6803 = loc("transpose.23")
#loc6805 = loc("reshape.13")
#loc6806 = loc("reshape.15")
#loc6807 = loc("broadcast.16227")
#loc6808 = loc("add.16228")
#loc6810 = loc("compare.16241")
#loc6811 = loc("slice.16246")
#loc6812 = loc("convert.16247")
#loc6813 = loc("reshape.16271")
#loc6814 = loc("concatenate.16272")
#loc6815 = loc("slice.16244")
#loc6816 = loc("reduce.16253")
#loc6817 = loc("broadcast.16254")
#loc6818 = loc("subtract.16255")
#loc6819 = loc("exponential.16256")
#loc6820 = loc("reduce.16262")
#loc6821 = loc("broadcast.16263")
#loc6822 = loc("divide.16264")
#loc6824 = loc("transpose.16277")
#loc6825 = loc("reshape.16278")
#loc6826 = loc("broadcast.16340")
#loc6827 = loc("multiply.16341")
#loc6829 = loc("add.16351")
#loc6830 = loc("convert.16352")
#loc6831 = loc("power.16354")
#loc6833 = loc("multiply.16370")
#loc6834 = loc("reshape.16371")
#loc6835 = loc("add.16375")
#loc6836 = loc("rsqrt.16376")
#loc6837 = loc("reshape.16377")
#loc6838 = loc("broadcast.16378")
#loc6839 = loc("multiply.16379")
#loc6840 = loc("multiply.16386")
#loc6841 = loc("convert.16387")
#loc6842 = loc("reshape.16388")
#loc6843 = loc("reshape.2")
#loc6844 = loc("reshape.4")
#loc6845 = loc("transpose.5")
#loc6847 = loc("reshape.16390")
------------------ END OF MLIR MODULE ------------------
