#loc1 = loc("p0.2")
#loc2 = loc("p1.6")
#loc3 = loc("p2.12")
#loc4 = loc("p3.17")
#loc5 = loc("p4.24")
#loc6 = loc("p5.29")
#loc7 = loc("p6.125")
#loc8 = loc("p7.135")
#loc9 = loc("p8.186")
#loc10 = loc("p9.195")
#loc11 = loc("p10.199")
#loc12 = loc("p11.225")
#loc13 = loc("p12.234")
#loc14 = loc("p13.238")
#loc15 = loc("p14.244")
#loc16 = loc("p15.249")
#loc17 = loc("p16.259")
#loc18 = loc("p17.263")
#loc19 = loc("p18.275")
#loc20 = loc("p19.279")
#loc21 = loc("p20.316")
#loc22 = loc("p21.320")
#loc23 = loc("p22.376")
#loc24 = loc("p23.380")
module @SyncTensorsGraph.544 attributes {mhlo.cross_program_prefetches = [], mhlo.input_output_alias = [], mhlo.is_dynamic = false, mhlo.use_auto_spmd_partitioning = false, ttcore.meshes = #ttcore.meshes<[<"mesh" = 1x1>]>} {
  ttcore.device_module {
    builtin.module @SyncTensorsGraph.544 attributes {mhlo.cross_program_prefetches = [], mhlo.input_output_alias = [], mhlo.is_dynamic = false, mhlo.use_auto_spmd_partitioning = false, ttcore.meshes = #ttcore.meshes<[<"mesh" = 1x1>]>} {
      func.func @main(%arg0: tensor<2560xbf16> {ttcore.argument_type = #ttcore.argument_type<parameter>, ttcore.shard_status = #ttcore.shard_status<unsharded>, ttir.name = "l__self___model_layers__modules__0___self_attn_k_proj_bias"} loc("p0.2"), %arg1: tensor<2560x2560xbf16> {ttcore.argument_type = #ttcore.argument_type<parameter>, ttcore.shard_status = #ttcore.shard_status<unsharded>, ttir.name = "l__self___model_layers__modules__0___self_attn_k_proj_weight"} loc("p1.6"), %arg2: tensor<2560xbf16> {ttcore.argument_type = #ttcore.argument_type<parameter>, ttcore.shard_status = #ttcore.shard_status<unsharded>, ttir.name = "l__self___model_layers__modules__0___input_layernorm_bias"} loc("p2.12"), %arg3: tensor<2560xbf16> {ttcore.argument_type = #ttcore.argument_type<parameter>, ttcore.shard_status = #ttcore.shard_status<unsharded>, ttir.name = "l__self___model_layers__modules__0___input_layernorm_weight"} loc("p3.17"), %arg4: tensor<32x17xi64> {ttcore.argument_type = #ttcore.argument_type<input>, ttcore.shard_status = #ttcore.shard_status<unsharded>, ttir.name = "args_0"} loc("p4.24"), %arg5: tensor<51200x2560xbf16> {ttcore.argument_type = #ttcore.argument_type<parameter>, ttcore.shard_status = #ttcore.shard_status<unsharded>, ttir.name = "l__self___model_embed_tokens_weight"} loc("p5.29"), %arg6: tensor<17xi64> {ttcore.argument_type = #ttcore.argument_type<input>, ttcore.shard_status = #ttcore.shard_status<unsharded>, ttir.name = "args_1"} loc("p6.125"), %arg7: tensor<16xbf16> {ttcore.argument_type = #ttcore.argument_type<constant>, ttcore.shard_status = #ttcore.shard_status<unsharded>, ttir.name = "l__self___model_rotary_emb_inv_freq"} loc("p7.135"), %arg8: tensor<32x32x128x80xbf16> {ttcore.argument_type = #ttcore.argument_type<input>, ttcore.shard_status = #ttcore.shard_status<unsharded>, ttir.name = "args_2"} loc("p8.186"), %arg9: tensor<2560xbf16> {ttcore.argument_type = #ttcore.argument_type<parameter>, ttcore.shard_status = #ttcore.shard_status<unsharded>, ttir.name = "l__self___model_layers__modules__0___self_attn_v_proj_bias"} loc("p9.195"), %arg10: tensor<2560x2560xbf16> {ttcore.argument_type = #ttcore.argument_type<parameter>, ttcore.shard_status = #ttcore.shard_status<unsharded>, ttir.name = "l__self___model_layers__modules__0___self_attn_v_proj_weight"} loc("p10.199"), %arg11: tensor<32x32x128x80xbf16> {ttcore.argument_type = #ttcore.argument_type<input>, ttcore.shard_status = #ttcore.shard_status<unsharded>, ttir.name = "args_3"} loc("p11.225"), %arg12: tensor<51200xbf16> {ttcore.argument_type = #ttcore.argument_type<parameter>, ttcore.shard_status = #ttcore.shard_status<unsharded>, ttir.name = "l__self___lm_head_bias"} loc("p12.234"), %arg13: tensor<51200x2560xbf16> {ttcore.argument_type = #ttcore.argument_type<parameter>, ttcore.shard_status = #ttcore.shard_status<unsharded>, ttir.name = "l__self___lm_head_weight"} loc("p13.238"), %arg14: tensor<2560xbf16> {ttcore.argument_type = #ttcore.argument_type<parameter>, ttcore.shard_status = #ttcore.shard_status<unsharded>, ttir.name = "l__self___model_final_layernorm_bias"} loc("p14.244"), %arg15: tensor<2560xbf16> {ttcore.argument_type = #ttcore.argument_type<parameter>, ttcore.shard_status = #ttcore.shard_status<unsharded>, ttir.name = "l__self___model_final_layernorm_weight"} loc("p15.249"), %arg16: tensor<2560xbf16> {ttcore.argument_type = #ttcore.argument_type<parameter>, ttcore.shard_status = #ttcore.shard_status<unsharded>, ttir.name = "l__self___model_layers__modules__0___mlp_fc2_bias"} loc("p16.259"), %arg17: tensor<2560x10240xbf16> {ttcore.argument_type = #ttcore.argument_type<parameter>, ttcore.shard_status = #ttcore.shard_status<unsharded>, ttir.name = "l__self___model_layers__modules__0___mlp_fc2_weight"} loc("p17.263"), %arg18: tensor<10240xbf16> {ttcore.argument_type = #ttcore.argument_type<parameter>, ttcore.shard_status = #ttcore.shard_status<unsharded>, ttir.name = "l__self___model_layers__modules__0___mlp_fc1_bias"} loc("p18.275"), %arg19: tensor<10240x2560xbf16> {ttcore.argument_type = #ttcore.argument_type<parameter>, ttcore.shard_status = #ttcore.shard_status<unsharded>, ttir.name = "l__self___model_layers__modules__0___mlp_fc1_weight"} loc("p19.279"), %arg20: tensor<2560xbf16> {ttcore.argument_type = #ttcore.argument_type<parameter>, ttcore.shard_status = #ttcore.shard_status<unsharded>, ttir.name = "l__self___model_layers__modules__0___self_attn_dense_bias"} loc("p20.316"), %arg21: tensor<2560x2560xbf16> {ttcore.argument_type = #ttcore.argument_type<parameter>, ttcore.shard_status = #ttcore.shard_status<unsharded>, ttir.name = "l__self___model_layers__modules__0___self_attn_dense_weight"} loc("p21.320"), %arg22: tensor<2560xbf16> {ttcore.argument_type = #ttcore.argument_type<parameter>, ttcore.shard_status = #ttcore.shard_status<unsharded>, ttir.name = "l__self___model_layers__modules__0___self_attn_q_proj_bias"} loc("p22.376"), %arg23: tensor<2560x2560xbf16> {ttcore.argument_type = #ttcore.argument_type<parameter>, ttcore.shard_status = #ttcore.shard_status<unsharded>, ttir.name = "l__self___model_layers__modules__0___self_attn_q_proj_weight"} loc("p23.380")) -> (tensor<32x32x128x80xbf16> {ttcore.shard_status = #ttcore.shard_status<unsharded>}, tensor<32x32x128x80xbf16> {ttcore.shard_status = #ttcore.shard_status<unsharded>}, tensor<32x17x51200xbf16> {ttcore.shard_status = #ttcore.shard_status<unsharded>}) {
        %0 = "ttir.constant"() <{value = dense<1.000000e+00> : tensor<32x17x10240xbf16>}> : () -> tensor<32x17x10240xbf16> loc(#loc)
        %1 = "ttir.constant"() <{value = dense<7.968750e-01> : tensor<32x17x10240xbf16>}> : () -> tensor<32x17x10240xbf16> loc(#loc)
        %2 = "ttir.constant"() <{value = dense<4.467770e-02> : tensor<32x17x10240xbf16>}> : () -> tensor<32x17x10240xbf16> loc(#loc)
        %3 = "ttir.constant"() <{value = dense<3.000000e+00> : tensor<32x17x10240xbf16>}> : () -> tensor<32x17x10240xbf16> loc(#loc)
        %4 = "ttir.constant"() <{value = dense<5.000000e-01> : tensor<32x17x10240xbf16>}> : () -> tensor<32x17x10240xbf16> loc(#loc)
        %5 = "ttir.constant"() <{value = dense<0.000000e+00> : tensor<17x128xbf16>}> : () -> tensor<17x128xbf16> loc(#loc)
        %6 = "ttir.constant"() <{value = dense<-3.389530e+38> : tensor<17x128xbf16>}> : () -> tensor<17x128xbf16> loc(#loc)
        %7 = "ttir.constant"() <{value = dense<1> : tensor<17x128xi64>}> : () -> tensor<17x128xi64> loc(#loc)
        %8 = "ttir.constant"() <{value = dense<1.118160e-01> : tensor<32x32x17x128xbf16>}> : () -> tensor<32x32x17x128xbf16> loc(#loc)
        %9 = "ttir.constant"() <{value = dense<128> : tensor<17xi64>}> : () -> tensor<17xi64> loc(#loc)
        %10 = "ttir.constant"() <{value = dense<0> : tensor<17xi64>}> : () -> tensor<17xi64> loc(#loc)
        %11 = "ttir.constant"() <{value = dense<[0, 1, 2, 3, 4, 5, 6, 7, 8, 9, 10, 11, 12, 13, 14, 15, 16]> : tensor<17xi64>}> : () -> tensor<17xi64> loc(#loc)
        %12 = "ttir.constant"() <{value = dense<"…"> : tensor<128xi64>}> : () -> tensor<128xi64> loc(#loc)
        %13 = "ttir.reshape"(%arg6) <{shape = [1 : i32, 1 : i32, 17 : i32]}> : (tensor<17xi64>) -> tensor<1x1x17xi64> loc(#loc25)
        %14 = "ttir.reshape"(%13) <{shape = [17 : i32]}> : (tensor<1x1x17xi64>) -> tensor<17xi64> loc(#loc26)
        %15 = "ttir.lt"(%14, %10) : (tensor<17xi64>, tensor<17xi64>) -> tensor<17xi1> loc(#loc27)
        %16 = "ttir.add"(%14, %9) : (tensor<17xi64>, tensor<17xi64>) -> tensor<17xi64> loc(#loc28)
        %17 = "ttir.where"(%15, %16, %14) : (tensor<17xi1>, tensor<17xi64>, tensor<17xi64>) -> tensor<17xi64> loc(#loc29)
        %18 = "ttir.reshape"(%arg5) <{shape = [1 : i32, 51200 : i32, 2560 : i32]}> : (tensor<51200x2560xbf16>) -> tensor<1x51200x2560xbf16> loc(#loc30)
        %19 = "ttir.reshape"(%18) <{shape = [51200 : i32, 2560 : i32]}> : (tensor<1x51200x2560xbf16>) -> tensor<51200x2560xbf16> loc(#loc31)
        %20 = "ttir.reshape"(%arg4) <{shape = [1 : i32, 32 : i32, 17 : i32]}> : (tensor<32x17xi64>) -> tensor<1x32x17xi64> loc(#loc32)
        %21 = "ttir.reshape"(%20) <{shape = [544 : i32]}> : (tensor<1x32x17xi64>) -> tensor<544xi64> loc(#loc33)
        %22 = "ttir.typecast"(%21) <{conservative_folding = false}> : (tensor<544xi64>) -> tensor<544xui32> loc(#loc34)
        %23 = "ttir.gather"(%19, %22) <{collapsed_slice_dims = array<i64: 0>, index_vector_dim = 1 : si64, indices_are_sorted = false, offset_dims = array<i64: 1>, operand_batching_dims = array<i64>, slice_sizes = array<i64: 1, 2560>, start_index_map = array<i64: 0>, start_indices_batching_dims = array<i64>}> : (tensor<51200x2560xbf16>, tensor<544xui32>) -> tensor<544x2560xbf16> loc(#loc35)
        %24 = "ttir.reshape"(%23) <{shape = [32 : i32, 17 : i32, 2560 : i32]}> : (tensor<544x2560xbf16>) -> tensor<32x17x2560xbf16> loc(#loc36)
        %25 = "ttir.reshape"(%arg3) <{shape = [1 : i32, 1 : i32, 2560 : i32]}> : (tensor<2560xbf16>) -> tensor<1x1x2560xbf16> loc(#loc37)
        %26 = "ttir.reshape"(%25) <{shape = [2560 : i32]}> : (tensor<1x1x2560xbf16>) -> tensor<2560xbf16> loc(#loc38)
        %27 = "ttir.reshape"(%arg2) <{shape = [1 : i32, 1 : i32, 2560 : i32]}> : (tensor<2560xbf16>) -> tensor<1x1x2560xbf16> loc(#loc39)
        %28 = "ttir.reshape"(%27) <{shape = [2560 : i32]}> : (tensor<1x1x2560xbf16>) -> tensor<2560xbf16> loc(#loc40)
        %29 = "ttir.layer_norm"(%24, %26, %28) <{epsilon = 9.99999974E-6 : f32, normalized_shape = array<i64: 2560>, operandSegmentSizes = array<i32: 1, 1, 1>}> : (tensor<32x17x2560xbf16>, tensor<2560xbf16>, tensor<2560xbf16>) -> tensor<32x17x2560xbf16> loc(#loc41)
        %30 = "ttir.reshape"(%29) <{shape = [544 : i32, 2560 : i32]}> : (tensor<32x17x2560xbf16>) -> tensor<544x2560xbf16> loc(#loc42)
        %31 = "ttir.reshape"(%arg1) <{shape = [1 : i32, 2560 : i32, 2560 : i32]}> : (tensor<2560x2560xbf16>) -> tensor<1x2560x2560xbf16> loc(#loc43)
        %32 = "ttir.reshape"(%31) <{shape = [2560 : i32, 2560 : i32]}> : (tensor<1x2560x2560xbf16>) -> tensor<2560x2560xbf16> loc(#loc44)
        %33 = "ttir.permute"(%32) <{permutation = array<i64: 1, 0>}> : (tensor<2560x2560xbf16>) -> tensor<2560x2560xbf16> loc(#loc45)
        %34 = "ttir.dot_general"(%30, %33) <{batch_dims_lhs = array<i64>, batch_dims_rhs = array<i64>, contract_dims_lhs = array<i64: 1>, contract_dims_rhs = array<i64: 0>}> : (tensor<544x2560xbf16>, tensor<2560x2560xbf16>) -> tensor<544x2560xbf16> loc(#loc46)
        %35 = "ttir.reshape"(%34) <{shape = [32 : i32, 17 : i32, 2560 : i32]}> : (tensor<544x2560xbf16>) -> tensor<32x17x2560xbf16> loc(#loc47)
        %36 = "ttir.reshape"(%arg0) <{shape = [1 : i32, 1 : i32, 2560 : i32]}> : (tensor<2560xbf16>) -> tensor<1x1x2560xbf16> loc(#loc48)
        %37 = "ttir.reshape"(%36) <{shape = [2560 : i32]}> : (tensor<1x1x2560xbf16>) -> tensor<2560xbf16> loc(#loc49)
        %38 = "ttir.reshape"(%37) <{shape = [1 : i32, 1 : i32, 2560 : i32]}> : (tensor<2560xbf16>) -> tensor<1x1x2560xbf16> loc(#loc50)
        %39 = "ttir.broadcast"(%38) <{broadcast_dimensions = array<i64: 32, 17, 1>}> : (tensor<1x1x2560xbf16>) -> tensor<32x17x2560xbf16> loc(#loc50)
        %40 = "ttir.add"(%35, %39) : (tensor<32x17x2560xbf16>, tensor<32x17x2560xbf16>) -> tensor<32x17x2560xbf16> loc(#loc51)
        %41 = "ttir.reshape"(%40) <{shape = [32 : i32, 17 : i32, 32 : i32, 80 : i32]}> : (tensor<32x17x2560xbf16>) -> tensor<32x17x32x80xbf16> loc(#loc52)
        %42 = "ttir.permute"(%41) <{permutation = array<i64: 0, 2, 1, 3>}> : (tensor<32x17x32x80xbf16>) -> tensor<32x32x17x80xbf16> loc(#loc53)
        %43 = "ttir.slice_static"(%42) <{begins = [0 : i32, 0 : i32, 0 : i32, 0 : i32], ends = [32 : i32, 32 : i32, 17 : i32, 32 : i32], step = [1 : i32, 1 : i32, 1 : i32, 1 : i32]}> : (tensor<32x32x17x80xbf16>) -> tensor<32x32x17x32xbf16> loc(#loc54)
        %44 = "ttir.reshape"(%arg7) <{shape = [1 : i32, 1 : i32, 16 : i32]}> : (tensor<16xbf16>) -> tensor<1x1x16xbf16> loc(#loc55)
        %45 = "ttir.reshape"(%44) <{shape = [1 : i32, 16 : i32, 1 : i32]}> : (tensor<1x1x16xbf16>) -> tensor<1x16x1xbf16> loc(#loc56)
        %46 = "ttir.typecast"(%45) <{conservative_folding = false}> : (tensor<1x16x1xbf16>) -> tensor<1x16x1xf32> loc(#loc57)
        %47 = "ttir.typecast"(%13) <{conservative_folding = false}> : (tensor<1x1x17xi64>) -> tensor<1x1x17xf32> loc(#loc58)
        %48 = "ttir.dot_general"(%46, %47) <{batch_dims_lhs = array<i64: 0>, batch_dims_rhs = array<i64: 0>, contract_dims_lhs = array<i64: 2>, contract_dims_rhs = array<i64: 1>}> : (tensor<1x16x1xf32>, tensor<1x1x17xf32>) -> tensor<1x16x17xf32> loc(#loc59)
        %49 = "ttir.permute"(%48) <{permutation = array<i64: 0, 2, 1>}> : (tensor<1x16x17xf32>) -> tensor<1x17x16xf32> loc(#loc60)
        %50 = "ttir.concat"(%49, %49) <{dim = 2 : si32}> : (tensor<1x17x16xf32>, tensor<1x17x16xf32>) -> tensor<1x17x32xf32> loc(#loc61)
        %51 = "ttir.cos"(%50) : (tensor<1x17x32xf32>) -> tensor<1x17x32xf32> loc(#loc62)
        %52 = "ttir.typecast"(%51) <{conservative_folding = false}> : (tensor<1x17x32xf32>) -> tensor<1x17x32xbf16> loc(#loc63)
        %53 = "ttir.reshape"(%52) <{shape = [17 : i32, 32 : i32]}> : (tensor<1x17x32xbf16>) -> tensor<17x32xbf16> loc(#loc64)
        %54 = "ttir.reshape"(%53) <{shape = [1 : i32, 1 : i32, 17 : i32, 32 : i32]}> : (tensor<17x32xbf16>) -> tensor<1x1x17x32xbf16> loc(#loc65)
        %55 = "ttir.broadcast"(%54) <{broadcast_dimensions = array<i64: 32, 32, 1, 1>}> : (tensor<1x1x17x32xbf16>) -> tensor<32x32x17x32xbf16> loc(#loc65)
        %56 = "ttir.multiply"(%43, %55) : (tensor<32x32x17x32xbf16>, tensor<32x32x17x32xbf16>) -> tensor<32x32x17x32xbf16> loc(#loc66)
        %57 = "ttir.slice_static"(%43) <{begins = [0 : i32, 0 : i32, 0 : i32, 16 : i32], ends = [32 : i32, 32 : i32, 17 : i32, 32 : i32], step = [1 : i32, 1 : i32, 1 : i32, 1 : i32]}> : (tensor<32x32x17x32xbf16>) -> tensor<32x32x17x16xbf16> loc(#loc67)
        %58 = "ttir.neg"(%57) : (tensor<32x32x17x16xbf16>) -> tensor<32x32x17x16xbf16> loc(#loc68)
        %59 = "ttir.slice_static"(%43) <{begins = [0 : i32, 0 : i32, 0 : i32, 0 : i32], ends = [32 : i32, 32 : i32, 17 : i32, 16 : i32], step = [1 : i32, 1 : i32, 1 : i32, 1 : i32]}> : (tensor<32x32x17x32xbf16>) -> tensor<32x32x17x16xbf16> loc(#loc69)
        %60 = "ttir.concat"(%58, %59) <{dim = 3 : si32}> : (tensor<32x32x17x16xbf16>, tensor<32x32x17x16xbf16>) -> tensor<32x32x17x32xbf16> loc(#loc70)
        %61 = "ttir.sin"(%50) : (tensor<1x17x32xf32>) -> tensor<1x17x32xf32> loc(#loc71)
        %62 = "ttir.typecast"(%61) <{conservative_folding = false}> : (tensor<1x17x32xf32>) -> tensor<1x17x32xbf16> loc(#loc72)
        %63 = "ttir.reshape"(%62) <{shape = [17 : i32, 32 : i32]}> : (tensor<1x17x32xbf16>) -> tensor<17x32xbf16> loc(#loc73)
        %64 = "ttir.reshape"(%63) <{shape = [1 : i32, 1 : i32, 17 : i32, 32 : i32]}> : (tensor<17x32xbf16>) -> tensor<1x1x17x32xbf16> loc(#loc74)
        %65 = "ttir.broadcast"(%64) <{broadcast_dimensions = array<i64: 32, 32, 1, 1>}> : (tensor<1x1x17x32xbf16>) -> tensor<32x32x17x32xbf16> loc(#loc74)
        %66 = "ttir.multiply"(%60, %65) : (tensor<32x32x17x32xbf16>, tensor<32x32x17x32xbf16>) -> tensor<32x32x17x32xbf16> loc(#loc75)
        %67 = "ttir.add"(%56, %66) : (tensor<32x32x17x32xbf16>, tensor<32x32x17x32xbf16>) -> tensor<32x32x17x32xbf16> loc(#loc76)
        %68 = "ttir.slice_static"(%42) <{begins = [0 : i32, 0 : i32, 0 : i32, 32 : i32], ends = [32 : i32, 32 : i32, 17 : i32, 80 : i32], step = [1 : i32, 1 : i32, 1 : i32, 1 : i32]}> : (tensor<32x32x17x80xbf16>) -> tensor<32x32x17x48xbf16> loc(#loc77)
        %69 = "ttir.concat"(%67, %68) <{dim = 3 : si32}> : (tensor<32x32x17x32xbf16>, tensor<32x32x17x48xbf16>) -> tensor<32x32x17x80xbf16> loc(#loc78)
        %70 = "ttir.slice_static"(%69) <{begins = [0 : i32, 0 : i32, 0 : i32, 0 : i32], ends = [1 : i32, 32 : i32, 17 : i32, 80 : i32], step = [1 : i32, 1 : i32, 1 : i32, 1 : i32]}> : (tensor<32x32x17x80xbf16>) -> tensor<1x32x17x80xbf16> loc(#loc79)
        %71 = "ttir.fill_cache"(%arg8, %70) <{batch_offset = 0 : i32}> : (tensor<32x32x128x80xbf16>, tensor<1x32x17x80xbf16>) -> tensor<32x32x128x80xbf16> loc(#loc79)
        %72 = "ttir.slice_static"(%69) <{begins = [1 : i32, 0 : i32, 0 : i32, 0 : i32], ends = [2 : i32, 32 : i32, 17 : i32, 80 : i32], step = [1 : i32, 1 : i32, 1 : i32, 1 : i32]}> : (tensor<32x32x17x80xbf16>) -> tensor<1x32x17x80xbf16> loc(#loc79)
        %73 = "ttir.fill_cache"(%71, %72) <{batch_offset = 1 : i32}> : (tensor<32x32x128x80xbf16>, tensor<1x32x17x80xbf16>) -> tensor<32x32x128x80xbf16> loc(#loc79)
        %74 = "ttir.slice_static"(%69) <{begins = [2 : i32, 0 : i32, 0 : i32, 0 : i32], ends = [3 : i32, 32 : i32, 17 : i32, 80 : i32], step = [1 : i32, 1 : i32, 1 : i32, 1 : i32]}> : (tensor<32x32x17x80xbf16>) -> tensor<1x32x17x80xbf16> loc(#loc79)
        %75 = "ttir.fill_cache"(%73, %74) <{batch_offset = 2 : i32}> : (tensor<32x32x128x80xbf16>, tensor<1x32x17x80xbf16>) -> tensor<32x32x128x80xbf16> loc(#loc79)
        %76 = "ttir.slice_static"(%69) <{begins = [3 : i32, 0 : i32, 0 : i32, 0 : i32], ends = [4 : i32, 32 : i32, 17 : i32, 80 : i32], step = [1 : i32, 1 : i32, 1 : i32, 1 : i32]}> : (tensor<32x32x17x80xbf16>) -> tensor<1x32x17x80xbf16> loc(#loc79)
        %77 = "ttir.fill_cache"(%75, %76) <{batch_offset = 3 : i32}> : (tensor<32x32x128x80xbf16>, tensor<1x32x17x80xbf16>) -> tensor<32x32x128x80xbf16> loc(#loc79)
        %78 = "ttir.slice_static"(%69) <{begins = [4 : i32, 0 : i32, 0 : i32, 0 : i32], ends = [5 : i32, 32 : i32, 17 : i32, 80 : i32], step = [1 : i32, 1 : i32, 1 : i32, 1 : i32]}> : (tensor<32x32x17x80xbf16>) -> tensor<1x32x17x80xbf16> loc(#loc79)
        %79 = "ttir.fill_cache"(%77, %78) <{batch_offset = 4 : i32}> : (tensor<32x32x128x80xbf16>, tensor<1x32x17x80xbf16>) -> tensor<32x32x128x80xbf16> loc(#loc79)
        %80 = "ttir.slice_static"(%69) <{begins = [5 : i32, 0 : i32, 0 : i32, 0 : i32], ends = [6 : i32, 32 : i32, 17 : i32, 80 : i32], step = [1 : i32, 1 : i32, 1 : i32, 1 : i32]}> : (tensor<32x32x17x80xbf16>) -> tensor<1x32x17x80xbf16> loc(#loc79)
        %81 = "ttir.fill_cache"(%79, %80) <{batch_offset = 5 : i32}> : (tensor<32x32x128x80xbf16>, tensor<1x32x17x80xbf16>) -> tensor<32x32x128x80xbf16> loc(#loc79)
        %82 = "ttir.slice_static"(%69) <{begins = [6 : i32, 0 : i32, 0 : i32, 0 : i32], ends = [7 : i32, 32 : i32, 17 : i32, 80 : i32], step = [1 : i32, 1 : i32, 1 : i32, 1 : i32]}> : (tensor<32x32x17x80xbf16>) -> tensor<1x32x17x80xbf16> loc(#loc79)
        %83 = "ttir.fill_cache"(%81, %82) <{batch_offset = 6 : i32}> : (tensor<32x32x128x80xbf16>, tensor<1x32x17x80xbf16>) -> tensor<32x32x128x80xbf16> loc(#loc79)
        %84 = "ttir.slice_static"(%69) <{begins = [7 : i32, 0 : i32, 0 : i32, 0 : i32], ends = [8 : i32, 32 : i32, 17 : i32, 80 : i32], step = [1 : i32, 1 : i32, 1 : i32, 1 : i32]}> : (tensor<32x32x17x80xbf16>) -> tensor<1x32x17x80xbf16> loc(#loc79)
        %85 = "ttir.fill_cache"(%83, %84) <{batch_offset = 7 : i32}> : (tensor<32x32x128x80xbf16>, tensor<1x32x17x80xbf16>) -> tensor<32x32x128x80xbf16> loc(#loc79)
        %86 = "ttir.slice_static"(%69) <{begins = [8 : i32, 0 : i32, 0 : i32, 0 : i32], ends = [9 : i32, 32 : i32, 17 : i32, 80 : i32], step = [1 : i32, 1 : i32, 1 : i32, 1 : i32]}> : (tensor<32x32x17x80xbf16>) -> tensor<1x32x17x80xbf16> loc(#loc79)
        %87 = "ttir.fill_cache"(%85, %86) <{batch_offset = 8 : i32}> : (tensor<32x32x128x80xbf16>, tensor<1x32x17x80xbf16>) -> tensor<32x32x128x80xbf16> loc(#loc79)
        %88 = "ttir.slice_static"(%69) <{begins = [9 : i32, 0 : i32, 0 : i32, 0 : i32], ends = [10 : i32, 32 : i32, 17 : i32, 80 : i32], step = [1 : i32, 1 : i32, 1 : i32, 1 : i32]}> : (tensor<32x32x17x80xbf16>) -> tensor<1x32x17x80xbf16> loc(#loc79)
        %89 = "ttir.fill_cache"(%87, %88) <{batch_offset = 9 : i32}> : (tensor<32x32x128x80xbf16>, tensor<1x32x17x80xbf16>) -> tensor<32x32x128x80xbf16> loc(#loc79)
        %90 = "ttir.slice_static"(%69) <{begins = [10 : i32, 0 : i32, 0 : i32, 0 : i32], ends = [11 : i32, 32 : i32, 17 : i32, 80 : i32], step = [1 : i32, 1 : i32, 1 : i32, 1 : i32]}> : (tensor<32x32x17x80xbf16>) -> tensor<1x32x17x80xbf16> loc(#loc79)
        %91 = "ttir.fill_cache"(%89, %90) <{batch_offset = 10 : i32}> : (tensor<32x32x128x80xbf16>, tensor<1x32x17x80xbf16>) -> tensor<32x32x128x80xbf16> loc(#loc79)
        %92 = "ttir.slice_static"(%69) <{begins = [11 : i32, 0 : i32, 0 : i32, 0 : i32], ends = [12 : i32, 32 : i32, 17 : i32, 80 : i32], step = [1 : i32, 1 : i32, 1 : i32, 1 : i32]}> : (tensor<32x32x17x80xbf16>) -> tensor<1x32x17x80xbf16> loc(#loc79)
        %93 = "ttir.fill_cache"(%91, %92) <{batch_offset = 11 : i32}> : (tensor<32x32x128x80xbf16>, tensor<1x32x17x80xbf16>) -> tensor<32x32x128x80xbf16> loc(#loc79)
        %94 = "ttir.slice_static"(%69) <{begins = [12 : i32, 0 : i32, 0 : i32, 0 : i32], ends = [13 : i32, 32 : i32, 17 : i32, 80 : i32], step = [1 : i32, 1 : i32, 1 : i32, 1 : i32]}> : (tensor<32x32x17x80xbf16>) -> tensor<1x32x17x80xbf16> loc(#loc79)
        %95 = "ttir.fill_cache"(%93, %94) <{batch_offset = 12 : i32}> : (tensor<32x32x128x80xbf16>, tensor<1x32x17x80xbf16>) -> tensor<32x32x128x80xbf16> loc(#loc79)
        %96 = "ttir.slice_static"(%69) <{begins = [13 : i32, 0 : i32, 0 : i32, 0 : i32], ends = [14 : i32, 32 : i32, 17 : i32, 80 : i32], step = [1 : i32, 1 : i32, 1 : i32, 1 : i32]}> : (tensor<32x32x17x80xbf16>) -> tensor<1x32x17x80xbf16> loc(#loc79)
        %97 = "ttir.fill_cache"(%95, %96) <{batch_offset = 13 : i32}> : (tensor<32x32x128x80xbf16>, tensor<1x32x17x80xbf16>) -> tensor<32x32x128x80xbf16> loc(#loc79)
        %98 = "ttir.slice_static"(%69) <{begins = [14 : i32, 0 : i32, 0 : i32, 0 : i32], ends = [15 : i32, 32 : i32, 17 : i32, 80 : i32], step = [1 : i32, 1 : i32, 1 : i32, 1 : i32]}> : (tensor<32x32x17x80xbf16>) -> tensor<1x32x17x80xbf16> loc(#loc79)
        %99 = "ttir.fill_cache"(%97, %98) <{batch_offset = 14 : i32}> : (tensor<32x32x128x80xbf16>, tensor<1x32x17x80xbf16>) -> tensor<32x32x128x80xbf16> loc(#loc79)
        %100 = "ttir.slice_static"(%69) <{begins = [15 : i32, 0 : i32, 0 : i32, 0 : i32], ends = [16 : i32, 32 : i32, 17 : i32, 80 : i32], step = [1 : i32, 1 : i32, 1 : i32, 1 : i32]}> : (tensor<32x32x17x80xbf16>) -> tensor<1x32x17x80xbf16> loc(#loc79)
        %101 = "ttir.fill_cache"(%99, %100) <{batch_offset = 15 : i32}> : (tensor<32x32x128x80xbf16>, tensor<1x32x17x80xbf16>) -> tensor<32x32x128x80xbf16> loc(#loc79)
        %102 = "ttir.slice_static"(%69) <{begins = [16 : i32, 0 : i32, 0 : i32, 0 : i32], ends = [17 : i32, 32 : i32, 17 : i32, 80 : i32], step = [1 : i32, 1 : i32, 1 : i32, 1 : i32]}> : (tensor<32x32x17x80xbf16>) -> tensor<1x32x17x80xbf16> loc(#loc79)
        %103 = "ttir.fill_cache"(%101, %102) <{batch_offset = 16 : i32}> : (tensor<32x32x128x80xbf16>, tensor<1x32x17x80xbf16>) -> tensor<32x32x128x80xbf16> loc(#loc79)
        %104 = "ttir.slice_static"(%69) <{begins = [17 : i32, 0 : i32, 0 : i32, 0 : i32], ends = [18 : i32, 32 : i32, 17 : i32, 80 : i32], step = [1 : i32, 1 : i32, 1 : i32, 1 : i32]}> : (tensor<32x32x17x80xbf16>) -> tensor<1x32x17x80xbf16> loc(#loc79)
        %105 = "ttir.fill_cache"(%103, %104) <{batch_offset = 17 : i32}> : (tensor<32x32x128x80xbf16>, tensor<1x32x17x80xbf16>) -> tensor<32x32x128x80xbf16> loc(#loc79)
        %106 = "ttir.slice_static"(%69) <{begins = [18 : i32, 0 : i32, 0 : i32, 0 : i32], ends = [19 : i32, 32 : i32, 17 : i32, 80 : i32], step = [1 : i32, 1 : i32, 1 : i32, 1 : i32]}> : (tensor<32x32x17x80xbf16>) -> tensor<1x32x17x80xbf16> loc(#loc79)
        %107 = "ttir.fill_cache"(%105, %106) <{batch_offset = 18 : i32}> : (tensor<32x32x128x80xbf16>, tensor<1x32x17x80xbf16>) -> tensor<32x32x128x80xbf16> loc(#loc79)
        %108 = "ttir.slice_static"(%69) <{begins = [19 : i32, 0 : i32, 0 : i32, 0 : i32], ends = [20 : i32, 32 : i32, 17 : i32, 80 : i32], step = [1 : i32, 1 : i32, 1 : i32, 1 : i32]}> : (tensor<32x32x17x80xbf16>) -> tensor<1x32x17x80xbf16> loc(#loc79)
        %109 = "ttir.fill_cache"(%107, %108) <{batch_offset = 19 : i32}> : (tensor<32x32x128x80xbf16>, tensor<1x32x17x80xbf16>) -> tensor<32x32x128x80xbf16> loc(#loc79)
        %110 = "ttir.slice_static"(%69) <{begins = [20 : i32, 0 : i32, 0 : i32, 0 : i32], ends = [21 : i32, 32 : i32, 17 : i32, 80 : i32], step = [1 : i32, 1 : i32, 1 : i32, 1 : i32]}> : (tensor<32x32x17x80xbf16>) -> tensor<1x32x17x80xbf16> loc(#loc79)
        %111 = "ttir.fill_cache"(%109, %110) <{batch_offset = 20 : i32}> : (tensor<32x32x128x80xbf16>, tensor<1x32x17x80xbf16>) -> tensor<32x32x128x80xbf16> loc(#loc79)
        %112 = "ttir.slice_static"(%69) <{begins = [21 : i32, 0 : i32, 0 : i32, 0 : i32], ends = [22 : i32, 32 : i32, 17 : i32, 80 : i32], step = [1 : i32, 1 : i32, 1 : i32, 1 : i32]}> : (tensor<32x32x17x80xbf16>) -> tensor<1x32x17x80xbf16> loc(#loc79)
        %113 = "ttir.fill_cache"(%111, %112) <{batch_offset = 21 : i32}> : (tensor<32x32x128x80xbf16>, tensor<1x32x17x80xbf16>) -> tensor<32x32x128x80xbf16> loc(#loc79)
        %114 = "ttir.slice_static"(%69) <{begins = [22 : i32, 0 : i32, 0 : i32, 0 : i32], ends = [23 : i32, 32 : i32, 17 : i32, 80 : i32], step = [1 : i32, 1 : i32, 1 : i32, 1 : i32]}> : (tensor<32x32x17x80xbf16>) -> tensor<1x32x17x80xbf16> loc(#loc79)
        %115 = "ttir.fill_cache"(%113, %114) <{batch_offset = 22 : i32}> : (tensor<32x32x128x80xbf16>, tensor<1x32x17x80xbf16>) -> tensor<32x32x128x80xbf16> loc(#loc79)
        %116 = "ttir.slice_static"(%69) <{begins = [23 : i32, 0 : i32, 0 : i32, 0 : i32], ends = [24 : i32, 32 : i32, 17 : i32, 80 : i32], step = [1 : i32, 1 : i32, 1 : i32, 1 : i32]}> : (tensor<32x32x17x80xbf16>) -> tensor<1x32x17x80xbf16> loc(#loc79)
        %117 = "ttir.fill_cache"(%115, %116) <{batch_offset = 23 : i32}> : (tensor<32x32x128x80xbf16>, tensor<1x32x17x80xbf16>) -> tensor<32x32x128x80xbf16> loc(#loc79)
        %118 = "ttir.slice_static"(%69) <{begins = [24 : i32, 0 : i32, 0 : i32, 0 : i32], ends = [25 : i32, 32 : i32, 17 : i32, 80 : i32], step = [1 : i32, 1 : i32, 1 : i32, 1 : i32]}> : (tensor<32x32x17x80xbf16>) -> tensor<1x32x17x80xbf16> loc(#loc79)
        %119 = "ttir.fill_cache"(%117, %118) <{batch_offset = 24 : i32}> : (tensor<32x32x128x80xbf16>, tensor<1x32x17x80xbf16>) -> tensor<32x32x128x80xbf16> loc(#loc79)
        %120 = "ttir.slice_static"(%69) <{begins = [25 : i32, 0 : i32, 0 : i32, 0 : i32], ends = [26 : i32, 32 : i32, 17 : i32, 80 : i32], step = [1 : i32, 1 : i32, 1 : i32, 1 : i32]}> : (tensor<32x32x17x80xbf16>) -> tensor<1x32x17x80xbf16> loc(#loc79)
        %121 = "ttir.fill_cache"(%119, %120) <{batch_offset = 25 : i32}> : (tensor<32x32x128x80xbf16>, tensor<1x32x17x80xbf16>) -> tensor<32x32x128x80xbf16> loc(#loc79)
        %122 = "ttir.slice_static"(%69) <{begins = [26 : i32, 0 : i32, 0 : i32, 0 : i32], ends = [27 : i32, 32 : i32, 17 : i32, 80 : i32], step = [1 : i32, 1 : i32, 1 : i32, 1 : i32]}> : (tensor<32x32x17x80xbf16>) -> tensor<1x32x17x80xbf16> loc(#loc79)
        %123 = "ttir.fill_cache"(%121, %122) <{batch_offset = 26 : i32}> : (tensor<32x32x128x80xbf16>, tensor<1x32x17x80xbf16>) -> tensor<32x32x128x80xbf16> loc(#loc79)
        %124 = "ttir.slice_static"(%69) <{begins = [27 : i32, 0 : i32, 0 : i32, 0 : i32], ends = [28 : i32, 32 : i32, 17 : i32, 80 : i32], step = [1 : i32, 1 : i32, 1 : i32, 1 : i32]}> : (tensor<32x32x17x80xbf16>) -> tensor<1x32x17x80xbf16> loc(#loc79)
        %125 = "ttir.fill_cache"(%123, %124) <{batch_offset = 27 : i32}> : (tensor<32x32x128x80xbf16>, tensor<1x32x17x80xbf16>) -> tensor<32x32x128x80xbf16> loc(#loc79)
        %126 = "ttir.slice_static"(%69) <{begins = [28 : i32, 0 : i32, 0 : i32, 0 : i32], ends = [29 : i32, 32 : i32, 17 : i32, 80 : i32], step = [1 : i32, 1 : i32, 1 : i32, 1 : i32]}> : (tensor<32x32x17x80xbf16>) -> tensor<1x32x17x80xbf16> loc(#loc79)
        %127 = "ttir.fill_cache"(%125, %126) <{batch_offset = 28 : i32}> : (tensor<32x32x128x80xbf16>, tensor<1x32x17x80xbf16>) -> tensor<32x32x128x80xbf16> loc(#loc79)
        %128 = "ttir.slice_static"(%69) <{begins = [29 : i32, 0 : i32, 0 : i32, 0 : i32], ends = [30 : i32, 32 : i32, 17 : i32, 80 : i32], step = [1 : i32, 1 : i32, 1 : i32, 1 : i32]}> : (tensor<32x32x17x80xbf16>) -> tensor<1x32x17x80xbf16> loc(#loc79)
        %129 = "ttir.fill_cache"(%127, %128) <{batch_offset = 29 : i32}> : (tensor<32x32x128x80xbf16>, tensor<1x32x17x80xbf16>) -> tensor<32x32x128x80xbf16> loc(#loc79)
        %130 = "ttir.slice_static"(%69) <{begins = [30 : i32, 0 : i32, 0 : i32, 0 : i32], ends = [31 : i32, 32 : i32, 17 : i32, 80 : i32], step = [1 : i32, 1 : i32, 1 : i32, 1 : i32]}> : (tensor<32x32x17x80xbf16>) -> tensor<1x32x17x80xbf16> loc(#loc79)
        %131 = "ttir.fill_cache"(%129, %130) <{batch_offset = 30 : i32}> : (tensor<32x32x128x80xbf16>, tensor<1x32x17x80xbf16>) -> tensor<32x32x128x80xbf16> loc(#loc79)
        %132 = "ttir.slice_static"(%69) <{begins = [31 : i32, 0 : i32, 0 : i32, 0 : i32], ends = [32 : i32, 32 : i32, 17 : i32, 80 : i32], step = [1 : i32, 1 : i32, 1 : i32, 1 : i32]}> : (tensor<32x32x17x80xbf16>) -> tensor<1x32x17x80xbf16> loc(#loc79)
        %133 = "ttir.fill_cache"(%131, %132) <{batch_offset = 31 : i32}> : (tensor<32x32x128x80xbf16>, tensor<1x32x17x80xbf16>) -> tensor<32x32x128x80xbf16> loc(#loc79)
        %134 = "ttir.reshape"(%arg10) <{shape = [1 : i32, 2560 : i32, 2560 : i32]}> : (tensor<2560x2560xbf16>) -> tensor<1x2560x2560xbf16> loc(#loc80)
        %135 = "ttir.reshape"(%134) <{shape = [2560 : i32, 2560 : i32]}> : (tensor<1x2560x2560xbf16>) -> tensor<2560x2560xbf16> loc(#loc81)
        %136 = "ttir.permute"(%135) <{permutation = array<i64: 1, 0>}> : (tensor<2560x2560xbf16>) -> tensor<2560x2560xbf16> loc(#loc82)
        %137 = "ttir.dot_general"(%30, %136) <{batch_dims_lhs = array<i64>, batch_dims_rhs = array<i64>, contract_dims_lhs = array<i64: 1>, contract_dims_rhs = array<i64: 0>}> : (tensor<544x2560xbf16>, tensor<2560x2560xbf16>) -> tensor<544x2560xbf16> loc(#loc83)
        %138 = "ttir.reshape"(%137) <{shape = [32 : i32, 17 : i32, 2560 : i32]}> : (tensor<544x2560xbf16>) -> tensor<32x17x2560xbf16> loc(#loc84)
        %139 = "ttir.reshape"(%arg9) <{shape = [1 : i32, 1 : i32, 2560 : i32]}> : (tensor<2560xbf16>) -> tensor<1x1x2560xbf16> loc(#loc85)
        %140 = "ttir.reshape"(%139) <{shape = [2560 : i32]}> : (tensor<1x1x2560xbf16>) -> tensor<2560xbf16> loc(#loc86)
        %141 = "ttir.reshape"(%140) <{shape = [1 : i32, 1 : i32, 2560 : i32]}> : (tensor<2560xbf16>) -> tensor<1x1x2560xbf16> loc(#loc87)
        %142 = "ttir.broadcast"(%141) <{broadcast_dimensions = array<i64: 32, 17, 1>}> : (tensor<1x1x2560xbf16>) -> tensor<32x17x2560xbf16> loc(#loc87)
        %143 = "ttir.add"(%138, %142) : (tensor<32x17x2560xbf16>, tensor<32x17x2560xbf16>) -> tensor<32x17x2560xbf16> loc(#loc88)
        %144 = "ttir.reshape"(%143) <{shape = [32 : i32, 17 : i32, 32 : i32, 80 : i32]}> : (tensor<32x17x2560xbf16>) -> tensor<32x17x32x80xbf16> loc(#loc89)
        %145 = "ttir.permute"(%144) <{permutation = array<i64: 0, 2, 1, 3>}> : (tensor<32x17x32x80xbf16>) -> tensor<32x32x17x80xbf16> loc(#loc90)
        %146 = "ttir.slice_static"(%145) <{begins = [0 : i32, 0 : i32, 0 : i32, 0 : i32], ends = [1 : i32, 32 : i32, 17 : i32, 80 : i32], step = [1 : i32, 1 : i32, 1 : i32, 1 : i32]}> : (tensor<32x32x17x80xbf16>) -> tensor<1x32x17x80xbf16> loc(#loc91)
        %147 = "ttir.fill_cache"(%arg11, %146) <{batch_offset = 0 : i32}> : (tensor<32x32x128x80xbf16>, tensor<1x32x17x80xbf16>) -> tensor<32x32x128x80xbf16> loc(#loc91)
        %148 = "ttir.slice_static"(%145) <{begins = [1 : i32, 0 : i32, 0 : i32, 0 : i32], ends = [2 : i32, 32 : i32, 17 : i32, 80 : i32], step = [1 : i32, 1 : i32, 1 : i32, 1 : i32]}> : (tensor<32x32x17x80xbf16>) -> tensor<1x32x17x80xbf16> loc(#loc91)
        %149 = "ttir.fill_cache"(%147, %148) <{batch_offset = 1 : i32}> : (tensor<32x32x128x80xbf16>, tensor<1x32x17x80xbf16>) -> tensor<32x32x128x80xbf16> loc(#loc91)
        %150 = "ttir.slice_static"(%145) <{begins = [2 : i32, 0 : i32, 0 : i32, 0 : i32], ends = [3 : i32, 32 : i32, 17 : i32, 80 : i32], step = [1 : i32, 1 : i32, 1 : i32, 1 : i32]}> : (tensor<32x32x17x80xbf16>) -> tensor<1x32x17x80xbf16> loc(#loc91)
        %151 = "ttir.fill_cache"(%149, %150) <{batch_offset = 2 : i32}> : (tensor<32x32x128x80xbf16>, tensor<1x32x17x80xbf16>) -> tensor<32x32x128x80xbf16> loc(#loc91)
        %152 = "ttir.slice_static"(%145) <{begins = [3 : i32, 0 : i32, 0 : i32, 0 : i32], ends = [4 : i32, 32 : i32, 17 : i32, 80 : i32], step = [1 : i32, 1 : i32, 1 : i32, 1 : i32]}> : (tensor<32x32x17x80xbf16>) -> tensor<1x32x17x80xbf16> loc(#loc91)
        %153 = "ttir.fill_cache"(%151, %152) <{batch_offset = 3 : i32}> : (tensor<32x32x128x80xbf16>, tensor<1x32x17x80xbf16>) -> tensor<32x32x128x80xbf16> loc(#loc91)
        %154 = "ttir.slice_static"(%145) <{begins = [4 : i32, 0 : i32, 0 : i32, 0 : i32], ends = [5 : i32, 32 : i32, 17 : i32, 80 : i32], step = [1 : i32, 1 : i32, 1 : i32, 1 : i32]}> : (tensor<32x32x17x80xbf16>) -> tensor<1x32x17x80xbf16> loc(#loc91)
        %155 = "ttir.fill_cache"(%153, %154) <{batch_offset = 4 : i32}> : (tensor<32x32x128x80xbf16>, tensor<1x32x17x80xbf16>) -> tensor<32x32x128x80xbf16> loc(#loc91)
        %156 = "ttir.slice_static"(%145) <{begins = [5 : i32, 0 : i32, 0 : i32, 0 : i32], ends = [6 : i32, 32 : i32, 17 : i32, 80 : i32], step = [1 : i32, 1 : i32, 1 : i32, 1 : i32]}> : (tensor<32x32x17x80xbf16>) -> tensor<1x32x17x80xbf16> loc(#loc91)
        %157 = "ttir.fill_cache"(%155, %156) <{batch_offset = 5 : i32}> : (tensor<32x32x128x80xbf16>, tensor<1x32x17x80xbf16>) -> tensor<32x32x128x80xbf16> loc(#loc91)
        %158 = "ttir.slice_static"(%145) <{begins = [6 : i32, 0 : i32, 0 : i32, 0 : i32], ends = [7 : i32, 32 : i32, 17 : i32, 80 : i32], step = [1 : i32, 1 : i32, 1 : i32, 1 : i32]}> : (tensor<32x32x17x80xbf16>) -> tensor<1x32x17x80xbf16> loc(#loc91)
        %159 = "ttir.fill_cache"(%157, %158) <{batch_offset = 6 : i32}> : (tensor<32x32x128x80xbf16>, tensor<1x32x17x80xbf16>) -> tensor<32x32x128x80xbf16> loc(#loc91)
        %160 = "ttir.slice_static"(%145) <{begins = [7 : i32, 0 : i32, 0 : i32, 0 : i32], ends = [8 : i32, 32 : i32, 17 : i32, 80 : i32], step = [1 : i32, 1 : i32, 1 : i32, 1 : i32]}> : (tensor<32x32x17x80xbf16>) -> tensor<1x32x17x80xbf16> loc(#loc91)
        %161 = "ttir.fill_cache"(%159, %160) <{batch_offset = 7 : i32}> : (tensor<32x32x128x80xbf16>, tensor<1x32x17x80xbf16>) -> tensor<32x32x128x80xbf16> loc(#loc91)
        %162 = "ttir.slice_static"(%145) <{begins = [8 : i32, 0 : i32, 0 : i32, 0 : i32], ends = [9 : i32, 32 : i32, 17 : i32, 80 : i32], step = [1 : i32, 1 : i32, 1 : i32, 1 : i32]}> : (tensor<32x32x17x80xbf16>) -> tensor<1x32x17x80xbf16> loc(#loc91)
        %163 = "ttir.fill_cache"(%161, %162) <{batch_offset = 8 : i32}> : (tensor<32x32x128x80xbf16>, tensor<1x32x17x80xbf16>) -> tensor<32x32x128x80xbf16> loc(#loc91)
        %164 = "ttir.slice_static"(%145) <{begins = [9 : i32, 0 : i32, 0 : i32, 0 : i32], ends = [10 : i32, 32 : i32, 17 : i32, 80 : i32], step = [1 : i32, 1 : i32, 1 : i32, 1 : i32]}> : (tensor<32x32x17x80xbf16>) -> tensor<1x32x17x80xbf16> loc(#loc91)
        %165 = "ttir.fill_cache"(%163, %164) <{batch_offset = 9 : i32}> : (tensor<32x32x128x80xbf16>, tensor<1x32x17x80xbf16>) -> tensor<32x32x128x80xbf16> loc(#loc91)
        %166 = "ttir.slice_static"(%145) <{begins = [10 : i32, 0 : i32, 0 : i32, 0 : i32], ends = [11 : i32, 32 : i32, 17 : i32, 80 : i32], step = [1 : i32, 1 : i32, 1 : i32, 1 : i32]}> : (tensor<32x32x17x80xbf16>) -> tensor<1x32x17x80xbf16> loc(#loc91)
        %167 = "ttir.fill_cache"(%165, %166) <{batch_offset = 10 : i32}> : (tensor<32x32x128x80xbf16>, tensor<1x32x17x80xbf16>) -> tensor<32x32x128x80xbf16> loc(#loc91)
        %168 = "ttir.slice_static"(%145) <{begins = [11 : i32, 0 : i32, 0 : i32, 0 : i32], ends = [12 : i32, 32 : i32, 17 : i32, 80 : i32], step = [1 : i32, 1 : i32, 1 : i32, 1 : i32]}> : (tensor<32x32x17x80xbf16>) -> tensor<1x32x17x80xbf16> loc(#loc91)
        %169 = "ttir.fill_cache"(%167, %168) <{batch_offset = 11 : i32}> : (tensor<32x32x128x80xbf16>, tensor<1x32x17x80xbf16>) -> tensor<32x32x128x80xbf16> loc(#loc91)
        %170 = "ttir.slice_static"(%145) <{begins = [12 : i32, 0 : i32, 0 : i32, 0 : i32], ends = [13 : i32, 32 : i32, 17 : i32, 80 : i32], step = [1 : i32, 1 : i32, 1 : i32, 1 : i32]}> : (tensor<32x32x17x80xbf16>) -> tensor<1x32x17x80xbf16> loc(#loc91)
        %171 = "ttir.fill_cache"(%169, %170) <{batch_offset = 12 : i32}> : (tensor<32x32x128x80xbf16>, tensor<1x32x17x80xbf16>) -> tensor<32x32x128x80xbf16> loc(#loc91)
        %172 = "ttir.slice_static"(%145) <{begins = [13 : i32, 0 : i32, 0 : i32, 0 : i32], ends = [14 : i32, 32 : i32, 17 : i32, 80 : i32], step = [1 : i32, 1 : i32, 1 : i32, 1 : i32]}> : (tensor<32x32x17x80xbf16>) -> tensor<1x32x17x80xbf16> loc(#loc91)
        %173 = "ttir.fill_cache"(%171, %172) <{batch_offset = 13 : i32}> : (tensor<32x32x128x80xbf16>, tensor<1x32x17x80xbf16>) -> tensor<32x32x128x80xbf16> loc(#loc91)
        %174 = "ttir.slice_static"(%145) <{begins = [14 : i32, 0 : i32, 0 : i32, 0 : i32], ends = [15 : i32, 32 : i32, 17 : i32, 80 : i32], step = [1 : i32, 1 : i32, 1 : i32, 1 : i32]}> : (tensor<32x32x17x80xbf16>) -> tensor<1x32x17x80xbf16> loc(#loc91)
        %175 = "ttir.fill_cache"(%173, %174) <{batch_offset = 14 : i32}> : (tensor<32x32x128x80xbf16>, tensor<1x32x17x80xbf16>) -> tensor<32x32x128x80xbf16> loc(#loc91)
        %176 = "ttir.slice_static"(%145) <{begins = [15 : i32, 0 : i32, 0 : i32, 0 : i32], ends = [16 : i32, 32 : i32, 17 : i32, 80 : i32], step = [1 : i32, 1 : i32, 1 : i32, 1 : i32]}> : (tensor<32x32x17x80xbf16>) -> tensor<1x32x17x80xbf16> loc(#loc91)
        %177 = "ttir.fill_cache"(%175, %176) <{batch_offset = 15 : i32}> : (tensor<32x32x128x80xbf16>, tensor<1x32x17x80xbf16>) -> tensor<32x32x128x80xbf16> loc(#loc91)
        %178 = "ttir.slice_static"(%145) <{begins = [16 : i32, 0 : i32, 0 : i32, 0 : i32], ends = [17 : i32, 32 : i32, 17 : i32, 80 : i32], step = [1 : i32, 1 : i32, 1 : i32, 1 : i32]}> : (tensor<32x32x17x80xbf16>) -> tensor<1x32x17x80xbf16> loc(#loc91)
        %179 = "ttir.fill_cache"(%177, %178) <{batch_offset = 16 : i32}> : (tensor<32x32x128x80xbf16>, tensor<1x32x17x80xbf16>) -> tensor<32x32x128x80xbf16> loc(#loc91)
        %180 = "ttir.slice_static"(%145) <{begins = [17 : i32, 0 : i32, 0 : i32, 0 : i32], ends = [18 : i32, 32 : i32, 17 : i32, 80 : i32], step = [1 : i32, 1 : i32, 1 : i32, 1 : i32]}> : (tensor<32x32x17x80xbf16>) -> tensor<1x32x17x80xbf16> loc(#loc91)
        %181 = "ttir.fill_cache"(%179, %180) <{batch_offset = 17 : i32}> : (tensor<32x32x128x80xbf16>, tensor<1x32x17x80xbf16>) -> tensor<32x32x128x80xbf16> loc(#loc91)
        %182 = "ttir.slice_static"(%145) <{begins = [18 : i32, 0 : i32, 0 : i32, 0 : i32], ends = [19 : i32, 32 : i32, 17 : i32, 80 : i32], step = [1 : i32, 1 : i32, 1 : i32, 1 : i32]}> : (tensor<32x32x17x80xbf16>) -> tensor<1x32x17x80xbf16> loc(#loc91)
        %183 = "ttir.fill_cache"(%181, %182) <{batch_offset = 18 : i32}> : (tensor<32x32x128x80xbf16>, tensor<1x32x17x80xbf16>) -> tensor<32x32x128x80xbf16> loc(#loc91)
        %184 = "ttir.slice_static"(%145) <{begins = [19 : i32, 0 : i32, 0 : i32, 0 : i32], ends = [20 : i32, 32 : i32, 17 : i32, 80 : i32], step = [1 : i32, 1 : i32, 1 : i32, 1 : i32]}> : (tensor<32x32x17x80xbf16>) -> tensor<1x32x17x80xbf16> loc(#loc91)
        %185 = "ttir.fill_cache"(%183, %184) <{batch_offset = 19 : i32}> : (tensor<32x32x128x80xbf16>, tensor<1x32x17x80xbf16>) -> tensor<32x32x128x80xbf16> loc(#loc91)
        %186 = "ttir.slice_static"(%145) <{begins = [20 : i32, 0 : i32, 0 : i32, 0 : i32], ends = [21 : i32, 32 : i32, 17 : i32, 80 : i32], step = [1 : i32, 1 : i32, 1 : i32, 1 : i32]}> : (tensor<32x32x17x80xbf16>) -> tensor<1x32x17x80xbf16> loc(#loc91)
        %187 = "ttir.fill_cache"(%185, %186) <{batch_offset = 20 : i32}> : (tensor<32x32x128x80xbf16>, tensor<1x32x17x80xbf16>) -> tensor<32x32x128x80xbf16> loc(#loc91)
        %188 = "ttir.slice_static"(%145) <{begins = [21 : i32, 0 : i32, 0 : i32, 0 : i32], ends = [22 : i32, 32 : i32, 17 : i32, 80 : i32], step = [1 : i32, 1 : i32, 1 : i32, 1 : i32]}> : (tensor<32x32x17x80xbf16>) -> tensor<1x32x17x80xbf16> loc(#loc91)
        %189 = "ttir.fill_cache"(%187, %188) <{batch_offset = 21 : i32}> : (tensor<32x32x128x80xbf16>, tensor<1x32x17x80xbf16>) -> tensor<32x32x128x80xbf16> loc(#loc91)
        %190 = "ttir.slice_static"(%145) <{begins = [22 : i32, 0 : i32, 0 : i32, 0 : i32], ends = [23 : i32, 32 : i32, 17 : i32, 80 : i32], step = [1 : i32, 1 : i32, 1 : i32, 1 : i32]}> : (tensor<32x32x17x80xbf16>) -> tensor<1x32x17x80xbf16> loc(#loc91)
        %191 = "ttir.fill_cache"(%189, %190) <{batch_offset = 22 : i32}> : (tensor<32x32x128x80xbf16>, tensor<1x32x17x80xbf16>) -> tensor<32x32x128x80xbf16> loc(#loc91)
        %192 = "ttir.slice_static"(%145) <{begins = [23 : i32, 0 : i32, 0 : i32, 0 : i32], ends = [24 : i32, 32 : i32, 17 : i32, 80 : i32], step = [1 : i32, 1 : i32, 1 : i32, 1 : i32]}> : (tensor<32x32x17x80xbf16>) -> tensor<1x32x17x80xbf16> loc(#loc91)
        %193 = "ttir.fill_cache"(%191, %192) <{batch_offset = 23 : i32}> : (tensor<32x32x128x80xbf16>, tensor<1x32x17x80xbf16>) -> tensor<32x32x128x80xbf16> loc(#loc91)
        %194 = "ttir.slice_static"(%145) <{begins = [24 : i32, 0 : i32, 0 : i32, 0 : i32], ends = [25 : i32, 32 : i32, 17 : i32, 80 : i32], step = [1 : i32, 1 : i32, 1 : i32, 1 : i32]}> : (tensor<32x32x17x80xbf16>) -> tensor<1x32x17x80xbf16> loc(#loc91)
        %195 = "ttir.fill_cache"(%193, %194) <{batch_offset = 24 : i32}> : (tensor<32x32x128x80xbf16>, tensor<1x32x17x80xbf16>) -> tensor<32x32x128x80xbf16> loc(#loc91)
        %196 = "ttir.slice_static"(%145) <{begins = [25 : i32, 0 : i32, 0 : i32, 0 : i32], ends = [26 : i32, 32 : i32, 17 : i32, 80 : i32], step = [1 : i32, 1 : i32, 1 : i32, 1 : i32]}> : (tensor<32x32x17x80xbf16>) -> tensor<1x32x17x80xbf16> loc(#loc91)
        %197 = "ttir.fill_cache"(%195, %196) <{batch_offset = 25 : i32}> : (tensor<32x32x128x80xbf16>, tensor<1x32x17x80xbf16>) -> tensor<32x32x128x80xbf16> loc(#loc91)
        %198 = "ttir.slice_static"(%145) <{begins = [26 : i32, 0 : i32, 0 : i32, 0 : i32], ends = [27 : i32, 32 : i32, 17 : i32, 80 : i32], step = [1 : i32, 1 : i32, 1 : i32, 1 : i32]}> : (tensor<32x32x17x80xbf16>) -> tensor<1x32x17x80xbf16> loc(#loc91)
        %199 = "ttir.fill_cache"(%197, %198) <{batch_offset = 26 : i32}> : (tensor<32x32x128x80xbf16>, tensor<1x32x17x80xbf16>) -> tensor<32x32x128x80xbf16> loc(#loc91)
        %200 = "ttir.slice_static"(%145) <{begins = [27 : i32, 0 : i32, 0 : i32, 0 : i32], ends = [28 : i32, 32 : i32, 17 : i32, 80 : i32], step = [1 : i32, 1 : i32, 1 : i32, 1 : i32]}> : (tensor<32x32x17x80xbf16>) -> tensor<1x32x17x80xbf16> loc(#loc91)
        %201 = "ttir.fill_cache"(%199, %200) <{batch_offset = 27 : i32}> : (tensor<32x32x128x80xbf16>, tensor<1x32x17x80xbf16>) -> tensor<32x32x128x80xbf16> loc(#loc91)
        %202 = "ttir.slice_static"(%145) <{begins = [28 : i32, 0 : i32, 0 : i32, 0 : i32], ends = [29 : i32, 32 : i32, 17 : i32, 80 : i32], step = [1 : i32, 1 : i32, 1 : i32, 1 : i32]}> : (tensor<32x32x17x80xbf16>) -> tensor<1x32x17x80xbf16> loc(#loc91)
        %203 = "ttir.fill_cache"(%201, %202) <{batch_offset = 28 : i32}> : (tensor<32x32x128x80xbf16>, tensor<1x32x17x80xbf16>) -> tensor<32x32x128x80xbf16> loc(#loc91)
        %204 = "ttir.slice_static"(%145) <{begins = [29 : i32, 0 : i32, 0 : i32, 0 : i32], ends = [30 : i32, 32 : i32, 17 : i32, 80 : i32], step = [1 : i32, 1 : i32, 1 : i32, 1 : i32]}> : (tensor<32x32x17x80xbf16>) -> tensor<1x32x17x80xbf16> loc(#loc91)
        %205 = "ttir.fill_cache"(%203, %204) <{batch_offset = 29 : i32}> : (tensor<32x32x128x80xbf16>, tensor<1x32x17x80xbf16>) -> tensor<32x32x128x80xbf16> loc(#loc91)
        %206 = "ttir.slice_static"(%145) <{begins = [30 : i32, 0 : i32, 0 : i32, 0 : i32], ends = [31 : i32, 32 : i32, 17 : i32, 80 : i32], step = [1 : i32, 1 : i32, 1 : i32, 1 : i32]}> : (tensor<32x32x17x80xbf16>) -> tensor<1x32x17x80xbf16> loc(#loc91)
        %207 = "ttir.fill_cache"(%205, %206) <{batch_offset = 30 : i32}> : (tensor<32x32x128x80xbf16>, tensor<1x32x17x80xbf16>) -> tensor<32x32x128x80xbf16> loc(#loc91)
        %208 = "ttir.slice_static"(%145) <{begins = [31 : i32, 0 : i32, 0 : i32, 0 : i32], ends = [32 : i32, 32 : i32, 17 : i32, 80 : i32], step = [1 : i32, 1 : i32, 1 : i32, 1 : i32]}> : (tensor<32x32x17x80xbf16>) -> tensor<1x32x17x80xbf16> loc(#loc91)
        %209 = "ttir.fill_cache"(%207, %208) <{batch_offset = 31 : i32}> : (tensor<32x32x128x80xbf16>, tensor<1x32x17x80xbf16>) -> tensor<32x32x128x80xbf16> loc(#loc91)
        %210 = "ttir.reshape"(%arg23) <{shape = [1 : i32, 2560 : i32, 2560 : i32]}> : (tensor<2560x2560xbf16>) -> tensor<1x2560x2560xbf16> loc(#loc92)
        %211 = "ttir.reshape"(%210) <{shape = [2560 : i32, 2560 : i32]}> : (tensor<1x2560x2560xbf16>) -> tensor<2560x2560xbf16> loc(#loc93)
        %212 = "ttir.permute"(%211) <{permutation = array<i64: 1, 0>}> : (tensor<2560x2560xbf16>) -> tensor<2560x2560xbf16> loc(#loc94)
        %213 = "ttir.dot_general"(%30, %212) <{batch_dims_lhs = array<i64>, batch_dims_rhs = array<i64>, contract_dims_lhs = array<i64: 1>, contract_dims_rhs = array<i64: 0>}> : (tensor<544x2560xbf16>, tensor<2560x2560xbf16>) -> tensor<544x2560xbf16> loc(#loc95)
        %214 = "ttir.reshape"(%213) <{shape = [32 : i32, 17 : i32, 2560 : i32]}> : (tensor<544x2560xbf16>) -> tensor<32x17x2560xbf16> loc(#loc96)
        %215 = "ttir.reshape"(%arg22) <{shape = [1 : i32, 1 : i32, 2560 : i32]}> : (tensor<2560xbf16>) -> tensor<1x1x2560xbf16> loc(#loc97)
        %216 = "ttir.reshape"(%215) <{shape = [2560 : i32]}> : (tensor<1x1x2560xbf16>) -> tensor<2560xbf16> loc(#loc98)
        %217 = "ttir.reshape"(%216) <{shape = [1 : i32, 1 : i32, 2560 : i32]}> : (tensor<2560xbf16>) -> tensor<1x1x2560xbf16> loc(#loc99)
        %218 = "ttir.broadcast"(%217) <{broadcast_dimensions = array<i64: 32, 17, 1>}> : (tensor<1x1x2560xbf16>) -> tensor<32x17x2560xbf16> loc(#loc99)
        %219 = "ttir.add"(%214, %218) : (tensor<32x17x2560xbf16>, tensor<32x17x2560xbf16>) -> tensor<32x17x2560xbf16> loc(#loc100)
        %220 = "ttir.reshape"(%219) <{shape = [32 : i32, 17 : i32, 32 : i32, 80 : i32]}> : (tensor<32x17x2560xbf16>) -> tensor<32x17x32x80xbf16> loc(#loc101)
        %221 = "ttir.permute"(%220) <{permutation = array<i64: 0, 2, 1, 3>}> : (tensor<32x17x32x80xbf16>) -> tensor<32x32x17x80xbf16> loc(#loc102)
        %222 = "ttir.slice_static"(%221) <{begins = [0 : i32, 0 : i32, 0 : i32, 0 : i32], ends = [32 : i32, 32 : i32, 17 : i32, 32 : i32], step = [1 : i32, 1 : i32, 1 : i32, 1 : i32]}> : (tensor<32x32x17x80xbf16>) -> tensor<32x32x17x32xbf16> loc(#loc103)
        %223 = "ttir.multiply"(%222, %55) : (tensor<32x32x17x32xbf16>, tensor<32x32x17x32xbf16>) -> tensor<32x32x17x32xbf16> loc(#loc104)
        %224 = "ttir.slice_static"(%222) <{begins = [0 : i32, 0 : i32, 0 : i32, 16 : i32], ends = [32 : i32, 32 : i32, 17 : i32, 32 : i32], step = [1 : i32, 1 : i32, 1 : i32, 1 : i32]}> : (tensor<32x32x17x32xbf16>) -> tensor<32x32x17x16xbf16> loc(#loc105)
        %225 = "ttir.neg"(%224) : (tensor<32x32x17x16xbf16>) -> tensor<32x32x17x16xbf16> loc(#loc106)
        %226 = "ttir.slice_static"(%222) <{begins = [0 : i32, 0 : i32, 0 : i32, 0 : i32], ends = [32 : i32, 32 : i32, 17 : i32, 16 : i32], step = [1 : i32, 1 : i32, 1 : i32, 1 : i32]}> : (tensor<32x32x17x32xbf16>) -> tensor<32x32x17x16xbf16> loc(#loc107)
        %227 = "ttir.concat"(%225, %226) <{dim = 3 : si32}> : (tensor<32x32x17x16xbf16>, tensor<32x32x17x16xbf16>) -> tensor<32x32x17x32xbf16> loc(#loc108)
        %228 = "ttir.multiply"(%227, %65) : (tensor<32x32x17x32xbf16>, tensor<32x32x17x32xbf16>) -> tensor<32x32x17x32xbf16> loc(#loc109)
        %229 = "ttir.add"(%223, %228) : (tensor<32x32x17x32xbf16>, tensor<32x32x17x32xbf16>) -> tensor<32x32x17x32xbf16> loc(#loc110)
        %230 = "ttir.slice_static"(%221) <{begins = [0 : i32, 0 : i32, 0 : i32, 32 : i32], ends = [32 : i32, 32 : i32, 17 : i32, 80 : i32], step = [1 : i32, 1 : i32, 1 : i32, 1 : i32]}> : (tensor<32x32x17x80xbf16>) -> tensor<32x32x17x48xbf16> loc(#loc111)
        %231 = "ttir.concat"(%229, %230) <{dim = 3 : si32}> : (tensor<32x32x17x32xbf16>, tensor<32x32x17x48xbf16>) -> tensor<32x32x17x80xbf16> loc(#loc112)
        %232 = "ttir.permute"(%133) <{permutation = array<i64: 0, 1, 3, 2>}> : (tensor<32x32x128x80xbf16>) -> tensor<32x32x80x128xbf16> loc(#loc113)
        %233 = "ttir.dot_general"(%231, %232) <{batch_dims_lhs = array<i64: 0, 1>, batch_dims_rhs = array<i64: 0, 1>, contract_dims_lhs = array<i64: 3>, contract_dims_rhs = array<i64: 2>}> : (tensor<32x32x17x80xbf16>, tensor<32x32x80x128xbf16>) -> tensor<32x32x17x128xbf16> loc(#loc114)
        %234 = "ttir.multiply"(%233, %8) : (tensor<32x32x17x128xbf16>, tensor<32x32x17x128xbf16>) -> tensor<32x32x17x128xbf16> loc(#loc115)
        %235 = "ttir.reshape"(%12) <{shape = [1 : i32, 128 : i32]}> : (tensor<128xi64>) -> tensor<1x128xi64> loc(#loc116)
        %236 = "ttir.broadcast"(%235) <{broadcast_dimensions = array<i64: 17, 1>}> : (tensor<1x128xi64>) -> tensor<17x128xi64> loc(#loc116)
        %237 = "ttir.reshape"(%11) <{shape = [17 : i32, 1 : i32]}> : (tensor<17xi64>) -> tensor<17x1xi64> loc(#loc117)
        %238 = "ttir.broadcast"(%237) <{broadcast_dimensions = array<i64: 1, 128>}> : (tensor<17x1xi64>) -> tensor<17x128xi64> loc(#loc117)
        %239 = "ttir.subtract"(%236, %238) : (tensor<17x128xi64>, tensor<17x128xi64>) -> tensor<17x128xi64> loc(#loc118)
        %240 = "ttir.ge"(%239, %7) : (tensor<17x128xi64>, tensor<17x128xi64>) -> tensor<17x128xi1> loc(#loc119)
        %241 = "ttir.where"(%240, %6, %5) : (tensor<17x128xi1>, tensor<17x128xbf16>, tensor<17x128xbf16>) -> tensor<17x128xbf16> loc(#loc120)
        %242 = "ttir.reshape"(%14) <{shape = [17 : i32, 1 : i32]}> : (tensor<17xi64>) -> tensor<17x1xi64> loc(#loc121)
        %243 = "ttir.broadcast"(%242) <{broadcast_dimensions = array<i64: 1, 128>}> : (tensor<17x1xi64>) -> tensor<17x128xi64> loc(#loc121)
        %244 = "ttir.gt"(%236, %243) : (tensor<17x128xi64>, tensor<17x128xi64>) -> tensor<17x128xi1> loc(#loc122)
        %245 = "ttir.typecast"(%244) <{conservative_folding = false}> : (tensor<17x128xi1>) -> tensor<17x128xbf16> loc(#loc123)
        %246 = "ttir.multiply"(%241, %245) : (tensor<17x128xbf16>, tensor<17x128xbf16>) -> tensor<17x128xbf16> loc(#loc124)
        %247 = "ttir.reshape"(%246) <{shape = [1 : i32, 17 : i32, 128 : i32]}> : (tensor<17x128xbf16>) -> tensor<1x17x128xbf16> loc(#loc125)
        %248 = "ttir.reshape"(%247) <{shape = [1 : i32, 1 : i32, 17 : i32, 128 : i32]}> : (tensor<1x17x128xbf16>) -> tensor<1x1x17x128xbf16> loc(#loc126)
        %249 = "ttir.broadcast"(%248) <{broadcast_dimensions = array<i64: 32, 1, 1, 1>}> : (tensor<1x1x17x128xbf16>) -> tensor<32x1x17x128xbf16> loc(#loc126)
        %250 = "ttir.reshape"(%249) <{shape = [32 : i32, 17 : i32, 128 : i32]}> : (tensor<32x1x17x128xbf16>) -> tensor<32x17x128xbf16> loc(#loc127)
        %251 = "ttir.reshape"(%250) <{shape = [32 : i32, 1 : i32, 17 : i32, 128 : i32]}> : (tensor<32x17x128xbf16>) -> tensor<32x1x17x128xbf16> loc(#loc128)
        %252 = "ttir.broadcast"(%251) <{broadcast_dimensions = array<i64: 1, 32, 1, 1>}> : (tensor<32x1x17x128xbf16>) -> tensor<32x32x17x128xbf16> loc(#loc128)
        %253 = "ttir.add"(%234, %252) : (tensor<32x32x17x128xbf16>, tensor<32x32x17x128xbf16>) -> tensor<32x32x17x128xbf16> loc(#loc129)
        %254 = "ttir.typecast"(%253) <{conservative_folding = false}> : (tensor<32x32x17x128xbf16>) -> tensor<32x32x17x128xf32> loc(#loc130)
        %255 = "ttir.max"(%254) <{dim_arg = [3 : i32], keep_dim = false}> : (tensor<32x32x17x128xf32>) -> tensor<32x32x17xf32> loc(#loc131)
        %256 = "ttir.reshape"(%255) <{shape = [32 : i32, 32 : i32, 17 : i32, 1 : i32]}> : (tensor<32x32x17xf32>) -> tensor<32x32x17x1xf32> loc(#loc132)
        %257 = "ttir.broadcast"(%256) <{broadcast_dimensions = array<i64: 1, 1, 1, 128>}> : (tensor<32x32x17x1xf32>) -> tensor<32x32x17x128xf32> loc(#loc132)
        %258 = "ttir.subtract"(%254, %257) : (tensor<32x32x17x128xf32>, tensor<32x32x17x128xf32>) -> tensor<32x32x17x128xf32> loc(#loc133)
        %259 = "ttir.exp"(%258) : (tensor<32x32x17x128xf32>) -> tensor<32x32x17x128xf32> loc(#loc134)
        %260 = "ttir.sum"(%259) <{dim_arg = [3 : i32], keep_dim = false}> : (tensor<32x32x17x128xf32>) -> tensor<32x32x17xf32> loc(#loc135)
        %261 = "ttir.reshape"(%260) <{shape = [32 : i32, 32 : i32, 17 : i32, 1 : i32]}> : (tensor<32x32x17xf32>) -> tensor<32x32x17x1xf32> loc(#loc136)
        %262 = "ttir.broadcast"(%261) <{broadcast_dimensions = array<i64: 1, 1, 1, 128>}> : (tensor<32x32x17x1xf32>) -> tensor<32x32x17x128xf32> loc(#loc136)
        %263 = "ttir.div"(%259, %262) : (tensor<32x32x17x128xf32>, tensor<32x32x17x128xf32>) -> tensor<32x32x17x128xf32> loc(#loc137)
        %264 = "ttir.typecast"(%263) <{conservative_folding = false}> : (tensor<32x32x17x128xf32>) -> tensor<32x32x17x128xbf16> loc(#loc138)
        %265 = "ttir.dot_general"(%264, %209) <{batch_dims_lhs = array<i64: 0, 1>, batch_dims_rhs = array<i64: 0, 1>, contract_dims_lhs = array<i64: 3>, contract_dims_rhs = array<i64: 2>}> : (tensor<32x32x17x128xbf16>, tensor<32x32x128x80xbf16>) -> tensor<32x32x17x80xbf16> loc(#loc139)
        %266 = "ttir.permute"(%265) <{permutation = array<i64: 0, 2, 1, 3>}> : (tensor<32x32x17x80xbf16>) -> tensor<32x17x32x80xbf16> loc(#loc140)
        %267 = "ttir.reshape"(%266) <{shape = [544 : i32, 2560 : i32]}> : (tensor<32x17x32x80xbf16>) -> tensor<544x2560xbf16> loc(#loc141)
        %268 = "ttir.reshape"(%arg21) <{shape = [1 : i32, 2560 : i32, 2560 : i32]}> : (tensor<2560x2560xbf16>) -> tensor<1x2560x2560xbf16> loc(#loc142)
        %269 = "ttir.reshape"(%268) <{shape = [2560 : i32, 2560 : i32]}> : (tensor<1x2560x2560xbf16>) -> tensor<2560x2560xbf16> loc(#loc143)
        %270 = "ttir.permute"(%269) <{permutation = array<i64: 1, 0>}> : (tensor<2560x2560xbf16>) -> tensor<2560x2560xbf16> loc(#loc144)
        %271 = "ttir.dot_general"(%267, %270) <{batch_dims_lhs = array<i64>, batch_dims_rhs = array<i64>, contract_dims_lhs = array<i64: 1>, contract_dims_rhs = array<i64: 0>}> : (tensor<544x2560xbf16>, tensor<2560x2560xbf16>) -> tensor<544x2560xbf16> loc(#loc145)
        %272 = "ttir.reshape"(%271) <{shape = [32 : i32, 17 : i32, 2560 : i32]}> : (tensor<544x2560xbf16>) -> tensor<32x17x2560xbf16> loc(#loc146)
        %273 = "ttir.reshape"(%arg20) <{shape = [1 : i32, 1 : i32, 2560 : i32]}> : (tensor<2560xbf16>) -> tensor<1x1x2560xbf16> loc(#loc147)
        %274 = "ttir.reshape"(%273) <{shape = [2560 : i32]}> : (tensor<1x1x2560xbf16>) -> tensor<2560xbf16> loc(#loc148)
        %275 = "ttir.reshape"(%274) <{shape = [1 : i32, 1 : i32, 2560 : i32]}> : (tensor<2560xbf16>) -> tensor<1x1x2560xbf16> loc(#loc149)
        %276 = "ttir.broadcast"(%275) <{broadcast_dimensions = array<i64: 32, 17, 1>}> : (tensor<1x1x2560xbf16>) -> tensor<32x17x2560xbf16> loc(#loc149)
        %277 = "ttir.add"(%272, %276) : (tensor<32x17x2560xbf16>, tensor<32x17x2560xbf16>) -> tensor<32x17x2560xbf16> loc(#loc150)
        %278 = "ttir.reshape"(%arg19) <{shape = [1 : i32, 10240 : i32, 2560 : i32]}> : (tensor<10240x2560xbf16>) -> tensor<1x10240x2560xbf16> loc(#loc151)
        %279 = "ttir.reshape"(%278) <{shape = [10240 : i32, 2560 : i32]}> : (tensor<1x10240x2560xbf16>) -> tensor<10240x2560xbf16> loc(#loc152)
        %280 = "ttir.permute"(%279) <{permutation = array<i64: 1, 0>}> : (tensor<10240x2560xbf16>) -> tensor<2560x10240xbf16> loc(#loc153)
        %281 = "ttir.dot_general"(%30, %280) <{batch_dims_lhs = array<i64>, batch_dims_rhs = array<i64>, contract_dims_lhs = array<i64: 1>, contract_dims_rhs = array<i64: 0>}> : (tensor<544x2560xbf16>, tensor<2560x10240xbf16>) -> tensor<544x10240xbf16> loc(#loc154)
        %282 = "ttir.reshape"(%281) <{shape = [32 : i32, 17 : i32, 10240 : i32]}> : (tensor<544x10240xbf16>) -> tensor<32x17x10240xbf16> loc(#loc155)
        %283 = "ttir.reshape"(%arg18) <{shape = [1 : i32, 1 : i32, 10240 : i32]}> : (tensor<10240xbf16>) -> tensor<1x1x10240xbf16> loc(#loc156)
        %284 = "ttir.reshape"(%283) <{shape = [10240 : i32]}> : (tensor<1x1x10240xbf16>) -> tensor<10240xbf16> loc(#loc157)
        %285 = "ttir.reshape"(%284) <{shape = [1 : i32, 1 : i32, 10240 : i32]}> : (tensor<10240xbf16>) -> tensor<1x1x10240xbf16> loc(#loc158)
        %286 = "ttir.broadcast"(%285) <{broadcast_dimensions = array<i64: 32, 17, 1>}> : (tensor<1x1x10240xbf16>) -> tensor<32x17x10240xbf16> loc(#loc158)
        %287 = "ttir.add"(%282, %286) : (tensor<32x17x10240xbf16>, tensor<32x17x10240xbf16>) -> tensor<32x17x10240xbf16> loc(#loc159)
        %288 = "ttir.multiply"(%287, %4) : (tensor<32x17x10240xbf16>, tensor<32x17x10240xbf16>) -> tensor<32x17x10240xbf16> loc(#loc160)
        %289 = "ttir.pow"(%287, %3) : (tensor<32x17x10240xbf16>, tensor<32x17x10240xbf16>) -> tensor<32x17x10240xbf16> loc(#loc161)
        %290 = "ttir.multiply"(%289, %2) : (tensor<32x17x10240xbf16>, tensor<32x17x10240xbf16>) -> tensor<32x17x10240xbf16> loc(#loc162)
        %291 = "ttir.add"(%287, %290) : (tensor<32x17x10240xbf16>, tensor<32x17x10240xbf16>) -> tensor<32x17x10240xbf16> loc(#loc163)
        %292 = "ttir.multiply"(%291, %1) : (tensor<32x17x10240xbf16>, tensor<32x17x10240xbf16>) -> tensor<32x17x10240xbf16> loc(#loc164)
        %293 = "ttir.tanh"(%292) : (tensor<32x17x10240xbf16>) -> tensor<32x17x10240xbf16> loc(#loc165)
        %294 = "ttir.add"(%293, %0) : (tensor<32x17x10240xbf16>, tensor<32x17x10240xbf16>) -> tensor<32x17x10240xbf16> loc(#loc166)
        %295 = "ttir.multiply"(%288, %294) : (tensor<32x17x10240xbf16>, tensor<32x17x10240xbf16>) -> tensor<32x17x10240xbf16> loc(#loc167)
        %296 = "ttir.reshape"(%295) <{shape = [544 : i32, 10240 : i32]}> : (tensor<32x17x10240xbf16>) -> tensor<544x10240xbf16> loc(#loc168)
        %297 = "ttir.reshape"(%arg17) <{shape = [1 : i32, 2560 : i32, 10240 : i32]}> : (tensor<2560x10240xbf16>) -> tensor<1x2560x10240xbf16> loc(#loc169)
        %298 = "ttir.reshape"(%297) <{shape = [2560 : i32, 10240 : i32]}> : (tensor<1x2560x10240xbf16>) -> tensor<2560x10240xbf16> loc(#loc170)
        %299 = "ttir.permute"(%298) <{permutation = array<i64: 1, 0>}> : (tensor<2560x10240xbf16>) -> tensor<10240x2560xbf16> loc(#loc171)
        %300 = "ttir.dot_general"(%296, %299) <{batch_dims_lhs = array<i64>, batch_dims_rhs = array<i64>, contract_dims_lhs = array<i64: 1>, contract_dims_rhs = array<i64: 0>}> : (tensor<544x10240xbf16>, tensor<10240x2560xbf16>) -> tensor<544x2560xbf16> loc(#loc172)
        %301 = "ttir.reshape"(%300) <{shape = [32 : i32, 17 : i32, 2560 : i32]}> : (tensor<544x2560xbf16>) -> tensor<32x17x2560xbf16> loc(#loc173)
        %302 = "ttir.reshape"(%arg16) <{shape = [1 : i32, 1 : i32, 2560 : i32]}> : (tensor<2560xbf16>) -> tensor<1x1x2560xbf16> loc(#loc174)
        %303 = "ttir.reshape"(%302) <{shape = [2560 : i32]}> : (tensor<1x1x2560xbf16>) -> tensor<2560xbf16> loc(#loc175)
        %304 = "ttir.reshape"(%303) <{shape = [1 : i32, 1 : i32, 2560 : i32]}> : (tensor<2560xbf16>) -> tensor<1x1x2560xbf16> loc(#loc176)
        %305 = "ttir.broadcast"(%304) <{broadcast_dimensions = array<i64: 32, 17, 1>}> : (tensor<1x1x2560xbf16>) -> tensor<32x17x2560xbf16> loc(#loc176)
        %306 = "ttir.add"(%301, %305) : (tensor<32x17x2560xbf16>, tensor<32x17x2560xbf16>) -> tensor<32x17x2560xbf16> loc(#loc177)
        %307 = "ttir.add"(%277, %306) : (tensor<32x17x2560xbf16>, tensor<32x17x2560xbf16>) -> tensor<32x17x2560xbf16> loc(#loc178)
        %308 = "ttir.add"(%307, %24) : (tensor<32x17x2560xbf16>, tensor<32x17x2560xbf16>) -> tensor<32x17x2560xbf16> loc(#loc179)
        %309 = "ttir.reshape"(%arg15) <{shape = [1 : i32, 1 : i32, 2560 : i32]}> : (tensor<2560xbf16>) -> tensor<1x1x2560xbf16> loc(#loc180)
        %310 = "ttir.reshape"(%309) <{shape = [2560 : i32]}> : (tensor<1x1x2560xbf16>) -> tensor<2560xbf16> loc(#loc181)
        %311 = "ttir.reshape"(%arg14) <{shape = [1 : i32, 1 : i32, 2560 : i32]}> : (tensor<2560xbf16>) -> tensor<1x1x2560xbf16> loc(#loc182)
        %312 = "ttir.reshape"(%311) <{shape = [2560 : i32]}> : (tensor<1x1x2560xbf16>) -> tensor<2560xbf16> loc(#loc183)
        %313 = "ttir.layer_norm"(%308, %310, %312) <{epsilon = 9.99999974E-6 : f32, normalized_shape = array<i64: 2560>, operandSegmentSizes = array<i32: 1, 1, 1>}> : (tensor<32x17x2560xbf16>, tensor<2560xbf16>, tensor<2560xbf16>) -> tensor<32x17x2560xbf16> loc(#loc184)
        %314 = "ttir.reshape"(%313) <{shape = [544 : i32, 2560 : i32]}> : (tensor<32x17x2560xbf16>) -> tensor<544x2560xbf16> loc(#loc185)
        %315 = "ttir.reshape"(%arg13) <{shape = [1 : i32, 51200 : i32, 2560 : i32]}> : (tensor<51200x2560xbf16>) -> tensor<1x51200x2560xbf16> loc(#loc186)
        %316 = "ttir.reshape"(%315) <{shape = [51200 : i32, 2560 : i32]}> : (tensor<1x51200x2560xbf16>) -> tensor<51200x2560xbf16> loc(#loc187)
        %317 = "ttir.permute"(%316) <{permutation = array<i64: 1, 0>}> : (tensor<51200x2560xbf16>) -> tensor<2560x51200xbf16> loc(#loc188)
        %318 = "ttir.dot_general"(%314, %317) <{batch_dims_lhs = array<i64>, batch_dims_rhs = array<i64>, contract_dims_lhs = array<i64: 1>, contract_dims_rhs = array<i64: 0>}> : (tensor<544x2560xbf16>, tensor<2560x51200xbf16>) -> tensor<544x51200xbf16> loc(#loc189)
        %319 = "ttir.reshape"(%318) <{shape = [32 : i32, 17 : i32, 51200 : i32]}> : (tensor<544x51200xbf16>) -> tensor<32x17x51200xbf16> loc(#loc190)
        %320 = "ttir.reshape"(%arg12) <{shape = [1 : i32, 1 : i32, 51200 : i32]}> : (tensor<51200xbf16>) -> tensor<1x1x51200xbf16> loc(#loc191)
        %321 = "ttir.reshape"(%320) <{shape = [51200 : i32]}> : (tensor<1x1x51200xbf16>) -> tensor<51200xbf16> loc(#loc192)
        %322 = "ttir.reshape"(%321) <{shape = [1 : i32, 1 : i32, 51200 : i32]}> : (tensor<51200xbf16>) -> tensor<1x1x51200xbf16> loc(#loc193)
        %323 = "ttir.broadcast"(%322) <{broadcast_dimensions = array<i64: 32, 17, 1>}> : (tensor<1x1x51200xbf16>) -> tensor<32x17x51200xbf16> loc(#loc193)
        %324 = "ttir.add"(%319, %323) : (tensor<32x17x51200xbf16>, tensor<32x17x51200xbf16>) -> tensor<32x17x51200xbf16> loc(#loc194)
        return %133, %209, %324 : tensor<32x32x128x80xbf16>, tensor<32x32x128x80xbf16>, tensor<32x17x51200xbf16> loc(#loc)
      } loc(#loc)
    } loc(#loc)
  } loc(#loc)
} loc(#loc)
#loc = loc(unknown)
#loc25 = loc("reshape.126")
#loc26 = loc("reshape.128")
#loc27 = loc("compare.182")
#loc28 = loc("add.179")
#loc29 = loc("select.183")
#loc30 = loc("reshape.30")
#loc31 = loc("reshape.32")
#loc32 = loc("reshape.25")
#loc33 = loc("reshape.28")
#loc34 = loc("convert.33")
#loc35 = loc("gather.34")
#loc36 = loc("reshape.35")
#loc37 = loc("reshape.18")
#loc38 = loc("reshape.20")
#loc39 = loc("reshape.13")
#loc40 = loc("reshape.15")
#loc41 = loc("custom-call.112")
#loc42 = loc("reshape.113")
#loc43 = loc("reshape.7")
#loc44 = loc("reshape.9")
#loc45 = loc("transpose.10")
#loc46 = loc("dot.114")
#loc47 = loc("reshape.115")
#loc48 = loc("reshape.3")
#loc49 = loc("reshape.5")
#loc50 = loc("broadcast.118")
#loc51 = loc("add.119")
#loc52 = loc("reshape.120")
#loc53 = loc("transpose.121")
#loc54 = loc("slice.153")
#loc55 = loc("reshape.136")
#loc56 = loc("reshape.141")
#loc57 = loc("convert.142")
#loc58 = loc("convert.133")
#loc59 = loc("dot.145")
#loc60 = loc("transpose.146")
#loc61 = loc("concatenate.147")
#loc62 = loc("cosine.162")
#loc63 = loc("convert.165")
#loc64 = loc("reshape.167")
#loc65 = loc("broadcast.168")
#loc66 = loc("multiply.169")
#loc67 = loc("slice.155")
#loc68 = loc("negate.156")
#loc69 = loc("slice.154")
#loc70 = loc("concatenate.157")
#loc71 = loc("sine.148")
#loc72 = loc("convert.151")
#loc73 = loc("reshape.158")
#loc74 = loc("broadcast.159")
#loc75 = loc("multiply.160")
#loc76 = loc("add.172")
#loc77 = loc("slice.122")
#loc78 = loc("concatenate.173")
#loc79 = loc("scatter.192")
#loc80 = loc("reshape.200")
#loc81 = loc("reshape.202")
#loc82 = loc("transpose.203")
#loc83 = loc("dot.205")
#loc84 = loc("reshape.206")
#loc85 = loc("reshape.196")
#loc86 = loc("reshape.198")
#loc87 = loc("broadcast.209")
#loc88 = loc("add.210")
#loc89 = loc("reshape.211")
#loc90 = loc("transpose.212")
#loc91 = loc("scatter.231")
#loc92 = loc("reshape.381")
#loc93 = loc("reshape.383")
#loc94 = loc("transpose.384")
#loc95 = loc("dot.386")
#loc96 = loc("reshape.387")
#loc97 = loc("reshape.377")
#loc98 = loc("reshape.379")
#loc99 = loc("broadcast.390")
#loc100 = loc("add.391")
#loc101 = loc("reshape.392")
#loc102 = loc("transpose.393")
#loc103 = loc("slice.396")
#loc104 = loc("multiply.406")
#loc105 = loc("slice.398")
#loc106 = loc("negate.399")
#loc107 = loc("slice.397")
#loc108 = loc("concatenate.400")
#loc109 = loc("multiply.403")
#loc110 = loc("add.409")
#loc111 = loc("slice.394")
#loc112 = loc("concatenate.410")
#loc113 = loc("transpose.374")
#loc114 = loc("dot.411")
#loc115 = loc("multiply.414")
#loc116 = loc("broadcast.354")
#loc117 = loc("broadcast.356")
#loc118 = loc("subtract.357")
#loc119 = loc("compare.359")
#loc120 = loc("select.361")
#loc121 = loc("broadcast.330")
#loc122 = loc("compare.331")
#loc123 = loc("convert.332")
#loc124 = loc("multiply.362")
#loc125 = loc("reshape.363")
#loc126 = loc("broadcast.369")
#loc127 = loc("reshape.417")
#loc128 = loc("broadcast.418")
#loc129 = loc("add.419")
#loc130 = loc("convert.420")
#loc131 = loc("reduce.426")
#loc132 = loc("broadcast.427")
#loc133 = loc("subtract.428")
#loc134 = loc("exponential.429")
#loc135 = loc("reduce.435")
#loc136 = loc("broadcast.436")
#loc137 = loc("divide.437")
#loc138 = loc("convert.438")
#loc139 = loc("dot.439")
#loc140 = loc("transpose.441")
#loc141 = loc("reshape.443")
#loc142 = loc("reshape.321")
#loc143 = loc("reshape.323")
#loc144 = loc("transpose.324")
#loc145 = loc("dot.444")
#loc146 = loc("reshape.445")
#loc147 = loc("reshape.317")
#loc148 = loc("reshape.319")
#loc149 = loc("broadcast.448")
#loc150 = loc("add.449")
#loc151 = loc("reshape.280")
#loc152 = loc("reshape.282")
#loc153 = loc("transpose.283")
#loc154 = loc("dot.285")
#loc155 = loc("reshape.286")
#loc156 = loc("reshape.276")
#loc157 = loc("reshape.278")
#loc158 = loc("broadcast.289")
#loc159 = loc("add.290")
#loc160 = loc("multiply.306")
#loc161 = loc("power.292")
#loc162 = loc("multiply.294")
#loc163 = loc("add.297")
#loc164 = loc("multiply.299")
#loc165 = loc("tanh.300")
#loc166 = loc("add.303")
#loc167 = loc("multiply.307")
#loc168 = loc("reshape.308")
#loc169 = loc("reshape.264")
#loc170 = loc("reshape.266")
#loc171 = loc("transpose.267")
#loc172 = loc("dot.309")
#loc173 = loc("reshape.310")
#loc174 = loc("reshape.260")
#loc175 = loc("reshape.262")
#loc176 = loc("broadcast.313")
#loc177 = loc("add.314")
#loc178 = loc("add.452")
#loc179 = loc("add.455")
#loc180 = loc("reshape.250")
#loc181 = loc("reshape.252")
#loc182 = loc("reshape.245")
#loc183 = loc("reshape.247")
#loc184 = loc("custom-call.532")
#loc185 = loc("reshape.536")
#loc186 = loc("reshape.239")
#loc187 = loc("reshape.241")
#loc188 = loc("transpose.242")
#loc189 = loc("dot.537")
#loc190 = loc("reshape.538")
#loc191 = loc("reshape.235")
#loc192 = loc("reshape.237")
#loc193 = loc("broadcast.541")
#loc194 = loc("add.542")
