module @resnet50_xla_full_model {
  func.func @main(%arg0: tensor<1000xbf16> {ttcore.argument_type = #ttcore.argument_type<parameter>}, %arg1: tensor<2048x1000xbf16> {ttcore.argument_type = #ttcore.argument_type<parameter>}, %arg2: tensor<2048xbf16> {ttcore.argument_type = #ttcore.argument_type<constant>}, %arg3: tensor<2048xbf16> {ttcore.argument_type = #ttcore.argument_type<constant>}, %arg4: tensor<2048xbf16> {ttcore.argument_type = #ttcore.argument_type<parameter>}, %arg5: tensor<2048xbf16> {ttcore.argument_type = #ttcore.argument_type<parameter>}, %arg6: tensor<2048x1024x1x1xbf16> {ttcore.argument_type = #ttcore.argument_type<parameter>}, %arg7: tensor<1024xbf16> {ttcore.argument_type = #ttcore.argument_type<constant>}, %arg8: tensor<1024xbf16> {ttcore.argument_type = #ttcore.argument_type<constant>}, %arg9: tensor<1024xbf16> {ttcore.argument_type = #ttcore.argument_type<parameter>}, %arg10: tensor<1024xbf16> {ttcore.argument_type = #ttcore.argument_type<parameter>}, %arg11: tensor<1024x512x1x1xbf16> {ttcore.argument_type = #ttcore.argument_type<parameter>}, %arg12: tensor<512xbf16> {ttcore.argument_type = #ttcore.argument_type<constant>}, %arg13: tensor<512xbf16> {ttcore.argument_type = #ttcore.argument_type<constant>}, %arg14: tensor<512xbf16> {ttcore.argument_type = #ttcore.argument_type<parameter>}, %arg15: tensor<512xbf16> {ttcore.argument_type = #ttcore.argument_type<parameter>}, %arg16: tensor<512x256x1x1xbf16> {ttcore.argument_type = #ttcore.argument_type<parameter>}, %arg17: tensor<256xbf16> {ttcore.argument_type = #ttcore.argument_type<constant>}, %arg18: tensor<256xbf16> {ttcore.argument_type = #ttcore.argument_type<constant>}, %arg19: tensor<256xbf16> {ttcore.argument_type = #ttcore.argument_type<parameter>}, %arg20: tensor<256xbf16> {ttcore.argument_type = #ttcore.argument_type<parameter>}, %arg21: tensor<256x64x1x1xbf16> {ttcore.argument_type = #ttcore.argument_type<parameter>}, %arg22: tensor<64xbf16> {ttcore.argument_type = #ttcore.argument_type<constant>}, %arg23: tensor<64xbf16> {ttcore.argument_type = #ttcore.argument_type<constant>}, %arg24: tensor<64xbf16> {ttcore.argument_type = #ttcore.argument_type<parameter>}, %arg25: tensor<64xbf16> {ttcore.argument_type = #ttcore.argument_type<parameter>}, %arg26: tensor<64x3x7x7xbf16> {ttcore.argument_type = #ttcore.argument_type<parameter>}, %arg27: tensor<1x3x224x224xbf16> {ttcore.argument_type = #ttcore.argument_type<input>}, %arg28: tensor<256xbf16> {ttcore.argument_type = #ttcore.argument_type<constant>}, %arg29: tensor<256xbf16> {ttcore.argument_type = #ttcore.argument_type<constant>}, %arg30: tensor<256xbf16> {ttcore.argument_type = #ttcore.argument_type<parameter>}, %arg31: tensor<256xbf16> {ttcore.argument_type = #ttcore.argument_type<parameter>}, %arg32: tensor<256x64x1x1xbf16> {ttcore.argument_type = #ttcore.argument_type<parameter>}, %arg33: tensor<64xbf16> {ttcore.argument_type = #ttcore.argument_type<constant>}, %arg34: tensor<64xbf16> {ttcore.argument_type = #ttcore.argument_type<constant>}, %arg35: tensor<64xbf16> {ttcore.argument_type = #ttcore.argument_type<parameter>}, %arg36: tensor<64xbf16> {ttcore.argument_type = #ttcore.argument_type<parameter>}, %arg37: tensor<64x64x3x3xbf16> {ttcore.argument_type = #ttcore.argument_type<parameter>}, %arg38: tensor<64xbf16> {ttcore.argument_type = #ttcore.argument_type<constant>}, %arg39: tensor<64xbf16> {ttcore.argument_type = #ttcore.argument_type<constant>}, %arg40: tensor<64xbf16> {ttcore.argument_type = #ttcore.argument_type<parameter>}, %arg41: tensor<64xbf16> {ttcore.argument_type = #ttcore.argument_type<parameter>}, %arg42: tensor<64x64x1x1xbf16> {ttcore.argument_type = #ttcore.argument_type<parameter>}, %arg43: tensor<256xbf16> {ttcore.argument_type = #ttcore.argument_type<constant>}, %arg44: tensor<256xbf16> {ttcore.argument_type = #ttcore.argument_type<constant>}, %arg45: tensor<256xbf16> {ttcore.argument_type = #ttcore.argument_type<parameter>}, %arg46: tensor<256xbf16> {ttcore.argument_type = #ttcore.argument_type<parameter>}, %arg47: tensor<256x64x1x1xbf16> {ttcore.argument_type = #ttcore.argument_type<parameter>}, %arg48: tensor<64xbf16> {ttcore.argument_type = #ttcore.argument_type<constant>}, %arg49: tensor<64xbf16> {ttcore.argument_type = #ttcore.argument_type<constant>}, %arg50: tensor<64xbf16> {ttcore.argument_type = #ttcore.argument_type<parameter>}, %arg51: tensor<64xbf16> {ttcore.argument_type = #ttcore.argument_type<parameter>}, %arg52: tensor<64x64x3x3xbf16> {ttcore.argument_type = #ttcore.argument_type<parameter>}, %arg53: tensor<64xbf16> {ttcore.argument_type = #ttcore.argument_type<constant>}, %arg54: tensor<64xbf16> {ttcore.argument_type = #ttcore.argument_type<constant>}, %arg55: tensor<64xbf16> {ttcore.argument_type = #ttcore.argument_type<parameter>}, %arg56: tensor<64xbf16> {ttcore.argument_type = #ttcore.argument_type<parameter>}, %arg57: tensor<64x256x1x1xbf16> {ttcore.argument_type = #ttcore.argument_type<parameter>}, %arg58: tensor<256xbf16> {ttcore.argument_type = #ttcore.argument_type<constant>}, %arg59: tensor<256xbf16> {ttcore.argument_type = #ttcore.argument_type<constant>}, %arg60: tensor<256xbf16> {ttcore.argument_type = #ttcore.argument_type<parameter>}, %arg61: tensor<256xbf16> {ttcore.argument_type = #ttcore.argument_type<parameter>}, %arg62: tensor<256x64x1x1xbf16> {ttcore.argument_type = #ttcore.argument_type<parameter>}, %arg63: tensor<64xbf16> {ttcore.argument_type = #ttcore.argument_type<constant>}, %arg64: tensor<64xbf16> {ttcore.argument_type = #ttcore.argument_type<constant>}, %arg65: tensor<64xbf16> {ttcore.argument_type = #ttcore.argument_type<parameter>}, %arg66: tensor<64xbf16> {ttcore.argument_type = #ttcore.argument_type<parameter>}, %arg67: tensor<64x64x3x3xbf16> {ttcore.argument_type = #ttcore.argument_type<parameter>}, %arg68: tensor<64xbf16> {ttcore.argument_type = #ttcore.argument_type<constant>}, %arg69: tensor<64xbf16> {ttcore.argument_type = #ttcore.argument_type<constant>}, %arg70: tensor<64xbf16> {ttcore.argument_type = #ttcore.argument_type<parameter>}, %arg71: tensor<64xbf16> {ttcore.argument_type = #ttcore.argument_type<parameter>}, %arg72: tensor<64x256x1x1xbf16> {ttcore.argument_type = #ttcore.argument_type<parameter>}, %arg73: tensor<512xbf16> {ttcore.argument_type = #ttcore.argument_type<constant>}, %arg74: tensor<512xbf16> {ttcore.argument_type = #ttcore.argument_type<constant>}, %arg75: tensor<512xbf16> {ttcore.argument_type = #ttcore.argument_type<parameter>}, %arg76: tensor<512xbf16> {ttcore.argument_type = #ttcore.argument_type<parameter>}, %arg77: tensor<512x128x1x1xbf16> {ttcore.argument_type = #ttcore.argument_type<parameter>}, %arg78: tensor<128xbf16> {ttcore.argument_type = #ttcore.argument_type<constant>}, %arg79: tensor<128xbf16> {ttcore.argument_type = #ttcore.argument_type<constant>}, %arg80: tensor<128xbf16> {ttcore.argument_type = #ttcore.argument_type<parameter>}, %arg81: tensor<128xbf16> {ttcore.argument_type = #ttcore.argument_type<parameter>}, %arg82: tensor<128x128x3x3xbf16> {ttcore.argument_type = #ttcore.argument_type<parameter>}, %arg83: tensor<128xbf16> {ttcore.argument_type = #ttcore.argument_type<constant>}, %arg84: tensor<128xbf16> {ttcore.argument_type = #ttcore.argument_type<constant>}, %arg85: tensor<128xbf16> {ttcore.argument_type = #ttcore.argument_type<parameter>}, %arg86: tensor<128xbf16> {ttcore.argument_type = #ttcore.argument_type<parameter>}, %arg87: tensor<128x256x1x1xbf16> {ttcore.argument_type = #ttcore.argument_type<parameter>}, %arg88: tensor<512xbf16> {ttcore.argument_type = #ttcore.argument_type<constant>}, %arg89: tensor<512xbf16> {ttcore.argument_type = #ttcore.argument_type<constant>}, %arg90: tensor<512xbf16> {ttcore.argument_type = #ttcore.argument_type<parameter>}, %arg91: tensor<512xbf16> {ttcore.argument_type = #ttcore.argument_type<parameter>}, %arg92: tensor<512x128x1x1xbf16> {ttcore.argument_type = #ttcore.argument_type<parameter>}, %arg93: tensor<128xbf16> {ttcore.argument_type = #ttcore.argument_type<constant>}, %arg94: tensor<128xbf16> {ttcore.argument_type = #ttcore.argument_type<constant>}, %arg95: tensor<128xbf16> {ttcore.argument_type = #ttcore.argument_type<parameter>}, %arg96: tensor<128xbf16> {ttcore.argument_type = #ttcore.argument_type<parameter>}, %arg97: tensor<128x128x3x3xbf16> {ttcore.argument_type = #ttcore.argument_type<parameter>}, %arg98: tensor<128xbf16> {ttcore.argument_type = #ttcore.argument_type<constant>}, %arg99: tensor<128xbf16> {ttcore.argument_type = #ttcore.argument_type<constant>}, %arg100: tensor<128xbf16> {ttcore.argument_type = #ttcore.argument_type<parameter>}, %arg101: tensor<128xbf16> {ttcore.argument_type = #ttcore.argument_type<parameter>}, %arg102: tensor<128x512x1x1xbf16> {ttcore.argument_type = #ttcore.argument_type<parameter>}, %arg103: tensor<512xbf16> {ttcore.argument_type = #ttcore.argument_type<constant>}, %arg104: tensor<512xbf16> {ttcore.argument_type = #ttcore.argument_type<constant>}, %arg105: tensor<512xbf16> {ttcore.argument_type = #ttcore.argument_type<parameter>}, %arg106: tensor<512xbf16> {ttcore.argument_type = #ttcore.argument_type<parameter>}, %arg107: tensor<512x128x1x1xbf16> {ttcore.argument_type = #ttcore.argument_type<parameter>}, %arg108: tensor<128xbf16> {ttcore.argument_type = #ttcore.argument_type<constant>}, %arg109: tensor<128xbf16> {ttcore.argument_type = #ttcore.argument_type<constant>}, %arg110: tensor<128xbf16> {ttcore.argument_type = #ttcore.argument_type<parameter>}, %arg111: tensor<128xbf16> {ttcore.argument_type = #ttcore.argument_type<parameter>}, %arg112: tensor<128x128x3x3xbf16> {ttcore.argument_type = #ttcore.argument_type<parameter>}, %arg113: tensor<128xbf16> {ttcore.argument_type = #ttcore.argument_type<constant>}, %arg114: tensor<128xbf16> {ttcore.argument_type = #ttcore.argument_type<constant>}, %arg115: tensor<128xbf16> {ttcore.argument_type = #ttcore.argument_type<parameter>}, %arg116: tensor<128xbf16> {ttcore.argument_type = #ttcore.argument_type<parameter>}, %arg117: tensor<128x512x1x1xbf16> {ttcore.argument_type = #ttcore.argument_type<parameter>}, %arg118: tensor<512xbf16> {ttcore.argument_type = #ttcore.argument_type<constant>}, %arg119: tensor<512xbf16> {ttcore.argument_type = #ttcore.argument_type<constant>}, %arg120: tensor<512xbf16> {ttcore.argument_type = #ttcore.argument_type<parameter>}, %arg121: tensor<512xbf16> {ttcore.argument_type = #ttcore.argument_type<parameter>}, %arg122: tensor<512x128x1x1xbf16> {ttcore.argument_type = #ttcore.argument_type<parameter>}, %arg123: tensor<128xbf16> {ttcore.argument_type = #ttcore.argument_type<constant>}, %arg124: tensor<128xbf16> {ttcore.argument_type = #ttcore.argument_type<constant>}, %arg125: tensor<128xbf16> {ttcore.argument_type = #ttcore.argument_type<parameter>}, %arg126: tensor<128xbf16> {ttcore.argument_type = #ttcore.argument_type<parameter>}, %arg127: tensor<128x128x3x3xbf16> {ttcore.argument_type = #ttcore.argument_type<parameter>}, %arg128: tensor<128xbf16> {ttcore.argument_type = #ttcore.argument_type<constant>}, %arg129: tensor<128xbf16> {ttcore.argument_type = #ttcore.argument_type<constant>}, %arg130: tensor<128xbf16> {ttcore.argument_type = #ttcore.argument_type<parameter>}, %arg131: tensor<128xbf16> {ttcore.argument_type = #ttcore.argument_type<parameter>}, %arg132: tensor<128x512x1x1xbf16> {ttcore.argument_type = #ttcore.argument_type<parameter>}, %arg133: tensor<1024xbf16> {ttcore.argument_type = #ttcore.argument_type<constant>}, %arg134: tensor<1024xbf16> {ttcore.argument_type = #ttcore.argument_type<constant>}, %arg135: tensor<1024xbf16> {ttcore.argument_type = #ttcore.argument_type<parameter>}, %arg136: tensor<1024xbf16> {ttcore.argument_type = #ttcore.argument_type<parameter>}, %arg137: tensor<1024x256x1x1xbf16> {ttcore.argument_type = #ttcore.argument_type<parameter>}, %arg138: tensor<256xbf16> {ttcore.argument_type = #ttcore.argument_type<constant>}, %arg139: tensor<256xbf16> {ttcore.argument_type = #ttcore.argument_type<constant>}, %arg140: tensor<256xbf16> {ttcore.argument_type = #ttcore.argument_type<parameter>}, %arg141: tensor<256xbf16> {ttcore.argument_type = #ttcore.argument_type<parameter>}, %arg142: tensor<256x256x3x3xbf16> {ttcore.argument_type = #ttcore.argument_type<parameter>}, %arg143: tensor<256xbf16> {ttcore.argument_type = #ttcore.argument_type<constant>}, %arg144: tensor<256xbf16> {ttcore.argument_type = #ttcore.argument_type<constant>}, %arg145: tensor<256xbf16> {ttcore.argument_type = #ttcore.argument_type<parameter>}, %arg146: tensor<256xbf16> {ttcore.argument_type = #ttcore.argument_type<parameter>}, %arg147: tensor<256x512x1x1xbf16> {ttcore.argument_type = #ttcore.argument_type<parameter>}, %arg148: tensor<1024xbf16> {ttcore.argument_type = #ttcore.argument_type<constant>}, %arg149: tensor<1024xbf16> {ttcore.argument_type = #ttcore.argument_type<constant>}, %arg150: tensor<1024xbf16> {ttcore.argument_type = #ttcore.argument_type<parameter>}, %arg151: tensor<1024xbf16> {ttcore.argument_type = #ttcore.argument_type<parameter>}, %arg152: tensor<1024x256x1x1xbf16> {ttcore.argument_type = #ttcore.argument_type<parameter>}, %arg153: tensor<256xbf16> {ttcore.argument_type = #ttcore.argument_type<constant>}, %arg154: tensor<256xbf16> {ttcore.argument_type = #ttcore.argument_type<constant>}, %arg155: tensor<256xbf16> {ttcore.argument_type = #ttcore.argument_type<parameter>}, %arg156: tensor<256xbf16> {ttcore.argument_type = #ttcore.argument_type<parameter>}, %arg157: tensor<256x256x3x3xbf16> {ttcore.argument_type = #ttcore.argument_type<parameter>}, %arg158: tensor<256xbf16> {ttcore.argument_type = #ttcore.argument_type<constant>}, %arg159: tensor<256xbf16> {ttcore.argument_type = #ttcore.argument_type<constant>}, %arg160: tensor<256xbf16> {ttcore.argument_type = #ttcore.argument_type<parameter>}, %arg161: tensor<256xbf16> {ttcore.argument_type = #ttcore.argument_type<parameter>}, %arg162: tensor<256x1024x1x1xbf16> {ttcore.argument_type = #ttcore.argument_type<parameter>}, %arg163: tensor<1024xbf16> {ttcore.argument_type = #ttcore.argument_type<constant>}, %arg164: tensor<1024xbf16> {ttcore.argument_type = #ttcore.argument_type<constant>}, %arg165: tensor<1024xbf16> {ttcore.argument_type = #ttcore.argument_type<parameter>}, %arg166: tensor<1024xbf16> {ttcore.argument_type = #ttcore.argument_type<parameter>}, %arg167: tensor<1024x256x1x1xbf16> {ttcore.argument_type = #ttcore.argument_type<parameter>}, %arg168: tensor<256xbf16> {ttcore.argument_type = #ttcore.argument_type<constant>}, %arg169: tensor<256xbf16> {ttcore.argument_type = #ttcore.argument_type<constant>}, %arg170: tensor<256xbf16> {ttcore.argument_type = #ttcore.argument_type<parameter>}, %arg171: tensor<256xbf16> {ttcore.argument_type = #ttcore.argument_type<parameter>}, %arg172: tensor<256x256x3x3xbf16> {ttcore.argument_type = #ttcore.argument_type<parameter>}, %arg173: tensor<256xbf16> {ttcore.argument_type = #ttcore.argument_type<constant>}, %arg174: tensor<256xbf16> {ttcore.argument_type = #ttcore.argument_type<constant>}, %arg175: tensor<256xbf16> {ttcore.argument_type = #ttcore.argument_type<parameter>}, %arg176: tensor<256xbf16> {ttcore.argument_type = #ttcore.argument_type<parameter>}, %arg177: tensor<256x1024x1x1xbf16> {ttcore.argument_type = #ttcore.argument_type<parameter>}, %arg178: tensor<1024xbf16> {ttcore.argument_type = #ttcore.argument_type<constant>}, %arg179: tensor<1024xbf16> {ttcore.argument_type = #ttcore.argument_type<constant>}, %arg180: tensor<1024xbf16> {ttcore.argument_type = #ttcore.argument_type<parameter>}, %arg181: tensor<1024xbf16> {ttcore.argument_type = #ttcore.argument_type<parameter>}, %arg182: tensor<1024x256x1x1xbf16> {ttcore.argument_type = #ttcore.argument_type<parameter>}, %arg183: tensor<256xbf16> {ttcore.argument_type = #ttcore.argument_type<constant>}, %arg184: tensor<256xbf16> {ttcore.argument_type = #ttcore.argument_type<constant>}, %arg185: tensor<256xbf16> {ttcore.argument_type = #ttcore.argument_type<parameter>}, %arg186: tensor<256xbf16> {ttcore.argument_type = #ttcore.argument_type<parameter>}, %arg187: tensor<256x256x3x3xbf16> {ttcore.argument_type = #ttcore.argument_type<parameter>}, %arg188: tensor<256xbf16> {ttcore.argument_type = #ttcore.argument_type<constant>}, %arg189: tensor<256xbf16> {ttcore.argument_type = #ttcore.argument_type<constant>}, %arg190: tensor<256xbf16> {ttcore.argument_type = #ttcore.argument_type<parameter>}, %arg191: tensor<256xbf16> {ttcore.argument_type = #ttcore.argument_type<parameter>}, %arg192: tensor<256x1024x1x1xbf16> {ttcore.argument_type = #ttcore.argument_type<parameter>}, %arg193: tensor<1024xbf16> {ttcore.argument_type = #ttcore.argument_type<constant>}, %arg194: tensor<1024xbf16> {ttcore.argument_type = #ttcore.argument_type<constant>}, %arg195: tensor<1024xbf16> {ttcore.argument_type = #ttcore.argument_type<parameter>}, %arg196: tensor<1024xbf16> {ttcore.argument_type = #ttcore.argument_type<parameter>}, %arg197: tensor<1024x256x1x1xbf16> {ttcore.argument_type = #ttcore.argument_type<parameter>}, %arg198: tensor<256xbf16> {ttcore.argument_type = #ttcore.argument_type<constant>}, %arg199: tensor<256xbf16> {ttcore.argument_type = #ttcore.argument_type<constant>}, %arg200: tensor<256xbf16> {ttcore.argument_type = #ttcore.argument_type<parameter>}, %arg201: tensor<256xbf16> {ttcore.argument_type = #ttcore.argument_type<parameter>}, %arg202: tensor<256x256x3x3xbf16> {ttcore.argument_type = #ttcore.argument_type<parameter>}, %arg203: tensor<256xbf16> {ttcore.argument_type = #ttcore.argument_type<constant>}, %arg204: tensor<256xbf16> {ttcore.argument_type = #ttcore.argument_type<constant>}, %arg205: tensor<256xbf16> {ttcore.argument_type = #ttcore.argument_type<parameter>}, %arg206: tensor<256xbf16> {ttcore.argument_type = #ttcore.argument_type<parameter>}, %arg207: tensor<256x1024x1x1xbf16> {ttcore.argument_type = #ttcore.argument_type<parameter>}, %arg208: tensor<1024xbf16> {ttcore.argument_type = #ttcore.argument_type<constant>}, %arg209: tensor<1024xbf16> {ttcore.argument_type = #ttcore.argument_type<constant>}, %arg210: tensor<1024xbf16> {ttcore.argument_type = #ttcore.argument_type<parameter>}, %arg211: tensor<1024xbf16> {ttcore.argument_type = #ttcore.argument_type<parameter>}, %arg212: tensor<1024x256x1x1xbf16> {ttcore.argument_type = #ttcore.argument_type<parameter>}, %arg213: tensor<256xbf16> {ttcore.argument_type = #ttcore.argument_type<constant>}, %arg214: tensor<256xbf16> {ttcore.argument_type = #ttcore.argument_type<constant>}, %arg215: tensor<256xbf16> {ttcore.argument_type = #ttcore.argument_type<parameter>}, %arg216: tensor<256xbf16> {ttcore.argument_type = #ttcore.argument_type<parameter>}, %arg217: tensor<256x256x3x3xbf16> {ttcore.argument_type = #ttcore.argument_type<parameter>}, %arg218: tensor<256xbf16> {ttcore.argument_type = #ttcore.argument_type<constant>}, %arg219: tensor<256xbf16> {ttcore.argument_type = #ttcore.argument_type<constant>}, %arg220: tensor<256xbf16> {ttcore.argument_type = #ttcore.argument_type<parameter>}, %arg221: tensor<256xbf16> {ttcore.argument_type = #ttcore.argument_type<parameter>}, %arg222: tensor<256x1024x1x1xbf16> {ttcore.argument_type = #ttcore.argument_type<parameter>}, %arg223: tensor<2048xbf16> {ttcore.argument_type = #ttcore.argument_type<constant>}, %arg224: tensor<2048xbf16> {ttcore.argument_type = #ttcore.argument_type<constant>}, %arg225: tensor<2048xbf16> {ttcore.argument_type = #ttcore.argument_type<parameter>}, %arg226: tensor<2048xbf16> {ttcore.argument_type = #ttcore.argument_type<parameter>}, %arg227: tensor<2048x512x1x1xbf16> {ttcore.argument_type = #ttcore.argument_type<parameter>}, %arg228: tensor<512xbf16> {ttcore.argument_type = #ttcore.argument_type<constant>}, %arg229: tensor<512xbf16> {ttcore.argument_type = #ttcore.argument_type<constant>}, %arg230: tensor<512xbf16> {ttcore.argument_type = #ttcore.argument_type<parameter>}, %arg231: tensor<512xbf16> {ttcore.argument_type = #ttcore.argument_type<parameter>}, %arg232: tensor<512x512x3x3xbf16> {ttcore.argument_type = #ttcore.argument_type<parameter>}, %arg233: tensor<512xbf16> {ttcore.argument_type = #ttcore.argument_type<constant>}, %arg234: tensor<512xbf16> {ttcore.argument_type = #ttcore.argument_type<constant>}, %arg235: tensor<512xbf16> {ttcore.argument_type = #ttcore.argument_type<parameter>}, %arg236: tensor<512xbf16> {ttcore.argument_type = #ttcore.argument_type<parameter>}, %arg237: tensor<512x1024x1x1xbf16> {ttcore.argument_type = #ttcore.argument_type<parameter>}, %arg238: tensor<2048xbf16> {ttcore.argument_type = #ttcore.argument_type<constant>}, %arg239: tensor<2048xbf16> {ttcore.argument_type = #ttcore.argument_type<constant>}, %arg240: tensor<2048xbf16> {ttcore.argument_type = #ttcore.argument_type<parameter>}, %arg241: tensor<2048xbf16> {ttcore.argument_type = #ttcore.argument_type<parameter>}, %arg242: tensor<2048x512x1x1xbf16> {ttcore.argument_type = #ttcore.argument_type<parameter>}, %arg243: tensor<512xbf16> {ttcore.argument_type = #ttcore.argument_type<constant>}, %arg244: tensor<512xbf16> {ttcore.argument_type = #ttcore.argument_type<constant>}, %arg245: tensor<512xbf16> {ttcore.argument_type = #ttcore.argument_type<parameter>}, %arg246: tensor<512xbf16> {ttcore.argument_type = #ttcore.argument_type<parameter>}, %arg247: tensor<512x512x3x3xbf16> {ttcore.argument_type = #ttcore.argument_type<parameter>}, %arg248: tensor<512xbf16> {ttcore.argument_type = #ttcore.argument_type<constant>}, %arg249: tensor<512xbf16> {ttcore.argument_type = #ttcore.argument_type<constant>}, %arg250: tensor<512xbf16> {ttcore.argument_type = #ttcore.argument_type<parameter>}, %arg251: tensor<512xbf16> {ttcore.argument_type = #ttcore.argument_type<parameter>}, %arg252: tensor<512x2048x1x1xbf16> {ttcore.argument_type = #ttcore.argument_type<parameter>}, %arg253: tensor<2048xbf16> {ttcore.argument_type = #ttcore.argument_type<constant>}, %arg254: tensor<2048xbf16> {ttcore.argument_type = #ttcore.argument_type<constant>}, %arg255: tensor<2048xbf16> {ttcore.argument_type = #ttcore.argument_type<parameter>}, %arg256: tensor<2048xbf16> {ttcore.argument_type = #ttcore.argument_type<parameter>}, %arg257: tensor<2048x512x1x1xbf16> {ttcore.argument_type = #ttcore.argument_type<parameter>}, %arg258: tensor<512xbf16> {ttcore.argument_type = #ttcore.argument_type<constant>}, %arg259: tensor<512xbf16> {ttcore.argument_type = #ttcore.argument_type<constant>}, %arg260: tensor<512xbf16> {ttcore.argument_type = #ttcore.argument_type<parameter>}, %arg261: tensor<512xbf16> {ttcore.argument_type = #ttcore.argument_type<parameter>}, %arg262: tensor<512x512x3x3xbf16> {ttcore.argument_type = #ttcore.argument_type<parameter>}, %arg263: tensor<512xbf16> {ttcore.argument_type = #ttcore.argument_type<constant>}, %arg264: tensor<512xbf16> {ttcore.argument_type = #ttcore.argument_type<constant>}, %arg265: tensor<512xbf16> {ttcore.argument_type = #ttcore.argument_type<parameter>}, %arg266: tensor<512xbf16> {ttcore.argument_type = #ttcore.argument_type<parameter>}, %arg267: tensor<512x2048x1x1xbf16> {ttcore.argument_type = #ttcore.argument_type<parameter>}) -> tensor<1x1000xbf16> {
    %0 = "ttir.constant"() <{value = dense<2.038570e-02> : tensor<1x2048xbf16>}> : () -> tensor<1x2048xbf16>
    %1 = "ttir.constant"() <{value = dense<0.000000e+00> : tensor<1x2048x7x7xbf16>}> : () -> tensor<1x2048x7x7xbf16>
    %2 = "ttir.constant"() <{value = dense<0.000000e+00> : tensor<1x512x7x7xbf16>}> : () -> tensor<1x512x7x7xbf16>
    %3 = "ttir.constant"() <{value = dense<0.000000e+00> : tensor<1x512x14x14xbf16>}> : () -> tensor<1x512x14x14xbf16>
    %4 = "ttir.constant"() <{value = dense<0.000000e+00> : tensor<1x1024x14x14xbf16>}> : () -> tensor<1x1024x14x14xbf16>
    %5 = "ttir.constant"() <{value = dense<0.000000e+00> : tensor<1x256x14x14xbf16>}> : () -> tensor<1x256x14x14xbf16>
    %6 = "ttir.constant"() <{value = dense<0.000000e+00> : tensor<1x256x28x28xbf16>}> : () -> tensor<1x256x28x28xbf16>
    %7 = "ttir.constant"() <{value = dense<0.000000e+00> : tensor<1x512x28x28xbf16>}> : () -> tensor<1x512x28x28xbf16>
    %8 = "ttir.constant"() <{value = dense<0.000000e+00> : tensor<1x128x28x28xbf16>}> : () -> tensor<1x128x28x28xbf16>
    %9 = "ttir.constant"() <{value = dense<0.000000e+00> : tensor<1x128x56x56xbf16>}> : () -> tensor<1x128x56x56xbf16>
    %10 = "ttir.constant"() <{value = dense<0.000000e+00> : tensor<1x256x56x56xbf16>}> : () -> tensor<1x256x56x56xbf16>
    %11 = "ttir.constant"() <{value = dense<0.000000e+00> : tensor<1x64x56x56xbf16>}> : () -> tensor<1x64x56x56xbf16>
    %12 = "ttir.constant"() <{value = dense<0.000000e+00> : tensor<1x64x112x112xbf16>}> : () -> tensor<1x64x112x112xbf16>
    %13 = "ttir.constant"() <{value = dense<0xFF80> : tensor<bf16>}> : () -> tensor<bf16>
    %14 = "ttir.constant"() <{value = dense<0.000000e+00> : tensor<bf16>}> : () -> tensor<bf16>
    %15 = "ttir.convolution"(%arg27, %arg26) <{batch_group_count = 1 : i64, convolution_layout = #ttir<convolution_layout input_batch = 0, input_feature = 1, input_spatial_dimensions = 2x3, kernel_output_feature = 0, kernel_input_feature = 1, kernel_spatial_dimensions = 2x3, output_batch = 0, output_feature = 1, output_spatial_dimensions = 2x3>, feature_group_count = 1 : i64, input_dilation = array<i64: 1, 1>, padding = array<i64: 3, 3, 3, 3>, weight_dilation = array<i64: 1, 1>, window_reversal = array<i1: false, false>, window_strides = array<i64: 2, 2>}> : (tensor<1x3x224x224xbf16>, tensor<64x3x7x7xbf16>) -> tensor<1x64x112x112xbf16>
    %16 = "ttir.batch_norm_inference"(%15, %arg25, %arg24, %arg23, %arg22) <{dimension = 1 : i32, epsilon = 9.99999974E-6 : f32}> : (tensor<1x64x112x112xbf16>, tensor<64xbf16>, tensor<64xbf16>, tensor<64xbf16>, tensor<64xbf16>) -> tensor<1x64x112x112xbf16>
    %17 = "ttir.maximum"(%16, %12) : (tensor<1x64x112x112xbf16>, tensor<1x64x112x112xbf16>) -> tensor<1x64x112x112xbf16>
    %18 = "ttir.pad"(%17) <{padding = array<i32: 0, 0, 0, 0, 1, 1, 1, 1>, value = 0xFF800000 : f32}> : (tensor<1x64x112x112xbf16>) -> tensor<1x64x114x114xbf16>
    %19 = "ttir.pooling"(%18) <{base_dilations = array<i64: 1, 1, 1, 1>, operandSegmentSizes = array<i32: 1, 1>, padding = array<i64: 0, 0, 0, 0, 0, 0, 0, 0>, pooling_method = #ttir<pooling_method Max>, window_dilations = array<i64: 1, 1, 1, 1>, window_dimensions = array<i64: 1, 1, 3, 3>, window_strides = array<i64: 1, 1, 2, 2>}> : (tensor<1x64x114x114xbf16>) -> tensor<1x64x56x56xbf16>
    %20 = "ttir.convolution"(%19, %arg42) <{batch_group_count = 1 : i64, convolution_layout = #ttir<convolution_layout input_batch = 0, input_feature = 1, input_spatial_dimensions = 2x3, kernel_output_feature = 0, kernel_input_feature = 1, kernel_spatial_dimensions = 2x3, output_batch = 0, output_feature = 1, output_spatial_dimensions = 2x3>, feature_group_count = 1 : i64, input_dilation = array<i64: 1, 1>, padding = array<i64: 0, 0, 0, 0>, weight_dilation = array<i64: 1, 1>, window_reversal = array<i1: false, false>, window_strides = array<i64: 1, 1>}> : (tensor<1x64x56x56xbf16>, tensor<64x64x1x1xbf16>) -> tensor<1x64x56x56xbf16>
    %21 = "ttir.batch_norm_inference"(%20, %arg41, %arg40, %arg39, %arg38) <{dimension = 1 : i32, epsilon = 9.99999974E-6 : f32}> : (tensor<1x64x56x56xbf16>, tensor<64xbf16>, tensor<64xbf16>, tensor<64xbf16>, tensor<64xbf16>) -> tensor<1x64x56x56xbf16>
    %22 = "ttir.maximum"(%21, %11) : (tensor<1x64x56x56xbf16>, tensor<1x64x56x56xbf16>) -> tensor<1x64x56x56xbf16>
    %23 = "ttir.convolution"(%22, %arg37) <{batch_group_count = 1 : i64, convolution_layout = #ttir<convolution_layout input_batch = 0, input_feature = 1, input_spatial_dimensions = 2x3, kernel_output_feature = 0, kernel_input_feature = 1, kernel_spatial_dimensions = 2x3, output_batch = 0, output_feature = 1, output_spatial_dimensions = 2x3>, feature_group_count = 1 : i64, input_dilation = array<i64: 1, 1>, padding = array<i64: 1, 1, 1, 1>, weight_dilation = array<i64: 1, 1>, window_reversal = array<i1: false, false>, window_strides = array<i64: 1, 1>}> : (tensor<1x64x56x56xbf16>, tensor<64x64x3x3xbf16>) -> tensor<1x64x56x56xbf16>
    %24 = "ttir.batch_norm_inference"(%23, %arg36, %arg35, %arg34, %arg33) <{dimension = 1 : i32, epsilon = 9.99999974E-6 : f32}> : (tensor<1x64x56x56xbf16>, tensor<64xbf16>, tensor<64xbf16>, tensor<64xbf16>, tensor<64xbf16>) -> tensor<1x64x56x56xbf16>
    %25 = "ttir.maximum"(%24, %11) : (tensor<1x64x56x56xbf16>, tensor<1x64x56x56xbf16>) -> tensor<1x64x56x56xbf16>
    %26 = "ttir.convolution"(%25, %arg32) <{batch_group_count = 1 : i64, convolution_layout = #ttir<convolution_layout input_batch = 0, input_feature = 1, input_spatial_dimensions = 2x3, kernel_output_feature = 0, kernel_input_feature = 1, kernel_spatial_dimensions = 2x3, output_batch = 0, output_feature = 1, output_spatial_dimensions = 2x3>, feature_group_count = 1 : i64, input_dilation = array<i64: 1, 1>, padding = array<i64: 0, 0, 0, 0>, weight_dilation = array<i64: 1, 1>, window_reversal = array<i1: false, false>, window_strides = array<i64: 1, 1>}> : (tensor<1x64x56x56xbf16>, tensor<256x64x1x1xbf16>) -> tensor<1x256x56x56xbf16>
    %27 = "ttir.batch_norm_inference"(%26, %arg31, %arg30, %arg29, %arg28) <{dimension = 1 : i32, epsilon = 9.99999974E-6 : f32}> : (tensor<1x256x56x56xbf16>, tensor<256xbf16>, tensor<256xbf16>, tensor<256xbf16>, tensor<256xbf16>) -> tensor<1x256x56x56xbf16>
    %28 = "ttir.convolution"(%19, %arg21) <{batch_group_count = 1 : i64, convolution_layout = #ttir<convolution_layout input_batch = 0, input_feature = 1, input_spatial_dimensions = 2x3, kernel_output_feature = 0, kernel_input_feature = 1, kernel_spatial_dimensions = 2x3, output_batch = 0, output_feature = 1, output_spatial_dimensions = 2x3>, feature_group_count = 1 : i64, input_dilation = array<i64: 1, 1>, padding = array<i64: 0, 0, 0, 0>, weight_dilation = array<i64: 1, 1>, window_reversal = array<i1: false, false>, window_strides = array<i64: 1, 1>}> : (tensor<1x64x56x56xbf16>, tensor<256x64x1x1xbf16>) -> tensor<1x256x56x56xbf16>
    %29 = "ttir.batch_norm_inference"(%28, %arg20, %arg19, %arg18, %arg17) <{dimension = 1 : i32, epsilon = 9.99999974E-6 : f32}> : (tensor<1x256x56x56xbf16>, tensor<256xbf16>, tensor<256xbf16>, tensor<256xbf16>, tensor<256xbf16>) -> tensor<1x256x56x56xbf16>
    %30 = "ttir.add"(%27, %29) : (tensor<1x256x56x56xbf16>, tensor<1x256x56x56xbf16>) -> tensor<1x256x56x56xbf16>
    %31 = "ttir.maximum"(%30, %10) : (tensor<1x256x56x56xbf16>, tensor<1x256x56x56xbf16>) -> tensor<1x256x56x56xbf16>
    %32 = "ttir.convolution"(%31, %arg57) <{batch_group_count = 1 : i64, convolution_layout = #ttir<convolution_layout input_batch = 0, input_feature = 1, input_spatial_dimensions = 2x3, kernel_output_feature = 0, kernel_input_feature = 1, kernel_spatial_dimensions = 2x3, output_batch = 0, output_feature = 1, output_spatial_dimensions = 2x3>, feature_group_count = 1 : i64, input_dilation = array<i64: 1, 1>, padding = array<i64: 0, 0, 0, 0>, weight_dilation = array<i64: 1, 1>, window_reversal = array<i1: false, false>, window_strides = array<i64: 1, 1>}> : (tensor<1x256x56x56xbf16>, tensor<64x256x1x1xbf16>) -> tensor<1x64x56x56xbf16>
    %33 = "ttir.batch_norm_inference"(%32, %arg56, %arg55, %arg54, %arg53) <{dimension = 1 : i32, epsilon = 9.99999974E-6 : f32}> : (tensor<1x64x56x56xbf16>, tensor<64xbf16>, tensor<64xbf16>, tensor<64xbf16>, tensor<64xbf16>) -> tensor<1x64x56x56xbf16>
    %34 = "ttir.maximum"(%33, %11) : (tensor<1x64x56x56xbf16>, tensor<1x64x56x56xbf16>) -> tensor<1x64x56x56xbf16>
    %35 = "ttir.convolution"(%34, %arg52) <{batch_group_count = 1 : i64, convolution_layout = #ttir<convolution_layout input_batch = 0, input_feature = 1, input_spatial_dimensions = 2x3, kernel_output_feature = 0, kernel_input_feature = 1, kernel_spatial_dimensions = 2x3, output_batch = 0, output_feature = 1, output_spatial_dimensions = 2x3>, feature_group_count = 1 : i64, input_dilation = array<i64: 1, 1>, padding = array<i64: 1, 1, 1, 1>, weight_dilation = array<i64: 1, 1>, window_reversal = array<i1: false, false>, window_strides = array<i64: 1, 1>}> : (tensor<1x64x56x56xbf16>, tensor<64x64x3x3xbf16>) -> tensor<1x64x56x56xbf16>
    %36 = "ttir.batch_norm_inference"(%35, %arg51, %arg50, %arg49, %arg48) <{dimension = 1 : i32, epsilon = 9.99999974E-6 : f32}> : (tensor<1x64x56x56xbf16>, tensor<64xbf16>, tensor<64xbf16>, tensor<64xbf16>, tensor<64xbf16>) -> tensor<1x64x56x56xbf16>
    %37 = "ttir.maximum"(%36, %11) : (tensor<1x64x56x56xbf16>, tensor<1x64x56x56xbf16>) -> tensor<1x64x56x56xbf16>
    %38 = "ttir.convolution"(%37, %arg47) <{batch_group_count = 1 : i64, convolution_layout = #ttir<convolution_layout input_batch = 0, input_feature = 1, input_spatial_dimensions = 2x3, kernel_output_feature = 0, kernel_input_feature = 1, kernel_spatial_dimensions = 2x3, output_batch = 0, output_feature = 1, output_spatial_dimensions = 2x3>, feature_group_count = 1 : i64, input_dilation = array<i64: 1, 1>, padding = array<i64: 0, 0, 0, 0>, weight_dilation = array<i64: 1, 1>, window_reversal = array<i1: false, false>, window_strides = array<i64: 1, 1>}> : (tensor<1x64x56x56xbf16>, tensor<256x64x1x1xbf16>) -> tensor<1x256x56x56xbf16>
    %39 = "ttir.batch_norm_inference"(%38, %arg46, %arg45, %arg44, %arg43) <{dimension = 1 : i32, epsilon = 9.99999974E-6 : f32}> : (tensor<1x256x56x56xbf16>, tensor<256xbf16>, tensor<256xbf16>, tensor<256xbf16>, tensor<256xbf16>) -> tensor<1x256x56x56xbf16>
    %40 = "ttir.add"(%39, %31) : (tensor<1x256x56x56xbf16>, tensor<1x256x56x56xbf16>) -> tensor<1x256x56x56xbf16>
    %41 = "ttir.maximum"(%40, %10) : (tensor<1x256x56x56xbf16>, tensor<1x256x56x56xbf16>) -> tensor<1x256x56x56xbf16>
    %42 = "ttir.convolution"(%41, %arg72) <{batch_group_count = 1 : i64, convolution_layout = #ttir<convolution_layout input_batch = 0, input_feature = 1, input_spatial_dimensions = 2x3, kernel_output_feature = 0, kernel_input_feature = 1, kernel_spatial_dimensions = 2x3, output_batch = 0, output_feature = 1, output_spatial_dimensions = 2x3>, feature_group_count = 1 : i64, input_dilation = array<i64: 1, 1>, padding = array<i64: 0, 0, 0, 0>, weight_dilation = array<i64: 1, 1>, window_reversal = array<i1: false, false>, window_strides = array<i64: 1, 1>}> : (tensor<1x256x56x56xbf16>, tensor<64x256x1x1xbf16>) -> tensor<1x64x56x56xbf16>
    %43 = "ttir.batch_norm_inference"(%42, %arg71, %arg70, %arg69, %arg68) <{dimension = 1 : i32, epsilon = 9.99999974E-6 : f32}> : (tensor<1x64x56x56xbf16>, tensor<64xbf16>, tensor<64xbf16>, tensor<64xbf16>, tensor<64xbf16>) -> tensor<1x64x56x56xbf16>
    %44 = "ttir.maximum"(%43, %11) : (tensor<1x64x56x56xbf16>, tensor<1x64x56x56xbf16>) -> tensor<1x64x56x56xbf16>
    %45 = "ttir.convolution"(%44, %arg67) <{batch_group_count = 1 : i64, convolution_layout = #ttir<convolution_layout input_batch = 0, input_feature = 1, input_spatial_dimensions = 2x3, kernel_output_feature = 0, kernel_input_feature = 1, kernel_spatial_dimensions = 2x3, output_batch = 0, output_feature = 1, output_spatial_dimensions = 2x3>, feature_group_count = 1 : i64, input_dilation = array<i64: 1, 1>, padding = array<i64: 1, 1, 1, 1>, weight_dilation = array<i64: 1, 1>, window_reversal = array<i1: false, false>, window_strides = array<i64: 1, 1>}> : (tensor<1x64x56x56xbf16>, tensor<64x64x3x3xbf16>) -> tensor<1x64x56x56xbf16>
    %46 = "ttir.batch_norm_inference"(%45, %arg66, %arg65, %arg64, %arg63) <{dimension = 1 : i32, epsilon = 9.99999974E-6 : f32}> : (tensor<1x64x56x56xbf16>, tensor<64xbf16>, tensor<64xbf16>, tensor<64xbf16>, tensor<64xbf16>) -> tensor<1x64x56x56xbf16>
    %47 = "ttir.maximum"(%46, %11) : (tensor<1x64x56x56xbf16>, tensor<1x64x56x56xbf16>) -> tensor<1x64x56x56xbf16>
    %48 = "ttir.convolution"(%47, %arg62) <{batch_group_count = 1 : i64, convolution_layout = #ttir<convolution_layout input_batch = 0, input_feature = 1, input_spatial_dimensions = 2x3, kernel_output_feature = 0, kernel_input_feature = 1, kernel_spatial_dimensions = 2x3, output_batch = 0, output_feature = 1, output_spatial_dimensions = 2x3>, feature_group_count = 1 : i64, input_dilation = array<i64: 1, 1>, padding = array<i64: 0, 0, 0, 0>, weight_dilation = array<i64: 1, 1>, window_reversal = array<i1: false, false>, window_strides = array<i64: 1, 1>}> : (tensor<1x64x56x56xbf16>, tensor<256x64x1x1xbf16>) -> tensor<1x256x56x56xbf16>
    %49 = "ttir.batch_norm_inference"(%48, %arg61, %arg60, %arg59, %arg58) <{dimension = 1 : i32, epsilon = 9.99999974E-6 : f32}> : (tensor<1x256x56x56xbf16>, tensor<256xbf16>, tensor<256xbf16>, tensor<256xbf16>, tensor<256xbf16>) -> tensor<1x256x56x56xbf16>
    %50 = "ttir.add"(%49, %41) : (tensor<1x256x56x56xbf16>, tensor<1x256x56x56xbf16>) -> tensor<1x256x56x56xbf16>
    %51 = "ttir.maximum"(%50, %10) : (tensor<1x256x56x56xbf16>, tensor<1x256x56x56xbf16>) -> tensor<1x256x56x56xbf16>
    %52 = "ttir.convolution"(%51, %arg87) <{batch_group_count = 1 : i64, convolution_layout = #ttir<convolution_layout input_batch = 0, input_feature = 1, input_spatial_dimensions = 2x3, kernel_output_feature = 0, kernel_input_feature = 1, kernel_spatial_dimensions = 2x3, output_batch = 0, output_feature = 1, output_spatial_dimensions = 2x3>, feature_group_count = 1 : i64, input_dilation = array<i64: 1, 1>, padding = array<i64: 0, 0, 0, 0>, weight_dilation = array<i64: 1, 1>, window_reversal = array<i1: false, false>, window_strides = array<i64: 1, 1>}> : (tensor<1x256x56x56xbf16>, tensor<128x256x1x1xbf16>) -> tensor<1x128x56x56xbf16>
    %53 = "ttir.batch_norm_inference"(%52, %arg86, %arg85, %arg84, %arg83) <{dimension = 1 : i32, epsilon = 9.99999974E-6 : f32}> : (tensor<1x128x56x56xbf16>, tensor<128xbf16>, tensor<128xbf16>, tensor<128xbf16>, tensor<128xbf16>) -> tensor<1x128x56x56xbf16>
    %54 = "ttir.maximum"(%53, %9) : (tensor<1x128x56x56xbf16>, tensor<1x128x56x56xbf16>) -> tensor<1x128x56x56xbf16>
    %55 = "ttir.convolution"(%54, %arg82) <{batch_group_count = 1 : i64, convolution_layout = #ttir<convolution_layout input_batch = 0, input_feature = 1, input_spatial_dimensions = 2x3, kernel_output_feature = 0, kernel_input_feature = 1, kernel_spatial_dimensions = 2x3, output_batch = 0, output_feature = 1, output_spatial_dimensions = 2x3>, feature_group_count = 1 : i64, input_dilation = array<i64: 1, 1>, padding = array<i64: 1, 1, 1, 1>, weight_dilation = array<i64: 1, 1>, window_reversal = array<i1: false, false>, window_strides = array<i64: 2, 2>}> : (tensor<1x128x56x56xbf16>, tensor<128x128x3x3xbf16>) -> tensor<1x128x28x28xbf16>
    %56 = "ttir.batch_norm_inference"(%55, %arg81, %arg80, %arg79, %arg78) <{dimension = 1 : i32, epsilon = 9.99999974E-6 : f32}> : (tensor<1x128x28x28xbf16>, tensor<128xbf16>, tensor<128xbf16>, tensor<128xbf16>, tensor<128xbf16>) -> tensor<1x128x28x28xbf16>
    %57 = "ttir.maximum"(%56, %8) : (tensor<1x128x28x28xbf16>, tensor<1x128x28x28xbf16>) -> tensor<1x128x28x28xbf16>
    %58 = "ttir.convolution"(%57, %arg77) <{batch_group_count = 1 : i64, convolution_layout = #ttir<convolution_layout input_batch = 0, input_feature = 1, input_spatial_dimensions = 2x3, kernel_output_feature = 0, kernel_input_feature = 1, kernel_spatial_dimensions = 2x3, output_batch = 0, output_feature = 1, output_spatial_dimensions = 2x3>, feature_group_count = 1 : i64, input_dilation = array<i64: 1, 1>, padding = array<i64: 0, 0, 0, 0>, weight_dilation = array<i64: 1, 1>, window_reversal = array<i1: false, false>, window_strides = array<i64: 1, 1>}> : (tensor<1x128x28x28xbf16>, tensor<512x128x1x1xbf16>) -> tensor<1x512x28x28xbf16>
    %59 = "ttir.batch_norm_inference"(%58, %arg76, %arg75, %arg74, %arg73) <{dimension = 1 : i32, epsilon = 9.99999974E-6 : f32}> : (tensor<1x512x28x28xbf16>, tensor<512xbf16>, tensor<512xbf16>, tensor<512xbf16>, tensor<512xbf16>) -> tensor<1x512x28x28xbf16>
    %60 = "ttir.convolution"(%51, %arg16) <{batch_group_count = 1 : i64, convolution_layout = #ttir<convolution_layout input_batch = 0, input_feature = 1, input_spatial_dimensions = 2x3, kernel_output_feature = 0, kernel_input_feature = 1, kernel_spatial_dimensions = 2x3, output_batch = 0, output_feature = 1, output_spatial_dimensions = 2x3>, feature_group_count = 1 : i64, input_dilation = array<i64: 1, 1>, padding = array<i64: 0, 0, 0, 0>, weight_dilation = array<i64: 1, 1>, window_reversal = array<i1: false, false>, window_strides = array<i64: 2, 2>}> : (tensor<1x256x56x56xbf16>, tensor<512x256x1x1xbf16>) -> tensor<1x512x28x28xbf16>
    %61 = "ttir.batch_norm_inference"(%60, %arg15, %arg14, %arg13, %arg12) <{dimension = 1 : i32, epsilon = 9.99999974E-6 : f32}> : (tensor<1x512x28x28xbf16>, tensor<512xbf16>, tensor<512xbf16>, tensor<512xbf16>, tensor<512xbf16>) -> tensor<1x512x28x28xbf16>
    %62 = "ttir.add"(%59, %61) : (tensor<1x512x28x28xbf16>, tensor<1x512x28x28xbf16>) -> tensor<1x512x28x28xbf16>
    %63 = "ttir.maximum"(%62, %7) : (tensor<1x512x28x28xbf16>, tensor<1x512x28x28xbf16>) -> tensor<1x512x28x28xbf16>
    %64 = "ttir.convolution"(%63, %arg102) <{batch_group_count = 1 : i64, convolution_layout = #ttir<convolution_layout input_batch = 0, input_feature = 1, input_spatial_dimensions = 2x3, kernel_output_feature = 0, kernel_input_feature = 1, kernel_spatial_dimensions = 2x3, output_batch = 0, output_feature = 1, output_spatial_dimensions = 2x3>, feature_group_count = 1 : i64, input_dilation = array<i64: 1, 1>, padding = array<i64: 0, 0, 0, 0>, weight_dilation = array<i64: 1, 1>, window_reversal = array<i1: false, false>, window_strides = array<i64: 1, 1>}> : (tensor<1x512x28x28xbf16>, tensor<128x512x1x1xbf16>) -> tensor<1x128x28x28xbf16>
    %65 = "ttir.batch_norm_inference"(%64, %arg101, %arg100, %arg99, %arg98) <{dimension = 1 : i32, epsilon = 9.99999974E-6 : f32}> : (tensor<1x128x28x28xbf16>, tensor<128xbf16>, tensor<128xbf16>, tensor<128xbf16>, tensor<128xbf16>) -> tensor<1x128x28x28xbf16>
    %66 = "ttir.maximum"(%65, %8) : (tensor<1x128x28x28xbf16>, tensor<1x128x28x28xbf16>) -> tensor<1x128x28x28xbf16>
    %67 = "ttir.convolution"(%66, %arg97) <{batch_group_count = 1 : i64, convolution_layout = #ttir<convolution_layout input_batch = 0, input_feature = 1, input_spatial_dimensions = 2x3, kernel_output_feature = 0, kernel_input_feature = 1, kernel_spatial_dimensions = 2x3, output_batch = 0, output_feature = 1, output_spatial_dimensions = 2x3>, feature_group_count = 1 : i64, input_dilation = array<i64: 1, 1>, padding = array<i64: 1, 1, 1, 1>, weight_dilation = array<i64: 1, 1>, window_reversal = array<i1: false, false>, window_strides = array<i64: 1, 1>}> : (tensor<1x128x28x28xbf16>, tensor<128x128x3x3xbf16>) -> tensor<1x128x28x28xbf16>
    %68 = "ttir.batch_norm_inference"(%67, %arg96, %arg95, %arg94, %arg93) <{dimension = 1 : i32, epsilon = 9.99999974E-6 : f32}> : (tensor<1x128x28x28xbf16>, tensor<128xbf16>, tensor<128xbf16>, tensor<128xbf16>, tensor<128xbf16>) -> tensor<1x128x28x28xbf16>
    %69 = "ttir.maximum"(%68, %8) : (tensor<1x128x28x28xbf16>, tensor<1x128x28x28xbf16>) -> tensor<1x128x28x28xbf16>
    %70 = "ttir.convolution"(%69, %arg92) <{batch_group_count = 1 : i64, convolution_layout = #ttir<convolution_layout input_batch = 0, input_feature = 1, input_spatial_dimensions = 2x3, kernel_output_feature = 0, kernel_input_feature = 1, kernel_spatial_dimensions = 2x3, output_batch = 0, output_feature = 1, output_spatial_dimensions = 2x3>, feature_group_count = 1 : i64, input_dilation = array<i64: 1, 1>, padding = array<i64: 0, 0, 0, 0>, weight_dilation = array<i64: 1, 1>, window_reversal = array<i1: false, false>, window_strides = array<i64: 1, 1>}> : (tensor<1x128x28x28xbf16>, tensor<512x128x1x1xbf16>) -> tensor<1x512x28x28xbf16>
    %71 = "ttir.batch_norm_inference"(%70, %arg91, %arg90, %arg89, %arg88) <{dimension = 1 : i32, epsilon = 9.99999974E-6 : f32}> : (tensor<1x512x28x28xbf16>, tensor<512xbf16>, tensor<512xbf16>, tensor<512xbf16>, tensor<512xbf16>) -> tensor<1x512x28x28xbf16>
    %72 = "ttir.add"(%71, %63) : (tensor<1x512x28x28xbf16>, tensor<1x512x28x28xbf16>) -> tensor<1x512x28x28xbf16>
    %73 = "ttir.maximum"(%72, %7) : (tensor<1x512x28x28xbf16>, tensor<1x512x28x28xbf16>) -> tensor<1x512x28x28xbf16>
    %74 = "ttir.convolution"(%73, %arg117) <{batch_group_count = 1 : i64, convolution_layout = #ttir<convolution_layout input_batch = 0, input_feature = 1, input_spatial_dimensions = 2x3, kernel_output_feature = 0, kernel_input_feature = 1, kernel_spatial_dimensions = 2x3, output_batch = 0, output_feature = 1, output_spatial_dimensions = 2x3>, feature_group_count = 1 : i64, input_dilation = array<i64: 1, 1>, padding = array<i64: 0, 0, 0, 0>, weight_dilation = array<i64: 1, 1>, window_reversal = array<i1: false, false>, window_strides = array<i64: 1, 1>}> : (tensor<1x512x28x28xbf16>, tensor<128x512x1x1xbf16>) -> tensor<1x128x28x28xbf16>
    %75 = "ttir.batch_norm_inference"(%74, %arg116, %arg115, %arg114, %arg113) <{dimension = 1 : i32, epsilon = 9.99999974E-6 : f32}> : (tensor<1x128x28x28xbf16>, tensor<128xbf16>, tensor<128xbf16>, tensor<128xbf16>, tensor<128xbf16>) -> tensor<1x128x28x28xbf16>
    %76 = "ttir.maximum"(%75, %8) : (tensor<1x128x28x28xbf16>, tensor<1x128x28x28xbf16>) -> tensor<1x128x28x28xbf16>
    %77 = "ttir.convolution"(%76, %arg112) <{batch_group_count = 1 : i64, convolution_layout = #ttir<convolution_layout input_batch = 0, input_feature = 1, input_spatial_dimensions = 2x3, kernel_output_feature = 0, kernel_input_feature = 1, kernel_spatial_dimensions = 2x3, output_batch = 0, output_feature = 1, output_spatial_dimensions = 2x3>, feature_group_count = 1 : i64, input_dilation = array<i64: 1, 1>, padding = array<i64: 1, 1, 1, 1>, weight_dilation = array<i64: 1, 1>, window_reversal = array<i1: false, false>, window_strides = array<i64: 1, 1>}> : (tensor<1x128x28x28xbf16>, tensor<128x128x3x3xbf16>) -> tensor<1x128x28x28xbf16>
    %78 = "ttir.batch_norm_inference"(%77, %arg111, %arg110, %arg109, %arg108) <{dimension = 1 : i32, epsilon = 9.99999974E-6 : f32}> : (tensor<1x128x28x28xbf16>, tensor<128xbf16>, tensor<128xbf16>, tensor<128xbf16>, tensor<128xbf16>) -> tensor<1x128x28x28xbf16>
    %79 = "ttir.maximum"(%78, %8) : (tensor<1x128x28x28xbf16>, tensor<1x128x28x28xbf16>) -> tensor<1x128x28x28xbf16>
    %80 = "ttir.convolution"(%79, %arg107) <{batch_group_count = 1 : i64, convolution_layout = #ttir<convolution_layout input_batch = 0, input_feature = 1, input_spatial_dimensions = 2x3, kernel_output_feature = 0, kernel_input_feature = 1, kernel_spatial_dimensions = 2x3, output_batch = 0, output_feature = 1, output_spatial_dimensions = 2x3>, feature_group_count = 1 : i64, input_dilation = array<i64: 1, 1>, padding = array<i64: 0, 0, 0, 0>, weight_dilation = array<i64: 1, 1>, window_reversal = array<i1: false, false>, window_strides = array<i64: 1, 1>}> : (tensor<1x128x28x28xbf16>, tensor<512x128x1x1xbf16>) -> tensor<1x512x28x28xbf16>
    %81 = "ttir.batch_norm_inference"(%80, %arg106, %arg105, %arg104, %arg103) <{dimension = 1 : i32, epsilon = 9.99999974E-6 : f32}> : (tensor<1x512x28x28xbf16>, tensor<512xbf16>, tensor<512xbf16>, tensor<512xbf16>, tensor<512xbf16>) -> tensor<1x512x28x28xbf16>
    %82 = "ttir.add"(%81, %73) : (tensor<1x512x28x28xbf16>, tensor<1x512x28x28xbf16>) -> tensor<1x512x28x28xbf16>
    %83 = "ttir.maximum"(%82, %7) : (tensor<1x512x28x28xbf16>, tensor<1x512x28x28xbf16>) -> tensor<1x512x28x28xbf16>
    %84 = "ttir.convolution"(%83, %arg132) <{batch_group_count = 1 : i64, convolution_layout = #ttir<convolution_layout input_batch = 0, input_feature = 1, input_spatial_dimensions = 2x3, kernel_output_feature = 0, kernel_input_feature = 1, kernel_spatial_dimensions = 2x3, output_batch = 0, output_feature = 1, output_spatial_dimensions = 2x3>, feature_group_count = 1 : i64, input_dilation = array<i64: 1, 1>, padding = array<i64: 0, 0, 0, 0>, weight_dilation = array<i64: 1, 1>, window_reversal = array<i1: false, false>, window_strides = array<i64: 1, 1>}> : (tensor<1x512x28x28xbf16>, tensor<128x512x1x1xbf16>) -> tensor<1x128x28x28xbf16>
    %85 = "ttir.batch_norm_inference"(%84, %arg131, %arg130, %arg129, %arg128) <{dimension = 1 : i32, epsilon = 9.99999974E-6 : f32}> : (tensor<1x128x28x28xbf16>, tensor<128xbf16>, tensor<128xbf16>, tensor<128xbf16>, tensor<128xbf16>) -> tensor<1x128x28x28xbf16>
    %86 = "ttir.maximum"(%85, %8) : (tensor<1x128x28x28xbf16>, tensor<1x128x28x28xbf16>) -> tensor<1x128x28x28xbf16>
    %87 = "ttir.convolution"(%86, %arg127) <{batch_group_count = 1 : i64, convolution_layout = #ttir<convolution_layout input_batch = 0, input_feature = 1, input_spatial_dimensions = 2x3, kernel_output_feature = 0, kernel_input_feature = 1, kernel_spatial_dimensions = 2x3, output_batch = 0, output_feature = 1, output_spatial_dimensions = 2x3>, feature_group_count = 1 : i64, input_dilation = array<i64: 1, 1>, padding = array<i64: 1, 1, 1, 1>, weight_dilation = array<i64: 1, 1>, window_reversal = array<i1: false, false>, window_strides = array<i64: 1, 1>}> : (tensor<1x128x28x28xbf16>, tensor<128x128x3x3xbf16>) -> tensor<1x128x28x28xbf16>
    %88 = "ttir.batch_norm_inference"(%87, %arg126, %arg125, %arg124, %arg123) <{dimension = 1 : i32, epsilon = 9.99999974E-6 : f32}> : (tensor<1x128x28x28xbf16>, tensor<128xbf16>, tensor<128xbf16>, tensor<128xbf16>, tensor<128xbf16>) -> tensor<1x128x28x28xbf16>
    %89 = "ttir.maximum"(%88, %8) : (tensor<1x128x28x28xbf16>, tensor<1x128x28x28xbf16>) -> tensor<1x128x28x28xbf16>
    %90 = "ttir.convolution"(%89, %arg122) <{batch_group_count = 1 : i64, convolution_layout = #ttir<convolution_layout input_batch = 0, input_feature = 1, input_spatial_dimensions = 2x3, kernel_output_feature = 0, kernel_input_feature = 1, kernel_spatial_dimensions = 2x3, output_batch = 0, output_feature = 1, output_spatial_dimensions = 2x3>, feature_group_count = 1 : i64, input_dilation = array<i64: 1, 1>, padding = array<i64: 0, 0, 0, 0>, weight_dilation = array<i64: 1, 1>, window_reversal = array<i1: false, false>, window_strides = array<i64: 1, 1>}> : (tensor<1x128x28x28xbf16>, tensor<512x128x1x1xbf16>) -> tensor<1x512x28x28xbf16>
    %91 = "ttir.batch_norm_inference"(%90, %arg121, %arg120, %arg119, %arg118) <{dimension = 1 : i32, epsilon = 9.99999974E-6 : f32}> : (tensor<1x512x28x28xbf16>, tensor<512xbf16>, tensor<512xbf16>, tensor<512xbf16>, tensor<512xbf16>) -> tensor<1x512x28x28xbf16>
    %92 = "ttir.add"(%91, %83) : (tensor<1x512x28x28xbf16>, tensor<1x512x28x28xbf16>) -> tensor<1x512x28x28xbf16>
    %93 = "ttir.maximum"(%92, %7) : (tensor<1x512x28x28xbf16>, tensor<1x512x28x28xbf16>) -> tensor<1x512x28x28xbf16>
    %94 = "ttir.convolution"(%93, %arg147) <{batch_group_count = 1 : i64, convolution_layout = #ttir<convolution_layout input_batch = 0, input_feature = 1, input_spatial_dimensions = 2x3, kernel_output_feature = 0, kernel_input_feature = 1, kernel_spatial_dimensions = 2x3, output_batch = 0, output_feature = 1, output_spatial_dimensions = 2x3>, feature_group_count = 1 : i64, input_dilation = array<i64: 1, 1>, padding = array<i64: 0, 0, 0, 0>, weight_dilation = array<i64: 1, 1>, window_reversal = array<i1: false, false>, window_strides = array<i64: 1, 1>}> : (tensor<1x512x28x28xbf16>, tensor<256x512x1x1xbf16>) -> tensor<1x256x28x28xbf16>
    %95 = "ttir.batch_norm_inference"(%94, %arg146, %arg145, %arg144, %arg143) <{dimension = 1 : i32, epsilon = 9.99999974E-6 : f32}> : (tensor<1x256x28x28xbf16>, tensor<256xbf16>, tensor<256xbf16>, tensor<256xbf16>, tensor<256xbf16>) -> tensor<1x256x28x28xbf16>
    %96 = "ttir.maximum"(%95, %6) : (tensor<1x256x28x28xbf16>, tensor<1x256x28x28xbf16>) -> tensor<1x256x28x28xbf16>
    %97 = "ttir.convolution"(%96, %arg142) <{batch_group_count = 1 : i64, convolution_layout = #ttir<convolution_layout input_batch = 0, input_feature = 1, input_spatial_dimensions = 2x3, kernel_output_feature = 0, kernel_input_feature = 1, kernel_spatial_dimensions = 2x3, output_batch = 0, output_feature = 1, output_spatial_dimensions = 2x3>, feature_group_count = 1 : i64, input_dilation = array<i64: 1, 1>, padding = array<i64: 1, 1, 1, 1>, weight_dilation = array<i64: 1, 1>, window_reversal = array<i1: false, false>, window_strides = array<i64: 2, 2>}> : (tensor<1x256x28x28xbf16>, tensor<256x256x3x3xbf16>) -> tensor<1x256x14x14xbf16>
    %98 = "ttir.batch_norm_inference"(%97, %arg141, %arg140, %arg139, %arg138) <{dimension = 1 : i32, epsilon = 9.99999974E-6 : f32}> : (tensor<1x256x14x14xbf16>, tensor<256xbf16>, tensor<256xbf16>, tensor<256xbf16>, tensor<256xbf16>) -> tensor<1x256x14x14xbf16>
    %99 = "ttir.maximum"(%98, %5) : (tensor<1x256x14x14xbf16>, tensor<1x256x14x14xbf16>) -> tensor<1x256x14x14xbf16>
    %100 = "ttir.convolution"(%99, %arg137) <{batch_group_count = 1 : i64, convolution_layout = #ttir<convolution_layout input_batch = 0, input_feature = 1, input_spatial_dimensions = 2x3, kernel_output_feature = 0, kernel_input_feature = 1, kernel_spatial_dimensions = 2x3, output_batch = 0, output_feature = 1, output_spatial_dimensions = 2x3>, feature_group_count = 1 : i64, input_dilation = array<i64: 1, 1>, padding = array<i64: 0, 0, 0, 0>, weight_dilation = array<i64: 1, 1>, window_reversal = array<i1: false, false>, window_strides = array<i64: 1, 1>}> : (tensor<1x256x14x14xbf16>, tensor<1024x256x1x1xbf16>) -> tensor<1x1024x14x14xbf16>
    %101 = "ttir.batch_norm_inference"(%100, %arg136, %arg135, %arg134, %arg133) <{dimension = 1 : i32, epsilon = 9.99999974E-6 : f32}> : (tensor<1x1024x14x14xbf16>, tensor<1024xbf16>, tensor<1024xbf16>, tensor<1024xbf16>, tensor<1024xbf16>) -> tensor<1x1024x14x14xbf16>
    %102 = "ttir.convolution"(%93, %arg11) <{batch_group_count = 1 : i64, convolution_layout = #ttir<convolution_layout input_batch = 0, input_feature = 1, input_spatial_dimensions = 2x3, kernel_output_feature = 0, kernel_input_feature = 1, kernel_spatial_dimensions = 2x3, output_batch = 0, output_feature = 1, output_spatial_dimensions = 2x3>, feature_group_count = 1 : i64, input_dilation = array<i64: 1, 1>, padding = array<i64: 0, 0, 0, 0>, weight_dilation = array<i64: 1, 1>, window_reversal = array<i1: false, false>, window_strides = array<i64: 2, 2>}> : (tensor<1x512x28x28xbf16>, tensor<1024x512x1x1xbf16>) -> tensor<1x1024x14x14xbf16>
    %103 = "ttir.batch_norm_inference"(%102, %arg10, %arg9, %arg8, %arg7) <{dimension = 1 : i32, epsilon = 9.99999974E-6 : f32}> : (tensor<1x1024x14x14xbf16>, tensor<1024xbf16>, tensor<1024xbf16>, tensor<1024xbf16>, tensor<1024xbf16>) -> tensor<1x1024x14x14xbf16>
    %104 = "ttir.add"(%101, %103) : (tensor<1x1024x14x14xbf16>, tensor<1x1024x14x14xbf16>) -> tensor<1x1024x14x14xbf16>
    %105 = "ttir.maximum"(%104, %4) : (tensor<1x1024x14x14xbf16>, tensor<1x1024x14x14xbf16>) -> tensor<1x1024x14x14xbf16>
    %106 = "ttir.convolution"(%105, %arg162) <{batch_group_count = 1 : i64, convolution_layout = #ttir<convolution_layout input_batch = 0, input_feature = 1, input_spatial_dimensions = 2x3, kernel_output_feature = 0, kernel_input_feature = 1, kernel_spatial_dimensions = 2x3, output_batch = 0, output_feature = 1, output_spatial_dimensions = 2x3>, feature_group_count = 1 : i64, input_dilation = array<i64: 1, 1>, padding = array<i64: 0, 0, 0, 0>, weight_dilation = array<i64: 1, 1>, window_reversal = array<i1: false, false>, window_strides = array<i64: 1, 1>}> : (tensor<1x1024x14x14xbf16>, tensor<256x1024x1x1xbf16>) -> tensor<1x256x14x14xbf16>
    %107 = "ttir.batch_norm_inference"(%106, %arg161, %arg160, %arg159, %arg158) <{dimension = 1 : i32, epsilon = 9.99999974E-6 : f32}> : (tensor<1x256x14x14xbf16>, tensor<256xbf16>, tensor<256xbf16>, tensor<256xbf16>, tensor<256xbf16>) -> tensor<1x256x14x14xbf16>
    %108 = "ttir.maximum"(%107, %5) : (tensor<1x256x14x14xbf16>, tensor<1x256x14x14xbf16>) -> tensor<1x256x14x14xbf16>
    %109 = "ttir.convolution"(%108, %arg157) <{batch_group_count = 1 : i64, convolution_layout = #ttir<convolution_layout input_batch = 0, input_feature = 1, input_spatial_dimensions = 2x3, kernel_output_feature = 0, kernel_input_feature = 1, kernel_spatial_dimensions = 2x3, output_batch = 0, output_feature = 1, output_spatial_dimensions = 2x3>, feature_group_count = 1 : i64, input_dilation = array<i64: 1, 1>, padding = array<i64: 1, 1, 1, 1>, weight_dilation = array<i64: 1, 1>, window_reversal = array<i1: false, false>, window_strides = array<i64: 1, 1>}> : (tensor<1x256x14x14xbf16>, tensor<256x256x3x3xbf16>) -> tensor<1x256x14x14xbf16>
    %110 = "ttir.batch_norm_inference"(%109, %arg156, %arg155, %arg154, %arg153) <{dimension = 1 : i32, epsilon = 9.99999974E-6 : f32}> : (tensor<1x256x14x14xbf16>, tensor<256xbf16>, tensor<256xbf16>, tensor<256xbf16>, tensor<256xbf16>) -> tensor<1x256x14x14xbf16>
    %111 = "ttir.maximum"(%110, %5) : (tensor<1x256x14x14xbf16>, tensor<1x256x14x14xbf16>) -> tensor<1x256x14x14xbf16>
    %112 = "ttir.convolution"(%111, %arg152) <{batch_group_count = 1 : i64, convolution_layout = #ttir<convolution_layout input_batch = 0, input_feature = 1, input_spatial_dimensions = 2x3, kernel_output_feature = 0, kernel_input_feature = 1, kernel_spatial_dimensions = 2x3, output_batch = 0, output_feature = 1, output_spatial_dimensions = 2x3>, feature_group_count = 1 : i64, input_dilation = array<i64: 1, 1>, padding = array<i64: 0, 0, 0, 0>, weight_dilation = array<i64: 1, 1>, window_reversal = array<i1: false, false>, window_strides = array<i64: 1, 1>}> : (tensor<1x256x14x14xbf16>, tensor<1024x256x1x1xbf16>) -> tensor<1x1024x14x14xbf16>
    %113 = "ttir.batch_norm_inference"(%112, %arg151, %arg150, %arg149, %arg148) <{dimension = 1 : i32, epsilon = 9.99999974E-6 : f32}> : (tensor<1x1024x14x14xbf16>, tensor<1024xbf16>, tensor<1024xbf16>, tensor<1024xbf16>, tensor<1024xbf16>) -> tensor<1x1024x14x14xbf16>
    %114 = "ttir.add"(%113, %105) : (tensor<1x1024x14x14xbf16>, tensor<1x1024x14x14xbf16>) -> tensor<1x1024x14x14xbf16>
    %115 = "ttir.maximum"(%114, %4) : (tensor<1x1024x14x14xbf16>, tensor<1x1024x14x14xbf16>) -> tensor<1x1024x14x14xbf16>
    %116 = "ttir.convolution"(%115, %arg177) <{batch_group_count = 1 : i64, convolution_layout = #ttir<convolution_layout input_batch = 0, input_feature = 1, input_spatial_dimensions = 2x3, kernel_output_feature = 0, kernel_input_feature = 1, kernel_spatial_dimensions = 2x3, output_batch = 0, output_feature = 1, output_spatial_dimensions = 2x3>, feature_group_count = 1 : i64, input_dilation = array<i64: 1, 1>, padding = array<i64: 0, 0, 0, 0>, weight_dilation = array<i64: 1, 1>, window_reversal = array<i1: false, false>, window_strides = array<i64: 1, 1>}> : (tensor<1x1024x14x14xbf16>, tensor<256x1024x1x1xbf16>) -> tensor<1x256x14x14xbf16>
    %117 = "ttir.batch_norm_inference"(%116, %arg176, %arg175, %arg174, %arg173) <{dimension = 1 : i32, epsilon = 9.99999974E-6 : f32}> : (tensor<1x256x14x14xbf16>, tensor<256xbf16>, tensor<256xbf16>, tensor<256xbf16>, tensor<256xbf16>) -> tensor<1x256x14x14xbf16>
    %118 = "ttir.maximum"(%117, %5) : (tensor<1x256x14x14xbf16>, tensor<1x256x14x14xbf16>) -> tensor<1x256x14x14xbf16>
    %119 = "ttir.convolution"(%118, %arg172) <{batch_group_count = 1 : i64, convolution_layout = #ttir<convolution_layout input_batch = 0, input_feature = 1, input_spatial_dimensions = 2x3, kernel_output_feature = 0, kernel_input_feature = 1, kernel_spatial_dimensions = 2x3, output_batch = 0, output_feature = 1, output_spatial_dimensions = 2x3>, feature_group_count = 1 : i64, input_dilation = array<i64: 1, 1>, padding = array<i64: 1, 1, 1, 1>, weight_dilation = array<i64: 1, 1>, window_reversal = array<i1: false, false>, window_strides = array<i64: 1, 1>}> : (tensor<1x256x14x14xbf16>, tensor<256x256x3x3xbf16>) -> tensor<1x256x14x14xbf16>
    %120 = "ttir.batch_norm_inference"(%119, %arg171, %arg170, %arg169, %arg168) <{dimension = 1 : i32, epsilon = 9.99999974E-6 : f32}> : (tensor<1x256x14x14xbf16>, tensor<256xbf16>, tensor<256xbf16>, tensor<256xbf16>, tensor<256xbf16>) -> tensor<1x256x14x14xbf16>
    %121 = "ttir.maximum"(%120, %5) : (tensor<1x256x14x14xbf16>, tensor<1x256x14x14xbf16>) -> tensor<1x256x14x14xbf16>
    %122 = "ttir.convolution"(%121, %arg167) <{batch_group_count = 1 : i64, convolution_layout = #ttir<convolution_layout input_batch = 0, input_feature = 1, input_spatial_dimensions = 2x3, kernel_output_feature = 0, kernel_input_feature = 1, kernel_spatial_dimensions = 2x3, output_batch = 0, output_feature = 1, output_spatial_dimensions = 2x3>, feature_group_count = 1 : i64, input_dilation = array<i64: 1, 1>, padding = array<i64: 0, 0, 0, 0>, weight_dilation = array<i64: 1, 1>, window_reversal = array<i1: false, false>, window_strides = array<i64: 1, 1>}> : (tensor<1x256x14x14xbf16>, tensor<1024x256x1x1xbf16>) -> tensor<1x1024x14x14xbf16>
    %123 = "ttir.batch_norm_inference"(%122, %arg166, %arg165, %arg164, %arg163) <{dimension = 1 : i32, epsilon = 9.99999974E-6 : f32}> : (tensor<1x1024x14x14xbf16>, tensor<1024xbf16>, tensor<1024xbf16>, tensor<1024xbf16>, tensor<1024xbf16>) -> tensor<1x1024x14x14xbf16>
    %124 = "ttir.add"(%123, %115) : (tensor<1x1024x14x14xbf16>, tensor<1x1024x14x14xbf16>) -> tensor<1x1024x14x14xbf16>
    %125 = "ttir.maximum"(%124, %4) : (tensor<1x1024x14x14xbf16>, tensor<1x1024x14x14xbf16>) -> tensor<1x1024x14x14xbf16>
    %126 = "ttir.convolution"(%125, %arg192) <{batch_group_count = 1 : i64, convolution_layout = #ttir<convolution_layout input_batch = 0, input_feature = 1, input_spatial_dimensions = 2x3, kernel_output_feature = 0, kernel_input_feature = 1, kernel_spatial_dimensions = 2x3, output_batch = 0, output_feature = 1, output_spatial_dimensions = 2x3>, feature_group_count = 1 : i64, input_dilation = array<i64: 1, 1>, padding = array<i64: 0, 0, 0, 0>, weight_dilation = array<i64: 1, 1>, window_reversal = array<i1: false, false>, window_strides = array<i64: 1, 1>}> : (tensor<1x1024x14x14xbf16>, tensor<256x1024x1x1xbf16>) -> tensor<1x256x14x14xbf16>
    %127 = "ttir.batch_norm_inference"(%126, %arg191, %arg190, %arg189, %arg188) <{dimension = 1 : i32, epsilon = 9.99999974E-6 : f32}> : (tensor<1x256x14x14xbf16>, tensor<256xbf16>, tensor<256xbf16>, tensor<256xbf16>, tensor<256xbf16>) -> tensor<1x256x14x14xbf16>
    %128 = "ttir.maximum"(%127, %5) : (tensor<1x256x14x14xbf16>, tensor<1x256x14x14xbf16>) -> tensor<1x256x14x14xbf16>
    %129 = "ttir.convolution"(%128, %arg187) <{batch_group_count = 1 : i64, convolution_layout = #ttir<convolution_layout input_batch = 0, input_feature = 1, input_spatial_dimensions = 2x3, kernel_output_feature = 0, kernel_input_feature = 1, kernel_spatial_dimensions = 2x3, output_batch = 0, output_feature = 1, output_spatial_dimensions = 2x3>, feature_group_count = 1 : i64, input_dilation = array<i64: 1, 1>, padding = array<i64: 1, 1, 1, 1>, weight_dilation = array<i64: 1, 1>, window_reversal = array<i1: false, false>, window_strides = array<i64: 1, 1>}> : (tensor<1x256x14x14xbf16>, tensor<256x256x3x3xbf16>) -> tensor<1x256x14x14xbf16>
    %130 = "ttir.batch_norm_inference"(%129, %arg186, %arg185, %arg184, %arg183) <{dimension = 1 : i32, epsilon = 9.99999974E-6 : f32}> : (tensor<1x256x14x14xbf16>, tensor<256xbf16>, tensor<256xbf16>, tensor<256xbf16>, tensor<256xbf16>) -> tensor<1x256x14x14xbf16>
    %131 = "ttir.maximum"(%130, %5) : (tensor<1x256x14x14xbf16>, tensor<1x256x14x14xbf16>) -> tensor<1x256x14x14xbf16>
    %132 = "ttir.convolution"(%131, %arg182) <{batch_group_count = 1 : i64, convolution_layout = #ttir<convolution_layout input_batch = 0, input_feature = 1, input_spatial_dimensions = 2x3, kernel_output_feature = 0, kernel_input_feature = 1, kernel_spatial_dimensions = 2x3, output_batch = 0, output_feature = 1, output_spatial_dimensions = 2x3>, feature_group_count = 1 : i64, input_dilation = array<i64: 1, 1>, padding = array<i64: 0, 0, 0, 0>, weight_dilation = array<i64: 1, 1>, window_reversal = array<i1: false, false>, window_strides = array<i64: 1, 1>}> : (tensor<1x256x14x14xbf16>, tensor<1024x256x1x1xbf16>) -> tensor<1x1024x14x14xbf16>
    %133 = "ttir.batch_norm_inference"(%132, %arg181, %arg180, %arg179, %arg178) <{dimension = 1 : i32, epsilon = 9.99999974E-6 : f32}> : (tensor<1x1024x14x14xbf16>, tensor<1024xbf16>, tensor<1024xbf16>, tensor<1024xbf16>, tensor<1024xbf16>) -> tensor<1x1024x14x14xbf16>
    %134 = "ttir.add"(%133, %125) : (tensor<1x1024x14x14xbf16>, tensor<1x1024x14x14xbf16>) -> tensor<1x1024x14x14xbf16>
    %135 = "ttir.maximum"(%134, %4) : (tensor<1x1024x14x14xbf16>, tensor<1x1024x14x14xbf16>) -> tensor<1x1024x14x14xbf16>
    %136 = "ttir.convolution"(%135, %arg207) <{batch_group_count = 1 : i64, convolution_layout = #ttir<convolution_layout input_batch = 0, input_feature = 1, input_spatial_dimensions = 2x3, kernel_output_feature = 0, kernel_input_feature = 1, kernel_spatial_dimensions = 2x3, output_batch = 0, output_feature = 1, output_spatial_dimensions = 2x3>, feature_group_count = 1 : i64, input_dilation = array<i64: 1, 1>, padding = array<i64: 0, 0, 0, 0>, weight_dilation = array<i64: 1, 1>, window_reversal = array<i1: false, false>, window_strides = array<i64: 1, 1>}> : (tensor<1x1024x14x14xbf16>, tensor<256x1024x1x1xbf16>) -> tensor<1x256x14x14xbf16>
    %137 = "ttir.batch_norm_inference"(%136, %arg206, %arg205, %arg204, %arg203) <{dimension = 1 : i32, epsilon = 9.99999974E-6 : f32}> : (tensor<1x256x14x14xbf16>, tensor<256xbf16>, tensor<256xbf16>, tensor<256xbf16>, tensor<256xbf16>) -> tensor<1x256x14x14xbf16>
    %138 = "ttir.maximum"(%137, %5) : (tensor<1x256x14x14xbf16>, tensor<1x256x14x14xbf16>) -> tensor<1x256x14x14xbf16>
    %139 = "ttir.convolution"(%138, %arg202) <{batch_group_count = 1 : i64, convolution_layout = #ttir<convolution_layout input_batch = 0, input_feature = 1, input_spatial_dimensions = 2x3, kernel_output_feature = 0, kernel_input_feature = 1, kernel_spatial_dimensions = 2x3, output_batch = 0, output_feature = 1, output_spatial_dimensions = 2x3>, feature_group_count = 1 : i64, input_dilation = array<i64: 1, 1>, padding = array<i64: 1, 1, 1, 1>, weight_dilation = array<i64: 1, 1>, window_reversal = array<i1: false, false>, window_strides = array<i64: 1, 1>}> : (tensor<1x256x14x14xbf16>, tensor<256x256x3x3xbf16>) -> tensor<1x256x14x14xbf16>
    %140 = "ttir.batch_norm_inference"(%139, %arg201, %arg200, %arg199, %arg198) <{dimension = 1 : i32, epsilon = 9.99999974E-6 : f32}> : (tensor<1x256x14x14xbf16>, tensor<256xbf16>, tensor<256xbf16>, tensor<256xbf16>, tensor<256xbf16>) -> tensor<1x256x14x14xbf16>
    %141 = "ttir.maximum"(%140, %5) : (tensor<1x256x14x14xbf16>, tensor<1x256x14x14xbf16>) -> tensor<1x256x14x14xbf16>
    %142 = "ttir.convolution"(%141, %arg197) <{batch_group_count = 1 : i64, convolution_layout = #ttir<convolution_layout input_batch = 0, input_feature = 1, input_spatial_dimensions = 2x3, kernel_output_feature = 0, kernel_input_feature = 1, kernel_spatial_dimensions = 2x3, output_batch = 0, output_feature = 1, output_spatial_dimensions = 2x3>, feature_group_count = 1 : i64, input_dilation = array<i64: 1, 1>, padding = array<i64: 0, 0, 0, 0>, weight_dilation = array<i64: 1, 1>, window_reversal = array<i1: false, false>, window_strides = array<i64: 1, 1>}> : (tensor<1x256x14x14xbf16>, tensor<1024x256x1x1xbf16>) -> tensor<1x1024x14x14xbf16>
    %143 = "ttir.batch_norm_inference"(%142, %arg196, %arg195, %arg194, %arg193) <{dimension = 1 : i32, epsilon = 9.99999974E-6 : f32}> : (tensor<1x1024x14x14xbf16>, tensor<1024xbf16>, tensor<1024xbf16>, tensor<1024xbf16>, tensor<1024xbf16>) -> tensor<1x1024x14x14xbf16>
    %144 = "ttir.add"(%143, %135) : (tensor<1x1024x14x14xbf16>, tensor<1x1024x14x14xbf16>) -> tensor<1x1024x14x14xbf16>
    %145 = "ttir.maximum"(%144, %4) : (tensor<1x1024x14x14xbf16>, tensor<1x1024x14x14xbf16>) -> tensor<1x1024x14x14xbf16>
    %146 = "ttir.convolution"(%145, %arg222) <{batch_group_count = 1 : i64, convolution_layout = #ttir<convolution_layout input_batch = 0, input_feature = 1, input_spatial_dimensions = 2x3, kernel_output_feature = 0, kernel_input_feature = 1, kernel_spatial_dimensions = 2x3, output_batch = 0, output_feature = 1, output_spatial_dimensions = 2x3>, feature_group_count = 1 : i64, input_dilation = array<i64: 1, 1>, padding = array<i64: 0, 0, 0, 0>, weight_dilation = array<i64: 1, 1>, window_reversal = array<i1: false, false>, window_strides = array<i64: 1, 1>}> : (tensor<1x1024x14x14xbf16>, tensor<256x1024x1x1xbf16>) -> tensor<1x256x14x14xbf16>
    %147 = "ttir.batch_norm_inference"(%146, %arg221, %arg220, %arg219, %arg218) <{dimension = 1 : i32, epsilon = 9.99999974E-6 : f32}> : (tensor<1x256x14x14xbf16>, tensor<256xbf16>, tensor<256xbf16>, tensor<256xbf16>, tensor<256xbf16>) -> tensor<1x256x14x14xbf16>
    %148 = "ttir.maximum"(%147, %5) : (tensor<1x256x14x14xbf16>, tensor<1x256x14x14xbf16>) -> tensor<1x256x14x14xbf16>
    %149 = "ttir.convolution"(%148, %arg217) <{batch_group_count = 1 : i64, convolution_layout = #ttir<convolution_layout input_batch = 0, input_feature = 1, input_spatial_dimensions = 2x3, kernel_output_feature = 0, kernel_input_feature = 1, kernel_spatial_dimensions = 2x3, output_batch = 0, output_feature = 1, output_spatial_dimensions = 2x3>, feature_group_count = 1 : i64, input_dilation = array<i64: 1, 1>, padding = array<i64: 1, 1, 1, 1>, weight_dilation = array<i64: 1, 1>, window_reversal = array<i1: false, false>, window_strides = array<i64: 1, 1>}> : (tensor<1x256x14x14xbf16>, tensor<256x256x3x3xbf16>) -> tensor<1x256x14x14xbf16>
    %150 = "ttir.batch_norm_inference"(%149, %arg216, %arg215, %arg214, %arg213) <{dimension = 1 : i32, epsilon = 9.99999974E-6 : f32}> : (tensor<1x256x14x14xbf16>, tensor<256xbf16>, tensor<256xbf16>, tensor<256xbf16>, tensor<256xbf16>) -> tensor<1x256x14x14xbf16>
    %151 = "ttir.maximum"(%150, %5) : (tensor<1x256x14x14xbf16>, tensor<1x256x14x14xbf16>) -> tensor<1x256x14x14xbf16>
    %152 = "ttir.convolution"(%151, %arg212) <{batch_group_count = 1 : i64, convolution_layout = #ttir<convolution_layout input_batch = 0, input_feature = 1, input_spatial_dimensions = 2x3, kernel_output_feature = 0, kernel_input_feature = 1, kernel_spatial_dimensions = 2x3, output_batch = 0, output_feature = 1, output_spatial_dimensions = 2x3>, feature_group_count = 1 : i64, input_dilation = array<i64: 1, 1>, padding = array<i64: 0, 0, 0, 0>, weight_dilation = array<i64: 1, 1>, window_reversal = array<i1: false, false>, window_strides = array<i64: 1, 1>}> : (tensor<1x256x14x14xbf16>, tensor<1024x256x1x1xbf16>) -> tensor<1x1024x14x14xbf16>
    %153 = "ttir.batch_norm_inference"(%152, %arg211, %arg210, %arg209, %arg208) <{dimension = 1 : i32, epsilon = 9.99999974E-6 : f32}> : (tensor<1x1024x14x14xbf16>, tensor<1024xbf16>, tensor<1024xbf16>, tensor<1024xbf16>, tensor<1024xbf16>) -> tensor<1x1024x14x14xbf16>
    %154 = "ttir.add"(%153, %145) : (tensor<1x1024x14x14xbf16>, tensor<1x1024x14x14xbf16>) -> tensor<1x1024x14x14xbf16>
    %155 = "ttir.maximum"(%154, %4) : (tensor<1x1024x14x14xbf16>, tensor<1x1024x14x14xbf16>) -> tensor<1x1024x14x14xbf16>
    %156 = "ttir.convolution"(%155, %arg237) <{batch_group_count = 1 : i64, convolution_layout = #ttir<convolution_layout input_batch = 0, input_feature = 1, input_spatial_dimensions = 2x3, kernel_output_feature = 0, kernel_input_feature = 1, kernel_spatial_dimensions = 2x3, output_batch = 0, output_feature = 1, output_spatial_dimensions = 2x3>, feature_group_count = 1 : i64, input_dilation = array<i64: 1, 1>, padding = array<i64: 0, 0, 0, 0>, weight_dilation = array<i64: 1, 1>, window_reversal = array<i1: false, false>, window_strides = array<i64: 1, 1>}> : (tensor<1x1024x14x14xbf16>, tensor<512x1024x1x1xbf16>) -> tensor<1x512x14x14xbf16>
    %157 = "ttir.batch_norm_inference"(%156, %arg236, %arg235, %arg234, %arg233) <{dimension = 1 : i32, epsilon = 9.99999974E-6 : f32}> : (tensor<1x512x14x14xbf16>, tensor<512xbf16>, tensor<512xbf16>, tensor<512xbf16>, tensor<512xbf16>) -> tensor<1x512x14x14xbf16>
    %158 = "ttir.maximum"(%157, %3) : (tensor<1x512x14x14xbf16>, tensor<1x512x14x14xbf16>) -> tensor<1x512x14x14xbf16>
    %159 = "ttir.convolution"(%158, %arg232) <{batch_group_count = 1 : i64, convolution_layout = #ttir<convolution_layout input_batch = 0, input_feature = 1, input_spatial_dimensions = 2x3, kernel_output_feature = 0, kernel_input_feature = 1, kernel_spatial_dimensions = 2x3, output_batch = 0, output_feature = 1, output_spatial_dimensions = 2x3>, feature_group_count = 1 : i64, input_dilation = array<i64: 1, 1>, padding = array<i64: 1, 1, 1, 1>, weight_dilation = array<i64: 1, 1>, window_reversal = array<i1: false, false>, window_strides = array<i64: 2, 2>}> : (tensor<1x512x14x14xbf16>, tensor<512x512x3x3xbf16>) -> tensor<1x512x7x7xbf16>
    %160 = "ttir.batch_norm_inference"(%159, %arg231, %arg230, %arg229, %arg228) <{dimension = 1 : i32, epsilon = 9.99999974E-6 : f32}> : (tensor<1x512x7x7xbf16>, tensor<512xbf16>, tensor<512xbf16>, tensor<512xbf16>, tensor<512xbf16>) -> tensor<1x512x7x7xbf16>
    %161 = "ttir.maximum"(%160, %2) : (tensor<1x512x7x7xbf16>, tensor<1x512x7x7xbf16>) -> tensor<1x512x7x7xbf16>
    %162 = "ttir.convolution"(%161, %arg227) <{batch_group_count = 1 : i64, convolution_layout = #ttir<convolution_layout input_batch = 0, input_feature = 1, input_spatial_dimensions = 2x3, kernel_output_feature = 0, kernel_input_feature = 1, kernel_spatial_dimensions = 2x3, output_batch = 0, output_feature = 1, output_spatial_dimensions = 2x3>, feature_group_count = 1 : i64, input_dilation = array<i64: 1, 1>, padding = array<i64: 0, 0, 0, 0>, weight_dilation = array<i64: 1, 1>, window_reversal = array<i1: false, false>, window_strides = array<i64: 1, 1>}> : (tensor<1x512x7x7xbf16>, tensor<2048x512x1x1xbf16>) -> tensor<1x2048x7x7xbf16>
    %163 = "ttir.batch_norm_inference"(%162, %arg226, %arg225, %arg224, %arg223) <{dimension = 1 : i32, epsilon = 9.99999974E-6 : f32}> : (tensor<1x2048x7x7xbf16>, tensor<2048xbf16>, tensor<2048xbf16>, tensor<2048xbf16>, tensor<2048xbf16>) -> tensor<1x2048x7x7xbf16>
    %164 = "ttir.convolution"(%155, %arg6) <{batch_group_count = 1 : i64, convolution_layout = #ttir<convolution_layout input_batch = 0, input_feature = 1, input_spatial_dimensions = 2x3, kernel_output_feature = 0, kernel_input_feature = 1, kernel_spatial_dimensions = 2x3, output_batch = 0, output_feature = 1, output_spatial_dimensions = 2x3>, feature_group_count = 1 : i64, input_dilation = array<i64: 1, 1>, padding = array<i64: 0, 0, 0, 0>, weight_dilation = array<i64: 1, 1>, window_reversal = array<i1: false, false>, window_strides = array<i64: 2, 2>}> : (tensor<1x1024x14x14xbf16>, tensor<2048x1024x1x1xbf16>) -> tensor<1x2048x7x7xbf16>
    %165 = "ttir.batch_norm_inference"(%164, %arg5, %arg4, %arg3, %arg2) <{dimension = 1 : i32, epsilon = 9.99999974E-6 : f32}> : (tensor<1x2048x7x7xbf16>, tensor<2048xbf16>, tensor<2048xbf16>, tensor<2048xbf16>, tensor<2048xbf16>) -> tensor<1x2048x7x7xbf16>
    %166 = "ttir.add"(%163, %165) : (tensor<1x2048x7x7xbf16>, tensor<1x2048x7x7xbf16>) -> tensor<1x2048x7x7xbf16>
    %167 = "ttir.maximum"(%166, %1) : (tensor<1x2048x7x7xbf16>, tensor<1x2048x7x7xbf16>) -> tensor<1x2048x7x7xbf16>
    %168 = "ttir.convolution"(%167, %arg252) <{batch_group_count = 1 : i64, convolution_layout = #ttir<convolution_layout input_batch = 0, input_feature = 1, input_spatial_dimensions = 2x3, kernel_output_feature = 0, kernel_input_feature = 1, kernel_spatial_dimensions = 2x3, output_batch = 0, output_feature = 1, output_spatial_dimensions = 2x3>, feature_group_count = 1 : i64, input_dilation = array<i64: 1, 1>, padding = array<i64: 0, 0, 0, 0>, weight_dilation = array<i64: 1, 1>, window_reversal = array<i1: false, false>, window_strides = array<i64: 1, 1>}> : (tensor<1x2048x7x7xbf16>, tensor<512x2048x1x1xbf16>) -> tensor<1x512x7x7xbf16>
    %169 = "ttir.batch_norm_inference"(%168, %arg251, %arg250, %arg249, %arg248) <{dimension = 1 : i32, epsilon = 9.99999974E-6 : f32}> : (tensor<1x512x7x7xbf16>, tensor<512xbf16>, tensor<512xbf16>, tensor<512xbf16>, tensor<512xbf16>) -> tensor<1x512x7x7xbf16>
    %170 = "ttir.maximum"(%169, %2) : (tensor<1x512x7x7xbf16>, tensor<1x512x7x7xbf16>) -> tensor<1x512x7x7xbf16>
    %171 = "ttir.convolution"(%170, %arg247) <{batch_group_count = 1 : i64, convolution_layout = #ttir<convolution_layout input_batch = 0, input_feature = 1, input_spatial_dimensions = 2x3, kernel_output_feature = 0, kernel_input_feature = 1, kernel_spatial_dimensions = 2x3, output_batch = 0, output_feature = 1, output_spatial_dimensions = 2x3>, feature_group_count = 1 : i64, input_dilation = array<i64: 1, 1>, padding = array<i64: 1, 1, 1, 1>, weight_dilation = array<i64: 1, 1>, window_reversal = array<i1: false, false>, window_strides = array<i64: 1, 1>}> : (tensor<1x512x7x7xbf16>, tensor<512x512x3x3xbf16>) -> tensor<1x512x7x7xbf16>
    %172 = "ttir.batch_norm_inference"(%171, %arg246, %arg245, %arg244, %arg243) <{dimension = 1 : i32, epsilon = 9.99999974E-6 : f32}> : (tensor<1x512x7x7xbf16>, tensor<512xbf16>, tensor<512xbf16>, tensor<512xbf16>, tensor<512xbf16>) -> tensor<1x512x7x7xbf16>
    %173 = "ttir.maximum"(%172, %2) : (tensor<1x512x7x7xbf16>, tensor<1x512x7x7xbf16>) -> tensor<1x512x7x7xbf16>
    %174 = "ttir.convolution"(%173, %arg242) <{batch_group_count = 1 : i64, convolution_layout = #ttir<convolution_layout input_batch = 0, input_feature = 1, input_spatial_dimensions = 2x3, kernel_output_feature = 0, kernel_input_feature = 1, kernel_spatial_dimensions = 2x3, output_batch = 0, output_feature = 1, output_spatial_dimensions = 2x3>, feature_group_count = 1 : i64, input_dilation = array<i64: 1, 1>, padding = array<i64: 0, 0, 0, 0>, weight_dilation = array<i64: 1, 1>, window_reversal = array<i1: false, false>, window_strides = array<i64: 1, 1>}> : (tensor<1x512x7x7xbf16>, tensor<2048x512x1x1xbf16>) -> tensor<1x2048x7x7xbf16>
    %175 = "ttir.batch_norm_inference"(%174, %arg241, %arg240, %arg239, %arg238) <{dimension = 1 : i32, epsilon = 9.99999974E-6 : f32}> : (tensor<1x2048x7x7xbf16>, tensor<2048xbf16>, tensor<2048xbf16>, tensor<2048xbf16>, tensor<2048xbf16>) -> tensor<1x2048x7x7xbf16>
    %176 = "ttir.add"(%175, %167) : (tensor<1x2048x7x7xbf16>, tensor<1x2048x7x7xbf16>) -> tensor<1x2048x7x7xbf16>
    %177 = "ttir.maximum"(%176, %1) : (tensor<1x2048x7x7xbf16>, tensor<1x2048x7x7xbf16>) -> tensor<1x2048x7x7xbf16>
    %178 = "ttir.convolution"(%177, %arg267) <{batch_group_count = 1 : i64, convolution_layout = #ttir<convolution_layout input_batch = 0, input_feature = 1, input_spatial_dimensions = 2x3, kernel_output_feature = 0, kernel_input_feature = 1, kernel_spatial_dimensions = 2x3, output_batch = 0, output_feature = 1, output_spatial_dimensions = 2x3>, feature_group_count = 1 : i64, input_dilation = array<i64: 1, 1>, padding = array<i64: 0, 0, 0, 0>, weight_dilation = array<i64: 1, 1>, window_reversal = array<i1: false, false>, window_strides = array<i64: 1, 1>}> : (tensor<1x2048x7x7xbf16>, tensor<512x2048x1x1xbf16>) -> tensor<1x512x7x7xbf16>
    %179 = "ttir.batch_norm_inference"(%178, %arg266, %arg265, %arg264, %arg263) <{dimension = 1 : i32, epsilon = 9.99999974E-6 : f32}> : (tensor<1x512x7x7xbf16>, tensor<512xbf16>, tensor<512xbf16>, tensor<512xbf16>, tensor<512xbf16>) -> tensor<1x512x7x7xbf16>
    %180 = "ttir.maximum"(%179, %2) : (tensor<1x512x7x7xbf16>, tensor<1x512x7x7xbf16>) -> tensor<1x512x7x7xbf16>
    %181 = "ttir.convolution"(%180, %arg262) <{batch_group_count = 1 : i64, convolution_layout = #ttir<convolution_layout input_batch = 0, input_feature = 1, input_spatial_dimensions = 2x3, kernel_output_feature = 0, kernel_input_feature = 1, kernel_spatial_dimensions = 2x3, output_batch = 0, output_feature = 1, output_spatial_dimensions = 2x3>, feature_group_count = 1 : i64, input_dilation = array<i64: 1, 1>, padding = array<i64: 1, 1, 1, 1>, weight_dilation = array<i64: 1, 1>, window_reversal = array<i1: false, false>, window_strides = array<i64: 1, 1>}> : (tensor<1x512x7x7xbf16>, tensor<512x512x3x3xbf16>) -> tensor<1x512x7x7xbf16>
    %182 = "ttir.batch_norm_inference"(%181, %arg261, %arg260, %arg259, %arg258) <{dimension = 1 : i32, epsilon = 9.99999974E-6 : f32}> : (tensor<1x512x7x7xbf16>, tensor<512xbf16>, tensor<512xbf16>, tensor<512xbf16>, tensor<512xbf16>) -> tensor<1x512x7x7xbf16>
    %183 = "ttir.maximum"(%182, %2) : (tensor<1x512x7x7xbf16>, tensor<1x512x7x7xbf16>) -> tensor<1x512x7x7xbf16>
    %184 = "ttir.convolution"(%183, %arg257) <{batch_group_count = 1 : i64, convolution_layout = #ttir<convolution_layout input_batch = 0, input_feature = 1, input_spatial_dimensions = 2x3, kernel_output_feature = 0, kernel_input_feature = 1, kernel_spatial_dimensions = 2x3, output_batch = 0, output_feature = 1, output_spatial_dimensions = 2x3>, feature_group_count = 1 : i64, input_dilation = array<i64: 1, 1>, padding = array<i64: 0, 0, 0, 0>, weight_dilation = array<i64: 1, 1>, window_reversal = array<i1: false, false>, window_strides = array<i64: 1, 1>}> : (tensor<1x512x7x7xbf16>, tensor<2048x512x1x1xbf16>) -> tensor<1x2048x7x7xbf16>
    %185 = "ttir.batch_norm_inference"(%184, %arg256, %arg255, %arg254, %arg253) <{dimension = 1 : i32, epsilon = 9.99999974E-6 : f32}> : (tensor<1x2048x7x7xbf16>, tensor<2048xbf16>, tensor<2048xbf16>, tensor<2048xbf16>, tensor<2048xbf16>) -> tensor<1x2048x7x7xbf16>
    %186 = "ttir.add"(%185, %177) : (tensor<1x2048x7x7xbf16>, tensor<1x2048x7x7xbf16>) -> tensor<1x2048x7x7xbf16>
    %187 = "ttir.maximum"(%186, %1) : (tensor<1x2048x7x7xbf16>, tensor<1x2048x7x7xbf16>) -> tensor<1x2048x7x7xbf16>
    %188 = "ttir.sum"(%187) <{dim_arg = [2 : i32, 3 : i32], keep_dim = false}> : (tensor<1x2048x7x7xbf16>) -> tensor<1x2048xbf16>
    %189 = "ttir.multiply"(%188, %0) : (tensor<1x2048xbf16>, tensor<1x2048xbf16>) -> tensor<1x2048xbf16>
    %190 = "ttir.dot_general"(%189) <{batch_dims_lhs = array<i64>, batch_dims_rhs = array<i64>, contract_dims_lhs = array<i64: 1>, contract_dims_rhs = array<i64: 0>}> : (tensor<1x2048xbf16>) -> tensor<1x1000xbf16>
    %191 = "ttir.reshape"(%arg0) <{shape = [1 : i32, 1000 : i32]}> : (tensor<1000xbf16>) -> tensor<1x1000xbf16>
    %192 = "ttir.add"(%190, %191) : (tensor<1x1000xbf16>, tensor<1x1000xbf16>) -> tensor<1x1000xbf16>
    return %192 : tensor<1x1000xbf16>
  }
}
