#dram = #ttnn.buffer_type<dram>
#l1 = #ttnn.buffer_type<l1>
#loc = loc(unknown)
#loc68 = loc("p0.3")
#loc69 = loc("p1.11")
#loc70 = loc("p2.24")
#loc71 = loc("p3.28")
#loc72 = loc("p4.30")
#loc73 = loc("p5.34")
#loc74 = loc("p6.38")
#loc75 = loc("p7.42")
#loc76 = loc("p8.46")
#loc77 = loc("p9.48")
#loc78 = loc("p10.52")
#loc79 = loc("p11.56")
#loc80 = loc("p12.60")
#loc81 = loc("p13.64")
#loc82 = loc("p14.66")
#loc83 = loc("p15.68")
#loc84 = loc("p16.72")
#loc85 = loc("p17.76")
#loc86 = loc("p18.80")
#loc87 = loc("p19.84")
#loc88 = loc("p20.86")
#loc89 = loc("p21.88")
#loc90 = loc("p22.92")
#loc91 = loc("p23.96")
#loc92 = loc("p24.100")
#loc93 = loc("p25.104")
#loc94 = loc("p26.106")
#loc95 = loc("p27.108")
#loc96 = loc("p28.112")
#loc97 = loc("p29.116")
#loc98 = loc("p30.120")
#loc99 = loc("p31.124")
#loc100 = loc("p32.133")
#loc101 = loc("p33.137")
#loc102 = loc("p34.139")
#loc103 = loc("p35.143")
#loc104 = loc("p36.147")
#loc105 = loc("p37.151")
#loc106 = loc("p38.155")
#loc107 = loc("p39.157")
#loc108 = loc("p40.161")
#loc109 = loc("p41.165")
#loc110 = loc("p42.169")
#loc111 = loc("p43.173")
#loc112 = loc("p44.175")
#loc113 = loc("p45.177")
#loc114 = loc("p46.181")
#loc115 = loc("p47.185")
#loc116 = loc("p48.189")
#loc117 = loc("p49.193")
#loc118 = loc("p50.195")
#loc119 = loc("p51.197")
#loc120 = loc("p52.201")
#loc121 = loc("p53.205")
#loc122 = loc("p54.209")
#loc123 = loc("p55.213")
#loc124 = loc("p56.215")
#loc125 = loc("p57.217")
#loc126 = loc("p58.221")
#loc127 = loc("p59.225")
#loc128 = loc("p60.229")
#loc129 = loc("p61.233")
#loc130 = loc("p62.242")
#loc131 = loc("p63.246")
#loc132 = loc("p64.248")
#loc133 = loc("p65.252")
#loc134 = loc("p66.256")
#loc135 = loc("p67.260")
#loc136 = loc("p68.264")
#loc137 = loc("p69.266")
#loc138 = loc("p70.270")
#loc139 = loc("p71.274")
#loc140 = loc("p72.278")
#loc141 = loc("p73.282")
#loc142 = loc("p74.284")
#loc143 = loc("p75.286")
#loc144 = loc("p76.290")
#loc145 = loc("p77.294")
#loc146 = loc("p78.298")
#loc147 = loc("p79.302")
#loc148 = loc("p80.304")
#loc149 = loc("p81.306")
#loc150 = loc("p82.310")
#loc151 = loc("p83.314")
#loc152 = loc("p84.318")
#loc153 = loc("p85.322")
#loc154 = loc("p86.324")
#loc155 = loc("p87.326")
#loc156 = loc("p88.330")
#loc157 = loc("p89.334")
#loc158 = loc("p90.338")
#loc159 = loc("p91.342")
#loc160 = loc("p92.351")
#loc161 = loc("p93.355")
#loc162 = loc("p94.357")
#loc163 = loc("p95.361")
#loc164 = loc("p96.365")
#loc165 = loc("p97.369")
#loc166 = loc("p98.373")
#loc167 = loc("p99.375")
#loc168 = loc("p100.379")
#loc169 = loc("p101.383")
#loc170 = loc("p102.387")
#loc171 = loc("p103.391")
#loc172 = loc("p104.393")
#loc173 = loc("p105.395")
#loc174 = loc("p106.399")
#loc175 = loc("p107.403")
#loc176 = loc("p108.407")
#loc177 = loc("p109.411")
#loc178 = loc("p110.413")
#loc179 = loc("p111.415")
#loc180 = loc("p112.419")
#loc181 = loc("p113.423")
#loc182 = loc("p114.427")
#loc183 = loc("p115.431")
#loc184 = loc("p116.433")
#loc185 = loc("p117.435")
#loc186 = loc("p118.439")
#loc187 = loc("p119.443")
#loc188 = loc("p120.447")
#loc189 = loc("p121.451")
#loc190 = loc("p122.453")
#loc191 = loc("p123.457")
#loc192 = loc("p124.461")
#loc193 = loc("p125.465")
#loc194 = loc("p126.469")
#loc195 = loc("p127.471")
#loc196 = loc("p128.473")
#loc197 = loc("p129.477")
#loc198 = loc("p130.481")
#loc199 = loc("p131.485")
#loc200 = loc("p132.489")
#loc201 = loc("p133.491")
#loc202 = loc("p134.493")
#loc203 = loc("p135.497")
#loc204 = loc("p136.501")
#loc205 = loc("p137.505")
#loc206 = loc("p138.509")
#loc207 = loc("p139.511")
#system_desc = #ttcore.system_desc<[{role = host, target_triple = "x86_64-pc-linux"}], [{arch = <wormhole_b0>, grid = 8x8, coord_translation_offsets = 18x18, l1_size = 1499136, num_dram_channels = 12, dram_channel_size = 1073741824, noc_l1_address_align_bytes = 16, pcie_address_align_bytes = 32, noc_dram_address_align_bytes = 32, l1_unreserved_base = 103712, erisc_l1_unreserved_base = 98304, dram_unreserved_base = 1920032, dram_unreserved_end = 1073136832, supported_data_types = [<f32>, <f16>, <bf16>, <bfp_f8>, <bfp_bf8>, <bfp_f4>, <bfp_bf4>, <bfp_f2>, <bfp_bf2>, <u32>, <u16>, <u8>, <si32>], supported_tile_sizes = [ 4x16,  16x16,  32x16,  4x32,  16x32,  32x32], dst_physical_size_tiles = 16, num_cbs = 64, num_compute_threads = 1, num_datamovement_threads = 2}, {arch = <wormhole_b0>, grid = 8x8, coord_translation_offsets = 18x18, l1_size = 1499136, num_dram_channels = 12, dram_channel_size = 1073741824, noc_l1_address_align_bytes = 16, pcie_address_align_bytes = 32, noc_dram_address_align_bytes = 32, l1_unreserved_base = 103712, erisc_l1_unreserved_base = 98304, dram_unreserved_base = 1920032, dram_unreserved_end = 1073154112, supported_data_types = [<f32>, <f16>, <bf16>, <bfp_f8>, <bfp_bf8>, <bfp_f4>, <bfp_bf4>, <bfp_f2>, <bfp_bf2>, <u32>, <u16>, <u8>, <si32>], supported_tile_sizes = [ 4x16,  16x16,  32x16,  4x32,  16x32,  32x32], dst_physical_size_tiles = 16, num_cbs = 64, num_compute_threads = 1, num_datamovement_threads = 2}], [0, 1], [1 : i32, 0 : i32], [ 0x0x0x0], [<[0, 8, 0], [1, 0, 0]>]>
#system_memory = #ttnn.buffer_type<system_memory>
#ttnn_layout = #ttnn.ttnn_layout<(d0) -> (0, d0), <1x1>, memref<1x1024xbf16, #system_memory>>
#ttnn_layout1 = #ttnn.ttnn_layout<(d0, d1, d2, d3) -> (d0 * 1440 + d1 + d2, d3), <1x1>, memref<1474560x1xbf16, #system_memory>>
#ttnn_layout2 = #ttnn.ttnn_layout<(d0) -> (0, d0), <1x1>, memref<1x224xbf16, #system_memory>>
#ttnn_layout3 = #ttnn.ttnn_layout<(d0, d1, d2, d3) -> (d0 * 224 + d1 + d2, d3), <1x1>, memref<50176x1xbf16, #system_memory>>
#ttnn_layout4 = #ttnn.ttnn_layout<(d0, d1, d2, d3) -> (d0 * 768 + d1 + d2, d3), <1x1>, memref<172032x1xbf16, #system_memory>>
#ttnn_layout5 = #ttnn.ttnn_layout<(d0) -> (0, d0), <1x1>, memref<1x768xbf16, #system_memory>>
#ttnn_layout6 = #ttnn.ttnn_layout<(d0, d1, d2, d3) -> (d0 * 1088 + d1 + d2, d3), <1x1>, memref<835584x1xbf16, #system_memory>>
#ttnn_layout7 = #ttnn.ttnn_layout<(d0) -> (0, d0), <1x1>, memref<1x192xbf16, #system_memory>>
#ttnn_layout8 = #ttnn.ttnn_layout<(d0, d1, d2, d3) -> (d0 * 192 + d1 + d2, d3), <1x1>, memref<36864x1xbf16, #system_memory>>
#ttnn_layout9 = #ttnn.ttnn_layout<(d0, d1, d2, d3) -> (d0 * 512 + d1 + d2, d3), <1x1>, memref<98304x1xbf16, #system_memory>>
#ttnn_layout10 = #ttnn.ttnn_layout<(d0) -> (0, d0), <1x1>, memref<1x512xbf16, #system_memory>>
#ttnn_layout11 = #ttnn.ttnn_layout<(d0, d1, d2, d3) -> (d0 * 736 + d1 + d2, d3), <1x1>, memref<376832x1xbf16, #system_memory>>
#ttnn_layout12 = #ttnn.ttnn_layout<(d0) -> (0, d0), <1x1>, memref<1x160xbf16, #system_memory>>
#ttnn_layout13 = #ttnn.ttnn_layout<(d0, d1, d2, d3) -> (d0 * 160 + d1 + d2, d3), <1x1>, memref<25600x1xbf16, #system_memory>>
#ttnn_layout14 = #ttnn.ttnn_layout<(d0, d1, d2, d3) -> (d0 * 256 + d1 + d2, d3), <1x1>, memref<40960x1xbf16, #system_memory>>
#ttnn_layout15 = #ttnn.ttnn_layout<(d0) -> (0, d0), <1x1>, memref<1x256xbf16, #system_memory>>
#ttnn_layout16 = #ttnn.ttnn_layout<(d0, d1, d2, d3) -> (d0 * 448 + d1 + d2, d3), <1x1>, memref<114688x1xbf16, #system_memory>>
#ttnn_layout17 = #ttnn.ttnn_layout<(d0) -> (0, d0), <1x1>, memref<1x128xbf16, #system_memory>>
#ttnn_layout18 = #ttnn.ttnn_layout<(d0, d1, d2, d3) -> (d0 * 128 + d1 + d2, d3), <1x1>, memref<16384x1xbf16, #system_memory>>
#ttnn_layout19 = #ttnn.ttnn_layout<(d0, d1, d2, d3) -> (d0 * 64 + d1 + d2, d3), <1x1>, memref<8192x1xbf16, #system_memory>>
#ttnn_layout20 = #ttnn.ttnn_layout<(d0) -> (0, d0), <1x1>, memref<1x64xbf16, #system_memory>>
#ttnn_layout21 = #ttnn.ttnn_layout<(d0, d1, d2, d3) -> (d0 * 64 + d1 + d2, d3), <1x1>, memref<4096x1xbf16, #system_memory>>
#ttnn_layout22 = #ttnn.ttnn_layout<(d0, d1, d2, d3) -> (d0 * 9 + d1 * 3 + d2, d3), <1x1>, memref<576x3xbf16, #system_memory>>
#ttnn_layout23 = #ttnn.ttnn_layout<(d0, d1, d2, d3) -> (d0 * 32 + d1 * 32 + d2, d3), <1x1>, memref<1x2x!ttcore.tile<32x32, bf16>, #dram>, <interleaved>>
#ttnn_layout24 = #ttnn.ttnn_layout<(d0, d1, d2, d3) -> (d0 * 64 + d1 * 64 + d2, d3), <1x1>, memref<2x2x!ttcore.tile<32x32, bf16>, #dram>, <interleaved>>
#ttnn_layout25 = #ttnn.ttnn_layout<(d0, d1, d2, d3) -> (d0 * 64 + d1 * 64 + d2, d3), <1x1>, memref<2x4x!ttcore.tile<32x32, bf16>, #dram>, <interleaved>>
#ttnn_layout26 = #ttnn.ttnn_layout<(d0, d1, d2, d3) -> (d0 * 32 + d1 * 32 + d2, d3), <1x1>, memref<1x4x!ttcore.tile<32x32, bf16>, #dram>, <interleaved>>
#ttnn_layout27 = #ttnn.ttnn_layout<(d0, d1, d2, d3) -> (d0 * 128 + d1 * 128 + d2, d3), <1x1>, memref<4x4x!ttcore.tile<32x32, bf16>, #dram>, <interleaved>>
#ttnn_layout28 = #ttnn.ttnn_layout<(d0, d1, d2, d3) -> (d0 * 448 + d1 * 448 + d2, d3), <1x1>, memref<14x8x!ttcore.tile<32x32, bf16>, #dram>, <interleaved>>
#ttnn_layout29 = #ttnn.ttnn_layout<(d0, d1, d2, d3) -> (d0 * 32 + d1 * 32 + d2, d3), <1x1>, memref<1x8x!ttcore.tile<32x32, bf16>, #dram>, <interleaved>>
#ttnn_layout30 = #ttnn.ttnn_layout<(d0, d1, d2, d3) -> (d0 * 256 + d1 * 256 + d2, d3), <1x1>, memref<8x5x!ttcore.tile<32x32, bf16>, #dram>, <interleaved>>
#ttnn_layout31 = #ttnn.ttnn_layout<(d0, d1, d2, d3) -> (d0 * 32 + d1 * 32 + d2, d3), <1x1>, memref<1x5x!ttcore.tile<32x32, bf16>, #dram>, <interleaved>>
#ttnn_layout32 = #ttnn.ttnn_layout<(d0, d1, d2, d3) -> (d0 * 160 + d1 * 160 + d2, d3), <1x1>, memref<5x5x!ttcore.tile<32x32, bf16>, #dram>, <interleaved>>
#ttnn_layout33 = #ttnn.ttnn_layout<(d0, d1, d2, d3) -> (d0 * 736 + d1 * 736 + d2, d3), <1x1>, memref<23x16x!ttcore.tile<32x32, bf16>, #dram>, <interleaved>>
#ttnn_layout34 = #ttnn.ttnn_layout<(d0, d1, d2, d3) -> (d0 * 32 + d1 * 32 + d2, d3), <1x1>, memref<1x16x!ttcore.tile<32x32, bf16>, #dram>, <interleaved>>
#ttnn_layout35 = #ttnn.ttnn_layout<(d0, d1, d2, d3) -> (d0 * 512 + d1 * 512 + d2, d3), <1x1>, memref<16x6x!ttcore.tile<32x32, bf16>, #dram>, <interleaved>>
#ttnn_layout36 = #ttnn.ttnn_layout<(d0, d1, d2, d3) -> (d0 * 32 + d1 * 32 + d2, d3), <1x1>, memref<1x6x!ttcore.tile<32x32, bf16>, #dram>, <interleaved>>
#ttnn_layout37 = #ttnn.ttnn_layout<(d0, d1, d2, d3) -> (d0 * 192 + d1 * 192 + d2, d3), <1x1>, memref<6x6x!ttcore.tile<32x32, bf16>, #dram>, <interleaved>>
#ttnn_layout38 = #ttnn.ttnn_layout<(d0, d1, d2, d3) -> (d0 * 1088 + d1 * 1088 + d2, d3), <1x1>, memref<34x24x!ttcore.tile<32x32, bf16>, #dram>, <interleaved>>
#ttnn_layout39 = #ttnn.ttnn_layout<(d0, d1, d2, d3) -> (d0 * 32 + d1 * 32 + d2, d3), <1x1>, memref<1x24x!ttcore.tile<32x32, bf16>, #dram>, <interleaved>>
#ttnn_layout40 = #ttnn.ttnn_layout<(d0, d1, d2, d3) -> (d0 * 768 + d1 * 768 + d2, d3), <1x1>, memref<24x7x!ttcore.tile<32x32, bf16>, #dram>, <interleaved>>
#ttnn_layout41 = #ttnn.ttnn_layout<(d0, d1, d2, d3) -> (d0 * 32 + d1 * 32 + d2, d3), <1x1>, memref<1x7x!ttcore.tile<32x32, bf16>, #dram>, <interleaved>>
#ttnn_layout42 = #ttnn.ttnn_layout<(d0, d1, d2, d3) -> (d0 * 224 + d1 * 224 + d2, d3), <1x1>, memref<7x7x!ttcore.tile<32x32, bf16>, #dram>, <interleaved>>
#ttnn_layout43 = #ttnn.ttnn_layout<(d0, d1, d2, d3) -> (d0 * 1440 + d1 * 1440 + d2, d3), <1x1>, memref<45x32x!ttcore.tile<32x32, bf16>, #dram>, <interleaved>>
#ttnn_layout44 = #ttnn.ttnn_layout<(d0, d1, d2, d3) -> (d0 * 32 + d1 * 32 + d2, d3), <1x1>, memref<1x32x!ttcore.tile<32x32, bf16>, #dram>, <interleaved>>
#ttnn_layout45 = #ttnn.ttnn_layout<(d0) -> (0, d0), <1x1>, memref<1x64xbf16, #dram>, <interleaved>>
#ttnn_layout46 = #ttnn.ttnn_layout<(d0) -> (0, d0), <1x1>, memref<1x2x!ttcore.tile<32x32, bf16>, #dram>, <interleaved>>
#ttnn_layout47 = #ttnn.ttnn_layout<(d0) -> (0, d0), <1x1>, memref<1x128xbf16, #dram>, <interleaved>>
#ttnn_layout48 = #ttnn.ttnn_layout<(d0) -> (0, d0), <1x1>, memref<1x4x!ttcore.tile<32x32, bf16>, #dram>, <interleaved>>
#ttnn_layout49 = #ttnn.ttnn_layout<(d0) -> (0, d0), <1x1>, memref<1x256xbf16, #dram>, <interleaved>>
#ttnn_layout50 = #ttnn.ttnn_layout<(d0) -> (0, d0), <1x1>, memref<1x8x!ttcore.tile<32x32, bf16>, #dram>, <interleaved>>
#ttnn_layout51 = #ttnn.ttnn_layout<(d0) -> (0, d0), <1x1>, memref<1x160xbf16, #dram>, <interleaved>>
#ttnn_layout52 = #ttnn.ttnn_layout<(d0) -> (0, d0), <1x1>, memref<1x5x!ttcore.tile<32x32, bf16>, #dram>, <interleaved>>
#ttnn_layout53 = #ttnn.ttnn_layout<(d0) -> (0, d0), <1x1>, memref<1x512xbf16, #dram>, <interleaved>>
#ttnn_layout54 = #ttnn.ttnn_layout<(d0) -> (0, d0), <1x1>, memref<1x16x!ttcore.tile<32x32, bf16>, #dram>, <interleaved>>
#ttnn_layout55 = #ttnn.ttnn_layout<(d0) -> (0, d0), <1x1>, memref<1x192xbf16, #dram>, <interleaved>>
#ttnn_layout56 = #ttnn.ttnn_layout<(d0) -> (0, d0), <1x1>, memref<1x6x!ttcore.tile<32x32, bf16>, #dram>, <interleaved>>
#ttnn_layout57 = #ttnn.ttnn_layout<(d0) -> (0, d0), <1x1>, memref<1x768xbf16, #dram>, <interleaved>>
#ttnn_layout58 = #ttnn.ttnn_layout<(d0) -> (0, d0), <1x1>, memref<1x24x!ttcore.tile<32x32, bf16>, #dram>, <interleaved>>
#ttnn_layout59 = #ttnn.ttnn_layout<(d0) -> (0, d0), <1x1>, memref<1x224xbf16, #dram>, <interleaved>>
#ttnn_layout60 = #ttnn.ttnn_layout<(d0) -> (0, d0), <1x1>, memref<1x7x!ttcore.tile<32x32, bf16>, #dram>, <interleaved>>
#ttnn_layout61 = #ttnn.ttnn_layout<(d0) -> (0, d0), <1x1>, memref<1x1024xbf16, #dram>, <interleaved>>
#ttnn_layout62 = #ttnn.ttnn_layout<(d0) -> (0, d0), <1x1>, memref<1x32x!ttcore.tile<32x32, bf16>, #dram>, <interleaved>>
#ttnn_layout63 = #ttnn.ttnn_layout<(d0) -> (0, d0), <1x1>, memref<1x1x!ttcore.tile<32x32, bf16>, #dram>, <interleaved>>
#ttnn_layout64 = #ttnn.ttnn_layout<(d0, d1, d2, d3) -> (d0 * 32 + d1 * 32 + d2, d3), <1x1>, memref<64x1x!ttcore.tile<32x32, bf16>, #dram>, <interleaved>>
#ttnn_layout65 = #ttnn.ttnn_layout<(d0, d1, d2, d3) -> (d0 * 9 + d1 * 3 + d2, d3), <1x1>, memref<576x3xbf16, #dram>, <interleaved>>
#ttnn_layout66 = #ttnn.ttnn_layout<(d0, d1, d2, d3) -> (d0 * 96 + d1 * 32 + d2, d3), <1x1>, memref<192x1x!ttcore.tile<32x32, bf16>, #dram>, <interleaved>>
#ttnn_layout67 = #ttnn.ttnn_layout<(d0, d1, d2, d3) -> (d0 + d1 + d2, d3), <1x1>, memref<1x64xbf16, #dram>, <interleaved>>
#ttnn_layout68 = #ttnn.ttnn_layout<(d0, d1, d2, d3) -> (d0 + d1 + d2, d3), <1x1>, memref<1x64xbf16, #system_memory>>
#ttnn_layout69 = #ttnn.ttnn_layout<(d0, d1, d2, d3) -> (d0 * 64 + d1 + d2, d3), <1x1>, memref<4096x1xbf16, #dram>, <interleaved>>
#ttnn_layout70 = #ttnn.ttnn_layout<(d0, d1, d2, d3) -> (d0 * 2048 + d1 * 32 + d2, d3), <1x1>, memref<4096x1x!ttcore.tile<32x32, bf16>, #dram>, <interleaved>>
#ttnn_layout71 = #ttnn.ttnn_layout<(d0, d1, d2, d3) -> (d0 * 32 + d1 * 32 + d2, d3), <1x1>, memref<128x1x!ttcore.tile<32x32, bf16>, #dram>, <interleaved>>
#ttnn_layout72 = #ttnn.ttnn_layout<(d0, d1, d2, d3) -> (d0 * 64 + d1 + d2, d3), <1x1>, memref<8192x1xbf16, #dram>, <interleaved>>
#ttnn_layout73 = #ttnn.ttnn_layout<(d0, d1, d2, d3) -> (d0 * 2048 + d1 * 32 + d2, d3), <1x1>, memref<8192x1x!ttcore.tile<32x32, bf16>, #dram>, <interleaved>>
#ttnn_layout74 = #ttnn.ttnn_layout<(d0, d1, d2, d3) -> (d0 + d1 + d2, d3), <1x1>, memref<1x128xbf16, #dram>, <interleaved>>
#ttnn_layout75 = #ttnn.ttnn_layout<(d0, d1, d2, d3) -> (d0 + d1 + d2, d3), <1x1>, memref<1x128xbf16, #system_memory>>
#ttnn_layout76 = #ttnn.ttnn_layout<(d0, d1, d2, d3) -> (d0 * 128 + d1 + d2, d3), <1x1>, memref<16384x1xbf16, #dram>, <interleaved>>
#ttnn_layout77 = #ttnn.ttnn_layout<(d0, d1, d2, d3) -> (d0 * 4096 + d1 * 32 + d2, d3), <1x1>, memref<16384x1x!ttcore.tile<32x32, bf16>, #dram>, <interleaved>>
#ttnn_layout78 = #ttnn.ttnn_layout<(d0, d1, d2, d3) -> (d0 * 32 + d1 * 32 + d2, d3), <1x1>, memref<256x1x!ttcore.tile<32x32, bf16>, #dram>, <interleaved>>
#ttnn_layout79 = #ttnn.ttnn_layout<(d0, d1, d2, d3) -> (d0 * 448 + d1 + d2, d3), <1x1>, memref<114688x1xbf16, #dram>, <interleaved>>
#ttnn_layout80 = #ttnn.ttnn_layout<(d0, d1, d2, d3) -> (d0 * 14336 + d1 * 32 + d2, d3), <1x1>, memref<114688x1x!ttcore.tile<32x32, bf16>, #dram>, <interleaved>>
#ttnn_layout81 = #ttnn.ttnn_layout<(d0, d1, d2, d3) -> (d0 + d1 + d2, d3), <1x1>, memref<1x256xbf16, #dram>, <interleaved>>
#ttnn_layout82 = #ttnn.ttnn_layout<(d0, d1, d2, d3) -> (d0 + d1 + d2, d3), <1x1>, memref<1x256xbf16, #system_memory>>
#ttnn_layout83 = #ttnn.ttnn_layout<(d0, d1, d2, d3) -> (d0 * 32 + d1 * 32 + d2, d3), <1x1>, memref<160x1x!ttcore.tile<32x32, bf16>, #dram>, <interleaved>>
#ttnn_layout84 = #ttnn.ttnn_layout<(d0, d1, d2, d3) -> (d0 * 256 + d1 + d2, d3), <1x1>, memref<40960x1xbf16, #dram>, <interleaved>>
#ttnn_layout85 = #ttnn.ttnn_layout<(d0, d1, d2, d3) -> (d0 * 8192 + d1 * 32 + d2, d3), <1x1>, memref<40960x1x!ttcore.tile<32x32, bf16>, #dram>, <interleaved>>
#ttnn_layout86 = #ttnn.ttnn_layout<(d0, d1, d2, d3) -> (d0 + d1 + d2, d3), <1x1>, memref<1x160xbf16, #dram>, <interleaved>>
#ttnn_layout87 = #ttnn.ttnn_layout<(d0, d1, d2, d3) -> (d0 + d1 + d2, d3), <1x1>, memref<1x160xbf16, #system_memory>>
#ttnn_layout88 = #ttnn.ttnn_layout<(d0, d1, d2, d3) -> (d0 * 160 + d1 + d2, d3), <1x1>, memref<25600x1xbf16, #dram>, <interleaved>>
#ttnn_layout89 = #ttnn.ttnn_layout<(d0, d1, d2, d3) -> (d0 * 5120 + d1 * 32 + d2, d3), <1x1>, memref<25600x1x!ttcore.tile<32x32, bf16>, #dram>, <interleaved>>
#ttnn_layout90 = #ttnn.ttnn_layout<(d0, d1, d2, d3) -> (d0 * 32 + d1 * 32 + d2, d3), <1x1>, memref<512x1x!ttcore.tile<32x32, bf16>, #dram>, <interleaved>>
#ttnn_layout91 = #ttnn.ttnn_layout<(d0, d1, d2, d3) -> (d0 * 736 + d1 + d2, d3), <1x1>, memref<376832x1xbf16, #dram>, <interleaved>>
#ttnn_layout92 = #ttnn.ttnn_layout<(d0, d1, d2, d3) -> (d0 * 23552 + d1 * 32 + d2, d3), <1x1>, memref<376832x1x!ttcore.tile<32x32, bf16>, #dram>, <interleaved>>
#ttnn_layout93 = #ttnn.ttnn_layout<(d0, d1, d2, d3) -> (d0 + d1 + d2, d3), <1x1>, memref<1x512xbf16, #dram>, <interleaved>>
#ttnn_layout94 = #ttnn.ttnn_layout<(d0, d1, d2, d3) -> (d0 + d1 + d2, d3), <1x1>, memref<1x512xbf16, #system_memory>>
#ttnn_layout95 = #ttnn.ttnn_layout<(d0, d1, d2, d3) -> (d0 * 32 + d1 * 32 + d2, d3), <1x1>, memref<192x1x!ttcore.tile<32x32, bf16>, #dram>, <interleaved>>
#ttnn_layout96 = #ttnn.ttnn_layout<(d0, d1, d2, d3) -> (d0 * 512 + d1 + d2, d3), <1x1>, memref<98304x1xbf16, #dram>, <interleaved>>
#ttnn_layout97 = #ttnn.ttnn_layout<(d0, d1, d2, d3) -> (d0 * 16384 + d1 * 32 + d2, d3), <1x1>, memref<98304x1x!ttcore.tile<32x32, bf16>, #dram>, <interleaved>>
#ttnn_layout98 = #ttnn.ttnn_layout<(d0, d1, d2, d3) -> (d0 + d1 + d2, d3), <1x1>, memref<1x192xbf16, #dram>, <interleaved>>
#ttnn_layout99 = #ttnn.ttnn_layout<(d0, d1, d2, d3) -> (d0 + d1 + d2, d3), <1x1>, memref<1x192xbf16, #system_memory>>
#ttnn_layout100 = #ttnn.ttnn_layout<(d0, d1, d2, d3) -> (d0 * 192 + d1 + d2, d3), <1x1>, memref<36864x1xbf16, #dram>, <interleaved>>
#ttnn_layout101 = #ttnn.ttnn_layout<(d0, d1, d2, d3) -> (d0 * 6144 + d1 * 32 + d2, d3), <1x1>, memref<36864x1x!ttcore.tile<32x32, bf16>, #dram>, <interleaved>>
#ttnn_layout102 = #ttnn.ttnn_layout<(d0, d1, d2, d3) -> (d0 * 32 + d1 * 32 + d2, d3), <1x1>, memref<768x1x!ttcore.tile<32x32, bf16>, #dram>, <interleaved>>
#ttnn_layout103 = #ttnn.ttnn_layout<(d0, d1, d2, d3) -> (d0 * 1088 + d1 + d2, d3), <1x1>, memref<835584x1xbf16, #dram>, <interleaved>>
#ttnn_layout104 = #ttnn.ttnn_layout<(d0, d1, d2, d3) -> (d0 * 34816 + d1 * 32 + d2, d3), <1x1>, memref<835584x1x!ttcore.tile<32x32, bf16>, #dram>, <interleaved>>
#ttnn_layout105 = #ttnn.ttnn_layout<(d0, d1, d2, d3) -> (d0 + d1 + d2, d3), <1x1>, memref<1x768xbf16, #dram>, <interleaved>>
#ttnn_layout106 = #ttnn.ttnn_layout<(d0, d1, d2, d3) -> (d0 + d1 + d2, d3), <1x1>, memref<1x768xbf16, #system_memory>>
#ttnn_layout107 = #ttnn.ttnn_layout<(d0, d1, d2, d3) -> (d0 * 32 + d1 * 32 + d2, d3), <1x1>, memref<224x1x!ttcore.tile<32x32, bf16>, #dram>, <interleaved>>
#ttnn_layout108 = #ttnn.ttnn_layout<(d0, d1, d2, d3) -> (d0 * 768 + d1 + d2, d3), <1x1>, memref<172032x1xbf16, #dram>, <interleaved>>
#ttnn_layout109 = #ttnn.ttnn_layout<(d0, d1, d2, d3) -> (d0 * 24576 + d1 * 32 + d2, d3), <1x1>, memref<172032x1x!ttcore.tile<32x32, bf16>, #dram>, <interleaved>>
#ttnn_layout110 = #ttnn.ttnn_layout<(d0, d1, d2, d3) -> (d0 + d1 + d2, d3), <1x1>, memref<1x224xbf16, #dram>, <interleaved>>
#ttnn_layout111 = #ttnn.ttnn_layout<(d0, d1, d2, d3) -> (d0 + d1 + d2, d3), <1x1>, memref<1x224xbf16, #system_memory>>
#ttnn_layout112 = #ttnn.ttnn_layout<(d0, d1, d2, d3) -> (d0 * 224 + d1 + d2, d3), <1x1>, memref<50176x1xbf16, #dram>, <interleaved>>
#ttnn_layout113 = #ttnn.ttnn_layout<(d0, d1, d2, d3) -> (d0 * 7168 + d1 * 32 + d2, d3), <1x1>, memref<50176x1x!ttcore.tile<32x32, bf16>, #dram>, <interleaved>>
#ttnn_layout114 = #ttnn.ttnn_layout<(d0, d1, d2, d3) -> (d0 * 32 + d1 * 32 + d2, d3), <1x1>, memref<1024x1x!ttcore.tile<32x32, bf16>, #dram>, <interleaved>>
#ttnn_layout115 = #ttnn.ttnn_layout<(d0, d1, d2, d3) -> (d0 * 1440 + d1 + d2, d3), <1x1>, memref<1474560x1xbf16, #dram>, <interleaved>>
#ttnn_layout116 = #ttnn.ttnn_layout<(d0, d1, d2, d3) -> (d0 * 46080 + d1 * 32 + d2, d3), <1x1>, memref<1474560x1x!ttcore.tile<32x32, bf16>, #dram>, <interleaved>>
#ttnn_layout117 = #ttnn.ttnn_layout<(d0, d1, d2, d3) -> (d0 + d1 + d2, d3), <1x1>, memref<1x1024xbf16, #dram>, <interleaved>>
#ttnn_layout118 = #ttnn.ttnn_layout<(d0, d1, d2, d3) -> (d0 + d1 + d2, d3), <1x1>, memref<1x1024xbf16, #system_memory>>
#ttnn_layout119 = #ttnn.ttnn_layout<(d0, d1) -> (d0, d1), <1x1>, memref<1000x1024xbf16, #system_memory>>
#ttnn_layout120 = #ttnn.ttnn_layout<(d0, d1) -> (d0, d1), <1x1>, memref<32x32x!ttcore.tile<32x32, f32>, #dram>, <interleaved>>
#ttnn_layout121 = #ttnn.ttnn_layout<(d0, d1) -> (d0, d1), <1x1>, memref<1000x1024xbf16, #dram>, <interleaved>>
#ttnn_layout122 = #ttnn.ttnn_layout<(d0, d1) -> (d0, d1), <1x1>, memref<32x32x!ttcore.tile<32x32, bf16>, #dram>, <interleaved>>
#ttnn_layout123 = #ttnn.ttnn_layout<(d0, d1, d2, d3) -> (d0 * 3 + d1 * 3 + d2, d3), <1x1>, memref<192x3xbf16, #system_memory>>
#ttnn_layout124 = #ttnn.ttnn_layout<(d0, d1, d2, d3) -> (d0 * 576 + d1 * 576 + d2, d3), <1x1>, memref<18x2x!ttcore.tile<32x32, bf16>, #dram>, <interleaved>>
#ttnn_layout125 = #ttnn.ttnn_layout<(d0, d1, d2, d3) -> (d0 * 3 + d1 * 3 + d2, d3), <1x1>, memref<672x3xbf16, #system_memory>>
#ttnn_layout126 = #ttnn.ttnn_layout<(d0, d1, d2, d3) -> (d0 * 2016 + d1 * 2016 + d2, d3), <1x1>, memref<63x7x!ttcore.tile<32x32, bf16>, #dram>, <interleaved>>
#ttnn_layout127 = #ttnn.ttnn_layout<(d0, d1, d2, d3) -> (d0 * 256 + d1 + d2, d3), <1x1>, memref<65536x1xbf16, #system_memory>>
#ttnn_layout128 = #ttnn.ttnn_layout<(d0, d1, d2, d3) -> (d0 * 256 + d1 * 256 + d2, d3), <1x1>, memref<8x8x!ttcore.tile<32x32, bf16>, #dram>, <interleaved>>
#ttnn_layout129 = #ttnn.ttnn_layout<(d0, d1, d2, d3) -> (d0 * 3 + d1 * 3 + d2, d3), <1x1>, memref<384x3xbf16, #system_memory>>
#ttnn_layout130 = #ttnn.ttnn_layout<(d0, d1, d2, d3) -> (d0 * 1152 + d1 * 1152 + d2, d3), <1x1>, memref<36x4x!ttcore.tile<32x32, bf16>, #dram>, <interleaved>>
#ttnn_layout131 = #ttnn.ttnn_layout<(d0, d1, d2, d3) -> (d0 * 1024 + d1 + d2, d3), <1x1>, memref<1048576x1xbf16, #system_memory>>
#ttnn_layout132 = #ttnn.ttnn_layout<(d0, d1, d2, d3) -> (d0 * 1024 + d1 * 1024 + d2, d3), <1x1>, memref<32x32x!ttcore.tile<32x32, bf16>, #dram>, <interleaved>>
#ttnn_layout133 = #ttnn.ttnn_layout<(d0, d1, d2, d3) -> (d0 * 512 + d1 + d2, d3), <1x1>, memref<262144x1xbf16, #system_memory>>
#ttnn_layout134 = #ttnn.ttnn_layout<(d0, d1, d2, d3) -> (d0 * 512 + d1 * 512 + d2, d3), <1x1>, memref<16x16x!ttcore.tile<32x32, bf16>, #dram>, <interleaved>>
#ttnn_layout135 = #ttnn.ttnn_layout<(d0, d1, d2, d3) -> (d0 * 3 + d1 * 3 + d2, d3), <1x1>, memref<480x3xbf16, #system_memory>>
#ttnn_layout136 = #ttnn.ttnn_layout<(d0, d1, d2, d3) -> (d0 * 1440 + d1 * 1440 + d2, d3), <1x1>, memref<45x5x!ttcore.tile<32x32, bf16>, #dram>, <interleaved>>
#ttnn_layout137 = #ttnn.ttnn_layout<(d0, d1, d2, d3) -> (d0 * 3 + d1 * 3 + d2, d3), <1x1>, memref<576x3xbf16, #system_memory>>
#ttnn_layout138 = #ttnn.ttnn_layout<(d0, d1, d2, d3) -> (d0 * 1728 + d1 * 1728 + d2, d3), <1x1>, memref<54x6x!ttcore.tile<32x32, bf16>, #dram>, <interleaved>>
#ttnn_layout139 = #ttnn.ttnn_layout<(d0) -> (0, d0), <1x1>, memref<1x1000xbf16, #system_memory>>
#ttnn_layout140 = #ttnn.ttnn_layout<(d0) -> (0, d0), <1x1>, memref<1x32x!ttcore.tile<32x32, f32>, #dram>, <interleaved>>
#ttnn_layout141 = #ttnn.ttnn_layout<(d0) -> (0, d0), <1x1>, memref<1x1000xbf16, #dram>, <interleaved>>
#ttnn_layout142 = #ttnn.ttnn_layout<(d0, d1, d2, d3) -> (d0 * 768 + d1 + d2, d3), <1x1>, memref<589824x1xbf16, #system_memory>>
#ttnn_layout143 = #ttnn.ttnn_layout<(d0, d1, d2, d3) -> (d0 * 768 + d1 * 768 + d2, d3), <1x1>, memref<24x24x!ttcore.tile<32x32, bf16>, #dram>, <interleaved>>
#ttnn_layout144 = #ttnn.ttnn_layout<(d0, d1, d2, d3) -> (d0 * 672 + d1 * 224 + d2, d3), <1x1>, memref<168x7x!ttcore.tile<32x32, bf16>, #dram>, <interleaved>>
#ttnn_layout145 = #ttnn.ttnn_layout<(d0, d1) -> (d0, d1), <1x1>, memref<1x32x!ttcore.tile<32x32, bf16>, #dram>, <interleaved>>
#ttnn_layout146 = #ttnn.ttnn_layout<(d0, d1, d2, d3) -> (d0 * 672 + d1 * 224 + d2, d3), <1x1>, memref<84x7x!ttcore.tile<32x32, bf16>, #dram>, <interleaved>>
#ttnn_layout147 = #ttnn.ttnn_layout<(d0, d1, d2, d3) -> (d0 * 50176 + d1 * 224 + d2, d3), <8x8, virt_to_physical_map = (d0, d1) -> (0, d0, d1), physical_to_virt_map = (d0, d1, d2) -> (d1, d2)>, memref<1x98x!ttcore.tile<32x32, bf16>, #l1>, <interleaved>>
#ttnn_layout148 = #ttnn.ttnn_layout<(d0, d1, d2, d3) -> (d0 * 200704 + d1 * 200704 + d2, d3), <8x8, virt_to_physical_map = (d0, d1) -> (0, d0, d1), physical_to_virt_map = (d0, d1, d2) -> (d1, d2)>, memref<1x98x!ttcore.tile<32x32, bf16>, #l1>, <interleaved>>
#ttnn_layout149 = #ttnn.ttnn_layout<(d0, d1, d2, d3) -> (d0 * 50176 + d1 * 50176 + d2, d3), <59x1, virt_to_physical_map = (d0, d1) -> (0, d0 floordiv 8, d0 mod 8), physical_to_virt_map = (d0, d1, d2) -> (d1 * 8 + d2, 0)>, memref<27x2x!ttcore.tile<32x32, bf16>, #l1>, <height_sharded>>
#ttnn_layout150 = #ttnn.ttnn_layout<(d0, d1, d2, d3) -> (d0 * 50176 + d1 * 50176 + d2, d3), <63x1, virt_to_physical_map = (d0, d1) -> (0, d0 floordiv 8, d0 mod 8), physical_to_virt_map = (d0, d1, d2) -> (d1 * 8 + d2, 0)>, memref<25x2x!ttcore.tile<32x32, bf16>, #l1>, <height_sharded>>
#ttnn_layout151 = #ttnn.ttnn_layout<(d0, d1, d2, d3) -> (d0 * 12544 + d1 * 12544 + d2, d3), <56x1, virt_to_physical_map = (d0, d1) -> (0, d0 floordiv 8, d0 mod 8), physical_to_virt_map = (d0, d1, d2) -> (d1 * 8 + d2, 0)>, memref<7x2x!ttcore.tile<32x32, bf16>, #l1>, <height_sharded>>
#ttnn_layout152 = #ttnn.ttnn_layout<(d0, d1, d2, d3) -> (d0 * 12544 + d1 * 12544 + d2, d3), <56x1, virt_to_physical_map = (d0, d1) -> (0, d0 floordiv 8, d0 mod 8), physical_to_virt_map = (d0, d1, d2) -> (d1 * 8 + d2, 0)>, memref<7x4x!ttcore.tile<32x32, bf16>, #l1>, <height_sharded>>
#ttnn_layout153 = #ttnn.ttnn_layout<(d0, d1, d2, d3) -> (d0 * 12544 + d1 * 12544 + d2, d3), <56x1, virt_to_physical_map = (d0, d1) -> (0, d0 floordiv 8, d0 mod 8), physical_to_virt_map = (d0, d1, d2) -> (d1 * 8 + d2, 0)>, memref<7x14x!ttcore.tile<32x32, bf16>, #l1>, <height_sharded>>
#ttnn_layout154 = #ttnn.ttnn_layout<(d0, d1, d2, d3) -> (d0 * 12544 + d1 * 12544 + d2, d3), <56x1, virt_to_physical_map = (d0, d1) -> (0, d0 floordiv 8, d0 mod 8), physical_to_virt_map = (d0, d1, d2) -> (d1 * 8 + d2, 0)>, memref<7x8x!ttcore.tile<32x32, bf16>, #l1>, <height_sharded>>
#ttnn_layout155 = #ttnn.ttnn_layout<(d0, d1, d2, d3) -> (d0 * 3136 + d1 * 3136 + d2, d3), <56x1, virt_to_physical_map = (d0, d1) -> (0, d0 floordiv 8, d0 mod 8), physical_to_virt_map = (d0, d1, d2) -> (d1 * 8 + d2, 0)>, memref<7x8x!ttcore.tile<32x32, bf16>, #l1>, <height_sharded>>
#ttnn_layout156 = #ttnn.ttnn_layout<(d0, d1, d2, d3) -> (d0 * 32 + d1 * 32 + d2, d3), <8x8, virt_to_physical_map = (d0, d1) -> (0, d0, d1), physical_to_virt_map = (d0, d1, d2) -> (d1, d2)>, memref<1x1x!ttcore.tile<32x32, bf16>, #l1>, <interleaved>>
#ttnn_layout157 = #ttnn.ttnn_layout<(d0, d1, d2, d3) -> (d0 * 32 + d1 * 32 + d2, d3), <56x1, virt_to_physical_map = (d0, d1) -> (0, d0 floordiv 8, d0 mod 8), physical_to_virt_map = (d0, d1, d2) -> (d1 * 8 + d2, 0)>, memref<1x8x!ttcore.tile<32x32, bf16>, #l1>, <height_sharded>>
#ttnn_layout158 = #ttnn.ttnn_layout<(d0, d1, d2, d3) -> (d0 * 32 + d1 * 32 + d2, d3), <1x8, virt_to_physical_map = (d0, d1) -> (0, d0, d1), physical_to_virt_map = (d0, d1, d2) -> (d1, d2)>, memref<1x1x!ttcore.tile<32x32, bf16>, #l1>, <block_sharded>>
#ttnn_layout159 = #ttnn.ttnn_layout<(d0, d1, d2, d3) -> (d0 * 32 + d1 * 32 + d2, d3), <1x8, virt_to_physical_map = (d0, d1) -> (0, d0, d1), physical_to_virt_map = (d0, d1, d2) -> (d1, d2)>, memref<1x1x!ttcore.tile<32x32, f32>, #l1>, <block_sharded>>
#ttnn_layout160 = #ttnn.ttnn_layout<(d0, d1, d2, d3) -> (d0 * 3584 + d1 * 64 + d2, d3), <8x8, virt_to_physical_map = (d0, d1) -> (0, d0, d1), physical_to_virt_map = (d0, d1, d2) -> (d1, d2)>, memref<56x1x!ttcore.tile<32x32, bf16>, #l1>, <block_sharded>>
#ttnn_layout161 = #ttnn.ttnn_layout<(d0, d1, d2, d3) -> (d0 * 12544 + d1 * 12544 + d2, d3), <8x8, virt_to_physical_map = (d0, d1) -> (0, d0, d1), physical_to_virt_map = (d0, d1, d2) -> (d1, d2)>, memref<1x49x!ttcore.tile<32x32, bf16>, #l1>, <interleaved>>
#ttnn_layout162 = #ttnn.ttnn_layout<(d0, d1, d2, d3) -> (d0 * 3136 + d1 * 3136 + d2, d3), <56x1, virt_to_physical_map = (d0, d1) -> (0, d0 floordiv 8, d0 mod 8), physical_to_virt_map = (d0, d1, d2) -> (d1 * 8 + d2, 0)>, memref<56x256xbf16, #l1>, <height_sharded>>
#ttnn_layout163 = #ttnn.ttnn_layout<(d0, d1, d2, d3) -> (d0 * 3136 + d1 * 3136 + d2, d3), <49x1, virt_to_physical_map = (d0, d1) -> (0, d0 floordiv 8, d0 mod 8), physical_to_virt_map = (d0, d1, d2) -> (d1 * 8 + d2, 0)>, memref<2x5x!ttcore.tile<32x32, bf16>, #l1>, <height_sharded>>
#ttnn_layout164 = #ttnn.ttnn_layout<(d0, d1, d2, d3) -> (d0 * 3136 + d1 * 3136 + d2, d3), <1x1>, memref<3136x256xbf16, #dram>, <interleaved>>
#ttnn_layout165 = #ttnn.ttnn_layout<(d0, d1, d2, d3) -> (d0 * 3136 + d1 * 3136 + d2, d3), <1x1>, memref<98x5x!ttcore.tile<32x32, bf16>, #dram>, <interleaved>>
#ttnn_layout166 = #ttnn.ttnn_layout<(d0, d1, d2, d3) -> (d0 * 3136 + d1 * 3136 + d2, d3), <1x1>, memref<3136x736xbf16, #dram>, <interleaved>>
#ttnn_layout167 = #ttnn.ttnn_layout<(d0, d1, d2, d3) -> (d0 * 3136 + d1 * 3136 + d2, d3), <1x1>, memref<98x23x!ttcore.tile<32x32, bf16>, #dram>, <interleaved>>
#ttnn_layout168 = #ttnn.ttnn_layout<(d0, d1, d2, d3) -> (d0 * 3136 + d1 * 3136 + d2, d3), <33x1, virt_to_physical_map = (d0, d1) -> (0, d0 floordiv 8, d0 mod 8), physical_to_virt_map = (d0, d1, d2) -> (d1 * 8 + d2, 0)>, memref<3x23x!ttcore.tile<32x32, bf16>, #l1>, <height_sharded>>
#ttnn_layout169 = #ttnn.ttnn_layout<(d0, d1, d2, d3) -> (d0 * 3136 + d1 * 3136 + d2, d3), <49x1, virt_to_physical_map = (d0, d1) -> (0, d0 floordiv 8, d0 mod 8), physical_to_virt_map = (d0, d1, d2) -> (d1 * 8 + d2, 0)>, memref<2x16x!ttcore.tile<32x32, bf16>, #l1>, <height_sharded>>
#ttnn_layout170 = #ttnn.ttnn_layout<(d0, d1, d2, d3) -> (d0 * 800 + d1 * 800 + d2, d3), <8x8, virt_to_physical_map = (d0, d1) -> (0, d0, d1), physical_to_virt_map = (d0, d1, d2) -> (d1, d2)>, memref<1x25x!ttcore.tile<32x32, bf16>, #l1>, <interleaved>>
#ttnn_layout171 = #ttnn.ttnn_layout<(d0, d1, d2, d3) -> (d0 * 800 + d1 * 800 + d2, d3), <1x16, virt_to_physical_map = (d0, d1) -> (0, d1 floordiv 8, d1 mod 8), physical_to_virt_map = (d0, d1, d2) -> (0, d1 * 8 + d2)>, memref<100x1x!ttcore.tile<32x32, bf16>, #l1>, <width_sharded>>
#ttnn_layout172 = #ttnn.ttnn_layout<(d0, d1, d2, d3) -> (d0 * 32 + d1 * 32 + d2, d3), <1x16, virt_to_physical_map = (d0, d1) -> (0, d1 floordiv 8, d1 mod 8), physical_to_virt_map = (d0, d1, d2) -> (0, d1 * 8 + d2)>, memref<4x1x!ttcore.tile<32x32, bf16>, #l1>, <width_sharded>>
#ttnn_layout173 = #ttnn.ttnn_layout<(d0, d1, d2, d3) -> (d0 * 32 + d1 * 32 + d2, d3), <1x1>, memref<4x16x!ttcore.tile<32x32, bf16>, #l1>, <interleaved>>
#ttnn_layout174 = #ttnn.ttnn_layout<(d0, d1, d2, d3) -> (d0 * 32 + d1 * 32 + d2, d3), <1x16, virt_to_physical_map = (d0, d1) -> (0, d1 floordiv 8, d1 mod 8), physical_to_virt_map = (d0, d1, d2) -> (0, d1 * 8 + d2)>, memref<1x1x!ttcore.tile<32x32, bf16>, #l1>, <width_sharded>>
#ttnn_layout175 = #ttnn.ttnn_layout<(d0, d1, d2, d3) -> (d0 * 32 + d1 * 32 + d2, d3), <1x16, virt_to_physical_map = (d0, d1) -> (0, d1 floordiv 8, d1 mod 8), physical_to_virt_map = (d0, d1, d2) -> (0, d1 * 8 + d2)>, memref<1x1x!ttcore.tile<32x32, f32>, #l1>, <width_sharded>>
#ttnn_layout176 = #ttnn.ttnn_layout<(d0, d1, d2, d3) -> (d0 * 32 + d1 * 32 + d2, d3), <1x1>, memref<1x16x!ttcore.tile<32x32, bf16>, #l1>, <interleaved>>
#ttnn_layout177 = #ttnn.ttnn_layout<(d0, d1, d2, d3) -> (d0 * 896 + d1 * 32 + d2, d3), <8x8, virt_to_physical_map = (d0, d1) -> (0, d0, d1), physical_to_virt_map = (d0, d1, d2) -> (d1, d2)>, memref<14x2x!ttcore.tile<32x32, bf16>, #l1>, <block_sharded>>
#ttnn_layout178 = #ttnn.ttnn_layout<(d0, d1, d2, d3) -> (d0 * 3136 + d1 * 3136 + d2, d3), <8x8, virt_to_physical_map = (d0, d1) -> (0, d0, d1), physical_to_virt_map = (d0, d1, d2) -> (d1, d2)>, memref<1x25x!ttcore.tile<32x32, bf16>, #l1>, <interleaved>>
#ttnn_layout179 = #ttnn.ttnn_layout<(d0, d1, d2, d3) -> (d0 * 784 + d1 * 784 + d2, d3), <49x1, virt_to_physical_map = (d0, d1) -> (0, d0 floordiv 8, d0 mod 8), physical_to_virt_map = (d0, d1, d2) -> (d1 * 8 + d2, 0)>, memref<16x512xbf16, #l1>, <height_sharded>>
#ttnn_layout180 = #ttnn.ttnn_layout<(d0, d1, d2, d3) -> (d0 * 800 + d1 * 800 + d2, d3), <25x1, virt_to_physical_map = (d0, d1) -> (0, d0 floordiv 8, d0 mod 8), physical_to_virt_map = (d0, d1, d2) -> (d1 * 8 + d2, 0)>, memref<1x6x!ttcore.tile<32x32, bf16>, #l1>, <height_sharded>>
#ttnn_layout181 = #ttnn.ttnn_layout<(d0, d1, d2, d3) -> (d0 * 784 + d1 * 784 + d2, d3), <1x1>, memref<784x512xbf16, #dram>, <interleaved>>
#ttnn_layout182 = #ttnn.ttnn_layout<(d0, d1, d2, d3) -> (d0 * 800 + d1 * 800 + d2, d3), <1x1>, memref<25x6x!ttcore.tile<32x32, bf16>, #dram>, <interleaved>>
#ttnn_layout183 = #ttnn.ttnn_layout<(d0, d1, d2, d3) -> (d0 * 784 + d1 * 784 + d2, d3), <1x1>, memref<784x1088xbf16, #dram>, <interleaved>>
#ttnn_layout184 = #ttnn.ttnn_layout<(d0, d1, d2, d3) -> (d0 * 800 + d1 * 800 + d2, d3), <1x1>, memref<25x34x!ttcore.tile<32x32, bf16>, #dram>, <interleaved>>
#ttnn_layout185 = #ttnn.ttnn_layout<(d0, d1, d2, d3) -> (d0 * 800 + d1 * 800 + d2, d3), <8x8, virt_to_physical_map = (d0, d1) -> (0, d0, d1), physical_to_virt_map = (d0, d1, d2) -> (d1, d2)>, memref<1x10x!ttcore.tile<32x32, bf16>, #l1>, <interleaved>>
#ttnn_layout186 = #ttnn.ttnn_layout<(d0, d1, d2, d3) -> (d0 * 800 + d1 * 800 + d2, d3), <1x1>, memref<25x24x!ttcore.tile<32x32, bf16>, #dram>, <interleaved>>
#ttnn_layout187 = #ttnn.ttnn_layout<(d0, d1, d2, d3) -> (d0 * 224 + d1 * 224 + d2, d3), <8x8, virt_to_physical_map = (d0, d1) -> (0, d0, d1), physical_to_virt_map = (d0, d1, d2) -> (d1, d2)>, memref<1x11x!ttcore.tile<32x32, bf16>, #l1>, <interleaved>>
#ttnn_layout188 = #ttnn.ttnn_layout<(d0, d1, d2, d3) -> (d0 * 224 + d1 * 224 + d2, d3), <1x24, virt_to_physical_map = (d0, d1) -> (0, d1 floordiv 8, d1 mod 8), physical_to_virt_map = (d0, d1, d2) -> (0, d1 * 8 + d2)>, memref<28x1x!ttcore.tile<32x32, bf16>, #l1>, <width_sharded>>
#ttnn_layout189 = #ttnn.ttnn_layout<(d0, d1, d2, d3) -> (d0 * 32 + d1 * 32 + d2, d3), <8x8, virt_to_physical_map = (d0, d1) -> (0, d0, d1), physical_to_virt_map = (d0, d1, d2) -> (d1, d2)>, memref<1x2x!ttcore.tile<32x32, bf16>, #l1>, <interleaved>>
#ttnn_layout190 = #ttnn.ttnn_layout<(d0, d1, d2, d3) -> (d0 * 32 + d1 * 32 + d2, d3), <1x24, virt_to_physical_map = (d0, d1) -> (0, d1 floordiv 8, d1 mod 8), physical_to_virt_map = (d0, d1, d2) -> (0, d1 * 8 + d2)>, memref<4x1x!ttcore.tile<32x32, bf16>, #l1>, <width_sharded>>
#ttnn_layout191 = #ttnn.ttnn_layout<(d0, d1, d2, d3) -> (d0 * 32 + d1 * 32 + d2, d3), <1x1>, memref<4x24x!ttcore.tile<32x32, bf16>, #l1>, <interleaved>>
#ttnn_layout192 = #ttnn.ttnn_layout<(d0, d1, d2, d3) -> (d0 * 32 + d1 * 32 + d2, d3), <1x24, virt_to_physical_map = (d0, d1) -> (0, d1 floordiv 8, d1 mod 8), physical_to_virt_map = (d0, d1, d2) -> (0, d1 * 8 + d2)>, memref<1x1x!ttcore.tile<32x32, bf16>, #l1>, <width_sharded>>
#ttnn_layout193 = #ttnn.ttnn_layout<(d0, d1, d2, d3) -> (d0 * 32 + d1 * 32 + d2, d3), <1x24, virt_to_physical_map = (d0, d1) -> (0, d1 floordiv 8, d1 mod 8), physical_to_virt_map = (d0, d1, d2) -> (0, d1 * 8 + d2)>, memref<1x1x!ttcore.tile<32x32, f32>, #l1>, <width_sharded>>
#ttnn_layout194 = #ttnn.ttnn_layout<(d0, d1, d2, d3) -> (d0 * 32 + d1 * 32 + d2, d3), <1x1>, memref<1x24x!ttcore.tile<32x32, bf16>, #l1>, <interleaved>>
#ttnn_layout195 = #ttnn.ttnn_layout<(d0, d1, d2, d3) -> (d0 * 448 + d1 * 32 + d2, d3), <8x8, virt_to_physical_map = (d0, d1) -> (0, d0, d1), physical_to_virt_map = (d0, d1, d2) -> (d1, d2)>, memref<7x3x!ttcore.tile<32x32, bf16>, #l1>, <block_sharded>>
#ttnn_layout196 = #ttnn.ttnn_layout<(d0, d1, d2, d3) -> (d0 * 800 + d1 * 800 + d2, d3), <7x8, virt_to_physical_map = (d0, d1) -> (0, d0, d1), physical_to_virt_map = (d0, d1, d2) -> (d1, d2)>, memref<4x3x!ttcore.tile<32x32, bf16>, #l1>, <block_sharded>>
#ttnn_layout197 = #ttnn.ttnn_layout<(d0, d1, d2, d3) -> (d0 * 196 + d1 * 196 + d2, d3), <7x8, virt_to_physical_map = (d0, d1) -> (0, d0, d1), physical_to_virt_map = (d0, d1, d2) -> (d1, d2)>, memref<28x96xbf16, #l1>, <block_sharded>>
#ttnn_layout198 = #ttnn.ttnn_layout<(d0, d1, d2, d3) -> (d0 * 196 + d1 * 196 + d2, d3), <1x1>, memref<196x768xbf16, #dram>, <interleaved>>
#ttnn_layout199 = #ttnn.ttnn_layout<(d0, d1, d2, d3) -> (d0 * 224 + d1 * 224 + d2, d3), <4x7, virt_to_physical_map = (d0, d1) -> (0, d0, d1), physical_to_virt_map = (d0, d1, d2) -> (d1, d2)>, memref<2x1x!ttcore.tile<32x32, bf16>, #l1>, <block_sharded>>
#ttnn_layout200 = #ttnn.ttnn_layout<(d0, d1, d2, d3) -> (d0 * 224 + d1 * 224 + d2, d3), <7x7, virt_to_physical_map = (d0, d1) -> (0, d0, d1), physical_to_virt_map = (d0, d1, d2) -> (d1, d2)>, memref<1x1x!ttcore.tile<32x32, bf16>, #l1>, <block_sharded>>
#ttnn_layout201 = #ttnn.ttnn_layout<(d0, d1, d2, d3) -> (d0 * 196 + d1 * 196 + d2, d3), <1x1>, memref<196x1440xbf16, #dram>, <interleaved>>
#ttnn_layout202 = #ttnn.ttnn_layout<(d0, d1, d2, d3) -> (d0 * 224 + d1 * 224 + d2, d3), <1x1>, memref<7x45x!ttcore.tile<32x32, bf16>, #dram>, <interleaved>>
#ttnn_layout203 = #ttnn.ttnn_layout<(d0, d1, d2, d3) -> (d0 * 224 + d1 * 224 + d2, d3), <7x5, virt_to_physical_map = (d0, d1) -> (0, d0, d1), physical_to_virt_map = (d0, d1, d2) -> (d1, d2)>, memref<1x9x!ttcore.tile<32x32, bf16>, #l1>, <block_sharded>>
#ttnn_layout204 = #ttnn.ttnn_layout<(d0, d1, d2, d3) -> (d0 * 224 + d1 * 224 + d2, d3), <7x8, virt_to_physical_map = (d0, d1) -> (0, d0, d1), physical_to_virt_map = (d0, d1, d2) -> (d1, d2)>, memref<1x4x!ttcore.tile<32x32, bf16>, #l1>, <block_sharded>>
#ttnn_layout205 = #ttnn.ttnn_layout<(d0, d1, d2, d3) -> (d0 * 224 + d1 * 32 + d2, d3), <8x8, virt_to_physical_map = (d0, d1) -> (0, d0, d1), physical_to_virt_map = (d0, d1, d2) -> (d1, d2)>, memref<1x14x!ttcore.tile<32x32, bf16>, #l1>, <interleaved>>
#ttnn_layout206 = #ttnn.ttnn_layout<(d0, d1, d2, d3) -> (d0 * 32768 + d1 * 32 + d2, d3), <8x8, virt_to_physical_map = (d0, d1) -> (0, d0, d1), physical_to_virt_map = (d0, d1, d2) -> (d1, d2)>, memref<1x64x!ttcore.tile<32x32, bf16>, #l1>, <interleaved>>
#ttnn_layout207 = #ttnn.ttnn_layout<(d0, d1, d2, d3) -> (d0 * 224 + d1 * 224 + d2, d3), <7x7, virt_to_physical_map = (d0, d1) -> (0, d0, d1), physical_to_virt_map = (d0, d1, d2) -> (d1, d2)>, memref<1x5x!ttcore.tile<32x32, bf16>, #l1>, <block_sharded>>
#ttnn_layout208 = #ttnn.ttnn_layout<(d0, d1, d2, d3) -> (d0 * 64 + d1 * 64 + d2, d3), <8x8, virt_to_physical_map = (d0, d1) -> (0, d0, d1), physical_to_virt_map = (d0, d1, d2) -> (d1, d2)>, memref<1x4x!ttcore.tile<32x32, bf16>, #l1>, <interleaved>>
#ttnn_layout209 = #ttnn.ttnn_layout<(d0, d1, d2, d3) -> (d0 * 64 + d1 * 64 + d2, d3), <1x32, virt_to_physical_map = (d0, d1) -> (0, d1 floordiv 8, d1 mod 8), physical_to_virt_map = (d0, d1, d2) -> (0, d1 * 8 + d2)>, memref<8x1x!ttcore.tile<32x32, bf16>, #l1>, <width_sharded>>
#ttnn_layout210 = #ttnn.ttnn_layout<(d0, d1, d2, d3) -> (d0 * 32 + d1 * 32 + d2, d3), <1x32, virt_to_physical_map = (d0, d1) -> (0, d1 floordiv 8, d1 mod 8), physical_to_virt_map = (d0, d1, d2) -> (0, d1 * 8 + d2)>, memref<4x1x!ttcore.tile<32x32, bf16>, #l1>, <width_sharded>>
#ttnn_layout211 = #ttnn.ttnn_layout<(d0, d1, d2, d3) -> (d0 * 32 + d1 * 32 + d2, d3), <1x1>, memref<4x32x!ttcore.tile<32x32, bf16>, #l1>, <interleaved>>
#ttnn_layout212 = #ttnn.ttnn_layout<(d0, d1, d2, d3) -> (d0 * 32 + d1 * 32 + d2, d3), <1x32, virt_to_physical_map = (d0, d1) -> (0, d1 floordiv 8, d1 mod 8), physical_to_virt_map = (d0, d1, d2) -> (0, d1 * 8 + d2)>, memref<1x1x!ttcore.tile<32x32, bf16>, #l1>, <width_sharded>>
#ttnn_layout213 = #ttnn.ttnn_layout<(d0, d1, d2, d3) -> (d0 * 32 + d1 * 32 + d2, d3), <1x32, virt_to_physical_map = (d0, d1) -> (0, d1 floordiv 8, d1 mod 8), physical_to_virt_map = (d0, d1, d2) -> (0, d1 * 8 + d2)>, memref<1x1x!ttcore.tile<32x32, f32>, #l1>, <width_sharded>>
#ttnn_layout214 = #ttnn.ttnn_layout<(d0, d1, d2, d3) -> (d0 * 32 + d1 * 32 + d2, d3), <1x1>, memref<1x32x!ttcore.tile<32x32, bf16>, #l1>, <interleaved>>
#ttnn_layout215 = #ttnn.ttnn_layout<(d0, d1, d2, d3) -> (d0 * 32768 + d1 * 32 + d2, d3), <64x1, virt_to_physical_map = (d0, d1) -> (0, d0 floordiv 8, d0 mod 8), physical_to_virt_map = (d0, d1, d2) -> (d1 * 8 + d2, 0)>, memref<64x1x!ttcore.tile<32x32, bf16>, #l1>, <height_sharded>>
#ttnn_layout216 = #ttnn.ttnn_layout<(d0, d1, d2, d3) -> (d0 * 32768 + d1 * 32 + d2, d3), <64x1, virt_to_physical_map = (d0, d1) -> (0, d0 floordiv 8, d0 mod 8), physical_to_virt_map = (d0, d1, d2) -> (d1 * 8 + d2, 0)>, memref<64x1x!ttcore.tile<32x32, f32>, #l1>, <height_sharded>>
#ttnn_layout217 = #ttnn.ttnn_layout<(d0, d1, d2, d3) -> (d0 * 32768 + d1 * 32 + d2, d3), <1x1>, memref<4096x1x!ttcore.tile<32x32, f32>, #l1>, <interleaved>>
#ttnn_layout218 = #ttnn.ttnn_layout<(d0, d1, d2, d3) -> (d0 * 32768 + d1 * 32 + d2, d3), <8x8, virt_to_physical_map = (d0, d1) -> (0, d0, d1), physical_to_virt_map = (d0, d1, d2) -> (d1, d2)>, memref<1x64x!ttcore.tile<32x32, f32>, #l1>, <interleaved>>
#ttnn_layout219 = #ttnn.ttnn_layout<(d0, d1) -> (d0, d1), <8x8, virt_to_physical_map = (d0, d1) -> (0, d0, d1), physical_to_virt_map = (d0, d1, d2) -> (d1, d2)>, memref<1x1x!ttcore.tile<32x32, f32>, #l1>, <interleaved>>
#ttnn_layout220 = #ttnn.ttnn_layout<(d0, d1) -> (d0, d1), <1x32, virt_to_physical_map = (d0, d1) -> (0, d1 floordiv 8, d1 mod 8), physical_to_virt_map = (d0, d1, d2) -> (0, d1 * 8 + d2)>, memref<1x1x!ttcore.tile<32x32, f32>, #l1>, <width_sharded>>
#ttnn_layout221 = #ttnn.ttnn_layout<(d0, d1) -> (d0, d1), <1x32, virt_to_physical_map = (d0, d1) -> (0, d1 floordiv 8, d1 mod 8), physical_to_virt_map = (d0, d1, d2) -> (0, d1 * 8 + d2)>, memref<1x1x!ttcore.tile<32x32, bf16>, #l1>, <width_sharded>>
module @SyncTensorsGraph.1433 attributes {mhlo.cross_program_prefetches = [], mhlo.input_output_alias = [], mhlo.is_dynamic = false, mhlo.use_auto_spmd_partitioning = false, ttcore.meshes = #ttcore.meshes<[<"mesh" = 1x2>]>} {
  ttcore.device_module {
    builtin.module @SyncTensorsGraph.1433 attributes {mhlo.cross_program_prefetches = [], mhlo.input_output_alias = [], mhlo.is_dynamic = false, mhlo.use_auto_spmd_partitioning = false, ttcore.meshes = #ttcore.meshes<[<"mesh" = 1x2>]>, ttcore.system_desc = #system_desc} {
      ttcore.device @default_device = <workerGrid = #ttcore.grid<8x8, virt_to_physical_map = (d0, d1) -> (0, d0, d1), physical_to_virt_map = (d0, d1, d2) -> (d1, d2)>, l1Map = (d0, d1, d2)[s0] -> (0, d0, d1, d2 + s0), dramMap = (d0, d1, d2)[s0, s1, s2, s3, s4, s5, s6] -> (0, 0, (((d0 * s1) * (s2 * (s3 * s6)) + d1 * (s2 * (s3 * s6)) + d2) floordiv s4) mod 12, ((((d0 * s1) * (s2 * (s3 * s6)) + d1 * (s2 * (s3 * s6)) + d2) floordiv s4) floordiv 12) * s4 + ((d0 * s1) * (s2 * (s3 * s6)) + d1 * (s2 * (s3 * s6)) + d2) mod s4 + s5), meshShape = 1x2, chipIds = [0, 1], meshTopology = [ring, disabled]> loc(#loc)
      func.func private @main_const_eval_0(%arg0: tensor<1024xbf16, #ttnn_layout> loc(unknown), %arg1: tensor<1024xbf16, #ttnn_layout> loc(unknown), %arg2: tensor<1024xbf16, #ttnn_layout> loc(unknown), %arg3: tensor<1024xbf16, #ttnn_layout> loc(unknown), %arg4: tensor<1024x1440x1x1xbf16, #ttnn_layout1> {ttir.conv2d_weight} loc(unknown), %arg5: tensor<224xbf16, #ttnn_layout2> loc(unknown), %arg6: tensor<224xbf16, #ttnn_layout2> loc(unknown), %arg7: tensor<224xbf16, #ttnn_layout2> loc(unknown), %arg8: tensor<224xbf16, #ttnn_layout2> loc(unknown), %arg9: tensor<224x224x1x1xbf16, #ttnn_layout3> {ttir.conv2d_weight} loc(unknown), %arg10: tensor<224xbf16, #ttnn_layout2> loc(unknown), %arg11: tensor<224xbf16, #ttnn_layout2> loc(unknown), %arg12: tensor<224xbf16, #ttnn_layout2> loc(unknown), %arg13: tensor<224xbf16, #ttnn_layout2> loc(unknown), %arg14: tensor<224x224x1x1xbf16, #ttnn_layout3> {ttir.conv2d_weight} loc(unknown), %arg15: tensor<224xbf16, #ttnn_layout2> loc(unknown), %arg16: tensor<224xbf16, #ttnn_layout2> loc(unknown), %arg17: tensor<224xbf16, #ttnn_layout2> loc(unknown), %arg18: tensor<224xbf16, #ttnn_layout2> loc(unknown), %arg19: tensor<224x224x1x1xbf16, #ttnn_layout3> {ttir.conv2d_weight} loc(unknown), %arg20: tensor<224xbf16, #ttnn_layout2> loc(unknown), %arg21: tensor<224xbf16, #ttnn_layout2> loc(unknown), %arg22: tensor<224xbf16, #ttnn_layout2> loc(unknown), %arg23: tensor<224xbf16, #ttnn_layout2> loc(unknown), %arg24: tensor<224x768x1x1xbf16, #ttnn_layout4> {ttir.conv2d_weight} loc(unknown), %arg25: tensor<768xbf16, #ttnn_layout5> loc(unknown), %arg26: tensor<768xbf16, #ttnn_layout5> loc(unknown), %arg27: tensor<768xbf16, #ttnn_layout5> loc(unknown), %arg28: tensor<768xbf16, #ttnn_layout5> loc(unknown), %arg29: tensor<768x1088x1x1xbf16, #ttnn_layout6> {ttir.conv2d_weight} loc(unknown), %arg30: tensor<192xbf16, #ttnn_layout7> loc(unknown), %arg31: tensor<192xbf16, #ttnn_layout7> loc(unknown), %arg32: tensor<192xbf16, #ttnn_layout7> loc(unknown), %arg33: tensor<192xbf16, #ttnn_layout7> loc(unknown), %arg34: tensor<192x192x1x1xbf16, #ttnn_layout8> {ttir.conv2d_weight} loc(unknown), %arg35: tensor<192xbf16, #ttnn_layout7> loc(unknown), %arg36: tensor<192xbf16, #ttnn_layout7> loc(unknown), %arg37: tensor<192xbf16, #ttnn_layout7> loc(unknown), %arg38: tensor<192xbf16, #ttnn_layout7> loc(unknown), %arg39: tensor<192x192x1x1xbf16, #ttnn_layout8> {ttir.conv2d_weight} loc(unknown), %arg40: tensor<192xbf16, #ttnn_layout7> loc(unknown), %arg41: tensor<192xbf16, #ttnn_layout7> loc(unknown), %arg42: tensor<192xbf16, #ttnn_layout7> loc(unknown), %arg43: tensor<192xbf16, #ttnn_layout7> loc(unknown), %arg44: tensor<192x192x1x1xbf16, #ttnn_layout8> {ttir.conv2d_weight} loc(unknown), %arg45: tensor<192xbf16, #ttnn_layout7> loc(unknown), %arg46: tensor<192xbf16, #ttnn_layout7> loc(unknown), %arg47: tensor<192xbf16, #ttnn_layout7> loc(unknown), %arg48: tensor<192xbf16, #ttnn_layout7> loc(unknown), %arg49: tensor<192x512x1x1xbf16, #ttnn_layout9> {ttir.conv2d_weight} loc(unknown), %arg50: tensor<512xbf16, #ttnn_layout10> loc(unknown), %arg51: tensor<512xbf16, #ttnn_layout10> loc(unknown), %arg52: tensor<512xbf16, #ttnn_layout10> loc(unknown), %arg53: tensor<512xbf16, #ttnn_layout10> loc(unknown), %arg54: tensor<512x736x1x1xbf16, #ttnn_layout11> {ttir.conv2d_weight} loc(unknown), %arg55: tensor<160xbf16, #ttnn_layout12> loc(unknown), %arg56: tensor<160xbf16, #ttnn_layout12> loc(unknown), %arg57: tensor<160xbf16, #ttnn_layout12> loc(unknown), %arg58: tensor<160xbf16, #ttnn_layout12> loc(unknown), %arg59: tensor<160x160x1x1xbf16, #ttnn_layout13> {ttir.conv2d_weight} loc(unknown), %arg60: tensor<160xbf16, #ttnn_layout12> loc(unknown), %arg61: tensor<160xbf16, #ttnn_layout12> loc(unknown), %arg62: tensor<160xbf16, #ttnn_layout12> loc(unknown), %arg63: tensor<160xbf16, #ttnn_layout12> loc(unknown), %arg64: tensor<160x160x1x1xbf16, #ttnn_layout13> {ttir.conv2d_weight} loc(unknown), %arg65: tensor<160xbf16, #ttnn_layout12> loc(unknown), %arg66: tensor<160xbf16, #ttnn_layout12> loc(unknown), %arg67: tensor<160xbf16, #ttnn_layout12> loc(unknown), %arg68: tensor<160xbf16, #ttnn_layout12> loc(unknown), %arg69: tensor<160x160x1x1xbf16, #ttnn_layout13> {ttir.conv2d_weight} loc(unknown), %arg70: tensor<160xbf16, #ttnn_layout12> loc(unknown), %arg71: tensor<160xbf16, #ttnn_layout12> loc(unknown), %arg72: tensor<160xbf16, #ttnn_layout12> loc(unknown), %arg73: tensor<160xbf16, #ttnn_layout12> loc(unknown), %arg74: tensor<160x256x1x1xbf16, #ttnn_layout14> {ttir.conv2d_weight} loc(unknown), %arg75: tensor<256xbf16, #ttnn_layout15> loc(unknown), %arg76: tensor<256xbf16, #ttnn_layout15> loc(unknown), %arg77: tensor<256xbf16, #ttnn_layout15> loc(unknown), %arg78: tensor<256xbf16, #ttnn_layout15> loc(unknown), %arg79: tensor<256x448x1x1xbf16, #ttnn_layout16> {ttir.conv2d_weight} loc(unknown), %arg80: tensor<128xbf16, #ttnn_layout17> loc(unknown), %arg81: tensor<128xbf16, #ttnn_layout17> loc(unknown), %arg82: tensor<128xbf16, #ttnn_layout17> loc(unknown), %arg83: tensor<128xbf16, #ttnn_layout17> loc(unknown), %arg84: tensor<128x128x1x1xbf16, #ttnn_layout18> {ttir.conv2d_weight} loc(unknown), %arg85: tensor<128xbf16, #ttnn_layout17> loc(unknown), %arg86: tensor<128xbf16, #ttnn_layout17> loc(unknown), %arg87: tensor<128xbf16, #ttnn_layout17> loc(unknown), %arg88: tensor<128xbf16, #ttnn_layout17> loc(unknown), %arg89: tensor<128x128x1x1xbf16, #ttnn_layout18> {ttir.conv2d_weight} loc(unknown), %arg90: tensor<128xbf16, #ttnn_layout17> loc(unknown), %arg91: tensor<128xbf16, #ttnn_layout17> loc(unknown), %arg92: tensor<128xbf16, #ttnn_layout17> loc(unknown), %arg93: tensor<128xbf16, #ttnn_layout17> loc(unknown), %arg94: tensor<128x128x1x1xbf16, #ttnn_layout18> {ttir.conv2d_weight} loc(unknown), %arg95: tensor<128xbf16, #ttnn_layout17> loc(unknown), %arg96: tensor<128xbf16, #ttnn_layout17> loc(unknown), %arg97: tensor<128xbf16, #ttnn_layout17> loc(unknown), %arg98: tensor<128xbf16, #ttnn_layout17> loc(unknown), %arg99: tensor<128x64x1x1xbf16, #ttnn_layout19> {ttir.conv2d_weight} loc(unknown), %arg100: tensor<64xbf16, #ttnn_layout20> loc(unknown), %arg101: tensor<64xbf16, #ttnn_layout20> loc(unknown), %arg102: tensor<64xbf16, #ttnn_layout20> loc(unknown), %arg103: tensor<64xbf16, #ttnn_layout20> loc(unknown), %arg104: tensor<64x64x1x1xbf16, #ttnn_layout21> {ttir.conv2d_weight} loc(unknown), %arg105: tensor<64xbf16, #ttnn_layout20> loc(unknown), %arg106: tensor<64xbf16, #ttnn_layout20> loc(unknown), %arg107: tensor<64xbf16, #ttnn_layout20> loc(unknown), %arg108: tensor<64xbf16, #ttnn_layout20> loc(unknown), %arg109: tensor<64x64x1x1xbf16, #ttnn_layout21> {ttir.conv2d_weight} loc(unknown), %arg110: tensor<64xbf16, #ttnn_layout20> loc(unknown), %arg111: tensor<64xbf16, #ttnn_layout20> loc(unknown), %arg112: tensor<64xbf16, #ttnn_layout20> loc(unknown), %arg113: tensor<64xbf16, #ttnn_layout20> loc(unknown), %arg114: tensor<64x3x3x3xbf16, #ttnn_layout22> {ttir.conv2d_weight} loc(unknown)) -> (tensor<1x1x27x64xbf16, #ttnn_layout23>, tensor<1x1x1x64xbf16, #ttnn_layout23>, tensor<1x1x64x64xbf16, #ttnn_layout24>, tensor<1x1x1x64xbf16, #ttnn_layout23>, tensor<1x1x64x64xbf16, #ttnn_layout24>, tensor<1x1x1x64xbf16, #ttnn_layout23>, tensor<1x1x64x128xbf16, #ttnn_layout25>, tensor<1x1x1x128xbf16, #ttnn_layout26>, tensor<1x1x128x128xbf16, #ttnn_layout27>, tensor<1x1x1x128xbf16, #ttnn_layout26>, tensor<1x1x128x128xbf16, #ttnn_layout27>, tensor<1x1x1x128xbf16, #ttnn_layout26>, tensor<1x1x128x128xbf16, #ttnn_layout27>, tensor<1x1x1x128xbf16, #ttnn_layout26>, tensor<1x1x448x256xbf16, #ttnn_layout28>, tensor<1x1x1x256xbf16, #ttnn_layout29>, tensor<1x1x256x160xbf16, #ttnn_layout30>, tensor<1x1x1x160xbf16, #ttnn_layout31>, tensor<1x1x160x160xbf16, #ttnn_layout32>, tensor<1x1x1x160xbf16, #ttnn_layout31>, tensor<1x1x160x160xbf16, #ttnn_layout32>, tensor<1x1x1x160xbf16, #ttnn_layout31>, tensor<1x1x160x160xbf16, #ttnn_layout32>, tensor<1x1x1x160xbf16, #ttnn_layout31>, tensor<1x1x736x512xbf16, #ttnn_layout33>, tensor<1x1x1x512xbf16, #ttnn_layout34>, tensor<1x1x512x192xbf16, #ttnn_layout35>, tensor<1x1x1x192xbf16, #ttnn_layout36>, tensor<1x1x192x192xbf16, #ttnn_layout37>, tensor<1x1x1x192xbf16, #ttnn_layout36>, tensor<1x1x192x192xbf16, #ttnn_layout37>, tensor<1x1x1x192xbf16, #ttnn_layout36>, tensor<1x1x192x192xbf16, #ttnn_layout37>, tensor<1x1x1x192xbf16, #ttnn_layout36>, tensor<1x1x1088x768xbf16, #ttnn_layout38>, tensor<1x1x1x768xbf16, #ttnn_layout39>, tensor<1x1x768x224xbf16, #ttnn_layout40>, tensor<1x1x1x224xbf16, #ttnn_layout41>, tensor<1x1x224x224xbf16, #ttnn_layout42>, tensor<1x1x1x224xbf16, #ttnn_layout41>, tensor<1x1x224x224xbf16, #ttnn_layout42>, tensor<1x1x1x224xbf16, #ttnn_layout41>, tensor<1x1x224x224xbf16, #ttnn_layout42>, tensor<1x1x1x224xbf16, #ttnn_layout41>, tensor<1x1x1440x1024xbf16, #ttnn_layout43>, tensor<1x1x1x1024xbf16, #ttnn_layout44>) attributes {tt.function_type = "const_eval"} {
        %0 = "ttnn.get_device"() <{mesh_offset = #ttnn<mesh_offset 0x0>, mesh_shape = #ttnn<mesh_shape 1x2>}> : () -> !ttnn.device loc(#loc)
        %1 = "ttnn.to_device"(%arg113, %0) <{memory_config = #ttnn.memory_config<#dram, <interleaved>>}> : (tensor<64xbf16, #ttnn_layout20>, !ttnn.device) -> tensor<64xbf16, #ttnn_layout45> loc(#loc)
        %2 = "ttnn.to_layout"(%1) <{layout = #ttnn.layout<tile>}> : (tensor<64xbf16, #ttnn_layout45>) -> tensor<64xbf16, #ttnn_layout46> loc(#loc)
        "ttnn.deallocate"(%1) <{force = false}> : (tensor<64xbf16, #ttnn_layout45>) -> () loc(#loc)
        %3 = "ttnn.to_device"(%arg112, %0) <{memory_config = #ttnn.memory_config<#dram, <interleaved>>}> : (tensor<64xbf16, #ttnn_layout20>, !ttnn.device) -> tensor<64xbf16, #ttnn_layout45> loc(#loc)
        %4 = "ttnn.to_layout"(%3) <{layout = #ttnn.layout<tile>}> : (tensor<64xbf16, #ttnn_layout45>) -> tensor<64xbf16, #ttnn_layout46> loc(#loc)
        "ttnn.deallocate"(%3) <{force = false}> : (tensor<64xbf16, #ttnn_layout45>) -> () loc(#loc)
        %5 = "ttnn.to_device"(%arg111, %0) <{memory_config = #ttnn.memory_config<#dram, <interleaved>>}> : (tensor<64xbf16, #ttnn_layout20>, !ttnn.device) -> tensor<64xbf16, #ttnn_layout45> loc(#loc)
        %6 = "ttnn.to_layout"(%5) <{layout = #ttnn.layout<tile>}> : (tensor<64xbf16, #ttnn_layout45>) -> tensor<64xbf16, #ttnn_layout46> loc(#loc)
        "ttnn.deallocate"(%5) <{force = false}> : (tensor<64xbf16, #ttnn_layout45>) -> () loc(#loc)
        %7 = "ttnn.to_device"(%arg110, %0) <{memory_config = #ttnn.memory_config<#dram, <interleaved>>}> : (tensor<64xbf16, #ttnn_layout20>, !ttnn.device) -> tensor<64xbf16, #ttnn_layout45> loc(#loc)
        %8 = "ttnn.to_layout"(%7) <{layout = #ttnn.layout<tile>}> : (tensor<64xbf16, #ttnn_layout45>) -> tensor<64xbf16, #ttnn_layout46> loc(#loc)
        "ttnn.deallocate"(%7) <{force = false}> : (tensor<64xbf16, #ttnn_layout45>) -> () loc(#loc)
        %9 = "ttnn.to_device"(%arg108, %0) <{memory_config = #ttnn.memory_config<#dram, <interleaved>>}> : (tensor<64xbf16, #ttnn_layout20>, !ttnn.device) -> tensor<64xbf16, #ttnn_layout45> loc(#loc)
        %10 = "ttnn.to_layout"(%9) <{layout = #ttnn.layout<tile>}> : (tensor<64xbf16, #ttnn_layout45>) -> tensor<64xbf16, #ttnn_layout46> loc(#loc)
        "ttnn.deallocate"(%9) <{force = false}> : (tensor<64xbf16, #ttnn_layout45>) -> () loc(#loc)
        %11 = "ttnn.to_device"(%arg107, %0) <{memory_config = #ttnn.memory_config<#dram, <interleaved>>}> : (tensor<64xbf16, #ttnn_layout20>, !ttnn.device) -> tensor<64xbf16, #ttnn_layout45> loc(#loc)
        %12 = "ttnn.to_layout"(%11) <{layout = #ttnn.layout<tile>}> : (tensor<64xbf16, #ttnn_layout45>) -> tensor<64xbf16, #ttnn_layout46> loc(#loc)
        "ttnn.deallocate"(%11) <{force = false}> : (tensor<64xbf16, #ttnn_layout45>) -> () loc(#loc)
        %13 = "ttnn.to_device"(%arg106, %0) <{memory_config = #ttnn.memory_config<#dram, <interleaved>>}> : (tensor<64xbf16, #ttnn_layout20>, !ttnn.device) -> tensor<64xbf16, #ttnn_layout45> loc(#loc)
        %14 = "ttnn.to_layout"(%13) <{layout = #ttnn.layout<tile>}> : (tensor<64xbf16, #ttnn_layout45>) -> tensor<64xbf16, #ttnn_layout46> loc(#loc)
        "ttnn.deallocate"(%13) <{force = false}> : (tensor<64xbf16, #ttnn_layout45>) -> () loc(#loc)
        %15 = "ttnn.to_device"(%arg105, %0) <{memory_config = #ttnn.memory_config<#dram, <interleaved>>}> : (tensor<64xbf16, #ttnn_layout20>, !ttnn.device) -> tensor<64xbf16, #ttnn_layout45> loc(#loc)
        %16 = "ttnn.to_layout"(%15) <{layout = #ttnn.layout<tile>}> : (tensor<64xbf16, #ttnn_layout45>) -> tensor<64xbf16, #ttnn_layout46> loc(#loc)
        "ttnn.deallocate"(%15) <{force = false}> : (tensor<64xbf16, #ttnn_layout45>) -> () loc(#loc)
        %17 = "ttnn.to_device"(%arg103, %0) <{memory_config = #ttnn.memory_config<#dram, <interleaved>>}> : (tensor<64xbf16, #ttnn_layout20>, !ttnn.device) -> tensor<64xbf16, #ttnn_layout45> loc(#loc)
        %18 = "ttnn.to_layout"(%17) <{layout = #ttnn.layout<tile>}> : (tensor<64xbf16, #ttnn_layout45>) -> tensor<64xbf16, #ttnn_layout46> loc(#loc)
        "ttnn.deallocate"(%17) <{force = false}> : (tensor<64xbf16, #ttnn_layout45>) -> () loc(#loc)
        %19 = "ttnn.to_device"(%arg102, %0) <{memory_config = #ttnn.memory_config<#dram, <interleaved>>}> : (tensor<64xbf16, #ttnn_layout20>, !ttnn.device) -> tensor<64xbf16, #ttnn_layout45> loc(#loc)
        %20 = "ttnn.to_layout"(%19) <{layout = #ttnn.layout<tile>}> : (tensor<64xbf16, #ttnn_layout45>) -> tensor<64xbf16, #ttnn_layout46> loc(#loc)
        "ttnn.deallocate"(%19) <{force = false}> : (tensor<64xbf16, #ttnn_layout45>) -> () loc(#loc)
        %21 = "ttnn.to_device"(%arg101, %0) <{memory_config = #ttnn.memory_config<#dram, <interleaved>>}> : (tensor<64xbf16, #ttnn_layout20>, !ttnn.device) -> tensor<64xbf16, #ttnn_layout45> loc(#loc)
        %22 = "ttnn.to_layout"(%21) <{layout = #ttnn.layout<tile>}> : (tensor<64xbf16, #ttnn_layout45>) -> tensor<64xbf16, #ttnn_layout46> loc(#loc)
        "ttnn.deallocate"(%21) <{force = false}> : (tensor<64xbf16, #ttnn_layout45>) -> () loc(#loc)
        %23 = "ttnn.to_device"(%arg100, %0) <{memory_config = #ttnn.memory_config<#dram, <interleaved>>}> : (tensor<64xbf16, #ttnn_layout20>, !ttnn.device) -> tensor<64xbf16, #ttnn_layout45> loc(#loc)
        %24 = "ttnn.to_layout"(%23) <{layout = #ttnn.layout<tile>}> : (tensor<64xbf16, #ttnn_layout45>) -> tensor<64xbf16, #ttnn_layout46> loc(#loc)
        "ttnn.deallocate"(%23) <{force = false}> : (tensor<64xbf16, #ttnn_layout45>) -> () loc(#loc)
        %25 = "ttnn.to_device"(%arg98, %0) <{memory_config = #ttnn.memory_config<#dram, <interleaved>>}> : (tensor<128xbf16, #ttnn_layout17>, !ttnn.device) -> tensor<128xbf16, #ttnn_layout47> loc(#loc)
        %26 = "ttnn.to_layout"(%25) <{layout = #ttnn.layout<tile>}> : (tensor<128xbf16, #ttnn_layout47>) -> tensor<128xbf16, #ttnn_layout48> loc(#loc)
        "ttnn.deallocate"(%25) <{force = false}> : (tensor<128xbf16, #ttnn_layout47>) -> () loc(#loc)
        %27 = "ttnn.to_device"(%arg97, %0) <{memory_config = #ttnn.memory_config<#dram, <interleaved>>}> : (tensor<128xbf16, #ttnn_layout17>, !ttnn.device) -> tensor<128xbf16, #ttnn_layout47> loc(#loc)
        %28 = "ttnn.to_layout"(%27) <{layout = #ttnn.layout<tile>}> : (tensor<128xbf16, #ttnn_layout47>) -> tensor<128xbf16, #ttnn_layout48> loc(#loc)
        "ttnn.deallocate"(%27) <{force = false}> : (tensor<128xbf16, #ttnn_layout47>) -> () loc(#loc)
        %29 = "ttnn.to_device"(%arg96, %0) <{memory_config = #ttnn.memory_config<#dram, <interleaved>>}> : (tensor<128xbf16, #ttnn_layout17>, !ttnn.device) -> tensor<128xbf16, #ttnn_layout47> loc(#loc)
        %30 = "ttnn.to_layout"(%29) <{layout = #ttnn.layout<tile>}> : (tensor<128xbf16, #ttnn_layout47>) -> tensor<128xbf16, #ttnn_layout48> loc(#loc)
        "ttnn.deallocate"(%29) <{force = false}> : (tensor<128xbf16, #ttnn_layout47>) -> () loc(#loc)
        %31 = "ttnn.to_device"(%arg95, %0) <{memory_config = #ttnn.memory_config<#dram, <interleaved>>}> : (tensor<128xbf16, #ttnn_layout17>, !ttnn.device) -> tensor<128xbf16, #ttnn_layout47> loc(#loc)
        %32 = "ttnn.to_layout"(%31) <{layout = #ttnn.layout<tile>}> : (tensor<128xbf16, #ttnn_layout47>) -> tensor<128xbf16, #ttnn_layout48> loc(#loc)
        "ttnn.deallocate"(%31) <{force = false}> : (tensor<128xbf16, #ttnn_layout47>) -> () loc(#loc)
        %33 = "ttnn.to_device"(%arg93, %0) <{memory_config = #ttnn.memory_config<#dram, <interleaved>>}> : (tensor<128xbf16, #ttnn_layout17>, !ttnn.device) -> tensor<128xbf16, #ttnn_layout47> loc(#loc)
        %34 = "ttnn.to_layout"(%33) <{layout = #ttnn.layout<tile>}> : (tensor<128xbf16, #ttnn_layout47>) -> tensor<128xbf16, #ttnn_layout48> loc(#loc)
        "ttnn.deallocate"(%33) <{force = false}> : (tensor<128xbf16, #ttnn_layout47>) -> () loc(#loc)
        %35 = "ttnn.to_device"(%arg92, %0) <{memory_config = #ttnn.memory_config<#dram, <interleaved>>}> : (tensor<128xbf16, #ttnn_layout17>, !ttnn.device) -> tensor<128xbf16, #ttnn_layout47> loc(#loc)
        %36 = "ttnn.to_layout"(%35) <{layout = #ttnn.layout<tile>}> : (tensor<128xbf16, #ttnn_layout47>) -> tensor<128xbf16, #ttnn_layout48> loc(#loc)
        "ttnn.deallocate"(%35) <{force = false}> : (tensor<128xbf16, #ttnn_layout47>) -> () loc(#loc)
        %37 = "ttnn.to_device"(%arg91, %0) <{memory_config = #ttnn.memory_config<#dram, <interleaved>>}> : (tensor<128xbf16, #ttnn_layout17>, !ttnn.device) -> tensor<128xbf16, #ttnn_layout47> loc(#loc)
        %38 = "ttnn.to_layout"(%37) <{layout = #ttnn.layout<tile>}> : (tensor<128xbf16, #ttnn_layout47>) -> tensor<128xbf16, #ttnn_layout48> loc(#loc)
        "ttnn.deallocate"(%37) <{force = false}> : (tensor<128xbf16, #ttnn_layout47>) -> () loc(#loc)
        %39 = "ttnn.to_device"(%arg90, %0) <{memory_config = #ttnn.memory_config<#dram, <interleaved>>}> : (tensor<128xbf16, #ttnn_layout17>, !ttnn.device) -> tensor<128xbf16, #ttnn_layout47> loc(#loc)
        %40 = "ttnn.to_layout"(%39) <{layout = #ttnn.layout<tile>}> : (tensor<128xbf16, #ttnn_layout47>) -> tensor<128xbf16, #ttnn_layout48> loc(#loc)
        "ttnn.deallocate"(%39) <{force = false}> : (tensor<128xbf16, #ttnn_layout47>) -> () loc(#loc)
        %41 = "ttnn.to_device"(%arg88, %0) <{memory_config = #ttnn.memory_config<#dram, <interleaved>>}> : (tensor<128xbf16, #ttnn_layout17>, !ttnn.device) -> tensor<128xbf16, #ttnn_layout47> loc(#loc)
        %42 = "ttnn.to_layout"(%41) <{layout = #ttnn.layout<tile>}> : (tensor<128xbf16, #ttnn_layout47>) -> tensor<128xbf16, #ttnn_layout48> loc(#loc)
        "ttnn.deallocate"(%41) <{force = false}> : (tensor<128xbf16, #ttnn_layout47>) -> () loc(#loc)
        %43 = "ttnn.to_device"(%arg87, %0) <{memory_config = #ttnn.memory_config<#dram, <interleaved>>}> : (tensor<128xbf16, #ttnn_layout17>, !ttnn.device) -> tensor<128xbf16, #ttnn_layout47> loc(#loc)
        %44 = "ttnn.to_layout"(%43) <{layout = #ttnn.layout<tile>}> : (tensor<128xbf16, #ttnn_layout47>) -> tensor<128xbf16, #ttnn_layout48> loc(#loc)
        "ttnn.deallocate"(%43) <{force = false}> : (tensor<128xbf16, #ttnn_layout47>) -> () loc(#loc)
        %45 = "ttnn.to_device"(%arg86, %0) <{memory_config = #ttnn.memory_config<#dram, <interleaved>>}> : (tensor<128xbf16, #ttnn_layout17>, !ttnn.device) -> tensor<128xbf16, #ttnn_layout47> loc(#loc)
        %46 = "ttnn.to_layout"(%45) <{layout = #ttnn.layout<tile>}> : (tensor<128xbf16, #ttnn_layout47>) -> tensor<128xbf16, #ttnn_layout48> loc(#loc)
        "ttnn.deallocate"(%45) <{force = false}> : (tensor<128xbf16, #ttnn_layout47>) -> () loc(#loc)
        %47 = "ttnn.to_device"(%arg85, %0) <{memory_config = #ttnn.memory_config<#dram, <interleaved>>}> : (tensor<128xbf16, #ttnn_layout17>, !ttnn.device) -> tensor<128xbf16, #ttnn_layout47> loc(#loc)
        %48 = "ttnn.to_layout"(%47) <{layout = #ttnn.layout<tile>}> : (tensor<128xbf16, #ttnn_layout47>) -> tensor<128xbf16, #ttnn_layout48> loc(#loc)
        "ttnn.deallocate"(%47) <{force = false}> : (tensor<128xbf16, #ttnn_layout47>) -> () loc(#loc)
        %49 = "ttnn.to_device"(%arg83, %0) <{memory_config = #ttnn.memory_config<#dram, <interleaved>>}> : (tensor<128xbf16, #ttnn_layout17>, !ttnn.device) -> tensor<128xbf16, #ttnn_layout47> loc(#loc)
        %50 = "ttnn.to_layout"(%49) <{layout = #ttnn.layout<tile>}> : (tensor<128xbf16, #ttnn_layout47>) -> tensor<128xbf16, #ttnn_layout48> loc(#loc)
        "ttnn.deallocate"(%49) <{force = false}> : (tensor<128xbf16, #ttnn_layout47>) -> () loc(#loc)
        %51 = "ttnn.to_device"(%arg82, %0) <{memory_config = #ttnn.memory_config<#dram, <interleaved>>}> : (tensor<128xbf16, #ttnn_layout17>, !ttnn.device) -> tensor<128xbf16, #ttnn_layout47> loc(#loc)
        %52 = "ttnn.to_layout"(%51) <{layout = #ttnn.layout<tile>}> : (tensor<128xbf16, #ttnn_layout47>) -> tensor<128xbf16, #ttnn_layout48> loc(#loc)
        "ttnn.deallocate"(%51) <{force = false}> : (tensor<128xbf16, #ttnn_layout47>) -> () loc(#loc)
        %53 = "ttnn.to_device"(%arg81, %0) <{memory_config = #ttnn.memory_config<#dram, <interleaved>>}> : (tensor<128xbf16, #ttnn_layout17>, !ttnn.device) -> tensor<128xbf16, #ttnn_layout47> loc(#loc)
        %54 = "ttnn.to_layout"(%53) <{layout = #ttnn.layout<tile>}> : (tensor<128xbf16, #ttnn_layout47>) -> tensor<128xbf16, #ttnn_layout48> loc(#loc)
        "ttnn.deallocate"(%53) <{force = false}> : (tensor<128xbf16, #ttnn_layout47>) -> () loc(#loc)
        %55 = "ttnn.to_device"(%arg80, %0) <{memory_config = #ttnn.memory_config<#dram, <interleaved>>}> : (tensor<128xbf16, #ttnn_layout17>, !ttnn.device) -> tensor<128xbf16, #ttnn_layout47> loc(#loc)
        %56 = "ttnn.to_layout"(%55) <{layout = #ttnn.layout<tile>}> : (tensor<128xbf16, #ttnn_layout47>) -> tensor<128xbf16, #ttnn_layout48> loc(#loc)
        "ttnn.deallocate"(%55) <{force = false}> : (tensor<128xbf16, #ttnn_layout47>) -> () loc(#loc)
        %57 = "ttnn.to_device"(%arg78, %0) <{memory_config = #ttnn.memory_config<#dram, <interleaved>>}> : (tensor<256xbf16, #ttnn_layout15>, !ttnn.device) -> tensor<256xbf16, #ttnn_layout49> loc(#loc)
        %58 = "ttnn.to_layout"(%57) <{layout = #ttnn.layout<tile>}> : (tensor<256xbf16, #ttnn_layout49>) -> tensor<256xbf16, #ttnn_layout50> loc(#loc)
        "ttnn.deallocate"(%57) <{force = false}> : (tensor<256xbf16, #ttnn_layout49>) -> () loc(#loc)
        %59 = "ttnn.to_device"(%arg77, %0) <{memory_config = #ttnn.memory_config<#dram, <interleaved>>}> : (tensor<256xbf16, #ttnn_layout15>, !ttnn.device) -> tensor<256xbf16, #ttnn_layout49> loc(#loc)
        %60 = "ttnn.to_layout"(%59) <{layout = #ttnn.layout<tile>}> : (tensor<256xbf16, #ttnn_layout49>) -> tensor<256xbf16, #ttnn_layout50> loc(#loc)
        "ttnn.deallocate"(%59) <{force = false}> : (tensor<256xbf16, #ttnn_layout49>) -> () loc(#loc)
        %61 = "ttnn.to_device"(%arg76, %0) <{memory_config = #ttnn.memory_config<#dram, <interleaved>>}> : (tensor<256xbf16, #ttnn_layout15>, !ttnn.device) -> tensor<256xbf16, #ttnn_layout49> loc(#loc)
        %62 = "ttnn.to_layout"(%61) <{layout = #ttnn.layout<tile>}> : (tensor<256xbf16, #ttnn_layout49>) -> tensor<256xbf16, #ttnn_layout50> loc(#loc)
        "ttnn.deallocate"(%61) <{force = false}> : (tensor<256xbf16, #ttnn_layout49>) -> () loc(#loc)
        %63 = "ttnn.to_device"(%arg75, %0) <{memory_config = #ttnn.memory_config<#dram, <interleaved>>}> : (tensor<256xbf16, #ttnn_layout15>, !ttnn.device) -> tensor<256xbf16, #ttnn_layout49> loc(#loc)
        %64 = "ttnn.to_layout"(%63) <{layout = #ttnn.layout<tile>}> : (tensor<256xbf16, #ttnn_layout49>) -> tensor<256xbf16, #ttnn_layout50> loc(#loc)
        "ttnn.deallocate"(%63) <{force = false}> : (tensor<256xbf16, #ttnn_layout49>) -> () loc(#loc)
        %65 = "ttnn.to_device"(%arg73, %0) <{memory_config = #ttnn.memory_config<#dram, <interleaved>>}> : (tensor<160xbf16, #ttnn_layout12>, !ttnn.device) -> tensor<160xbf16, #ttnn_layout51> loc(#loc)
        %66 = "ttnn.to_layout"(%65) <{layout = #ttnn.layout<tile>}> : (tensor<160xbf16, #ttnn_layout51>) -> tensor<160xbf16, #ttnn_layout52> loc(#loc)
        "ttnn.deallocate"(%65) <{force = false}> : (tensor<160xbf16, #ttnn_layout51>) -> () loc(#loc)
        %67 = "ttnn.to_device"(%arg72, %0) <{memory_config = #ttnn.memory_config<#dram, <interleaved>>}> : (tensor<160xbf16, #ttnn_layout12>, !ttnn.device) -> tensor<160xbf16, #ttnn_layout51> loc(#loc)
        %68 = "ttnn.to_layout"(%67) <{layout = #ttnn.layout<tile>}> : (tensor<160xbf16, #ttnn_layout51>) -> tensor<160xbf16, #ttnn_layout52> loc(#loc)
        "ttnn.deallocate"(%67) <{force = false}> : (tensor<160xbf16, #ttnn_layout51>) -> () loc(#loc)
        %69 = "ttnn.to_device"(%arg71, %0) <{memory_config = #ttnn.memory_config<#dram, <interleaved>>}> : (tensor<160xbf16, #ttnn_layout12>, !ttnn.device) -> tensor<160xbf16, #ttnn_layout51> loc(#loc)
        %70 = "ttnn.to_layout"(%69) <{layout = #ttnn.layout<tile>}> : (tensor<160xbf16, #ttnn_layout51>) -> tensor<160xbf16, #ttnn_layout52> loc(#loc)
        "ttnn.deallocate"(%69) <{force = false}> : (tensor<160xbf16, #ttnn_layout51>) -> () loc(#loc)
        %71 = "ttnn.to_device"(%arg70, %0) <{memory_config = #ttnn.memory_config<#dram, <interleaved>>}> : (tensor<160xbf16, #ttnn_layout12>, !ttnn.device) -> tensor<160xbf16, #ttnn_layout51> loc(#loc)
        %72 = "ttnn.to_layout"(%71) <{layout = #ttnn.layout<tile>}> : (tensor<160xbf16, #ttnn_layout51>) -> tensor<160xbf16, #ttnn_layout52> loc(#loc)
        "ttnn.deallocate"(%71) <{force = false}> : (tensor<160xbf16, #ttnn_layout51>) -> () loc(#loc)
        %73 = "ttnn.to_device"(%arg68, %0) <{memory_config = #ttnn.memory_config<#dram, <interleaved>>}> : (tensor<160xbf16, #ttnn_layout12>, !ttnn.device) -> tensor<160xbf16, #ttnn_layout51> loc(#loc)
        %74 = "ttnn.to_layout"(%73) <{layout = #ttnn.layout<tile>}> : (tensor<160xbf16, #ttnn_layout51>) -> tensor<160xbf16, #ttnn_layout52> loc(#loc)
        "ttnn.deallocate"(%73) <{force = false}> : (tensor<160xbf16, #ttnn_layout51>) -> () loc(#loc)
        %75 = "ttnn.to_device"(%arg67, %0) <{memory_config = #ttnn.memory_config<#dram, <interleaved>>}> : (tensor<160xbf16, #ttnn_layout12>, !ttnn.device) -> tensor<160xbf16, #ttnn_layout51> loc(#loc)
        %76 = "ttnn.to_layout"(%75) <{layout = #ttnn.layout<tile>}> : (tensor<160xbf16, #ttnn_layout51>) -> tensor<160xbf16, #ttnn_layout52> loc(#loc)
        "ttnn.deallocate"(%75) <{force = false}> : (tensor<160xbf16, #ttnn_layout51>) -> () loc(#loc)
        %77 = "ttnn.to_device"(%arg66, %0) <{memory_config = #ttnn.memory_config<#dram, <interleaved>>}> : (tensor<160xbf16, #ttnn_layout12>, !ttnn.device) -> tensor<160xbf16, #ttnn_layout51> loc(#loc)
        %78 = "ttnn.to_layout"(%77) <{layout = #ttnn.layout<tile>}> : (tensor<160xbf16, #ttnn_layout51>) -> tensor<160xbf16, #ttnn_layout52> loc(#loc)
        "ttnn.deallocate"(%77) <{force = false}> : (tensor<160xbf16, #ttnn_layout51>) -> () loc(#loc)
        %79 = "ttnn.to_device"(%arg65, %0) <{memory_config = #ttnn.memory_config<#dram, <interleaved>>}> : (tensor<160xbf16, #ttnn_layout12>, !ttnn.device) -> tensor<160xbf16, #ttnn_layout51> loc(#loc)
        %80 = "ttnn.to_layout"(%79) <{layout = #ttnn.layout<tile>}> : (tensor<160xbf16, #ttnn_layout51>) -> tensor<160xbf16, #ttnn_layout52> loc(#loc)
        "ttnn.deallocate"(%79) <{force = false}> : (tensor<160xbf16, #ttnn_layout51>) -> () loc(#loc)
        %81 = "ttnn.to_device"(%arg63, %0) <{memory_config = #ttnn.memory_config<#dram, <interleaved>>}> : (tensor<160xbf16, #ttnn_layout12>, !ttnn.device) -> tensor<160xbf16, #ttnn_layout51> loc(#loc)
        %82 = "ttnn.to_layout"(%81) <{layout = #ttnn.layout<tile>}> : (tensor<160xbf16, #ttnn_layout51>) -> tensor<160xbf16, #ttnn_layout52> loc(#loc)
        "ttnn.deallocate"(%81) <{force = false}> : (tensor<160xbf16, #ttnn_layout51>) -> () loc(#loc)
        %83 = "ttnn.to_device"(%arg62, %0) <{memory_config = #ttnn.memory_config<#dram, <interleaved>>}> : (tensor<160xbf16, #ttnn_layout12>, !ttnn.device) -> tensor<160xbf16, #ttnn_layout51> loc(#loc)
        %84 = "ttnn.to_layout"(%83) <{layout = #ttnn.layout<tile>}> : (tensor<160xbf16, #ttnn_layout51>) -> tensor<160xbf16, #ttnn_layout52> loc(#loc)
        "ttnn.deallocate"(%83) <{force = false}> : (tensor<160xbf16, #ttnn_layout51>) -> () loc(#loc)
        %85 = "ttnn.to_device"(%arg61, %0) <{memory_config = #ttnn.memory_config<#dram, <interleaved>>}> : (tensor<160xbf16, #ttnn_layout12>, !ttnn.device) -> tensor<160xbf16, #ttnn_layout51> loc(#loc)
        %86 = "ttnn.to_layout"(%85) <{layout = #ttnn.layout<tile>}> : (tensor<160xbf16, #ttnn_layout51>) -> tensor<160xbf16, #ttnn_layout52> loc(#loc)
        "ttnn.deallocate"(%85) <{force = false}> : (tensor<160xbf16, #ttnn_layout51>) -> () loc(#loc)
        %87 = "ttnn.to_device"(%arg60, %0) <{memory_config = #ttnn.memory_config<#dram, <interleaved>>}> : (tensor<160xbf16, #ttnn_layout12>, !ttnn.device) -> tensor<160xbf16, #ttnn_layout51> loc(#loc)
        %88 = "ttnn.to_layout"(%87) <{layout = #ttnn.layout<tile>}> : (tensor<160xbf16, #ttnn_layout51>) -> tensor<160xbf16, #ttnn_layout52> loc(#loc)
        "ttnn.deallocate"(%87) <{force = false}> : (tensor<160xbf16, #ttnn_layout51>) -> () loc(#loc)
        %89 = "ttnn.to_device"(%arg58, %0) <{memory_config = #ttnn.memory_config<#dram, <interleaved>>}> : (tensor<160xbf16, #ttnn_layout12>, !ttnn.device) -> tensor<160xbf16, #ttnn_layout51> loc(#loc)
        %90 = "ttnn.to_layout"(%89) <{layout = #ttnn.layout<tile>}> : (tensor<160xbf16, #ttnn_layout51>) -> tensor<160xbf16, #ttnn_layout52> loc(#loc)
        "ttnn.deallocate"(%89) <{force = false}> : (tensor<160xbf16, #ttnn_layout51>) -> () loc(#loc)
        %91 = "ttnn.to_device"(%arg57, %0) <{memory_config = #ttnn.memory_config<#dram, <interleaved>>}> : (tensor<160xbf16, #ttnn_layout12>, !ttnn.device) -> tensor<160xbf16, #ttnn_layout51> loc(#loc)
        %92 = "ttnn.to_layout"(%91) <{layout = #ttnn.layout<tile>}> : (tensor<160xbf16, #ttnn_layout51>) -> tensor<160xbf16, #ttnn_layout52> loc(#loc)
        "ttnn.deallocate"(%91) <{force = false}> : (tensor<160xbf16, #ttnn_layout51>) -> () loc(#loc)
        %93 = "ttnn.to_device"(%arg56, %0) <{memory_config = #ttnn.memory_config<#dram, <interleaved>>}> : (tensor<160xbf16, #ttnn_layout12>, !ttnn.device) -> tensor<160xbf16, #ttnn_layout51> loc(#loc)
        %94 = "ttnn.to_layout"(%93) <{layout = #ttnn.layout<tile>}> : (tensor<160xbf16, #ttnn_layout51>) -> tensor<160xbf16, #ttnn_layout52> loc(#loc)
        "ttnn.deallocate"(%93) <{force = false}> : (tensor<160xbf16, #ttnn_layout51>) -> () loc(#loc)
        %95 = "ttnn.to_device"(%arg55, %0) <{memory_config = #ttnn.memory_config<#dram, <interleaved>>}> : (tensor<160xbf16, #ttnn_layout12>, !ttnn.device) -> tensor<160xbf16, #ttnn_layout51> loc(#loc)
        %96 = "ttnn.to_layout"(%95) <{layout = #ttnn.layout<tile>}> : (tensor<160xbf16, #ttnn_layout51>) -> tensor<160xbf16, #ttnn_layout52> loc(#loc)
        "ttnn.deallocate"(%95) <{force = false}> : (tensor<160xbf16, #ttnn_layout51>) -> () loc(#loc)
        %97 = "ttnn.to_device"(%arg53, %0) <{memory_config = #ttnn.memory_config<#dram, <interleaved>>}> : (tensor<512xbf16, #ttnn_layout10>, !ttnn.device) -> tensor<512xbf16, #ttnn_layout53> loc(#loc)
        %98 = "ttnn.to_layout"(%97) <{layout = #ttnn.layout<tile>}> : (tensor<512xbf16, #ttnn_layout53>) -> tensor<512xbf16, #ttnn_layout54> loc(#loc)
        "ttnn.deallocate"(%97) <{force = false}> : (tensor<512xbf16, #ttnn_layout53>) -> () loc(#loc)
        %99 = "ttnn.to_device"(%arg52, %0) <{memory_config = #ttnn.memory_config<#dram, <interleaved>>}> : (tensor<512xbf16, #ttnn_layout10>, !ttnn.device) -> tensor<512xbf16, #ttnn_layout53> loc(#loc)
        %100 = "ttnn.to_layout"(%99) <{layout = #ttnn.layout<tile>}> : (tensor<512xbf16, #ttnn_layout53>) -> tensor<512xbf16, #ttnn_layout54> loc(#loc)
        "ttnn.deallocate"(%99) <{force = false}> : (tensor<512xbf16, #ttnn_layout53>) -> () loc(#loc)
        %101 = "ttnn.to_device"(%arg51, %0) <{memory_config = #ttnn.memory_config<#dram, <interleaved>>}> : (tensor<512xbf16, #ttnn_layout10>, !ttnn.device) -> tensor<512xbf16, #ttnn_layout53> loc(#loc)
        %102 = "ttnn.to_layout"(%101) <{layout = #ttnn.layout<tile>}> : (tensor<512xbf16, #ttnn_layout53>) -> tensor<512xbf16, #ttnn_layout54> loc(#loc)
        "ttnn.deallocate"(%101) <{force = false}> : (tensor<512xbf16, #ttnn_layout53>) -> () loc(#loc)
        %103 = "ttnn.to_device"(%arg50, %0) <{memory_config = #ttnn.memory_config<#dram, <interleaved>>}> : (tensor<512xbf16, #ttnn_layout10>, !ttnn.device) -> tensor<512xbf16, #ttnn_layout53> loc(#loc)
        %104 = "ttnn.to_layout"(%103) <{layout = #ttnn.layout<tile>}> : (tensor<512xbf16, #ttnn_layout53>) -> tensor<512xbf16, #ttnn_layout54> loc(#loc)
        "ttnn.deallocate"(%103) <{force = false}> : (tensor<512xbf16, #ttnn_layout53>) -> () loc(#loc)
        %105 = "ttnn.to_device"(%arg48, %0) <{memory_config = #ttnn.memory_config<#dram, <interleaved>>}> : (tensor<192xbf16, #ttnn_layout7>, !ttnn.device) -> tensor<192xbf16, #ttnn_layout55> loc(#loc)
        %106 = "ttnn.to_layout"(%105) <{layout = #ttnn.layout<tile>}> : (tensor<192xbf16, #ttnn_layout55>) -> tensor<192xbf16, #ttnn_layout56> loc(#loc)
        "ttnn.deallocate"(%105) <{force = false}> : (tensor<192xbf16, #ttnn_layout55>) -> () loc(#loc)
        %107 = "ttnn.to_device"(%arg47, %0) <{memory_config = #ttnn.memory_config<#dram, <interleaved>>}> : (tensor<192xbf16, #ttnn_layout7>, !ttnn.device) -> tensor<192xbf16, #ttnn_layout55> loc(#loc)
        %108 = "ttnn.to_layout"(%107) <{layout = #ttnn.layout<tile>}> : (tensor<192xbf16, #ttnn_layout55>) -> tensor<192xbf16, #ttnn_layout56> loc(#loc)
        "ttnn.deallocate"(%107) <{force = false}> : (tensor<192xbf16, #ttnn_layout55>) -> () loc(#loc)
        %109 = "ttnn.to_device"(%arg46, %0) <{memory_config = #ttnn.memory_config<#dram, <interleaved>>}> : (tensor<192xbf16, #ttnn_layout7>, !ttnn.device) -> tensor<192xbf16, #ttnn_layout55> loc(#loc)
        %110 = "ttnn.to_layout"(%109) <{layout = #ttnn.layout<tile>}> : (tensor<192xbf16, #ttnn_layout55>) -> tensor<192xbf16, #ttnn_layout56> loc(#loc)
        "ttnn.deallocate"(%109) <{force = false}> : (tensor<192xbf16, #ttnn_layout55>) -> () loc(#loc)
        %111 = "ttnn.to_device"(%arg45, %0) <{memory_config = #ttnn.memory_config<#dram, <interleaved>>}> : (tensor<192xbf16, #ttnn_layout7>, !ttnn.device) -> tensor<192xbf16, #ttnn_layout55> loc(#loc)
        %112 = "ttnn.to_layout"(%111) <{layout = #ttnn.layout<tile>}> : (tensor<192xbf16, #ttnn_layout55>) -> tensor<192xbf16, #ttnn_layout56> loc(#loc)
        "ttnn.deallocate"(%111) <{force = false}> : (tensor<192xbf16, #ttnn_layout55>) -> () loc(#loc)
        %113 = "ttnn.to_device"(%arg43, %0) <{memory_config = #ttnn.memory_config<#dram, <interleaved>>}> : (tensor<192xbf16, #ttnn_layout7>, !ttnn.device) -> tensor<192xbf16, #ttnn_layout55> loc(#loc)
        %114 = "ttnn.to_layout"(%113) <{layout = #ttnn.layout<tile>}> : (tensor<192xbf16, #ttnn_layout55>) -> tensor<192xbf16, #ttnn_layout56> loc(#loc)
        "ttnn.deallocate"(%113) <{force = false}> : (tensor<192xbf16, #ttnn_layout55>) -> () loc(#loc)
        %115 = "ttnn.to_device"(%arg42, %0) <{memory_config = #ttnn.memory_config<#dram, <interleaved>>}> : (tensor<192xbf16, #ttnn_layout7>, !ttnn.device) -> tensor<192xbf16, #ttnn_layout55> loc(#loc)
        %116 = "ttnn.to_layout"(%115) <{layout = #ttnn.layout<tile>}> : (tensor<192xbf16, #ttnn_layout55>) -> tensor<192xbf16, #ttnn_layout56> loc(#loc)
        "ttnn.deallocate"(%115) <{force = false}> : (tensor<192xbf16, #ttnn_layout55>) -> () loc(#loc)
        %117 = "ttnn.to_device"(%arg41, %0) <{memory_config = #ttnn.memory_config<#dram, <interleaved>>}> : (tensor<192xbf16, #ttnn_layout7>, !ttnn.device) -> tensor<192xbf16, #ttnn_layout55> loc(#loc)
        %118 = "ttnn.to_layout"(%117) <{layout = #ttnn.layout<tile>}> : (tensor<192xbf16, #ttnn_layout55>) -> tensor<192xbf16, #ttnn_layout56> loc(#loc)
        "ttnn.deallocate"(%117) <{force = false}> : (tensor<192xbf16, #ttnn_layout55>) -> () loc(#loc)
        %119 = "ttnn.to_device"(%arg40, %0) <{memory_config = #ttnn.memory_config<#dram, <interleaved>>}> : (tensor<192xbf16, #ttnn_layout7>, !ttnn.device) -> tensor<192xbf16, #ttnn_layout55> loc(#loc)
        %120 = "ttnn.to_layout"(%119) <{layout = #ttnn.layout<tile>}> : (tensor<192xbf16, #ttnn_layout55>) -> tensor<192xbf16, #ttnn_layout56> loc(#loc)
        "ttnn.deallocate"(%119) <{force = false}> : (tensor<192xbf16, #ttnn_layout55>) -> () loc(#loc)
        %121 = "ttnn.to_device"(%arg38, %0) <{memory_config = #ttnn.memory_config<#dram, <interleaved>>}> : (tensor<192xbf16, #ttnn_layout7>, !ttnn.device) -> tensor<192xbf16, #ttnn_layout55> loc(#loc)
        %122 = "ttnn.to_layout"(%121) <{layout = #ttnn.layout<tile>}> : (tensor<192xbf16, #ttnn_layout55>) -> tensor<192xbf16, #ttnn_layout56> loc(#loc)
        "ttnn.deallocate"(%121) <{force = false}> : (tensor<192xbf16, #ttnn_layout55>) -> () loc(#loc)
        %123 = "ttnn.to_device"(%arg37, %0) <{memory_config = #ttnn.memory_config<#dram, <interleaved>>}> : (tensor<192xbf16, #ttnn_layout7>, !ttnn.device) -> tensor<192xbf16, #ttnn_layout55> loc(#loc)
        %124 = "ttnn.to_layout"(%123) <{layout = #ttnn.layout<tile>}> : (tensor<192xbf16, #ttnn_layout55>) -> tensor<192xbf16, #ttnn_layout56> loc(#loc)
        "ttnn.deallocate"(%123) <{force = false}> : (tensor<192xbf16, #ttnn_layout55>) -> () loc(#loc)
        %125 = "ttnn.to_device"(%arg36, %0) <{memory_config = #ttnn.memory_config<#dram, <interleaved>>}> : (tensor<192xbf16, #ttnn_layout7>, !ttnn.device) -> tensor<192xbf16, #ttnn_layout55> loc(#loc)
        %126 = "ttnn.to_layout"(%125) <{layout = #ttnn.layout<tile>}> : (tensor<192xbf16, #ttnn_layout55>) -> tensor<192xbf16, #ttnn_layout56> loc(#loc)
        "ttnn.deallocate"(%125) <{force = false}> : (tensor<192xbf16, #ttnn_layout55>) -> () loc(#loc)
        %127 = "ttnn.to_device"(%arg35, %0) <{memory_config = #ttnn.memory_config<#dram, <interleaved>>}> : (tensor<192xbf16, #ttnn_layout7>, !ttnn.device) -> tensor<192xbf16, #ttnn_layout55> loc(#loc)
        %128 = "ttnn.to_layout"(%127) <{layout = #ttnn.layout<tile>}> : (tensor<192xbf16, #ttnn_layout55>) -> tensor<192xbf16, #ttnn_layout56> loc(#loc)
        "ttnn.deallocate"(%127) <{force = false}> : (tensor<192xbf16, #ttnn_layout55>) -> () loc(#loc)
        %129 = "ttnn.to_device"(%arg33, %0) <{memory_config = #ttnn.memory_config<#dram, <interleaved>>}> : (tensor<192xbf16, #ttnn_layout7>, !ttnn.device) -> tensor<192xbf16, #ttnn_layout55> loc(#loc)
        %130 = "ttnn.to_layout"(%129) <{layout = #ttnn.layout<tile>}> : (tensor<192xbf16, #ttnn_layout55>) -> tensor<192xbf16, #ttnn_layout56> loc(#loc)
        "ttnn.deallocate"(%129) <{force = false}> : (tensor<192xbf16, #ttnn_layout55>) -> () loc(#loc)
        %131 = "ttnn.to_device"(%arg32, %0) <{memory_config = #ttnn.memory_config<#dram, <interleaved>>}> : (tensor<192xbf16, #ttnn_layout7>, !ttnn.device) -> tensor<192xbf16, #ttnn_layout55> loc(#loc)
        %132 = "ttnn.to_layout"(%131) <{layout = #ttnn.layout<tile>}> : (tensor<192xbf16, #ttnn_layout55>) -> tensor<192xbf16, #ttnn_layout56> loc(#loc)
        "ttnn.deallocate"(%131) <{force = false}> : (tensor<192xbf16, #ttnn_layout55>) -> () loc(#loc)
        %133 = "ttnn.to_device"(%arg31, %0) <{memory_config = #ttnn.memory_config<#dram, <interleaved>>}> : (tensor<192xbf16, #ttnn_layout7>, !ttnn.device) -> tensor<192xbf16, #ttnn_layout55> loc(#loc)
        %134 = "ttnn.to_layout"(%133) <{layout = #ttnn.layout<tile>}> : (tensor<192xbf16, #ttnn_layout55>) -> tensor<192xbf16, #ttnn_layout56> loc(#loc)
        "ttnn.deallocate"(%133) <{force = false}> : (tensor<192xbf16, #ttnn_layout55>) -> () loc(#loc)
        %135 = "ttnn.to_device"(%arg30, %0) <{memory_config = #ttnn.memory_config<#dram, <interleaved>>}> : (tensor<192xbf16, #ttnn_layout7>, !ttnn.device) -> tensor<192xbf16, #ttnn_layout55> loc(#loc)
        %136 = "ttnn.to_layout"(%135) <{layout = #ttnn.layout<tile>}> : (tensor<192xbf16, #ttnn_layout55>) -> tensor<192xbf16, #ttnn_layout56> loc(#loc)
        "ttnn.deallocate"(%135) <{force = false}> : (tensor<192xbf16, #ttnn_layout55>) -> () loc(#loc)
        %137 = "ttnn.to_device"(%arg28, %0) <{memory_config = #ttnn.memory_config<#dram, <interleaved>>}> : (tensor<768xbf16, #ttnn_layout5>, !ttnn.device) -> tensor<768xbf16, #ttnn_layout57> loc(#loc)
        %138 = "ttnn.to_layout"(%137) <{layout = #ttnn.layout<tile>}> : (tensor<768xbf16, #ttnn_layout57>) -> tensor<768xbf16, #ttnn_layout58> loc(#loc)
        "ttnn.deallocate"(%137) <{force = false}> : (tensor<768xbf16, #ttnn_layout57>) -> () loc(#loc)
        %139 = "ttnn.to_device"(%arg27, %0) <{memory_config = #ttnn.memory_config<#dram, <interleaved>>}> : (tensor<768xbf16, #ttnn_layout5>, !ttnn.device) -> tensor<768xbf16, #ttnn_layout57> loc(#loc)
        %140 = "ttnn.to_layout"(%139) <{layout = #ttnn.layout<tile>}> : (tensor<768xbf16, #ttnn_layout57>) -> tensor<768xbf16, #ttnn_layout58> loc(#loc)
        "ttnn.deallocate"(%139) <{force = false}> : (tensor<768xbf16, #ttnn_layout57>) -> () loc(#loc)
        %141 = "ttnn.to_device"(%arg26, %0) <{memory_config = #ttnn.memory_config<#dram, <interleaved>>}> : (tensor<768xbf16, #ttnn_layout5>, !ttnn.device) -> tensor<768xbf16, #ttnn_layout57> loc(#loc)
        %142 = "ttnn.to_layout"(%141) <{layout = #ttnn.layout<tile>}> : (tensor<768xbf16, #ttnn_layout57>) -> tensor<768xbf16, #ttnn_layout58> loc(#loc)
        "ttnn.deallocate"(%141) <{force = false}> : (tensor<768xbf16, #ttnn_layout57>) -> () loc(#loc)
        %143 = "ttnn.to_device"(%arg25, %0) <{memory_config = #ttnn.memory_config<#dram, <interleaved>>}> : (tensor<768xbf16, #ttnn_layout5>, !ttnn.device) -> tensor<768xbf16, #ttnn_layout57> loc(#loc)
        %144 = "ttnn.to_layout"(%143) <{layout = #ttnn.layout<tile>}> : (tensor<768xbf16, #ttnn_layout57>) -> tensor<768xbf16, #ttnn_layout58> loc(#loc)
        "ttnn.deallocate"(%143) <{force = false}> : (tensor<768xbf16, #ttnn_layout57>) -> () loc(#loc)
        %145 = "ttnn.to_device"(%arg23, %0) <{memory_config = #ttnn.memory_config<#dram, <interleaved>>}> : (tensor<224xbf16, #ttnn_layout2>, !ttnn.device) -> tensor<224xbf16, #ttnn_layout59> loc(#loc)
        %146 = "ttnn.to_layout"(%145) <{layout = #ttnn.layout<tile>}> : (tensor<224xbf16, #ttnn_layout59>) -> tensor<224xbf16, #ttnn_layout60> loc(#loc)
        "ttnn.deallocate"(%145) <{force = false}> : (tensor<224xbf16, #ttnn_layout59>) -> () loc(#loc)
        %147 = "ttnn.to_device"(%arg22, %0) <{memory_config = #ttnn.memory_config<#dram, <interleaved>>}> : (tensor<224xbf16, #ttnn_layout2>, !ttnn.device) -> tensor<224xbf16, #ttnn_layout59> loc(#loc)
        %148 = "ttnn.to_layout"(%147) <{layout = #ttnn.layout<tile>}> : (tensor<224xbf16, #ttnn_layout59>) -> tensor<224xbf16, #ttnn_layout60> loc(#loc)
        "ttnn.deallocate"(%147) <{force = false}> : (tensor<224xbf16, #ttnn_layout59>) -> () loc(#loc)
        %149 = "ttnn.to_device"(%arg21, %0) <{memory_config = #ttnn.memory_config<#dram, <interleaved>>}> : (tensor<224xbf16, #ttnn_layout2>, !ttnn.device) -> tensor<224xbf16, #ttnn_layout59> loc(#loc)
        %150 = "ttnn.to_layout"(%149) <{layout = #ttnn.layout<tile>}> : (tensor<224xbf16, #ttnn_layout59>) -> tensor<224xbf16, #ttnn_layout60> loc(#loc)
        "ttnn.deallocate"(%149) <{force = false}> : (tensor<224xbf16, #ttnn_layout59>) -> () loc(#loc)
        %151 = "ttnn.to_device"(%arg20, %0) <{memory_config = #ttnn.memory_config<#dram, <interleaved>>}> : (tensor<224xbf16, #ttnn_layout2>, !ttnn.device) -> tensor<224xbf16, #ttnn_layout59> loc(#loc)
        %152 = "ttnn.to_layout"(%151) <{layout = #ttnn.layout<tile>}> : (tensor<224xbf16, #ttnn_layout59>) -> tensor<224xbf16, #ttnn_layout60> loc(#loc)
        "ttnn.deallocate"(%151) <{force = false}> : (tensor<224xbf16, #ttnn_layout59>) -> () loc(#loc)
        %153 = "ttnn.to_device"(%arg18, %0) <{memory_config = #ttnn.memory_config<#dram, <interleaved>>}> : (tensor<224xbf16, #ttnn_layout2>, !ttnn.device) -> tensor<224xbf16, #ttnn_layout59> loc(#loc)
        %154 = "ttnn.to_layout"(%153) <{layout = #ttnn.layout<tile>}> : (tensor<224xbf16, #ttnn_layout59>) -> tensor<224xbf16, #ttnn_layout60> loc(#loc)
        "ttnn.deallocate"(%153) <{force = false}> : (tensor<224xbf16, #ttnn_layout59>) -> () loc(#loc)
        %155 = "ttnn.to_device"(%arg17, %0) <{memory_config = #ttnn.memory_config<#dram, <interleaved>>}> : (tensor<224xbf16, #ttnn_layout2>, !ttnn.device) -> tensor<224xbf16, #ttnn_layout59> loc(#loc)
        %156 = "ttnn.to_layout"(%155) <{layout = #ttnn.layout<tile>}> : (tensor<224xbf16, #ttnn_layout59>) -> tensor<224xbf16, #ttnn_layout60> loc(#loc)
        "ttnn.deallocate"(%155) <{force = false}> : (tensor<224xbf16, #ttnn_layout59>) -> () loc(#loc)
        %157 = "ttnn.to_device"(%arg16, %0) <{memory_config = #ttnn.memory_config<#dram, <interleaved>>}> : (tensor<224xbf16, #ttnn_layout2>, !ttnn.device) -> tensor<224xbf16, #ttnn_layout59> loc(#loc)
        %158 = "ttnn.to_layout"(%157) <{layout = #ttnn.layout<tile>}> : (tensor<224xbf16, #ttnn_layout59>) -> tensor<224xbf16, #ttnn_layout60> loc(#loc)
        "ttnn.deallocate"(%157) <{force = false}> : (tensor<224xbf16, #ttnn_layout59>) -> () loc(#loc)
        %159 = "ttnn.to_device"(%arg15, %0) <{memory_config = #ttnn.memory_config<#dram, <interleaved>>}> : (tensor<224xbf16, #ttnn_layout2>, !ttnn.device) -> tensor<224xbf16, #ttnn_layout59> loc(#loc)
        %160 = "ttnn.to_layout"(%159) <{layout = #ttnn.layout<tile>}> : (tensor<224xbf16, #ttnn_layout59>) -> tensor<224xbf16, #ttnn_layout60> loc(#loc)
        "ttnn.deallocate"(%159) <{force = false}> : (tensor<224xbf16, #ttnn_layout59>) -> () loc(#loc)
        %161 = "ttnn.to_device"(%arg13, %0) <{memory_config = #ttnn.memory_config<#dram, <interleaved>>}> : (tensor<224xbf16, #ttnn_layout2>, !ttnn.device) -> tensor<224xbf16, #ttnn_layout59> loc(#loc)
        %162 = "ttnn.to_layout"(%161) <{layout = #ttnn.layout<tile>}> : (tensor<224xbf16, #ttnn_layout59>) -> tensor<224xbf16, #ttnn_layout60> loc(#loc)
        "ttnn.deallocate"(%161) <{force = false}> : (tensor<224xbf16, #ttnn_layout59>) -> () loc(#loc)
        %163 = "ttnn.to_device"(%arg12, %0) <{memory_config = #ttnn.memory_config<#dram, <interleaved>>}> : (tensor<224xbf16, #ttnn_layout2>, !ttnn.device) -> tensor<224xbf16, #ttnn_layout59> loc(#loc)
        %164 = "ttnn.to_layout"(%163) <{layout = #ttnn.layout<tile>}> : (tensor<224xbf16, #ttnn_layout59>) -> tensor<224xbf16, #ttnn_layout60> loc(#loc)
        "ttnn.deallocate"(%163) <{force = false}> : (tensor<224xbf16, #ttnn_layout59>) -> () loc(#loc)
        %165 = "ttnn.to_device"(%arg11, %0) <{memory_config = #ttnn.memory_config<#dram, <interleaved>>}> : (tensor<224xbf16, #ttnn_layout2>, !ttnn.device) -> tensor<224xbf16, #ttnn_layout59> loc(#loc)
        %166 = "ttnn.to_layout"(%165) <{layout = #ttnn.layout<tile>}> : (tensor<224xbf16, #ttnn_layout59>) -> tensor<224xbf16, #ttnn_layout60> loc(#loc)
        "ttnn.deallocate"(%165) <{force = false}> : (tensor<224xbf16, #ttnn_layout59>) -> () loc(#loc)
        %167 = "ttnn.to_device"(%arg10, %0) <{memory_config = #ttnn.memory_config<#dram, <interleaved>>}> : (tensor<224xbf16, #ttnn_layout2>, !ttnn.device) -> tensor<224xbf16, #ttnn_layout59> loc(#loc)
        %168 = "ttnn.to_layout"(%167) <{layout = #ttnn.layout<tile>}> : (tensor<224xbf16, #ttnn_layout59>) -> tensor<224xbf16, #ttnn_layout60> loc(#loc)
        "ttnn.deallocate"(%167) <{force = false}> : (tensor<224xbf16, #ttnn_layout59>) -> () loc(#loc)
        %169 = "ttnn.to_device"(%arg8, %0) <{memory_config = #ttnn.memory_config<#dram, <interleaved>>}> : (tensor<224xbf16, #ttnn_layout2>, !ttnn.device) -> tensor<224xbf16, #ttnn_layout59> loc(#loc)
        %170 = "ttnn.to_layout"(%169) <{layout = #ttnn.layout<tile>}> : (tensor<224xbf16, #ttnn_layout59>) -> tensor<224xbf16, #ttnn_layout60> loc(#loc)
        "ttnn.deallocate"(%169) <{force = false}> : (tensor<224xbf16, #ttnn_layout59>) -> () loc(#loc)
        %171 = "ttnn.to_device"(%arg7, %0) <{memory_config = #ttnn.memory_config<#dram, <interleaved>>}> : (tensor<224xbf16, #ttnn_layout2>, !ttnn.device) -> tensor<224xbf16, #ttnn_layout59> loc(#loc)
        %172 = "ttnn.to_layout"(%171) <{layout = #ttnn.layout<tile>}> : (tensor<224xbf16, #ttnn_layout59>) -> tensor<224xbf16, #ttnn_layout60> loc(#loc)
        "ttnn.deallocate"(%171) <{force = false}> : (tensor<224xbf16, #ttnn_layout59>) -> () loc(#loc)
        %173 = "ttnn.to_device"(%arg6, %0) <{memory_config = #ttnn.memory_config<#dram, <interleaved>>}> : (tensor<224xbf16, #ttnn_layout2>, !ttnn.device) -> tensor<224xbf16, #ttnn_layout59> loc(#loc)
        %174 = "ttnn.to_layout"(%173) <{layout = #ttnn.layout<tile>}> : (tensor<224xbf16, #ttnn_layout59>) -> tensor<224xbf16, #ttnn_layout60> loc(#loc)
        "ttnn.deallocate"(%173) <{force = false}> : (tensor<224xbf16, #ttnn_layout59>) -> () loc(#loc)
        %175 = "ttnn.to_device"(%arg5, %0) <{memory_config = #ttnn.memory_config<#dram, <interleaved>>}> : (tensor<224xbf16, #ttnn_layout2>, !ttnn.device) -> tensor<224xbf16, #ttnn_layout59> loc(#loc)
        %176 = "ttnn.to_layout"(%175) <{layout = #ttnn.layout<tile>}> : (tensor<224xbf16, #ttnn_layout59>) -> tensor<224xbf16, #ttnn_layout60> loc(#loc)
        "ttnn.deallocate"(%175) <{force = false}> : (tensor<224xbf16, #ttnn_layout59>) -> () loc(#loc)
        %177 = "ttnn.to_device"(%arg3, %0) <{memory_config = #ttnn.memory_config<#dram, <interleaved>>}> : (tensor<1024xbf16, #ttnn_layout>, !ttnn.device) -> tensor<1024xbf16, #ttnn_layout61> loc(#loc)
        %178 = "ttnn.to_layout"(%177) <{layout = #ttnn.layout<tile>}> : (tensor<1024xbf16, #ttnn_layout61>) -> tensor<1024xbf16, #ttnn_layout62> loc(#loc)
        "ttnn.deallocate"(%177) <{force = false}> : (tensor<1024xbf16, #ttnn_layout61>) -> () loc(#loc)
        %179 = "ttnn.to_device"(%arg2, %0) <{memory_config = #ttnn.memory_config<#dram, <interleaved>>}> : (tensor<1024xbf16, #ttnn_layout>, !ttnn.device) -> tensor<1024xbf16, #ttnn_layout61> loc(#loc)
        %180 = "ttnn.to_layout"(%179) <{layout = #ttnn.layout<tile>}> : (tensor<1024xbf16, #ttnn_layout61>) -> tensor<1024xbf16, #ttnn_layout62> loc(#loc)
        "ttnn.deallocate"(%179) <{force = false}> : (tensor<1024xbf16, #ttnn_layout61>) -> () loc(#loc)
        %181 = "ttnn.to_device"(%arg1, %0) <{memory_config = #ttnn.memory_config<#dram, <interleaved>>}> : (tensor<1024xbf16, #ttnn_layout>, !ttnn.device) -> tensor<1024xbf16, #ttnn_layout61> loc(#loc)
        %182 = "ttnn.to_layout"(%181) <{layout = #ttnn.layout<tile>}> : (tensor<1024xbf16, #ttnn_layout61>) -> tensor<1024xbf16, #ttnn_layout62> loc(#loc)
        "ttnn.deallocate"(%181) <{force = false}> : (tensor<1024xbf16, #ttnn_layout61>) -> () loc(#loc)
        %183 = "ttnn.to_device"(%arg0, %0) <{memory_config = #ttnn.memory_config<#dram, <interleaved>>}> : (tensor<1024xbf16, #ttnn_layout>, !ttnn.device) -> tensor<1024xbf16, #ttnn_layout61> loc(#loc)
        %184 = "ttnn.to_layout"(%183) <{layout = #ttnn.layout<tile>}> : (tensor<1024xbf16, #ttnn_layout61>) -> tensor<1024xbf16, #ttnn_layout62> loc(#loc)
        "ttnn.deallocate"(%183) <{force = false}> : (tensor<1024xbf16, #ttnn_layout61>) -> () loc(#loc)
        %185 = "ttnn.full"(%0) <{dtype = #ttcore.supportedDataTypes<bf16>, fill_value = 1.00135803E-5 : f32, layout = #ttnn.layout<tile>, shape = #ttnn.shape<1>}> : (!ttnn.device) -> tensor<1xbf16, #ttnn_layout63> loc(#loc)
        %186 = "ttnn.add"(%8, %185) <{dtype = #ttcore.supportedDataTypes<bf16>}> : (tensor<64xbf16, #ttnn_layout46>, tensor<1xbf16, #ttnn_layout63>) -> tensor<64xbf16, #ttnn_layout46> loc(#loc1)
        "ttnn.deallocate"(%8) <{force = false}> : (tensor<64xbf16, #ttnn_layout46>) -> () loc(#loc1)
        %187 = "ttnn.sqrt"(%186) : (tensor<64xbf16, #ttnn_layout46>) -> tensor<64xbf16, #ttnn_layout46> loc(#loc1)
        "ttnn.deallocate"(%186) <{force = false}> : (tensor<64xbf16, #ttnn_layout46>) -> () loc(#loc1)
        %188 = "ttnn.divide"(%2, %187) <{dtype = #ttcore.supportedDataTypes<bf16>}> : (tensor<64xbf16, #ttnn_layout46>, tensor<64xbf16, #ttnn_layout46>) -> tensor<64xbf16, #ttnn_layout46> loc(#loc1)
        "ttnn.deallocate"(%187) <{force = false}> : (tensor<64xbf16, #ttnn_layout46>) -> () loc(#loc1)
        "ttnn.deallocate"(%2) <{force = false}> : (tensor<64xbf16, #ttnn_layout46>) -> () loc(#loc1)
        %189 = "ttnn.reshape"(%188) <{shape = [64 : i32, 1 : i32, 1 : i32, 1 : i32]}> : (tensor<64xbf16, #ttnn_layout46>) -> tensor<64x1x1x1xbf16, #ttnn_layout64> loc(#loc241)
        %190 = "ttnn.to_device"(%arg114, %0) <{memory_config = #ttnn.memory_config<#dram, <interleaved>>}> : (tensor<64x3x3x3xbf16, #ttnn_layout22>, !ttnn.device) -> tensor<64x3x3x3xbf16, #ttnn_layout65> loc(#loc242)
        %191 = "ttnn.to_layout"(%190) <{layout = #ttnn.layout<tile>}> : (tensor<64x3x3x3xbf16, #ttnn_layout65>) -> tensor<64x3x3x3xbf16, #ttnn_layout66> loc(#loc242)
        "ttnn.deallocate"(%190) <{force = false}> : (tensor<64x3x3x3xbf16, #ttnn_layout65>) -> () loc(#loc242)
        %192 = "ttnn.multiply"(%191, %189) <{dtype = #ttcore.supportedDataTypes<bf16>}> : (tensor<64x3x3x3xbf16, #ttnn_layout66>, tensor<64x1x1x1xbf16, #ttnn_layout64>) -> tensor<64x3x3x3xbf16, #ttnn_layout66> loc(#loc243)
        "ttnn.deallocate"(%191) <{force = false}> : (tensor<64x3x3x3xbf16, #ttnn_layout66>) -> () loc(#loc243)
        "ttnn.deallocate"(%189) <{force = false}> : (tensor<64x1x1x1xbf16, #ttnn_layout64>) -> () loc(#loc243)
        %193 = "ttnn.to_layout"(%192) <{layout = #ttnn.layout<row_major>}> : (tensor<64x3x3x3xbf16, #ttnn_layout66>) -> tensor<64x3x3x3xbf16, #ttnn_layout65> loc(#loc244)
        "ttnn.deallocate"(%192) <{force = false}> : (tensor<64x3x3x3xbf16, #ttnn_layout66>) -> () loc(#loc244)
        %194 = "ttnn.from_device"(%193) : (tensor<64x3x3x3xbf16, #ttnn_layout65>) -> tensor<64x3x3x3xbf16, #ttnn_layout22> loc(#loc244)
        "ttnn.deallocate"(%193) <{force = false}> : (tensor<64x3x3x3xbf16, #ttnn_layout65>) -> () loc(#loc244)
        %195 = "ttnn.prepare_conv2d_weights"(%194, %0) <{batch_size = 4 : i32, conv2d_config = #ttnn.conv2d_config<weights_dtype = bf16, activation = <op_type = relu>, deallocate_activation = true, act_block_h_override = 0, shard_layout = height_sharded, enable_kernel_stride_folding = false, config_tensors_in_dram = true>, conv2d_slice_config = #ttnn.conv2d_slice_config<l1_full, 0>, dilation = array<i32: 1, 1>, groups = 1 : i32, has_bias = true, in_channels = 3 : i32, input_dtype = #ttcore.supportedDataTypes<bf16>, input_height = 224 : i32, input_memory_config = #ttnn.memory_config<#l1, <interleaved>>, input_tensor_layout = #ttnn.layout<tile>, input_width = 224 : i32, kernel_size = array<i32: 3, 3>, out_channels = 64 : i32, output_dtype = #ttcore.supportedDataTypes<bf16>, padding = array<i32: 1, 1, 1, 1>, stride = array<i32: 2, 2>, weights_format = "OIHW"}> : (tensor<64x3x3x3xbf16, #ttnn_layout22>, !ttnn.device) -> tensor<1x1x27x64xbf16, #ttnn_layout23> loc(#loc245)
        "ttnn.deallocate"(%194) <{force = false}> : (tensor<64x3x3x3xbf16, #ttnn_layout22>) -> () loc(#loc245)
        %196 = "ttnn.reshape"(%6) <{shape = [1 : i32, 1 : i32, 1 : i32, 64 : i32]}> : (tensor<64xbf16, #ttnn_layout46>) -> tensor<1x1x1x64xbf16, #ttnn_layout23> loc(#loc499)
        "ttnn.deallocate"(%6) <{force = false}> : (tensor<64xbf16, #ttnn_layout46>) -> () loc(#loc499)
        %197 = "ttnn.reshape"(%188) <{shape = [1 : i32, 1 : i32, 1 : i32, 64 : i32]}> : (tensor<64xbf16, #ttnn_layout46>) -> tensor<1x1x1x64xbf16, #ttnn_layout23> loc(#loc500)
        "ttnn.deallocate"(%188) <{force = false}> : (tensor<64xbf16, #ttnn_layout46>) -> () loc(#loc500)
        %198 = "ttnn.multiply"(%196, %197) <{dtype = #ttcore.supportedDataTypes<bf16>}> : (tensor<1x1x1x64xbf16, #ttnn_layout23>, tensor<1x1x1x64xbf16, #ttnn_layout23>) -> tensor<1x1x1x64xbf16, #ttnn_layout23> loc(#loc1)
        "ttnn.deallocate"(%197) <{force = false}> : (tensor<1x1x1x64xbf16, #ttnn_layout23>) -> () loc(#loc1)
        "ttnn.deallocate"(%196) <{force = false}> : (tensor<1x1x1x64xbf16, #ttnn_layout23>) -> () loc(#loc1)
        %199 = "ttnn.reshape"(%4) <{shape = [1 : i32, 1 : i32, 1 : i32, 64 : i32]}> : (tensor<64xbf16, #ttnn_layout46>) -> tensor<1x1x1x64xbf16, #ttnn_layout23> loc(#loc247)
        "ttnn.deallocate"(%4) <{force = false}> : (tensor<64xbf16, #ttnn_layout46>) -> () loc(#loc247)
        %200 = "ttnn.subtract"(%199, %198) <{dtype = #ttcore.supportedDataTypes<bf16>}> : (tensor<1x1x1x64xbf16, #ttnn_layout23>, tensor<1x1x1x64xbf16, #ttnn_layout23>) -> tensor<1x1x1x64xbf16, #ttnn_layout23> loc(#loc1)
        "ttnn.deallocate"(%199) <{force = false}> : (tensor<1x1x1x64xbf16, #ttnn_layout23>) -> () loc(#loc1)
        "ttnn.deallocate"(%198) <{force = false}> : (tensor<1x1x1x64xbf16, #ttnn_layout23>) -> () loc(#loc1)
        %201 = "ttnn.to_layout"(%200) <{layout = #ttnn.layout<row_major>}> : (tensor<1x1x1x64xbf16, #ttnn_layout23>) -> tensor<1x1x1x64xbf16, #ttnn_layout67> loc(#loc248)
        "ttnn.deallocate"(%200) <{force = false}> : (tensor<1x1x1x64xbf16, #ttnn_layout23>) -> () loc(#loc248)
        %202 = "ttnn.from_device"(%201) : (tensor<1x1x1x64xbf16, #ttnn_layout67>) -> tensor<1x1x1x64xbf16, #ttnn_layout68> loc(#loc248)
        "ttnn.deallocate"(%201) <{force = false}> : (tensor<1x1x1x64xbf16, #ttnn_layout67>) -> () loc(#loc248)
        %203 = "ttnn.prepare_conv2d_bias"(%202, %0) <{batch_size = 4 : i32, conv2d_config = #ttnn.conv2d_config<weights_dtype = bf16, activation = <op_type = relu>, deallocate_activation = true, act_block_h_override = 0, shard_layout = height_sharded, enable_kernel_stride_folding = false, config_tensors_in_dram = true>, conv2d_slice_config = #ttnn.conv2d_slice_config<l1_full, 0>, dilation = array<i32: 1, 1>, groups = 1 : i32, in_channels = 3 : i32, input_dtype = #ttcore.supportedDataTypes<bf16>, input_height = 224 : i32, input_memory_config = #ttnn.memory_config<#l1, <interleaved>>, input_tensor_layout = #ttnn.layout<tile>, input_width = 224 : i32, kernel_size = array<i32: 3, 3>, out_channels = 64 : i32, output_dtype = #ttcore.supportedDataTypes<bf16>, padding = array<i32: 1, 1, 1, 1>, stride = array<i32: 2, 2>}> : (tensor<1x1x1x64xbf16, #ttnn_layout68>, !ttnn.device) -> tensor<1x1x1x64xbf16, #ttnn_layout23> loc(#loc249)
        "ttnn.deallocate"(%202) <{force = false}> : (tensor<1x1x1x64xbf16, #ttnn_layout68>) -> () loc(#loc249)
        %204 = "ttnn.add"(%16, %185) <{dtype = #ttcore.supportedDataTypes<bf16>}> : (tensor<64xbf16, #ttnn_layout46>, tensor<1xbf16, #ttnn_layout63>) -> tensor<64xbf16, #ttnn_layout46> loc(#loc3)
        "ttnn.deallocate"(%16) <{force = false}> : (tensor<64xbf16, #ttnn_layout46>) -> () loc(#loc3)
        %205 = "ttnn.sqrt"(%204) : (tensor<64xbf16, #ttnn_layout46>) -> tensor<64xbf16, #ttnn_layout46> loc(#loc3)
        "ttnn.deallocate"(%204) <{force = false}> : (tensor<64xbf16, #ttnn_layout46>) -> () loc(#loc3)
        %206 = "ttnn.divide"(%10, %205) <{dtype = #ttcore.supportedDataTypes<bf16>}> : (tensor<64xbf16, #ttnn_layout46>, tensor<64xbf16, #ttnn_layout46>) -> tensor<64xbf16, #ttnn_layout46> loc(#loc3)
        "ttnn.deallocate"(%205) <{force = false}> : (tensor<64xbf16, #ttnn_layout46>) -> () loc(#loc3)
        "ttnn.deallocate"(%10) <{force = false}> : (tensor<64xbf16, #ttnn_layout46>) -> () loc(#loc3)
        %207 = "ttnn.reshape"(%206) <{shape = [64 : i32, 1 : i32, 1 : i32, 1 : i32]}> : (tensor<64xbf16, #ttnn_layout46>) -> tensor<64x1x1x1xbf16, #ttnn_layout64> loc(#loc250)
        %208 = "ttnn.to_device"(%arg109, %0) <{memory_config = #ttnn.memory_config<#dram, <interleaved>>}> : (tensor<64x64x1x1xbf16, #ttnn_layout21>, !ttnn.device) -> tensor<64x64x1x1xbf16, #ttnn_layout69> loc(#loc251)
        %209 = "ttnn.to_layout"(%208) <{layout = #ttnn.layout<tile>}> : (tensor<64x64x1x1xbf16, #ttnn_layout69>) -> tensor<64x64x1x1xbf16, #ttnn_layout70> loc(#loc251)
        "ttnn.deallocate"(%208) <{force = false}> : (tensor<64x64x1x1xbf16, #ttnn_layout69>) -> () loc(#loc251)
        %210 = "ttnn.multiply"(%209, %207) <{dtype = #ttcore.supportedDataTypes<bf16>}> : (tensor<64x64x1x1xbf16, #ttnn_layout70>, tensor<64x1x1x1xbf16, #ttnn_layout64>) -> tensor<64x64x1x1xbf16, #ttnn_layout70> loc(#loc252)
        "ttnn.deallocate"(%209) <{force = false}> : (tensor<64x64x1x1xbf16, #ttnn_layout70>) -> () loc(#loc252)
        "ttnn.deallocate"(%207) <{force = false}> : (tensor<64x1x1x1xbf16, #ttnn_layout64>) -> () loc(#loc252)
        %211 = "ttnn.to_layout"(%210) <{layout = #ttnn.layout<row_major>}> : (tensor<64x64x1x1xbf16, #ttnn_layout70>) -> tensor<64x64x1x1xbf16, #ttnn_layout69> loc(#loc253)
        "ttnn.deallocate"(%210) <{force = false}> : (tensor<64x64x1x1xbf16, #ttnn_layout70>) -> () loc(#loc253)
        %212 = "ttnn.from_device"(%211) : (tensor<64x64x1x1xbf16, #ttnn_layout69>) -> tensor<64x64x1x1xbf16, #ttnn_layout21> loc(#loc253)
        "ttnn.deallocate"(%211) <{force = false}> : (tensor<64x64x1x1xbf16, #ttnn_layout69>) -> () loc(#loc253)
        %213 = "ttnn.prepare_conv2d_weights"(%212, %0) <{batch_size = 4 : i32, conv2d_config = #ttnn.conv2d_config<weights_dtype = bf16, activation = <op_type = relu>, deallocate_activation = true, act_block_h_override = 0, shard_layout = height_sharded, enable_kernel_stride_folding = false, config_tensors_in_dram = true>, conv2d_slice_config = #ttnn.conv2d_slice_config<l1_full, 0>, dilation = array<i32: 1, 1>, groups = 1 : i32, has_bias = true, in_channels = 64 : i32, input_dtype = #ttcore.supportedDataTypes<bf16>, input_height = 112 : i32, input_memory_config = #ttnn.memory_config<#l1, <height_sharded>, #ttnn.shard_spec<<[#ttnn.core_range<(0,0), (7,6)>, #ttnn.core_range<(0,7), (6,7)>]>, <800x64>, <row_major>>>, input_tensor_layout = #ttnn.layout<tile>, input_width = 112 : i32, kernel_size = array<i32: 1, 1>, out_channels = 64 : i32, output_dtype = #ttcore.supportedDataTypes<bf16>, padding = array<i32: 0, 0, 0, 0>, stride = array<i32: 1, 1>, weights_format = "OIHW"}> : (tensor<64x64x1x1xbf16, #ttnn_layout21>, !ttnn.device) -> tensor<1x1x64x64xbf16, #ttnn_layout24> loc(#loc254)
        "ttnn.deallocate"(%212) <{force = false}> : (tensor<64x64x1x1xbf16, #ttnn_layout21>) -> () loc(#loc254)
        %214 = "ttnn.reshape"(%14) <{shape = [1 : i32, 1 : i32, 1 : i32, 64 : i32]}> : (tensor<64xbf16, #ttnn_layout46>) -> tensor<1x1x1x64xbf16, #ttnn_layout23> loc(#loc501)
        "ttnn.deallocate"(%14) <{force = false}> : (tensor<64xbf16, #ttnn_layout46>) -> () loc(#loc501)
        %215 = "ttnn.reshape"(%206) <{shape = [1 : i32, 1 : i32, 1 : i32, 64 : i32]}> : (tensor<64xbf16, #ttnn_layout46>) -> tensor<1x1x1x64xbf16, #ttnn_layout23> loc(#loc502)
        "ttnn.deallocate"(%206) <{force = false}> : (tensor<64xbf16, #ttnn_layout46>) -> () loc(#loc502)
        %216 = "ttnn.multiply"(%214, %215) <{dtype = #ttcore.supportedDataTypes<bf16>}> : (tensor<1x1x1x64xbf16, #ttnn_layout23>, tensor<1x1x1x64xbf16, #ttnn_layout23>) -> tensor<1x1x1x64xbf16, #ttnn_layout23> loc(#loc3)
        "ttnn.deallocate"(%215) <{force = false}> : (tensor<1x1x1x64xbf16, #ttnn_layout23>) -> () loc(#loc3)
        "ttnn.deallocate"(%214) <{force = false}> : (tensor<1x1x1x64xbf16, #ttnn_layout23>) -> () loc(#loc3)
        %217 = "ttnn.reshape"(%12) <{shape = [1 : i32, 1 : i32, 1 : i32, 64 : i32]}> : (tensor<64xbf16, #ttnn_layout46>) -> tensor<1x1x1x64xbf16, #ttnn_layout23> loc(#loc256)
        "ttnn.deallocate"(%12) <{force = false}> : (tensor<64xbf16, #ttnn_layout46>) -> () loc(#loc256)
        %218 = "ttnn.subtract"(%217, %216) <{dtype = #ttcore.supportedDataTypes<bf16>}> : (tensor<1x1x1x64xbf16, #ttnn_layout23>, tensor<1x1x1x64xbf16, #ttnn_layout23>) -> tensor<1x1x1x64xbf16, #ttnn_layout23> loc(#loc3)
        "ttnn.deallocate"(%217) <{force = false}> : (tensor<1x1x1x64xbf16, #ttnn_layout23>) -> () loc(#loc3)
        "ttnn.deallocate"(%216) <{force = false}> : (tensor<1x1x1x64xbf16, #ttnn_layout23>) -> () loc(#loc3)
        %219 = "ttnn.to_layout"(%218) <{layout = #ttnn.layout<row_major>}> : (tensor<1x1x1x64xbf16, #ttnn_layout23>) -> tensor<1x1x1x64xbf16, #ttnn_layout67> loc(#loc257)
        "ttnn.deallocate"(%218) <{force = false}> : (tensor<1x1x1x64xbf16, #ttnn_layout23>) -> () loc(#loc257)
        %220 = "ttnn.from_device"(%219) : (tensor<1x1x1x64xbf16, #ttnn_layout67>) -> tensor<1x1x1x64xbf16, #ttnn_layout68> loc(#loc257)
        "ttnn.deallocate"(%219) <{force = false}> : (tensor<1x1x1x64xbf16, #ttnn_layout67>) -> () loc(#loc257)
        %221 = "ttnn.prepare_conv2d_bias"(%220, %0) <{batch_size = 4 : i32, conv2d_config = #ttnn.conv2d_config<weights_dtype = bf16, activation = <op_type = relu>, deallocate_activation = true, act_block_h_override = 0, shard_layout = height_sharded, enable_kernel_stride_folding = false, config_tensors_in_dram = true>, conv2d_slice_config = #ttnn.conv2d_slice_config<l1_full, 0>, dilation = array<i32: 1, 1>, groups = 1 : i32, in_channels = 64 : i32, input_dtype = #ttcore.supportedDataTypes<bf16>, input_height = 112 : i32, input_memory_config = #ttnn.memory_config<#l1, <height_sharded>, #ttnn.shard_spec<<[#ttnn.core_range<(0,0), (7,6)>, #ttnn.core_range<(0,7), (6,7)>]>, <800x64>, <row_major>>>, input_tensor_layout = #ttnn.layout<tile>, input_width = 112 : i32, kernel_size = array<i32: 1, 1>, out_channels = 64 : i32, output_dtype = #ttcore.supportedDataTypes<bf16>, padding = array<i32: 0, 0, 0, 0>, stride = array<i32: 1, 1>}> : (tensor<1x1x1x64xbf16, #ttnn_layout68>, !ttnn.device) -> tensor<1x1x1x64xbf16, #ttnn_layout23> loc(#loc258)
        "ttnn.deallocate"(%220) <{force = false}> : (tensor<1x1x1x64xbf16, #ttnn_layout68>) -> () loc(#loc258)
        %222 = "ttnn.add"(%24, %185) <{dtype = #ttcore.supportedDataTypes<bf16>}> : (tensor<64xbf16, #ttnn_layout46>, tensor<1xbf16, #ttnn_layout63>) -> tensor<64xbf16, #ttnn_layout46> loc(#loc5)
        "ttnn.deallocate"(%24) <{force = false}> : (tensor<64xbf16, #ttnn_layout46>) -> () loc(#loc5)
        %223 = "ttnn.sqrt"(%222) : (tensor<64xbf16, #ttnn_layout46>) -> tensor<64xbf16, #ttnn_layout46> loc(#loc5)
        "ttnn.deallocate"(%222) <{force = false}> : (tensor<64xbf16, #ttnn_layout46>) -> () loc(#loc5)
        %224 = "ttnn.divide"(%18, %223) <{dtype = #ttcore.supportedDataTypes<bf16>}> : (tensor<64xbf16, #ttnn_layout46>, tensor<64xbf16, #ttnn_layout46>) -> tensor<64xbf16, #ttnn_layout46> loc(#loc5)
        "ttnn.deallocate"(%223) <{force = false}> : (tensor<64xbf16, #ttnn_layout46>) -> () loc(#loc5)
        "ttnn.deallocate"(%18) <{force = false}> : (tensor<64xbf16, #ttnn_layout46>) -> () loc(#loc5)
        %225 = "ttnn.reshape"(%224) <{shape = [64 : i32, 1 : i32, 1 : i32, 1 : i32]}> : (tensor<64xbf16, #ttnn_layout46>) -> tensor<64x1x1x1xbf16, #ttnn_layout64> loc(#loc259)
        %226 = "ttnn.to_device"(%arg104, %0) <{memory_config = #ttnn.memory_config<#dram, <interleaved>>}> : (tensor<64x64x1x1xbf16, #ttnn_layout21>, !ttnn.device) -> tensor<64x64x1x1xbf16, #ttnn_layout69> loc(#loc260)
        %227 = "ttnn.to_layout"(%226) <{layout = #ttnn.layout<tile>}> : (tensor<64x64x1x1xbf16, #ttnn_layout69>) -> tensor<64x64x1x1xbf16, #ttnn_layout70> loc(#loc260)
        "ttnn.deallocate"(%226) <{force = false}> : (tensor<64x64x1x1xbf16, #ttnn_layout69>) -> () loc(#loc260)
        %228 = "ttnn.multiply"(%227, %225) <{dtype = #ttcore.supportedDataTypes<bf16>}> : (tensor<64x64x1x1xbf16, #ttnn_layout70>, tensor<64x1x1x1xbf16, #ttnn_layout64>) -> tensor<64x64x1x1xbf16, #ttnn_layout70> loc(#loc261)
        "ttnn.deallocate"(%227) <{force = false}> : (tensor<64x64x1x1xbf16, #ttnn_layout70>) -> () loc(#loc261)
        "ttnn.deallocate"(%225) <{force = false}> : (tensor<64x1x1x1xbf16, #ttnn_layout64>) -> () loc(#loc261)
        %229 = "ttnn.to_layout"(%228) <{layout = #ttnn.layout<row_major>}> : (tensor<64x64x1x1xbf16, #ttnn_layout70>) -> tensor<64x64x1x1xbf16, #ttnn_layout69> loc(#loc262)
        "ttnn.deallocate"(%228) <{force = false}> : (tensor<64x64x1x1xbf16, #ttnn_layout70>) -> () loc(#loc262)
        %230 = "ttnn.from_device"(%229) : (tensor<64x64x1x1xbf16, #ttnn_layout69>) -> tensor<64x64x1x1xbf16, #ttnn_layout21> loc(#loc262)
        "ttnn.deallocate"(%229) <{force = false}> : (tensor<64x64x1x1xbf16, #ttnn_layout69>) -> () loc(#loc262)
        %231 = "ttnn.prepare_conv2d_weights"(%230, %0) <{batch_size = 4 : i32, conv2d_config = #ttnn.conv2d_config<weights_dtype = bf16, activation = <op_type = relu>, deallocate_activation = true, act_block_h_override = 0, shard_layout = height_sharded, enable_kernel_stride_folding = false, config_tensors_in_dram = true>, conv2d_slice_config = #ttnn.conv2d_slice_config<l1_full, 0>, dilation = array<i32: 1, 1>, groups = 1 : i32, has_bias = true, in_channels = 64 : i32, input_dtype = #ttcore.supportedDataTypes<bf16>, input_height = 56 : i32, input_memory_config = #ttnn.memory_config<#l1, <height_sharded>, #ttnn.shard_spec<<[#ttnn.core_range<(0,0), (7,6)>]>, <224x64>, <row_major>>>, input_tensor_layout = #ttnn.layout<tile>, input_width = 56 : i32, kernel_size = array<i32: 1, 1>, out_channels = 64 : i32, output_dtype = #ttcore.supportedDataTypes<bf16>, padding = array<i32: 0, 0, 0, 0>, stride = array<i32: 1, 1>, weights_format = "OIHW"}> : (tensor<64x64x1x1xbf16, #ttnn_layout21>, !ttnn.device) -> tensor<1x1x64x64xbf16, #ttnn_layout24> loc(#loc263)
        "ttnn.deallocate"(%230) <{force = false}> : (tensor<64x64x1x1xbf16, #ttnn_layout21>) -> () loc(#loc263)
        %232 = "ttnn.reshape"(%22) <{shape = [1 : i32, 1 : i32, 1 : i32, 64 : i32]}> : (tensor<64xbf16, #ttnn_layout46>) -> tensor<1x1x1x64xbf16, #ttnn_layout23> loc(#loc503)
        "ttnn.deallocate"(%22) <{force = false}> : (tensor<64xbf16, #ttnn_layout46>) -> () loc(#loc503)
        %233 = "ttnn.reshape"(%224) <{shape = [1 : i32, 1 : i32, 1 : i32, 64 : i32]}> : (tensor<64xbf16, #ttnn_layout46>) -> tensor<1x1x1x64xbf16, #ttnn_layout23> loc(#loc504)
        "ttnn.deallocate"(%224) <{force = false}> : (tensor<64xbf16, #ttnn_layout46>) -> () loc(#loc504)
        %234 = "ttnn.multiply"(%232, %233) <{dtype = #ttcore.supportedDataTypes<bf16>}> : (tensor<1x1x1x64xbf16, #ttnn_layout23>, tensor<1x1x1x64xbf16, #ttnn_layout23>) -> tensor<1x1x1x64xbf16, #ttnn_layout23> loc(#loc5)
        "ttnn.deallocate"(%233) <{force = false}> : (tensor<1x1x1x64xbf16, #ttnn_layout23>) -> () loc(#loc5)
        "ttnn.deallocate"(%232) <{force = false}> : (tensor<1x1x1x64xbf16, #ttnn_layout23>) -> () loc(#loc5)
        %235 = "ttnn.reshape"(%20) <{shape = [1 : i32, 1 : i32, 1 : i32, 64 : i32]}> : (tensor<64xbf16, #ttnn_layout46>) -> tensor<1x1x1x64xbf16, #ttnn_layout23> loc(#loc265)
        "ttnn.deallocate"(%20) <{force = false}> : (tensor<64xbf16, #ttnn_layout46>) -> () loc(#loc265)
        %236 = "ttnn.subtract"(%235, %234) <{dtype = #ttcore.supportedDataTypes<bf16>}> : (tensor<1x1x1x64xbf16, #ttnn_layout23>, tensor<1x1x1x64xbf16, #ttnn_layout23>) -> tensor<1x1x1x64xbf16, #ttnn_layout23> loc(#loc5)
        "ttnn.deallocate"(%235) <{force = false}> : (tensor<1x1x1x64xbf16, #ttnn_layout23>) -> () loc(#loc5)
        "ttnn.deallocate"(%234) <{force = false}> : (tensor<1x1x1x64xbf16, #ttnn_layout23>) -> () loc(#loc5)
        %237 = "ttnn.to_layout"(%236) <{layout = #ttnn.layout<row_major>}> : (tensor<1x1x1x64xbf16, #ttnn_layout23>) -> tensor<1x1x1x64xbf16, #ttnn_layout67> loc(#loc266)
        "ttnn.deallocate"(%236) <{force = false}> : (tensor<1x1x1x64xbf16, #ttnn_layout23>) -> () loc(#loc266)
        %238 = "ttnn.from_device"(%237) : (tensor<1x1x1x64xbf16, #ttnn_layout67>) -> tensor<1x1x1x64xbf16, #ttnn_layout68> loc(#loc266)
        "ttnn.deallocate"(%237) <{force = false}> : (tensor<1x1x1x64xbf16, #ttnn_layout67>) -> () loc(#loc266)
        %239 = "ttnn.prepare_conv2d_bias"(%238, %0) <{batch_size = 4 : i32, conv2d_config = #ttnn.conv2d_config<weights_dtype = bf16, activation = <op_type = relu>, deallocate_activation = true, act_block_h_override = 0, shard_layout = height_sharded, enable_kernel_stride_folding = false, config_tensors_in_dram = true>, conv2d_slice_config = #ttnn.conv2d_slice_config<l1_full, 0>, dilation = array<i32: 1, 1>, groups = 1 : i32, in_channels = 64 : i32, input_dtype = #ttcore.supportedDataTypes<bf16>, input_height = 56 : i32, input_memory_config = #ttnn.memory_config<#l1, <height_sharded>, #ttnn.shard_spec<<[#ttnn.core_range<(0,0), (7,6)>]>, <224x64>, <row_major>>>, input_tensor_layout = #ttnn.layout<tile>, input_width = 56 : i32, kernel_size = array<i32: 1, 1>, out_channels = 64 : i32, output_dtype = #ttcore.supportedDataTypes<bf16>, padding = array<i32: 0, 0, 0, 0>, stride = array<i32: 1, 1>}> : (tensor<1x1x1x64xbf16, #ttnn_layout68>, !ttnn.device) -> tensor<1x1x1x64xbf16, #ttnn_layout23> loc(#loc267)
        "ttnn.deallocate"(%238) <{force = false}> : (tensor<1x1x1x64xbf16, #ttnn_layout68>) -> () loc(#loc267)
        %240 = "ttnn.add"(%32, %185) <{dtype = #ttcore.supportedDataTypes<bf16>}> : (tensor<128xbf16, #ttnn_layout48>, tensor<1xbf16, #ttnn_layout63>) -> tensor<128xbf16, #ttnn_layout48> loc(#loc7)
        "ttnn.deallocate"(%32) <{force = false}> : (tensor<128xbf16, #ttnn_layout48>) -> () loc(#loc7)
        %241 = "ttnn.sqrt"(%240) : (tensor<128xbf16, #ttnn_layout48>) -> tensor<128xbf16, #ttnn_layout48> loc(#loc7)
        "ttnn.deallocate"(%240) <{force = false}> : (tensor<128xbf16, #ttnn_layout48>) -> () loc(#loc7)
        %242 = "ttnn.divide"(%26, %241) <{dtype = #ttcore.supportedDataTypes<bf16>}> : (tensor<128xbf16, #ttnn_layout48>, tensor<128xbf16, #ttnn_layout48>) -> tensor<128xbf16, #ttnn_layout48> loc(#loc7)
        "ttnn.deallocate"(%241) <{force = false}> : (tensor<128xbf16, #ttnn_layout48>) -> () loc(#loc7)
        "ttnn.deallocate"(%26) <{force = false}> : (tensor<128xbf16, #ttnn_layout48>) -> () loc(#loc7)
        %243 = "ttnn.reshape"(%242) <{shape = [128 : i32, 1 : i32, 1 : i32, 1 : i32]}> : (tensor<128xbf16, #ttnn_layout48>) -> tensor<128x1x1x1xbf16, #ttnn_layout71> loc(#loc268)
        %244 = "ttnn.to_device"(%arg99, %0) <{memory_config = #ttnn.memory_config<#dram, <interleaved>>}> : (tensor<128x64x1x1xbf16, #ttnn_layout19>, !ttnn.device) -> tensor<128x64x1x1xbf16, #ttnn_layout72> loc(#loc269)
        %245 = "ttnn.to_layout"(%244) <{layout = #ttnn.layout<tile>}> : (tensor<128x64x1x1xbf16, #ttnn_layout72>) -> tensor<128x64x1x1xbf16, #ttnn_layout73> loc(#loc269)
        "ttnn.deallocate"(%244) <{force = false}> : (tensor<128x64x1x1xbf16, #ttnn_layout72>) -> () loc(#loc269)
        %246 = "ttnn.multiply"(%245, %243) <{dtype = #ttcore.supportedDataTypes<bf16>}> : (tensor<128x64x1x1xbf16, #ttnn_layout73>, tensor<128x1x1x1xbf16, #ttnn_layout71>) -> tensor<128x64x1x1xbf16, #ttnn_layout73> loc(#loc270)
        "ttnn.deallocate"(%245) <{force = false}> : (tensor<128x64x1x1xbf16, #ttnn_layout73>) -> () loc(#loc270)
        "ttnn.deallocate"(%243) <{force = false}> : (tensor<128x1x1x1xbf16, #ttnn_layout71>) -> () loc(#loc270)
        %247 = "ttnn.to_layout"(%246) <{layout = #ttnn.layout<row_major>}> : (tensor<128x64x1x1xbf16, #ttnn_layout73>) -> tensor<128x64x1x1xbf16, #ttnn_layout72> loc(#loc271)
        "ttnn.deallocate"(%246) <{force = false}> : (tensor<128x64x1x1xbf16, #ttnn_layout73>) -> () loc(#loc271)
        %248 = "ttnn.from_device"(%247) : (tensor<128x64x1x1xbf16, #ttnn_layout72>) -> tensor<128x64x1x1xbf16, #ttnn_layout19> loc(#loc271)
        "ttnn.deallocate"(%247) <{force = false}> : (tensor<128x64x1x1xbf16, #ttnn_layout72>) -> () loc(#loc271)
        %249 = "ttnn.prepare_conv2d_weights"(%248, %0) <{batch_size = 4 : i32, conv2d_config = #ttnn.conv2d_config<weights_dtype = bf16, activation = <op_type = relu>, deallocate_activation = false, act_block_h_override = 0, shard_layout = height_sharded, enable_kernel_stride_folding = false, config_tensors_in_dram = true>, conv2d_slice_config = #ttnn.conv2d_slice_config<l1_full, 0>, dilation = array<i32: 1, 1>, groups = 1 : i32, has_bias = true, in_channels = 64 : i32, input_dtype = #ttcore.supportedDataTypes<bf16>, input_height = 56 : i32, input_memory_config = #ttnn.memory_config<#l1, <height_sharded>, #ttnn.shard_spec<<[#ttnn.core_range<(0,0), (7,6)>]>, <224x64>, <row_major>>>, input_tensor_layout = #ttnn.layout<tile>, input_width = 56 : i32, kernel_size = array<i32: 1, 1>, out_channels = 128 : i32, output_dtype = #ttcore.supportedDataTypes<bf16>, padding = array<i32: 0, 0, 0, 0>, stride = array<i32: 1, 1>, weights_format = "OIHW"}> : (tensor<128x64x1x1xbf16, #ttnn_layout19>, !ttnn.device) -> tensor<1x1x64x128xbf16, #ttnn_layout25> loc(#loc272)
        "ttnn.deallocate"(%248) <{force = false}> : (tensor<128x64x1x1xbf16, #ttnn_layout19>) -> () loc(#loc272)
        %250 = "ttnn.reshape"(%30) <{shape = [1 : i32, 1 : i32, 1 : i32, 128 : i32]}> : (tensor<128xbf16, #ttnn_layout48>) -> tensor<1x1x1x128xbf16, #ttnn_layout26> loc(#loc505)
        "ttnn.deallocate"(%30) <{force = false}> : (tensor<128xbf16, #ttnn_layout48>) -> () loc(#loc505)
        %251 = "ttnn.reshape"(%242) <{shape = [1 : i32, 1 : i32, 1 : i32, 128 : i32]}> : (tensor<128xbf16, #ttnn_layout48>) -> tensor<1x1x1x128xbf16, #ttnn_layout26> loc(#loc506)
        "ttnn.deallocate"(%242) <{force = false}> : (tensor<128xbf16, #ttnn_layout48>) -> () loc(#loc506)
        %252 = "ttnn.multiply"(%250, %251) <{dtype = #ttcore.supportedDataTypes<bf16>}> : (tensor<1x1x1x128xbf16, #ttnn_layout26>, tensor<1x1x1x128xbf16, #ttnn_layout26>) -> tensor<1x1x1x128xbf16, #ttnn_layout26> loc(#loc7)
        "ttnn.deallocate"(%251) <{force = false}> : (tensor<1x1x1x128xbf16, #ttnn_layout26>) -> () loc(#loc7)
        "ttnn.deallocate"(%250) <{force = false}> : (tensor<1x1x1x128xbf16, #ttnn_layout26>) -> () loc(#loc7)
        %253 = "ttnn.reshape"(%28) <{shape = [1 : i32, 1 : i32, 1 : i32, 128 : i32]}> : (tensor<128xbf16, #ttnn_layout48>) -> tensor<1x1x1x128xbf16, #ttnn_layout26> loc(#loc274)
        "ttnn.deallocate"(%28) <{force = false}> : (tensor<128xbf16, #ttnn_layout48>) -> () loc(#loc274)
        %254 = "ttnn.subtract"(%253, %252) <{dtype = #ttcore.supportedDataTypes<bf16>}> : (tensor<1x1x1x128xbf16, #ttnn_layout26>, tensor<1x1x1x128xbf16, #ttnn_layout26>) -> tensor<1x1x1x128xbf16, #ttnn_layout26> loc(#loc7)
        "ttnn.deallocate"(%253) <{force = false}> : (tensor<1x1x1x128xbf16, #ttnn_layout26>) -> () loc(#loc7)
        "ttnn.deallocate"(%252) <{force = false}> : (tensor<1x1x1x128xbf16, #ttnn_layout26>) -> () loc(#loc7)
        %255 = "ttnn.to_layout"(%254) <{layout = #ttnn.layout<row_major>}> : (tensor<1x1x1x128xbf16, #ttnn_layout26>) -> tensor<1x1x1x128xbf16, #ttnn_layout74> loc(#loc275)
        "ttnn.deallocate"(%254) <{force = false}> : (tensor<1x1x1x128xbf16, #ttnn_layout26>) -> () loc(#loc275)
        %256 = "ttnn.from_device"(%255) : (tensor<1x1x1x128xbf16, #ttnn_layout74>) -> tensor<1x1x1x128xbf16, #ttnn_layout75> loc(#loc275)
        "ttnn.deallocate"(%255) <{force = false}> : (tensor<1x1x1x128xbf16, #ttnn_layout74>) -> () loc(#loc275)
        %257 = "ttnn.prepare_conv2d_bias"(%256, %0) <{batch_size = 4 : i32, conv2d_config = #ttnn.conv2d_config<weights_dtype = bf16, activation = <op_type = relu>, deallocate_activation = false, act_block_h_override = 0, shard_layout = height_sharded, enable_kernel_stride_folding = false, config_tensors_in_dram = true>, conv2d_slice_config = #ttnn.conv2d_slice_config<l1_full, 0>, dilation = array<i32: 1, 1>, groups = 1 : i32, in_channels = 64 : i32, input_dtype = #ttcore.supportedDataTypes<bf16>, input_height = 56 : i32, input_memory_config = #ttnn.memory_config<#l1, <height_sharded>, #ttnn.shard_spec<<[#ttnn.core_range<(0,0), (7,6)>]>, <224x64>, <row_major>>>, input_tensor_layout = #ttnn.layout<tile>, input_width = 56 : i32, kernel_size = array<i32: 1, 1>, out_channels = 128 : i32, output_dtype = #ttcore.supportedDataTypes<bf16>, padding = array<i32: 0, 0, 0, 0>, stride = array<i32: 1, 1>}> : (tensor<1x1x1x128xbf16, #ttnn_layout75>, !ttnn.device) -> tensor<1x1x1x128xbf16, #ttnn_layout26> loc(#loc276)
        "ttnn.deallocate"(%256) <{force = false}> : (tensor<1x1x1x128xbf16, #ttnn_layout75>) -> () loc(#loc276)
        %258 = "ttnn.add"(%40, %185) <{dtype = #ttcore.supportedDataTypes<bf16>}> : (tensor<128xbf16, #ttnn_layout48>, tensor<1xbf16, #ttnn_layout63>) -> tensor<128xbf16, #ttnn_layout48> loc(#loc9)
        "ttnn.deallocate"(%40) <{force = false}> : (tensor<128xbf16, #ttnn_layout48>) -> () loc(#loc9)
        %259 = "ttnn.sqrt"(%258) : (tensor<128xbf16, #ttnn_layout48>) -> tensor<128xbf16, #ttnn_layout48> loc(#loc9)
        "ttnn.deallocate"(%258) <{force = false}> : (tensor<128xbf16, #ttnn_layout48>) -> () loc(#loc9)
        %260 = "ttnn.divide"(%34, %259) <{dtype = #ttcore.supportedDataTypes<bf16>}> : (tensor<128xbf16, #ttnn_layout48>, tensor<128xbf16, #ttnn_layout48>) -> tensor<128xbf16, #ttnn_layout48> loc(#loc9)
        "ttnn.deallocate"(%259) <{force = false}> : (tensor<128xbf16, #ttnn_layout48>) -> () loc(#loc9)
        "ttnn.deallocate"(%34) <{force = false}> : (tensor<128xbf16, #ttnn_layout48>) -> () loc(#loc9)
        %261 = "ttnn.reshape"(%260) <{shape = [128 : i32, 1 : i32, 1 : i32, 1 : i32]}> : (tensor<128xbf16, #ttnn_layout48>) -> tensor<128x1x1x1xbf16, #ttnn_layout71> loc(#loc277)
        %262 = "ttnn.to_device"(%arg94, %0) <{memory_config = #ttnn.memory_config<#dram, <interleaved>>}> : (tensor<128x128x1x1xbf16, #ttnn_layout18>, !ttnn.device) -> tensor<128x128x1x1xbf16, #ttnn_layout76> loc(#loc278)
        %263 = "ttnn.to_layout"(%262) <{layout = #ttnn.layout<tile>}> : (tensor<128x128x1x1xbf16, #ttnn_layout76>) -> tensor<128x128x1x1xbf16, #ttnn_layout77> loc(#loc278)
        "ttnn.deallocate"(%262) <{force = false}> : (tensor<128x128x1x1xbf16, #ttnn_layout76>) -> () loc(#loc278)
        %264 = "ttnn.multiply"(%263, %261) <{dtype = #ttcore.supportedDataTypes<bf16>}> : (tensor<128x128x1x1xbf16, #ttnn_layout77>, tensor<128x1x1x1xbf16, #ttnn_layout71>) -> tensor<128x128x1x1xbf16, #ttnn_layout77> loc(#loc279)
        "ttnn.deallocate"(%263) <{force = false}> : (tensor<128x128x1x1xbf16, #ttnn_layout77>) -> () loc(#loc279)
        "ttnn.deallocate"(%261) <{force = false}> : (tensor<128x1x1x1xbf16, #ttnn_layout71>) -> () loc(#loc279)
        %265 = "ttnn.to_layout"(%264) <{layout = #ttnn.layout<row_major>}> : (tensor<128x128x1x1xbf16, #ttnn_layout77>) -> tensor<128x128x1x1xbf16, #ttnn_layout76> loc(#loc280)
        "ttnn.deallocate"(%264) <{force = false}> : (tensor<128x128x1x1xbf16, #ttnn_layout77>) -> () loc(#loc280)
        %266 = "ttnn.from_device"(%265) : (tensor<128x128x1x1xbf16, #ttnn_layout76>) -> tensor<128x128x1x1xbf16, #ttnn_layout18> loc(#loc280)
        "ttnn.deallocate"(%265) <{force = false}> : (tensor<128x128x1x1xbf16, #ttnn_layout76>) -> () loc(#loc280)
        %267 = "ttnn.prepare_conv2d_weights"(%266, %0) <{batch_size = 4 : i32, conv2d_config = #ttnn.conv2d_config<weights_dtype = bf16, activation = <op_type = relu>, deallocate_activation = true, act_block_h_override = 0, shard_layout = height_sharded, enable_kernel_stride_folding = false, config_tensors_in_dram = true>, conv2d_slice_config = #ttnn.conv2d_slice_config<l1_full, 0>, dilation = array<i32: 1, 1>, groups = 1 : i32, has_bias = true, in_channels = 128 : i32, input_dtype = #ttcore.supportedDataTypes<bf16>, input_height = 56 : i32, input_memory_config = #ttnn.memory_config<#l1, <height_sharded>, #ttnn.shard_spec<<[#ttnn.core_range<(0,0), (7,6)>]>, <224x128>, <row_major>>>, input_tensor_layout = #ttnn.layout<tile>, input_width = 56 : i32, kernel_size = array<i32: 1, 1>, out_channels = 128 : i32, output_dtype = #ttcore.supportedDataTypes<bf16>, padding = array<i32: 0, 0, 0, 0>, stride = array<i32: 1, 1>, weights_format = "OIHW"}> : (tensor<128x128x1x1xbf16, #ttnn_layout18>, !ttnn.device) -> tensor<1x1x128x128xbf16, #ttnn_layout27> loc(#loc281)
        "ttnn.deallocate"(%266) <{force = false}> : (tensor<128x128x1x1xbf16, #ttnn_layout18>) -> () loc(#loc281)
        %268 = "ttnn.reshape"(%38) <{shape = [1 : i32, 1 : i32, 1 : i32, 128 : i32]}> : (tensor<128xbf16, #ttnn_layout48>) -> tensor<1x1x1x128xbf16, #ttnn_layout26> loc(#loc507)
        "ttnn.deallocate"(%38) <{force = false}> : (tensor<128xbf16, #ttnn_layout48>) -> () loc(#loc507)
        %269 = "ttnn.reshape"(%260) <{shape = [1 : i32, 1 : i32, 1 : i32, 128 : i32]}> : (tensor<128xbf16, #ttnn_layout48>) -> tensor<1x1x1x128xbf16, #ttnn_layout26> loc(#loc508)
        "ttnn.deallocate"(%260) <{force = false}> : (tensor<128xbf16, #ttnn_layout48>) -> () loc(#loc508)
        %270 = "ttnn.multiply"(%268, %269) <{dtype = #ttcore.supportedDataTypes<bf16>}> : (tensor<1x1x1x128xbf16, #ttnn_layout26>, tensor<1x1x1x128xbf16, #ttnn_layout26>) -> tensor<1x1x1x128xbf16, #ttnn_layout26> loc(#loc9)
        "ttnn.deallocate"(%269) <{force = false}> : (tensor<1x1x1x128xbf16, #ttnn_layout26>) -> () loc(#loc9)
        "ttnn.deallocate"(%268) <{force = false}> : (tensor<1x1x1x128xbf16, #ttnn_layout26>) -> () loc(#loc9)
        %271 = "ttnn.reshape"(%36) <{shape = [1 : i32, 1 : i32, 1 : i32, 128 : i32]}> : (tensor<128xbf16, #ttnn_layout48>) -> tensor<1x1x1x128xbf16, #ttnn_layout26> loc(#loc283)
        "ttnn.deallocate"(%36) <{force = false}> : (tensor<128xbf16, #ttnn_layout48>) -> () loc(#loc283)
        %272 = "ttnn.subtract"(%271, %270) <{dtype = #ttcore.supportedDataTypes<bf16>}> : (tensor<1x1x1x128xbf16, #ttnn_layout26>, tensor<1x1x1x128xbf16, #ttnn_layout26>) -> tensor<1x1x1x128xbf16, #ttnn_layout26> loc(#loc9)
        "ttnn.deallocate"(%271) <{force = false}> : (tensor<1x1x1x128xbf16, #ttnn_layout26>) -> () loc(#loc9)
        "ttnn.deallocate"(%270) <{force = false}> : (tensor<1x1x1x128xbf16, #ttnn_layout26>) -> () loc(#loc9)
        %273 = "ttnn.to_layout"(%272) <{layout = #ttnn.layout<row_major>}> : (tensor<1x1x1x128xbf16, #ttnn_layout26>) -> tensor<1x1x1x128xbf16, #ttnn_layout74> loc(#loc284)
        "ttnn.deallocate"(%272) <{force = false}> : (tensor<1x1x1x128xbf16, #ttnn_layout26>) -> () loc(#loc284)
        %274 = "ttnn.from_device"(%273) : (tensor<1x1x1x128xbf16, #ttnn_layout74>) -> tensor<1x1x1x128xbf16, #ttnn_layout75> loc(#loc284)
        "ttnn.deallocate"(%273) <{force = false}> : (tensor<1x1x1x128xbf16, #ttnn_layout74>) -> () loc(#loc284)
        %275 = "ttnn.prepare_conv2d_bias"(%274, %0) <{batch_size = 4 : i32, conv2d_config = #ttnn.conv2d_config<weights_dtype = bf16, activation = <op_type = relu>, deallocate_activation = true, act_block_h_override = 0, shard_layout = height_sharded, enable_kernel_stride_folding = false, config_tensors_in_dram = true>, conv2d_slice_config = #ttnn.conv2d_slice_config<l1_full, 0>, dilation = array<i32: 1, 1>, groups = 1 : i32, in_channels = 128 : i32, input_dtype = #ttcore.supportedDataTypes<bf16>, input_height = 56 : i32, input_memory_config = #ttnn.memory_config<#l1, <height_sharded>, #ttnn.shard_spec<<[#ttnn.core_range<(0,0), (7,6)>]>, <224x128>, <row_major>>>, input_tensor_layout = #ttnn.layout<tile>, input_width = 56 : i32, kernel_size = array<i32: 1, 1>, out_channels = 128 : i32, output_dtype = #ttcore.supportedDataTypes<bf16>, padding = array<i32: 0, 0, 0, 0>, stride = array<i32: 1, 1>}> : (tensor<1x1x1x128xbf16, #ttnn_layout75>, !ttnn.device) -> tensor<1x1x1x128xbf16, #ttnn_layout26> loc(#loc285)
        "ttnn.deallocate"(%274) <{force = false}> : (tensor<1x1x1x128xbf16, #ttnn_layout75>) -> () loc(#loc285)
        %276 = "ttnn.add"(%48, %185) <{dtype = #ttcore.supportedDataTypes<bf16>}> : (tensor<128xbf16, #ttnn_layout48>, tensor<1xbf16, #ttnn_layout63>) -> tensor<128xbf16, #ttnn_layout48> loc(#loc11)
        "ttnn.deallocate"(%48) <{force = false}> : (tensor<128xbf16, #ttnn_layout48>) -> () loc(#loc11)
        %277 = "ttnn.sqrt"(%276) : (tensor<128xbf16, #ttnn_layout48>) -> tensor<128xbf16, #ttnn_layout48> loc(#loc11)
        "ttnn.deallocate"(%276) <{force = false}> : (tensor<128xbf16, #ttnn_layout48>) -> () loc(#loc11)
        %278 = "ttnn.divide"(%42, %277) <{dtype = #ttcore.supportedDataTypes<bf16>}> : (tensor<128xbf16, #ttnn_layout48>, tensor<128xbf16, #ttnn_layout48>) -> tensor<128xbf16, #ttnn_layout48> loc(#loc11)
        "ttnn.deallocate"(%277) <{force = false}> : (tensor<128xbf16, #ttnn_layout48>) -> () loc(#loc11)
        "ttnn.deallocate"(%42) <{force = false}> : (tensor<128xbf16, #ttnn_layout48>) -> () loc(#loc11)
        %279 = "ttnn.reshape"(%278) <{shape = [128 : i32, 1 : i32, 1 : i32, 1 : i32]}> : (tensor<128xbf16, #ttnn_layout48>) -> tensor<128x1x1x1xbf16, #ttnn_layout71> loc(#loc286)
        %280 = "ttnn.to_device"(%arg89, %0) <{memory_config = #ttnn.memory_config<#dram, <interleaved>>}> : (tensor<128x128x1x1xbf16, #ttnn_layout18>, !ttnn.device) -> tensor<128x128x1x1xbf16, #ttnn_layout76> loc(#loc287)
        %281 = "ttnn.to_layout"(%280) <{layout = #ttnn.layout<tile>}> : (tensor<128x128x1x1xbf16, #ttnn_layout76>) -> tensor<128x128x1x1xbf16, #ttnn_layout77> loc(#loc287)
        "ttnn.deallocate"(%280) <{force = false}> : (tensor<128x128x1x1xbf16, #ttnn_layout76>) -> () loc(#loc287)
        %282 = "ttnn.multiply"(%281, %279) <{dtype = #ttcore.supportedDataTypes<bf16>}> : (tensor<128x128x1x1xbf16, #ttnn_layout77>, tensor<128x1x1x1xbf16, #ttnn_layout71>) -> tensor<128x128x1x1xbf16, #ttnn_layout77> loc(#loc288)
        "ttnn.deallocate"(%281) <{force = false}> : (tensor<128x128x1x1xbf16, #ttnn_layout77>) -> () loc(#loc288)
        "ttnn.deallocate"(%279) <{force = false}> : (tensor<128x1x1x1xbf16, #ttnn_layout71>) -> () loc(#loc288)
        %283 = "ttnn.to_layout"(%282) <{layout = #ttnn.layout<row_major>}> : (tensor<128x128x1x1xbf16, #ttnn_layout77>) -> tensor<128x128x1x1xbf16, #ttnn_layout76> loc(#loc289)
        "ttnn.deallocate"(%282) <{force = false}> : (tensor<128x128x1x1xbf16, #ttnn_layout77>) -> () loc(#loc289)
        %284 = "ttnn.from_device"(%283) : (tensor<128x128x1x1xbf16, #ttnn_layout76>) -> tensor<128x128x1x1xbf16, #ttnn_layout18> loc(#loc289)
        "ttnn.deallocate"(%283) <{force = false}> : (tensor<128x128x1x1xbf16, #ttnn_layout76>) -> () loc(#loc289)
        %285 = "ttnn.prepare_conv2d_weights"(%284, %0) <{batch_size = 4 : i32, conv2d_config = #ttnn.conv2d_config<weights_dtype = bf16, activation = <op_type = relu>, deallocate_activation = true, act_block_h_override = 0, shard_layout = height_sharded, enable_kernel_stride_folding = false, config_tensors_in_dram = true>, conv2d_slice_config = #ttnn.conv2d_slice_config<l1_full, 0>, dilation = array<i32: 1, 1>, groups = 1 : i32, has_bias = true, in_channels = 128 : i32, input_dtype = #ttcore.supportedDataTypes<bf16>, input_height = 56 : i32, input_memory_config = #ttnn.memory_config<#l1, <height_sharded>, #ttnn.shard_spec<<[#ttnn.core_range<(0,0), (7,6)>]>, <224x128>, <row_major>>>, input_tensor_layout = #ttnn.layout<tile>, input_width = 56 : i32, kernel_size = array<i32: 1, 1>, out_channels = 128 : i32, output_dtype = #ttcore.supportedDataTypes<bf16>, padding = array<i32: 0, 0, 0, 0>, stride = array<i32: 1, 1>, weights_format = "OIHW"}> : (tensor<128x128x1x1xbf16, #ttnn_layout18>, !ttnn.device) -> tensor<1x1x128x128xbf16, #ttnn_layout27> loc(#loc290)
        "ttnn.deallocate"(%284) <{force = false}> : (tensor<128x128x1x1xbf16, #ttnn_layout18>) -> () loc(#loc290)
        %286 = "ttnn.reshape"(%46) <{shape = [1 : i32, 1 : i32, 1 : i32, 128 : i32]}> : (tensor<128xbf16, #ttnn_layout48>) -> tensor<1x1x1x128xbf16, #ttnn_layout26> loc(#loc509)
        "ttnn.deallocate"(%46) <{force = false}> : (tensor<128xbf16, #ttnn_layout48>) -> () loc(#loc509)
        %287 = "ttnn.reshape"(%278) <{shape = [1 : i32, 1 : i32, 1 : i32, 128 : i32]}> : (tensor<128xbf16, #ttnn_layout48>) -> tensor<1x1x1x128xbf16, #ttnn_layout26> loc(#loc510)
        "ttnn.deallocate"(%278) <{force = false}> : (tensor<128xbf16, #ttnn_layout48>) -> () loc(#loc510)
        %288 = "ttnn.multiply"(%286, %287) <{dtype = #ttcore.supportedDataTypes<bf16>}> : (tensor<1x1x1x128xbf16, #ttnn_layout26>, tensor<1x1x1x128xbf16, #ttnn_layout26>) -> tensor<1x1x1x128xbf16, #ttnn_layout26> loc(#loc11)
        "ttnn.deallocate"(%287) <{force = false}> : (tensor<1x1x1x128xbf16, #ttnn_layout26>) -> () loc(#loc11)
        "ttnn.deallocate"(%286) <{force = false}> : (tensor<1x1x1x128xbf16, #ttnn_layout26>) -> () loc(#loc11)
        %289 = "ttnn.reshape"(%44) <{shape = [1 : i32, 1 : i32, 1 : i32, 128 : i32]}> : (tensor<128xbf16, #ttnn_layout48>) -> tensor<1x1x1x128xbf16, #ttnn_layout26> loc(#loc292)
        "ttnn.deallocate"(%44) <{force = false}> : (tensor<128xbf16, #ttnn_layout48>) -> () loc(#loc292)
        %290 = "ttnn.subtract"(%289, %288) <{dtype = #ttcore.supportedDataTypes<bf16>}> : (tensor<1x1x1x128xbf16, #ttnn_layout26>, tensor<1x1x1x128xbf16, #ttnn_layout26>) -> tensor<1x1x1x128xbf16, #ttnn_layout26> loc(#loc11)
        "ttnn.deallocate"(%289) <{force = false}> : (tensor<1x1x1x128xbf16, #ttnn_layout26>) -> () loc(#loc11)
        "ttnn.deallocate"(%288) <{force = false}> : (tensor<1x1x1x128xbf16, #ttnn_layout26>) -> () loc(#loc11)
        %291 = "ttnn.to_layout"(%290) <{layout = #ttnn.layout<row_major>}> : (tensor<1x1x1x128xbf16, #ttnn_layout26>) -> tensor<1x1x1x128xbf16, #ttnn_layout74> loc(#loc293)
        "ttnn.deallocate"(%290) <{force = false}> : (tensor<1x1x1x128xbf16, #ttnn_layout26>) -> () loc(#loc293)
        %292 = "ttnn.from_device"(%291) : (tensor<1x1x1x128xbf16, #ttnn_layout74>) -> tensor<1x1x1x128xbf16, #ttnn_layout75> loc(#loc293)
        "ttnn.deallocate"(%291) <{force = false}> : (tensor<1x1x1x128xbf16, #ttnn_layout74>) -> () loc(#loc293)
        %293 = "ttnn.prepare_conv2d_bias"(%292, %0) <{batch_size = 4 : i32, conv2d_config = #ttnn.conv2d_config<weights_dtype = bf16, activation = <op_type = relu>, deallocate_activation = true, act_block_h_override = 0, shard_layout = height_sharded, enable_kernel_stride_folding = false, config_tensors_in_dram = true>, conv2d_slice_config = #ttnn.conv2d_slice_config<l1_full, 0>, dilation = array<i32: 1, 1>, groups = 1 : i32, in_channels = 128 : i32, input_dtype = #ttcore.supportedDataTypes<bf16>, input_height = 56 : i32, input_memory_config = #ttnn.memory_config<#l1, <height_sharded>, #ttnn.shard_spec<<[#ttnn.core_range<(0,0), (7,6)>]>, <224x128>, <row_major>>>, input_tensor_layout = #ttnn.layout<tile>, input_width = 56 : i32, kernel_size = array<i32: 1, 1>, out_channels = 128 : i32, output_dtype = #ttcore.supportedDataTypes<bf16>, padding = array<i32: 0, 0, 0, 0>, stride = array<i32: 1, 1>}> : (tensor<1x1x1x128xbf16, #ttnn_layout75>, !ttnn.device) -> tensor<1x1x1x128xbf16, #ttnn_layout26> loc(#loc294)
        "ttnn.deallocate"(%292) <{force = false}> : (tensor<1x1x1x128xbf16, #ttnn_layout75>) -> () loc(#loc294)
        %294 = "ttnn.add"(%56, %185) <{dtype = #ttcore.supportedDataTypes<bf16>}> : (tensor<128xbf16, #ttnn_layout48>, tensor<1xbf16, #ttnn_layout63>) -> tensor<128xbf16, #ttnn_layout48> loc(#loc13)
        "ttnn.deallocate"(%56) <{force = false}> : (tensor<128xbf16, #ttnn_layout48>) -> () loc(#loc13)
        %295 = "ttnn.sqrt"(%294) : (tensor<128xbf16, #ttnn_layout48>) -> tensor<128xbf16, #ttnn_layout48> loc(#loc13)
        "ttnn.deallocate"(%294) <{force = false}> : (tensor<128xbf16, #ttnn_layout48>) -> () loc(#loc13)
        %296 = "ttnn.divide"(%50, %295) <{dtype = #ttcore.supportedDataTypes<bf16>}> : (tensor<128xbf16, #ttnn_layout48>, tensor<128xbf16, #ttnn_layout48>) -> tensor<128xbf16, #ttnn_layout48> loc(#loc13)
        "ttnn.deallocate"(%295) <{force = false}> : (tensor<128xbf16, #ttnn_layout48>) -> () loc(#loc13)
        "ttnn.deallocate"(%50) <{force = false}> : (tensor<128xbf16, #ttnn_layout48>) -> () loc(#loc13)
        %297 = "ttnn.reshape"(%296) <{shape = [128 : i32, 1 : i32, 1 : i32, 1 : i32]}> : (tensor<128xbf16, #ttnn_layout48>) -> tensor<128x1x1x1xbf16, #ttnn_layout71> loc(#loc295)
        %298 = "ttnn.to_device"(%arg84, %0) <{memory_config = #ttnn.memory_config<#dram, <interleaved>>}> : (tensor<128x128x1x1xbf16, #ttnn_layout18>, !ttnn.device) -> tensor<128x128x1x1xbf16, #ttnn_layout76> loc(#loc296)
        %299 = "ttnn.to_layout"(%298) <{layout = #ttnn.layout<tile>}> : (tensor<128x128x1x1xbf16, #ttnn_layout76>) -> tensor<128x128x1x1xbf16, #ttnn_layout77> loc(#loc296)
        "ttnn.deallocate"(%298) <{force = false}> : (tensor<128x128x1x1xbf16, #ttnn_layout76>) -> () loc(#loc296)
        %300 = "ttnn.multiply"(%299, %297) <{dtype = #ttcore.supportedDataTypes<bf16>}> : (tensor<128x128x1x1xbf16, #ttnn_layout77>, tensor<128x1x1x1xbf16, #ttnn_layout71>) -> tensor<128x128x1x1xbf16, #ttnn_layout77> loc(#loc297)
        "ttnn.deallocate"(%299) <{force = false}> : (tensor<128x128x1x1xbf16, #ttnn_layout77>) -> () loc(#loc297)
        "ttnn.deallocate"(%297) <{force = false}> : (tensor<128x1x1x1xbf16, #ttnn_layout71>) -> () loc(#loc297)
        %301 = "ttnn.to_layout"(%300) <{layout = #ttnn.layout<row_major>}> : (tensor<128x128x1x1xbf16, #ttnn_layout77>) -> tensor<128x128x1x1xbf16, #ttnn_layout76> loc(#loc298)
        "ttnn.deallocate"(%300) <{force = false}> : (tensor<128x128x1x1xbf16, #ttnn_layout77>) -> () loc(#loc298)
        %302 = "ttnn.from_device"(%301) : (tensor<128x128x1x1xbf16, #ttnn_layout76>) -> tensor<128x128x1x1xbf16, #ttnn_layout18> loc(#loc298)
        "ttnn.deallocate"(%301) <{force = false}> : (tensor<128x128x1x1xbf16, #ttnn_layout76>) -> () loc(#loc298)
        %303 = "ttnn.prepare_conv2d_weights"(%302, %0) <{batch_size = 4 : i32, conv2d_config = #ttnn.conv2d_config<weights_dtype = bf16, activation = <op_type = relu>, deallocate_activation = true, act_block_h_override = 0, shard_layout = height_sharded, enable_kernel_stride_folding = false, config_tensors_in_dram = true>, conv2d_slice_config = #ttnn.conv2d_slice_config<l1_full, 0>, dilation = array<i32: 1, 1>, groups = 1 : i32, has_bias = true, in_channels = 128 : i32, input_dtype = #ttcore.supportedDataTypes<bf16>, input_height = 56 : i32, input_memory_config = #ttnn.memory_config<#l1, <height_sharded>, #ttnn.shard_spec<<[#ttnn.core_range<(0,0), (7,6)>]>, <224x128>, <row_major>>>, input_tensor_layout = #ttnn.layout<tile>, input_width = 56 : i32, kernel_size = array<i32: 1, 1>, out_channels = 128 : i32, output_dtype = #ttcore.supportedDataTypes<bf16>, padding = array<i32: 0, 0, 0, 0>, stride = array<i32: 1, 1>, weights_format = "OIHW"}> : (tensor<128x128x1x1xbf16, #ttnn_layout18>, !ttnn.device) -> tensor<1x1x128x128xbf16, #ttnn_layout27> loc(#loc299)
        "ttnn.deallocate"(%302) <{force = false}> : (tensor<128x128x1x1xbf16, #ttnn_layout18>) -> () loc(#loc299)
        %304 = "ttnn.reshape"(%54) <{shape = [1 : i32, 1 : i32, 1 : i32, 128 : i32]}> : (tensor<128xbf16, #ttnn_layout48>) -> tensor<1x1x1x128xbf16, #ttnn_layout26> loc(#loc511)
        "ttnn.deallocate"(%54) <{force = false}> : (tensor<128xbf16, #ttnn_layout48>) -> () loc(#loc511)
        %305 = "ttnn.reshape"(%296) <{shape = [1 : i32, 1 : i32, 1 : i32, 128 : i32]}> : (tensor<128xbf16, #ttnn_layout48>) -> tensor<1x1x1x128xbf16, #ttnn_layout26> loc(#loc512)
        "ttnn.deallocate"(%296) <{force = false}> : (tensor<128xbf16, #ttnn_layout48>) -> () loc(#loc512)
        %306 = "ttnn.multiply"(%304, %305) <{dtype = #ttcore.supportedDataTypes<bf16>}> : (tensor<1x1x1x128xbf16, #ttnn_layout26>, tensor<1x1x1x128xbf16, #ttnn_layout26>) -> tensor<1x1x1x128xbf16, #ttnn_layout26> loc(#loc13)
        "ttnn.deallocate"(%305) <{force = false}> : (tensor<1x1x1x128xbf16, #ttnn_layout26>) -> () loc(#loc13)
        "ttnn.deallocate"(%304) <{force = false}> : (tensor<1x1x1x128xbf16, #ttnn_layout26>) -> () loc(#loc13)
        %307 = "ttnn.reshape"(%52) <{shape = [1 : i32, 1 : i32, 1 : i32, 128 : i32]}> : (tensor<128xbf16, #ttnn_layout48>) -> tensor<1x1x1x128xbf16, #ttnn_layout26> loc(#loc301)
        "ttnn.deallocate"(%52) <{force = false}> : (tensor<128xbf16, #ttnn_layout48>) -> () loc(#loc301)
        %308 = "ttnn.subtract"(%307, %306) <{dtype = #ttcore.supportedDataTypes<bf16>}> : (tensor<1x1x1x128xbf16, #ttnn_layout26>, tensor<1x1x1x128xbf16, #ttnn_layout26>) -> tensor<1x1x1x128xbf16, #ttnn_layout26> loc(#loc13)
        "ttnn.deallocate"(%307) <{force = false}> : (tensor<1x1x1x128xbf16, #ttnn_layout26>) -> () loc(#loc13)
        "ttnn.deallocate"(%306) <{force = false}> : (tensor<1x1x1x128xbf16, #ttnn_layout26>) -> () loc(#loc13)
        %309 = "ttnn.to_layout"(%308) <{layout = #ttnn.layout<row_major>}> : (tensor<1x1x1x128xbf16, #ttnn_layout26>) -> tensor<1x1x1x128xbf16, #ttnn_layout74> loc(#loc302)
        "ttnn.deallocate"(%308) <{force = false}> : (tensor<1x1x1x128xbf16, #ttnn_layout26>) -> () loc(#loc302)
        %310 = "ttnn.from_device"(%309) : (tensor<1x1x1x128xbf16, #ttnn_layout74>) -> tensor<1x1x1x128xbf16, #ttnn_layout75> loc(#loc302)
        "ttnn.deallocate"(%309) <{force = false}> : (tensor<1x1x1x128xbf16, #ttnn_layout74>) -> () loc(#loc302)
        %311 = "ttnn.prepare_conv2d_bias"(%310, %0) <{batch_size = 4 : i32, conv2d_config = #ttnn.conv2d_config<weights_dtype = bf16, activation = <op_type = relu>, deallocate_activation = true, act_block_h_override = 0, shard_layout = height_sharded, enable_kernel_stride_folding = false, config_tensors_in_dram = true>, conv2d_slice_config = #ttnn.conv2d_slice_config<l1_full, 0>, dilation = array<i32: 1, 1>, groups = 1 : i32, in_channels = 128 : i32, input_dtype = #ttcore.supportedDataTypes<bf16>, input_height = 56 : i32, input_memory_config = #ttnn.memory_config<#l1, <height_sharded>, #ttnn.shard_spec<<[#ttnn.core_range<(0,0), (7,6)>]>, <224x128>, <row_major>>>, input_tensor_layout = #ttnn.layout<tile>, input_width = 56 : i32, kernel_size = array<i32: 1, 1>, out_channels = 128 : i32, output_dtype = #ttcore.supportedDataTypes<bf16>, padding = array<i32: 0, 0, 0, 0>, stride = array<i32: 1, 1>}> : (tensor<1x1x1x128xbf16, #ttnn_layout75>, !ttnn.device) -> tensor<1x1x1x128xbf16, #ttnn_layout26> loc(#loc303)
        "ttnn.deallocate"(%310) <{force = false}> : (tensor<1x1x1x128xbf16, #ttnn_layout75>) -> () loc(#loc303)
        %312 = "ttnn.add"(%64, %185) <{dtype = #ttcore.supportedDataTypes<bf16>}> : (tensor<256xbf16, #ttnn_layout50>, tensor<1xbf16, #ttnn_layout63>) -> tensor<256xbf16, #ttnn_layout50> loc(#loc15)
        "ttnn.deallocate"(%64) <{force = false}> : (tensor<256xbf16, #ttnn_layout50>) -> () loc(#loc15)
        %313 = "ttnn.sqrt"(%312) : (tensor<256xbf16, #ttnn_layout50>) -> tensor<256xbf16, #ttnn_layout50> loc(#loc15)
        "ttnn.deallocate"(%312) <{force = false}> : (tensor<256xbf16, #ttnn_layout50>) -> () loc(#loc15)
        %314 = "ttnn.divide"(%58, %313) <{dtype = #ttcore.supportedDataTypes<bf16>}> : (tensor<256xbf16, #ttnn_layout50>, tensor<256xbf16, #ttnn_layout50>) -> tensor<256xbf16, #ttnn_layout50> loc(#loc15)
        "ttnn.deallocate"(%313) <{force = false}> : (tensor<256xbf16, #ttnn_layout50>) -> () loc(#loc15)
        "ttnn.deallocate"(%58) <{force = false}> : (tensor<256xbf16, #ttnn_layout50>) -> () loc(#loc15)
        %315 = "ttnn.reshape"(%314) <{shape = [256 : i32, 1 : i32, 1 : i32, 1 : i32]}> : (tensor<256xbf16, #ttnn_layout50>) -> tensor<256x1x1x1xbf16, #ttnn_layout78> loc(#loc304)
        %316 = "ttnn.to_device"(%arg79, %0) <{memory_config = #ttnn.memory_config<#dram, <interleaved>>}> : (tensor<256x448x1x1xbf16, #ttnn_layout16>, !ttnn.device) -> tensor<256x448x1x1xbf16, #ttnn_layout79> loc(#loc305)
        %317 = "ttnn.to_layout"(%316) <{layout = #ttnn.layout<tile>}> : (tensor<256x448x1x1xbf16, #ttnn_layout79>) -> tensor<256x448x1x1xbf16, #ttnn_layout80> loc(#loc305)
        "ttnn.deallocate"(%316) <{force = false}> : (tensor<256x448x1x1xbf16, #ttnn_layout79>) -> () loc(#loc305)
        %318 = "ttnn.multiply"(%317, %315) <{dtype = #ttcore.supportedDataTypes<bf16>}> : (tensor<256x448x1x1xbf16, #ttnn_layout80>, tensor<256x1x1x1xbf16, #ttnn_layout78>) -> tensor<256x448x1x1xbf16, #ttnn_layout80> loc(#loc306)
        "ttnn.deallocate"(%317) <{force = false}> : (tensor<256x448x1x1xbf16, #ttnn_layout80>) -> () loc(#loc306)
        "ttnn.deallocate"(%315) <{force = false}> : (tensor<256x1x1x1xbf16, #ttnn_layout78>) -> () loc(#loc306)
        %319 = "ttnn.to_layout"(%318) <{layout = #ttnn.layout<row_major>}> : (tensor<256x448x1x1xbf16, #ttnn_layout80>) -> tensor<256x448x1x1xbf16, #ttnn_layout79> loc(#loc307)
        "ttnn.deallocate"(%318) <{force = false}> : (tensor<256x448x1x1xbf16, #ttnn_layout80>) -> () loc(#loc307)
        %320 = "ttnn.from_device"(%319) : (tensor<256x448x1x1xbf16, #ttnn_layout79>) -> tensor<256x448x1x1xbf16, #ttnn_layout16> loc(#loc307)
        "ttnn.deallocate"(%319) <{force = false}> : (tensor<256x448x1x1xbf16, #ttnn_layout79>) -> () loc(#loc307)
        %321 = "ttnn.prepare_conv2d_weights"(%320, %0) <{batch_size = 4 : i32, conv2d_config = #ttnn.conv2d_config<weights_dtype = bf16, activation = <op_type = relu>, deallocate_activation = true, act_block_h_override = 0, shard_layout = height_sharded, enable_kernel_stride_folding = false, config_tensors_in_dram = true>, conv2d_slice_config = #ttnn.conv2d_slice_config<l1_full, 0>, dilation = array<i32: 1, 1>, groups = 1 : i32, has_bias = true, in_channels = 448 : i32, input_dtype = #ttcore.supportedDataTypes<bf16>, input_height = 56 : i32, input_memory_config = #ttnn.memory_config<#l1, <height_sharded>, #ttnn.shard_spec<<[#ttnn.core_range<(0,0), (7,6)>]>, <224x448>, <row_major>>>, input_tensor_layout = #ttnn.layout<tile>, input_width = 56 : i32, kernel_size = array<i32: 1, 1>, out_channels = 256 : i32, output_dtype = #ttcore.supportedDataTypes<bf16>, padding = array<i32: 0, 0, 0, 0>, stride = array<i32: 1, 1>, weights_format = "OIHW"}> : (tensor<256x448x1x1xbf16, #ttnn_layout16>, !ttnn.device) -> tensor<1x1x448x256xbf16, #ttnn_layout28> loc(#loc308)
        "ttnn.deallocate"(%320) <{force = false}> : (tensor<256x448x1x1xbf16, #ttnn_layout16>) -> () loc(#loc308)
        %322 = "ttnn.reshape"(%62) <{shape = [1 : i32, 1 : i32, 1 : i32, 256 : i32]}> : (tensor<256xbf16, #ttnn_layout50>) -> tensor<1x1x1x256xbf16, #ttnn_layout29> loc(#loc513)
        "ttnn.deallocate"(%62) <{force = false}> : (tensor<256xbf16, #ttnn_layout50>) -> () loc(#loc513)
        %323 = "ttnn.reshape"(%314) <{shape = [1 : i32, 1 : i32, 1 : i32, 256 : i32]}> : (tensor<256xbf16, #ttnn_layout50>) -> tensor<1x1x1x256xbf16, #ttnn_layout29> loc(#loc514)
        "ttnn.deallocate"(%314) <{force = false}> : (tensor<256xbf16, #ttnn_layout50>) -> () loc(#loc514)
        %324 = "ttnn.multiply"(%322, %323) <{dtype = #ttcore.supportedDataTypes<bf16>}> : (tensor<1x1x1x256xbf16, #ttnn_layout29>, tensor<1x1x1x256xbf16, #ttnn_layout29>) -> tensor<1x1x1x256xbf16, #ttnn_layout29> loc(#loc15)
        "ttnn.deallocate"(%323) <{force = false}> : (tensor<1x1x1x256xbf16, #ttnn_layout29>) -> () loc(#loc15)
        "ttnn.deallocate"(%322) <{force = false}> : (tensor<1x1x1x256xbf16, #ttnn_layout29>) -> () loc(#loc15)
        %325 = "ttnn.reshape"(%60) <{shape = [1 : i32, 1 : i32, 1 : i32, 256 : i32]}> : (tensor<256xbf16, #ttnn_layout50>) -> tensor<1x1x1x256xbf16, #ttnn_layout29> loc(#loc310)
        "ttnn.deallocate"(%60) <{force = false}> : (tensor<256xbf16, #ttnn_layout50>) -> () loc(#loc310)
…
        %97 = "ttnn.to_memory_config"(%93) <{memory_config = #ttnn.memory_config<#dram, <interleaved>>}> : (tensor<1x1x784x192xbf16, #ttnn_layout180>) -> tensor<1x1x784x192xbf16, #ttnn_layout182> loc(#loc222)
        "ttnn.deallocate"(%93) <{force = false}> : (tensor<1x1x784x192xbf16, #ttnn_layout180>) -> () loc(#loc222)
        %98 = "ttnn.concat"(%94, %95, %96, %97) <{dim = 3 : si32}> : (tensor<1x1x784x512xbf16, #ttnn_layout181>, tensor<1x1x784x192xbf16, #ttnn_layout182>, tensor<1x1x784x192xbf16, #ttnn_layout182>, tensor<1x1x784x192xbf16, #ttnn_layout182>) -> tensor<1x1x784x1088xbf16, #ttnn_layout183> loc(#loc222)
        "ttnn.deallocate"(%97) <{force = false}> : (tensor<1x1x784x192xbf16, #ttnn_layout182>) -> () loc(#loc222)
        "ttnn.deallocate"(%96) <{force = false}> : (tensor<1x1x784x192xbf16, #ttnn_layout182>) -> () loc(#loc222)
        "ttnn.deallocate"(%95) <{force = false}> : (tensor<1x1x784x192xbf16, #ttnn_layout182>) -> () loc(#loc222)
        "ttnn.deallocate"(%94) <{force = false}> : (tensor<1x1x784x512xbf16, #ttnn_layout181>) -> () loc(#loc222)
        %99 = "ttnn.to_layout"(%98) <{layout = #ttnn.layout<tile>}> : (tensor<1x1x784x1088xbf16, #ttnn_layout183>) -> tensor<1x1x784x1088xbf16, #ttnn_layout184> loc(#loc486)
        "ttnn.deallocate"(%98) <{force = false}> : (tensor<1x1x784x1088xbf16, #ttnn_layout183>) -> () loc(#loc486)
        %100 = "ttnn.conv2d"(%99, %0#34, %0#35, %25) <{batch_size = 4 : i32, conv2d_config = #ttnn.conv2d_config<weights_dtype = bf16, activation = <op_type = relu>, deallocate_activation = true, act_block_h_override = 0, enable_kernel_stride_folding = false, config_tensors_in_dram = true>, conv2d_slice_config = #ttnn.conv2d_slice_config<l1_full, 0>, dilation = array<i32: 1, 1>, dtype = #ttcore.supportedDataTypes<bf16>, groups = 1 : i32, in_channels = 1088 : i32, input_height = 14 : i32, input_width = 14 : i32, kernel_size = array<i32: 1, 1>, out_channels = 768 : i32, padding = array<i32: 0, 0, 0, 0>, stride = array<i32: 1, 1>}> : (tensor<1x1x784x1088xbf16, #ttnn_layout184>, tensor<1x1x1088x768xbf16, #ttnn_layout38>, tensor<1x1x1x768xbf16, #ttnn_layout39>, !ttnn.device) -> tensor<1x1x784x768xbf16, #ttnn_layout185> loc(#loc36)
        "ttnn.deallocate"(%99) <{force = false}> : (tensor<1x1x784x1088xbf16, #ttnn_layout184>) -> () loc(#loc36)
        "ttnn.deallocate"(%0#35) <{force = false}> : (tensor<1x1x1x768xbf16, #ttnn_layout39>) -> () loc(#loc36)
        "ttnn.deallocate"(%0#34) <{force = false}> : (tensor<1x1x1088x768xbf16, #ttnn_layout38>) -> () loc(#loc36)
        %101 = "ttnn.to_memory_config"(%100) <{memory_config = #ttnn.memory_config<#dram, <interleaved>>}> : (tensor<1x1x784x768xbf16, #ttnn_layout185>) -> tensor<1x1x784x768xbf16, #ttnn_layout186> loc(#loc560)
        %102 = "ttnn.reshape"(%101) <{shape = [4 : i32, 1 : i32, 196 : i32, 768 : i32]}> : (tensor<1x1x784x768xbf16, #ttnn_layout186>) -> tensor<4x1x196x768xbf16, #ttnn_layout187> loc(#loc550)
        "ttnn.deallocate"(%101) <{force = false}> : (tensor<1x1x784x768xbf16, #ttnn_layout186>) -> () loc(#loc550)
        %103 = "ttnn.to_memory_config"(%102) <{memory_config = #ttnn.memory_config<#l1, <width_sharded>, #ttnn.shard_spec<<[#ttnn.core_range<(0,0), (7,2)>]>, <896x32>, <row_major>>>}> : (tensor<4x1x196x768xbf16, #ttnn_layout187>) -> tensor<4x1x196x768xbf16, #ttnn_layout188> loc(#loc561)
        "ttnn.deallocate"(%102) <{force = false}> : (tensor<4x1x196x768xbf16, #ttnn_layout187>) -> () loc(#loc561)
        %104 = "ttnn.mean"(%103) <{dim_arg = [2 : i32], keep_dim = true}> : (tensor<4x1x196x768xbf16, #ttnn_layout188>) -> tensor<4x1x1x768xbf16, #ttnn_layout189> loc(#loc551)
        "ttnn.deallocate"(%103) <{force = false}> : (tensor<4x1x196x768xbf16, #ttnn_layout188>) -> () loc(#loc551)
        %105 = "ttnn.to_memory_config"(%104) <{memory_config = #ttnn.memory_config<#l1, <width_sharded>, #ttnn.shard_spec<<[#ttnn.core_range<(0,0), (7,2)>]>, <128x32>, <row_major>>>}> : (tensor<4x1x1x768xbf16, #ttnn_layout189>) -> tensor<4x1x1x768xbf16, #ttnn_layout190> loc(#loc562)
        "ttnn.deallocate"(%104) <{force = false}> : (tensor<4x1x1x768xbf16, #ttnn_layout189>) -> () loc(#loc562)
        %106 = "ttnn.to_memory_config"(%105) <{memory_config = #ttnn.memory_config<#l1, <interleaved>>}> : (tensor<4x1x1x768xbf16, #ttnn_layout190>) -> tensor<4x1x1x768xbf16, #ttnn_layout191> loc(#loc552)
        "ttnn.deallocate"(%105) <{force = false}> : (tensor<4x1x1x768xbf16, #ttnn_layout190>) -> () loc(#loc552)
        %107 = "ttnn.reshape"(%106) <{shape = [1 : i32, 1 : i32, 4 : i32, 768 : i32]}> : (tensor<4x1x1x768xbf16, #ttnn_layout191>) -> tensor<1x1x4x768xbf16, #ttnn_layout156> loc(#loc488)
        "ttnn.deallocate"(%106) <{force = false}> : (tensor<4x1x1x768xbf16, #ttnn_layout191>) -> () loc(#loc488)
        %108 = "ttnn.conv2d"(%107, %20, %21, %25) <{batch_size = 4 : i32, conv2d_config = #ttnn.conv2d_config<weights_dtype = bf16, deallocate_activation = true, act_block_h_override = 0, shard_layout = width_sharded, enable_kernel_stride_folding = false, config_tensors_in_dram = true>, conv2d_slice_config = #ttnn.conv2d_slice_config<l1_full, 0>, dilation = array<i32: 1, 1>, dtype = #ttcore.supportedDataTypes<bf16>, groups = 1 : i32, in_channels = 768 : i32, input_height = 1 : i32, input_width = 1 : i32, kernel_size = array<i32: 1, 1>, out_channels = 768 : i32, padding = array<i32: 0, 0, 0, 0>, stride = array<i32: 1, 1>}> : (tensor<1x1x4x768xbf16, #ttnn_layout156>, tensor<1x1x768x768xbf16, #ttnn_layout143>, tensor<1x1x1x768xbf16, #ttnn_layout39>, !ttnn.device) -> tensor<1x1x4x768xbf16, #ttnn_layout192> loc(#loc65)
        "ttnn.deallocate"(%21) <{force = false}> : (tensor<1x1x1x768xbf16, #ttnn_layout39>) -> () loc(#loc65)
        "ttnn.deallocate"(%20) <{force = false}> : (tensor<1x1x768x768xbf16, #ttnn_layout143>) -> () loc(#loc65)
        %109 = "ttnn.typecast"(%108) <{dtype = #ttcore.supportedDataTypes<f32>}> : (tensor<1x1x4x768xbf16, #ttnn_layout192>) -> tensor<1x1x4x768xf32, #ttnn_layout193> loc(#loc224)
        "ttnn.deallocate"(%108) <{force = false}> : (tensor<1x1x4x768xbf16, #ttnn_layout192>) -> () loc(#loc224)
        %110 = "ttnn.hardsigmoid"(%109) : (tensor<1x1x4x768xf32, #ttnn_layout193>) -> tensor<1x1x4x768xf32, #ttnn_layout193> loc(#loc225)
        "ttnn.deallocate"(%109) <{force = false}> : (tensor<1x1x4x768xf32, #ttnn_layout193>) -> () loc(#loc225)
        %111 = "ttnn.typecast"(%110) <{dtype = #ttcore.supportedDataTypes<bf16>}> : (tensor<1x1x4x768xf32, #ttnn_layout193>) -> tensor<1x1x4x768xbf16, #ttnn_layout192> loc(#loc226)
        "ttnn.deallocate"(%110) <{force = false}> : (tensor<1x1x4x768xf32, #ttnn_layout193>) -> () loc(#loc226)
        %112 = "ttnn.to_memory_config"(%111) <{memory_config = #ttnn.memory_config<#l1, <interleaved>>}> : (tensor<1x1x4x768xbf16, #ttnn_layout192>) -> tensor<1x1x4x768xbf16, #ttnn_layout194> loc(#loc489)
        "ttnn.deallocate"(%111) <{force = false}> : (tensor<1x1x4x768xbf16, #ttnn_layout192>) -> () loc(#loc489)
        %113 = "ttnn.reshape"(%112) <{shape = [4 : i32, 1 : i32, 1 : i32, 768 : i32]}> : (tensor<1x1x4x768xbf16, #ttnn_layout194>) -> tensor<4x1x1x768xbf16, #ttnn_layout189> loc(#loc226)
        "ttnn.deallocate"(%112) <{force = false}> : (tensor<1x1x4x768xbf16, #ttnn_layout194>) -> () loc(#loc226)
        %114 = "ttnn.repeat"(%113) <{repeat_dims = #ttnn.shape<1x14x14x1>}> : (tensor<4x1x1x768xbf16, #ttnn_layout189>) -> tensor<4x14x14x768xbf16, #ttnn_layout195> loc(#loc490)
        "ttnn.deallocate"(%113) <{force = false}> : (tensor<4x1x1x768xbf16, #ttnn_layout189>) -> () loc(#loc490)
        %115 = "ttnn.reshape"(%114) <{shape = [1 : i32, 1 : i32, 784 : i32, 768 : i32]}> : (tensor<4x14x14x768xbf16, #ttnn_layout195>) -> tensor<1x1x784x768xbf16, #ttnn_layout185> loc(#loc491)
        "ttnn.deallocate"(%114) <{force = false}> : (tensor<4x14x14x768xbf16, #ttnn_layout195>) -> () loc(#loc491)
        %116 = "ttnn.multiply"(%100, %115) <{dtype = #ttcore.supportedDataTypes<bf16>}> : (tensor<1x1x784x768xbf16, #ttnn_layout185>, tensor<1x1x784x768xbf16, #ttnn_layout185>) -> tensor<1x1x784x768xbf16, #ttnn_layout196> loc(#loc227)
        "ttnn.deallocate"(%115) <{force = false}> : (tensor<1x1x784x768xbf16, #ttnn_layout185>) -> () loc(#loc227)
        "ttnn.deallocate"(%100) <{force = false}> : (tensor<1x1x784x768xbf16, #ttnn_layout185>) -> () loc(#loc227)
        %117 = "ttnn.max_pool2d"(%116) <{batch_size = 4 : si32, ceil_mode = false, channels = 768 : si32, config_tensors_in_dram = true, dilation = array<i32: 1, 1>, input_height = 14 : si32, input_width = 14 : si32, kernel_size = array<i32: 3, 3>, padding = array<i32: 0, 0, 1, 1>, reallocate_halo_output = false, stride = array<i32: 2, 2>}> : (tensor<1x1x784x768xbf16, #ttnn_layout196>) -> tensor<1x1x196x768xbf16, #ttnn_layout197> loc(#loc228)
        "ttnn.deallocate"(%116) <{force = false}> : (tensor<1x1x784x768xbf16, #ttnn_layout196>) -> () loc(#loc228)
        %118 = "ttnn.to_memory_config"(%117) <{memory_config = #ttnn.memory_config<#dram, <interleaved>>}> : (tensor<1x1x196x768xbf16, #ttnn_layout197>) -> tensor<1x1x196x768xbf16, #ttnn_layout198> loc(#loc38)
        %119 = "ttnn.conv2d"(%118, %0#36, %0#37, %25) <{batch_size = 4 : i32, conv2d_config = #ttnn.conv2d_config<weights_dtype = bf16, activation = <op_type = relu>, enable_kernel_stride_folding = false, config_tensors_in_dram = true>, conv2d_slice_config = #ttnn.conv2d_slice_config<l1_full, 0>, dilation = array<i32: 1, 1>, dtype = #ttcore.supportedDataTypes<bf16>, groups = 1 : i32, in_channels = 768 : i32, input_height = 7 : i32, input_width = 7 : i32, kernel_size = array<i32: 1, 1>, out_channels = 224 : i32, padding = array<i32: 0, 0, 0, 0>, stride = array<i32: 1, 1>}> : (tensor<1x1x196x768xbf16, #ttnn_layout198>, tensor<1x1x768x224xbf16, #ttnn_layout40>, tensor<1x1x1x224xbf16, #ttnn_layout41>, !ttnn.device) -> tensor<1x1x196x224xbf16, #ttnn_layout42> loc(#loc38)
        "ttnn.deallocate"(%118) <{force = false}> : (tensor<1x1x196x768xbf16, #ttnn_layout198>) -> () loc(#loc38)
        "ttnn.deallocate"(%0#37) <{force = false}> : (tensor<1x1x1x224xbf16, #ttnn_layout41>) -> () loc(#loc38)
        "ttnn.deallocate"(%0#36) <{force = false}> : (tensor<1x1x768x224xbf16, #ttnn_layout40>) -> () loc(#loc38)
        %120 = "ttnn.to_memory_config"(%119) <{memory_config = #ttnn.memory_config<#l1, <block_sharded>, #ttnn.shard_spec<<[#ttnn.core_range<(0,0), (6,3)>]>, <64x32>, <row_major>>>}> : (tensor<1x1x196x224xbf16, #ttnn_layout42>) -> tensor<1x1x196x224xbf16, #ttnn_layout199> loc(#loc492)
        "ttnn.deallocate"(%119) <{force = false}> : (tensor<1x1x196x224xbf16, #ttnn_layout42>) -> () loc(#loc492)
        %121 = "ttnn.conv2d"(%120, %10, %25) <{batch_size = 4 : i32, conv2d_config = #ttnn.conv2d_config<weights_dtype = bf16, deallocate_activation = true, act_block_h_override = 64, shard_layout = block_sharded, enable_kernel_stride_folding = false, config_tensors_in_dram = true>, conv2d_slice_config = #ttnn.conv2d_slice_config<l1_full, 0>, dilation = array<i32: 1, 1>, dtype = #ttcore.supportedDataTypes<bf16>, groups = 224 : i32, in_channels = 224 : i32, input_height = 7 : i32, input_width = 7 : i32, kernel_size = array<i32: 3, 3>, out_channels = 224 : i32, padding = array<i32: 1, 1, 1, 1>, stride = array<i32: 1, 1>}> : (tensor<1x1x196x224xbf16, #ttnn_layout199>, tensor<1x1x2016x224xbf16, #ttnn_layout126>, !ttnn.device) -> tensor<1x1x196x224xbf16, #ttnn_layout200> loc(#loc56)
        "ttnn.deallocate"(%10) <{force = false}> : (tensor<1x1x2016x224xbf16, #ttnn_layout126>) -> () loc(#loc56)
        %122 = "ttnn.conv2d"(%121, %0#38, %0#39, %25) <{batch_size = 4 : i32, conv2d_config = #ttnn.conv2d_config<weights_dtype = bf16, activation = <op_type = relu>, deallocate_activation = true, act_block_h_override = 0, shard_layout = block_sharded, enable_kernel_stride_folding = false, config_tensors_in_dram = true>, conv2d_slice_config = #ttnn.conv2d_slice_config<l1_full, 0>, dilation = array<i32: 1, 1>, dtype = #ttcore.supportedDataTypes<bf16>, groups = 1 : i32, in_channels = 224 : i32, input_height = 7 : i32, input_width = 7 : i32, kernel_size = array<i32: 1, 1>, out_channels = 224 : i32, padding = array<i32: 0, 0, 0, 0>, stride = array<i32: 1, 1>}> : (tensor<1x1x196x224xbf16, #ttnn_layout200>, tensor<1x1x224x224xbf16, #ttnn_layout42>, tensor<1x1x1x224xbf16, #ttnn_layout41>, !ttnn.device) -> tensor<1x1x196x224xbf16, #ttnn_layout200> loc(#loc40)
        "ttnn.deallocate"(%0#39) <{force = false}> : (tensor<1x1x1x224xbf16, #ttnn_layout41>) -> () loc(#loc40)
        "ttnn.deallocate"(%0#38) <{force = false}> : (tensor<1x1x224x224xbf16, #ttnn_layout42>) -> () loc(#loc40)
        %123 = "ttnn.conv2d"(%122, %3, %25) <{batch_size = 4 : i32, conv2d_config = #ttnn.conv2d_config<weights_dtype = bf16, deallocate_activation = false, act_block_h_override = 0, shard_layout = block_sharded, enable_kernel_stride_folding = false, config_tensors_in_dram = true>, conv2d_slice_config = #ttnn.conv2d_slice_config<l1_full, 0>, dilation = array<i32: 1, 1>, dtype = #ttcore.supportedDataTypes<bf16>, groups = 224 : i32, in_channels = 224 : i32, input_height = 7 : i32, input_width = 7 : i32, kernel_size = array<i32: 3, 3>, out_channels = 224 : i32, padding = array<i32: 1, 1, 1, 1>, stride = array<i32: 1, 1>}> : (tensor<1x1x196x224xbf16, #ttnn_layout200>, tensor<1x1x2016x224xbf16, #ttnn_layout126>, !ttnn.device) -> tensor<1x1x196x224xbf16, #ttnn_layout200> loc(#loc50)
        "ttnn.deallocate"(%3) <{force = false}> : (tensor<1x1x2016x224xbf16, #ttnn_layout126>) -> () loc(#loc50)
        %124 = "ttnn.conv2d"(%123, %0#40, %0#41, %25) <{batch_size = 4 : i32, conv2d_config = #ttnn.conv2d_config<weights_dtype = bf16, activation = <op_type = relu>, deallocate_activation = true, act_block_h_override = 0, shard_layout = block_sharded, enable_kernel_stride_folding = false, config_tensors_in_dram = true>, conv2d_slice_config = #ttnn.conv2d_slice_config<l1_full, 0>, dilation = array<i32: 1, 1>, dtype = #ttcore.supportedDataTypes<bf16>, groups = 1 : i32, in_channels = 224 : i32, input_height = 7 : i32, input_width = 7 : i32, kernel_size = array<i32: 1, 1>, out_channels = 224 : i32, padding = array<i32: 0, 0, 0, 0>, stride = array<i32: 1, 1>}> : (tensor<1x1x196x224xbf16, #ttnn_layout200>, tensor<1x1x224x224xbf16, #ttnn_layout42>, tensor<1x1x1x224xbf16, #ttnn_layout41>, !ttnn.device) -> tensor<1x1x196x224xbf16, #ttnn_layout200> loc(#loc42)
        "ttnn.deallocate"(%0#41) <{force = false}> : (tensor<1x1x1x224xbf16, #ttnn_layout41>) -> () loc(#loc42)
        "ttnn.deallocate"(%0#40) <{force = false}> : (tensor<1x1x224x224xbf16, #ttnn_layout42>) -> () loc(#loc42)
        %125 = "ttnn.conv2d"(%124, %23, %25) <{batch_size = 4 : i32, conv2d_config = #ttnn.conv2d_config<weights_dtype = bf16, deallocate_activation = false, act_block_h_override = 0, shard_layout = block_sharded, enable_kernel_stride_folding = false, config_tensors_in_dram = true>, conv2d_slice_config = #ttnn.conv2d_slice_config<l1_full, 0>, dilation = array<i32: 1, 1>, dtype = #ttcore.supportedDataTypes<bf16>, groups = 224 : i32, in_channels = 224 : i32, input_height = 7 : i32, input_width = 7 : i32, kernel_size = array<i32: 3, 3>, out_channels = 224 : i32, padding = array<i32: 1, 1, 1, 1>, stride = array<i32: 1, 1>}> : (tensor<1x1x196x224xbf16, #ttnn_layout200>, tensor<1x1x2016x224xbf16, #ttnn_layout126>, !ttnn.device) -> tensor<1x1x196x224xbf16, #ttnn_layout200> loc(#loc66)
        "ttnn.deallocate"(%23) <{force = false}> : (tensor<1x1x2016x224xbf16, #ttnn_layout126>) -> () loc(#loc66)
        %126 = "ttnn.conv2d"(%125, %0#42, %0#43, %25) <{batch_size = 4 : i32, conv2d_config = #ttnn.conv2d_config<weights_dtype = bf16, activation = <op_type = relu>, deallocate_activation = true, act_block_h_override = 0, shard_layout = block_sharded, enable_kernel_stride_folding = false, config_tensors_in_dram = true>, conv2d_slice_config = #ttnn.conv2d_slice_config<l1_full, 0>, dilation = array<i32: 1, 1>, dtype = #ttcore.supportedDataTypes<bf16>, groups = 1 : i32, in_channels = 224 : i32, input_height = 7 : i32, input_width = 7 : i32, kernel_size = array<i32: 1, 1>, out_channels = 224 : i32, padding = array<i32: 0, 0, 0, 0>, stride = array<i32: 1, 1>}> : (tensor<1x1x196x224xbf16, #ttnn_layout200>, tensor<1x1x224x224xbf16, #ttnn_layout42>, tensor<1x1x1x224xbf16, #ttnn_layout41>, !ttnn.device) -> tensor<1x1x196x224xbf16, #ttnn_layout200> loc(#loc44)
        "ttnn.deallocate"(%0#43) <{force = false}> : (tensor<1x1x1x224xbf16, #ttnn_layout41>) -> () loc(#loc44)
        "ttnn.deallocate"(%0#42) <{force = false}> : (tensor<1x1x224x224xbf16, #ttnn_layout42>) -> () loc(#loc44)
        %127 = "ttnn.to_memory_config"(%117) <{memory_config = #ttnn.memory_config<#dram, <interleaved>>}> : (tensor<1x1x196x768xbf16, #ttnn_layout197>) -> tensor<1x1x196x768xbf16, #ttnn_layout198> loc(#loc229)
        "ttnn.deallocate"(%117) <{force = false}> : (tensor<1x1x196x768xbf16, #ttnn_layout197>) -> () loc(#loc229)
        %128 = "ttnn.to_memory_config"(%122) <{memory_config = #ttnn.memory_config<#dram, <interleaved>>}> : (tensor<1x1x196x224xbf16, #ttnn_layout200>) -> tensor<1x1x196x224xbf16, #ttnn_layout42> loc(#loc229)
        "ttnn.deallocate"(%122) <{force = false}> : (tensor<1x1x196x224xbf16, #ttnn_layout200>) -> () loc(#loc229)
        %129 = "ttnn.to_memory_config"(%124) <{memory_config = #ttnn.memory_config<#dram, <interleaved>>}> : (tensor<1x1x196x224xbf16, #ttnn_layout200>) -> tensor<1x1x196x224xbf16, #ttnn_layout42> loc(#loc229)
        "ttnn.deallocate"(%124) <{force = false}> : (tensor<1x1x196x224xbf16, #ttnn_layout200>) -> () loc(#loc229)
        %130 = "ttnn.to_memory_config"(%126) <{memory_config = #ttnn.memory_config<#dram, <interleaved>>}> : (tensor<1x1x196x224xbf16, #ttnn_layout200>) -> tensor<1x1x196x224xbf16, #ttnn_layout42> loc(#loc229)
        "ttnn.deallocate"(%126) <{force = false}> : (tensor<1x1x196x224xbf16, #ttnn_layout200>) -> () loc(#loc229)
        %131 = "ttnn.concat"(%127, %128, %129, %130) <{dim = 3 : si32}> : (tensor<1x1x196x768xbf16, #ttnn_layout198>, tensor<1x1x196x224xbf16, #ttnn_layout42>, tensor<1x1x196x224xbf16, #ttnn_layout42>, tensor<1x1x196x224xbf16, #ttnn_layout42>) -> tensor<1x1x196x1440xbf16, #ttnn_layout201> loc(#loc229)
        "ttnn.deallocate"(%130) <{force = false}> : (tensor<1x1x196x224xbf16, #ttnn_layout42>) -> () loc(#loc229)
        "ttnn.deallocate"(%129) <{force = false}> : (tensor<1x1x196x224xbf16, #ttnn_layout42>) -> () loc(#loc229)
        "ttnn.deallocate"(%128) <{force = false}> : (tensor<1x1x196x224xbf16, #ttnn_layout42>) -> () loc(#loc229)
        "ttnn.deallocate"(%127) <{force = false}> : (tensor<1x1x196x768xbf16, #ttnn_layout198>) -> () loc(#loc229)
        %132 = "ttnn.to_layout"(%131) <{layout = #ttnn.layout<tile>}> : (tensor<1x1x196x1440xbf16, #ttnn_layout201>) -> tensor<1x1x196x1440xbf16, #ttnn_layout202> loc(#loc493)
        "ttnn.deallocate"(%131) <{force = false}> : (tensor<1x1x196x1440xbf16, #ttnn_layout201>) -> () loc(#loc493)
        %133 = "ttnn.to_memory_config"(%132) <{memory_config = #ttnn.memory_config<#l1, <block_sharded>, #ttnn.shard_spec<<[#ttnn.core_range<(0,0), (4,6)>]>, <32x288>, <row_major>>>}> : (tensor<1x1x196x1440xbf16, #ttnn_layout202>) -> tensor<1x1x196x1440xbf16, #ttnn_layout203> loc(#loc494)
        "ttnn.deallocate"(%132) <{force = false}> : (tensor<1x1x196x1440xbf16, #ttnn_layout202>) -> () loc(#loc494)
        %134 = "ttnn.conv2d"(%133, %0#44, %0#45, %25) <{batch_size = 4 : i32, conv2d_config = #ttnn.conv2d_config<weights_dtype = bf16, activation = <op_type = relu>, deallocate_activation = true, act_block_h_override = 64, shard_layout = block_sharded, enable_kernel_stride_folding = false, config_tensors_in_dram = true>, conv2d_slice_config = #ttnn.conv2d_slice_config<l1_full, 0>, dilation = array<i32: 1, 1>, dtype = #ttcore.supportedDataTypes<bf16>, groups = 1 : i32, in_channels = 1440 : i32, input_height = 7 : i32, input_width = 7 : i32, kernel_size = array<i32: 1, 1>, out_channels = 1024 : i32, padding = array<i32: 0, 0, 0, 0>, stride = array<i32: 1, 1>}> : (tensor<1x1x196x1440xbf16, #ttnn_layout203>, tensor<1x1x1440x1024xbf16, #ttnn_layout43>, tensor<1x1x1x1024xbf16, #ttnn_layout44>, !ttnn.device) -> tensor<1x1x196x1024xbf16, #ttnn_layout204> loc(#loc46)
        "ttnn.deallocate"(%0#45) <{force = false}> : (tensor<1x1x1x1024xbf16, #ttnn_layout44>) -> () loc(#loc46)
        "ttnn.deallocate"(%0#44) <{force = false}> : (tensor<1x1x1440x1024xbf16, #ttnn_layout43>) -> () loc(#loc46)
        %135 = "ttnn.reshape"(%134) <{shape = [4 : i32, 7 : i32, 7 : i32, 1024 : i32]}> : (tensor<1x1x196x1024xbf16, #ttnn_layout204>) -> tensor<4x7x7x1024xbf16, #ttnn_layout205> loc(#loc230)
        %136 = "ttnn.permute"(%135) <{permutation = array<i64: 0, 3, 1, 2>}> : (tensor<4x7x7x1024xbf16, #ttnn_layout205>) -> tensor<4x1024x7x7xbf16, #ttnn_layout206> loc(#loc230)
        "ttnn.deallocate"(%135) <{force = false}> : (tensor<4x7x7x1024xbf16, #ttnn_layout205>) -> () loc(#loc230)
        %137 = "ttnn.to_memory_config"(%134) <{memory_config = #ttnn.memory_config<#l1, <block_sharded>, #ttnn.shard_spec<<[#ttnn.core_range<(0,0), (6,6)>]>, <32x160>, <row_major>>>}> : (tensor<1x1x196x1024xbf16, #ttnn_layout204>) -> tensor<1x1x196x1024xbf16, #ttnn_layout207> loc(#loc563)
        "ttnn.deallocate"(%134) <{force = false}> : (tensor<1x1x196x1024xbf16, #ttnn_layout204>) -> () loc(#loc563)
        %138 = "ttnn.reshape"(%137) <{shape = [4 : i32, 1 : i32, 49 : i32, 1024 : i32]}> : (tensor<1x1x196x1024xbf16, #ttnn_layout207>) -> tensor<4x1x49x1024xbf16, #ttnn_layout208> loc(#loc553)
        "ttnn.deallocate"(%137) <{force = false}> : (tensor<1x1x196x1024xbf16, #ttnn_layout207>) -> () loc(#loc553)
        %139 = "ttnn.to_memory_config"(%138) <{memory_config = #ttnn.memory_config<#l1, <width_sharded>, #ttnn.shard_spec<<[#ttnn.core_range<(0,0), (7,3)>]>, <256x32>, <row_major>>>}> : (tensor<4x1x49x1024xbf16, #ttnn_layout208>) -> tensor<4x1x49x1024xbf16, #ttnn_layout209> loc(#loc564)
        "ttnn.deallocate"(%138) <{force = false}> : (tensor<4x1x49x1024xbf16, #ttnn_layout208>) -> () loc(#loc564)
        %140 = "ttnn.mean"(%139) <{dim_arg = [2 : i32], keep_dim = true}> : (tensor<4x1x49x1024xbf16, #ttnn_layout209>) -> tensor<4x1x1x1024xbf16, #ttnn_layout189> loc(#loc554)
        "ttnn.deallocate"(%139) <{force = false}> : (tensor<4x1x49x1024xbf16, #ttnn_layout209>) -> () loc(#loc554)
        %141 = "ttnn.to_memory_config"(%140) <{memory_config = #ttnn.memory_config<#l1, <width_sharded>, #ttnn.shard_spec<<[#ttnn.core_range<(0,0), (7,3)>]>, <128x32>, <row_major>>>}> : (tensor<4x1x1x1024xbf16, #ttnn_layout189>) -> tensor<4x1x1x1024xbf16, #ttnn_layout210> loc(#loc565)
        "ttnn.deallocate"(%140) <{force = false}> : (tensor<4x1x1x1024xbf16, #ttnn_layout189>) -> () loc(#loc565)
        %142 = "ttnn.to_memory_config"(%141) <{memory_config = #ttnn.memory_config<#l1, <interleaved>>}> : (tensor<4x1x1x1024xbf16, #ttnn_layout210>) -> tensor<4x1x1x1024xbf16, #ttnn_layout211> loc(#loc555)
        "ttnn.deallocate"(%141) <{force = false}> : (tensor<4x1x1x1024xbf16, #ttnn_layout210>) -> () loc(#loc555)
        %143 = "ttnn.reshape"(%142) <{shape = [1 : i32, 1 : i32, 4 : i32, 1024 : i32]}> : (tensor<4x1x1x1024xbf16, #ttnn_layout211>) -> tensor<1x1x4x1024xbf16, #ttnn_layout156> loc(#loc496)
        "ttnn.deallocate"(%142) <{force = false}> : (tensor<4x1x1x1024xbf16, #ttnn_layout211>) -> () loc(#loc496)
        %144 = "ttnn.conv2d"(%143, %6, %15, %25) <{batch_size = 4 : i32, conv2d_config = #ttnn.conv2d_config<weights_dtype = bf16, deallocate_activation = true, act_block_h_override = 0, shard_layout = width_sharded, enable_kernel_stride_folding = false, config_tensors_in_dram = true>, conv2d_slice_config = #ttnn.conv2d_slice_config<l1_full, 0>, dilation = array<i32: 1, 1>, dtype = #ttcore.supportedDataTypes<bf16>, groups = 1 : i32, in_channels = 1024 : i32, input_height = 1 : i32, input_width = 1 : i32, kernel_size = array<i32: 1, 1>, out_channels = 1024 : i32, padding = array<i32: 0, 0, 0, 0>, stride = array<i32: 1, 1>}> : (tensor<1x1x4x1024xbf16, #ttnn_layout156>, tensor<1x1x1024x1024xbf16, #ttnn_layout132>, tensor<1x1x1x1024xbf16, #ttnn_layout44>, !ttnn.device) -> tensor<1x1x4x1024xbf16, #ttnn_layout212> loc(#loc53)
        "ttnn.deallocate"(%15) <{force = false}> : (tensor<1x1x1x1024xbf16, #ttnn_layout44>) -> () loc(#loc53)
        "ttnn.deallocate"(%6) <{force = false}> : (tensor<1x1x1024x1024xbf16, #ttnn_layout132>) -> () loc(#loc53)
        %145 = "ttnn.typecast"(%144) <{dtype = #ttcore.supportedDataTypes<f32>}> : (tensor<1x1x4x1024xbf16, #ttnn_layout212>) -> tensor<1x1x4x1024xf32, #ttnn_layout213> loc(#loc232)
        "ttnn.deallocate"(%144) <{force = false}> : (tensor<1x1x4x1024xbf16, #ttnn_layout212>) -> () loc(#loc232)
        %146 = "ttnn.hardsigmoid"(%145) : (tensor<1x1x4x1024xf32, #ttnn_layout213>) -> tensor<1x1x4x1024xf32, #ttnn_layout213> loc(#loc233)
        "ttnn.deallocate"(%145) <{force = false}> : (tensor<1x1x4x1024xf32, #ttnn_layout213>) -> () loc(#loc233)
        %147 = "ttnn.typecast"(%146) <{dtype = #ttcore.supportedDataTypes<bf16>}> : (tensor<1x1x4x1024xf32, #ttnn_layout213>) -> tensor<1x1x4x1024xbf16, #ttnn_layout212> loc(#loc234)
        "ttnn.deallocate"(%146) <{force = false}> : (tensor<1x1x4x1024xf32, #ttnn_layout213>) -> () loc(#loc234)
        %148 = "ttnn.to_memory_config"(%147) <{memory_config = #ttnn.memory_config<#l1, <interleaved>>}> : (tensor<1x1x4x1024xbf16, #ttnn_layout212>) -> tensor<1x1x4x1024xbf16, #ttnn_layout214> loc(#loc497)
        "ttnn.deallocate"(%147) <{force = false}> : (tensor<1x1x4x1024xbf16, #ttnn_layout212>) -> () loc(#loc497)
        %149 = "ttnn.reshape"(%148) <{shape = [4 : i32, 1024 : i32, 1 : i32, 1 : i32]}> : (tensor<1x1x4x1024xbf16, #ttnn_layout214>) -> tensor<4x1024x1x1xbf16, #ttnn_layout206> loc(#loc234)
        "ttnn.deallocate"(%148) <{force = false}> : (tensor<1x1x4x1024xbf16, #ttnn_layout214>) -> () loc(#loc234)
        %150 = "ttnn.multiply"(%136, %149) <{dtype = #ttcore.supportedDataTypes<bf16>}> : (tensor<4x1024x7x7xbf16, #ttnn_layout206>, tensor<4x1024x1x1xbf16, #ttnn_layout206>) -> tensor<4x1024x7x7xbf16, #ttnn_layout215> loc(#loc235)
        "ttnn.deallocate"(%149) <{force = false}> : (tensor<4x1024x1x1xbf16, #ttnn_layout206>) -> () loc(#loc235)
        "ttnn.deallocate"(%136) <{force = false}> : (tensor<4x1024x7x7xbf16, #ttnn_layout206>) -> () loc(#loc235)
        %151 = "ttnn.typecast"(%150) <{dtype = #ttcore.supportedDataTypes<f32>}> : (tensor<4x1024x7x7xbf16, #ttnn_layout215>) -> tensor<4x1024x7x7xf32, #ttnn_layout216> loc(#loc236)
        "ttnn.deallocate"(%150) <{force = false}> : (tensor<4x1024x7x7xbf16, #ttnn_layout215>) -> () loc(#loc236)
        %152 = "ttnn.to_memory_config"(%151) <{memory_config = #ttnn.memory_config<#l1, <interleaved>>}> : (tensor<4x1024x7x7xf32, #ttnn_layout216>) -> tensor<4x1024x7x7xf32, #ttnn_layout217> loc(#loc556)
        "ttnn.deallocate"(%151) <{force = false}> : (tensor<4x1024x7x7xf32, #ttnn_layout216>) -> () loc(#loc556)
        %153 = "ttnn.mean"(%152) <{dim_arg = [2 : i32, 3 : i32], keep_dim = true}> : (tensor<4x1024x7x7xf32, #ttnn_layout217>) -> tensor<4x1024x1x1xf32, #ttnn_layout218> loc(#loc498)
        "ttnn.deallocate"(%152) <{force = false}> : (tensor<4x1024x7x7xf32, #ttnn_layout217>) -> () loc(#loc498)
        %154 = "ttnn.reshape"(%153) <{shape = [4 : i32, 1024 : i32]}> : (tensor<4x1024x1x1xf32, #ttnn_layout218>) -> tensor<4x1024xf32, #ttnn_layout219> loc(#loc238)
        "ttnn.deallocate"(%153) <{force = false}> : (tensor<4x1024x1x1xf32, #ttnn_layout218>) -> () loc(#loc238)
        %155 = "ttnn.linear"(%154, %1, %17) <{matmul_program_config = #ttnn.matmul_multi_core_reuse_multi_cast_1d_program_config<compute_with_storage_grid_size = #ttnn.core_coord<8, 4>, in0_block_w = 8, out_subblock_h = 1, out_subblock_w = 1, out_block_h = 1, out_block_w = 1, per_core_m = 1, per_core_n = 1, fuse_batch = true, mcast_in0 = true, gather_in0 = false, hop_cores = #ttnn.core_range_set<>, num_global_cb_receivers = 0, untilize_out = false>, transpose_a = false, transpose_b = false}> : (tensor<4x1024xf32, #ttnn_layout219>, tensor<1024x1000xf32, #ttnn_layout120>, tensor<1000xf32, #ttnn_layout140>) -> tensor<4x1000xf32, #ttnn_layout220> loc(#loc239)
        "ttnn.deallocate"(%154) <{force = false}> : (tensor<4x1024xf32, #ttnn_layout219>) -> () loc(#loc239)
        "ttnn.deallocate"(%17) <{force = false}> : (tensor<1000xf32, #ttnn_layout140>) -> () loc(#loc239)
        "ttnn.deallocate"(%1) <{force = false}> : (tensor<1024x1000xf32, #ttnn_layout120>) -> () loc(#loc239)
        %156 = "ttnn.typecast"(%155) <{dtype = #ttcore.supportedDataTypes<bf16>}> : (tensor<4x1000xf32, #ttnn_layout220>) -> tensor<4x1000xbf16, #ttnn_layout221> loc(#loc240)
        "ttnn.deallocate"(%155) <{force = false}> : (tensor<4x1000xf32, #ttnn_layout220>) -> () loc(#loc240)
        %157 = "ttnn.mesh_shard"(%156, %25) <{shard_dims = array<i64: -1, 0>, shard_direction = #ttcore.shard_direction<shard_to_full>, shard_shape = array<i64: 2, 1>, shard_type = #ttcore.shard_type<identity>}> : (tensor<4x1000xbf16, #ttnn_layout221>, !ttnn.device) -> tensor<8x1000xbf16, #ttnn_layout145> loc(#loc)
        return %157 : tensor<8x1000xbf16, #ttnn_layout145> loc(#loc)
      } loc(#loc)
    } loc(#loc)
  } loc(#loc)
} loc(#loc)
#loc1 = loc("batch-norm-inference.514")
#loc2 = loc("convolution.513")
#loc3 = loc("batch-norm-inference.524")
#loc4 = loc("convolution.523")
#loc5 = loc("batch-norm-inference.534")
#loc6 = loc("convolution.533")
#loc7 = loc("batch-norm-inference.543")
#loc8 = loc("convolution.542")
#loc9 = loc("batch-norm-inference.553")
#loc10 = loc("convolution.552")
#loc11 = loc("batch-norm-inference.563")
#loc12 = loc("convolution.562")
#loc13 = loc("batch-norm-inference.573")
#loc14 = loc("convolution.572")
#loc15 = loc("batch-norm-inference.583")
#loc16 = loc("convolution.582")
#loc17 = loc("batch-norm-inference.801")
#loc18 = loc("convolution.800")
#loc19 = loc("batch-norm-inference.811")
#loc20 = loc("convolution.810")
#loc21 = loc("batch-norm-inference.821")
#loc22 = loc("convolution.820")
#loc23 = loc("batch-norm-inference.831")
#loc24 = loc("convolution.830")
#loc25 = loc("batch-norm-inference.841")
#loc26 = loc("convolution.840")
#loc27 = loc("batch-norm-inference.1059")
#loc28 = loc("convolution.1058")
#loc29 = loc("batch-norm-inference.1069")
#loc30 = loc("convolution.1068")
#loc31 = loc("batch-norm-inference.1079")
#loc32 = loc("convolution.1078")
#loc33 = loc("batch-norm-inference.1089")
#loc34 = loc("convolution.1088")
#loc35 = loc("batch-norm-inference.1099")
#loc36 = loc("convolution.1098")
#loc37 = loc("batch-norm-inference.1317")
#loc38 = loc("convolution.1316")
#loc39 = loc("batch-norm-inference.1327")
#loc40 = loc("convolution.1326")
#loc41 = loc("batch-norm-inference.1337")
#loc42 = loc("convolution.1336")
#loc43 = loc("batch-norm-inference.1347")
#loc44 = loc("convolution.1346")
#loc45 = loc("batch-norm-inference.1357")
#loc46 = loc("convolution.1356")
#loc47 = loc("transpose.15")
#loc48 = loc("convert.16")
#loc49 = loc("convolution.532")
#loc50 = loc("convolution.1335")
#loc51 = loc("convolution.608")
#loc52 = loc("convolution.561")
#loc53 = loc("convolution.1382")
#loc54 = loc("convolution.866")
#loc55 = loc("convolution.809")
#loc56 = loc("convolution.1325")
#loc57 = loc("convolution.571")
#loc58 = loc("convolution.1087")
#loc59 = loc("convolution.522")
#loc60 = loc("convolution.551")
#loc61 = loc("convolution.819")
#loc62 = loc("convert.7")
#loc63 = loc("convolution.1067")
#loc64 = loc("convolution.1077")
#loc65 = loc("convolution.1124")
#loc66 = loc("convolution.1345")
#loc67 = loc("convolution.829")
#loc208 = loc("concatenate.581")
#loc209 = loc("reduce.597")
#loc210 = loc("convert.612")
#loc211 = loc("divide.623")
#loc212 = loc("convert.624")
#loc213 = loc("multiply.627")
#loc214 = loc("reduce-window.639")
#loc215 = loc("concatenate.839")
#loc216 = loc("reduce.855")
#loc217 = loc("convert.870")
#loc218 = loc("divide.881")
#loc219 = loc("convert.882")
#loc220 = loc("multiply.885")
#loc221 = loc("reduce-window.897")
#loc222 = loc("concatenate.1097")
#loc223 = loc("reduce.1113")
#loc224 = loc("convert.1128")
#loc225 = loc("divide.1139")
#loc226 = loc("convert.1140")
#loc227 = loc("multiply.1143")
#loc228 = loc("reduce-window.1155")
#loc229 = loc("concatenate.1355")
#loc230 = loc("maximum.1364")
#loc231 = loc("reduce.1371")
#loc232 = loc("convert.1386")
#loc233 = loc("divide.1397")
#loc234 = loc("convert.1398")
#loc235 = loc("multiply.1401")
#loc236 = loc("convert.1402")
#loc237 = loc("reduce.1409")
#loc238 = loc("convert.1423")
#loc239 = loc("add.1430")
#loc240 = loc("convert.1431")
#loc241 = loc("batch-norm-inference.514_reshape"(#loc1))
#loc242 = loc("convolution.513_multiply_in_0_layout"(#loc2))
#loc243 = loc("convolution.513_multiply"(#loc2))
#loc244 = loc("convolution.513_weight"(#loc2))
#loc245 = loc("convolution.513_prepare_conv2d_weight"(#loc2))
#loc246 = loc("convolution.513_tm1"(#loc2))
#loc247 = loc("convolution.513_tm0"(#loc2))
#loc248 = loc("convolution.513_bias"(#loc2))
#loc249 = loc("convolution.513_prepare_conv2d_bias"(#loc2))
#loc250 = loc("batch-norm-inference.524_reshape"(#loc3))
#loc251 = loc("convolution.523_multiply_in_0_layout"(#loc4))
#loc252 = loc("convolution.523_multiply"(#loc4))
#loc253 = loc("convolution.523_weight"(#loc4))
#loc254 = loc("convolution.523_prepare_conv2d_weight"(#loc4))
#loc255 = loc("convolution.523_tm1"(#loc4))
#loc256 = loc("convolution.523_tm0"(#loc4))
#loc257 = loc("convolution.523_bias"(#loc4))
#loc258 = loc("convolution.523_prepare_conv2d_bias"(#loc4))
#loc259 = loc("batch-norm-inference.534_reshape"(#loc5))
#loc260 = loc("convolution.533_multiply_in_0_layout"(#loc6))
#loc261 = loc("convolution.533_multiply"(#loc6))
#loc262 = loc("convolution.533_weight"(#loc6))
#loc263 = loc("convolution.533_prepare_conv2d_weight"(#loc6))
#loc264 = loc("convolution.533_tm1"(#loc6))
#loc265 = loc("convolution.533_tm0"(#loc6))
#loc266 = loc("convolution.533_bias"(#loc6))
#loc267 = loc("convolution.533_prepare_conv2d_bias"(#loc6))
#loc268 = loc("batch-norm-inference.543_reshape"(#loc7))
#loc269 = loc("convolution.542_multiply_in_0_layout"(#loc8))
#loc270 = loc("convolution.542_multiply"(#loc8))
#loc271 = loc("convolution.542_weight"(#loc8))
#loc272 = loc("convolution.542_prepare_conv2d_weight"(#loc8))
#loc273 = loc("convolution.542_tm1"(#loc8))
#loc274 = loc("convolution.542_tm0"(#loc8))
#loc275 = loc("convolution.542_bias"(#loc8))
#loc276 = loc("convolution.542_prepare_conv2d_bias"(#loc8))
#loc277 = loc("batch-norm-inference.553_reshape"(#loc9))
#loc278 = loc("convolution.552_multiply_in_0_layout"(#loc10))
#loc279 = loc("convolution.552_multiply"(#loc10))
#loc280 = loc("convolution.552_weight"(#loc10))
#loc281 = loc("convolution.552_prepare_conv2d_weight"(#loc10))
#loc282 = loc("convolution.552_tm1"(#loc10))
#loc283 = loc("convolution.552_tm0"(#loc10))
#loc284 = loc("convolution.552_bias"(#loc10))
#loc285 = loc("convolution.552_prepare_conv2d_bias"(#loc10))
#loc286 = loc("batch-norm-inference.563_reshape"(#loc11))
#loc287 = loc("convolution.562_multiply_in_0_layout"(#loc12))
#loc288 = loc("convolution.562_multiply"(#loc12))
#loc289 = loc("convolution.562_weight"(#loc12))
#loc290 = loc("convolution.562_prepare_conv2d_weight"(#loc12))
#loc291 = loc("convolution.562_tm1"(#loc12))
#loc292 = loc("convolution.562_tm0"(#loc12))
#loc293 = loc("convolution.562_bias"(#loc12))
#loc294 = loc("convolution.562_prepare_conv2d_bias"(#loc12))
#loc295 = loc("batch-norm-inference.573_reshape"(#loc13))
#loc296 = loc("convolution.572_multiply_in_0_layout"(#loc14))
#loc297 = loc("convolution.572_multiply"(#loc14))
#loc298 = loc("convolution.572_weight"(#loc14))
#loc299 = loc("convolution.572_prepare_conv2d_weight"(#loc14))
#loc300 = loc("convolution.572_tm1"(#loc14))
#loc301 = loc("convolution.572_tm0"(#loc14))
#loc302 = loc("convolution.572_bias"(#loc14))
#loc303 = loc("convolution.572_prepare_conv2d_bias"(#loc14))
#loc304 = loc("batch-norm-inference.583_reshape"(#loc15))
#loc305 = loc("convolution.582_multiply_in_0_layout"(#loc16))
#loc306 = loc("convolution.582_multiply"(#loc16))
#loc307 = loc("convolution.582_weight"(#loc16))
#loc308 = loc("convolution.582_prepare_conv2d_weight"(#loc16))
#loc309 = loc("convolution.582_tm1"(#loc16))
#loc310 = loc("convolution.582_tm0"(#loc16))
#loc311 = loc("convolution.582_bias"(#loc16))
#loc312 = loc("convolution.582_prepare_conv2d_bias"(#loc16))
#loc313 = loc("batch-norm-inference.801_reshape"(#loc17))
#loc314 = loc("convolution.800_multiply_in_0_layout"(#loc18))
#loc315 = loc("convolution.800_multiply"(#loc18))
#loc316 = loc("convolution.800_weight"(#loc18))
#loc317 = loc("convolution.800_prepare_conv2d_weight"(#loc18))
#loc318 = loc("convolution.800_tm1"(#loc18))
#loc319 = loc("convolution.800_tm0"(#loc18))
#loc320 = loc("convolution.800_bias"(#loc18))
#loc321 = loc("convolution.800_prepare_conv2d_bias"(#loc18))
#loc322 = loc("batch-norm-inference.811_reshape"(#loc19))
#loc323 = loc("convolution.810_multiply_in_0_layout"(#loc20))
#loc324 = loc("convolution.810_multiply"(#loc20))
#loc325 = loc("convolution.810_weight"(#loc20))
#loc326 = loc("convolution.810_prepare_conv2d_weight"(#loc20))
#loc327 = loc("convolution.810_tm1"(#loc20))
#loc328 = loc("convolution.810_tm0"(#loc20))
#loc329 = loc("convolution.810_bias"(#loc20))
#loc330 = loc("convolution.810_prepare_conv2d_bias"(#loc20))
#loc331 = loc("batch-norm-inference.821_reshape"(#loc21))
#loc332 = loc("convolution.820_multiply_in_0_layout"(#loc22))
#loc333 = loc("convolution.820_multiply"(#loc22))
#loc334 = loc("convolution.820_weight"(#loc22))
#loc335 = loc("convolution.820_prepare_conv2d_weight"(#loc22))
#loc336 = loc("convolution.820_tm1"(#loc22))
#loc337 = loc("convolution.820_tm0"(#loc22))
#loc338 = loc("convolution.820_bias"(#loc22))
#loc339 = loc("convolution.820_prepare_conv2d_bias"(#loc22))
#loc340 = loc("batch-norm-inference.831_reshape"(#loc23))
#loc341 = loc("convolution.830_multiply_in_0_layout"(#loc24))
#loc342 = loc("convolution.830_multiply"(#loc24))
#loc343 = loc("convolution.830_weight"(#loc24))
#loc344 = loc("convolution.830_prepare_conv2d_weight"(#loc24))
#loc345 = loc("convolution.830_tm1"(#loc24))
#loc346 = loc("convolution.830_tm0"(#loc24))
#loc347 = loc("convolution.830_bias"(#loc24))
#loc348 = loc("convolution.830_prepare_conv2d_bias"(#loc24))
#loc349 = loc("batch-norm-inference.841_reshape"(#loc25))
#loc350 = loc("convolution.840_multiply_in_0_layout"(#loc26))
#loc351 = loc("convolution.840_multiply"(#loc26))
#loc352 = loc("convolution.840_weight"(#loc26))
#loc353 = loc("convolution.840_prepare_conv2d_weight"(#loc26))
#loc354 = loc("convolution.840_tm1"(#loc26))
#loc355 = loc("convolution.840_tm0"(#loc26))
#loc356 = loc("convolution.840_bias"(#loc26))
#loc357 = loc("convolution.840_prepare_conv2d_bias"(#loc26))
#loc358 = loc("batch-norm-inference.1059_reshape"(#loc27))
#loc359 = loc("convolution.1058_multiply_in_0_layout"(#loc28))
#loc360 = loc("convolution.1058_multiply"(#loc28))
#loc361 = loc("convolution.1058_weight"(#loc28))
#loc362 = loc("convolution.1058_prepare_conv2d_weight"(#loc28))
#loc363 = loc("convolution.1058_tm1"(#loc28))
#loc364 = loc("convolution.1058_tm0"(#loc28))
#loc365 = loc("convolution.1058_bias"(#loc28))
#loc366 = loc("convolution.1058_prepare_conv2d_bias"(#loc28))
#loc367 = loc("batch-norm-inference.1069_reshape"(#loc29))
#loc368 = loc("convolution.1068_multiply_in_0_layout"(#loc30))
#loc369 = loc("convolution.1068_multiply"(#loc30))
#loc370 = loc("convolution.1068_weight"(#loc30))
#loc371 = loc("convolution.1068_prepare_conv2d_weight"(#loc30))
#loc372 = loc("convolution.1068_tm1"(#loc30))
#loc373 = loc("convolution.1068_tm0"(#loc30))
#loc374 = loc("convolution.1068_bias"(#loc30))
#loc375 = loc("convolution.1068_prepare_conv2d_bias"(#loc30))
#loc376 = loc("batch-norm-inference.1079_reshape"(#loc31))
#loc377 = loc("convolution.1078_multiply_in_0_layout"(#loc32))
#loc378 = loc("convolution.1078_multiply"(#loc32))
#loc379 = loc("convolution.1078_weight"(#loc32))
#loc380 = loc("convolution.1078_prepare_conv2d_weight"(#loc32))
#loc381 = loc("convolution.1078_tm1"(#loc32))
#loc382 = loc("convolution.1078_tm0"(#loc32))
#loc383 = loc("convolution.1078_bias"(#loc32))
#loc384 = loc("convolution.1078_prepare_conv2d_bias"(#loc32))
#loc385 = loc("batch-norm-inference.1089_reshape"(#loc33))
#loc386 = loc("convolution.1088_multiply_in_0_layout"(#loc34))
#loc387 = loc("convolution.1088_multiply"(#loc34))
#loc388 = loc("convolution.1088_weight"(#loc34))
#loc389 = loc("convolution.1088_prepare_conv2d_weight"(#loc34))
#loc390 = loc("convolution.1088_tm1"(#loc34))
#loc391 = loc("convolution.1088_tm0"(#loc34))
#loc392 = loc("convolution.1088_bias"(#loc34))
#loc393 = loc("convolution.1088_prepare_conv2d_bias"(#loc34))
#loc394 = loc("batch-norm-inference.1099_reshape"(#loc35))
#loc395 = loc("convolution.1098_multiply_in_0_layout"(#loc36))
#loc396 = loc("convolution.1098_multiply"(#loc36))
#loc397 = loc("convolution.1098_weight"(#loc36))
#loc398 = loc("convolution.1098_prepare_conv2d_weight"(#loc36))
#loc399 = loc("convolution.1098_tm1"(#loc36))
#loc400 = loc("convolution.1098_tm0"(#loc36))
#loc401 = loc("convolution.1098_bias"(#loc36))
#loc402 = loc("convolution.1098_prepare_conv2d_bias"(#loc36))
#loc403 = loc("batch-norm-inference.1317_reshape"(#loc37))
#loc404 = loc("convolution.1316_multiply_in_0_layout"(#loc38))
#loc405 = loc("convolution.1316_multiply"(#loc38))
#loc406 = loc("convolution.1316_weight"(#loc38))
#loc407 = loc("convolution.1316_prepare_conv2d_weight"(#loc38))
#loc408 = loc("convolution.1316_tm1"(#loc38))
#loc409 = loc("convolution.1316_tm0"(#loc38))
#loc410 = loc("convolution.1316_bias"(#loc38))
#loc411 = loc("convolution.1316_prepare_conv2d_bias"(#loc38))
#loc412 = loc("batch-norm-inference.1327_reshape"(#loc39))
#loc413 = loc("convolution.1326_multiply_in_0_layout"(#loc40))
#loc414 = loc("convolution.1326_multiply"(#loc40))
#loc415 = loc("convolution.1326_weight"(#loc40))
#loc416 = loc("convolution.1326_prepare_conv2d_weight"(#loc40))
#loc417 = loc("convolution.1326_tm1"(#loc40))
#loc418 = loc("convolution.1326_tm0"(#loc40))
#loc419 = loc("convolution.1326_bias"(#loc40))
#loc420 = loc("convolution.1326_prepare_conv2d_bias"(#loc40))
#loc421 = loc("batch-norm-inference.1337_reshape"(#loc41))
#loc422 = loc("convolution.1336_multiply_in_0_layout"(#loc42))
#loc423 = loc("convolution.1336_multiply"(#loc42))
#loc424 = loc("convolution.1336_weight"(#loc42))
#loc425 = loc("convolution.1336_prepare_conv2d_weight"(#loc42))
#loc426 = loc("convolution.1336_tm1"(#loc42))
#loc427 = loc("convolution.1336_tm0"(#loc42))
#loc428 = loc("convolution.1336_bias"(#loc42))
#loc429 = loc("convolution.1336_prepare_conv2d_bias"(#loc42))
#loc430 = loc("batch-norm-inference.1347_reshape"(#loc43))
#loc431 = loc("convolution.1346_multiply_in_0_layout"(#loc44))
#loc432 = loc("convolution.1346_multiply"(#loc44))
#loc433 = loc("convolution.1346_weight"(#loc44))
#loc434 = loc("convolution.1346_prepare_conv2d_weight"(#loc44))
#loc435 = loc("convolution.1346_tm1"(#loc44))
#loc436 = loc("convolution.1346_tm0"(#loc44))
#loc437 = loc("convolution.1346_bias"(#loc44))
#loc438 = loc("convolution.1346_prepare_conv2d_bias"(#loc44))
#loc439 = loc("batch-norm-inference.1357_reshape"(#loc45))
#loc440 = loc("convolution.1356_multiply_in_0_layout"(#loc46))
#loc441 = loc("convolution.1356_multiply"(#loc46))
#loc442 = loc("convolution.1356_weight"(#loc46))
#loc443 = loc("convolution.1356_prepare_conv2d_weight"(#loc46))
#loc444 = loc("convolution.1356_tm1"(#loc46))
#loc445 = loc("convolution.1356_tm0"(#loc46))
#loc446 = loc("convolution.1356_bias"(#loc46))
#loc447 = loc("convolution.1356_prepare_conv2d_bias"(#loc46))
#loc448 = loc("convolution.532_prepare_conv2d_weight"(#loc49))
#loc449 = loc("convolution.1335_prepare_conv2d_weight"(#loc50))
#loc450 = loc("convolution.608_prepare_conv2d_weight"(#loc51))
#loc451 = loc("convolution.561_prepare_conv2d_weight"(#loc52))
#loc452 = loc("convolution.1382_prepare_conv2d_weight"(#loc53))
#loc453 = loc("convolution.866_prepare_conv2d_weight"(#loc54))
#loc454 = loc("convolution.866_bias"(#loc54))
#loc455 = loc("convolution.866_prepare_conv2d_bias"(#loc54))
#loc456 = loc("convolution.809_prepare_conv2d_weight"(#loc55))
#loc457 = loc("convolution.1325_prepare_conv2d_weight"(#loc56))
#loc458 = loc("convolution.571_prepare_conv2d_weight"(#loc57))
#loc459 = loc("convolution.1087_prepare_conv2d_weight"(#loc58))
#loc460 = loc("convolution.522_prepare_conv2d_weight"(#loc59))
#loc461 = loc("convolution.551_prepare_conv2d_weight"(#loc60))
#loc462 = loc("convolution.1382_bias"(#loc53))
#loc463 = loc("convolution.1382_prepare_conv2d_bias"(#loc53))
#loc464 = loc("convolution.819_prepare_conv2d_weight"(#loc61))
#loc465 = loc("convolution.1067_prepare_conv2d_weight"(#loc63))
#loc466 = loc("convolution.1077_prepare_conv2d_weight"(#loc64))
#loc467 = loc("convolution.1124_prepare_conv2d_weight"(#loc65))
#loc468 = loc("convolution.1124_bias"(#loc65))
#loc469 = loc("convolution.1124_prepare_conv2d_bias"(#loc65))
#loc470 = loc("convolution.608_bias"(#loc51))
#loc471 = loc("convolution.608_prepare_conv2d_bias"(#loc51))
#loc472 = loc("convolution.1345_prepare_conv2d_weight"(#loc66))
#loc473 = loc("convolution.829_prepare_conv2d_weight"(#loc67))
#loc474 = loc("convolution.513_reshape"(#loc2))
#loc475 = loc("reduce.597_mean"(#loc209))
#loc476 = loc("convolution.608_reshape"(#loc51))
#loc477 = loc("multiply.627_broadcast"(#loc213))
#loc478 = loc("multiply.627_tm1"(#loc213))
#loc479 = loc("concatenate.839_revert_layout"(#loc215))
#loc480 = loc("convolution.840_mem_reconfig"(#loc26))
#loc481 = loc("reduce.855_mean"(#loc216))
#loc482 = loc("convolution.866_reshape"(#loc54))
#loc483 = loc("convert.882_mem_reconfig"(#loc219))
#loc484 = loc("multiply.885_broadcast"(#loc220))
#loc485 = loc("multiply.885_tm1"(#loc220))
#loc486 = loc("concatenate.1097_revert_layout"(#loc222))
#loc487 = loc("reduce.1113_mean"(#loc223))
#loc488 = loc("convolution.1124_reshape"(#loc65))
#loc489 = loc("convert.1140_mem_reconfig"(#loc226))
#loc490 = loc("multiply.1143_broadcast"(#loc227))
#loc491 = loc("multiply.1143_tm1"(#loc227))
#loc492 = loc("convolution.1325_mem_reconfig"(#loc56))
#loc493 = loc("concatenate.1355_revert_layout"(#loc229))
#loc494 = loc("convolution.1356_mem_reconfig"(#loc46))
#loc495 = loc("reduce.1371_mean"(#loc231))
#loc496 = loc("convolution.1382_reshape"(#loc53))
#loc497 = loc("convert.1398_mem_reconfig"(#loc234))
#loc498 = loc("reduce.1409_mean"(#loc237))
#loc499 = loc("convolution.513_tm1_tm0"(#loc246))
#loc500 = loc("convolution.513_tm1_tm1"(#loc246))
#loc501 = loc("convolution.523_tm1_tm0"(#loc255))
#loc502 = loc("convolution.523_tm1_tm1"(#loc255))
#loc503 = loc("convolution.533_tm1_tm0"(#loc264))
#loc504 = loc("convolution.533_tm1_tm1"(#loc264))
#loc505 = loc("convolution.542_tm1_tm0"(#loc273))
#loc506 = loc("convolution.542_tm1_tm1"(#loc273))
#loc507 = loc("convolution.552_tm1_tm0"(#loc282))
#loc508 = loc("convolution.552_tm1_tm1"(#loc282))
#loc509 = loc("convolution.562_tm1_tm0"(#loc291))
#loc510 = loc("convolution.562_tm1_tm1"(#loc291))
#loc511 = loc("convolution.572_tm1_tm0"(#loc300))
#loc512 = loc("convolution.572_tm1_tm1"(#loc300))
#loc513 = loc("convolution.582_tm1_tm0"(#loc309))
#loc514 = loc("convolution.582_tm1_tm1"(#loc309))
#loc515 = loc("convolution.800_tm1_tm0"(#loc318))
#loc516 = loc("convolution.800_tm1_tm1"(#loc318))
#loc517 = loc("convolution.810_tm1_tm0"(#loc327))
#loc518 = loc("convolution.810_tm1_tm1"(#loc327))
#loc519 = loc("convolution.820_tm1_tm0"(#loc336))
#loc520 = loc("convolution.820_tm1_tm1"(#loc336))
#loc521 = loc("convolution.830_tm1_tm0"(#loc345))
#loc522 = loc("convolution.830_tm1_tm1"(#loc345))
#loc523 = loc("convolution.840_tm1_tm0"(#loc354))
#loc524 = loc("convolution.840_tm1_tm1"(#loc354))
#loc525 = loc("convolution.1058_tm1_tm0"(#loc363))
#loc526 = loc("convolution.1058_tm1_tm1"(#loc363))
#loc527 = loc("convolution.1068_tm1_tm0"(#loc372))
#loc528 = loc("convolution.1068_tm1_tm1"(#loc372))
#loc529 = loc("convolution.1078_tm1_tm0"(#loc381))
#loc530 = loc("convolution.1078_tm1_tm1"(#loc381))
#loc531 = loc("convolution.1088_tm1_tm0"(#loc390))
#loc532 = loc("convolution.1088_tm1_tm1"(#loc390))
#loc533 = loc("convolution.1098_tm1_tm0"(#loc399))
#loc534 = loc("convolution.1098_tm1_tm1"(#loc399))
#loc535 = loc("convolution.1316_tm1_tm0"(#loc408))
#loc536 = loc("convolution.1316_tm1_tm1"(#loc408))
#loc537 = loc("convolution.1326_tm1_tm0"(#loc417))
#loc538 = loc("convolution.1326_tm1_tm1"(#loc417))
#loc539 = loc("convolution.1336_tm1_tm0"(#loc426))
#loc540 = loc("convolution.1336_tm1_tm1"(#loc426))
#loc541 = loc("convolution.1346_tm1_tm0"(#loc435))
#loc542 = loc("convolution.1346_tm1_tm1"(#loc435))
#loc543 = loc("convolution.1356_tm1_tm0"(#loc444))
#loc544 = loc("convolution.1356_tm1_tm1"(#loc444))
#loc545 = loc("reduce.597_mean_input_reshape"(#loc475))
#loc546 = loc("reduce.597_mean_mean"(#loc475))
#loc547 = loc("reduce.855_mean_input_reshape"(#loc481))
#loc548 = loc("reduce.855_mean_mean"(#loc481))
#loc549 = loc("convolution.866_reshape_mem_reconfig"(#loc482))
#loc550 = loc("reduce.1113_mean_input_reshape"(#loc487))
#loc551 = loc("reduce.1113_mean_mean"(#loc487))
#loc552 = loc("convolution.1124_reshape_mem_reconfig"(#loc488))
#loc553 = loc("reduce.1371_mean_input_reshape"(#loc495))
#loc554 = loc("reduce.1371_mean_mean"(#loc495))
#loc555 = loc("convolution.1382_reshape_mem_reconfig"(#loc496))
#loc556 = loc("reduce.1409_mean_mem_reconfig"(#loc498))
#loc557 = loc("reduce.597_mean_mean_revert_layout"(#loc546))
#loc558 = loc("reduce.855_mean_mean_mem_reconfig"(#loc548))
#loc559 = loc("reduce.855_mean_mean_revert_layout"(#loc548))
#loc560 = loc("reduce.1113_mean_input_reshape_mem_reconfig"(#loc550))
#loc561 = loc("reduce.1113_mean_mean_mem_reconfig"(#loc551))
#loc562 = loc("reduce.1113_mean_mean_revert_layout"(#loc551))
#loc563 = loc("reduce.1371_mean_input_reshape_mem_reconfig"(#loc553))
#loc564 = loc("reduce.1371_mean_mean_mem_reconfig"(#loc554))
#loc565 = loc("reduce.1371_mean_mean_revert_layout"(#loc554))
