#loc1 = loc("p0.3")
#loc2 = loc("p1.11")
#loc3 = loc("p2.28")
#loc4 = loc("p3.36")
#loc5 = loc("p4.41")
#loc6 = loc("p5.77")
#loc7 = loc("p6.119")
#loc8 = loc("p7.127")
#loc9 = loc("p8.149")
#loc10 = loc("p9.159")
#loc11 = loc("p10.168")
#loc12 = loc("p11.173")
#loc13 = loc("p12.182")
#loc14 = loc("p13.237")
#loc15 = loc("p14.363")
#loc16 = loc("p15.372")
#loc17 = loc("p16.418")
#loc18 = loc("p17.455")
#loc19 = loc("p18.463")
#loc20 = loc("p19.485")
#loc21 = loc("p20.495")
#loc22 = loc("p21.504")
#loc23 = loc("p22.509")
#loc24 = loc("p23.518")
#loc25 = loc("p24.556")
#loc26 = loc("p25.682")
#loc27 = loc("p26.691")
#loc28 = loc("p27.737")
#loc29 = loc("p28.774")
#loc30 = loc("p29.782")
#loc31 = loc("p30.804")
#loc32 = loc("p31.814")
#loc33 = loc("p32.823")
#loc34 = loc("p33.828")
#loc35 = loc("p34.837")
#loc36 = loc("p35.875")
#loc37 = loc("p36.1001")
#loc38 = loc("p37.1010")
#loc39 = loc("p38.1056")
#loc40 = loc("p39.1093")
#loc41 = loc("p40.1101")
#loc42 = loc("p41.1123")
#loc43 = loc("p42.1133")
#loc44 = loc("p43.1142")
#loc45 = loc("p44.1147")
#loc46 = loc("p45.1156")
#loc47 = loc("p46.1194")
#loc48 = loc("p47.1320")
#loc49 = loc("p48.1329")
#loc50 = loc("p49.1375")
#loc51 = loc("p50.1412")
#loc52 = loc("p51.1420")
#loc53 = loc("p52.1442")
#loc54 = loc("p53.1452")
#loc55 = loc("p54.1461")
#loc56 = loc("p55.1466")
#loc57 = loc("p56.1475")
#loc58 = loc("p57.1513")
#loc59 = loc("p58.1639")
#loc60 = loc("p59.1648")
#loc61 = loc("p60.1694")
#loc62 = loc("p61.1731")
#loc63 = loc("p62.1739")
#loc64 = loc("p63.1761")
#loc65 = loc("p64.1771")
#loc66 = loc("p65.1780")
#loc67 = loc("p66.1785")
#loc68 = loc("p67.1794")
#loc69 = loc("p68.1832")
#loc70 = loc("p69.1958")
#loc71 = loc("p70.1967")
#loc72 = loc("p71.2013")
#loc73 = loc("p72.2050")
#loc74 = loc("p73.2058")
#loc75 = loc("p74.2080")
#loc76 = loc("p75.2090")
#loc77 = loc("p76.2099")
#loc78 = loc("p77.2104")
#loc79 = loc("p78.2113")
#loc80 = loc("p79.2151")
#loc81 = loc("p80.2277")
#loc82 = loc("p81.2286")
#loc83 = loc("p82.2332")
#loc84 = loc("p83.2369")
#loc85 = loc("p84.2377")
#loc86 = loc("p85.2399")
#loc87 = loc("p86.2409")
#loc88 = loc("p87.2418")
#loc89 = loc("p88.2423")
#loc90 = loc("p89.2432")
#loc91 = loc("p90.2470")
#loc92 = loc("p91.2596")
#loc93 = loc("p92.2605")
#loc94 = loc("p93.2651")
#loc95 = loc("p94.2688")
#loc96 = loc("p95.2696")
#loc97 = loc("p96.2718")
#loc98 = loc("p97.2728")
#loc99 = loc("p98.2737")
#loc100 = loc("p99.2742")
#loc101 = loc("p100.2751")
#loc102 = loc("p101.2789")
#loc103 = loc("p102.2915")
#loc104 = loc("p103.2924")
#loc105 = loc("p104.2970")
#loc106 = loc("p105.3007")
#loc107 = loc("p106.3015")
#loc108 = loc("p107.3037")
#loc109 = loc("p108.3047")
#loc110 = loc("p109.3056")
#loc111 = loc("p110.3061")
#loc112 = loc("p111.3070")
#loc113 = loc("p112.3108")
#loc114 = loc("p113.3234")
#loc115 = loc("p114.3243")
#loc116 = loc("p115.3289")
#loc117 = loc("p116.3326")
#loc118 = loc("p117.3334")
#loc119 = loc("p118.3356")
#loc120 = loc("p119.3366")
#loc121 = loc("p120.3375")
#loc122 = loc("p121.3380")
#loc123 = loc("p122.3389")
#loc124 = loc("p123.3427")
#loc125 = loc("p124.3553")
#loc126 = loc("p125.3562")
#loc127 = loc("p126.3608")
#loc128 = loc("p127.3645")
#loc129 = loc("p128.3653")
#loc130 = loc("p129.3675")
#loc131 = loc("p130.3685")
#loc132 = loc("p131.3694")
#loc133 = loc("p132.3699")
#loc134 = loc("p133.3708")
#loc135 = loc("p134.3746")
#loc136 = loc("p135.3872")
#loc137 = loc("p136.3881")
#loc138 = loc("p137.3927")
#loc139 = loc("p138.3964")
#loc140 = loc("p139.3972")
#loc141 = loc("p140.3994")
#loc142 = loc("p141.4004")
#loc143 = loc("p142.4013")
#loc144 = loc("p143.4018")
#loc145 = loc("p144.4027")
#loc146 = loc("p145.4065")
#loc147 = loc("p146.4191")
#loc148 = loc("p147.4200")
#loc149 = loc("p148.4246")
#loc150 = loc("p149.4283")
#loc151 = loc("p150.4291")
#loc152 = loc("p151.4313")
#loc153 = loc("p152.4323")
#loc154 = loc("p153.4332")
#loc155 = loc("p154.4337")
#loc156 = loc("p155.4346")
#loc157 = loc("p156.4384")
#loc158 = loc("p157.4510")
#loc159 = loc("p158.4519")
#loc160 = loc("p159.4565")
#loc161 = loc("p160.4602")
#loc162 = loc("p161.4610")
#loc163 = loc("p162.4632")
#loc164 = loc("p163.4642")
#loc165 = loc("p164.4651")
#loc166 = loc("p165.4656")
#loc167 = loc("p166.4665")
#loc168 = loc("p167.4703")
#loc169 = loc("p168.4829")
#loc170 = loc("p169.4838")
#loc171 = loc("p170.4884")
#loc172 = loc("p171.4921")
#loc173 = loc("p172.4929")
#loc174 = loc("p173.4951")
#loc175 = loc("p174.4961")
#loc176 = loc("p175.4970")
#loc177 = loc("p176.4975")
#loc178 = loc("p177.4984")
#loc179 = loc("p178.5022")
#loc180 = loc("p179.5148")
#loc181 = loc("p180.5157")
#loc182 = loc("p181.5203")
#loc183 = loc("p182.5240")
#loc184 = loc("p183.5248")
#loc185 = loc("p184.5270")
#loc186 = loc("p185.5280")
#loc187 = loc("p186.5289")
#loc188 = loc("p187.5294")
#loc189 = loc("p188.5303")
#loc190 = loc("p189.5341")
#loc191 = loc("p190.5467")
#loc192 = loc("p191.5476")
#loc193 = loc("p192.5522")
#loc194 = loc("p193.5559")
#loc195 = loc("p194.5567")
#loc196 = loc("p195.5589")
#loc197 = loc("p196.5599")
#loc198 = loc("p197.5608")
#loc199 = loc("p198.5613")
#loc200 = loc("p199.5622")
#loc201 = loc("p200.5660")
#loc202 = loc("p201.5786")
#loc203 = loc("p202.5795")
#loc204 = loc("p203.5841")
#loc205 = loc("p204.5878")
#loc206 = loc("p205.5886")
#loc207 = loc("p206.5908")
#loc208 = loc("p207.5918")
#loc209 = loc("p208.5927")
#loc210 = loc("p209.5932")
#loc211 = loc("p210.5941")
#loc212 = loc("p211.5979")
#loc213 = loc("p212.6105")
#loc214 = loc("p213.6114")
#loc215 = loc("p214.6160")
#loc216 = loc("p215.6197")
#loc217 = loc("p216.6205")
#loc218 = loc("p217.6227")
#loc219 = loc("p218.6237")
#loc220 = loc("p219.6246")
#loc221 = loc("p220.6251")
#loc222 = loc("p221.6260")
#loc223 = loc("p222.6298")
#loc224 = loc("p223.6424")
#loc225 = loc("p224.6433")
#loc226 = loc("p225.6479")
#loc227 = loc("p226.6516")
#loc228 = loc("p227.6524")
#loc229 = loc("p228.6546")
#loc230 = loc("p229.6556")
#loc231 = loc("p230.6565")
#loc232 = loc("p231.6570")
#loc233 = loc("p232.6579")
#loc234 = loc("p233.6617")
#loc235 = loc("p234.6743")
#loc236 = loc("p235.6752")
#loc237 = loc("p236.6798")
#loc238 = loc("p237.6835")
#loc239 = loc("p238.6843")
#loc240 = loc("p239.6865")
#loc241 = loc("p240.6875")
#loc242 = loc("p241.6884")
#loc243 = loc("p242.6889")
#loc244 = loc("p243.6898")
#loc245 = loc("p244.6936")
#loc246 = loc("p245.7062")
#loc247 = loc("p246.7071")
#loc248 = loc("p247.7117")
#loc249 = loc("p248.7154")
#loc250 = loc("p249.7162")
#loc251 = loc("p250.7184")
#loc252 = loc("p251.7194")
#loc253 = loc("p252.7203")
#loc254 = loc("p253.7208")
#loc255 = loc("p254.7217")
#loc256 = loc("p255.7255")
#loc257 = loc("p256.7381")
#loc258 = loc("p257.7390")
#loc259 = loc("p258.7436")
#loc260 = loc("p259.7473")
#loc261 = loc("p260.7481")
#loc262 = loc("p261.7503")
#loc263 = loc("p262.7513")
#loc264 = loc("p263.7522")
#loc265 = loc("p264.7527")
#loc266 = loc("p265.7536")
#loc267 = loc("p266.7574")
#loc268 = loc("p267.7700")
#loc269 = loc("p268.7709")
#loc270 = loc("p269.7755")
#loc271 = loc("p270.7792")
#loc272 = loc("p271.7800")
#loc273 = loc("p272.7822")
#loc274 = loc("p273.7832")
#loc275 = loc("p274.7841")
#loc276 = loc("p275.7846")
#loc277 = loc("p276.7855")
#loc278 = loc("p277.7893")
#loc279 = loc("p278.8019")
#loc280 = loc("p279.8028")
#loc281 = loc("p280.8074")
#loc282 = loc("p281.8111")
#loc283 = loc("p282.8119")
#loc284 = loc("p283.8141")
#loc285 = loc("p284.8151")
#loc286 = loc("p285.8160")
#loc287 = loc("p286.8165")
#loc288 = loc("p287.8174")
#loc289 = loc("p288.8212")
#loc290 = loc("p289.8338")
#loc291 = loc("p290.8347")
#loc292 = loc("p291.8393")
#loc293 = loc("p292.8430")
#loc294 = loc("p293.8438")
#loc295 = loc("p294.8460")
#loc296 = loc("p295.8470")
#loc297 = loc("p296.8479")
#loc298 = loc("p297.8484")
#loc299 = loc("p298.8493")
#loc300 = loc("p299.8531")
#loc301 = loc("p300.8657")
#loc302 = loc("p301.8666")
#loc303 = loc("p302.8712")
#loc304 = loc("p303.8749")
#loc305 = loc("p304.8757")
#loc306 = loc("p305.8779")
#loc307 = loc("p306.8787")
#loc308 = loc("p307.8796")
#loc309 = loc("p308.8801")
#loc310 = loc("p309.8810")
#loc311 = loc("p310.8848")
#loc312 = loc("p311.8974")
#loc313 = loc("p312.8983")
#loc314 = loc("p313.9029")
#loc372 = loc("scatter.125")
#loc379 = loc("scatter.155")
#loc419 = loc("reduce.312")
#loc444 = loc("dot.329")
#loc480 = loc("dot.384")
#loc509 = loc("scatter.461")
#loc516 = loc("scatter.491")
#loc545 = loc("reduce.631")
#loc570 = loc("dot.648")
#loc606 = loc("dot.703")
#loc635 = loc("scatter.780")
#loc642 = loc("scatter.810")
#loc671 = loc("reduce.950")
#loc696 = loc("dot.967")
#loc732 = loc("dot.1022")
#loc761 = loc("scatter.1099")
#loc768 = loc("scatter.1129")
#loc797 = loc("reduce.1269")
#loc822 = loc("dot.1286")
#loc858 = loc("dot.1341")
#loc887 = loc("scatter.1418")
#loc894 = loc("scatter.1448")
#loc923 = loc("reduce.1588")
#loc948 = loc("dot.1605")
#loc984 = loc("dot.1660")
#loc1013 = loc("scatter.1737")
#loc1020 = loc("scatter.1767")
#loc1049 = loc("reduce.1907")
#loc1074 = loc("dot.1924")
#loc1110 = loc("dot.1979")
#loc1139 = loc("scatter.2056")
#loc1146 = loc("scatter.2086")
#loc1175 = loc("reduce.2226")
#loc1200 = loc("dot.2243")
#loc1236 = loc("dot.2298")
#loc1265 = loc("scatter.2375")
#loc1272 = loc("scatter.2405")
#loc1301 = loc("reduce.2545")
#loc1326 = loc("dot.2562")
#loc1362 = loc("dot.2617")
#loc1391 = loc("scatter.2694")
#loc1398 = loc("scatter.2724")
#loc1427 = loc("reduce.2864")
#loc1452 = loc("dot.2881")
#loc1488 = loc("dot.2936")
#loc1517 = loc("scatter.3013")
#loc1524 = loc("scatter.3043")
#loc1553 = loc("reduce.3183")
#loc1578 = loc("dot.3200")
#loc1614 = loc("dot.3255")
#loc1643 = loc("scatter.3332")
#loc1650 = loc("scatter.3362")
#loc1679 = loc("reduce.3502")
#loc1704 = loc("dot.3519")
#loc1740 = loc("dot.3574")
#loc1769 = loc("scatter.3651")
#loc1776 = loc("scatter.3681")
#loc1805 = loc("reduce.3821")
#loc1830 = loc("dot.3838")
#loc1866 = loc("dot.3893")
#loc1895 = loc("scatter.3970")
#loc1902 = loc("scatter.4000")
#loc1931 = loc("reduce.4140")
#loc1956 = loc("dot.4157")
#loc1992 = loc("dot.4212")
#loc2021 = loc("scatter.4289")
#loc2028 = loc("scatter.4319")
#loc2057 = loc("reduce.4459")
#loc2082 = loc("dot.4476")
#loc2118 = loc("dot.4531")
#loc2147 = loc("scatter.4608")
#loc2154 = loc("scatter.4638")
#loc2183 = loc("reduce.4778")
#loc2208 = loc("dot.4795")
#loc2244 = loc("dot.4850")
#loc2273 = loc("scatter.4927")
#loc2280 = loc("scatter.4957")
#loc2309 = loc("reduce.5097")
#loc2334 = loc("dot.5114")
#loc2370 = loc("dot.5169")
#loc2399 = loc("scatter.5246")
#loc2406 = loc("scatter.5276")
#loc2435 = loc("reduce.5416")
#loc2460 = loc("dot.5433")
#loc2496 = loc("dot.5488")
#loc2525 = loc("scatter.5565")
#loc2532 = loc("scatter.5595")
#loc2561 = loc("reduce.5735")
#loc2586 = loc("dot.5752")
#loc2622 = loc("dot.5807")
#loc2651 = loc("scatter.5884")
#loc2658 = loc("scatter.5914")
#loc2687 = loc("reduce.6054")
#loc2712 = loc("dot.6071")
#loc2748 = loc("dot.6126")
#loc2777 = loc("scatter.6203")
#loc2784 = loc("scatter.6233")
#loc2813 = loc("reduce.6373")
#loc2838 = loc("dot.6390")
#loc2874 = loc("dot.6445")
#loc2903 = loc("scatter.6522")
#loc2910 = loc("scatter.6552")
#loc2939 = loc("reduce.6692")
#loc2964 = loc("dot.6709")
#loc3000 = loc("dot.6764")
#loc3029 = loc("scatter.6841")
#loc3036 = loc("scatter.6871")
#loc3065 = loc("reduce.7011")
#loc3090 = loc("dot.7028")
#loc3126 = loc("dot.7083")
#loc3155 = loc("scatter.7160")
#loc3162 = loc("scatter.7190")
#loc3191 = loc("reduce.7330")
#loc3216 = loc("dot.7347")
#loc3252 = loc("dot.7402")
#loc3281 = loc("scatter.7479")
#loc3288 = loc("scatter.7509")
#loc3317 = loc("reduce.7649")
#loc3342 = loc("dot.7666")
#loc3378 = loc("dot.7721")
#loc3407 = loc("scatter.7798")
#loc3414 = loc("scatter.7828")
#loc3443 = loc("reduce.7968")
#loc3468 = loc("dot.7985")
#loc3504 = loc("dot.8040")
#loc3533 = loc("scatter.8117")
#loc3540 = loc("scatter.8147")
#loc3569 = loc("reduce.8287")
#loc3594 = loc("dot.8304")
#loc3630 = loc("dot.8359")
#loc3659 = loc("scatter.8436")
#loc3666 = loc("scatter.8466")
#loc3695 = loc("reduce.8606")
#loc3720 = loc("dot.8623")
#loc3756 = loc("dot.8678")
#loc3785 = loc("scatter.8755")
#loc3792 = loc("scatter.8785")
#loc3821 = loc("reduce.8923")
#loc3846 = loc("dot.8940")
#loc3882 = loc("dot.8995")
module @SyncTensorsGraph.9039 attributes {mhlo.cross_program_prefetches = [], mhlo.input_output_alias = [], mhlo.is_dynamic = false, mhlo.use_auto_spmd_partitioning = false} {
  sdy.mesh @mesh = <["_axis_0"=2, "_axis_1"=4]> loc(#loc)
  func.func @main(%arg0: tensor<17xi64> {ttcore.argument_type = #ttcore.argument_type<input>, ttcore.shard_status = #ttcore.shard_status<presharded>, ttir.name = "args_1"} loc("p0.3"), %arg1: tensor<128xbf16> {ttcore.argument_type = #ttcore.argument_type<constant>, ttcore.shard_status = #ttcore.shard_status<presharded>, ttir.name = "l__self___model_rotary_emb_inv_freq"} loc("p1.11"), %arg2: tensor<1024x3072xbf16> {ttcore.argument_type = #ttcore.argument_type<parameter>, ttcore.shard_status = #ttcore.shard_status<presharded>, ttir.name = "l__self___model_layers__modules__0___self_attn_k_proj_weight"} loc("p2.28"), %arg3: tensor<32x17xi64> {ttcore.argument_type = #ttcore.argument_type<input>, ttcore.shard_status = #ttcore.shard_status<presharded>, ttir.name = "args_0"} loc("p3.36"), %arg4: tensor<131072x3072xbf16> {ttcore.argument_type = #ttcore.argument_type<parameter>, ttcore.shard_status = #ttcore.shard_status<presharded>, ttir.name = "l__self___model_embed_tokens_weight"} loc("p4.41"), %arg5: tensor<3072xbf16> {ttcore.argument_type = #ttcore.argument_type<parameter>, ttcore.shard_status = #ttcore.shard_status<presharded>, ttir.name = "l__self___model_layers__modules__0___input_layernorm_weight"} loc("p5.77"), %arg6: tensor<32x4x128x256xbf16> {ttcore.argument_type = #ttcore.argument_type<input>, ttcore.shard_status = #ttcore.shard_status<presharded>, ttir.name = "args_2"} loc("p6.119"), %arg7: tensor<1024x3072xbf16> {ttcore.argument_type = #ttcore.argument_type<parameter>, ttcore.shard_status = #ttcore.shard_status<presharded>, ttir.name = "l__self___model_layers__modules__0___self_attn_v_proj_weight"} loc("p7.127"), %arg8: tensor<32x4x128x256xbf16> {ttcore.argument_type = #ttcore.argument_type<input>, ttcore.shard_status = #ttcore.shard_status<presharded>, ttir.name = "args_3"} loc("p8.149"), %arg9: tensor<1024x3072xbf16> {ttcore.argument_type = #ttcore.argument_type<parameter>, ttcore.shard_status = #ttcore.shard_status<presharded>, ttir.name = "l__self___model_layers__modules__1___self_attn_k_proj_weight"} loc("p9.159"), %arg10: tensor<3072x23040xbf16> {ttcore.argument_type = #ttcore.argument_type<parameter>, ttcore.shard_status = #ttcore.shard_status<presharded>, ttir.name = "l__self___model_layers__modules__0___mlp_down_proj_weight"} loc("p10.168"), %arg11: tensor<23040x3072xbf16> {ttcore.argument_type = #ttcore.argument_type<parameter>, ttcore.shard_status = #ttcore.shard_status<presharded>, ttir.name = "l__self___model_layers__modules__0___mlp_up_proj_weight"} loc("p11.173"), %arg12: tensor<3072x3072xbf16> {ttcore.argument_type = #ttcore.argument_type<parameter>, ttcore.shard_status = #ttcore.shard_status<presharded>, ttir.name = "l__self___model_layers__modules__0___self_attn_o_proj_weight"} loc("p12.182"), %arg13: tensor<3072x3072xbf16> {ttcore.argument_type = #ttcore.argument_type<parameter>, ttcore.shard_status = #ttcore.shard_status<presharded>, ttir.name = "l__self___model_layers__modules__0___self_attn_q_proj_weight"} loc("p13.237"), %arg14: tensor<3072xbf16> {ttcore.argument_type = #ttcore.argument_type<parameter>, ttcore.shard_status = #ttcore.shard_status<presharded>, ttir.name = "l__self___model_layers__modules__0___post_attention_layernorm_weight"} loc("p14.363"), %arg15: tensor<23040x3072xbf16> {ttcore.argument_type = #ttcore.argument_type<parameter>, ttcore.shard_status = #ttcore.shard_status<presharded>, ttir.name = "l__self___model_layers__modules__0___mlp_gate_proj_weight"} loc("p15.372"), %arg16: tensor<3072xbf16> {ttcore.argument_type = #ttcore.argument_type<parameter>, ttcore.shard_status = #ttcore.shard_status<presharded>, ttir.name = "l__self___model_layers__modules__1___input_layernorm_weight"} loc("p16.418"), %arg17: tensor<32x4x128x256xbf16> {ttcore.argument_type = #ttcore.argument_type<input>, ttcore.shard_status = #ttcore.shard_status<presharded>, ttir.name = "args_4"} loc("p17.455"), %arg18: tensor<1024x3072xbf16> {ttcore.argument_type = #ttcore.argument_type<parameter>, ttcore.shard_status = #ttcore.shard_status<presharded>, ttir.name = "l__self___model_layers__modules__1___self_attn_v_proj_weight"} loc("p18.463"), %arg19: tensor<32x4x128x256xbf16> {ttcore.argument_type = #ttcore.argument_type<input>, ttcore.shard_status = #ttcore.shard_status<presharded>, ttir.name = "args_5"} loc("p19.485"), %arg20: tensor<1024x3072xbf16> {ttcore.argument_type = #ttcore.argument_type<parameter>, ttcore.shard_status = #ttcore.shard_status<presharded>, ttir.name = "l__self___model_layers__modules__2___self_attn_k_proj_weight"} loc("p20.495"), %arg21: tensor<3072x23040xbf16> {ttcore.argument_type = #ttcore.argument_type<parameter>, ttcore.shard_status = #ttcore.shard_status<presharded>, ttir.name = "l__self___model_layers__modules__1___mlp_down_proj_weight"} loc("p21.504"), %arg22: tensor<23040x3072xbf16> {ttcore.argument_type = #ttcore.argument_type<parameter>, ttcore.shard_status = #ttcore.shard_status<presharded>, ttir.name = "l__self___model_layers__modules__1___mlp_up_proj_weight"} loc("p22.509"), %arg23: tensor<3072x3072xbf16> {ttcore.argument_type = #ttcore.argument_type<parameter>, ttcore.shard_status = #ttcore.shard_status<presharded>, ttir.name = "l__self___model_layers__modules__1___self_attn_o_proj_weight"} loc("p23.518"), %arg24: tensor<3072x3072xbf16> {ttcore.argument_type = #ttcore.argument_type<parameter>, ttcore.shard_status = #ttcore.shard_status<presharded>, ttir.name = "l__self___model_layers__modules__1___self_attn_q_proj_weight"} loc("p24.556"), %arg25: tensor<3072xbf16> {ttcore.argument_type = #ttcore.argument_type<parameter>, ttcore.shard_status = #ttcore.shard_status<presharded>, ttir.name = "l__self___model_layers__modules__1___post_attention_layernorm_weight"} loc("p25.682"), %arg26: tensor<23040x3072xbf16> {ttcore.argument_type = #ttcore.argument_type<parameter>, ttcore.shard_status = #ttcore.shard_status<presharded>, ttir.name = "l__self___model_layers__modules__1___mlp_gate_proj_weight"} loc("p26.691"), %arg27: tensor<3072xbf16> {ttcore.argument_type = #ttcore.argument_type<parameter>, ttcore.shard_status = #ttcore.shard_status<presharded>, ttir.name = "l__self___model_layers__modules__2___input_layernorm_weight"} loc("p27.737"), %arg28: tensor<32x4x128x256xbf16> {ttcore.argument_type = #ttcore.argument_type<input>, ttcore.shard_status = #ttcore.shard_status<presharded>, ttir.name = "args_6"} loc("p28.774"), %arg29: tensor<1024x3072xbf16> {ttcore.argument_type = #ttcore.argument_type<parameter>, ttcore.shard_status = #ttcore.shard_status<presharded>, ttir.name = "l__self___model_layers__modules__2___self_attn_v_proj_weight"} loc("p29.782"), %arg30: tensor<32x4x128x256xbf16> {ttcore.argument_type = #ttcore.argument_type<input>, ttcore.shard_status = #ttcore.shard_status<presharded>, ttir.name = "args_7"} loc("p30.804"), %arg31: tensor<1024x3072xbf16> {ttcore.argument_type = #ttcore.argument_type<parameter>, ttcore.shard_status = #ttcore.shard_status<presharded>, ttir.name = "l__self___model_layers__modules__3___self_attn_k_proj_weight"} loc("p31.814"), %arg32: tensor<3072x23040xbf16> {ttcore.argument_type = #ttcore.argument_type<parameter>, ttcore.shard_status = #ttcore.shard_status<presharded>, ttir.name = "l__self___model_layers__modules__2___mlp_down_proj_weight"} loc("p32.823"), %arg33: tensor<23040x3072xbf16> {ttcore.argument_type = #ttcore.argument_type<parameter>, ttcore.shard_status = #ttcore.shard_status<presharded>, ttir.name = "l__self___model_layers__modules__2___mlp_up_proj_weight"} loc("p33.828"), %arg34: tensor<3072x3072xbf16> {ttcore.argument_type = #ttcore.argument_type<parameter>, ttcore.shard_status = #ttcore.shard_status<presharded>, ttir.name = "l__self___model_layers__modules__2___self_attn_o_proj_weight"} loc("p34.837"), %arg35: tensor<3072x3072xbf16> {ttcore.argument_type = #ttcore.argument_type<parameter>, ttcore.shard_status = #ttcore.shard_status<presharded>, ttir.name = "l__self___model_layers__modules__2___self_attn_q_proj_weight"} loc("p35.875"), %arg36: tensor<3072xbf16> {ttcore.argument_type = #ttcore.argument_type<parameter>, ttcore.shard_status = #ttcore.shard_status<presharded>, ttir.name = "l__self___model_layers__modules__2___post_attention_layernorm_weight"} loc("p36.1001"), %arg37: tensor<23040x3072xbf16> {ttcore.argument_type = #ttcore.argument_type<parameter>, ttcore.shard_status = #ttcore.shard_status<presharded>, ttir.name = "l__self___model_layers__modules__2___mlp_gate_proj_weight"} loc("p37.1010"), %arg38: tensor<3072xbf16> {ttcore.argument_type = #ttcore.argument_type<parameter>, ttcore.shard_status = #ttcore.shard_status<presharded>, ttir.name = "l__self___model_layers__modules__3___input_layernorm_weight"} loc("p38.1056"), %arg39: tensor<32x4x128x256xbf16> {ttcore.argument_type = #ttcore.argument_type<input>, ttcore.shard_status = #ttcore.shard_status<presharded>, ttir.name = "args_8"} loc("p39.1093"), %arg40: tensor<1024x3072xbf16> {ttcore.argument_type = #ttcore.argument_type<parameter>, ttcore.shard_status = #ttcore.shard_status<presharded>, ttir.name = "l__self___model_layers__modules__3___self_attn_v_proj_weight"} loc("p40.1101"), %arg41: tensor<32x4x128x256xbf16> {ttcore.argument_type = #ttcore.argument_type<input>, ttcore.shard_status = #ttcore.shard_status<presharded>, ttir.name = "args_9"} loc("p41.1123"), %arg42: tensor<1024x3072xbf16> {ttcore.argument_type = #ttcore.argument_type<parameter>, ttcore.shard_status = #ttcore.shard_status<presharded>, ttir.name = "l__self___model_layers__modules__4___self_attn_k_proj_weight"} loc("p42.1133"), %arg43: tensor<3072x23040xbf16> {ttcore.argument_type = #ttcore.argument_type<parameter>, ttcore.shard_status = #ttcore.shard_status<presharded>, ttir.name = "l__self___model_layers__modules__3___mlp_down_proj_weight"} loc("p43.1142"), %arg44: tensor<23040x3072xbf16> {ttcore.argument_type = #ttcore.argument_type<parameter>, ttcore.shard_status = #ttcore.shard_status<presharded>, ttir.name = "l__self___model_layers__modules__3___mlp_up_proj_weight"} loc("p44.1147"), %arg45: tensor<3072x3072xbf16> {ttcore.argument_type = #ttcore.argument_type<parameter>, ttcore.shard_status = #ttcore.shard_status<presharded>, ttir.name = "l__self___model_layers__modules__3___self_attn_o_proj_weight"} loc("p45.1156"), %arg46: tensor<3072x3072xbf16> {ttcore.argument_type = #ttcore.argument_type<parameter>, ttcore.shard_status = #ttcore.shard_status<presharded>, ttir.name = "l__self___model_layers__modules__3___self_attn_q_proj_weight"} loc("p46.1194"), %arg47: tensor<3072xbf16> {ttcore.argument_type = #ttcore.argument_type<parameter>, ttcore.shard_status = #ttcore.shard_status<presharded>, ttir.name = "l__self___model_layers__modules__3___post_attention_layernorm_weight"} loc("p47.1320"), %arg48: tensor<23040x3072xbf16> {ttcore.argument_type = #ttcore.argument_type<parameter>, ttcore.shard_status = #ttcore.shard_status<presharded>, ttir.name = "l__self___model_layers__modules__3___mlp_gate_proj_weight"} loc("p48.1329"), %arg49: tensor<3072xbf16> {ttcore.argument_type = #ttcore.argument_type<parameter>, ttcore.shard_status = #ttcore.shard_status<presharded>, ttir.name = "l__self___model_layers__modules__4___input_layernorm_weight"} loc("p49.1375"), %arg50: tensor<32x4x128x256xbf16> {ttcore.argument_type = #ttcore.argument_type<input>, ttcore.shard_status = #ttcore.shard_status<presharded>, ttir.name = "args_10"} loc("p50.1412"), %arg51: tensor<1024x3072xbf16> {ttcore.argument_type = #ttcore.argument_type<parameter>, ttcore.shard_status = #ttcore.shard_status<presharded>, ttir.name = "l__self___model_layers__modules__4___self_attn_v_proj_weight"} loc("p51.1420"), %arg52: tensor<32x4x128x256xbf16> {ttcore.argument_type = #ttcore.argument_type<input>, ttcore.shard_status = #ttcore.shard_status<presharded>, ttir.name = "args_11"} loc("p52.1442"), %arg53: tensor<1024x3072xbf16> {ttcore.argument_type = #ttcore.argument_type<parameter>, ttcore.shard_status = #ttcore.shard_status<presharded>, ttir.name = "l__self___model_layers__modules__5___self_attn_k_proj_weight"} loc("p53.1452"), %arg54: tensor<3072x23040xbf16> {ttcore.argument_type = #ttcore.argument_type<parameter>, ttcore.shard_status = #ttcore.shard_status<presharded>, ttir.name = "l__self___model_layers__modules__4___mlp_down_proj_weight"} loc("p54.1461"), %arg55: tensor<23040x3072xbf16> {ttcore.argument_type = #ttcore.argument_type<parameter>, ttcore.shard_status = #ttcore.shard_status<presharded>, ttir.name = "l__self___model_layers__modules__4___mlp_up_proj_weight"} loc("p55.1466"), %arg56: tensor<3072x3072xbf16> {ttcore.argument_type = #ttcore.argument_type<parameter>, ttcore.shard_status = #ttcore.shard_status<presharded>, ttir.name = "l__self___model_layers__modules__4___self_attn_o_proj_weight"} loc("p56.1475"), %arg57: tensor<3072x3072xbf16> {ttcore.argument_type = #ttcore.argument_type<parameter>, ttcore.shard_status = #ttcore.shard_status<presharded>, ttir.name = "l__self___model_layers__modules__4___self_attn_q_proj_weight"} loc("p57.1513"), %arg58: tensor<3072xbf16> {ttcore.argument_type = #ttcore.argument_type<parameter>, ttcore.shard_status = #ttcore.shard_status<presharded>, ttir.name = "l__self___model_layers__modules__4___post_attention_layernorm_weight"} loc("p58.1639"), %arg59: tensor<23040x3072xbf16> {ttcore.argument_type = #ttcore.argument_type<parameter>, ttcore.shard_status = #ttcore.shard_status<presharded>, ttir.name = "l__self___model_layers__modules__4___mlp_gate_proj_weight"} loc("p59.1648"), %arg60: tensor<3072xbf16> {ttcore.argument_type = #ttcore.argument_type<parameter>, ttcore.shard_status = #ttcore.shard_status<presharded>, ttir.name = "l__self___model_layers__modules__5___input_layernorm_weight"} loc("p60.1694"), %arg61: tensor<32x4x128x256xbf16> {ttcore.argument_type = #ttcore.argument_type<input>, ttcore.shard_status = #ttcore.shard_status<presharded>, ttir.name = "args_12"} loc("p61.1731"), %arg62: tensor<1024x3072xbf16> {ttcore.argument_type = #ttcore.argument_type<parameter>, ttcore.shard_status = #ttcore.shard_status<presharded>, ttir.name = "l__self___model_layers__modules__5___self_attn_v_proj_weight"} loc("p62.1739"), %arg63: tensor<32x4x128x256xbf16> {ttcore.argument_type = #ttcore.argument_type<input>, ttcore.shard_status = #ttcore.shard_status<presharded>, ttir.name = "args_13"} loc("p63.1761"), %arg64: tensor<1024x3072xbf16> {ttcore.argument_type = #ttcore.argument_type<parameter>, ttcore.shard_status = #ttcore.shard_status<presharded>, ttir.name = "l__self___model_layers__modules__6___self_attn_k_proj_weight"} loc("p64.1771"), %arg65: tensor<3072x23040xbf16> {ttcore.argument_type = #ttcore.argument_type<parameter>, ttcore.shard_status = #ttcore.shard_status<presharded>, ttir.name = "l__self___model_layers__modules__5___mlp_down_proj_weight"} loc("p65.1780"), %arg66: tensor<23040x3072xbf16> {ttcore.argument_type = #ttcore.argument_type<parameter>, ttcore.shard_status = #ttcore.shard_status<presharded>, ttir.name = "l__self___model_layers__modules__5___mlp_up_proj_weight"} loc("p66.1785"), %arg67: tensor<3072x3072xbf16> {ttcore.argument_type = #ttcore.argument_type<parameter>, ttcore.shard_status = #ttcore.shard_status<presharded>, ttir.name = "l__self___model_layers__modules__5___self_attn_o_proj_weight"} loc("p67.1794"), %arg68: tensor<3072x3072xbf16> {ttcore.argument_type = #ttcore.argument_type<parameter>, ttcore.shard_status = #ttcore.shard_status<presharded>, ttir.name = "l__self___model_layers__modules__5___self_attn_q_proj_weight"} loc("p68.1832"), %arg69: tensor<3072xbf16> {ttcore.argument_type = #ttcore.argument_type<parameter>, ttcore.shard_status = #ttcore.shard_status<presharded>, ttir.name = "l__self___model_layers__modules__5___post_attention_layernorm_weight"} loc("p69.1958"), %arg70: tensor<23040x3072xbf16> {ttcore.argument_type = #ttcore.argument_type<parameter>, ttcore.shard_status = #ttcore.shard_status<presharded>, ttir.name = "l__self___model_layers__modules__5___mlp_gate_proj_weight"} loc("p70.1967"), %arg71: tensor<3072xbf16> {ttcore.argument_type = #ttcore.argument_type<parameter>, ttcore.shard_status = #ttcore.shard_status<presharded>, ttir.name = "l__self___model_layers__modules__6___input_layernorm_weight"} loc("p71.2013"), %arg72: tensor<32x4x128x256xbf16> {ttcore.argument_type = #ttcore.argument_type<input>, ttcore.shard_status = #ttcore.shard_status<presharded>, ttir.name = "args_14"} loc("p72.2050"), %arg73: tensor<1024x3072xbf16> {ttcore.argument_type = #ttcore.argument_type<parameter>, ttcore.shard_status = #ttcore.shard_status<presharded>, ttir.name = "l__self___model_layers__modules__6___self_attn_v_proj_weight"} loc("p73.2058"), %arg74: tensor<32x4x128x256xbf16> {ttcore.argument_type = #ttcore.argument_type<input>, ttcore.shard_status = #ttcore.shard_status<presharded>, ttir.name = "args_15"} loc("p74.2080"), %arg75: tensor<1024x3072xbf16> {ttcore.argument_type = #ttcore.argument_type<parameter>, ttcore.shard_status = #ttcore.shard_status<presharded>, ttir.name = "l__self___model_layers__modules__7___self_attn_k_proj_weight"} loc("p75.2090"), %arg76: tensor<3072x23040xbf16> {ttcore.argument_type = #ttcore.argument_type<parameter>, ttcore.shard_status = #ttcore.shard_status<presharded>, ttir.name = "l__self___model_layers__modules__6___mlp_down_proj_weight"} loc("p76.2099"), %arg77: tensor<23040x3072xbf16> {ttcore.argument_type = #ttcore.argument_type<parameter>, ttcore.shard_status = #ttcore.shard_status<presharded>, ttir.name = "l__self___model_layers__modules__6___mlp_up_proj_weight"} loc("p77.2104"), %arg78: tensor<3072x3072xbf16> {ttcore.argument_type = #ttcore.argument_type<parameter>, ttcore.shard_status = #ttcore.shard_status<presharded>, ttir.name = "l__self___model_layers__modules__6___self_attn_o_proj_weight"} loc("p78.2113"), %arg79: tensor<3072x3072xbf16> {ttcore.argument_type = #ttcore.argument_type<parameter>, ttcore.shard_status = #ttcore.shard_status<presharded>, ttir.name = "l__self___model_layers__modules__6___self_attn_q_proj_weight"} loc("p79.2151"), %arg80: tensor<3072xbf16> {ttcore.argument_type = #ttcore.argument_type<parameter>, ttcore.shard_status = #ttcore.shard_status<presharded>, ttir.name = "l__self___model_layers__modules__6___post_attention_layernorm_weight"} loc("p80.2277"), %arg81: tensor<23040x3072xbf16> {ttcore.argument_type = #ttcore.argument_type<parameter>, ttcore.shard_status = #ttcore.shard_status<presharded>, ttir.name = "l__self___model_layers__modules__6___mlp_gate_proj_weight"} loc("p81.2286"), %arg82: tensor<3072xbf16> {ttcore.argument_type = #ttcore.argument_type<parameter>, ttcore.shard_status = #ttcore.shard_status<presharded>, ttir.name = "l__self___model_layers__modules__7___input_layernorm_weight"} loc("p82.2332"), %arg83: tensor<32x4x128x256xbf16> {ttcore.argument_type = #ttcore.argument_type<input>, ttcore.shard_status = #ttcore.shard_status<presharded>, ttir.name = "args_16"} loc("p83.2369"), %arg84: tensor<1024x3072xbf16> {ttcore.argument_type = #ttcore.argument_type<parameter>, ttcore.shard_status = #ttcore.shard_status<presharded>, ttir.name = "l__self___model_layers__modules__7___self_attn_v_proj_weight"} loc("p84.2377"), %arg85: tensor<32x4x128x256xbf16> {ttcore.argument_type = #ttcore.argument_type<input>, ttcore.shard_status = #ttcore.shard_status<presharded>, ttir.name = "args_17"} loc("p85.2399"), %arg86: tensor<1024x3072xbf16> {ttcore.argument_type = #ttcore.argument_type<parameter>, ttcore.shard_status = #ttcore.shard_status<presharded>, ttir.name = "l__self___model_layers__modules__8___self_attn_k_proj_weight"} loc("p86.2409"), %arg87: tensor<3072x23040xbf16> {ttcore.argument_type = #ttcore.argument_type<parameter>, ttcore.shard_status = #ttcore.shard_status<presharded>, ttir.name = "l__self___model_layers__modules__7___mlp_down_proj_weight"} loc("p87.2418"), %arg88: tensor<23040x3072xbf16> {ttcore.argument_type = #ttcore.argument_type<parameter>, ttcore.shard_status = #ttcore.shard_status<presharded>, ttir.name = "l__self___model_layers__modules__7___mlp_up_proj_weight"} loc("p88.2423"), %arg89: tensor<3072x3072xbf16> {ttcore.argument_type = #ttcore.argument_type<parameter>, ttcore.shard_status = #ttcore.shard_status<presharded>, ttir.name = "l__self___model_layers__modules__7___self_attn_o_proj_weight"} loc("p89.2432"), %arg90: tensor<3072x3072xbf16> {ttcore.argument_type = #ttcore.argument_type<parameter>, ttcore.shard_status = #ttcore.shard_status<presharded>, ttir.name = "l__self___model_layers__modules__7___self_attn_q_proj_weight"} loc("p90.2470"), %arg91: tensor<3072xbf16> {ttcore.argument_type = #ttcore.argument_type<parameter>, ttcore.shard_status = #ttcore.shard_status<presharded>, ttir.name = "l__self___model_layers__modules__7___post_attention_layernorm_weight"} loc("p91.2596"), %arg92: tensor<23040x3072xbf16> {ttcore.argument_type = #ttcore.argument_type<parameter>, ttcore.shard_status = #ttcore.shard_status<presharded>, ttir.name = "l__self___model_layers__modules__7___mlp_gate_proj_weight"} loc("p92.2605"), %arg93: tensor<3072xbf16> {ttcore.argument_type = #ttcore.argument_type<parameter>, ttcore.shard_status = #ttcore.shard_status<presharded>, ttir.name = "l__self___model_layers__modules__8___input_layernorm_weight"} loc("p93.2651"), %arg94: tensor<32x4x128x256xbf16> {ttcore.argument_type = #ttcore.argument_type<input>, ttcore.shard_status = #ttcore.shard_status<presharded>, ttir.name = "args_18"} loc("p94.2688"), %arg95: tensor<1024x3072xbf16> {ttcore.argument_type = #ttcore.argument_type<parameter>, ttcore.shard_status = #ttcore.shard_status<presharded>, ttir.name = "l__self___model_layers__modules__8___self_attn_v_proj_weight"} loc("p95.2696"), %arg96: tensor<32x4x128x256xbf16> {ttcore.argument_type = #ttcore.argument_type<input>, ttcore.shard_status = #ttcore.shard_status<presharded>, ttir.name = "args_19"} loc("p96.2718"), %arg97: tensor<1024x3072xbf16> {ttcore.argument_type = #ttcore.argument_type<parameter>, ttcore.shard_status = #ttcore.shard_status<presharded>, ttir.name = "l__self___model_layers__modules__9___self_attn_k_proj_weight"} loc("p97.2728"), %arg98: tensor<3072x23040xbf16> {ttcore.argument_type = #ttcore.argument_type<parameter>, ttcore.shard_status = #ttcore.shard_status<presharded>, ttir.name = "l__self___model_layers__modules__8___mlp_down_proj_weight"} loc("p98.2737"), %arg99: tensor<23040x3072xbf16> {ttcore.argument_type = #ttcore.argument_type<parameter>, ttcore.shard_status = #ttcore.shard_status<presharded>, ttir.name = "l__self___model_layers__modules__8___mlp_up_proj_weight"} loc("p99.2742"), %arg100: tensor<3072x3072xbf16> {ttcore.argument_type = #ttcore.argument_type<parameter>, ttcore.shard_status = #ttcore.shard_status<presharded>, ttir.name = "l__self___model_layers__modules__8___self_attn_o_proj_weight"} loc("p100.2751"), %arg101: tensor<3072x3072xbf16> {ttcore.argument_type = #ttcore.argument_type<parameter>, ttcore.shard_status = #ttcore.shard_status<presharded>, ttir.name = "l__self___model_layers__modules__8___self_attn_q_proj_weight"} loc("p101.2789"), %arg102: tensor<3072xbf16> {ttcore.argument_type = #ttcore.argument_type<parameter>, ttcore.shard_status = #ttcore.shard_status<presharded>, ttir.name = "l__self___model_layers__modules__8___post_attention_layernorm_weight"} loc("p102.2915"), %arg103: tensor<23040x3072xbf16> {ttcore.argument_type = #ttcore.argument_type<parameter>, ttcore.shard_status = #ttcore.shard_status<presharded>, ttir.name = "l__self___model_layers__modules__8___mlp_gate_proj_weight"} loc("p103.2924"), %arg104: tensor<3072xbf16> {ttcore.argument_type = #ttcore.argument_type<parameter>, ttcore.shard_status = #ttcore.shard_status<presharded>, ttir.name = "l__self___model_layers__modules__9___input_layernorm_weight"} loc("p104.2970"), %arg105: tensor<32x4x128x256xbf16> {ttcore.argument_type = #ttcore.argument_type<input>, ttcore.shard_status = #ttcore.shard_status<presharded>, ttir.name = "args_20"} loc("p105.3007"), %arg106: tensor<1024x3072xbf16> {ttcore.argument_type = #ttcore.argument_type<parameter>, ttcore.shard_status = #ttcore.shard_status<presharded>, ttir.name = "l__self___model_layers__modules__9___self_attn_v_proj_weight"} loc("p106.3015"), %arg107: tensor<32x4x128x256xbf16> {ttcore.argument_type = #ttcore.argument_type<input>, ttcore.shard_status = #ttcore.shard_status<presharded>, ttir.name = "args_21"} loc("p107.3037"), %arg108: tensor<1024x3072xbf16> {ttcore.argument_type = #ttcore.argument_type<parameter>, ttcore.shard_status = #ttcore.shard_status<presharded>, ttir.name = "l__self___model_layers__modules__10___self_attn_k_proj_weight"} loc("p108.3047"), %arg109: tensor<3072x23040xbf16> {ttcore.argument_type = #ttcore.argument_type<parameter>, ttcore.shard_status = #ttcore.shard_status<presharded>, ttir.name = "l__self___model_layers__modules__9___mlp_down_proj_weight"} loc("p109.3056"), %arg110: tensor<23040x3072xbf16> {ttcore.argument_type = #ttcore.argument_type<parameter>, ttcore.shard_status = #ttcore.shard_status<presharded>, ttir.name = "l__self___model_layers__modules__9___mlp_up_proj_weight"} loc("p110.3061"), %arg111: tensor<3072x3072xbf16> {ttcore.argument_type = #ttcore.argument_type<parameter>, ttcore.shard_status = #ttcore.shard_status<presharded>, ttir.name = "l__self___model_layers__modules__9___self_attn_o_proj_weight"} loc("p111.3070"), %arg112: tensor<3072x3072xbf16> {ttcore.argument_type = #ttcore.argument_type<parameter>, ttcore.shard_status = #ttcore.shard_status<presharded>, ttir.name = "l__self___model_layers__modules__9___self_attn_q_proj_weight"} loc("p112.3108"), %arg113: tensor<3072xbf16> {ttcore.argument_type = #ttcore.argument_type<parameter>, ttcore.shard_status = #ttcore.shard_status<presharded>, ttir.name = "l__self___model_layers__modules__9___post_attention_layernorm_weight"} loc("p113.3234"), %arg114: tensor<23040x3072xbf16> {ttcore.argument_type = #ttcore.argument_type<parameter>, ttcore.shard_status = #ttcore.shard_status<presharded>, ttir.name = "l__self___model_layers__modules__9___mlp_gate_proj_weight"} loc("p114.3243"), %arg115: tensor<3072xbf16> {ttcore.argument_type = #ttcore.argument_type<parameter>, ttcore.shard_status = #ttcore.shard_status<presharded>, ttir.name = "l__self___model_layers__modules__10___input_layernorm_weight"} loc("p115.3289"), %arg116: tensor<32x4x128x256xbf16> {ttcore.argument_type = #ttcore.argument_type<input>, ttcore.shard_status = #ttcore.shard_status<presharded>, ttir.name = "args_22"} loc("p116.3326"), %arg117: tensor<1024x3072xbf16> {ttcore.argument_type = #ttcore.argument_type<parameter>, ttcore.shard_status = #ttcore.shard_status<presharded>, ttir.name = "l__self___model_layers__modules__10___self_attn_v_proj_weight"} loc("p117.3334"), %arg118: tensor<32x4x128x256xbf16> {ttcore.argument_type = #ttcore.argument_type<input>, ttcore.shard_status = #ttcore.shard_status<presharded>, ttir.name = "args_23"} loc("p118.3356"), %arg119: tensor<1024x3072xbf16> {ttcore.argument_type = #ttcore.argument_type<parameter>, ttcore.shard_status = #ttcore.shard_status<presharded>, ttir.name = "l__self___model_layers__modules__11___self_attn_k_proj_weight"} loc("p119.3366"), %arg120: tensor<3072x23040xbf16> {ttcore.argument_type = #ttcore.argument_type<parameter>, ttcore.shard_status = #ttcore.shard_status<presharded>, ttir.name = "l__self___model_layers__modules__10___mlp_down_proj_weight"} loc("p120.3375"), %arg121: tensor<23040x3072xbf16> {ttcore.argument_type = #ttcore.argument_type<parameter>, ttcore.shard_status = #ttcore.shard_status<presharded>, ttir.name = "l__self___model_layers__modules__10___mlp_up_proj_weight"} loc("p121.3380"), %arg122: tensor<3072x3072xbf16> {ttcore.argument_type = #ttcore.argument_type<parameter>, ttcore.shard_status = #ttcore.shard_status<presharded>, ttir.name = "l__self___model_layers__modules__10___self_attn_o_proj_weight"} loc("p122.3389"), %arg123: tensor<3072x3072xbf16> {ttcore.argument_type = #ttcore.argument_type<parameter>, ttcore.shard_status = #ttcore.shard_status<presharded>, ttir.name = "l__self___model_layers__modules__10___self_attn_q_proj_weight"} loc("p123.3427"), %arg124: tensor<3072xbf16> {ttcore.argument_type = #ttcore.argument_type<parameter>, ttcore.shard_status = #ttcore.shard_status<presharded>, ttir.name = "l__self___model_layers__modules__10___post_attention_layernorm_weight"} loc("p124.3553"), %arg125: tensor<23040x3072xbf16> {ttcore.argument_type = #ttcore.argument_type<parameter>, ttcore.shard_status = #ttcore.shard_status<presharded>, ttir.name = "l__self___model_layers__modules__10___mlp_gate_proj_weight"} loc("p125.3562"), %arg126: tensor<3072xbf16> {ttcore.argument_type = #ttcore.argument_type<parameter>, ttcore.shard_status = #ttcore.shard_status<presharded>, ttir.name = "l__self___model_layers__modules__11___input_layernorm_weight"} loc("p126.3608"), %arg127: tensor<32x4x128x256xbf16> {ttcore.argument_type = #ttcore.argument_type<input>, ttcore.shard_status = #ttcore.shard_status<presharded>, ttir.name = "args_24"} loc("p127.3645"), %arg128: tensor<1024x3072xbf16> {ttcore.argument_type = #ttcore.argument_type<parameter>, ttcore.shard_status = #ttcore.shard_status<presharded>, ttir.name = "l__self___model_layers__modules__11___self_attn_v_proj_weight"} loc("p128.3653"), %arg129: tensor<32x4x128x256xbf16> {ttcore.argument_type = #ttcore.argument_type<input>, ttcore.shard_status = #ttcore.shard_status<presharded>, ttir.name = "args_25"} loc("p129.3675"), %arg130: tensor<1024x3072xbf16> {ttcore.argument_type = #ttcore.argument_type<parameter>, ttcore.shard_status = #ttcore.shard_status<presharded>, ttir.name = "l__self___model_layers__modules__12___self_attn_k_proj_weight"} loc("p130.3685"), %arg131: tensor<3072x23040xbf16> {ttcore.argument_type = #ttcore.argument_type<parameter>, ttcore.shard_status = #ttcore.shard_status<presharded>, ttir.name = "l__self___model_layers__modules__11___mlp_down_proj_weight"} loc("p131.3694"), %arg132: tensor<23040x3072xbf16> {ttcore.argument_type = #ttcore.argument_type<parameter>, ttcore.shard_status = #ttcore.shard_status<presharded>, ttir.name = "l__self___model_layers__modules__11___mlp_up_proj_weight"} loc("p132.3699"), %arg133: tensor<3072x3072xbf16> {ttcore.argument_type = #ttcore.argument_type<parameter>, ttcore.shard_status = #ttcore.shard_status<presharded>, ttir.name = "l__self___model_layers__modules__11___self_attn_o_proj_weight"} loc("p133.3708"), %arg134: tensor<3072x3072xbf16> {ttcore.argument_type = #ttcore.argument_type<parameter>, ttcore.shard_status = #ttcore.shard_status<presharded>, ttir.name = "l__self___model_layers__modules__11___self_attn_q_proj_weight"} loc("p134.3746"), %arg135: tensor<3072xbf16> {ttcore.argument_type = #ttcore.argument_type<parameter>, ttcore.shard_status = #ttcore.shard_status<presharded>, ttir.name = "l__self___model_layers__modules__11___post_attention_layernorm_weight"} loc("p135.3872"), %arg136: tensor<23040x3072xbf16> {ttcore.argument_type = #ttcore.argument_type<parameter>, ttcore.shard_status = #ttcore.shard_status<presharded>, ttir.name = "l__self___model_layers__modules__11___mlp_gate_proj_weight"} loc("p136.3881"), %arg137: tensor<3072xbf16> {ttcore.argument_type = #ttcore.argument_type<parameter>, ttcore.shard_status = #ttcore.shard_status<presharded>, ttir.name = "l__self___model_layers__modules__12___input_layernorm_weight"} loc("p137.3927"), %arg138: tensor<32x4x128x256xbf16> {ttcore.argument_type = #ttcore.argument_type<input>, ttcore.shard_status = #ttcore.shard_status<presharded>, ttir.name = "args_26"} loc("p138.3964"), %arg139: tensor<1024x3072xbf16> {ttcore.argument_type = #ttcore.argument_type<parameter>, ttcore.shard_status = #ttcore.shard_status<presharded>, ttir.name = "l__self___model_layers__modules__12___self_attn_v_proj_weight"} loc("p139.3972"), %arg140: tensor<32x4x128x256xbf16> {ttcore.argument_type = #ttcore.argument_type<input>, ttcore.shard_status = #ttcore.shard_status<presharded>, ttir.name = "args_27"} loc("p140.3994"), %arg141: tensor<1024x3072xbf16> {ttcore.argument_type = #ttcore.argument_type<parameter>, ttcore.shard_status = #ttcore.shard_status<presharded>, ttir.name = "l__self___model_layers__modules__13___self_attn_k_proj_weight"} loc("p141.4004"), %arg142: tensor<3072x23040xbf16> {ttcore.argument_type = #ttcore.argument_type<parameter>, ttcore.shard_status = #ttcore.shard_status<presharded>, ttir.name = "l__self___model_layers__modules__12___mlp_down_proj_weight"} loc("p142.4013"), %arg143: tensor<23040x3072xbf16> {ttcore.argument_type = #ttcore.argument_type<parameter>, ttcore.shard_status = #ttcore.shard_status<presharded>, ttir.name = "l__self___model_layers__modules__12___mlp_up_proj_weight"} loc("p143.4018"), %arg144: tensor<3072x3072xbf16> {ttcore.argument_type = #ttcore.argument_type<parameter>, ttcore.shard_status = #ttcore.shard_status<presharded>, ttir.name = "l__self___model_layers__modules__12___self_attn_o_proj_weight"} loc("p144.4027"), %arg145: tensor<3072x3072xbf16> {ttcore.argument_type = #ttcore.argument_type<parameter>, ttcore.shard_status = #ttcore.shard_status<presharded>, ttir.name = "l__self___model_layers__modules__12___self_attn_q_proj_weight"} loc("p145.4065"), %arg146: tensor<3072xbf16> {ttcore.argument_type = #ttcore.argument_type<parameter>, ttcore.shard_status = #ttcore.shard_status<presharded>, ttir.name = "l__self___model_layers__modules__12___post_attention_layernorm_weight"} loc("p146.4191"), %arg147: tensor<23040x3072xbf16> {ttcore.argument_type = #ttcore.argument_type<parameter>, ttcore.shard_status = #ttcore.shard_status<presharded>, ttir.name = "l__self___model_layers__modules__12___mlp_gate_proj_weight"} loc("p147.4200"), %arg148: tensor<3072xbf16> {ttcore.argument_type = #ttcore.argument_type<parameter>, ttcore.shard_status = #ttcore.shard_status<presharded>, ttir.name = "l__self___model_layers__modules__13___input_layernorm_weight"} loc("p148.4246"), %arg149: tensor<32x4x128x256xbf16> {ttcore.argument_type = #ttcore.argument_type<input>, ttcore.shard_status = #ttcore.shard_status<presharded>, ttir.name = "args_28"} loc("p149.4283"), %arg150: tensor<1024x3072xbf16> {ttcore.argument_type = #ttcore.argument_type<parameter>, ttcore.shard_status = #ttcore.shard_status<presharded>, ttir.name = "l__self___model_layers__modules__13___self_attn_v_proj_weight"} loc("p150.4291"), %arg151: tensor<32x4x128x256xbf16> {ttcore.argument_type = #ttcore.argument_type<input>, ttcore.shard_status = #ttcore.shard_status<presharded>, ttir.name = "args_29"} loc("p151.4313"), %arg152: tensor<1024x3072xbf16> {ttcore.argument_type = #ttcore.argument_type<parameter>, ttcore.shard_status = #ttcore.shard_status<presharded>, ttir.name = "l__self___model_layers__modules__14___self_attn_k_proj_weight"} loc("p152.4323"), %arg153: tensor<3072x23040xbf16> {ttcore.argument_type = #ttcore.argument_type<parameter>, ttcore.shard_status = #ttcore.shard_status<presharded>, ttir.name = "l__self___model_layers__modules__13___mlp_down_proj_weight"} loc("p153.4332"), %arg154: tensor<23040x3072xbf16> {ttcore.argument_type = #ttcore.argument_type<parameter>, ttcore.shard_status = #ttcore.shard_status<presharded>, ttir.name = "l__self___model_layers__modules__13___mlp_up_proj_weight"} loc("p154.4337"), %arg155: tensor<3072x3072xbf16> {ttcore.argument_type = #ttcore.argument_type<parameter>, ttcore.shard_status = #ttcore.shard_status<presharded>, ttir.name = "l__self___model_layers__modules__13___self_attn_o_proj_weight"} loc("p155.4346"), %arg156: tensor<3072x3072xbf16> {ttcore.argument_type = #ttcore.argument_type<parameter>, ttcore.shard_status = #ttcore.shard_status<presharded>, ttir.name = "l__self___model_layers__modules__13___self_attn_q_proj_weight"} loc("p156.4384"), %arg157: tensor<3072xbf16> {ttcore.argument_type = #ttcore.argument_type<parameter>, ttcore.shard_status = #ttcore.shard_status<presharded>, ttir.name = "l__self___model_layers__modules__13___post_attention_layernorm_weight"} loc("p157.4510"), %arg158: tensor<23040x3072xbf16> {ttcore.argument_type = #ttcore.argument_type<parameter>, ttcore.shard_status = #ttcore.shard_status<presharded>, ttir.name = "l__self___model_layers__modules__13___mlp_gate_proj_weight"} loc("p158.4519"), %arg159: tensor<3072xbf16> {ttcore.argument_type = #ttcore.argument_type<parameter>, ttcore.shard_status = #ttcore.shard_status<presharded>, ttir.name = "l__self___model_layers__modules__14___input_layernorm_weight"} loc("p159.4565"), %arg160: tensor<32x4x128x256xbf16> {ttcore.argument_type = #ttcore.argument_type<input>, ttcore.shard_status = #ttcore.shard_status<presharded>, ttir.name = "args_30"} loc("p160.4602"), %arg161: tensor<1024x3072xbf16> {ttcore.argument_type = #ttcore.argument_type<parameter>, ttcore.shard_status = #ttcore.shard_status<presharded>, ttir.name = "l__self___model_layers__modules__14___self_attn_v_proj_weight"} loc("p161.4610"), %arg162: tensor<32x4x128x256xbf16> {ttcore.argument_type = #ttcore.argument_type<input>, ttcore.shard_status = #ttcore.shard_status<presharded>, ttir.name = "args_31"} loc("p162.4632"), %arg163: tensor<1024x3072xbf16> {ttcore.argument_type = #ttcore.argument_type<parameter>, ttcore.shard_status = #ttcore.shard_status<presharded>, ttir.name = "l__self___model_layers__modules__15___self_attn_k_proj_weight"} loc("p163.4642"), %arg164: tensor<3072x23040xbf16> {ttcore.argument_type = #ttcore.argument_type<parameter>, ttcore.shard_status = #ttcore.shard_status<presharded>, ttir.name = "l__self___model_layers__modules__14___mlp_down_proj_weight"} loc("p164.4651"), %arg165: tensor<23040x3072xbf16> {ttcore.argument_type = #ttcore.argument_type<parameter>, ttcore.shard_status = #ttcore.shard_status<presharded>, ttir.name = "l__self___model_layers__modules__14___mlp_up_proj_weight"} loc("p165.4656"), %arg166: tensor<3072x3072xbf16> {ttcore.argument_type = #ttcore.argument_type<parameter>, ttcore.shard_status = #ttcore.shard_status<presharded>, ttir.name = "l__self___model_layers__modules__14___self_attn_o_proj_weight"} loc("p166.4665"), %arg167: tensor<3072x3072xbf16> {ttcore.argument_type = #ttcore.argument_type<parameter>, ttcore.shard_status = #ttcore.shard_status<presharded>, ttir.name = "l__self___model_layers__modules__14___self_attn_q_proj_weight"} loc("p167.4703"), %arg168: tensor<3072xbf16> {ttcore.argument_type = #ttcore.argument_type<parameter>, ttcore.shard_status = #ttcore.shard_status<presharded>, ttir.name = "l__self___model_layers__modules__14___post_attention_layernorm_weight"} loc("p168.4829"), %arg169: tensor<23040x3072xbf16> {ttcore.argument_type = #ttcore.argument_type<parameter>, ttcore.shard_status = #ttcore.shard_status<presharded>, ttir.name = "l__self___model_layers__modules__14___mlp_gate_proj_weight"} loc("p169.4838"), %arg170: tensor<3072xbf16> {ttcore.argument_type = #ttcore.argument_type<parameter>, ttcore.shard_status = #ttcore.shard_status<presharded>, ttir.name = "l__self___model_layers__modules__15___input_layernorm_weight"} loc("p170.4884"), %arg171: tensor<32x4x128x256xbf16> {ttcore.argument_type = #ttcore.argument_type<input>, ttcore.shard_status = #ttcore.shard_status<presharded>, ttir.name = "args_32"} loc("p171.4921"), %arg172: tensor<1024x3072xbf16> {ttcore.argument_type = #ttcore.argument_type<parameter>, ttcore.shard_status = #ttcore.shard_status<presharded>, ttir.name = "l__self___model_layers__modules__15___self_attn_v_proj_weight"} loc("p172.4929"), %arg173: tensor<32x4x128x256xbf16> {ttcore.argument_type = #ttcore.argument_type<input>, ttcore.shard_status = #ttcore.shard_status<presharded>, ttir.name = "args_33"} loc("p173.4951"), %arg174: tensor<1024x3072xbf16> {ttcore.argument_type = #ttcore.argument_type<parameter>, ttcore.shard_status = #ttcore.shard_status<presharded>, ttir.name = "l__self___model_layers__modules__16___self_attn_k_proj_weight"} loc("p174.4961"), %arg175: tensor<3072x23040xbf16> {ttcore.argument_type = #ttcore.argument_type<parameter>, ttcore.shard_status = #ttcore.shard_status<presharded>, ttir.name = "l__self___model_layers__modules__15___mlp_down_proj_weight"} loc("p175.4970"), %arg176: tensor<23040x3072xbf16> {ttcore.argument_type = #ttcore.argument_type<parameter>, ttcore.shard_status = #ttcore.shard_status<presharded>, ttir.name = "l__self___model_layers__modules__15___mlp_up_proj_weight"} loc("p176.4975"), %arg177: tensor<3072x3072xbf16> {ttcore.argument_type = #ttcore.argument_type<parameter>, ttcore.shard_status = #ttcore.shard_status<presharded>, ttir.name = "l__self___model_layers__modules__15___self_attn_o_proj_weight"} loc("p177.4984"), %arg178: tensor<3072x3072xbf16> {ttcore.argument_type = #ttcore.argument_type<parameter>, ttcore.shard_status = #ttcore.shard_status<presharded>, ttir.name = "l__self___model_layers__modules__15___self_attn_q_proj_weight"} loc("p178.5022"), %arg179: tensor<3072xbf16> {ttcore.argument_type = #ttcore.argument_type<parameter>, ttcore.shard_status = #ttcore.shard_status<presharded>, ttir.name = "l__self___model_layers__modules__15___post_attention_layernorm_weight"} loc("p179.5148"), %arg180: tensor<23040x3072xbf16> {ttcore.argument_type = #ttcore.argument_type<parameter>, ttcore.shard_status = #ttcore.shard_status<presharded>, ttir.name = "l__self___model_layers__modules__15___mlp_gate_proj_weight"} loc("p180.5157"), %arg181: tensor<3072xbf16> {ttcore.argument_type = #ttcore.argument_type<parameter>, ttcore.shard_status = #ttcore.shard_status<presharded>, ttir.name = "l__self___model_layers__modules__16___input_layernorm_weight"} loc("p181.5203"), %arg182: tensor<32x4x128x256xbf16> {ttcore.argument_type = #ttcore.argument_type<input>, ttcore.shard_status = #ttcore.shard_status<presharded>, ttir.name = "args_34"} loc("p182.5240"), %arg183: tensor<1024x3072xbf16> {ttcore.argument_type = #ttcore.argument_type<parameter>, ttcore.shard_status = #ttcore.shard_status<presharded>, ttir.name = "l__self___model_layers__modules__16___self_attn_v_proj_weight"} loc("p183.5248"), %arg184: tensor<32x4x128x256xbf16> {ttcore.argument_type = #ttcore.argument_type<input>, ttcore.shard_status = #ttcore.shard_status<presharded>, ttir.name = "args_35"} loc("p184.5270"), %arg185: tensor<1024x3072xbf16> {ttcore.argument_type = #ttcore.argument_type<parameter>, ttcore.shard_status = #ttcore.shard_status<presharded>, ttir.name = "l__self___model_layers__modules__17___self_attn_k_proj_weight"} loc("p185.5280"), %arg186: tensor<3072x23040xbf16> {ttcore.argument_type = #ttcore.argument_type<parameter>, ttcore.shard_status = #ttcore.shard_status<presharded>, ttir.name = "l__self___model_layers__modules__16___mlp_down_proj_weight"} loc("p186.5289"), %arg187: tensor<23040x3072xbf16> {ttcore.argument_type = #ttcore.argument_type<parameter>, ttcore.shard_status = #ttcore.shard_status<presharded>, ttir.name = "l__self___model_layers__modules__16___mlp_up_proj_weight"} loc("p187.5294"), %arg188: tensor<3072x3072xbf16> {ttcore.argument_type = #ttcore.argument_type<parameter>, ttcore.shard_status = #ttcore.shard_status<presharded>, ttir.name = "l__self___model_layers__modules__16___self_attn_o_proj_weight"} loc("p188.5303"), %arg189: tensor<3072x3072xbf16> {ttcore.argument_type = #ttcore.argument_type<parameter>, ttcore.shard_status = #ttcore.shard_status<presharded>, ttir.name = "l__self___model_layers__modules__16___self_attn_q_proj_weight"} loc("p189.5341"), %arg190: tensor<3072xbf16> {ttcore.argument_type = #ttcore.argument_type<parameter>, ttcore.shard_status = #ttcore.shard_status<presharded>, ttir.name = "l__self___model_layers__modules__16___post_attention_layernorm_weight"} loc("p190.5467"), %arg191: tensor<23040x3072xbf16> {ttcore.argument_type = #ttcore.argument_type<parameter>, ttcore.shard_status = #ttcore.shard_status<presharded>, ttir.name = "l__self___model_layers__modules__16___mlp_gate_proj_weight"} loc("p191.5476"), %arg192: tensor<3072xbf16> {ttcore.argument_type = #ttcore.argument_type<parameter>, ttcore.shard_status = #ttcore.shard_status<presharded>, ttir.name = "l__self___model_layers__modules__17___input_layernorm_weight"} loc("p192.5522"), %arg193: tensor<32x4x128x256xbf16> {ttcore.argument_type = #ttcore.argument_type<input>, ttcore.shard_status = #ttcore.shard_status<presharded>, ttir.name = "args_36"} loc("p193.5559"), %arg194: tensor<1024x3072xbf16> {ttcore.argument_type = #ttcore.argument_type<parameter>, ttcore.shard_status = #ttcore.shard_status<presharded>, ttir.name = "l__self___model_layers__modules__17___self_attn_v_proj_weight"} loc("p194.5567"), %arg195: tensor<32x4x128x256xbf16> {ttcore.argument_type = #ttcore.argument_type<input>, ttcore.shard_status = #ttcore.shard_status<presharded>, ttir.name = "args_37"} loc("p195.5589"), %arg196: tensor<1024x3072xbf16> {ttcore.argument_type = #ttcore.argument_type<parameter>, ttcore.shard_status = #ttcore.shard_status<presharded>, ttir.name = "l__self___model_layers__modules__18___self_attn_k_proj_weight"} loc("p196.5599"), %arg197: tensor<3072x23040xbf16> {ttcore.argument_type = #ttcore.argument_type<parameter>, ttcore.shard_status = #ttcore.shard_status<presharded>, ttir.name = "l__self___model_layers__modules__17___mlp_down_proj_weight"} loc("p197.5608"), %arg198: tensor<23040x3072xbf16> {ttcore.argument_type = #ttcore.argument_type<parameter>, ttcore.shard_status = #ttcore.shard_status<presharded>, ttir.name = "l__self___model_layers__modules__17___mlp_up_proj_weight"} loc("p198.5613"), %arg199: tensor<3072x3072xbf16> {ttcore.argument_type = #ttcore.argument_type<parameter>, ttcore.shard_status = #ttcore.shard_status<presharded>, ttir.name = "l__self___model_layers__modules__17___self_attn_o_proj_weight"} loc("p199.5622"), %arg200: tensor<3072x3072xbf16> {ttcore.argument_type = #ttcore.argument_type<parameter>, ttcore.shard_status = #ttcore.shard_status<presharded>, ttir.name = "l__self___model_layers__modules__17___self_attn_q_proj_weight"} loc("p200.5660"), %arg201: tensor<3072xbf16> {ttcore.argument_type = #ttcore.argument_type<parameter>, ttcore.shard_status = #ttcore.shard_status<presharded>, ttir.name = "l__self___model_layers__modules__17___post_attention_layernorm_weight"} loc("p201.5786"), %arg202: tensor<23040x3072xbf16> {ttcore.argument_type = #ttcore.argument_type<parameter>, ttcore.shard_status = #ttcore.shard_status<presharded>, ttir.name = "l__self___model_layers__modules__17___mlp_gate_proj_weight"} loc("p202.5795"), %arg203: tensor<3072xbf16> {ttcore.argument_type = #ttcore.argument_type<parameter>, ttcore.shard_status = #ttcore.shard_status<presharded>, ttir.name = "l__self___model_layers__modules__18___input_layernorm_weight"} loc("p203.5841"), %arg204: tensor<32x4x128x256xbf16> {ttcore.argument_type = #ttcore.argument_type<input>, ttcore.shard_status = #ttcore.shard_status<presharded>, ttir.name = "args_38"} loc("p204.5878"), %arg205: tensor<1024x3072xbf16> {ttcore.argument_type = #ttcore.argument_type<parameter>, ttcore.shard_status = #ttcore.shard_status<presharded>, ttir.name = "l__self___model_layers__modules__18___self_attn_v_proj_weight"} loc("p205.5886"), %arg206: tensor<32x4x128x256xbf16> {ttcore.argument_type = #ttcore.argument_type<input>, ttcore.shard_status = #ttcore.shard_status<presharded>, ttir.name = "args_39"} loc("p206.5908"), %arg207: tensor<1024x3072xbf16> {ttcore.argument_type = #ttcore.argument_type<parameter>, ttcore.shard_status = #ttcore.shard_status<presharded>, ttir.name = "l__self___model_layers__modules__19___self_attn_k_proj_weight"} loc("p207.5918"), %arg208: tensor<3072x23040xbf16> {ttcore.argument_type = #ttcore.argument_type<parameter>, ttcore.shard_status = #ttcore.shard_status<presharded>, ttir.name = "l__self___model_layers__modules__18___mlp_down_proj_weight"} loc("p208.5927"), %arg209: tensor<23040x3072xbf16> {ttcore.argument_type = #ttcore.argument_type<parameter>, ttcore.shard_status = #ttcore.shard_status<presharded>, ttir.name = "l__self___model_layers__modules__18___mlp_up_proj_weight"} loc("p209.5932"), %arg210: tensor<3072x3072xbf16> {ttcore.argument_type = #ttcore.argument_type<parameter>, ttcore.shard_status = #ttcore.shard_status<presharded>, ttir.name = "l__self___model_layers__modules__18___self_attn_o_proj_weight"} loc("p210.5941"), %arg211: tensor<3072x3072xbf16> {ttcore.argument_type = #ttcore.argument_type<parameter>, ttcore.shard_status = #ttcore.shard_status<presharded>, ttir.name = "l__self___model_layers__modules__18___self_attn_q_proj_weight"} loc("p211.5979"), %arg212: tensor<3072xbf16> {ttcore.argument_type = #ttcore.argument_type<parameter>, ttcore.shard_status = #ttcore.shard_status<presharded>, ttir.name = "l__self___model_layers__modules__18___post_attention_layernorm_weight"} loc("p212.6105"), %arg213: tensor<23040x3072xbf16> {ttcore.argument_type = #ttcore.argument_type<parameter>, ttcore.shard_status = #ttcore.shard_status<presharded>, ttir.name = "l__self___model_layers__modules__18___mlp_gate_proj_weight"} loc("p213.6114"), %arg214: tensor<3072xbf16> {ttcore.argument_type = #ttcore.argument_type<parameter>, ttcore.shard_status = #ttcore.shard_status<presharded>, ttir.name = "l__self___model_layers__modules__19___input_layernorm_weight"} loc("p214.6160"), %arg215: tensor<32x4x128x256xbf16> {ttcore.argument_type = #ttcore.argument_type<input>, ttcore.shard_status = #ttcore.shard_status<presharded>, ttir.name = "args_40"} loc("p215.6197"), %arg216: tensor<1024x3072xbf16> {ttcore.argument_type = #ttcore.argument_type<parameter>, ttcore.shard_status = #ttcore.shard_status<presharded>, ttir.name = "l__self___model_layers__modules__19___self_attn_v_proj_weight"} loc("p216.6205"), %arg217: tensor<32x4x128x256xbf16> {ttcore.argument_type = #ttcore.argument_type<input>, ttcore.shard_status = #ttcore.shard_status<presharded>, ttir.name = "args_41"} loc("p217.6227"), %arg218: tensor<1024x3072xbf16> {ttcore.argument_type = #ttcore.argument_type<parameter>, ttcore.shard_status = #ttcore.shard_status<presharded>, ttir.name = "l__self___model_layers__modules__20___self_attn_k_proj_weight"} loc("p218.6237"), %arg219: tensor<3072x23040xbf16> {ttcore.argument_type = #ttcore.argument_type<parameter>, ttcore.shard_status = #ttcore.shard_status<presharded>, ttir.name = "l__self___model_layers__modules__19___mlp_down_proj_weight"} loc("p219.6246"), %arg220: tensor<23040x3072xbf16> {ttcore.argument_type = #ttcore.argument_type<parameter>, ttcore.shard_status = #ttcore.shard_status<presharded>, ttir.name = "l__self___model_layers__modules__19___mlp_up_proj_weight"} loc("p220.6251"), %arg221: tensor<3072x3072xbf16> {ttcore.argument_type = #ttcore.argument_type<parameter>, ttcore.shard_status = #ttcore.shard_status<presharded>, ttir.name = "l__self___model_layers__modules__19___self_attn_o_proj_weight"} loc("p221.6260"), %arg222: tensor<3072x3072xbf16> {ttcore.argument_type = #ttcore.argument_type<parameter>, ttcore.shard_status = #ttcore.shard_status<presharded>, ttir.name = "l__self___model_layers__modules__19___self_attn_q_proj_weight"} loc("p222.6298"), %arg223: tensor<3072xbf16> {ttcore.argument_type = #ttcore.argument_type<parameter>, ttcore.shard_status = #ttcore.shard_status<presharded>, ttir.name = "l__self___model_layers__modules__19___post_attention_layernorm_weight"} loc("p223.6424"), %arg224: tensor<23040x3072xbf16> {ttcore.argument_type = #ttcore.argument_type<parameter>, ttcore.shard_status = #ttcore.shard_status<presharded>, ttir.name = "l__self___model_layers__modules__19___mlp_gate_proj_weight"} loc("p224.6433"), %arg225: tensor<3072xbf16> {ttcore.argument_type = #ttcore.argument_type<parameter>, ttcore.shard_status = #ttcore.shard_status<presharded>, ttir.name = "l__self___model_layers__modules__20___input_layernorm_weight"} loc("p225.6479"), %arg226: tensor<32x4x128x256xbf16> {ttcore.argument_type = #ttcore.argument_type<input>, ttcore.shard_status = #ttcore.shard_status<presharded>, ttir.name = "args_42"} loc("p226.6516"), %arg227: tensor<1024x3072xbf16> {ttcore.argument_type = #ttcore.argument_type<parameter>, ttcore.shard_status = #ttcore.shard_status<presharded>, ttir.name = "l__self___model_layers__modules__20___self_attn_v_proj_weight"} loc("p227.6524"), %arg228: tensor<32x4x128x256xbf16> {ttcore.argument_type = #ttcore.argument_type<input>, ttcore.shard_status = #ttcore.shard_status<presharded>, ttir.name = "args_43"} loc("p228.6546"), %arg229: tensor<1024x3072xbf16> {ttcore.argument_type = #ttcore.argument_type<parameter>, ttcore.shard_status = #ttcore.shard_status<presharded>, ttir.name = "l__self___model_layers__modules__21___self_attn_k_proj_weight"} loc("p229.6556"), %arg230: tensor<3072x23040xbf16> {ttcore.argument_type = #ttcore.argument_type<parameter>, ttcore.shard_status = #ttcore.shard_status<presharded>, ttir.name = "l__self___model_layers__modules__20___mlp_down_proj_weight"} loc("p230.6565"), %arg231: tensor<23040x3072xbf16> {ttcore.argument_type = #ttcore.argument_type<parameter>, ttcore.shard_status = #ttcore.shard_status<presharded>, ttir.name = "l__self___model_layers__modules__20___mlp_up_proj_weight"} loc("p231.6570"), %arg232: tensor<3072x3072xbf16> {ttcore.argument_type = #ttcore.argument_type<parameter>, ttcore.shard_status = #ttcore.shard_status<presharded>, ttir.name = "l__self___model_layers__modules__20___self_attn_o_proj_weight"} loc("p232.6579"), %arg233: tensor<3072x3072xbf16> {ttcore.argument_type = #ttcore.argument_type<parameter>, ttcore.shard_status = #ttcore.shard_status<presharded>, ttir.name = "l__self___model_layers__modules__20___self_attn_q_proj_weight"} loc("p233.6617"), %arg234: tensor<3072xbf16> {ttcore.argument_type = #ttcore.argument_type<parameter>, ttcore.shard_status = #ttcore.shard_status<presharded>, ttir.name = "l__self___model_layers__modules__20___post_attention_layernorm_weight"} loc("p234.6743"), %arg235: tensor<23040x3072xbf16> {ttcore.argument_type = #ttcore.argument_type<parameter>, ttcore.shard_status = #ttcore.shard_status<presharded>, ttir.name = "l__self___model_layers__modules__20___mlp_gate_proj_weight"} loc("p235.6752"), %arg236: tensor<3072xbf16> {ttcore.argument_type = #ttcore.argument_type<parameter>, ttcore.shard_status = #ttcore.shard_status<presharded>, ttir.name = "l__self___model_layers__modules__21___input_layernorm_weight"} loc("p236.6798"), %arg237: tensor<32x4x128x256xbf16> {ttcore.argument_type = #ttcore.argument_type<input>, ttcore.shard_status = #ttcore.shard_status<presharded>, ttir.name = "args_44"} loc("p237.6835"), %arg238: tensor<1024x3072xbf16> {ttcore.argument_type = #ttcore.argument_type<parameter>, ttcore.shard_status = #ttcore.shard_status<presharded>, ttir.name = "l__self___model_layers__modules__21___self_attn_v_proj_weight"} loc("p238.6843"), %arg239: tensor<32x4x128x256xbf16> {ttcore.argument_type = #ttcore.argument_type<input>, ttcore.shard_status = #ttcore.shard_status<presharded>, ttir.name = "args_45"} loc("p239.6865"), %arg240: tensor<1024x3072xbf16> {ttcore.argument_type = #ttcore.argument_type<parameter>, ttcore.shard_status = #ttcore.shard_status<presharded>, ttir.name = "l__self___model_layers__modules__22___self_attn_k_proj_weight"} loc("p240.6875"), %arg241: tensor<3072x23040xbf16> {ttcore.argument_type = #ttcore.argument_type<parameter>, ttcore.shard_status = #ttcore.shard_status<presharded>, ttir.name = "l__self___model_layers__modules__21___mlp_down_proj_weight"} loc("p241.6884"), %arg242: tensor<23040x3072xbf16> {ttcore.argument_type = #ttcore.argument_type<parameter>, ttcore.shard_status = #ttcore.shard_status<presharded>, ttir.name = "l__self___model_layers__modules__21___mlp_up_proj_weight"} loc("p242.6889"), %arg243: tensor<3072x3072xbf16> {ttcore.argument_type = #ttcore.argument_type<parameter>, ttcore.shard_status = #ttcore.shard_status<presharded>, ttir.name = "l__self___model_layers__modules__21___self_attn_o_proj_weight"} loc("p243.6898"), %arg244: tensor<3072x3072xbf16> {ttcore.argument_type = #ttcore.argument_type<parameter>, ttcore.shard_status = #ttcore.shard_status<presharded>, ttir.name = "l__self___model_layers__modules__21___self_attn_q_proj_weight"} loc("p244.6936"), %arg245: tensor<3072xbf16> {ttcore.argument_type = #ttcore.argument_type<parameter>, ttcore.shard_status = #ttcore.shard_status<presharded>, ttir.name = "l__self___model_layers__modules__21___post_attention_layernorm_weight"} loc("p245.7062"), %arg246: tensor<23040x3072xbf16> {ttcore.argument_type = #ttcore.argument_type<parameter>, ttcore.shard_status = #ttcore.shard_status<presharded>, ttir.name = "l__self___model_layers__modules__21___mlp_gate_proj_weight"} loc("p246.7071"), %arg247: tensor<3072xbf16> {ttcore.argument_type = #ttcore.argument_type<parameter>, ttcore.shard_status = #ttcore.shard_status<presharded>, ttir.name = "l__self___model_layers__modules__22___input_layernorm_weight"} loc("p247.7117"), %arg248: tensor<32x4x128x256xbf16> {ttcore.argument_type = #ttcore.argument_type<input>, ttcore.shard_status = #ttcore.shard_status<presharded>, ttir.name = "args_46"} loc("p248.7154"), %arg249: tensor<1024x3072xbf16> {ttcore.argument_type = #ttcore.argument_type<parameter>, ttcore.shard_status = #ttcore.shard_status<presharded>, ttir.name = "l__self___model_layers__modules__22___self_attn_v_proj_weight"} loc("p249.7162"), %arg250: tensor<32x4x128x256xbf16> {ttcore.argument_type = #ttcore.argument_type<input>, ttcore.shard_status = #ttcore.shard_status<presharded>, ttir.name = "args_47"} loc("p250.7184"), %arg251: tensor<1024x3072xbf16> {ttcore.argument_type = #ttcore.argument_type<parameter>, ttcore.shard_status = #ttcore.shard_status<presharded>, ttir.name = "l__self___model_layers__modules__23___self_attn_k_proj_weight"} loc("p251.7194"), %arg252: tensor<3072x23040xbf16> {ttcore.argument_type = #ttcore.argument_type<parameter>, ttcore.shard_status = #ttcore.shard_status<presharded>, ttir.name = "l__self___model_layers__modules__22___mlp_down_proj_weight"} loc("p252.7203"), %arg253: tensor<23040x3072xbf16> {ttcore.argument_type = #ttcore.argument_type<parameter>, ttcore.shard_status = #ttcore.shard_status<presharded>, ttir.name = "l__self___model_layers__modules__22___mlp_up_proj_weight"} loc("p253.7208"), %arg254: tensor<3072x3072xbf16> {ttcore.argument_type = #ttcore.argument_type<parameter>, ttcore.shard_status = #ttcore.shard_status<presharded>, ttir.name = "l__self___model_layers__modules__22___self_attn_o_proj_weight"} loc("p254.7217"), %arg255: tensor<3072x3072xbf16> {ttcore.argument_type = #ttcore.argument_type<parameter>, ttcore.shard_status = #ttcore.shard_status<presharded>, ttir.name = "l__self___model_layers__modules__22___self_attn_q_proj_weight"} loc("p255.7255"), %arg256: tensor<3072xbf16> {ttcore.argument_type = #ttcore.argument_type<parameter>, ttcore.shard_status = #ttcore.shard_status<presharded>, ttir.name = "l__self___model_layers__modules__22___post_attention_layernorm_weight"} loc("p256.7381"), %arg257: tensor<23040x3072xbf16> {ttcore.argument_type = #ttcore.argument_type<parameter>, ttcore.shard_status = #ttcore.shard_status<presharded>, ttir.name = "l__self___model_layers__modules__22___mlp_gate_proj_weight"} loc("p257.7390"), %arg258: tensor<3072xbf16> {ttcore.argument_type = #ttcore.argument_type<parameter>, ttcore.shard_status = #ttcore.shard_status<presharded>, ttir.name = "l__self___model_layers__modules__23___input_layernorm_weight"} loc("p258.7436"), %arg259: tensor<32x4x128x256xbf16> {ttcore.argument_type = #ttcore.argument_type<input>, ttcore.shard_status = #ttcore.shard_status<presharded>, ttir.name = "args_48"} loc("p259.7473"), %arg260: tensor<1024x3072xbf16> {ttcore.argument_type = #ttcore.argument_type<parameter>, ttcore.shard_status = #ttcore.shard_status<presharded>, ttir.name = "l__self___model_layers__modules__23___self_attn_v_proj_weight"} loc("p260.7481"), %arg261: tensor<32x4x128x256xbf16> {ttcore.argument_type = #ttcore.argument_type<input>, ttcore.shard_status = #ttcore.shard_status<presharded>, ttir.name = "args_49"} loc("p261.7503"), %arg262: tensor<1024x3072xbf16> {ttcore.argument_type = #ttcore.argument_type<parameter>, ttcore.shard_status = #ttcore.shard_status<presharded>, ttir.name = "l__self___model_layers__modules__24___self_attn_k_proj_weight"} loc("p262.7513"), %arg263: tensor<3072x23040xbf16> {ttcore.argument_type = #ttcore.argument_type<parameter>, ttcore.shard_status = #ttcore.shard_status<presharded>, ttir.name = "l__self___model_layers__modules__23___mlp_down_proj_weight"} loc("p263.7522"), %arg264: tensor<23040x3072xbf16> {ttcore.argument_type = #ttcore.argument_type<parameter>, ttcore.shard_status = #ttcore.shard_status<presharded>, ttir.name = "l__self___model_layers__modules__23___mlp_up_proj_weight"} loc("p264.7527"), %arg265: tensor<3072x3072xbf16> {ttcore.argument_type = #ttcore.argument_type<parameter>, ttcore.shard_status = #ttcore.shard_status<presharded>, ttir.name = "l__self___model_layers__modules__23___self_attn_o_proj_weight"} loc("p265.7536"), %arg266: tensor<3072x3072xbf16> {ttcore.argument_type = #ttcore.argument_type<parameter>, ttcore.shard_status = #ttcore.shard_status<presharded>, ttir.name = "l__self___model_layers__modules__23___self_attn_q_proj_weight"} loc("p266.7574"), %arg267: tensor<3072xbf16> {ttcore.argument_type = #ttcore.argument_type<parameter>, ttcore.shard_status = #ttcore.shard_status<presharded>, ttir.name = "l__self___model_layers__modules__23___post_attention_layernorm_weight"} loc("p267.7700"), %arg268: tensor<23040x3072xbf16> {ttcore.argument_type = #ttcore.argument_type<parameter>, ttcore.shard_status = #ttcore.shard_status<presharded>, ttir.name = "l__self___model_layers__modules__23___mlp_gate_proj_weight"} loc("p268.7709"), %arg269: tensor<3072xbf16> {ttcore.argument_type = #ttcore.argument_type<parameter>, ttcore.shard_status = #ttcore.shard_status<presharded>, ttir.name = "l__self___model_layers__modules__24___input_layernorm_weight"} loc("p269.7755"), %arg270: tensor<32x4x128x256xbf16> {ttcore.argument_type = #ttcore.argument_type<input>, ttcore.shard_status = #ttcore.shard_status<presharded>, ttir.name = "args_50"} loc("p270.7792"), %arg271: tensor<1024x3072xbf16> {ttcore.argument_type = #ttcore.argument_type<parameter>, ttcore.shard_status = #ttcore.shard_status<presharded>, ttir.name = "l__self___model_layers__modules__24___self_attn_v_proj_weight"} loc("p271.7800"), %arg272: tensor<32x4x128x256xbf16> {ttcore.argument_type = #ttcore.argument_type<input>, ttcore.shard_status = #ttcore.shard_status<presharded>, ttir.name = "args_51"} loc("p272.7822"), %arg273: tensor<1024x3072xbf16> {ttcore.argument_type = #ttcore.argument_type<parameter>, ttcore.shard_status = #ttcore.shard_status<presharded>, ttir.name = "l__self___model_layers__modules__25___self_attn_k_proj_weight"} loc("p273.7832"), %arg274: tensor<3072x23040xbf16> {ttcore.argument_type = #ttcore.argument_type<parameter>, ttcore.shard_status = #ttcore.shard_status<presharded>, ttir.name = "l__self___model_layers__modules__24___mlp_down_proj_weight"} loc("p274.7841"), %arg275: tensor<23040x3072xbf16> {ttcore.argument_type = #ttcore.argument_type<parameter>, ttcore.shard_status = #ttcore.shard_status<presharded>, ttir.name = "l__self___model_layers__modules__24___mlp_up_proj_weight"} loc("p275.7846"), %arg276: tensor<3072x3072xbf16> {ttcore.argument_type = #ttcore.argument_type<parameter>, ttcore.shard_status = #ttcore.shard_status<presharded>, ttir.name = "l__self___model_layers__modules__24___self_attn_o_proj_weight"} loc("p276.7855"), %arg277: tensor<3072x3072xbf16> {ttcore.argument_type = #ttcore.argument_type<parameter>, ttcore.shard_status = #ttcore.shard_status<presharded>, ttir.name = "l__self___model_layers__modules__24___self_attn_q_proj_weight"} loc("p277.7893"), %arg278: tensor<3072xbf16> {ttcore.argument_type = #ttcore.argument_type<parameter>, ttcore.shard_status = #ttcore.shard_status<presharded>, ttir.name = "l__self___model_layers__modules__24___post_attention_layernorm_weight"} loc("p278.8019"), %arg279: tensor<23040x3072xbf16> {ttcore.argument_type = #ttcore.argument_type<parameter>, ttcore.shard_status = #ttcore.shard_status<presharded>, ttir.name = "l__self___model_layers__modules__24___mlp_gate_proj_weight"} loc("p279.8028"), %arg280: tensor<3072xbf16> {ttcore.argument_type = #ttcore.argument_type<parameter>, ttcore.shard_status = #ttcore.shard_status<presharded>, ttir.name = "l__self___model_layers__modules__25___input_layernorm_weight"} loc("p280.8074"), %arg281: tensor<32x4x128x256xbf16> {ttcore.argument_type = #ttcore.argument_type<input>, ttcore.shard_status = #ttcore.shard_status<presharded>, ttir.name = "args_52"} loc("p281.8111"), %arg282: tensor<1024x3072xbf16> {ttcore.argument_type = #ttcore.argument_type<parameter>, ttcore.shard_status = #ttcore.shard_status<presharded>, ttir.name = "l__self___model_layers__modules__25___self_attn_v_proj_weight"} loc("p282.8119"), %arg283: tensor<32x4x128x256xbf16> {ttcore.argument_type = #ttcore.argument_type<input>, ttcore.shard_status = #ttcore.shard_status<presharded>, ttir.name = "args_53"} loc("p283.8141"), %arg284: tensor<1024x3072xbf16> {ttcore.argument_type = #ttcore.argument_type<parameter>, ttcore.shard_status = #ttcore.shard_status<presharded>, ttir.name = "l__self___model_layers__modules__26___self_attn_k_proj_weight"} loc("p284.8151"), %arg285: tensor<3072x23040xbf16> {ttcore.argument_type = #ttcore.argument_type<parameter>, ttcore.shard_status = #ttcore.shard_status<presharded>, ttir.name = "l__self___model_layers__modules__25___mlp_down_proj_weight"} loc("p285.8160"), %arg286: tensor<23040x3072xbf16> {ttcore.argument_type = #ttcore.argument_type<parameter>, ttcore.shard_status = #ttcore.shard_status<presharded>, ttir.name = "l__self___model_layers__modules__25___mlp_up_proj_weight"} loc("p286.8165"), %arg287: tensor<3072x3072xbf16> {ttcore.argument_type = #ttcore.argument_type<parameter>, ttcore.shard_status = #ttcore.shard_status<presharded>, ttir.name = "l__self___model_layers__modules__25___self_attn_o_proj_weight"} loc("p287.8174"), %arg288: tensor<3072x3072xbf16> {ttcore.argument_type = #ttcore.argument_type<parameter>, ttcore.shard_status = #ttcore.shard_status<presharded>, ttir.name = "l__self___model_layers__modules__25___self_attn_q_proj_weight"} loc("p288.8212"), %arg289: tensor<3072xbf16> {ttcore.argument_type = #ttcore.argument_type<parameter>, ttcore.shard_status = #ttcore.shard_status<presharded>, ttir.name = "l__self___model_layers__modules__25___post_attention_layernorm_weight"} loc("p289.8338"), %arg290: tensor<23040x3072xbf16> {ttcore.argument_type = #ttcore.argument_type<parameter>, ttcore.shard_status = #ttcore.shard_status<presharded>, ttir.name = "l__self___model_layers__modules__25___mlp_gate_proj_weight"} loc("p290.8347"), %arg291: tensor<3072xbf16> {ttcore.argument_type = #ttcore.argument_type<parameter>, ttcore.shard_status = #ttcore.shard_status<presharded>, ttir.name = "l__self___model_layers__modules__26___input_layernorm_weight"} loc("p291.8393"), %arg292: tensor<32x4x128x256xbf16> {ttcore.argument_type = #ttcore.argument_type<input>, ttcore.shard_status = #ttcore.shard_status<presharded>, ttir.name = "args_54"} loc("p292.8430"), %arg293: tensor<1024x3072xbf16> {ttcore.argument_type = #ttcore.argument_type<parameter>, ttcore.shard_status = #ttcore.shard_status<presharded>, ttir.name = "l__self___model_layers__modules__26___self_attn_v_proj_weight"} loc("p293.8438"), %arg294: tensor<32x4x128x256xbf16> {ttcore.argument_type = #ttcore.argument_type<input>, ttcore.shard_status = #ttcore.shard_status<presharded>, ttir.name = "args_55"} loc("p294.8460"), %arg295: tensor<1024x3072xbf16> {ttcore.argument_type = #ttcore.argument_type<parameter>, ttcore.shard_status = #ttcore.shard_status<presharded>, ttir.name = "l__self___model_layers__modules__27___self_attn_k_proj_weight"} loc("p295.8470"), %arg296: tensor<3072x23040xbf16> {ttcore.argument_type = #ttcore.argument_type<parameter>, ttcore.shard_status = #ttcore.shard_status<presharded>, ttir.name = "l__self___model_layers__modules__26___mlp_down_proj_weight"} loc("p296.8479"), %arg297: tensor<23040x3072xbf16> {ttcore.argument_type = #ttcore.argument_type<parameter>, ttcore.shard_status = #ttcore.shard_status<presharded>, ttir.name = "l__self___model_layers__modules__26___mlp_up_proj_weight"} loc("p297.8484"), %arg298: tensor<3072x3072xbf16> {ttcore.argument_type = #ttcore.argument_type<parameter>, ttcore.shard_status = #ttcore.shard_status<presharded>, ttir.name = "l__self___model_layers__modules__26___self_attn_o_proj_weight"} loc("p298.8493"), %arg299: tensor<3072x3072xbf16> {ttcore.argument_type = #ttcore.argument_type<parameter>, ttcore.shard_status = #ttcore.shard_status<presharded>, ttir.name = "l__self___model_layers__modules__26___self_attn_q_proj_weight"} loc("p299.8531"), %arg300: tensor<3072xbf16> {ttcore.argument_type = #ttcore.argument_type<parameter>, ttcore.shard_status = #ttcore.shard_status<presharded>, ttir.name = "l__self___model_layers__modules__26___post_attention_layernorm_weight"} loc("p300.8657"), %arg301: tensor<23040x3072xbf16> {ttcore.argument_type = #ttcore.argument_type<parameter>, ttcore.shard_status = #ttcore.shard_status<presharded>, ttir.name = "l__self___model_layers__modules__26___mlp_gate_proj_weight"} loc("p301.8666"), %arg302: tensor<3072xbf16> {ttcore.argument_type = #ttcore.argument_type<parameter>, ttcore.shard_status = #ttcore.shard_status<presharded>, ttir.name = "l__self___model_layers__modules__27___input_layernorm_weight"} loc("p302.8712"), %arg303: tensor<32x4x128x256xbf16> {ttcore.argument_type = #ttcore.argument_type<input>, ttcore.shard_status = #ttcore.shard_status<presharded>, ttir.name = "args_56"} loc("p303.8749"), %arg304: tensor<1024x3072xbf16> {ttcore.argument_type = #ttcore.argument_type<parameter>, ttcore.shard_status = #ttcore.shard_status<presharded>, ttir.name = "l__self___model_layers__modules__27___self_attn_v_proj_weight"} loc("p304.8757"), %arg305: tensor<32x4x128x256xbf16> {ttcore.argument_type = #ttcore.argument_type<input>, ttcore.shard_status = #ttcore.shard_status<presharded>, ttir.name = "args_57"} loc("p305.8779"), %arg306: tensor<131072x3072xbf16> {ttcore.argument_type = #ttcore.argument_type<parameter>, ttcore.shard_status = #ttcore.shard_status<presharded>, ttir.name = "l__self___lm_head_weight"} loc("p306.8787"), %arg307: tensor<3072x23040xbf16> {ttcore.argument_type = #ttcore.argument_type<parameter>, ttcore.shard_status = #ttcore.shard_status<presharded>, ttir.name = "l__self___model_layers__modules__27___mlp_down_proj_weight"} loc("p307.8796"), %arg308: tensor<23040x3072xbf16> {ttcore.argument_type = #ttcore.argument_type<parameter>, ttcore.shard_status = #ttcore.shard_status<presharded>, ttir.name = "l__self___model_layers__modules__27___mlp_up_proj_weight"} loc("p308.8801"), %arg309: tensor<3072x3072xbf16> {ttcore.argument_type = #ttcore.argument_type<parameter>, ttcore.shard_status = #ttcore.shard_status<presharded>, ttir.name = "l__self___model_layers__modules__27___self_attn_o_proj_weight"} loc("p309.8810"), %arg310: tensor<3072x3072xbf16> {ttcore.argument_type = #ttcore.argument_type<parameter>, ttcore.shard_status = #ttcore.shard_status<presharded>, ttir.name = "l__self___model_layers__modules__27___self_attn_q_proj_weight"} loc("p310.8848"), %arg311: tensor<3072xbf16> {ttcore.argument_type = #ttcore.argument_type<parameter>, ttcore.shard_status = #ttcore.shard_status<presharded>, ttir.name = "l__self___model_layers__modules__27___post_attention_layernorm_weight"} loc("p311.8974"), %arg312: tensor<23040x3072xbf16> {ttcore.argument_type = #ttcore.argument_type<parameter>, ttcore.shard_status = #ttcore.shard_status<presharded>, ttir.name = "l__self___model_layers__modules__27___mlp_gate_proj_weight"} loc("p312.8983"), %arg313: tensor<3072xbf16> {ttcore.argument_type = #ttcore.argument_type<parameter>, ttcore.shard_status = #ttcore.shard_status<presharded>, ttir.name = "l__self___model_norm_weight"} loc("p313.9029")) -> (tensor<32x4x128x256xbf16> {ttcore.shard_status = #ttcore.shard_status<unsharded>}, tensor<32x4x128x256xbf16> {ttcore.shard_status = #ttcore.shard_status<unsharded>}, tensor<32x4x128x256xbf16> {ttcore.shard_status = #ttcore.shard_status<unsharded>}, tensor<32x4x128x256xbf16> {ttcore.shard_status = #ttcore.shard_status<unsharded>}, tensor<32x4x128x256xbf16> {ttcore.shard_status = #ttcore.shard_status<unsharded>}, tensor<32x4x128x256xbf16> {ttcore.shard_status = #ttcore.shard_status<unsharded>}, tensor<32x4x128x256xbf16> {ttcore.shard_status = #ttcore.shard_status<unsharded>}, tensor<32x4x128x256xbf16> {ttcore.shard_status = #ttcore.shard_status<unsharded>}, tensor<32x4x128x256xbf16> {ttcore.shard_status = #ttcore.shard_status<unsharded>}, tensor<32x4x128x256xbf16> {ttcore.shard_status = #ttcore.shard_status<unsharded>}, tensor<32x4x128x256xbf16> {ttcore.shard_status = #ttcore.shard_status<unsharded>}, tensor<32x4x128x256xbf16> {ttcore.shard_status = #ttcore.shard_status<unsharded>}, tensor<32x4x128x256xbf16> {ttcore.shard_status = #ttcore.shard_status<unsharded>}, tensor<32x4x128x256xbf16> {ttcore.shard_status = #ttcore.shard_status<unsharded>}, tensor<32x4x128x256xbf16> {ttcore.shard_status = #ttcore.shard_status<unsharded>}, tensor<32x4x128x256xbf16> {ttcore.shard_status = #ttcore.shard_status<unsharded>}, tensor<32x4x128x256xbf16> {ttcore.shard_status = #ttcore.shard_status<unsharded>}, tensor<32x4x128x256xbf16> {ttcore.shard_status = #ttcore.shard_status<unsharded>}, tensor<32x4x128x256xbf16> {ttcore.shard_status = #ttcore.shard_status<unsharded>}, tensor<32x4x128x256xbf16> {ttcore.shard_status = #ttcore.shard_status<unsharded>}, tensor<32x4x128x256xbf16> {ttcore.shard_status = #ttcore.shard_status<unsharded>}, tensor<32x4x128x256xbf16> {ttcore.shard_status = #ttcore.shard_status<unsharded>}, tensor<32x4x128x256xbf16> {ttcore.shard_status = #ttcore.shard_status<unsharded>}, tensor<32x4x128x256xbf16> {ttcore.shard_status = #ttcore.shard_status<unsharded>}, tensor<32x4x128x256xbf16> {ttcore.shard_status = #ttcore.shard_status<unsharded>}, tensor<32x4x128x256xbf16> {ttcore.shard_status = #ttcore.shard_status<unsharded>}, tensor<32x4x128x256xbf16> {ttcore.shard_status = #ttcore.shard_status<unsharded>}, tensor<32x4x128x256xbf16> {ttcore.shard_status = #ttcore.shard_status<unsharded>}, tensor<32x4x128x256xbf16> {ttcore.shard_status = #ttcore.shard_status<unsharded>}, tensor<32x4x128x256xbf16> {ttcore.shard_status = #ttcore.shard_status<unsharded>}, tensor<32x4x128x256xbf16> {ttcore.shard_status = #ttcore.shard_status<unsharded>}, tensor<32x4x128x256xbf16> {ttcore.shard_status = #ttcore.shard_status<unsharded>}, tensor<32x4x128x256xbf16> {ttcore.shard_status = #ttcore.shard_status<unsharded>}, tensor<32x4x128x256xbf16> {ttcore.shard_status = #ttcore.shard_status<unsharded>}, tensor<32x4x128x256xbf16> {ttcore.shard_status = #ttcore.shard_status<unsharded>}, tensor<32x4x128x256xbf16> {ttcore.shard_status = #ttcore.shard_status<unsharded>}, tensor<32x4x128x256xbf16> {ttcore.shard_status = #ttcore.shard_status<unsharded>}, tensor<32x4x128x256xbf16> {ttcore.shard_status = #ttcore.shard_status<unsharded>}, tensor<32x4x128x256xbf16> {ttcore.shard_status = #ttcore.shard_status<unsharded>}, tensor<32x4x128x256xbf16> {ttcore.shard_status = #ttcore.shard_status<unsharded>}, tensor<32x4x128x256xbf16> {ttcore.shard_status = #ttcore.shard_status<unsharded>}, tensor<32x4x128x256xbf16> {ttcore.shard_status = #ttcore.shard_status<unsharded>}, tensor<32x4x128x256xbf16> {ttcore.shard_status = #ttcore.shard_status<unsharded>}, tensor<32x4x128x256xbf16> {ttcore.shard_status = #ttcore.shard_status<unsharded>}, tensor<32x4x128x256xbf16> {ttcore.shard_status = #ttcore.shard_status<unsharded>}, tensor<32x4x128x256xbf16> {ttcore.shard_status = #ttcore.shard_status<unsharded>}, tensor<32x4x128x256xbf16> {ttcore.shard_status = #ttcore.shard_status<unsharded>}, tensor<32x4x128x256xbf16> {ttcore.shard_status = #ttcore.shard_status<unsharded>}, tensor<32x4x128x256xbf16> {ttcore.shard_status = #ttcore.shard_status<unsharded>}, tensor<32x4x128x256xbf16> {ttcore.shard_status = #ttcore.shard_status<unsharded>}, tensor<32x4x128x256xbf16> {ttcore.shard_status = #ttcore.shard_status<unsharded>}, tensor<32x4x128x256xbf16> {ttcore.shard_status = #ttcore.shard_status<unsharded>}, tensor<32x4x128x256xbf16> {ttcore.shard_status = #ttcore.shard_status<unsharded>}, tensor<32x4x128x256xbf16> {ttcore.shard_status = #ttcore.shard_status<unsharded>}, tensor<32x4x128x256xbf16> {ttcore.shard_status = #ttcore.shard_status<unsharded>}, tensor<32x4x128x256xbf16> {ttcore.shard_status = #ttcore.shard_status<unsharded>}, tensor<32x17x131072xbf16> {ttcore.shard_status = #ttcore.shard_status<unsharded>}) {
    %0:57 = sdy.manual_computation(%arg0, %arg1, %arg2, %arg3, %arg4, %arg5, %arg6, %arg7, %arg8, %arg9, %arg10, %arg11, %arg12, %arg13, %arg14, %arg15, %arg16, %arg17, %arg18, %arg19, %arg20, %arg21, %arg22, %arg23, %arg24, %arg25, %arg26, %arg27, %arg28, %arg29, %arg30, %arg31, %arg32, %arg33, %arg34, %arg35, %arg36, %arg37, %arg38, %arg39, %arg40, %arg41, %arg42, %arg43, %arg44, %arg45, %arg46, %arg47, %arg48, %arg49, %arg50, %arg51, %arg52, %arg53, %arg54, %arg55, %arg56, %arg57, %arg58, %arg59, %arg60, %arg61, %arg62, %arg63, %arg64, %arg65, %arg66, %arg67, %arg68, %arg69, %arg70, %arg71, %arg72, %arg73, %arg74, %arg75, %arg76, %arg77, %arg78, %arg79, %arg80, %arg81, %arg82, %arg83, %arg84, %arg85, %arg86, %arg87, %arg88, %arg89, %arg90, %arg91, %arg92, %arg93, %arg94, %arg95, %arg96, %arg97, %arg98, %arg99, %arg100, %arg101, %arg102, %arg103, %arg104, %arg105, %arg106, %arg107, %arg108, %arg109, %arg110, %arg111, %arg112, %arg113, %arg114, %arg115, %arg116, %arg117, %arg118, %arg119, %arg120, %arg121, %arg122, %arg123, %arg124, %arg125, %arg126, %arg127, %arg128, %arg129, %arg130, %arg131, %arg132, %arg133, %arg134, %arg135, %arg136, %arg137, %arg138, %arg139, %arg140, %arg141, %arg142, %arg143, %arg144, %arg145, %arg146, %arg147, %arg148, %arg149, %arg150, %arg151, %arg152, %arg153, %arg154, %arg155, %arg156, %arg157, %arg158, %arg159, %arg160, %arg161, %arg162, %arg163, %arg164, %arg165, %arg166, %arg167, %arg168, %arg169, %arg170, %arg171, %arg172, %arg173, %arg174, %arg175, %arg176, %arg177, %arg178, %arg179, %arg180, %arg181, %arg182, %arg183, %arg184, %arg185, %arg186, %arg187, %arg188, %arg189, %arg190, %arg191, %arg192, %arg193, %arg194, %arg195, %arg196, %arg197, %arg198, %arg199, %arg200, %arg201, %arg202, %arg203, %arg204, %arg205, %arg206, %arg207, %arg208, %arg209, %arg210, %arg211, %arg212, %arg213, %arg214, %arg215, %arg216, %arg217, %arg218, %arg219, %arg220, %arg221, %arg222, %arg223, %arg224, %arg225, %arg226, %arg227, %arg228, %arg229, %arg230, %arg231, %arg232, %arg233, %arg234, %arg235, %arg236, %arg237, %arg238, %arg239, %arg240, %arg241, %arg242, %arg243, %arg244, %arg245, %arg246, %arg247, %arg248, %arg249, %arg250, %arg251, %arg252, %arg253, %arg254, %arg255, %arg256, %arg257, %arg258, %arg259, %arg260, %arg261, %arg262, %arg263, %arg264, %arg265, %arg266, %arg267, %arg268, %arg269, %arg270, %arg271, %arg272, %arg273, %arg274, %arg275, %arg276, %arg277, %arg278, %arg279, %arg280, %arg281, %arg282, %arg283, %arg284, %arg285, %arg286, %arg287, %arg288, %arg289, %arg290, %arg291, %arg292, %arg293, %arg294, %arg295, %arg296, %arg297, %arg298, %arg299, %arg300, %arg301, %arg302, %arg303, %arg304, %arg305, %arg306, %arg307, %arg308, %arg309, %arg310, %arg311, %arg312, %arg313) in_shardings=[<@mesh, [{}]>, <@mesh, [{}]>, <@mesh, [{"_axis_1"}, {}]>, <@mesh, [{}, {}]>, <@mesh, [{}, {}]>, <@mesh, [{}]>, <@mesh, [{}, {"_axis_1"}, {}, {}]>, <@mesh, [{"_axis_1"}, {}]>, <@mesh, [{}, {"_axis_1"}, {}, {}]>, <@mesh, [{"_axis_1"}, {}]>, <@mesh, [{}, {"_axis_1"}]>, <@mesh, [{"_axis_1"}, {}]>, <@mesh, [{}, {"_axis_1"}]>, <@mesh, [{"_axis_1"}, {}]>, <@mesh, [{}]>, <@mesh, [{"_axis_1"}, {}]>, <@mesh, [{}]>, <@mesh, [{}, {"_axis_1"}, {}, {}]>, <@mesh, [{"_axis_1"}, {}]>, <@mesh, [{}, {"_axis_1"}, {}, {}]>, <@mesh, [{"_axis_1"}, {}]>, <@mesh, [{}, {"_axis_1"}]>, <@mesh, [{"_axis_1"}, {}]>, <@mesh, [{}, {"_axis_1"}]>, <@mesh, [{"_axis_1"}, {}]>, <@mesh, [{}]>, <@mesh, [{"_axis_1"}, {}]>, <@mesh, [{}]>, <@mesh, [{}, {"_axis_1"}, {}, {}]>, <@mesh, [{"_axis_1"}, {}]>, <@mesh, [{}, {"_axis_1"}, {}, {}]>, <@mesh, [{"_axis_1"}, {}]>, <@mesh, [{}, {"_axis_1"}]>, <@mesh, [{"_axis_1"}, {}]>, <@mesh, [{}, {"_axis_1"}]>, <@mesh, [{"_axis_1"}, {}]>, <@mesh, [{}]>, <@mesh, [{"_axis_1"}, {}]>, <@mesh, [{}]>, <@mesh, [{}, {"_axis_1"}, {}, {}]>, <@mesh, [{"_axis_1"}, {}]>, <@mesh, [{}, {"_axis_1"}, {}, {}]>, <@mesh, [{"_axis_1"}, {}]>, <@mesh, [{}, {"_axis_1"}]>, <@mesh, [{"_axis_1"}, {}]>, <@mesh, [{}, {"_axis_1"}]>, <@mesh, [{"_axis_1"}, {}]>, <@mesh, [{}]>, <@mesh, [{"_axis_1"}, {}]>, <@mesh, [{}]>, <@mesh, [{}, {"_axis_1"}, {}, {}]>, <@mesh, [{"_axis_1"}, {}]>, <@mesh, [{}, {"_axis_1"}, {}, {}]>, <@mesh, [{"_axis_1"}, {}]>, <@mesh, [{}, {"_axis_1"}]>, <@mesh, [{"_axis_1"}, {}]>, <@mesh, [{}, {"_axis_1"}]>, <@mesh, [{"_axis_1"}, {}]>, <@mesh, [{}]>, <@mesh, [{"_axis_1"}, {}]>, <@mesh, [{}]>, <@mesh, [{}, {"_axis_1"}, {}, {}]>, <@mesh, [{"_axis_1"}, {}]>, <@mesh, [{}, {"_axis_1"}, {}, {}]>, <@mesh, [{"_axis_1"}, {}]>, <@mesh, [{}, {"_axis_1"}]>, <@mesh, [{"_axis_1"}, {}]>, <@mesh, [{}, {"_axis_1"}]>, <@mesh, [{"_axis_1"}, {}]>, <@mesh, [{}]>, <@mesh, [{"_axis_1"}, {}]>, <@mesh, [{}]>, <@mesh, [{}, {"_axis_1"}, {}, {}]>, <@mesh, [{"_axis_1"}, {}]>, <@mesh, [{}, {"_axis_1"}, {}, {}]>, <@mesh, [{"_axis_1"}, {}]>, <@mesh, [{}, {"_axis_1"}]>, <@mesh, [{"_axis_1"}, {}]>, <@mesh, [{}, {"_axis_1"}]>, <@mesh, [{"_axis_1"}, {}]>, <@mesh, [{}]>, <@mesh, [{"_axis_1"}, {}]>, <@mesh, [{}]>, <@mesh, [{}, {"_axis_1"}, {}, {}]>, <@mesh, [{"_axis_1"}, {}]>, <@mesh, [{}, {"_axis_1"}, {}, {}]>, <@mesh, [{"_axis_1"}, {}]>, <@mesh, [{}, {"_axis_1"}]>, <@mesh, [{"_axis_1"}, {}]>, <@mesh, [{}, {"_axis_1"}]>, <@mesh, [{"_axis_1"}, {}]>, <@mesh, [{}]>, <@mesh, [{"_axis_1"}, {}]>, <@mesh, [{}]>, <@mesh, [{}, {"_axis_1"}, {}, {}]>, <@mesh, [{"_axis_1"}, {}]>, <@mesh, [{}, {"_axis_1"}, {}, {}]>, <@mesh, [{"_axis_1"}, {}]>, <@mesh, [{}, {"_axis_1"}]>, <@mesh, [{"_axis_1"}, {}]>, <@mesh, [{}, {"_axis_1"}]>, <@mesh, [{"_axis_1"}, {}]>, <@mesh, [{}]>, <@mesh, [{"_axis_1"}, {}]>, <@mesh, [{}]>, <@mesh, [{}, {"_axis_1"}, {}, {}]>, <@mesh, [{"_axis_1"}, {}]>, <@mesh, [{}, {"_axis_1"}, {}, {}]>, <@mesh, [{"_axis_1"}, {}]>, <@mesh, [{}, {"_axis_1"}]>, <@mesh, [{"_axis_1"}, {}]>, <@mesh, [{}, {"_axis_1"}]>, <@mesh, [{"_axis_1"}, {}]>, <@mesh, [{}]>, <@mesh, [{"_axis_1"}, {}]>, <@mesh, [{}]>, <@mesh, [{}, {"_axis_1"}, {}, {}]>, <@mesh, [{"_axis_1"}, {}]>, <@mesh, [{}, {"_axis_1"}, {}, {}]>, <@mesh, [{"_axis_1"}, {}]>, <@mesh, [{}, {"_axis_1"}]>, <@mesh, [{"_axis_1"}, {}]>, <@mesh, [{}, {"_axis_1"}]>, <@mesh, [{"_axis_1"}, {}]>, <@mesh, [{}]>, <@mesh, [{"_axis_1"}, {}]>, <@mesh, [{}]>, <@mesh, [{}, {"_axis_1"}, {}, {}]>, <@mesh, [{"_axis_1"}, {}]>, <@mesh, [{}, {"_axis_1"}, {}, {}]>, <@mesh, [{"_axis_1"}, {}]>, <@mesh, [{}, {"_axis_1"}]>, <@mesh, [{"_axis_1"}, {}]>, <@mesh, [{}, {"_axis_1"}]>, <@mesh, [{"_axis_1"}, {}]>, <@mesh, [{}]>, <@mesh, [{"_axis_1"}, {}]>, <@mesh, [{}]>, <@mesh, [{}, {"_axis_1"}, {}, {}]>, <@mesh, [{"_axis_1"}, {}]>, <@mesh, [{}, {"_axis_1"}, {}, {}]>, <@mesh, [{"_axis_1"}, {}]>, <@mesh, [{}, {"_axis_1"}]>, <@mesh, [{"_axis_1"}, {}]>, <@mesh, [{}, {"_axis_1"}]>, <@mesh, [{"_axis_1"}, {}]>, <@mesh, [{}]>, <@mesh, [{"_axis_1"}, {}]>, <@mesh, [{}]>, <@mesh, [{}, {"_axis_1"}, {}, {}]>, <@mesh, [{"_axis_1"}, {}]>, <@mesh, [{}, {"_axis_1"}, {}, {}]>, <@mesh, [{"_axis_1"}, {}]>, <@mesh, [{}, {"_axis_1"}]>, <@mesh, [{"_axis_1"}, {}]>, <@mesh, [{}, {"_axis_1"}]>, <@mesh, [{"_axis_1"}, {}]>, <@mesh, [{}]>, <@mesh, [{"_axis_1"}, {}]>, <@mesh, [{}]>, <@mesh, [{}, {"_axis_1"}, {}, {}]>, <@mesh, [{"_axis_1"}, {}]>, <@mesh, [{}, {"_axis_1"}, {}, {}]>, <@mesh, [{"_axis_1"}, {}]>, <@mesh, [{}, {"_axis_1"}]>, <@mesh, [{"_axis_1"}, {}]>, <@mesh, [{}, {"_axis_1"}]>, <@mesh, [{"_axis_1"}, {}]>, <@mesh, [{}]>, <@mesh, [{"_axis_1"}, {}]>, <@mesh, [{}]>, <@mesh, [{}, {"_axis_1"}, {}, {}]>, <@mesh, [{"_axis_1"}, {}]>, <@mesh, [{}, {"_axis_1"}, {}, {}]>, <@mesh, [{"_axis_1"}, {}]>, <@mesh, [{}, {"_axis_1"}]>, <@mesh, [{"_axis_1"}, {}]>, <@mesh, [{}, {"_axis_1"}]>, <@mesh, [{"_axis_1"}, {}]>, <@mesh, [{}]>, <@mesh, [{"_axis_1"}, {}]>, <@mesh, [{}]>, <@mesh, [{}, {"_axis_1"}, {}, {}]>, <@mesh, [{"_axis_1"}, {}]>, <@mesh, [{}, {"_axis_1"}, {}, {}]>, <@mesh, [{"_axis_1"}, {}]>, <@mesh, [{}, {"_axis_1"}]>, <@mesh, [{"_axis_1"}, {}]>, <@mesh, [{}, {"_axis_1"}]>, <@mesh, [{"_axis_1"}, {}]>, <@mesh, [{}]>, <@mesh, [{"_axis_1"}, {}]>, <@mesh, [{}]>, <@mesh, [{}, {"_axis_1"}, {}, {}]>, <@mesh, [{"_axis_1"}, {}]>, <@mesh, [{}, {"_axis_1"}, {}, {}]>, <@mesh, [{"_axis_1"}, {}]>, <@mesh, [{}, {"_axis_1"}]>, <@mesh, [{"_axis_1"}, {}]>, <@mesh, [{}, {"_axis_1"}]>, <@mesh, [{"_axis_1"}, {}]>, <@mesh, [{}]>, <@mesh, [{"_axis_1"}, {}]>, <@mesh, [{}]>, <@mesh, [{}, {"_axis_1"}, {}, {}]>, <@mesh, [{"_axis_1"}, {}]>, <@mesh, [{}, {"_axis_1"}, {}, {}]>, <@mesh, [{"_axis_1"}, {}]>, <@mesh, [{}, {"_axis_1"}]>, <@mesh, [{"_axis_1"}, {}]>, <@mesh, [{}, {"_axis_1"}]>, <@mesh, [{"_axis_1"}, {}]>, <@mesh, [{}]>, <@mesh, [{"_axis_1"}, {}]>, <@mesh, [{}]>, <@mesh, [{}, {"_axis_1"}, {}, {}]>, <@mesh, [{"_axis_1"}, {}]>, <@mesh, [{}, {"_axis_1"}, {}, {}]>, <@mesh, [{"_axis_1"}, {}]>, <@mesh, [{}, {"_axis_1"}]>, <@mesh, [{"_axis_1"}, {}]>, <@mesh, [{}, {"_axis_1"}]>, <@mesh, [{"_axis_1"}, {}]>, <@mesh, [{}]>, <@mesh, [{"_axis_1"}, {}]>, <@mesh, [{}]>, <@mesh, [{}, {"_axis_1"}, {}, {}]>, <@mesh, [{"_axis_1"}, {}]>, <@mesh, [{}, {"_axis_1"}, {}, {}]>, <@mesh, [{"_axis_1"}, {}]>, <@mesh, [{}, {"_axis_1"}]>, <@mesh, [{"_axis_1"}, {}]>, <@mesh, [{}, {"_axis_1"}]>, <@mesh, [{"_axis_1"}, {}]>, <@mesh, [{}]>, <@mesh, [{"_axis_1"}, {}]>, <@mesh, [{}]>, <@mesh, [{}, {"_axis_1"}, {}, {}]>, <@mesh, [{"_axis_1"}, {}]>, <@mesh, [{}, {"_axis_1"}, {}, {}]>, <@mesh, [{"_axis_1"}, {}]>, <@mesh, [{}, {"_axis_1"}]>, <@mesh, [{"_axis_1"}, {}]>, <@mesh, [{}, {"_axis_1"}]>, <@mesh, [{"_axis_1"}, {}]>, <@mesh, [{}]>, <@mesh, [{"_axis_1"}, {}]>, <@mesh, [{}]>, <@mesh, [{}, {"_axis_1"}, {}, {}]>, <@mesh, [{"_axis_1"}, {}]>, <@mesh, [{}, {"_axis_1"}, {}, {}]>, <@mesh, [{"_axis_1"}, {}]>, <@mesh, [{}, {"_axis_1"}]>, <@mesh, [{"_axis_1"}, {}]>, <@mesh, [{}, {"_axis_1"}]>, <@mesh, [{"_axis_1"}, {}]>, <@mesh, [{}]>, <@mesh, [{"_axis_1"}, {}]>, <@mesh, [{}]>, <@mesh, [{}, {"_axis_1"}, {}, {}]>, <@mesh, [{"_axis_1"}, {}]>, <@mesh, [{}, {"_axis_1"}, {}, {}]>, <@mesh, [{"_axis_1"}, {}]>, <@mesh, [{}, {"_axis_1"}]>, <@mesh, [{"_axis_1"}, {}]>, <@mesh, [{}, {"_axis_1"}]>, <@mesh, [{"_axis_1"}, {}]>, <@mesh, [{}]>, <@mesh, [{"_axis_1"}, {}]>, <@mesh, [{}]>, <@mesh, [{}, {"_axis_1"}, {}, {}]>, <@mesh, [{"_axis_1"}, {}]>, <@mesh, [{}, {"_axis_1"}, {}, {}]>, <@mesh, [{"_axis_1"}, {}]>, <@mesh, [{}, {"_axis_1"}]>, <@mesh, [{"_axis_1"}, {}]>, <@mesh, [{}, {"_axis_1"}]>, <@mesh, [{"_axis_1"}, {}]>, <@mesh, [{}]>, <@mesh, [{"_axis_1"}, {}]>, <@mesh, [{}]>, <@mesh, [{}, {"_axis_1"}, {}, {}]>, <@mesh, [{"_axis_1"}, {}]>, <@mesh, [{}, {"_axis_1"}, {}, {}]>, <@mesh, [{"_axis_1"}, {}]>, <@mesh, [{}, {"_axis_1"}]>, <@mesh, [{"_axis_1"}, {}]>, <@mesh, [{}, {"_axis_1"}]>, <@mesh, [{"_axis_1"}, {}]>, <@mesh, [{}]>, <@mesh, [{"_axis_1"}, {}]>, <@mesh, [{}]>, <@mesh, [{}, {"_axis_1"}, {}, {}]>, <@mesh, [{"_axis_1"}, {}]>, <@mesh, [{}, {"_axis_1"}, {}, {}]>, <@mesh, [{"_axis_1"}, {}]>, <@mesh, [{}, {"_axis_1"}]>, <@mesh, [{"_axis_1"}, {}]>, <@mesh, [{}, {"_axis_1"}]>, <@mesh, [{"_axis_1"}, {}]>, <@mesh, [{}]>, <@mesh, [{"_axis_1"}, {}]>, <@mesh, [{}]>, <@mesh, [{}, {"_axis_1"}, {}, {}]>, <@mesh, [{"_axis_1"}, {}]>, <@mesh, [{}, {"_axis_1"}, {}, {}]>, <@mesh, [{}, {}]>, <@mesh, [{}, {"_axis_1"}]>, <@mesh, [{"_axis_1"}, {}]>, <@mesh, [{}, {"_axis_1"}]>, <@mesh, [{"_axis_1"}, {}]>, <@mesh, [{}]>, <@mesh, [{"_axis_1"}, {}]>, <@mesh, [{}]>] out_shardings=[<@mesh, [{}, {"_axis_1"}, {}, {}]>, <@mesh, [{}, {"_axis_1"}, {}, {}]>, <@mesh, [{}, {"_axis_1"}, {}, {}]>, <@mesh, [{}, {"_axis_1"}, {}, {}]>, <@mesh, [{}, {"_axis_1"}, {}, {}]>, <@mesh, [{}, {"_axis_1"}, {}, {}]>, <@mesh, [{}, {"_axis_1"}, {}, {}]>, <@mesh, [{}, {"_axis_1"}, {}, {}]>, <@mesh, [{}, {"_axis_1"}, {}, {}]>, <@mesh, [{}, {"_axis_1"}, {}, {}]>, <@mesh, [{}, {"_axis_1"}, {}, {}]>, <@mesh, [{}, {"_axis_1"}, {}, {}]>, <@mesh, [{}, {"_axis_1"}, {}, {}]>, <@mesh, [{}, {"_axis_1"}, {}, {}]>, <@mesh, [{}, {"_axis_1"}, {}, {}]>, <@mesh, [{}, {"_axis_1"}, {}, {}]>, <@mesh, [{}, {"_axis_1"}, {}, {}]>, <@mesh, [{}, {"_axis_1"}, {}, {}]>, <@mesh, [{}, {"_axis_1"}, {}, {}]>, <@mesh, [{}, {"_axis_1"}, {}, {}]>, <@mesh, [{}, {"_axis_1"}, {}, {}]>, <@mesh, [{}, {"_axis_1"}, {}, {}]>, <@mesh, [{}, {"_axis_1"}, {}, {}]>, <@mesh, [{}, {"_axis_1"}, {}, {}]>, <@mesh, [{}, {"_axis_1"}, {}, {}]>, <@mesh, [{}, {"_axis_1"}, {}, {}]>, <@mesh, [{}, {"_axis_1"}, {}, {}]>, <@mesh, [{}, {"_axis_1"}, {}, {}]>, <@mesh, [{}, {"_axis_1"}, {}, {}]>, <@mesh, [{}, {"_axis_1"}, {}, {}]>, <@mesh, [{}, {"_axis_1"}, {}, {}]>, <@mesh, [{}, {"_axis_1"}, {}, {}]>, <@mesh, [{}, {"_axis_1"}, {}, {}]>, <@mesh, [{}, {"_axis_1"}, {}, {}]>, <@mesh, [{}, {"_axis_1"}, {}, {}]>, <@mesh, [{}, {"_axis_1"}, {}, {}]>, <@mesh, [{}, {"_axis_1"}, {}, {}]>, <@mesh, [{}, {"_axis_1"}, {}, {}]>, <@mesh, [{}, {"_axis_1"}, {}, {}]>, <@mesh, [{}, {"_axis_1"}, {}, {}]>, <@mesh, [{}, {"_axis_1"}, {}, {}]>, <@mesh, [{}, {"_axis_1"}, {}, {}]>, <@mesh, [{}, {"_axis_1"}, {}, {}]>, <@mesh, [{}, {"_axis_1"}, {}, {}]>, <@mesh, [{}, {"_axis_1"}, {}, {}]>, <@mesh, [{}, {"_axis_1"}, {}, {}]>, <@mesh, [{}, {"_axis_1"}, {}, {}]>, <@mesh, [{}, {"_axis_1"}, {}, {}]>, <@mesh, [{}, {"_axis_1"}, {}, {}]>, <@mesh, [{}, {"_axis_1"}, {}, {}]>, <@mesh, [{}, {"_axis_1"}, {}, {}]>, <@mesh, [{}, {"_axis_1"}, {}, {}]>, <@mesh, [{}, {"_axis_1"}, {}, {}]>, <@mesh, [{}, {"_axis_1"}, {}, {}]>, <@mesh, [{}, {"_axis_1"}, {}, {}]>, <@mesh, [{}, {"_axis_1"}, {}, {}]>, <@mesh, [{}, {}, {}]>] manual_axes={"_axis_0", "_axis_1"} (%arg314: tensor<17xi64> loc("p0.3"), %arg315: tensor<128xbf16> loc("p1.11"), %arg316: tensor<256x3072xbf16> loc("p2.28"), %arg317: tensor<32x17xi64> loc("p3.36"), %arg318: tensor<131072x3072xbf16> loc("p4.41"), %arg319: tensor<3072xbf16> loc("p5.77"), %arg320: tensor<32x1x128x256xbf16> loc("p6.119"), %arg321: tensor<256x3072xbf16> loc("p7.127"), %arg322: tensor<32x1x128x256xbf16> loc("p8.149"), %arg323: tensor<256x3072xbf16> loc("p9.159"), %arg324: tensor<3072x5760xbf16> loc("p10.168"), %arg325: tensor<5760x3072xbf16> loc("p11.173"), %arg326: tensor<3072x768xbf16> loc("p12.182"), %arg327: tensor<768x3072xbf16> loc("p13.237"), %arg328: tensor<3072xbf16> loc("p14.363"), %arg329: tensor<5760x3072xbf16> loc("p15.372"), %arg330: tensor<3072xbf16> loc("p16.418"), %arg331: tensor<32x1x128x256xbf16> loc("p17.455"), %arg332: tensor<256x3072xbf16> loc("p18.463"), %arg333: tensor<32x1x128x256xbf16> loc("p19.485"), %arg334: tensor<256x3072xbf16> loc("p20.495"), %arg335: tensor<3072x5760xbf16> loc("p21.504"), %arg336: tensor<5760x3072xbf16> loc("p22.509"), %arg337: tensor<3072x768xbf16> loc("p23.518"), %arg338: tensor<768x3072xbf16> loc("p24.556"), %arg339: tensor<3072xbf16> loc("p25.682"), %arg340: tensor<5760x3072xbf16> loc("p26.691"), %arg341: tensor<3072xbf16> loc("p27.737"), %arg342: tensor<32x1x128x256xbf16> loc("p28.774"), %arg343: tensor<256x3072xbf16> loc("p29.782"), %arg344: tensor<32x1x128x256xbf16> loc("p30.804"), %arg345: tensor<256x3072xbf16> loc("p31.814"), %arg346: tensor<3072x5760xbf16> loc("p32.823"), %arg347: tensor<5760x3072xbf16> loc("p33.828"), %arg348: tensor<3072x768xbf16> loc("p34.837"), %arg349: tensor<768x3072xbf16> loc("p35.875"), %arg350: tensor<3072xbf16> loc("p36.1001"), %arg351: tensor<5760x3072xbf16> loc("p37.1010"), %arg352: tensor<3072xbf16> loc("p38.1056"), %arg353: tensor<32x1x128x256xbf16> loc("p39.1093"), %arg354: tensor<256x3072xbf16> loc("p40.1101"), %arg355: tensor<32x1x128x256xbf16> loc("p41.1123"), %arg356: tensor<256x3072xbf16> loc("p42.1133"), %arg357: tensor<3072x5760xbf16> loc("p43.1142"), %arg358: tensor<5760x3072xbf16> loc("p44.1147"), %arg359: tensor<3072x768xbf16> loc("p45.1156"), %arg360: tensor<768x3072xbf16> loc("p46.1194"), %arg361: tensor<3072xbf16> loc("p47.1320"), %arg362: tensor<5760x3072xbf16> loc("p48.1329"), %arg363: tensor<3072xbf16> loc("p49.1375"), %arg364: tensor<32x1x128x256xbf16> loc("p50.1412"), %arg365: tensor<256x3072xbf16> loc("p51.1420"), %arg366: tensor<32x1x128x256xbf16> loc("p52.1442"), %arg367: tensor<256x3072xbf16> loc("p53.1452"), %arg368: tensor<3072x5760xbf16> loc("p54.1461"), %arg369: tensor<5760x3072xbf16> loc("p55.1466"), %arg370: tensor<3072x768xbf16> loc("p56.1475"), %arg371: tensor<768x3072xbf16> loc("p57.1513"), %arg372: tensor<3072xbf16> loc("p58.1639"), %arg373: tensor<5760x3072xbf16> loc("p59.1648"), %arg374: tensor<3072xbf16> loc("p60.1694"), %arg375: tensor<32x1x128x256xbf16> loc("p61.1731"), %arg376: tensor<256x3072xbf16> loc("p62.1739"), %arg377: tensor<32x1x128x256xbf16> loc("p63.1761"), %arg378: tensor<256x3072xbf16> loc("p64.1771"), %arg379: tensor<3072x5760xbf16> loc("p65.1780"), %arg380: tensor<5760x3072xbf16> loc("p66.1785"), %arg381: tensor<3072x768xbf16> loc("p67.1794"), %arg382: tensor<768x3072xbf16> loc("p68.1832"), %arg383: tensor<3072xbf16> loc("p69.1958"), %arg384: tensor<5760x3072xbf16> loc("p70.1967"), %arg385: tensor<3072xbf16> loc("p71.2013"), %arg386: tensor<32x1x128x256xbf16> loc("p72.2050"), %arg387: tensor<256x3072xbf16> loc("p73.2058"), %arg388: tensor<32x1x128x256xbf16> loc("p74.2080"), %arg389: tensor<256x3072xbf16> loc("p75.2090"), %arg390: tensor<3072x5760xbf16> loc("p76.2099"), %arg391: tensor<5760x3072xbf16> loc("p77.2104"), %arg392: tensor<3072x768xbf16> loc("p78.2113"), %arg393: tensor<768x3072xbf16> loc("p79.2151"), %arg394: tensor<3072xbf16> loc("p80.2277"), %arg395: tensor<5760x3072xbf16> loc("p81.2286"), %arg396: tensor<3072xbf16> loc("p82.2332"), %arg397: tensor<32x1x128x256xbf16> loc("p83.2369"), %arg398: tensor<256x3072xbf16> loc("p84.2377"), %arg399: tensor<32x1x128x256xbf16> loc("p85.2399"), %arg400: tensor<256x3072xbf16> loc("p86.2409"), %arg401: tensor<3072x5760xbf16> loc("p87.2418"), %arg402: tensor<5760x3072xbf16> loc("p88.2423"), %arg403: tensor<3072x768xbf16> loc("p89.2432"), %arg404: tensor<768x3072xbf16> loc("p90.2470"), %arg405: tensor<3072xbf16> loc("p91.2596"), %arg406: tensor<5760x3072xbf16> loc("p92.2605"), %arg407: tensor<3072xbf16> loc("p93.2651"), %arg408: tensor<32x1x128x256xbf16> loc("p94.2688"), %arg409: tensor<256x3072xbf16> loc("p95.2696"), %arg410: tensor<32x1x128x256xbf16> loc("p96.2718"), %arg411: tensor<256x3072xbf16> loc("p97.2728"), %arg412: tensor<3072x5760xbf16> loc("p98.2737"), %arg413: tensor<5760x3072xbf16> loc("p99.2742"), %arg414: tensor<3072x768xbf16> loc("p100.2751"), %arg415: tensor<768x3072xbf16> loc("p101.2789"), %arg416: tensor<3072xbf16> loc("p102.2915"), %arg417: tensor<5760x3072xbf16> loc("p103.2924"), %arg418: tensor<3072xbf16> loc("p104.2970"), %arg419: tensor<32x1x128x256xbf16> loc("p105.3007"), %arg420: tensor<256x3072xbf16> loc("p106.3015"), %arg421: tensor<32x1x128x256xbf16> loc("p107.3037"), %arg422: tensor<256x3072xbf16> loc("p108.3047"), %arg423: tensor<3072x5760xbf16> loc("p109.3056"), %arg424: tensor<5760x3072xbf16> loc("p110.3061"), %arg425: tensor<3072x768xbf16> loc("p111.3070"), %arg426: tensor<768x3072xbf16> loc("p112.3108"), %arg427: tensor<3072xbf16> loc("p113.3234"), %arg428: tensor<5760x3072xbf16> loc("p114.3243"), %arg429: tensor<3072xbf16> loc("p115.3289"), %arg430: tensor<32x1x128x256xbf16> loc("p116.3326"), %arg431: tensor<256x3072xbf16> loc("p117.3334"), %arg432: tensor<32x1x128x256xbf16> loc("p118.3356"), %arg433: tensor<256x3072xbf16> loc("p119.3366"), %arg434: tensor<3072x5760xbf16> loc("p120.3375"), %arg435: tensor<5760x3072xbf16> loc("p121.3380"), %arg436: tensor<3072x768xbf16> loc("p122.3389"), %arg437: tensor<768x3072xbf16> loc("p123.3427"), %arg438: tensor<3072xbf16> loc("p124.3553"), %arg439: tensor<5760x3072xbf16> loc("p125.3562"), %arg440: tensor<3072xbf16> loc("p126.3608"), %arg441: tensor<32x1x128x256xbf16> loc("p127.3645"), %arg442: tensor<256x3072xbf16> loc("p128.3653"), %arg443: tensor<32x1x128x256xbf16> loc("p129.3675"), %arg444: tensor<256x3072xbf16> loc("p130.3685"), %arg445: tensor<3072x5760xbf16> loc("p131.3694"), %arg446: tensor<5760x3072xbf16> loc("p132.3699"), %arg447: tensor<3072x768xbf16> loc("p133.3708"), %arg448: tensor<768x3072xbf16> loc("p134.3746"), %arg449: tensor<3072xbf16> loc("p135.3872"), %arg450: tensor<5760x3072xbf16> loc("p136.3881"), %arg451: tensor<3072xbf16> loc("p137.3927"), %arg452: tensor<32x1x128x256xbf16> loc("p138.3964"), %arg453: tensor<256x3072xbf16> loc("p139.3972"), %arg454: tensor<32x1x128x256xbf16> loc("p140.3994"), %arg455: tensor<256x3072xbf16> loc("p141.4004"), %arg456: tensor<3072x5760xbf16> loc("p142.4013"), %arg457: tensor<5760x3072xbf16> loc("p143.4018"), %arg458: tensor<3072x768xbf16> loc("p144.4027"), %arg459: tensor<768x3072xbf16> loc("p145.4065"), %arg460: tensor<3072xbf16> loc("p146.4191"), %arg461: tensor<5760x3072xbf16> loc("p147.4200"), %arg462: tensor<3072xbf16> loc("p148.4246"), %arg463: tensor<32x1x128x256xbf16> loc("p149.4283"), %arg464: tensor<256x3072xbf16> loc("p150.4291"), %arg465: tensor<32x1x128x256xbf16> loc("p151.4313"), %arg466: tensor<256x3072xbf16> loc("p152.4323"), %arg467: tensor<3072x5760xbf16> loc("p153.4332"), %arg468: tensor<5760x3072xbf16> loc("p154.4337"), %arg469: tensor<3072x768xbf16> loc("p155.4346"), %arg470: tensor<768x3072xbf16> loc("p156.4384"), %arg471: tensor<3072xbf16> loc("p157.4510"), %arg472: tensor<5760x3072xbf16> loc("p158.4519"), %arg473: tensor<3072xbf16> loc("p159.4565"), %arg474: tensor<32x1x128x256xbf16> loc("p160.4602"), %arg475: tensor<256x3072xbf16> loc("p161.4610"), %arg476: tensor<32x1x128x256xbf16> loc("p162.4632"), %arg477: tensor<256x3072xbf16> loc("p163.4642"), %arg478: tensor<3072x5760xbf16> loc("p164.4651"), %arg479: tensor<5760x3072xbf16> loc("p165.4656"), %arg480: tensor<3072x768xbf16> loc("p166.4665"), %arg481: tensor<768x3072xbf16> loc("p167.4703"), %arg482: tensor<3072xbf16> loc("p168.4829"), %arg483: tensor<5760x3072xbf16> loc("p169.4838"), %arg484: tensor<3072xbf16> loc("p170.4884"), %arg485: tensor<32x1x128x256xbf16> loc("p171.4921"), %arg486: tensor<256x3072xbf16> loc("p172.4929"), %arg487: tensor<32x1x128x256xbf16> loc("p173.4951"), %arg488: tensor<256x3072xbf16> loc("p174.4961"), %arg489: tensor<3072x5760xbf16> loc("p175.4970"), %arg490: tensor<5760x3072xbf16> loc("p176.4975"), %arg491: tensor<3072x768xbf16> loc("p177.4984"), %arg492: tensor<768x3072xbf16> loc("p178.5022"), %arg493: tensor<3072xbf16> loc("p179.5148"), %arg494: tensor<5760x3072xbf16> loc("p180.5157"), %arg495: tensor<3072xbf16> loc("p181.5203"), %arg496: tensor<32x1x128x256xbf16> loc("p182.5240"), %arg497: tensor<256x3072xbf16> loc("p183.5248"), %arg498: tensor<32x1x128x256xbf16> loc("p184.5270"), %arg499: tensor<256x3072xbf16> loc("p185.5280"), %arg500: tensor<3072x5760xbf16> loc("p186.5289"), %arg501: tensor<5760x3072xbf16> loc("p187.5294"), %arg502: tensor<3072x768xbf16> loc("p188.5303"), %arg503: tensor<768x3072xbf16> loc("p189.5341"), %arg504: tensor<3072xbf16> loc("p190.5467"), %arg505: tensor<5760x3072xbf16> loc("p191.5476"), %arg506: tensor<3072xbf16> loc("p192.5522"), %arg507: tensor<32x1x128x256xbf16> loc("p193.5559"), %arg508: tensor<256x3072xbf16> loc("p194.5567"), %arg509: tensor<32x1x128x256xbf16> loc("p195.5589"), %arg510: tensor<256x3072xbf16> loc("p196.5599"), %arg511: tensor<3072x5760xbf16> loc("p197.5608"), %arg512: tensor<5760x3072xbf16> loc("p198.5613"), %arg513: tensor<3072x768xbf16> loc("p199.5622"), %arg514: tensor<768x3072xbf16> loc("p200.5660"), %arg515: tensor<3072xbf16> loc("p201.5786"), %arg516: tensor<5760x3072xbf16> loc("p202.5795"), %arg517: tensor<3072xbf16> loc("p203.5841"), %arg518: tensor<32x1x128x256xbf16> loc("p204.5878"), %arg519: tensor<256x3072xbf16> loc("p205.5886"), %arg520: tensor<32x1x128x256xbf16> loc("p206.5908"), %arg521: tensor<256x3072xbf16> loc("p207.5918"), %arg522: tensor<3072x5760xbf16> loc("p208.5927"), %arg523: tensor<5760x3072xbf16> loc("p209.5932"), %arg524: tensor<3072x768xbf16> loc("p210.5941"), %arg525: tensor<768x3072xbf16> loc("p211.5979"), %arg526: tensor<3072xbf16> loc("p212.6105"), %arg527: tensor<5760x3072xbf16> loc("p213.6114"), %arg528: tensor<3072xbf16> loc("p214.6160"), %arg529: tensor<32x1x128x256xbf16> loc("p215.6197"), %arg530: tensor<256x3072xbf16> loc("p216.6205"), %arg531: tensor<32x1x128x256xbf16> loc("p217.6227"), %arg532: tensor<256x3072xbf16> loc("p218.6237"), %arg533: tensor<3072x5760xbf16> loc("p219.6246"), %arg534: tensor<5760x3072xbf16> loc("p220.6251"), %arg535: tensor<3072x768xbf16> loc("p221.6260"), %arg536: tensor<768x3072xbf16> loc("p222.6298"), %arg537: tensor<3072xbf16> loc("p223.6424"), %arg538: tensor<5760x3072xbf16> loc("p224.6433"), %arg539: tensor<3072xbf16> loc("p225.6479"), %arg540: tensor<32x1x128x256xbf16> loc("p226.6516"), %arg541: tensor<256x3072xbf16> loc("p227.6524"), %arg542: tensor<32x1x128x256xbf16> loc("p228.6546"), %arg543: tensor<256x3072xbf16> loc("p229.6556"), %arg544: tensor<3072x5760xbf16> loc("p230.6565"), %arg545: tensor<5760x3072xbf16> loc("p231.6570"), %arg546: tensor<3072x768xbf16> loc("p232.6579"), %arg547: tensor<768x3072xbf16> loc("p233.6617"), %arg548: tensor<3072xbf16> loc("p234.6743"), %arg549: tensor<5760x3072xbf16> loc("p235.6752"), %arg550: tensor<3072xbf16> loc("p236.6798"), %arg551: tensor<32x1x128x256xbf16> loc("p237.6835"), %arg552: tensor<256x3072xbf16> loc("p238.6843"), %arg553: tensor<32x1x128x256xbf16> loc("p239.6865"), %arg554: tensor<256x3072xbf16> loc("p240.6875"), %arg555: tensor<3072x5760xbf16> loc("p241.6884"), %arg556: tensor<5760x3072xbf16> loc("p242.6889"), %arg557: tensor<3072x768xbf16> loc("p243.6898"), %arg558: tensor<768x3072xbf16> loc("p244.6936"), %arg559: tensor<3072xbf16> loc("p245.7062"), %arg560: tensor<5760x3072xbf16> loc("p246.7071"), %arg561: tensor<3072xbf16> loc("p247.7117"), %arg562: tensor<32x1x128x256xbf16> loc("p248.7154"), %arg563: tensor<256x3072xbf16> loc("p249.7162"), %arg564: tensor<32x1x128x256xbf16> loc("p250.7184"), %arg565: tensor<256x3072xbf16> loc("p251.7194"), %arg566: tensor<3072x5760xbf16> loc("p252.7203"), %arg567: tensor<5760x3072xbf16> loc("p253.7208"), %arg568: tensor<3072x768xbf16> loc("p254.7217"), %arg569: tensor<768x3072xbf16> loc("p255.7255"), %arg570: tensor<3072xbf16> loc("p256.7381"), %arg571: tensor<5760x3072xbf16> loc("p257.7390"), %arg572: tensor<3072xbf16> loc("p258.7436"), %arg573: tensor<32x1x128x256xbf16> loc("p259.7473"), %arg574: tensor<256x3072xbf16> loc("p260.7481"), %arg575: tensor<32x1x128x256xbf16> loc("p261.7503"), %arg576: tensor<256x3072xbf16> loc("p262.7513"), %arg577: tensor<3072x5760xbf16> loc("p263.7522"), %arg578: tensor<5760x3072xbf16> loc("p264.7527"), %arg579: tensor<3072x768xbf16> loc("p265.7536"), %arg580: tensor<768x3072xbf16> loc("p266.7574"), %arg581: tensor<3072xbf16> loc("p267.7700"), %arg582: tensor<5760x3072xbf16> loc("p268.7709"), %arg583: tensor<3072xbf16> loc("p269.7755"), %arg584: tensor<32x1x128x256xbf16> loc("p270.7792"), %arg585: tensor<256x3072xbf16> loc("p271.7800"), %arg586: tensor<32x1x128x256xbf16> loc("p272.7822"), %arg587: tensor<256x3072xbf16> loc("p273.7832"), %arg588: tensor<3072x5760xbf16> loc("p274.7841"), %arg589: tensor<5760x3072xbf16> loc("p275.7846"), %arg590: tensor<3072x768xbf16> loc("p276.7855"), %arg591: tensor<768x3072xbf16> loc("p277.7893"), %arg592: tensor<3072xbf16> loc("p278.8019"), %arg593: tensor<5760x3072xbf16> loc("p279.8028"), %arg594: tensor<3072xbf16> loc("p280.8074"), %arg595: tensor<32x1x128x256xbf16> loc("p281.8111"), %arg596: tensor<256x3072xbf16> loc("p282.8119"), %arg597: tensor<32x1x128x256xbf16> loc("p283.8141"), %arg598: tensor<256x3072xbf16> loc("p284.8151"), %arg599: tensor<3072x5760xbf16> loc("p285.8160"), %arg600: tensor<5760x3072xbf16> loc("p286.8165"), %arg601: tensor<3072x768xbf16> loc("p287.8174"), %arg602: tensor<768x3072xbf16> loc("p288.8212"), %arg603: tensor<3072xbf16> loc("p289.8338"), %arg604: tensor<5760x3072xbf16> loc("p290.8347"), %arg605: tensor<3072xbf16> loc("p291.8393"), %arg606: tensor<32x1x128x256xbf16> loc("p292.8430"), %arg607: tensor<256x3072xbf16> loc("p293.8438"), %arg608: tensor<32x1x128x256xbf16> loc("p294.8460"), %arg609: tensor<256x3072xbf16> loc("p295.8470"), %arg610: tensor<3072x5760xbf16> loc("p296.8479"), %arg611: tensor<5760x3072xbf16> loc("p297.8484"), %arg612: tensor<3072x768xbf16> loc("p298.8493"), %arg613: tensor<768x3072xbf16> loc("p299.8531"), %arg614: tensor<3072xbf16> loc("p300.8657"), %arg615: tensor<5760x3072xbf16> loc("p301.8666"), %arg616: tensor<3072xbf16> loc("p302.8712"), %arg617: tensor<32x1x128x256xbf16> loc("p303.8749"), %arg618: tensor<256x3072xbf16> loc("p304.8757"), %arg619: tensor<32x1x128x256xbf16> loc("p305.8779"), %arg620: tensor<131072x3072xbf16> loc("p306.8787"), %arg621: tensor<3072x5760xbf16> loc("p307.8796"), %arg622: tensor<5760x3072xbf16> loc("p308.8801"), %arg623: tensor<3072x768xbf16> loc("p309.8810"), %arg624: tensor<768x3072xbf16> loc("p310.8848"), %arg625: tensor<3072xbf16> loc("p311.8974"), %arg626: tensor<5760x3072xbf16> loc("p312.8983"), %arg627: tensor<3072xbf16> loc("p313.9029")) {
      %c = stablehlo.constant dense<true> : tensor<i1> loc(#loc)
      %c_0 = stablehlo.constant dense<"…"> : tensor<128xi64> loc(#loc)
      %c_1 = stablehlo.constant dense<false> : tensor<i1> loc(#loc)
      %cst = stablehlo.constant dense<0xFF800000> : tensor<f32> loc(#loc)
      %c_2 = stablehlo.constant dense<0> : tensor<17xi64> loc(#loc)
      %c_3 = stablehlo.constant dense<128> : tensor<17xi64> loc(#loc)
      %cst_4 = stablehlo.constant dense<2.000000e+00> : tensor<f32> loc(#loc)
      %cst_5 = stablehlo.constant dense<3.25520843E-4> : tensor<f32> loc(#loc)
      %cst_6 = stablehlo.constant dense<9.99999997E-7> : tensor<f32> loc(#loc)
      %cst_7 = stablehlo.constant dense<2.500000e-01> : tensor<f32> loc(#loc)
      %cst_8 = stablehlo.constant dense<0.000000e+00> : tensor<bf16> loc(#loc)
      %cst_9 = stablehlo.constant dense<0xFF80> : tensor<bf16> loc(#loc)
      %cst_10 = stablehlo.constant dense<0xFFF0000000000000> : tensor<f64> loc(#loc)
      %cst_11 = stablehlo.constant dense<0.000000e+00> : tensor<f32> loc(#loc)
      %1 = stablehlo.broadcast_in_dim %cst_11, dims = [] : (tensor<f32>) -> tensor<32x3x17x128xf32> loc(#loc)
      %2 = stablehlo.broadcast_in_dim %cst_10, dims = [] : (tensor<f64>) -> tensor<32x3x17x128xf64> loc(#loc)
      %3 = stablehlo.broadcast_in_dim %cst_9, dims = [] : (tensor<bf16>) -> tensor<32x1x17x128xbf16> loc(#loc)
      %4 = stablehlo.broadcast_in_dim %cst_8, dims = [] : (tensor<bf16>) -> tensor<32x1x17x128xbf16> loc(#loc)
      %5 = stablehlo.broadcast_in_dim %cst_7, dims = [] : (tensor<f32>) -> tensor<32x3x256x128xf32> loc(#loc)
      %6 = stablehlo.broadcast_in_dim %cst_7, dims = [] : (tensor<f32>) -> tensor<32x3x17x256xf32> loc(#loc)
      %7 = stablehlo.broadcast_in_dim %cst_6, dims = [] : (tensor<f32>) -> tensor<32x17x1xf32> loc(#loc)
      %8 = stablehlo.broadcast_in_dim %cst_5, dims = [] : (tensor<f32>) -> tensor<32x17xf32> loc(#loc)
      %9 = stablehlo.broadcast_in_dim %cst_4, dims = [] : (tensor<f32>) -> tensor<32x17x3072xf32> loc(#loc)
      %10 = stablehlo.reshape %arg314 : (tensor<17xi64>) -> tensor<1x1x17xi64> loc(#loc315)
      %11 = stablehlo.reshape %10 : (tensor<1x1x17xi64>) -> tensor<17xi64> loc(#loc316)
      %12 = stablehlo.compare  LT, %11, %c_2 : (tensor<17xi64>, tensor<17xi64>) -> tensor<17xi1> loc(#loc317)
      %13 = stablehlo.add %11, %c_3 : tensor<17xi64> loc(#loc318)
      %14 = stablehlo.select %12, %13, %11 : tensor<17xi1>, tensor<17xi64> loc(#loc319)
      %15 = stablehlo.reshape %14 : (tensor<17xi64>) -> tensor<17x1xi64> loc(#loc320)
      %16 = stablehlo.reshape %arg319 : (tensor<3072xbf16>) -> tensor<1x1x3072xbf16> loc(#loc321)
      %17 = stablehlo.reshape %16 : (tensor<1x1x3072xbf16>) -> tensor<3072xbf16> loc(#loc322)
      %18 = stablehlo.broadcast_in_dim %17, dims = [2] : (tensor<3072xbf16>) -> tensor<32x17x3072xbf16> loc(#loc323)
      %19 = stablehlo.reshape %arg318 : (tensor<131072x3072xbf16>) -> tensor<1x131072x3072xbf16> loc(#loc324)
      %20 = stablehlo.reshape %19 : (tensor<1x131072x3072xbf16>) -> tensor<131072x3072xbf16> loc(#loc325)
      %21 = stablehlo.reshape %arg317 : (tensor<32x17xi64>) -> tensor<1x32x17xi64> loc(#loc326)
      %22 = stablehlo.reshape %21 : (tensor<1x32x17xi64>) -> tensor<544xi64> loc(#loc327)
      %23 = stablehlo.convert %22 : (tensor<544xi64>) -> tensor<544xui32> loc(#loc328)
      %24 = "stablehlo.gather"(%20, %23) <{dimension_numbers = #stablehlo.gather<offset_dims = [1], collapsed_slice_dims = [0], start_index_map = [0], index_vector_dim = 1>, slice_sizes = array<i64: 1, 3072>}> : (tensor<131072x3072xbf16>, tensor<544xui32>) -> tensor<544x3072xbf16> loc(#loc329)
      %25 = stablehlo.reshape %24 : (tensor<544x3072xbf16>) -> tensor<32x17x3072xbf16> loc(#loc330)
      %26 = stablehlo.convert %25 : (tensor<32x17x3072xbf16>) -> tensor<32x17x3072xf32> loc(#loc331)
      %27 = stablehlo.broadcast_in_dim %cst_4, dims = [] : (tensor<f32>) -> tensor<32x17x3072xf32> loc(#loc)
      %28 = stablehlo.power %26, %27 : tensor<32x17x3072xf32> loc(#loc332)
      %29 = stablehlo.reduce(%28 init: %cst_11) applies stablehlo.add across dimensions = [2] : (tensor<32x17x3072xf32>, tensor<f32>) -> tensor<32x17xf32> loc(#loc333)
      %30 = stablehlo.broadcast_in_dim %cst_5, dims = [] : (tensor<f32>) -> tensor<32x17xf32> loc(#loc)
      %31 = stablehlo.multiply %29, %30 : tensor<32x17xf32> loc(#loc334)
      %32 = stablehlo.reshape %31 : (tensor<32x17xf32>) -> tensor<32x17x1xf32> loc(#loc335)
      %33 = stablehlo.broadcast_in_dim %cst_6, dims = [] : (tensor<f32>) -> tensor<32x17x1xf32> loc(#loc)
      %34 = stablehlo.add %32, %33 : tensor<32x17x1xf32> loc(#loc336)
      %35 = stablehlo.rsqrt %34 : tensor<32x17x1xf32> loc(#loc337)
      %36 = stablehlo.reshape %35 : (tensor<32x17x1xf32>) -> tensor<32x17xf32> loc(#loc338)
      %37 = stablehlo.broadcast_in_dim %36, dims = [0, 1] : (tensor<32x17xf32>) -> tensor<32x17x3072xf32> loc(#loc339)
      %38 = stablehlo.multiply %26, %37 : tensor<32x17x3072xf32> loc(#loc340)
      %39 = stablehlo.convert %38 : (tensor<32x17x3072xf32>) -> tensor<32x17x3072xbf16> loc(#loc341)
      %40 = stablehlo.multiply %18, %39 : tensor<32x17x3072xbf16> loc(#loc342)
      %41 = stablehlo.reshape %40 : (tensor<32x17x3072xbf16>) -> tensor<544x3072xbf16> loc(#loc343)
      %42 = stablehlo.reshape %arg316 : (tensor<256x3072xbf16>) -> tensor<1x256x3072xbf16> loc(#loc344)
      %43 = stablehlo.reshape %42 : (tensor<1x256x3072xbf16>) -> tensor<256x3072xbf16> loc(#loc345)
      %44 = stablehlo.transpose %43, dims = [1, 0] {result_layout = dense<[0, 1]> : tensor<2xindex>, xla_shape = "bf16[3072,1024]{0,1}"} : (tensor<256x3072xbf16>) -> tensor<3072x256xbf16> loc(#loc346)
      %45 = stablehlo.dot_general %41, %44, contracting_dims = [1] x [0] : (tensor<544x3072xbf16>, tensor<3072x256xbf16>) -> tensor<544x256xbf16> loc(#loc347)
      %46 = stablehlo.reshape %45 : (tensor<544x256xbf16>) -> tensor<32x17x1x256xbf16> loc(#loc348)
      %47 = stablehlo.transpose %46, dims = [0, 2, 1, 3] {result_layout = dense<[3, 1, 2, 0]> : tensor<4xindex>, xla_shape = "bf16[32,4,17,256]{3,1,2,0}"} : (tensor<32x17x1x256xbf16>) -> tensor<32x1x17x256xbf16> loc(#loc349)
      %48 = stablehlo.reshape %arg315 : (tensor<128xbf16>) -> tensor<1x1x128xbf16> loc(#loc350)
      %49 = stablehlo.reshape %48 : (tensor<1x1x128xbf16>) -> tensor<1x128x1xbf16> loc(#loc351)
      %50 = stablehlo.convert %49 : (tensor<1x128x1xbf16>) -> tensor<1x128x1xf32> loc(#loc352)
      %51 = stablehlo.convert %10 : (tensor<1x1x17xi64>) -> tensor<1x1x17xf32> loc(#loc353)
      %52 = stablehlo.dot_general %50, %51, batching_dims = [0] x [0], contracting_dims = [2] x [1] : (tensor<1x128x1xf32>, tensor<1x1x17xf32>) -> tensor<1x128x17xf32> loc(#loc354)
      %53 = stablehlo.transpose %52, dims = [0, 2, 1] {result_layout = dense<[1, 2, 0]> : tensor<3xindex>, xla_shape = "f32[1,17,128]{1,2,0}"} : (tensor<1x128x17xf32>) -> tensor<1x17x128xf32> loc(#loc355)
      %54 = stablehlo.concatenate %53, %53, dim = 2 : (tensor<1x17x128xf32>, tensor<1x17x128xf32>) -> tensor<1x17x256xf32> loc(#loc356)
      %55 = stablehlo.cosine %54 : tensor<1x17x256xf32> loc(#loc357)
      %56 = stablehlo.convert %55 : (tensor<1x17x256xf32>) -> tensor<1x17x256xbf16> loc(#loc358)
      %57 = stablehlo.reshape %56 : (tensor<1x17x256xbf16>) -> tensor<17x256xbf16> loc(#loc359)
      %58 = stablehlo.broadcast_in_dim %57, dims = [2, 3] : (tensor<17x256xbf16>) -> tensor<32x1x17x256xbf16> loc(#loc360)
      %59 = stablehlo.multiply %47, %58 : tensor<32x1x17x256xbf16> loc(#loc361)
      %60 = stablehlo.slice %47 [0:32, 0:1, 0:17, 128:256] : (tensor<32x1x17x256xbf16>) -> tensor<32x1x17x128xbf16> loc(#loc362)
      %61 = stablehlo.negate %60 : tensor<32x1x17x128xbf16> loc(#loc363)
      %62 = stablehlo.slice %47 [0:32, 0:1, 0:17, 0:128] : (tensor<32x1x17x256xbf16>) -> tensor<32x1x17x128xbf16> loc(#loc364)
      %63 = stablehlo.concatenate %61, %62, dim = 3 : (tensor<32x1x17x128xbf16>, tensor<32x1x17x128xbf16>) -> tensor<32x1x17x256xbf16> loc(#loc365)
      %64 = stablehlo.sine %54 : tensor<1x17x256xf32> loc(#loc366)
      %65 = stablehlo.convert %64 : (tensor<1x17x256xf32>) -> tensor<1x17x256xbf16> loc(#loc367)
      %66 = stablehlo.reshape %65 : (tensor<1x17x256xbf16>) -> tensor<17x256xbf16> loc(#loc368)
      %67 = stablehlo.broadcast_in_dim %66, dims = [2, 3] : (tensor<17x256xbf16>) -> tensor<32x1x17x256xbf16> loc(#loc369)
      %68 = stablehlo.multiply %63, %67 : tensor<32x1x17x256xbf16> loc(#loc370)
      %69 = stablehlo.add %59, %68 : tensor<32x1x17x256xbf16> loc(#loc371)
      %70 = "stablehlo.scatter"(%arg320, %15, %69) <{scatter_dimension_numbers = #stablehlo.scatter<update_window_dims = [0, 1, 3], inserted_window_dims = [2], scatter_dims_to_operand_dims = [2], index_vector_dim = 1>}> ({
      ^bb0(%arg628: tensor<bf16> loc("scatter.125"), %arg629: tensor<bf16> loc("scatter.125")):
        stablehlo.return %arg629 : tensor<bf16> loc(#loc)
      }) : (tensor<32x1x128x256xbf16>, tensor<17x1xi64>, tensor<32x1x17x256xbf16>) -> tensor<32x1x128x256xbf16> loc(#loc372)
      %71 = stablehlo.reshape %arg321 : (tensor<256x3072xbf16>) -> tensor<1x256x3072xbf16> loc(#loc373)
      %72 = stablehlo.reshape %71 : (tensor<1x256x3072xbf16>) -> tensor<256x3072xbf16> loc(#loc374)
      %73 = stablehlo.transpose %72, dims = [1, 0] {result_layout = dense<[0, 1]> : tensor<2xindex>, xla_shape = "bf16[3072,1024]{0,1}"} : (tensor<256x3072xbf16>) -> tensor<3072x256xbf16> loc(#loc375)
      %74 = stablehlo.dot_general %41, %73, contracting_dims = [1] x [0] : (tensor<544x3072xbf16>, tensor<3072x256xbf16>) -> tensor<544x256xbf16> loc(#loc376)
      %75 = stablehlo.reshape %74 : (tensor<544x256xbf16>) -> tensor<32x17x1x256xbf16> loc(#loc377)
      %76 = stablehlo.transpose %75, dims = [0, 2, 1, 3] {result_layout = dense<[3, 1, 2, 0]> : tensor<4xindex>, xla_shape = "bf16[32,4,17,256]{3,1,2,0}"} : (tensor<32x17x1x256xbf16>) -> tensor<32x1x17x256xbf16> loc(#loc378)
      %77 = "stablehlo.scatter"(%arg322, %15, %76) <{scatter_dimension_numbers = #stablehlo.scatter<update_window_dims = [0, 1, 3], inserted_window_dims = [2], scatter_dims_to_operand_dims = [2], index_vector_dim = 1>}> ({
      ^bb0(%arg628: tensor<bf16> loc("scatter.155"), %arg629: tensor<bf16> loc("scatter.155")):
        stablehlo.return %arg629 : tensor<bf16> loc(#loc)
      }) : (tensor<32x1x128x256xbf16>, tensor<17x1xi64>, tensor<32x1x17x256xbf16>) -> tensor<32x1x128x256xbf16> loc(#loc379)
      %78 = stablehlo.reshape %arg330 : (tensor<3072xbf16>) -> tensor<1x1x3072xbf16> loc(#loc380)
      %79 = stablehlo.reshape %78 : (tensor<1x1x3072xbf16>) -> tensor<3072xbf16> loc(#loc381)
      %80 = stablehlo.broadcast_in_dim %79, dims = [2] : (tensor<3072xbf16>) -> tensor<32x17x3072xbf16> loc(#loc382)
      %81 = stablehlo.reshape %arg327 : (tensor<768x3072xbf16>) -> tensor<1x768x3072xbf16> loc(#loc383)
      %82 = stablehlo.reshape %81 : (tensor<1x768x3072xbf16>) -> tensor<768x3072xbf16> loc(#loc384)
      %83 = stablehlo.transpose %82, dims = [1, 0] {result_layout = dense<[0, 1]> : tensor<2xindex>, xla_shape = "bf16[3072,3072]{0,1}"} : (tensor<768x3072xbf16>) -> tensor<3072x768xbf16> loc(#loc385)
      %84 = stablehlo.dot_general %41, %83, contracting_dims = [1] x [0] : (tensor<544x3072xbf16>, tensor<3072x768xbf16>) -> tensor<544x768xbf16> loc(#loc386)
      %85 = stablehlo.reshape %84 : (tensor<544x768xbf16>) -> tensor<32x17x3x256xbf16> loc(#loc387)
      %86 = stablehlo.transpose %85, dims = [0, 2, 1, 3] {result_layout = dense<[3, 1, 2, 0]> : tensor<4xindex>, xla_shape = "bf16[32,12,17,256]{3,1,2,0}"} : (tensor<32x17x3x256xbf16>) -> tensor<32x3x17x256xbf16> loc(#loc388)
      %87 = stablehlo.broadcast_in_dim %57, dims = [2, 3] : (tensor<17x256xbf16>) -> tensor<32x3x17x256xbf16> loc(#loc389)
      %88 = stablehlo.multiply %86, %87 : tensor<32x3x17x256xbf16> loc(#loc390)
      %89 = stablehlo.slice %86 [0:32, 0:3, 0:17, 128:256] : (tensor<32x3x17x256xbf16>) -> tensor<32x3x17x128xbf16> loc(#loc391)
      %90 = stablehlo.negate %89 : tensor<32x3x17x128xbf16> loc(#loc392)
      %91 = stablehlo.slice %86 [0:32, 0:3, 0:17, 0:128] : (tensor<32x3x17x256xbf16>) -> tensor<32x3x17x128xbf16> loc(#loc393)
      %92 = stablehlo.concatenate %90, %91, dim = 3 : (tensor<32x3x17x128xbf16>, tensor<32x3x17x128xbf16>) -> tensor<32x3x17x256xbf16> loc(#loc394)
      %93 = stablehlo.broadcast_in_dim %66, dims = [2, 3] : (tensor<17x256xbf16>) -> tensor<32x3x17x256xbf16> loc(#loc395)
      %94 = stablehlo.multiply %92, %93 : tensor<32x3x17x256xbf16> loc(#loc396)
      %95 = stablehlo.add %88, %94 : tensor<32x3x17x256xbf16> loc(#loc397)
      %96 = stablehlo.convert %95 : (tensor<32x3x17x256xbf16>) -> tensor<32x3x17x256xf32> loc(#loc398)
      %97 = stablehlo.broadcast_in_dim %cst_7, dims = [] : (tensor<f32>) -> tensor<32x3x17x256xf32> loc(#loc)
      %98 = stablehlo.multiply %96, %97 : tensor<32x3x17x256xf32> loc(#loc399)
      %99 = stablehlo.broadcast_in_dim %70, dims = [0, 1, 3, 4] : (tensor<32x1x128x256xbf16>) -> tensor<32x1x3x128x256xbf16> loc(#loc400)
      %100 = stablehlo.reshape %99 : (tensor<32x1x3x128x256xbf16>) -> tensor<32x3x128x256xbf16> loc(#loc401)
      %101 = stablehlo.convert %100 : (tensor<32x3x128x256xbf16>) -> tensor<32x3x128x256xf32> loc(#loc402)
      %102 = stablehlo.transpose %101, dims = [0, 1, 3, 2] {result_layout = dense<[2, 3, 1, 0]> : tensor<4xindex>, xla_shape = "f32[32,12,256,128]{2,3,1,0}"} : (tensor<32x3x128x256xf32>) -> tensor<32x3x256x128xf32> loc(#loc403)
      %103 = stablehlo.broadcast_in_dim %cst_7, dims = [] : (tensor<f32>) -> tensor<32x3x256x128xf32> loc(#loc)
      %104 = stablehlo.multiply %102, %103 : tensor<32x3x256x128xf32> loc(#loc404)
      %105 = stablehlo.dot_general %98, %104, batching_dims = [0, 1] x [0, 1], contracting_dims = [3] x [2] {mhlo.frontend_attributes = {grad_x = "false", grad_y = "false"}} : (tensor<32x3x17x256xf32>, tensor<32x3x256x128xf32>) -> tensor<32x3x17x128xf32> loc(#loc405)
      %106 = stablehlo.broadcast_in_dim %c_0, dims = [1] : (tensor<128xi64>) -> tensor<17x128xi64> loc(#loc406)
      %107 = stablehlo.broadcast_in_dim %11, dims = [0] : (tensor<17xi64>) -> tensor<17x128xi64> loc(#loc407)
      %108 = stablehlo.compare  LE, %106, %107 : (tensor<17x128xi64>, tensor<17x128xi64>) -> tensor<17x128xi1> loc(#loc408)
      %109 = stablehlo.reshape %108 : (tensor<17x128xi1>) -> tensor<1x17x128xi1> loc(#loc409)
      %110 = stablehlo.broadcast_in_dim %109, dims = [1, 2, 3] : (tensor<1x17x128xi1>) -> tensor<32x1x17x128xi1> loc(#loc410)
      %111 = stablehlo.select %110, %4, %3 : tensor<32x1x17x128xi1>, tensor<32x1x17x128xbf16> loc(#loc411)
      %112 = stablehlo.convert %111 : (tensor<32x1x17x128xbf16>) -> tensor<32x1x17x128xf32> loc(#loc412)
      %113 = stablehlo.reshape %112 : (tensor<32x1x17x128xf32>) -> tensor<32x17x128xf32> loc(#loc413)
      %114 = stablehlo.broadcast_in_dim %113, dims = [0, 2, 3] : (tensor<32x17x128xf32>) -> tensor<32x3x17x128xf32> loc(#loc414)
      %115 = stablehlo.add %105, %114 : tensor<32x3x17x128xf32> loc(#loc415)
      %116 = stablehlo.convert %115 : (tensor<32x3x17x128xf32>) -> tensor<32x3x17x128xf64> loc(#loc416)
      %117 = stablehlo.broadcast_in_dim %cst_10, dims = [] : (tensor<f64>) -> tensor<32x3x17x128xf64> loc(#loc)
      %118 = stablehlo.compare  EQ, %116, %117 : (tensor<32x3x17x128xf64>, tensor<32x3x17x128xf64>) -> tensor<32x3x17x128xi1> loc(#loc417)
      %119 = stablehlo.not %118 : tensor<32x3x17x128xi1> loc(#loc418)
      %120 = stablehlo.reduce(%119 init: %c_1) across dimensions = [3] : (tensor<32x3x17x128xi1>, tensor<i1>) -> tensor<32x3x17xi1>
       reducer(%arg628: tensor<i1> loc("reduce.312"), %arg629: tensor<i1> loc("reduce.312"))  {
        %3874 = stablehlo.or %arg628, %arg629 : tensor<i1> loc(#loc420)
        %3875 = stablehlo.select %3874, %c, %c_1 : tensor<i1>, tensor<i1> loc(#loc421)
        stablehlo.return %3875 : tensor<i1> loc(#loc)
      } loc(#loc419)
      %121 = stablehlo.reshape %120 : (tensor<32x3x17xi1>) -> tensor<32x3x17x1xi1> loc(#loc422)
      %122 = stablehlo.not %121 : tensor<32x3x17x1xi1> loc(#loc423)
      %123 = stablehlo.reshape %122 : (tensor<32x3x17x1xi1>) -> tensor<32x3x17xi1> loc(#loc424)
      %124 = stablehlo.broadcast_in_dim %123, dims = [0, 1, 2] : (tensor<32x3x17xi1>) -> tensor<32x3x17x128xi1> loc(#loc425)
      %125 = stablehlo.reduce(%115 init: %cst) applies stablehlo.maximum across dimensions = [3] : (tensor<32x3x17x128xf32>, tensor<f32>) -> tensor<32x3x17xf32> loc(#loc426)
      %126 = stablehlo.broadcast_in_dim %125, dims = [0, 1, 2] : (tensor<32x3x17xf32>) -> tensor<32x3x17x128xf32> loc(#loc427)
      %127 = stablehlo.subtract %115, %126 : tensor<32x3x17x128xf32> loc(#loc428)
      %128 = stablehlo.exponential %127 : tensor<32x3x17x128xf32> loc(#loc429)
      %129 = stablehlo.reduce(%128 init: %cst_11) applies stablehlo.add across dimensions = [3] : (tensor<32x3x17x128xf32>, tensor<f32>) -> tensor<32x3x17xf32> loc(#loc430)
      %130 = stablehlo.broadcast_in_dim %129, dims = [0, 1, 2] : (tensor<32x3x17xf32>) -> tensor<32x3x17x128xf32> loc(#loc431)
      %131 = stablehlo.divide %128, %130 : tensor<32x3x17x128xf32> loc(#loc432)
      %132 = stablehlo.broadcast_in_dim %cst_11, dims = [] : (tensor<f32>) -> tensor<32x3x17x128xf32> loc(#loc)
      %133 = stablehlo.select %124, %132, %131 : tensor<32x3x17x128xi1>, tensor<32x3x17x128xf32> loc(#loc433)
      %134 = stablehlo.broadcast_in_dim %77, dims = [0, 1, 3, 4] : (tensor<32x1x128x256xbf16>) -> tensor<32x1x3x128x256xbf16> loc(#loc434)
      %135 = stablehlo.reshape %134 : (tensor<32x1x3x128x256xbf16>) -> tensor<32x3x128x256xbf16> loc(#loc435)
      %136 = stablehlo.convert %135 : (tensor<32x3x128x256xbf16>) -> tensor<32x3x128x256xf32> loc(#loc436)
      %137 = stablehlo.dot_general %133, %136, batching_dims = [0, 1] x [0, 1], contracting_dims = [3] x [2] {mhlo.frontend_attributes = {grad_x = "false", grad_y = "false"}} : (tensor<32x3x17x128xf32>, tensor<32x3x128x256xf32>) -> tensor<32x3x17x256xf32> loc(#loc437)
      %138 = stablehlo.convert %137 : (tensor<32x3x17x256xf32>) -> tensor<32x3x17x256xbf16> loc(#loc438)
      %139 = stablehlo.transpose %138, dims = [0, 2, 1, 3] {result_layout = dense<[3, 1, 2, 0]> : tensor<4xindex>, xla_shape = "bf16[32,17,12,256]{3,1,2,0}"} : (tensor<32x3x17x256xbf16>) -> tensor<32x17x3x256xbf16> loc(#loc439)
      %140 = stablehlo.reshape %139 : (tensor<32x17x3x256xbf16>) -> tensor<544x768xbf16> loc(#loc440)
      %141 = stablehlo.reshape %arg326 : (tensor<3072x768xbf16>) -> tensor<1x3072x768xbf16> loc(#loc441)
      %142 = stablehlo.reshape %141 : (tensor<1x3072x768xbf16>) -> tensor<3072x768xbf16> loc(#loc442)
      %143 = stablehlo.transpose %142, dims = [1, 0] {result_layout = dense<[0, 1]> : tensor<2xindex>, xla_shape = "bf16[3072,3072]{0,1}"} : (tensor<3072x768xbf16>) -> tensor<768x3072xbf16> loc(#loc443)
      %144 = stablehlo.dot_general %140, %143, contracting_dims = [1] x [0] : (tensor<544x768xbf16>, tensor<768x3072xbf16>) -> tensor<544x3072xbf16> loc(#loc444)
      %145 = "stablehlo.all_reduce"(%144) <{channel_handle = #stablehlo.channel_handle<handle = 1, type = 1>, replica_groups = dense<[[0, 1, 2, 3], [4, 5, 6, 7]]> : tensor<2x4xi64>}> ({
      ^bb0(%arg628: tensor<bf16> loc("dot.329"), %arg629: tensor<bf16> loc("dot.329")):
        %3874 = stablehlo.add %arg628, %arg629 : tensor<bf16> loc(#loc444)
        stablehlo.return %3874 : tensor<bf16> loc(#loc444)
      }) : (tensor<544x3072xbf16>) -> tensor<544x3072xbf16> loc(#loc444)
      %146 = stablehlo.reshape %145 : (tensor<544x3072xbf16>) -> tensor<32x17x3072xbf16> loc(#loc445)
      %147 = stablehlo.add %25, %146 : tensor<32x17x3072xbf16> loc(#loc446)
      %148 = stablehlo.reshape %arg328 : (tensor<3072xbf16>) -> tensor<1x1x3072xbf16> loc(#loc447)
      %149 = stablehlo.reshape %148 : (tensor<1x1x3072xbf16>) -> tensor<3072xbf16> loc(#loc448)
      %150 = stablehlo.broadcast_in_dim %149, dims = [2] : (tensor<3072xbf16>) -> tensor<32x17x3072xbf16> loc(#loc449)
      %151 = stablehlo.convert %147 : (tensor<32x17x3072xbf16>) -> tensor<32x17x3072xf32> loc(#loc450)
      %152 = stablehlo.broadcast_in_dim %cst_4, dims = [] : (tensor<f32>) -> tensor<32x17x3072xf32> loc(#loc)
      %153 = stablehlo.power %151, %152 : tensor<32x17x3072xf32> loc(#loc451)
      %154 = stablehlo.reduce(%153 init: %cst_11) applies stablehlo.add across dimensions = [2] : (tensor<32x17x3072xf32>, tensor<f32>) -> tensor<32x17xf32> loc(#loc452)
      %155 = stablehlo.broadcast_in_dim %cst_5, dims = [] : (tensor<f32>) -> tensor<32x17xf32> loc(#loc)
      %156 = stablehlo.multiply %154, %155 : tensor<32x17xf32> loc(#loc453)
      %157 = stablehlo.reshape %156 : (tensor<32x17xf32>) -> tensor<32x17x1xf32> loc(#loc454)
      %158 = stablehlo.broadcast_in_dim %cst_6, dims = [] : (tensor<f32>) -> tensor<32x17x1xf32> loc(#loc)
      %159 = stablehlo.add %157, %158 : tensor<32x17x1xf32> loc(#loc455)
      %160 = stablehlo.rsqrt %159 : tensor<32x17x1xf32> loc(#loc456)
      %161 = stablehlo.reshape %160 : (tensor<32x17x1xf32>) -> tensor<32x17xf32> loc(#loc457)
      %162 = stablehlo.broadcast_in_dim %161, dims = [0, 1] : (tensor<32x17xf32>) -> tensor<32x17x3072xf32> loc(#loc458)
      %163 = stablehlo.multiply %151, %162 : tensor<32x17x3072xf32> loc(#loc459)
      %164 = stablehlo.convert %163 : (tensor<32x17x3072xf32>) -> tensor<32x17x3072xbf16> loc(#loc460)
      %165 = stablehlo.multiply %150, %164 : tensor<32x17x3072xbf16> loc(#loc461)
      %166 = stablehlo.reshape %165 : (tensor<32x17x3072xbf16>) -> tensor<544x3072xbf16> loc(#loc462)
      %167 = stablehlo.reshape %arg329 : (tensor<5760x3072xbf16>) -> tensor<1x5760x3072xbf16> loc(#loc463)
      %168 = stablehlo.reshape %167 : (tensor<1x5760x3072xbf16>) -> tensor<5760x3072xbf16> loc(#loc464)
      %169 = stablehlo.transpose %168, dims = [1, 0] {result_layout = dense<[0, 1]> : tensor<2xindex>, xla_shape = "bf16[3072,23040]{0,1}"} : (tensor<5760x3072xbf16>) -> tensor<3072x5760xbf16> loc(#loc465)
      %170 = stablehlo.dot_general %166, %169, contracting_dims = [1] x [0] : (tensor<544x3072xbf16>, tensor<3072x5760xbf16>) -> tensor<544x5760xbf16> loc(#loc466)
      %171 = stablehlo.reshape %170 : (tensor<544x5760xbf16>) -> tensor<32x17x5760xbf16> loc(#loc467)
      %172 = stablehlo.logistic %171 : tensor<32x17x5760xbf16> loc(#loc468)
      %173 = stablehlo.multiply %171, %172 : tensor<32x17x5760xbf16> loc(#loc469)
      %174 = stablehlo.reshape %arg325 : (tensor<5760x3072xbf16>) -> tensor<1x5760x3072xbf16> loc(#loc470)
      %175 = stablehlo.reshape %174 : (tensor<1x5760x3072xbf16>) -> tensor<5760x3072xbf16> loc(#loc471)
      %176 = stablehlo.transpose %175, dims = [1, 0] {result_layout = dense<[0, 1]> : tensor<2xindex>, xla_shape = "bf16[3072,23040]{0,1}"} : (tensor<5760x3072xbf16>) -> tensor<3072x5760xbf16> loc(#loc472)
      %177 = stablehlo.dot_general %166, %176, contracting_dims = [1] x [0] : (tensor<544x3072xbf16>, tensor<3072x5760xbf16>) -> tensor<544x5760xbf16> loc(#loc473)
      %178 = stablehlo.reshape %177 : (tensor<544x5760xbf16>) -> tensor<32x17x5760xbf16> loc(#loc474)
      %179 = stablehlo.multiply %173, %178 : tensor<32x17x5760xbf16> loc(#loc475)
      %180 = stablehlo.reshape %179 : (tensor<32x17x5760xbf16>) -> tensor<544x5760xbf16> loc(#loc476)
      %181 = stablehlo.reshape %arg324 : (tensor<3072x5760xbf16>) -> tensor<1x3072x5760xbf16> loc(#loc477)
      %182 = stablehlo.reshape %181 : (tensor<1x3072x5760xbf16>) -> tensor<3072x5760xbf16> loc(#loc478)
      %183 = stablehlo.transpose %182, dims = [1, 0] {result_layout = dense<[0, 1]> : tensor<2xindex>, xla_shape = "bf16[23040,3072]{0,1}"} : (tensor<3072x5760xbf16>) -> tensor<5760x3072xbf16> loc(#loc479)
      %184 = stablehlo.dot_general %180, %183, contracting_dims = [1] x [0] : (tensor<544x5760xbf16>, tensor<5760x3072xbf16>) -> tensor<544x3072xbf16> loc(#loc480)
      %185 = "stablehlo.all_reduce"(%184) <{channel_handle = #stablehlo.channel_handle<handle = 1, type = 1>, replica_groups = dense<[[0, 1, 2, 3], [4, 5, 6, 7]]> : tensor<2x4xi64>}> ({
      ^bb0(%arg628: tensor<bf16> loc("dot.384"), %arg629: tensor<bf16> loc("dot.384")):
        %3874 = stablehlo.add %arg628, %arg629 : tensor<bf16> loc(#loc480)
        stablehlo.return %3874 : tensor<bf16> loc(#loc480)
      }) : (tensor<544x3072xbf16>) -> tensor<544x3072xbf16> loc(#loc480)
      %186 = stablehlo.reshape %185 : (tensor<544x3072xbf16>) -> tensor<32x17x3072xbf16> loc(#loc481)
      %187 = stablehlo.add %147, %186 : tensor<32x17x3072xbf16> loc(#loc482)
      %188 = stablehlo.convert %187 : (tensor<32x17x3072xbf16>) -> tensor<32x17x3072xf32> loc(#loc483)
      %189 = stablehlo.broadcast_in_dim %cst_4, dims = [] : (tensor<f32>) -> tensor<32x17x3072xf32> loc(#loc)
      %190 = stablehlo.power %188, %189 : tensor<32x17x3072xf32> loc(#loc484)
      %191 = stablehlo.reduce(%190 init: %cst_11) applies stablehlo.add across dimensions = [2] : (tensor<32x17x3072xf32>, tensor<f32>) -> tensor<32x17xf32> loc(#loc485)
      %192 = stablehlo.broadcast_in_dim %cst_5, dims = [] : (tensor<f32>) -> tensor<32x17xf32> loc(#loc)
      %193 = stablehlo.multiply %191, %192 : tensor<32x17xf32> loc(#loc486)
      %194 = stablehlo.reshape %193 : (tensor<32x17xf32>) -> tensor<32x17x1xf32> loc(#loc487)
      %195 = stablehlo.broadcast_in_dim %cst_6, dims = [] : (tensor<f32>) -> tensor<32x17x1xf32> loc(#loc)
      %196 = stablehlo.add %194, %195 : tensor<32x17x1xf32> loc(#loc488)
      %197 = stablehlo.rsqrt %196 : tensor<32x17x1xf32> loc(#loc489)
      %198 = stablehlo.reshape %197 : (tensor<32x17x1xf32>) -> tensor<32x17xf32> loc(#loc490)
      %199 = stablehlo.broadcast_in_dim %198, dims = [0, 1] : (tensor<32x17xf32>) -> tensor<32x17x3072xf32> loc(#loc491)
      %200 = stablehlo.multiply %188, %199 : tensor<32x17x3072xf32> loc(#loc492)
      %201 = stablehlo.convert %200 : (tensor<32x17x3072xf32>) -> tensor<32x17x3072xbf16> loc(#loc493)
      %202 = stablehlo.multiply %80, %201 : tensor<32x17x3072xbf16> loc(#loc494)
      %203 = stablehlo.reshape %202 : (tensor<32x17x3072xbf16>) -> tensor<544x3072xbf16> loc(#loc495)
      %204 = stablehlo.reshape %arg323 : (tensor<256x3072xbf16>) -> tensor<1x256x3072xbf16> loc(#loc496)
      %205 = stablehlo.reshape %204 : (tensor<1x256x3072xbf16>) -> tensor<256x3072xbf16> loc(#loc497)
      %206 = stablehlo.transpose %205, dims = [1, 0] {result_layout = dense<[0, 1]> : tensor<2xindex>, xla_shape = "bf16[3072,1024]{0,1}"} : (tensor<256x3072xbf16>) -> tensor<3072x256xbf16> loc(#loc498)
      %207 = stablehlo.dot_general %203, %206, contracting_dims = [1] x [0] : (tensor<544x3072xbf16>, tensor<3072x256xbf16>) -> tensor<544x256xbf16> loc(#loc499)
      %208 = stablehlo.reshape %207 : (tensor<544x256xbf16>) -> tensor<32x17x1x256xbf16> loc(#loc500)
      %209 = stablehlo.transpose %208, dims = [0, 2, 1, 3] {result_layout = dense<[3, 1, 2, 0]> : tensor<4xindex>, xla_shape = "bf16[32,4,17,256]{3,1,2,0}"} : (tensor<32x17x1x256xbf16>) -> tensor<32x1x17x256xbf16> loc(#loc501)
      %210 = stablehlo.multiply %209, %58 : tensor<32x1x17x256xbf16> loc(#loc502)
      %211 = stablehlo.slice %209 [0:32, 0:1, 0:17, 128:256] : (tensor<32x1x17x256xbf16>) -> tensor<32x1x17x128xbf16> loc(#loc503)
      %212 = stablehlo.negate %211 : tensor<32x1x17x128xbf16> loc(#loc504)
      %213 = stablehlo.slice %209 [0:32, 0:1, 0:17, 0:128] : (tensor<32x1x17x256xbf16>) -> tensor<32x1x17x128xbf16> loc(#loc505)
      %214 = stablehlo.concatenate %212, %213, dim = 3 : (tensor<32x1x17x128xbf16>, tensor<32x1x17x128xbf16>) -> tensor<32x1x17x256xbf16> loc(#loc506)
      %215 = stablehlo.multiply %214, %67 : tensor<32x1x17x256xbf16> loc(#loc507)
      %216 = stablehlo.add %210, %215 : tensor<32x1x17x256xbf16> loc(#loc508)
      %217 = "stablehlo.scatter"(%arg331, %15, %216) <{scatter_dimension_numbers = #stablehlo.scatter<update_window_dims = [0, 1, 3], inserted_window_dims = [2], scatter_dims_to_operand_dims = [2], index_vector_dim = 1>}> ({
      ^bb0(%arg628: tensor<bf16> loc("scatter.461"), %arg629: tensor<bf16> loc("scatter.461")):
        stablehlo.return %arg629 : tensor<bf16> loc(#loc)
      }) : (tensor<32x1x128x256xbf16>, tensor<17x1xi64>, tensor<32x1x17x256xbf16>) -> tensor<32x1x128x256xbf16> loc(#loc509)
      %218 = stablehlo.reshape %arg332 : (tensor<256x3072xbf16>) -> tensor<1x256x3072xbf16> loc(#loc510)
      %219 = stablehlo.reshape %218 : (tensor<1x256x3072xbf16>) -> tensor<256x3072xbf16> loc(#loc511)
      %220 = stablehlo.transpose %219, dims = [1, 0] {result_layout = dense<[0, 1]> : tensor<2xindex>, xla_shape = "bf16[3072,1024]{0,1}"} : (tensor<256x3072xbf16>) -> tensor<3072x256xbf16> loc(#loc512)
      %221 = stablehlo.dot_general %203, %220, contracting_dims = [1] x [0] : (tensor<544x3072xbf16>, tensor<3072x256xbf16>) -> tensor<544x256xbf16> loc(#loc513)
      %222 = stablehlo.reshape %221 : (tensor<544x256xbf16>) -> tensor<32x17x1x256xbf16> loc(#loc514)
      %223 = stablehlo.transpose %222, dims = [0, 2, 1, 3] {result_layout = dense<[3, 1, 2, 0]> : tensor<4xindex>, xla_shape = "bf16[32,4,17,256]{3,1,2,0}"} : (tensor<32x17x1x256xbf16>) -> tensor<32x1x17x256xbf16> loc(#loc515)
      %224 = "stablehlo.scatter"(%arg333, %15, %223) <{scatter_dimension_numbers = #stablehlo.scatter<update_window_dims = [0, 1, 3], inserted_window_dims = [2], scatter_dims_to_operand_dims = [2], index_vector_dim = 1>}> ({
      ^bb0(%arg628: tensor<bf16> loc("scatter.491"), %arg629: tensor<bf16> loc("scatter.491")):
        stablehlo.return %arg629 : tensor<bf16> loc(#loc)
      }) : (tensor<32x1x128x256xbf16>, tensor<17x1xi64>, tensor<32x1x17x256xbf16>) -> tensor<32x1x128x256xbf16> loc(#loc516)
      %225 = stablehlo.reshape %arg341 : (tensor<3072xbf16>) -> tensor<1x1x3072xbf16> loc(#loc517)
      %226 = stablehlo.reshape %225 : (tensor<1x1x3072xbf16>) -> tensor<3072xbf16> loc(#loc518)
      %227 = stablehlo.broadcast_in_dim %226, dims = [2] : (tensor<3072xbf16>) -> tensor<32x17x3072xbf16> loc(#loc519)
      %228 = stablehlo.reshape %arg338 : (tensor<768x3072xbf16>) -> tensor<1x768x3072xbf16> loc(#loc520)
      %229 = stablehlo.reshape %228 : (tensor<1x768x3072xbf16>) -> tensor<768x3072xbf16> loc(#loc521)
      %230 = stablehlo.transpose %229, dims = [1, 0] {result_layout = dense<[0, 1]> : tensor<2xindex>, xla_shape = "bf16[3072,3072]{0,1}"} : (tensor<768x3072xbf16>) -> tensor<3072x768xbf16> loc(#loc522)
      %231 = stablehlo.dot_general %203, %230, contracting_dims = [1] x [0] : (tensor<544x3072xbf16>, tensor<3072x768xbf16>) -> tensor<544x768xbf16> loc(#loc523)
      %232 = stablehlo.reshape %231 : (tensor<544x768xbf16>) -> tensor<32x17x3x256xbf16> loc(#loc524)
      %233 = stablehlo.transpose %232, dims = [0, 2, 1, 3] {result_layout = dense<[3, 1, 2, 0]> : tensor<4xindex>, xla_shape = "bf16[32,12,17,256]{3,1,2,0}"} : (tensor<32x17x3x256xbf16>) -> tensor<32x3x17x256xbf16> loc(#loc525)
      %234 = stablehlo.multiply %233, %87 : tensor<32x3x17x256xbf16> loc(#loc526)
      %235 = stablehlo.slice %233 [0:32, 0:3, 0:17, 128:256] : (tensor<32x3x17x256xbf16>) -> tensor<32x3x17x128xbf16> loc(#loc527)
      %236 = stablehlo.negate %235 : tensor<32x3x17x128xbf16> loc(#loc528)
      %237 = stablehlo.slice %233 [0:32, 0:3, 0:17, 0:128] : (tensor<32x3x17x256xbf16>) -> tensor<32x3x17x128xbf16> loc(#loc529)
      %238 = stablehlo.concatenate %236, %237, dim = 3 : (tensor<32x3x17x128xbf16>, tensor<32x3x17x128xbf16>) -> tensor<32x3x17x256xbf16> loc(#loc530)
      %239 = stablehlo.multiply %238, %93 : tensor<32x3x17x256xbf16> loc(#loc531)
      %240 = stablehlo.add %234, %239 : tensor<32x3x17x256xbf16> loc(#loc532)
      %241 = stablehlo.convert %240 : (tensor<32x3x17x256xbf16>) -> tensor<32x3x17x256xf32> loc(#loc533)
      %242 = stablehlo.broadcast_in_dim %cst_7, dims = [] : (tensor<f32>) -> tensor<32x3x17x256xf32> loc(#loc)
      %243 = stablehlo.multiply %241, %242 : tensor<32x3x17x256xf32> loc(#loc534)
      %244 = stablehlo.broadcast_in_dim %217, dims = [0, 1, 3, 4] : (tensor<32x1x128x256xbf16>) -> tensor<32x1x3x128x256xbf16> loc(#loc535)
      %245 = stablehlo.reshape %244 : (tensor<32x1x3x128x256xbf16>) -> tensor<32x3x128x256xbf16> loc(#loc536)
      %246 = stablehlo.convert %245 : (tensor<32x3x128x256xbf16>) -> tensor<32x3x128x256xf32> loc(#loc537)
      %247 = stablehlo.transpose %246, dims = [0, 1, 3, 2] {result_layout = dense<[2, 3, 1, 0]> : tensor<4xindex>, xla_shape = "f32[32,12,256,128]{2,3,1,0}"} : (tensor<32x3x128x256xf32>) -> tensor<32x3x256x128xf32> loc(#loc538)
…
#loc2215 = loc("power.4802")
#loc2216 = loc("reduce.4809")
#loc2217 = loc("multiply.4818")
#loc2218 = loc("reshape.4819")
#loc2219 = loc("add.4823")
#loc2220 = loc("rsqrt.4824")
#loc2221 = loc("reshape.4825")
#loc2222 = loc("broadcast.4826")
#loc2223 = loc("multiply.4827")
#loc2224 = loc("convert.4828")
#loc2225 = loc("multiply.4834")
#loc2226 = loc("reshape.4843")
#loc2227 = loc("reshape.4839")
#loc2228 = loc("reshape.4841")
#loc2229 = loc("transpose.4842")
#loc2230 = loc("dot.4844")
#loc2231 = loc("reshape.4845")
#loc2232 = loc("logistic.4846")
#loc2233 = loc("multiply.4847")
#loc2234 = loc("reshape.4657")
#loc2235 = loc("reshape.4659")
#loc2236 = loc("transpose.4660")
#loc2237 = loc("dot.4836")
#loc2238 = loc("reshape.4837")
#loc2239 = loc("multiply.4848")
#loc2240 = loc("reshape.4849")
#loc2241 = loc("reshape.4652")
#loc2242 = loc("reshape.4654")
#loc2243 = loc("transpose.4655")
#loc2245 = loc("reshape.4851")
#loc2246 = loc("add.4854")
#loc2247 = loc("convert.4855")
#loc2248 = loc("power.4857")
#loc2249 = loc("reduce.4864")
#loc2250 = loc("multiply.4873")
#loc2251 = loc("reshape.4874")
#loc2252 = loc("add.4878")
#loc2253 = loc("rsqrt.4879")
#loc2254 = loc("reshape.4880")
#loc2255 = loc("broadcast.4881")
#loc2256 = loc("multiply.4882")
#loc2257 = loc("convert.4883")
#loc2258 = loc("multiply.4889")
#loc2259 = loc("reshape.4890")
#loc2260 = loc("reshape.4643")
#loc2261 = loc("reshape.4645")
#loc2262 = loc("transpose.4646")
#loc2263 = loc("dot.4891")
#loc2264 = loc("reshape.4893")
#loc2265 = loc("transpose.4894")
#loc2266 = loc("multiply.4905")
#loc2267 = loc("slice.4896")
#loc2268 = loc("negate.4897")
#loc2269 = loc("slice.4895")
#loc2270 = loc("concatenate.4898")
#loc2271 = loc("multiply.4901")
#loc2272 = loc("add.4908")
#loc2274 = loc("reshape.4930")
#loc2275 = loc("reshape.4932")
#loc2276 = loc("transpose.4933")
#loc2277 = loc("dot.4935")
#loc2278 = loc("reshape.4937")
#loc2279 = loc("transpose.4938")
#loc2281 = loc("reshape.5204")
#loc2282 = loc("reshape.5206")
#loc2283 = loc("broadcast.5207")
#loc2284 = loc("reshape.5023")
#loc2285 = loc("reshape.5025")
#loc2286 = loc("transpose.5026")
#loc2287 = loc("dot.5028")
#loc2288 = loc("reshape.5030")
#loc2289 = loc("transpose.5031")
#loc2290 = loc("multiply.5041")
#loc2291 = loc("slice.5033")
#loc2292 = loc("negate.5034")
#loc2293 = loc("slice.5032")
#loc2294 = loc("concatenate.5035")
#loc2295 = loc("multiply.5038")
#loc2296 = loc("add.5044")
#loc2297 = loc("convert.5045")
#loc2298 = loc("multiply.5047")
#loc2299 = loc("broadcast.5014")
#loc2300 = loc("reshape.5015")
#loc2301 = loc("convert.5016")
#loc2302 = loc("transpose.5017")
#loc2303 = loc("multiply.5019")
#loc2304 = loc("dot.5048")
#loc2305 = loc("add.5055")
#loc2306 = loc("convert.5081")
#loc2307 = loc("compare.5083")
#loc2308 = loc("not.5085")
#loc2310 = loc("or.5095")
#loc2311 = loc("select.5096")
#loc2312 = loc("reshape.5101")
#loc2313 = loc("not.5103")
#loc2314 = loc("reshape.5105")
#loc2315 = loc("broadcast.5106")
#loc2316 = loc("reduce.5061")
#loc2317 = loc("broadcast.5062")
#loc2318 = loc("subtract.5063")
#loc2319 = loc("exponential.5064")
#loc2320 = loc("reduce.5070")
#loc2321 = loc("broadcast.5071")
#loc2322 = loc("divide.5072")
#loc2323 = loc("select.5107")
#loc2324 = loc("broadcast.4992")
#loc2325 = loc("reshape.4993")
#loc2326 = loc("convert.4994")
#loc2327 = loc("dot.5108")
#loc2328 = loc("convert.5110")
#loc2329 = loc("transpose.5111")
#loc2330 = loc("reshape.5113")
#loc2331 = loc("reshape.4985")
#loc2332 = loc("reshape.4987")
#loc2333 = loc("transpose.4988")
#loc2335 = loc("reshape.5115")
#loc2336 = loc("add.5118")
#loc2337 = loc("reshape.5149")
#loc2338 = loc("reshape.5151")
#loc2339 = loc("broadcast.5152")
#loc2340 = loc("convert.5119")
#loc2341 = loc("power.5121")
#loc2342 = loc("reduce.5128")
#loc2343 = loc("multiply.5137")
#loc2344 = loc("reshape.5138")
#loc2345 = loc("add.5142")
#loc2346 = loc("rsqrt.5143")
#loc2347 = loc("reshape.5144")
#loc2348 = loc("broadcast.5145")
#loc2349 = loc("multiply.5146")
#loc2350 = loc("convert.5147")
#loc2351 = loc("multiply.5153")
#loc2352 = loc("reshape.5162")
#loc2353 = loc("reshape.5158")
#loc2354 = loc("reshape.5160")
#loc2355 = loc("transpose.5161")
#loc2356 = loc("dot.5163")
#loc2357 = loc("reshape.5164")
#loc2358 = loc("logistic.5165")
#loc2359 = loc("multiply.5166")
#loc2360 = loc("reshape.4976")
#loc2361 = loc("reshape.4978")
#loc2362 = loc("transpose.4979")
#loc2363 = loc("dot.5155")
#loc2364 = loc("reshape.5156")
#loc2365 = loc("multiply.5167")
#loc2366 = loc("reshape.5168")
#loc2367 = loc("reshape.4971")
#loc2368 = loc("reshape.4973")
#loc2369 = loc("transpose.4974")
#loc2371 = loc("reshape.5170")
#loc2372 = loc("add.5173")
#loc2373 = loc("convert.5174")
#loc2374 = loc("power.5176")
#loc2375 = loc("reduce.5183")
#loc2376 = loc("multiply.5192")
#loc2377 = loc("reshape.5193")
#loc2378 = loc("add.5197")
#loc2379 = loc("rsqrt.5198")
#loc2380 = loc("reshape.5199")
#loc2381 = loc("broadcast.5200")
#loc2382 = loc("multiply.5201")
#loc2383 = loc("convert.5202")
#loc2384 = loc("multiply.5208")
#loc2385 = loc("reshape.5209")
#loc2386 = loc("reshape.4962")
#loc2387 = loc("reshape.4964")
#loc2388 = loc("transpose.4965")
#loc2389 = loc("dot.5210")
#loc2390 = loc("reshape.5212")
#loc2391 = loc("transpose.5213")
#loc2392 = loc("multiply.5224")
#loc2393 = loc("slice.5215")
#loc2394 = loc("negate.5216")
#loc2395 = loc("slice.5214")
#loc2396 = loc("concatenate.5217")
#loc2397 = loc("multiply.5220")
#loc2398 = loc("add.5227")
#loc2400 = loc("reshape.5249")
#loc2401 = loc("reshape.5251")
#loc2402 = loc("transpose.5252")
#loc2403 = loc("dot.5254")
#loc2404 = loc("reshape.5256")
#loc2405 = loc("transpose.5257")
#loc2407 = loc("reshape.5523")
#loc2408 = loc("reshape.5525")
#loc2409 = loc("broadcast.5526")
#loc2410 = loc("reshape.5342")
#loc2411 = loc("reshape.5344")
#loc2412 = loc("transpose.5345")
#loc2413 = loc("dot.5347")
#loc2414 = loc("reshape.5349")
#loc2415 = loc("transpose.5350")
#loc2416 = loc("multiply.5360")
#loc2417 = loc("slice.5352")
#loc2418 = loc("negate.5353")
#loc2419 = loc("slice.5351")
#loc2420 = loc("concatenate.5354")
#loc2421 = loc("multiply.5357")
#loc2422 = loc("add.5363")
#loc2423 = loc("convert.5364")
#loc2424 = loc("multiply.5366")
#loc2425 = loc("broadcast.5333")
#loc2426 = loc("reshape.5334")
#loc2427 = loc("convert.5335")
#loc2428 = loc("transpose.5336")
#loc2429 = loc("multiply.5338")
#loc2430 = loc("dot.5367")
#loc2431 = loc("add.5374")
#loc2432 = loc("convert.5400")
#loc2433 = loc("compare.5402")
#loc2434 = loc("not.5404")
#loc2436 = loc("or.5414")
#loc2437 = loc("select.5415")
#loc2438 = loc("reshape.5420")
#loc2439 = loc("not.5422")
#loc2440 = loc("reshape.5424")
#loc2441 = loc("broadcast.5425")
#loc2442 = loc("reduce.5380")
#loc2443 = loc("broadcast.5381")
#loc2444 = loc("subtract.5382")
#loc2445 = loc("exponential.5383")
#loc2446 = loc("reduce.5389")
#loc2447 = loc("broadcast.5390")
#loc2448 = loc("divide.5391")
#loc2449 = loc("select.5426")
#loc2450 = loc("broadcast.5311")
#loc2451 = loc("reshape.5312")
#loc2452 = loc("convert.5313")
#loc2453 = loc("dot.5427")
#loc2454 = loc("convert.5429")
#loc2455 = loc("transpose.5430")
#loc2456 = loc("reshape.5432")
#loc2457 = loc("reshape.5304")
#loc2458 = loc("reshape.5306")
#loc2459 = loc("transpose.5307")
#loc2461 = loc("reshape.5434")
#loc2462 = loc("add.5437")
#loc2463 = loc("reshape.5468")
#loc2464 = loc("reshape.5470")
#loc2465 = loc("broadcast.5471")
#loc2466 = loc("convert.5438")
#loc2467 = loc("power.5440")
#loc2468 = loc("reduce.5447")
#loc2469 = loc("multiply.5456")
#loc2470 = loc("reshape.5457")
#loc2471 = loc("add.5461")
#loc2472 = loc("rsqrt.5462")
#loc2473 = loc("reshape.5463")
#loc2474 = loc("broadcast.5464")
#loc2475 = loc("multiply.5465")
#loc2476 = loc("convert.5466")
#loc2477 = loc("multiply.5472")
#loc2478 = loc("reshape.5481")
#loc2479 = loc("reshape.5477")
#loc2480 = loc("reshape.5479")
#loc2481 = loc("transpose.5480")
#loc2482 = loc("dot.5482")
#loc2483 = loc("reshape.5483")
#loc2484 = loc("logistic.5484")
#loc2485 = loc("multiply.5485")
#loc2486 = loc("reshape.5295")
#loc2487 = loc("reshape.5297")
#loc2488 = loc("transpose.5298")
#loc2489 = loc("dot.5474")
#loc2490 = loc("reshape.5475")
#loc2491 = loc("multiply.5486")
#loc2492 = loc("reshape.5487")
#loc2493 = loc("reshape.5290")
#loc2494 = loc("reshape.5292")
#loc2495 = loc("transpose.5293")
#loc2497 = loc("reshape.5489")
#loc2498 = loc("add.5492")
#loc2499 = loc("convert.5493")
#loc2500 = loc("power.5495")
#loc2501 = loc("reduce.5502")
#loc2502 = loc("multiply.5511")
#loc2503 = loc("reshape.5512")
#loc2504 = loc("add.5516")
#loc2505 = loc("rsqrt.5517")
#loc2506 = loc("reshape.5518")
#loc2507 = loc("broadcast.5519")
#loc2508 = loc("multiply.5520")
#loc2509 = loc("convert.5521")
#loc2510 = loc("multiply.5527")
#loc2511 = loc("reshape.5528")
#loc2512 = loc("reshape.5281")
#loc2513 = loc("reshape.5283")
#loc2514 = loc("transpose.5284")
#loc2515 = loc("dot.5529")
#loc2516 = loc("reshape.5531")
#loc2517 = loc("transpose.5532")
#loc2518 = loc("multiply.5543")
#loc2519 = loc("slice.5534")
#loc2520 = loc("negate.5535")
#loc2521 = loc("slice.5533")
#loc2522 = loc("concatenate.5536")
#loc2523 = loc("multiply.5539")
#loc2524 = loc("add.5546")
#loc2526 = loc("reshape.5568")
#loc2527 = loc("reshape.5570")
#loc2528 = loc("transpose.5571")
#loc2529 = loc("dot.5573")
#loc2530 = loc("reshape.5575")
#loc2531 = loc("transpose.5576")
#loc2533 = loc("reshape.5842")
#loc2534 = loc("reshape.5844")
#loc2535 = loc("broadcast.5845")
#loc2536 = loc("reshape.5661")
#loc2537 = loc("reshape.5663")
#loc2538 = loc("transpose.5664")
#loc2539 = loc("dot.5666")
#loc2540 = loc("reshape.5668")
#loc2541 = loc("transpose.5669")
#loc2542 = loc("multiply.5679")
#loc2543 = loc("slice.5671")
#loc2544 = loc("negate.5672")
#loc2545 = loc("slice.5670")
#loc2546 = loc("concatenate.5673")
#loc2547 = loc("multiply.5676")
#loc2548 = loc("add.5682")
#loc2549 = loc("convert.5683")
#loc2550 = loc("multiply.5685")
#loc2551 = loc("broadcast.5652")
#loc2552 = loc("reshape.5653")
#loc2553 = loc("convert.5654")
#loc2554 = loc("transpose.5655")
#loc2555 = loc("multiply.5657")
#loc2556 = loc("dot.5686")
#loc2557 = loc("add.5693")
#loc2558 = loc("convert.5719")
#loc2559 = loc("compare.5721")
#loc2560 = loc("not.5723")
#loc2562 = loc("or.5733")
#loc2563 = loc("select.5734")
#loc2564 = loc("reshape.5739")
#loc2565 = loc("not.5741")
#loc2566 = loc("reshape.5743")
#loc2567 = loc("broadcast.5744")
#loc2568 = loc("reduce.5699")
#loc2569 = loc("broadcast.5700")
#loc2570 = loc("subtract.5701")
#loc2571 = loc("exponential.5702")
#loc2572 = loc("reduce.5708")
#loc2573 = loc("broadcast.5709")
#loc2574 = loc("divide.5710")
#loc2575 = loc("select.5745")
#loc2576 = loc("broadcast.5630")
#loc2577 = loc("reshape.5631")
#loc2578 = loc("convert.5632")
#loc2579 = loc("dot.5746")
#loc2580 = loc("convert.5748")
#loc2581 = loc("transpose.5749")
#loc2582 = loc("reshape.5751")
#loc2583 = loc("reshape.5623")
#loc2584 = loc("reshape.5625")
#loc2585 = loc("transpose.5626")
#loc2587 = loc("reshape.5753")
#loc2588 = loc("add.5756")
#loc2589 = loc("reshape.5787")
#loc2590 = loc("reshape.5789")
#loc2591 = loc("broadcast.5790")
#loc2592 = loc("convert.5757")
#loc2593 = loc("power.5759")
#loc2594 = loc("reduce.5766")
#loc2595 = loc("multiply.5775")
#loc2596 = loc("reshape.5776")
#loc2597 = loc("add.5780")
#loc2598 = loc("rsqrt.5781")
#loc2599 = loc("reshape.5782")
#loc2600 = loc("broadcast.5783")
#loc2601 = loc("multiply.5784")
#loc2602 = loc("convert.5785")
#loc2603 = loc("multiply.5791")
#loc2604 = loc("reshape.5800")
#loc2605 = loc("reshape.5796")
#loc2606 = loc("reshape.5798")
#loc2607 = loc("transpose.5799")
#loc2608 = loc("dot.5801")
#loc2609 = loc("reshape.5802")
#loc2610 = loc("logistic.5803")
#loc2611 = loc("multiply.5804")
#loc2612 = loc("reshape.5614")
#loc2613 = loc("reshape.5616")
#loc2614 = loc("transpose.5617")
#loc2615 = loc("dot.5793")
#loc2616 = loc("reshape.5794")
#loc2617 = loc("multiply.5805")
#loc2618 = loc("reshape.5806")
#loc2619 = loc("reshape.5609")
#loc2620 = loc("reshape.5611")
#loc2621 = loc("transpose.5612")
#loc2623 = loc("reshape.5808")
#loc2624 = loc("add.5811")
#loc2625 = loc("convert.5812")
#loc2626 = loc("power.5814")
#loc2627 = loc("reduce.5821")
#loc2628 = loc("multiply.5830")
#loc2629 = loc("reshape.5831")
#loc2630 = loc("add.5835")
#loc2631 = loc("rsqrt.5836")
#loc2632 = loc("reshape.5837")
#loc2633 = loc("broadcast.5838")
#loc2634 = loc("multiply.5839")
#loc2635 = loc("convert.5840")
#loc2636 = loc("multiply.5846")
#loc2637 = loc("reshape.5847")
#loc2638 = loc("reshape.5600")
#loc2639 = loc("reshape.5602")
#loc2640 = loc("transpose.5603")
#loc2641 = loc("dot.5848")
#loc2642 = loc("reshape.5850")
#loc2643 = loc("transpose.5851")
#loc2644 = loc("multiply.5862")
#loc2645 = loc("slice.5853")
#loc2646 = loc("negate.5854")
#loc2647 = loc("slice.5852")
#loc2648 = loc("concatenate.5855")
#loc2649 = loc("multiply.5858")
#loc2650 = loc("add.5865")
#loc2652 = loc("reshape.5887")
#loc2653 = loc("reshape.5889")
#loc2654 = loc("transpose.5890")
#loc2655 = loc("dot.5892")
#loc2656 = loc("reshape.5894")
#loc2657 = loc("transpose.5895")
#loc2659 = loc("reshape.6161")
#loc2660 = loc("reshape.6163")
#loc2661 = loc("broadcast.6164")
#loc2662 = loc("reshape.5980")
#loc2663 = loc("reshape.5982")
#loc2664 = loc("transpose.5983")
#loc2665 = loc("dot.5985")
#loc2666 = loc("reshape.5987")
#loc2667 = loc("transpose.5988")
#loc2668 = loc("multiply.5998")
#loc2669 = loc("slice.5990")
#loc2670 = loc("negate.5991")
#loc2671 = loc("slice.5989")
#loc2672 = loc("concatenate.5992")
#loc2673 = loc("multiply.5995")
#loc2674 = loc("add.6001")
#loc2675 = loc("convert.6002")
#loc2676 = loc("multiply.6004")
#loc2677 = loc("broadcast.5971")
#loc2678 = loc("reshape.5972")
#loc2679 = loc("convert.5973")
#loc2680 = loc("transpose.5974")
#loc2681 = loc("multiply.5976")
#loc2682 = loc("dot.6005")
#loc2683 = loc("add.6012")
#loc2684 = loc("convert.6038")
#loc2685 = loc("compare.6040")
#loc2686 = loc("not.6042")
#loc2688 = loc("or.6052")
#loc2689 = loc("select.6053")
#loc2690 = loc("reshape.6058")
#loc2691 = loc("not.6060")
#loc2692 = loc("reshape.6062")
#loc2693 = loc("broadcast.6063")
#loc2694 = loc("reduce.6018")
#loc2695 = loc("broadcast.6019")
#loc2696 = loc("subtract.6020")
#loc2697 = loc("exponential.6021")
#loc2698 = loc("reduce.6027")
#loc2699 = loc("broadcast.6028")
#loc2700 = loc("divide.6029")
#loc2701 = loc("select.6064")
#loc2702 = loc("broadcast.5949")
#loc2703 = loc("reshape.5950")
#loc2704 = loc("convert.5951")
#loc2705 = loc("dot.6065")
#loc2706 = loc("convert.6067")
#loc2707 = loc("transpose.6068")
#loc2708 = loc("reshape.6070")
#loc2709 = loc("reshape.5942")
#loc2710 = loc("reshape.5944")
#loc2711 = loc("transpose.5945")
#loc2713 = loc("reshape.6072")
#loc2714 = loc("add.6075")
#loc2715 = loc("reshape.6106")
#loc2716 = loc("reshape.6108")
#loc2717 = loc("broadcast.6109")
#loc2718 = loc("convert.6076")
#loc2719 = loc("power.6078")
#loc2720 = loc("reduce.6085")
#loc2721 = loc("multiply.6094")
#loc2722 = loc("reshape.6095")
#loc2723 = loc("add.6099")
#loc2724 = loc("rsqrt.6100")
#loc2725 = loc("reshape.6101")
#loc2726 = loc("broadcast.6102")
#loc2727 = loc("multiply.6103")
#loc2728 = loc("convert.6104")
#loc2729 = loc("multiply.6110")
#loc2730 = loc("reshape.6119")
#loc2731 = loc("reshape.6115")
#loc2732 = loc("reshape.6117")
#loc2733 = loc("transpose.6118")
#loc2734 = loc("dot.6120")
#loc2735 = loc("reshape.6121")
#loc2736 = loc("logistic.6122")
#loc2737 = loc("multiply.6123")
#loc2738 = loc("reshape.5933")
#loc2739 = loc("reshape.5935")
#loc2740 = loc("transpose.5936")
#loc2741 = loc("dot.6112")
#loc2742 = loc("reshape.6113")
#loc2743 = loc("multiply.6124")
#loc2744 = loc("reshape.6125")
#loc2745 = loc("reshape.5928")
#loc2746 = loc("reshape.5930")
#loc2747 = loc("transpose.5931")
#loc2749 = loc("reshape.6127")
#loc2750 = loc("add.6130")
#loc2751 = loc("convert.6131")
#loc2752 = loc("power.6133")
#loc2753 = loc("reduce.6140")
#loc2754 = loc("multiply.6149")
#loc2755 = loc("reshape.6150")
#loc2756 = loc("add.6154")
#loc2757 = loc("rsqrt.6155")
#loc2758 = loc("reshape.6156")
#loc2759 = loc("broadcast.6157")
#loc2760 = loc("multiply.6158")
#loc2761 = loc("convert.6159")
#loc2762 = loc("multiply.6165")
#loc2763 = loc("reshape.6166")
#loc2764 = loc("reshape.5919")
#loc2765 = loc("reshape.5921")
#loc2766 = loc("transpose.5922")
#loc2767 = loc("dot.6167")
#loc2768 = loc("reshape.6169")
#loc2769 = loc("transpose.6170")
#loc2770 = loc("multiply.6181")
#loc2771 = loc("slice.6172")
#loc2772 = loc("negate.6173")
#loc2773 = loc("slice.6171")
#loc2774 = loc("concatenate.6174")
#loc2775 = loc("multiply.6177")
#loc2776 = loc("add.6184")
#loc2778 = loc("reshape.6206")
#loc2779 = loc("reshape.6208")
#loc2780 = loc("transpose.6209")
#loc2781 = loc("dot.6211")
#loc2782 = loc("reshape.6213")
#loc2783 = loc("transpose.6214")
#loc2785 = loc("reshape.6480")
#loc2786 = loc("reshape.6482")
#loc2787 = loc("broadcast.6483")
#loc2788 = loc("reshape.6299")
#loc2789 = loc("reshape.6301")
#loc2790 = loc("transpose.6302")
#loc2791 = loc("dot.6304")
#loc2792 = loc("reshape.6306")
#loc2793 = loc("transpose.6307")
#loc2794 = loc("multiply.6317")
#loc2795 = loc("slice.6309")
#loc2796 = loc("negate.6310")
#loc2797 = loc("slice.6308")
#loc2798 = loc("concatenate.6311")
#loc2799 = loc("multiply.6314")
#loc2800 = loc("add.6320")
#loc2801 = loc("convert.6321")
#loc2802 = loc("multiply.6323")
#loc2803 = loc("broadcast.6290")
#loc2804 = loc("reshape.6291")
#loc2805 = loc("convert.6292")
#loc2806 = loc("transpose.6293")
#loc2807 = loc("multiply.6295")
#loc2808 = loc("dot.6324")
#loc2809 = loc("add.6331")
#loc2810 = loc("convert.6357")
#loc2811 = loc("compare.6359")
#loc2812 = loc("not.6361")
#loc2814 = loc("or.6371")
#loc2815 = loc("select.6372")
#loc2816 = loc("reshape.6377")
#loc2817 = loc("not.6379")
#loc2818 = loc("reshape.6381")
#loc2819 = loc("broadcast.6382")
#loc2820 = loc("reduce.6337")
#loc2821 = loc("broadcast.6338")
#loc2822 = loc("subtract.6339")
#loc2823 = loc("exponential.6340")
#loc2824 = loc("reduce.6346")
#loc2825 = loc("broadcast.6347")
#loc2826 = loc("divide.6348")
#loc2827 = loc("select.6383")
#loc2828 = loc("broadcast.6268")
#loc2829 = loc("reshape.6269")
#loc2830 = loc("convert.6270")
#loc2831 = loc("dot.6384")
#loc2832 = loc("convert.6386")
#loc2833 = loc("transpose.6387")
#loc2834 = loc("reshape.6389")
#loc2835 = loc("reshape.6261")
#loc2836 = loc("reshape.6263")
#loc2837 = loc("transpose.6264")
#loc2839 = loc("reshape.6391")
#loc2840 = loc("add.6394")
#loc2841 = loc("reshape.6425")
#loc2842 = loc("reshape.6427")
#loc2843 = loc("broadcast.6428")
#loc2844 = loc("convert.6395")
#loc2845 = loc("power.6397")
#loc2846 = loc("reduce.6404")
#loc2847 = loc("multiply.6413")
#loc2848 = loc("reshape.6414")
#loc2849 = loc("add.6418")
#loc2850 = loc("rsqrt.6419")
#loc2851 = loc("reshape.6420")
#loc2852 = loc("broadcast.6421")
#loc2853 = loc("multiply.6422")
#loc2854 = loc("convert.6423")
#loc2855 = loc("multiply.6429")
#loc2856 = loc("reshape.6438")
#loc2857 = loc("reshape.6434")
#loc2858 = loc("reshape.6436")
#loc2859 = loc("transpose.6437")
#loc2860 = loc("dot.6439")
#loc2861 = loc("reshape.6440")
#loc2862 = loc("logistic.6441")
#loc2863 = loc("multiply.6442")
#loc2864 = loc("reshape.6252")
#loc2865 = loc("reshape.6254")
#loc2866 = loc("transpose.6255")
#loc2867 = loc("dot.6431")
#loc2868 = loc("reshape.6432")
#loc2869 = loc("multiply.6443")
#loc2870 = loc("reshape.6444")
#loc2871 = loc("reshape.6247")
#loc2872 = loc("reshape.6249")
#loc2873 = loc("transpose.6250")
#loc2875 = loc("reshape.6446")
#loc2876 = loc("add.6449")
#loc2877 = loc("convert.6450")
#loc2878 = loc("power.6452")
#loc2879 = loc("reduce.6459")
#loc2880 = loc("multiply.6468")
#loc2881 = loc("reshape.6469")
#loc2882 = loc("add.6473")
#loc2883 = loc("rsqrt.6474")
#loc2884 = loc("reshape.6475")
#loc2885 = loc("broadcast.6476")
#loc2886 = loc("multiply.6477")
#loc2887 = loc("convert.6478")
#loc2888 = loc("multiply.6484")
#loc2889 = loc("reshape.6485")
#loc2890 = loc("reshape.6238")
#loc2891 = loc("reshape.6240")
#loc2892 = loc("transpose.6241")
#loc2893 = loc("dot.6486")
#loc2894 = loc("reshape.6488")
#loc2895 = loc("transpose.6489")
#loc2896 = loc("multiply.6500")
#loc2897 = loc("slice.6491")
#loc2898 = loc("negate.6492")
#loc2899 = loc("slice.6490")
#loc2900 = loc("concatenate.6493")
#loc2901 = loc("multiply.6496")
#loc2902 = loc("add.6503")
#loc2904 = loc("reshape.6525")
#loc2905 = loc("reshape.6527")
#loc2906 = loc("transpose.6528")
#loc2907 = loc("dot.6530")
#loc2908 = loc("reshape.6532")
#loc2909 = loc("transpose.6533")
#loc2911 = loc("reshape.6799")
#loc2912 = loc("reshape.6801")
#loc2913 = loc("broadcast.6802")
#loc2914 = loc("reshape.6618")
#loc2915 = loc("reshape.6620")
#loc2916 = loc("transpose.6621")
#loc2917 = loc("dot.6623")
#loc2918 = loc("reshape.6625")
#loc2919 = loc("transpose.6626")
#loc2920 = loc("multiply.6636")
#loc2921 = loc("slice.6628")
#loc2922 = loc("negate.6629")
#loc2923 = loc("slice.6627")
#loc2924 = loc("concatenate.6630")
#loc2925 = loc("multiply.6633")
#loc2926 = loc("add.6639")
#loc2927 = loc("convert.6640")
#loc2928 = loc("multiply.6642")
#loc2929 = loc("broadcast.6609")
#loc2930 = loc("reshape.6610")
#loc2931 = loc("convert.6611")
#loc2932 = loc("transpose.6612")
#loc2933 = loc("multiply.6614")
#loc2934 = loc("dot.6643")
#loc2935 = loc("add.6650")
#loc2936 = loc("convert.6676")
#loc2937 = loc("compare.6678")
#loc2938 = loc("not.6680")
#loc2940 = loc("or.6690")
#loc2941 = loc("select.6691")
#loc2942 = loc("reshape.6696")
#loc2943 = loc("not.6698")
#loc2944 = loc("reshape.6700")
#loc2945 = loc("broadcast.6701")
#loc2946 = loc("reduce.6656")
#loc2947 = loc("broadcast.6657")
#loc2948 = loc("subtract.6658")
#loc2949 = loc("exponential.6659")
#loc2950 = loc("reduce.6665")
#loc2951 = loc("broadcast.6666")
#loc2952 = loc("divide.6667")
#loc2953 = loc("select.6702")
#loc2954 = loc("broadcast.6587")
#loc2955 = loc("reshape.6588")
#loc2956 = loc("convert.6589")
#loc2957 = loc("dot.6703")
#loc2958 = loc("convert.6705")
#loc2959 = loc("transpose.6706")
#loc2960 = loc("reshape.6708")
#loc2961 = loc("reshape.6580")
#loc2962 = loc("reshape.6582")
#loc2963 = loc("transpose.6583")
#loc2965 = loc("reshape.6710")
#loc2966 = loc("add.6713")
#loc2967 = loc("reshape.6744")
#loc2968 = loc("reshape.6746")
#loc2969 = loc("broadcast.6747")
#loc2970 = loc("convert.6714")
#loc2971 = loc("power.6716")
#loc2972 = loc("reduce.6723")
#loc2973 = loc("multiply.6732")
#loc2974 = loc("reshape.6733")
#loc2975 = loc("add.6737")
#loc2976 = loc("rsqrt.6738")
#loc2977 = loc("reshape.6739")
#loc2978 = loc("broadcast.6740")
#loc2979 = loc("multiply.6741")
#loc2980 = loc("convert.6742")
#loc2981 = loc("multiply.6748")
#loc2982 = loc("reshape.6757")
#loc2983 = loc("reshape.6753")
#loc2984 = loc("reshape.6755")
#loc2985 = loc("transpose.6756")
#loc2986 = loc("dot.6758")
#loc2987 = loc("reshape.6759")
#loc2988 = loc("logistic.6760")
#loc2989 = loc("multiply.6761")
#loc2990 = loc("reshape.6571")
#loc2991 = loc("reshape.6573")
#loc2992 = loc("transpose.6574")
#loc2993 = loc("dot.6750")
#loc2994 = loc("reshape.6751")
#loc2995 = loc("multiply.6762")
#loc2996 = loc("reshape.6763")
#loc2997 = loc("reshape.6566")
#loc2998 = loc("reshape.6568")
#loc2999 = loc("transpose.6569")
#loc3001 = loc("reshape.6765")
#loc3002 = loc("add.6768")
#loc3003 = loc("convert.6769")
#loc3004 = loc("power.6771")
#loc3005 = loc("reduce.6778")
#loc3006 = loc("multiply.6787")
#loc3007 = loc("reshape.6788")
#loc3008 = loc("add.6792")
#loc3009 = loc("rsqrt.6793")
#loc3010 = loc("reshape.6794")
#loc3011 = loc("broadcast.6795")
#loc3012 = loc("multiply.6796")
#loc3013 = loc("convert.6797")
#loc3014 = loc("multiply.6803")
#loc3015 = loc("reshape.6804")
#loc3016 = loc("reshape.6557")
#loc3017 = loc("reshape.6559")
#loc3018 = loc("transpose.6560")
#loc3019 = loc("dot.6805")
#loc3020 = loc("reshape.6807")
#loc3021 = loc("transpose.6808")
#loc3022 = loc("multiply.6819")
#loc3023 = loc("slice.6810")
#loc3024 = loc("negate.6811")
#loc3025 = loc("slice.6809")
#loc3026 = loc("concatenate.6812")
#loc3027 = loc("multiply.6815")
#loc3028 = loc("add.6822")
#loc3030 = loc("reshape.6844")
#loc3031 = loc("reshape.6846")
#loc3032 = loc("transpose.6847")
#loc3033 = loc("dot.6849")
#loc3034 = loc("reshape.6851")
#loc3035 = loc("transpose.6852")
#loc3037 = loc("reshape.7118")
#loc3038 = loc("reshape.7120")
#loc3039 = loc("broadcast.7121")
#loc3040 = loc("reshape.6937")
#loc3041 = loc("reshape.6939")
#loc3042 = loc("transpose.6940")
#loc3043 = loc("dot.6942")
#loc3044 = loc("reshape.6944")
#loc3045 = loc("transpose.6945")
#loc3046 = loc("multiply.6955")
#loc3047 = loc("slice.6947")
#loc3048 = loc("negate.6948")
#loc3049 = loc("slice.6946")
#loc3050 = loc("concatenate.6949")
#loc3051 = loc("multiply.6952")
#loc3052 = loc("add.6958")
#loc3053 = loc("convert.6959")
#loc3054 = loc("multiply.6961")
#loc3055 = loc("broadcast.6928")
#loc3056 = loc("reshape.6929")
#loc3057 = loc("convert.6930")
#loc3058 = loc("transpose.6931")
#loc3059 = loc("multiply.6933")
#loc3060 = loc("dot.6962")
#loc3061 = loc("add.6969")
#loc3062 = loc("convert.6995")
#loc3063 = loc("compare.6997")
#loc3064 = loc("not.6999")
#loc3066 = loc("or.7009")
#loc3067 = loc("select.7010")
#loc3068 = loc("reshape.7015")
#loc3069 = loc("not.7017")
#loc3070 = loc("reshape.7019")
#loc3071 = loc("broadcast.7020")
#loc3072 = loc("reduce.6975")
#loc3073 = loc("broadcast.6976")
#loc3074 = loc("subtract.6977")
#loc3075 = loc("exponential.6978")
#loc3076 = loc("reduce.6984")
#loc3077 = loc("broadcast.6985")
#loc3078 = loc("divide.6986")
#loc3079 = loc("select.7021")
#loc3080 = loc("broadcast.6906")
#loc3081 = loc("reshape.6907")
#loc3082 = loc("convert.6908")
#loc3083 = loc("dot.7022")
#loc3084 = loc("convert.7024")
#loc3085 = loc("transpose.7025")
#loc3086 = loc("reshape.7027")
#loc3087 = loc("reshape.6899")
#loc3088 = loc("reshape.6901")
#loc3089 = loc("transpose.6902")
#loc3091 = loc("reshape.7029")
#loc3092 = loc("add.7032")
#loc3093 = loc("reshape.7063")
#loc3094 = loc("reshape.7065")
#loc3095 = loc("broadcast.7066")
#loc3096 = loc("convert.7033")
#loc3097 = loc("power.7035")
#loc3098 = loc("reduce.7042")
#loc3099 = loc("multiply.7051")
#loc3100 = loc("reshape.7052")
#loc3101 = loc("add.7056")
#loc3102 = loc("rsqrt.7057")
#loc3103 = loc("reshape.7058")
#loc3104 = loc("broadcast.7059")
#loc3105 = loc("multiply.7060")
#loc3106 = loc("convert.7061")
#loc3107 = loc("multiply.7067")
#loc3108 = loc("reshape.7076")
#loc3109 = loc("reshape.7072")
#loc3110 = loc("reshape.7074")
#loc3111 = loc("transpose.7075")
#loc3112 = loc("dot.7077")
#loc3113 = loc("reshape.7078")
#loc3114 = loc("logistic.7079")
#loc3115 = loc("multiply.7080")
#loc3116 = loc("reshape.6890")
#loc3117 = loc("reshape.6892")
#loc3118 = loc("transpose.6893")
#loc3119 = loc("dot.7069")
#loc3120 = loc("reshape.7070")
#loc3121 = loc("multiply.7081")
#loc3122 = loc("reshape.7082")
#loc3123 = loc("reshape.6885")
#loc3124 = loc("reshape.6887")
#loc3125 = loc("transpose.6888")
#loc3127 = loc("reshape.7084")
#loc3128 = loc("add.7087")
#loc3129 = loc("convert.7088")
#loc3130 = loc("power.7090")
#loc3131 = loc("reduce.7097")
#loc3132 = loc("multiply.7106")
#loc3133 = loc("reshape.7107")
#loc3134 = loc("add.7111")
#loc3135 = loc("rsqrt.7112")
#loc3136 = loc("reshape.7113")
#loc3137 = loc("broadcast.7114")
#loc3138 = loc("multiply.7115")
#loc3139 = loc("convert.7116")
#loc3140 = loc("multiply.7122")
#loc3141 = loc("reshape.7123")
#loc3142 = loc("reshape.6876")
#loc3143 = loc("reshape.6878")
#loc3144 = loc("transpose.6879")
#loc3145 = loc("dot.7124")
#loc3146 = loc("reshape.7126")
#loc3147 = loc("transpose.7127")
#loc3148 = loc("multiply.7138")
#loc3149 = loc("slice.7129")
#loc3150 = loc("negate.7130")
#loc3151 = loc("slice.7128")
#loc3152 = loc("concatenate.7131")
#loc3153 = loc("multiply.7134")
#loc3154 = loc("add.7141")
#loc3156 = loc("reshape.7163")
#loc3157 = loc("reshape.7165")
#loc3158 = loc("transpose.7166")
#loc3159 = loc("dot.7168")
#loc3160 = loc("reshape.7170")
#loc3161 = loc("transpose.7171")
#loc3163 = loc("reshape.7437")
#loc3164 = loc("reshape.7439")
#loc3165 = loc("broadcast.7440")
#loc3166 = loc("reshape.7256")
#loc3167 = loc("reshape.7258")
#loc3168 = loc("transpose.7259")
#loc3169 = loc("dot.7261")
#loc3170 = loc("reshape.7263")
#loc3171 = loc("transpose.7264")
#loc3172 = loc("multiply.7274")
#loc3173 = loc("slice.7266")
#loc3174 = loc("negate.7267")
#loc3175 = loc("slice.7265")
#loc3176 = loc("concatenate.7268")
#loc3177 = loc("multiply.7271")
#loc3178 = loc("add.7277")
#loc3179 = loc("convert.7278")
#loc3180 = loc("multiply.7280")
#loc3181 = loc("broadcast.7247")
#loc3182 = loc("reshape.7248")
#loc3183 = loc("convert.7249")
#loc3184 = loc("transpose.7250")
#loc3185 = loc("multiply.7252")
#loc3186 = loc("dot.7281")
#loc3187 = loc("add.7288")
#loc3188 = loc("convert.7314")
#loc3189 = loc("compare.7316")
#loc3190 = loc("not.7318")
#loc3192 = loc("or.7328")
#loc3193 = loc("select.7329")
#loc3194 = loc("reshape.7334")
#loc3195 = loc("not.7336")
#loc3196 = loc("reshape.7338")
#loc3197 = loc("broadcast.7339")
#loc3198 = loc("reduce.7294")
#loc3199 = loc("broadcast.7295")
#loc3200 = loc("subtract.7296")
#loc3201 = loc("exponential.7297")
#loc3202 = loc("reduce.7303")
#loc3203 = loc("broadcast.7304")
#loc3204 = loc("divide.7305")
#loc3205 = loc("select.7340")
#loc3206 = loc("broadcast.7225")
#loc3207 = loc("reshape.7226")
#loc3208 = loc("convert.7227")
#loc3209 = loc("dot.7341")
#loc3210 = loc("convert.7343")
#loc3211 = loc("transpose.7344")
#loc3212 = loc("reshape.7346")
#loc3213 = loc("reshape.7218")
#loc3214 = loc("reshape.7220")
#loc3215 = loc("transpose.7221")
#loc3217 = loc("reshape.7348")
#loc3218 = loc("add.7351")
#loc3219 = loc("reshape.7382")
#loc3220 = loc("reshape.7384")
#loc3221 = loc("broadcast.7385")
#loc3222 = loc("convert.7352")
#loc3223 = loc("power.7354")
#loc3224 = loc("reduce.7361")
#loc3225 = loc("multiply.7370")
#loc3226 = loc("reshape.7371")
#loc3227 = loc("add.7375")
#loc3228 = loc("rsqrt.7376")
#loc3229 = loc("reshape.7377")
#loc3230 = loc("broadcast.7378")
#loc3231 = loc("multiply.7379")
#loc3232 = loc("convert.7380")
#loc3233 = loc("multiply.7386")
#loc3234 = loc("reshape.7395")
#loc3235 = loc("reshape.7391")
#loc3236 = loc("reshape.7393")
#loc3237 = loc("transpose.7394")
#loc3238 = loc("dot.7396")
#loc3239 = loc("reshape.7397")
#loc3240 = loc("logistic.7398")
#loc3241 = loc("multiply.7399")
#loc3242 = loc("reshape.7209")
#loc3243 = loc("reshape.7211")
#loc3244 = loc("transpose.7212")
#loc3245 = loc("dot.7388")
#loc3246 = loc("reshape.7389")
#loc3247 = loc("multiply.7400")
#loc3248 = loc("reshape.7401")
#loc3249 = loc("reshape.7204")
#loc3250 = loc("reshape.7206")
#loc3251 = loc("transpose.7207")
#loc3253 = loc("reshape.7403")
#loc3254 = loc("add.7406")
#loc3255 = loc("convert.7407")
#loc3256 = loc("power.7409")
#loc3257 = loc("reduce.7416")
#loc3258 = loc("multiply.7425")
#loc3259 = loc("reshape.7426")
#loc3260 = loc("add.7430")
#loc3261 = loc("rsqrt.7431")
#loc3262 = loc("reshape.7432")
#loc3263 = loc("broadcast.7433")
#loc3264 = loc("multiply.7434")
#loc3265 = loc("convert.7435")
#loc3266 = loc("multiply.7441")
#loc3267 = loc("reshape.7442")
#loc3268 = loc("reshape.7195")
#loc3269 = loc("reshape.7197")
#loc3270 = loc("transpose.7198")
#loc3271 = loc("dot.7443")
#loc3272 = loc("reshape.7445")
#loc3273 = loc("transpose.7446")
#loc3274 = loc("multiply.7457")
#loc3275 = loc("slice.7448")
#loc3276 = loc("negate.7449")
#loc3277 = loc("slice.7447")
#loc3278 = loc("concatenate.7450")
#loc3279 = loc("multiply.7453")
#loc3280 = loc("add.7460")
#loc3282 = loc("reshape.7482")
#loc3283 = loc("reshape.7484")
#loc3284 = loc("transpose.7485")
#loc3285 = loc("dot.7487")
#loc3286 = loc("reshape.7489")
#loc3287 = loc("transpose.7490")
#loc3289 = loc("reshape.7756")
#loc3290 = loc("reshape.7758")
#loc3291 = loc("broadcast.7759")
#loc3292 = loc("reshape.7575")
#loc3293 = loc("reshape.7577")
#loc3294 = loc("transpose.7578")
#loc3295 = loc("dot.7580")
#loc3296 = loc("reshape.7582")
#loc3297 = loc("transpose.7583")
#loc3298 = loc("multiply.7593")
#loc3299 = loc("slice.7585")
#loc3300 = loc("negate.7586")
#loc3301 = loc("slice.7584")
#loc3302 = loc("concatenate.7587")
#loc3303 = loc("multiply.7590")
#loc3304 = loc("add.7596")
#loc3305 = loc("convert.7597")
#loc3306 = loc("multiply.7599")
#loc3307 = loc("broadcast.7566")
#loc3308 = loc("reshape.7567")
#loc3309 = loc("convert.7568")
#loc3310 = loc("transpose.7569")
#loc3311 = loc("multiply.7571")
#loc3312 = loc("dot.7600")
#loc3313 = loc("add.7607")
#loc3314 = loc("convert.7633")
#loc3315 = loc("compare.7635")
#loc3316 = loc("not.7637")
#loc3318 = loc("or.7647")
#loc3319 = loc("select.7648")
#loc3320 = loc("reshape.7653")
#loc3321 = loc("not.7655")
#loc3322 = loc("reshape.7657")
#loc3323 = loc("broadcast.7658")
#loc3324 = loc("reduce.7613")
#loc3325 = loc("broadcast.7614")
#loc3326 = loc("subtract.7615")
#loc3327 = loc("exponential.7616")
#loc3328 = loc("reduce.7622")
#loc3329 = loc("broadcast.7623")
#loc3330 = loc("divide.7624")
#loc3331 = loc("select.7659")
#loc3332 = loc("broadcast.7544")
#loc3333 = loc("reshape.7545")
#loc3334 = loc("convert.7546")
#loc3335 = loc("dot.7660")
#loc3336 = loc("convert.7662")
#loc3337 = loc("transpose.7663")
#loc3338 = loc("reshape.7665")
#loc3339 = loc("reshape.7537")
#loc3340 = loc("reshape.7539")
#loc3341 = loc("transpose.7540")
#loc3343 = loc("reshape.7667")
#loc3344 = loc("add.7670")
#loc3345 = loc("reshape.7701")
#loc3346 = loc("reshape.7703")
#loc3347 = loc("broadcast.7704")
#loc3348 = loc("convert.7671")
#loc3349 = loc("power.7673")
#loc3350 = loc("reduce.7680")
#loc3351 = loc("multiply.7689")
#loc3352 = loc("reshape.7690")
#loc3353 = loc("add.7694")
#loc3354 = loc("rsqrt.7695")
#loc3355 = loc("reshape.7696")
#loc3356 = loc("broadcast.7697")
#loc3357 = loc("multiply.7698")
#loc3358 = loc("convert.7699")
#loc3359 = loc("multiply.7705")
#loc3360 = loc("reshape.7714")
#loc3361 = loc("reshape.7710")
#loc3362 = loc("reshape.7712")
#loc3363 = loc("transpose.7713")
#loc3364 = loc("dot.7715")
#loc3365 = loc("reshape.7716")
#loc3366 = loc("logistic.7717")
#loc3367 = loc("multiply.7718")
#loc3368 = loc("reshape.7528")
#loc3369 = loc("reshape.7530")
#loc3370 = loc("transpose.7531")
#loc3371 = loc("dot.7707")
#loc3372 = loc("reshape.7708")
#loc3373 = loc("multiply.7719")
#loc3374 = loc("reshape.7720")
#loc3375 = loc("reshape.7523")
#loc3376 = loc("reshape.7525")
#loc3377 = loc("transpose.7526")
#loc3379 = loc("reshape.7722")
#loc3380 = loc("add.7725")
#loc3381 = loc("convert.7726")
#loc3382 = loc("power.7728")
#loc3383 = loc("reduce.7735")
#loc3384 = loc("multiply.7744")
#loc3385 = loc("reshape.7745")
#loc3386 = loc("add.7749")
#loc3387 = loc("rsqrt.7750")
#loc3388 = loc("reshape.7751")
#loc3389 = loc("broadcast.7752")
#loc3390 = loc("multiply.7753")
#loc3391 = loc("convert.7754")
#loc3392 = loc("multiply.7760")
#loc3393 = loc("reshape.7761")
#loc3394 = loc("reshape.7514")
#loc3395 = loc("reshape.7516")
#loc3396 = loc("transpose.7517")
#loc3397 = loc("dot.7762")
#loc3398 = loc("reshape.7764")
#loc3399 = loc("transpose.7765")
#loc3400 = loc("multiply.7776")
#loc3401 = loc("slice.7767")
#loc3402 = loc("negate.7768")
#loc3403 = loc("slice.7766")
#loc3404 = loc("concatenate.7769")
#loc3405 = loc("multiply.7772")
#loc3406 = loc("add.7779")
#loc3408 = loc("reshape.7801")
#loc3409 = loc("reshape.7803")
#loc3410 = loc("transpose.7804")
#loc3411 = loc("dot.7806")
#loc3412 = loc("reshape.7808")
#loc3413 = loc("transpose.7809")
#loc3415 = loc("reshape.8075")
#loc3416 = loc("reshape.8077")
#loc3417 = loc("broadcast.8078")
#loc3418 = loc("reshape.7894")
#loc3419 = loc("reshape.7896")
#loc3420 = loc("transpose.7897")
#loc3421 = loc("dot.7899")
#loc3422 = loc("reshape.7901")
#loc3423 = loc("transpose.7902")
#loc3424 = loc("multiply.7912")
#loc3425 = loc("slice.7904")
#loc3426 = loc("negate.7905")
#loc3427 = loc("slice.7903")
#loc3428 = loc("concatenate.7906")
#loc3429 = loc("multiply.7909")
#loc3430 = loc("add.7915")
#loc3431 = loc("convert.7916")
#loc3432 = loc("multiply.7918")
#loc3433 = loc("broadcast.7885")
#loc3434 = loc("reshape.7886")
#loc3435 = loc("convert.7887")
#loc3436 = loc("transpose.7888")
#loc3437 = loc("multiply.7890")
#loc3438 = loc("dot.7919")
#loc3439 = loc("add.7926")
#loc3440 = loc("convert.7952")
#loc3441 = loc("compare.7954")
#loc3442 = loc("not.7956")
#loc3444 = loc("or.7966")
#loc3445 = loc("select.7967")
#loc3446 = loc("reshape.7972")
#loc3447 = loc("not.7974")
#loc3448 = loc("reshape.7976")
#loc3449 = loc("broadcast.7977")
#loc3450 = loc("reduce.7932")
#loc3451 = loc("broadcast.7933")
#loc3452 = loc("subtract.7934")
#loc3453 = loc("exponential.7935")
#loc3454 = loc("reduce.7941")
#loc3455 = loc("broadcast.7942")
#loc3456 = loc("divide.7943")
#loc3457 = loc("select.7978")
#loc3458 = loc("broadcast.7863")
#loc3459 = loc("reshape.7864")
#loc3460 = loc("convert.7865")
#loc3461 = loc("dot.7979")
#loc3462 = loc("convert.7981")
#loc3463 = loc("transpose.7982")
#loc3464 = loc("reshape.7984")
#loc3465 = loc("reshape.7856")
#loc3466 = loc("reshape.7858")
#loc3467 = loc("transpose.7859")
#loc3469 = loc("reshape.7986")
#loc3470 = loc("add.7989")
#loc3471 = loc("reshape.8020")
#loc3472 = loc("reshape.8022")
#loc3473 = loc("broadcast.8023")
#loc3474 = loc("convert.7990")
#loc3475 = loc("power.7992")
#loc3476 = loc("reduce.7999")
#loc3477 = loc("multiply.8008")
#loc3478 = loc("reshape.8009")
#loc3479 = loc("add.8013")
#loc3480 = loc("rsqrt.8014")
#loc3481 = loc("reshape.8015")
#loc3482 = loc("broadcast.8016")
#loc3483 = loc("multiply.8017")
#loc3484 = loc("convert.8018")
#loc3485 = loc("multiply.8024")
#loc3486 = loc("reshape.8033")
#loc3487 = loc("reshape.8029")
#loc3488 = loc("reshape.8031")
#loc3489 = loc("transpose.8032")
#loc3490 = loc("dot.8034")
#loc3491 = loc("reshape.8035")
#loc3492 = loc("logistic.8036")
#loc3493 = loc("multiply.8037")
#loc3494 = loc("reshape.7847")
#loc3495 = loc("reshape.7849")
#loc3496 = loc("transpose.7850")
#loc3497 = loc("dot.8026")
#loc3498 = loc("reshape.8027")
#loc3499 = loc("multiply.8038")
#loc3500 = loc("reshape.8039")
#loc3501 = loc("reshape.7842")
#loc3502 = loc("reshape.7844")
#loc3503 = loc("transpose.7845")
#loc3505 = loc("reshape.8041")
#loc3506 = loc("add.8044")
#loc3507 = loc("convert.8045")
#loc3508 = loc("power.8047")
#loc3509 = loc("reduce.8054")
#loc3510 = loc("multiply.8063")
#loc3511 = loc("reshape.8064")
#loc3512 = loc("add.8068")
#loc3513 = loc("rsqrt.8069")
#loc3514 = loc("reshape.8070")
#loc3515 = loc("broadcast.8071")
#loc3516 = loc("multiply.8072")
#loc3517 = loc("convert.8073")
#loc3518 = loc("multiply.8079")
#loc3519 = loc("reshape.8080")
#loc3520 = loc("reshape.7833")
#loc3521 = loc("reshape.7835")
#loc3522 = loc("transpose.7836")
#loc3523 = loc("dot.8081")
#loc3524 = loc("reshape.8083")
#loc3525 = loc("transpose.8084")
#loc3526 = loc("multiply.8095")
#loc3527 = loc("slice.8086")
#loc3528 = loc("negate.8087")
#loc3529 = loc("slice.8085")
#loc3530 = loc("concatenate.8088")
#loc3531 = loc("multiply.8091")
#loc3532 = loc("add.8098")
#loc3534 = loc("reshape.8120")
#loc3535 = loc("reshape.8122")
#loc3536 = loc("transpose.8123")
#loc3537 = loc("dot.8125")
#loc3538 = loc("reshape.8127")
#loc3539 = loc("transpose.8128")
#loc3541 = loc("reshape.8394")
#loc3542 = loc("reshape.8396")
#loc3543 = loc("broadcast.8397")
#loc3544 = loc("reshape.8213")
#loc3545 = loc("reshape.8215")
#loc3546 = loc("transpose.8216")
#loc3547 = loc("dot.8218")
#loc3548 = loc("reshape.8220")
#loc3549 = loc("transpose.8221")
#loc3550 = loc("multiply.8231")
#loc3551 = loc("slice.8223")
#loc3552 = loc("negate.8224")
#loc3553 = loc("slice.8222")
#loc3554 = loc("concatenate.8225")
#loc3555 = loc("multiply.8228")
#loc3556 = loc("add.8234")
#loc3557 = loc("convert.8235")
#loc3558 = loc("multiply.8237")
#loc3559 = loc("broadcast.8204")
#loc3560 = loc("reshape.8205")
#loc3561 = loc("convert.8206")
#loc3562 = loc("transpose.8207")
#loc3563 = loc("multiply.8209")
#loc3564 = loc("dot.8238")
#loc3565 = loc("add.8245")
#loc3566 = loc("convert.8271")
#loc3567 = loc("compare.8273")
#loc3568 = loc("not.8275")
#loc3570 = loc("or.8285")
#loc3571 = loc("select.8286")
#loc3572 = loc("reshape.8291")
#loc3573 = loc("not.8293")
#loc3574 = loc("reshape.8295")
#loc3575 = loc("broadcast.8296")
#loc3576 = loc("reduce.8251")
#loc3577 = loc("broadcast.8252")
#loc3578 = loc("subtract.8253")
#loc3579 = loc("exponential.8254")
#loc3580 = loc("reduce.8260")
#loc3581 = loc("broadcast.8261")
#loc3582 = loc("divide.8262")
#loc3583 = loc("select.8297")
#loc3584 = loc("broadcast.8182")
#loc3585 = loc("reshape.8183")
#loc3586 = loc("convert.8184")
#loc3587 = loc("dot.8298")
#loc3588 = loc("convert.8300")
#loc3589 = loc("transpose.8301")
#loc3590 = loc("reshape.8303")
#loc3591 = loc("reshape.8175")
#loc3592 = loc("reshape.8177")
#loc3593 = loc("transpose.8178")
#loc3595 = loc("reshape.8305")
#loc3596 = loc("add.8308")
#loc3597 = loc("reshape.8339")
#loc3598 = loc("reshape.8341")
#loc3599 = loc("broadcast.8342")
#loc3600 = loc("convert.8309")
#loc3601 = loc("power.8311")
#loc3602 = loc("reduce.8318")
#loc3603 = loc("multiply.8327")
#loc3604 = loc("reshape.8328")
#loc3605 = loc("add.8332")
#loc3606 = loc("rsqrt.8333")
#loc3607 = loc("reshape.8334")
#loc3608 = loc("broadcast.8335")
#loc3609 = loc("multiply.8336")
#loc3610 = loc("convert.8337")
#loc3611 = loc("multiply.8343")
#loc3612 = loc("reshape.8352")
#loc3613 = loc("reshape.8348")
#loc3614 = loc("reshape.8350")
#loc3615 = loc("transpose.8351")
#loc3616 = loc("dot.8353")
#loc3617 = loc("reshape.8354")
#loc3618 = loc("logistic.8355")
#loc3619 = loc("multiply.8356")
#loc3620 = loc("reshape.8166")
#loc3621 = loc("reshape.8168")
#loc3622 = loc("transpose.8169")
#loc3623 = loc("dot.8345")
#loc3624 = loc("reshape.8346")
#loc3625 = loc("multiply.8357")
#loc3626 = loc("reshape.8358")
#loc3627 = loc("reshape.8161")
#loc3628 = loc("reshape.8163")
#loc3629 = loc("transpose.8164")
#loc3631 = loc("reshape.8360")
#loc3632 = loc("add.8363")
#loc3633 = loc("convert.8364")
#loc3634 = loc("power.8366")
#loc3635 = loc("reduce.8373")
#loc3636 = loc("multiply.8382")
#loc3637 = loc("reshape.8383")
#loc3638 = loc("add.8387")
#loc3639 = loc("rsqrt.8388")
#loc3640 = loc("reshape.8389")
#loc3641 = loc("broadcast.8390")
#loc3642 = loc("multiply.8391")
#loc3643 = loc("convert.8392")
#loc3644 = loc("multiply.8398")
#loc3645 = loc("reshape.8399")
#loc3646 = loc("reshape.8152")
#loc3647 = loc("reshape.8154")
#loc3648 = loc("transpose.8155")
#loc3649 = loc("dot.8400")
#loc3650 = loc("reshape.8402")
#loc3651 = loc("transpose.8403")
#loc3652 = loc("multiply.8414")
#loc3653 = loc("slice.8405")
#loc3654 = loc("negate.8406")
#loc3655 = loc("slice.8404")
#loc3656 = loc("concatenate.8407")
#loc3657 = loc("multiply.8410")
#loc3658 = loc("add.8417")
#loc3660 = loc("reshape.8439")
#loc3661 = loc("reshape.8441")
#loc3662 = loc("transpose.8442")
#loc3663 = loc("dot.8444")
#loc3664 = loc("reshape.8446")
#loc3665 = loc("transpose.8447")
#loc3667 = loc("reshape.8713")
#loc3668 = loc("reshape.8715")
#loc3669 = loc("broadcast.8716")
#loc3670 = loc("reshape.8532")
#loc3671 = loc("reshape.8534")
#loc3672 = loc("transpose.8535")
#loc3673 = loc("dot.8537")
#loc3674 = loc("reshape.8539")
#loc3675 = loc("transpose.8540")
#loc3676 = loc("multiply.8550")
#loc3677 = loc("slice.8542")
#loc3678 = loc("negate.8543")
#loc3679 = loc("slice.8541")
#loc3680 = loc("concatenate.8544")
#loc3681 = loc("multiply.8547")
#loc3682 = loc("add.8553")
#loc3683 = loc("convert.8554")
#loc3684 = loc("multiply.8556")
#loc3685 = loc("broadcast.8523")
#loc3686 = loc("reshape.8524")
#loc3687 = loc("convert.8525")
#loc3688 = loc("transpose.8526")
#loc3689 = loc("multiply.8528")
#loc3690 = loc("dot.8557")
#loc3691 = loc("add.8564")
#loc3692 = loc("convert.8590")
#loc3693 = loc("compare.8592")
#loc3694 = loc("not.8594")
#loc3696 = loc("or.8604")
#loc3697 = loc("select.8605")
#loc3698 = loc("reshape.8610")
#loc3699 = loc("not.8612")
#loc3700 = loc("reshape.8614")
#loc3701 = loc("broadcast.8615")
#loc3702 = loc("reduce.8570")
#loc3703 = loc("broadcast.8571")
#loc3704 = loc("subtract.8572")
#loc3705 = loc("exponential.8573")
#loc3706 = loc("reduce.8579")
#loc3707 = loc("broadcast.8580")
#loc3708 = loc("divide.8581")
#loc3709 = loc("select.8616")
#loc3710 = loc("broadcast.8501")
#loc3711 = loc("reshape.8502")
#loc3712 = loc("convert.8503")
#loc3713 = loc("dot.8617")
#loc3714 = loc("convert.8619")
#loc3715 = loc("transpose.8620")
#loc3716 = loc("reshape.8622")
#loc3717 = loc("reshape.8494")
#loc3718 = loc("reshape.8496")
#loc3719 = loc("transpose.8497")
#loc3721 = loc("reshape.8624")
#loc3722 = loc("add.8627")
#loc3723 = loc("reshape.8658")
#loc3724 = loc("reshape.8660")
#loc3725 = loc("broadcast.8661")
#loc3726 = loc("convert.8628")
#loc3727 = loc("power.8630")
#loc3728 = loc("reduce.8637")
#loc3729 = loc("multiply.8646")
#loc3730 = loc("reshape.8647")
#loc3731 = loc("add.8651")
#loc3732 = loc("rsqrt.8652")
#loc3733 = loc("reshape.8653")
#loc3734 = loc("broadcast.8654")
#loc3735 = loc("multiply.8655")
#loc3736 = loc("convert.8656")
#loc3737 = loc("multiply.8662")
#loc3738 = loc("reshape.8671")
#loc3739 = loc("reshape.8667")
#loc3740 = loc("reshape.8669")
#loc3741 = loc("transpose.8670")
#loc3742 = loc("dot.8672")
#loc3743 = loc("reshape.8673")
#loc3744 = loc("logistic.8674")
#loc3745 = loc("multiply.8675")
#loc3746 = loc("reshape.8485")
#loc3747 = loc("reshape.8487")
#loc3748 = loc("transpose.8488")
#loc3749 = loc("dot.8664")
#loc3750 = loc("reshape.8665")
#loc3751 = loc("multiply.8676")
#loc3752 = loc("reshape.8677")
#loc3753 = loc("reshape.8480")
#loc3754 = loc("reshape.8482")
#loc3755 = loc("transpose.8483")
#loc3757 = loc("reshape.8679")
#loc3758 = loc("add.8682")
#loc3759 = loc("convert.8683")
#loc3760 = loc("power.8685")
#loc3761 = loc("reduce.8692")
#loc3762 = loc("multiply.8701")
#loc3763 = loc("reshape.8702")
#loc3764 = loc("add.8706")
#loc3765 = loc("rsqrt.8707")
#loc3766 = loc("reshape.8708")
#loc3767 = loc("broadcast.8709")
#loc3768 = loc("multiply.8710")
#loc3769 = loc("convert.8711")
#loc3770 = loc("multiply.8717")
#loc3771 = loc("reshape.8718")
#loc3772 = loc("reshape.8471")
#loc3773 = loc("reshape.8473")
#loc3774 = loc("transpose.8474")
#loc3775 = loc("dot.8719")
#loc3776 = loc("reshape.8721")
#loc3777 = loc("transpose.8722")
#loc3778 = loc("multiply.8733")
#loc3779 = loc("slice.8724")
#loc3780 = loc("negate.8725")
#loc3781 = loc("slice.8723")
#loc3782 = loc("concatenate.8726")
#loc3783 = loc("multiply.8729")
#loc3784 = loc("add.8736")
#loc3786 = loc("reshape.8758")
#loc3787 = loc("reshape.8760")
#loc3788 = loc("transpose.8761")
#loc3789 = loc("dot.8763")
#loc3790 = loc("reshape.8765")
#loc3791 = loc("transpose.8766")
#loc3793 = loc("reshape.9030")
#loc3794 = loc("reshape.9032")
#loc3795 = loc("broadcast.9033")
#loc3796 = loc("reshape.8849")
#loc3797 = loc("reshape.8851")
#loc3798 = loc("transpose.8852")
#loc3799 = loc("dot.8854")
#loc3800 = loc("reshape.8856")
#loc3801 = loc("transpose.8857")
#loc3802 = loc("multiply.8867")
#loc3803 = loc("slice.8859")
#loc3804 = loc("negate.8860")
#loc3805 = loc("slice.8858")
#loc3806 = loc("concatenate.8861")
#loc3807 = loc("multiply.8864")
#loc3808 = loc("add.8870")
#loc3809 = loc("convert.8871")
#loc3810 = loc("multiply.8873")
#loc3811 = loc("broadcast.8840")
#loc3812 = loc("reshape.8841")
#loc3813 = loc("convert.8842")
#loc3814 = loc("transpose.8843")
#loc3815 = loc("multiply.8845")
#loc3816 = loc("dot.8874")
#loc3817 = loc("add.8881")
#loc3818 = loc("convert.8907")
#loc3819 = loc("compare.8909")
#loc3820 = loc("not.8911")
#loc3822 = loc("or.8921")
#loc3823 = loc("select.8922")
#loc3824 = loc("reshape.8927")
#loc3825 = loc("not.8929")
#loc3826 = loc("reshape.8931")
#loc3827 = loc("broadcast.8932")
#loc3828 = loc("reduce.8887")
#loc3829 = loc("broadcast.8888")
#loc3830 = loc("subtract.8889")
#loc3831 = loc("exponential.8890")
#loc3832 = loc("reduce.8896")
#loc3833 = loc("broadcast.8897")
#loc3834 = loc("divide.8898")
#loc3835 = loc("select.8933")
#loc3836 = loc("broadcast.8818")
#loc3837 = loc("reshape.8819")
#loc3838 = loc("convert.8820")
#loc3839 = loc("dot.8934")
#loc3840 = loc("convert.8936")
#loc3841 = loc("transpose.8937")
#loc3842 = loc("reshape.8939")
#loc3843 = loc("reshape.8811")
#loc3844 = loc("reshape.8813")
#loc3845 = loc("transpose.8814")
#loc3847 = loc("reshape.8941")
#loc3848 = loc("add.8944")
#loc3849 = loc("reshape.8975")
#loc3850 = loc("reshape.8977")
#loc3851 = loc("broadcast.8978")
#loc3852 = loc("convert.8945")
#loc3853 = loc("power.8947")
#loc3854 = loc("reduce.8954")
#loc3855 = loc("multiply.8963")
#loc3856 = loc("reshape.8964")
#loc3857 = loc("add.8968")
#loc3858 = loc("rsqrt.8969")
#loc3859 = loc("reshape.8970")
#loc3860 = loc("broadcast.8971")
#loc3861 = loc("multiply.8972")
#loc3862 = loc("convert.8973")
#loc3863 = loc("multiply.8979")
#loc3864 = loc("reshape.8988")
#loc3865 = loc("reshape.8984")
#loc3866 = loc("reshape.8986")
#loc3867 = loc("transpose.8987")
#loc3868 = loc("dot.8989")
#loc3869 = loc("reshape.8990")
#loc3870 = loc("logistic.8991")
#loc3871 = loc("multiply.8992")
#loc3872 = loc("reshape.8802")
#loc3873 = loc("reshape.8804")
#loc3874 = loc("transpose.8805")
#loc3875 = loc("dot.8981")
#loc3876 = loc("reshape.8982")
#loc3877 = loc("multiply.8993")
#loc3878 = loc("reshape.8994")
#loc3879 = loc("reshape.8797")
#loc3880 = loc("reshape.8799")
#loc3881 = loc("transpose.8800")
#loc3883 = loc("reshape.8996")
#loc3884 = loc("add.8999")
#loc3885 = loc("convert.9000")
#loc3886 = loc("power.9002")
#loc3887 = loc("reduce.9009")
#loc3888 = loc("multiply.9018")
#loc3889 = loc("reshape.9019")
#loc3890 = loc("add.9023")
#loc3891 = loc("rsqrt.9024")
#loc3892 = loc("reshape.9025")
#loc3893 = loc("broadcast.9026")
#loc3894 = loc("multiply.9027")
#loc3895 = loc("convert.9028")
#loc3896 = loc("multiply.9034")
#loc3897 = loc("reshape.9035")
#loc3898 = loc("reshape.8788")
#loc3899 = loc("reshape.8790")
#loc3900 = loc("transpose.8791")
#loc3901 = loc("dot.9036")
#loc3902 = loc("reshape.9037")
------------------ END OF MLIR MODULE ------------------
