#loc1 = loc("p0.3")
#loc2 = loc("p1.11")
#loc3 = loc("p2.31")
#loc4 = loc("p3.39")
#loc5 = loc("p4.44")
#loc6 = loc("p5.80")
#loc7 = loc("p6.119")
#loc8 = loc("p7.157")
#loc9 = loc("p8.165")
#loc10 = loc("p9.187")
#loc11 = loc("p10.200")
#loc12 = loc("p11.209")
#loc13 = loc("p12.214")
#loc14 = loc("p13.223")
#loc15 = loc("p14.281")
#loc16 = loc("p15.319")
#loc17 = loc("p16.442")
#loc18 = loc("p17.451")
#loc19 = loc("p18.497")
#loc20 = loc("p19.536")
#loc21 = loc("p20.569")
#loc22 = loc("p21.577")
#loc23 = loc("p22.599")
#loc24 = loc("p23.612")
#loc25 = loc("p24.621")
#loc26 = loc("p25.626")
#loc27 = loc("p26.635")
#loc28 = loc("p27.676")
#loc29 = loc("p28.714")
#loc30 = loc("p29.837")
#loc31 = loc("p30.846")
#loc32 = loc("p31.892")
#loc33 = loc("p32.931")
#loc34 = loc("p33.964")
#loc35 = loc("p34.972")
#loc36 = loc("p35.994")
#loc37 = loc("p36.1007")
#loc38 = loc("p37.1016")
#loc39 = loc("p38.1021")
#loc40 = loc("p39.1030")
#loc41 = loc("p40.1071")
#loc42 = loc("p41.1109")
#loc43 = loc("p42.1232")
#loc44 = loc("p43.1241")
#loc45 = loc("p44.1287")
#loc46 = loc("p45.1326")
#loc47 = loc("p46.1359")
#loc48 = loc("p47.1367")
#loc49 = loc("p48.1389")
#loc50 = loc("p49.1402")
#loc51 = loc("p50.1411")
#loc52 = loc("p51.1416")
#loc53 = loc("p52.1425")
#loc54 = loc("p53.1466")
#loc55 = loc("p54.1504")
#loc56 = loc("p55.1627")
#loc57 = loc("p56.1636")
#loc58 = loc("p57.1682")
#loc59 = loc("p58.1721")
#loc60 = loc("p59.1754")
#loc61 = loc("p60.1762")
#loc62 = loc("p61.1784")
#loc63 = loc("p62.1797")
#loc64 = loc("p63.1806")
#loc65 = loc("p64.1811")
#loc66 = loc("p65.1820")
#loc67 = loc("p66.1861")
#loc68 = loc("p67.1899")
#loc69 = loc("p68.2022")
#loc70 = loc("p69.2031")
#loc71 = loc("p70.2077")
#loc72 = loc("p71.2116")
#loc73 = loc("p72.2149")
#loc74 = loc("p73.2157")
#loc75 = loc("p74.2179")
#loc76 = loc("p75.2192")
#loc77 = loc("p76.2201")
#loc78 = loc("p77.2206")
#loc79 = loc("p78.2215")
#loc80 = loc("p79.2256")
#loc81 = loc("p80.2294")
#loc82 = loc("p81.2417")
#loc83 = loc("p82.2426")
#loc84 = loc("p83.2472")
#loc85 = loc("p84.2511")
#loc86 = loc("p85.2544")
#loc87 = loc("p86.2552")
#loc88 = loc("p87.2574")
#loc89 = loc("p88.2587")
#loc90 = loc("p89.2596")
#loc91 = loc("p90.2601")
#loc92 = loc("p91.2610")
#loc93 = loc("p92.2651")
#loc94 = loc("p93.2689")
#loc95 = loc("p94.2812")
#loc96 = loc("p95.2821")
#loc97 = loc("p96.2867")
#loc98 = loc("p97.2906")
#loc99 = loc("p98.2939")
#loc100 = loc("p99.2947")
#loc101 = loc("p100.2969")
#loc102 = loc("p101.2982")
#loc103 = loc("p102.2991")
#loc104 = loc("p103.2996")
#loc105 = loc("p104.3005")
#loc106 = loc("p105.3046")
#loc107 = loc("p106.3084")
#loc108 = loc("p107.3207")
#loc109 = loc("p108.3216")
#loc110 = loc("p109.3262")
#loc111 = loc("p110.3301")
#loc112 = loc("p111.3334")
#loc113 = loc("p112.3342")
#loc114 = loc("p113.3364")
#loc115 = loc("p114.3377")
#loc116 = loc("p115.3386")
#loc117 = loc("p116.3391")
#loc118 = loc("p117.3400")
#loc119 = loc("p118.3441")
#loc120 = loc("p119.3479")
#loc121 = loc("p120.3602")
#loc122 = loc("p121.3611")
#loc123 = loc("p122.3657")
#loc124 = loc("p123.3696")
#loc125 = loc("p124.3729")
#loc126 = loc("p125.3737")
#loc127 = loc("p126.3759")
#loc128 = loc("p127.3772")
#loc129 = loc("p128.3781")
#loc130 = loc("p129.3786")
#loc131 = loc("p130.3795")
#loc132 = loc("p131.3836")
#loc133 = loc("p132.3874")
#loc134 = loc("p133.3997")
#loc135 = loc("p134.4006")
#loc136 = loc("p135.4052")
#loc137 = loc("p136.4091")
#loc138 = loc("p137.4124")
#loc139 = loc("p138.4132")
#loc140 = loc("p139.4154")
#loc141 = loc("p140.4167")
#loc142 = loc("p141.4176")
#loc143 = loc("p142.4181")
#loc144 = loc("p143.4190")
#loc145 = loc("p144.4231")
#loc146 = loc("p145.4269")
#loc147 = loc("p146.4392")
#loc148 = loc("p147.4401")
#loc149 = loc("p148.4447")
#loc150 = loc("p149.4486")
#loc151 = loc("p150.4519")
#loc152 = loc("p151.4527")
#loc153 = loc("p152.4549")
#loc154 = loc("p153.4562")
#loc155 = loc("p154.4571")
#loc156 = loc("p155.4576")
#loc157 = loc("p156.4585")
#loc158 = loc("p157.4626")
#loc159 = loc("p158.4664")
#loc160 = loc("p159.4787")
#loc161 = loc("p160.4796")
#loc162 = loc("p161.4842")
#loc163 = loc("p162.4881")
#loc164 = loc("p163.4914")
#loc165 = loc("p164.4922")
#loc166 = loc("p165.4944")
#loc167 = loc("p166.4957")
#loc168 = loc("p167.4966")
#loc169 = loc("p168.4971")
#loc170 = loc("p169.4980")
#loc171 = loc("p170.5021")
#loc172 = loc("p171.5059")
#loc173 = loc("p172.5182")
#loc174 = loc("p173.5191")
#loc175 = loc("p174.5237")
#loc176 = loc("p175.5276")
#loc177 = loc("p176.5309")
#loc178 = loc("p177.5317")
#loc179 = loc("p178.5339")
#loc180 = loc("p179.5352")
#loc181 = loc("p180.5361")
#loc182 = loc("p181.5366")
#loc183 = loc("p182.5375")
#loc184 = loc("p183.5416")
#loc185 = loc("p184.5454")
#loc186 = loc("p185.5577")
#loc187 = loc("p186.5586")
#loc188 = loc("p187.5632")
#loc189 = loc("p188.5671")
#loc190 = loc("p189.5704")
#loc191 = loc("p190.5712")
#loc192 = loc("p191.5734")
#loc193 = loc("p192.5747")
#loc194 = loc("p193.5756")
#loc195 = loc("p194.5761")
#loc196 = loc("p195.5770")
#loc197 = loc("p196.5811")
#loc198 = loc("p197.5849")
#loc199 = loc("p198.5972")
#loc200 = loc("p199.5981")
#loc201 = loc("p200.6027")
#loc202 = loc("p201.6066")
#loc203 = loc("p202.6099")
#loc204 = loc("p203.6107")
#loc205 = loc("p204.6129")
#loc206 = loc("p205.6142")
#loc207 = loc("p206.6151")
#loc208 = loc("p207.6156")
#loc209 = loc("p208.6165")
#loc210 = loc("p209.6206")
#loc211 = loc("p210.6244")
#loc212 = loc("p211.6367")
#loc213 = loc("p212.6376")
#loc214 = loc("p213.6422")
#loc215 = loc("p214.6461")
#loc216 = loc("p215.6494")
#loc217 = loc("p216.6502")
#loc218 = loc("p217.6524")
#loc219 = loc("p218.6537")
#loc220 = loc("p219.6546")
#loc221 = loc("p220.6551")
#loc222 = loc("p221.6560")
#loc223 = loc("p222.6601")
#loc224 = loc("p223.6639")
#loc225 = loc("p224.6762")
#loc226 = loc("p225.6771")
#loc227 = loc("p226.6817")
#loc228 = loc("p227.6856")
#loc229 = loc("p228.6889")
#loc230 = loc("p229.6897")
#loc231 = loc("p230.6919")
#loc232 = loc("p231.6932")
#loc233 = loc("p232.6941")
#loc234 = loc("p233.6946")
#loc235 = loc("p234.6955")
#loc236 = loc("p235.6996")
#loc237 = loc("p236.7034")
#loc238 = loc("p237.7157")
#loc239 = loc("p238.7166")
#loc240 = loc("p239.7212")
#loc241 = loc("p240.7251")
#loc242 = loc("p241.7284")
#loc243 = loc("p242.7292")
#loc244 = loc("p243.7314")
#loc245 = loc("p244.7327")
#loc246 = loc("p245.7336")
#loc247 = loc("p246.7341")
#loc248 = loc("p247.7350")
#loc249 = loc("p248.7391")
#loc250 = loc("p249.7429")
#loc251 = loc("p250.7552")
#loc252 = loc("p251.7561")
#loc253 = loc("p252.7607")
#loc254 = loc("p253.7646")
#loc255 = loc("p254.7679")
#loc256 = loc("p255.7687")
#loc257 = loc("p256.7709")
#loc258 = loc("p257.7722")
#loc259 = loc("p258.7731")
#loc260 = loc("p259.7736")
#loc261 = loc("p260.7745")
#loc262 = loc("p261.7786")
#loc263 = loc("p262.7824")
#loc264 = loc("p263.7947")
#loc265 = loc("p264.7956")
#loc266 = loc("p265.8002")
#loc267 = loc("p266.8041")
#loc268 = loc("p267.8074")
#loc269 = loc("p268.8082")
#loc270 = loc("p269.8104")
#loc271 = loc("p270.8117")
#loc272 = loc("p271.8126")
#loc273 = loc("p272.8131")
#loc274 = loc("p273.8140")
#loc275 = loc("p274.8181")
#loc276 = loc("p275.8219")
#loc277 = loc("p276.8342")
#loc278 = loc("p277.8351")
#loc279 = loc("p278.8397")
#loc280 = loc("p279.8436")
#loc281 = loc("p280.8469")
#loc282 = loc("p281.8477")
#loc283 = loc("p282.8499")
#loc284 = loc("p283.8512")
#loc285 = loc("p284.8521")
#loc286 = loc("p285.8526")
#loc287 = loc("p286.8535")
#loc288 = loc("p287.8576")
#loc289 = loc("p288.8614")
#loc290 = loc("p289.8737")
#loc291 = loc("p290.8746")
#loc292 = loc("p291.8792")
#loc293 = loc("p292.8831")
#loc294 = loc("p293.8864")
#loc295 = loc("p294.8872")
#loc296 = loc("p295.8894")
#loc297 = loc("p296.8907")
#loc298 = loc("p297.8916")
#loc299 = loc("p298.8921")
#loc300 = loc("p299.8930")
#loc301 = loc("p300.8971")
#loc302 = loc("p301.9009")
#loc303 = loc("p302.9132")
#loc304 = loc("p303.9141")
#loc305 = loc("p304.9187")
#loc306 = loc("p305.9226")
#loc307 = loc("p306.9259")
#loc308 = loc("p307.9267")
#loc309 = loc("p308.9289")
#loc310 = loc("p309.9302")
#loc311 = loc("p310.9311")
#loc312 = loc("p311.9316")
#loc313 = loc("p312.9325")
#loc314 = loc("p313.9366")
#loc315 = loc("p314.9404")
#loc316 = loc("p315.9527")
#loc317 = loc("p316.9536")
#loc318 = loc("p317.9582")
#loc319 = loc("p318.9621")
#loc320 = loc("p319.9654")
#loc321 = loc("p320.9662")
#loc322 = loc("p321.9684")
#loc323 = loc("p322.9697")
#loc324 = loc("p323.9706")
#loc325 = loc("p324.9711")
#loc326 = loc("p325.9720")
#loc327 = loc("p326.9761")
#loc328 = loc("p327.9799")
#loc329 = loc("p328.9922")
#loc330 = loc("p329.9931")
#loc331 = loc("p330.9977")
#loc332 = loc("p331.10016")
#loc333 = loc("p332.10049")
#loc334 = loc("p333.10057")
#loc335 = loc("p334.10079")
#loc336 = loc("p335.10092")
#loc337 = loc("p336.10101")
#loc338 = loc("p337.10106")
#loc339 = loc("p338.10115")
#loc340 = loc("p339.10156")
#loc341 = loc("p340.10194")
#loc342 = loc("p341.10317")
#loc343 = loc("p342.10326")
#loc344 = loc("p343.10372")
#loc345 = loc("p344.10411")
#loc346 = loc("p345.10444")
#loc347 = loc("p346.10452")
#loc348 = loc("p347.10474")
#loc349 = loc("p348.10487")
#loc350 = loc("p349.10496")
#loc351 = loc("p350.10501")
#loc352 = loc("p351.10510")
#loc353 = loc("p352.10551")
#loc354 = loc("p353.10589")
#loc355 = loc("p354.10712")
#loc356 = loc("p355.10721")
#loc357 = loc("p356.10767")
#loc358 = loc("p357.10806")
#loc359 = loc("p358.10839")
#loc360 = loc("p359.10847")
#loc361 = loc("p360.10869")
#loc362 = loc("p361.10882")
#loc363 = loc("p362.10891")
#loc364 = loc("p363.10896")
#loc365 = loc("p364.10905")
#loc366 = loc("p365.10946")
#loc367 = loc("p366.10984")
#loc368 = loc("p367.11107")
#loc369 = loc("p368.11116")
#loc370 = loc("p369.11162")
#loc371 = loc("p370.11201")
#loc372 = loc("p371.11234")
#loc373 = loc("p372.11242")
#loc374 = loc("p373.11264")
#loc375 = loc("p374.11277")
#loc376 = loc("p375.11286")
#loc377 = loc("p376.11291")
#loc378 = loc("p377.11300")
#loc379 = loc("p378.11341")
#loc380 = loc("p379.11379")
#loc381 = loc("p380.11502")
#loc382 = loc("p381.11511")
#loc383 = loc("p382.11557")
#loc384 = loc("p383.11596")
#loc385 = loc("p384.11629")
#loc386 = loc("p385.11637")
#loc387 = loc("p386.11659")
#loc388 = loc("p387.11672")
#loc389 = loc("p388.11681")
#loc390 = loc("p389.11686")
#loc391 = loc("p390.11695")
#loc392 = loc("p391.11736")
#loc393 = loc("p392.11774")
#loc394 = loc("p393.11897")
#loc395 = loc("p394.11906")
#loc396 = loc("p395.11952")
#loc397 = loc("p396.11991")
#loc398 = loc("p397.12024")
#loc399 = loc("p398.12032")
#loc400 = loc("p399.12054")
#loc401 = loc("p400.12067")
#loc402 = loc("p401.12076")
#loc403 = loc("p402.12081")
#loc404 = loc("p403.12090")
#loc405 = loc("p404.12131")
#loc406 = loc("p405.12169")
#loc407 = loc("p406.12292")
#loc408 = loc("p407.12301")
#loc409 = loc("p408.12347")
#loc410 = loc("p409.12386")
#loc411 = loc("p410.12419")
#loc412 = loc("p411.12427")
#loc413 = loc("p412.12449")
#loc414 = loc("p413.12462")
#loc415 = loc("p414.12471")
#loc416 = loc("p415.12476")
#loc417 = loc("p416.12485")
#loc418 = loc("p417.12526")
#loc419 = loc("p418.12564")
#loc420 = loc("p419.12687")
#loc421 = loc("p420.12696")
#loc422 = loc("p421.12742")
#loc423 = loc("p422.12781")
#loc424 = loc("p423.12814")
#loc425 = loc("p424.12822")
#loc426 = loc("p425.12844")
#loc427 = loc("p426.12857")
#loc428 = loc("p427.12866")
#loc429 = loc("p428.12871")
#loc430 = loc("p429.12880")
#loc431 = loc("p430.12921")
#loc432 = loc("p431.12959")
#loc433 = loc("p432.13082")
#loc434 = loc("p433.13091")
#loc435 = loc("p434.13137")
#loc436 = loc("p435.13176")
#loc437 = loc("p436.13209")
#loc438 = loc("p437.13217")
#loc439 = loc("p438.13239")
#loc440 = loc("p439.13252")
#loc441 = loc("p440.13261")
#loc442 = loc("p441.13266")
#loc443 = loc("p442.13275")
#loc444 = loc("p443.13316")
#loc445 = loc("p444.13354")
#loc446 = loc("p445.13477")
#loc447 = loc("p446.13486")
#loc448 = loc("p447.13532")
#loc449 = loc("p448.13571")
#loc450 = loc("p449.13604")
#loc451 = loc("p450.13612")
#loc452 = loc("p451.13634")
#loc453 = loc("p452.13647")
#loc454 = loc("p453.13656")
#loc455 = loc("p454.13661")
#loc456 = loc("p455.13670")
#loc457 = loc("p456.13711")
#loc458 = loc("p457.13749")
#loc459 = loc("p458.13872")
#loc460 = loc("p459.13881")
#loc461 = loc("p460.13927")
#loc462 = loc("p461.13966")
#loc463 = loc("p462.13999")
#loc464 = loc("p463.14007")
#loc465 = loc("p464.14029")
#loc466 = loc("p465.14042")
#loc467 = loc("p466.14051")
#loc468 = loc("p467.14056")
#loc469 = loc("p468.14065")
#loc470 = loc("p469.14106")
#loc471 = loc("p470.14144")
#loc472 = loc("p471.14267")
#loc473 = loc("p472.14276")
#loc474 = loc("p473.14322")
#loc475 = loc("p474.14361")
#loc476 = loc("p475.14394")
#loc477 = loc("p476.14402")
#loc478 = loc("p477.14424")
#loc479 = loc("p478.14437")
#loc480 = loc("p479.14446")
#loc481 = loc("p480.14451")
#loc482 = loc("p481.14460")
#loc483 = loc("p482.14501")
#loc484 = loc("p483.14539")
#loc485 = loc("p484.14662")
#loc486 = loc("p485.14671")
#loc487 = loc("p486.14717")
#loc488 = loc("p487.14756")
#loc489 = loc("p488.14789")
#loc490 = loc("p489.14797")
#loc491 = loc("p490.14819")
#loc492 = loc("p491.14832")
#loc493 = loc("p492.14841")
#loc494 = loc("p493.14846")
#loc495 = loc("p494.14855")
#loc496 = loc("p495.14896")
#loc497 = loc("p496.14934")
#loc498 = loc("p497.15057")
#loc499 = loc("p498.15066")
#loc500 = loc("p499.15112")
#loc501 = loc("p500.15151")
#loc502 = loc("p501.15184")
#loc503 = loc("p502.15192")
#loc504 = loc("p503.15214")
#loc505 = loc("p504.15227")
#loc506 = loc("p505.15236")
#loc507 = loc("p506.15241")
#loc508 = loc("p507.15250")
#loc509 = loc("p508.15291")
#loc510 = loc("p509.15329")
#loc511 = loc("p510.15452")
#loc512 = loc("p511.15461")
#loc513 = loc("p512.15507")
#loc514 = loc("p513.15546")
#loc515 = loc("p514.15579")
#loc516 = loc("p515.15587")
#loc517 = loc("p516.15609")
#loc518 = loc("p517.15617")
#loc519 = loc("p518.15626")
#loc520 = loc("p519.15631")
#loc521 = loc("p520.15640")
#loc522 = loc("p521.15681")
#loc523 = loc("p522.15719")
#loc524 = loc("p523.15842")
#loc525 = loc("p524.15851")
#loc526 = loc("p525.15897")
#loc599 = loc("scatter.163")
#loc606 = loc("scatter.193")
#loc664 = loc("reduce.391")
#loc689 = loc("dot.408")
#loc725 = loc("dot.463")
#loc766 = loc("scatter.575")
#loc773 = loc("scatter.605")
#loc820 = loc("reduce.786")
#loc845 = loc("dot.803")
#loc881 = loc("dot.858")
#loc922 = loc("scatter.970")
#loc929 = loc("scatter.1000")
#loc976 = loc("reduce.1181")
#loc1001 = loc("dot.1198")
#loc1037 = loc("dot.1253")
#loc1078 = loc("scatter.1365")
#loc1085 = loc("scatter.1395")
#loc1132 = loc("reduce.1576")
#loc1157 = loc("dot.1593")
#loc1193 = loc("dot.1648")
#loc1234 = loc("scatter.1760")
#loc1241 = loc("scatter.1790")
#loc1288 = loc("reduce.1971")
#loc1313 = loc("dot.1988")
#loc1349 = loc("dot.2043")
#loc1390 = loc("scatter.2155")
#loc1397 = loc("scatter.2185")
#loc1444 = loc("reduce.2366")
#loc1469 = loc("dot.2383")
#loc1505 = loc("dot.2438")
#loc1546 = loc("scatter.2550")
#loc1553 = loc("scatter.2580")
#loc1600 = loc("reduce.2761")
#loc1625 = loc("dot.2778")
#loc1661 = loc("dot.2833")
#loc1702 = loc("scatter.2945")
#loc1709 = loc("scatter.2975")
#loc1756 = loc("reduce.3156")
#loc1781 = loc("dot.3173")
#loc1817 = loc("dot.3228")
#loc1858 = loc("scatter.3340")
#loc1865 = loc("scatter.3370")
#loc1912 = loc("reduce.3551")
#loc1937 = loc("dot.3568")
#loc1973 = loc("dot.3623")
#loc2014 = loc("scatter.3735")
#loc2021 = loc("scatter.3765")
#loc2068 = loc("reduce.3946")
#loc2093 = loc("dot.3963")
#loc2129 = loc("dot.4018")
#loc2170 = loc("scatter.4130")
#loc2177 = loc("scatter.4160")
#loc2224 = loc("reduce.4341")
#loc2249 = loc("dot.4358")
#loc2285 = loc("dot.4413")
#loc2326 = loc("scatter.4525")
#loc2333 = loc("scatter.4555")
#loc2380 = loc("reduce.4736")
#loc2405 = loc("dot.4753")
#loc2441 = loc("dot.4808")
#loc2482 = loc("scatter.4920")
#loc2489 = loc("scatter.4950")
#loc2536 = loc("reduce.5131")
#loc2561 = loc("dot.5148")
#loc2597 = loc("dot.5203")
#loc2638 = loc("scatter.5315")
#loc2645 = loc("scatter.5345")
#loc2692 = loc("reduce.5526")
#loc2717 = loc("dot.5543")
#loc2753 = loc("dot.5598")
#loc2794 = loc("scatter.5710")
#loc2801 = loc("scatter.5740")
#loc2848 = loc("reduce.5921")
#loc2873 = loc("dot.5938")
#loc2909 = loc("dot.5993")
#loc2950 = loc("scatter.6105")
#loc2957 = loc("scatter.6135")
#loc3004 = loc("reduce.6316")
#loc3029 = loc("dot.6333")
#loc3065 = loc("dot.6388")
#loc3106 = loc("scatter.6500")
#loc3113 = loc("scatter.6530")
#loc3160 = loc("reduce.6711")
#loc3185 = loc("dot.6728")
#loc3221 = loc("dot.6783")
#loc3262 = loc("scatter.6895")
#loc3269 = loc("scatter.6925")
#loc3316 = loc("reduce.7106")
#loc3341 = loc("dot.7123")
#loc3377 = loc("dot.7178")
#loc3418 = loc("scatter.7290")
#loc3425 = loc("scatter.7320")
#loc3472 = loc("reduce.7501")
#loc3497 = loc("dot.7518")
#loc3533 = loc("dot.7573")
#loc3574 = loc("scatter.7685")
#loc3581 = loc("scatter.7715")
#loc3628 = loc("reduce.7896")
#loc3653 = loc("dot.7913")
#loc3689 = loc("dot.7968")
#loc3730 = loc("scatter.8080")
#loc3737 = loc("scatter.8110")
#loc3784 = loc("reduce.8291")
#loc3809 = loc("dot.8308")
#loc3845 = loc("dot.8363")
#loc3886 = loc("scatter.8475")
#loc3893 = loc("scatter.8505")
#loc3940 = loc("reduce.8686")
#loc3965 = loc("dot.8703")
#loc4001 = loc("dot.8758")
#loc4042 = loc("scatter.8870")
#loc4049 = loc("scatter.8900")
#loc4096 = loc("reduce.9081")
#loc4121 = loc("dot.9098")
#loc4157 = loc("dot.9153")
#loc4198 = loc("scatter.9265")
#loc4205 = loc("scatter.9295")
#loc4252 = loc("reduce.9476")
#loc4277 = loc("dot.9493")
#loc4313 = loc("dot.9548")
#loc4354 = loc("scatter.9660")
#loc4361 = loc("scatter.9690")
#loc4408 = loc("reduce.9871")
#loc4433 = loc("dot.9888")
#loc4469 = loc("dot.9943")
#loc4510 = loc("scatter.10055")
#loc4517 = loc("scatter.10085")
#loc4564 = loc("reduce.10266")
#loc4589 = loc("dot.10283")
#loc4625 = loc("dot.10338")
#loc4666 = loc("scatter.10450")
#loc4673 = loc("scatter.10480")
#loc4720 = loc("reduce.10661")
#loc4745 = loc("dot.10678")
#loc4781 = loc("dot.10733")
#loc4822 = loc("scatter.10845")
#loc4829 = loc("scatter.10875")
#loc4876 = loc("reduce.11056")
#loc4901 = loc("dot.11073")
#loc4937 = loc("dot.11128")
#loc4978 = loc("scatter.11240")
#loc4985 = loc("scatter.11270")
#loc5032 = loc("reduce.11451")
#loc5057 = loc("dot.11468")
#loc5093 = loc("dot.11523")
#loc5134 = loc("scatter.11635")
#loc5141 = loc("scatter.11665")
#loc5188 = loc("reduce.11846")
#loc5213 = loc("dot.11863")
#loc5249 = loc("dot.11918")
#loc5290 = loc("scatter.12030")
#loc5297 = loc("scatter.12060")
#loc5344 = loc("reduce.12241")
#loc5369 = loc("dot.12258")
#loc5405 = loc("dot.12313")
#loc5446 = loc("scatter.12425")
#loc5453 = loc("scatter.12455")
#loc5500 = loc("reduce.12636")
#loc5525 = loc("dot.12653")
#loc5561 = loc("dot.12708")
#loc5602 = loc("scatter.12820")
#loc5609 = loc("scatter.12850")
#loc5656 = loc("reduce.13031")
#loc5681 = loc("dot.13048")
#loc5717 = loc("dot.13103")
#loc5758 = loc("scatter.13215")
#loc5765 = loc("scatter.13245")
#loc5812 = loc("reduce.13426")
#loc5837 = loc("dot.13443")
#loc5873 = loc("dot.13498")
#loc5914 = loc("scatter.13610")
#loc5921 = loc("scatter.13640")
#loc5968 = loc("reduce.13821")
#loc5993 = loc("dot.13838")
#loc6029 = loc("dot.13893")
#loc6070 = loc("scatter.14005")
#loc6077 = loc("scatter.14035")
#loc6124 = loc("reduce.14216")
#loc6149 = loc("dot.14233")
#loc6185 = loc("dot.14288")
#loc6226 = loc("scatter.14400")
#loc6233 = loc("scatter.14430")
#loc6280 = loc("reduce.14611")
#loc6305 = loc("dot.14628")
#loc6341 = loc("dot.14683")
#loc6382 = loc("scatter.14795")
#loc6389 = loc("scatter.14825")
#loc6436 = loc("reduce.15006")
#loc6461 = loc("dot.15023")
#loc6497 = loc("dot.15078")
#loc6538 = loc("scatter.15190")
#loc6545 = loc("scatter.15220")
#loc6592 = loc("reduce.15401")
#loc6617 = loc("dot.15418")
#loc6653 = loc("dot.15473")
#loc6694 = loc("scatter.15585")
#loc6701 = loc("scatter.15615")
#loc6745 = loc("reduce.15791")
#loc6770 = loc("dot.15808")
#loc6806 = loc("dot.15863")
module @SyncTensorsGraph.15907 attributes {mhlo.cross_program_prefetches = [], mhlo.input_output_alias = [], mhlo.is_dynamic = false, mhlo.use_auto_spmd_partitioning = false} {
  sdy.mesh @mesh = <["_axis_0_updated"=1, "_axis_0"=8]> loc(#loc)
  func.func @main(%arg0: tensor<17xi64> {ttcore.argument_type = #ttcore.argument_type<input>, ttcore.shard_status = #ttcore.shard_status<presharded>, ttir.name = "args_1"} loc("p0.3"), %arg1: tensor<64xbf16> {ttcore.argument_type = #ttcore.argument_type<constant>, ttcore.shard_status = #ttcore.shard_status<presharded>, ttir.name = "l__self___model_rotary_emb_inv_freq"} loc("p1.11"), %arg2: tensor<1024x5120xbf16> {ttcore.argument_type = #ttcore.argument_type<parameter>, ttcore.shard_status = #ttcore.shard_status<presharded>, ttir.name = "l__self___model_layers__modules__0___self_attn_k_proj_weight"} loc("p2.31"), %arg3: tensor<32x17xi64> {ttcore.argument_type = #ttcore.argument_type<input>, ttcore.shard_status = #ttcore.shard_status<presharded>, ttir.name = "args_0"} loc("p3.39"), %arg4: tensor<151936x5120xbf16> {ttcore.argument_type = #ttcore.argument_type<parameter>, ttcore.shard_status = #ttcore.shard_status<presharded>, ttir.name = "l__self___model_embed_tokens_weight"} loc("p4.44"), %arg5: tensor<5120xbf16> {ttcore.argument_type = #ttcore.argument_type<parameter>, ttcore.shard_status = #ttcore.shard_status<presharded>, ttir.name = "l__self___model_layers__modules__0___input_layernorm_weight"} loc("p5.80"), %arg6: tensor<128xbf16> {ttcore.argument_type = #ttcore.argument_type<parameter>, ttcore.shard_status = #ttcore.shard_status<presharded>, ttir.name = "l__self___model_layers__modules__0___self_attn_k_norm_weight"} loc("p6.119"), %arg7: tensor<32x8x128x128xbf16> {ttcore.argument_type = #ttcore.argument_type<input>, ttcore.shard_status = #ttcore.shard_status<presharded>, ttir.name = "args_2"} loc("p7.157"), %arg8: tensor<1024x5120xbf16> {ttcore.argument_type = #ttcore.argument_type<parameter>, ttcore.shard_status = #ttcore.shard_status<presharded>, ttir.name = "l__self___model_layers__modules__0___self_attn_v_proj_weight"} loc("p8.165"), %arg9: tensor<32x8x128x128xbf16> {ttcore.argument_type = #ttcore.argument_type<input>, ttcore.shard_status = #ttcore.shard_status<presharded>, ttir.name = "args_3"} loc("p9.187"), %arg10: tensor<1024x5120xbf16> {ttcore.argument_type = #ttcore.argument_type<parameter>, ttcore.shard_status = #ttcore.shard_status<presharded>, ttir.name = "l__self___model_layers__modules__1___self_attn_k_proj_weight"} loc("p10.200"), %arg11: tensor<5120x17408xbf16> {ttcore.argument_type = #ttcore.argument_type<parameter>, ttcore.shard_status = #ttcore.shard_status<presharded>, ttir.name = "l__self___model_layers__modules__0___mlp_down_proj_weight"} loc("p11.209"), %arg12: tensor<17408x5120xbf16> {ttcore.argument_type = #ttcore.argument_type<parameter>, ttcore.shard_status = #ttcore.shard_status<presharded>, ttir.name = "l__self___model_layers__modules__0___mlp_up_proj_weight"} loc("p12.214"), %arg13: tensor<5120x5120xbf16> {ttcore.argument_type = #ttcore.argument_type<parameter>, ttcore.shard_status = #ttcore.shard_status<presharded>, ttir.name = "l__self___model_layers__modules__0___self_attn_o_proj_weight"} loc("p13.223"), %arg14: tensor<5120x5120xbf16> {ttcore.argument_type = #ttcore.argument_type<parameter>, ttcore.shard_status = #ttcore.shard_status<presharded>, ttir.name = "l__self___model_layers__modules__0___self_attn_q_proj_weight"} loc("p14.281"), %arg15: tensor<128xbf16> {ttcore.argument_type = #ttcore.argument_type<parameter>, ttcore.shard_status = #ttcore.shard_status<presharded>, ttir.name = "l__self___model_layers__modules__0___self_attn_q_norm_weight"} loc("p15.319"), %arg16: tensor<5120xbf16> {ttcore.argument_type = #ttcore.argument_type<parameter>, ttcore.shard_status = #ttcore.shard_status<presharded>, ttir.name = "l__self___model_layers__modules__0___post_attention_layernorm_weight"} loc("p16.442"), %arg17: tensor<17408x5120xbf16> {ttcore.argument_type = #ttcore.argument_type<parameter>, ttcore.shard_status = #ttcore.shard_status<presharded>, ttir.name = "l__self___model_layers__modules__0___mlp_gate_proj_weight"} loc("p17.451"), %arg18: tensor<5120xbf16> {ttcore.argument_type = #ttcore.argument_type<parameter>, ttcore.shard_status = #ttcore.shard_status<presharded>, ttir.name = "l__self___model_layers__modules__1___input_layernorm_weight"} loc("p18.497"), %arg19: tensor<128xbf16> {ttcore.argument_type = #ttcore.argument_type<parameter>, ttcore.shard_status = #ttcore.shard_status<presharded>, ttir.name = "l__self___model_layers__modules__1___self_attn_k_norm_weight"} loc("p19.536"), %arg20: tensor<32x8x128x128xbf16> {ttcore.argument_type = #ttcore.argument_type<input>, ttcore.shard_status = #ttcore.shard_status<presharded>, ttir.name = "args_4"} loc("p20.569"), %arg21: tensor<1024x5120xbf16> {ttcore.argument_type = #ttcore.argument_type<parameter>, ttcore.shard_status = #ttcore.shard_status<presharded>, ttir.name = "l__self___model_layers__modules__1___self_attn_v_proj_weight"} loc("p21.577"), %arg22: tensor<32x8x128x128xbf16> {ttcore.argument_type = #ttcore.argument_type<input>, ttcore.shard_status = #ttcore.shard_status<presharded>, ttir.name = "args_5"} loc("p22.599"), %arg23: tensor<1024x5120xbf16> {ttcore.argument_type = #ttcore.argument_type<parameter>, ttcore.shard_status = #ttcore.shard_status<presharded>, ttir.name = "l__self___model_layers__modules__2___self_attn_k_proj_weight"} loc("p23.612"), %arg24: tensor<5120x17408xbf16> {ttcore.argument_type = #ttcore.argument_type<parameter>, ttcore.shard_status = #ttcore.shard_status<presharded>, ttir.name = "l__self___model_layers__modules__1___mlp_down_proj_weight"} loc("p24.621"), %arg25: tensor<17408x5120xbf16> {ttcore.argument_type = #ttcore.argument_type<parameter>, ttcore.shard_status = #ttcore.shard_status<presharded>, ttir.name = "l__self___model_layers__modules__1___mlp_up_proj_weight"} loc("p25.626"), %arg26: tensor<5120x5120xbf16> {ttcore.argument_type = #ttcore.argument_type<parameter>, ttcore.shard_status = #ttcore.shard_status<presharded>, ttir.name = "l__self___model_layers__modules__1___self_attn_o_proj_weight"} loc("p26.635"), %arg27: tensor<5120x5120xbf16> {ttcore.argument_type = #ttcore.argument_type<parameter>, ttcore.shard_status = #ttcore.shard_status<presharded>, ttir.name = "l__self___model_layers__modules__1___self_attn_q_proj_weight"} loc("p27.676"), %arg28: tensor<128xbf16> {ttcore.argument_type = #ttcore.argument_type<parameter>, ttcore.shard_status = #ttcore.shard_status<presharded>, ttir.name = "l__self___model_layers__modules__1___self_attn_q_norm_weight"} loc("p28.714"), %arg29: tensor<5120xbf16> {ttcore.argument_type = #ttcore.argument_type<parameter>, ttcore.shard_status = #ttcore.shard_status<presharded>, ttir.name = "l__self___model_layers__modules__1___post_attention_layernorm_weight"} loc("p29.837"), %arg30: tensor<17408x5120xbf16> {ttcore.argument_type = #ttcore.argument_type<parameter>, ttcore.shard_status = #ttcore.shard_status<presharded>, ttir.name = "l__self___model_layers__modules__1___mlp_gate_proj_weight"} loc("p30.846"), %arg31: tensor<5120xbf16> {ttcore.argument_type = #ttcore.argument_type<parameter>, ttcore.shard_status = #ttcore.shard_status<presharded>, ttir.name = "l__self___model_layers__modules__2___input_layernorm_weight"} loc("p31.892"), %arg32: tensor<128xbf16> {ttcore.argument_type = #ttcore.argument_type<parameter>, ttcore.shard_status = #ttcore.shard_status<presharded>, ttir.name = "l__self___model_layers__modules__2___self_attn_k_norm_weight"} loc("p32.931"), %arg33: tensor<32x8x128x128xbf16> {ttcore.argument_type = #ttcore.argument_type<input>, ttcore.shard_status = #ttcore.shard_status<presharded>, ttir.name = "args_6"} loc("p33.964"), %arg34: tensor<1024x5120xbf16> {ttcore.argument_type = #ttcore.argument_type<parameter>, ttcore.shard_status = #ttcore.shard_status<presharded>, ttir.name = "l__self___model_layers__modules__2___self_attn_v_proj_weight"} loc("p34.972"), %arg35: tensor<32x8x128x128xbf16> {ttcore.argument_type = #ttcore.argument_type<input>, ttcore.shard_status = #ttcore.shard_status<presharded>, ttir.name = "args_7"} loc("p35.994"), %arg36: tensor<1024x5120xbf16> {ttcore.argument_type = #ttcore.argument_type<parameter>, ttcore.shard_status = #ttcore.shard_status<presharded>, ttir.name = "l__self___model_layers__modules__3___self_attn_k_proj_weight"} loc("p36.1007"), %arg37: tensor<5120x17408xbf16> {ttcore.argument_type = #ttcore.argument_type<parameter>, ttcore.shard_status = #ttcore.shard_status<presharded>, ttir.name = "l__self___model_layers__modules__2___mlp_down_proj_weight"} loc("p37.1016"), %arg38: tensor<17408x5120xbf16> {ttcore.argument_type = #ttcore.argument_type<parameter>, ttcore.shard_status = #ttcore.shard_status<presharded>, ttir.name = "l__self___model_layers__modules__2___mlp_up_proj_weight"} loc("p38.1021"), %arg39: tensor<5120x5120xbf16> {ttcore.argument_type = #ttcore.argument_type<parameter>, ttcore.shard_status = #ttcore.shard_status<presharded>, ttir.name = "l__self___model_layers__modules__2___self_attn_o_proj_weight"} loc("p39.1030"), %arg40: tensor<5120x5120xbf16> {ttcore.argument_type = #ttcore.argument_type<parameter>, ttcore.shard_status = #ttcore.shard_status<presharded>, ttir.name = "l__self___model_layers__modules__2___self_attn_q_proj_weight"} loc("p40.1071"), %arg41: tensor<128xbf16> {ttcore.argument_type = #ttcore.argument_type<parameter>, ttcore.shard_status = #ttcore.shard_status<presharded>, ttir.name = "l__self___model_layers__modules__2___self_attn_q_norm_weight"} loc("p41.1109"), %arg42: tensor<5120xbf16> {ttcore.argument_type = #ttcore.argument_type<parameter>, ttcore.shard_status = #ttcore.shard_status<presharded>, ttir.name = "l__self___model_layers__modules__2___post_attention_layernorm_weight"} loc("p42.1232"), %arg43: tensor<17408x5120xbf16> {ttcore.argument_type = #ttcore.argument_type<parameter>, ttcore.shard_status = #ttcore.shard_status<presharded>, ttir.name = "l__self___model_layers__modules__2___mlp_gate_proj_weight"} loc("p43.1241"), %arg44: tensor<5120xbf16> {ttcore.argument_type = #ttcore.argument_type<parameter>, ttcore.shard_status = #ttcore.shard_status<presharded>, ttir.name = "l__self___model_layers__modules__3___input_layernorm_weight"} loc("p44.1287"), %arg45: tensor<128xbf16> {ttcore.argument_type = #ttcore.argument_type<parameter>, ttcore.shard_status = #ttcore.shard_status<presharded>, ttir.name = "l__self___model_layers__modules__3___self_attn_k_norm_weight"} loc("p45.1326"), %arg46: tensor<32x8x128x128xbf16> {ttcore.argument_type = #ttcore.argument_type<input>, ttcore.shard_status = #ttcore.shard_status<presharded>, ttir.name = "args_8"} loc("p46.1359"), %arg47: tensor<1024x5120xbf16> {ttcore.argument_type = #ttcore.argument_type<parameter>, ttcore.shard_status = #ttcore.shard_status<presharded>, ttir.name = "l__self___model_layers__modules__3___self_attn_v_proj_weight"} loc("p47.1367"), %arg48: tensor<32x8x128x128xbf16> {ttcore.argument_type = #ttcore.argument_type<input>, ttcore.shard_status = #ttcore.shard_status<presharded>, ttir.name = "args_9"} loc("p48.1389"), %arg49: tensor<1024x5120xbf16> {ttcore.argument_type = #ttcore.argument_type<parameter>, ttcore.shard_status = #ttcore.shard_status<presharded>, ttir.name = "l__self___model_layers__modules__4___self_attn_k_proj_weight"} loc("p49.1402"), %arg50: tensor<5120x17408xbf16> {ttcore.argument_type = #ttcore.argument_type<parameter>, ttcore.shard_status = #ttcore.shard_status<presharded>, ttir.name = "l__self___model_layers__modules__3___mlp_down_proj_weight"} loc("p50.1411"), %arg51: tensor<17408x5120xbf16> {ttcore.argument_type = #ttcore.argument_type<parameter>, ttcore.shard_status = #ttcore.shard_status<presharded>, ttir.name = "l__self___model_layers__modules__3___mlp_up_proj_weight"} loc("p51.1416"), %arg52: tensor<5120x5120xbf16> {ttcore.argument_type = #ttcore.argument_type<parameter>, ttcore.shard_status = #ttcore.shard_status<presharded>, ttir.name = "l__self___model_layers__modules__3___self_attn_o_proj_weight"} loc("p52.1425"), %arg53: tensor<5120x5120xbf16> {ttcore.argument_type = #ttcore.argument_type<parameter>, ttcore.shard_status = #ttcore.shard_status<presharded>, ttir.name = "l__self___model_layers__modules__3___self_attn_q_proj_weight"} loc("p53.1466"), %arg54: tensor<128xbf16> {ttcore.argument_type = #ttcore.argument_type<parameter>, ttcore.shard_status = #ttcore.shard_status<presharded>, ttir.name = "l__self___model_layers__modules__3___self_attn_q_norm_weight"} loc("p54.1504"), %arg55: tensor<5120xbf16> {ttcore.argument_type = #ttcore.argument_type<parameter>, ttcore.shard_status = #ttcore.shard_status<presharded>, ttir.name = "l__self___model_layers__modules__3___post_attention_layernorm_weight"} loc("p55.1627"), %arg56: tensor<17408x5120xbf16> {ttcore.argument_type = #ttcore.argument_type<parameter>, ttcore.shard_status = #ttcore.shard_status<presharded>, ttir.name = "l__self___model_layers__modules__3___mlp_gate_proj_weight"} loc("p56.1636"), %arg57: tensor<5120xbf16> {ttcore.argument_type = #ttcore.argument_type<parameter>, ttcore.shard_status = #ttcore.shard_status<presharded>, ttir.name = "l__self___model_layers__modules__4___input_layernorm_weight"} loc("p57.1682"), %arg58: tensor<128xbf16> {ttcore.argument_type = #ttcore.argument_type<parameter>, ttcore.shard_status = #ttcore.shard_status<presharded>, ttir.name = "l__self___model_layers__modules__4___self_attn_k_norm_weight"} loc("p58.1721"), %arg59: tensor<32x8x128x128xbf16> {ttcore.argument_type = #ttcore.argument_type<input>, ttcore.shard_status = #ttcore.shard_status<presharded>, ttir.name = "args_10"} loc("p59.1754"), %arg60: tensor<1024x5120xbf16> {ttcore.argument_type = #ttcore.argument_type<parameter>, ttcore.shard_status = #ttcore.shard_status<presharded>, ttir.name = "l__self___model_layers__modules__4___self_attn_v_proj_weight"} loc("p60.1762"), %arg61: tensor<32x8x128x128xbf16> {ttcore.argument_type = #ttcore.argument_type<input>, ttcore.shard_status = #ttcore.shard_status<presharded>, ttir.name = "args_11"} loc("p61.1784"), %arg62: tensor<1024x5120xbf16> {ttcore.argument_type = #ttcore.argument_type<parameter>, ttcore.shard_status = #ttcore.shard_status<presharded>, ttir.name = "l__self___model_layers__modules__5___self_attn_k_proj_weight"} loc("p62.1797"), %arg63: tensor<5120x17408xbf16> {ttcore.argument_type = #ttcore.argument_type<parameter>, ttcore.shard_status = #ttcore.shard_status<presharded>, ttir.name = "l__self___model_layers__modules__4___mlp_down_proj_weight"} loc("p63.1806"), %arg64: tensor<17408x5120xbf16> {ttcore.argument_type = #ttcore.argument_type<parameter>, ttcore.shard_status = #ttcore.shard_status<presharded>, ttir.name = "l__self___model_layers__modules__4___mlp_up_proj_weight"} loc("p64.1811"), %arg65: tensor<5120x5120xbf16> {ttcore.argument_type = #ttcore.argument_type<parameter>, ttcore.shard_status = #ttcore.shard_status<presharded>, ttir.name = "l__self___model_layers__modules__4___self_attn_o_proj_weight"} loc("p65.1820"), %arg66: tensor<5120x5120xbf16> {ttcore.argument_type = #ttcore.argument_type<parameter>, ttcore.shard_status = #ttcore.shard_status<presharded>, ttir.name = "l__self___model_layers__modules__4___self_attn_q_proj_weight"} loc("p66.1861"), %arg67: tensor<128xbf16> {ttcore.argument_type = #ttcore.argument_type<parameter>, ttcore.shard_status = #ttcore.shard_status<presharded>, ttir.name = "l__self___model_layers__modules__4___self_attn_q_norm_weight"} loc("p67.1899"), %arg68: tensor<5120xbf16> {ttcore.argument_type = #ttcore.argument_type<parameter>, ttcore.shard_status = #ttcore.shard_status<presharded>, ttir.name = "l__self___model_layers__modules__4___post_attention_layernorm_weight"} loc("p68.2022"), %arg69: tensor<17408x5120xbf16> {ttcore.argument_type = #ttcore.argument_type<parameter>, ttcore.shard_status = #ttcore.shard_status<presharded>, ttir.name = "l__self___model_layers__modules__4___mlp_gate_proj_weight"} loc("p69.2031"), %arg70: tensor<5120xbf16> {ttcore.argument_type = #ttcore.argument_type<parameter>, ttcore.shard_status = #ttcore.shard_status<presharded>, ttir.name = "l__self___model_layers__modules__5___input_layernorm_weight"} loc("p70.2077"), %arg71: tensor<128xbf16> {ttcore.argument_type = #ttcore.argument_type<parameter>, ttcore.shard_status = #ttcore.shard_status<presharded>, ttir.name = "l__self___model_layers__modules__5___self_attn_k_norm_weight"} loc("p71.2116"), %arg72: tensor<32x8x128x128xbf16> {ttcore.argument_type = #ttcore.argument_type<input>, ttcore.shard_status = #ttcore.shard_status<presharded>, ttir.name = "args_12"} loc("p72.2149"), %arg73: tensor<1024x5120xbf16> {ttcore.argument_type = #ttcore.argument_type<parameter>, ttcore.shard_status = #ttcore.shard_status<presharded>, ttir.name = "l__self___model_layers__modules__5___self_attn_v_proj_weight"} loc("p73.2157"), %arg74: tensor<32x8x128x128xbf16> {ttcore.argument_type = #ttcore.argument_type<input>, ttcore.shard_status = #ttcore.shard_status<presharded>, ttir.name = "args_13"} loc("p74.2179"), %arg75: tensor<1024x5120xbf16> {ttcore.argument_type = #ttcore.argument_type<parameter>, ttcore.shard_status = #ttcore.shard_status<presharded>, ttir.name = "l__self___model_layers__modules__6___self_attn_k_proj_weight"} loc("p75.2192"), %arg76: tensor<5120x17408xbf16> {ttcore.argument_type = #ttcore.argument_type<parameter>, ttcore.shard_status = #ttcore.shard_status<presharded>, ttir.name = "l__self___model_layers__modules__5___mlp_down_proj_weight"} loc("p76.2201"), %arg77: tensor<17408x5120xbf16> {ttcore.argument_type = #ttcore.argument_type<parameter>, ttcore.shard_status = #ttcore.shard_status<presharded>, ttir.name = "l__self___model_layers__modules__5___mlp_up_proj_weight"} loc("p77.2206"), %arg78: tensor<5120x5120xbf16> {ttcore.argument_type = #ttcore.argument_type<parameter>, ttcore.shard_status = #ttcore.shard_status<presharded>, ttir.name = "l__self___model_layers__modules__5___self_attn_o_proj_weight"} loc("p78.2215"), %arg79: tensor<5120x5120xbf16> {ttcore.argument_type = #ttcore.argument_type<parameter>, ttcore.shard_status = #ttcore.shard_status<presharded>, ttir.name = "l__self___model_layers__modules__5___self_attn_q_proj_weight"} loc("p79.2256"), %arg80: tensor<128xbf16> {ttcore.argument_type = #ttcore.argument_type<parameter>, ttcore.shard_status = #ttcore.shard_status<presharded>, ttir.name = "l__self___model_layers__modules__5___self_attn_q_norm_weight"} loc("p80.2294"), %arg81: tensor<5120xbf16> {ttcore.argument_type = #ttcore.argument_type<parameter>, ttcore.shard_status = #ttcore.shard_status<presharded>, ttir.name = "l__self___model_layers__modules__5___post_attention_layernorm_weight"} loc("p81.2417"), %arg82: tensor<17408x5120xbf16> {ttcore.argument_type = #ttcore.argument_type<parameter>, ttcore.shard_status = #ttcore.shard_status<presharded>, ttir.name = "l__self___model_layers__modules__5___mlp_gate_proj_weight"} loc("p82.2426"), %arg83: tensor<5120xbf16> {ttcore.argument_type = #ttcore.argument_type<parameter>, ttcore.shard_status = #ttcore.shard_status<presharded>, ttir.name = "l__self___model_layers__modules__6___input_layernorm_weight"} loc("p83.2472"), %arg84: tensor<128xbf16> {ttcore.argument_type = #ttcore.argument_type<parameter>, ttcore.shard_status = #ttcore.shard_status<presharded>, ttir.name = "l__self___model_layers__modules__6___self_attn_k_norm_weight"} loc("p84.2511"), %arg85: tensor<32x8x128x128xbf16> {ttcore.argument_type = #ttcore.argument_type<input>, ttcore.shard_status = #ttcore.shard_status<presharded>, ttir.name = "args_14"} loc("p85.2544"), %arg86: tensor<1024x5120xbf16> {ttcore.argument_type = #ttcore.argument_type<parameter>, ttcore.shard_status = #ttcore.shard_status<presharded>, ttir.name = "l__self___model_layers__modules__6___self_attn_v_proj_weight"} loc("p86.2552"), %arg87: tensor<32x8x128x128xbf16> {ttcore.argument_type = #ttcore.argument_type<input>, ttcore.shard_status = #ttcore.shard_status<presharded>, ttir.name = "args_15"} loc("p87.2574"), %arg88: tensor<1024x5120xbf16> {ttcore.argument_type = #ttcore.argument_type<parameter>, ttcore.shard_status = #ttcore.shard_status<presharded>, ttir.name = "l__self___model_layers__modules__7___self_attn_k_proj_weight"} loc("p88.2587"), %arg89: tensor<5120x17408xbf16> {ttcore.argument_type = #ttcore.argument_type<parameter>, ttcore.shard_status = #ttcore.shard_status<presharded>, ttir.name = "l__self___model_layers__modules__6___mlp_down_proj_weight"} loc("p89.2596"), %arg90: tensor<17408x5120xbf16> {ttcore.argument_type = #ttcore.argument_type<parameter>, ttcore.shard_status = #ttcore.shard_status<presharded>, ttir.name = "l__self___model_layers__modules__6___mlp_up_proj_weight"} loc("p90.2601"), %arg91: tensor<5120x5120xbf16> {ttcore.argument_type = #ttcore.argument_type<parameter>, ttcore.shard_status = #ttcore.shard_status<presharded>, ttir.name = "l__self___model_layers__modules__6___self_attn_o_proj_weight"} loc("p91.2610"), %arg92: tensor<5120x5120xbf16> {ttcore.argument_type = #ttcore.argument_type<parameter>, ttcore.shard_status = #ttcore.shard_status<presharded>, ttir.name = "l__self___model_layers__modules__6___self_attn_q_proj_weight"} loc("p92.2651"), %arg93: tensor<128xbf16> {ttcore.argument_type = #ttcore.argument_type<parameter>, ttcore.shard_status = #ttcore.shard_status<presharded>, ttir.name = "l__self___model_layers__modules__6___self_attn_q_norm_weight"} loc("p93.2689"), %arg94: tensor<5120xbf16> {ttcore.argument_type = #ttcore.argument_type<parameter>, ttcore.shard_status = #ttcore.shard_status<presharded>, ttir.name = "l__self___model_layers__modules__6___post_attention_layernorm_weight"} loc("p94.2812"), %arg95: tensor<17408x5120xbf16> {ttcore.argument_type = #ttcore.argument_type<parameter>, ttcore.shard_status = #ttcore.shard_status<presharded>, ttir.name = "l__self___model_layers__modules__6___mlp_gate_proj_weight"} loc("p95.2821"), %arg96: tensor<5120xbf16> {ttcore.argument_type = #ttcore.argument_type<parameter>, ttcore.shard_status = #ttcore.shard_status<presharded>, ttir.name = "l__self___model_layers__modules__7___input_layernorm_weight"} loc("p96.2867"), %arg97: tensor<128xbf16> {ttcore.argument_type = #ttcore.argument_type<parameter>, ttcore.shard_status = #ttcore.shard_status<presharded>, ttir.name = "l__self___model_layers__modules__7___self_attn_k_norm_weight"} loc("p97.2906"), %arg98: tensor<32x8x128x128xbf16> {ttcore.argument_type = #ttcore.argument_type<input>, ttcore.shard_status = #ttcore.shard_status<presharded>, ttir.name = "args_16"} loc("p98.2939"), %arg99: tensor<1024x5120xbf16> {ttcore.argument_type = #ttcore.argument_type<parameter>, ttcore.shard_status = #ttcore.shard_status<presharded>, ttir.name = "l__self___model_layers__modules__7___self_attn_v_proj_weight"} loc("p99.2947"), %arg100: tensor<32x8x128x128xbf16> {ttcore.argument_type = #ttcore.argument_type<input>, ttcore.shard_status = #ttcore.shard_status<presharded>, ttir.name = "args_17"} loc("p100.2969"), %arg101: tensor<1024x5120xbf16> {ttcore.argument_type = #ttcore.argument_type<parameter>, ttcore.shard_status = #ttcore.shard_status<presharded>, ttir.name = "l__self___model_layers__modules__8___self_attn_k_proj_weight"} loc("p101.2982"), %arg102: tensor<5120x17408xbf16> {ttcore.argument_type = #ttcore.argument_type<parameter>, ttcore.shard_status = #ttcore.shard_status<presharded>, ttir.name = "l__self___model_layers__modules__7___mlp_down_proj_weight"} loc("p102.2991"), %arg103: tensor<17408x5120xbf16> {ttcore.argument_type = #ttcore.argument_type<parameter>, ttcore.shard_status = #ttcore.shard_status<presharded>, ttir.name = "l__self___model_layers__modules__7___mlp_up_proj_weight"} loc("p103.2996"), %arg104: tensor<5120x5120xbf16> {ttcore.argument_type = #ttcore.argument_type<parameter>, ttcore.shard_status = #ttcore.shard_status<presharded>, ttir.name = "l__self___model_layers__modules__7___self_attn_o_proj_weight"} loc("p104.3005"), %arg105: tensor<5120x5120xbf16> {ttcore.argument_type = #ttcore.argument_type<parameter>, ttcore.shard_status = #ttcore.shard_status<presharded>, ttir.name = "l__self___model_layers__modules__7___self_attn_q_proj_weight"} loc("p105.3046"), %arg106: tensor<128xbf16> {ttcore.argument_type = #ttcore.argument_type<parameter>, ttcore.shard_status = #ttcore.shard_status<presharded>, ttir.name = "l__self___model_layers__modules__7___self_attn_q_norm_weight"} loc("p106.3084"), %arg107: tensor<5120xbf16> {ttcore.argument_type = #ttcore.argument_type<parameter>, ttcore.shard_status = #ttcore.shard_status<presharded>, ttir.name = "l__self___model_layers__modules__7___post_attention_layernorm_weight"} loc("p107.3207"), %arg108: tensor<17408x5120xbf16> {ttcore.argument_type = #ttcore.argument_type<parameter>, ttcore.shard_status = #ttcore.shard_status<presharded>, ttir.name = "l__self___model_layers__modules__7___mlp_gate_proj_weight"} loc("p108.3216"), %arg109: tensor<5120xbf16> {ttcore.argument_type = #ttcore.argument_type<parameter>, ttcore.shard_status = #ttcore.shard_status<presharded>, ttir.name = "l__self___model_layers__modules__8___input_layernorm_weight"} loc("p109.3262"), %arg110: tensor<128xbf16> {ttcore.argument_type = #ttcore.argument_type<parameter>, ttcore.shard_status = #ttcore.shard_status<presharded>, ttir.name = "l__self___model_layers__modules__8___self_attn_k_norm_weight"} loc("p110.3301"), %arg111: tensor<32x8x128x128xbf16> {ttcore.argument_type = #ttcore.argument_type<input>, ttcore.shard_status = #ttcore.shard_status<presharded>, ttir.name = "args_18"} loc("p111.3334"), %arg112: tensor<1024x5120xbf16> {ttcore.argument_type = #ttcore.argument_type<parameter>, ttcore.shard_status = #ttcore.shard_status<presharded>, ttir.name = "l__self___model_layers__modules__8___self_attn_v_proj_weight"} loc("p112.3342"), %arg113: tensor<32x8x128x128xbf16> {ttcore.argument_type = #ttcore.argument_type<input>, ttcore.shard_status = #ttcore.shard_status<presharded>, ttir.name = "args_19"} loc("p113.3364"), %arg114: tensor<1024x5120xbf16> {ttcore.argument_type = #ttcore.argument_type<parameter>, ttcore.shard_status = #ttcore.shard_status<presharded>, ttir.name = "l__self___model_layers__modules__9___self_attn_k_proj_weight"} loc("p114.3377"), %arg115: tensor<5120x17408xbf16> {ttcore.argument_type = #ttcore.argument_type<parameter>, ttcore.shard_status = #ttcore.shard_status<presharded>, ttir.name = "l__self___model_layers__modules__8___mlp_down_proj_weight"} loc("p115.3386"), %arg116: tensor<17408x5120xbf16> {ttcore.argument_type = #ttcore.argument_type<parameter>, ttcore.shard_status = #ttcore.shard_status<presharded>, ttir.name = "l__self___model_layers__modules__8___mlp_up_proj_weight"} loc("p116.3391"), %arg117: tensor<5120x5120xbf16> {ttcore.argument_type = #ttcore.argument_type<parameter>, ttcore.shard_status = #ttcore.shard_status<presharded>, ttir.name = "l__self___model_layers__modules__8___self_attn_o_proj_weight"} loc("p117.3400"), %arg118: tensor<5120x5120xbf16> {ttcore.argument_type = #ttcore.argument_type<parameter>, ttcore.shard_status = #ttcore.shard_status<presharded>, ttir.name = "l__self___model_layers__modules__8___self_attn_q_proj_weight"} loc("p118.3441"), %arg119: tensor<128xbf16> {ttcore.argument_type = #ttcore.argument_type<parameter>, ttcore.shard_status = #ttcore.shard_status<presharded>, ttir.name = "l__self___model_layers__modules__8___self_attn_q_norm_weight"} loc("p119.3479"), %arg120: tensor<5120xbf16> {ttcore.argument_type = #ttcore.argument_type<parameter>, ttcore.shard_status = #ttcore.shard_status<presharded>, ttir.name = "l__self___model_layers__modules__8___post_attention_layernorm_weight"} loc("p120.3602"), %arg121: tensor<17408x5120xbf16> {ttcore.argument_type = #ttcore.argument_type<parameter>, ttcore.shard_status = #ttcore.shard_status<presharded>, ttir.name = "l__self___model_layers__modules__8___mlp_gate_proj_weight"} loc("p121.3611"), %arg122: tensor<5120xbf16> {ttcore.argument_type = #ttcore.argument_type<parameter>, ttcore.shard_status = #ttcore.shard_status<presharded>, ttir.name = "l__self___model_layers__modules__9___input_layernorm_weight"} loc("p122.3657"), %arg123: tensor<128xbf16> {ttcore.argument_type = #ttcore.argument_type<parameter>, ttcore.shard_status = #ttcore.shard_status<presharded>, ttir.name = "l__self___model_layers__modules__9___self_attn_k_norm_weight"} loc("p123.3696"), %arg124: tensor<32x8x128x128xbf16> {ttcore.argument_type = #ttcore.argument_type<input>, ttcore.shard_status = #ttcore.shard_status<presharded>, ttir.name = "args_20"} loc("p124.3729"), %arg125: tensor<1024x5120xbf16> {ttcore.argument_type = #ttcore.argument_type<parameter>, ttcore.shard_status = #ttcore.shard_status<presharded>, ttir.name = "l__self___model_layers__modules__9___self_attn_v_proj_weight"} loc("p125.3737"), %arg126: tensor<32x8x128x128xbf16> {ttcore.argument_type = #ttcore.argument_type<input>, ttcore.shard_status = #ttcore.shard_status<presharded>, ttir.name = "args_21"} loc("p126.3759"), %arg127: tensor<1024x5120xbf16> {ttcore.argument_type = #ttcore.argument_type<parameter>, ttcore.shard_status = #ttcore.shard_status<presharded>, ttir.name = "l__self___model_layers__modules__10___self_attn_k_proj_weight"} loc("p127.3772"), %arg128: tensor<5120x17408xbf16> {ttcore.argument_type = #ttcore.argument_type<parameter>, ttcore.shard_status = #ttcore.shard_status<presharded>, ttir.name = "l__self___model_layers__modules__9___mlp_down_proj_weight"} loc("p128.3781"), %arg129: tensor<17408x5120xbf16> {ttcore.argument_type = #ttcore.argument_type<parameter>, ttcore.shard_status = #ttcore.shard_status<presharded>, ttir.name = "l__self___model_layers__modules__9___mlp_up_proj_weight"} loc("p129.3786"), %arg130: tensor<5120x5120xbf16> {ttcore.argument_type = #ttcore.argument_type<parameter>, ttcore.shard_status = #ttcore.shard_status<presharded>, ttir.name = "l__self___model_layers__modules__9___self_attn_o_proj_weight"} loc("p130.3795"), %arg131: tensor<5120x5120xbf16> {ttcore.argument_type = #ttcore.argument_type<parameter>, ttcore.shard_status = #ttcore.shard_status<presharded>, ttir.name = "l__self___model_layers__modules__9___self_attn_q_proj_weight"} loc("p131.3836"), %arg132: tensor<128xbf16> {ttcore.argument_type = #ttcore.argument_type<parameter>, ttcore.shard_status = #ttcore.shard_status<presharded>, ttir.name = "l__self___model_layers__modules__9___self_attn_q_norm_weight"} loc("p132.3874"), %arg133: tensor<5120xbf16> {ttcore.argument_type = #ttcore.argument_type<parameter>, ttcore.shard_status = #ttcore.shard_status<presharded>, ttir.name = "l__self___model_layers__modules__9___post_attention_layernorm_weight"} loc("p133.3997"), %arg134: tensor<17408x5120xbf16> {ttcore.argument_type = #ttcore.argument_type<parameter>, ttcore.shard_status = #ttcore.shard_status<presharded>, ttir.name = "l__self___model_layers__modules__9___mlp_gate_proj_weight"} loc("p134.4006"), %arg135: tensor<5120xbf16> {ttcore.argument_type = #ttcore.argument_type<parameter>, ttcore.shard_status = #ttcore.shard_status<presharded>, ttir.name = "l__self___model_layers__modules__10___input_layernorm_weight"} loc("p135.4052"), %arg136: tensor<128xbf16> {ttcore.argument_type = #ttcore.argument_type<parameter>, ttcore.shard_status = #ttcore.shard_status<presharded>, ttir.name = "l__self___model_layers__modules__10___self_attn_k_norm_weight"} loc("p136.4091"), %arg137: tensor<32x8x128x128xbf16> {ttcore.argument_type = #ttcore.argument_type<input>, ttcore.shard_status = #ttcore.shard_status<presharded>, ttir.name = "args_22"} loc("p137.4124"), %arg138: tensor<1024x5120xbf16> {ttcore.argument_type = #ttcore.argument_type<parameter>, ttcore.shard_status = #ttcore.shard_status<presharded>, ttir.name = "l__self___model_layers__modules__10___self_attn_v_proj_weight"} loc("p138.4132"), %arg139: tensor<32x8x128x128xbf16> {ttcore.argument_type = #ttcore.argument_type<input>, ttcore.shard_status = #ttcore.shard_status<presharded>, ttir.name = "args_23"} loc("p139.4154"), %arg140: tensor<1024x5120xbf16> {ttcore.argument_type = #ttcore.argument_type<parameter>, ttcore.shard_status = #ttcore.shard_status<presharded>, ttir.name = "l__self___model_layers__modules__11___self_attn_k_proj_weight"} loc("p140.4167"), %arg141: tensor<5120x17408xbf16> {ttcore.argument_type = #ttcore.argument_type<parameter>, ttcore.shard_status = #ttcore.shard_status<presharded>, ttir.name = "l__self___model_layers__modules__10___mlp_down_proj_weight"} loc("p141.4176"), %arg142: tensor<17408x5120xbf16> {ttcore.argument_type = #ttcore.argument_type<parameter>, ttcore.shard_status = #ttcore.shard_status<presharded>, ttir.name = "l__self___model_layers__modules__10___mlp_up_proj_weight"} loc("p142.4181"), %arg143: tensor<5120x5120xbf16> {ttcore.argument_type = #ttcore.argument_type<parameter>, ttcore.shard_status = #ttcore.shard_status<presharded>, ttir.name = "l__self___model_layers__modules__10___self_attn_o_proj_weight"} loc("p143.4190"), %arg144: tensor<5120x5120xbf16> {ttcore.argument_type = #ttcore.argument_type<parameter>, ttcore.shard_status = #ttcore.shard_status<presharded>, ttir.name = "l__self___model_layers__modules__10___self_attn_q_proj_weight"} loc("p144.4231"), %arg145: tensor<128xbf16> {ttcore.argument_type = #ttcore.argument_type<parameter>, ttcore.shard_status = #ttcore.shard_status<presharded>, ttir.name = "l__self___model_layers__modules__10___self_attn_q_norm_weight"} loc("p145.4269"), %arg146: tensor<5120xbf16> {ttcore.argument_type = #ttcore.argument_type<parameter>, ttcore.shard_status = #ttcore.shard_status<presharded>, ttir.name = "l__self___model_layers__modules__10___post_attention_layernorm_weight"} loc("p146.4392"), %arg147: tensor<17408x5120xbf16> {ttcore.argument_type = #ttcore.argument_type<parameter>, ttcore.shard_status = #ttcore.shard_status<presharded>, ttir.name = "l__self___model_layers__modules__10___mlp_gate_proj_weight"} loc("p147.4401"), %arg148: tensor<5120xbf16> {ttcore.argument_type = #ttcore.argument_type<parameter>, ttcore.shard_status = #ttcore.shard_status<presharded>, ttir.name = "l__self___model_layers__modules__11___input_layernorm_weight"} loc("p148.4447"), %arg149: tensor<128xbf16> {ttcore.argument_type = #ttcore.argument_type<parameter>, ttcore.shard_status = #ttcore.shard_status<presharded>, ttir.name = "l__self___model_layers__modules__11___self_attn_k_norm_weight"} loc("p149.4486"), %arg150: tensor<32x8x128x128xbf16> {ttcore.argument_type = #ttcore.argument_type<input>, ttcore.shard_status = #ttcore.shard_status<presharded>, ttir.name = "args_24"} loc("p150.4519"), %arg151: tensor<1024x5120xbf16> {ttcore.argument_type = #ttcore.argument_type<parameter>, ttcore.shard_status = #ttcore.shard_status<presharded>, ttir.name = "l__self___model_layers__modules__11___self_attn_v_proj_weight"} loc("p151.4527"), %arg152: tensor<32x8x128x128xbf16> {ttcore.argument_type = #ttcore.argument_type<input>, ttcore.shard_status = #ttcore.shard_status<presharded>, ttir.name = "args_25"} loc("p152.4549"), %arg153: tensor<1024x5120xbf16> {ttcore.argument_type = #ttcore.argument_type<parameter>, ttcore.shard_status = #ttcore.shard_status<presharded>, ttir.name = "l__self___model_layers__modules__12___self_attn_k_proj_weight"} loc("p153.4562"), %arg154: tensor<5120x17408xbf16> {ttcore.argument_type = #ttcore.argument_type<parameter>, ttcore.shard_status = #ttcore.shard_status<presharded>, ttir.name = "l__self___model_layers__modules__11___mlp_down_proj_weight"} loc("p154.4571"), %arg155: tensor<17408x5120xbf16> {ttcore.argument_type = #ttcore.argument_type<parameter>, ttcore.shard_status = #ttcore.shard_status<presharded>, ttir.name = "l__self___model_layers__modules__11___mlp_up_proj_weight"} loc("p155.4576"), %arg156: tensor<5120x5120xbf16> {ttcore.argument_type = #ttcore.argument_type<parameter>, ttcore.shard_status = #ttcore.shard_status<presharded>, ttir.name = "l__self___model_layers__modules__11___self_attn_o_proj_weight"} loc("p156.4585"), %arg157: tensor<5120x5120xbf16> {ttcore.argument_type = #ttcore.argument_type<parameter>, ttcore.shard_status = #ttcore.shard_status<presharded>, ttir.name = "l__self___model_layers__modules__11___self_attn_q_proj_weight"} loc("p157.4626"), %arg158: tensor<128xbf16> {ttcore.argument_type = #ttcore.argument_type<parameter>, ttcore.shard_status = #ttcore.shard_status<presharded>, ttir.name = "l__self___model_layers__modules__11___self_attn_q_norm_weight"} loc("p158.4664"), %arg159: tensor<5120xbf16> {ttcore.argument_type = #ttcore.argument_type<parameter>, ttcore.shard_status = #ttcore.shard_status<presharded>, ttir.name = "l__self___model_layers__modules__11___post_attention_layernorm_weight"} loc("p159.4787"), %arg160: tensor<17408x5120xbf16> {ttcore.argument_type = #ttcore.argument_type<parameter>, ttcore.shard_status = #ttcore.shard_status<presharded>, ttir.name = "l__self___model_layers__modules__11___mlp_gate_proj_weight"} loc("p160.4796"), %arg161: tensor<5120xbf16> {ttcore.argument_type = #ttcore.argument_type<parameter>, ttcore.shard_status = #ttcore.shard_status<presharded>, ttir.name = "l__self___model_layers__modules__12___input_layernorm_weight"} loc("p161.4842"), %arg162: tensor<128xbf16> {ttcore.argument_type = #ttcore.argument_type<parameter>, ttcore.shard_status = #ttcore.shard_status<presharded>, ttir.name = "l__self___model_layers__modules__12___self_attn_k_norm_weight"} loc("p162.4881"), %arg163: tensor<32x8x128x128xbf16> {ttcore.argument_type = #ttcore.argument_type<input>, ttcore.shard_status = #ttcore.shard_status<presharded>, ttir.name = "args_26"} loc("p163.4914"), %arg164: tensor<1024x5120xbf16> {ttcore.argument_type = #ttcore.argument_type<parameter>, ttcore.shard_status = #ttcore.shard_status<presharded>, ttir.name = "l__self___model_layers__modules__12___self_attn_v_proj_weight"} loc("p164.4922"), %arg165: tensor<32x8x128x128xbf16> {ttcore.argument_type = #ttcore.argument_type<input>, ttcore.shard_status = #ttcore.shard_status<presharded>, ttir.name = "args_27"} loc("p165.4944"), %arg166: tensor<1024x5120xbf16> {ttcore.argument_type = #ttcore.argument_type<parameter>, ttcore.shard_status = #ttcore.shard_status<presharded>, ttir.name = "l__self___model_layers__modules__13___self_attn_k_proj_weight"} loc("p166.4957"), %arg167: tensor<5120x17408xbf16> {ttcore.argument_type = #ttcore.argument_type<parameter>, ttcore.shard_status = #ttcore.shard_status<presharded>, ttir.name = "l__self___model_layers__modules__12___mlp_down_proj_weight"} loc("p167.4966"), %arg168: tensor<17408x5120xbf16> {ttcore.argument_type = #ttcore.argument_type<parameter>, ttcore.shard_status = #ttcore.shard_status<presharded>, ttir.name = "l__self___model_layers__modules__12___mlp_up_proj_weight"} loc("p168.4971"), %arg169: tensor<5120x5120xbf16> {ttcore.argument_type = #ttcore.argument_type<parameter>, ttcore.shard_status = #ttcore.shard_status<presharded>, ttir.name = "l__self___model_layers__modules__12___self_attn_o_proj_weight"} loc("p169.4980"), %arg170: tensor<5120x5120xbf16> {ttcore.argument_type = #ttcore.argument_type<parameter>, ttcore.shard_status = #ttcore.shard_status<presharded>, ttir.name = "l__self___model_layers__modules__12___self_attn_q_proj_weight"} loc("p170.5021"), %arg171: tensor<128xbf16> {ttcore.argument_type = #ttcore.argument_type<parameter>, ttcore.shard_status = #ttcore.shard_status<presharded>, ttir.name = "l__self___model_layers__modules__12___self_attn_q_norm_weight"} loc("p171.5059"), %arg172: tensor<5120xbf16> {ttcore.argument_type = #ttcore.argument_type<parameter>, ttcore.shard_status = #ttcore.shard_status<presharded>, ttir.name = "l__self___model_layers__modules__12___post_attention_layernorm_weight"} loc("p172.5182"), %arg173: tensor<17408x5120xbf16> {ttcore.argument_type = #ttcore.argument_type<parameter>, ttcore.shard_status = #ttcore.shard_status<presharded>, ttir.name = "l__self___model_layers__modules__12___mlp_gate_proj_weight"} loc("p173.5191"), %arg174: tensor<5120xbf16> {ttcore.argument_type = #ttcore.argument_type<parameter>, ttcore.shard_status = #ttcore.shard_status<presharded>, ttir.name = "l__self___model_layers__modules__13___input_layernorm_weight"} loc("p174.5237"), %arg175: tensor<128xbf16> {ttcore.argument_type = #ttcore.argument_type<parameter>, ttcore.shard_status = #ttcore.shard_status<presharded>, ttir.name = "l__self___model_layers__modules__13___self_attn_k_norm_weight"} loc("p175.5276"), %arg176: tensor<32x8x128x128xbf16> {ttcore.argument_type = #ttcore.argument_type<input>, ttcore.shard_status = #ttcore.shard_status<presharded>, ttir.name = "args_28"} loc("p176.5309"), %arg177: tensor<1024x5120xbf16> {ttcore.argument_type = #ttcore.argument_type<parameter>, ttcore.shard_status = #ttcore.shard_status<presharded>, ttir.name = "l__self___model_layers__modules__13___self_attn_v_proj_weight"} loc("p177.5317"), %arg178: tensor<32x8x128x128xbf16> {ttcore.argument_type = #ttcore.argument_type<input>, ttcore.shard_status = #ttcore.shard_status<presharded>, ttir.name = "args_29"} loc("p178.5339"), %arg179: tensor<1024x5120xbf16> {ttcore.argument_type = #ttcore.argument_type<parameter>, ttcore.shard_status = #ttcore.shard_status<presharded>, ttir.name = "l__self___model_layers__modules__14___self_attn_k_proj_weight"} loc("p179.5352"), %arg180: tensor<5120x17408xbf16> {ttcore.argument_type = #ttcore.argument_type<parameter>, ttcore.shard_status = #ttcore.shard_status<presharded>, ttir.name = "l__self___model_layers__modules__13___mlp_down_proj_weight"} loc("p180.5361"), %arg181: tensor<17408x5120xbf16> {ttcore.argument_type = #ttcore.argument_type<parameter>, ttcore.shard_status = #ttcore.shard_status<presharded>, ttir.name = "l__self___model_layers__modules__13___mlp_up_proj_weight"} loc("p181.5366"), %arg182: tensor<5120x5120xbf16> {ttcore.argument_type = #ttcore.argument_type<parameter>, ttcore.shard_status = #ttcore.shard_status<presharded>, ttir.name = "l__self___model_layers__modules__13___self_attn_o_proj_weight"} loc("p182.5375"), %arg183: tensor<5120x5120xbf16> {ttcore.argument_type = #ttcore.argument_type<parameter>, ttcore.shard_status = #ttcore.shard_status<presharded>, ttir.name = "l__self___model_layers__modules__13___self_attn_q_proj_weight"} loc("p183.5416"), %arg184: tensor<128xbf16> {ttcore.argument_type = #ttcore.argument_type<parameter>, ttcore.shard_status = #ttcore.shard_status<presharded>, ttir.name = "l__self___model_layers__modules__13___self_attn_q_norm_weight"} loc("p184.5454"), %arg185: tensor<5120xbf16> {ttcore.argument_type = #ttcore.argument_type<parameter>, ttcore.shard_status = #ttcore.shard_status<presharded>, ttir.name = "l__self___model_layers__modules__13___post_attention_layernorm_weight"} loc("p185.5577"), %arg186: tensor<17408x5120xbf16> {ttcore.argument_type = #ttcore.argument_type<parameter>, ttcore.shard_status = #ttcore.shard_status<presharded>, ttir.name = "l__self___model_layers__modules__13___mlp_gate_proj_weight"} loc("p186.5586"), %arg187: tensor<5120xbf16> {ttcore.argument_type = #ttcore.argument_type<parameter>, ttcore.shard_status = #ttcore.shard_status<presharded>, ttir.name = "l__self___model_layers__modules__14___input_layernorm_weight"} loc("p187.5632"), %arg188: tensor<128xbf16> {ttcore.argument_type = #ttcore.argument_type<parameter>, ttcore.shard_status = #ttcore.shard_status<presharded>, ttir.name = "l__self___model_layers__modules__14___self_attn_k_norm_weight"} loc("p188.5671"), %arg189: tensor<32x8x128x128xbf16> {ttcore.argument_type = #ttcore.argument_type<input>, ttcore.shard_status = #ttcore.shard_status<presharded>, ttir.name = "args_30"} loc("p189.5704"), %arg190: tensor<1024x5120xbf16> {ttcore.argument_type = #ttcore.argument_type<parameter>, ttcore.shard_status = #ttcore.shard_status<presharded>, ttir.name = "l__self___model_layers__modules__14___self_attn_v_proj_weight"} loc("p190.5712"), %arg191: tensor<32x8x128x128xbf16> {ttcore.argument_type = #ttcore.argument_type<input>, ttcore.shard_status = #ttcore.shard_status<presharded>, ttir.name = "args_31"} loc("p191.5734"), %arg192: tensor<1024x5120xbf16> {ttcore.argument_type = #ttcore.argument_type<parameter>, ttcore.shard_status = #ttcore.shard_status<presharded>, ttir.name = "l__self___model_layers__modules__15___self_attn_k_proj_weight"} loc("p192.5747"), %arg193: tensor<5120x17408xbf16> {ttcore.argument_type = #ttcore.argument_type<parameter>, ttcore.shard_status = #ttcore.shard_status<presharded>, ttir.name = "l__self___model_layers__modules__14___mlp_down_proj_weight"} loc("p193.5756"), %arg194: tensor<17408x5120xbf16> {ttcore.argument_type = #ttcore.argument_type<parameter>, ttcore.shard_status = #ttcore.shard_status<presharded>, ttir.name = "l__self___model_layers__modules__14___mlp_up_proj_weight"} loc("p194.5761"), %arg195: tensor<5120x5120xbf16> {ttcore.argument_type = #ttcore.argument_type<parameter>, ttcore.shard_status = #ttcore.shard_status<presharded>, ttir.name = "l__self___model_layers__modules__14___self_attn_o_proj_weight"} loc("p195.5770"), %arg196: tensor<5120x5120xbf16> {ttcore.argument_type = #ttcore.argument_type<parameter>, ttcore.shard_status = #ttcore.shard_status<presharded>, ttir.name = "l__self___model_layers__modules__14___self_attn_q_proj_weight"} loc("p196.5811"), %arg197: tensor<128xbf16> {ttcore.argument_type = #ttcore.argument_type<parameter>, ttcore.shard_status = #ttcore.shard_status<presharded>, ttir.name = "l__self___model_layers__modules__14___self_attn_q_norm_weight"} loc("p197.5849"), %arg198: tensor<5120xbf16> {ttcore.argument_type = #ttcore.argument_type<parameter>, ttcore.shard_status = #ttcore.shard_status<presharded>, ttir.name = "l__self___model_layers__modules__14___post_attention_layernorm_weight"} loc("p198.5972"), %arg199: tensor<17408x5120xbf16> {ttcore.argument_type = #ttcore.argument_type<parameter>, ttcore.shard_status = #ttcore.shard_status<presharded>, ttir.name = "l__self___model_layers__modules__14___mlp_gate_proj_weight"} loc("p199.5981"), %arg200: tensor<5120xbf16> {ttcore.argument_type = #ttcore.argument_type<parameter>, ttcore.shard_status = #ttcore.shard_status<presharded>, ttir.name = "l__self___model_layers__modules__15___input_layernorm_weight"} loc("p200.6027"), %arg201: tensor<128xbf16> {ttcore.argument_type = #ttcore.argument_type<parameter>, ttcore.shard_status = #ttcore.shard_status<presharded>, ttir.name = "l__self___model_layers__modules__15___self_attn_k_norm_weight"} loc("p201.6066"), %arg202: tensor<32x8x128x128xbf16> {ttcore.argument_type = #ttcore.argument_type<input>, ttcore.shard_status = #ttcore.shard_status<presharded>, ttir.name = "args_32"} loc("p202.6099"), %arg203: tensor<1024x5120xbf16> {ttcore.argument_type = #ttcore.argument_type<parameter>, ttcore.shard_status = #ttcore.shard_status<presharded>, ttir.name = "l__self___model_layers__modules__15___self_attn_v_proj_weight"} loc("p203.6107"), %arg204: tensor<32x8x128x128xbf16> {ttcore.argument_type = #ttcore.argument_type<input>, ttcore.shard_status = #ttcore.shard_status<presharded>, ttir.name = "args_33"} loc("p204.6129"), %arg205: tensor<1024x5120xbf16> {ttcore.argument_type = #ttcore.argument_type<parameter>, ttcore.shard_status = #ttcore.shard_status<presharded>, ttir.name = "l__self___model_layers__modules__16___self_attn_k_proj_weight"} loc("p205.6142"), %arg206: tensor<5120x17408xbf16> {ttcore.argument_type = #ttcore.argument_type<parameter>, ttcore.shard_status = #ttcore.shard_status<presharded>, ttir.name = "l__self___model_layers__modules__15___mlp_down_proj_weight"} loc("p206.6151"), %arg207: tensor<17408x5120xbf16> {ttcore.argument_type = #ttcore.argument_type<parameter>, ttcore.shard_status = #ttcore.shard_status<presharded>, ttir.name = "l__self___model_layers__modules__15___mlp_up_proj_weight"} loc("p207.6156"), %arg208: tensor<5120x5120xbf16> {ttcore.argument_type = #ttcore.argument_type<parameter>, ttcore.shard_status = #ttcore.shard_status<presharded>, ttir.name = "l__self___model_layers__modules__15___self_attn_o_proj_weight"} loc("p208.6165"), %arg209: tensor<5120x5120xbf16> {ttcore.argument_type = #ttcore.argument_type<parameter>, ttcore.shard_status = #ttcore.shard_status<presharded>, ttir.name = "l__self___model_layers__modules__15___self_attn_q_proj_weight"} loc("p209.6206"), %arg210: tensor<128xbf16> {ttcore.argument_type = #ttcore.argument_type<parameter>, ttcore.shard_status = #ttcore.shard_status<presharded>, ttir.name = "l__self___model_layers__modules__15___self_attn_q_norm_weight"} loc("p210.6244"), %arg211: tensor<5120xbf16> {ttcore.argument_type = #ttcore.argument_type<parameter>, ttcore.shard_status = #ttcore.shard_status<presharded>, ttir.name = "l__self___model_layers__modules__15___post_attention_layernorm_weight"} loc("p211.6367"), %arg212: tensor<17408x5120xbf16> {ttcore.argument_type = #ttcore.argument_type<parameter>, ttcore.shard_status = #ttcore.shard_status<presharded>, ttir.name = "l__self___model_layers__modules__15___mlp_gate_proj_weight"} loc("p212.6376"), %arg213: tensor<5120xbf16> {ttcore.argument_type = #ttcore.argument_type<parameter>, ttcore.shard_status = #ttcore.shard_status<presharded>, ttir.name = "l__self___model_layers__modules__16___input_layernorm_weight"} loc("p213.6422"), %arg214: tensor<128xbf16> {ttcore.argument_type = #ttcore.argument_type<parameter>, ttcore.shard_status = #ttcore.shard_status<presharded>, ttir.name = "l__self___model_layers__modules__16___self_attn_k_norm_weight"} loc("p214.6461"), %arg215: tensor<32x8x128x128xbf16> {ttcore.argument_type = #ttcore.argument_type<input>, ttcore.shard_status = #ttcore.shard_status<presharded>, ttir.name = "args_34"} loc("p215.6494"), %arg216: tensor<1024x5120xbf16> {ttcore.argument_type = #ttcore.argument_type<parameter>, ttcore.shard_status = #ttcore.shard_status<presharded>, ttir.name = "l__self___model_layers__modules__16___self_attn_v_proj_weight"} loc("p216.6502"), %arg217: tensor<32x8x128x128xbf16> {ttcore.argument_type = #ttcore.argument_type<input>, ttcore.shard_status = #ttcore.shard_status<presharded>, ttir.name = "args_35"} loc("p217.6524"), %arg218: tensor<1024x5120xbf16> {ttcore.argument_type = #ttcore.argument_type<parameter>, ttcore.shard_status = #ttcore.shard_status<presharded>, ttir.name = "l__self___model_layers__modules__17___self_attn_k_proj_weight"} loc("p218.6537"), %arg219: tensor<5120x17408xbf16> {ttcore.argument_type = #ttcore.argument_type<parameter>, ttcore.shard_status = #ttcore.shard_status<presharded>, ttir.name = "l__self___model_layers__modules__16___mlp_down_proj_weight"} loc("p219.6546"), %arg220: tensor<17408x5120xbf16> {ttcore.argument_type = #ttcore.argument_type<parameter>, ttcore.shard_status = #ttcore.shard_status<presharded>, ttir.name = "l__self___model_layers__modules__16___mlp_up_proj_weight"} loc("p220.6551"), %arg221: tensor<5120x5120xbf16> {ttcore.argument_type = #ttcore.argument_type<parameter>, ttcore.shard_status = #ttcore.shard_status<presharded>, ttir.name = "l__self___model_layers__modules__16___self_attn_o_proj_weight"} loc("p221.6560"), %arg222: tensor<5120x5120xbf16> {ttcore.argument_type = #ttcore.argument_type<parameter>, ttcore.shard_status = #ttcore.shard_status<presharded>, ttir.name = "l__self___model_layers__modules__16___self_attn_q_proj_weight"} loc("p222.6601"), %arg223: tensor<128xbf16> {ttcore.argument_type = #ttcore.argument_type<parameter>, ttcore.shard_status = #ttcore.shard_status<presharded>, ttir.name = "l__self___model_layers__modules__16___self_attn_q_norm_weight"} loc("p223.6639"), %arg224: tensor<5120xbf16> {ttcore.argument_type = #ttcore.argument_type<parameter>, ttcore.shard_status = #ttcore.shard_status<presharded>, ttir.name = "l__self___model_layers__modules__16___post_attention_layernorm_weight"} loc("p224.6762"), %arg225: tensor<17408x5120xbf16> {ttcore.argument_type = #ttcore.argument_type<parameter>, ttcore.shard_status = #ttcore.shard_status<presharded>, ttir.name = "l__self___model_layers__modules__16___mlp_gate_proj_weight"} loc("p225.6771"), %arg226: tensor<5120xbf16> {ttcore.argument_type = #ttcore.argument_type<parameter>, ttcore.shard_status = #ttcore.shard_status<presharded>, ttir.name = "l__self___model_layers__modules__17___input_layernorm_weight"} loc("p226.6817"), %arg227: tensor<128xbf16> {ttcore.argument_type = #ttcore.argument_type<parameter>, ttcore.shard_status = #ttcore.shard_status<presharded>, ttir.name = "l__self___model_layers__modules__17___self_attn_k_norm_weight"} loc("p227.6856"), %arg228: tensor<32x8x128x128xbf16> {ttcore.argument_type = #ttcore.argument_type<input>, ttcore.shard_status = #ttcore.shard_status<presharded>, ttir.name = "args_36"} loc("p228.6889"), %arg229: tensor<1024x5120xbf16> {ttcore.argument_type = #ttcore.argument_type<parameter>, ttcore.shard_status = #ttcore.shard_status<presharded>, ttir.name = "l__self___model_layers__modules__17___self_attn_v_proj_weight"} loc("p229.6897"), %arg230: tensor<32x8x128x128xbf16> {ttcore.argument_type = #ttcore.argument_type<input>, ttcore.shard_status = #ttcore.shard_status<presharded>, ttir.name = "args_37"} loc("p230.6919"), %arg231: tensor<1024x5120xbf16> {ttcore.argument_type = #ttcore.argument_type<parameter>, ttcore.shard_status = #ttcore.shard_status<presharded>, ttir.name = "l__self___model_layers__modules__18___self_attn_k_proj_weight"} loc("p231.6932"), %arg232: tensor<5120x17408xbf16> {ttcore.argument_type = #ttcore.argument_type<parameter>, ttcore.shard_status = #ttcore.shard_status<presharded>, ttir.name = "l__self___model_layers__modules__17___mlp_down_proj_weight"} loc("p232.6941"), %arg233: tensor<17408x5120xbf16> {ttcore.argument_type = #ttcore.argument_type<parameter>, ttcore.shard_status = #ttcore.shard_status<presharded>, ttir.name = "l__self___model_layers__modules__17___mlp_up_proj_weight"} loc("p233.6946"), %arg234: tensor<5120x5120xbf16> {ttcore.argument_type = #ttcore.argument_type<parameter>, ttcore.shard_status = #ttcore.shard_status<presharded>, ttir.name = "l__self___model_layers__modules__17___self_attn_o_proj_weight"} loc("p234.6955"), %arg235: tensor<5120x5120xbf16> {ttcore.argument_type = #ttcore.argument_type<parameter>, ttcore.shard_status = #ttcore.shard_status<presharded>, ttir.name = "l__self___model_layers__modules__17___self_attn_q_proj_weight"} loc("p235.6996"), %arg236: tensor<128xbf16> {ttcore.argument_type = #ttcore.argument_type<parameter>, ttcore.shard_status = #ttcore.shard_status<presharded>, ttir.name = "l__self___model_layers__modules__17___self_attn_q_norm_weight"} loc("p236.7034"), %arg237: tensor<5120xbf16> {ttcore.argument_type = #ttcore.argument_type<parameter>, ttcore.shard_status = #ttcore.shard_status<presharded>, ttir.name = "l__self___model_layers__modules__17___post_attention_layernorm_weight"} loc("p237.7157"), %arg238: tensor<17408x5120xbf16> {ttcore.argument_type = #ttcore.argument_type<parameter>, ttcore.shard_status = #ttcore.shard_status<presharded>, ttir.name = "l__self___model_layers__modules__17___mlp_gate_proj_weight"} loc("p238.7166"), %arg239: tensor<5120xbf16> {ttcore.argument_type = #ttcore.argument_type<parameter>, ttcore.shard_status = #ttcore.shard_status<presharded>, ttir.name = "l__self___model_layers__modules__18___input_layernorm_weight"} loc("p239.7212"), %arg240: tensor<128xbf16> {ttcore.argument_type = #ttcore.argument_type<parameter>, ttcore.shard_status = #ttcore.shard_status<presharded>, ttir.name = "l__self___model_layers__modules__18___self_attn_k_norm_weight"} loc("p240.7251"), %arg241: tensor<32x8x128x128xbf16> {ttcore.argument_type = #ttcore.argument_type<input>, ttcore.shard_status = #ttcore.shard_status<presharded>, ttir.name = "args_38"} loc("p241.7284"), %arg242: tensor<1024x5120xbf16> {ttcore.argument_type = #ttcore.argument_type<parameter>, ttcore.shard_status = #ttcore.shard_status<presharded>, ttir.name = "l__self___model_layers__modules__18___self_attn_v_proj_weight"} loc("p242.7292"), %arg243: tensor<32x8x128x128xbf16> {ttcore.argument_type = #ttcore.argument_type<input>, ttcore.shard_status = #ttcore.shard_status<presharded>, ttir.name = "args_39"} loc("p243.7314"), %arg244: tensor<1024x5120xbf16> {ttcore.argument_type = #ttcore.argument_type<parameter>, ttcore.shard_status = #ttcore.shard_status<presharded>, ttir.name = "l__self___model_layers__modules__19___self_attn_k_proj_weight"} loc("p244.7327"), %arg245: tensor<5120x17408xbf16> {ttcore.argument_type = #ttcore.argument_type<parameter>, ttcore.shard_status = #ttcore.shard_status<presharded>, ttir.name = "l__self___model_layers__modules__18___mlp_down_proj_weight"} loc("p245.7336"), %arg246: tensor<17408x5120xbf16> {ttcore.argument_type = #ttcore.argument_type<parameter>, ttcore.shard_status = #ttcore.shard_status<presharded>, ttir.name = "l__self___model_layers__modules__18___mlp_up_proj_weight"} loc("p246.7341"), %arg247: tensor<5120x5120xbf16> {ttcore.argument_type = #ttcore.argument_type<parameter>, ttcore.shard_status = #ttcore.shard_status<presharded>, ttir.name = "l__self___model_layers__modules__18___self_attn_o_proj_weight"} loc("p247.7350"), %arg248: tensor<5120x5120xbf16> {ttcore.argument_type = #ttcore.argument_type<parameter>, ttcore.shard_status = #ttcore.shard_status<presharded>, ttir.name = "l__self___model_layers__modules__18___self_attn_q_proj_weight"} loc("p248.7391"), %arg249: tensor<128xbf16> {ttcore.argument_type = #ttcore.argument_type<parameter>, ttcore.shard_status = #ttcore.shard_status<presharded>, ttir.name = "l__self___model_layers__modules__18___self_attn_q_norm_weight"} loc("p249.7429"), %arg250: tensor<5120xbf16> {ttcore.argument_type = #ttcore.argument_type<parameter>, ttcore.shard_status = #ttcore.shard_status<presharded>, ttir.name = "l__self___model_layers__modules__18___post_attention_layernorm_weight"} loc("p250.7552"), %arg251: tensor<17408x5120xbf16> {ttcore.argument_type = #ttcore.argument_type<parameter>, ttcore.shard_status = #ttcore.shard_status<presharded>, ttir.name = "l__self___model_layers__modules__18___mlp_gate_proj_weight"} loc("p251.7561"), %arg252: tensor<5120xbf16> {ttcore.argument_type = #ttcore.argument_type<parameter>, ttcore.shard_status = #ttcore.shard_status<presharded>, ttir.name = "l__self___model_layers__modules__19___input_layernorm_weight"} loc("p252.7607"), %arg253: tensor<128xbf16> {ttcore.argument_type = #ttcore.argument_type<parameter>, ttcore.shard_status = #ttcore.shard_status<presharded>, ttir.name = "l__self___model_layers__modules__19___self_attn_k_norm_weight"} loc("p253.7646"), %arg254: tensor<32x8x128x128xbf16> {ttcore.argument_type = #ttcore.argument_type<input>, ttcore.shard_status = #ttcore.shard_status<presharded>, ttir.name = "args_40"} loc("p254.7679"), %arg255: tensor<1024x5120xbf16> {ttcore.argument_type = #ttcore.argument_type<parameter>, ttcore.shard_status = #ttcore.shard_status<presharded>, ttir.name = "l__self___model_layers__modules__19___self_attn_v_proj_weight"} loc("p255.7687"), %arg256: tensor<32x8x128x128xbf16> {ttcore.argument_type = #ttcore.argument_type<input>, ttcore.shard_status = #ttcore.shard_status<presharded>, ttir.name = "args_41"} loc("p256.7709"), %arg257: tensor<1024x5120xbf16> {ttcore.argument_type = #ttcore.argument_type<parameter>, ttcore.shard_status = #ttcore.shard_status<presharded>, ttir.name = "l__self___model_layers__modules__20___self_attn_k_proj_weight"} loc("p257.7722"), %arg258: tensor<5120x17408xbf16> {ttcore.argument_type = #ttcore.argument_type<parameter>, ttcore.shard_status = #ttcore.shard_status<presharded>, ttir.name = "l__self___model_layers__modules__19___mlp_down_proj_weight"} loc("p258.7731"), %arg259: tensor<17408x5120xbf16> {ttcore.argument_type = #ttcore.argument_type<parameter>, ttcore.shard_status = #ttcore.shard_status<presharded>, ttir.name = "l__self___model_layers__modules__19___mlp_up_proj_weight"} loc("p259.7736"), %arg260: tensor<5120x5120xbf16> {ttcore.argument_type = #ttcore.argument_type<parameter>, ttcore.shard_status = #ttcore.shard_status<presharded>, ttir.name = "l__self___model_layers__modules__19___self_attn_o_proj_weight"} loc("p260.7745"), %arg261: tensor<5120x5120xbf16> {ttcore.argument_type = #ttcore.argument_type<parameter>, ttcore.shard_status = #ttcore.shard_status<presharded>, ttir.name = "l__self___model_layers__modules__19___self_attn_q_proj_weight"} loc("p261.7786"), %arg262: tensor<128xbf16> {ttcore.argument_type = #ttcore.argument_type<parameter>, ttcore.shard_status = #ttcore.shard_status<presharded>, ttir.name = "l__self___model_layers__modules__19___self_attn_q_norm_weight"} loc("p262.7824"), %arg263: tensor<5120xbf16> {ttcore.argument_type = #ttcore.argument_type<parameter>, ttcore.shard_status = #ttcore.shard_status<presharded>, ttir.name = "l__self___model_layers__modules__19___post_attention_layernorm_weight"} loc("p263.7947"), %arg264: tensor<17408x5120xbf16> {ttcore.argument_type = #ttcore.argument_type<parameter>, ttcore.shard_status = #ttcore.shard_status<presharded>, ttir.name = "l__self___model_layers__modules__19___mlp_gate_proj_weight"} loc("p264.7956"), %arg265: tensor<5120xbf16> {ttcore.argument_type = #ttcore.argument_type<parameter>, ttcore.shard_status = #ttcore.shard_status<presharded>, ttir.name = "l__self___model_layers__modules__20___input_layernorm_weight"} loc("p265.8002"), %arg266: tensor<128xbf16> {ttcore.argument_type = #ttcore.argument_type<parameter>, ttcore.shard_status = #ttcore.shard_status<presharded>, ttir.name = "l__self___model_layers__modules__20___self_attn_k_norm_weight"} loc("p266.8041"), %arg267: tensor<32x8x128x128xbf16> {ttcore.argument_type = #ttcore.argument_type<input>, ttcore.shard_status = #ttcore.shard_status<presharded>, ttir.name = "args_42"} loc("p267.8074"), %arg268: tensor<1024x5120xbf16> {ttcore.argument_type = #ttcore.argument_type<parameter>, ttcore.shard_status = #ttcore.shard_status<presharded>, ttir.name = "l__self___model_layers__modules__20___self_attn_v_proj_weight"} loc("p268.8082"), %arg269: tensor<32x8x128x128xbf16> {ttcore.argument_type = #ttcore.argument_type<input>, ttcore.shard_status = #ttcore.shard_status<presharded>, ttir.name = "args_43"} loc("p269.8104"), %arg270: tensor<1024x5120xbf16> {ttcore.argument_type = #ttcore.argument_type<parameter>, ttcore.shard_status = #ttcore.shard_status<presharded>, ttir.name = "l__self___model_layers__modules__21___self_attn_k_proj_weight"} loc("p270.8117"), %arg271: tensor<5120x17408xbf16> {ttcore.argument_type = #ttcore.argument_type<parameter>, ttcore.shard_status = #ttcore.shard_status<presharded>, ttir.name = "l__self___model_layers__modules__20___mlp_down_proj_weight"} loc("p271.8126"), %arg272: tensor<17408x5120xbf16> {ttcore.argument_type = #ttcore.argument_type<parameter>, ttcore.shard_status = #ttcore.shard_status<presharded>, ttir.name = "l__self___model_layers__modules__20___mlp_up_proj_weight"} loc("p272.8131"), %arg273: tensor<5120x5120xbf16> {ttcore.argument_type = #ttcore.argument_type<parameter>, ttcore.shard_status = #ttcore.shard_status<presharded>, ttir.name = "l__self___model_layers__modules__20___self_attn_o_proj_weight"} loc("p273.8140"), %arg274: tensor<5120x5120xbf16> {ttcore.argument_type = #ttcore.argument_type<parameter>, ttcore.shard_status = #ttcore.shard_status<presharded>, ttir.name = "l__self___model_layers__modules__20___self_attn_q_proj_weight"} loc("p274.8181"), %arg275: tensor<128xbf16> {ttcore.argument_type = #ttcore.argument_type<parameter>, ttcore.shard_status = #ttcore.shard_status<presharded>, ttir.name = "l__self___model_layers__modules__20___self_attn_q_norm_weight"} loc("p275.8219"), %arg276: tensor<5120xbf16> {ttcore.argument_type = #ttcore.argument_type<parameter>, ttcore.shard_status = #ttcore.shard_status<presharded>, ttir.name = "l__self___model_layers__modules__20___post_attention_layernorm_weight"} loc("p276.8342"), %arg277: tensor<17408x5120xbf16> {ttcore.argument_type = #ttcore.argument_type<parameter>, ttcore.shard_status = #ttcore.shard_status<presharded>, ttir.name = "l__self___model_layers__modules__20___mlp_gate_proj_weight"} loc("p277.8351"), %arg278: tensor<5120xbf16> {ttcore.argument_type = #ttcore.argument_type<parameter>, ttcore.shard_status = #ttcore.shard_status<presharded>, ttir.name = "l__self___model_layers__modules__21___input_layernorm_weight"} loc("p278.8397"), %arg279: tensor<128xbf16> {ttcore.argument_type = #ttcore.argument_type<parameter>, ttcore.shard_status = #ttcore.shard_status<presharded>, ttir.name = "l__self___model_layers__modules__21___self_attn_k_norm_weight"} loc("p279.8436"), %arg280: tensor<32x8x128x128xbf16> {ttcore.argument_type = #ttcore.argument_type<input>, ttcore.shard_status = #ttcore.shard_status<presharded>, ttir.name = "args_44"} loc("p280.8469"), %arg281: tensor<1024x5120xbf16> {ttcore.argument_type = #ttcore.argument_type<parameter>, ttcore.shard_status = #ttcore.shard_status<presharded>, ttir.name = "l__self___model_layers__modules__21___self_attn_v_proj_weight"} loc("p281.8477"), %arg282: tensor<32x8x128x128xbf16> {ttcore.argument_type = #ttcore.argument_type<input>, ttcore.shard_status = #ttcore.shard_status<presharded>, ttir.name = "args_45"} loc("p282.8499"), %arg283: tensor<1024x5120xbf16> {ttcore.argument_type = #ttcore.argument_type<parameter>, ttcore.shard_status = #ttcore.shard_status<presharded>, ttir.name = "l__self___model_layers__modules__22___self_attn_k_proj_weight"} loc("p283.8512"), %arg284: tensor<5120x17408xbf16> {ttcore.argument_type = #ttcore.argument_type<parameter>, ttcore.shard_status = #ttcore.shard_status<presharded>, ttir.name = "l__self___model_layers__modules__21___mlp_down_proj_weight"} loc("p284.8521"), %arg285: tensor<17408x5120xbf16> {ttcore.argument_type = #ttcore.argument_type<parameter>, ttcore.shard_status = #ttcore.shard_status<presharded>, ttir.name = "l__self___model_layers__modules__21___mlp_up_proj_weight"} loc("p285.8526"), %arg286: tensor<5120x5120xbf16> {ttcore.argument_type = #ttcore.argument_type<parameter>, ttcore.shard_status = #ttcore.shard_status<presharded>, ttir.name = "l__self___model_layers__modules__21___self_attn_o_proj_weight"} loc("p286.8535"), %arg287: tensor<5120x5120xbf16> {ttcore.argument_type = #ttcore.argument_type<parameter>, ttcore.shard_status = #ttcore.shard_status<presharded>, ttir.name = "l__self___model_layers__modules__21___self_attn_q_proj_weight"} loc("p287.8576"), %arg288: tensor<128xbf16> {ttcore.argument_type = #ttcore.argument_type<parameter>, ttcore.shard_status = #ttcore.shard_status<presharded>, ttir.name = "l__self___model_layers__modules__21___self_attn_q_norm_weight"} loc("p288.8614"), %arg289: tensor<5120xbf16> {ttcore.argument_type = #ttcore.argument_type<parameter>, ttcore.shard_status = #ttcore.shard_status<presharded>, ttir.name = "l__self___model_layers__modules__21___post_attention_layernorm_weight"} loc("p289.8737"), %arg290: tensor<17408x5120xbf16> {ttcore.argument_type = #ttcore.argument_type<parameter>, ttcore.shard_status = #ttcore.shard_status<presharded>, ttir.name = "l__self___model_layers__modules__21___mlp_gate_proj_weight"} loc("p290.8746"), %arg291: tensor<5120xbf16> {ttcore.argument_type = #ttcore.argument_type<parameter>, ttcore.shard_status = #ttcore.shard_status<presharded>, ttir.name = "l__self___model_layers__modules__22___input_layernorm_weight"} loc("p291.8792"), %arg292: tensor<128xbf16> {ttcore.argument_type = #ttcore.argument_type<parameter>, ttcore.shard_status = #ttcore.shard_status<presharded>, ttir.name = "l__self___model_layers__modules__22___self_attn_k_norm_weight"} loc("p292.8831"), %arg293: tensor<32x8x128x128xbf16> {ttcore.argument_type = #ttcore.argument_type<input>, ttcore.shard_status = #ttcore.shard_status<presharded>, ttir.name = "args_46"} loc("p293.8864"), %arg294: tensor<1024x5120xbf16> {ttcore.argument_type = #ttcore.argument_type<parameter>, ttcore.shard_status = #ttcore.shard_status<presharded>, ttir.name = "l__self___model_layers__modules__22___self_attn_v_proj_weight"} loc("p294.8872"), %arg295: tensor<32x8x128x128xbf16> {ttcore.argument_type = #ttcore.argument_type<input>, ttcore.shard_status = #ttcore.shard_status<presharded>, ttir.name = "args_47"} loc("p295.8894"), %arg296: tensor<1024x5120xbf16> {ttcore.argument_type = #ttcore.argument_type<parameter>, ttcore.shard_status = #ttcore.shard_status<presharded>, ttir.name = "l__self___model_layers__modules__23___self_attn_k_proj_weight"} loc("p296.8907"), %arg297: tensor<5120x17408xbf16> {ttcore.argument_type = #ttcore.argument_type<parameter>, ttcore.shard_status = #ttcore.shard_status<presharded>, ttir.name = "l__self___model_layers__modules__22___mlp_down_proj_weight"} loc("p297.8916"), %arg298: tensor<17408x5120xbf16> {ttcore.argument_type = #ttcore.argument_type<parameter>, ttcore.shard_status = #ttcore.shard_status<presharded>, ttir.name = "l__self___model_layers__modules__22___mlp_up_proj_weight"} loc("p298.8921"), %arg299: tensor<5120x5120xbf16> {ttcore.argument_type = #ttcore.argument_type<parameter>, ttcore.shard_status = #ttcore.shard_status<presharded>, ttir.name = "l__self___model_layers__modules__22___self_attn_o_proj_weight"} loc("p299.8930"), %arg300: tensor<5120x5120xbf16> {ttcore.argument_type = #ttcore.argument_type<parameter>, ttcore.shard_status = #ttcore.shard_status<presharded>, ttir.name = "l__self___model_layers__modules__22___self_attn_q_proj_weight"} loc("p300.8971"), %arg301: tensor<128xbf16> {ttcore.argument_type = #ttcore.argument_type<parameter>, ttcore.shard_status = #ttcore.shard_status<presharded>, ttir.name = "l__self___model_layers__modules__22___self_attn_q_norm_weight"} loc("p301.9009"), %arg302: tensor<5120xbf16> {ttcore.argument_type = #ttcore.argument_type<parameter>, ttcore.shard_status = #ttcore.shard_status<presharded>, ttir.name = "l__self___model_layers__modules__22___post_attention_layernorm_weight"} loc("p302.9132"), %arg303: tensor<17408x5120xbf16> {ttcore.argument_type = #ttcore.argument_type<parameter>, ttcore.shard_status = #ttcore.shard_status<presharded>, ttir.name = "l__self___model_layers__modules__22___mlp_gate_proj_weight"} loc("p303.9141"), %arg304: tensor<5120xbf16> {ttcore.argument_type = #ttcore.argument_type<parameter>, ttcore.shard_status = #ttcore.shard_status<presharded>, ttir.name = "l__self___model_layers__modules__23___input_layernorm_weight"} loc("p304.9187"), %arg305: tensor<128xbf16> {ttcore.argument_type = #ttcore.argument_type<parameter>, ttcore.shard_status = #ttcore.shard_status<presharded>, ttir.name = "l__self___model_layers__modules__23___self_attn_k_norm_weight"} loc("p305.9226"), %arg306: tensor<32x8x128x128xbf16> {ttcore.argument_type = #ttcore.argument_type<input>, ttcore.shard_status = #ttcore.shard_status<presharded>, ttir.name = "args_48"} loc("p306.9259"), %arg307: tensor<1024x5120xbf16> {ttcore.argument_type = #ttcore.argument_type<parameter>, ttcore.shard_status = #ttcore.shard_status<presharded>, ttir.name = "l__self___model_layers__modules__23___self_attn_v_proj_weight"} loc("p307.9267"), %arg308: tensor<32x8x128x128xbf16> {ttcore.argument_type = #ttcore.argument_type<input>, ttcore.shard_status = #ttcore.shard_status<presharded>, ttir.name = "args_49"} loc("p308.9289"), %arg309: tensor<1024x5120xbf16> {ttcore.argument_type = #ttcore.argument_type<parameter>, ttcore.shard_status = #ttcore.shard_status<presharded>, ttir.name = "l__self___model_layers__modules__24___self_attn_k_proj_weight"} loc("p309.9302"), %arg310: tensor<5120x17408xbf16> {ttcore.argument_type = #ttcore.argument_type<parameter>, ttcore.shard_status = #ttcore.shard_status<presharded>, ttir.name = "l__self___model_layers__modules__23___mlp_down_proj_weight"} loc("p310.9311"), %arg311: tensor<17408x5120xbf16> {ttcore.argument_type = #ttcore.argument_type<parameter>, ttcore.shard_status = #ttcore.shard_status<presharded>, ttir.name = "l__self___model_layers__modules__23___mlp_up_proj_weight"} loc("p311.9316"), %arg312: tensor<5120x5120xbf16> {ttcore.argument_type = #ttcore.argument_type<parameter>, ttcore.shard_status = #ttcore.shard_status<presharded>, ttir.name = "l__self___model_layers__modules__23___self_attn_o_proj_weight"} loc("p312.9325"), %arg313: tensor<5120x5120xbf16> {ttcore.argument_type = #ttcore.argument_type<parameter>, ttcore.shard_status = #ttcore.shard_status<presharded>, ttir.name = "l__self___model_layers__modules__23___self_attn_q_proj_weight"} loc("p313.9366"), %arg314: tensor<128xbf16> {ttcore.argument_type = #ttcore.argument_type<parameter>, ttcore.shard_status = #ttcore.shard_status<presharded>, ttir.name = "l__self___model_layers__modules__23___self_attn_q_norm_weight"} loc("p314.9404"), %arg315: tensor<5120xbf16> {ttcore.argument_type = #ttcore.argument_type<parameter>, ttcore.shard_status = #ttcore.shard_status<presharded>, ttir.name = "l__self___model_layers__modules__23___post_attention_layernorm_weight"} loc("p315.9527"), %arg316: tensor<17408x5120xbf16> {ttcore.argument_type = #ttcore.argument_type<parameter>, ttcore.shard_status = #ttcore.shard_status<presharded>, ttir.name = "l__self___model_layers__modules__23___mlp_gate_proj_weight"} loc("p316.9536"), %arg317: tensor<5120xbf16> {ttcore.argument_type = #ttcore.argument_type<parameter>, ttcore.shard_status = #ttcore.shard_status<presharded>, ttir.name = "l__self___model_layers__modules__24___input_layernorm_weight"} loc("p317.9582"), %arg318: tensor<128xbf16> {ttcore.argument_type = #ttcore.argument_type<parameter>, ttcore.shard_status = #ttcore.shard_status<presharded>, ttir.name = "l__self___model_layers__modules__24___self_attn_k_norm_weight"} loc("p318.9621"), %arg319: tensor<32x8x128x128xbf16> {ttcore.argument_type = #ttcore.argument_type<input>, ttcore.shard_status = #ttcore.shard_status<presharded>, ttir.name = "args_50"} loc("p319.9654"), %arg320: tensor<1024x5120xbf16> {ttcore.argument_type = #ttcore.argument_type<parameter>, ttcore.shard_status = #ttcore.shard_status<presharded>, ttir.name = "l__self___model_layers__modules__24___self_attn_v_proj_weight"} loc("p320.9662"), %arg321: tensor<32x8x128x128xbf16> {ttcore.argument_type = #ttcore.argument_type<input>, ttcore.shard_status = #ttcore.shard_status<presharded>, ttir.name = "args_51"} loc("p321.9684"), %arg322: tensor<1024x5120xbf16> {ttcore.argument_type = #ttcore.argument_type<parameter>, ttcore.shard_status = #ttcore.shard_status<presharded>, ttir.name = "l__self___model_layers__modules__25___self_attn_k_proj_weight"} loc("p322.9697"), %arg323: tensor<5120x17408xbf16> {ttcore.argument_type = #ttcore.argument_type<parameter>, ttcore.shard_status = #ttcore.shard_status<presharded>, ttir.name = "l__self___model_layers__modules__24___mlp_down_proj_weight"} loc("p323.9706"), %arg324: tensor<17408x5120xbf16> {ttcore.argument_type = #ttcore.argument_type<parameter>, ttcore.shard_status = #ttcore.shard_status<presharded>, ttir.name = "l__self___model_layers__modules__24___mlp_up_proj_weight"} loc("p324.9711"), %arg325: tensor<5120x5120xbf16> {ttcore.argument_type = #ttcore.argument_type<parameter>, ttcore.shard_status = #ttcore.shard_status<presharded>, ttir.name = "l__self___model_layers__modules__24___self_attn_o_proj_weight"} loc("p325.9720"), %arg326: tensor<5120x5120xbf16> {ttcore.argument_type = #ttcore.argument_type<parameter>, ttcore.shard_status = #ttcore.shard_status<presharded>, ttir.name = "l__self___model_layers__modules__24___self_attn_q_proj_weight"} loc("p326.9761"), %arg327: tensor<128xbf16> {ttcore.argument_type = #ttcore.argument_type<parameter>, ttcore.shard_status = #ttcore.shard_status<presharded>, ttir.name = "l__self___model_layers__modules__24___self_attn_q_norm_weight"} loc("p327.9799"), %arg328: tensor<5120xbf16> {ttcore.argument_type = #ttcore.argument_type<parameter>, ttcore.shard_status = #ttcore.shard_status<presharded>, ttir.name = "l__self___model_layers__modules__24___post_attention_layernorm_weight"} loc("p328.9922"), %arg329: tensor<17408x5120xbf16> {ttcore.argument_type = #ttcore.argument_type<parameter>, ttcore.shard_status = #ttcore.shard_status<presharded>, ttir.name = "l__self___model_layers__modules__24___mlp_gate_proj_weight"} loc("p329.9931"), %arg330: tensor<5120xbf16> {ttcore.argument_type = #ttcore.argument_type<parameter>, ttcore.shard_status = #ttcore.shard_status<presharded>, ttir.name = "l__self___model_layers__modules__25___input_layernorm_weight"} loc("p330.9977"), %arg331: tensor<128xbf16> {ttcore.argument_type = #ttcore.argument_type<parameter>, ttcore.shard_status = #ttcore.shard_status<presharded>, ttir.name = "l__self___model_layers__modules__25___self_attn_k_norm_weight"} loc("p331.10016"), %arg332: tensor<32x8x128x128xbf16> {ttcore.argument_type = #ttcore.argument_type<input>, ttcore.shard_status = #ttcore.shard_status<presharded>, ttir.name = "args_52"} loc("p332.10049"), %arg333: tensor<1024x5120xbf16> {ttcore.argument_type = #ttcore.argument_type<parameter>, ttcore.shard_status = #ttcore.shard_status<presharded>, ttir.name = "l__self___model_layers__modules__25___self_attn_v_proj_weight"} loc("p333.10057"), %arg334: tensor<32x8x128x128xbf16> {ttcore.argument_type = #ttcore.argument_type<input>, ttcore.shard_status = #ttcore.shard_status<presharded>, ttir.name = "args_53"} loc("p334.10079"), %arg335: tensor<1024x5120xbf16> {ttcore.argument_type = #ttcore.argument_type<parameter>, ttcore.shard_status = #ttcore.shard_status<presharded>, ttir.name = "l__self___model_layers__modules__26___self_attn_k_proj_weight"} loc("p335.10092"), %arg336: tensor<5120x17408xbf16> {ttcore.argument_type = #ttcore.argument_type<parameter>, ttcore.shard_status = #ttcore.shard_status<presharded>, ttir.name = "l__self___model_layers__modules__25___mlp_down_proj_weight"} loc("p336.10101"), %arg337: tensor<17408x5120xbf16> {ttcore.argument_type = #ttcore.argument_type<parameter>, ttcore.shard_status = #ttcore.shard_status<presharded>, ttir.name = "l__self___model_layers__modules__25___mlp_up_proj_weight"} loc("p337.10106"), %arg338: tensor<5120x5120xbf16> {ttcore.argument_type = #ttcore.argument_type<parameter>, ttcore.shard_status = #ttcore.shard_status<presharded>, ttir.name = "l__self___model_layers__modules__25___self_attn_o_proj_weight"} loc("p338.10115"), %arg339: tensor<5120x5120xbf16> {ttcore.argument_type = #ttcore.argument_type<parameter>, ttcore.shard_status = #ttcore.shard_status<presharded>, ttir.name = "l__self___model_layers__modules__25___self_attn_q_proj_weight"} loc("p339.10156"), %arg340: tensor<128xbf16> {ttcore.argument_type = #ttcore.argument_type<parameter>, ttcore.shard_status = #ttcore.shard_status<presharded>, ttir.name = "l__self___model_layers__modules__25___self_attn_q_norm_weight"} loc("p340.10194"), %arg341: tensor<5120xbf16> {ttcore.argument_type = #ttcore.argument_type<parameter>, ttcore.shard_status = #ttcore.shard_status<presharded>, ttir.name = "l__self___model_layers__modules__25___post_attention_layernorm_weight"} loc("p341.10317"), %arg342: tensor<17408x5120xbf16> {ttcore.argument_type = #ttcore.argument_type<parameter>, ttcore.shard_status = #ttcore.shard_status<presharded>, ttir.name = "l__self___model_layers__modules__25___mlp_gate_proj_weight"} loc("p342.10326"), %arg343: tensor<5120xbf16> {ttcore.argument_type = #ttcore.argument_type<parameter>, ttcore.shard_status = #ttcore.shard_status<presharded>, ttir.name = "l__self___model_layers__modules__26___input_layernorm_weight"} loc("p343.10372"), %arg344: tensor<128xbf16> {ttcore.argument_type = #ttcore.argument_type<parameter>, ttcore.shard_status = #ttcore.shard_status<presharded>, ttir.name = "l__self___model_layers__modules__26___self_attn_k_norm_weight"} loc("p344.10411"), %arg345: tensor<32x8x128x128xbf16> {ttcore.argument_type = #ttcore.argument_type<input>, ttcore.shard_status = #ttcore.shard_status<presharded>, ttir.name = "args_54"} loc("p345.10444"), %arg346: tensor<1024x5120xbf16> {ttcore.argument_type = #ttcore.argument_type<parameter>, ttcore.shard_status = #ttcore.shard_status<presharded>, ttir.name = "l__self___model_layers__modules__26___self_attn_v_proj_weight"} loc("p346.10452"), %arg347: tensor<32x8x128x128xbf16> {ttcore.argument_type = #ttcore.argument_type<input>, ttcore.shard_status = #ttcore.shard_status<presharded>, ttir.name = "args_55"} loc("p347.10474"), %arg348: tensor<1024x5120xbf16> {ttcore.argument_type = #ttcore.argument_type<parameter>, ttcore.shard_status = #ttcore.shard_status<presharded>, ttir.name = "l__self___model_layers__modules__27___self_attn_k_proj_weight"} loc("p348.10487"), %arg349: tensor<5120x17408xbf16> {ttcore.argument_type = #ttcore.argument_type<parameter>, ttcore.shard_status = #ttcore.shard_status<presharded>, ttir.name = "l__self___model_layers__modules__26___mlp_down_proj_weight"} loc("p349.10496"), %arg350: tensor<17408x5120xbf16> {ttcore.argument_type = #ttcore.argument_type<parameter>, ttcore.shard_status = #ttcore.shard_status<presharded>, ttir.name = "l__self___model_layers__modules__26___mlp_up_proj_weight"} loc("p350.10501"), %arg351: tensor<5120x5120xbf16> {ttcore.argument_type = #ttcore.argument_type<parameter>, ttcore.shard_status = #ttcore.shard_status<presharded>, ttir.name = "l__self___model_layers__modules__26___self_attn_o_proj_weight"} loc("p351.10510"), %arg352: tensor<5120x5120xbf16> {ttcore.argument_type = #ttcore.argument_type<parameter>, ttcore.shard_status = #ttcore.shard_status<presharded>, ttir.name = "l__self___model_layers__modules__26___self_attn_q_proj_weight"} loc("p352.10551"), %arg353: tensor<128xbf16> {ttcore.argument_type = #ttcore.argument_type<parameter>, ttcore.shard_status = #ttcore.shard_status<presharded>, ttir.name = "l__self___model_layers__modules__26___self_attn_q_norm_weight"} loc("p353.10589"), %arg354: tensor<5120xbf16> {ttcore.argument_type = #ttcore.argument_type<parameter>, ttcore.shard_status = #ttcore.shard_status<presharded>, ttir.name = "l__self___model_layers__modules__26___post_attention_layernorm_weight"} loc("p354.10712"), %arg355: tensor<17408x5120xbf16> {ttcore.argument_type = #ttcore.argument_type<parameter>, ttcore.shard_status = #ttcore.shard_status<presharded>, ttir.name = "l__self___model_layers__modules__26___mlp_gate_proj_weight"} loc("p355.10721"), %arg356: tensor<5120xbf16> {ttcore.argument_type = #ttcore.argument_type<parameter>, ttcore.shard_status = #ttcore.shard_status<presharded>, ttir.name = "l__self___model_layers__modules__27___input_layernorm_weight"} loc("p356.10767"), %arg357: tensor<128xbf16> {ttcore.argument_type = #ttcore.argument_type<parameter>, ttcore.shard_status = #ttcore.shard_status<presharded>, ttir.name = "l__self___model_layers__modules__27___self_attn_k_norm_weight"} loc("p357.10806"), %arg358: tensor<32x8x128x128xbf16> {ttcore.argument_type = #ttcore.argument_type<input>, ttcore.shard_status = #ttcore.shard_status<presharded>, ttir.name = "args_56"} loc("p358.10839"), %arg359: tensor<1024x5120xbf16> {ttcore.argument_type = #ttcore.argument_type<parameter>, ttcore.shard_status = #ttcore.shard_status<presharded>, ttir.name = "l__self___model_layers__modules__27___self_attn_v_proj_weight"} loc("p359.10847"), %arg360: tensor<32x8x128x128xbf16> {ttcore.argument_type = #ttcore.argument_type<input>, ttcore.shard_status = #ttcore.shard_status<presharded>, ttir.name = "args_57"} loc("p360.10869"), %arg361: tensor<1024x5120xbf16> {ttcore.argument_type = #ttcore.argument_type<parameter>, ttcore.shard_status = #ttcore.shard_status<presharded>, ttir.name = "l__self___model_layers__modules__28___self_attn_k_proj_weight"} loc("p361.10882"), %arg362: tensor<5120x17408xbf16> {ttcore.argument_type = #ttcore.argument_type<parameter>, ttcore.shard_status = #ttcore.shard_status<presharded>, ttir.name = "l__self___model_layers__modules__27___mlp_down_proj_weight"} loc("p362.10891"), %arg363: tensor<17408x5120xbf16> {ttcore.argument_type = #ttcore.argument_type<parameter>, ttcore.shard_status = #ttcore.shard_status<presharded>, ttir.name = "l__self___model_layers__modules__27___mlp_up_proj_weight"} loc("p363.10896"), %arg364: tensor<5120x5120xbf16> {ttcore.argument_type = #ttcore.argument_type<parameter>, ttcore.shard_status = #ttcore.shard_status<presharded>, ttir.name = "l__self___model_layers__modules__27___self_attn_o_proj_weight"} loc("p364.10905"), %arg365: tensor<5120x5120xbf16> {ttcore.argument_type = #ttcore.argument_type<parameter>, ttcore.shard_status = #ttcore.shard_status<presharded>, ttir.name = "l__self___model_layers__modules__27___self_attn_q_proj_weight"} loc("p365.10946"), %arg366: tensor<128xbf16> {ttcore.argument_type = #ttcore.argument_type<parameter>, ttcore.shard_status = #ttcore.shard_status<presharded>, ttir.name = "l__self___model_layers__modules__27___self_attn_q_norm_weight"} loc("p366.10984"), %arg367: tensor<5120xbf16> {ttcore.argument_type = #ttcore.argument_type<parameter>, ttcore.shard_status = #ttcore.shard_status<presharded>, ttir.name = "l__self___model_layers__modules__27___post_attention_layernorm_weight"} loc("p367.11107"), %arg368: tensor<17408x5120xbf16> {ttcore.argument_type = #ttcore.argument_type<parameter>, ttcore.shard_status = #ttcore.shard_status<presharded>, ttir.name = "l__self___model_layers__modules__27___mlp_gate_proj_weight"} loc("p368.11116"), %arg369: tensor<5120xbf16> {ttcore.argument_type = #ttcore.argument_type<parameter>, ttcore.shard_status = #ttcore.shard_status<presharded>, ttir.name = "l__self___model_layers__modules__28___input_layernorm_weight"} loc("p369.11162"), %arg370: tensor<128xbf16> {ttcore.argument_type = #ttcore.argument_type<parameter>, ttcore.shard_status = #ttcore.shard_status<presharded>, ttir.name = "l__self___model_layers__modules__28___self_attn_k_norm_weight"} loc("p370.11201"), %arg371: tensor<32x8x128x128xbf16> {ttcore.argument_type = #ttcore.argument_type<input>, ttcore.shard_status = #ttcore.shard_status<presharded>, ttir.name = "args_58"} loc("p371.11234"), %arg372: tensor<1024x5120xbf16> {ttcore.argument_type = #ttcore.argument_type<parameter>, ttcore.shard_status = #ttcore.shard_status<presharded>, ttir.name = "l__self___model_layers__modules__28___self_attn_v_proj_weight"} loc("p372.11242"), %arg373: tensor<32x8x128x128xbf16> {ttcore.argument_type = #ttcore.argument_type<input>, ttcore.shard_status = #ttcore.shard_status<presharded>, ttir.name = "args_59"} loc("p373.11264"), %arg374: tensor<1024x5120xbf16> {ttcore.argument_type = #ttcore.argument_type<parameter>, ttcore.shard_status = #ttcore.shard_status<presharded>, ttir.name = "l__self___model_layers__modules__29___self_attn_k_proj_weight"} loc("p374.11277"), %arg375: tensor<5120x17408xbf16> {ttcore.argument_type = #ttcore.argument_type<parameter>, ttcore.shard_status = #ttcore.shard_status<presharded>, ttir.name = "l__self___model_layers__modules__28___mlp_down_proj_weight"} loc("p375.11286"), %arg376: tensor<17408x5120xbf16> {ttcore.argument_type = #ttcore.argument_type<parameter>, ttcore.shard_status = #ttcore.shard_status<presharded>, ttir.name = "l__self___model_layers__modules__28___mlp_up_proj_weight"} loc("p376.11291"), %arg377: tensor<5120x5120xbf16> {ttcore.argument_type = #ttcore.argument_type<parameter>, ttcore.shard_status = #ttcore.shard_status<presharded>, ttir.name = "l__self___model_layers__modules__28___self_attn_o_proj_weight"} loc("p377.11300"), %arg378: tensor<5120x5120xbf16> {ttcore.argument_type = #ttcore.argument_type<parameter>, ttcore.shard_status = #ttcore.shard_status<presharded>, ttir.name = "l__self___model_layers__modules__28___self_attn_q_proj_weight"} loc("p378.11341"), %arg379: tensor<128xbf16> {ttcore.argument_type = #ttcore.argument_type<parameter>, ttcore.shard_status = #ttcore.shard_status<presharded>, ttir.name = "l__self___model_layers__modules__28___self_attn_q_norm_weight"} loc("p379.11379"), %arg380: tensor<5120xbf16> {ttcore.argument_type = #ttcore.argument_type<parameter>, ttcore.shard_status = #ttcore.shard_status<presharded>, ttir.name = "l__self___model_layers__modules__28___post_attention_layernorm_weight"} loc("p380.11502"), %arg381: tensor<17408x5120xbf16> {ttcore.argument_type = #ttcore.argument_type<parameter>, ttcore.shard_status = #ttcore.shard_status<presharded>, ttir.name = "l__self___model_layers__modules__28___mlp_gate_proj_weight"} loc("p381.11511"), %arg382: tensor<5120xbf16> {ttcore.argument_type = #ttcore.argument_type<parameter>, ttcore.shard_status = #ttcore.shard_status<presharded>, ttir.name = "l__self___model_layers__modules__29___input_layernorm_weight"} loc("p382.11557"), %arg383: tensor<128xbf16> {ttcore.argument_type = #ttcore.argument_type<parameter>, ttcore.shard_status = #ttcore.shard_status<presharded>, ttir.name = "l__self___model_layers__modules__29___self_attn_k_norm_weight"} loc("p383.11596"), %arg384: tensor<32x8x128x128xbf16> {ttcore.argument_type = #ttcore.argument_type<input>, ttcore.shard_status = #ttcore.shard_status<presharded>, ttir.name = "args_60"} loc("p384.11629"), %arg385: tensor<1024x5120xbf16> {ttcore.argument_type = #ttcore.argument_type<parameter>, ttcore.shard_status = #ttcore.shard_status<presharded>, ttir.name = "l__self___model_layers__modules__29___self_attn_v_proj_weight"} loc("p385.11637"), %arg386: tensor<32x8x128x128xbf16> {ttcore.argument_type = #ttcore.argument_type<input>, ttcore.shard_status = #ttcore.shard_status<presharded>, ttir.name = "args_61"} loc("p386.11659"), %arg387: tensor<1024x5120xbf16> {ttcore.argument_type = #ttcore.argument_type<parameter>, ttcore.shard_status = #ttcore.shard_status<presharded>, ttir.name = "l__self___model_layers__modules__30___self_attn_k_proj_weight"} loc("p387.11672"), %arg388: tensor<5120x17408xbf16> {ttcore.argument_type = #ttcore.argument_type<parameter>, ttcore.shard_status = #ttcore.shard_status<presharded>, ttir.name = "l__self___model_layers__modules__29___mlp_down_proj_weight"} loc("p388.11681"), %arg389: tensor<17408x5120xbf16> {ttcore.argument_type = #ttcore.argument_type<parameter>, ttcore.shard_status = #ttcore.shard_status<presharded>, ttir.name = "l__self___model_layers__modules__29___mlp_up_proj_weight"} loc("p389.11686"), %arg390: tensor<5120x5120xbf16> {ttcore.argument_type = #ttcore.argument_type<parameter>, ttcore.shard_status = #ttcore.shard_status<presharded>, ttir.name = "l__self___model_layers__modules__29___self_attn_o_proj_weight"} loc("p390.11695"), %arg391: tensor<5120x5120xbf16> {ttcore.argument_type = #ttcore.argument_type<parameter>, ttcore.shard_status = #ttcore.shard_status<presharded>, ttir.name = "l__self___model_layers__modules__29___self_attn_q_proj_weight"} loc("p391.11736"), %arg392: tensor<128xbf16> {ttcore.argument_type = #ttcore.argument_type<parameter>, ttcore.shard_status = #ttcore.shard_status<presharded>, ttir.name = "l__self___model_layers__modules__29___self_attn_q_norm_weight"} loc("p392.11774"), %arg393: tensor<5120xbf16> {ttcore.argument_type = #ttcore.argument_type<parameter>, ttcore.shard_status = #ttcore.shard_status<presharded>, ttir.name = "l__self___model_layers__modules__29___post_attention_layernorm_weight"} loc("p393.11897"), %arg394: tensor<17408x5120xbf16> {ttcore.argument_type = #ttcore.argument_type<parameter>, ttcore.shard_status = #ttcore.shard_status<presharded>, ttir.name = "l__self___model_layers__modules__29___mlp_gate_proj_weight"} loc("p394.11906"), %arg395: tensor<5120xbf16> {ttcore.argument_type = #ttcore.argument_type<parameter>, ttcore.shard_status = #ttcore.shard_status<presharded>, ttir.name = "l__self___model_layers__modules__30___input_layernorm_weight"} loc("p395.11952"), %arg396: tensor<128xbf16> {ttcore.argument_type = #ttcore.argument_type<parameter>, ttcore.shard_status = #ttcore.shard_status<presharded>, ttir.name = "l__self___model_layers__modules__30___self_attn_k_norm_weight"} loc("p396.11991"), %arg397: tensor<32x8x128x128xbf16> {ttcore.argument_type = #ttcore.argument_type<input>, ttcore.shard_status = #ttcore.shard_status<presharded>, ttir.name = "args_62"} loc("p397.12024"), %arg398: tensor<1024x5120xbf16> {ttcore.argument_type = #ttcore.argument_type<parameter>, ttcore.shard_status = #ttcore.shard_status<presharded>, ttir.name = "l__self___model_layers__modules__30___self_attn_v_proj_weight"} loc("p398.12032"), %arg399: tensor<32x8x128x128xbf16> {ttcore.argument_type = #ttcore.argument_type<input>, ttcore.shard_status = #ttcore.shard_status<presharded>, ttir.name = "args_63"} loc("p399.12054"), %arg400: tensor<1024x5120xbf16> {ttcore.argument_type = #ttcore.argument_type<parameter>, ttcore.shard_status = #ttcore.shard_status<presharded>, ttir.name = "l__self___model_layers__modules__31___self_attn_k_proj_weight"} loc("p400.12067"), %arg401: tensor<5120x17408xbf16> {ttcore.argument_type = #ttcore.argument_type<parameter>, ttcore.shard_status = #ttcore.shard_status<presharded>, ttir.name = "l__self___model_layers__modules__30___mlp_down_proj_weight"} loc("p401.12076"), %arg402: tensor<17408x5120xbf16> {ttcore.argument_type = #ttcore.argument_type<parameter>, ttcore.shard_status = #ttcore.shard_status<presharded>, ttir.name = "l__self___model_layers__modules__30___mlp_up_proj_weight"} loc("p402.12081"), %arg403: tensor<5120x5120xbf16> {ttcore.argument_type = #ttcore.argument_type<parameter>, ttcore.shard_status = #ttcore.shard_status<presharded>, ttir.name = "l__self___model_layers__modules__30___self_attn_o_proj_weight"} loc("p403.12090"), %arg404: tensor<5120x5120xbf16> {ttcore.argument_type = #ttcore.argument_type<parameter>, ttcore.shard_status = #ttcore.shard_status<presharded>, ttir.name = "l__self___model_layers__modules__30___self_attn_q_proj_weight"} loc("p404.12131"), %arg405: tensor<128xbf16> {ttcore.argument_type = #ttcore.argument_type<parameter>, ttcore.shard_status = #ttcore.shard_status<presharded>, ttir.name = "l__self___model_layers__modules__30___self_attn_q_norm_weight"} loc("p405.12169"), %arg406: tensor<5120xbf16> {ttcore.argument_type = #ttcore.argument_type<parameter>, ttcore.shard_status = #ttcore.shard_status<presharded>, ttir.name = "l__self___model_layers__modules__30___post_attention_layernorm_weight"} loc("p406.12292"), %arg407: tensor<17408x5120xbf16> {ttcore.argument_type = #ttcore.argument_type<parameter>, ttcore.shard_status = #ttcore.shard_status<presharded>, ttir.name = "l__self___model_layers__modules__30___mlp_gate_proj_weight"} loc("p407.12301"), %arg408: tensor<5120xbf16> {ttcore.argument_type = #ttcore.argument_type<parameter>, ttcore.shard_status = #ttcore.shard_status<presharded>, ttir.name = "l__self___model_layers__modules__31___input_layernorm_weight"} loc("p408.12347"), %arg409: tensor<128xbf16> {ttcore.argument_type = #ttcore.argument_type<parameter>, ttcore.shard_status = #ttcore.shard_status<presharded>, ttir.name = "l__self___model_layers__modules__31___self_attn_k_norm_weight"} loc("p409.12386"), %arg410: tensor<32x8x128x128xbf16> {ttcore.argument_type = #ttcore.argument_type<input>, ttcore.shard_status = #ttcore.shard_status<presharded>, ttir.name = "args_64"} loc("p410.12419"), %arg411: tensor<1024x5120xbf16> {ttcore.argument_type = #ttcore.argument_type<parameter>, ttcore.shard_status = #ttcore.shard_status<presharded>, ttir.name = "l__self___model_layers__modules__31___self_attn_v_proj_weight"} loc("p411.12427"), %arg412: tensor<32x8x128x128xbf16> {ttcore.argument_type = #ttcore.argument_type<input>, ttcore.shard_status = #ttcore.shard_status<presharded>, ttir.name = "args_65"} loc("p412.12449"), %arg413: tensor<1024x5120xbf16> {ttcore.argument_type = #ttcore.argument_type<parameter>, ttcore.shard_status = #ttcore.shard_status<presharded>, ttir.name = "l__self___model_layers__modules__32___self_attn_k_proj_weight"} loc("p413.12462"), %arg414: tensor<5120x17408xbf16> {ttcore.argument_type = #ttcore.argument_type<parameter>, ttcore.shard_status = #ttcore.shard_status<presharded>, ttir.name = "l__self___model_layers__modules__31___mlp_down_proj_weight"} loc("p414.12471"), %arg415: tensor<17408x5120xbf16> {ttcore.argument_type = #ttcore.argument_type<parameter>, ttcore.shard_status = #ttcore.shard_status<presharded>, ttir.name = "l__self___model_layers__modules__31___mlp_up_proj_weight"} loc("p415.12476"), %arg416: tensor<5120x5120xbf16> {ttcore.argument_type = #ttcore.argument_type<parameter>, ttcore.shard_status = #ttcore.shard_status<presharded>, ttir.name = "l__self___model_layers__modules__31___self_attn_o_proj_weight"} loc("p416.12485"), %arg417: tensor<5120x5120xbf16> {ttcore.argument_type = #ttcore.argument_type<parameter>, ttcore.shard_status = #ttcore.shard_status<presharded>, ttir.name = "l__self___model_layers__modules__31___self_attn_q_proj_weight"} loc("p417.12526"), %arg418: tensor<128xbf16> {ttcore.argument_type = #ttcore.argument_type<parameter>, ttcore.shard_status = #ttcore.shard_status<presharded>, ttir.name = "l__self___model_layers__modules__31___self_attn_q_norm_weight"} loc("p418.12564"), %arg419: tensor<5120xbf16> {ttcore.argument_type = #ttcore.argument_type<parameter>, ttcore.shard_status = #ttcore.shard_status<presharded>, ttir.name = "l__self___model_layers__modules__31___post_attention_layernorm_weight"} loc("p419.12687"), %arg420: tensor<17408x5120xbf16> {ttcore.argument_type = #ttcore.argument_type<parameter>, ttcore.shard_status = #ttcore.shard_status<presharded>, ttir.name = "l__self___model_layers__modules__31___mlp_gate_proj_weight"} loc("p420.12696"), %arg421: tensor<5120xbf16> {ttcore.argument_type = #ttcore.argument_type<parameter>, ttcore.shard_status = #ttcore.shard_status<presharded>, ttir.name = "l__self___model_layers__modules__32___input_layernorm_weight"} loc("p421.12742"), %arg422: tensor<128xbf16> {ttcore.argument_type = #ttcore.argument_type<parameter>, ttcore.shard_status = #ttcore.shard_status<presharded>, ttir.name = "l__self___model_layers__modules__32___self_attn_k_norm_weight"} loc("p422.12781"), %arg423: tensor<32x8x128x128xbf16> {ttcore.argument_type = #ttcore.argument_type<input>, ttcore.shard_status = #ttcore.shard_status<presharded>, ttir.name = "args_66"} loc("p423.12814"), %arg424: tensor<1024x5120xbf16> {ttcore.argument_type = #ttcore.argument_type<parameter>, ttcore.shard_status = #ttcore.shard_status<presharded>, ttir.name = "l__self___model_layers__modules__32___self_attn_v_proj_weight"} loc("p424.12822"), %arg425: tensor<32x8x128x128xbf16> {ttcore.argument_type = #ttcore.argument_type<input>, ttcore.shard_status = #ttcore.shard_status<presharded>, ttir.name = "args_67"} loc("p425.12844"), %arg426: tensor<1024x5120xbf16> {ttcore.argument_type = #ttcore.argument_type<parameter>, ttcore.shard_status = #ttcore.shard_status<presharded>, ttir.name = "l__self___model_layers__modules__33___self_attn_k_proj_weight"} loc("p426.12857"), %arg427: tensor<5120x17408xbf16> {ttcore.argument_type = #ttcore.argument_type<parameter>, ttcore.shard_status = #ttcore.shard_status<presharded>, ttir.name = "l__self___model_layers__modules__32___mlp_down_proj_weight"} loc("p427.12866"), %arg428: tensor<17408x5120xbf16> {ttcore.argument_type = #ttcore.argument_type<parameter>, ttcore.shard_status = #ttcore.shard_status<presharded>, ttir.name = "l__self___model_layers__modules__32___mlp_up_proj_weight"} loc("p428.12871"), %arg429: tensor<5120x5120xbf16> {ttcore.argument_type = #ttcore.argument_type<parameter>, ttcore.shard_status = #ttcore.shard_status<presharded>, ttir.name = "l__self___model_layers__modules__32___self_attn_o_proj_weight"} loc("p429.12880"), %arg430: tensor<5120x5120xbf16> {ttcore.argument_type = #ttcore.argument_type<parameter>, ttcore.shard_status = #ttcore.shard_status<presharded>, ttir.name = "l__self___model_layers__modules__32___self_attn_q_proj_weight"} loc("p430.12921"), %arg431: tensor<128xbf16> {ttcore.argument_type = #ttcore.argument_type<parameter>, ttcore.shard_status = #ttcore.shard_status<presharded>, ttir.name = "l__self___model_layers__modules__32___self_attn_q_norm_weight"} loc("p431.12959"), %arg432: tensor<5120xbf16> {ttcore.argument_type = #ttcore.argument_type<parameter>, ttcore.shard_status = #ttcore.shard_status<presharded>, ttir.name = "l__self___model_layers__modules__32___post_attention_layernorm_weight"} loc("p432.13082"), %arg433: tensor<17408x5120xbf16> {ttcore.argument_type = #ttcore.argument_type<parameter>, ttcore.shard_status = #ttcore.shard_status<presharded>, ttir.name = "l__self___model_layers__modules__32___mlp_gate_proj_weight"} loc("p433.13091"), %arg434: tensor<5120xbf16> {ttcore.argument_type = #ttcore.argument_type<parameter>, ttcore.shard_status = #ttcore.shard_status<presharded>, ttir.name = "l__self___model_layers__modules__33___input_layernorm_weight"} loc("p434.13137"), %arg435: tensor<128xbf16> {ttcore.argument_type = #ttcore.argument_type<parameter>, ttcore.shard_status = #ttcore.shard_status<presharded>, ttir.name = "l__self___model_layers__modules__33___self_attn_k_norm_weight"} loc("p435.13176"), %arg436: tensor<32x8x128x128xbf16> {ttcore.argument_type = #ttcore.argument_type<input>, ttcore.shard_status = #ttcore.shard_status<presharded>, ttir.name = "args_68"} loc("p436.13209"), %arg437: tensor<1024x5120xbf16> {ttcore.argument_type = #ttcore.argument_type<parameter>, ttcore.shard_status = #ttcore.shard_status<presharded>, ttir.name = "l__self___model_layers__modules__33___self_attn_v_proj_weight"} loc("p437.13217"), %arg438: tensor<32x8x128x128xbf16> {ttcore.argument_type = #ttcore.argument_type<input>, ttcore.shard_status = #ttcore.shard_status<presharded>, ttir.name = "args_69"} loc("p438.13239"), %arg439: tensor<1024x5120xbf16> {ttcore.argument_type = #ttcore.argument_type<parameter>, ttcore.shard_status = #ttcore.shard_status<presharded>, ttir.name = "l__self___model_layers__modules__34___self_attn_k_proj_weight"} loc("p439.13252"), %arg440: tensor<5120x17408xbf16> {ttcore.argument_type = #ttcore.argument_type<parameter>, ttcore.shard_status = #ttcore.shard_status<presharded>, ttir.name = "l__self___model_layers__modules__33___mlp_down_proj_weight"} loc("p440.13261"), %arg441: tensor<17408x5120xbf16> {ttcore.argument_type = #ttcore.argument_type<parameter>, ttcore.shard_status = #ttcore.shard_status<presharded>, ttir.name = "l__self___model_layers__modules__33___mlp_up_proj_weight"} loc("p441.13266"), %arg442: tensor<5120x5120xbf16> {ttcore.argument_type = #ttcore.argument_type<parameter>, ttcore.shard_status = #ttcore.shard_status<presharded>, ttir.name = "l__self___model_layers__modules__33___self_attn_o_proj_weight"} loc("p442.13275"), %arg443: tensor<5120x5120xbf16> {ttcore.argument_type = #ttcore.argument_type<parameter>, ttcore.shard_status = #ttcore.shard_status<presharded>, ttir.name = "l__self___model_layers__modules__33___self_attn_q_proj_weight"} loc("p443.13316"), %arg444: tensor<128xbf16> {ttcore.argument_type = #ttcore.argument_type<parameter>, ttcore.shard_status = #ttcore.shard_status<presharded>, ttir.name = "l__self___model_layers__modules__33___self_attn_q_norm_weight"} loc("p444.13354"), %arg445: tensor<5120xbf16> {ttcore.argument_type = #ttcore.argument_type<parameter>, ttcore.shard_status = #ttcore.shard_status<presharded>, ttir.name = "l__self___model_layers__modules__33___post_attention_layernorm_weight"} loc("p445.13477"), %arg446: tensor<17408x5120xbf16> {ttcore.argument_type = #ttcore.argument_type<parameter>, ttcore.shard_status = #ttcore.shard_status<presharded>, ttir.name = "l__self___model_layers__modules__33___mlp_gate_proj_weight"} loc("p446.13486"), %arg447: tensor<5120xbf16> {ttcore.argument_type = #ttcore.argument_type<parameter>, ttcore.shard_status = #ttcore.shard_status<presharded>, ttir.name = "l__self___model_layers__modules__34___input_layernorm_weight"} loc("p447.13532"), %arg448: tensor<128xbf16> {ttcore.argument_type = #ttcore.argument_type<parameter>, ttcore.shard_status = #ttcore.shard_status<presharded>, ttir.name = "l__self___model_layers__modules__34___self_attn_k_norm_weight"} loc("p448.13571"), %arg449: tensor<32x8x128x128xbf16> {ttcore.argument_type = #ttcore.argument_type<input>, ttcore.shard_status = #ttcore.shard_status<presharded>, ttir.name = "args_70"} loc("p449.13604"), %arg450: tensor<1024x5120xbf16> {ttcore.argument_type = #ttcore.argument_type<parameter>, ttcore.shard_status = #ttcore.shard_status<presharded>, ttir.name = "l__self___model_layers__modules__34___self_attn_v_proj_weight"} loc("p450.13612"), %arg451: tensor<32x8x128x128xbf16> {ttcore.argument_type = #ttcore.argument_type<input>, ttcore.shard_status = #ttcore.shard_status<presharded>, ttir.name = "args_71"} loc("p451.13634"), %arg452: tensor<1024x5120xbf16> {ttcore.argument_type = #ttcore.argument_type<parameter>, ttcore.shard_status = #ttcore.shard_status<presharded>, ttir.name = "l__self___model_layers__modules__35___self_attn_k_proj_weight"} loc("p452.13647"), %arg453: tensor<5120x17408xbf16> {ttcore.argument_type = #ttcore.argument_type<parameter>, ttcore.shard_status = #ttcore.shard_status<presharded>, ttir.name = "l__self___model_layers__modules__34___mlp_down_proj_weight"} loc("p453.13656"), %arg454: tensor<17408x5120xbf16> {ttcore.argument_type = #ttcore.argument_type<parameter>, ttcore.shard_status = #ttcore.shard_status<presharded>, ttir.name = "l__self___model_layers__modules__34___mlp_up_proj_weight"} loc("p454.13661"), %arg455: tensor<5120x5120xbf16> {ttcore.argument_type = #ttcore.argument_type<parameter>, ttcore.shard_status = #ttcore.shard_status<presharded>, ttir.name = "l__self___model_layers__modules__34___self_attn_o_proj_weight"} loc("p455.13670"), %arg456: tensor<5120x5120xbf16> {ttcore.argument_type = #ttcore.argument_type<parameter>, ttcore.shard_status = #ttcore.shard_status<presharded>, ttir.name = "l__self___model_layers__modules__34___self_attn_q_proj_weight"} loc("p456.13711"), %arg457: tensor<128xbf16> {ttcore.argument_type = #ttcore.argument_type<parameter>, ttcore.shard_status = #ttcore.shard_status<presharded>, ttir.name = "l__self___model_layers__modules__34___self_attn_q_norm_weight"} loc("p457.13749"), %arg458: tensor<5120xbf16> {ttcore.argument_type = #ttcore.argument_type<parameter>, ttcore.shard_status = #ttcore.shard_status<presharded>, ttir.name = "l__self___model_layers__modules__34___post_attention_layernorm_weight"} loc("p458.13872"), %arg459: tensor<17408x5120xbf16> {ttcore.argument_type = #ttcore.argument_type<parameter>, ttcore.shard_status = #ttcore.shard_status<presharded>, ttir.name = "l__self___model_layers__modules__34___mlp_gate_proj_weight"} loc("p459.13881"), %arg460: tensor<5120xbf16> {ttcore.argument_type = #ttcore.argument_type<parameter>, ttcore.shard_status = #ttcore.shard_status<presharded>, ttir.name = "l__self___model_layers__modules__35___input_layernorm_weight"} loc("p460.13927"), %arg461: tensor<128xbf16> {ttcore.argument_type = #ttcore.argument_type<parameter>, ttcore.shard_status = #ttcore.shard_status<presharded>, ttir.name = "l__self___model_layers__modules__35___self_attn_k_norm_weight"} loc("p461.13966"), %arg462: tensor<32x8x128x128xbf16> {ttcore.argument_type = #ttcore.argument_type<input>, ttcore.shard_status = #ttcore.shard_status<presharded>, ttir.name = "args_72"} loc("p462.13999"), %arg463: tensor<1024x5120xbf16> {ttcore.argument_type = #ttcore.argument_type<parameter>, ttcore.shard_status = #ttcore.shard_status<presharded>, ttir.name = "l__self___model_layers__modules__35___self_attn_v_proj_weight"} loc("p463.14007"), %arg464: tensor<32x8x128x128xbf16> {ttcore.argument_type = #ttcore.argument_type<input>, ttcore.shard_status = #ttcore.shard_status<presharded>, ttir.name = "args_73"} loc("p464.14029"), %arg465: tensor<1024x5120xbf16> {ttcore.argument_type = #ttcore.argument_type<parameter>, ttcore.shard_status = #ttcore.shard_status<presharded>, ttir.name = "l__self___model_layers__modules__36___self_attn_k_proj_weight"} loc("p465.14042"), %arg466: tensor<5120x17408xbf16> {ttcore.argument_type = #ttcore.argument_type<parameter>, ttcore.shard_status = #ttcore.shard_status<presharded>, ttir.name = "l__self___model_layers__modules__35___mlp_down_proj_weight"} loc("p466.14051"), %arg467: tensor<17408x5120xbf16> {ttcore.argument_type = #ttcore.argument_type<parameter>, ttcore.shard_status = #ttcore.shard_status<presharded>, ttir.name = "l__self___model_layers__modules__35___mlp_up_proj_weight"} loc("p467.14056"), %arg468: tensor<5120x5120xbf16> {ttcore.argument_type = #ttcore.argument_type<parameter>, ttcore.shard_status = #ttcore.shard_status<presharded>, ttir.name = "l__self___model_layers__modules__35___self_attn_o_proj_weight"} loc("p468.14065"), %arg469: tensor<5120x5120xbf16> {ttcore.argument_type = #ttcore.argument_type<parameter>, ttcore.shard_status = #ttcore.shard_status<presharded>, ttir.name = "l__self___model_layers__modules__35___self_attn_q_proj_weight"} loc("p469.14106"), %arg470: tensor<128xbf16> {ttcore.argument_type = #ttcore.argument_type<parameter>, ttcore.shard_status = #ttcore.shard_status<presharded>, ttir.name = "l__self___model_layers__modules__35___self_attn_q_norm_weight"} loc("p470.14144"), %arg471: tensor<5120xbf16> {ttcore.argument_type = #ttcore.argument_type<parameter>, ttcore.shard_status = #ttcore.shard_status<presharded>, ttir.name = "l__self___model_layers__modules__35___post_attention_layernorm_weight"} loc("p471.14267"), %arg472: tensor<17408x5120xbf16> {ttcore.argument_type = #ttcore.argument_type<parameter>, ttcore.shard_status = #ttcore.shard_status<presharded>, ttir.name = "l__self___model_layers__modules__35___mlp_gate_proj_weight"} loc("p472.14276"), %arg473: tensor<5120xbf16> {ttcore.argument_type = #ttcore.argument_type<parameter>, ttcore.shard_status = #ttcore.shard_status<presharded>, ttir.name = "l__self___model_layers__modules__36___input_layernorm_weight"} loc("p473.14322"), %arg474: tensor<128xbf16> {ttcore.argument_type = #ttcore.argument_type<parameter>, ttcore.shard_status = #ttcore.shard_status<presharded>, ttir.name = "l__self___model_layers__modules__36___self_attn_k_norm_weight"} loc("p474.14361"), %arg475: tensor<32x8x128x128xbf16> {ttcore.argument_type = #ttcore.argument_type<input>, ttcore.shard_status = #ttcore.shard_status<presharded>, ttir.name = "args_74"} loc("p475.14394"), %arg476: tensor<1024x5120xbf16> {ttcore.argument_type = #ttcore.argument_type<parameter>, ttcore.shard_status = #ttcore.shard_status<presharded>, ttir.name = "l__self___model_layers__modules__36___self_attn_v_proj_weight"} loc("p476.14402"), %arg477: tensor<32x8x128x128xbf16> {ttcore.argument_type = #ttcore.argument_type<input>, ttcore.shard_status = #ttcore.shard_status<presharded>, ttir.name = "args_75"} loc("p477.14424"), %arg478: tensor<1024x5120xbf16> {ttcore.argument_type = #ttcore.argument_type<parameter>, ttcore.shard_status = #ttcore.shard_status<presharded>, ttir.name = "l__self___model_layers__modules__37___self_attn_k_proj_weight"} loc("p478.14437"), %arg479: tensor<5120x17408xbf16> {ttcore.argument_type = #ttcore.argument_type<parameter>, ttcore.shard_status = #ttcore.shard_status<presharded>, ttir.name = "l__self___model_layers__modules__36___mlp_down_proj_weight"} loc("p479.14446"), %arg480: tensor<17408x5120xbf16> {ttcore.argument_type = #ttcore.argument_type<parameter>, ttcore.shard_status = #ttcore.shard_status<presharded>, ttir.name = "l__self___model_layers__modules__36___mlp_up_proj_weight"} loc("p480.14451"), %arg481: tensor<5120x5120xbf16> {ttcore.argument_type = #ttcore.argument_type<parameter>, ttcore.shard_status = #ttcore.shard_status<presharded>, ttir.name = "l__self___model_layers__modules__36___self_attn_o_proj_weight"} loc("p481.14460"), %arg482: tensor<5120x5120xbf16> {ttcore.argument_type = #ttcore.argument_type<parameter>, ttcore.shard_status = #ttcore.shard_status<presharded>, ttir.name = "l__self___model_layers__modules__36___self_attn_q_proj_weight"} loc("p482.14501"), %arg483: tensor<128xbf16> {ttcore.argument_type = #ttcore.argument_type<parameter>, ttcore.shard_status = #ttcore.shard_status<presharded>, ttir.name = "l__self___model_layers__modules__36___self_attn_q_norm_weight"} loc("p483.14539"), %arg484: tensor<5120xbf16> {ttcore.argument_type = #ttcore.argument_type<parameter>, ttcore.shard_status = #ttcore.shard_status<presharded>, ttir.name = "l__self___model_layers__modules__36___post_attention_layernorm_weight"} loc("p484.14662"), %arg485: tensor<17408x5120xbf16> {ttcore.argument_type = #ttcore.argument_type<parameter>, ttcore.shard_status = #ttcore.shard_status<presharded>, ttir.name = "l__self___model_layers__modules__36___mlp_gate_proj_weight"} loc("p485.14671"), %arg486: tensor<5120xbf16> {ttcore.argument_type = #ttcore.argument_type<parameter>, ttcore.shard_status = #ttcore.shard_status<presharded>, ttir.name = "l__self___model_layers__modules__37___input_layernorm_weight"} loc("p486.14717"), %arg487: tensor<128xbf16> {ttcore.argument_type = #ttcore.argument_type<parameter>, ttcore.shard_status = #ttcore.shard_status<presharded>, ttir.name = "l__self___model_layers__modules__37___self_attn_k_norm_weight"} loc("p487.14756"), %arg488: tensor<32x8x128x128xbf16> {ttcore.argument_type = #ttcore.argument_type<input>, ttcore.shard_status = #ttcore.shard_status<presharded>, ttir.name = "args_76"} loc("p488.14789"), %arg489: tensor<1024x5120xbf16> {ttcore.argument_type = #ttcore.argument_type<parameter>, ttcore.shard_status = #ttcore.shard_status<presharded>, ttir.name = "l__self___model_layers__modules__37___self_attn_v_proj_weight"} loc("p489.14797"), %arg490: tensor<32x8x128x128xbf16> {ttcore.argument_type = #ttcore.argument_type<input>, ttcore.shard_status = #ttcore.shard_status<presharded>, ttir.name = "args_77"} loc("p490.14819"), %arg491: tensor<1024x5120xbf16> {ttcore.argument_type = #ttcore.argument_type<parameter>, ttcore.shard_status = #ttcore.shard_status<presharded>, ttir.name = "l__self___model_layers__modules__38___self_attn_k_proj_weight"} loc("p491.14832"), %arg492: tensor<5120x17408xbf16> {ttcore.argument_type = #ttcore.argument_type<parameter>, ttcore.shard_status = #ttcore.shard_status<presharded>, ttir.name = "l__self___model_layers__modules__37___mlp_down_proj_weight"} loc("p492.14841"), %arg493: tensor<17408x5120xbf16> {ttcore.argument_type = #ttcore.argument_type<parameter>, ttcore.shard_status = #ttcore.shard_status<presharded>, ttir.name = "l__self___model_layers__modules__37___mlp_up_proj_weight"} loc("p493.14846"), %arg494: tensor<5120x5120xbf16> {ttcore.argument_type = #ttcore.argument_type<parameter>, ttcore.shard_status = #ttcore.shard_status<presharded>, ttir.name = "l__self___model_layers__modules__37___self_attn_o_proj_weight"} loc("p494.14855"), %arg495: tensor<5120x5120xbf16> {ttcore.argument_type = #ttcore.argument_type<parameter>, ttcore.shard_status = #ttcore.shard_status<presharded>, ttir.name = "l__self___model_layers__modules__37___self_attn_q_proj_weight"} loc("p495.14896"), %arg496: tensor<128xbf16> {ttcore.argument_type = #ttcore.argument_type<parameter>, ttcore.shard_status = #ttcore.shard_status<presharded>, ttir.name = "l__self___model_layers__modules__37___self_attn_q_norm_weight"} loc("p496.14934"), %arg497: tensor<5120xbf16> {ttcore.argument_type = #ttcore.argument_type<parameter>, ttcore.shard_status = #ttcore.shard_status<presharded>, ttir.name = "l__self___model_layers__modules__37___post_attention_layernorm_weight"} loc("p497.15057"), %arg498: tensor<17408x5120xbf16> {ttcore.argument_type = #ttcore.argument_type<parameter>, ttcore.shard_status = #ttcore.shard_status<presharded>, ttir.name = "l__self___model_layers__modules__37___mlp_gate_proj_weight"} loc("p498.15066"), %arg499: tensor<5120xbf16> {ttcore.argument_type = #ttcore.argument_type<parameter>, ttcore.shard_status = #ttcore.shard_status<presharded>, ttir.name = "l__self___model_layers__modules__38___input_layernorm_weight"} loc("p499.15112"), %arg500: tensor<128xbf16> {ttcore.argument_type = #ttcore.argument_type<parameter>, ttcore.shard_status = #ttcore.shard_status<presharded>, ttir.name = "l__self___model_layers__modules__38___self_attn_k_norm_weight"} loc("p500.15151"), %arg501: tensor<32x8x128x128xbf16> {ttcore.argument_type = #ttcore.argument_type<input>, ttcore.shard_status = #ttcore.shard_status<presharded>, ttir.name = "args_78"} loc("p501.15184"), %arg502: tensor<1024x5120xbf16> {ttcore.argument_type = #ttcore.argument_type<parameter>, ttcore.shard_status = #ttcore.shard_status<presharded>, ttir.name = "l__self___model_layers__modules__38___self_attn_v_proj_weight"} loc("p502.15192"), %arg503: tensor<32x8x128x128xbf16> {ttcore.argument_type = #ttcore.argument_type<input>, ttcore.shard_status = #ttcore.shard_status<presharded>, ttir.name = "args_79"} loc("p503.15214"), %arg504: tensor<1024x5120xbf16> {ttcore.argument_type = #ttcore.argument_type<parameter>, ttcore.shard_status = #ttcore.shard_status<presharded>, ttir.name = "l__self___model_layers__modules__39___self_attn_k_proj_weight"} loc("p504.15227"), %arg505: tensor<5120x17408xbf16> {ttcore.argument_type = #ttcore.argument_type<parameter>, ttcore.shard_status = #ttcore.shard_status<presharded>, ttir.name = "l__self___model_layers__modules__38___mlp_down_proj_weight"} loc("p505.15236"), %arg506: tensor<17408x5120xbf16> {ttcore.argument_type = #ttcore.argument_type<parameter>, ttcore.shard_status = #ttcore.shard_status<presharded>, ttir.name = "l__self___model_layers__modules__38___mlp_up_proj_weight"} loc("p506.15241"), %arg507: tensor<5120x5120xbf16> {ttcore.argument_type = #ttcore.argument_type<parameter>, ttcore.shard_status = #ttcore.shard_status<presharded>, ttir.name = "l__self___model_layers__modules__38___self_attn_o_proj_weight"} loc("p507.15250"), %arg508: tensor<5120x5120xbf16> {ttcore.argument_type = #ttcore.argument_type<parameter>, ttcore.shard_status = #ttcore.shard_status<presharded>, ttir.name = "l__self___model_layers__modules__38___self_attn_q_proj_weight"} loc("p508.15291"), %arg509: tensor<128xbf16> {ttcore.argument_type = #ttcore.argument_type<parameter>, ttcore.shard_status = #ttcore.shard_status<presharded>, ttir.name = "l__self___model_layers__modules__38___self_attn_q_norm_weight"} loc("p509.15329"), %arg510: tensor<5120xbf16> {ttcore.argument_type = #ttcore.argument_type<parameter>, ttcore.shard_status = #ttcore.shard_status<presharded>, ttir.name = "l__self___model_layers__modules__38___post_attention_layernorm_weight"} loc("p510.15452"), %arg511: tensor<17408x5120xbf16> {ttcore.argument_type = #ttcore.argument_type<parameter>, ttcore.shard_status = #ttcore.shard_status<presharded>, ttir.name = "l__self___model_layers__modules__38___mlp_gate_proj_weight"} loc("p511.15461"), %arg512: tensor<5120xbf16> {ttcore.argument_type = #ttcore.argument_type<parameter>, ttcore.shard_status = #ttcore.shard_status<presharded>, ttir.name = "l__self___model_layers__modules__39___input_layernorm_weight"} loc("p512.15507"), %arg513: tensor<128xbf16> {ttcore.argument_type = #ttcore.argument_type<parameter>, ttcore.shard_status = #ttcore.shard_status<presharded>, ttir.name = "l__self___model_layers__modules__39___self_attn_k_norm_weight"} loc("p513.15546"), %arg514: tensor<32x8x128x128xbf16> {ttcore.argument_type = #ttcore.argument_type<input>, ttcore.shard_status = #ttcore.shard_status<presharded>, ttir.name = "args_80"} loc("p514.15579"), %arg515: tensor<1024x5120xbf16> {ttcore.argument_type = #ttcore.argument_type<parameter>, ttcore.shard_status = #ttcore.shard_status<presharded>, ttir.name = "l__self___model_layers__modules__39___self_attn_v_proj_weight"} loc("p515.15587"), %arg516: tensor<32x8x128x128xbf16> {ttcore.argument_type = #ttcore.argument_type<input>, ttcore.shard_status = #ttcore.shard_status<presharded>, ttir.name = "args_81"} loc("p516.15609"), %arg517: tensor<151936x5120xbf16> {ttcore.argument_type = #ttcore.argument_type<parameter>, ttcore.shard_status = #ttcore.shard_status<presharded>, ttir.name = "l__self___lm_head_weight"} loc("p517.15617"), %arg518: tensor<5120x17408xbf16> {ttcore.argument_type = #ttcore.argument_type<parameter>, ttcore.shard_status = #ttcore.shard_status<presharded>, ttir.name = "l__self___model_layers__modules__39___mlp_down_proj_weight"} loc("p518.15626"), %arg519: tensor<17408x5120xbf16> {ttcore.argument_type = #ttcore.argument_type<parameter>, ttcore.shard_status = #ttcore.shard_status<presharded>, ttir.name = "l__self___model_layers__modules__39___mlp_up_proj_weight"} loc("p519.15631"), %arg520: tensor<5120x5120xbf16> {ttcore.argument_type = #ttcore.argument_type<parameter>, ttcore.shard_status = #ttcore.shard_status<presharded>, ttir.name = "l__self___model_layers__modules__39___self_attn_o_proj_weight"} loc("p520.15640"), %arg521: tensor<5120x5120xbf16> {ttcore.argument_type = #ttcore.argument_type<parameter>, ttcore.shard_status = #ttcore.shard_status<presharded>, ttir.name = "l__self___model_layers__modules__39___self_attn_q_proj_weight"} loc("p521.15681"), %arg522: tensor<128xbf16> {ttcore.argument_type = #ttcore.argument_type<parameter>, ttcore.shard_status = #ttcore.shard_status<presharded>, ttir.name = "l__self___model_layers__modules__39___self_attn_q_norm_weight"} loc("p522.15719"), %arg523: tensor<5120xbf16> {ttcore.argument_type = #ttcore.argument_type<parameter>, ttcore.shard_status = #ttcore.shard_status<presharded>, ttir.name = "l__self___model_layers__modules__39___post_attention_layernorm_weight"} loc("p523.15842"), %arg524: tensor<17408x5120xbf16> {ttcore.argument_type = #ttcore.argument_type<parameter>, ttcore.shard_status = #ttcore.shard_status<presharded>, ttir.name = "l__self___model_layers__modules__39___mlp_gate_proj_weight"} loc("p524.15851"), %arg525: tensor<5120xbf16> {ttcore.argument_type = #ttcore.argument_type<parameter>, ttcore.shard_status = #ttcore.shard_status<presharded>, ttir.name = "l__self___model_norm_weight"} loc("p525.15897")) -> (tensor<32x8x128x128xbf16> {ttcore.shard_status = #ttcore.shard_status<unsharded>}, tensor<32x8x128x128xbf16> {ttcore.shard_status = #ttcore.shard_status<unsharded>}, tensor<32x8x128x128xbf16> {ttcore.shard_status = #ttcore.shard_status<unsharded>}, tensor<32x8x128x128xbf16> {ttcore.shard_status = #ttcore.shard_status<unsharded>}, tensor<32x8x128x128xbf16> {ttcore.shard_status = #ttcore.shard_status<unsharded>}, tensor<32x8x128x128xbf16> {ttcore.shard_status = #ttcore.shard_status<unsharded>}, tensor<32x8x128x128xbf16> {ttcore.shard_status = #ttcore.shard_status<unsharded>}, tensor<32x8x128x128xbf16> {ttcore.shard_status = #ttcore.shard_status<unsharded>}, tensor<32x8x128x128xbf16> {ttcore.shard_status = #ttcore.shard_status<unsharded>}, tensor<32x8x128x128xbf16> {ttcore.shard_status = #ttcore.shard_status<unsharded>}, tensor<32x8x128x128xbf16> {ttcore.shard_status = #ttcore.shard_status<unsharded>}, tensor<32x8x128x128xbf16> {ttcore.shard_status = #ttcore.shard_status<unsharded>}, tensor<32x8x128x128xbf16> {ttcore.shard_status = #ttcore.shard_status<unsharded>}, tensor<32x8x128x128xbf16> {ttcore.shard_status = #ttcore.shard_status<unsharded>}, tensor<32x8x128x128xbf16> {ttcore.shard_status = #ttcore.shard_status<unsharded>}, tensor<32x8x128x128xbf16> {ttcore.shard_status = #ttcore.shard_status<unsharded>}, tensor<32x8x128x128xbf16> {ttcore.shard_status = #ttcore.shard_status<unsharded>}, tensor<32x8x128x128xbf16> {ttcore.shard_status = #ttcore.shard_status<unsharded>}, tensor<32x8x128x128xbf16> {ttcore.shard_status = #ttcore.shard_status<unsharded>}, tensor<32x8x128x128xbf16> {ttcore.shard_status = #ttcore.shard_status<unsharded>}, tensor<32x8x128x128xbf16> {ttcore.shard_status = #ttcore.shard_status<unsharded>}, tensor<32x8x128x128xbf16> {ttcore.shard_status = #ttcore.shard_status<unsharded>}, tensor<32x8x128x128xbf16> {ttcore.shard_status = #ttcore.shard_status<unsharded>}, tensor<32x8x128x128xbf16> {ttcore.shard_status = #ttcore.shard_status<unsharded>}, tensor<32x8x128x128xbf16> {ttcore.shard_status = #ttcore.shard_status<unsharded>}, tensor<32x8x128x128xbf16> {ttcore.shard_status = #ttcore.shard_status<unsharded>}, tensor<32x8x128x128xbf16> {ttcore.shard_status = #ttcore.shard_status<unsharded>}, tensor<32x8x128x128xbf16> {ttcore.shard_status = #ttcore.shard_status<unsharded>}, tensor<32x8x128x128xbf16> {ttcore.shard_status = #ttcore.shard_status<unsharded>}, tensor<32x8x128x128xbf16> {ttcore.shard_status = #ttcore.shard_status<unsharded>}, tensor<32x8x128x128xbf16> {ttcore.shard_status = #ttcore.shard_status<unsharded>}, tensor<32x8x128x128xbf16> {ttcore.shard_status = #ttcore.shard_status<unsharded>}, tensor<32x8x128x128xbf16> {ttcore.shard_status = #ttcore.shard_status<unsharded>}, tensor<32x8x128x128xbf16> {ttcore.shard_status = #ttcore.shard_status<unsharded>}, tensor<32x8x128x128xbf16> {ttcore.shard_status = #ttcore.shard_status<unsharded>}, tensor<32x8x128x128xbf16> {ttcore.shard_status = #ttcore.shard_status<unsharded>}, tensor<32x8x128x128xbf16> {ttcore.shard_status = #ttcore.shard_status<unsharded>}, tensor<32x8x128x128xbf16> {ttcore.shard_status = #ttcore.shard_status<unsharded>}, tensor<32x8x128x128xbf16> {ttcore.shard_status = #ttcore.shard_status<unsharded>}, tensor<32x8x128x128xbf16> {ttcore.shard_status = #ttcore.shard_status<unsharded>}, tensor<32x8x128x128xbf16> {ttcore.shard_status = #ttcore.shard_status<unsharded>}, tensor<32x8x128x128xbf16> {ttcore.shard_status = #ttcore.shard_status<unsharded>}, tensor<32x8x128x128xbf16> {ttcore.shard_status = #ttcore.shard_status<unsharded>}, tensor<32x8x128x128xbf16> {ttcore.shard_status = #ttcore.shard_status<unsharded>}, tensor<32x8x128x128xbf16> {ttcore.shard_status = #ttcore.shard_status<unsharded>}, tensor<32x8x128x128xbf16> {ttcore.shard_status = #ttcore.shard_status<unsharded>}, tensor<32x8x128x128xbf16> {ttcore.shard_status = #ttcore.shard_status<unsharded>}, tensor<32x8x128x128xbf16> {ttcore.shard_status = #ttcore.shard_status<unsharded>}, tensor<32x8x128x128xbf16> {ttcore.shard_status = #ttcore.shard_status<unsharded>}, tensor<32x8x128x128xbf16> {ttcore.shard_status = #ttcore.shard_status<unsharded>}, tensor<32x8x128x128xbf16> {ttcore.shard_status = #ttcore.shard_status<unsharded>}, tensor<32x8x128x128xbf16> {ttcore.shard_status = #ttcore.shard_status<unsharded>}, tensor<32x8x128x128xbf16> {ttcore.shard_status = #ttcore.shard_status<unsharded>}, tensor<32x8x128x128xbf16> {ttcore.shard_status = #ttcore.shard_status<unsharded>}, tensor<32x8x128x128xbf16> {ttcore.shard_status = #ttcore.shard_status<unsharded>}, tensor<32x8x128x128xbf16> {ttcore.shard_status = #ttcore.shard_status<unsharded>}, tensor<32x8x128x128xbf16> {ttcore.shard_status = #ttcore.shard_status<unsharded>}, tensor<32x8x128x128xbf16> {ttcore.shard_status = #ttcore.shard_status<unsharded>}, tensor<32x8x128x128xbf16> {ttcore.shard_status = #ttcore.shard_status<unsharded>}, tensor<32x8x128x128xbf16> {ttcore.shard_status = #ttcore.shard_status<unsharded>}, tensor<32x8x128x128xbf16> {ttcore.shard_status = #ttcore.shard_status<unsharded>}, tensor<32x8x128x128xbf16> {ttcore.shard_status = #ttcore.shard_status<unsharded>}, tensor<32x8x128x128xbf16> {ttcore.shard_status = #ttcore.shard_status<unsharded>}, tensor<32x8x128x128xbf16> {ttcore.shard_status = #ttcore.shard_status<unsharded>}, tensor<32x8x128x128xbf16> {ttcore.shard_status = #ttcore.shard_status<unsharded>}, tensor<32x8x128x128xbf16> {ttcore.shard_status = #ttcore.shard_status<unsharded>}, tensor<32x8x128x128xbf16> {ttcore.shard_status = #ttcore.shard_status<unsharded>}, tensor<32x8x128x128xbf16> {ttcore.shard_status = #ttcore.shard_status<unsharded>}, tensor<32x8x128x128xbf16> {ttcore.shard_status = #ttcore.shard_status<unsharded>}, tensor<32x8x128x128xbf16> {ttcore.shard_status = #ttcore.shard_status<unsharded>}, tensor<32x8x128x128xbf16> {ttcore.shard_status = #ttcore.shard_status<unsharded>}, tensor<32x8x128x128xbf16> {ttcore.shard_status = #ttcore.shard_status<unsharded>}, tensor<32x8x128x128xbf16> {ttcore.shard_status = #ttcore.shard_status<unsharded>}, tensor<32x8x128x128xbf16> {ttcore.shard_status = #ttcore.shard_status<unsharded>}, tensor<32x8x128x128xbf16> {ttcore.shard_status = #ttcore.shard_status<unsharded>}, tensor<32x8x128x128xbf16> {ttcore.shard_status = #ttcore.shard_status<unsharded>}, tensor<32x8x128x128xbf16> {ttcore.shard_status = #ttcore.shard_status<unsharded>}, tensor<32x8x128x128xbf16> {ttcore.shard_status = #ttcore.shard_status<unsharded>}, tensor<32x8x128x128xbf16> {ttcore.shard_status = #ttcore.shard_status<unsharded>}, tensor<32x8x128x128xbf16> {ttcore.shard_status = #ttcore.shard_status<unsharded>}, tensor<32x17x151936xbf16> {ttcore.shard_status = #ttcore.shard_status<unsharded>}) {
    %0:81 = sdy.manual_computation(%arg0, %arg1, %arg2, %arg3, %arg4, %arg5, %arg6, %arg7, %arg8, %arg9, %arg10, %arg11, %arg12, %arg13, %arg14, %arg15, %arg16, %arg17, %arg18, %arg19, %arg20, %arg21, %arg22, %arg23, %arg24, %arg25, %arg26, %arg27, %arg28, %arg29, %arg30, %arg31, %arg32, %arg33, %arg34, %arg35, %arg36, %arg37, %arg38, %arg39, %arg40, %arg41, %arg42, %arg43, %arg44, %arg45, %arg46, %arg47, %arg48, %arg49, %arg50, %arg51, %arg52, %arg53, %arg54, %arg55, %arg56, %arg57, %arg58, %arg59, %arg60, %arg61, %arg62, %arg63, %arg64, %arg65, %arg66, %arg67, %arg68, %arg69, %arg70, %arg71, %arg72, %arg73, %arg74, %arg75, %arg76, %arg77, %arg78, %arg79, %arg80, %arg81, %arg82, %arg83, %arg84, %arg85, %arg86, %arg87, %arg88, %arg89, %arg90, %arg91, %arg92, %arg93, %arg94, %arg95, %arg96, %arg97, %arg98, %arg99, %arg100, %arg101, %arg102, %arg103, %arg104, %arg105, %arg106, %arg107, %arg108, %arg109, %arg110, %arg111, %arg112, %arg113, %arg114, %arg115, %arg116, %arg117, %arg118, %arg119, %arg120, %arg121, %arg122, %arg123, %arg124, %arg125, %arg126, %arg127, %arg128, %arg129, %arg130, %arg131, %arg132, %arg133, %arg134, %arg135, %arg136, %arg137, %arg138, %arg139, %arg140, %arg141, %arg142, %arg143, %arg144, %arg145, %arg146, %arg147, %arg148, %arg149, %arg150, %arg151, %arg152, %arg153, %arg154, %arg155, %arg156, %arg157, %arg158, %arg159, %arg160, %arg161, %arg162, %arg163, %arg164, %arg165, %arg166, %arg167, %arg168, %arg169, %arg170, %arg171, %arg172, %arg173, %arg174, %arg175, %arg176, %arg177, %arg178, %arg179, %arg180, %arg181, %arg182, %arg183, %arg184, %arg185, %arg186, %arg187, %arg188, %arg189, %arg190, %arg191, %arg192, %arg193, %arg194, %arg195, %arg196, %arg197, %arg198, %arg199, %arg200, %arg201, %arg202, %arg203, %arg204, %arg205, %arg206, %arg207, %arg208, %arg209, %arg210, %arg211, %arg212, %arg213, %arg214, %arg215, %arg216, %arg217, %arg218, %arg219, %arg220, %arg221, %arg222, %arg223, %arg224, %arg225, %arg226, %arg227, %arg228, …
#loc5205 = loc("convert.11705")
#loc5206 = loc("dot.11857")
#loc5207 = loc("convert.11859")
#loc5208 = loc("transpose.11860")
#loc5209 = loc("reshape.11862")
#loc5210 = loc("reshape.11696")
#loc5211 = loc("reshape.11698")
#loc5212 = loc("transpose.11699")
#loc5214 = loc("reshape.11864")
#loc5215 = loc("add.11867")
#loc5216 = loc("reshape.11898")
#loc5217 = loc("reshape.11900")
#loc5218 = loc("broadcast.11901")
#loc5219 = loc("convert.11868")
#loc5220 = loc("power.11870")
#loc5221 = loc("reduce.11877")
#loc5222 = loc("multiply.11886")
#loc5223 = loc("reshape.11887")
#loc5224 = loc("add.11891")
#loc5225 = loc("rsqrt.11892")
#loc5226 = loc("reshape.11893")
#loc5227 = loc("broadcast.11894")
#loc5228 = loc("multiply.11895")
#loc5229 = loc("convert.11896")
#loc5230 = loc("multiply.11902")
#loc5231 = loc("reshape.11911")
#loc5232 = loc("reshape.11907")
#loc5233 = loc("reshape.11909")
#loc5234 = loc("transpose.11910")
#loc5235 = loc("dot.11912")
#loc5236 = loc("reshape.11913")
#loc5237 = loc("logistic.11914")
#loc5238 = loc("multiply.11915")
#loc5239 = loc("reshape.11687")
#loc5240 = loc("reshape.11689")
#loc5241 = loc("transpose.11690")
#loc5242 = loc("dot.11904")
#loc5243 = loc("reshape.11905")
#loc5244 = loc("multiply.11916")
#loc5245 = loc("reshape.11917")
#loc5246 = loc("reshape.11682")
#loc5247 = loc("reshape.11684")
#loc5248 = loc("transpose.11685")
#loc5250 = loc("reshape.11919")
#loc5251 = loc("add.11922")
#loc5252 = loc("convert.11923")
#loc5253 = loc("power.11925")
#loc5254 = loc("reduce.11932")
#loc5255 = loc("multiply.11941")
#loc5256 = loc("reshape.11942")
#loc5257 = loc("add.11946")
#loc5258 = loc("rsqrt.11947")
#loc5259 = loc("reshape.11948")
#loc5260 = loc("broadcast.11949")
#loc5261 = loc("multiply.11950")
#loc5262 = loc("convert.11951")
#loc5263 = loc("multiply.11957")
#loc5264 = loc("reshape.11958")
#loc5265 = loc("reshape.11673")
#loc5266 = loc("reshape.11675")
#loc5267 = loc("transpose.11676")
#loc5268 = loc("dot.11959")
#loc5269 = loc("reshape.11961")
#loc5270 = loc("convert.11962")
#loc5271 = loc("power.11964")
#loc5272 = loc("reduce.11971")
#loc5273 = loc("multiply.11980")
#loc5274 = loc("reshape.11981")
#loc5275 = loc("add.11985")
#loc5276 = loc("rsqrt.11986")
#loc5277 = loc("reshape.11987")
#loc5278 = loc("broadcast.11988")
#loc5279 = loc("multiply.11989")
#loc5280 = loc("convert.11990")
#loc5281 = loc("multiply.11996")
#loc5282 = loc("transpose.11997")
#loc5283 = loc("multiply.12008")
#loc5284 = loc("slice.11999")
#loc5285 = loc("negate.12000")
#loc5286 = loc("slice.11998")
#loc5287 = loc("concatenate.12001")
#loc5288 = loc("multiply.12004")
#loc5289 = loc("add.12011")
#loc5291 = loc("reshape.12033")
#loc5292 = loc("reshape.12035")
#loc5293 = loc("transpose.12036")
#loc5294 = loc("dot.12038")
#loc5295 = loc("reshape.12040")
#loc5296 = loc("transpose.12041")
#loc5298 = loc("reshape.12387")
#loc5299 = loc("reshape.12389")
#loc5300 = loc("broadcast.12390")
#loc5301 = loc("reshape.12348")
#loc5302 = loc("reshape.12350")
#loc5303 = loc("broadcast.12351")
#loc5304 = loc("reshape.12170")
#loc5305 = loc("reshape.12172")
#loc5306 = loc("broadcast.12173")
#loc5307 = loc("reshape.12132")
#loc5308 = loc("reshape.12134")
#loc5309 = loc("transpose.12135")
#loc5310 = loc("dot.12137")
#loc5311 = loc("reshape.12139")
#loc5312 = loc("convert.12140")
#loc5313 = loc("power.12142")
#loc5314 = loc("reduce.12149")
#loc5315 = loc("multiply.12158")
#loc5316 = loc("reshape.12159")
#loc5317 = loc("add.12163")
#loc5318 = loc("rsqrt.12164")
#loc5319 = loc("reshape.12165")
#loc5320 = loc("broadcast.12166")
#loc5321 = loc("multiply.12167")
#loc5322 = loc("convert.12168")
#loc5323 = loc("multiply.12174")
#loc5324 = loc("transpose.12175")
#loc5325 = loc("multiply.12185")
#loc5326 = loc("slice.12177")
#loc5327 = loc("negate.12178")
#loc5328 = loc("slice.12176")
#loc5329 = loc("concatenate.12179")
#loc5330 = loc("multiply.12182")
#loc5331 = loc("add.12188")
#loc5332 = loc("convert.12189")
#loc5333 = loc("multiply.12191")
#loc5334 = loc("broadcast.12120")
#loc5335 = loc("reshape.12121")
#loc5336 = loc("convert.12122")
#loc5337 = loc("transpose.12123")
#loc5338 = loc("multiply.12125")
#loc5339 = loc("dot.12192")
#loc5340 = loc("add.12199")
#loc5341 = loc("convert.12225")
#loc5342 = loc("compare.12227")
#loc5343 = loc("not.12229")
#loc5345 = loc("or.12239")
#loc5346 = loc("select.12240")
#loc5347 = loc("reshape.12245")
#loc5348 = loc("not.12247")
#loc5349 = loc("reshape.12249")
#loc5350 = loc("broadcast.12250")
#loc5351 = loc("reduce.12205")
#loc5352 = loc("broadcast.12206")
#loc5353 = loc("subtract.12207")
#loc5354 = loc("exponential.12208")
#loc5355 = loc("reduce.12214")
#loc5356 = loc("broadcast.12215")
#loc5357 = loc("divide.12216")
#loc5358 = loc("select.12251")
#loc5359 = loc("broadcast.12098")
#loc5360 = loc("reshape.12099")
#loc5361 = loc("convert.12100")
#loc5362 = loc("dot.12252")
#loc5363 = loc("convert.12254")
#loc5364 = loc("transpose.12255")
#loc5365 = loc("reshape.12257")
#loc5366 = loc("reshape.12091")
#loc5367 = loc("reshape.12093")
#loc5368 = loc("transpose.12094")
#loc5370 = loc("reshape.12259")
#loc5371 = loc("add.12262")
#loc5372 = loc("reshape.12293")
#loc5373 = loc("reshape.12295")
#loc5374 = loc("broadcast.12296")
#loc5375 = loc("convert.12263")
#loc5376 = loc("power.12265")
#loc5377 = loc("reduce.12272")
#loc5378 = loc("multiply.12281")
#loc5379 = loc("reshape.12282")
#loc5380 = loc("add.12286")
#loc5381 = loc("rsqrt.12287")
#loc5382 = loc("reshape.12288")
#loc5383 = loc("broadcast.12289")
#loc5384 = loc("multiply.12290")
#loc5385 = loc("convert.12291")
#loc5386 = loc("multiply.12297")
#loc5387 = loc("reshape.12306")
#loc5388 = loc("reshape.12302")
#loc5389 = loc("reshape.12304")
#loc5390 = loc("transpose.12305")
#loc5391 = loc("dot.12307")
#loc5392 = loc("reshape.12308")
#loc5393 = loc("logistic.12309")
#loc5394 = loc("multiply.12310")
#loc5395 = loc("reshape.12082")
#loc5396 = loc("reshape.12084")
#loc5397 = loc("transpose.12085")
#loc5398 = loc("dot.12299")
#loc5399 = loc("reshape.12300")
#loc5400 = loc("multiply.12311")
#loc5401 = loc("reshape.12312")
#loc5402 = loc("reshape.12077")
#loc5403 = loc("reshape.12079")
#loc5404 = loc("transpose.12080")
#loc5406 = loc("reshape.12314")
#loc5407 = loc("add.12317")
#loc5408 = loc("convert.12318")
#loc5409 = loc("power.12320")
#loc5410 = loc("reduce.12327")
#loc5411 = loc("multiply.12336")
#loc5412 = loc("reshape.12337")
#loc5413 = loc("add.12341")
#loc5414 = loc("rsqrt.12342")
#loc5415 = loc("reshape.12343")
#loc5416 = loc("broadcast.12344")
#loc5417 = loc("multiply.12345")
#loc5418 = loc("convert.12346")
#loc5419 = loc("multiply.12352")
#loc5420 = loc("reshape.12353")
#loc5421 = loc("reshape.12068")
#loc5422 = loc("reshape.12070")
#loc5423 = loc("transpose.12071")
#loc5424 = loc("dot.12354")
#loc5425 = loc("reshape.12356")
#loc5426 = loc("convert.12357")
#loc5427 = loc("power.12359")
#loc5428 = loc("reduce.12366")
#loc5429 = loc("multiply.12375")
#loc5430 = loc("reshape.12376")
#loc5431 = loc("add.12380")
#loc5432 = loc("rsqrt.12381")
#loc5433 = loc("reshape.12382")
#loc5434 = loc("broadcast.12383")
#loc5435 = loc("multiply.12384")
#loc5436 = loc("convert.12385")
#loc5437 = loc("multiply.12391")
#loc5438 = loc("transpose.12392")
#loc5439 = loc("multiply.12403")
#loc5440 = loc("slice.12394")
#loc5441 = loc("negate.12395")
#loc5442 = loc("slice.12393")
#loc5443 = loc("concatenate.12396")
#loc5444 = loc("multiply.12399")
#loc5445 = loc("add.12406")
#loc5447 = loc("reshape.12428")
#loc5448 = loc("reshape.12430")
#loc5449 = loc("transpose.12431")
#loc5450 = loc("dot.12433")
#loc5451 = loc("reshape.12435")
#loc5452 = loc("transpose.12436")
#loc5454 = loc("reshape.12782")
#loc5455 = loc("reshape.12784")
#loc5456 = loc("broadcast.12785")
#loc5457 = loc("reshape.12743")
#loc5458 = loc("reshape.12745")
#loc5459 = loc("broadcast.12746")
#loc5460 = loc("reshape.12565")
#loc5461 = loc("reshape.12567")
#loc5462 = loc("broadcast.12568")
#loc5463 = loc("reshape.12527")
#loc5464 = loc("reshape.12529")
#loc5465 = loc("transpose.12530")
#loc5466 = loc("dot.12532")
#loc5467 = loc("reshape.12534")
#loc5468 = loc("convert.12535")
#loc5469 = loc("power.12537")
#loc5470 = loc("reduce.12544")
#loc5471 = loc("multiply.12553")
#loc5472 = loc("reshape.12554")
#loc5473 = loc("add.12558")
#loc5474 = loc("rsqrt.12559")
#loc5475 = loc("reshape.12560")
#loc5476 = loc("broadcast.12561")
#loc5477 = loc("multiply.12562")
#loc5478 = loc("convert.12563")
#loc5479 = loc("multiply.12569")
#loc5480 = loc("transpose.12570")
#loc5481 = loc("multiply.12580")
#loc5482 = loc("slice.12572")
#loc5483 = loc("negate.12573")
#loc5484 = loc("slice.12571")
#loc5485 = loc("concatenate.12574")
#loc5486 = loc("multiply.12577")
#loc5487 = loc("add.12583")
#loc5488 = loc("convert.12584")
#loc5489 = loc("multiply.12586")
#loc5490 = loc("broadcast.12515")
#loc5491 = loc("reshape.12516")
#loc5492 = loc("convert.12517")
#loc5493 = loc("transpose.12518")
#loc5494 = loc("multiply.12520")
#loc5495 = loc("dot.12587")
#loc5496 = loc("add.12594")
#loc5497 = loc("convert.12620")
#loc5498 = loc("compare.12622")
#loc5499 = loc("not.12624")
#loc5501 = loc("or.12634")
#loc5502 = loc("select.12635")
#loc5503 = loc("reshape.12640")
#loc5504 = loc("not.12642")
#loc5505 = loc("reshape.12644")
#loc5506 = loc("broadcast.12645")
#loc5507 = loc("reduce.12600")
#loc5508 = loc("broadcast.12601")
#loc5509 = loc("subtract.12602")
#loc5510 = loc("exponential.12603")
#loc5511 = loc("reduce.12609")
#loc5512 = loc("broadcast.12610")
#loc5513 = loc("divide.12611")
#loc5514 = loc("select.12646")
#loc5515 = loc("broadcast.12493")
#loc5516 = loc("reshape.12494")
#loc5517 = loc("convert.12495")
#loc5518 = loc("dot.12647")
#loc5519 = loc("convert.12649")
#loc5520 = loc("transpose.12650")
#loc5521 = loc("reshape.12652")
#loc5522 = loc("reshape.12486")
#loc5523 = loc("reshape.12488")
#loc5524 = loc("transpose.12489")
#loc5526 = loc("reshape.12654")
#loc5527 = loc("add.12657")
#loc5528 = loc("reshape.12688")
#loc5529 = loc("reshape.12690")
#loc5530 = loc("broadcast.12691")
#loc5531 = loc("convert.12658")
#loc5532 = loc("power.12660")
#loc5533 = loc("reduce.12667")
#loc5534 = loc("multiply.12676")
#loc5535 = loc("reshape.12677")
#loc5536 = loc("add.12681")
#loc5537 = loc("rsqrt.12682")
#loc5538 = loc("reshape.12683")
#loc5539 = loc("broadcast.12684")
#loc5540 = loc("multiply.12685")
#loc5541 = loc("convert.12686")
#loc5542 = loc("multiply.12692")
#loc5543 = loc("reshape.12701")
#loc5544 = loc("reshape.12697")
#loc5545 = loc("reshape.12699")
#loc5546 = loc("transpose.12700")
#loc5547 = loc("dot.12702")
#loc5548 = loc("reshape.12703")
#loc5549 = loc("logistic.12704")
#loc5550 = loc("multiply.12705")
#loc5551 = loc("reshape.12477")
#loc5552 = loc("reshape.12479")
#loc5553 = loc("transpose.12480")
#loc5554 = loc("dot.12694")
#loc5555 = loc("reshape.12695")
#loc5556 = loc("multiply.12706")
#loc5557 = loc("reshape.12707")
#loc5558 = loc("reshape.12472")
#loc5559 = loc("reshape.12474")
#loc5560 = loc("transpose.12475")
#loc5562 = loc("reshape.12709")
#loc5563 = loc("add.12712")
#loc5564 = loc("convert.12713")
#loc5565 = loc("power.12715")
#loc5566 = loc("reduce.12722")
#loc5567 = loc("multiply.12731")
#loc5568 = loc("reshape.12732")
#loc5569 = loc("add.12736")
#loc5570 = loc("rsqrt.12737")
#loc5571 = loc("reshape.12738")
#loc5572 = loc("broadcast.12739")
#loc5573 = loc("multiply.12740")
#loc5574 = loc("convert.12741")
#loc5575 = loc("multiply.12747")
#loc5576 = loc("reshape.12748")
#loc5577 = loc("reshape.12463")
#loc5578 = loc("reshape.12465")
#loc5579 = loc("transpose.12466")
#loc5580 = loc("dot.12749")
#loc5581 = loc("reshape.12751")
#loc5582 = loc("convert.12752")
#loc5583 = loc("power.12754")
#loc5584 = loc("reduce.12761")
#loc5585 = loc("multiply.12770")
#loc5586 = loc("reshape.12771")
#loc5587 = loc("add.12775")
#loc5588 = loc("rsqrt.12776")
#loc5589 = loc("reshape.12777")
#loc5590 = loc("broadcast.12778")
#loc5591 = loc("multiply.12779")
#loc5592 = loc("convert.12780")
#loc5593 = loc("multiply.12786")
#loc5594 = loc("transpose.12787")
#loc5595 = loc("multiply.12798")
#loc5596 = loc("slice.12789")
#loc5597 = loc("negate.12790")
#loc5598 = loc("slice.12788")
#loc5599 = loc("concatenate.12791")
#loc5600 = loc("multiply.12794")
#loc5601 = loc("add.12801")
#loc5603 = loc("reshape.12823")
#loc5604 = loc("reshape.12825")
#loc5605 = loc("transpose.12826")
#loc5606 = loc("dot.12828")
#loc5607 = loc("reshape.12830")
#loc5608 = loc("transpose.12831")
#loc5610 = loc("reshape.13177")
#loc5611 = loc("reshape.13179")
#loc5612 = loc("broadcast.13180")
#loc5613 = loc("reshape.13138")
#loc5614 = loc("reshape.13140")
#loc5615 = loc("broadcast.13141")
#loc5616 = loc("reshape.12960")
#loc5617 = loc("reshape.12962")
#loc5618 = loc("broadcast.12963")
#loc5619 = loc("reshape.12922")
#loc5620 = loc("reshape.12924")
#loc5621 = loc("transpose.12925")
#loc5622 = loc("dot.12927")
#loc5623 = loc("reshape.12929")
#loc5624 = loc("convert.12930")
#loc5625 = loc("power.12932")
#loc5626 = loc("reduce.12939")
#loc5627 = loc("multiply.12948")
#loc5628 = loc("reshape.12949")
#loc5629 = loc("add.12953")
#loc5630 = loc("rsqrt.12954")
#loc5631 = loc("reshape.12955")
#loc5632 = loc("broadcast.12956")
#loc5633 = loc("multiply.12957")
#loc5634 = loc("convert.12958")
#loc5635 = loc("multiply.12964")
#loc5636 = loc("transpose.12965")
#loc5637 = loc("multiply.12975")
#loc5638 = loc("slice.12967")
#loc5639 = loc("negate.12968")
#loc5640 = loc("slice.12966")
#loc5641 = loc("concatenate.12969")
#loc5642 = loc("multiply.12972")
#loc5643 = loc("add.12978")
#loc5644 = loc("convert.12979")
#loc5645 = loc("multiply.12981")
#loc5646 = loc("broadcast.12910")
#loc5647 = loc("reshape.12911")
#loc5648 = loc("convert.12912")
#loc5649 = loc("transpose.12913")
#loc5650 = loc("multiply.12915")
#loc5651 = loc("dot.12982")
#loc5652 = loc("add.12989")
#loc5653 = loc("convert.13015")
#loc5654 = loc("compare.13017")
#loc5655 = loc("not.13019")
#loc5657 = loc("or.13029")
#loc5658 = loc("select.13030")
#loc5659 = loc("reshape.13035")
#loc5660 = loc("not.13037")
#loc5661 = loc("reshape.13039")
#loc5662 = loc("broadcast.13040")
#loc5663 = loc("reduce.12995")
#loc5664 = loc("broadcast.12996")
#loc5665 = loc("subtract.12997")
#loc5666 = loc("exponential.12998")
#loc5667 = loc("reduce.13004")
#loc5668 = loc("broadcast.13005")
#loc5669 = loc("divide.13006")
#loc5670 = loc("select.13041")
#loc5671 = loc("broadcast.12888")
#loc5672 = loc("reshape.12889")
#loc5673 = loc("convert.12890")
#loc5674 = loc("dot.13042")
#loc5675 = loc("convert.13044")
#loc5676 = loc("transpose.13045")
#loc5677 = loc("reshape.13047")
#loc5678 = loc("reshape.12881")
#loc5679 = loc("reshape.12883")
#loc5680 = loc("transpose.12884")
#loc5682 = loc("reshape.13049")
#loc5683 = loc("add.13052")
#loc5684 = loc("reshape.13083")
#loc5685 = loc("reshape.13085")
#loc5686 = loc("broadcast.13086")
#loc5687 = loc("convert.13053")
#loc5688 = loc("power.13055")
#loc5689 = loc("reduce.13062")
#loc5690 = loc("multiply.13071")
#loc5691 = loc("reshape.13072")
#loc5692 = loc("add.13076")
#loc5693 = loc("rsqrt.13077")
#loc5694 = loc("reshape.13078")
#loc5695 = loc("broadcast.13079")
#loc5696 = loc("multiply.13080")
#loc5697 = loc("convert.13081")
#loc5698 = loc("multiply.13087")
#loc5699 = loc("reshape.13096")
#loc5700 = loc("reshape.13092")
#loc5701 = loc("reshape.13094")
#loc5702 = loc("transpose.13095")
#loc5703 = loc("dot.13097")
#loc5704 = loc("reshape.13098")
#loc5705 = loc("logistic.13099")
#loc5706 = loc("multiply.13100")
#loc5707 = loc("reshape.12872")
#loc5708 = loc("reshape.12874")
#loc5709 = loc("transpose.12875")
#loc5710 = loc("dot.13089")
#loc5711 = loc("reshape.13090")
#loc5712 = loc("multiply.13101")
#loc5713 = loc("reshape.13102")
#loc5714 = loc("reshape.12867")
#loc5715 = loc("reshape.12869")
#loc5716 = loc("transpose.12870")
#loc5718 = loc("reshape.13104")
#loc5719 = loc("add.13107")
#loc5720 = loc("convert.13108")
#loc5721 = loc("power.13110")
#loc5722 = loc("reduce.13117")
#loc5723 = loc("multiply.13126")
#loc5724 = loc("reshape.13127")
#loc5725 = loc("add.13131")
#loc5726 = loc("rsqrt.13132")
#loc5727 = loc("reshape.13133")
#loc5728 = loc("broadcast.13134")
#loc5729 = loc("multiply.13135")
#loc5730 = loc("convert.13136")
#loc5731 = loc("multiply.13142")
#loc5732 = loc("reshape.13143")
#loc5733 = loc("reshape.12858")
#loc5734 = loc("reshape.12860")
#loc5735 = loc("transpose.12861")
#loc5736 = loc("dot.13144")
#loc5737 = loc("reshape.13146")
#loc5738 = loc("convert.13147")
#loc5739 = loc("power.13149")
#loc5740 = loc("reduce.13156")
#loc5741 = loc("multiply.13165")
#loc5742 = loc("reshape.13166")
#loc5743 = loc("add.13170")
#loc5744 = loc("rsqrt.13171")
#loc5745 = loc("reshape.13172")
#loc5746 = loc("broadcast.13173")
#loc5747 = loc("multiply.13174")
#loc5748 = loc("convert.13175")
#loc5749 = loc("multiply.13181")
#loc5750 = loc("transpose.13182")
#loc5751 = loc("multiply.13193")
#loc5752 = loc("slice.13184")
#loc5753 = loc("negate.13185")
#loc5754 = loc("slice.13183")
#loc5755 = loc("concatenate.13186")
#loc5756 = loc("multiply.13189")
#loc5757 = loc("add.13196")
#loc5759 = loc("reshape.13218")
#loc5760 = loc("reshape.13220")
#loc5761 = loc("transpose.13221")
#loc5762 = loc("dot.13223")
#loc5763 = loc("reshape.13225")
#loc5764 = loc("transpose.13226")
#loc5766 = loc("reshape.13572")
#loc5767 = loc("reshape.13574")
#loc5768 = loc("broadcast.13575")
#loc5769 = loc("reshape.13533")
#loc5770 = loc("reshape.13535")
#loc5771 = loc("broadcast.13536")
#loc5772 = loc("reshape.13355")
#loc5773 = loc("reshape.13357")
#loc5774 = loc("broadcast.13358")
#loc5775 = loc("reshape.13317")
#loc5776 = loc("reshape.13319")
#loc5777 = loc("transpose.13320")
#loc5778 = loc("dot.13322")
#loc5779 = loc("reshape.13324")
#loc5780 = loc("convert.13325")
#loc5781 = loc("power.13327")
#loc5782 = loc("reduce.13334")
#loc5783 = loc("multiply.13343")
#loc5784 = loc("reshape.13344")
#loc5785 = loc("add.13348")
#loc5786 = loc("rsqrt.13349")
#loc5787 = loc("reshape.13350")
#loc5788 = loc("broadcast.13351")
#loc5789 = loc("multiply.13352")
#loc5790 = loc("convert.13353")
#loc5791 = loc("multiply.13359")
#loc5792 = loc("transpose.13360")
#loc5793 = loc("multiply.13370")
#loc5794 = loc("slice.13362")
#loc5795 = loc("negate.13363")
#loc5796 = loc("slice.13361")
#loc5797 = loc("concatenate.13364")
#loc5798 = loc("multiply.13367")
#loc5799 = loc("add.13373")
#loc5800 = loc("convert.13374")
#loc5801 = loc("multiply.13376")
#loc5802 = loc("broadcast.13305")
#loc5803 = loc("reshape.13306")
#loc5804 = loc("convert.13307")
#loc5805 = loc("transpose.13308")
#loc5806 = loc("multiply.13310")
#loc5807 = loc("dot.13377")
#loc5808 = loc("add.13384")
#loc5809 = loc("convert.13410")
#loc5810 = loc("compare.13412")
#loc5811 = loc("not.13414")
#loc5813 = loc("or.13424")
#loc5814 = loc("select.13425")
#loc5815 = loc("reshape.13430")
#loc5816 = loc("not.13432")
#loc5817 = loc("reshape.13434")
#loc5818 = loc("broadcast.13435")
#loc5819 = loc("reduce.13390")
#loc5820 = loc("broadcast.13391")
#loc5821 = loc("subtract.13392")
#loc5822 = loc("exponential.13393")
#loc5823 = loc("reduce.13399")
#loc5824 = loc("broadcast.13400")
#loc5825 = loc("divide.13401")
#loc5826 = loc("select.13436")
#loc5827 = loc("broadcast.13283")
#loc5828 = loc("reshape.13284")
#loc5829 = loc("convert.13285")
#loc5830 = loc("dot.13437")
#loc5831 = loc("convert.13439")
#loc5832 = loc("transpose.13440")
#loc5833 = loc("reshape.13442")
#loc5834 = loc("reshape.13276")
#loc5835 = loc("reshape.13278")
#loc5836 = loc("transpose.13279")
#loc5838 = loc("reshape.13444")
#loc5839 = loc("add.13447")
#loc5840 = loc("reshape.13478")
#loc5841 = loc("reshape.13480")
#loc5842 = loc("broadcast.13481")
#loc5843 = loc("convert.13448")
#loc5844 = loc("power.13450")
#loc5845 = loc("reduce.13457")
#loc5846 = loc("multiply.13466")
#loc5847 = loc("reshape.13467")
#loc5848 = loc("add.13471")
#loc5849 = loc("rsqrt.13472")
#loc5850 = loc("reshape.13473")
#loc5851 = loc("broadcast.13474")
#loc5852 = loc("multiply.13475")
#loc5853 = loc("convert.13476")
#loc5854 = loc("multiply.13482")
#loc5855 = loc("reshape.13491")
#loc5856 = loc("reshape.13487")
#loc5857 = loc("reshape.13489")
#loc5858 = loc("transpose.13490")
#loc5859 = loc("dot.13492")
#loc5860 = loc("reshape.13493")
#loc5861 = loc("logistic.13494")
#loc5862 = loc("multiply.13495")
#loc5863 = loc("reshape.13267")
#loc5864 = loc("reshape.13269")
#loc5865 = loc("transpose.13270")
#loc5866 = loc("dot.13484")
#loc5867 = loc("reshape.13485")
#loc5868 = loc("multiply.13496")
#loc5869 = loc("reshape.13497")
#loc5870 = loc("reshape.13262")
#loc5871 = loc("reshape.13264")
#loc5872 = loc("transpose.13265")
#loc5874 = loc("reshape.13499")
#loc5875 = loc("add.13502")
#loc5876 = loc("convert.13503")
#loc5877 = loc("power.13505")
#loc5878 = loc("reduce.13512")
#loc5879 = loc("multiply.13521")
#loc5880 = loc("reshape.13522")
#loc5881 = loc("add.13526")
#loc5882 = loc("rsqrt.13527")
#loc5883 = loc("reshape.13528")
#loc5884 = loc("broadcast.13529")
#loc5885 = loc("multiply.13530")
#loc5886 = loc("convert.13531")
#loc5887 = loc("multiply.13537")
#loc5888 = loc("reshape.13538")
#loc5889 = loc("reshape.13253")
#loc5890 = loc("reshape.13255")
#loc5891 = loc("transpose.13256")
#loc5892 = loc("dot.13539")
#loc5893 = loc("reshape.13541")
#loc5894 = loc("convert.13542")
#loc5895 = loc("power.13544")
#loc5896 = loc("reduce.13551")
#loc5897 = loc("multiply.13560")
#loc5898 = loc("reshape.13561")
#loc5899 = loc("add.13565")
#loc5900 = loc("rsqrt.13566")
#loc5901 = loc("reshape.13567")
#loc5902 = loc("broadcast.13568")
#loc5903 = loc("multiply.13569")
#loc5904 = loc("convert.13570")
#loc5905 = loc("multiply.13576")
#loc5906 = loc("transpose.13577")
#loc5907 = loc("multiply.13588")
#loc5908 = loc("slice.13579")
#loc5909 = loc("negate.13580")
#loc5910 = loc("slice.13578")
#loc5911 = loc("concatenate.13581")
#loc5912 = loc("multiply.13584")
#loc5913 = loc("add.13591")
#loc5915 = loc("reshape.13613")
#loc5916 = loc("reshape.13615")
#loc5917 = loc("transpose.13616")
#loc5918 = loc("dot.13618")
#loc5919 = loc("reshape.13620")
#loc5920 = loc("transpose.13621")
#loc5922 = loc("reshape.13967")
#loc5923 = loc("reshape.13969")
#loc5924 = loc("broadcast.13970")
#loc5925 = loc("reshape.13928")
#loc5926 = loc("reshape.13930")
#loc5927 = loc("broadcast.13931")
#loc5928 = loc("reshape.13750")
#loc5929 = loc("reshape.13752")
#loc5930 = loc("broadcast.13753")
#loc5931 = loc("reshape.13712")
#loc5932 = loc("reshape.13714")
#loc5933 = loc("transpose.13715")
#loc5934 = loc("dot.13717")
#loc5935 = loc("reshape.13719")
#loc5936 = loc("convert.13720")
#loc5937 = loc("power.13722")
#loc5938 = loc("reduce.13729")
#loc5939 = loc("multiply.13738")
#loc5940 = loc("reshape.13739")
#loc5941 = loc("add.13743")
#loc5942 = loc("rsqrt.13744")
#loc5943 = loc("reshape.13745")
#loc5944 = loc("broadcast.13746")
#loc5945 = loc("multiply.13747")
#loc5946 = loc("convert.13748")
#loc5947 = loc("multiply.13754")
#loc5948 = loc("transpose.13755")
#loc5949 = loc("multiply.13765")
#loc5950 = loc("slice.13757")
#loc5951 = loc("negate.13758")
#loc5952 = loc("slice.13756")
#loc5953 = loc("concatenate.13759")
#loc5954 = loc("multiply.13762")
#loc5955 = loc("add.13768")
#loc5956 = loc("convert.13769")
#loc5957 = loc("multiply.13771")
#loc5958 = loc("broadcast.13700")
#loc5959 = loc("reshape.13701")
#loc5960 = loc("convert.13702")
#loc5961 = loc("transpose.13703")
#loc5962 = loc("multiply.13705")
#loc5963 = loc("dot.13772")
#loc5964 = loc("add.13779")
#loc5965 = loc("convert.13805")
#loc5966 = loc("compare.13807")
#loc5967 = loc("not.13809")
#loc5969 = loc("or.13819")
#loc5970 = loc("select.13820")
#loc5971 = loc("reshape.13825")
#loc5972 = loc("not.13827")
#loc5973 = loc("reshape.13829")
#loc5974 = loc("broadcast.13830")
#loc5975 = loc("reduce.13785")
#loc5976 = loc("broadcast.13786")
#loc5977 = loc("subtract.13787")
#loc5978 = loc("exponential.13788")
#loc5979 = loc("reduce.13794")
#loc5980 = loc("broadcast.13795")
#loc5981 = loc("divide.13796")
#loc5982 = loc("select.13831")
#loc5983 = loc("broadcast.13678")
#loc5984 = loc("reshape.13679")
#loc5985 = loc("convert.13680")
#loc5986 = loc("dot.13832")
#loc5987 = loc("convert.13834")
#loc5988 = loc("transpose.13835")
#loc5989 = loc("reshape.13837")
#loc5990 = loc("reshape.13671")
#loc5991 = loc("reshape.13673")
#loc5992 = loc("transpose.13674")
#loc5994 = loc("reshape.13839")
#loc5995 = loc("add.13842")
#loc5996 = loc("reshape.13873")
#loc5997 = loc("reshape.13875")
#loc5998 = loc("broadcast.13876")
#loc5999 = loc("convert.13843")
#loc6000 = loc("power.13845")
#loc6001 = loc("reduce.13852")
#loc6002 = loc("multiply.13861")
#loc6003 = loc("reshape.13862")
#loc6004 = loc("add.13866")
#loc6005 = loc("rsqrt.13867")
#loc6006 = loc("reshape.13868")
#loc6007 = loc("broadcast.13869")
#loc6008 = loc("multiply.13870")
#loc6009 = loc("convert.13871")
#loc6010 = loc("multiply.13877")
#loc6011 = loc("reshape.13886")
#loc6012 = loc("reshape.13882")
#loc6013 = loc("reshape.13884")
#loc6014 = loc("transpose.13885")
#loc6015 = loc("dot.13887")
#loc6016 = loc("reshape.13888")
#loc6017 = loc("logistic.13889")
#loc6018 = loc("multiply.13890")
#loc6019 = loc("reshape.13662")
#loc6020 = loc("reshape.13664")
#loc6021 = loc("transpose.13665")
#loc6022 = loc("dot.13879")
#loc6023 = loc("reshape.13880")
#loc6024 = loc("multiply.13891")
#loc6025 = loc("reshape.13892")
#loc6026 = loc("reshape.13657")
#loc6027 = loc("reshape.13659")
#loc6028 = loc("transpose.13660")
#loc6030 = loc("reshape.13894")
#loc6031 = loc("add.13897")
#loc6032 = loc("convert.13898")
#loc6033 = loc("power.13900")
#loc6034 = loc("reduce.13907")
#loc6035 = loc("multiply.13916")
#loc6036 = loc("reshape.13917")
#loc6037 = loc("add.13921")
#loc6038 = loc("rsqrt.13922")
#loc6039 = loc("reshape.13923")
#loc6040 = loc("broadcast.13924")
#loc6041 = loc("multiply.13925")
#loc6042 = loc("convert.13926")
#loc6043 = loc("multiply.13932")
#loc6044 = loc("reshape.13933")
#loc6045 = loc("reshape.13648")
#loc6046 = loc("reshape.13650")
#loc6047 = loc("transpose.13651")
#loc6048 = loc("dot.13934")
#loc6049 = loc("reshape.13936")
#loc6050 = loc("convert.13937")
#loc6051 = loc("power.13939")
#loc6052 = loc("reduce.13946")
#loc6053 = loc("multiply.13955")
#loc6054 = loc("reshape.13956")
#loc6055 = loc("add.13960")
#loc6056 = loc("rsqrt.13961")
#loc6057 = loc("reshape.13962")
#loc6058 = loc("broadcast.13963")
#loc6059 = loc("multiply.13964")
#loc6060 = loc("convert.13965")
#loc6061 = loc("multiply.13971")
#loc6062 = loc("transpose.13972")
#loc6063 = loc("multiply.13983")
#loc6064 = loc("slice.13974")
#loc6065 = loc("negate.13975")
#loc6066 = loc("slice.13973")
#loc6067 = loc("concatenate.13976")
#loc6068 = loc("multiply.13979")
#loc6069 = loc("add.13986")
#loc6071 = loc("reshape.14008")
#loc6072 = loc("reshape.14010")
#loc6073 = loc("transpose.14011")
#loc6074 = loc("dot.14013")
#loc6075 = loc("reshape.14015")
#loc6076 = loc("transpose.14016")
#loc6078 = loc("reshape.14362")
#loc6079 = loc("reshape.14364")
#loc6080 = loc("broadcast.14365")
#loc6081 = loc("reshape.14323")
#loc6082 = loc("reshape.14325")
#loc6083 = loc("broadcast.14326")
#loc6084 = loc("reshape.14145")
#loc6085 = loc("reshape.14147")
#loc6086 = loc("broadcast.14148")
#loc6087 = loc("reshape.14107")
#loc6088 = loc("reshape.14109")
#loc6089 = loc("transpose.14110")
#loc6090 = loc("dot.14112")
#loc6091 = loc("reshape.14114")
#loc6092 = loc("convert.14115")
#loc6093 = loc("power.14117")
#loc6094 = loc("reduce.14124")
#loc6095 = loc("multiply.14133")
#loc6096 = loc("reshape.14134")
#loc6097 = loc("add.14138")
#loc6098 = loc("rsqrt.14139")
#loc6099 = loc("reshape.14140")
#loc6100 = loc("broadcast.14141")
#loc6101 = loc("multiply.14142")
#loc6102 = loc("convert.14143")
#loc6103 = loc("multiply.14149")
#loc6104 = loc("transpose.14150")
#loc6105 = loc("multiply.14160")
#loc6106 = loc("slice.14152")
#loc6107 = loc("negate.14153")
#loc6108 = loc("slice.14151")
#loc6109 = loc("concatenate.14154")
#loc6110 = loc("multiply.14157")
#loc6111 = loc("add.14163")
#loc6112 = loc("convert.14164")
#loc6113 = loc("multiply.14166")
#loc6114 = loc("broadcast.14095")
#loc6115 = loc("reshape.14096")
#loc6116 = loc("convert.14097")
#loc6117 = loc("transpose.14098")
#loc6118 = loc("multiply.14100")
#loc6119 = loc("dot.14167")
#loc6120 = loc("add.14174")
#loc6121 = loc("convert.14200")
#loc6122 = loc("compare.14202")
#loc6123 = loc("not.14204")
#loc6125 = loc("or.14214")
#loc6126 = loc("select.14215")
#loc6127 = loc("reshape.14220")
#loc6128 = loc("not.14222")
#loc6129 = loc("reshape.14224")
#loc6130 = loc("broadcast.14225")
#loc6131 = loc("reduce.14180")
#loc6132 = loc("broadcast.14181")
#loc6133 = loc("subtract.14182")
#loc6134 = loc("exponential.14183")
#loc6135 = loc("reduce.14189")
#loc6136 = loc("broadcast.14190")
#loc6137 = loc("divide.14191")
#loc6138 = loc("select.14226")
#loc6139 = loc("broadcast.14073")
#loc6140 = loc("reshape.14074")
#loc6141 = loc("convert.14075")
#loc6142 = loc("dot.14227")
#loc6143 = loc("convert.14229")
#loc6144 = loc("transpose.14230")
#loc6145 = loc("reshape.14232")
#loc6146 = loc("reshape.14066")
#loc6147 = loc("reshape.14068")
#loc6148 = loc("transpose.14069")
#loc6150 = loc("reshape.14234")
#loc6151 = loc("add.14237")
#loc6152 = loc("reshape.14268")
#loc6153 = loc("reshape.14270")
#loc6154 = loc("broadcast.14271")
#loc6155 = loc("convert.14238")
#loc6156 = loc("power.14240")
#loc6157 = loc("reduce.14247")
#loc6158 = loc("multiply.14256")
#loc6159 = loc("reshape.14257")
#loc6160 = loc("add.14261")
#loc6161 = loc("rsqrt.14262")
#loc6162 = loc("reshape.14263")
#loc6163 = loc("broadcast.14264")
#loc6164 = loc("multiply.14265")
#loc6165 = loc("convert.14266")
#loc6166 = loc("multiply.14272")
#loc6167 = loc("reshape.14281")
#loc6168 = loc("reshape.14277")
#loc6169 = loc("reshape.14279")
#loc6170 = loc("transpose.14280")
#loc6171 = loc("dot.14282")
#loc6172 = loc("reshape.14283")
#loc6173 = loc("logistic.14284")
#loc6174 = loc("multiply.14285")
#loc6175 = loc("reshape.14057")
#loc6176 = loc("reshape.14059")
#loc6177 = loc("transpose.14060")
#loc6178 = loc("dot.14274")
#loc6179 = loc("reshape.14275")
#loc6180 = loc("multiply.14286")
#loc6181 = loc("reshape.14287")
#loc6182 = loc("reshape.14052")
#loc6183 = loc("reshape.14054")
#loc6184 = loc("transpose.14055")
#loc6186 = loc("reshape.14289")
#loc6187 = loc("add.14292")
#loc6188 = loc("convert.14293")
#loc6189 = loc("power.14295")
#loc6190 = loc("reduce.14302")
#loc6191 = loc("multiply.14311")
#loc6192 = loc("reshape.14312")
#loc6193 = loc("add.14316")
#loc6194 = loc("rsqrt.14317")
#loc6195 = loc("reshape.14318")
#loc6196 = loc("broadcast.14319")
#loc6197 = loc("multiply.14320")
#loc6198 = loc("convert.14321")
#loc6199 = loc("multiply.14327")
#loc6200 = loc("reshape.14328")
#loc6201 = loc("reshape.14043")
#loc6202 = loc("reshape.14045")
#loc6203 = loc("transpose.14046")
#loc6204 = loc("dot.14329")
#loc6205 = loc("reshape.14331")
#loc6206 = loc("convert.14332")
#loc6207 = loc("power.14334")
#loc6208 = loc("reduce.14341")
#loc6209 = loc("multiply.14350")
#loc6210 = loc("reshape.14351")
#loc6211 = loc("add.14355")
#loc6212 = loc("rsqrt.14356")
#loc6213 = loc("reshape.14357")
#loc6214 = loc("broadcast.14358")
#loc6215 = loc("multiply.14359")
#loc6216 = loc("convert.14360")
#loc6217 = loc("multiply.14366")
#loc6218 = loc("transpose.14367")
#loc6219 = loc("multiply.14378")
#loc6220 = loc("slice.14369")
#loc6221 = loc("negate.14370")
#loc6222 = loc("slice.14368")
#loc6223 = loc("concatenate.14371")
#loc6224 = loc("multiply.14374")
#loc6225 = loc("add.14381")
#loc6227 = loc("reshape.14403")
#loc6228 = loc("reshape.14405")
#loc6229 = loc("transpose.14406")
#loc6230 = loc("dot.14408")
#loc6231 = loc("reshape.14410")
#loc6232 = loc("transpose.14411")
#loc6234 = loc("reshape.14757")
#loc6235 = loc("reshape.14759")
#loc6236 = loc("broadcast.14760")
#loc6237 = loc("reshape.14718")
#loc6238 = loc("reshape.14720")
#loc6239 = loc("broadcast.14721")
#loc6240 = loc("reshape.14540")
#loc6241 = loc("reshape.14542")
#loc6242 = loc("broadcast.14543")
#loc6243 = loc("reshape.14502")
#loc6244 = loc("reshape.14504")
#loc6245 = loc("transpose.14505")
#loc6246 = loc("dot.14507")
#loc6247 = loc("reshape.14509")
#loc6248 = loc("convert.14510")
#loc6249 = loc("power.14512")
#loc6250 = loc("reduce.14519")
#loc6251 = loc("multiply.14528")
#loc6252 = loc("reshape.14529")
#loc6253 = loc("add.14533")
#loc6254 = loc("rsqrt.14534")
#loc6255 = loc("reshape.14535")
#loc6256 = loc("broadcast.14536")
#loc6257 = loc("multiply.14537")
#loc6258 = loc("convert.14538")
#loc6259 = loc("multiply.14544")
#loc6260 = loc("transpose.14545")
#loc6261 = loc("multiply.14555")
#loc6262 = loc("slice.14547")
#loc6263 = loc("negate.14548")
#loc6264 = loc("slice.14546")
#loc6265 = loc("concatenate.14549")
#loc6266 = loc("multiply.14552")
#loc6267 = loc("add.14558")
#loc6268 = loc("convert.14559")
#loc6269 = loc("multiply.14561")
#loc6270 = loc("broadcast.14490")
#loc6271 = loc("reshape.14491")
#loc6272 = loc("convert.14492")
#loc6273 = loc("transpose.14493")
#loc6274 = loc("multiply.14495")
#loc6275 = loc("dot.14562")
#loc6276 = loc("add.14569")
#loc6277 = loc("convert.14595")
#loc6278 = loc("compare.14597")
#loc6279 = loc("not.14599")
#loc6281 = loc("or.14609")
#loc6282 = loc("select.14610")
#loc6283 = loc("reshape.14615")
#loc6284 = loc("not.14617")
#loc6285 = loc("reshape.14619")
#loc6286 = loc("broadcast.14620")
#loc6287 = loc("reduce.14575")
#loc6288 = loc("broadcast.14576")
#loc6289 = loc("subtract.14577")
#loc6290 = loc("exponential.14578")
#loc6291 = loc("reduce.14584")
#loc6292 = loc("broadcast.14585")
#loc6293 = loc("divide.14586")
#loc6294 = loc("select.14621")
#loc6295 = loc("broadcast.14468")
#loc6296 = loc("reshape.14469")
#loc6297 = loc("convert.14470")
#loc6298 = loc("dot.14622")
#loc6299 = loc("convert.14624")
#loc6300 = loc("transpose.14625")
#loc6301 = loc("reshape.14627")
#loc6302 = loc("reshape.14461")
#loc6303 = loc("reshape.14463")
#loc6304 = loc("transpose.14464")
#loc6306 = loc("reshape.14629")
#loc6307 = loc("add.14632")
#loc6308 = loc("reshape.14663")
#loc6309 = loc("reshape.14665")
#loc6310 = loc("broadcast.14666")
#loc6311 = loc("convert.14633")
#loc6312 = loc("power.14635")
#loc6313 = loc("reduce.14642")
#loc6314 = loc("multiply.14651")
#loc6315 = loc("reshape.14652")
#loc6316 = loc("add.14656")
#loc6317 = loc("rsqrt.14657")
#loc6318 = loc("reshape.14658")
#loc6319 = loc("broadcast.14659")
#loc6320 = loc("multiply.14660")
#loc6321 = loc("convert.14661")
#loc6322 = loc("multiply.14667")
#loc6323 = loc("reshape.14676")
#loc6324 = loc("reshape.14672")
#loc6325 = loc("reshape.14674")
#loc6326 = loc("transpose.14675")
#loc6327 = loc("dot.14677")
#loc6328 = loc("reshape.14678")
#loc6329 = loc("logistic.14679")
#loc6330 = loc("multiply.14680")
#loc6331 = loc("reshape.14452")
#loc6332 = loc("reshape.14454")
#loc6333 = loc("transpose.14455")
#loc6334 = loc("dot.14669")
#loc6335 = loc("reshape.14670")
#loc6336 = loc("multiply.14681")
#loc6337 = loc("reshape.14682")
#loc6338 = loc("reshape.14447")
#loc6339 = loc("reshape.14449")
#loc6340 = loc("transpose.14450")
#loc6342 = loc("reshape.14684")
#loc6343 = loc("add.14687")
#loc6344 = loc("convert.14688")
#loc6345 = loc("power.14690")
#loc6346 = loc("reduce.14697")
#loc6347 = loc("multiply.14706")
#loc6348 = loc("reshape.14707")
#loc6349 = loc("add.14711")
#loc6350 = loc("rsqrt.14712")
#loc6351 = loc("reshape.14713")
#loc6352 = loc("broadcast.14714")
#loc6353 = loc("multiply.14715")
#loc6354 = loc("convert.14716")
#loc6355 = loc("multiply.14722")
#loc6356 = loc("reshape.14723")
#loc6357 = loc("reshape.14438")
#loc6358 = loc("reshape.14440")
#loc6359 = loc("transpose.14441")
#loc6360 = loc("dot.14724")
#loc6361 = loc("reshape.14726")
#loc6362 = loc("convert.14727")
#loc6363 = loc("power.14729")
#loc6364 = loc("reduce.14736")
#loc6365 = loc("multiply.14745")
#loc6366 = loc("reshape.14746")
#loc6367 = loc("add.14750")
#loc6368 = loc("rsqrt.14751")
#loc6369 = loc("reshape.14752")
#loc6370 = loc("broadcast.14753")
#loc6371 = loc("multiply.14754")
#loc6372 = loc("convert.14755")
#loc6373 = loc("multiply.14761")
#loc6374 = loc("transpose.14762")
#loc6375 = loc("multiply.14773")
#loc6376 = loc("slice.14764")
#loc6377 = loc("negate.14765")
#loc6378 = loc("slice.14763")
#loc6379 = loc("concatenate.14766")
#loc6380 = loc("multiply.14769")
#loc6381 = loc("add.14776")
#loc6383 = loc("reshape.14798")
#loc6384 = loc("reshape.14800")
#loc6385 = loc("transpose.14801")
#loc6386 = loc("dot.14803")
#loc6387 = loc("reshape.14805")
#loc6388 = loc("transpose.14806")
#loc6390 = loc("reshape.15152")
#loc6391 = loc("reshape.15154")
#loc6392 = loc("broadcast.15155")
#loc6393 = loc("reshape.15113")
#loc6394 = loc("reshape.15115")
#loc6395 = loc("broadcast.15116")
#loc6396 = loc("reshape.14935")
#loc6397 = loc("reshape.14937")
#loc6398 = loc("broadcast.14938")
#loc6399 = loc("reshape.14897")
#loc6400 = loc("reshape.14899")
#loc6401 = loc("transpose.14900")
#loc6402 = loc("dot.14902")
#loc6403 = loc("reshape.14904")
#loc6404 = loc("convert.14905")
#loc6405 = loc("power.14907")
#loc6406 = loc("reduce.14914")
#loc6407 = loc("multiply.14923")
#loc6408 = loc("reshape.14924")
#loc6409 = loc("add.14928")
#loc6410 = loc("rsqrt.14929")
#loc6411 = loc("reshape.14930")
#loc6412 = loc("broadcast.14931")
#loc6413 = loc("multiply.14932")
#loc6414 = loc("convert.14933")
#loc6415 = loc("multiply.14939")
#loc6416 = loc("transpose.14940")
#loc6417 = loc("multiply.14950")
#loc6418 = loc("slice.14942")
#loc6419 = loc("negate.14943")
#loc6420 = loc("slice.14941")
#loc6421 = loc("concatenate.14944")
#loc6422 = loc("multiply.14947")
#loc6423 = loc("add.14953")
#loc6424 = loc("convert.14954")
#loc6425 = loc("multiply.14956")
#loc6426 = loc("broadcast.14885")
#loc6427 = loc("reshape.14886")
#loc6428 = loc("convert.14887")
#loc6429 = loc("transpose.14888")
#loc6430 = loc("multiply.14890")
#loc6431 = loc("dot.14957")
#loc6432 = loc("add.14964")
#loc6433 = loc("convert.14990")
#loc6434 = loc("compare.14992")
#loc6435 = loc("not.14994")
#loc6437 = loc("or.15004")
#loc6438 = loc("select.15005")
#loc6439 = loc("reshape.15010")
#loc6440 = loc("not.15012")
#loc6441 = loc("reshape.15014")
#loc6442 = loc("broadcast.15015")
#loc6443 = loc("reduce.14970")
#loc6444 = loc("broadcast.14971")
#loc6445 = loc("subtract.14972")
#loc6446 = loc("exponential.14973")
#loc6447 = loc("reduce.14979")
#loc6448 = loc("broadcast.14980")
#loc6449 = loc("divide.14981")
#loc6450 = loc("select.15016")
#loc6451 = loc("broadcast.14863")
#loc6452 = loc("reshape.14864")
#loc6453 = loc("convert.14865")
#loc6454 = loc("dot.15017")
#loc6455 = loc("convert.15019")
#loc6456 = loc("transpose.15020")
#loc6457 = loc("reshape.15022")
#loc6458 = loc("reshape.14856")
#loc6459 = loc("reshape.14858")
#loc6460 = loc("transpose.14859")
#loc6462 = loc("reshape.15024")
#loc6463 = loc("add.15027")
#loc6464 = loc("reshape.15058")
#loc6465 = loc("reshape.15060")
#loc6466 = loc("broadcast.15061")
#loc6467 = loc("convert.15028")
#loc6468 = loc("power.15030")
#loc6469 = loc("reduce.15037")
#loc6470 = loc("multiply.15046")
#loc6471 = loc("reshape.15047")
#loc6472 = loc("add.15051")
#loc6473 = loc("rsqrt.15052")
#loc6474 = loc("reshape.15053")
#loc6475 = loc("broadcast.15054")
#loc6476 = loc("multiply.15055")
#loc6477 = loc("convert.15056")
#loc6478 = loc("multiply.15062")
#loc6479 = loc("reshape.15071")
#loc6480 = loc("reshape.15067")
#loc6481 = loc("reshape.15069")
#loc6482 = loc("transpose.15070")
#loc6483 = loc("dot.15072")
#loc6484 = loc("reshape.15073")
#loc6485 = loc("logistic.15074")
#loc6486 = loc("multiply.15075")
#loc6487 = loc("reshape.14847")
#loc6488 = loc("reshape.14849")
#loc6489 = loc("transpose.14850")
#loc6490 = loc("dot.15064")
#loc6491 = loc("reshape.15065")
#loc6492 = loc("multiply.15076")
#loc6493 = loc("reshape.15077")
#loc6494 = loc("reshape.14842")
#loc6495 = loc("reshape.14844")
#loc6496 = loc("transpose.14845")
#loc6498 = loc("reshape.15079")
#loc6499 = loc("add.15082")
#loc6500 = loc("convert.15083")
#loc6501 = loc("power.15085")
#loc6502 = loc("reduce.15092")
#loc6503 = loc("multiply.15101")
#loc6504 = loc("reshape.15102")
#loc6505 = loc("add.15106")
#loc6506 = loc("rsqrt.15107")
#loc6507 = loc("reshape.15108")
#loc6508 = loc("broadcast.15109")
#loc6509 = loc("multiply.15110")
#loc6510 = loc("convert.15111")
#loc6511 = loc("multiply.15117")
#loc6512 = loc("reshape.15118")
#loc6513 = loc("reshape.14833")
#loc6514 = loc("reshape.14835")
#loc6515 = loc("transpose.14836")
#loc6516 = loc("dot.15119")
#loc6517 = loc("reshape.15121")
#loc6518 = loc("convert.15122")
#loc6519 = loc("power.15124")
#loc6520 = loc("reduce.15131")
#loc6521 = loc("multiply.15140")
#loc6522 = loc("reshape.15141")
#loc6523 = loc("add.15145")
#loc6524 = loc("rsqrt.15146")
#loc6525 = loc("reshape.15147")
#loc6526 = loc("broadcast.15148")
#loc6527 = loc("multiply.15149")
#loc6528 = loc("convert.15150")
#loc6529 = loc("multiply.15156")
#loc6530 = loc("transpose.15157")
#loc6531 = loc("multiply.15168")
#loc6532 = loc("slice.15159")
#loc6533 = loc("negate.15160")
#loc6534 = loc("slice.15158")
#loc6535 = loc("concatenate.15161")
#loc6536 = loc("multiply.15164")
#loc6537 = loc("add.15171")
#loc6539 = loc("reshape.15193")
#loc6540 = loc("reshape.15195")
#loc6541 = loc("transpose.15196")
#loc6542 = loc("dot.15198")
#loc6543 = loc("reshape.15200")
#loc6544 = loc("transpose.15201")
#loc6546 = loc("reshape.15547")
#loc6547 = loc("reshape.15549")
#loc6548 = loc("broadcast.15550")
#loc6549 = loc("reshape.15508")
#loc6550 = loc("reshape.15510")
#loc6551 = loc("broadcast.15511")
#loc6552 = loc("reshape.15330")
#loc6553 = loc("reshape.15332")
#loc6554 = loc("broadcast.15333")
#loc6555 = loc("reshape.15292")
#loc6556 = loc("reshape.15294")
#loc6557 = loc("transpose.15295")
#loc6558 = loc("dot.15297")
#loc6559 = loc("reshape.15299")
#loc6560 = loc("convert.15300")
#loc6561 = loc("power.15302")
#loc6562 = loc("reduce.15309")
#loc6563 = loc("multiply.15318")
#loc6564 = loc("reshape.15319")
#loc6565 = loc("add.15323")
#loc6566 = loc("rsqrt.15324")
#loc6567 = loc("reshape.15325")
#loc6568 = loc("broadcast.15326")
#loc6569 = loc("multiply.15327")
#loc6570 = loc("convert.15328")
#loc6571 = loc("multiply.15334")
#loc6572 = loc("transpose.15335")
#loc6573 = loc("multiply.15345")
#loc6574 = loc("slice.15337")
#loc6575 = loc("negate.15338")
#loc6576 = loc("slice.15336")
#loc6577 = loc("concatenate.15339")
#loc6578 = loc("multiply.15342")
#loc6579 = loc("add.15348")
#loc6580 = loc("convert.15349")
#loc6581 = loc("multiply.15351")
#loc6582 = loc("broadcast.15280")
#loc6583 = loc("reshape.15281")
#loc6584 = loc("convert.15282")
#loc6585 = loc("transpose.15283")
#loc6586 = loc("multiply.15285")
#loc6587 = loc("dot.15352")
#loc6588 = loc("add.15359")
#loc6589 = loc("convert.15385")
#loc6590 = loc("compare.15387")
#loc6591 = loc("not.15389")
#loc6593 = loc("or.15399")
#loc6594 = loc("select.15400")
#loc6595 = loc("reshape.15405")
#loc6596 = loc("not.15407")
#loc6597 = loc("reshape.15409")
#loc6598 = loc("broadcast.15410")
#loc6599 = loc("reduce.15365")
#loc6600 = loc("broadcast.15366")
#loc6601 = loc("subtract.15367")
#loc6602 = loc("exponential.15368")
#loc6603 = loc("reduce.15374")
#loc6604 = loc("broadcast.15375")
#loc6605 = loc("divide.15376")
#loc6606 = loc("select.15411")
#loc6607 = loc("broadcast.15258")
#loc6608 = loc("reshape.15259")
#loc6609 = loc("convert.15260")
#loc6610 = loc("dot.15412")
#loc6611 = loc("convert.15414")
#loc6612 = loc("transpose.15415")
#loc6613 = loc("reshape.15417")
#loc6614 = loc("reshape.15251")
#loc6615 = loc("reshape.15253")
#loc6616 = loc("transpose.15254")
#loc6618 = loc("reshape.15419")
#loc6619 = loc("add.15422")
#loc6620 = loc("reshape.15453")
#loc6621 = loc("reshape.15455")
#loc6622 = loc("broadcast.15456")
#loc6623 = loc("convert.15423")
#loc6624 = loc("power.15425")
#loc6625 = loc("reduce.15432")
#loc6626 = loc("multiply.15441")
#loc6627 = loc("reshape.15442")
#loc6628 = loc("add.15446")
#loc6629 = loc("rsqrt.15447")
#loc6630 = loc("reshape.15448")
#loc6631 = loc("broadcast.15449")
#loc6632 = loc("multiply.15450")
#loc6633 = loc("convert.15451")
#loc6634 = loc("multiply.15457")
#loc6635 = loc("reshape.15466")
#loc6636 = loc("reshape.15462")
#loc6637 = loc("reshape.15464")
#loc6638 = loc("transpose.15465")
#loc6639 = loc("dot.15467")
#loc6640 = loc("reshape.15468")
#loc6641 = loc("logistic.15469")
#loc6642 = loc("multiply.15470")
#loc6643 = loc("reshape.15242")
#loc6644 = loc("reshape.15244")
#loc6645 = loc("transpose.15245")
#loc6646 = loc("dot.15459")
#loc6647 = loc("reshape.15460")
#loc6648 = loc("multiply.15471")
#loc6649 = loc("reshape.15472")
#loc6650 = loc("reshape.15237")
#loc6651 = loc("reshape.15239")
#loc6652 = loc("transpose.15240")
#loc6654 = loc("reshape.15474")
#loc6655 = loc("add.15477")
#loc6656 = loc("convert.15478")
#loc6657 = loc("power.15480")
#loc6658 = loc("reduce.15487")
#loc6659 = loc("multiply.15496")
#loc6660 = loc("reshape.15497")
#loc6661 = loc("add.15501")
#loc6662 = loc("rsqrt.15502")
#loc6663 = loc("reshape.15503")
#loc6664 = loc("broadcast.15504")
#loc6665 = loc("multiply.15505")
#loc6666 = loc("convert.15506")
#loc6667 = loc("multiply.15512")
#loc6668 = loc("reshape.15513")
#loc6669 = loc("reshape.15228")
#loc6670 = loc("reshape.15230")
#loc6671 = loc("transpose.15231")
#loc6672 = loc("dot.15514")
#loc6673 = loc("reshape.15516")
#loc6674 = loc("convert.15517")
#loc6675 = loc("power.15519")
#loc6676 = loc("reduce.15526")
#loc6677 = loc("multiply.15535")
#loc6678 = loc("reshape.15536")
#loc6679 = loc("add.15540")
#loc6680 = loc("rsqrt.15541")
#loc6681 = loc("reshape.15542")
#loc6682 = loc("broadcast.15543")
#loc6683 = loc("multiply.15544")
#loc6684 = loc("convert.15545")
#loc6685 = loc("multiply.15551")
#loc6686 = loc("transpose.15552")
#loc6687 = loc("multiply.15563")
#loc6688 = loc("slice.15554")
#loc6689 = loc("negate.15555")
#loc6690 = loc("slice.15553")
#loc6691 = loc("concatenate.15556")
#loc6692 = loc("multiply.15559")
#loc6693 = loc("add.15566")
#loc6695 = loc("reshape.15588")
#loc6696 = loc("reshape.15590")
#loc6697 = loc("transpose.15591")
#loc6698 = loc("dot.15593")
#loc6699 = loc("reshape.15595")
#loc6700 = loc("transpose.15596")
#loc6702 = loc("reshape.15898")
#loc6703 = loc("reshape.15900")
#loc6704 = loc("broadcast.15901")
#loc6705 = loc("reshape.15720")
#loc6706 = loc("reshape.15722")
#loc6707 = loc("broadcast.15723")
#loc6708 = loc("reshape.15682")
#loc6709 = loc("reshape.15684")
#loc6710 = loc("transpose.15685")
#loc6711 = loc("dot.15687")
#loc6712 = loc("reshape.15689")
#loc6713 = loc("convert.15690")
#loc6714 = loc("power.15692")
#loc6715 = loc("reduce.15699")
#loc6716 = loc("multiply.15708")
#loc6717 = loc("reshape.15709")
#loc6718 = loc("add.15713")
#loc6719 = loc("rsqrt.15714")
#loc6720 = loc("reshape.15715")
#loc6721 = loc("broadcast.15716")
#loc6722 = loc("multiply.15717")
#loc6723 = loc("convert.15718")
#loc6724 = loc("multiply.15724")
#loc6725 = loc("transpose.15725")
#loc6726 = loc("multiply.15735")
#loc6727 = loc("slice.15727")
#loc6728 = loc("negate.15728")
#loc6729 = loc("slice.15726")
#loc6730 = loc("concatenate.15729")
#loc6731 = loc("multiply.15732")
#loc6732 = loc("add.15738")
#loc6733 = loc("convert.15739")
#loc6734 = loc("multiply.15741")
#loc6735 = loc("broadcast.15670")
#loc6736 = loc("reshape.15671")
#loc6737 = loc("convert.15672")
#loc6738 = loc("transpose.15673")
#loc6739 = loc("multiply.15675")
#loc6740 = loc("dot.15742")
#loc6741 = loc("add.15749")
#loc6742 = loc("convert.15775")
#loc6743 = loc("compare.15777")
#loc6744 = loc("not.15779")
#loc6746 = loc("or.15789")
#loc6747 = loc("select.15790")
#loc6748 = loc("reshape.15795")
#loc6749 = loc("not.15797")
#loc6750 = loc("reshape.15799")
#loc6751 = loc("broadcast.15800")
#loc6752 = loc("reduce.15755")
#loc6753 = loc("broadcast.15756")
#loc6754 = loc("subtract.15757")
#loc6755 = loc("exponential.15758")
#loc6756 = loc("reduce.15764")
#loc6757 = loc("broadcast.15765")
#loc6758 = loc("divide.15766")
#loc6759 = loc("select.15801")
#loc6760 = loc("broadcast.15648")
#loc6761 = loc("reshape.15649")
#loc6762 = loc("convert.15650")
#loc6763 = loc("dot.15802")
#loc6764 = loc("convert.15804")
#loc6765 = loc("transpose.15805")
#loc6766 = loc("reshape.15807")
#loc6767 = loc("reshape.15641")
#loc6768 = loc("reshape.15643")
#loc6769 = loc("transpose.15644")
#loc6771 = loc("reshape.15809")
#loc6772 = loc("add.15812")
#loc6773 = loc("reshape.15843")
#loc6774 = loc("reshape.15845")
#loc6775 = loc("broadcast.15846")
#loc6776 = loc("convert.15813")
#loc6777 = loc("power.15815")
#loc6778 = loc("reduce.15822")
#loc6779 = loc("multiply.15831")
#loc6780 = loc("reshape.15832")
#loc6781 = loc("add.15836")
#loc6782 = loc("rsqrt.15837")
#loc6783 = loc("reshape.15838")
#loc6784 = loc("broadcast.15839")
#loc6785 = loc("multiply.15840")
#loc6786 = loc("convert.15841")
#loc6787 = loc("multiply.15847")
#loc6788 = loc("reshape.15856")
#loc6789 = loc("reshape.15852")
#loc6790 = loc("reshape.15854")
#loc6791 = loc("transpose.15855")
#loc6792 = loc("dot.15857")
#loc6793 = loc("reshape.15858")
#loc6794 = loc("logistic.15859")
#loc6795 = loc("multiply.15860")
#loc6796 = loc("reshape.15632")
#loc6797 = loc("reshape.15634")
#loc6798 = loc("transpose.15635")
#loc6799 = loc("dot.15849")
#loc6800 = loc("reshape.15850")
#loc6801 = loc("multiply.15861")
#loc6802 = loc("reshape.15862")
#loc6803 = loc("reshape.15627")
#loc6804 = loc("reshape.15629")
#loc6805 = loc("transpose.15630")
#loc6807 = loc("reshape.15864")
#loc6808 = loc("add.15867")
#loc6809 = loc("convert.15868")
#loc6810 = loc("power.15870")
#loc6811 = loc("reduce.15877")
#loc6812 = loc("multiply.15886")
#loc6813 = loc("reshape.15887")
#loc6814 = loc("add.15891")
#loc6815 = loc("rsqrt.15892")
#loc6816 = loc("reshape.15893")
#loc6817 = loc("broadcast.15894")
#loc6818 = loc("multiply.15895")
#loc6819 = loc("convert.15896")
#loc6820 = loc("multiply.15902")
#loc6821 = loc("reshape.15903")
#loc6822 = loc("reshape.15618")
#loc6823 = loc("reshape.15620")
#loc6824 = loc("transpose.15621")
#loc6825 = loc("dot.15904")
#loc6826 = loc("reshape.15905")
------------------ END OF MLIR MODULE ------------------
